kd_results/KD-cifar100-ResNet10_s-27-04_2109_KD0.9_CE_PTcheckpoint.pth.tar (torch, 716297 bytes, 100 tensors)

conv1.weight f4 [8, 3, 3, 3]
-0.13914141 -0.03333398 -0.06719127 -0.031151485 1.0120866 -0.11247687 -0.028877418 0.07108637
0.0071502496 -0.12878495 -0.22432755 -0.16323179 -0.07070496 1.3356451 -0.2264754 0.022717604
-0.4721656 -0.039778784 -0.11211304 -0.13827705 -0.03600192 -0.14428374 0.7411572 0.051969957
-0.010868085 -0.23856439 0.15948017 0.47598666 1.6545665 0.2861174 -0.47411883 -1.0609006
-0.3910476 -0.0102649145 -0.2541212 -0.09941939 0.5678237 1.8781899 0.33690745 -0.70231324
-1.4524759 -0.34803483 -0.02295649 -0.36635152 0.0011005105 0.41553247 1.2071114 0.2348838
-0.3825758 -0.94685185 -0.20280369 -0.019599326 -0.30958426 0.15845887 0.01587425 -0.24715596
0.04257859 -0.5434321 -0.46656266 -0.2632293 -0.097713985 -0.54647064 -0.33681634 0.14120467
0.04130339 0.10563285 0.13354509 1.116859 0.4416562 0.36324462 0.60786486 0.33856735
0.027096467 -0.059381362 -0.012767848 -0.2345887 0.06250095 -0.1927181 -0.16548835 -0.19523497
-0.16681409 -0.14470734 -0.22193253 -0.06714425 -0.07102663 -0.64306456 -0.38583758 -0.09348896
-0.2266777 -0.42177317 -0.02539365 -0.16399783 -0.044391826 -0.03679646 -0.4447249 -0.075099304
-0.17269292 -0.055687044 -0.082424246 0.26735833 0.35821226 0.20648964 0.44718632 0.40257546
0.52918977 0.13199458 0.50856024 0.49241877 0.11344163 -0.046160612 0.18025413 -0.12181499
-1.6478566 -0.15147942 0.12763101 -0.075518794 0.061307292 0.034304056 0.055364713 0.12914473
0.014686139 -1.4660676 0.05353848 -0.0025901832 0.00078032236 0.053431254 0.08094837 -0.019587774
0.06324391 -0.08583328 -1.5536206 -0.13980713 0.03397139 -0.13167216 -0.017245732 -0.043288764
0.016682144 -0.005979543 -0.9019125 0.962672 0.16151352 -0.12540385 0.049046066 -0.053491574
-0.22989744 0.20563069 0.01128605 -1.7923473 1.5746925 0.059536994 -0.10861616 0.25362346
-0.089309424 -0.1657783 0.1814895 0.008198352 -1.1478744 0.9724684 0.08211945 -0.09243711
0.20976016 -0.05975208 0.08913647 -0.060342554 0.12093428 0.36778298 0.78065294 0.2418245
-0.012186399 0.78316724 0.15449327 0.095503986 -0.18067744 0.06160015 0.1310736 -0.17978996
-0.066756025 -0.11089591 0.06861515 0.22821544 0.01131274 -0.12273208 0.13802195 -0.18885826
-0.9445085 -0.44054943 -0.118270986 -0.8463839 -0.34157893 -0.037414912 0.05381527 0.14990026
0.118475564 -0.011324048 0.4248862 -0.025659263 0.7900358 0.27333236 -0.08674479 0.108468734
-0.29853404 -0.1534711 -1.2316248 -0.357162 -0.2780553 -0.67737013 -0.6151343 -0.25413558
0.31568372 -0.0058372305 0.34202132 0.21065544 0.46246013 0.32318962 0.33903873 -0.041696258
00000000: 167b 0ebe 3689 08bd 949b 89bd 6631 ffbc
00000010: 0e8c 813f 465a e6bd 5690 ecbc bb95 913d
00000020: a44c ea3b 34e0 03be 1fb6 65be 3c26 27be
00000030: c3cd 90bd 6bf6 aa3f 2be9 67be 451a ba3c
00000040: b1bf f1be 14ef 22bd 869b e5bd 8098 0dbe
00000050: c076 13bd 1ebf 13be 7abc 3d3f 73de 543d
00000060: 0d10 32bc 394a 74be c54e 233e 86b4 f33e
00000070: d6c8 d33f fb7d 923e b4bf f2be 97cb 87bf
00000080: 6437 c8be 2c2e 28bc 2d1c 82be 659c cbbd
00000090: e55c 113f 8768 f03f 227f ac3e cdca 33bf
000000a0: bbea b9bf 9f31 b2be 400f bcbc 6d92 bbbe
000000b0: 013f 903a acc0 d43e a082 9a3f 6185 703e
000000c0: fae0 c3be e264 72bf c5ab 4fbe c48e a0bc
000000d0: d481 9ebe 0b43 223e b70a 823c 7416 7dbe
000000e0: e366 2e3d 5e1e 0bbf 4de1 eebe fec5 86be
000000f0: 451e c8bd 80e5 0bbf 3173 acbe f597 103e
00000100: be2d 293d 0956 d83d 0bc0 083e 3cf5 8e3f
00000110: c320 e23e 33fb b93e 089d 1b3f b358 ad3e
00000120: 69f9 dd3c df39 73bd 3c30 51bc 0538 70be
00000130: 8000 803d e557 45be c775 29be adeb 47be
00000140: 50d1 2abe 292e 14be 4842 63be ed82 89bd
00000150: 6976 91bd e19f 24bf 818c c5be 2477 bfbd
00000160: 331e 68be a7f2 d7be 5806 d0bc 0cef 27be
00000170: 34d4 35bd e3b7 16bd fbb2 e3be aacd 99bd
00000180: 6ad6 30be 1918 64bd 0bce a8bd 31e3 883e
00000190: 9967 b73e 0572 533e 9bf5 e43e 5f1e ce3e
000001a0: fb78 073f 9629 073e 0131 023f 501e fc3e
000001b0: 1654 e83d e912 3dbd 8a94 383e 237a f9bd
000001c0: f7ec d2bf 6c1d 1bbe b4b1 023e 99a9 9abd
000001d0: 5b1d 7b3d 6982 0c3d 1cc6 623d 843e 043e
000001e0: 229e 703c 1aa8 bbbf 2a4b 5b3d 10c0 29bb
000001f0: 8c8e 4c3a bbda 5a3d 42c8 a53d 8a76 a0bc
00000200: 0686 813d 5cc9 afbd 0add c6bf 9a29 0fbe
00000210: 9625 0b3d 11d5 06be ec46 8dbc 8f4f 31bd
00000220: fea8 883c 0bf0 c3bb bde3 66bf ac71 763f
00000230: cd63 253e de69 00be 87e4 483d fb19 5bbd
00000240: 3c6a 6bbe da90 523e 20e9 383c a36b e5bf
00000250: 868f c93f 10dd 733d 2672 debd efda 813e
00000260: dce7 b6bd c9c1 29be 62d8 393e 6152 063c
00000270: 8ced 92bf b0f3 783f 3e2e a83d ab4f bdbd
00000280: 5ecb 563e 99be 74bd 2e8d b63d c129 77bd
00000290: 64ac f73d 0d4e bc3e dfd8 473f d7a0 773e
000002a0: 76a9 47bc a67d 483f 7c33 1e3e 9897 c33d
000002b0: 8203 39be 7050 7c3d 2838 063e dc1a 38be
000002c0: 62b7 88bd 651d e3bd 1a86 8c3d 4fb1 693e
000002d0: 1259 393c f55a fbbd a055 0d3e 0f64 41be
000002e0: 4fcb 71bf b28f e1be 0f38 f2bd 9eac 58bf
000002f0: 6fe3 aebe 6140 19bd 676d 5c3d 747f 193e
00000300: 51a3 f23d 8088 39bc af8a d93e 6033 d2bc
00000310: c93f 4a3f 38f2 8b3e 41a7 b1bd db24 de3d
00000320: 74d9 98be 8727 1dbe e2a5 9dbf f0dd b6be
00000330: 445d 8ebe 2168 2dbf 7179 1dbf 0f1e 82be
00000340: 4ca1 a13e 3d46 bfbb 6b1d af3e 0fb6 573e
00000350: 93c7 ec3e 1c79 a53e 7c96 ad3e b2c9 2abd

bn1.weight f4 [8]
0.40663075 0.5561823 0.30211693 0.3764276 2.0032117 0.44382757 0.37035084 0.32225794
00000000: e831 d03e f761 0e3f 12af 9a3e 1ebb c03e
00000010: 9f34 0040 5e3d e33e a09e bd3e fefe a43e

bn1.bias f4 [8]
0.5475003 0.20537865 0.18042639 0.05523841 -2.0800412 0.22113022 0.6275669 0.22666417
00000000: fb28 0c3f c84e 523e b2c1 383e ac41 623d
00000010: 651f 05c0 f66f 623e 39a8 203f a71a 683e

bn1.running_mean f4 [8]
-0.37390348 0.017325914 0.03906813 0.41443563 1.5512902 -0.053573623 -0.21159731 0.1381051
00000000: 4770 bfbe 13ef 8d3c e705 203d e830 d43e
00000010: ad90 c63f 0470 5bbd f7ac 58be 6c6b 0d3e

bn1.running_var f4 [8]
2.39139 11.509754 1.148372 2.9213963 25.406265 4.9188614 2.853674 1.095162
00000000: 890c 1940 f427 3841 dbfd 923f 28f8 3a40
00000010: 0840 cb41 5067 9d40 98a2 3640 452e 8c3f

layer1.0.conv1.weight f4 [8, 8, 3, 3]
0.13270094 -0.7124648 -0.034008555 0.20256765 0.24397922 0.22897443 0.16068965 -0.23848261
0.0022510283 -0.15257135 -0.100321434 -0.07377183 0.26764297 -0.056281745 0.11987137 -0.16114174
0.06235164 0.0077294726 0.23104715 -0.1978269 -0.056663334 -0.030344585 0.06290593 0.015158628
0.054682095 -0.10400126 0.038397808 -0.0703176 0.03263729 -0.039267097 -0.0901895 0.11109676
-0.06856749 -0.06404188 0.10524554 0.04724497 -0.08731909 0.8498401 0.20851667 -0.4259329
0.28363416 -0.07225704 -0.3109584 0.15636657 -0.12908289 0.07796341 -0.048372585 -0.09546545
-0.19180758 0.21658202 -0.18539463 -0.023078853 0.23944508 -0.043812707 -0.07311194 0.13482957
-0.07218422 -0.026507733 0.17250374 -0.1794373 -0.039426014 -0.06775951 0.0882792 -0.026224501
0.10471829 -0.079009965 0.016858315 -0.021855181 0.1571105 0.0325089 -0.085571304 -0.06905233
0.27538717 -0.25807464 0.38719374 -0.1590423 0.5560773 0.033702936 -0.2419654 -0.17232002
-0.27143005 0.061624218 0.11059129 0.0075359032 0.061019566 -1.1045122 -0.120571524 0.16633585
0.15552574 0.13795914 0.14747132 -0.057209857 0.22263107 -0.17325985 0.14334121 -0.16751891
-0.05571185 0.03098385 0.09342316 0.08120678 0.07214272 -0.048325323 -0.05111076 -0.15139994
0.015154466 0.057331145 -0.024538081 0.11041947 0.09791982 0.300504 -0.007140078 0.21337077
-0.10608364 0.2870784 -0.20360015 -0.4077858 -0.5065387 0.028161071 -0.28477484 0.3361086
0.04757516 0.34329775 -0.4595149 -0.015753845 -0.006409848 -0.014151726 -0.047460977 0.16249296
0.08807756 -0.11901595 -0.18577874 -0.15958786 0.26897952 0.008100857 0.021344602 -0.12398757
0.16093121 -0.101395905 0.0076259417 -0.105486535 0.02089678 -0.11680108 0.1921733 0.12536983
0.0970088 0.2546413 -0.06359367 -0.28125557 -0.21680582 0.23441137 -0.18212745 0.10837494
0.13924052 0.06299784 -0.080819845 0.10914477 -0.013357857 -0.049265094 -0.29028174 0.06715411
-0.16296895 0.09901319 0.1890994 0.20791005 -0.1289119 0.23257846 -0.056469124 -0.43473348
-0.023560805 -0.03678637 -0.52256924 0.06772768 0.3852775 0.19243503 0.0028816776 0.13532111
0.035563994 -0.21323861 -0.3614145 -0.41687682 0.05851934 -0.02490041 -0.1302968 0.09684548
0.13258602 0.070880674 -0.044917528 -0.15340118 -0.21488969 0.020194681 0.03736205 0.11379255
0.076709606 -0.119945236 -0.024554895 -0.05056091 -0.019556858 -0.08768249 -0.113863036 -0.67998856
-0.7049126 0.20240454 0.2870347 0.054432854 -0.08277065 0.7484728 0.27963793 -0.36412245
-0.25185636 0.18986593 -0.49108988 0.3188485 0.44014952 -0.4394852 0.101743266 0.19827487
0.10748002 -0.0033903308 -0.0519008 -0.34178886 -0.30552137 0.06200797 0.2913342 0.27309558
0.12164412 0.14038497 -0.21480675 0.12595992 0.56759894 0.27802965 -0.014960308 -0.75440943
-0.45678416 0.13469233 0.036986016 -0.13094187 0.0077791954 -0.14342922 0.032845486 0.010871638
0.08668389 0.044348504 -0.089149304 0.051726647 -0.011864322 -0.035958286 0.08063601 0.016612124
0.008742096 -0.10737445 -0.11142958 -0.00997689 0.60346943 0.4570239 -0.099396534 0.68164474
00000000: c1e2 073e 1864 36bf 8e4c 0bbd e56d 4f3e
00000010: b0d5 793e 4678 6a3e d48b 243e c934 74be
00000020: fd85 133b aa3b 1cbe 5375 cdbd af15 97bd
00000030: 8008 893e b087 66bd 1f7f f53d 5702 25be
00000040: 6f64 7f3d 8447 fd3b a097 6c3e 2393 4abe
00000050: d017 68bd 3595 f8bc d3d4 803d e55b 783c
00000060: 55fa 5f3d 9dfe d4bd 0547 1d3d ad02 90bd
00000070: aeae 053d 89d6 20bd 46b5 b8bd b386 e33d
00000080: 1d6d 8cbd 6428 83bd f98a d73d f183 413d
00000090: 5ad4 b2bd 1f8f 593f 6585 553e e113 dabe
000000a0: 7f38 913e 80fb 93bd f035 9fbe 8f1e 203e
000000b0: 4e2e 04be 48ab 9f3d 5522 46bd 6483 c3bd
000000c0: 3569 44be adc7 5d3e 17d8 3dbe dd0f bdbc
000000d0: 1731 753e f474 33bd b6bb 95bd c310 0a3e
000000e0: 52d5 93bd bf26 d9bc d2a4 303e 69be 37be
000000f0: 2c7d 21bd 7fc5 8abd bacb b43d c4d4 d6bc
00000100: 8b76 d63d facf a1bd 731a 8a3c a309 b3bc
00000110: 93e1 203e 0d28 053d 0240 afbd 4f6b 8dbd
00000120: 8cff 8c3e 5c22 84be 423e c63e fcdb 22be
00000130: 155b 0e3f 170c 0a3d c7c5 77be a974 30be
00000140: e1f8 8abe ad69 7c3d b07d e23d bdef f63b
00000150: a7ef 793d a860 8dbf 34ee f6bd f253 2a3e
00000160: 2442 1f3e 2945 0d3e b902 173e e254 6abd
00000170: 66f9 633e 086b 31be 0ac8 123e 148a 2bbe
00000180: 1c32 64bd d8d1 fd3c a454 bf3d be4f a63d
00000190: 90bf 933d c6f0 45bd 8459 51bd 9608 1bbe
000001a0: 704a 783c 10d4 6a3d 1604 c9bc 9a23 e23d
000001b0: 308a c83d a9db 993e 51f7 e9bb de7d 5a3e
000001c0: 6142 d9bd f1fb 923e 8f7c 50be 4dc9 d0be
000001d0: 85ac 01bf 0cb2 e63c 02ce 91be 6d16 ac3e
000001e0: 2cde 423d b9c4 af3e 8945 ebbe 350e 81bc
000001f0: b409 d2bb a4dc 67bc 7166 42bd 8e64 263e
00000200: 0262 b43d a2be f3bd c83c 3ebe 006b 23be
00000210: afb7 893e 75b9 043c e0da ae3c 32ed fdbd
00000220: 27cb 243e a8a8 cfbd 09e3 f93b 5309 d8bd
00000230: b92f ab3c 6835 efbd 14c9 443e f360 003e
00000240: 8dac c63d 5860 823e 663d 82bd bb00 90be
00000250: 5802 5ebe 8909 703e 9e7f 3abe aef3 dd3d
00000260: 1195 0e3e 0305 813d e084 a5bd 4b87 df3d
00000270: eada 5abc 32ca 49bd cf9f 94be 1888 893d
00000280: 55e1 26be 6dc7 ca3d 46a3 413e 5fe6 543e
00000290: 7b01 04be 0c29 6e3e 2b4c 67bd 6395 debe
000002a0: 9702 c1bc 4ead 16bd 19c7 05bf cfb4 8a3d
000002b0: 1843 c53e b00d 453e 87da 3c3b 9e91 0a3e
000002c0: 8dab 113d 395b 5abe 520b b9be e170 d5be
000002d0: fab1 6f3d f2fb cbbc 866c 05be ec56 c63d
000002e0: a1c4 073e e329 913d 71fb 37bd 3315 1dbe
000002f0: 0b0c 5cbe 516f a53c f308 193d 120c e93d
00000300: ed19 9d3d d9a5 f5bd 5927 c9bc f518 4fbd
00000310: b435 a0bc e192 b3bd 0631 e9bd bb13 2ebf
00000320: 2775 34bf 2343 4f3e 36f6 923e fcf4 5e3d
00000330: a983 a9bd ea9b 3f3f b42c 8f3e 426e babe
00000340: 51f3 80be 376c 423e 2270 fbbe 1c40 a33e
00000350: 475b e13e 3404 e1be c65e d03d 9108 4b3e
00000360: 7c1e dc3d 5030 5ebb ef95 54bd f3fe aebe
00000370: 4c6d 9cbe 12fc 7d3d c229 953e 2fd3 8b3e
00000380: 8d20 f93d 14c1 0f3e 4df6 5bbe a3fb 003e
00000390: 2a4e 113f e759 8e3e 141c 75bc fa20 41bf
000003a0: 9ddf e9be c9ec 093e a67e 173d a015 06be
000003b0: 9fe8 fe3b 1cdf 12be fd88 063d f41e 323c
000003c0: 5387 b13d c7a6 353d e993 b6bd 52df 533d
000003d0: 9362 42bc ff48 13bd 7e24 a53d 2616 883c
000003e0: 023b 0f3c 23e7 dbbd 3135 e4bd 1c76 23bc
000003f0: f97c 1a3f 09ff e93e 6990 cbbd 4580 2e3f

layer1.0.bn1.weight f4 [8]
0.4836849 0.5455567 0.36574474 0.5076724 0.3347169 1.1306951 0.7140486 0.5699411
00000000: 8ca5 f73e 9ba9 0b3f e542 bb3e d2f6 013f
00000010: 0360 ab3e 9eba 903f e4cb 363f a9e7 113f

layer1.0.bn1.bias f4 [8]
-0.28621393 0.15275224 0.2752908 0.3225958 0.33616817 -1.4863122 0.057629257 0.210753
00000000: a28a 92be 156b 1c3e eaf2 8c3e 472b a53e
00000010: 3c1e ac3e 7a3f bebf a80c 6c3d a2cf 573e

layer1.0.bn1.running_mean f4 [8]
-0.029043278 -0.04814365 -0.2435243 -0.18007252 -0.47736463 0.3891076 -0.5257208 -0.39905038
00000000: 2bec edbc 4732 45bd 6f5e 79be ee64 38be
00000010: 2369 f4be 1d39 c73e a395 06bf 5550 ccbe

layer1.0.bn1.running_var f4 [8]
0.08915326 0.32454538 0.18260422 0.5325312 0.19257623 0.48200545 1.1827403 0.6582372
00000000: fc95 b63d d02a a63e 9afc 3a3e f753 083f
00000010: b432 453e 6bc9 f63e 0964 973f 3c82 283f

layer1.0.conv2.weight f4 [8, 8, 3, 3]
-0.07070909 0.17104276 -0.07941555 -0.09518296 0.12920545 -0.3768958 -0.009200487 0.3119544
-0.2646761 0.11292841 0.010279284 0.07555879 0.039792486 -0.1782729 0.041199133 -0.0104007805
0.05534992 -0.2436084 0.12419067 0.05908747 -0.21256278 -0.027682431 0.090927444 -0.22795694
-0.01365319 -0.0093713 0.021860613 0.0054341 -0.09138875 -0.16007045 0.13860089 0.072934836
0.2656468 -0.07097608 -0.2666183 -0.051344443 0.02529722 -0.024009924 0.17467108 0.024419848
-0.00860525 0.031740356 0.03957597 -0.22341384 0.13061646 -0.20739721 -0.22280222 -0.07732404
-0.033927687 -0.10733633 0.33041403 0.2007513 -0.19928378 0.07080116 -0.07863479 0.14612128
-0.014814102 0.110179566 0.37534863 0.035952106 -0.09404032 0.44873267 0.030760715 -0.111309655
-0.04121868 0.05059484 0.15750973 0.29598325 0.14726515 -0.030891 0.22283916 0.06588878
-0.028031586 0.061789796 0.11008521 0.015593586 0.23798503 0.1409404 -0.11897305 -0.031126723
-0.1646005 -0.01314431 -0.08653025 0.05944768 -0.0039278804 0.07577317 0.051843453 0.092189945
-1.0624138 0.17636755 0.028272487 0.17576154 -0.10966072 0.08119244 -0.1225931 0.07590882
-0.15451142 0.101649545 0.049286857 -0.049033575 -0.053845286 0.078369 0.10442678 -0.56958467
-1.0331287 -0.15807255 0.33706135 0.03942456 -0.17752108 0.013472574 0.0973325 -0.05544801
-0.0363131 0.015970178 -0.009999586 0.10292096 0.132685 0.2143018 -0.413613 -0.13641246
0.13826934 -0.40161994 -0.046046942 0.022036193 -0.4218516 -0.278087 0.049195226 -0.0022453046
-0.092652254 0.075055204 -0.0010561629 0.083899885 -0.057330932 -0.67543125 -0.22241646 -0.14490865
0.0064841905 -0.02311819 -0.0036815542 0.16427079 0.045674082 0.2976613 -0.08650495 0.066856645
-0.15634392 0.07347507 0.13573591 0.10037767 -0.03441761 -0.016497355 0.08482387 -0.058270853
-0.19092736 -0.056667455 -0.14954181 -0.08802079 -0.096732415 -0.06737769 0.057335872 -0.10770679
-0.12844758 0.34509784 -0.01579211 0.094761595 0.35718188 -0.16541255 0.03362113 0.42079216
0.27960935 0.16703783 0.23578155 -0.0122500155 0.005139418 0.11492658 0.012374456 -0.12024023
0.18056948 0.008916858 0.03530957 0.1123221 -0.14583364 -0.21901472 -0.19839571 -0.15136018
-0.1463298 0.040682152 0.160871 0.30747867 0.12310329 -0.091167554 -0.07193107 -0.16633807
-0.054495502 0.04785901 0.038854953 0.00021611713 -0.0103575485 0.1432558 0.018115114 0.010599601
-0.11116556 -0.013497954 -0.003724482 0.19353785 -0.06306654 -0.04621058 0.5380243 -0.1036797
0.0068542794 -0.08090428 -0.1290447 0.19196486 -0.05446464 -0.049976256 -0.06198892 0.37640762
-0.00040336055 -0.08603797 0.02491928 0.08366231 0.17478068 0.20619832 -0.09237087 0.14339456
0.038041156 -0.0907434 0.14747734 -0.015146455 0.075462446 0.1038708 0.068552025 -0.06735907
-0.008999091 0.10008401 0.19821717 -0.32758602 -0.17432645 0.13447857 -0.12239861 -0.085765675
0.23795334 0.41495484 0.14581986 -0.1203053 -0.20363899 -0.21182473 0.009839954 0.028561866
0.08546464 0.03249908 0.015661897 -0.056068208 0.27596468 0.26722664 0.08004669 0.29040173
00000000: edcf 90bd d525 2f3e 9fa4 a2bd 49ef c2bd
00000010: 6f4e 043e 7cf8 c0be a4bd 16bc 7db8 9f3e
00000020: a083 87be 0347 e73d 716a 283c 91be 9a3d
00000030: 72fd 223d 2c8d 36be 6cc0 283d 0968 2abc
00000040: 99b6 623d 7b74 79be ae57 fe3d b405 723d
00000050: 0faa 59be 44c6 e2bc 2b38 ba3d 8b6d 69be
00000060: a1b1 5fbc 158a 19bc 0715 b33c 8910 b23b
00000070: 062a bbbd 82e9 23be 64ed 0d3e dc5e 953d
00000080: db02 883e e85b 91bd 3282 88be 8d4e 52bd
00000090: 1e3c cf3c 76b0 c4bc fadc 323e 220c c83c
000000a0: 09fd 0cbc 2d02 023d 6a1a 223d 99c6 64be
000000b0: 52c0 053e ef5f 54be 4426 64be 115c 9ebd
000000c0: c2f7 0abd 26d3 dbbd 072c a93e c091 4d3e
000000d0: 0c11 4cbe 3300 913d 470b a1bd d1a0 153e
000000e0: d9b6 72bc d3a5 e13d b22d c03e 8442 133d
000000f0: 3698 c0bd 4ac0 e53e e5fd fb3c 51f6 e3bd
00000100: ebd4 28bd 893c 4f3d 3b4a 213e 1e8b 973e
00000110: adcc 163e 1f0f fdbc f32f 643e b2f0 863d
00000120: 7fa2 e5bc 4c17 7d3d 5b74 e13d 3d7c 7f3c
00000130: 59b2 733e ae52 103e 24a8 f3bd 78fd febc
00000140: 098d 28be 3b5b 57bc c636 b1bd 697f 733d
00000150: 73b5 80bb f72e 9b3d cd59 543d 15ce bc3d
00000160: 2dfd 87bf b299 343e b49b e73c d5fa 333e
00000170: cd95 e0bd 3948 a63d 1712 fbbd 1576 9b3d
00000180: 3e38 1ebe a32d d03d 04e1 493d 6ed7 48bd
00000190: e08c 5cbd ed7f a03d b5dd d53d 4dd0 11bf
000001a0: 903d 84bf c5dd 21be 4e93 ac3e a67b 213d
000001b0: 16c8 35be 12bc 5c3c 4356 c73d 741d 63bd
000001c0: 0cbd 14bd e4d3 823c 4ed5 23bc 39c8 d23d
000001d0: 94de 073e ee71 5b3e 15c5 d3be b5af 0bbe
000001e0: 7a96 0d3e 21a1 cdbe b89b 3cbd 3f85 b43c
000001f0: effc d7be 6b61 8ebe ef80 493d f625 13bb
00000200: 77c0 bdbd 8bb6 993d f26e 8aba b4d3 ab3d
00000210: d7d3 6abd 10e9 2cbf 24c1 63be ef62 14be
00000220: 5579 d43b 5c62 bdbc 3b46 71bb 9a36 283e
00000230: bf14 3b3d 1067 983e 8229 b1bd 23ec 883d
00000240: 9f18 20be 197a 963d 5bfe 0a3e cf92 cd3d
00000250: 7bf9 0cbd 7625 87bc 23b8 ad3d 6bad 6ebd
00000260: 7682 43be 221c 68bd 7d21 19be 3e44 b4bd
00000270: a51b c6bd 50fd 89bd 05d9 6a3d 6195 dcbd
00000280: c387 03be aab0 b03e 745e 81bc 5e12 c23d
00000290: 8be0 b63e e861 29be 4fb6 093d 1272 d73e
000002a0: f528 8f3e f70b 2b3e b870 713e 4ab4 48bc
000002b0: 9068 a83b a05e eb3d 3bbe 4a3c 8240 f6bd
000002c0: 35e7 383e 0318 123c c5a0 103d 2109 e63d
000002d0: 6a55 15be 6545 60be 3f28 4bbe 2afe 1abe
000002e0: 7bd7 15be 54a2 263d 5ebb 243e d86d 9d3e
000002f0: 941d fc3d 0eb6 babd 9950 93bd 8754 2abe
00000300: ad36 5fbd cf07 443d 5f26 1f3d 809d 6239
00000310: b5b2 29bc a6b1 123e 2666 943c f3a9 2d3c
00000320: c5aa e3bd 8626 5dbc 7016 74bb c92e 463e
00000330: 0829 81bd 4e47 3dbd f6bb 093f 0656 d4bd
00000340: dd99 e03b 25b1 a5bd 4b24 04be 7092 443e
00000350: 5016 5fbd e7b3 4cbd 18e8 7dbd 80b8 c03e
00000360: 237a d3b9 ad34 b0bd 8523 cc3c 2557 ab3d
00000370: b5f9 323e a725 533e f02c bdbd 06d6 123e
00000380: 0bd1 1b3d add7 b9bd 4d04 173e d628 78bc
00000390: 0e8c 9a3d 37ba d43d 0165 8c3d 8df3 89bd
000003a0: ec70 13bc d8f8 cc3d 71f9 4a3e 5bb9 a7be
000003b0: a282 32be c0b4 093e 1fac fabd eaa5 afbd
000003c0: 0aaa 733e f674 d43e cd51 153e a062 f6bd
000003d0: bd86 50be 95e8 58be c237 213c 93fa e93c
000003e0: 1608 af3d c11d 053d 614d 803c c7a7 65bd
000003f0: 3e4b 8d3e eed1 883e 85ef a33d 89af 943e

layer1.0.bn2.weight f4 [8]
0.2425024 1.2343316 0.43217656 0.31266084 1.0918686 0.92565364 0.30500853 0.29755265
00000000: 8d52 783e 94fe 9d3f 3f46 dd3e 1515 a03e
00000010: 5ac2 8b3f a3f7 6c3f 142a 9c3e d258 983e

layer1.0.bn2.bias f4 [8]
0.0914207 -0.06627869 0.67481303 0.70273757 0.28282166 -0.10052668 -0.27864262 0.3630828
00000000: c73a bb3d 1fbd 87bd 8cc0 2c3f 9ce6 333f
00000010: 00ce 903e efe0 cdbd 3faa 8ebe fde5 b93e

layer1.0.bn2.running_mean f4 [8]
0.2708802 -0.8596216 0.49816978 0.43493986 -0.08858409 -0.24105029 0.22047713 0.062423028
00000000: cfb0 8a3e 2910 5cbf 1c10 ff3e 70b0 de3e
00000010: 936b b5bd e3d5 76be c2c4 613e 4aaf 7f3d

layer1.0.bn2.running_var f4 [8]
0.20428815 0.9384537 0.21743822 0.19616365 0.5276844 0.44182923 0.18848714 0.14359961
00000000: ea30 513e 803e 703f 20a8 5e3e 20df 483e
00000010: 5316 073f 7137 e23e c602 413e c70b 133e

layer2.0.conv1.weight f4 [16, 8, 3, 3]
-0.033671636 0.17929307 -0.014187832 0.054641865 0.04077457 -0.0046379785 -0.08185198 0.048629656
0.0068278466 -0.055911984 -0.007683271 -0.15814829 -0.2089581 -0.121222466 -0.25205323 -0.057794716
-0.05536076 -0.04756732 -0.08799354 -0.09859308 0.1582552 -0.03716009 -0.043805104 -0.028247962
0.09854755 0.062472988 -0.03672732 -0.018655075 -0.08993581 0.08273163 -0.09512175 -0.17540644
-0.06475751 0.08484216 0.01650673 0.0972173 -0.1799512 -0.18989074 -0.09232329 -0.13542835
-0.11836861 -0.1408394 -0.108164534 -0.13264693 -0.16291016 0.2118663 0.04547645 -0.018508982
-0.11850775 -0.13291667 -0.07801255 -0.12801172 -0.15502095 -0.2232919 -0.089998186 -0.10949671
-0.072883055 0.06289143 0.009389612 0.013500884 0.03789885 0.0057132086 0.10827518 0.069806084
0.060080875 0.030872185 -0.1397638 -0.081327 -0.043498643 0.04211256 0.04605152 0.16346279
-0.12010972 0.05593654 0.04805818 0.08022996 0.056658268 -0.031218437 0.092477016 0.038400583
-0.14913633 -0.0039047468 0.030834733 0.013000501 0.017561661 -0.040919635 -0.03270234 0.057583027
-0.044876307 -0.052066643 -0.10876127 -0.26958498 0.0012974015 -0.37944227 -0.3679621 -0.038764
-0.26117995 -0.2511545 -0.079552166 -0.072906576 -0.27771357 -0.1284537 0.07622072 -0.021606721
-0.035284337 0.13158442 0.15850155 0.032826528 0.00325371 0.06970128 0.08507062 -0.06762196
0.06465238 0.09403012 -0.036976736 0.020114034 0.075521514 -0.015190546 0.017440315 -0.008819374
0.017394723 0.035665642 0.026159747 0.025816072 0.11213883 0.124331266 0.06293669 0.29002827
0.37021783 0.1283645 0.027847812 -0.051907085 -0.33700547 -0.48483145 -0.22182001 0.034721736
0.05946055 -0.22776562 0.18021737 -0.06803852 -0.41670614 -0.11804536 -0.34656093 -0.35111707
0.08024818 0.23608708 -0.4716798 0.18524764 0.34890825 -0.6463797 0.1297715 0.4907878
-0.61807275 -0.03863531 -0.058693115 0.16162537 -0.1034799 0.0017457694 0.30836335 -0.054523513
0.07313458 0.045412775 0.012410081 0.060827173 -0.101881236 0.1432851 0.21312061 -0.17668791
0.14213921 -0.16208766 -0.26359165 -0.06838193 0.20338695 0.07295615 -0.052704636 0.015487765
-0.045643035 -0.13370322 -0.03804404 -0.012714176 -0.018606702 -0.05055588 0.056190867 0.045890473
-0.101843886 0.41623494 0.097375356 -0.22051781 0.40149075 -0.007294243 0.08233791 -0.04305106
-0.039193142 0.08017862 -0.51306057 -0.066827975 0.08576599 -0.59557843 -0.09228349 0.05799266
-0.08601435 -0.04163699 0.1078691 0.03352753 -0.09693402 0.09061415 0.14275968 -0.059911903
-0.038418505 0.04553021 -0.0435945 -0.08124589 0.11738617 -0.02353802 -0.1194767 0.23105057
-0.17332584 -0.19045809 -0.117844254 -0.00034837035 0.05303168 0.10466207 0.16457616 0.124039054
0.021965897 0.043623578 0.104348026 0.041941572 -0.5141225 -0.55733144 -0.29220617 0.42928398
0.58205575 0.2105322 0.044783562 -0.06347382 0.020878917 0.10995894 0.0032431155 0.102003135
-0.125713 -0.075112276 -0.052732535 0.18102013 0.061279204 0.1156709 0.07561857 -0.005163726
-0.096474655 -0.22457655 -0.20974974 0.04220342 -0.06504149 -0.020634482 0.12035132 0.39378256
00000000: 45eb 09bd 9a98 373e 1574 68bc 26d0 5f3d
00000010: 3c03 273d 2ffa 97bb 03a2 a7bd e42f 473d
00000020: 21bc df3b f703 65bd f3c3 fbbb a0f1 21be
00000030: 1df9 55be 7c43 f8bd 1f0d 81be 27ba 6cbd
00000040: f7c1 62bd f3d5 42bd f535 b4bd 2beb c9bd
00000050: a70d 223e 2e35 18bd fb6c 33bd 4568 e7bc
00000060: 4cd3 c93d ade3 7f3d 636f 16bd 87d2 98bc
00000070: 4430 b8bd 336f a93d 31cf c2bd bf9d 33be
00000080: 969f 84bd bac1 ad3d 1f39 873c dd19 c73d
00000090: 2145 38be b872 42be fe13 bdbd bbad 0abe
000000a0: 3e6b f2bd 3438 10be 5e85 ddbd 99d4 07be
000000b0: ecd1 26be 7bf3 583e 8445 3a3d 26a0 97bc
000000c0: 31b4 f2bd 4f1b 08be 0bc5 9fbd 8115 03be
000000d0: d0bd 1ebe a2a6 64be f850 b8bd d03f e0bd
000000e0: b643 95bd 39cd 803d e3d6 193c d032 5d3c
000000f0: d33b 1b3d de35 bb3b 61bf dd3d 7ef6 8e3d
00000100: 5d17 763d aae7 fc3c 3e1e 0fbe c58e a6bd
00000110: a22b 32bd 387e 2c3d 85a0 3c3d ca62 273e
00000120: 16fc f5bd b71d 653d a7d8 443d 9b4f a43d
00000130: 8012 683d cfbd ffbc 9764 bd3d ee49 1d3d
00000140: 32b7 18be c8e6 7fbb 1f99 fc3c 0e00 553c
00000150: 79dd 8f3c 599b 27bd e4f2 05bd 2edc 6b3d
00000160: 38d0 37bd d543 55bd 3bbe debd 0b07 8abe
00000170: 920d aa3a 4246 c2be 8765 bcbe 00c7 1ebd
00000180: 61b9 85be 5397 80be 3fec a2bd 0b50 95bd
00000190: 7930 8ebe 5e89 03be 9c19 9c3d 9400 b1bc
000001a0: 4f86 10bd 11be 063e 3b4e 223e 1c75 063d
000001b0: 323c 553b 8bbf 8e3d 8139 ae3d 627d 8abd
000001c0: 7868 843d dd92 c03d eb74 17bd 30c6 a43c
000001d0: 06ab 9a3d c5e1 78bc fede 8e3c 237f 10bc
000001e0: 617f 8e3c 2316 123d f74c d63c 3a7c d33c
000001f0: 0ba9 e53d 64a1 fe3d f4e4 803d 967e 943e
00000200: 318d bd3e fc71 033e 1821 e43c 869c 54bd
00000210: fb8b acbe d43b f8be c924 63be 6138 0e3d
00000220: e88c 733d 643b 69be e78a 383e c857 8bbd
00000230: 825a d5be c4c1 f1bd 6f70 b1be 9ec5 b3be
00000240: 2859 a43d d0c0 713e 0480 f1be 8fb1 3d3e
00000250: 1aa4 b23e 2479 25bf d2e2 043e 8a48 fb3e
00000260: 043a 1ebf 0f40 1ebd 3168 70bd 1f81 253e
00000270: 45ed d3bd 4dd2 e43a cde1 9d3e 0c54 5fbd
00000280: 95c7 953d bf02 3a3d a753 4b3c ea25 793d
00000290: 1ca7 d0bd 54b9 123e 4a3c 5a3e aded 34be
000002a0: f18c 113e 4ffa 25be 7cf5 86be d30b 8cbd
000002b0: ab44 503e 096a 953d d1e0 57bd 65c0 7d3c
000002c0: 31f4 3abd 7fe9 08be 11d4 1bbd 1f4f 50bc
000002d0: 156d 98bc af13 4fbd 6528 663d a6f7 3b3d
000002e0: 8793 d0bd bf1c d53e bb6c c73d 6ccf 61be
000002f0: 3290 cd3e 8c04 efbb c7a0 a83d 4f56 30bd
00000300: fd88 20bd b034 a43d f057 03bf 1bdd 88bd
00000310: 14a6 af3d d477 18bf 20ff bcbd b689 6d3d
00000320: 4b28 b0bd 8c8b 2abd 7aea dc3d 2a54 093d
00000330: 5885 c6bd e993 b93d 982f 123e 2f66 75bd
00000340: b95c 1dbd e37d 3a3d 2590 32bd 3f64 a6bd
00000350: 2968 f03d ced2 c0bc 33b0 f4bd 8598 6c3e
00000360: 547c 31be 7207 43be 5458 f1bd 7aa5 b6b9
00000370: bf37 593d 1159 d63d a786 283e 3008 fe3d
00000380: d3f1 b33c a3ae 323d 6bb4 d53d edca 2b3d
00000390: 889d 03bf 46ad 0ebf 0c9c 95be 1ccb db3e
000003a0: 9b01 153f c195 573e f86e 373d 90fe 81bd
000003b0: 430a ab3c 2732 e13d 738a 543b 05e7 d03d
000003c0: e9ba 00be 77d4 99bd 12fe 57bd 575d 393e
000003d0: e7ff 7a3d dde4 ec3d e9dd 9a3d 7934 a9bb
000003e0: 8194 c5bd 65f7 65be a3c8 56be 7edd 2c3d
000003f0: 7934 85bd a509 a9bc c17a f63d de9d c93e

layer2.0.bn1.weight f4 [16]
0.91815 0.50629735 0.5950289 0.6288977 0.40842867 0.59325033 0.3347237 0.5177668
0.55731237 0.44311467 0.6371236 0.5927876 0.4943364 0.5110018 0.53458905 0.59166664
00000000: e10b 6b3f b49c 013f d053 183f 71ff 203f
00000010: 901d d13e 41df 173f e860 ab3e 5d8c 043f
00000020: 06ac 0e3f eddf e23e 881a 233f eec0 173f
00000030: a919 fd3e 04d1 023f d4da 083f 7777 173f

layer2.0.bn1.bias f4 [16]
-0.5637225 0.2743403 0.8387598 -0.022434067 0.66245985 -0.13273512 0.567237 0.35359097
-0.02688995 -0.051628336 0.67313135 -0.025733268 0.33415735 -0.016806217 0.014797409 -0.049043052
00000000: 1e50 10bf 5576 8c3e f6b8 563f a6c7 b7bc
00000010: f896 293f b7eb 07be 7236 113f e009 b53e
00000020: 5048 dcbc 3c78 53bd 5652 2c3f 93ce d2bc
00000030: ac16 ab3e 31ad 89bc d570 723c 5ee1 48bd

layer2.0.bn1.running_mean f4 [16]
-1.5327646 -2.2406235 -0.19685084 -0.04895539 1.3830065 -0.73844886 1.815679 -1.17368
-0.061988376 0.64878005 -0.5720345 -0.079670906 -1.18264 -0.03499181 -0.2825064 -0.041803904
00000000: a131 c4bf 6066 0fc0 4493 49be 7285 48bd
00000010: 5b06 b13f fc0a 3dbf 2b68 e83f 253b 96bf
00000020: 86e7 7dbd 7316 263f da70 12bf 802a a3bd
00000030: bf60 97bf 9253 0fbd aea4 90be 923a 2bbd

layer2.0.bn1.running_var f4 [16]
0.69111156 0.7386975 1.3284613 1.960319 1.1757274 0.39798713 0.8808516 0.5983905
1.1435071 0.40848875 1.5312595 1.0500861 1.1244957 0.9005555 1.3045914 1.7011836
00000000: b0ec 303f 481b 3d3f 050b aa3f bceb fa3f
00000010: 3c7e 963f f8c4 cb3e 7e7f 613f 1f30 193f
00000020: 715e 923f 7025 d13e 5000 c43f 3969 863f
00000030: 7aef 8f3f ce8a 663f dafc a63f 62c0 d93f

layer2.0.conv2.weight f4 [16, 16, 3, 3]
-0.24887547 -0.36313257 -0.29600576 -0.00030164467 -0.09643841 0.27492154 0.16523813 -0.123744436
0.2482794 -0.20395122 0.028066527 0.062409457 -0.00042201782 0.1976256 0.018467804 0.060765363
0.042854156 -0.10899516 0.09519222 0.14932986 0.024430675 -0.038997736 -0.0062583187 -0.030811295
-0.061514985 -0.034166917 0.015795048 -0.15807731 -0.18387842 -0.11723467 -0.011086532 0.07836975
-0.05991517 -0.033347078 -0.056131434 -0.032323748 -0.16525774 -0.13458697 -0.00034845877 0.34222788
0.45296353 0.054759342 0.03873284 0.5511179 -0.07734006 0.13106777 -0.10954706 -0.20492372
0.13166745 0.21600527 -0.04894523 -0.043443687 -0.020687688 0.06413909 -0.19690172 -0.15006669
0.030064482 0.07443173 -0.21244042 -0.03177275 0.17022142 0.020727951 -0.17830546 -0.083710514
0.03909843 -0.020801047 -0.011931245 -0.053455207 0.055831384 -0.06840202 -0.026323803 0.0016562463
0.08254262 -0.095249444 -0.16480908 0.31269583 0.28538993 -0.077056885 0.063876994 0.15792333
0.06405246 -0.068004325 -0.08436094 -0.083428115 0.099606425 0.14656782 -0.1846382 0.11891662
0.15859276 -0.06249124 0.115970954 0.16547242 0.056545433 -0.099241465 0.051887605 -0.008367169
0.035263013 0.0155715905 -0.089004025 -0.051385 -0.04760483 0.034976978 -0.009831811 0.06772572
0.12536372 0.037080936 -0.018209863 -0.04103939 0.46083608 0.52159566 0.12637834 -0.119292505
0.32144096 -0.007632521 -0.09620097 -0.020503681 -0.18806043 0.10307297 0.06436215 -0.17654963
0.18666267 0.28170463 0.011774534 0.063230336 0.10931705 0.026014384 0.06008268 0.06791796
-0.031021012 0.13078232 0.32471058 0.119301535 -0.042469155 -0.019114964 -0.009133644 -0.048670214
0.004419406 0.020007452 -0.10152373 -0.11324709 -0.07285317 -0.05660024 -0.079006724 -0.092397295
0.079345606 -0.02987599 -0.04081083 -0.14889857 0.023100443 -0.008731645 -0.23467788 -0.18555331
0.16878721 -0.065244734 -0.006219151 -0.025670143 -0.020193152 -0.07264496 0.013284448 -0.01357258
0.04653507 0.045460124 -0.14879666 0.028566126 0.06885183 0.4389946 -0.68386877 -0.0610838
-0.059436474 0.22858933 -0.005167302 -0.073472716 -0.03506394 -0.10640592 0.0068542394 -0.28432032
-0.08494755 0.015278037 -0.03488042 0.12317683 -0.14583491 0.49659 -0.1760042 -0.14213857
-0.41665494 0.35539582 0.17108676 -0.33396265 0.021515157 0.0068640173 -0.059720032 0.07045876
0.12906355 0.24410135 -0.0058429185 -0.10193502 0.09635579 0.06898439 -0.0015380137 -0.33909538
-0.18631119 -0.30778977 0.6983861 -0.11142184 -0.30482918 -0.102064855 0.23366822 -0.02863939
-0.15656595 -0.0068483506 -0.004801424 0.01615379 -0.020940142 0.04048053 -0.029583465 -0.048175957
-0.09080027 0.026422795 0.12406346 0.33173138 0.66295385 0.07721347 0.00428352 0.40009615
0.08612993 0.039914772 -0.18014847 -0.082622 -0.048665486 -0.103727296 -0.15153679 -0.14810368
-0.15068689 -0.123276435 0.10574856 -0.12690274 0.25017864 0.0069665625 -0.16444188 -0.27124208
-0.035214037 0.16684686 -0.14240594 -0.07957439 -0.06090957 -0.039140183 -0.051902052 -0.24950786
-0.16830178 0.009003393 -0.10415611 -0.17568676 0.037603695 -0.24529873 0.19842602 0.31830215
00000000: 36d9 7ebe 83ec b9be 118e 97be 1026 9eb9
00000010: 8081 c5bd 84c2 8c3e 2f34 293e b96d fdbd
00000020: f43c 7e3e 97d8 50be c6eb e53c 0fa1 7f3d
00000030: 4642 ddb9 5e5e 4a3e cb49 973c 1ae5 783d
00000040: d787 2f3d db38 dfbd 23f4 c23d ede9 183e
00000050: d722 c83c 17bc 1fbd 9512 cdbb f867 fcbc
00000060: 23f7 7bbd 9cf2 0bbd 9e64 813c 05df 21be
00000070: a04a 3cbe bb18 f0bd 49a4 35bc 5280 a03d
00000080: 9c69 75bd f296 08bd 13ea 65bd e865 04bd
00000090: 5339 29be 2bd1 09be 58b1 b6b9 7e38 af3e
000000a0: d6ea e73e 554b 603d 54a6 1e3d 1016 0d3f
000000b0: 7764 9ebd a136 063e 365a e0bd 86d7 51be
000000c0: d5d3 063e 7c30 5d3e cb7a 48bd 02f2 31bd
000000d0: 3a79 a9bc 5b5b 833d 9ba0 49be 15ab 19be
000000e0: ca49 f63c aa6f 983d fb89 59be 2524 02bd
000000f0: 864e 2e3e aacd a93c b595 36be 6b70 abbd
00000100: ad25 203d f566 aabc 457b 43bc d9f3 5abd
00000110: 73af 643d 5c16 8cbd 04a5 d7bc 6716 d93a
00000120: 1b0c a93d 2412 c3bd b6c3 28be ab19 a03e
00000130: a11e 923e 00d0 9dbd f1d1 823d a7b6 213e
00000140: f02d 833d da45 8bbd 6ec5 acbd 5cdc aabd
00000150: 74fe cb3d e015 163e cc11 3dbe 8f8a f33d
00000160: 2466 223e d1f6 7fbd 2e82 ed3d 9a71 293e
00000170: 2f9c 673d 1c3f cbbd 1988 543d 7316 09bc
00000180: f36f 103d fc1f 7f3c be47 b6bd 1479 52bd
00000190: 48fd 42bd 0544 0f3d 9b15 21bc c8b3 8a3d
000001a0: 595f 003e 2ee2 173d da2c 95bc eb18 28bd
000001b0: b5f2 eb3e 4b87 053f 5369 013e a14f f4bd
000001c0: e993 a43e 3a1a fabb 0405 c5bd 56f7 a7bc
000001d0: ea92 40be ec17 d33d 4ed0 833d 6dc9 34be
000001e0: 8024 3f3e 973b 903e fae9 403c e87e 813d
000001f0: 9ee1 df3d 1e1c d53c 4219 763d 9218 8b3d
00000200: c71f febc cdeb 053e 7740 a63e 5d54 f43d
00000210: 23f4 2dbd fc96 9cbc 48a5 15bc 6b5a 47bd
00000220: aad0 903b abe6 a33c aceb cfbd 17ee e7bd
00000230: 0b34 95bd a7d5 67bd 47ce a1bd cb3a bdbd
00000240: f37f a23d 7ebe f4bc 4229 27bd de78 18be
00000250: 243d bd3c 2c0f 0fbc 664f 70be b001 3ebe
00000260: 8ed6 2c3e 089f 85bd 05ca cbbb 314a d2bc
00000270: 1c6c a5bc e1c6 94bd 03a7 593c 875f 5ebc
00000280: 8f9b 3e3d 6534 3a3d 275e 18be 8203 ea3c
00000290: 3002 8d3d e6c3 e03e 0612 2fbf 0233 7abd
000002a0: a973 73bd 5213 6a3e 7952 a9bb dd78 96bd
000002b0: 359f 0fbd 59eb d9bd 8799 e03b 6f92 91be
000002c0: fbf8 adbd bb50 7a3c c5de 0ebd 2244 fc3d
000002d0: bf55 15be 0b41 fe3e 723a 34be c68c 11be
000002e0: cc53 d5be 71f6 b53e 5e31 2f3e 27fd aabe
000002f0: 8e40 b03c 8deb e03b fe9c 74bd af4c 903d
00000300: 3c29 043e b4f5 793e f475 bfbb 4fc3 d0bd
00000310: 2f56 c53d b047 8d3d 2d97 c9ba e99d adbe
00000320: 5cc8 3ebe 9f96 9dbe 6ec9 323f 2231 e4bd
00000330: 9212 9cbe 6107 d1bd b946 6f3e 279d eabc
00000340: d352 20be 2168 e0bb 4455 9dbb f454 843c
00000350: a98a abbc eace 253d 0659 f2bc 2754 45bd
00000360: 7ef5 b9bd 9e74 d83c fc14 fe3d b2d8 a93e
00000370: 58b7 293f 1922 9e3d c55c 8c3b 67d9 cc3e
00000380: e464 b03d ac7d 233d d778 38be b935 a9bd
00000390: 7655 47bd fa6e d4bd 762c 1bbe 7ea8 17be
000003a0: aa4d 1abe 5b78 fcbd b392 d83d cbf2 01be
000003b0: 6a17 803e c347 e43b 7463 28be 3ee0 8abe
000003c0: 983c 10bd e7d9 2a3e ddd2 11be e6f7 a2bd
000003d0: 507c 79bd 7551 20bd 3f97 54bd fd7e 7fbe
000003e0: 4d57 2cbe f882 133c cc4f d5bd 3be7 33be
000003f0: 5506 1a3d 972f 7bbe 3130 4b3e 80f8 a23e

layer2.0.bn2.weight f4 [16]
0.6346879 1.0093815 0.9291099 0.52580893 0.9591506 0.66399026 1.096817 0.43384555
0.56461066 0.58979315 0.6560347 0.6172295 0.97974664 0.5549207 0.87392414 0.7940578
00000000: e87a 223f 6a33 813f 25da 6d3f 6a9b 063f
00000010: e58a 753f 44fb 293f 8064 8c3f 0121 de3e
00000020: 538a 103f affc 163f e4f1 273f c102 1e3f
00000030: add0 7a3f 480f 0e3f 7eb9 5f3f 5f47 4b3f

layer2.0.bn2.bias f4 [16]
0.12330334 -0.037169017 -0.06320672 -0.013113742 -0.098719075 0.58290905 -0.09394283 0.036937367
0.73387647 -0.20011634 -0.2654208 0.17685136 -0.040098105 0.36324683 -0.05107147 -0.02355248
00000000: 7686 fc3d 8a3e 18bd 8672 81bd 05db 56bc
00000010: 3a2d cabd 8739 153f 1965 c0bd a34b 173d
00000020: 54df 3b3f 4ceb 4cbe 3ce5 87be 8618 353e
00000030: e93d 24bd 7dfb b93e 5130 51bd 21f1 c0bc

layer2.0.bn2.running_mean f4 [16]
1.1498967 -0.98552525 0.88287944 -0.6371644 0.45751554 0.6457786 -0.48833856 0.39838144
-0.92839783 -0.36946172 -1.2568809 0.4794948 0.2612132 1.7678059 -0.56661993 -0.6451101
00000000: d12f 933f 624b 7cbf 6304 623f 351d 23bf
00000010: 7a3f ea3e bf51 253f 8307 fabe a7f8 cb3e
00000020: 7bab 6dbf 162a bdbe 79e1 a0bf 5880 f53e
00000030: bdbd 853e 7747 e23f 010e 11bf ef25 25bf

layer2.0.bn2.running_var f4 [16]
0.49682373 0.94454825 0.8659854 0.28075802 0.9035738 0.8676298 0.99879795 0.3793647
0.84521616 0.24754581 0.21183616 0.7523868 1.1229734 0.70079005 0.65783155 0.39538518
00000000: ae5f fe3e eacd 713f 38b1 5d3f 84bf 8f3e
00000010: 9d50 673f fd1c 5e3f 39b1 7f3f 173c c23e
00000020: 1660 583f a67c 7d3e 94eb 583e 6c9c 403f
00000030: 98bd 8f3f fa66 333f a667 283f ed6f ca3e

layer2.0.shortcut.0.weight f4 [16, 8, 1, 1]
0.50570315 -0.11979808 0.2649614 0.04807153 0.07910204 -0.08442698 -0.07844162 0.0014860015
-0.11401096 0.21512906 -0.20592563 0.06903452 -0.2866283 0.14198892 0.13534014 -0.18736888
0.4193739 0.035424046 0.008490153 0.009209171 -0.14079967 -0.02565783 0.02288012 -0.06249577
0.21819963 0.12703945 0.16656823 0.52203476 -0.002800419 -0.0068292296 -0.47625366 -0.1339058
0.21838696 0.05872615 0.19199784 0.05211114 0.1911503 -0.13761361 0.10774291 0.1610926
0.010773754 0.20064041 0.2583479 -0.008960142 -0.14368443 -0.094743766 -0.032556638 0.11678382
-0.17235994 0.34337693 0.1266837 -0.049618393 0.065901965 -0.24265788 0.038702957 0.048082944
0.11421602 0.0032971394 -0.05065982 -0.31708646 0.039698914 -0.064620435 0.7002774 0.20233846
-0.06059361 -0.058754455 -0.11377437 0.20196602 0.004499766 0.27785254 0.10207529 -0.06725989
-0.047168296 0.077830955 0.39125565 -0.24943931 -0.008206452 0.05787608 0.223898 -0.76766986
0.20974158 0.0060012 -0.40549785 -0.012586136 0.020178901 -0.008971608 -0.022852013 0.56987137
-0.05999266 0.14889297 -0.13114803 0.06124682 -0.43808344 0.21313599 0.094313756 0.04343841
-0.03810013 -0.0020757366 0.11966182 0.008359661 -0.04897714 0.28123954 -0.079640955 -0.05156911
-0.64637446 -0.012890921 0.009391775 0.095525704 -0.06172615 0.10274716 0.20019566 0.07117894
-0.061650734 0.35627225 -0.16297166 -0.10384822 -0.27784038 0.093260616 0.069799 0.06971338
0.07983429 -0.06769582 0.16628225 -0.40769902 -0.013078108 -0.048437968 0.22572574 -0.19611587
00000000: c375 013f b258 f5bd 05a9 873e a7e6 443d
00000010: 4000 a23d 0de8 acbd 00a6 a0bd f0c5 c23a
00000020: 947e e9bd cb4a 5c3e 2bde 52be f861 8d3d
00000030: f2c0 92be 8b65 113e 9b96 0a3e a1dd 3fbe
00000040: 2db8 d63e ce18 113d 481a 0b3c 10e2 163c
00000050: ca2d 10be 5f30 d2bc 176f bb3c 91fb 7fbd
00000060: b96f 5f3e a116 023e dd90 2a3e 12a4 053f
00000070: 3c87 37bb bbc7 dfbb 85d7 f3be 9a1e 09be
00000080: d5a0 5f3e d58a 703d 159b 443e 7e72 553d
00000090: e7bc 433e 95ea 0cbe 51a8 dc3d 75f5 243e
000000a0: 6684 303c ae74 4d3e 2d46 843e 8fcd 12bc
000000b0: 0322 13be 0509 c2bd 1c5a 05bd 5b2c ef3d
000000c0: 207f 30be 1acf af3e 5fb9 013e a83c 4bbd
000000d0: 9cf7 863d 4f7b 78be fe86 1e3d 9ff2 443d
000000e0: 17ea e93d d214 583b ac80 4fbd 2859 a2be
000000f0: 549b 223d b857 84bd 6145 333f d031 4f3e
00000100: 0131 78bd 83a8 70bd 8902 e9bd 2ed0 4e3e
00000110: c672 933b b042 8e3e da0c d13d 8ebf 89bd
00000120: 8b33 41bd d665 9f3d a952 c83e 056d 7fbe
00000130: 5b74 06bc 780f 6d3d 8445 653e 0386 44bf
00000140: 7fc6 563e b7a5 c43b 6a9d cfbe 1536 4ebc
00000150: 394e a53c a7fd 12bc 2534 bbbc 17e3 113f
00000160: ddba 75bd 6677 183e ab4b 06be f2dd 7a3d
00000170: 794c e0be 5240 5a3e 9227 c13d 79ec 313d
00000180: e20e 1cbd 1509 08bb 4211 f53d f6f6 083c
00000190: 419c 48bd a1fe 8f3e cc1a a3bd 223a 53bd
000001a0: cc78 25bf 7134 53bc f6df 193c fba2 c33d
000001b0: 8fd4 7cbd 1a6d d23d 1700 4d3e 44c6 913d
000001c0: 7b85 7cbd 5169 b63e 0be2 26be 60ae d4bd
000001d0: 1841 8ebe 6cff be3d c7f2 8e3d e3c5 8e3d
000001e0: 2980 a33d 1ba4 8abd e545 2a3e edbd d0be
000001f0: 9045 56bc e466 46bd a624 673e 99d2 48be

layer2.0.shortcut.1.weight f4 [16]
0.21207897 0.20368987 0.1740536 0.5017399 -0.13422282 0.07140912 0.14116627 0.41995904
0.042963855 0.6761527 0.5419214 0.19631252 0.099929266 0.26327232 0.28917438 0.21620883
00000000: 3b2b 593e 1494 503e 1b3b 323e 0772 003f
00000010: b571 09be f23e 923d e48d 103e df04 d73e
00000020: defa 2f3d 5818 2d3f 5cbb 0a3f 2606 493e
00000030: b7a7 cc3d a1cb 863e aa0e 943e d965 5d3e

layer2.0.shortcut.1.bias f4 [16]
0.12330334 -0.037169017 -0.06320672 -0.013113742 -0.098719075 0.58290905 -0.09394283 0.036937367
0.73387647 -0.20011634 -0.2654208 0.17685136 -0.040098105 0.36324683 -0.05107147 -0.02355248
00000000: 7686 fc3d 8a3e 18bd 8672 81bd 05db 56bc
00000010: 3a2d cabd 8739 153f 1965 c0bd a34b 173d
00000020: 54df 3b3f 4ceb 4cbe 3ce5 87be 8618 353e
00000030: e93d 24bd 7dfb b93e 5130 51bd 21f1 c0bc

layer2.0.shortcut.1.running_mean f4 [16]
0.5138225 -0.26718545 0.18537797 0.5270456 0.60193557 0.2964823 0.14710338 0.19746563
0.117445305 -0.18709962 0.07269154 -0.10984183 0.14592266 -0.20654438 -0.14750953 -0.2288649
00000000: df89 033f 88cc 88be b9d3 3d3e 76ec 063f
00000010: 7318 1a3f 87cc 973e 45a2 163e 6e34 4a3e
00000020: 2a87 f03d 0b97 3fbe 4ddf 943d c1f4 e0bd
00000030: c06c 153e 5f80 53be bd0c 17be 8f5b 6abe

layer2.0.shortcut.1.running_var f4 [16]
0.07512407 0.09979811 0.045510266 0.12443827 0.04564214 0.039427426 0.06417891 0.10589176
0.026832124 0.13689905 0.09059647 0.14848284 0.037999395 0.09422486 0.13522409 0.039661158
00000000: a6da 993d f462 cc3d f968 3a3d 7ed9 fe3d
00000010: 41f3 3a3d a77e 213d 3b70 833d c7dd d83d
00000020: 0bcf db3c 442f 0c3e a48a b93d e30b 183e
00000030: 41a5 1b3d f7f8 c03d 2f78 0a3e bd73 223d

layer3.0.conv1.weight f4 [32, 16, 3, 3]
0.11477599 -0.07642151 -0.10268367 0.0056680716 0.028196188 -0.03521864 -0.04089043 -0.023679474
0.08267966 0.08332492 0.09849081 0.07129899 0.24371949 0.4013609 0.30794787 0.18322663
0.40677822 0.27939332 0.111339286 0.017922003 -0.0015842479 0.18263416 0.25799298 0.22534177
0.20660698 0.40508494 0.22918032 0.12502092 0.13598828 0.051537097 0.1806945 0.2245847
0.09789258 0.12944676 0.1279696 -0.015851533 -0.04351757 -0.18688834 -0.12107504 -0.06721529
-0.19751967 -0.17460187 0.052343085 -0.027537717 -0.062729396 -0.02278074 0.042076066 0.2375734
-0.031661864 -0.033821918 0.11884766 -0.1764442 -0.19951442 -0.062203873 0.0046857228 0.17849882
0.17091848 0.16469108 0.4041424 0.33807674 0.13307202 0.21473947 0.13987786 -0.16414076
-0.07232996 0.016057514 -0.18580072 -0.11683581 0.04009863 -0.12200377 -0.18710755 -0.024220303
0.119380794 0.15278481 0.13768864 0.19948062 0.15114315 0.08010764 0.26139864 0.2934388
0.14440817 0.041928455 0.043116424 -0.011424761 -0.031569097 0.05379795 -0.14343813 0.044681635
-0.018822165 -0.09942302 0.047154713 0.04561329 0.023589192 0.028358363 -0.027946712 -0.023111932
0.0623834 -0.0054534897 -0.035300437 -0.049026463 -0.0724501 -0.06273271 -0.079863176 -0.09845094
-0.120328106 -0.01275063 -0.101081416 -0.10344528 -0.0044352766 -0.11699566 -0.18841456 0.005186238
-0.1641344 -0.19439328 0.07150474 -0.00040154744 -0.03899639 0.2231921 0.079798646 -0.14596188
0.3030895 0.25194788 -0.007763387 0.16162808 0.10912614 -0.004755404 -0.12528816 -0.10574276
0.11588273 -0.15156431 -0.010333217 0.1355664 -0.054937314 0.016999057 -0.009294417 -0.027298285
-0.059432607 -0.03568743 0.021179883 -0.13952345 -0.1615545 0.085901126 -0.04439968 -0.1364909
-0.14018315 -0.023351092 0.09633649 -0.05317061 0.22962412 0.30304116 0.05227935 0.23968086
0.17647538 0.06295753 0.115853675 0.038937084 0.078394525 0.046813667 -0.034400214 -0.03495265
-0.08488328 -0.042410016 -0.02802753 -0.060011297 -0.038566656 -0.06617258 -0.108932965 -0.0043076864
-0.068207994 -0.034825966 -0.06174306 -0.15830246 -0.11524262 0.013297477 -0.072109476 0.06660406
0.13485439 0.011202607 -0.011260158 0.027969865 0.014271404 0.019696312 -0.044876084 0.048680168
0.038772836 0.022177078 0.06061651 0.051756423 -0.0047618933 -0.26929316 -0.24001905 -0.12239742
-0.0037593201 0.2044954 0.26688218 0.1561706 0.03903172 -0.10591094 -0.07241675 -0.03733479
0.033825416 0.03939433 0.086201884 0.11656208 0.09810567 0.1497743 0.026442744 0.015754418
-0.06738363 -0.1165497 -0.16183706 -0.19417514 -0.12035292 -0.24967566 -0.13935097 0.14718103
-0.050573044 -0.15551874 0.10708474 -0.04180656 0.18102023 0.34295297 -0.056017023 0.024574732
0.12333281 -0.07236893 0.12970032 -0.0020830182 0.039453514 0.086025454 0.027670834 0.014614825
0.07076793 0.06509476 0.00210438 -0.019092998 0.028361045 0.010689444 0.08690051 0.086471505
0.025587315 0.100249074 -0.0028195665 -0.16798662 -0.13040994 -0.07765071 -0.1372557 -0.0633582
0.08721068 0.0104474565 0.061820045 0.025264723 0.003901086 -0.03665883 0.0015410889 -0.037493397
00000000: ad0f eb3d e182 9cbd d14b d2bd 3bbb b93b
00000010: b1fb e63c 6c41 10bd b97c 27bd 75fb c1bc
00000020: f453 a93d 41a6 aa3d 8db5 c93d 3405 923d
00000030: 9a91 793e 2d7f cd3e 58ab 9d3e c39f 3b3e
00000040: 3c45 d03e a40c 8f3e da05 e43d 2ad1 923c
00000050: 8aa6 cfba 7304 3b3e a817 843e febf 663e
00000060: c890 533e 4b67 cf3e 3fae 6a3e 7c05 003e
00000070: 8340 0b3e 9018 533d fb07 393e 88f9 653e
00000080: e87b c83d b18d 043e 760a 033e 13db 81bc
00000090: 7b3f 32bd a85f 3fbe 31f6 f7bd 2ca8 89bd
000000a0: 9942 4abe d5ca 32be b465 563d c796 e1bc
000000b0: 4578 80bd ad9e babc f457 2c3d 7146 733e
000000c0: dfaf 01bd da88 0abd 6766 f33d caad 34be
000000d0: 824d 4cbe 7dc9 7ebd b18a 993b 65c8 363e
000000e0: 4105 2f3e c7a4 283e c1eb ce3e 6518 ad3e
000000f0: 0844 083e aae4 5b3e 243c 0f3e 8414 28be
00000100: bb21 94bd 0c8b 833c 8b42 3ebe 9d47 efbd
00000110: 763e 243d 1ddd f9bd 1f99 3fbe a869 c6bc
00000120: eb7d f43d 9f73 1c3e 40fe 0c3e a644 4c3e
00000130: 45c5 1a3e 790f a43d 0bd6 853e 9c3d 963e
00000140: bcdf 133e 2cbd 2b3d d99a 303d ec2e 3bbc
00000150: 994e 01bd 3d5b 5c3d 72e1 12be 1704 373d
00000160: f130 9abc 4c9e cbbd 4d25 413d 00d5 3a3d
00000170: 1f3e c13c cc4f e83c 81f0 e4bc 3c55 bdbc
00000180: bc85 7f3d 30b3 b2bb 3197 10bd f9cf 48bd
00000190: b860 94bd 027a 80bd 4e8f a3bd a5a0 c9bd
000001a0: 956e f6bd 05e8 50bc c603 cfbd 1edb d3bd
000001b0: cc55 91bb 6c9b efbd bfef 40be 51f1 a93b
000001c0: d912 28be 080f 47be 1471 923d c986 d2b9
000001d0: aeba 1fbd 788c 643e 796d a33d 0877 15be
000001e0: 8c2e 9b3e 50ff 803e 0364 febb d581 253e
000001f0: 877d df3d 38d3 9bbb 8a4b 00be a98f d8bd
00000200: ed53 ed3d ad33 1bbe a74c 29bc ebd1 0a3e
00000210: f305 61bd 9b41 8b3c 9c47 18bc a7a0 dfbc
00000220: 9b6f 73bd fc2c 12bd 6f81 ad3c 3cdf 0ebe
00000230: 8b6e 25be eeec af3d 70dc 35bd 45c4 0bbe
00000240: 2c8c 0fbe ca4a bfbc 114c c53d 6dc9 59bd
00000250: 9622 6b3e 3628 9b3e df22 563d e66e 753e
00000260: f6b5 343e e1ef 803d b144 ed3d 7e7c 1f3d
00000270: 4f8d a03d b0bf 3f3d 3de7 0cbd 832a 0fbd
00000280: 49d7 adbd 20b6 2dbd fe99 e5bc 68ce 75bd
00000290: 12f8 1dbd 7d85 87bd 3f18 dfbd 7e27 8dbb
000002a0: a2b0 8bbd aca5 0ebd 4ae6 7cbd 0a1a 22be
000002b0: 5304 ecbd a9dd 593c 22ae 93bd b667 883d
000002c0: 4517 0a3e 248b 373c 877c 38bc 0f21 e53c
000002d0: 9bd2 693c 295a a13c fccf 37bd db64 473d
000002e0: 44d0 1e3d b4ac b53c 0549 783d 8bfe 533d
000002f0: a809 9cbb cbe0 89be 8ec7 75be 80ab fabd
00000300: ed5e 76bb 3e67 513e c8a4 883e 30eb 1f3e
00000310: badf 1f3d d6e7 d8bd 3c4f 94bd 5dec 18bd
00000320: 858c 0a3d f35b 213d 9d8a b03d 1ab8 ee3d
00000330: a0eb c83d 6f5e 193e 749e d83c 690f 813c
00000340: 6e00 8abd 9cb1 eebd 9db8 25be d9d5 46be
00000350: 977b f6bd faaa 7fbe 05b2 0ebe a0b6 163e
00000360: ae25 4fbd 4e40 1fbe 3f4f db3d 5b3d 2bbd
00000370: 5e5d 393e 8897 af3e 1b72 65bd f350 c93c
00000380: ea95 fc3d 2936 94bd 29d0 043e 3f83 08bb
00000390: 029a 213d 1d2e b03d f2ad e23c 0573 6f3c
000003a0: c7ee 903d 6750 853d a3e9 093b eb68 9cbc
000003b0: 6c55 e83c c722 2f3c e5f8 b13d f917 b13d
000003c0: 7d9c d13c 634f cd3d 7ac8 38bb af04 2cbe
000003d0: 2f8a 05be 5607 9fbd c28c 0cbe f2c1 81bd
000003e0: 839b b23d cf2b 2b3c 0437 7d3d f7f7 ce3c
000003f0: 5da9 7f3b 9227 16bd 5dfe c93a ad92 19bd

layer3.0.bn1.weight f4 [32]
0.3054487 0.45279896 0.32762727 0.29934376 0.47849512 0.45860326 0.39718845 0.54063666
0.38232142 0.54799706 0.43152294 1.4494191 0.56107354 0.41024515 0.5319027 0.37811777
0.705869 0.39657494 1.0537182 0.6045817 0.46514925 0.4185719 0.50093114 0.5848346
0.4925347 0.5204127 0.49856707 0.51725775 0.4706142 0.46400094 0.56231236 0.4274113
00000000: c663 9c3e 44d5 e73e c3be a73e 9643 993e
00000010: 50fd f43e 0cce ea3e 495c cb3e 2a67 0a3f
00000020: a2bf c33e 8949 0c3f 93f0 dc3e 9186 b93f
00000030: 84a2 0f3f a70b d23e c62a 083f a798 c13e
00000040: d5b3 343f df0b cb3e 3de0 863f dec5 1a3f
00000050: 0b28 ee3e 0e4f d63e 063d 003f b8b7 153f
00000060: 822d fc3e c439 053f 2f44 ff3e 016b 043f
00000070: 58f4 f03e 8891 ed3e b4f3 0f3f a7d5 da3e

layer3.0.bn1.bias f4 [32]
0.53941107 0.11007112 0.39806792 0.5023463 -0.024604844 -0.023646956 0.18513544 0.17818925
0.420827 -0.12912107 0.02766431 -1.0169984 -0.2553723 0.277829 -0.13213523 0.10473355
-0.24092436 0.10993037 -0.32800394 0.052749526 -0.03745607 0.28754434 -0.009243226 -0.09102584
-0.13962616 0.3180606 -0.06851769 -0.14093128 -0.09245444 0.058571268 -0.16645148 -0.16917105
00000000: d816 0a3f f86c e13d 8fcf cb3e c499 003f
00000010: 1990 c9bc 43b7 c1bc 2594 3d3e 3e77 363e
00000020: a376 d73e 5038 04be 43a0 e23c 012d 82bf
00000030: 28c0 82be 9a3f 8e3e 754e 07be 8b7e d63d
00000040: e0b4 76be 2c23 e13d 22f0 a7be e30f 583d
00000050: 896b 19bd 0339 933e e670 17bc c16b babd
00000060: 29fa 0ebe d7d8 a23e 0153 8cbd 4a50 10be
00000070: c158 bdbd 6de8 6f3d 4272 2abe 2d3b 2dbe

layer3.0.bn1.running_mean f4 [32]
3.4071157 1.3497369 0.68869174 -3.255505 0.2376765 -0.07012348 -1.4571489 0.06768542
3.8978188 -0.3470543 1.4421221 -1.7029337 -1.8221327 1.0602071 -0.48032227 0.10437263
-0.87667924 -0.15079999 -1.3455256 -0.8720817 -1.1289133 -1.5849925 -1.0482765 0.041703217
-0.23580365 -0.4772874 -2.2119257 -1.3532015 0.0085885795 1.9906431 -1.2421608 -0.36129057
00000000: 2f0e 5a40 2ec4 ac3f 1a4e 303f 325a 50c0
00000010: 7861 733e e69c 8fbd db83 babf a79e 8a3d
00000020: dd75 7940 1ab1 b1be 7597 b83f bbf9 d9bf
00000030: a53b e9bf deb4 873f cdec f5be 51c1 d53d
00000040: 0d6e 60bf 506b 1abe 2f3a acbf bf40 5fbf
00000050: 3b80 90bf 09e1 cabf ed2d 86bf fed0 2a3d
00000060: 8376 71be 045f f4be 3190 0dc0 b535 adbf
00000070: 1db7 0c3c 65cd fe3f 20ff 9ebf 14fb b8be

layer3.0.bn1.running_var f4 [32]
1.2297028 1.2455485 1.2510201 1.3948412 2.3856125 0.7742125 1.7040812 1.5454681
2.3464756 0.77286744 0.9917576 2.3770807 0.86885077 1.509268 0.638423 0.9901759
1.1295835 1.0527678 2.1893694 1.5592289 0.7010326 1.9062839 0.9963009 1.4853814
0.71292436 2.0458348 1.199087 0.8554575 0.8664472 1.3167956 0.86149377 0.7506363
00000000: e766 9d3f 226e 9f3f 6d21 a03f 288a b23f
00000010: e0ad 1840 ca32 463f 551f da3f e6d1 c53f
00000020: a82c 1640 a4da 453f d3e3 7d3f 1722 1840
00000030: 016d 5e3f b22f c13f b16f 233f 2b7c 7d3f
00000040: 3196 903f 18c1 863f a11e 0c40 d094 c73f
00000050: df76 333f 1c01 f43f 930d 7f3f fa20 be3f
00000060: 3682 363f f5ee 0240 af7b 993f 43ff 5a3f
00000070: 7ccf 5d3f c28c a83f db8a 5c3f b329 403f
