kd_results/KD_seed-3_cycles-1_KDfrac-0.5_T-2_cifar100-ResNet10_smodel_best.pth.tar (torch, 717977 bytes, 100 tensors)

conv1.weight f4 [8, 3, 3, 3]
00000000: 7498 2cbc 5a19 09bd 4810 703d 990b efbd
00000010: 6fb0 aa3f 581a 1fbe a2db 473d 7759 2abe
00000020: c495 323d 1311 dabb d9cc 49be 9aaa 09bd
00000030: 750b 9ebe 4880 ce3f 2b1c a6be 0dd8 f2bd
00000040: 01ea ccbe b670 09bd 9d2d d23d 2c1b 7fbd
00000050: 799c bc3d 4087 20be 308f 923f 877d 713c
00000060: 7e0d 283d 9954 b8bd f28b ce3d 5632 4e3e
00000070: d8e5 1e3f b25f 7a3e fe20 8abe 0768 6bbf
00000080: 68c6 97be 90cb 943d 9c57 c63d 5f56 403e
00000090: 2987 ea3d 11de 593f 1aa6 b33d 0e20 4abe
000000a0: 3dfa 5ebf a70e 70be c022 8e3d 7283 213e
000000b0: 0e3b a43d 9a51 0f3e e389 1e3f c5d2 843d
000000c0: a602 58be 5687 34bf 8289 43be b413 493d
000000d0: 29d9 003c 1591 0f3e cfec 0c39 ec9e d5be
000000e0: ab30 59bd 0eec 0b3e b834 64bf 802a 6bbd
000000f0: 2d9d 423d a214 923b 2d8d 173e f56d 4b3d
00000100: 3be3 eebe 81ec 4d3d 4383 e83d 398d 76bf
00000110: a603 9abd 890b 473b f395 adbd e47c ce3d
00000120: 598f c6bc 87c5 e5be 62d9 91bc 379a 94bd
00000130: ad53 76bf 305d 42be 3d3d 853c f913 a1bd
00000140: 8df9 ca3c b6c5 39be 65b8 dc3d f122 31be
00000150: da4c c83e 731d 2a3f 8e59 253f e7bf 6b3e
00000160: 180d b83e 6377 a53e 86ad 73be e7f0 9b3e
00000170: 882f 8e3c 9633 bf3d 0e81 a2be e469 cf3e
00000180: 5b80 7d3d 02dc 303d 0951 e03c 2628 71bd
00000190: 2d0f 8b3e b8c5 25be cebf b1bd ace0 7fbf
000001a0: fdce 15bf e10f f9bd 3a8b 0bbf 5eb1 18bf
000001b0: fbc0 bb3d d1a7 74be 59f8 9abe f46e 77be
000001c0: bb58 40bf 74ab a2be 5ba3 c9be 1315 74be
000001d0: 9c20 8abe 92bf ca3d c507 b33e dbcd a93e
000001e0: 098e e33e 382a e33e 9c94 5c3f 8d5a e53b
000001f0: b8f3 363f ef8d 633e c708 fdbd 77d4 3ebe
00000200: 9804 c7bd 3cd1 843e 150f 97be f8ac d3bd
00000210: 6bbf ffbd eea5 073d 44cd babe fbc9 903d
00000220: 2a55 acbd 3b78 f23d 2f2c 03be f060 42bf
00000230: 2585 863f d5bd b3bc bca6 48be a8d9 1d3e
00000240: 4dbc 863d 1d23 f6be 302c 803e 770a 69be
00000250: a362 bebf 41f1 df3f 4a51 293e 10fe b1be
00000260: 5a88 843e 3ad9 683d c98c b4be d4f2 373e
00000270: 0d54 68be 6516 71bf d313 af3f b7c5 b03d
00000280: eccf b7be a5cb 013e 2aa9 5ebe f728 77be
00000290: 0f98 7cbe a36e 45be 29b6 09bf b697 cbbe
000002a0: d5fa 0cbe 4647 c1be 30cd e0bd 6be7 1bbe
000002b0: cd7d 103e 537f 963d c8dd 203c 1a5c 32be
000002c0: f097 44be 7ea4 1a3d 9ef2 30be 53c9 81bd
000002d0: 066c 963d 773b f43e 42a2 b13e ed58 a43e
000002e0: 80d1 e33e 3a17 a13e fe3d a63e 9551 9e3e
000002f0: 8ad2 a93e 965b c03d a2b7 8a3e 8bd0 023e
00000300: 87c4 4b3e 853d 393f 9302 b33e 9aab 1e3c
00000310: fff1 653d daf8 003e db0b 5abe 2c76 2fbf
00000320: 05d6 13bf 7925 bfbe 60eb 3abf 0eee 27bf
00000330: 54eb 49be 6f21 26bf 1e60 84bd 3f2d b93e
00000340: 1b95 5f3e a025 023e b338 bb3e 9892 ec3e
00000350: dd15 953e 504b 443e 5521 6cbc 3a69 733e
-0.0105343945 -0.033471443 0.058609277 -0.11672134 1.3335093 -0.15537393 0.048793443 -0.1663569
0.04359986 -0.0066548674 -0.1970705 -0.033609964 -0.30868116 1.6132898 -0.32443365 -0.11857615
-0.4002228 -0.033554755 0.10262606 -0.062281772 0.09209532 -0.15676594 1.1449947 0.014739401
0.041028492 -0.09000511 0.10085286 0.20136389 0.62069464 0.24450567 -0.26978296 -0.9195561
-0.2964356 0.07265389 0.09684679 0.18782948 0.11451561 0.8510447 0.08771916 -0.1973879
-0.87100583 -0.2344309 0.06940222 0.15772799 0.08019076 0.13995972 0.6192915 0.064855136
-0.2109476 -0.70519006 -0.19095424 0.049091056 0.007864275 0.14020188 0.00013439659 -0.4172281
-0.05302493 0.13664266 -0.8914294 -0.057413578 0.047513176 0.004458026 0.14799948 0.04966541
-0.46657738 0.050274376 0.11353161 -0.9630924 -0.07520227 0.0030371866 -0.08475866 0.10082415
-0.024238275 -0.44877264 -0.017803852 -0.07255977 -0.9622143 -0.1898086 0.016264552 -0.078651376
0.024777198 -0.18141827 0.10777358 -0.17298485 0.39121133 0.66451186 0.64589775 0.23022424
0.3594749 0.32317647 -0.23796663 0.3045723 0.017356649 0.09336011 -0.31739086 0.40510476
0.061889987 0.043178566 0.02738239 -0.05887618 0.27160016 -0.16188705 -0.08679162 -0.999522
-0.58518964 -0.12161232 -0.5450932 -0.5964564 0.091676675 -0.23892142 -0.302676 -0.24163419
-0.7513539 -0.31771433 -0.39382443 -0.23836164 -0.26978004 0.098998204 0.34966865 0.33164868
0.44444302 0.44368148 0.8616426 0.00699932 0.71465635 0.22222112 -0.1235519 -0.18635736
-0.09717673 0.25940883 -0.29503694 -0.103357255 -0.12487682 0.033117227 -0.3648473 0.07069775
-0.08414681 0.118393384 -0.12809823 -0.75929165 1.0509382 -0.021941105 -0.19594854 0.1541506
0.06578884 -0.48073664 0.25033712 -0.22757898 -1.4873852 1.74955 0.16534916 -0.34764147
0.25885278 0.05684779 -0.3526366 0.17963725 -0.22688313 -0.94174796 1.3677925 0.08631461
-0.3590082 0.1267534 -0.21744218 -0.2413672 -0.24667381 -0.19280486 -0.5379358 -0.39764184
-0.1376756 -0.3774969 -0.109766364 -0.15224998 0.14110489 0.07348504 0.009818502 -0.17417946
-0.19198585 0.03775453 -0.17280051 -0.06337228 0.073448226 0.47701618 0.34694105 0.32099095
0.44495773 0.31463033 0.3246917 0.30921617 0.3316844 0.09392469 0.27093226 0.12774865
0.19899188 0.72359496 0.349629 0.009684468 0.05613899 0.1259493 -0.21293585 -0.6853969
-0.5774844 -0.37333277 -0.73015404 -0.6559762 -0.19718677 -0.64894766 -0.064636454 0.36167333
0.21834223 0.12709665 0.36566696 0.46205592 0.29118243 0.19169354 -0.014412244 0.2377061

bn1.weight f4 [8]
00000000: 7bf5 103f be9d 173f 0a8f dc3f 3806 aa3e
00000010: e420 933e 8d4b 1c3f 92ec 963e eaa3 8c3e
0.56624573 0.5922507 1.7231152 0.3320787 0.2873603 0.6105278 0.29477364 0.27468807

bn1.bias f4 [8]
00000000: 156e 303f b054 51be f327 efbf c659 6a3e
00000010: 07e2 683e edcd 3e3e 56d1 af3d 337e 603e
0.6891797 -0.20442462 -1.8684067 0.22885808 0.22742473 0.18633242 0.085848495 0.21923141

bn1.running_mean f4 [8]
00000000: 2135 4cbf 712c 3d3d 22de af3f 0792 b0be
00000010: b94a e63c f9f6 b4bc b7c4 cc3e 19e0 363e
-0.7976857 0.04618496 1.3739665 -0.3448641 0.028111802 -0.022090422 0.39993832 0.17858924

bn1.running_var f4 [8]
00000000: c59a fe40 e749 0b40 3109 9f41 d5f4 2540
00000010: 2075 a23f acf2 c840 3936 2640 f8d2 b73f
7.956393 2.1763856 19.879488 2.5930684 1.2691994 6.279623 2.5970595 1.4361258

layer1.0.conv1.weight f4 [8, 8, 3, 3]
00000000: e172 253d ab24 34bd 422a b9bd 0ace e5bd
00000010: 7301 823c e1e9 4f3e 2832 a73d 1200 4cbe
00000020: 479b 1a3d c04c e4bd 739e a93d 259f 4dbd
00000030: fbf1 ba3d 2cdf 4dbd 061d 0abe 649a 4bbb
00000040: 52b6 07bd f6b5 c0bd 6f65 51bd 75af 88bd
00000050: 9117 043e edcd e4bd 868f 35bc f365 4fbc
00000060: b2dd 11be d390 bf3d bd13 ff3c 871a 91bd
00000070: 8de6 843e 23cb db3e 6510 19bf c7ce 64bd
00000080: fb27 263f e693 22bf df9f aebe 4971 823e
00000090: 327e 9a3e 36b9 f83e 52d7 1fbe c60c 873e
000000a0: 93b8 e03d 4c5a c5be 2825 bebd be2d c7be
000000b0: c254 16bf d762 2f3c c0e1 29be 8a4e 113e
000000c0: 77ad 753a 48fa 14bd 979f 6abd 0d63 aebd
000000d0: 6363 183d fc28 56bc ac69 823d 7069 a9bd
000000e0: 9d07 c0be 5c5e cb3e 2a3b 443d 188a d7be
000000f0: 3ad5 0e3f 7f57 843e c9d9 adbe 3a2c c5be
00000100: 8b0d ebbe aca2 b4be 122f 53be f250 a53d
00000110: 974a 553e 4243 533e a3b2 d13e 777f bf3e
00000120: d926 61bd cd2e d83e f190 0ebf 239b 233b
00000130: a2b5 e5bd 5dcf de3e 1556 29bc c4fd 8d3e
00000140: 4b91 d3be ff1b d0bc 0abb 0f3c 1bb9 1fbe
00000150: 6a13 9a3d 5dd9 d23c 8a28 66bc be34 593c
00000160: 1209 123d a357 64be cde3 bebd a95d 35bd
00000170: 19ed d2be 63ba 593e 9526 873e 4dca 9ebe
00000180: 12f7 de3e 892e 063f 68a2 c4bd 72e4 603d
00000190: ee2b 83be 68d4 a33e ecae 1ebe 4eae 0ebe
000001a0: ae13 9fbe 808b 533e 33e6 44be c15e 913e
000001b0: 0fda 2c3e 373f 1fbe 34c0 bf3d a358 3abe
000001c0: 1b3a 6e3e cc7b 93be 1186 f63d 4ab1 30be
000001d0: 3e89 293e 5d82 b8ba 259c 623e eabb c9bd
000001e0: 7cc3 94be 81bd a23e c44b 96be 3cb0 3cbe
000001f0: 3d15 063e a3d3 c5bd f899 69bd da3d 69bd
00000200: fffd e83c efc5 873d c446 5ebe f6db 30be
00000210: 32be 253e 427f 373d 5878 4a3e c9fb 8f3d
00000220: c0b3 c03c 15a9 7bbc abfe 23be 3b57 d4bd
00000230: 8a8b cbbb e2c9 a1bd d15d 363e 5e9d c9bd
00000240: ca53 86be b029 fb3c f8b3 debd 798e 9f3e
00000250: 0a37 a83f 0805 96bf 69b9 bdbd e672 a0bd
00000260: b21a 2b3d 7828 dc3c 9e42 4dbd 8ab7 cfbc
00000270: c3fe 503d 80a7 9c3d 0493 3a3d 3161 1d3e
00000280: 4c65 33be 411c 01be ef38 603d 2bc3 0b3d
00000290: eb3f 4f3e 7d7e 87be 9b03 30bf 931b a53e
000002a0: b683 f2bd 37b5 9fbe 32bf 6d3e 814a d63c
000002b0: 29a2 653e e0cd edbd e82a 9b3d a8d4 c13d
000002c0: 267c 0d3d 85ed 90be 9505 463e b847 9abd
000002d0: e8e7 45be 7f47 ff3d 8c5a 4c3c 8735 823e
000002e0: ce3e 10be 45c4 24be 0e56 913d 4ce8 9d3d
000002f0: 8061 083d ac23 e73d 7a0f 3cbe 4451 223e
00000300: b66a 38bd e1cf cbbf b4a5 e3bd 556c 143d
00000310: 328d 92be 3499 2f3d 59e2 0c3e c1b0 e6bd
00000320: 9460 9a3c f0a8 893d f20c bebd 6df9 71bb
00000330: eab1 b1bd 9fe3 abbc 61b3 27bc 3151 59be
00000340: ea6a c6bd 5aa7 543e 4b68 0c3e 5e6f 243e
00000350: 4905 6d3c 0fbb 65bc c617 13be 11c4 cf3d
00000360: 045b 0c3f a07d 0240 4436 3c3f d9e1 0cbf
00000370: 8b6e d3bf 77de 82bf 12f6 b43b c069 48be
00000380: 08c8 553d 45d5 353d 8035 dfbe 5867 f8bd
00000390: a0c3 99be 62ef bbbf bec3 43be c58c 753e
000003a0: 8055 2bbc b248 4a3e 9f01 bdbe 71b5 7fbf
000003b0: 7ae3 2abe 9a37 ef3e 3e1d 0f3f 4151 013f
000003c0: 6d2b 67be 5734 48bd d79a 67be 717b 233e
000003d0: 9cd5 773e ba0c 3a3e 697b b1be fa2c e3bd
000003e0: fcb1 58be 923d 033e 1d11 e6ba 93dc 18bd
000003f0: 5d0b 9f3e 03df f8bc 3851 8e3e e822 55be
0.04039276 -0.04398028 -0.09041263 -0.112209395 0.015869832 0.20304061 0.081638634 -0.19921902
0.03774574 -0.111474514 0.08282175 -0.0502006 0.09128185 -0.05026166 -0.13487634 -0.0031067366
-0.03313286 -0.09409706 -0.051122125 -0.06674091 0.12899615 -0.1117209 -0.011081582 -0.012658584
-0.14244726 0.09353795 0.031137342 -0.07085138 0.25957146 0.4292842 -0.5979064 -0.05586126
0.64904755 -0.63506925 -0.34106347 0.25477055 0.30174404 0.48578805 -0.15609482 0.26376933
0.10972705 -0.38545454 -0.09284431 -0.38902086 -0.5872308 0.010704718 -0.16590023 0.14190117
0.00093718566 -0.0363715 -0.057281103 -0.08514986 0.037204158 -0.013071295 0.063678116 -0.08272064
-0.37505808 0.39720428 0.047907986 -0.42097545 0.5579411 0.25848004 -0.3395522 -0.38510305
-0.4590877 -0.3528036 -0.20623425 0.0807208 0.20829235 0.20631126 0.40956602 0.37401935
-0.05496869 0.42223206 -0.55689913 0.0024964295 -0.11216284 0.4351758 -0.010335465 0.2773267
-0.41321787 -0.025403975 0.008772621 -0.15597956 0.07523234 0.025738413 -0.014047751 0.013257204
0.03565318 -0.22299056 -0.09320793 -0.044278774 -0.41196516 0.21262507 0.26396623 -0.31013718
0.43547875 0.52414757 -0.09601289 0.054905362 -0.25619453 0.3199799 -0.15496415 -0.1393368
-0.31069702 0.20658684 -0.19228439 0.28392604 0.16880058 -0.15551458 0.09362832 -0.18197875
0.23264353 -0.28805387 0.1203729 -0.1725513 0.1655626 -0.0014076937 0.22129877 -0.09850295
-0.29055393 0.31785205 -0.2935468 -0.18426603 0.1309404 -0.09659507 -0.0570316 -0.056943752
0.028441427 0.0662955 -0.21706682 -0.17271408 0.16185835 0.044799097 0.1977247 0.07030446
0.023523211 -0.0153601365 -0.16015117 -0.103682004 -0.0062117027 -0.07899834 0.17809226 -0.098444685
-0.262358 0.030659527 -0.1087417 0.31163386 1.3141797 -1.1720285 -0.0926388 -0.07834415
0.041773506 0.026874766 -0.05011236 -0.025356073 0.05102421 0.076491356 0.04555036 0.15369107
-0.1751911 -0.12608434 0.054741796 0.034121674 0.20239227 -0.2646369 -0.687555 0.322476
-0.11841528 -0.31192943 0.23217466 0.026158573 0.2242514 -0.11611533 0.07576543 0.09464389
0.034542225 -0.28306213 0.19338067 -0.075332105 -0.19326746 0.12464809 0.01247276 0.25431463
-0.14086458 -0.16090496 0.07096492 0.07710323 0.03329611 0.11286101 -0.18365279 0.15851313
-0.045023642 -1.5922815 -0.1111559 0.036236126 -0.28623348 0.042870715 0.1375822 -0.11264182
0.01884488 0.067216754 -0.09279813 -0.003692235 -0.086765125 -0.020982562 -0.010235638 -0.21222378
-0.09688361 0.20766965 0.1371166 0.16058108 0.014466592 -0.014021649 -0.14364538 0.101448186
0.5482638 2.0389175 0.735203 -0.55032116 -1.651811 -1.0224141 0.005522498 -0.1957159
0.052192718 0.044392843 -0.43595505 -0.12129086 -0.30032063 -1.4682429 -0.19117638 0.2397948
-0.0104573965 0.19754294 -0.369153 -0.9988623 -0.16688338 0.46722108 0.55903995 0.5051461
-0.2257516 -0.04887804 -0.2261766 0.15965058 0.2420258 0.18168917 -0.34664467 -0.11092563
-0.21161646 0.12816456 -0.0017552708 -0.03731973 0.31063357 -0.030379778 0.2779634 -0.20814097

layer1.0.bn1.weight f4 [8]
00000000: 7dce 9d3e a860 153f 3900 493f 038b 7f3f
00000010: e041 513f ffaa e53e 17f0 a73e ac09 853f
0.308216 0.5835061 0.78515965 0.9982149 0.8174114 0.44857022 0.32800362 1.0393577

layer1.0.bn1.bias f4 [8]
00000000: 0f93 c83e 2fde f5be 4ef8 533e 0b9c b53c
00000010: dba6 06bf ac0f 893e ed08 b73e 5e91 d0bf
0.39174697 -0.48021075 0.2070019 0.022169134 -0.5259835 0.2676977 0.35748997 -1.6294363

layer1.0.bn1.running_mean f4 [8]
00000000: 9c18 8dbe 5aea 0fbe 1b57 e6be 5b75 89be
00000010: 7ce2 63bf c185 46be 56ea f6bd 7826 6f3e
-0.27557838 -0.14054242 -0.4498833 -0.26847348 -0.8901746 -0.1938696 -0.12056415 0.23354518

layer1.0.bn1.running_var f4 [8]
00000000: 9796 193e c411 173e c6e2 c63f a109 743f
00000010: 7876 cc3e f8a8 1e3f 046d 1a3e 45e0 5a3e
0.14998852 0.14752871 1.5537956 0.9532719 0.39934134 0.61976576 0.15080649 0.21374615

layer1.0.conv2.weight f4 [8, 8, 3, 3]
00000000: da6e 25be 02a9 b03d dd14 e73d 7ebe 0c3c
00000010: d3be f23d ca49 383e 83ad f43b 5efd 4bbd
00000020: 6bdd 75bc c8e2 fabb 7841 813d ec95 d53d
00000030: f547 e0bc 7102 c43e 4424 693e e860 213c
00000040: 612c 8bbc edab b1bd 6c9a 8c3d fcd6 073e
00000050: f701 ab3c e12e 123d fe0f b53d d500 3d3e
00000060: ae40 cc3d a7aa 813e c5bf 8c3e d316 443d
00000070: 9ca7 2c3b 4af5 c73d b9ae 81be ae7a c9be
00000080: d84a 9fbe c55d ec3d 29b2 a43e 3868 f63e
00000090: e506 c83e 3f9e a3bd f59d fabd b548 c73c
000000a0: 7e78 a9bd 58e1 393d 5f87 2fbe 200e 97be
000000b0: a7db ba3d 3975 07be 3dfa bfbd d7aa b83d
000000c0: 1ec4 5a3e 4d44 a83e 584b 663e 4310 82be
000000d0: a544 e5bd f89c 42be 75b6 323d 69ed 2c3e
000000e0: a0aa 57be 01e0 5f3e 2f76 2e3e 4fea 583b
000000f0: 57bf 29be 2a36 a13c 56ad 7dbe f931 3f3e
00000100: a546 2d3e e9da 883e 4184 e5be 35fc 3ebf
00000110: a0ea 0cbe e0c4 3e3d 5598 46be 88b0 a73d
00000120: 0513 163c f5a4 a53d f14e 1e3e 3b44 4dbc
00000130: ec53 4ebe 2fd8 663d 5550 57bd 4fe4 403c
00000140: c0ef 9b3d c0f8 593e e4db 64bd f833 17be
00000150: 767a c7be ea38 063d fc93 4d3e 6113 0b3e
00000160: 7c66 91be 96f1 1d3d d25d 86be 63d0 bf3d
00000170: 35f2 fabc dfee 1cbd 22f3 89be 0aac 06be
00000180: 7367 d63d fa6c 793e fa2a 933e e477 acbc
00000190: a58d a0bd e2bc 043d 343f 4d3e 8028 a8bc
000001a0: e4d6 493e 9f52 a93d 2003 5fbe 7fce 17bd
000001b0: 96fc fc3c 6dd5 d23d 3d80 0c3d 1b98 efbd
000001c0: 2e48 0bbe 44cc 88be 3cb7 963e 0406 513e
000001d0: 2b03 81bc 6a48 a7be 05bb fa3e b383 2a3e
000001e0: e2c9 0fbf 3534 c1bd 33b5 7a3e 674a 943a
000001f0: 21e0 dfbc 5b58 3e3e d962 01be 90ca c23b
00000200: a10d 0b3d 4d28 8b3e afd1 ebbd 7eda c6bd
00000210: cc3f 2bbe dc9e b23e bced 9f3c 93bf 22be
00000220: 91b0 9bbd b37b c6bb 03fa da3e 3572 033f
00000230: 842c 913e d6f0 27bd f693 cd3d d4e2 fbbd
00000240: 3919 523d 699e 033d 9191 22bd cf05 983d
00000250: 3b35 82bd 0e7e 5e3c 29e3 393d 173d 1cbd
00000260: 9d90 b7bd c8d7 93bd 1cd4 0dbe ac07 abbc
00000270: b08b a43e 8d12 4fbd ad8e 11be 000f 913d
00000280: 2d73 913d 35b4 943d 9bbd 0e3e 477e 233c
00000290: 26aa aa3a 8482 4f3f 7103 2d3e 1651 8ebe
000002a0: 5465 17be 794c a23d e33f 823e adb7 2abe
000002b0: b115 da3d 8a2f 603e e010 20bd d0be 823e
000002c0: 4727 5f3e faff a5bc 2939 40bf 2369 1dbf
000002d0: dfa6 8abd 237a 4bbe d563 7d3e 5b11 47be
000002e0: b12a 6bbd 95be d73d 04e3 51be d35f de3c
000002f0: 674c 363e 90fe 4cbe 0219 dfbd 7f04 c5bd
00000300: 775e acbe 155b 2abe 5b50 fcbd ce77 863e
00000310: 4b6d 253f 4cee 4f3e a441 1d3d 5b2e 213c
00000320: b808 ddbd 2ee5 973d 5420 953c 6799 f43c
00000330: 267c 07be 3b28 203d 64d4 0e3e fc10 c8bd
00000340: a512 5abe 8f90 0fbf adf4 b6bd c351 83bc
00000350: 1ae4 a5be 73b8 cf3c 198d 05bc e01d d2be
00000360: f2b4 463c 26ff 97bd 5380 25be 091d 8b3e
00000370: 03be 673d 687d b5be 9245 803e 555b f33d
00000380: 4aae 68be 2efa 873c 753b b03e ec4e 06bd
00000390: c5a2 213e d4db 223c 6d9e e3bc facd fbbc
000003a0: 85d2 0bbe 4830 bfbc c302 683e d268 cb3e
000003b0: 7fdb 3c3e df7b 833d 6356 2ebe e8cd 3fbe
000003c0: 37d4 85bd 44c4 92be b5b8 f7bd 4058 103d
000003d0: 55e0 473c 7cd2 183e 7975 b83e 85e2 113f
000003e0: db62 c0be a975 c63d 4586 d93e 2c7d 80be
000003f0: ea30 c7bd cfb0 8cbe 60b7 713d 375e c7be
-0.16155568 0.08625986 0.11283276 0.008590339 0.11852803 0.17996898 0.0074669733 -0.049802177
-0.015006403 -0.007656429 0.06311315 0.10428986 -0.027378062 0.38283113 0.2276774 0.009849764
-0.016988935 -0.0867537 0.06865391 0.13265604 0.02087496 0.03568924 0.08840941 0.18457349
0.09973274 0.2532551 0.2749006 0.04787333 0.002634502 0.09763582 -0.25328615 -0.3935141
-0.3111179 0.115413226 0.32167175 0.48126388 0.3906776 -0.079891674 -0.12237159 0.024326662
-0.08274935 0.04538092 -0.17141484 -0.29502964 0.091239266 -0.1322831 -0.09373901 0.0901696
0.21363875 0.3286461 0.22489679 -0.25403032 -0.111947335 -0.19005191 0.043631036 0.1688744
-0.21061182 0.21862794 0.17037271 0.0033098643 -0.16576897 0.019679148 -0.24773154 0.18671407
0.1692148 0.26729515 -0.44827464 -0.7460359 -0.13761377 0.046574473 -0.19394048 0.081879675
0.009159808 0.08088104 0.15459801 -0.012528474 -0.20149201 0.056358512 -0.052566845 0.011773183
0.07614088 0.21286297 -0.055873767 -0.14765918 -0.38960618 0.03276912 0.20075983 0.13581611
-0.28398502 0.038560472 -0.26243454 0.093659185 -0.030633071 -0.038313743 -0.26943308 -0.13151565
0.1046895 0.24357978 0.28743726 -0.021053262 -0.078395166 0.032406695 0.20043641 -0.020527124
0.1971088 0.08267712 -0.21778536 -0.037062164 0.030882161 0.10294614 0.034301985 -0.11698934
-0.13601753 -0.26718342 0.29436672 0.20412451 -0.01574858 -0.32672435 0.4897081 0.16651802
-0.56167424 -0.09433786 0.24483185 0.0011313678 -0.027328553 0.18588392 -0.12635364 0.0059445575
0.033948544 0.27179185 -0.11514603 -0.09709643 -0.16723555 0.34886825 0.01952254 -0.15893392
-0.07602037 -0.0060572266 0.4276887 0.5134614 0.28354275 -0.041001163 0.10037987 -0.122991234
0.051293585 0.032133494 -0.039689604 0.07422983 -0.06357809 0.0135798585 0.045382652 -0.038144197
-0.0896313 -0.072188914 -0.13850445 -0.020877682 0.32137823 -0.0505548 -0.14214583 0.07082939
0.07102046 0.07260934 0.13939516 0.009978837 0.0013020679 0.81058526 0.16895844 -0.2779624
-0.14784747 0.07924742 0.25439367 -0.16671629 0.106486686 0.21893135 -0.039078593 0.25536203
0.21792327 -0.02026366 -0.7508722 -0.6148855 -0.067701094 -0.1987081 0.24745114 -0.19440214
-0.05741376 0.105343975 -0.20496756 0.027145302 0.17802583 -0.20018983 -0.10893442 -0.09619998
-0.3366582 -0.16636308 -0.12320014 0.2626328 0.6461989 0.20305747 0.038392678 0.009837712
-0.107926786 0.074167594 0.018203892 0.029858304 -0.13230953 0.039100867 0.13948208 -0.097688645
-0.21296175 -0.56079954 -0.08933387 -0.016030198 -0.3240059 0.025356507 -0.008151316 -0.41038418
0.012128102 -0.074217126 -0.16162233 0.2717059 0.056577694 -0.3544724 0.25053078 0.118826546
-0.22722736 0.016598787 0.34420362 -0.03279011 0.15784748 0.009940106 -0.027785504 -0.030737866
-0.13654526 -0.023338452 0.22657304 0.3972841 0.18443106 0.06420111 -0.17025141 -0.18730891
-0.065346174 -0.28665364 -0.12095777 0.03524041 0.012199481 0.14924043 0.36027125 0.56986266
-0.3757542 0.09690411 0.42485252 -0.250955 -0.097261265 -0.27478644 0.05901277 -0.38939068

layer1.0.bn2.weight f4 [8]
00000000: c234 093f c13a 533f c683 923f 5130 133f
00000010: 2a94 1f3f 8b9f a33f 7c4f fc3e 8e12 143f
0.5359613 0.82511526 1.1446464 0.574956 0.62335455 1.2783064 0.49279392 0.5784081

layer1.0.bn2.bias f4 [8]
00000000: 559f e33e 5c01 863c 6658 1e3f 24f7 5b3f
00000010: a463 863f 9cc1 353f a6d0 983f 1799 943f
0.44457498 0.01635807 0.61853635 0.8592398 1.0499158 0.7099855 1.1938674 1.1609219

layer1.0.bn2.running_mean f4 [8]
00000000: 385f 083f cf27 773e 27d9 793c b1c7 c53d
00000010: 0709 803d fb7e 03bf 5367 983e a30f 74be
0.5327029 0.2413628 0.015249527 0.09657229 0.06251722 -0.5136563 0.2976633 -0.2383409

layer1.0.bn2.running_var f4 [8]
00000000: 84d7 983e f4d6 2b3e 43c0 e63e 028a 6b3e
00000010: d20a 893e adbf 0e3f 6a6c 773e be37 883e
0.29851925 0.16781217 0.4506856 0.23001865 0.26766068 0.55761224 0.2416245 0.26605028

layer2.0.conv1.weight f4 [16, 8, 3, 3]
00000000: c865 8cbc 3849 653e 2f94 8a3c 0178 f7bd
00000010: 45a0 e1bd 6d67 623e 89c8 873d 3347 bbbe
00000020: 2422 dbbc 41f8 87bd bdcc 0abe dcc4 153b
00000030: e739 acbd 67fa 0cbe 8b11 2fbe 03bc b73d
00000040: f81b 1fbe ad64 23be ebf6 67be a8f8 ab3c
00000050: f610 e73e 46b7 59bd cde3 0cbf 46c7 4e3e
00000060: 9f7d aa3e 9f47 3ebe 1be5 acbe b869 1b3e
00000070: 10d7 cb3d add8 8dbe cf1e 413d 3fdc 3a3e
00000080: a41f 2bbe 7d67 0fbe ed32 83bd 053d 4c3e
00000090: bf83 28bd cfc3 5f3e 1c7b 123e 9794 0abe
000000a0: 32b7 29be 087d e83d ce80 463d 58b5 ddbe
000000b0: 4d4c b53e 045c 19bd c5bc 0abf 9422 40be
000000c0: 8d62 dc3e 55be bc3e 0013 e4be 001a bebe
000000d0: 04ae e73e 1727 9d3e 03fb 0b3e 3089 b4bc
000000e0: 366c 3dbe 3ccb c3b9 53fc 0e3a 3f97 c5bd
000000f0: 8514 13be 069a 77bd 8dd8 783e 95ea 99bc
00000100: c6fd 943b 2224 e83d 6c7b e63a f283 b4bd
00000110: 580b dc3d 7f06 8bbd e7f0 1cbe 3553 c63d
00000120: 4410 05bd e03d 91bd 47d3 bdbb bf05 7b3c
00000130: 906c 5cbe de4e ff3d 2b87 803d 2e28 88be
00000140: 3dcf 49be 3033 273e 0e05 00bd 282a bdbd
00000150: 310b 633e e8d4 523e 3406 3c3d 6930 17be
00000160: 1177 fa3d a030 663e 1218 f83d 83db 23be
00000170: d125 abbe e952 743e 683a 893d ab01 e8be
00000180: c290 b03e 3198 a9bd ee5b 59be 5ba9 c5bd
00000190: 420d 05be dec0 5f3e 0eb8 62bc e30f 4fbd
000001a0: 343f 8b3d 9e2c 66bc a12a efbd 7eb5 e23c
000001b0: 6c56 0b3e 1821 80be 4018 fb3d 7295 d3bc
000001c0: c799 f0bd f422 3c3c c559 b2bd 9714 0abe
000001d0: 420a 74bd 0b04 253e 6bb3 1d3e ca65 553c
000001e0: c426 6a3c 1e98 c23e 4e30 d83e 070b 70be
000001f0: 82a2 153e c3f0 e13e 8e20 a2bd 86f3 92bc
00000200: dce2 b83d 2e50 873c d98c 9cbd 0ab0 3dbd
00000210: 83e4 6cbc 90a4 f8bc 1e25 113c b9da 75bd
00000220: 5809 8bbd 741a d23d b811 06be d352 04be
00000230: 066a 833e eb08 a1bc 2748 79be 56f4 cdbd
00000240: 567d 163c 159e 9c3e d6c7 203e e6c0 84bd
00000250: 643a 9c3e 3832 873e 3656 df3d 50fe 163f
00000260: 8b12 1f3f 29d3 b7bd febe 203d 08f0 353d
00000270: 3c10 1a39 39ad aa3e ea7c 4c3e 357d aabb
00000280: e907 0c3e 12e9 223d 622a 7bbe de6c 8fbe
00000290: 5c46 53be 92e3 f03c bc40 b53b 62aa c93d
000002a0: 7fe3 62be 9413 1cbe de66 8fbd 7ee0 383e
000002b0: 1347 e93c ecd4 82bd f601 473d 70c6 dabd
000002c0: 0953 b8be a428 8cbc 1fba 77be ead7 a4be
000002d0: 4c5e 7e3d 0e38 c83d c7fe 933d f81c 2abe
000002e0: 9b93 8e3d e392 a03d 4113 9d3d d03f 2c3e
000002f0: 2e2d 293e 225e 763d f9dd b6bd 7df7 a4bd
00000300: 40f5 103e 2724 123d a1c2 ca3d 1e04 c43d
00000310: 064e 553d bd67 b0bc cdc0 c73b 6db2 ad3b
00000320: 6b97 1dbe 5508 883e ae9a 1d3e 836b 14bd
00000330: 235c 483e 6c6d 873e 4a35 8d3d 7763 da3d
00000340: 7852 973d ae8f dc3c f1f1 c8bd 58ce e8bd
00000350: 4b48 29be 8ba2 cb3c d762 f5bb af98 bfbd
00000360: 5ce1 303d c9c3 4abe 13f3 32be 6f0b a5be
00000370: 7bf7 0ebe aff9 8d3e 1ce7 6cbe 945c 803e
00000380: fce9 d43d e64b 013e bcc3 90bc 870d 18be
00000390: 9eb6 723d 27c3 a53d 1232 cbbd 36af 2fbd
000003a0: 2613 493d 0d29 9c3d e662 bdbd 7422 063f
000003b0: 740c 2fbd bc29 993e e0aa a13c 162e f8be
000003c0: f711 17bd bfca 99be e8cb 553d 9dd4 1b3c
000003d0: ccfa e53e 3984 48bd 4aa0 ae3e e6c5 d5bd
000003e0: b588 75be c0a0 2fbb fca0 0dbf 895a 18bc
000003f0: 7103 a1be d315 c23d 34df f33d 870e 5cbd
-0.017138377 0.22391212 0.016916363 -0.12083436 -0.11016897 0.22109766 0.06630046 -0.36577758
-0.026749678 -0.066391475 -0.13554664 0.0022852933 -0.084094815 -0.13767396 -0.17096536 0.08971407
-0.15538013 -0.15956374 -0.22652785 0.020992592 0.45130128 -0.0531533 -0.55035096 0.20193204
0.33298966 -0.18582009 -0.33768544 0.15177047 0.09953129 -0.27704373 0.047148522 0.1824808
-0.16711289 -0.14004321 -0.06406198 0.19945152 -0.041141268 0.21852039 0.14304775 -0.13533245
-0.1657379 0.11351973 0.04846268 -0.43302417 0.35409775 -0.03744127 -0.5419429 -0.1876319
0.43043938 0.36863962 -0.44545746 -0.3712921 0.4524995 0.30693886 0.13669972 -0.022038072
-0.1849831 -0.0003734472 0.00054544694 -0.096479885 -0.14363296 -0.060449623 0.24301358 -0.018788615
0.0045468537 0.11335017 0.001758439 -0.08814229 0.10744351 -0.067883484 -0.15326272 0.09683839
-0.032486215 -0.0709188 -0.0057930085 0.015321194 -0.21525788 0.124662146 0.06275781 -0.26593155
-0.19707961 0.1632812 -0.03125482 -0.09236556 0.22172238 0.2058903 0.045904353 -0.14764561
0.12229741 0.22479486 0.12113966 -0.16001706 -0.3342729 0.23859753 0.06700593 -0.45313773
0.3448544 -0.08280981 -0.21226475 -0.096514426 -0.12993339 0.21850917 -0.013837827 -0.05055226
0.067991644 -0.0140487235 -0.11678053 0.027674433 0.13607186 -0.2502525 0.12260485 -0.025828097
-0.11748081 0.011482943 -0.087085284 -0.13484417 -0.059580095 0.16114824 0.15400474 0.013024757
0.014291469 0.3800668 0.42224354 -0.23441707 0.14612773 0.44129 -0.079163656 -0.017938387
0.09027645 0.016517725 -0.07644052 -0.046310462 -0.014458778 -0.030351907 0.008858947 -0.060023043
-0.067888916 0.10258952 -0.13092697 -0.1292222 0.25666827 -0.019657573 -0.2434393 -0.10056369
0.009185156 0.30589357 0.15701231 -0.06482105 0.305133 0.264055 0.10905115 0.589818
0.6213767 -0.089758225 0.039244644 0.044418365 0.00014692632 0.33335283 0.19969526 -0.005202914
0.13674892 0.039773054 -0.24527887 -0.28012747 -0.20632309 0.029405389 0.0055313986 0.09846951
-0.22157095 -0.15241843 -0.07002042 0.18054387 0.028476274 -0.06388268 0.048585854 -0.1068238
-0.3600085 -0.017109223 -0.24192093 -0.3219598 0.062101647 0.097763166 0.07226329 -0.16612613
0.06961747 0.078405164 0.07669688 0.16821218 0.16521141 0.060148366 -0.08929057 -0.08055017
0.14156055 0.03567901 0.09900404 0.09571098 0.052076362 -0.021533841 0.0060959817 0.005300811
-0.15389793 0.26568857 0.15391037 -0.036235344 0.19566397 0.2645067 0.0689493 0.10663503
0.073887765 0.02692398 -0.09811772 -0.11367482 -0.16531484 0.02485778 -0.0074885893 -0.09355294
0.04318367 -0.19801249 -0.17475538 -0.32235286 -0.13961594 0.27729556 -0.23135036 0.25070632
0.103961915 0.12626609 -0.017671458 -0.1484891 0.05925619 0.08093863 -0.099216595 -0.042891704
0.049090527 0.07625017 -0.09247379 0.5239632 -0.042736486 0.29914653 0.0197348 -0.4847266
-0.036882367 -0.30037495 0.052196413 0.00951114 0.44917905 -0.048954222 0.34106666 -0.10438137
-0.23977931 -0.0026798695 -0.5532377 -0.009298929 -0.31447938 0.09476819 0.11907807 -0.05372479

layer2.0.bn1.weight f4 [16]
00000000: 9748 5c3f 0871 343f 8ea5 dc3e 7614 473f
00000010: 01b9 383f 49fe 233f 9a64 503f 247b 5d3f
00000020: 8cb1 0b3f 6d15 373f be9c 1f3f 0185 3c3f
00000030: d1d1 6b3f 1d7d 533f 2b80 3f3f bc81 d73e
0.86048263 0.7048497 0.43095058 0.77765596 0.72157294 0.64059883 0.81403506 0.8651602
0.5456779 0.7151707 0.62348545 0.7364045 0.9211703 0.8261278 0.74804944 0.42091167

layer2.0.bn1.bias f4 [16]
00000000: 099c 1cbe 506c 2abe 9bb9 3e3f b87e fc3c
00000010: a70d d0bd 1456 febd ed87 e0bd 07b0 87be
00000020: bf92 993e eddd 3dbe 7237 c23c fa36 27bd
00000030: 6023 3ebe 8b37 a8bd 5698 2fbe 9528 5f3f
-0.15293898 -0.1664288 0.7450196 0.030822143 -0.10158854 -0.12418762 -0.10963426 -0.26501486
0.2999477 -0.18541689 0.023708079 -0.040823914 -0.18568182 -0.08213719 -0.17147955 0.871713

layer2.0.bn1.running_mean f4 [16]
00000000: 8758 45bf 6ba0 f0be 9149 3a40 e11d 2f3f
00000010: ad22 2ebf 701f ecbf 213a c6be 211e dcbf
00000020: 3b71 0040 12a9 e6be f762 02c0 71fe 8a3e
00000030: 8cd2 13c0 ec2c 46bf effe bcbe 802c 4ac0
-0.77088207 -0.4699739 2.9107401 0.68404967 -0.6802166 -1.8447094 -0.38716224 -1.7196695
2.006911 -0.45050865 -2.0372903 0.27147248 -2.3097258 -0.77412295 -0.3691325 -3.158966

layer2.0.bn1.running_var f4 [16]
00000000: 8e55 3740 4a2a 2340 3c97 5240 2b90 8e40
00000010: 6439 1c40 4073 e73f b0e7 8240 d08d 2040
00000020: 9f92 b43f 23aa d63f c9e1 de3f fe44 3140
00000030: 4b06 5140 788b 6340 1a97 f13f a7a9 2440
2.8645968 2.5494561 3.2904806 4.4550986 2.4410028 1.8082047 4.090782 2.5086555
1.4107245 1.6770672 1.7412654 2.769836 3.266009 3.5553875 1.8874238 2.5728548

layer2.0.conv2.weight f4 [16, 16, 3, 3]
00000000: 9054 633c 5e49 be3c cf7d 1ebc 6f20 043d
00000010: 4219 1f3e c7a2 363e 00ea 3cbb e6a2 2e3d
00000020: 1f87 b73d 0cac 89bd a67c e2bd dbdc 5abd
00000030: 6398 883d a7db 733e ce55 f53d 2e85 a0bd
00000040: 0f06 253d e204 553a 4091 f0bd c53a a9bc
00000050: b756 203e 3c1a 76be cd92 d43e 439c 493f
00000060: 5ec1 57be 18a1 4dbe 25fc 653e ffb9 a5bd
00000070: b57b 8a3c 3175 7b3d 759d 443c 7220 5a3e
00000080: 15fb da3d 324d 2a3d fd53 1fbd ecd6 52bd
00000090: 260b 27bc da02 3ebd 1f83 803c 2852 bbbd
000000a0: e7c9 053d f095 a83d 0d15 18be 4450 68bd
000000b0: 1f38 a93d ab89 1bbd 62c7 023e 3278 23bd
000000c0: b87f 073e 60e9 8d3c aaf8 00bd 410b 38bd
000000d0: 8955 4e3c ea81 b9bb 24c5 86bd 86f8 eebc
000000e0: efb2 3f3d b52e 583e 97f0 5b3e 3600 1a3e
000000f0: 6d39 df3c 1876 33bd 8613 87bd 361b 6a3d
00000100: 45cb 013d 0f21 d93d aaf8 303d 0373 3e3d
00000110: 40c0 e63d 5db9 18bc b320 ab3d a953 883d
00000120: 44bf f73d d51a 4cbe e1dd 31be eb8c 9d3e
00000130: 4ecd 68be fcf7 51be a592 9a3d 27ef c93d
00000140: ea54 f5bb 6ae0 cabd 71b5 55bd c231 80bd
00000150: 3cb1 9dbc 94d1 263d 3404 5b3c 3276 5dbd
00000160: 923f 78bd 5ad1 49bd d879 bdbc a5da 9e3d
00000170: 2a82 b3bd 647f cbbd e5c3 c03e dcfa 993e
00000180: cd58 4cbe 2bb0 aabd 8e81 ad3d ee32 bcbd
00000190: f813 aabc 31e8 8d3d 5d9a fabd a1d7 bc3d
000001a0: 34b1 563e f565 02bd 348f 59bd a051 0e3e
000001b0: 8aac 45bc 18a4 103e 8883 c93d f126 ae3d
000001c0: 32f2 1d3e ad3f 483d 0557 a93d 2dbc debc
000001d0: a994 1dbd 00ab 22bd d048 f7bc e65f 5dbd
000001e0: 9f2c 4d3b 6c8d 353e c823 573e cd1b 103c
000001f0: 0d60 14bc a1fb 7ebb 2d2f edbd 1b1d 89bc
00000200: be06 82bd b2ef 13bd f83e c13d bb53 3d3d
00000210: 94b4 99bd 72d5 bdbd 34aa 91bc 737a d83d
00000220: 9c98 bf3d 03d9 0b3c c035 6a3e c623 d03e
00000230: 7c4c 3a3d 8fc5 063e eb63 6b3d 3722 88bd
00000240: 351d fd3c 02bd 4f3e b908 173e 4f43 9cbd
00000250: 5a1d 123e 85ba 513e 403b 95bd cee7 92bd
00000260: 4309 243d 16d8 63bd 2823 a93d f1e7 b23d
00000270: d23b 02be 10a3 313e 0f8b 203e 7f81 b83c
00000280: 1184 843d 61f3 08bd cd24 1b3e 2c23 ddbd
00000290: 7066 99bd fb09 583e e12f 14be 27ad cfbe
000002a0: a3e0 883d 43b4 923d e450 3ebd 68a7 27be
000002b0: 0bfd 88bd d141 823d 9f42 afbc d543 fb3c
000002c0: 983f 20bd 0d17 483e 3014 d33d 37db 36bd
000002d0: 3437 09bd a2e6 cdbc 4ca5 e7bd 34f0 343c
000002e0: d20b babd b719 f8bd cce5 c13d 0b2e 04be
000002f0: bff3 15be 4aaf 21bd ac1d c7bd 2efd 04bd
00000300: 0ab2 3a3d 4dbb 98bb 8ffa 963d 7b73 413d
00000310: e055 1fbd ef3f c3bc b013 b7be 1671 cabe
00000320: 07ce 22be b93a 95be 2076 dabe affc 26be
00000330: f884 0fbe 6d12 54be cc92 e6bd e08f b73d
00000340: 0380 883d 26e4 0a3e 634e 07bd f7fa 2c3e
00000350: a8e3 893e 7716 21bc 8165 3e3b 63de a43d
00000360: 357a 813d ad15 933c ac00 84be e404 f33c
00000370: 03e2 7cbb 844f 46be 586e b4bd e9de 9a3b
00000380: ef7f 01be a922 d3bd 9c57 5fbd 30d7 283d
00000390: 9b6a d0ba f4c4 dabc b927 1abb 7bd9 4bbc
000003a0: e439 4b3d dd49 adbd f118 543e 3828 773e
000003b0: e705 d83d 78fb 893e 104b 9c3e 4849 873e
000003c0: 669d fc3d c619 693d 0067 71bc 4cc7 8e3d
000003d0: 78da d43c 6f0d 85bd 4f9b c73d e622 d83d
000003e0: 1517 b2bd 5e52 f53c e5d8 c1bd 6706 79be
000003f0: 0153 27bd 3330 74bd 0b1b 10bd 6d89 113e
0.013875142 0.023228344 -0.00967355 0.032257494 0.15536979 0.17835532 -0.0028825998 0.04263582
0.08961319 -0.067222685 -0.11058931 -0.05343328 0.066696905 0.2381426 0.119792566 -0.07837902
0.04028898 0.0008126033 -0.11746454 -0.020657906 0.15658079 -0.24033445 0.4151825 0.7875406
-0.21069857 -0.20080984 0.22459467 -0.080921166 0.016904691 0.06139106 0.012000431 0.2130144
0.10692421 0.041577525 -0.038898457 -0.051474497 -0.010195529 -0.04638944 0.015687523 -0.091465294
0.032663252 0.08231723 -0.1485178 -0.056717172 0.082626574 -0.037973087 0.12771371 -0.03990955
0.13232315 0.017323196 -0.031487145 -0.044932608 0.012593635 -0.005661239 -0.0658057 -0.02917124
0.046801504 0.21111567 0.21478496 0.15039143 0.027249062 -0.043813795 -0.06595521 0.057154857
0.031687994 0.106020086 0.043205895 0.046496402 0.112671375 -0.009321538 0.08355846 0.06656582
0.12097028 -0.1993211 -0.17369796 0.30771574 -0.22734568 -0.20504755 0.075475015 0.09860068
-0.007486929 -0.09906085 -0.05217499 -0.062594905 -0.019249551 0.040727213 0.013367701 -0.054067798
-0.0606075 -0.04927192 -0.023129389 0.07756547 -0.08765061 -0.09936407 0.37649456 0.30074203
-0.1995575 -0.083343826 0.08471976 -0.091894016 -0.020761475 0.069290526 -0.12236474 0.092208154
0.20966035 -0.031835515 -0.053115085 0.13898325 -0.012065062 0.14125097 0.09839541 0.08503521
0.15424421 0.04888885 0.08268551 -0.027189339 -0.03847185 -0.03971386 -0.030186087 -0.054046534
0.0031307114 0.1772973 0.21009743 0.008795691 -0.009056103 -0.0038907307 -0.11581264 -0.016737511
-0.06348942 -0.036117263 0.094358385 0.04622243 -0.07505146 -0.09269227 -0.017781354 0.1057023
0.0935528 0.008535626 0.22872066 0.40652293 0.045483097 0.131613 0.057468336 -0.06647151
0.030897716 0.20286945 0.14749421 -0.076300256 0.14269009 0.20481308 -0.07286692 -0.071731195
0.040047895 -0.055625997 0.08258659 0.087356456 -0.12718132 0.1734736 0.15678047 0.022522686
0.06470502 -0.03343523 0.15150757 -0.10797724 -0.074902415 0.21097557 -0.1447139 -0.40561792
0.06683471 0.071632884 -0.046463862 -0.16372454 -0.06688889 0.0636021 -0.021394072 0.030671993
-0.039123148 0.19540043 0.10306585 -0.044642653 -0.03349991 -0.025134388 -0.11310825 0.011043597
-0.09084286 -0.1211428 0.094676584 -0.12908189 -0.14643763 -0.03947381 -0.09722456 -0.032468013
0.045579948 -0.004661 0.07372009 0.04722927 -0.038900256 -0.023834197 -0.35757208 -0.39539403
-0.15898906 -0.29146364 -0.42668247 -0.16307329 -0.14015567 -0.20710154 -0.11258468 0.08962989
0.06665041 0.13563594 -0.03303374 0.1689261 0.269315 -0.009832016 0.00290522 0.080502294
0.06322137 0.017954672 -0.25781763 0.029665418 -0.0038586862 -0.1936627 -0.08810109 0.00472628
-0.12646459 -0.10309345 -0.05452691 0.041220844 -0.0015900912 -0.026705243 -0.0023522212 -0.012441988
0.049615756 -0.08461354 0.2071264 0.24136436 0.10548001 0.26949668 0.30526018 0.26423097
0.12334709 0.056909345 -0.01473403 0.069716066 0.02598308 -0.06496703 0.0974642 0.10553531
-0.08695809 0.029946502 -0.094651975 -0.24318849 -0.040850643 -0.05961628 -0.03518204 0.1421258

layer2.0.bn2.weight f4 [16]
00000000: 72fe 053f e048 043f f1cd d33e 5b99 033f
00000010: 02fa fd3e a3c8 043f 2812 e73f 68eb f03e
00000020: 9bfd 133f 9f17 fe3e 1415 9d3f 9adc 1d3f
00000030: 6eeb 3e3f ed3f 183f 94a0 173f 2867 ec3e
0.5234138 0.516737 0.41368058 0.51405877 0.49604803 0.5186865 1.8052416 0.470546
0.57808846 0.49627396 1.2272058 0.61664736 0.7457799 0.59472543 0.592294 0.46172452

layer2.0.bn2.bias f4 [16]
00000000: 0b7d 033e 3016 003f 9295 30be 3cf9 a13e
00000010: f7e2 b8bd 4a9b d93e f8f4 47be 9029 413e
00000020: bf64 993e 6ac7 a23e 3876 39be 6e9f 043f
00000030: 77a8 0abc a0a5 0c3e 2f7d 003f 2bd5 a03e
0.12840669 0.50033855 -0.17244557 0.31635463 -0.09027665 0.4250129 -0.19527042 0.18863511
0.29959676 0.31792766 -0.18111503 0.5180577 -0.008463017 0.13735056 0.50191015 0.31412634

layer2.0.bn2.running_mean f4 [16]
00000000: d485 f73f c92e 5fbf 40c1 c73d 2392 1f3f
00000010: 1f5c 01bf 9b3a 84bf 4490 10c0 ea31 a7be
00000020: 580f 1fbf 4179 dc3e e93d 543e 5e42 ed3d
00000030: c54a 013f f6dc f63f c74c 2dbe c870 1c3f
1.9337716 -0.87180763 0.097536564 0.6233236 -0.5053119 -1.0330385 -2.2588053 -0.3265527
-0.6213279 0.4306126 0.20726742 0.11584924 0.50504714 1.9286182 -0.1692382 0.6110959

layer2.0.bn2.running_var f4 [16]
00000000: ee90 493f f144 3a3f 994d 933e 488e 4f3f
00000010: f3e2 153f 0f39 3d3f c4bd 1340 3509 103f
00000020: 8703 2c3f ee0d 503f cb92 7a3f 4884 433f
00000030: f009 4f3f 2c8b 903f 2c67 a93f 7f8c 173f
0.7873677 0.72761446 0.2877014 0.8107648 0.5854942 0.7391519 2.3084574 0.5626405
0.6719288 0.81271255 0.9788024 0.7637372 0.8087454 1.1292472 1.323461 0.59198755

layer2.0.shortcut.0.weight f4 [16, 8, 1, 1]
00000000: c1dd 223e 829a 11be 2767 9f3d 48c1 fbbe
00000010: c3da be3d b9fe 983d b478 313f cf86 99bd
00000020: 8d79 09bc 3fe3 8b3d 41bf 863e 6ecf a4bb
00000030: 5b9d a9bc 4cf7 53be d584 423e 59b0 863d
00000040: 5d18 3a3e bcba 623b b77a 4e3b 589a d5bd
00000050: fe22 01bf a7b1 273b 1f9c 983c 7da8 423f
00000060: 1cdc f83e cae2 41be 90c7 a5bc c15c 3e3e
00000070: 4270 a5bc c654 4ebd ba8f 5bbe 11b4 a8be
00000080: a69c 1d3e c68b 5abd a22d 053d 27de 263f
00000090: b2c3 a9be 57b4 313d 52ed 31bf 4667 51bd
000000a0: 0cc3 aebe fc88 163c f1c2 47be efcb ed3d
000000b0: 50f0 84be cc54 3c3e a14b 223d f580 25be
000000c0: cd99 d83e 41fb 6c3e 412d aa3b 4ddc 27bc
000000d0: 5b2d 9bbd 996d 503e 3e5e 33bd ae27 00be
000000e0: f5aa 573e c505 213e 0f99 93be e21c cb3e
000000f0: e84b 503e 5af7 73bd a3a6 113e 127b 4b3e
00000100: 1d10 033f a069 abbe 4c67 473d 6172 1bbe
00000110: 8987 823e c0d3 cb3d 1026 85be 7b3e ed3d
00000120: 2d40 b2be b040 f9bc eebd b03d 0c85 cabd
00000130: 0d21 0d3f 41e6 2b3c dc20 43bd a4dd 64bd
00000140: 9d5b f3bd e9b2 e13d bed6 7a3e f72d b13c
00000150: 7230 d4bd 48df 57be dd58 e1bd 31c9 41bd
00000160: bce4 223e bb09 25bd f55b 87bd 7d84 593e
00000170: b349 4bbe 3f21 cdbd 0141 da3e 1a89 5ebe
00000180: 5364 72be 3345 8bbd 6fcf febd 37fb 89bd
00000190: 3a0b 8c3e eb10 ee3e e3b9 83be f1cf fe3d
000001a0: fa6b 15bf ac0d 983d 4c5b 203f 2109 103d
000001b0: f6e5 c9be 116c c9bd f3df 5dbe 4501 63be
000001c0: 0709 14bd 8acb 0f3d ca49 0c3e dd84 81be
000001d0: 2a60 0d3e ac7d 3cbe cbe7 813c 2f60 4f3e
000001e0: 5d85 0e3f 15e4 8abe d293 0abc e463 f1bd
000001f0: 353c 52be 291e 353d 1c0f a9be 22ec 9abd
0.15904905 -0.14219096 0.077833466 -0.491709 0.09319069 0.074704595 0.69324803 -0.07496416
-0.008390796 0.06830453 0.2631779 -0.0050296104 -0.020704916 -0.20699805 0.18995984 0.065766044
0.18173356 0.0034596166 0.003150625 -0.10429829 -0.5044402 0.0025588067 0.018629132 0.7603834
0.4860543 -0.1893417 -0.02023676 0.1859007 -0.02019513 -0.050373815 -0.21441546 -0.3294988
0.15391788 -0.053355955 0.032514222 0.6518273 -0.33157116 0.043384876 -0.6950275 -0.05112388
-0.34133184 0.009187933 -0.19507958 0.11611163 -0.25964594 0.18391722 0.039622907 -0.16162474
0.4230484 0.23142721 0.005193383 -0.010245395 -0.0757701 0.20354308 -0.04379105 -0.12515137
0.21061309 0.15724857 -0.28827712 0.39670473 0.20341456 -0.059562065 0.14223723 0.19871166
0.5119646 -0.33479023 0.048682496 -0.15180351 0.2549403 0.099524975 -0.26005602 0.11584183
-0.34814587 -0.030426353 0.08629976 -0.09888658 0.55128556 0.0104919085 -0.04763876 -0.055875435
-0.11882708 0.110204525 0.2449598 0.021628363 -0.10360803 -0.21081269 -0.110032775 -0.04731101
0.15907568 -0.040292483 -0.06609336 0.21241947 -0.19852333 -0.10016107 0.4262772 -0.21731988
-0.23671083 -0.06800308 -0.124419086 -0.067373686 0.27352315 0.46497282 -0.25727758 0.124420054
-0.58367884 0.07424483 0.6263931 0.035164956 -0.3943326 -0.09835065 -0.21667461 -0.22168453
-0.03614142 0.03510622 0.13700023 -0.2529668 0.13806215 -0.18407315 0.015857598 0.20251535
0.55672246 -0.27127138 -0.008458095 -0.11786631 -0.2053078 0.044218216 -0.3301934 -0.0756457

layer2.0.shortcut.1.weight f4 [16]
00000000: fc28 033f aeb5 bc3d c020 473f 3b50 a93e
00000010: 58e7 493f 87aa 193e c7c6 a13e 757b 983e
00000020: 271c 083f 10c0 783e 60b7 f83d 6d6c 5c3e
00000030: 5da6 e23e 76d3 223f ebf5 c43d 989c f43e
0.5123441 0.0921434 0.7778435 0.33069023 0.7886863 0.15006457 0.31596968 0.2978169
0.5316796 0.24292016 0.12144351 0.21525736 0.4426755 0.63603914 0.09617218 0.47775722

layer2.0.shortcut.1.bias f4 [16]
00000000: 0b7d 033e 3016 003f 9295 30be 3cf9 a13e
00000010: f7e2 b8bd 4a9b d93e f8f4 47be 9029 413e
00000020: bf64 993e 6ac7 a23e 3876 39be 6e9f 043f
00000030: 77a8 0abc a0a5 0c3e 2f7d 003f 2bd5 a03e
0.12840669 0.50033855 -0.17244557 0.31635463 -0.09027665 0.4250129 -0.19527042 0.18863511
0.29959676 0.31792766 -0.18111503 0.5180577 -0.008463017 0.13735056 0.50191015 0.31412634

layer2.0.shortcut.1.running_mean f4 [16]
00000000: 88cc 343f f2f5 a03e d2a6 f53e 6bc1 f4bd
00000010: c711 f6be 3cc9 3fbf 9c80 053f 0bce 963f
00000020: b87b 203f 39a6 173e cc7e eebe d0e8 803e
00000030: f60b 803e 8271 aabf b8fb 873d 3e16 b3be
0.7062459 0.3143764 0.47978836 -0.11950954 -0.48060438 -0.74916434 0.5214937 1.1781629
0.6268878 0.14809503 -0.46581113 0.25177622 0.25009125 -1.331589 0.066398084 -0.34977907

layer2.0.shortcut.1.running_var f4 [16]
00000000: 3be5 ac3e 6f62 b63d 809d 913e f466 a33e
00000010: 743d d23e 2fc9 133e 2188 573e d724 683e
00000020: b2e8 c13e 8ae0 633e 9957 ce3d aa31 063e
00000030: f6ba 893e d594 343f d9c6 c23d 585c f83e
0.3376864 0.089054935 0.28440475 0.31914485 0.4106251 0.14432214 0.21048023 0.22670303
0.37872845 0.22253624 0.10075302 0.13104883 0.26900452 0.705396 0.095105834 0.48507953

layer3.0.conv1.weight f4 [32, 16, 3, 3]
00000000: fbd7 b93e 784f 4c3e 970d 1dbd ebce 8e3e
00000010: af88 ca3e fedb 363e 9684 bcbd 7f4b 283e
00000020: f975 6e3e dd2e 98bd 53cb 80bb 9ca2 5c3d
00000030: 003a d7bb e7ee dabc 95ba 8bbd 9a28 303e
00000040: ad2b bb3d 57f5 5ebd 57a2 93bc 1d77 79bd
00000050: ec99 96bd fecd f5bc 791c 593d b3b0 cdbd
00000060: 4a3c 7dbd 1159 dabc fad7 9bbd a1ab 42be
00000070: f2b2 2cbe 6bdc a1bd ba08 35be 1778 37be
00000080: 8ee9 55be e266 7aba bf24 6cbe 6d25 a5be
00000090: 72ed a3bd ac8f 88bd b888 103e 8f7f 993c
000000a0: bb3b 08be c7f6 12be 9d4f 7e3e b55b cb3d
000000b0: a28e 8ebd 7a00 81bd af57 9b3d b4af 043e
000000c0: 818a f0bd 8f97 b93d 0d40 f23d a815 f3bd
000000d0: f462 79bd 6407 813c 3fc8 de3d b06d e6bd
000000e0: 545e febd b35c 863c 25ce 20be d3cc 22be
000000f0: 9d9f f33d 64ca 47bd e3d1 93bd 6185 84bd
00000100: 7c7a 6abe 081d c8bd a1c0 03bc 31a0 84be
00000110: 3ee9 5fbe fe8b 8d3e dcb2 2f3d 0e46 cabd
00000120: 5b3f 48bd 51f2 7dbd c9bd 2dbd 7fe4 eb3c
00000130: 67f9 80bd 368e a0bc eadd 933e a835 1d3e
00000140: d6e4 0c3d bd14 03be add0 d1bd 049d f93c
00000150: b5b7 ffbd 6e9d 7fbe 7d31 b6bd 32bf 043e
00000160: fec4 1fbe 24e9 f6bd 2c92 1a3d 99bd d4bc
00000170: 7dc4 82bd 7578 a93d dcc3 1cbd 0782 4dbd
00000180: eb0d ab3d 3394 12bb 25ea afbc deb3 b43c
00000190: 5c41 573d 1dc7 69bc e41a abbd c2b0 1dbd
000001a0: 73a5 b83d 3473 96bc 16be 293c 7c2a 273e
000001b0: 6c3d c9bc 726f 7fbd f53d ccbd 290e 56bc
000001c0: e028 acbc 8f2f 6ebd f4cf babd d217 57bd
000001d0: b4bd 813d 66f1 b5bc fbc5 4a3c 020e 8cbc
000001e0: 96bc 24bd 252d 983c 284d ae3a d253 d73b
000001f0: b06e e53b 18e4 c7bc 7aa3 963d 199c 973c
00000200: cbd9 edbc 7850 0c3e f29c 943d 995b 4abd
00000210: 1502 0f3d 7e3f 323e f14c ac3b 4dd8 dfbd
00000220: 1f5c 6dbd 72ee d43d d955 c9bd 3095 f9bc
00000230: bf4c 943c 7d16 093c 80f3 5fbc aed5 a3bc
00000240: fb57 eebc 2d7a 1d3c 9c2b d63c 7af8 76bd
00000250: 66fc cdbc 539b 1e3e 2805 6dbd b9c6 503c
00000260: 5975 593d 1cc9 e9bc c81a cd3d bdfb ae3d
00000270: 7fbb 8f3d d4b1 d43d 5cc2 043d c9ba 143e
00000280: 3bc9 ef3d cc89 c33a 00aa 01bd af1d 63bc
00000290: 0cb7 5b3c fff6 b0bc ab7b e1bc d8d4 84bc
000002a0: 776e e7bd 4d89 5abd 3637 e2bc c1bb dabc
000002b0: c0bf a5bd 89e8 25be 3372 ca3b fbf4 383c
000002c0: c2d5 4dbc 0f27 c7bc 709d 313e c383 d13d
000002d0: 7b68 813b 0043 a13c 001b 833d adf1 0c3a
000002e0: a366 063e e36b 2c3d 38ad abbc 52a1 b23d
000002f0: 3dc3 17bd 4826 1b3c 96d9 a83c e271 30bc
00000300: 783b 2bbd 0755 843e 9736 403e 8b1c 0ebd
00000310: 2407 263e 54e1 ba3e 0ac1 2bbe d8b0 6dbe
00000320: b4dd 4dbd 7d6f 12be 1b3b 28be c6c3 6fbd
00000330: fe4f 1dbd 81a3 f1bd 7efc a9bc 06b1 923c
00000340: 248b 0c3e 1855 093e 35c5 313d a951 3a3c
00000350: e554 f53d 8961 863d eb2b e13d 7e7b ad3d
00000360: 504a 64bd f3a3 503d add8 10bc 591a 27be
00000370: d9b1 eebd 0864 d7bd 1731 0cbe 9ad9 36be
00000380: ce0e 26be b137 443d 3018 043e 149b 343e
00000390: 8a1e 423d 5064 253e b676 633e e0e3 bc3b
000003a0: 84ba 043e 8ea7 4a3d 00f2 a8bc 82ce 133b
000003b0: 84de f43c 30aa 02be b6b5 ddbd b2be 453d
000003c0: 894c bfbd a28f 21bd 7747 a83d 1360 3fbd
000003d0: 2672 193d 68a0 003e fb18 3a3d ee0d b03d
000003e0: b937 7d3c 6de2 bd3d 99a3 f83c 8198 e9bb
000003f0: 657f 943d 2530 733d b44d 43ba aa7b be3c
0.36297593 0.1995219 -0.03834304 0.2789224 0.39557406 0.17857358 -0.09204976 0.1643505
0.2328719 -0.074308135 -0.003930488 0.053866014 -0.0065681934 -0.026725246 -0.06822697 0.17202988
0.0913919 -0.054433193 -0.018021746 -0.06090461 -0.07353577 -0.030005451 0.05300567 -0.10043468
-0.061825074 -0.026653798 -0.07609554 -0.19010784 -0.16865137 -0.079033695 -0.1767911 -0.17916904
-0.20889875 -0.0009552074 -0.23060893 -0.32255116 -0.080042735 -0.06668028 0.14114654 0.018737582
-0.13304035 -0.1435195 0.24835058 0.09929601 -0.06960799 -0.06298919 0.07585084 0.1295765
-0.117451675 0.09062111 0.11828623 -0.11869365 -0.060885385 0.015750594 0.10878038 -0.1125139
-0.124203354 0.016401624 -0.15703638 -0.15898447 0.11895678 -0.048777 -0.07217767 -0.064707525
-0.22898287 -0.09771162 -0.008041532 -0.25903466 -0.21866319 0.27645868 0.042895183 -0.09876643
-0.048888545 -0.06199867 -0.04241732 0.028795479 -0.0629757 -0.019599061 0.28880244 0.153525
0.034397922 -0.1280088 -0.1024488 0.030470379 -0.12486211 -0.24962398 -0.08896158 0.1296356
-0.1560249 -0.12056187 0.037737057 -0.025969313 -0.063851334 0.082749285 -0.038272724 -0.050172832
0.08352264 -0.0022366166 -0.021473954 0.022058424 0.052552566 -0.014268664 -0.08354738 -0.038498648
0.09015932 -0.01836548 0.010360261 0.163248 -0.024565421 -0.062362142 -0.09972755 -0.0130648995
-0.021015584 -0.058150824 -0.09121695 -0.05251295 0.06335011 -0.022209834 0.012376304 -0.017096523
-0.040218912 0.018576214 0.0013298141 0.0065712715 0.0070017204 -0.024400756 0.073553994 0.01850705
-0.029034516 0.13702571 0.072564974 -0.04940376 0.034914095 0.17407033 0.0052581956 -0.10929928
-0.05794918 0.10397042 -0.09830827 -0.030466646 0.018103002 0.008367178 -0.013668895 -0.019999351
-0.029094687 0.0096116485 0.026143841 -0.06029556 -0.025144767 0.15488939 -0.057866246 0.012742692
0.053090427 -0.02853828 0.10014874 0.08544109 0.07018184 0.103854805 0.032411918 0.14524378
0.117083035 0.0014918386 -0.031656265 -0.013862058 0.013410341 -0.021602152 -0.02752479 -0.016214773
-0.11300366 -0.053353596 -0.027614217 -0.026700856 -0.08093214 -0.16201986 0.0061781644 0.011288877
-0.012563171 -0.024310617 0.17345214 0.1023021 0.0039492226 0.019685268 0.06401634 0.00053765887
0.1312509 0.042095076 -0.02095662 0.08722176 -0.037051428 0.009469576 0.020611566 -0.010769339
-0.04180476 0.2584612 0.18770824 -0.03469519 0.16213661 0.36500037 -0.16772857 -0.23211992
-0.05026026 -0.14300342 -0.16428797 -0.058536313 -0.038406365 -0.11798764 -0.02075028 0.017906677
0.13724953 0.13411367 0.043400962 0.011372008 0.11979083 0.06561572 0.10994705 0.0847082
-0.055734932 0.050937604 -0.008840722 -0.16318645 -0.116550155 -0.10517126 -0.13690601 -0.17856446
-0.16216585 0.047904674 0.12899852 0.17637283 0.047392406 0.16151547 0.22213253 0.0057644695
0.12961775 0.0494762 -0.020623207 0.0022553508 0.02989126 -0.12760234 -0.10825674 0.048277564
-0.0934077 -0.03944362 0.08216756 -0.046722483 0.037462376 0.1256119 0.04543398 0.08596407
0.01545518 0.09271703 0.030351447 -0.0071287756 0.07250861 0.059372086 -0.00074502383 0.023252327

layer3.0.bn1.weight f4 [32]
00000000: 117e 033f 6ebf 253f 3a9b 7a3f 3f3c 1e3f
00000010: 2d68 133f 0a49 0c3f 2aaa 493f 7fd9 e03e
00000020: 727f 1b3f 867f 2e3f fd02 0b3f 8e3f 073f
00000030: c60a 183f 996b 4f3f c70b 193f cfff 263f
00000040: 7167 c53e 5139 a63e cb86 073f 8004 073f
00000050: 8880 e73e d410 1e3f 8ebe 273f ddae 0f3f
00000060: 65e4 1a3f 4b78 063f fd2d 0d3f be7b 073f
00000070: 46fc 023f 8507 2b3f e9c1 ba3e cac6 1a3f
0.5136424 0.64745224 0.97893107 0.6181068 0.57580835 0.5479895 0.78775275 0.43915936
0.6074134 0.68163335 0.54301435 0.5283135 0.5939144 0.81023556 0.59783596 0.6523408
0.38555482 0.32465604 0.5294005 0.5274124 0.4521525 0.6174443 0.6552514 0.56126195
0.6050475 0.525273 0.551483 0.5292319 0.5116619 0.6680835 0.36476067 0.6045958

layer3.0.bn1.bias f4 [32]
00000000: d59c 2abd dd3e d93d 3ee2 8abc 10bb 0abd
00000010: e7fe 78be 75ce a8bd 2dae 4cbe 0af8 553b
00000020: 9a43 8bbe 1400 8ebe b060 54be 7898 bb3e
00000030: e75f 00be 2783 96be 8ae4 09be 407c 6fbe
00000040: fb17 0f3f d275 f33e cba6 a9bd 872f 51bd
00000050: 2068 783e 4ee7 a0be eec0 30be 059c 0ebe
00000060: 85eb 8dbd b11f 74bc 512b 93bd 9733 1d3e
00000070: f85e b33d 3cdc 8fbe b399 183f dd89 70be
-0.041653473 0.10607693 -0.016953584 -0.033869803 -0.24315988 -0.082425036 -0.19988318 0.0032649064
-0.27200013 -0.27734435 -0.20740008 0.36639762 -0.12536584 -0.29396936 -0.13466087 -0.23387241
0.55895966 0.47550827 -0.08283766 -0.051070716 0.2425847 -0.3142647 -0.17261097 -0.13926704
-0.069296874 -0.014900134 -0.07185996 0.15351711 0.08758348 -0.28097713 0.59609526 -0.2349009

layer3.0.bn1.running_mean f4 [32]
00000000: 6ea9 3bbf 232e 1f40 b093 71bf cec5 77bf
00000010: 5bdf 8abe 798f 8abf e40e bfbf a32e c3bf
00000020: e6e3 083e 88ab 283f 4b44 ac3e 3546 003f
00000030: 85eb 7ebf 7ca3 d9bd a65a f43e e02b 993f
00000040: bb6e bdbf 5a0c 1fc0 48f3 efbe f948 523e
00000050: 3f58 47bf c75e a7bf 0786 183f 766c 79bf
00000060: 86c6 0cbf 6b63 0ec0 3cdc b0bf c54f 3cbf
00000070: be15 d83f e59d 01be 6505 a13e 3e2b 5cbe
-0.73305404 2.487191 -0.9436598 -0.967862 -0.27123532 -1.0825034 -1.4926419 -1.5248607
0.13368186 0.65886736 0.33645853 0.5010713 -0.99578124 -0.10626885 0.4772541 1.1966515
-1.4799417 -2.4851289 -0.46865296 0.2053565 -0.7786903 -1.3075799 0.5957951 -0.97431123
-0.5499042 -2.224818 -1.381721 -0.7355922 1.6881635 -0.12657888 0.31449428 -0.2150087

layer3.0.bn1.running_var f4 [32]
00000000: 9440 813f 9fc1 8140 3a04 1540 3508 df3f
00000010: bbda 8f3f c2df ba3f cdb1 0b40 ace9 e43f
00000020: 6c3f b33f 8744 793f 3de6 4b3f 9aea 2240
00000030: a9d7 6e3f 966f aa3f af4f 863f eed5 4b3f
00000040: d7e7 0540 86de a13f eeda a73f 5d03 533f
00000050: 5bf0 ab3f 7ab4 603f 3045 803f 56ee 8e3f
00000060: 705d ab3f 1b14 bb3f 60b6 b93f 4d4c a23f
00000070: ab1e ed3f af19 683f 1e16 af3f dcd4 5c3f
1.0097833 4.0548854 2.328383 1.742438 1.1238626 1.4599535 2.182727 1.7883811
1.400373 0.9737019 0.7964819 2.545569 0.9329782 1.3315303 1.0493068 0.79623306
2.0922754 1.2646034 1.3113687 0.82427007 1.3432726 0.87775385 1.0021114 1.1166484
1.338789 1.4615511 1.4508781 1.2679535 1.8524984 0.9066419 1.3678625 0.862623
