kd_results/KD_seed-2_cycles-1_KDfrac-0.5_T-2_cifar100-ResNet10_scheckpoint.pth.tar (torch, 717977 bytes, 100 tensors)

conv1.weight f4 [8, 3, 3, 3]
0.13376448 -0.24178547 0.1117008 -0.0027562971 -0.7477583 -0.12878646 0.34091744 -0.06998503
0.096764594 0.1237291 0.051474508 0.22231002 0.07597928 -0.4981438 -0.04607009 0.19392996
0.04974266 0.096260615 -0.049310505 -0.079608425 -0.012761725 -0.038253266 -0.52448064 -0.21567573
0.25863966 0.06214366 0.14051907 0.015248572 -0.3281074 -0.15231036 -0.5852375 -0.6216457
-0.33109885 -0.30904487 -0.40268087 -0.30755216 0.2634557 -0.07801104 0.17418641 -0.11728817
-0.14819708 0.12307368 0.0070082447 -0.121328846 -0.1754835 0.29673842 -0.024925023 0.2841958
0.32928425 0.34225586 0.5547419 0.57119733 0.48723415 0.31606105 -0.4073996 0.18498106
-0.09571819 -0.5490181 0.7342245 1.1264589 -0.77527976 0.34847692 0.84228957 -0.0011338055
-0.022624575 -0.31831956 0.02406295 -0.01786442 -0.3022422 0.26840824 0.024477398 -0.08199498
0.2747203 0.07834469 0.5173851 0.3323868 -0.74648285 -0.84130806 0.7903875 -0.7167838
-0.8034866 -0.05535544 0.104081266 -0.09795846 0.25024188 1.5916893 0.22610833 -0.41656816
-1.3487954 -0.163437 -0.055605296 0.052948292 -0.12972316 0.33372313 1.476694 0.16025816
-0.25285202 -1.598392 -0.15047853 -0.02132999 -0.022531804 -0.06417067 0.24255423 1.1072294
0.13662735 -0.17427455 -1.0698053 -0.112827145 0.00094621343 0.17912237 -0.10200725 0.38284087
0.6337077 0.5726982 -0.009804129 0.5173063 0.14564185 0.050277922 0.1911443 -0.011982266
-0.51728517 -1.2547476 -0.53948486 -0.5282629 -0.9740012 -0.5992285 -0.2568777 0.09633562
-0.14860304 0.31845108 0.0891988 0.36444467 0.49591434 0.6377177 0.5187557 -0.02068079
-0.031768445 0.0025956507 -0.84200597 1.1701893 -0.11835992 -0.041295722 0.017902544 -0.061533716
-0.030843263 0.07952691 0.05540407 -1.6815951 1.6247231 -0.019953517 -0.13108253 0.16306986
-0.035133753 -0.034708522 0.08846992 -0.08229043 -1.2402658 1.3072237 -0.036135048 -0.26981255
0.19664727 0.074950986 -0.0341271 -0.25472012 0.085601486 -0.19047287 1.027035 0.03739511
-0.00946637 -0.1917915 0.03968098 -0.03920325 -0.31765854 -0.109927095 -0.21609075 1.4711285
-0.35827813 -0.017928302 -0.2967917 0.011200414 0.010508245 -0.21979861 0.0985002 -0.21798036
0.9532986 -0.2131954 0.02246733 -0.1303974 0.12461332 0.08932866 0.03642187 0.1376987
-0.41248962 -0.5628585 0.07670354 -0.20851845 -0.4126538 0.054846004 -0.017283265 -0.06454726
-0.07070136 -0.29931498 -0.48115256 0.053998746 -0.123836674 -0.3791759 -0.05233479 0.0635793
-0.021124883 0.044853635 -0.39467525 -0.60147035 -0.015957942 -0.23709354 -0.5090708 -0.07433096
00000000: 8ef9 083e 9c96 77be 64c3 e43d fea2 34bb
00000010: 176d 3fbf 99e0 03be bb8c ae3e 5054 8fbd
00000020: 842c c63d af65 fd3d efd6 523d 3da5 633e
00000030: 069b 9b3d b40c ffbe feb3 3cbd 9395 463e
00000040: f6be 4b3d 4924 c53d d0f9 49bd be09 a3bd
00000050: 8e16 51bc 75af 1cbd 5d44 06bf 19da 5cbe
00000060: 6b6c 843e 5a8a 7e3d 3be4 0f3e 26d5 793c
00000070: b1fd a7be 3ff7 1bbe 20d2 15bf 2c24 1fbf
00000080: ca85 a9be 213b 9ebe 302c cebe 7a77 9dbe
00000090: aae3 863e 41c4 9fbd ec5d 323e c834 f0bd
000000a0: fac0 17be 0e0e fc3d 6ba5 e53b 427b f8bd
000000b0: f2b1 33be 19ee 973e 902f ccbc 1d82 913e
000000c0: f297 a83e 293c af3e 9103 0e3f fd39 123f
000000d0: c176 f93e c1d2 a13e ae96 d0be ad6b 3d3e
000000e0: e607 c4bd 738c 0cbf 23f6 3b3f ce2f 903f
000000f0: bc78 46bf 916b b23e 4aa0 573f 339c 94ba
00000100: 2c57 b9bc c8fa a2be aa1f c53c 6758 92bc
00000110: 7dbf 9abe ce6c 893e d384 c83c fcec a7bd
00000120: 24a8 8c3e 2e73 a03d 5a73 043f 9a2e aa3e
00000130: 8019 3fbf f75f 57bf d656 4a3f 257f 37bf
00000140: 4cb1 4dbf 63bc 62bd 8f28 d53d 729e c8bd
00000150: b41f 803e 7abc cb3f f188 673e 6c48 d5be
00000160: 54a5 acbf 075c 27be 61c2 63bd 4fe0 583d
00000170: 26d6 04be c2dd aa3e 4f04 bd3f b71a 243e
00000180: d275 81be 1c98 ccbf 0b17 1abe 3bbc aebc
00000190: 9e94 b8bc ea6b 83bd 2360 783e b1b9 8d3f
000001a0: 0ae8 0b3e 0775 32be 61ef 88bf eb11 e7bd
000001b0: 4f0b 783a db6b 373e 2de9 d0bd b803 c43e
000001c0: ab3a 223f 599c 123f 7fa1 20bc 306e 043f
000001d0: 2323 153e 39f0 4d3d 55bb 433e 4451 44bc
000001e0: cd6c 04bf 929b a0bf ae1b 0abf 3d3c 07bf
000001f0: 2558 79bf 0a67 19bf 7985 83be 9c4b c53d
00000200: 652b 18be 050c a33e dcad b63d 7e98 ba3e
00000210: 7ce8 fd3e 7841 233f 2ccd 043f c36a a9bc
00000220: a11f 02bd cb1b 2a3b b48d 57bf c3c8 953f
00000230: b066 f2bd b425 29bd 5ba8 923c c70a 7cbd
00000240: 03ab fcbc 01df a23d 61ef 623d 823e d7bf
00000250: edf6 cf3f 8f75 a3bc 803a 06be c9fb 263e
00000260: 69e8 0fbd 862a 0ebd b82f b53d e387 a8bd
00000270: 08c1 9ebf 1b53 a73f 5802 14bd df24 8abe
00000280: e75d 493e e77f 993d dcc8 0bbd ad6a 82be
00000290: d54f af3d 520b 43be e275 833f 9d2b 193d
000002a0: d518 1bbc fe64 44be 8688 223d 9693 20bd
000002b0: 24a4 a2be 7521 e1bd e546 5dbe f04d bc3f
000002c0: 3b70 b7be 60de 92bc 15f5 97be f181 373c
000002d0: c62a 2c3c e312 61be 79ba c93d 3e36 5fbe
000002e0: 610b 743f e54f 5abe 680d b83c e586 05be
000002f0: 4535 ff3d f2f1 b63d 192f 153d e300 0d3e
00000300: d731 d3be 7f17 10bf bf16 9d3d dc85 55be
00000310: 5c47 d3be 34a6 603d a295 8dbc 5b31 84bd
00000320: e0cb 90bd d03f 99be a159 f6be ca2d 5d3d
00000330: 159e fdbd 5823 c2be 015d 56bd dd35 823d
00000340: 170e adbc 72b8 373d e012 cabe f6f9 19bf
00000350: 3bba 82bc a6c8 72be 7752 02bf d53a 98bd

bn1.weight f4 [8]
0.536284 0.30639336 0.2340796 0.59921074 0.26940146 0.6967528 0.43374583 1.4770871
00000000: e949 093f 97df 9c3e 90b2 6f3e e065 193f
00000010: fdee 893e 645e 323f ef13 de3e 3111 bd3f

bn1.bias f4 [8]
-0.44106624 0.08500112 0.152819 0.18635164 0.6747776 0.26083523 0.52284926 -1.7296096
00000000: 6fd3 e1be 1115 ae3d 957c 1c3e f7d2 3e3e
00000010: 3abe 2c3f 328c 853e 73d9 053f d963 ddbf

bn1.running_mean f4 [8]
0.23761351 0.38517013 -0.10911576 -0.00484894 0.06805174 -0.05828558 -0.3760253 1.46833
00000000: f550 733e 0535 c53e 1578 dfbd dbe3 9ebb
00000010: b65e 8b3d dcbc 6ebd 6386 c0be 3df2 bb3f

bn1.running_var f4 [8]
1.5560904 3.585819 1.221631 6.37911 1.5240413 4.4980974 2.439583 21.129784
00000000: f82d c73f 0f7e 6540 685e 9c3f ab21 cc40
00000010: c913 c33f 6af0 8f40 2122 1c40 cc09 a941

layer1.0.conv1.weight f4 [8, 8, 3, 3]
0.1151194 -0.6581724 0.591449 -0.111242235 -0.17487332 0.39432743 -0.054838058 0.05129676
0.36610788 0.07405587 -0.16682814 0.08776277 -0.16858453 -0.091212176 -0.004755225 0.027546875
0.12080807 0.081762135 -0.009182178 -0.122949384 0.111997806 -0.058157343 -0.18824531 0.18429142
0.10585514 -0.057754952 0.119919434 -0.2468646 0.26816443 -0.2724602 -0.026353609 -0.10777028
0.060698383 -0.015552661 0.02705348 0.011652858 -0.004844899 0.17528853 -0.10269604 -0.10495018
0.14477557 -0.20715138 0.0196984 0.06572107 0.030608261 -0.15958342 -0.5174627 0.28690338
0.066194415 -1.3793426 1.452757 -0.13078868 -0.6668228 0.77912664 0.28823337 -0.105274074
0.034150284 0.72892034 -0.89539516 0.15738669 0.47271174 -0.7241784 0.043209367 -0.022666393
0.32271636 -0.17956334 -0.21723616 0.3163846 -0.24725538 -0.07692029 0.28158644 -0.09224298
0.044821203 0.22303148 0.25847638 -0.17094052 -0.46492535 -0.43350643 0.21366175 -0.09193921
0.28312704 0.18493772 0.00093169266 0.022629926 -0.18407479 -0.028926505 0.025944788 0.07351065
0.18347481 -0.07010335 -0.082068 0.0925803 -0.004471854 0.013446874 0.06611707 0.058137566
0.20002483 0.032984566 -0.103805766 0.005208187 0.058188755 0.21422428 -0.1440922 -1.8647083
-0.36452764 0.070096366 -0.19583522 0.024593621 -0.14606504 0.08747422 0.019029686 0.00025426943
0.30363122 -0.028656602 -0.08636548 0.04794654 -0.051134713 0.0073123374 -0.08165567 -0.10399369
-0.044946663 -0.22688302 0.36319152 0.061540723 0.2838116 -0.17754324 -0.13598266 0.15130477
-0.21048455 -0.018826852 -1.0299197 -0.20299922 0.15722404 0.7689441 0.17905216 -0.0033161696
0.21581022 0.13113186 0.18548498 0.31522822 0.48899668 -0.09726449 -0.44475803 -0.36361766
0.3033268 0.01982585 0.1821186 -0.184196 -0.13589656 0.11538843 -0.21302809 -0.22548664
0.11909505 -0.13675164 -0.08777286 0.049191356 -0.16384661 -0.024132732 0.0014134222 0.060919166
0.094938345 -0.060636986 -0.11522537 -0.05054024 0.10045505 -0.029858135 -0.015502656 0.08988393
0.012641597 0.0047220513 -0.17932147 -0.07733869 0.32720646 -0.09433084 0.3744176 -0.1696743
-0.011150027 -0.069667935 -0.13687542 -0.09407306 -0.14535715 0.1282375 3.9864608e-05 0.03607627
0.18452877 0.10778052 -0.12327395 -0.026250016 -0.116165005 -0.026784584 -0.13684791 0.016488377
-0.2241303 -0.94846404 0.04023967 -0.007603252 -0.22416697 -0.21134505 0.3397865 -0.38026863
-0.23206815 0.86934924 -0.6342938 0.080160074 0.22207886 -0.09017058 -0.036573242 0.008600617
0.28776518 0.27219057 -0.2901244 -0.0016162462 -0.0352488 0.0572153 0.110556826 0.12488268
-0.16189396 0.04168174 -0.09555306 0.017066376 0.12469664 0.009023759 -0.07116631 0.00923435
0.00019983594 -0.04036415 -0.29874122 -0.5854314 0.17460221 -0.010480794 -0.21467525 0.26019117
0.34468186 0.29453596 0.5472472 1.0837724 0.8255827 0.13069077 0.4852222 0.33385003
-0.6536888 -0.73787206 -0.50673574 0.08522638 0.285145 -0.39676067 0.04235851 -0.08215649
0.04967782 0.12307746 -0.08167441 -0.07048886 0.11611712 0.04235035 -0.55004483 0.29886353
00000000: b8c3 eb3d fd7d 28bf 3469 173f f8d2 e3bd
00000010: fe11 33be 49e5 c93e df9d 60bd 8d1c 523d
00000020: 7e72 bb3e 9baa 973d ffd4 2abe f8bc b33d
00000030: 6ca1 2cbe 73cd babd b8d1 9bbb fca9 e13c
00000040: 396a f73d e872 a73d d970 16bc e3cc fbbd
00000050: 1b5f e53d 6536 6ebd 61c3 40be e4b6 3c3e
00000060: 94ca d83d 7590 6cbd 5298 f53d 13ca 7cbe
00000070: d94c 893e e77f 8bbe 86e3 d7bc aab6 dcbd
00000080: de9e 783d 97d0 7ebc 429f dd3c a1eb 3e3c
00000090: f5c1 9ebb d67e 333e 4d52 d2bd 1ff0 d6bd
000000a0: 0c40 143e 7e1f 54be 8a5e a13c c598 863d
000000b0: 2dbe fa3c d669 23be 6f78 04bf 00e5 923e
000000c0: f090 873d 4c8e b0bf f1f3 b93f 78ed 05be
000000d0: e6b4 2abf d874 473f 5393 933e ef99 d7bd
000000e0: 2be1 0b3d 869a 3a3f 9e38 65bf fa29 213e
000000f0: 4607 f23e c163 39bf 4efc 303d dfae b9bc
00000100: 143b a53e 74df 37be 2873 5ebe 2afd a13e
00000110: 8430 7dbe 6388 9dbd 192c 903e e3e9 bcbd
00000120: 7096 373d 5d62 643e 0457 843e 080b 2fbe
00000130: b20a eebe 8ef4 ddbe 25ca 5a3e a04a bcbd
00000140: 07f6 903e 5060 3d3e d63c 743a 6562 b93c
00000150: 1a7e 3cbe 47f7 ecbc 2a8a d43c c08c 963d
00000160: d2e0 3b3e 5892 8fbd 4513 a8bd be9a bd3d
00000170: a188 92bb 4750 5c3c 6368 873d a821 6e3d
00000180: 4fd3 4c3e d31a 073d 1e98 d4bd 70a9 aa3b
00000190: 5557 6e3d 9c5d 5b3e e88c 13be c3ae eebf
000001a0: 5ea3 babe af8e 8f3d 0789 48be 9078 c93c
000001b0: 1392 15be af25 b33d 25e4 9b3c 774f 8539
000001c0: 8d75 9b3e 40c1 eabc 63e0 b0bd 9763 443d
000001d0: a272 51bd 559c ef3b 173b a7bd a5fa d4bd
000001e0: fe19 38bd 0654 68be 3df4 b93e 2012 7c3d
000001f0: c14f 913e e5cd 35be 0a3f 0bbe a3ef 1a3e
00000200: 4389 57be c53a 9abc 69d4 83bf 07df 4fbe
00000210: 57ff 203e 85d9 443f 7359 373e 1854 59bb
00000220: 5bfd 5c3e 6e47 063e c6ef 3d3e 9865 a13e
00000230: c65d fa3e 9b32 c7bd 53b7 e3be 182c babe
00000240: a64d 9b3e d269 a23c 4c7d 3a3e e09d 3cbe
00000250: 7828 0bbe c550 ec3d 0924 5abe f8e5 66be
00000260: 1be8 f33d 9f08 0cbe 42c2 b3bd e07c 493d
00000270: 68c7 27be 02b2 c5bc 9442 b93a 6086 793d
00000280: 096f c23d 7d5e 78bd 47fb ebbd 4803 4fbd
00000290: 61bb cd3d 0c99 f4bc dafe 7dbc 1115 b83d
000002a0: b31e 4f3c 70bb 9a3b 0ca0 37be bf63 9ebd
000002b0: 9b87 a73e 8730 c1bd aab3 bf3e 1abf 2dbe
000002c0: 9aae 36bc 10ae 8ebd 1229 0cbe 60a9 c0bd
000002d0: 81d8 14be b150 033e 4c34 2738 b6c4 133d
000002e0: 1cf5 3c3e 09bc dc3d 0d77 fcbd 460a d7bc
000002f0: ebe7 edbd 586b dbbc dc21 0cbe a212 873c
00000300: 6a82 65be 8ace 72bf 5ad2 243d b324 f9bb
00000310: 078c 65be d66a 58be 7ff8 ad3e 92b2 c2be
00000320: 46a3 6dbe ac8d 5e3f 1461 22bf f72a a43d
00000330: a468 633e 5aab b8bd d3cd 15bd 9ae9 0c3c
00000340: f555 933e 905c 8b3e 2f8b 94be 39d8 d3ba
00000350: 0c61 10bd 975a 6a3d 9e6b e23d 7ec2 ff3d
00000360: 88c7 25be 79ba 2a3d 53b1 c3bd c9ce 8b3c
00000370: f460 ff3d 63d8 133c a4bf 91bd ac4b 173c
00000380: 0d8b 5139 e154 25bd 9cf4 98be d5de 15bf
00000390: ecca 323e a3b7 2bbc d4d3 5bbe c737 853e
000003a0: 247a b03e 6bcd 963e 6418 0c3f 0eb9 8a3f
000003b0: 6359 533f cdd3 053e 0b6f f83e 64ee aa3e
000003c0: 2658 27bf 2fe5 3cbf 6fb9 01bf 2b8b ae3d
000003d0: 87fe 913e 3724 cbbe 1e80 2d3d a941 a8bd
000003e0: f87a 4b3d 0910 fc3d ea44 a7bd 775c 90bd
000003f0: d0ce ed3d 9077 2d3d bdcf 0cbf a404 993e

layer1.0.bn1.weight f4 [8]
0.88639265 1.1356697 0.90457225 0.30970657 1.0907942 0.48218882 0.8542984 0.37255576
00000000: a1ea 623f a05d 913f 0c92 673f dc91 9e3e
00000010: 259f 8b3f 74e1 f63e 4db3 5a3f a1bf be3e

layer1.0.bn1.bias f4 [8]
-0.04911625 0.38812867 -0.043137703 0.32625422 -1.4986922 0.38462278 0.2620949 0.41818634
00000000: 1f2e 49bd cdb8 c63e 29b1 30bd cb0a a73e
00000010: 25d5 bfbf 47ed c43e 4d31 863e 851c d63e

layer1.0.bn1.running_mean f4 [8]
-0.209023 -0.59364086 -0.54960215 0.27621925 0.24061489 0.004572126 -0.6061806 -0.45220533
00000000: 200a 56be d9f8 17bf bab2 0cbf 9c6c 8d3e
00000010: c063 763e c6d1 953b a72e 1bbf 7587 e7be

layer1.0.bn1.running_var f4 [8]
3.4937468 1.6580517 0.9640935 0.21214381 0.1779189 0.19554842 0.9267557 0.17730948
00000000: 8c99 5f40 0a3b d43f d5ce 763f 3a3c 593e
00000010: 5f30 363e d83d 483e dd3f 6d3f 9e90 353e

layer1.0.conv2.weight f4 [8, 8, 3, 3]
-0.45262307 -0.45697558 -0.03887117 -0.7878569 -1.0771798 -0.38358164 -0.3170592 -0.9199959
-0.10370645 0.42423633 0.123761326 -0.33961532 0.009245843 0.20382747 -0.26697114 -0.22701691
-0.28715113 0.54352915 0.35873473 -0.21792082 0.14766328 0.20251665 -0.030739589 -0.18120469
0.3327068 -0.09233608 -0.22436069 0.19695906 0.030690802 0.06843379 -0.15607294 -0.20952407
-0.010652347 0.052545786 0.059068196 0.16282001 -0.2697492 -0.019004308 0.32076252 -0.25217465
0.061306458 0.15408482 -0.14248344 0.12967362 0.23309137 0.031262342 0.12421884 -0.06925335
-0.16769047 -0.2628002 0.121645644 0.2967033 -0.060074944 -0.037837245 0.05344184 -0.27811983
0.11795577 0.47024986 0.09830822 -0.07670031 0.70177287 -0.19040307 -0.39006618 0.04735833
-0.061485156 -0.13763435 0.12582344 0.0023285064 0.43969953 -0.07093045 -0.20349638 -0.15385315
0.17159262 -0.07757164 0.0034196842 -0.08948857 0.20249648 0.1080354 0.1012941 0.1674979
0.06468089 -0.06415943 -0.037037026 -0.08479548 -0.045449406 -0.42823625 -0.14826658 0.071680695
-0.30965745 -0.2008383 -0.11655504 -0.16330677 0.17467007 -0.10144092 0.08330652 0.57670796
-0.18940613 -0.039720915 0.4117733 0.30024853 0.18978211 0.10989761 -0.48299935 -0.1328262
0.22927113 -0.7241142 -0.34774226 0.28708234 -0.2217432 -0.53185797 -0.105050586 -0.291174
-0.45311892 -0.14217699 0.019539278 -0.15898958 -0.014233482 0.015503446 -0.07547676 -0.11294939
0.057838786 0.3206358 -0.028205443 0.027117748 -0.122590944 -0.08116387 -0.116582 0.0012098162
0.076931365 0.09417085 0.08115988 0.060004476 0.19921933 0.10530216 0.036568206 0.22455215
-0.011227939 -0.14516559 0.15170737 0.0005991217 -0.42373455 0.17458713 -0.07569014 -0.23355016
-0.027626684 -0.31658426 -0.18423338 0.31410095 -0.011457114 0.12343695 -0.4597744 0.23277698
-0.22806399 0.114178374 -0.075588875 -0.09713117 1.4003936 -1.3824857 -0.23847684 0.06771055
0.052456155 -0.056988273 0.09911985 -0.36028254 0.084731825 0.17730354 -0.49543095 0.2696072
-0.22696905 0.60348994 -0.1825667 0.025256827 -0.13046306 0.08056833 0.10757435 -0.18323743
-0.07059328 -0.6477588 0.07366011 0.16089335 0.20543861 -0.048994236 0.25245053 -0.032528438
-0.04807787 0.11186335 -9.955e-05 0.04206729 -0.047288373 -0.00018680387 -0.03173792 0.042609207
0.37554917 -0.29830778 -0.141543 -0.7784125 0.6276275 0.007953581 -0.42521158 0.21245982
0.24256498 -0.5763486 0.25855783 0.14878206 1.1694702 -0.46466476 -0.5722397 -0.06500855
0.041328438 0.0017271785 0.13656695 -0.2709065 0.19928892 -0.13210024 0.55103916 -0.22250499
0.11117015 0.12022864 -0.049886778 -0.012776593 -0.020872725 -0.0052788625 -0.176159 -0.12648253
-0.08296948 -0.10924102 0.3513548 0.08623097 -0.3316427 -1.0042573 -0.6104021 0.09823854
1.0874822 0.33450332 -0.09197709 0.009196012 -0.2213047 -0.15528525 -0.48998055 -0.33519956
0.14990291 0.5431223 0.36348292 -0.0114911 -0.006390013 0.07753068 0.2871137 -0.14971554
-0.191679 -0.18479133 -0.11541364 0.13913889 0.22691785 0.011119925 0.42120013 0.30759317
00000000: 36be e7be b4f8 e9be 6037 1fbd fdb0 49bf
00000010: 07e1 89bf d064 c4be 9555 a2be da84 6bbf
00000020: 0c64 d4bd 8135 d93e 9476 fd3d 0fe2 adbe
00000030: e07b 173c 26b8 503e 71b0 88be 1f77 68be
00000040: 7905 93be ba24 0b3f 14ac b73e a326 5fbe
00000050: 0b35 173e 8660 4f3e 97d1 fbbc b98d 39be
00000060: 8c58 aa3e b31a bdbd cfbe 65be a3af 493e
00000070: 476b fb3c 0427 8c3d 96d1 1fbe 7a8d 56be
00000080: 2e87 2ebc 403a 573d 7ef1 713d 4aba 263e
00000090: 911c 8abe ecae 9bbc fc3a a43e 091d 81be
000000a0: 7b1c 7b3d 69c8 1d3e 2ee7 11be 29c9 043e
000000b0: 81af 6e3e f10c 003d 7266 fe3d b3d4 8dbd
000000c0: 0db7 2bbe bf8d 86be 5a21 f93d 7fe9 973e
000000d0: 2511 76bd 3afb 1abd d5e5 5a3d b965 8ebe
000000e0: cb92 f13d 97c4 f03e d255 c93d 0d15 9dbd
000000f0: 63a7 333f 06f9 42be c1b6 c7be cffa 413d
00000100: dcd7 7bbd 05f0 0cbe dcd7 003e db99 183b
00000110: 4c20 e13e fc43 91bd 5b61 50be ae8b 1dbe
00000120: fab5 2f3e e1dd 9ebd c81c 603b c945 b7bd
00000130: 3d5b 4f3e aa41 dd3d 4873 cf3d 9284 2b3e
00000140: 6a77 843d 0566 83bd 23b4 17bd 41a9 adbd
00000150: 2829 3abd c841 dbbe 32d3 17be 54cd 923d
00000160: 6c8b 9ebe 8ea8 4dbe 69b4 eebd e439 27be
00000170: b6dc 323e 42c0 cfbd 9c9c aa3d 22a3 133f
00000180: aef3 41be 66b2 22bd f3d3 d23e 2dba 993e
00000190: 3e56 423e 0012 e13d b14b f7be 9703 08be
000001a0: 0dc6 6a3e 8c5f 39bf 460b b2be 75fc 923e
000001b0: a610 63be d827 08bf c324 d7bd c214 95be
000001c0: 34ff e7be d896 11be d610 a03c 2ace 22be
000001d0: 8d33 69bc 2a02 7e3c 8f93 9abd 0352 e7bd
000001e0: 5de8 6c3d 602a a43e 1a0f e7bc 0a26 de3c
000001f0: f610 fbbd 3e39 a6bd 8bc2 eebd b292 9e3a
00000200: 318e 9d3d a6dc c03d 2737 a63d 41c7 753d
00000210: 2700 4c3e a9a8 d73d 8bc8 153d 00f1 653e
00000220: 64f5 37bc 4aa6 14be 2d59 1b3e 600e 1d3a
00000230: bcf3 d8be f8c6 323e 6f03 9bbd c627 6fbe
00000240: 5b51 e2bc 5517 a2be ada7 3cbe d7d1 a03e
00000250: 9eb6 3bbc 83cc fc3d 8d67 ebbe 175d 6e3e
00000260: 9b89 69be 5ad6 e93d 57ce 9abd b5ec c6bd
00000270: 1940 b33f 4bf5 b0bf 4633 74be d4ab 8a3d
00000280: 44dc 563d 896c 69bd 59ff ca3d f476 b8be
00000290: e187 ad3d 0f8f 353e 20a9 fdbe f409 8a3e
000002a0: 936a 68be 517e 1a3f c4f2 3abe 68e7 ce3c
000002b0: 1c98 05be 0201 a53d f14f dc3d 98a2 3bbe
000002c0: 3693 90bd 85d3 25bf 1ddb 963d 3ac1 243e
000002d0: 805e 523e 2eae 48bd 3241 813e 8a3c 05bd
000002e0: 4ded 44bd 9d18 e53d 80c5 d0b8 c04e 2c3d
000002f0: 74b1 41bd c8e0 43b9 9fff 01bd fe86 2e3d
00000300: fb47 c03e ccbb 98be a6f0 10be 0b46 47bf
00000310: 32ac 203f bd4f 023c 55b5 d9be 118f 593e
00000320: f462 783e 958b 13bf b161 843e 535a 183e
00000330: 33b1 953f 8ae8 edbe 4d7e 12bf 3423 85bd
00000340: 0248 293d 7e62 e23a 35d8 0b3e 42b4 8abe
00000350: 6512 4c3e 4945 07be e710 0d3f 59d8 63be
00000360: 2dad e33d 6f3a f63d 1456 4cbd ea54 51bc
00000370: 47fd aabc 4ffa acbb 0663 34be a384 01be
00000380: e7eb a9bd c2b9 dfbd c7e4 b33e dd99 b03d
00000390: 12cd a9be 818b 80bf 5043 1cbf 4a31 c93d
000003a0: 9e32 8b3f 0544 ab3e 7c5e bcbd dfaa 163c
000003b0: b39d 62be 1903 1fbe bbde fabe 479f abbe
000003c0: 2680 193e 100a 0b3f 6f1a ba3e 2b45 3cbc
000003d0: 5063 d1bb 68c8 9e3d 9100 933e 084f 19be
000003e0: 8047 44be f039 3dbe fd5d ecbd 6d7a 0e3e
000003f0: 275d 683e 5930 363c 8ba7 d73e da7c 9d3e

layer1.0.bn2.weight f4 [8]
1.7495396 0.8163285 1.8411224 1.2079782 0.44740465 0.78088737 0.55490386 1.0723875
00000000: eaf0 df3f e8fa 503f e6a9 eb3f 089f 9a3f
00000010: 3912 e53e 3ce8 473f 2e0e 0e3f fe43 893f

layer1.0.bn2.bias f4 [8]
0.274895 0.90939707 -0.30893382 -0.35375556 0.5546638 0.8475277 0.893224 0.7967253
00000000: 0abf 8c3e 3fce 683f 932c 9ebe 731f b5be
00000010: 72fe 0d3f 93f7 583f 54aa 643f 30f6 4b3f

layer1.0.bn2.running_mean f4 [8]
-0.3700315 -0.83017623 -0.37493524 -0.16801998 0.071518734 1.2527847 -0.39768037 -0.61731523
00000000: c574 bdbe 6e86 54bf 83f7 bfbe 6e0d 2cbe
00000010: 6a78 923d 405b a03f c39c cbbe 5f08 1ebf

layer1.0.bn2.running_var f4 [8]
2.760371 0.9936852 1.8963665 1.1083975 0.35079816 0.73831946 0.7428125 1.1143327
00000000: eba9 3040 2762 7e3f 23bc f23f f8df 8d3f
00000010: d19b b33e 8102 3d3f f628 3e3f 74a2 8e3f

layer2.0.conv1.weight f4 [16, 8, 3, 3]
0.002166928 0.1770235 -0.37305254 0.25482005 0.13079353 0.119036555 -0.08937694 0.19909056
0.108945094 0.019497225 0.22768205 0.19918099 -0.23471807 -0.004119661 0.014883825 0.024402514
-0.25268164 0.051406533 -0.025648165 0.09115781 0.18979603 -0.043791663 -0.07210074 0.113783516
-0.003093036 -0.07945597 0.021656478 -0.12284952 -0.032459494 0.061242525 -0.101012334 -0.24776773
-0.036913894 0.0025681518 0.017900927 -0.10027942 0.015664821 0.0053371163 0.11515149 0.034126874
-0.017868856 -0.0354124 -0.15737535 0.107876286 0.04347252 -0.09612123 -0.4539844 0.07535466
0.1985981 -0.07842797 -0.4111833 0.06465702 0.29449114 0.069361344 -0.21932651 -0.16688798
0.24268076 -0.074553266 -0.30547237 -0.28534782 0.2031236 0.09322351 0.022002697 -0.072025076
-0.114798956 0.057348322 0.12439003 -0.10099656 -0.14435826 0.12565519 0.111465245 -0.06227273
0.0065537747 -0.12363164 -0.25276405 0.032885406 0.024826827 -0.11669154 -0.01629583 0.07083026
0.076734684 0.098776475 0.16787064 -0.038267363 -0.05371154 -0.04486793 -0.07103117 -0.14893384
-0.115839444 -0.091877416 -0.10316859 -0.18782854 -0.07467435 -0.14703616 -0.24424171 -0.11377455
-0.17449644 -0.143811 0.02111595 -0.23779063 -0.40478003 -0.24358732 -0.29746604 -0.45915148
-0.3686622 -0.13526255 -0.15101187 -0.073065825 0.06279457 0.09314229 -0.092517905 0.035154924
0.1372995 0.017038194 -0.1919851 -0.06434878 -0.028350154 -0.027807722 -0.057001244 0.13222621
-0.13149175 -0.17923926 0.0074033025 0.09480146 -0.048813168 -0.06384495 -0.022591958 0.04041461
0.17962007 -0.121513836 -0.11298235 -0.09839905 -0.02831464 -0.18277776 -0.28133425 -0.13965915
-0.04553361 -0.07227917 -0.13860406 0.05266852 -0.0065855235 -0.05449908 -0.12643988 -0.052339718
-0.16596867 0.016462637 0.04284731 0.002194195 0.30793884 0.07066035 0.008645111 0.48799896
-0.02585015 -0.14269035 -0.116559416 0.112114675 -0.16895127 0.0480448 0.24527903 -0.158613
0.058489494 0.334501 0.009695343 -0.122982875 -0.12926582 -0.13447946 -0.6924589 -0.86349255
-0.08742455 -0.59323823 -0.63414615 0.11367002 0.021257104 0.13914616 0.14146511 0.062396858
0.03805929 0.0021318912 -0.03229167 -0.032273863 0.056805354 0.100991055 -0.048027076 -0.07904492
0.010304868 -0.072901234 -0.016003318 0.10215341 -0.0425189 -0.026900098 -0.04665181 0.17145918
-0.016185084 -0.11829115 0.2198976 0.11779024 -0.31466436 -0.09023302 0.107734114 0.0967789
-0.28860274 0.070617266 0.29722112 -0.20951633 -0.027788829 0.34238613 -0.21926503 -0.098017186
-0.07594159 0.052574784 -0.110302046 0.014379127 0.33805177 0.09949908 -0.06420235 0.051922724
0.06038433 0.18833856 0.122384645 0.17083873 0.31670964 -0.5258217 -0.07311619 -0.32045144
0.020289287 -0.07514468 0.33539858 -0.19699813 0.10281892 0.28659916 -0.16533485 0.14200853
-0.21621306 0.06360157 0.014023588 -0.054233182 0.05779015 -0.015184337 0.09129148 -0.09929198
0.024766518 -0.046829194 0.019393632 0.039494384 0.056915157 -0.03362682 0.018225217 0.10423114
-0.1463156 -0.06745024 -0.13714175 -0.051694013 -0.017144192 -0.01884274 0.006676369 -0.033348754
00000000: 0503 0e3b a645 353e be00 bfbe c677 823e
00000010: bdee 053e 70c9 f33d 420b b7bd 65de 4b3e
00000020: 9b1e df3d a5b8 9f3c 7c25 693e 1af6 4b3e
00000030: ef59 70be 39fe 86bb 49db 733c c8e7 c73c
00000040: 7d5f 81be a88f 523d 1a1c d2bc f2b0 ba3d
00000050: e459 423e e35e 33bd 8ea9 93bd 5507 e93d
00000060: 88b4 4abb d0b9 a2bd ed68 b13c 8798 fbbd
00000070: 3ff4 04bd 71d9 7a3d 8edf cebd d3b6 7dbe
00000080: 0633 17bd 704e 283b f7a4 923c 4c5f cdbd
00000090: 8353 803c fae2 ae3b 8bd4 eb3d 9fc8 0b3d
000000a0: b561 92bc 980c 11bd 0127 21be 3eee dc3d
000000b0: 3e10 323d 35db c4bd a570 e8be 8b53 9a3d
000000c0: 4d5d 4b3e d89e a0bd 9e86 d2be e66a 843d
000000d0: 8bc7 963e 520d 8e3d 2197 60be afe4 2abe
000000e0: 4e81 783e 62af 98bd e066 9cbe 1c19 92be
000000f0: a2ff 4f3e f8eb be3d 003f b43c e281 93bd
00000100: b71b ebbd 13e6 6a3d 33c0 fe3d 49d7 cebd
00000110: a7d2 13be c1ab 003e e447 e43d b111 7fbd
00000120: 0cc1 d63b 9632 fdbd 4a6a 81be d9b2 063d
00000130: a161 cb3c f9fb eebd d57e 85bc 750f 913d
00000140: 1327 9d3d 524b ca3d 48e6 2b3e 3dbe 1cbd
00000150: a200 5cbd 6fc7 37bd ca78 91bd 1d82 18be
00000160: 3b3d edbd 3a2a bcbd 0e4a d3bd 2056 40be
00000170: deee 98bd a690 16be 801a 7abe a202 e9bd
00000180: 32af 32be 3143 13be 5bfb ac3c 637f 73be
00000190: 543f cfbe f46e 79be 784d 98be e715 ebbe
000001a0: 4bc1 bcbe 4482 0abe dba2 1abe 89a3 95bd
000001b0: 719a 803d 63c1 be3d 077a bdbd 9cfe 0f3d
000001c0: 3d98 0c3e af93 8b3c be97 44be 4bc9 83bd
000001d0: 953e e8bc 05cd e3bc 237a 69bd 4f66 073e
000001e0: c6a5 06be 7f8a 37be 6797 f23b 4527 c23d
000001f0: 51f0 47bd 24c1 82bd c512 b9bc ca89 253d
00000200: 53ee 373e 3fdc f8bd 4a63 e7bd 7185 c9bd
00000210: 1bf4 e7bc 182a 3bbe 0b0b 90be cf02 0fbe
00000220: 7381 3abd 1a07 94bd 39ee 0dbe f2ba 573d
00000230: 60cb d7bb 6d3a 5fbd 7579 01be 2c62 56bd
00000240: b1f3 29be a7dc 863c a980 2f3d 7ccc 0f3b
00000250: 29aa 9d3e 60b6 903d 39a4 0d3c 00db f93e
00000260: b2c3 d3bc 6b1d 12be b4b6 eebd 619c e53d
00000270: 9001 2dbe a0ca 443d 6d2a 7b3e 726b 22be
00000280: ae92 6f3d b743 ab3e 37d9 1e3c 72de fbbd
00000290: 425e 04be fcb4 09be fd44 31bf d90d 5dbf
000002a0: a40b b3bd 76de 17bf 6757 22bf d4cb e83d
000002b0: 6123 ae3c 557c 0e3e 3bdc 103e d993 7f3d
000002c0: 0fe4 1b3d 33b7 0b3b 4544 04bd 9931 04bd
000002d0: bbac 683d 66d4 ce3d 0ab8 44bd 4ee2 a1bd
000002e0: c0d5 283c 3e4d 95bd 6419 83bc cf35 d13d
000002f0: 4c28 2ebd 985d dcbc f815 3fbd ff92 2f3e
00000300: 9596 84bc a142 f2bd d62c 613e 023c f13d
00000310: b01b a1be 17cc b8bd b4a3 dc3d 0434 c63d
00000320: bdc3 93be c99f 903d 5e2d 983e 738b 56be
00000330: 66a5 e3bc 3c4d af3e 0387 60be 3cbd c8bd
00000340: 4487 9bbd a858 573d 0ae6 e1bd 6e96 6b3c
00000350: 1f15 ad3e 2cc6 cb3d 867c 83bd ecac 543d
00000360: 8f55 773d d3db 403e cda4 fa3d 59f0 2e3e
00000370: c427 a23e 409c 06bf f1bd 95bd 3612 a4be
00000380: b835 a63c 74e5 99bd 5db9 ab3e e1b9 49be
00000390: ba92 d23d 20bd 923e 8a4d 29be af6a 113e
000003a0: f566 5dbe 8a41 823d 31c3 653c 9d23 5ebd
000003b0: 5db5 6c3d bac7 78bc 07f7 ba3d 9859 cbbd
000003c0: 27e3 ca3c f8cf 3fbd 65df 9e3c ddc4 213d
000003d0: de1f 693d 47bc 09bd 0d4d 953c 2377 d53d
000003e0: c2d3 15be 5a23 8abd e36e 0cbe 1abd 53bd
000003f0: fa71 8cbc 175c 9abc 71c5 da3b b498 08bd

layer2.0.bn1.weight f4 [16]
0.6885906 0.38177812 1.0845718 0.7277721 0.5396823 0.815795 0.48184934 0.48214048
0.49076396 0.42620665 0.7034828 0.47708237 0.50618297 1.0130955 0.51195043 0.5423695
00000000: 7947 303f 6c78 c33e 40d3 8a3f 464f 3a3f
00000010: 9f28 0a3f f1d7 503f f5b4 f63e 1edb f63e
00000020: 6a45 fb3e c237 da3e 7317 343f 2444 f43e
00000030: 3595 013f 1dad 813f 2f0f 033f bad8 0a3f

layer2.0.bn1.bias f4 [16]
-0.14350913 0.8368521 -0.33921203 -0.16459209 0.36209127 -0.2420779 0.45421168 0.4404831
0.12760565 0.634339 -0.25385028 0.5474552 -0.0031428856 -0.34143955 0.20613316 0.2692798
00000000: 0ff4 12be f03b 563f 33ad adbe d48a 28be
00000010: 0764 b93e 45e3 77be 6f8e e83e 0087 e13e
00000020: 0eab 023e 0a64 223f aaf8 81be 0626 0c3f
00000030: dff8 4dbb 2ad1 aebe 9214 533e 0bdf 893e

layer2.0.bn1.running_mean f4 [16]
-0.74205184 -3.9534543 -0.2457488 -1.492287 -4.6927247 0.07970064 -2.7152896 -0.92870265
4.482591 2.2214303 4.9674187 -0.42800334 -0.964939 -1.5955623 0.3153206 -3.560882
00000000: 1cf7 3dbf 6505 7dc0 93a5 7bbe 4303 bfbf
00000010: cd2a 96c0 173a a33d 4ec7 2dc0 75bf 6dbf
00000020: 6371 8f40 ea2b 0e40 18f5 9e40 4123 dbbe
00000030: 3e06 77bf 633b ccbf b471 a13e 7ee5 63c0

layer2.0.bn1.running_var f4 [16]
1.7217047 2.8107843 3.5170352 1.8048254 2.999486 1.7854677 2.1297953 2.06766
1.333667 2.1226285 2.0404382 3.4447212 0.9909375 3.7768033 2.4487586 2.5193691
00000000: d260 dc3f e4e3 3340 1b17 6140 8504 e73f
00000010: 94f7 3f40 358a e43f 914e 0840 8b54 0440
00000020: 9ab5 aa3f 25d9 0740 8a96 0240 5076 5c40
00000030: 14ae 7d3f 25b7 7140 76b8 1c40 583d 2140

layer2.0.conv2.weight f4 [16, 16, 3, 3]
0.054377597 0.026447514 0.014004484 -0.003922483 -0.049151428 0.011526533 -0.01644991 0.016510187
0.092072286 -0.16691221 0.011514976 -0.1551469 -0.11366555 -0.002945023 -0.07714502 -0.25413275
-0.14045005 -0.17577425 -0.064032614 -0.047201056 -0.06717474 0.036190037 0.042274404 -0.009080237
0.040936492 0.017336547 -0.0900323 -0.020263076 0.04337678 -0.050206717 -0.050881978 -0.030472405
0.030309293 -0.10339332 -0.13117091 -0.08008014 -0.050675135 -0.038164813 -0.008124776 0.06116621
0.0066367495 -0.0032235614 0.018011412 0.10738668 0.061828826 0.035114538 -0.09283118 -0.097178146
-0.07810177 -0.04580387 -0.07601185 -0.073022634 -0.09058565 -0.15089184 0.058110356 0.107776046
0.115509205 0.1193729 0.15193224 0.21186113 0.010651597 0.016235912 0.15829015 -0.29511723
-0.2850014 -0.40056747 -0.29578376 -0.28248435 -0.35383892 -0.24601305 -0.22985023 -0.23281156
-0.12559593 -0.18261969 -0.20790276 -0.13961396 -0.11128411 -0.076698944 -0.1496013 -0.13135913
-0.043182034 0.15220673 0.2157848 0.3006447 0.43559894 0.5408014 0.40475038 0.28740963
0.30167073 0.194353 -0.10250999 -0.017118527 0.008532246 -0.1132853 -0.109953634 -0.005668401
-0.14525573 -0.1140854 -0.07660935 -0.06855609 -0.05151734 -0.08492839 0.061956212 0.11962328
0.02977062 0.06344489 0.18352795 -0.052449673 0.039751235 0.086524576 -0.0067377314 0.08207989
0.12822047 -0.0394358 0.06757292 0.09731497 0.0032630845 -0.0018985183 -0.0039775814 -0.052637715
0.060793124 0.006849206 -0.112693936 0.050363973 -0.0068043373 -0.03460293 0.039652016 0.068317115
0.082240626 0.06767784 -0.004214872 -0.009700715 -0.028565535 0.0043944637 0.08435727 -7.021559e-05
-0.0520209 0.014113297 0.108463995 0.16858864 0.09795385 0.04994827 0.07643541 -0.0316236
0.1398158 0.09115407 -0.09021382 0.0397145 -0.048508823 -0.14573728 -0.08664918 -0.06977752
0.0056185024 -0.1978431 0.30205336 0.21705641 -0.12859677 0.19457754 -0.04410982 -0.0046501276
0.0313085 -0.3571844 -0.03153262 -0.01054111 -0.025407739 0.053321376 0.220506 0.16998567
0.057387747 0.15011488 0.12526296 -0.10634012 -0.14277826 -0.06131534 -0.07698444 -0.036052413
-0.17117971 0.09140588 -0.085435316 -0.16667578 0.06414256 0.13601226 -0.04451036 -0.05111047
0.03692852 -0.22579394 0.038765136 -0.11705058 0.054619905 -0.056062125 -0.0539195 0.01104422
-0.0036123423 0.054196082 0.11707707 0.065519914 0.18341967 0.15631619 -0.17695664 -0.16195852
-0.34777793 0.014053023 -0.35030696 -0.41336015 0.031551432 -0.12347818 -0.21105456 0.0039397352
-0.056495447 -0.15126553 0.057234168 0.1519396 -0.09894056 -0.040070526 0.05097222 0.057966772
0.0796557 0.012156084 0.047829438 0.025906498 0.008604426 0.03068152 -0.08021266 0.045452688
-0.049545873 0.040335182 0.09167299 -0.034334138 0.05410176 0.37522393 0.03142325 0.003448794
0.06840536 0.10199147 0.14863554 0.055677015 -0.0672429 0.31420577 0.18078054 0.007493954
0.22104894 0.3281394 0.14241308 0.11766878 -0.025369281 -0.2722735 -0.018344592 -0.0015324398
-0.15903167 -0.08659498 -0.019990584 0.027849229 -0.020585163 -0.07788917 -0.19055587 -0.028374905
00000000: 0bbb 5e3d 75a8 d83c 1073 653c 2c88 80bb
00000010: 0253 49bd c9d9 3c3c f6c1 86bc 5f40 873c
00000020: 6590 bc3d 09eb 2abe 4fa9 3c3c d4de 1ebe
00000030: 7cc9 e8bd 4901 41bb 35fe 9dbd b01d 82be
00000040: 23d2 0fbe 2afe 33be 8823 83bd e555 41bd
00000050: e992 89bd 013c 143d ed27 2d3d 46c5 14bc
00000060: 06ad 273d 6005 8e3c db62 b8bd c0fe a5bc
00000070: daab 313d 8fa5 4dbd 9f69 50bd 44a1 f9bc
00000080: 324b f83c e1bf d3bd ab51 06be 0e01 a4bd
00000090: bb90 4fbd b552 1cbd c81d 05bc 6b89 7a3d
000000a0: 1779 d93b 6342 53bb ab8c 933c 8ced db3d
000000b0: 3940 7d3d 43d4 0f3d 461e bebd 5605 c7bd
000000c0: d2f3 9fbd d79c 3bbd 1aac 9bbd e48c 95bd
000000d0: f884 b9bd 6483 1abe 2005 6e3d b0b9 dc3d
000000e0: 1790 ec3d c779 f43d 2094 1b3e 20f2 583e
000000f0: 0984 2e3c 2d01 853c d016 223e 9b19 97be
00000100: b4eb 91be 2e17 cdbe f870 97be caa1 90be
00000110: 602a b5be d8ea 7bbe dc5d 6bbe 2766 6ebe
00000120: 389c 00be a800 3bbe 76e4 54be f6f6 0ebe
00000130: ece8 e3bd 5614 9dbd 1531 19be 0283 06be
00000140: a5df 30bd 15dc 1b3e b1f6 5c3e 1aee 993e
00000150: d306 df3e f671 0a3f 713b cf3e 5b27 933e
00000160: 9674 9a3e 7904 473e c2f0 d1bd 273c 8cbc
00000170: d5ca 0b3c 2002 e8bd 5f2f e1bd febd b9bb
00000180: ebbd 14be 9ba5 e9bd 5de5 9cbd 2367 8cbd
00000190: d903 53bd f0ee adbd ccc5 7d3d 0dfd f43d
000001a0: 84e1 f33c 65ef 813d c0ee 3b3e 78d5 56bd
000001b0: 31d2 223d cc33 b13d 30c8 dcbb 8019 a83d
000001c0: 3a4c 033e 6f87 21bd ac63 8a3d 124d c73d
000001d0: 79d9 553b b4d7 f8ba 5f56 82bb a59a 57bd
000001e0: 3602 793d 4e6f e03b 14cc e6bd 744a 4e3d
000001f0: ebf6 debb cdbb 0dbd 276a 223d d8e9 8b3d
00000200: c66d a83d ae9a 8a3d e91c 8abb bfef 1ebc
00000210: 4502 eabc 6fff 8f3b 81c3 ac3d b540 93b8
00000220: de13 55bd 753b 673c 5f22 de3d 80a2 2c3e
00000230: 079c c83d 8f96 4c3d 2b8a 9c3d bf87 01bd
00000240: e02b 0f3e fcae ba3d 06c2 b8bd acab 223d
00000250: 30b1 46bd 273c 15be 2075 b1bd 84e7 8ebd
00000260: 6a1b b83b 6297 4abe bda6 9a3e 0944 5e3e
00000270: dfae 03be 563f 473e 80ac 34bd 1960 98bb
00000280: 573d 003d e0e0 b6be 5928 01bd 9fb4 2cbc
00000290: e423 d0bc 8467 5a3d 53cc 613e b910 2e3e
000002a0: 6a0f 6b3d b7b7 193e ef44 003e d9c8 d9bd
000002b0: 7734 12be cb25 7bbd 05aa 9dbd b2ab 13bd
000002c0: bc49 2fbe 0233 bb3d b6f8 aebd 0ead 2abe
000002d0: 2d5d 833d cc46 0b3e 7f50 36bd 3659 51bd
000002e0: 5c42 173d 8736 67be 31c8 1e3d 37b8 efbd
000002f0: 1fb9 5f3d 66a1 65bd b2da 5cbd d1f2 343c
00000300: 0cbd 6cbb b6fc 5d3d 1ac6 ef3d 4e2f 863d
00000310: 5ed2 3b3e 5a11 203e 1f34 35be 74d8 25be
00000320: f30f b2be a73e 663c 6f5b b3be f1a3 d3be
00000330: 133c 013d 21e2 fcbd b01e 58be e518 813b
00000340: c567 67bd 5ae5 1abe 606e 6a3d 0e96 1b3e
00000350: 59a1 cabd fe20 24bd 3fc8 503d 916e 6d3d
00000360: 8722 a33d 502a 473c cde8 433d dd39 d43c
00000370: 94f9 0c3c d057 fb3c 8946 a4bd 992c 3a3d
00000380: 9df0 4abd 8136 253d 0cbf bb3d f4a1 0cbd
00000390: cf99 5d3d 5a1d c03e aab5 003d 2905 623b
000003a0: 1c18 8c3d e7e0 d03d ea33 183e 950d 643d
000003b0: a5b6 89bd 94df a03e 891e 393e d88f f53b
000003c0: a75a 623e e301 a83e bcd4 113e 54fc f03d
000003d0: 3dd3 cfbc 6f67 8bbe 6647 96bc 26dc c8ba
000003e0: 33d9 22be b558 b1bd 4bc3 a3bc 1124 e43c
000003f0: 37a2 a8bc 5b84 9fbd 1421 43be 7d72 e8bc

layer2.0.bn2.weight f4 [16]
0.69398916 0.62951255 0.71657544 0.8808982 0.61493635 0.5575744 0.91761446 0.6090318
0.89441496 0.44693398 1.0933359 0.5269693 0.4881791 0.76274806 0.6167844 0.5766878
00000000: 46a9 313f bc27 213f 7d71 373f 8b82 613f
00000010: 786c 1d3f 32bd 0e3f c8e8 6a3f 82e9 1b3f
00000020: 61f8 643f 88d4 e43e 6ef2 8b3f 76e7 063f
00000030: 9cf2 f93e 7543 433f 95e5 1d3f d0a1 133f

layer2.0.bn2.bias f4 [16]
0.2355542 0.4109874 0.044349357 -0.20708203 -0.10818564 -0.034559872 -0.098209865 0.44875982
-0.19064537 -0.2248368 -0.07245892 0.23928592 0.42869148 -0.15894344 0.3903583 0.24858786
00000000: 1f35 713e f16c d23e aca7 353d 500d 54be
00000010: 6f90 ddbd a78e 0dbd 4122 c9bd d9c3 e53e
00000020: 8a38 43be 9e3b 66be 5865 94bd 5e07 753e
00000030: 737d db3e 12c2 22be 0bdd c73e d18d 7e3e

layer2.0.bn2.running_mean f4 [16]
0.121549904 -0.42419925 0.054685604 -0.47307298 0.02963491 -0.71478987 -0.53318495 0.12541647
-0.5113969 -0.6327101 -0.2976937 1.2204778 0.011300895 -0.24673797 -1.4038785 -2.6485155
00000000: 28ef f83d a530 d9be 03fe 5f3d 9f36 f2be
00000010: e9c4 f23c 78fc 36bf cf7e 08bf 2d6d 003e
00000020: e8ea 02bf 4af9 21bf 4f6b 98be 9e38 9c3f
00000030: 6427 393c e1a8 7cbe 4ab2 b3bf 4781 29c0

layer2.0.bn2.running_var f4 [16]
1.3371758 1.1059313 0.7523373 0.6261488 0.3838235 0.3737279 0.87076694 1.0920348
0.5371928 0.35846364 0.8447667 0.7608928 0.9153613 0.5560931 1.1643816 0.76685953
00000000: 9428 ab3f 288f 8d3f 2d99 403f 4a4b 203f
00000010: 8484 c43e 4359 bf3e 95ea 5e3f ccc7 8b3f
00000020: 7885 093f 8c88 b73e a142 583f dfc9 423f
00000030: 1e55 6a3f 1e5c 0e3f 750a 953f e850 443f

layer2.0.shortcut.0.weight f4 [16, 8, 1, 1]
0.068398096 -0.32770965 -0.0065725357 -0.02354039 -0.121321075 0.005856321 -0.12755565 0.33262983
0.05508419 -0.2155991 0.030025672 -0.15330575 -0.03901413 0.22941278 0.17461583 -0.20673431
-0.047681715 0.05287157 0.010447185 0.24764797 -0.2565835 0.20805985 -0.26491338 0.1155053
-0.01789518 0.11587414 0.07450373 0.13286391 -0.16717076 -0.3395465 -0.23758566 0.26682964
0.08293921 -0.37310466 -0.029702028 0.021032091 0.3086097 -0.0024299193 -0.0055022975 0.41148913
-0.13342816 0.47168162 0.061410777 -0.002054846 0.08533372 -0.016327195 -0.025721148 -0.56676555
0.006190778 -0.15778877 -0.08903136 0.014542618 0.052766427 -0.2843924 0.0017811931 -0.017186446
-0.029460913 0.123450994 -0.06622161 -0.18583828 -0.107178025 0.010803739 -0.045669205 0.28609315
0.031062545 0.28431445 -0.052132707 -0.0061826734 -0.0074896323 0.16012132 -0.25912926 0.07559771
-0.03234225 -0.24174882 0.005834732 0.0060438085 -1.1804647 -0.053112276 -0.14353806 0.20403777
0.032787193 0.14555684 -0.3406659 -0.1330757 -0.18466322 -0.18676455 0.25118542 -0.1457839
0.1465822 -0.14095354 0.1131036 -0.14751422 0.16023378 0.0009951281 0.09656157 -0.25008908
-0.2247323 0.12725659 0.005591748 0.053656943 0.15968406 0.3076294 0.21496299 -0.04761614
-0.27403817 -0.40586498 -0.06651962 -0.24837008 0.04921251 -0.043545794 -0.1755705 -0.155081
0.09151644 -0.01524539 0.1645889 0.004560817 -0.022945698 -0.07468098 -0.02187244 -0.017466567
0.1560904 0.27779076 0.02856834 0.10842114 0.07472657 -0.038887784 0.10519766 0.30302432
00000000: 4d14 8c3d 8fc9 a7be 6d5e d7bb c7d7 c0bc
00000010: 2f77 f8bd 62e6 bf3b f39d 02be 754e aa3e
00000020: f69f 613d 03c6 5cbe 66f8 f53c 2ffc 1cbe
00000030: 48cd 1fbd 2feb 6a3e 7ece 323e 29b2 53be
00000040: e74d 43bd dc8f 583d ab2a 2b3c 6e97 7d3e
00000050: ea5e 83be a40d 553e baa2 87be 0b8e ec3d
00000060: ea98 92bc 6c4f ed3d 6995 983d 7a0d 083e
00000070: d02e 2bbe 0ad9 adbe a849 73be e59d 883e
00000080: 08dc a93d 9307 bfbe ab51 f3bc 7e4b ac3c
00000090: 1702 9e3e 483f 1fbb 9e4c b4bb b4ae d23e
000000a0: 64a1 08be 4180 f13e de89 7b3d 98aa 06bb
000000b0: 72c3 ae3d 9cc0 85bc 28b5 d2bc 8c17 11bf
000000c0: 03dc ca3b 6193 21be 1356 b6bd 2944 6e3c
000000d0: 9c21 583d e19b 91be ec76 e93a 97ca 8cbc
000000e0: 0358 f1bc e0d3 fc3d 329f 87bd 644c 3ebe
000000f0: 2780 dbbd 2a02 313c a20f 3bbd cd7a 923e
00000100: e176 fe3c aa91 913e 1b89 55bd 0698 cabb
00000110: 976b f5bb d8f6 233e 97ac 84be f9d2 9a3d
00000120: 4f79 04bd 018d 77be 4831 bf3b 240b c63b
00000130: 7819 97bf 428c 59bd a4fb 12be 47ef 503e
00000140: dd4b 063d da0c 153e c36b aebe ff44 08be
00000150: 5b18 3dbe 353f 3fbe 609b 803e 6048 15be
00000160: a519 163e 2056 10be dca2 e73d f80d 17be
00000170: 5314 243e f56e 823a 13c2 c53d ad0b 80be
00000180: 3920 66be 8d4f 023e fb3a b73b 62c7 5b3d
00000190: 3884 233e 9a81 9d3e 421f 5c3e 2409 43bd
000001a0: bb4e 8cbe 89cd cfbe 703b 88bd ba54 7ebe
000001b0: 0f93 493d 135d 32bd c1c8 33be 8ecd 1ebe
000001c0: f96c bb3d cdc7 79bc fe89 283e e872 953b
000001d0: 9ef8 bbbc 57f2 98bd d52d b3bc 0c16 8fbc
000001e0: 29d6 1f3e 973a 8e3e 2708 ea3c e70b de3d
000001f0: 3e0a 993d cc48 1fbd df71 d73d 0126 9b3e

layer2.0.shortcut.1.weight f4 [16]
0.12284358 0.14204782 0.20805211 0.30972126 0.36485928 0.45563653 0.112325445 0.101614535
0.19484796 0.9363185 0.36163473 0.112904064 0.120167196 0.5049418 -0.010801138 0.15795489
00000000: 6a95 fb3d fc74 113e 9d0b 553e c993 9e3e
00000010: d6ce ba3e 3149 e93e e20a e63d 481b d03d
00000020: 3986 473e 92b2 6f3f 3028 b93e 3f3a e73d
00000030: 381a f63d de43 013f 42f7 30bc edbe 213e

layer2.0.shortcut.1.bias f4 [16]
0.2355542 0.4109874 0.044349357 -0.20708203 -0.10818564 -0.034559872 -0.098209865 0.44875982
-0.19064537 -0.2248368 -0.07245892 0.23928592 0.42869148 -0.15894344 0.3903583 0.24858786
00000000: 1f35 713e f16c d23e aca7 353d 500d 54be
00000010: 6f90 ddbd a78e 0dbd 4122 c9bd d9c3 e53e
00000020: 8a38 43be 9e3b 66be 5865 94bd 5e07 753e
00000030: 737d db3e 12c2 22be 0bdd c73e d18d 7e3e

layer2.0.shortcut.1.running_mean f4 [16]
-0.31889105 0.03681717 -0.1909624 -0.49883413 0.42300996 -0.06897729 -0.51173234 0.10518211
0.19562812 -1.8006779 -0.2787733 0.030801736 0.84777737 -1.1923764 -0.03798545 0.98145425
00000000: b045 a3be 9acd 163d a68b 43be 3067 ffbe
00000010: c394 d83e f743 8dbd e400 03bf b869 d73d
00000020: bd52 483e 9d7c e6bf 60bb 8ebe ec53 fc3c
00000030: f007 593f ca9f 98bf a296 1bbd 9640 7b3f

layer2.0.shortcut.1.running_var f4 [16]
0.08646895 0.13220698 0.13269293 0.20304568 0.17341101 0.21149935 0.09677444 0.10598621
0.09300594 0.39204893 0.22009791 0.11101068 0.12935635 0.2687084 0.03756918 0.1489046
00000000: a216 b13d 4461 073e a8e0 073e 35eb 4f3e
00000010: a892 313e 4993 583e ad31 c63d 4c0f d93d
00000020: e679 be3d a3ba c83e 5961 613e 9159 e33d
00000030: fe75 043e 2694 893e 24e2 193d 737a 183e

layer3.0.conv1.weight f4 [32, 16, 3, 3]
-0.09319292 0.15198146 0.08666236 0.02452228 0.051627517 0.008138043 0.13094185 0.008366245
-0.19008888 0.189399 0.048577584 -0.22401008 0.022318961 0.12999992 0.07546685 -0.114751495
0.037140477 0.32090908 -0.09367875 -0.0566555 -0.010204168 -6.587021e-05 0.05886857 -0.09717371
0.088719554 0.03548405 -0.12036853 0.2903219 0.3989257 0.18275478 0.30863634 0.71840465
0.5514869 0.048264477 0.49122176 0.4197399 -0.0938492 -0.119516596 0.035901338 -0.034514934
-0.16315795 -0.120830014 0.0384277 -0.06733985 -0.045227267 0.120072186 0.095169134 -0.054228377
0.12839517 0.18570457 0.15808214 -0.097891666 0.13746949 0.17376064 0.08125356 -0.064015165
-0.0761572 0.087310344 0.048458762 -0.027384387 -0.022983963 0.12427332 0.092461735 0.08014222
0.07005883 -0.05696931 -0.05249907 0.008798114 0.027061747 0.0061161714 0.018131442 0.100935996
0.07354299 0.027045181 -0.011087918 0.090908155 0.09804568 0.014212356 0.035000335 0.107048914
0.00987106 -0.022010278 -0.014513628 0.021890849 -0.050191727 -0.062312804 -0.009209651 0.018705482
-0.087503955 -0.08302904 -0.113027625 -0.0065083383 0.061292116 0.017955955 -0.09910344 -0.027847817
0.111071005 -0.0020416912 -0.17859273 0.015749842 -0.10432911 -0.1194664 0.06409257 0.0154432
-0.06119789 0.0696783 0.1995666 -0.07165428 -0.054131243 -0.04112799 -0.14837329 -0.061704233
0.004229966 -0.0987575 -0.09341555 0.022068921 -0.047718223 -0.12879945 -0.07234772 0.087491475
-0.10266178 -0.20024562 -0.19093184 0.1088195 -0.060936257 -0.2214732 -0.03611232 0.07848619
0.015724955 -0.07687552 0.04253215 0.10031878 -0.11769 -0.11983101 -0.019720078 0.01887663
-0.00853145 0.013567037 0.008628931 0.078591995 0.0025369716 -0.020543527 0.107927136 0.10663947
-0.06377204 -0.088895105 -0.0014823311 -0.049598027 -0.08042525 0.019686462 0.05881661 0.013151067
0.15895262 -0.05637429 -0.06060306 0.124326885 -0.030666007 -0.021603806 0.07579344 -0.0014659339
0.03265044 0.0488488 0.012713685 0.02604692 0.0658547 0.12955064 -0.041710168 -0.059240635
0.036337245 0.022791866 -0.05588937 -0.078610465 -0.06899196 0.03248725 -0.10214226 -0.07090227
0.07303899 -0.12898219 -0.03506632 0.002362953 0.089545935 -0.015903253 -0.06832724 0.020405922
-0.06062313 -0.12162691 0.020744538 -0.057892315 -0.066698 0.008660442 -0.0013926288 0.0109348
-0.09884064 -0.0056089005 -0.003663622 -0.07327585 -0.07532981 -0.060594667 -0.09925397 -0.13031277
-0.074912496 -0.12515876 -0.16265218 -0.090470895 -0.081425875 -0.1049115 -0.035630565 -0.107145816
-0.15861969 -0.14501292 -0.20189327 -0.0985386 -0.09768003 -0.24053998 -0.19685128 -0.12890235
0.011138376 -0.017695656 -0.044177394 -0.05833412 -0.16408654 -0.16411027 -0.0306253 -0.15662256
-0.1674844 -0.04054922 -0.05229724 -0.011382133 0.0009893834 0.003803835 0.053110797 0.0037787475
0.047340754 0.094812974 0.1107735 0.09715847 -0.09185072 0.1590338 0.10804059 -0.14910778
0.1527972 0.103547856 -0.13381386 -0.17111523 -0.043512404 0.21147645 -0.13083638 -0.12842944
0.137955 -0.15790452 -0.15305215 0.15575194 0.056084957 0.03477196 -0.02012904 -0.085165106
00000000: eedb bebd 07a1 1b3e 097c b13d f3e2 c83c
00000010: 6077 533d 6d55 053c 9f15 063e 9312 093c
00000020: a9a6 42be d0f1 413e 4af9 463d e662 65be
00000030: 41d6 b63c b31e 053e 5d8e 9a3d d502 ebbd
00000040: 9d20 183d 324e a43e a5da bfbd 990f 68bd
00000050: 622f 27bc cd23 8ab8 2b20 713d 0303 c7bd
00000060: 99b2 b53d b957 113d c783 f6bd 12a5 943e
00000070: fd3f cc3e 1224 3b3e 9505 9e3e 5ee9 373f
00000080: 3f2e 0d3f f9b0 453d 6b81 fb3e 26e8 d63e
00000090: 0234 c0bd 1ec5 f4bd 480d 133d 885f 0dbd
000000a0: e112 27be ba75 f7bd 5d66 1d3d 7ae9 89bd
000000b0: 3a40 39bd 68e8 f53d 09e8 c23d 931e 5ebd
000000c0: 067a 033e 5729 3e3e 49e0 213e 6d7b c8bd
000000d0: cdc4 0c3e 4fee 313e 4468 a63d 621a 83bd
000000e0: 4ef8 9bbd c4cf b23d b27c 463d 3955 e0bc
000000f0: dd48 bcbc 0383 fe3d 945c bd3d 9b21 a43d
00000100: 017b 8f3d a758 69bd 4409 57bd f725 103c
00000110: 99b0 dd3c 2a6a c83b 6488 943c 88b7 ce3d
00000120: b59d 963d db8d dd3c 19aa 35bc 0e2e ba3d
00000130: 2ccc c83d f1da 683c 835c 0f3d 763c db3d
00000140: 3aba 213c e64e b4bc 91ca 6dbc 7054 b33c
00000150: d795 4dbd b63b 7fbd 13e4 16bc 3d3c 993c
00000160: 4635 b3bd 210b aabd 077b e7bd e643 d5bb
00000170: 710d 7b3d 5e18 933c bff6 cabd 1b21 e4bc
00000180: 3279 e33d e5cd 05bb 03e1 36be d005 813c
00000190: 80aa d5bd cdaa f4bd f742 833d 7a05 7d3c
000001a0: a4aa 7abd 7fb3 8e3d 305b 4c3e 7bbf 92bd
000001b0: b9b8 5dbd d375 28bd 2bef 17be 94bd 7cbd
000001c0: 879b 8a3b 5f41 cabd a750 bfbd e2c9 b43c
000001d0: 2f74 43bd 01e4 03be 0b2b 94bd bb2e b33d
000001e0: 5740 d2bd 300d 4dbe a383 43be c2dc de3d
000001f0: 4c98 79bd dfc9 62be 83ea 13bd 5ebd a03d
00000200: 9fd1 803c ea70 9dbd 3136 2e3d ef73 cd3d
00000210: 7407 f1bd f669 f5bd 008c a1bc 2aa3 9a3c
00000220: 7fc7 0bbc 4748 5e3c 5c60 0d3c d7f4 a03d
00000230: 5243 263b e64a a8bc e708 dd3d cb65 da3d
00000240: ea9a 82bd a30e b6bd c74a c2ba 4d27 4bbd
00000250: feb5 a4bd 8145 a13c b0e9 703d 9377 573c
00000260: 7ac4 223e bae8 66bd ea3a 78bd 189f fe3d
00000270: 4737 fbbc 77fa b0bc 9739 9b3d 9424 c0ba
00000280: 78bc 053d ae15 483d 0f4d 503c 5a60 d53c
00000290: d4de 863d eca8 043e 48d8 2abd 4fa6 72bd
000002a0: 5dd6 143d 02b6 ba3c 41ec 64bd 86fe a0bd
000002b0: a84b 8dbd 5a11 053d f62f d1bd 3635 91bd
000002c0: 7795 953d e813 04be b4a1 0fbd c6db 1a3b
000002d0: dc63 b73d 8a47 82bc 27ef 8bbd 522a a73c
000002e0: f64f 78bd 8817 f9bd 73f0 a93c 7e20 6dbd
000002f0: f698 88bd 87e4 0d3c de88 b6ba e027 333c
00000300: f66c cabd deca b7bb 6119 70bb a611 96bd
00000310: 8446 9abd 1d32 78bd aa45 cbbd b670 05be
00000320: b96b 99bd 9e29 00be 4b8e 26be ce48 b9bd
00000330: 9cc2 a6bd d7db d6bd 5bf1 11bd 446f dbbd
00000340: 336d 22be 447e 14be 1cbd 4ebe 9bce c9bd
00000350: 780c c8bd 1d50 76be 6293 49be fafe 03be
00000360: bc7d 363c 7bf6 90bc 5bf3 34bd c2ef 6ebd
00000370: 4d06 28be 860c 28be e9e1 fabc aa61 20be
00000380: 0881 2bbe f016 26bd a135 56bd 207c 3abc
00000390: 33ae 813a c349 793b b58a 593d dda4 773b
000003a0: 61e8 413d 4e2d c23d 37dd e23d 05fb c63d
000003b0: 3b1c bcbd c2d9 223e 6344 dd3d b6af 18be
000003c0: df76 1c3e e610 d43d 8006 09be d538 2fbe
000003d0: 103a 32bd 488d 583e f9f9 05be 0283 03be
000003e0: 1344 0d3e b9b1 21be b4b9 1cbe 707d 1f3e
000003f0: 57b9 653d 0b6d 0e3d a8e5 a4bc 0b6b aebd

layer3.0.bn1.weight f4 [32]
0.4736311 0.56212485 0.403194 0.51474077 0.51733327 0.59097207 0.48375237 0.3666702
0.582625 0.45633823 0.51406044 0.63499695 0.57034993 0.5780419 0.52085954 0.5865198
0.46972007 1.0275161 0.5313113 0.63753545 0.91239774 0.44919708 0.6240156 0.40668467
0.98661894 0.4879423 0.4667486 0.55415744 0.3984907 0.422032 0.56461334 0.4445023
00000000: c77f f23e 6ae7 0f3f 726f ce3e 0dc6 033f
00000010: f46f 043f f249 173f 64ae f73e 32bc bb3e
00000020: e926 153f 2aa5 e93e 7799 033f 298f 223f
00000030: 7402 123f 8efa 133f 0d57 053f 2926 163f
00000040: 267f f03e a685 833f 0404 083f 8635 233f
00000050: e692 693f 29fd e53e 7dbf 1f3f f938 d03e
00000060: 0f93 7c3f 93d3 f93e acf9 ee3e 43dd 0d3f
00000070: f906 cc3e 9414 d83e 808a 103f ce95 e33e

layer3.0.bn1.bias f4 [32]
0.07074411 0.2696224 0.39067912 -0.057747245 -0.045082808 -0.118860565 0.079998404 0.3857153
-0.08700026 0.28326288 -0.010443359 -0.30401155 -0.18274754 -0.08696178 0.26664928 -0.03480375
0.13343593 -0.08215206 -0.19306411 -0.30886856 -0.42790565 0.0110073015 -0.24717817 0.20566826
-0.69814265 0.008887074 0.042989936 0.027692255 0.3189256 -0.008816428 -0.28379598 0.118127145
00000000: 4ae2 903d f20b 8a3e 1807 c83e 6088 6cbd
00000010: c0a8 38bd 2b6d f3bd 34d6 a33d 7a7c c53e
00000020: 312d b2bd d507 913e 9f1a 2bbc 67a7 9bbe
00000030: 2c22 3bbe 0519 b2bd 4186 883e 618e 0ebd
00000040: 6ea3 083e 573f a8bd 99b2 45be 0524 9ebe
00000050: 7316 dbbe f857 343c 461c 7dbe b39a 523e
00000060: 7ab9 32bf 179b 113c 3716 303d deda e23c
00000070: 374a a33e c772 10bc b54d 91be a5ec f13d

layer3.0.bn1.running_mean f4 [32]
0.8995519 -2.1106627 -0.8579158 0.56081855 -0.52122194 0.19709991 -0.3400825 0.50726295
0.32883987 -0.58070046 -0.18520838 -0.28058618 -0.16208386 -0.10056339 -0.29796427 -0.29752484
-1.5648628 -0.63314945 -0.51317483 -0.7017782 -0.29999432 -0.09897056 -1.7642318 1.7643085
-0.74112314 2.315737 -0.21096352 -1.5195284 1.9816992 -0.49621153 0.33272925 -2.4591818
00000000: 0949 663f 1915 07c0 5fa0 5bbf ce91 0f3f
00000010: cd6e 05bf 8fd4 493e 4b1f aebe fcdb 013f
00000020: b35d a83e c9a8 14bf 44a7 3dbe fea8 8fbe
00000030: 50f9 25be 2ef4 cdbd c68e 98be 2d55 98be
00000040: 6d4d c8bf 1516 22bf 6d5f 03bf bca7 33bf
00000050: db98 99be 14b1 cabd 59d2 e1bf dcd4 e13f
00000060: 3fba 3dbf 0935 1440 d206 58be e87f c2bf
00000070: 52a8 fd3f 700f febe 7d5b aa3e 3c63 1dc0

layer3.0.bn1.running_var f4 [32]
0.95763487 1.5605298 1.2848097 0.77527183 0.8337783 0.8829871 1.1401407 1.1670755
0.9051831 1.4192972 1.3691778 0.6493197 0.86864156 0.9526436 2.9385238 1.0605816
1.5979118 2.048764 0.67292804 0.7928909 1.211095 1.0853008 1.1326128 0.908974
1.3868572 1.6927971 1.0482394 1.3773049 1.347248 1.2036884 0.61211354 1.2739587
00000000: 8f27 753f 71bf c73f a574 a43f 3778 463f
00000010: 7f72 553f 710b 623f 21f0 913f bb62 953f
00000020: 14ba 673f 88ab b53f 3841 af3f d139 263f
00000030: 4b5f 5e3f 73e0 733f c610 3c40 23c1 873f
00000040: 6088 cc3f f31e 0340 0345 2c3f e6fa 4a3f
00000050: 2905 9b3f 23eb 8a3f 75f9 903f 85b2 683f
00000060: 8984 b13f 93ad d83f b52c 863f 874b b03f
00000070: 9f72 ac3f 7612 9a3f 79b3 1c3f 1411 a33f
