kd_results/KD_seed-1_cycles-4_KDfrac-0.9_T-2_cifar100-ResNet10_scheckpoint.pth.tar (torch, 717977 bytes, 100 tensors)

conv1.weight f4 [8, 3, 3, 3]
0.12798394 0.2645801 0.1224704 0.1034903 -0.30838835 0.22353151 0.36207756 -0.027517062
0.27122572 -0.19381437 0.11123798 0.05739381 -0.03610973 -0.6882654 0.13369629 0.2670727
-0.31416535 0.26275313 -0.015769647 0.0739293 -0.28318313 -0.037713565 -0.47514862 -0.41724277
-0.0046152724 -0.49512556 -0.49365917 0.029397292 -0.37726304 -0.15979968 0.010697633 1.5899967
0.5234603 -0.017422834 0.71028763 0.6078199 0.2562913 -0.3844078 0.02790683 -0.20079489
0.15520121 -0.90369225 -0.3479244 -0.71762896 -0.6017804 -0.13030067 -0.23494254 0.56941736
0.057100937 -0.06572717 -0.30904 0.15091425 -0.2604616 0.102733 -0.018750187 0.015203341
0.04955539 0.016599959 -1.1709284 -1.4123214 -0.012340413 -0.06195801 -0.11005467 -0.028715126
0.1911973 0.09101028 0.20889775 -0.6468433 -0.98669237 -0.0720638 0.14231114 0.083549365
-0.004297814 0.0054491363 0.081570216 0.09916353 -0.63710123 -0.86109525 -0.008686172 0.028318336
0.035897076 -0.09262707 -0.42447752 -0.017473148 -0.28320125 -0.292311 -0.49478266 -0.24972366
-0.3187538 -0.2165583 0.35621703 0.0030796023 0.15663517 0.40033948 0.7396848 -0.23578314
-0.14055853 0.18677218 -0.22978358 -0.25966826 -0.3960995 0.0985494 0.16652963 0.95522696
0.39653435 -0.047126908 0.6902317 0.3637113 -0.007570126 -0.008098953 -0.48227116 -0.32483822
-0.2621246 0.043154385 -0.29617497 0.08280001 0.19624664 0.2296995 0.5747803 0.09644995
0.6130256 0.6961339 0.9375976 0.27895668 0.7349309 0.21948083 -0.22049701 -0.109451026
-0.23177041 -0.21952549 -1.0561255 -0.48264548 -0.15384404 -0.6144195 -0.7247272 -0.02545615
-0.13091601 -0.29577807 -0.031019563 0.09898648 0.5026761 -0.070587054 0.29050165 1.0176555
-0.053597983 -0.0844893 0.10525062 0.020872345 -0.43780524 -0.3280464 -0.046012647 -0.20863175
0.650217 -0.026863305 0.100200765 0.14322005 0.13615489 0.086169176 -0.28626454 0.25968978
-0.17499837 0.11396289 -0.16518323 0.033403687 0.07856378 -1.0546172 1.0233015 0.10968866
-0.1790248 0.0048273085 0.14150415 -0.15085301 0.2727375 -0.008163265 -1.9358114 1.7833517
0.11626127 -0.07545096 0.1422972 -0.0757404 -0.10837808 0.19877462 -0.15642366 -1.2599888
1.2464153 -0.069601424 -0.08607512 0.14402142 -0.0616588 0.41497198 1.5486898 0.3342386
-0.30965415 -1.2540181 -0.5406495 -0.0047117346 -0.041454736 0.07304119 0.499636 1.8436327
0.46465105 -0.36588418 -1.7713594 -0.61297035 0.022665499 -0.10016279 -0.034331877 0.13589291
0.9539129 0.30190697 -0.27603382 -1.1480134 -0.20373054 -0.009413835 -0.011199784 0.19645922
00000000: 390e 033e 0b77 873e c3d1 fa3d b9f2 d33d
00000010: 14e5 9dbe 72e5 643e 3b62 b93e 766b e1bc
00000020: 19de 8a3e 4677 46be bdd0 e33d c615 6b3d
00000030: cce7 13bd 2932 30bf aee7 083e c1bd 883e
00000040: 48da a0be 9487 863e 592f 81bc 3f68 973d
00000050: 61fd 90be 8a79 1abd ae46 f3be d8a0 d5be
00000060: b63b 97bb 1981 fdbe e5c0 fcbe 97d2 f03c
00000070: 9f28 c1be 87a2 23be 2045 2f3c 0385 cb3f
00000080: 7f01 063f 55ba 8ebc 69d5 353f 169a 1b3f
00000090: 9d38 833e 19d1 c4be dd9c e43c 2d9d 4dbe
000000a0: 11ed 1e3e 6058 67bf 2623 b2be 88b6 37bf
000000b0: 480e 1abf 8a6d 05be c794 70be 56c5 113f
000000c0: ace2 693d f79b 86bd 7e3a 9ebe 4489 1a3e
000000d0: 395b 85be ae65 d23d fe99 99bc 6f17 793c
000000e0: 98fa 4a3d a3fc 873c fbe0 95bf f3c6 b4bf
000000f0: 722f 4abc afc7 7dbd 5864 e1bd fc3b ebbc
00000100: 3ac9 433e 9963 ba3d 4be9 553e 8697 25bf
00000110: df97 7cbf 3096 93bd 03ba 113e ee1b ab3d
00000120: add4 8cbb ab8e b23b 490e a73d 4016 cb3d
00000130: 1119 23bf bd70 5cbf 7250 0ebc dbfb e73c
00000140: d008 133d 43b3 bdbd 1e55 d9be d923 8fbc
00000150: c1ff 90be caa9 95be 2754 fdbe 8fb7 7fbe
00000160: b333 a3be 76c1 5dbe 1462 b63e 27d3 493b
00000170: f864 203e 4cf9 cc3e fc5b 3d3f 2371 71be
00000180: 93ee 0fbe 3541 3f3e 634c 6bbe 3df3 84be
00000190: 8ecd cabe 45d4 c93d be86 2a3e c189 743f
000001a0: 8d06 cb3e 2508 41bd 06b3 303f 5e38 ba3e
000001b0: d20e f8bb 79b1 04bc 3fec f6be 3251 a6be
000001c0: 3235 86be a7c2 303d 3fa4 97be 0d93 a93d
000001d0: e1f4 483e 5936 6b3e cd24 133f 8d87 c53d
000001e0: 3fef 1c3f d535 323f 6506 703f 69d3 8e3e
000001f0: 6e24 3c3f 95bf 603e f8c9 61be dc27 e0bd
00000200: 3955 6dbe 4acb 60be 1f2f 87bf 4f1d f7be
00000210: 4b89 1dbe 994a 1dbf b987 39bf 6a89 d0bc
00000220: d90e 06be 3970 97be bd1c febc 6cb9 ca3d
00000230: 62af 003f f28f 90bd a2bc 943e 8942 823f
00000240: 8f89 5bbd ba08 adbd a38d d73d 7bfc aa3c
00000250: 0228 e0be b3f5 a7be c277 3cbd 90a3 55be
00000260: 9f74 263f 6f10 dcbc 0f36 cd3d 47a8 123e
00000270: 306c 0b3e 7779 b03d 4491 92be 0ff6 843e
00000280: c632 33be 6065 e93d cb25 29be 4ed2 083d
00000290: 0ce6 a03d b2fd 86bf 8bfb 823f 73a4 e03d
000002a0: 4752 37be 662e 9e3b 77e6 103e 3679 1abe
000002b0: 40a4 8b3e 37bf 05bc abc8 f7bf de44 e43f
000002c0: 641a ee3d 0886 9abd 5bb6 113e c81d 9bbd
000002d0: 54f5 ddbd 938b 4b3e 862d 20be 5047 a1bf
000002e0: 898a 9f3f 318b 8ebd 2748 b0bd 5a7a 133e
000002f0: f08d 7cbd 3577 d43e 783b c63f 5221 ab3e
00000300: fd8a 9ebe aa83 a0bf 0168 0abf e564 9abb
00000310: 71cc 29bd 9f96 953d 4ad0 ff3e 28fc eb3f
00000320: bee6 ed3e 2c55 bbbe e8bb e2bf a0eb 1cbf
00000330: ffac b93c 2622 cdbd 959f 0cbd 8327 0b3e
00000340: a333 743f 8d93 9a3e 4e54 8dbe 1af2 92bf
00000350: bd9e 50be 7c3c 1abc 4d7f 37bc 9b2c 493e

bn1.weight f4 [8]
0.7264545 0.3129161 1.9668046 0.32426828 0.24793607 0.31287143 0.5234948 0.52039623
00000000: ecf8 393f 8a36 a03e 41c0 fb3f 7e06 a63e
00000010: f4e2 7d3e af30 a03e c103 063f b038 053f

bn1.bias f4 [8]
-0.53851897 0.2543496 -2.214489 0.2813411 0.5955419 0.43241975 0.44753778 0.31680632
00000000: 61dc 09bf 1c3a 823e 30ba 0dc0 f10b 903e
00000010: 6f75 183f 1f66 dd3e ac23 e53e 7034 a23e

bn1.running_mean f4 [8]
0.3084165 -0.13399321 1.8284996 -0.021233924 -0.28014028 -0.46378627 -0.042323977 0.024592862
00000000: c4e8 9d3e 8435 09be 460c ea3f c4f2 adbc
00000010: 8c6e 8fbe 6575 edbe e85b 2dbd f876 c93c

bn1.running_var f4 [8]
3.7354605 1.8528411 30.009638 3.0234122 2.2640193 2.4196203 5.8811245 9.489857
00000000: c911 6f40 e629 ed3f bd13 f041 967f 4140
00000010: b1e5 1040 0fdb 1a40 2c32 bc40 74d6 1741

layer1.0.conv1.weight f4 [8, 8, 3, 3]
-0.064844616 0.16205582 -0.056774486 0.13625845 0.3934873 0.2633379 -0.04905673 -0.37845615
0.13433407 -0.013659978 0.19868374 0.02109112 0.19512744 -0.23891717 -0.18994825 -0.1302324
0.31649294 -0.11275522 0.2922255 0.32633272 0.14604443 0.46140233 0.46717775 0.12552236
-0.7403465 -0.76180214 -0.033301108 0.19099851 -0.21447048 0.10949398 -0.21266948 -0.40043706
-0.42417815 0.030085573 0.5998943 0.14503899 0.22130303 0.0021323196 0.009779616 -0.24522232
-0.10710151 -0.17645332 0.18073747 0.10451822 -0.019629065 -0.4847035 -0.14794774 -0.3160918
0.3564233 0.32388756 0.21892719 0.103194624 -0.08346408 -0.038819127 0.07470075 0.06446836
-0.06187937 -0.074395254 -0.5035241 0.36409223 0.044166982 0.3015904 -0.23079316 0.016253555
-0.22847138 0.02749298 -0.005212043 0.026876746 0.18281372 -0.23274806 -1.9944484 -0.43188965
0.10431384 0.0786936 0.08895263 0.091011584 0.06596669 0.062611125 -0.14112663 0.12720233
-0.01600174 0.12725832 -0.021956766 -0.03649691 0.1583082 -0.15855548 -0.36850223 -0.11079578
0.039383337 0.27382126 0.30561957 0.91668 0.09597058 0.02825347 1.0674026 0.23421414
-0.024737742 0.5199692 -0.12539782 -0.033350065 -0.029567746 0.046661858 -0.02536342 0.0047501232
-0.059797723 -0.101305686 -0.06140344 0.114321485 0.024020184 -0.04254056 -0.09440721 0.0123943705
0.08713174 0.0030849322 0.025304403 0.072499014 -0.097691156 -0.16850115 -0.3674634 0.3801337
-0.0256002 0.12953144 0.16564463 0.033908788 0.07504142 -0.1509794 0.046185587 -0.065751985
-0.07890801 0.02602519 0.021544408 0.03689265 -0.06266571 -0.0068478156 -0.117548615 0.12139552
-0.009486602 -0.104333274 -0.2698926 0.2492437 -0.0018959258 -0.022947198 0.08218314 -0.021602735
-0.003159799 -0.010190699 -0.19024959 -0.122934684 -0.097148255 -0.0018862895 -0.008700628 -0.030907916
0.15502827 0.53778106 -0.14349394 -0.26518425 0.21860726 0.09903847 -0.13725714 -0.25524327
-0.11306669 -0.10782653 -0.036664635 -0.05462553 0.12104333 0.045042854 -0.14801246 0.1281892
0.07426177 -0.19586042 -0.015657641 0.030697217 -0.17334384 -0.15516225 0.07093864 -0.046140336
-0.08335121 -0.056254555 -0.050620817 -0.22206402 -0.85277885 -0.83272725 -0.19913627 -0.27446303
-0.34476712 0.17203273 0.05646492 0.48202428 0.47241846 -0.21593937 0.05913913 -0.28297162
0.1775934 0.29008228 0.025245592 0.0041347407 -0.08548679 0.034451596 -0.041546702 -0.29681063
0.21874332 -0.007826198 0.11229691 0.19520728 -0.078895025 -0.034150243 -0.058994304 0.08828111
0.065761276 -0.21762228 -0.087372825 -0.027080623 0.007916359 -0.22318323 0.28001165 -0.019090306
0.061143864 -0.13144611 -0.06469907 -0.116431616 -0.22874774 0.45161572 -0.11769704 -0.024825756
0.40892652 0.1411565 0.079814926 -0.1027117 -0.08195911 -0.15945359 0.05367001 0.010414065
0.14844885 -0.39388603 -0.4936894 -0.37720448 0.23012105 -0.2830751 -0.25867864 0.6186134
-0.009376291 0.25478542 0.8503194 -0.15516803 0.14929049 0.008517191 -0.12210618 0.07672862
-0.16475801 0.12737146 0.11256151 -0.27450323 -0.025808947 0.1125807 -0.0525704 -0.01059071
00000000: 41cd 84bd f6f1 253e 5d8c 68bd 5687 0b3e
00000010: 2b77 c93e 3ad4 863e b6ef 48bd 01c5 c1be
00000020: df8e 093e 1ace 5fbc c073 4b3e 49c7 ac3c
00000030: 7dcf 473e b4a6 74be cb81 42be a45b 05be
00000040: 5d0b a23e 35ec e6bd 959e 953e 1515 a73e
00000050: ac8c 153e ed3c ec3e ec31 ef3e ef88 003e
00000060: 5987 3dbf 7705 43bf be66 08bd 1d95 433e
00000070: 269e 5bbe 613e e03d 07c6 59be 1606 cdbe
00000080: e12d d9be 0576 f63c ac92 193f 1a85 143e
00000090: 439d 623e 63be 0b3b af3a 203c 8f1b 7bbe
000000a0: 0958 dbbd 2eb0 34be 3e13 393e a60d d63d
000000b0: 22cd a0bc 0f2b f8be 9d7f 17be c9d6 a1be
000000c0: 1d7d b63e 97d4 a53e 732e 603e b457 d33d
000000d0: 37ef aabd ce00 1fbd b5fc 983d fd07 843d
000000e0: 3975 7dbd 8a5c 98bd f5e6 00bf 4c6a ba3e
000000f0: 70e8 343d 0f6a 9a3e 0b55 6cbe 2d26 853c
00000100: 67f4 69be f538 e13c c9c9 aabb 9f2c dc3c
00000110: 8533 3b3e 8255 6ebe 164a ffbf a420 ddbe
00000120: 7fa2 d53d 1c2a a13d cc2c b63d 4864 ba3d
00000130: 8b19 873d 433a 803d 8083 10be 5441 023e
00000140: 1516 83bc 0150 023e adde b3bc c97d 15bd
00000150: 8b1b 223e 5e5c 22be 53ac bcbe e6e8 e2bd
00000160: 6c50 213d 4d32 8c3e 2b7a 9c3e 8aab 6a3f
00000170: 398c c43d d273 e73c a6a0 883f d5d5 6f3e
00000180: cea6 cabc b41c 053f 4968 00be 149a 08bd
00000190: 0f38 f2bc 8120 3f3d f2c6 cfbc eca6 9b3b
000001a0: 75ee 74bd 5b79 cfbd 2c82 7bbd 6221 ea3d
000001b0: fac5 c43c 033f 2ebd 9158 c1bd c211 4b3c
000001c0: 2072 b23d 932c 4a3b 2e4b cf3c 5d7a 943d
000001d0: 4d12 c8bd 918b 2cbe 2a24 bcbe e2a0 c23e
000001e0: 83b7 d1bc e4a3 043e bf9e 293e f1e3 0a3d
000001f0: 51af 993d 589a 1abe 192d 3d3d faa8 86bd
00000200: 869a a1bd c732 d53c e67d b03c bf1c 173d
00000210: e156 80bd a463 e0bb 54bd f0bd 379e f83d
00000220: b16d 1bbc afac d5bd 5d2f 8abe be39 7f3e
00000230: b780 f8ba c3fb bbbc a24f a83d 38f8 b0bc
00000240: a114 4fbb e4f6 26bc cad0 42be 2ec5 fbbd
00000250: aaf5 c6bd 5f3d f7ba 148d 0ebc 9932 fdbc
00000260: bbbf 1e3e 05ac 093f 13f0 12be 3bc6 87be
00000270: 95da 5f3e aed4 ca3d 238d 0cbe 3faf 82be
00000280: 828f e7bd 28d4 dcbd a82d 16bd 05bf 5fbd
00000290: 91e5 f73d db7e 383d 9490 17be 0844 033e
000002a0: 8e16 983d a28f 48be 7444 80bc bb78 fb3c
000002b0: 0c81 31be dae2 1ebe 4748 913d a6fd 3cbd
000002c0: 0ab4 aabd 2d6b 66bd c657 4fbd c064 63be
000002d0: b74f 5abf 9d2d 55bf 61ea 4bbe 6b86 8cbe
000002e0: 5185 b0be 5929 303e c347 673d e3cb f63e
000002f0: d5e0 f13e 361f 5dbe df3b 723d a8e1 90be
00000300: 0bdb 353e aa85 943e d8cf ce3c b87c 873b
00000310: b313 afbd 1e1d 0d3d e02c 2abd 90f7 97be
00000320: 40fe 5f3e 7439 00bc ecfb e53d 6be4 473e
00000330: b793 a1bd 20e1 0bbd 03a4 71bd bacc b43d
00000340: d9ad 863d 60d8 5ebe 86f0 b2bd 2fd8 ddbc
00000350: 9eb3 013c 258a 64be b05d 8f3e 4663 9cbc
00000360: fd71 7a3d cf99 06be f280 84bd b373 eebd
00000370: d93c 6abe 2d3a e73e 250b f1bd 625f cbbc
00000380: d15e d13e 548b 103e 0276 a33d 835a d2bd
00000390: 2eda a7bd cd47 23be 16d5 5b3d c19f 2a3c
000003a0: fa02 183e 6eab c9be dbc4 fcbe f220 c1be
000003b0: daa4 6b3e 38ef 90be 8771 84be 735d 1e3f
000003c0: 049f 19bc 3c73 823e 88ae 593f 5ee4 1ebe
000003d0: 9bdf 183e b08b 0b3c ce12 fabd e523 9d3d
000003e0: 53b6 28be aa6d 023e a686 e63d b08b 8cbe
000003f0: 496d d3bc b690 e63d 0f54 57bd a884 2dbc

layer1.0.bn1.weight f4 [8]
0.93788576 1.202434 0.491353 0.7236948 0.37066665 0.6054908 0.40534157 0.783689
00000000: 4819 703f 5be9 993f 9f92 fb3e 1044 393f
00000010: 05c8 bd3e 7201 1b3f ee88 cf3e d89f 483f

layer1.0.bn1.bias f4 [8]
0.31073162 -1.3202891 0.3201137 -0.48910293 0.6299258 0.17662199 0.68208015 0.3144732
00000000: 3718 9f3e 3cff a8bf f1e5 a33e b36b fabe
00000010: d142 213f 65dc 343e ce9c 2e3f a202 a13e

layer1.0.bn1.running_mean f4 [8]
-0.84223443 0.20443133 -1.0991664 -0.16854998 0.34278184 0.15725979 -0.5400087 -0.7615957
00000000: ad9c 57bf 7256 513e 7cb1 8cbf 5e98 2cbe
00000010: 1a81 af3e b608 213e 033e 0abf f0f7 42bf

layer1.0.bn1.running_var f4 [8]
1.618643 0.3495929 0.3001154 0.15128584 0.21073784 0.56626904 0.2162391 0.8689207
00000000: b22f cf3f d7fd b23e baa8 993e adea 1a3e
00000010: a9cb 573e 02f7 103f c86d 5d3e 9671 5e3f

layer1.0.conv2.weight f4 [8, 8, 3, 3]
0.11386503 -0.1368762 -0.0016806439 -0.24684423 -1.625404 -0.032513164 0.05277312 0.18696706
0.18144442 -0.059501775 0.017036099 0.080010995 -0.085608356 -0.154724 0.121107526 -0.57308376
-0.68744963 0.20198001 0.029993711 -0.11417275 -0.05758259 0.04736245 0.28691742 -0.062358852
0.020932194 0.14239195 -0.22009285 -0.19893995 0.20925283 0.10204301 -0.7516375 -0.05400234
0.08713602 0.22630078 0.23915254 0.10702951 -0.010376842 0.11492184 -0.12545627 0.13766916
0.045521997 -0.11212107 0.09926533 0.0217868 -0.058137543 0.027646184 0.29254782 -0.048060358
0.057810843 0.27687785 0.18799017 -0.01102945 -0.6624711 0.095960915 -0.016555766 -0.029988825
-0.1255278 -0.14123009 -0.036942344 0.015213702 0.1052294 0.09023528 0.14275104 -0.01612555
0.06639742 0.05350191 0.123305954 0.14422137 -0.1364468 0.42757362 -0.6858248 -0.28610066
-0.013169843 -0.26983404 0.0315074 0.042649418 0.09119031 0.022618081 -0.01116438 -0.10590315
-0.21508197 0.058236465 -0.061517153 0.027352843 -0.0054721483 -0.031127714 0.04330293 -0.36282262
-0.40668535 -0.2805685 -0.054260626 0.004405137 -0.36050016 -0.26317275 0.04681703 0.28670004
-0.6366168 0.25318912 0.84743047 -0.11979265 0.13815786 0.016683843 -0.007211496 -0.0033681768
0.13153225 -0.16917248 -0.051450897 0.03986336 0.1691704 0.24852453 -0.22155736 0.5876182
0.30658835 -0.60486686 0.12655312 -0.06467153 -0.35390738 -0.08088529 0.16260788 -0.032217387
0.0968142 0.11036325 0.26741064 -0.14139622 0.13659513 -0.09727325 -0.20365605 -0.27794075
-0.43651268 0.13116072 0.028059397 -0.1620728 0.40943947 0.8592356 0.21015655 -0.073383324
-0.051155187 -0.02736914 -0.017837638 -0.057698846 0.012923135 -0.028472573 0.19201489 -0.01631268
0.04997665 0.18483986 -0.011481751 -0.19645001 -0.15678833 -0.060519386 -0.19718498 0.0777924
0.23928304 0.03976729 -0.2268901 0.058123708 0.20254368 0.16013259 0.28470933 0.15211149
0.16201152 0.2523189 0.07699685 -0.16642031 -0.049320173 -0.034017395 0.037962757 0.22990793
-0.105275296 -0.114137195 0.2772747 -0.47357464 -0.05006733 -0.16821685 0.09023733 -0.44335553
-0.07623675 -0.20854586 0.07037392 0.24224916 -0.06975362 0.065765336 -0.0771506 0.3194939
-0.109689504 -0.1383119 -0.14545979 0.042118337 -0.01643196 0.12837142 -0.068509914 -0.051220775
-0.40389827 0.3572581 -0.19329397 0.11009064 -0.24703775 -0.2043443 0.29068825 -0.10401135
-0.08627466 0.036339305 0.3142562 -0.29917657 -0.2847042 0.12841764 0.08526889 0.28940997
-0.20439656 0.1295913 0.0016418209 0.06666487 -0.060169082 0.04073996 -0.39387986 0.043443397
-0.19414888 -0.07708274 0.24912046 0.037527002 0.08458361 0.09746461 0.048210982 -0.44141725
-0.33533612 -0.052469864 -0.09014436 -0.14941643 0.0060037454 0.0075000734 -0.2280726 -0.26163676
-0.2410944 -0.31358343 -0.24483915 -0.21577007 0.23337835 -0.08316418 0.052533757 0.30536804
-0.08343619 0.10558911 0.28835124 0.034767326 0.18195403 -0.09729635 -0.15854742 0.22715124
0.012258673 0.019761117 -0.19383362 -0.19562416 -0.283179 -0.22035979 0.023550693 -0.33097392
00000000: 1232 e93d 4629 0cbe 0d49 dcba bcc4 7cbe
00000010: 3d0d d0bf 862c 05bd a128 583d 4b74 3f3e
00000020: 91cc 393e 22b8 73bd 4a8f 8b3c cedc a33d
00000030: 6f53 afbd f86f 1ebe 3907 f83d 9eb5 12bf
00000040: b3fc 2fbf d9d3 4e3e 5fb5 f53c 67d3 e9bd
00000050: b9db 6bbd 21ff 413d d7e6 923e ff6b 7fbd
00000060: fe79 ab3c 32cf 113e 0560 61be eab6 4bbe
00000070: 6046 563e edfb d03d 516b 40bf 8f31 5dbd
00000080: 5f74 b23d 64bb 673e 67e4 743e 4a32 db3d
00000090: a103 2abc 245c eb3d 9c77 00be 25f9 0c3e
000000a0: 4675 3a3d bb9f e5bd 9f4b cb3d 3b7a b23c
000000b0: a221 6ebd 407a e23c d4c8 953e f0da 44bd
000000c0: 10cb 6c3d efc2 8d3e 7f80 403e deb4 34bc
000000d0: b597 29bf 2887 c43d f59f 87bc 20ab f5bc
000000e0: 5c8a 00be 9f9e 10be db50 17bd e442 793c
000000f0: 8382 d73d 46cd b83d 542d 123e bb19 84bc
00000100: 5ffb 873d d224 5b3d d587 fc3d c4ae 133e
00000110: b6b8 0bbe eeea da3e 3792 2fbf c97b 92be
00000120: 53c6 57bc b027 8abe e70d 013d 28b1 2e3d
00000130: fcc1 ba3d 8e49 b93c ceea 36bc c0e3 d8bd
00000140: 733e 5cbe 5c89 6e3d 69f9 7bbd 1213 e03c
00000150: b54f b3bb 8cff febc 6a5e 313d e3c3 b9be
00000160: 1039 d0be ada6 8fbe 6440 5ebd f858 903b
00000170: 7a93 b8be 94be 86be 37c3 3f3d 59ca 923e
00000180: 52f9 22bf 01a2 813e 34f1 583f d955 f5bd
00000190: 4179 0d3e 8eac 883c 6a4e ecbb a1bc 5cbb
000001a0: 64b0 063e 8d3b 2dbe 2dbe 52bd c347 233d
000001b0: 013b 2d3e 377d 7e3e efdf 62be 256e 163f
000001c0: 26f9 9c3e 8ed8 1abf 2497 013e 8272 84bd
000001d0: 5933 b5be 30a7 a5bd ae82 263e 61f6 03bd
000001e0: 8646 c63d 2106 e23d 0cea 883e 2cca 10be
000001f0: 98df 0b3e 3337 c7bd 368b 50be 404e 8ebe
00000200: 977e dfbe ff4e 063e d2dc e53c 69f6 25be
00000210: 0da2 d13e ddf6 5b3f 4733 573e ff49 96bd
00000220: 1a88 51bd 3f35 e0bc 3d20 92bc a055 6cbd
00000230: 8fbb 533c 503f e9bc 8d9f 443e 2ba2 85bc
00000240: 51b4 4c3d a946 3d3e f41d 3cbc 312a 49be
00000250: 1f8d 20be 2de3 77bd dcea 49be 9f51 9f3d
00000260: 9d06 753e 07e3 223d e155 68be 2013 6e3d
00000270: 9c67 4f3e ccf9 233e 6cc5 913e 1dc3 1b3e
00000280: 59e6 253e f12f 813e 86b0 9d3d 166a 2abe
00000290: f303 4abd d355 0bbd d67e 1b3d fc6c 6b3e
000002a0: 939a d7bd c3c0 e9bd f3f6 8d3e 6078 f2be
000002b0: 6713 4dbd 0a41 2cbe 59ce b83d 7fff e2be
000002c0: 0322 9cbd 0c8d 55be 3420 903d 2a10 783e
000002d0: fcda 8ebd faaf 863d 2201 9ebd b494 a33e
000002e0: e4a4 e0bd a2a1 0dbe 69f3 14be 4784 2c3d
000002f0: 519c 86bc cc73 033e ed4e 8cbd e0cc 51bd
00000300: c1cb cebe 89ea b63e dbee 45be 3477 e13d
00000310: 77f7 7cbe a23f 51be 17d5 943e e703 d5bd
00000320: c5b0 b0bd 86d8 143d 30e6 a03e ac2d 99be
00000330: c0c4 91be ea7f 033e 75a1 ae3d 8b2d 943e
00000340: 554d 51be 95b3 043e 5e32 d73a 9787 883d
00000350: db73 76bd f2de 263d 9faa c9be b4f1 313d
00000360: f7ce 46be 8edd 9dbd 6f19 7f3e eab5 193d
00000370: 2c3a ad3d 879b c73d e178 453d 7101 e2be
00000380: 2db1 abbe a4ea 56bd 9b9d b8bd 9f00 19be
00000390: 11bb c43b 2dc3 f53b dd8b 69be 41f5 85be
000003a0: 73e1 76be 028e a0be 1db7 7abe d4f2 5cbe
000003b0: bcfa 6e3e fb51 aabd a32d 573d 3359 9c3e
000003c0: 98e0 aabd 1a3f d83d c6a2 933e 2f68 0e3d
000003d0: 2852 3a3e 4f43 c7bd 415a 22be 569a 683e
000003e0: 9ad8 483c 11e2 a13c 527c 46be b351 48be
000003f0: d6fc 90be ffa5 61be 62ed c03c 6a75 a9be

layer1.0.bn2.weight f4 [8]
1.682326 0.80210704 0.98163974 0.8388512 0.6225149 0.70671624 1.3982445 1.4355407
00000000: 7556 d73f e356 4d3f be4c 7b3f f4be 563f
00000010: 235d 1f3f 5beb 343f adf9 b23f ccbf b73f

layer1.0.bn2.bias f4 [8]
0.44069573 0.12654662 -0.10277113 0.29440624 0.09024074 0.38302535 -0.24858975 0.07135451
00000000: dfa2 e13e 7095 013e ac79 d2bd 6abc 963e
00000010: 23d0 b83d e61b c43e 508e 7ebe 5022 923d

layer1.0.bn2.running_mean f4 [8]
-0.9371135 0.2822626 -0.057216078 0.05266734 -0.5958503 0.43782568 -0.84244007 0.15791635
00000000: ace6 6fbf b984 903e 685b 6abd b5b9 573d
00000010: a589 18bf b02a e03e 27aa 57bf d3b4 213e

layer1.0.bn2.running_var f4 [8]
1.4529144 0.79341316 0.459534 1.1521378 0.53908384 1.0611038 1.046019 1.1577735
00000000: 19f9 b93f 201d 4b3f 0a48 eb3e 4079 933f
00000010: 6601 0a3f 40d2 873f f3e3 853f ec31 943f

layer2.0.conv1.weight f4 [16, 8, 3, 3]
0.08343742 -0.08777647 -0.077454306 -0.07330672 -0.19605955 -0.024112176 -0.111514136 0.025935596
0.030107506 0.44260243 0.24844724 -0.23759505 0.2919904 -0.23116818 -0.4091478 -0.23231332
-0.35911208 0.23280878 0.03359563 0.1564013 -0.05713136 0.19555654 0.041117303 -0.022718424
0.08679675 -0.23912388 -0.106829725 -0.32829523 -0.104083724 0.30475023 -0.13710944 0.48847342
0.37484863 0.30447617 0.54555726 -0.3224556 0.099772975 0.0950489 0.044154953 0.12652113
-0.14823268 -0.055252075 -0.046684723 -0.09731201 0.11842562 0.18677408 0.066755116 -0.20159905
-0.14451814 -0.40510005 -0.2286374 -0.34568205 -0.18104641 0.19436394 -0.06196595 -0.0822091
-0.018387955 -0.05844298 0.008478316 0.17023079 0.10808633 0.14866647 0.12831211 -0.090260275
-0.0024881198 0.1518243 0.10459671 0.27482578 0.2508446 0.21291566 0.14337891 -0.010294987
0.14084092 0.32988045 0.37151602 0.15385683 0.2657586 0.040759925 0.09255474 0.08146985
-0.24338728 -0.024944339 0.007956012 0.16577843 -0.059200093 -0.07241151 0.047092132 -0.18730484
-0.1221451 -0.11862869 0.14185363 0.18265124 0.1317622 0.15113953 0.13661975 0.16762428
0.0334381 0.10269937 0.009157385 -0.032157723 0.009394711 0.08360234 -0.081568845 -0.3446043
-0.33476228 -0.22482315 -0.4053202 -0.4415209 0.12523997 0.0014992928 -0.0088530695 -0.103537664
-0.21077788 -0.10111558 -0.09564986 -0.2420833 -0.19734094 -0.15143 -0.35983646 -0.39420354
-0.2566595 -0.25695285 -0.13920484 -0.13990836 -0.06664499 -0.117320225 -0.12718977 -0.2040304
-0.25695416 -0.2699375 -0.11525219 0.039385725 -0.15080898 0.046303052 0.33092228 -0.07900608
0.022388589 0.107601896 0.14874002 0.38118607 0.19292659 0.27175382 0.30196765 0.032343987
-0.21439101 0.09258251 -0.04870556 -0.21486747 0.39653227 -0.07145478 -0.11119313 0.24852191
-0.05304656 0.024713492 -0.102097996 0.080173984 0.11105336 -0.14390711 -0.035550617 0.12134514
-0.12992916 -0.09710515 -0.15609744 0.09067944 -0.048772484 -0.31314534 0.13424475 -0.06358963
-0.17483278 0.18543634 -0.07693156 -0.058271594 -0.049467117 0.06015419 0.042056076 -0.14784291
-0.025569415 0.07364568 -0.21013963 0.13036416 0.031222017 -0.15440024 0.100609496 0.06115905
-0.18894398 0.071717985 0.12170965 -0.22142047 0.14309713 -0.1777206 -0.024313556 -0.038228832
-0.10393383 0.048323665 0.08216813 -0.26466623 -0.028471211 0.21758722 -0.23980041 0.31127444
-0.07601436 -0.58305514 0.5360157 -0.03456904 -0.47711444 0.3936457 0.026113706 0.39772087
-0.29681343 -0.039488867 0.52495354 -0.56452394 0.029122489 0.37491128 -0.39970157 -0.046367675
-0.07489121 0.10518229 0.057524074 -0.0026696045 0.5840808 -0.7176871 0.2906252 -0.6628602
0.38942617 0.088429555 -0.054590337 -0.066699415 -0.02737648 -0.11788609 0.107253134 -0.1080547
0.16309072 -0.0763491 0.029161517 -0.11595279 -0.05408836 -0.08652015 -0.12349283 -0.061088614
0.09271985 -0.08334817 -0.021407587 0.030681787 0.0886696 -0.0640294 0.11752502 -0.12545869
-0.03537958 0.016223766 -0.06445352 -0.026952583 0.07491021 -0.038852554 -0.05492255 0.07183026
00000000: 3de1 aa3d 26c4 b3bd 5da0 9ebd d521 96bd
00000010: d6c3 48be e686 c5bc 8661 e4bd e376 d43c
00000020: 04a4 f63c c99c e23e f468 7e3e 1e4c 73be
00000030: c47f 953e 5ab7 6cbe d27b d1be 8be3 6dbe
00000040: 8add b7be 6d65 6e3e 929b 093d aa27 203e
00000050: 9302 6abd f93f 483e 9e6a 283d fd1b babc
00000060: 7fc2 b13d e4dc 74be 8bc9 dabd 5016 a8be
00000070: d929 d5bd 3908 9c3e 6b66 0cbe 3019 fa3e
00000080: 29ec bf3e 4de4 9b3e a4a9 0b3f e718 a5be
00000090: c655 cc3d ffa8 c23d d3db 343d c18e 013e
000000a0: 4fca 17be 0050 62bd 7b38 3fbd 854b c7bd
000000b0: 2289 f23d b441 3f3e e8b6 883d fb6f 4ebe
000000c0: 90fc 13be 4669 cfbe ec1f 6abe 3dfd b0be
000000d0: 3b64 39be 5707 473e 02d0 7dbd 3f5d a8bd
000000e0: 56a2 96bc e861 6fbd a2e8 0a3c fb50 2e3e
000000f0: 5e5c dd3d 063c 183e 4064 033e 61da b8bd
00000100: b90f 23bb d477 1b3e cd36 d63d f7b5 8c3e
00000110: b46e 803e 9006 5a3e ecd1 123e 4eac 28bc
00000120: 9a38 103e 17e6 a83e 5937 be3e a58c 1d3e
00000130: 8311 883e e1f3 263d 578d bd3d aad9 a63d
00000140: 843a 79be 1258 ccbc ef59 023c d2c1 293e
00000150: cc7b 72bd 7c4c 94bd aee3 403d d7cc 3fbe
00000160: 3627 fabd 99f3 f2bd 1442 113e ed08 3b3e
00000170: acec 063e 52c4 1a3e 0ce6 0b3e b3a5 2b3e
00000180: 64f6 083d 0c54 d23d db08 163c d1b7 03bd
00000190: 46ec 193c b437 ab3d 910d a7bd fa6f b0be
000001a0: f665 abbe 0a38 66be 2186 cfbe 070f e2be
000001b0: e83e 003e eb83 c43a 770c 11bc 8e0b d4bd
000001c0: 28d6 57be af15 cfbd 13e4 c3bd afe4 77be
000001d0: be13 4abe 7710 1bbe 7c3c b8be 0cd5 c9be
000001e0: e068 83be 538f 83be b78b 0ebe 2344 0fbe
000001f0: 2b7d 88bd 9645 f0bd 093e 02be 58ed 50be
00000200: 7f8f 83be 3f35 8abe 5709 ecbd ed52 213d
00000210: ab6d 1abe 45a8 3d3d a56e a93e f1cd a1bd
00000220: 4668 b73c 625e dc3d 4e4f 183e d22a c33e
00000230: 8c8e 453e 5123 8b3e 819b 9a3e 217b 043d
00000240: 5189 5bbe e69b bd3d 7b7f 47bd 3806 5cbe
00000250: 4706 cb3e e256 92bd 39b9 e3bd 877c 7e3e
00000260: 5a47 59bd f373 ca3c c118 d1bd 4232 a43d
00000270: f26f e33d 635c 13be 869d 11bd cd83 f83d
00000280: 260c 05be 11df c6bd 02d8 1fbe 24b6 b93d
00000290: a8c5 47bd 9654 a0be 7577 093e 483b 82bd
000002a0: 5d07 33be 06e3 3d3e 4b8e 9dbd 32ae 6ebd
000002b0: 089e 4abd 3d64 763d fe42 2c3d 2264 17be
000002c0: f376 d1bc 8cd3 963d d82e 57be 2f7e 053e
000002d0: 51c5 ff3c 191b 1ebe 5a0c ce3d e981 7a3d
000002e0: 887a 41be e1e0 923d e942 f93d 0cbc 62be
000002f0: 0e88 123e 64fc 35be 392d c7bc d695 1cbd
00000300: 43db d4bd 09ef 453d c447 a83d 5582 87be
00000310: 753c e9bc 2fcf 5e3e 3d8e 75be 5d5f 9f3e
00000320: 6bad 9bbd 1a43 15bf 5338 093f 4498 0dbd
00000330: 5848 f4be ee8b c93e 69ec d53c 12a2 cb3e
00000340: eef7 97be 14bf 21bd 5b63 063f a484 10bf
00000350: 4992 ee3c 5ff4 bf3e afa5 ccbe 08ec 3dbd
00000360: 9060 99bd d069 d73d 5d9e 6b3d 88f4 2ebb
00000370: 5286 153f 57ba 37bf d4cc 943e 35b1 29bf
00000380: de62 c73e 8e1a b53d 1e9a 5fbd b499 88bd
00000390: a444 e0bc 436e f1bd 88a7 db3d c84b ddbd
000003a0: 4101 273e eb5c 9cbd 22e4 ee3c a878 edbd
000003b0: c28b 5dbd 7a31 b1bd cfe9 fcbd 0e38 7abd
000003c0: e8e3 bd3d 72b2 aabd f75e afbc 5f58 fb3c
000003d0: 6898 b53d d921 83bd f5b0 f03d 3e78 00be
000003e0: 2eea 10bd b4e7 843c 3500 84bd aacb dcbc
000003f0: 866a 993d db23 1fbd 78f6 60bd be1b 933d

layer2.0.bn1.weight f4 [16]
0.5445536 0.7303425 0.8217689 0.83099526 0.38423327 0.77392966 0.8408899 0.92790747
0.95227265 0.5206319 0.8620597 0.7956188 0.9057017 0.52360713 0.5656441 0.7575685
00000000: dd67 0b3f baf7 3a3f 725f 523f 1bbc 543f
00000010: 39ba c43e 4120 463f 8f44 573f 588b 6d3f
00000020: 24c8 733f 2248 053f f2af 5c3f acad 4b3f
00000030: 11dc 673f 1e0b 063f 0dce 103f 02f0 413f

layer2.0.bn1.bias f4 [16]
0.044315763 0.20730819 -0.091644175 -0.079855055 0.94174975 -0.1433529 -0.16032973 -0.16676778
-0.2637275 0.22669649 -0.19795217 -0.16175067 -0.14595927 0.24295127 0.66152155 -0.10726893
00000000: 7284 353d 9948 543e f1af bbbd 0c8b a3bd
00000010: 8316 713f 1acb 12be 7a2d 24be 2cc5 2abe
00000020: 4a07 87be 2023 683e f9b3 4abe f8a1 25be
00000030: 5976 15be 38c8 783e 7a59 293f d0af dbbd

layer2.0.bn1.running_mean f4 [16]
0.54148084 -1.6073873 -0.7132535 -0.51426685 -0.6520011 -0.58766884 -0.39034536 -1.8293616
-2.109013 2.752522 -1.1433033 -0.40514222 -0.8344581 -0.07203301 -1.9565191 -0.57278425
00000000: 7d9e 0a3f debe cdbf c897 36bf fea6 03bf
00000010: 8be9 26bf 7771 16bf 59db c7be 8528 eabf
00000020: 12fa 06c0 5229 3040 c357 92bf cd6e cfbe
00000030: 0c9f 55bf 0b86 93bd 386f fabf fda1 12bf

layer2.0.bn1.running_var f4 [16]
1.4270059 7.532006 4.280448 3.0183659 1.7391157 4.3510485 4.5366235 4.0682116
3.5027554 4.1400623 3.992776 3.9841383 4.077248 2.4912336 3.6967607 2.4440815
00000000: 21a8 b63f 3106 f140 6ef9 8840 e82c 4140
00000010: 589b de3f ca3b 8b40 052c 9140 ca2e 8240
00000020: 252d 6040 647b 8440 a489 7f40 1ffc 7e40
00000030: d178 8240 5f70 1f40 ba97 6c40 d56b 1c40

layer2.0.conv2.weight f4 [16, 16, 3, 3]
-0.04215777 -0.14358391 -0.007938896 0.00649354 -0.010330785 -0.13631548 -0.026103713 -0.12451612
-0.06621863 -0.20836805 -0.45362005 -0.51946056 0.29591823 0.16692126 -0.049358428 0.4894293
0.47768742 0.2862022 0.011661768 -0.01564119 0.052982617 0.007996397 -0.16249774 -0.029340845
-0.02792635 0.14736153 0.21249142 -0.121687636 0.050761558 -0.10497409 -0.16496405 -0.12880032
-0.12998633 -0.046987653 -0.01006861 0.013328233 0.1804585 -0.021231787 0.1879574 -0.2417897
-0.065904446 0.043660253 -0.14122997 -0.10052652 0.11016954 -0.12775314 -0.05369121 -0.16927677
0.13007653 -0.0001455682 0.11765769 -0.019759491 0.048757672 -0.045118842 -0.08558059 0.013058614
0.04659366 -0.056912113 0.19615214 0.032831147 -0.099138446 0.22563505 -0.019752633 -0.1351819
-0.1034941 -0.013590432 -0.011096355 0.088846564 -0.15897897 0.13311163 0.21670882 0.17132816
-0.031577896 0.14206934 0.019545805 -0.03913899 0.0540602 -0.2654063 -0.10372019 -0.048720382
-0.06552231 0.23942554 0.34593028 0.10903999 -0.096792966 -0.07150031 -0.025381854 -0.23287442
-0.47506458 -0.38199353 -0.02486399 -0.051944572 -0.06370596 0.13404222 0.17620823 0.059016902
0.03647164 0.061981246 0.104481235 -0.06547239 0.12227517 -0.036231726 0.023892654 0.45716876
0.06852347 -0.06889947 0.066739105 0.03369748 -0.05780019 -0.03801984 -0.070260055 -0.18840787
0.11871788 -0.10078306 0.057755187 0.019351063 -0.040144857 0.09697427 -0.10759589 0.03444155
-0.08374117 -0.16300683 -0.21808627 -0.08371516 0.15796472 0.023651494 -0.03605973 -0.1541095
-0.041983318 -0.070571676 -0.050067015 -0.096421465 -0.052557647 -0.01669633 0.021094237 -0.03758012
-0.036836337 -0.18087125 -0.05111789 0.009384656 -0.14811106 -0.07808877 -0.119019166 -0.04601892
-0.015214135 -0.06304151 0.0024519786 0.025096236 -0.16593863 -0.17797107 0.16702387 -0.061579242
-0.15871528 0.08464769 0.1610146 -0.003864436 0.060664054 -0.0077546565 -0.17417124 -0.06937601
-0.15216836 0.048961926 -0.09304487 0.12001714 -0.11855029 -0.21322662 -0.11056688 0.31308678
0.13655066 -0.13914923 -0.10298547 -0.06597923 0.058885995 -0.0895261 -0.037573334 0.040285833
-0.016377611 0.031749588 -0.14484306 0.07060318 -0.045075472 -0.28581914 -0.3145618 0.41458258
0.10245899 -0.02634901 -0.15062007 0.13832924 0.19292092 0.015103755 0.2200718 -0.039406803
-0.16060957 -0.12772283 0.13244165 -0.02803675 -0.14635628 -0.18122189 -0.0065139206 0.24696833
-0.10257281 -0.24597657 0.036322635 -0.28782195 0.07434061 -0.36175936 0.15213196 0.0762392
0.29632148 0.052163318 -0.336348 0.28100923 0.7252695 -0.33128893 -0.28703475 0.37644976
-0.0005744296 -0.00018388544 0.17412783 0.05891477 0.067407586 -0.28897142 0.05506821 0.08591502
-0.082112126 -0.021448739 0.053757146 -0.17050867 -0.22734001 0.116651796 0.0647438 -0.037331864
-0.11099285 0.041445363 -0.05723068 0.063651994 -0.0465095 0.08317458 -0.043889694 -0.23779169
0.1974431 0.015170252 0.042068273 -0.10831139 0.07851894 -0.04741557 0.0347295 -0.1153555
-0.17362815 0.006228977 -0.046957485 -0.17480747 -0.18696079 0.2871936 0.008926097 -0.25272477
00000000: a0ad 2cbd a907 13be 2512 02bc c3c7 d43b
00000010: 7442 29bc 4996 0bbe 74d7 d5bc 4f02 ffbd
00000020: a29d 87bd 6f5e 55be e340 e8be 5efb 04bf
00000030: 9882 973e 68ed 2a3e 102c 4abd 7a96 fa3e
00000040: 7293 f43e 1889 923e 0011 3f3c f421 80bc
00000050: 4d04 593d 5203 033c cf65 26be 365c f0bc
00000060: cdc5 e4bc f1e5 163e 5a97 593e 5e37 f9bd
00000070: 5aeb 4f3d a8fc d6bd 56ec 28be 3be4 03be
00000080: 231b 05be 2076 40bd d0f6 24bc a95e 5a3c
00000090: 1dca 383e 49ee adbc e877 403e b897 77be
000000a0: e9f8 86bd 18d5 323d 979e 10be d9e0 cdbd
000000b0: 91a0 e13d b8d1 02be 50eb 5bbd e456 2dbe
000000c0: c832 053e aba3 18b9 84f6 f03d a8de a1bc
000000d0: 20b6 473d 89ce 38bd e044 afbd ccf3 553c
000000e0: fed8 3e3d ad1c 69bd 1bdc 483e f479 063d
000000f0: 1909 cbbd e00c 673e 46d0 a1bc 206d 0abe
00000100: b7f4 d3bd 67aa 5ebc 7ccd 35bc 30f5 b53d
00000110: 62cb 22be 6a4e 083e ebe8 5d3e a670 2f3e
00000120: d357 01bd a07a 113e 861e a03c 3550 20bd
00000130: 3a6e 5d3d 56e3 87be 406b d4bd 068f 47bd
00000140: 9030 86bd f82b 753e c61d b13e 5c50 df3d
00000150: 643b c6bd c16e 92bd 9bed cfbc a276 6ebe
00000160: aa3b f3be a894 c3be 91af cbbc d5c3 54bd
00000170: 4578 82bd 5d42 093e ee6f 343e b5bb 713d
00000180: 4963 153d 0ce0 7d3d 42fa d53d 6316 86bd
00000190: 686b fa3d b867 14bd 87ba c33c 0612 ea3e
000001a0: 0856 8c3d 2a1b 8dbd 83ae 883d 5e06 0a3d
000001b0: e4bf 6cbd b1ba 1bbd 81e4 8fbd feed 40be
000001c0: 5c22 f33d 5967 cebd b490 6c3d 1f86 9e3c
000001d0: ef6e 24bd 729a c63d 3c5b dcbd 9512 0d3d
000001e0: 7e80 abbd 43eb 26be 0252 5fbe db72 abbd
000001f0: 81c1 213e c7c0 c13c 5eb3 13bd e1ce 1dbe
00000200: b3f6 2bbd e287 90bd 1213 4dbd 9e78 c5bd
00000210: b046 57bd bec6 88bc d2cd ac3c 9ded 19bd
00000220: b3e1 16bd 5036 39be fe60 51bd 1ac2 193c
00000230: 6daa 17be 01ed 9fbd 52c0 f3bd 567e 3cbd
00000240: b544 79bc e81b 81bd 60b1 203b 9f96 cd3c
00000250: d1eb 29be 0c3e 36be 4e08 2b3e 843a 7cbd
00000260: 4286 22be c55b ad3d 03e1 243e 7a42 7dbb
00000270: df7a 783d c61a febb f259 32be 0215 8ebd
00000280: 06d2 1bbe 4d8c 483d 4f8e bebd 8ccb f53d
00000290: 7fca f2bd 1458 5abe e370 e2bd e94c a03e
000002a0: f0d3 0b3e 237d 0ebe 0cea d2bd 1e20 87bd
000002b0: 7132 713d 7659 b7bd 7fe6 19bd c202 253d
000002c0: 572a 86bc db0b 023d bd51 14be 6698 903d
000002d0: 0fa1 38bd e356 92be 3f0e a1be 2b44 d43e
000002e0: 05d6 d13d e1d9 d7bc 263c 1abe 2ea6 0d3e
000002f0: 108d 453e bd75 773c 805a 613e 0769 21bd
00000300: d676 24be c6c9 02be c99e 073e 54ad e5bc
00000310: 6cde 15be 3b92 39be ba72 d5bb 44e5 7c3e
00000320: b211 d2bd 48e1 7bbe 0bc7 143d 665d 93be
00000330: e43f 983d 8638 b9be 7bc8 1b3e 4c23 9c3d
00000340: 73b7 973e 34a9 553d ce35 acbe 71e0 8f3e
00000350: 43ab 393f b49e a9be 38f6 92be 06be c03e
00000360: 5195 16ba 5fd1 40b9 914e 323e 9d50 713d
00000370: fd0c 8a3d 10f4 93be 348f 613d 37f4 af3d
00000380: 672a a8bd 44b5 afbc 7430 5c3d d399 2ebe
00000390: d2cb 68be 23e7 ee3d 6698 843d 4ce9 18bd
000003a0: 3850 e3bd 9dc2 293d b86a 6abd fa5b 823d
000003b0: bf80 3ebd 6f57 aa3d aec5 33bd aa7f 73be
000003c0: 862e 4a3e a68c 783c c84f 2c3d 5dd2 ddbd
000003d0: 8ace a03d d436 42bd 8540 0e3d 813f ecbd
000003e0: 94cb 31be 721c cc3b 7e56 40bd bb00 33be
000003f0: a672 3fbe 0a0b 933e c43e 123c 2465 81be

layer2.0.bn2.weight f4 [16]
0.7828313 0.9342692 0.6935649 0.6616505 0.6243963 0.6684957 0.64223045 0.8943996
0.6775032 1.0144181 0.741748 0.53061587 0.73453945 0.8105953 0.46122062 1.5831337
00000000: a267 483f 442c 6f3f 788d 313f ed61 293f
00000010: 70d8 1f3f 8922 2b3f 3769 243f 5ff7 643f
00000020: da70 2d3f 74d8 813f 32e3 3d3f 71d6 073f
00000030: c70a 3c3f 2c83 4f3f 1c25 ec3e 20a4 ca3f

layer2.0.bn2.bias f4 [16]
-0.06619988 -0.1619788 0.3059216 0.68942183 0.2316004 0.47771356 0.586298 0.11290297
-0.12904629 -0.08007887 0.282843 -0.12767561 -0.010348733 0.13347211 -0.15630925 -0.1888437
00000000: cd93 87bd c5dd 25be c2a1 9c3e f37d 303f
00000010: a828 6d3e df96 f43e a017 163f ac39 e73d
00000020: b624 04be 6400 a4bd ccd0 903e 65bd 02be
00000030: bb8d 29bc eaac 083e 880f 20be 3e60 41be

layer2.0.bn2.running_mean f4 [16]
-0.6152897 -0.10606449 0.10132197 -0.18445283 -0.5568271 1.1491554 -0.79187256 -0.8112297
-0.39160812 -0.40496913 2.3436158 -0.9436301 0.2670009 -0.95508754 1.1364502 -1.6695894
00000000: a083 1dbf 5738 d9bd e581 cf3d 34e1 3cbe
00000010: 398c 0ebf 8617 933f 29b8 4abf c0ac 4fbf
00000020: dc80 c8be 1d58 cfbe cdfd 1540 be91 71bf
00000030: 58b4 883e 9e80 74bf 3377 913f 1bb5 d5bf

layer2.0.bn2.running_var f4 [16]
0.95205295 0.7831486 1.2966756 1.4836766 1.4302825 1.4304216 1.4502566 0.9588258
0.41858262 1.4010792 2.0031676 0.41003445 1.0075334 1.0120214 0.48877412 1.870847
00000000: beb9 733f 6d7c 483f 77f9 a53f 1de9 bd3f
00000010: 7f13 b73f 0e18 b73f 02a2 b93f 9c75 753f
00000020: 7650 d63e 9056 b33f e633 0040 09f0 d13e
00000030: dbf6 803f eb89 813f 9a40 fa3e ea77 ef3f

layer2.0.shortcut.0.weight f4 [16, 8, 1, 1]
0.4679037 0.12652858 -0.027175035 0.40278757 0.18102442 -0.27009168 -0.040203076 -0.2534987
-0.18468085 -0.11820188 -0.04111174 -0.09931688 0.030768314 -0.118164435 -0.15595224 0.12635703
0.018289099 -0.113605954 0.224326 0.43955994 0.43134385 0.39377898 0.06997518 -0.113168955
0.122680664 0.14766854 0.21341804 0.42532644 0.09479828 -0.14963654 -0.04147412 -0.33379886
-0.028827796 0.07051157 -0.02393029 -0.44629624 0.18948439 0.09052858 0.035503518 -0.050533116
0.037064157 -0.014017077 -0.032008495 0.005371101 -0.043444835 0.011438229 -0.23167592 0.21626191
0.20535043 0.12573779 -0.063132845 -0.022890665 0.041620985 -0.39998594 -0.18588032 0.16506812
0.30005875 -0.003732653 -0.14430872 -0.06776518 0.075076975 0.3593599 -0.20260653 0.08108984
0.052608676 0.42714563 -0.035854947 -0.48103237 0.28052235 0.011290452 0.0072492724 -0.09515696
0.123214886 0.030197684 -0.042777963 -0.20896086 -0.025597034 -0.46098578 -0.056730118 0.11844596
0.15577137 0.08162788 0.15014511 -0.19891289 -0.093123734 -0.22346354 -0.08982645 -0.1903733
0.06426808 0.53059477 -0.084830895 0.13203514 -0.8175499 0.07752997 -0.040000793 0.014095855
0.030277131 -0.14173917 -0.07181582 0.2904905 -0.29992294 -0.45785108 -0.0579809 0.025707467
0.49103266 0.16310166 -0.07608301 0.26917577 -0.034852438 -0.12518254 -0.012147703 -0.078240804
-0.0012750564 -0.35947567 -0.113408245 -0.1628376 1.0789443 -0.2256092 -0.051100787 -0.03915095
0.019281726 0.063871786 -0.29501057 0.126499 -0.011855115 0.4020199 0.090079054 0.14108987
00000000: 1391 ef3e b590 013e 2e9e debc 2c3a ce3e
00000010: 775e 393e 7549 8abe fbab 24bd 95ca 81be
00000020: fa1c 3dbe d413 f2bd c964 28bd a666 cbbd
00000030: d50d fc3c 3200 f2bd f2b1 1fbe bd63 013e
00000040: 05d3 953c 3daa e8bd b7b5 653e 000e e13e
00000050: 1ad9 dc3e 669d c93e 264f 8f3d 20c5 e7bd
00000060: 0040 fb3d 6c36 173e 428a 5a3e 63c4 d93e
00000070: 9a25 c23d 523a 19be c4e0 29bd afe7 aabe
00000080: 4528 ecbc 5f68 903d 7509 c4bc f180 e4be
00000090: 3208 423e 0c67 b93d 236c 113d d0fb 4ebd
000000a0: 96d0 173d e2a7 65bc 571b 03bd 1000 b03b
000000b0: 36f3 31bd 6967 3b3c 743c 6dbe c373 5d3e
000000c0: 6247 523e 68c1 003e cb4b 81bd 3485 bbbc
000000d0: c47a 2a3d f5ca ccbe 6957 3ebe 9e07 293e
000000e0: 4da1 993e 879f 74bb aac5 13be 78c8 8abd
000000f0: f5c1 993d 05fe b73e 1678 4fbe 6e12 a63d
00000100: 327c 573d d5b2 da3e a3dc 12bd e049 f6be
00000110: a0a0 8f3e 97fb 383c 4e8b ed3b a7e1 c2bd
00000120: 1658 fc3d 2261 f73c f237 2fbd d6f9 55be
00000130: dfb0 d1bc 5406 ecbe d75d 68bd cc93 f23d
00000140: 8882 1f3e 852c a73d a4bf 193e d2af 4bbe
00000150: a8b7 bebd a0d3 64be eef6 b7bd 38f1 42be
00000160: fc9e 833d 0fd5 073f d2bb adbd 3834 073e
00000170: f34a 51bf 08c8 9e3d dfd7 23bd 4df2 663c
00000180: bf07 f83c 1324 11be 2c14 93bd 2cbb 943e
00000190: 808f 99be 756b eabe 617d 6dbd 7798 d23c
000001a0: a268 fb3e 1f04 273e 69d1 9bbd 68d1 893e
000001b0: 6ec1 0ebd da2f 00be 2907 47bc b73c a0bd
000001c0: cb1f a7ba 320d b8be 9542 e8bd e6be 26be
000001d0: d91a 8a3f 1906 67be 0f4f 51bd bf5c 20bd
000001e0: b6f4 9d3c 36cf 823d a00b 97be f488 013e
000001f0: f53b 42bc 8dd5 cd3e 5e7b b83d dd79 103e

layer2.0.shortcut.1.weight f4 [16]
0.559174 0.1945121 0.384202 0.13232513 0.10747612 0.073826134 0.11530843 0.31157804
0.45908627 0.21909592 0.100440994 0.68691486 0.3811181 0.33421496 0.7364378 0.34481126
00000000: 0726 0f3f 2e2e 473e 20b6 c43e 3d80 073e
00000010: 711c dc3d 2832 973d d326 ec3d 2887 9f3e
00000020: 5b0d eb3e ae5a 603e 02b4 cd3d a7d9 2f3f
00000030: e921 c33e 391e ab3e 3087 3c3f 1a8b b03e

layer2.0.shortcut.1.bias f4 [16]
-0.06619988 -0.1619788 0.3059216 0.68942183 0.2316004 0.47771356 0.586298 0.11290297
-0.12904629 -0.08007887 0.282843 -0.12767561 -0.010348733 0.13347211 -0.15630925 -0.1888437
00000000: cd93 87bd c5dd 25be c2a1 9c3e f37d 303f
00000010: a828 6d3e df96 f43e a017 163f ac39 e73d
00000020: b624 04be 6400 a4bd ccd0 903e 65bd 02be
00000030: bb8d 29bc eaac 083e 880f 20be 3e60 41be

layer2.0.shortcut.1.running_mean f4 [16]
0.47815228 -0.4690638 0.99988866 0.30172166 -0.16110392 0.0002212796 -0.11186629 0.4750044
0.011995241 -0.44764113 -0.39968652 -0.0011505709 -0.49617395 0.55500853 0.058249906 0.60749567
00000000: 60d0 f43e 2129 f0be b4f8 7f3f 437b 9a3e
00000010: 6df8 24be 4a07 6839 271a e5bd c733 f33e
00000020: b087 443c 3831 e5be b6a3 ccbe c1ce 96ba
00000030: 830a febe 0a15 0e3f 7497 6e3d d684 1b3f

layer2.0.shortcut.1.running_var f4 [16]
0.40720227 0.12101242 0.30485228 0.17723179 0.12546243 0.10277232 0.19197236 0.22248058
0.28713918 0.19243024 0.19604045 0.2908588 0.21597306 0.3686177 0.40297228 0.3788666
00000000: d17c d03e 5cd5 f73d 9915 9c3e 407c 353e
00000010: 3979 003e 4b7a d23d 6794 443e f3d1 633e
00000020: e803 933e 6f0c 453e d4be 483e 72eb 943e
00000030: 0b28 5d3e 76bb bc3e 6252 ce3e cefa c13e

layer3.0.conv1.weight f4 [32, 16, 3, 3]
-0.009722386 0.18080223 0.079960145 0.1494276 0.19495425 0.18723215 0.04761516 0.13924888
0.13871326 -0.0023213408 -0.007481731 0.08085476 -0.05106261 0.03219331 0.06438455 -0.0005914107
0.021117214 0.056075018 -0.031790003 -0.116419666 -0.09363271 -0.25676918 -0.43853313 -0.22274615
-0.09823232 -0.2789446 -0.05583589 -0.04263727 -0.1272898 -0.10764641 -0.030775633 -0.17625977
-0.32341793 0.06470179 0.014442903 -0.10476211 0.31143814 0.18791616 0.048657626 0.005249129
-0.0836367 -0.056144297 -0.24528973 -0.21113189 -0.01668654 -0.07324052 -0.10951283 -0.024149278
-0.17643242 -0.24677251 -0.11485057 -0.118116945 -0.12963821 0.03470948 0.04715123 -0.003932868
0.12335378 0.11064075 0.12571959 0.20704547 0.00937799 0.012433199 0.16727528 -0.016563993
-0.0010880603 0.050298054 0.026933229 0.00018096475 0.056601416 -0.018767852 -0.10016288 0.04074332
-0.1485651 -0.22623272 -0.09300711 -0.16447875 -0.24451347 -0.19748726 -0.034388162 -0.14343023
-0.055864923 -0.04411138 -0.0720592 0.0051531876 0.17041992 0.28288564 0.18365829 0.2019201
0.25628975 0.10965774 0.059896626 -0.081144765 -0.046055354 0.21409744 0.06921694 0.073436536
0.10211319 0.09907777 0.042970944 0.05580164 0.08786689 0.024935806 0.042374842 -0.024974551
0.12083639 -0.0064218906 0.041283756 0.11682867 0.04385172 0.0851239 0.07845188 0.1555348
0.20430978 0.043966033 0.19213429 0.16869278 0.029930029 0.10688701 0.08794937 0.013852573
0.04653983 -0.03695154 -0.0881805 -0.01304443 -0.1337325 -0.11828778 -0.08334447 -0.06359915
-0.020161891 -0.083346695 0.01574775 0.14181817 -0.060499925 0.10526951 0.25227928 -0.016991112
-0.10517557 -0.12424922 -0.07489644 -0.098695956 -0.14878136 -0.1107033 -0.22708383 -0.18339483
0.062290873 -0.00862632 -0.06657091 0.11264927 0.08226809 -0.019104874 -0.07500757 -0.025417887
0.06346563 0.072144836 0.08975304 0.064987265 0.15360193 0.33070976 0.34274682 0.14489967
0.33200562 0.27157968 -0.03095157 -0.003523509 0.04150346 -0.057009246 0.09583213 0.17174536
0.026210602 0.12459478 0.13314825 -0.1185222 0.088427015 0.07382696 -0.23560569 -0.08103714
0.07054826 0.13305005 0.084245935 0.023931991 -0.16247994 -0.14113653 0.108304165 -0.09968552
-0.17179196 -0.063046165 0.15668556 0.021272255 -0.13592508 -0.030728256 -0.13710375 -0.07832923
0.08772832 -0.008595557 0.049748532 0.12863626 0.0647613 0.08083495 0.17574786 0.07722527
0.03895236 0.090714015 0.039771494 0.13723266 -0.06875728 0.03858838 0.22424333 -0.32312933
-0.31407028 -0.11905344 -0.33600235 -0.52300185 -0.33563206 -0.13467838 -0.34710622 -0.3038037
0.049828075 0.10828852 0.026871303 0.16230318 0.2545692 0.1473959 0.063370936 0.17991585
0.09904017 -0.11511135 -0.05439841 -0.006166324 -0.019178689 0.046046086 -0.04129276 0.088259056
0.12795018 0.12482314 -0.23405352 -0.16350025 -0.05442924 -0.1744729 -0.211134 -0.18263787
0.033489827 -0.05398292 -0.15411061 -0.038154755 0.0007084154 0.03853925 -0.03432856 -0.03410452
0.032927502 -0.018791653 -0.043390956 -0.039909307 0.02982495 0.058411926 -0.00077520765 0.04047959
00000000: a44a 1fbc 3824 393e 25c2 a33d 8c03 193e
00000010: 16a2 473e c9b9 3f3e 1d08 433d 4297 0e3e
00000020: d90a 0e3e a321 18bb 4f29 f5bb 2e97 a53d
00000030: 0727 51bd 22dd 033d 0cdc 833d e608 1bba
00000040: 02fe ac3c ebae 653d 3c36 02bd 6f6d eebd
00000050: 82c2 bfbd 4077 83be 6a87 e0be 9117 64be
00000060: 072e c9bd d4d1 8ebe 2db4 64bd 6ba4 2ebd
00000070: 4258 02be b975 dcbd 2e1d fcbc 717d 34be
00000080: 0997 a5be 5f82 843d eda1 6c3c 848d d6bd
00000090: d274 9f3e 186d 403e 384d 473d e300 ac3b
000000a0: b849 abbd 90f7 65bd 3b2d 7bbe f532 58be
000000b0: 36b2 88bc 20ff 95bd 4348 e0bd b5d4 c5bc
000000c0: b3aa 34be efb1 7cbe c736 ebbd 4ce7 f1bd
000000d0: e1bf 04be 872b 0e3d a621 413d 4adf 80bb
000000e0: e8a0 fc3d 9e97 e23d a3bc 003e ba03 543e
000000f0: 24a6 193c 9eb4 4b3c 364a 2b3e 36b1 87bc
00000100: 3f9d 8eba 5505 4e3d 13a3 dc3c 5bc1 3d39
00000110: e3d6 673d 0abf 99bc 3222 cdbd 78e2 263d
00000120: 7321 18be 8da9 67be 837a bebd 1e6d 28be
00000130: bd61 7abe 1a3a 4abe 9ada 0cbd 60df 12be
00000140: 9ed2 64bd 22ae 34bd c693 93bd 12dc a83b
00000150: 8f82 2e3e 63d6 903e eb10 3c3e 25c4 4e3e
00000160: 6938 833e 3d94 e03d 2a56 753d 3a2f a6bd
00000170: 8aa4 3cbd 5c3c 5b3e 9cc1 8d3d e565 963d
00000180: b820 d13d 49e9 ca3d 4d02 303d 4390 643d
00000190: 8ef3 b33d 2d46 cc3c 3e91 2d3d 6e97 ccbc
000001a0: 1279 f73d b96e d2bb 2819 293d df43 ef3d
000001b0: dc9d 333d 7055 ae3d 61ab a03d 8444 1f3e
000001c0: 9536 513e ba15 343d dabe 443e cdbd 2c3e
000001d0: d22f f53c 94e7 da3d cd1e b43d e7f5 623c
000001e0: 8ca0 3e3d 7f5a 17bd fa97 b4bd 4eb8 55bc
000001f0: 2cf1 08be dd40 f2bd 81b0 aabd 4540 82bd
00000200: 8d2a a5bc acb1 aabd 6d01 813c c838 113e
00000210: c5ce 77bd 8a97 d73d c02a 813e f230 8bbc
00000220: 4a66 d7bd 6076 febd 4e63 99bd 1b21 cabd
00000230: 245a 18be 69b8 e2bd aa88 68be dbcb 3bbe
00000240: b724 7f3d 6955 0dbc 5456 88bd a9b4 e63d
00000250: 2c7c a83d d381 9cbc 929d 99bd 2c39 d0bc
00000260: 45fa 813d acc0 933d 71d0 b73d 0b18 853d
00000270: d349 1d3e ca52 a93e 837c af3e 9460 143e
00000280: a4fc a93e 7e0c 8b3e 268e fdbc acea 66bb
00000290: 88ff 293d 8782 69bd a343 c43d 04de 2f3e
000002a0: 9eb7 d63c 8c2b ff3d 0458 083e c4bb f2bd
000002b0: 3919 b53d 9732 973d 9e42 71be cdf6 a5bd
000002c0: 9b7b 903d 463e 083e 2289 ac3d 060d c43c
000002d0: 2461 26be 1886 10be 93ce dd3d ec27 ccbd
000002e0: 3bea 2fbe 591e 81bd 2e72 203e 2743 ae3c
000002f0: f22f 0bbe d3b9 fbbc ed64 0cbe 136b a0bd
00000300: e8aa b33d 61d4 0cbc 1ec5 4b3d 39b9 033e
00000310: 93a1 843d cb8c a53d 3ff7 333e 4828 9e3d
00000320: 838c 1f3d 45c8 b93d 6fe7 223d b886 0c3e
00000330: 9ed0 8cbd d90e 1e3d 0ba0 653e 3571 a5be
00000340: d2cd a0be 4ad2 f3bd 8008 acbe 73e3 05bf
00000350: f7d7 abbe 21e9 09be e8b7 b1be 298c 9bbe
00000360: 8618 4c3d 5fc6 dd3d 3521 dc3c ce32 263e
00000370: e556 823e f3ee 163e 9fc8 813d dc3b 383e
00000380: 93d5 ca3d 80bf ebbd ded0 5ebd e00e cabb
00000390: a01c 9dbc d29a 3c3d 9922 29bd 2ac1 b43d
000003a0: 5f05 033e 46a3 ff3d baab 6fbe 9c6c 27be
000003b0: 32f1 5ebd 06a9 32be 8333 58be 6c05 3bbe
000003c0: a12c 093d 321d 5dbd 2ccf 1dbe 2948 1cbd
000003d0: f4b4 393a 55db 1d3d 1b9c 0cbd 2eb1 0bbd
000003e0: fdde 063d f4f0 99bc b7ba 31bd f177 23bd
000003f0: 7453 f43c 5841 6f3d 4e37 4bba edcd 253d

layer3.0.bn1.weight f4 [32]
0.43031645 0.7640544 0.458452 0.53183 0.45683873 1.1610246 0.45026696 0.75196755
1.033206 0.4654583 0.36424696 0.43381363 0.57950026 0.43600428 0.45830834 0.5904359
0.44503647 0.59521514 0.49792385 0.6716877 0.68716514 0.4090389 0.55093855 0.6322015
0.42410597 0.5447656 0.69791245 0.55007803 0.6315373 1.1133759 0.4498137 0.5241187
00000000: 7052 dc3e 1299 433f 38ba ea3e 0326 083f
00000010: c4e6 e93e 749c 943f 6489 e63e f280 403f
00000020: 1840 843f 8d50 ee3e 947e ba3e d21c de3e
00000030: 215a 143f f43b df3e 64a7 ea3e cf26 173f
00000040: d2db e33e 0560 183f e0ef fe3e baf3 2b3f
00000050: 0eea 2f3f 8c6d d13e 4f0a 0d3f f5d7 213f
00000060: 6b24 d93e c275 0b3f 64aa 323f ead1 0c3f
00000070: 6eac 213f 1a83 8e3f fb4d e63e a52c 063f

layer3.0.bn1.bias f4 [32]
0.26882818 -0.07222891 0.10684058 -0.0022611902 -0.0068709203 -1.3173063 0.18209058 -0.33602723
-0.21109755 0.23349191 0.5837451 0.31179214 -0.07356538 0.13287728 0.0045312718 -0.16263567
0.16029428 -0.16494066 -0.0020381985 -0.3677202 -0.18729228 0.34411854 0.21484302 -0.106410965
-0.04864632 -0.050482836 -0.17374124 0.33026358 -0.014967068 -0.43512675 0.12296374 0.19938812
00000000: d9a3 893e c0ec 93bd 3ccf da3d 7a30 14bb
00000010: 7525 e1bb 7e9d a8bf f475 3a3e c30b acbe
00000020: f529 58be 8118 6f3e 5270 153f 38a3 9f3e
00000030: 72a9 96bd fb10 083e 107b 943b f789 26be
00000040: 2f24 243e 34e6 28be 4c93 05bb d245 bcbe
00000050: 8cc9 3fbe 4e30 b03e cfff 5b3e feed d9bd
00000060: 5d41 47bd 17c7 4ebd 39e9 31be 4f18 a93e
00000070: 6f38 75bc efc8 debe 6ad4 fb3d 662c 4c3e

layer3.0.bn1.running_mean f4 [32]
-1.1405777 0.8234172 -0.16864118 -1.4154996 2.5346854 1.2200918 0.7223725 -0.3493244
0.15033935 -1.3260856 -1.9764172 0.110436365 -0.32900587 0.15624581 0.79235774 0.55949825
-0.59183216 0.999309 -0.9323883 -0.61977166 -0.7794007 -1.247839 0.3862519 -1.4723523
1.9133835 -1.1329037 -1.138509 -3.0436223 -0.7932681 -1.039558 -1.5978104 3.7900968
00000000: 73fe 91bf 78cb 523f 46b0 2cbe 172f b5bf
00000010: 4938 2240 f82b 9c3f 67ed 383f a6da b2be
00000020: 8ff2 193e 2cbd a9bf 3dfb fcbf 762c e23d
00000030: 7573 a8be e7fe 1f3e f5d7 4a3f 473b 0f3f
00000040: 5082 17bf b7d2 7f3f 00b1 6ebf 5ba9 1ebf
00000050: ce86 47bf 30b9 9fbf cfc2 c53e 0a76 bcbf
00000060: c0e9 f43f fd02 91bf aaba 91bf b5ca 42c0
00000070: 9e13 4bbf 3d10 85bf 0d85 ccbf f290 7240

layer3.0.bn1.running_var f4 [32]
2.3826127 2.7903402 1.7160972 1.1020511 1.5223098 1.0695231 3.1196392 1.4728698
2.8159585 1.797186 1.6825433 3.3803415 1.1174098 1.3899149 1.6302985 1.5945683
2.3127997 1.7595392 1.1487018 1.1852888 1.5771447 1.4868253 2.910062 1.5251875
1.6855253 1.0777054 1.4542309 3.9261596 1.683191 2.1856575 1.7967577 2.4309106
00000000: ba7c 1840 ef94 3240 13a9 db3f 0310 8d3f
00000010: 0cdb c23f 22e6 883f 2ba8 4740 ff86 bc3f
00000020: aa38 3440 310a e63f 945d d73f 8457 5840
00000030: 4907 8f3f bbe8 b13f 9fad d03f d01a cc3f
00000040: e904 1440 9538 e13f a908 933f 8bb7 973f
00000050: e1df c93f 4b50 be3f 753e 3a40 5839 c33f
00000060: 4bbf d73f 40f2 893f 3d24 ba3f 3346 7b40
00000070: cd72 d73f d0e1 0b40 28fc e53f 0a94 1b40
