kd_results/KD_seed-3_cycles-4_KDfrac-0.9_T-2_cifar100-ResNet10_smodel_best.pth.tar (torch, 717977 bytes, 100 tensors)

conv1.weight f4 [8, 3, 3, 3]
0	0xbe5e0afb	-0.21683876
1	0xbe2d8651	-0.16945769
2	0x3dc954fa	0.09830661
3	0x3dc8e8a3	0.09809997
4	0x3f5e4d27	0.86836475
5	0x3d9f7dbf	0.07787656
6	0xbd97c4d3	-0.07410588
7	0x3e9f65bd	0.31132308
8	0x3becbfbb	0.0072250045
9	0xbea960cf	-0.33081672
10	0xbf0950da	-0.53638995
11	0xbe6d1407	-0.23152171
12	0x3d0afa55	0.03393014
13	0x3f77d933	0.96815795
14	0xbcc4ed31	-0.024038883
15	0xbe286d83	-0.16448025
16	0x3d020989	0.031747375
17	0xbde1d493	-0.110268734
18	0xbe810f09	-0.25206783
19	0xbe8eea77	-0.27913257
20	0x3d05ad46	0.03263595
21	0x3d1bf9dc	0.03808008
22	0x3f336cd3	0.7008793
23	0x3da3c351	0.07996238
24	0x3cdeb7f6	0.027187329
25	0x3ea02290	0.3127637
26	0x3d93889a	0.07203789
27	0x3ea39695	0.31950822
28	0x3e471417	0.19441257
29	0xbdae3630	-0.08506429
30	0x3f84238f	1.0323352
31	0xbe9bea14	-0.30452025
32	0xbdc032e1	-0.093847044
33	0x3e0358a5	0.12826784
34	0x3debad78	0.11507696
35	0xbe108aba	-0.1411542
36	0xbf2309e8	-0.6368699
37	0xbe463bd8	-0.19358766
38	0xbcdcc75e	-0.026950534
39	0xbeb032b2	-0.34413677
40	0xbfad4fa3	-1.3539928
41	0xbda43d71	-0.080195315
42	0xbf26335d	-0.64922124
43	0xbe7888aa	-0.24270883
44	0x3ebc459a	0.36771852
45	0x3ec21886	0.37909335
46	0x3eeb619b	0.45972905
47	0x3d9a62eb	0.07538398
48	0x3f34d05e	0.70630443
49	0x3d7b8a88	0.06141141
50	0x3d4087cb	0.047004502
51	0x3e61b5da	0.22042027
52	0x3e92484e	0.2857079
53	0xbaa2cb50	-0.0012420211
54	0x3dec8178	0.11548132
55	0xbde5c69e	-0.11219524
56	0x3c4d9925	0.0125487195
57	0xbef59e6a	-0.47972423
58	0xbfb7c2c9	-1.4356319
59	0xbe8b63b9	-0.2722452
60	0x3e9f737f	0.31142804
61	0x3fcb2dee	1.5873392
62	0x3eb495ac	0.3527044
63	0x3df11a10	0.11772549
64	0xbe12b437	-0.14326559
65	0x3c88653b	0.016649833
66	0xbe9db451	-0.30801633
67	0xbfd4b55d	-1.6617848
68	0xbe880170	-0.26563597
69	0x3e956801	0.2918091
70	0x3fd565ff	1.6671752
71	0x3e88193d	0.26581755
72	0x3c1c5dd4	0.009543855
73	0xbe4a276a	-0.19741598
74	0x3dec3ef4	0.11535445
75	0xbe53e2c7	-0.20691977
76	0xbf8de51d	-1.1085545
77	0xbdc8527a	-0.09781356
78	0x3e8c7d32	0.27439266
79	0x3f8a1594	1.0787835
80	0x3d873c12	0.066032544
81	0xbf19ce60	-0.6008053
82	0x3efa9d5f	0.4894819
83	0x3e7c6bdc	0.2465052
84	0xbed4a9f4	-0.41535914
85	0x3f9a1f19	1.204074
86	0x3f887ce0	1.0663109
87	0xbf6c3a65	-0.92276603
88	0x3f5ffaab	0.87491864
89	0x3f3a6c20	0.72821236
90	0x3cef3a6e	0.029202666
91	0xbe38bc62	-0.18040612
92	0xbd8e68b6	-0.06953566
93	0x3e42cb28	0.1902281
94	0xbf14e7eb	-0.5816638
95	0xbedf3d00	-0.43601227
96	0x3e9123dd	0.28347674
97	0xbe37aa10	-0.17935967
98	0xbe6a7d9d	-0.2289948
99	0x3eac30b1	0.336309
100	0xbe4daf15	-0.2008632
101	0xbcd6cecb	-0.026221653
102	0x3f2e5beb	0.68109006
103	0xbf758c14	-0.9591687
104	0xbf3ab7b4	-0.7293656
105	0x3f305112	0.68873703
106	0xbf35c466	-0.71002805
107	0xbf1c53d2	-0.610654
108	0xbd7de452	-0.06198532
109	0x3e8e3bd3	0.27780017
110	0x3df9332e	0.12167965
111	0xbde110c1	-0.10989524
112	0xbf6503e2	-0.8945905
113	0xbda67eaf	-0.08129632
114	0x3ddf82c7	0.10913616
115	0xbe1e9ebd	-0.15490241
116	0x3e21a1e1	0.15784408
117	0xbc8547c2	-0.016269568
118	0x3df514d4	0.11966863
119	0xbd853db6	-0.06505911
120	0x3e2a9578	0.1665858
121	0xbf6db76e	-0.92858016
122	0xbe39d827	-0.18148862
123	0x3e960457	0.29300186
124	0xbe9ac5f3	-0.30229148
125	0xbd015f5f	-0.031585094
126	0xbe46f515	-0.19429429
127	0x3e704317	0.23463093
128	0x3cc61745	0.024181018
129	0xbdd58e6f	-0.10427558
130	0xbf188026	-0.5957054
131	0xbdcda754	-0.10041681
132	0x3d07e1fa	0.033174492
133	0xbdc901d7	-0.09814804
134	0x3da43e63	0.08019712
135	0xbc757e27	-0.01498369
136	0x3e008d32	0.12553862
137	0xbe31555d	-0.1731772
138	0xbfa14f3e	-1.2602308
139	0x3fc0bba9	1.5057269
140	0x3d8e5c4f	0.069512
141	0xbe20e4ea	-0.15712324
142	0x3ddf49f7	0.109027795
143	0xbbd0cf31	-0.0063723554
144	0xbe744d37	-0.2385758
145	0x3e72fc5e	0.23729083
146	0x3c1e48f6	0.00966095
147	0xc00192a9	-2.0245764
148	0x3ff1665f	1.8859366
149	0x3d40c802	0.047065742
150	0xbcd776a3	-0.026301688
151	0x3e97736f	0.29580256
152	0xbe4ab440	-0.19795322
153	0xbd52de63	-0.051481616
154	0x3e55dad1	0.20884253
155	0xbe85b742	-0.26116377
156	0xbfaeccb8	-1.3656225
157	0x3fb8bee0	1.443325
158	0x3da7b945	0.08189634
159	0xbe779e4f	-0.24181484
160	0x3e381ab2	0.17978933
161	0x3cb977e7	0.022640182
162	0x3f049a99	0.517984
163	0xbebfb41a	-0.37442094
164	0xbe08251c	-0.13295406
165	0x3eab0ad0	0.33406687
166	0xbf2ee812	-0.6832286
167	0xbf2c5d12	-0.67329514
168	0x3f193d57	0.5985922
169	0xbf4777fe	-0.7791747
170	0xbf1e1fb9	-0.61767155
171	0xbe659894	-0.22421485
172	0xbd04881f	-0.032356378
173	0x3e60ae04	0.21941382
174	0xbea5a766	-0.32354277
175	0x3e535370	0.20637298
176	0x3e466281	0.19373514
177	0xbb49a612	-0.0030769152
178	0xbac30beb	-0.0014880871
179	0x3deca0a2	0.11554076
180	0xbe1de9b9	-0.1542119
181	0x3eaf3169	0.34217384
182	0x3dfb05fa	0.12256999
183	0xbeb98a64	-0.36238396
184	0x3f419539	0.7561832
185	0x3ec458af	0.3834891
186	0xbe9bbb50	-0.30416346
187	0x3f01c92a	0.50697577
188	0x3ee57107	0.44812796
189	0x3effdf9f	0.49975297
190	0x3d4f9e86	0.05068829
191	0x3d2e793e	0.042596094
192	0xbe0bd1c1	-0.13654234
193	0x3db2674b	0.08711108
194	0xbecfecf7	-0.40610477
195	0x3d872ea6	0.06600694
196	0xbf09a5bc	-0.53768516
197	0xbea08c02	-0.31356817
198	0xbf595339	-0.8489261
199	0xbef06b10	-0.46956682
200	0xbe1e428f	-0.15455078
201	0xbf4317a1	-0.7620793
202	0x3fab5841	1.3386308
203	0x3ee3aa7b	0.44466004
204	0x3d595183	0.05305625
205	0x3edd0a9a	0.4317215
206	0x3fb153b9	1.3853675
207	0x3ef4854b	0.47757944
208	0x3decfabe	0.11571263
209	0x3e638a70	0.22220778
210	0x3e159fb1	0.14611699
211	0x3eb7c20a	0.35890228
212	0xbf44af31	-0.7682982
213	0x3e8d858c	0.2764095
214	0xbf820487	-1.0157632
215	0xbf1b919c	-0.6076906

bn1.weight f4 [8]
0	0x3f270517	0.6524214
1	0x3f06b843	0.5262491
2	0x3f4564fb	0.7710721
3	0x3f06f7cc	0.5272186
4	0x3f728d5b	0.9474694
5	0x3f5dc42e	0.8662747
6	0x3ed9202b	0.42407355
7	0x3eef91e6	0.46791

bn1.bias f4 [8]
0	0x3f7e1f70	0.9926672
1	0x3e7fad7f	0.24968527
2	0x3e59df82	0.21276668
3	0x3e28e92b	0.16495197
4	0xbef61792	-0.48064858
5	0x3e7c1301	0.24616624
6	0x3dfa065d	0.12208245
7	0x3f13e12b	0.57765454

bn1.running_mean f4 [8]
0	0xbef57612	-0.47941643
1	0x3e09e321	0.13465549
2	0x3c8b5e49	0.017012732
3	0xbe843133	-0.25818786
4	0x3f511d79	0.81685597
5	0xbdbdcde2	-0.09267785
6	0x3e68bfb7	0.22729383
7	0xbd7814d7	-0.06056675

bn1.running_var f4 [8]
0	0x407def54	3.9677324
1	0x3fa0b749	1.2555934
2	0x40ffdb23	7.9955
3	0x401ef7f5	2.483884
4	0x40de56d6	6.9481
5	0x40e485e9	7.1413465
6	0x3fbf2263	1.4932369
7	0x3f0e0a6e	0.55484664

layer1.0.conv1.weight f4 [8, 8, 3, 3]
0	0xbddbfe02	-0.107418075
1	0xbe6fe66d	-0.23427744
2	0x3e63f593	0.22261648
3	0x3da6e5de	0.081493124
4	0x3e9b7453	0.30362186
5	0xbdb1b076	-0.086762354
6	0xbe2becef	-0.16789602
7	0xbca9f885	-0.020748386
8	0x3e4c5ce7	0.19957314
9	0x3c81eb2a	0.015859205
10	0x3ec71cc3	0.3888913
11	0xbe9fd291	-0.31215337
12	0xbe0278ba	-0.12741366
13	0xbddb2dd7	-0.10702103
14	0xbdf3c39c	-0.11902544
15	0x3dc4f915	0.09617821
16	0x3d6451d5	0.055742104
17	0xbdae2c81	-0.08504582
18	0xbdccfce0	-0.100091696
19	0x3df30b28	0.11867362
20	0xbea519a0	-0.32246113
21	0xbe79fc70	-0.24412704
22	0xbf36cea1	-0.7140904
23	0x3da64ef4	0.08120528
24	0xbde05e0b	-0.10955437
25	0x3d516ed6	0.051131092
26	0xbaf36dff	-0.001857221
27	0x3dc424bb	0.09577318
28	0x3d8092bb	0.062779866
29	0xbeae5342	-0.34047896
30	0x3e202c7d	0.15641971
31	0x3e0c85d6	0.1372293
32	0xbdffe48d	-0.124947645
33	0xbbda4eb5	-0.0066622146
34	0x3e00971d	0.12557645
35	0xbd45016e	-0.048097067
36	0x3ced6c4b	0.028982302
37	0x3d613ace	0.05498772
38	0x3dc9e970	0.09858978
39	0xbe574e6e	-0.21026012
40	0xbef1a443	-0.47195634
41	0xbdae96c1	-0.08524848
42	0x3e263be7	0.16233788
43	0xbd1c8a64	-0.038217917
44	0xbe8eae6a	-0.27867442
45	0x3d6296d5	0.055319626
46	0xbe0c5b5a	-0.13706723
47	0xbe6230d9	-0.22088946
48	0x3d42de26	0.04757514
49	0x3bfcec48	0.0077185966
50	0xbfa35d1f	-1.2762793
51	0x3c20f43c	0.009823855
52	0x3eae61e6	0.34059066
53	0xbe0c1bd5	-0.13682492
54	0x3e2ef6ba	0.17086306
55	0x3e107648	0.1410762
56	0xbe059027	-0.13043271
57	0xbd9dbb33	-0.07701721
58	0xbd488c82	-0.048962124
59	0xbd350939	-0.04419825
60	0xbe40f6fe	-0.1884422
61	0xbd1aa31e	-0.037753217
62	0x3e18c3c5	0.1491843
63	0xbd03d449	-0.032184873
64	0xbe85ec2d	-0.2615675
65	0x3ea33652	0.3187738
66	0x3d9cfd52	0.076655045
67	0x3e2d97e2	0.1695247
68	0xbe8637b5	-0.26214376
69	0x3c92210a	0.01783802
70	0xbccd07dd	-0.025028164
71	0xbc38977b	-0.0112665845
72	0x3df81236	0.121128485
73	0xbe7cf60f	-0.24703239
74	0x3e553b20	0.20823336
75	0xbe847cbc	-0.25876415
76	0xbe694b44	-0.22782618
77	0x3e1ddd77	0.15416513
78	0x3e98d252	0.29847962
79	0x3d41d4cc	0.04732208
80	0x3d9f8b66	0.0779026
81	0xbd8448fa	-0.06459232
82	0x3e651d81	0.22374536
83	0xbe3957f2	-0.18099955
84	0x3dd80d4a	0.1054941
85	0x3caa897b	0.020817509
86	0x3e4a11a8	0.19733298
87	0xbe41982f	-0.1890571
88	0xbea80306	-0.32814807
89	0xbd31fbcd	-0.043453027
90	0xbe89eb3a	-0.26937276
91	0xbebf3961	-0.37348464
92	0x3e2e8bee	0.17045566
93	0x3e82742f	0.25479266
94	0x3ed4b97f	0.41547772
95	0x3dcac51e	0.09900878
96	0xbe3fea65	-0.18741758
97	0x3da8db16	0.08244912
98	0xbe3e0310	-0.18555856
99	0xbe282242	-0.16419318
100	0x3e8fa234	0.2805344
101	0xbe0c1b2f	-0.13682245
102	0xbe9ba500	-0.30399323
103	0x3d88469d	0.066540934
104	0xbe393ecb	-0.1809036
105	0xbcade9ca	-0.021229643
106	0x3e6eb65b	0.2331175
107	0x3be50ffe	0.006990432
108	0x3e4c9734	0.19979554
109	0x3e26f0f0	0.16302848
110	0x3caaab6e	0.020833697
111	0x3e42701f	0.18988083
112	0x3b7c94ed	0.0038540915
113	0xbdf04268	-0.11731416
114	0x3e870cb2	0.26376873
115	0xbeab0707	-0.334038
116	0xbe6d2291	-0.23157717
117	0xbe9c1d4e	-0.30491108
118	0x3ebfea19	0.3748329
119	0xbcb9c93d	-0.022678966
120	0x3d80a279	0.06280989
121	0x3ea3f449	0.32022312
122	0xbe9bb2b6	-0.30409783
123	0xbf2135e6	-0.6297287
124	0x3a6c10bd	0.000900518
125	0xbe954ee9	-0.29161766
126	0xbdb4ce2f	-0.08828389
127	0x3e8e2eb6	0.27770013
128	0xbe470a46	-0.19437513
129	0xbe2c576b	-0.16830222
130	0x3ea38713	0.3193899
131	0xbe6dcb47	-0.23222075
132	0xbe5a9a2b	-0.21347873
133	0x3ebf29f7	0.37336704
134	0xbe15dce3	-0.14635043
135	0x3dbef176	0.09323399
136	0xbe3a991d	-0.1822247
137	0x3d8a073d	0.06739662
138	0xbdbfe254	-0.093693405
139	0x3bc7c823	0.006096856
140	0x3dc55bda	0.0963666
141	0x3dd272ee	0.10275827
142	0xbdc82d76	-0.09774296
143	0xbd927d88	-0.071528494
144	0xbda1eb01	-0.079061516
145	0xbe7baf1a	-0.24578515
146	0x3d91ba1b	0.07115575
147	0xbe54f492	-0.20796421
148	0xbd99d3d0	-0.07511103
149	0x3e12fa72	0.1435335
150	0x3c938df0	0.018012017
151	0x3da4c71e	0.08045791
152	0x3ea4e81f	0.32208344
153	0xbcde4014	-0.027130164
154	0xbf006879	-0.5015941
155	0xbd899053	-0.06716981
156	0xbdbaf908	-0.0912953
157	0xbf7291c4	-0.9475367
158	0xbe7ea753	-0.24868517
159	0x3ec051ea	0.37562495
160	0xbe0318c0	-0.1280241
161	0x3e9c212c	0.30494058
162	0xbd62e827	-0.05539718
163	0x3dd727ca	0.10505636
164	0xbd8f626d	-0.07001195
165	0x3ea358d9	0.31903723
166	0xbe252d37	-0.1613053
167	0xbe467bbc	-0.19383138
168	0xbd7abc7a	-0.0612149
169	0xbcb90c1b	-0.02258878
170	0x3c7db414	0.0154848285
171	0x3e379f29	0.17931809
172	0xbe15d196	-0.14630732
173	0xbe1e7a1a	-0.15476266
174	0xbb0e4b8d	-0.0021712512
175	0xbe89e9b6	-0.2693612
176	0xbda42a19	-0.08015842
177	0xbe45ca0c	-0.19315356
178	0xbdd13179	-0.10214514
179	0x3e80b21d	0.2513589
180	0x3bfd2482	0.0077252993
181	0xbd552ada	-0.05204282
182	0x3e4618b8	0.19345367
183	0xbd9dff40	-0.07714701
184	0xbe17b6ed	-0.14815874
185	0x3dc317c5	0.09526018
186	0xbd55a155	-0.05215581
187	0x3dcedcce	0.10100709
188	0x3d0a4894	0.033760622
189	0xbe16329f	-0.14667748
190	0xbe23f5bf	-0.16011713
191	0xbd5a9281	-0.053362373
192	0x3d5a477b	0.053290825
193	0x3e0cc576	0.137472
194	0xbdefe46a	-0.117134884
195	0x3e2ecdea	0.17070737
196	0xbe204d88	-0.15654576
197	0xbdd20599	-0.10254974
198	0x3d8a436b	0.0675114
199	0x3d8f647b	0.07001587
200	0x3e14fd32	0.14549711
201	0xbb0d39de	-0.0021549384
202	0xbd4ef211	-0.05052382
203	0xbe0f0a4b	-0.1396877
204	0x3dbb6245	0.09149603
205	0xbe70e373	-0.23524265
206	0xbe6a3acf	-0.22873996
207	0x3f1e76df	0.6190013
208	0xbd76b2fa	-0.06022928
209	0xbe22ef1c	-0.15911525
210	0xbde12399	-0.10993118
211	0x3d583964	0.052789107
212	0xbf2ab0fa	-0.66676295
213	0xbe08e34c	-0.13367957
214	0xbed64f10	-0.41857195
215	0xbf15e48b	-0.58551854
216	0xbe2c58db	-0.1683077
217	0x3ee7125f	0.45131204
218	0x3c4e182d	0.012579006
219	0x3ed5c890	0.4175458
220	0xbefe525e	-0.49672216
221	0xbe41cca7	-0.18925725
222	0xbdb837d1	-0.08995021
223	0x3e640ad1	0.22269751
224	0xbd19cafc	-0.037547097
225	0x3d298252	0.04138405
226	0xbe96c6c0	-0.2944851
227	0x3eceb36e	0.4037127
228	0xbc1ab129	-0.009441652
229	0x3e8561d3	0.26051196
230	0xbef4f190	-0.47840548
231	0x3cc4b54e	0.024012234
232	0xbd5d9ca2	-0.054104455
233	0xbd41ef2b	-0.04734723
234	0xbf111c54	-0.5668385
235	0xc01a0483	-2.4065254
236	0xbeefd8de	-0.46845144
237	0x3e88a842	0.2669087
238	0xbe30a79b	-0.17251436
239	0x3e5b6d66	0.21428451
240	0x3dad84e7	0.08472615
241	0xbde0fc77	-0.10985654
242	0x3dfd3854	0.12364259
243	0x3db1bd5a	0.08678694
244	0x3e3fbdd5	0.18724759
245	0xbdcefed2	-0.10107197
246	0x3d23b053	0.039963078
247	0x3dc98542	0.0983987
248	0x3c045f80	0.00807941
249	0xbda89530	-0.0823158
250	0xbd65a7c5	-0.0560682
251	0x3c9fe6e8	0.019519284
252	0x3e06af90	0.1315291
253	0xbed21ad2	-0.41036087
254	0x3e9c59c7	0.30537245
255	0x3d483b80	0.04888487

layer1.0.bn1.weight f4 [8]
0	0x3f0a3b41	0.53996664
1	0x3f0e2388	0.55522966
2	0x3edc81a2	0.43067652
3	0x3f7d6f6e	0.98998153
4	0x3f025428	0.5090966
5	0x3f581f4b	0.8442275
6	0x3e913b32	0.28365475
7	0x3f9a1f01	1.2040712

layer1.0.bn1.bias f4 [8]
0	0x3ea6160d	0.32438698
1	0xbe29ed4a	-0.16594425
2	0x3d518e36	0.051161014
3	0x3e079f3f	0.13244341
4	0xbdcb5f0b	-0.099302374
5	0x3e209720	0.1568265
6	0x3ea85c97	0.3288314
7	0xbfea11d4	-1.8286691

layer1.0.bn1.running_mean f4 [8]
0	0xbf654d33	-0.8957092
1	0xbe947a99	-0.28999785
2	0xbfd352da	-1.6509659
3	0xbf47efec	-0.78100467
4	0xbf86bf31	-1.0527097
5	0xbf263649	-0.6492658
6	0xbd9bbace	-0.076039895
7	0x3f5fbac9	0.87394387

layer1.0.bn1.running_var f4 [8]
0	0x3f97fcc3	1.1874012
1	0x3f451f2e	0.770007
2	0x3f395b14	0.724046
3	0x405779f5	3.3668187
4	0x3f83a6c2	1.0285265
5	0x405e0cca	3.4695306
6	0x3eb0f399	0.3456085
7	0x3f42e49a	0.7613007

layer1.0.conv2.weight f4 [8, 8, 3, 3]
0	0xbddfd8c7	-0.10930019
1	0xbdd2d23c	-0.10294005
2	0xbe13a868	-0.1441971
3	0x3c6857f3	0.014181125
4	0x3e685c90	0.2269156
5	0x3cd02ac2	0.025411014
6	0xbd0b9657	-0.034078922
7	0x3dbde63c	0.09272429
8	0x3d08cfdc	0.033401355
9	0xbe5448ce	-0.20730898
10	0xbec9184b	-0.39276347
11	0xbe625615	-0.2210315
12	0x3e0032d4	0.1251939
13	0x3baa36f0	0.0051945373
14	0x3dfebaf2	0.12438001
15	0x3e00b8cb	0.12570493
16	0xbd83d1ae	-0.064364776
17	0xbca146ab	-0.019687017
18	0xbddfedea	-0.109340504
19	0xbd3a36c7	-0.045462396
20	0x3df1ab5c	0.11800262
21	0x3d2859f5	0.041101415
22	0xbe11a5e6	-0.14223441
23	0xbccbe6e1	-0.024890365
24	0xbd7df3db	-0.062000137
25	0xbd7b5201	-0.061357502
26	0xbd565e02	-0.052335747
27	0xbda882bd	-0.08228061
28	0xbd2349e0	-0.039865375
29	0x3d531573	0.051534127
30	0xbeaf6376	-0.3425557
31	0xbee78122	-0.45215708
32	0xbe4efbc7	-0.20213233
33	0xbda99d0e	-0.08281909
34	0xbe0894f9	-0.13338079
35	0x3e58e8fd	0.21182628
36	0xbcb218ae	-0.021740284
37	0x3e01def3	0.12682705
38	0x3dc8507a	0.09780975
39	0x3c8e069d	0.017337138
40	0xbd6c5d5e	-0.05770623
41	0xbd587cd9	-0.05285344
42	0x3dbac41e	0.09119438
43	0xbd0c21c6	-0.034211896
44	0xbe18aa21	-0.14908649
45	0x3e3e1f7b	0.18566696
46	0x3c4556c2	0.01204461
47	0xbddd6206	-0.10809712
48	0xbb72f119	-0.0037069975
49	0xbe4adc0e	-0.19810507
50	0x3e0fe832	0.14053419
51	0x3d97850f	0.07398426
52	0xbd9578b3	-0.07298412
53	0xbc53c05b	-0.012924279
54	0xbd3758c4	-0.044762388
55	0xbe1fcd74	-0.15605718
56	0x3d42f903	0.047600757
57	0x3cc2de40	0.023787618
58	0x3d2b9df5	0.041898686
59	0x3dbdb95c	0.0926387
60	0x3e665c67	0.22496186
61	0xbd3034a2	-0.043018945
62	0xbe1bb975	-0.15207465
63	0x3db7b868	0.089707196
64	0xbeb74934	-0.35798037
65	0xbdfe0141	-0.12402583
66	0x3dfae665	0.122509755
67	0xbec81023	-0.3907481
68	0x3ec05c76	0.37570542
69	0xbf20a262	-0.62747777
70	0xbf938606	-1.1525276
71	0xbdeea6ca	-0.11652906
72	0x3e668d14	0.22514755
73	0xbdce1299	-0.10062141
74	0xbbf7a347	-0.007557306
75	0x3e50d403	0.20393376
76	0xbd81ca8f	-0.06337463
77	0x389f04ac	7.582581e-05
78	0xbe6b115e	-0.22955844
79	0xbe9e434b	-0.30910715
80	0xbb1b1bae	-0.0023667621
81	0xbd7ce3c0	-0.061740637
82	0xbe13806d	-0.1440446
83	0x3d4d3111	0.05009562
84	0xbde41ddd	-0.111385085
85	0xbe9e8f4b	-0.309687
86	0xbcfae0ba	-0.030624736
87	0xbd6884e1	-0.05676735
88	0xbe32976c	-0.17440575
89	0xbdf19c87	-0.11797433
90	0x3e94f8be	0.29096025
91	0x3d2fbce4	0.04290475
92	0xbdd6b812	-0.104843274
93	0x3e8155c6	0.25260752
94	0xbe07d359	-0.13264216
95	0x3daa8a1b	0.08327123
96	0xbd21b3bb	-0.039478045
97	0xbe0c21dd	-0.13684793
98	0xba0e8533	-0.00054367183
99	0x3dc85da6	0.09783487
100	0x3da13978	0.078722894
101	0xbd41ba03	-0.047296535
102	0x3bb005de	0.005371793
103	0x3eccc37f	0.39992902
104	0x3caa5c1b	0.020795872
105	0x3df51f24	0.1196883
106	0x3e034754	0.12820178
107	0x3d8293c9	0.06375844
108	0xbe143d8c	-0.14476603
109	0xbd916168	-0.07098657
110	0x3e33984d	0.17538567
111	0xbe082bc3	-0.13297944
112	0x3c059a4e	0.008154465
113	0x3e93de68	0.2888062
114	0xbe582e33	-0.21111374
115	0xbc42d1e7	-0.011890865
116	0xbdba4037	-0.09094279
117	0x3e24842e	0.16066048
118	0x3dce2b35	0.10066835
119	0xbb5c608c	-0.0033626882
120	0x3f2d9a4f	0.6781358
121	0xbe462cbb	-0.19353001
122	0x3c3a169d	0.0113579305
123	0x3e49a021	0.1968999
124	0x3d06b90e	0.032891326
125	0xbd469cb7	-0.0484893
126	0xbd2ca1fa	-0.04214666
127	0xbc87c8f4	-0.016575314
128	0x3c06a240	0.008217394
129	0x3db92f88	0.09042269
130	0xbd5eb6ff	-0.054373737
131	0xbd7a57b8	-0.06111881
132	0x3e85c1c3	0.2612439
133	0xbe42d1b5	-0.1902531
134	0x3c91823e	0.0177623
135	0x3e6266ca	0.22109523
136	0x3e68ff41	0.22753622
137	0xbe1bd428	-0.1521765
138	0x3db2ff58	0.08740109
139	0x3eb0f867	0.34564516
140	0xbef9571c	-0.48699272
141	0xbe03cb2c	-0.12870473
142	0x3ed10259	0.40822104
143	0xbf59ac3a	-0.8502842
144	0xbdb5a6d8	-0.088697135
145	0xbcb2ee04	-0.02184201
146	0x3c944fd7	0.018104477
147	0x3f946b78	1.1595297
148	0xbf1117ab	-0.5667674
149	0xbe9d28d5	-0.30695215
150	0xbf5b11f7	-0.8557429
151	0x3f157586	0.5838245
152	0x3e93f4ec	0.28897798
153	0xbc6de099	-0.01451888
154	0x3e20d14a	0.15704837
155	0xbe9e046b	-0.30862746
156	0xbc6beb8c	-0.0143994205
157	0xbd839efc	-0.06426808
158	0xbf4115af	-0.7542371
159	0xbd5add26	-0.05343356
160	0x3d7c6531	0.06161994
161	0xbd94ef5e	-0.07272218
162	0xbd9e149b	-0.07718774
163	0x3db0b234	0.086277395
164	0xbd673fdd	-0.05645739
165	0x3e47da13	0.19516782
166	0xbeb6620b	-0.35621676
167	0x3e6d45f2	0.23171213
168	0xbe330d21	-0.17485477
169	0x3e848bdb	0.2588795
170	0xbe056ec3	-0.13030533
171	0xbdff3925	-0.12462071
172	0x3e68f0af	0.22748064
173	0x3c81ba39	0.015835868
174	0xbe38c2f8	-0.18043125
175	0x3ea21a9b	0.31660923
176	0xbd76e821	-0.06027997
177	0x3f9bc588	1.2169657
178	0xbfa91404	-1.3209233
179	0x3d291009	0.041275058
180	0xbdd1bd8c	-0.10241231
181	0xbe1176fe	-0.14205548
182	0x3e30fadb	0.17283194
183	0xbd41b629	-0.047292862
184	0x3e26b285	0.16279037
185	0xbbb38a59	-0.005479139
186	0x3bf2f5e2	0.0074145654
187	0x3e972bab	0.29525504
188	0xbe86c7e1	-0.2632437
189	0x3f583b85	0.8446582
190	0xbe979df6	-0.29612702
191	0xbe84f940	-0.25971413
192	0xbe6751ab	-0.22589748
193	0xbea98609	-0.33110073
194	0x3e09a913	0.13443403
195	0xbf86e1b5	-1.053763
196	0x3f5d70b3	0.8650009
197	0x3def5d12	0.11687674
198	0xbdd495ae	-0.10380112
199	0x3d2f6627	0.04282203
200	0x3cff76e0	0.031184614
201	0x3e9af0f0	0.30261946
202	0xbf2e86c8	-0.6817441
203	0x3eab2ae6	0.33431166
204	0xbebed3a8	-0.37270856
205	0x3ec1eea2	0.37877375
206	0xbd226b2b	-0.039652985
207	0xbdcf4f6a	-0.10122569
208	0x3d9d8ff5	0.07693473
209	0x3d3529b6	0.04422923
210	0xbe0f33f4	-0.13984662
211	0x3e0482f5	0.12940581
212	0xbe09197b	-0.13388626
213	0xbd48bb4a	-0.049006738
214	0xbde5329a	-0.11191292
215	0x3d2c2454	0.042026833
216	0x3d86c303	0.06580164
217	0x3e17c208	0.14820111
218	0x3db254a6	0.08707552
219	0x3dc68d7b	0.09694954
220	0xbbf68eee	-0.0075243628
221	0xbcf230b9	-0.029564248
222	0xbe257b1e	-0.16160247
223	0xbdc30d22	-0.09523989
224	0x3ddab6b6	0.106793806
225	0x3d211c42	0.03933359
226	0xbd41b44e	-0.047291093
227	0x3e368f60	0.1782813
228	0x3d5d46d9	0.054022644
229	0xbccff307	-0.02538444
230	0x3e9ebee1	0.31005004
231	0x3c6f27ee	0.014596922
232	0xbd41ce0c	-0.047315642
233	0x3e89b99e	0.26899427
234	0x3e8a163e	0.26970094
235	0x3e02b795	0.12765343
236	0xbe131594	-0.143637
237	0x3d9e04f9	0.07715792
238	0x3dfd29f8	0.123615205
239	0x3ccac9c7	0.024754418
240	0xbda72def	-0.08163058
241	0xbd14ce1d	-0.036329377
242	0xbdcbbebd	-0.0994849
243	0xbe50736e	-0.20356533
244	0xbd44be6b	-0.04803316
245	0x3e0fca6c	0.14042062
246	0xbd3a6351	-0.04550487
247	0x3d63ead3	0.055643868
248	0xbd87cc0c	-0.06630716
249	0xbc6963c4	-0.014244977
250	0x3da2f133	0.07956161
251	0xbc9bb485	-0.019006977
252	0x3ea2b499	0.3177841
253	0x3d991983	0.07475569
254	0x3e2f5bed	0.1712491
255	0x3cee3e95	0.029082576

layer1.0.bn2.weight f4 [8]
0	0x3f0e9dba	0.5570942
1	0x3f24de92	0.64402115
2	0x3fd8ba44	1.6931844
3	0x3effc4df	0.49954888
4	0x3f62262f	0.88339514
5	0x3f8d9365	1.1060606
6	0x3f31e598	0.6949096
7	0x3edf625f	0.4362974

layer1.0.bn2.bias f4 [8]
0	0x3e9c2576	0.3049733
1	0x3f532492	0.82477677
2	0xbee6332d	-0.4496092
3	0x3ecbcdef	0.39805552
4	0x3ebea595	0.37235704
5	0x3efec97c	0.49763095
6	0x3ee6d280	0.45082474
7	0xbf21cd38	-0.63203764

layer1.0.bn2.running_mean f4 [8]
0	0xbf21838d	-0.63091356
1	0x3ebfe2f5	0.37477842
2	0xbda8707b	-0.08224579
3	0xbf03e2a9	-0.5151773
4	0x3f096802	0.5367433
5	0xbe5310a7	-0.20611821
6	0xbe20901b	-0.15679972
7	0x3d8748f4	0.066057116

layer1.0.bn2.running_var f4 [8]
0	0x3eb4fe60	0.35350323
1	0x3e750ca6	0.23930606
2	0x3f5fb149	0.8737989
3	0x3e645274	0.22297078
4	0x3eb8c420	0.36087132
5	0x3f112506	0.5669712
6	0x3e89752c	0.26847208
7	0x3e09aaa5	0.13444002

layer2.0.conv1.weight f4 [16, 8, 3, 3]
0	0xbe2efe8a	-0.17089286
1	0xbdb3367d	-0.08750627
2	0x3dc54384	0.09632018
3	0xbdf9a59b	-0.1218979
4	0xbdbe0339	-0.092779584
5	0x3dc29850	0.095017076
6	0x3e5b8b85	0.21439941
7	0x3eaa9668	0.33317876
8	0x3e3a7ac4	0.18210894
9	0xbbca57be	-0.0061750105
10	0x3d5f9651	0.054586712
11	0x3b2d01e4	0.0026398832
12	0x3d94f072	0.07272424
13	0xbd085a40	-0.033289194
14	0x3de4f050	0.111786485
15	0x3cb5e029	0.022201614
16	0x3db03069	0.086029835
17	0x3e2b6a12	0.16739681
18	0x3e0ac945	0.1355334
19	0x3e99c8df	0.30036065
20	0x3e2e7f14	0.17040664
21	0x3ea29c4c	0.3175987
22	0x3f01bd50	0.5067949
23	0x3e99a3e4	0.3000785
24	0x3e821ecf	0.2541413
25	0x3eb528dd	0.3538274
26	0x3e0d00da	0.13769856
27	0xbe4ffbde	-0.20310923
28	0x3dc93887	0.09825235
29	0x3e4804d8	0.19533098
30	0xbdcca904	-0.09993175
31	0x3da76836	0.081741735
32	0x3e8da0da	0.27661783
33	0xbdd3902c	-0.10330233
34	0x3cd8e80f	0.026477842
35	0x3e10f964	0.14157635
36	0x3cdb0133	0.02673397
37	0xbc02125c	-0.0079389475
38	0x3de68e26	0.112575814
39	0x3e9759e3	0.29560766
40	0x3e857850	0.26068354
41	0x3d8a13fd	0.06742094
42	0x3ec630cb	0.387091
43	0x3f120159	0.57033306
44	0x3e516e37	0.204522
45	0x3d989ae7	0.0745142
46	0xbcf79a13	-0.030224836
47	0xbdacbd0b	-0.084344946
48	0xbe10f0c7	-0.1415435
49	0xbdd0ce08	-0.10195547
50	0x3e595716	0.21224627
51	0xbd665b73	-0.056239557
52	0x3dd61b64	0.10454443
53	0x3d0ef84b	0.03490476
54	0xbdd9e3e0	-0.10639167
55	0x3d707e32	0.0587141
56	0x3dee2678	0.11628431
57	0x3bf8085b	0.0075693554
58	0x3d0f8be9	0.035045538
59	0x3b1723bb	0.0023062069
60	0x3e02c326	0.12769756
61	0x3e0c5de4	0.13707691
62	0xbe3f92ce	-0.18708345
63	0xbd6b3c66	-0.057430647
64	0xbc4cc930	-0.012499139
65	0x3da4aad9	0.08040399
66	0xbcefc9ad	-0.029270971
67	0x3d9ad876	0.07560818
68	0x3de6746a	0.11252673
69	0x3ab1a9d6	0.0013554643
70	0x3ba2df7e	0.00497049
71	0xbd28216c	-0.0410475
72	0x3ed65947	0.41864988
73	0x3e816af6	0.25276917
74	0x3e9ef31b	0.3104485
75	0x3ebde54e	0.37089008
76	0x3f138d66	0.5763763
77	0x3e8ca367	0.27468416
78	0xbf5a75e6	-0.8533615
79	0xbf58c0e5	-0.84669334
80	0xbf0c3cff	-0.5478057
81	0x3d9d41d7	0.076785736
82	0xbd354f88	-0.0442653
83	0xbdca5464	-0.098793775
84	0xbe2901b8	-0.16504562
85	0xbe38f5cb	-0.18062513
86	0xbdaa0e9f	-0.0830357
87	0x3e112652	0.14174774
88	0x3e397969	0.1811272
89	0x3db30227	0.08740645
90	0x3cbd5a40	0.023114324
91	0xbb9d9584	-0.0048090834
92	0x3cc5418e	0.02407911
93	0xbd2c71d8	-0.042100757
94	0xbd5ac0d7	-0.053406563
95	0xbbdc884c	-0.006730115
96	0x3dd272c4	0.10275796
97	0x3d4d91ed	0.050187994
98	0x3c1937cf	0.009351685
99	0x3d85bc7a	0.0653009
100	0x3cf28c29	0.02960785
101	0x3d78b9d2	0.060724087
102	0xbb8d6f2f	-0.0043162326
103	0xbd816fe6	-0.06320171
104	0x3dab42d9	0.083623596
105	0xbd21a38c	-0.03946261
106	0xbd9b1314	-0.07571998
107	0xbd81eab2	-0.06343593
108	0xbce9efa5	-0.028556654
109	0xbda17c08	-0.07884985
110	0xbd603a60	-0.05474317
111	0x3e1b6057	0.1517347
112	0x3e6d34b0	0.2316463
113	0x3d4c9c53	0.04995377
114	0xbe896d2d	-0.26841107
115	0xbe705f27	-0.23473798
116	0xbdc7c9e8	-0.097553074
117	0xbe522939	-0.20523538
118	0xbe805121	-0.25061896
119	0xbe0c77ec	-0.13717622
120	0x3eb64263	0.35597524
121	0x3f26b2dc	0.6511667
122	0x3ebbed76	0.36704606
123	0xbe16d436	-0.1472939
124	0xbeeeba87	-0.46626684
125	0xbe2ae126	-0.1668745
126	0xbda3dc9d	-0.08001063
127	0xbc4472bd	-0.011990246
128	0x3d47b218	0.048753828
129	0x3e7295da	0.23689976
130	0xbc734f25	-0.0148504125
131	0x3d0102cd	0.03149681
132	0xbdc1268a	-0.09431179
133	0xbd7ea1e7	-0.06216612
134	0xbd1030f5	-0.03520294
135	0x3d146929	0.0362331
136	0x3d3e6b51	0.046489064
137	0xbbddbe16	-0.006767045
138	0xbcc4dc75	-0.024030903
139	0xbc18df34	-0.0093305595
140	0xbd277dc3	-0.04089142
141	0xbcdbcdc6	-0.026831519
142	0xbcb6ebd6	-0.022329252
143	0x3d2497ef	0.040183958
144	0xbcde4bf3	-0.027135825
145	0xbe07c058	-0.13256967
146	0xbd3b022a	-0.04565636
147	0xbe015cd5	-0.12633069
148	0x3e492bb2	0.19645575
149	0x3e8c3b21	0.27388862
150	0x3eabc1f7	0.3354642
151	0x3e37cc29	0.17948975
152	0x3e6c4661	0.23073722
153	0x3e1eb5c8	0.15499032
154	0xbe90a0d6	-0.28247708
155	0xbd82bcf3	-0.063836955
156	0xbdc1d3d6	-0.094642326
157	0xbea5b28f	-0.32362792
158	0xbe5cccc8	-0.21562493
159	0x3d4aa484	0.0494733
160	0xbe6cc759	-0.2312292
161	0xbe2aca8b	-0.16678827
162	0xbcf89498	-0.030344293
163	0xbdd65190	-0.104647756
164	0xbde901c6	-0.113772914
165	0x3cb6a5c0	0.022295833
166	0xbe028f60	-0.12750006
167	0xbdbf53fd	-0.09342191
168	0x3d4bd2e5	0.04976167
169	0xbdd3337c	-0.10312554
170	0xbdd437b3	-0.10362186
171	0x3c4ab763	0.012372824
172	0x3d32933c	0.043597445
173	0xbd67595c	-0.056481704
174	0x3dfe0b5e	0.12404512
175	0xbd33aff7	-0.043868985
176	0x3ca646bc	0.0202974
177	0x3d4093a6	0.04701581
178	0xbd6d228b	-0.05789427
179	0xbd312702	-0.04325009
180	0xbdd8f964	-0.105944425
181	0xbd67345e	-0.056446426
182	0x3e9d6bbc	0.30746257
183	0xbec0b402	-0.37637335
184	0xbcfe42ae	-0.031037655
185	0x3ee86df1	0.4539638
186	0xbdc5905a	-0.096466735
187	0x3e87a265	0.26491085
188	0x3e9b6a71	0.30354646
189	0x3dd015ed	0.10160432
190	0x3e6d2464	0.23158413
191	0x3e082a98	0.13297498
192	0x3ef3f12c	0.47644937
193	0x3f12209b	0.57081
194	0x3e51d681	0.20491983
195	0x3ea42ea4	0.32066834
196	0x3e33c19a	0.17554322
197	0x3cbf7c1e	0.023374613
198	0x3dc43f23	0.09582355
199	0xbe0291d4	-0.12750942
200	0x3dbb3600	0.09141159
201	0x3d459883	0.04824115
202	0x3e2885b9	0.16457261
203	0x3da0d532	0.07853164
204	0x3e3ba53f	0.18324755
205	0x3e08a76d	0.13345118
206	0xbc8e0adb	-0.01733916
207	0xbd87a625	-0.066234864
208	0xbd9a5c8a	-0.07537182
209	0xbe0beccd	-0.13664551
210	0xbd8f567f	-0.0699892
211	0x3cddb677	0.027064545
212	0xbcc67168	-0.024223998
213	0x3c53cc2d	0.012927097
214	0x3db03e2d	0.08605609
215	0xbdd04b31	-0.101705916
216	0x3d1916a0	0.037375093
217	0x3d2faf1c	0.042891607
218	0x3db84e5e	0.08999322
219	0x3d9929a6	0.07478647
220	0xbe0e835b	-0.13917296
221	0x3d95014d	0.07275639
222	0xbc182997	-0.00928726
223	0xbe406329	-0.18787827
224	0x3dfbb833	0.122909926
225	0x3cba4b37	0.022740943
226	0xbe1a8a8c	-0.15091914
227	0x3d31d8a6	0.043419503
228	0xbe2f0069	-0.1709
229	0x3de173d8	0.110084236
230	0x3de2ff74	0.1108388
231	0xbe1c621a	-0.15271798
232	0x3d997729	0.07493431
233	0x3dc8a1f9	0.09796519
234	0xbcfe0192	-0.031006608
235	0xbd2d2a61	-0.042276744
236	0xbc743aa1	-0.014906556
237	0xbd8d27ff	-0.06892394
238	0xbd4a5fbf	-0.049407717
239	0x3d42c8f5	0.04755493
240	0xbcc1bed0	-0.023650557
241	0x3c8b2748	0.016986504
242	0x3d41c042	0.047302492
243	0x3eca6c4a	0.39535743
244	0x3f1d7325	0.6150382
245	0xbeaf8785	-0.3428308
246	0x3f2caaf5	0.6744836
247	0x3d321917	0.04348096
248	0xbf4b1cbb	-0.79340714
249	0x3e218886	0.15774736
250	0xbf1ee6b7	-0.6207079
251	0xbeea1ea4	-0.45726502
252	0x3be3d4bd	0.0069528506
253	0xbb99e80b	-0.004696851
254	0xbc91ea2a	-0.017811853
255	0xbd01a708	-0.031653434

layer2.0.bn1.weight f4 [16]
0	0x3ecb7c4b	0.39743266
1	0x3f1b8841	0.6075478
2	0x3f01dce6	0.5072769
3	0x3f0d50c9	0.55201393
4	0x3f1c7b74	0.61125875
5	0x3f303f84	0.6884692
6	0x3ee58aa6	0.44832343
7	0x3edd9bda	0.43282968
8	0x3eecbdaf	0.46238467
9	0x3fc6976e	1.5514963
10	0x3f281287	0.6565327
11	0x3f221b62	0.6332303
12	0x3fa79cd0	1.309473
13	0x3f2d0ae8	0.67594767
14	0x3f2f3506	0.6844028
15	0x3eb70243	0.35743913

layer2.0.bn1.bias f4 [16]
0	0x3f167c9b	0.5878388
1	0xbca99aa0	-0.020703614
2	0x3e3270dc	0.17425865
3	0xbd9c1961	-0.07622028
4	0x3ca8070b	0.02051117
5	0xbdd82111	-0.10553182
6	0x3ea4f9c7	0.32221815
7	0x3edbb6c0	0.42912865
8	0x3db40c01	0.08791352
9	0xbf673558	-0.9031577
10	0xbdf0cb07	-0.117574744
11	0xbcd35d4d	-0.025801325
12	0xbfb35b17	-1.4012173
13	0xbc1ea358	-0.009682499
14	0xbdaee277	-0.085392885
15	0x3f049e4d	0.5180405

layer2.0.bn1.running_mean f4 [16]
0	0x408456c0	4.1355896
1	0xbebbe6fb	-0.36699662
2	0x40305799	2.7553465
3	0xbf487a2b	-0.78311414
4	0x3c7f50a1	0.015583188
5	0xbe9e636d	-0.3093523
6	0xc022f2ea	-2.5460763
7	0x3e57fb4e	0.21091959
8	0x3eb60067	0.35547182
9	0xc0176476	-2.3655066
10	0xbf67d188	-0.90554094
11	0xbebf0a23	-0.3731242
12	0xbf2a7f69	-0.6660066
13	0xc0718500	-3.7737427
14	0xbf696613	-0.9117138
15	0xbfd83056	-1.6889751

layer2.0.bn1.running_var f4 [16]
0	0x40645f2a	3.5683084
1	0x4088caf2	4.2747736
2	0x4037694c	2.8658018
3	0x3f8d4158	1.1035566
4	0x4036fd31	2.8592036
5	0x407ab473	3.9172637
6	0x4027b87a	2.6206346
7	0x404a270d	3.1586335
8	0x3f97d3ae	1.1861475
9	0x4100fe99	8.062158
10	0x4057f086	3.3740554
11	0x405bdcd5	3.4353535
12	0x40066c15	2.1003468
13	0x4041e5e5	3.0296566
14	0x4076e9bd	3.8580163
15	0x3fc7cb38	1.5608892

layer2.0.conv2.weight f4 [16, 16, 3, 3]
0	0xbbfd00d4	-0.007721046
1	0xbe2ed880	-0.17074776
2	0x3d8de574	0.0692853
3	0x3e28e35b	0.16492979
4	0x3e64fb06	0.22361383
5	0xbc9fb6c6	-0.019496333
6	0xbe570ff6	-0.21002182
7	0x3e817060	0.25281048
8	0xbec01c23	-0.37521467
9	0xbd725a71	-0.059168283
10	0xbdda69b6	-0.10664694
11	0x3daf2fde	0.08554052
12	0xbd0e30ae	-0.034714393
13	0x3dabdb86	0.0839148
14	0xbe750cce	-0.23930666
15	0xbd138438	-0.036014766
16	0x3c871eee	0.01649424
17	0xbcca422f	-0.024689762
18	0xbde01c48	-0.10942894
19	0xbe2aa909	-0.16666044
20	0xbe57b2c4	-0.21064287
21	0xbea7f459	-0.3280361
22	0x3ea47622	0.32121378
23	0x3f296589	0.66170555
24	0x3e0d1fe7	0.13781701
25	0x3e48a49f	0.19594048
26	0xbed013fb	-0.40640244
27	0x3d64efdb	0.055892807
28	0x3dfd7078	0.12374967
29	0xb9a45703	-0.00031345346
30	0x3e4edcf8	0.2020148
31	0x3d9cdbe6	0.0765913
32	0xbe832a4f	-0.25618216
33	0x3d2d1607	0.042257335
34	0xbdd75d4a	-0.1051584
35	0xbdc52ce4	-0.09627703
36	0x3db3a719	0.08772106
37	0x3eaef6ac	0.3417257
38	0x3e14f71b	0.14547388
39	0x3e952c91	0.29135564
40	0x3ea80e06	0.328232
41	0xbd8aeb82	-0.06783201
42	0x3dad9604	0.08475879
43	0x3d95abf9	0.07308192
44	0xbd9d44da	-0.07679148
45	0xbd76ab30	-0.06022185
46	0xbde36227	-0.111027054
47	0x3d416cc8	0.047222883
48	0x3c9a94db	0.018869808
49	0xbcb7c0b3	-0.022430753
50	0xbd079058	-0.03309664
51	0x3d69583f	0.056968924
52	0xbdfd257f	-0.123606674
53	0xbddc1f7a	-0.10748191
54	0x3d50a4ed	0.050938535
55	0xbd81583d	-0.06315658
56	0xbe22afd4	-0.15887386
57	0xbd2322e0	-0.03982818
58	0x3e24beaf	0.16088365
59	0xbe16031a	-0.1464962
60	0xbdd00d24	-0.101587564
61	0xbde0e948	-0.10981995
62	0x3e68cf90	0.22735429
63	0x3e3dd941	0.18539907
64	0xbdc0db38	-0.09416813
65	0xbe056d03	-0.13029866
66	0xbe17aa19	-0.14810981
67	0xbe9bdb11	-0.30440572
68	0x3e085483	0.13313489
69	0xbdc1b206	-0.094577834
70	0xbc4b4285	-0.012405996
71	0x3d03ab19	0.032145593
72	0xbe1cbd24	-0.15306526
73	0xbcc9be30	-0.024626821
74	0xbd3a03f5	-0.04541393
75	0xbe1d1fc5	-0.1534415
76	0xbdb96959	-0.090532966
77	0x3df47bb8	0.1193766
78	0xbe0aab27	-0.13541852
79	0xbe1b8da0	-0.15190744
80	0x3d8852a1	0.06656385
81	0x3e740226	0.23828945
82	0xbd54e937	-0.051980224
83	0xbe968246	-0.29396266
84	0xbe2a862f	-0.1665275
85	0xbeb53cf7	-0.35398075
86	0x3d1de35f	0.038546916
87	0xbe1b8b04	-0.15189749
88	0x3ce950ac	0.02848085
89	0x3e9c45bb	0.3052195
90	0x3dbfb134	0.09359971
91	0xbc551e14	-0.013007659
92	0x3d3e4852	0.04645569
93	0xbd1a5955	-0.03768285
94	0x3e209084	0.15680128
95	0x3ddac91b	0.10682889
96	0xbd052436	-0.032505237
97	0x3e5cabb6	0.21549878
98	0x3ee8833c	0.45412624
99	0xbc5b9120	-0.0134013
100	0xbe3550ea	-0.17706648
101	0xbe62eab9	-0.22159852
102	0x3d47f643	0.048818838
103	0x3ce0ede8	0.027457193
104	0xbe1269f0	-0.14298224
105	0xbd50a031	-0.05093402
106	0xbe79624c	-0.24353904
107	0xbe70d807	-0.23519908
108	0x3d84b985	0.064806975
109	0xbcfb441f	-0.030672131
110	0x3df916d6	0.12162559
111	0xbda4e0ef	-0.08050715
112	0xbe65c10a	-0.2243692
113	0xbe5bd72f	-0.21468805
114	0x3df3c685	0.11903099
115	0xbd9c3975	-0.076281466
116	0xbcec11f2	-0.02881715
117	0x3de99d6a	0.114069775
118	0x3ea8db17	0.32979652
119	0x3da1302c	0.07870516
120	0x3ed21c0c	0.41037023
121	0x3e85e36c	0.26150072
122	0xbf1fa7ae	-0.62365234
123	0x3dc3b294	0.095555454
124	0xbeb70fb8	-0.3575418
125	0xbdfbd517	-0.12296503
126	0xbda7b216	-0.08188264
127	0xbcebc30a	-0.028779525
128	0xbde873b6	-0.11350195
129	0xbe1d64e6	-0.15370521
130	0x3d46eb85	0.048564453
131	0xbebea5b5	-0.372358
132	0xbceafe96	-0.02868585
133	0xbebb072a	-0.36528903
134	0xbdefc4d2	-0.11707462
135	0xbd3e2e66	-0.046430968
136	0xbd1160b3	-0.03549261
137	0x3e073e4e	0.13207361
138	0xbde1b635	-0.11021081
139	0x3daaa664	0.08332518
140	0xbd40da0a	-0.04708294
141	0xbb71e9d4	-0.0036913054
142	0x3c9f8700	0.019473553
143	0x3d4ab3ae	0.049487762
144	0xbe8f2793	-0.2795988
145	0xbdce37cd	-0.10069237
146	0x3c8ae1ec	0.016953431
147	0x3d89e7dd	0.067336775
148	0xbcef2db6	-0.029196601
149	0x3ea901d5	0.3300921
150	0x3d90a76f	0.070631854
151	0xbd93c710	-0.072157025
152	0xbabf15fe	-0.0014578698
153	0xbd2b7244	-0.04185702
154	0x3d85e4e2	0.065377966
155	0x3cca7b8f	0.02471712
156	0x3c10afd6	0.008830985
157	0x3de14f17	0.11001413
158	0x3d93f7e9	0.072250195
159	0xbba3410f	-0.004982121
160	0xbd35ce40	-0.04438615
161	0xbd988408	-0.07447058
162	0xbda3f543	-0.08005764
163	0xbe0d9ad4	-0.13828593
164	0xbcb4de24	-0.022078581
165	0x3c96d5d5	0.01841251
166	0xbc07b99b	-0.008283998
167	0xbc44b122	-0.012005122
168	0x3de722f8	0.11285967
169	0x3d4cea2b	0.050028007
170	0xbd433aec	-0.047663614
171	0xbc9a07df	-0.018802581
172	0xbd8febc1	-0.07027388
173	0x3d989095	0.07449452
174	0x3dbb5460	0.09146953
175	0x3e5ad53d	0.21370406
176	0x3d44e7e9	0.04807273
177	0xba82e9d3	-0.0009987898
178	0x3e67c8a4	0.22635132
179	0x3e4429a1	0.19156505
180	0x3cf24fa0	0.029578984
181	0x3cadbe43	0.021208888
182	0xbded4256	-0.11584918
183	0x3d844ecb	0.06460341
184	0xbdb18fe9	-0.08670027
185	0xbb1966be	-0.0023407186
186	0x39fe34a6	0.0004848588
187	0xbc88703c	-0.01665508
188	0xbbce685b	-0.0062990612
189	0xbcba007f	-0.022705315
190	0xbc762ac5	-0.0150248455
191	0xbc5941eb	-0.013260345
192	0x3ac651e9	0.0015130612
193	0xbd9dfcc1	-0.077142246
194	0x3d180fef	0.03712457
195	0xbd246526	-0.040135525
196	0xbcb9b91a	-0.022671271
197	0xbdd848ee	-0.10560785
198	0x3e3d29c8	0.1847297
199	0x3eb4fe89	0.35350445
200	0x3e0934cb	0.13399045
201	0xbe3a8d5e	-0.1821799
202	0xbe33d6a5	-0.17562349
203	0x3deeeb34	0.11665955
204	0x3cca37a3	0.024684733
205	0xbe8265b3	-0.25468215
206	0x3e189af0	0.14902854
207	0xbc381716	-0.011235973
208	0xbde11dcf	-0.10992014
209	0x3d87cc2e	0.06630741
210	0xbd723059	-0.05912814
211	0x3c9388d0	0.018009573
212	0xbd7ea032	-0.062164493
213	0xbd9e274b	-0.07722338
214	0x3b1fb332	0.0024368283
215	0x3df91f45	0.12164167
216	0xbe5d426c	-0.21607369
217	0xbe2fc1d2	-0.1716378
218	0x3e532f04	0.20623404
219	0xbdbb2d77	-0.09139531
220	0xbdd5033a	-0.10401006
221	0xbd6b3c4e	-0.057430558
222	0xbc11286a	-0.008859733
223	0x3cc49ca3	0.024000471
224	0x3e07bb2b	0.13254993
225	0x3cf5385f	0.029934106
226	0x3d80bb54	0.0628573
227	0x3db35ee0	0.0875833
228	0x3b96e8ba	0.00460538
229	0x3cd02052	0.025406037
230	0xbd911250	-0.07083571
231	0x3adab443	0.0016685802
232	0x3c8cbc94	0.017179765
233	0x3d3bbe16	0.045835577
234	0xbcd88a5d	-0.026433164
235	0x3df8dc44	0.12151387
236	0x3dc1df80	0.09466457
237	0xbccaaf87	-0.024741901
238	0xbdc06bcf	-0.09395563
239	0x3e42e995	0.19034417
240	0xbb6a8fea	-0.0035791346
241	0x3ca409a4	0.020024128
242	0xbd50b2d7	-0.050951805
243	0xbced6326	-0.028977942
244	0xbcb86e57	-0.022513552
245	0xbcb8ae37	-0.02254401
246	0xbb8dc93c	-0.0043269675
247	0x3c9c612b	0.019089302
248	0xbd2d58ee	-0.042321138
249	0x3d993430	0.07480657
250	0x3d4bd8a3	0.049767148
251	0xbd1b0141	-0.037842993
252	0xbccd5a7b	-0.025067559
253	0xbd9c577a	-0.07633872
254	0xbdf719f7	-0.12065499
255	0xbb1f72d2	-0.0024329913

layer2.0.bn2.weight f4 [16]
0	0x3f5faad7	0.87370056
1	0x3f041c53	0.5160572
2	0x3fa632cc	1.2984252
3	0x3f23a040	0.639164
4	0x3f0c9928	0.549212
5	0x3f30b990	0.69033146
6	0x3f0167ab	0.5054881
7	0x3f538f1f	0.8264026
8	0x3f249256	0.6428579
9	0x3f502ec8	0.8132138
10	0x3f6e580e	0.9310311
11	0x3f2275db	0.63461083
12	0x3f67189a	0.90271914
13	0x3f4a8b57	0.79118866
14	0x3f0960cd	0.5366333
15	0x3f1bd797	0.6087584

layer2.0.bn2.bias f4 [16]
0	0xbdd2f09f	-0.10299801
1	0xbdfd7f6a	-0.12377818
2	0xbe3ce624	-0.18447167
3	0x3e9c891a	0.3057335
4	0x3eb38ef6	0.35070008
5	0x3edd40f8	0.4321363
6	0x3f1994f9	0.5999294
7	0x3e5dc4bb	0.21657078
8	0x3eb6aef6	0.3568036
9	0x3ece3bff	0.40280148
10	0xbdac7e91	-0.08422578
11	0x3e19c4cf	0.15016483
12	0xbd97dd11	-0.07415212
13	0x3e8fe9fa	0.28108197
14	0x3c0ba609	0.008523473
15	0x3eb87b21	0.3603144

layer2.0.bn2.running_mean f4 [16]
0	0xbeebb0f2	-0.46033436
1	0xbd20e29a	-0.039278604
2	0xbed2ab4d	-0.41146317
3	0xbef7b030	-0.48376608
4	0xbfdeb223	-1.7398113
5	0x3ba12320	0.0049175173
6	0xbd25403f	-0.040344473
7	0x3f53ac62	0.8268491
8	0x3f103d97	0.5634398
9	0xbc9c0da4	-0.019049473
10	0xbefae9c0	-0.49006462
11	0xbf45495b	-0.77065057
12	0xbe6f5683	-0.23372845
13	0x3f99d5c9	1.2018367
14	0xbf05f904	-0.5233309
15	0xbfac0cf6	-1.3441455

layer2.0.bn2.running_var f4 [16]
0	0x3f06060c	0.52352977
1	0x3e31c7cc	0.17361373
2	0x3f1bcf02	0.60862744
3	0x3edc7efa	0.43065625
4	0x3f3253a6	0.6965889
5	0x3f672ff6	0.9030756
6	0x3f23c2cb	0.63969105
7	0x3f670602	0.9024354
8	0x3f53be9c	0.8271272
9	0x3f8b3856	1.0876567
10	0x3f203197	0.6257567
11	0x3f02e63f	0.5113258
12	0x3eeb37b0	0.45940924
13	0x3f931398	1.1490355
14	0x3ebe4f4a	0.37169868
15	0x3f02daac	0.51114917

layer2.0.shortcut.0.weight f4 [16, 8, 1, 1]
0	0x3cfe5312	0.03104547
1	0x3df8f916	0.12156884
2	0x3d1fc4bd	0.039005984
3	0x3dd22a1f	0.1026194
4	0xbf261c3f	-0.6488685
5	0x3c93b24f	0.01802936
6	0xbda1c0a0	-0.078980684
7	0x3bcb2072	0.006198936
8	0xbb7b5b98	-0.0038354155
9	0x3e3bdd79	0.18346204
10	0x3b9a01eb	0.0046999357
11	0xbf2329dd	-0.63735753
12	0xbdc8f744	-0.09812787
13	0xbe1334f7	-0.14375673
14	0x3f138b70	0.5763464
15	0x3e2ffde2	0.17186692
16	0xbd6da90e	-0.05802255
17	0xbe771740	-0.24129963
18	0xbdc52379	-0.096259065
19	0xbe3235fd	-0.17403407
20	0x3d45327f	0.04814386
21	0xbeb029c7	-0.34406874
22	0xbe0e4598	-0.13893735
23	0xbd940d06	-0.072290465
24	0x3d528dae	0.051404648
25	0xbe6528db	-0.22378866
26	0x3ce4892f	0.027897445
27	0xbdbd0d0c	-0.09231004
28	0xbe8c6a27	-0.27424738
29	0x3e08c5d3	0.13356714
30	0xbe069851	-0.13144042
31	0x3eeb6ff3	0.45983848
32	0xbea19ed3	-0.31566486
33	0x3db6f4d4	0.08933416
34	0xbce15293	-0.027505195
35	0x3e4c132b	0.19929187
36	0xbd810fa8	-0.06301814
37	0x3e624890	0.22097993
38	0xbe130737	-0.14358221
39	0x3f4e1eb9	0.8051563
40	0xbf270774	-0.6524575
41	0xbe152a8b	-0.1456701
42	0x3d05dc37	0.032680716
43	0xbe0c06e4	-0.13674504
44	0x3e7fc4a5	0.24977358
45	0x3c7524fe	0.014962433
46	0xbedd20b5	-0.43189016
47	0x3e934fe2	0.28771883
48	0x3f35e489	0.7105184
49	0x3e4ce143	0.20007806
50	0x3d8ff18e	0.07028495
51	0xbdfe09f1	-0.1240424
52	0xbcbc31a0	-0.022972882
53	0x3c1b6b15	0.00948598
54	0x3ea25b32	0.31710202
55	0xbd64e369	-0.055880938
56	0x3f4a3625	0.7898887
57	0xbe04db3a	-0.12974253
58	0xbb01b748	-0.0019793082
59	0x3d9dfb22	0.077139154
60	0xbdbddfca	-0.092712
61	0xbe5543f6	-0.20826706
62	0x3dc2f4a0	0.09519315
63	0x3e875750	0.26433802
64	0xbdd92568	-0.10602838
65	0xbe8cac22	-0.27475077
66	0xbd7ed0a5	-0.062210698
67	0x3d1b667c	0.037939534
68	0x3eaf582b	0.34246954
69	0xbe8a0e75	-0.26964155
70	0xbe961d15	-0.29319063
71	0xbe70464e	-0.23464319
72	0xbea9e359	-0.33181265
73	0xbde2b99a	-0.11070557
74	0xbd90c026	-0.070678994
75	0xbe2bce14	-0.16777831
76	0x3e6d2996	0.23160395
77	0xbea410d9	-0.32044104
78	0xbe9f6af3	-0.31136283
79	0xbe1d4882	-0.15359691
80	0xbf1ab134	-0.6042664
81	0x3d3574e5	0.044300932
82	0xbbc4c902	-0.0060054073
83	0x3cbc33a9	0.022973852
84	0xbd99fd5d	-0.07519028
85	0x3db984d8	0.09058541
86	0x3e86b8ca	0.26312858
87	0xbdcd52c5	-0.10025553
88	0xbdeabb52	-0.1146151
89	0x3ec80304	0.390648
90	0x3c787a21	0.015165837
91	0x3e8189f8	0.25300574
92	0x3d49b76c	0.04924719
93	0x3e45f759	0.19332637
94	0xbd698adc	-0.057017192
95	0xbe9fcead	-0.3121237
96	0xbd68933d	-0.056781042
97	0x3e794488	0.24342549
98	0xb8a8f39a	-8.0562386e-05
99	0xbebc58cc	-0.36786497
100	0x3e7d6779	0.24746503
101	0x3dfe74d9	0.12424631
102	0xbd738b7a	-0.059459187
103	0xbe31ff68	-0.17382586
104	0x3eb2c1e6	0.34913558
105	0xbebffd89	-0.3749812
106	0xbda711d9	-0.08157701
107	0xbc913921	-0.017727436
108	0xbcc5ed93	-0.024161136
109	0xbe023d1a	-0.12718621
110	0x3d78f5c0	0.06078124
111	0xbccdcf61	-0.0251233
112	0x3dabe561	0.0839336
113	0xbed674e2	-0.4188605
114	0x3cff9edc	0.03120368
115	0x3f2ed71f	0.68297
116	0x3dd5379f	0.104109995
117	0xbd3415fb	-0.043966275
118	0xbf0f0f0a	-0.5588232
119	0x3c94a3c7	0.018144501
120	0x3f4fd120	0.81178474
121	0xbdcf7f3c	-0.1013169
122	0xbd66217f	-0.056184288
123	0x3d84069e	0.06446575
124	0xbc14896d	-0.009065968
125	0xbebc458e	-0.36771816
126	0x3b3faac4	0.0029246071
127	0xbe4444df	-0.19166897

layer2.0.shortcut.1.weight f4 [16]
0	0x3eaedc07	0.34152243
1	0x3f4acc41	0.79217917
2	0x3e640b24	0.22269875
3	0x3e406185	0.18787201
4	0x3eacf9ba	0.33784276
5	0x3ee378ac	0.44428003
6	0x3eb12242	0.3459645
7	0x3f1db089	0.61597496
8	0x3e78886e	0.24270794
9	0x3e852536	0.26004952
10	0x3eeb7796	0.45989674
11	0x3e73ca34	0.23807603
12	0x3e6a9298	0.22907484
13	0x3e1d9563	0.15389018
14	0x3f107e37	0.5644259
15	0x3f1b196e	0.6058568

layer2.0.shortcut.1.bias f4 [16]
0	0xbdd2f09f	-0.10299801
1	0xbdfd7f6a	-0.12377818
2	0xbe3ce624	-0.18447167
3	0x3e9c891a	0.3057335
4	0x3eb38ef6	0.35070008
5	0x3edd40f8	0.4321363
6	0x3f1994f9	0.5999294
7	0x3e5dc4bb	0.21657078
8	0x3eb6aef6	0.3568036
9	0x3ece3bff	0.40280148
10	0xbdac7e91	-0.08422578
11	0x3e19c4cf	0.15016483
12	0xbd97dd11	-0.07415212
13	0x3e8fe9fa	0.28108197
14	0x3c0ba609	0.008523473
15	0x3eb87b21	0.3603144

layer2.0.shortcut.1.running_mean f4 [16]
0	0xbe76a093	-0.24084692
1	0x3b9df52e	0.0048204875
2	0xbf7aa6b9	-0.9791065
3	0xbe9ea166	-0.30982512
4	0x3d21b1c1	0.03947616
5	0xbf9b099d	-1.2112309
6	0x3fb02087	1.3759927
7	0x3f50cbce	0.8156098
8	0xbf45ec67	-0.77313846
9	0xbf95c284	-1.1699986
10	0xbf0c80ee	-0.5488423
11	0x3f1f666a	0.62265646
12	0x3e43f15c	0.1913504
13	0xbe001b92	-0.12510517
14	0xbe893cee	-0.26804298
15	0x3f13dd1b	0.57759255

layer2.0.shortcut.1.running_var f4 [16]
0	0x3e7e2d87	0.24822055
1	0x3eb1ab73	0.34701118
2	0x3ddbe361	0.107367285
3	0x3e12f821	0.14352466
4	0x3e82e003	0.25561532
5	0x3ee07130	0.43836355
6	0x3edeb0ba	0.43494207
7	0x3f0e58b6	0.5560411
8	0x3e1defee	0.15423557
9	0x3e7dab4d	0.24772377
10	0x3e966022	0.2937022
11	0x3e272fcb	0.16326825
12	0x3dd9cb1e	0.10634445
13	0x3e50cba4	0.20390183
14	0x3ecf5bf0	0.4049983
15	0x3f09d5e7	0.53842014

layer3.0.conv1.weight f4 [32, 16, 3, 3]
0	0x3c40270e	0.011728061
1	0x3cc78eaa	0.02436002
2	0x3c3b975d	0.011449662
3	0x3d360dac	0.044446632
4	0x3d799775	0.060935456
5	0x3d2c4166	0.042054556
6	0x3ca2a1ca	0.019852538
7	0x3d4a803c	0.0494387
8	0x3dad0a15	0.084491886
9	0x39ceb08c	0.0003942292
10	0x3cc527e3	0.024066871
11	0x3dd52b54	0.10408655
12	0x3d4537f3	0.04814906
13	0x3e33e12c	0.17566365
14	0x3e792c75	0.24333365
15	0x3daeb0d1	0.08529819
16	0x3e103cca	0.14085689
17	0x3dd64d00	0.10463905
18	0xbe00dff4	-0.12585431
19	0xbda2bf39	-0.07946629
20	0xbd8e16c3	-0.06937935
21	0xbe0e0703	-0.13869862
22	0xbdd9d4fe	-0.10636328
23	0xbcd25df5	-0.025679568
24	0xbdafbcc0	-0.08580923
25	0xbd455200	-0.048173904
26	0x3c650e80	0.013980508
27	0x3c920fcf	0.017829804
28	0x3d6927ab	0.056922596
29	0xbc18251c	-0.009286191
30	0xbd4157e9	-0.04720298
31	0x3d906463	0.07050397
32	0x3e12dd3b	0.14342205
33	0xbddc35b8	-0.107524335
34	0xbd173137	-0.03691217
35	0x3e0ba94f	0.13638805
36	0x3cb9e6e1	0.0226931
37	0xbda9df38	-0.08294529
38	0xbe424860	-0.18972921
39	0x3da85b41	0.0822053
40	0x3d058155	0.032594044
41	0xbe5bdf86	-0.21471986
42	0x3da109b8	0.07863182
43	0xbcb06b56	-0.021535557
44	0xbe65c8e8	-0.22439921
45	0xbdd0a6e2	-0.1018808
46	0xbd66ef3f	-0.056380507
47	0x3d7261c2	0.05917526
48	0xbd1aa5d1	-0.03775579
49	0x3e0227f5	0.12710555
50	0x3e1a1160	0.1504569
51	0x3c70195c	0.014654484
52	0x3e41bc21	0.18919422
53	0x3e408cb1	0.1880367
54	0xbc3b820a	-0.011444578
55	0x3d337e09	0.04382137
56	0x3e12aed4	0.14324504
57	0x3d993443	0.07480671
58	0x3e828651	0.254931
59	0x3eb4212e	0.35181564
60	0xbd15fbfc	-0.036617264
61	0x3e21a910	0.15787148
62	0x3de1acf0	0.11019313
63	0x3dda2652	0.1065184
64	0x3d64daac	0.055872604
65	0x3da8a018	0.082336605
66	0x3c7c897d	0.015413639
67	0x3ccd2cb8	0.025045738
68	0x3e045e68	0.12926638
69	0xbd3959f0	-0.045251787
70	0xbd2355f9	-0.03987691
71	0x3d1f96c0	0.038962126
72	0xbc846b71	-0.016164513
73	0xbdbe9c9e	-0.09307216
74	0xbde1945a	-0.11014624
75	0xbd406472	-0.046970792
76	0xbcb6500e	-0.02225497
77	0xbd814d01	-0.063135155
78	0xbda7265f	-0.081616156
79	0xbe4e29b8	-0.20133102
80	0xbe375397	-0.1790298
81	0x3d34d3e0	0.044147372
82	0xbd84a386	-0.06476502
83	0xbd85e3eb	-0.065376125
84	0x3e3fa703	0.18716054
85	0x3e5181fd	0.20459743
86	0x3d2a08ef	0.041512426
87	0x3dc854fe	0.09781836
88	0x3d3ba8ad	0.04581516
89	0xbd14cdce	-0.036329083
90	0x3d1934c4	0.037403837
91	0x3db16fb8	0.08663887
92	0x3dc1b6d5	0.094587006
93	0x3d31ea8e	0.04343658
94	0x3dad55f0	0.08463657
95	0x3d34fba1	0.044185285
96	0x3d84b1a1	0.064791925
97	0x3dcbd70c	0.09953126
98	0x3ac2e998	0.0014870642
99	0xbdf1644a	-0.11786707
100	0xbe8d47ad	-0.27593747
101	0xbe1e4b2b	-0.15458362
102	0xbe1c2da4	-0.15251786
103	0xbeb0afb8	-0.34509063
104	0xbe95fa79	-0.29292658
105	0xbd5b2641	-0.05350328
106	0xbe809816	-0.25116032
107	0xbe636bdc	-0.22209114
108	0x3d616de1	0.05503643
109	0x3e112be5	0.141769
110	0x3e1369d3	0.14395837
111	0x3e227a03	0.15866856
112	0x3e160ac5	0.14652546
113	0x3e579b83	0.21055417
114	0x3e2a09d3	0.1660531
115	0x3e370e74	0.17876607
116	0x3e098858	0.13430917
117	0xbddafa4a	-0.1069227
118	0x3ca931b8	0.02065359
119	0x3cbff432	0.023431871
120	0xbe058e2e	-0.13042518
121	0x3d83a82c	0.064285606
122	0x3df72b99	0.120688625
123	0xbe28e457	-0.16493355
124	0xbd09f0e1	-0.033676986
125	0x3d42db60	0.047572494
126	0xbe2ebfe5	-0.1706539
127	0xbdf80d1a	-0.12111874
128	0x3d3c1833	0.045921516
129	0xbe317b6c	-0.17332238
130	0xbe2d9928	-0.16952956
131	0xbe095794	-0.13412315
132	0xbda2f582	-0.07956983
133	0xbe0b5a3f	-0.13608645
134	0xbd90f45f	-0.0707786
135	0xbdd8b6bd	-0.105817296
136	0x3d3c513e	0.045975916
137	0x3db8b344	0.09018567
138	0xbe24d599	-0.16097106
139	0xbe1d99c1	-0.15390684
140	0xbd86b0aa	-0.06576665
141	0x3d22ba54	0.039728478
142	0x3d874296	0.06604497
143	0xbbfa7850	-0.007643737
144	0xba8806c5	-0.0010377994
145	0xba5b3754	-0.00083624315
146	0x3c5bfed0	0.013427451
147	0xbc859979	-0.016308533
148	0xbdcd1517	-0.10013788
149	0xbd2c5e9e	-0.04208242
150	0x3cff9e2b	0.03120335
151	0x3d23b792	0.03996999
152	0x3d6cc23d	0.057802428
153	0xbd3f034f	-0.046634015
154	0xbd5d1cd4	-0.05398257
155	0xbc8635a3	-0.016382998
156	0xbd62dcb6	-0.055386268
157	0xbde7a5e5	-0.11310939
158	0xbc9c0089	-0.019043224
159	0x3d2cd8ee	0.042199068
160	0x3c1ed9c4	0.009695474
161	0x3d844f11	0.06460393
162	0xbc5ed665	-0.01360092
163	0xbe7c0ea5	-0.24614961
164	0xbe8d3862	-0.2758208
165	0xbb6bac5e	-0.0035960893
166	0xbec6f32c	-0.388574
167	0xbebaa1f9	-0.364517
168	0x3cfe28b1	0.031025263
169	0xbe630d6c	-0.22173089
170	0xbe2f1053	-0.17096071
171	0x3c0b2177	0.008491865
172	0xbd36867b	-0.044561844
173	0xbddf323d	-0.10898254
174	0xbddf6077	-0.10907071
175	0xbdbaf3ae	-0.091285095
176	0x3daaf601	0.08347703
177	0xbe1c105c	-0.15240616
178	0xbd5cbf50	-0.053893387
179	0x3e2a7b51	0.16648604
180	0xbdab332a	-0.08359368
181	0xbe24e6d5	-0.1610368
182	0x3c0a34fe	0.008435486
183	0xbdb86066	-0.090027615
184	0xbd418f6c	-0.04725592
185	0x3c80fa0c	0.015744232
186	0xbbb7dcbc	-0.0056110304
187	0xbccddf30	-0.025130838
188	0x3dc4ba9f	0.09605908
189	0xbe1a7069	-0.15081944
190	0x3d23bcc8	0.039974958
191	0xbc8c2396	-0.017106812
192	0x3cade379	0.021226631
193	0x3d54f84b	0.051994603
194	0xbe1352b1	-0.14387013
195	0x3e0a8b88	0.1352979
196	0x3c605c1c	0.013693836
197	0xbe93a899	-0.28839567
198	0x3e2814b0	0.16414142
199	0x3e231bd9	0.15928592
200	0x3e25a162	0.16174844
201	0x3e060adb	0.13090079
202	0x3de548df	0.1119554
203	0x3e23205c	0.15930313
204	0xbd9f9ff2	-0.07794179
205	0xbe499774	-0.19686681
206	0xbe3c12d8	-0.18366563
207	0x3d1c3110	0.038132727
208	0xbe23ed8b	-0.16008584
209	0xbdf61082	-0.12014867
210	0xbd21b753	-0.039481472
211	0xbe9d4b1e	-0.30721372
212	0xbe67fd83	-0.22655301
213	0x3cde044c	0.027101658
214	0xbe40e0c3	-0.1883574
215	0xbe05a495	-0.13051064
216	0xbd541c8f	-0.051785048
217	0xbe8a3e03	-0.27000436
218	0xbe19a5a7	-0.15004598
219	0xbd6e489d	-0.05817472
220	0xbe8b3134	-0.27185977
221	0xbded3b9a	-0.11583634
222	0x3dbc9ec6	0.09209971
223	0xbdd961b8	-0.106143415
224	0x3cda7f9a	0.026672173
225	0x3dea67ed	0.114456035
226	0x3d9ea8c9	0.07747037
227	0xbe14dcca	-0.1453735
228	0x3e1847c4	0.14871126
229	0x3e9be271	0.304462
230	0x3d84af5b	0.06478759
231	0xbdd3a60a	-0.10334404
232	0x3d3769bd	0.044778574
233	0xbdfb8017	-0.122802906
234	0xbda31535	-0.07963029
235	0xbdaa22a3	-0.08307388
236	0x3bd16fa1	0.006391481
237	0xbe2404a2	-0.16017392
238	0xbe520e27	-0.20513211
239	0xbd3e8564	-0.04651393
240	0xbd007c5e	-0.031368606
241	0xbad2206f	-0.0016031394
242	0x3dcd4415	0.10022751
243	0xbcdaec3c	-0.026723973
244	0x3d980f00	0.07424736
245	0xbd8ebd96	-0.069697544
246	0x3b01ec17	0.0019824558
247	0x3e237625	0.15963037
248	0xbd21b774	-0.039481595
249	0xbd52b109	-0.051438365
250	0x3dc5a5ba	0.096507505
251	0x3c02c523	0.007981571
252	0x3c84d67a	0.016215552
253	0x3ddf1765	0.10893134
254	0x3d023c17	0.031795587
255	0x3d955a47	0.0729261
