kd_results/KD_seed-2_cycles-1_KDfrac-0.5_T-2_cifar100-ResNet10_smodel_best.pth.tar (torch, 717977 bytes, 100 tensors)

conv1.weight f4 [8, 3, 3, 3]
0.10838983 -0.28819957 0.08800378 0.010473851 -0.73398405 -0.1243182 0.31484327 -0.09735765
0.11105667 0.12038532 0.016568186 0.22049414 0.095365874 -0.49131244 -0.034383748 0.23057953
0.045714416 0.1251275 -0.033651352 -0.060970496 0.031381536 -0.049784742 -0.47404 -0.18444557
0.2047756 0.065391876 0.13516437 0.0032711544 -0.3326114 -0.17307638 -0.5807109 -0.60356265
-0.33406746 -0.28404403 -0.38365963 -0.3148057 0.23567766 -0.098730125 0.19213435 -0.1259381
-0.14249904 0.16206391 -0.0077112825 -0.11216669 -0.14454731 0.29309803 -0.023728611 0.2630635
0.3460709 0.3807598 0.57405406 0.5388615 0.48091274 0.2901603 -0.3735964 0.121005096
-0.07312422 -0.56013197 0.662768 1.1017019 -0.76559633 0.31007004 0.84580106 0.042125545
0.009984355 -0.2792261 0.028785467 0.022243854 -0.28032526 0.29320398 0.052044638 -0.09219633
0.24103777 0.056676436 0.5011183 0.29065135 -0.72058684 -0.8303201 0.80374277 -0.66941226
-0.86363614 -0.058554098 0.110147886 -0.094350375 0.23311771 1.5072982 0.20927791 -0.37036225
-1.3560894 -0.15674625 -0.049584255 0.08479246 -0.09563655 0.28032923 1.4258159 0.15801698
-0.26011568 -1.5743629 -0.09673817 0.0009323245 0.014373443 -0.06524018 0.26728836 1.0655252
0.083188646 -0.14216392 -1.0413451 -0.13241751 0.0035943692 0.1747487 -0.12809888 0.38679793
0.6528175 0.5763913 -0.035882305 0.53474444 0.16861033 0.05829652 0.18032727 -0.03625641
-0.49074695 -1.252897 -0.52419853 -0.5474836 -0.9744678 -0.5903427 -0.2612731 0.09408635
-0.17205046 0.31683952 0.077555515 0.34679896 0.48924235 0.6376988 0.49140722 -0.02460905
-0.007091613 -0.0055929627 -0.8288714 1.1774787 -0.1096405 -0.07367688 0.02563928 -0.037732154
-0.02161855 0.059505776 0.037413236 -1.6243175 1.6268697 -0.024153588 -0.15244393 0.15113008
-0.046193853 -0.043312494 0.054456297 -0.055238236 -1.2130578 1.2415031 -0.030038467 -0.21919593
0.18140528 0.06785119 -0.04073885 -0.24922162 0.046071652 -0.23824725 1.0415003 0.0054663224
0.038358115 -0.19562055 0.027430631 -0.029469369 -0.3362084 -0.10889166 -0.20690164 1.4675558
-0.35607156 -0.03852805 -0.26631233 0.024266869 0.004058856 -0.2031479 0.09113947 -0.21370845
0.9924238 -0.17475091 -0.02019942 -0.13950896 0.1440817 0.105364755 0.055439234 0.14160125
-0.41422915 -0.5471458 0.07006004 -0.22039038 -0.39553398 0.047856323 0.0029308326 -0.059887543
-0.051339436 -0.29497296 -0.46521702 0.058712363 -0.13247365 -0.35763237 -0.054902907 0.05122607
-0.042580526 0.026202282 -0.395663 -0.59163487 -0.021450013 -0.24817482 -0.492236 -0.09866021
00000000: 7dfb dd3d e58e 93be 533b b43d 849a 2b3c
00000010: 61e6 3bbf 8a9a febd 2333 a13e 7363 c7bd
00000020: ae71 e33d 948c f63d 01ba 873c 37c9 613e
00000030: 2f4f c33d 4e8d fbbe f9d5 0cbd 0a1d 6c3e
00000040: 0a3f 3b3d 6c21 003e 00d6 09bd 33bc 79bd
00000050: ed89 003d 16eb 4bbd 5fb5 f2be 4ddf 3cbe
00000060: b2b0 513e 2dec 853d 8768 0a3e dd60 563b
00000070: 0b4c aabe ef3a 31be 78a9 14bf 1583 1abf
00000080: e40a abbe 386e 91be 096f c4be 362e a1be
00000090: 7c55 713e 0533 cabd debe 443e ebf5 00be
000000a0: 45eb 11be 15f4 253e edae fcbb a6b7 e5bd
000000b0: 3604 14be f210 963e 8162 c2bc 42b0 863e
000000c0: 3430 b13e f3f2 c23e 35f5 123f d4f2 093f
000000d0: 323a f63e e48f 943e 0748 bfbe 85d1 f73d
000000e0: 27c2 95bd cf64 0fbf 2aab 293f 9104 8d3f
000000f0: 1ffe 43bf 80c1 9e3e 6b86 583f d68b 2c3d
00000100: 6c95 233c b9f6 8ebe 80cf eb3c be38 b63c
00000110: cb86 8fbe d51e 963e c22c 553d 6ed1 bcbd
00000120: 9bd2 763e 8d25 683d 4a49 003f 41d0 943e
00000130: 6178 38bf dc8f 54bf 16c2 4d3f 9a5e 2bbf
00000140: 4217 5dbf 6cd6 6fbd 3795 e13d c53a c1bd
00000150: 69b6 6e3e 26ef c03f f34c 563e 1fa0 bdbe
00000160: 5694 adbf 1782 20be dc18 4bbd aba7 ad3d
00000170: 18dd c3bd 5087 8f3e 2381 b63f 34cf 213e
00000180: e22d 85be b984 c9bf a91e c6bd 3d67 743a
00000190: 977e 6b3c a59c 85bd 05da 883e 2163 883f
000001a0: cf5e aa3d 6b93 11be cc4a 85bf 7598 07be
000001b0: 828f 6b3b 53f1 323e 5a2c 03be 610a c63e
000001c0: 0c1f 273f 618e 133f 53f9 12bd 03e5 083f
000001d0: 30a8 2c3e 55c8 6e3d b6a7 383e 9a81 14bd
000001e0: 2f43 fbbe ee5e a0bf e031 06bf e327 0cbf
000001f0: b976 79bf b320 17bf 96c5 85be 58b0 c03d
00000200: ff2d 30be ca38 a23e 6dd5 9e3d a28f b13e
00000210: f97d fa3e 3b40 233f ba99 fb3e eb98 c9bc
00000220: c360 e8bb 2c45 b7bb eb30 54bf 9fb7 963f
00000230: 338b e0bd e7e3 96bd 7809 d23c 088d 1abd
00000240: 6319 b1bc 54bc 733d 9f3e 193d a3e9 cfbf
00000250: 443d d03f bfdd c5bc 431a 1cbe d8c1 1a3e
00000260: c435 3dbd 7168 31bd 910d 5f3d 7d41 62bd
00000270: 7a45 9bbf 93e9 9e3f 3b13 f6bc e674 60be
00000280: 4ec2 393e 91f5 8a3d c8dd 26bd f433 7fbe
00000290: a1b5 3c3d 16f7 73be e24f 853f d61e b33b
000002a0: 661d 1d3d c150 48be 34b6 e03c bf69 f1bc
000002b0: 8223 acbe 9702 dfbd 06de 53be ded8 bb3f
000002c0: 034f b6be 97cf 1dbd 175a 88be 50cb c63c
000002d0: 2700 853b 0106 50be 55a7 ba3d 63d6 5abe
000002e0: 7c0f 7e3f e7f1 32be 4179 a5bc 70db 0ebe
000002f0: 278a 133e 7ac9 d73d 4014 633d ebff 103e
00000300: d815 d4be bf11 0cbf a37b 8f3d 04ae 61be
00000310: 6e83 cabe fe04 443d 3613 403b a44c 75bd
00000320: 4d49 52bd b206 97be ed30 eebe 607c 703d
00000330: 2ca7 07be 971b b7be dfe1 60bd 6dd2 513d
00000340: eb68 2ebd 2ba6 d63c 5794 cabe 6275 17bf
00000350: f0b7 afbc 8a21 7ebe 5b06 fcbe 5d0e cabd

bn1.weight f4 [8]
0.5329419 0.29567006 0.22647668 0.5449265 0.25746045 0.6643613 0.43024442 1.4385349
00000000: e16e 083f 1162 973e 81e9 673e 4e80 0b3f
00000010: dbd1 833e 9513 2a3f ff48 dc3e e921 b83f

bn1.bias f4 [8]
-0.44763303 0.09031751 0.14135697 0.17479844 0.6719741 0.2484504 0.5327174 -1.6895475
00000000: 2830 e5be 63f8 b83d e2bf 103e 5dfe 323e
00000010: 7f06 2c3f c869 7e3e 2b60 083f 1843 d8bf

bn1.running_mean f4 [8]
0.22708938 0.39676085 -0.12705354 -0.00019719271 0.0945261 -0.062352374 -0.36149383 1.4092289
00000000: 1e8a 683e 3d24 cb3e 531a 02be 84c5 4eb9
00000010: e696 c13d 3465 7fbd b815 b9be 9d61 b43f

bn1.running_var f4 [8]
1.4357775 3.4575596 1.137309 6.053376 1.4392021 4.3404875 2.4981291 20.547974
00000000: 8fc7 b73f a848 5d40 5793 913f 42b5 c140
00000010: c637 b83f 46e5 8a40 59e1 1f40 4062 a441

layer1.0.conv1.weight f4 [8, 8, 3, 3]
0.124281324 -0.6836424 0.54894936 -0.054703906 -0.16352035 0.42380986 -0.035523746 0.027336687
0.3103671 0.107079126 -0.15223251 0.09648316 -0.1521384 -0.08122377 -0.031576373 0.02499731
0.13653456 0.05447448 -0.022247575 -0.115660354 0.09773574 -0.07010025 -0.15701814 0.22605664
0.048345447 -0.07494526 0.13863173 -0.27959865 0.28704894 -0.2885345 -0.07145781 -0.08994885
0.062336747 -0.006417986 0.060605515 0.036881186 0.005688595 0.19623262 -0.097985156 -0.112618715
0.15213113 -0.2294245 0.008511408 0.07986715 0.009442576 -0.17525545 -0.5390744 0.29734385
0.08367699 -1.3745092 1.4672909 -0.14504902 -0.64204204 0.7860292 0.29620117 -0.095317885
0.030547298 0.7318666 -0.92855656 0.13394491 0.44790345 -0.69338423 0.043808404 -0.008972091
0.3178093 -0.19772537 -0.19086887 0.31574216 -0.26909488 -0.05810479 0.28447905 -0.094276525
0.084646694 0.20288414 0.28525642 -0.20352545 -0.49007475 -0.40758815 0.22977847 -0.0760594
0.2177077 0.19067638 0.004265389 0.016687261 -0.1672153 -0.023921624 0.054389957 0.065084346
0.1724465 -0.065363094 -0.080202065 0.12012352 -0.015351744 0.008110456 0.059017222 0.054350164
0.2185525 0.018001538 -0.10407068 0.028097104 -0.014869374 0.2071275 -0.14375873 -1.8459123
-0.34683248 0.0687273 -0.14915995 0.011521101 -0.096854925 0.09921406 0.02173367 -0.027310967
0.28619325 -0.03280841 -0.09265919 0.044491716 -0.06772715 0.023349088 -0.09789704 -0.14097922
-0.036389507 -0.17214467 0.3765133 0.033156347 0.26215994 -0.14902999 -0.13376945 0.19842042
-0.18740165 -0.045003984 -1.0554006 -0.22877418 0.18523331 0.78101224 0.18826383 -0.015348341
0.22478937 0.14550719 0.17398988 0.31808603 0.48884463 -0.13069835 -0.4517126 -0.3677066
0.29419217 0.061097823 0.17411666 -0.15740928 -0.16221152 0.11509217 -0.18258896 -0.24390532
0.10504499 -0.1447451 -0.10285117 0.02933757 -0.15363444 -0.01120879 0.012409357 0.04829185
0.13914874 -0.019384285 -0.09875775 -0.041971777 0.0916157 -0.014625485 -0.011362232 0.08999316
0.04406355 0.019245032 -0.13412283 -0.104283884 0.29914254 -0.07250857 0.37932214 -0.1660331
-0.0437019 -0.030789576 -0.16003628 -0.10828016 -0.14440443 0.14234807 0.021922825 -0.0010197012
0.18186325 0.09359308 -0.12849276 -0.017547524 -0.15511501 -0.071835116 -0.10166307 -0.024955707
-0.21374631 -0.9739488 0.024385279 0.017635278 -0.20993479 -0.16628654 0.29500875 -0.35519624
-0.18577006 0.901217 -0.63679934 0.10664136 0.14856468 -0.08323147 -0.028571153 0.03833758
0.33259097 0.2849342 -0.24320675 0.041268807 -0.03651014 0.06512563 0.11788368 0.12739077
-0.16298103 0.08912246 -0.11008454 -0.008266256 0.11299167 -0.032969836 -0.05456994 0.026720116
-0.0111511815 -0.07892605 -0.2922369 -0.5466952 0.14999525 -0.013458127 -0.1986335 0.26093787
0.3653878 0.3324581 0.54774386 1.0731175 0.79300064 0.15082332 0.50254005 0.32081845
-0.6361151 -0.73805624 -0.5337081 0.06986216 0.24255843 -0.37957233 0.02585978 -0.09103721
0.020525975 0.091472454 -0.0588615 -0.05804309 0.17902948 0.057920434 -0.54674006 0.28385228
00000000: 3587 fe3d 3003 2fbf f287 0c3f 3411 60bd
00000010: e171 27be 9bfd d83e 5981 11bd 30f1 df3c
00000020: 70e8 9e3e 4d4c db3d d7e2 1bbe f798 c53d
00000030: 2bca 1bbe a658 a6bd 3a56 01bd 29c7 cc3c
00000040: b7cf 0b3e a220 5f3d 8c40 b6bc 56df ecbd
00000050: ad29 c83d b890 8fbd 5dc9 20be 647b 673e
00000060: e005 463d e77c 99bd 7af5 0d3e 8e27 8fbe
00000070: 14f8 923e cbba 93be 7958 92bd 1a37 b8bd
00000080: d154 7f3d f84d d2bb 7d3d 783d ba10 173d
00000090: 6567 ba3b 34f1 483e 71ac c8bd a4a4 e6bd
000000a0: 43c8 1b3e 42ee 6abe 6f73 0b3c 6391 a33d
000000b0: 09b5 1a3c 2a76 33be c800 0abf 743d 983e
000000c0: d75e ab3d ebef afbf 30d0 bb3f bb87 14be
000000d0: de5c 24bf 3639 493f aea7 973e 0636 c3bd
000000e0: 543e fa3c 9c5b 3b3f e2b5 6dbf db28 093e
000000f0: 9a53 e53e a181 31bf 7170 333d adff 12bc
00000100: e7b7 a23e 8578 4abe 2173 43be f5a8 a13e
00000110: cec6 89be 4aff 6dbd 3da7 913e 0d14 c1bd
00000120: 3f5b ad3d dcc0 4f3e 210d 923e fa68 50be
00000130: 14eb fabe 65af d0be 0c4b 6b3e 08c5 9bbd
00000140: c4ee 5e3e ab40 433e adc4 8b3b b9b3 883c
00000150: 7d3a 2bbe 48f7 c3bc 01c8 5e3d f14a 853d
00000160: d195 303e 16dd 85bd fb40 a4bd 5203 f63d
00000170: e285 7bbc b8e1 043c 0bbc 713d 479e 5e3d
00000180: 3acc 5f3e f677 933c 0223 d5bd e62b e63c
00000190: ad9e 73bc 3b19 543e 7d35 13be db46 ecbf
000001a0: 0794 b1be e6c0 8c3d 63bd 18be 00c3 3c3c
000001b0: e05b c6bd be30 cb3d cf0a b23c 40bb dfbc
000001c0: ec87 923e 1c62 06bd 1ac4 bdbd f23c 363d
000001d0: 88b4 8abd 9646 bf3c 3e7e c8bd db5c 10be
000001e0: 2a0d 15bd b146 30be 5ac6 c03e f3ce 073d
000001f0: d439 863e 519b 18be dcfa 08be b92e 4b3e
00000200: 38e6 3fbe 1956 38bd 5e17 87bf c743 6abe
00000210: cdad 3d3e 6bf0 473f 3cc8 403e 9c77 7bbc
00000220: 2f2f 663e d6ff 143e 672a 323e 2cdc a23e
00000230: d849 fa3e cad5 05be e046 e7be 0a44 bcbe
00000240: 5ba0 963e b641 7a3d a34b 323e e62f 21be
00000250: c71a 26be 72b5 eb3d 9af8 3abe 51c2 79be
00000260: d421 d73d 0f38 14be a2a3 d2bd 5855 f03c
00000270: 5952 1dbe 13a5 37bc 9e50 4b3c adcd 453d
00000280: 027d 0e3e cbcb 9ebc 8141 cabd 99ea 2bbd
00000290: 03a1 bb3d bb9f 6fbc a828 3abc 554e b83d
000002a0: fb7b 343d c2a7 9d3c 7f57 09be ca92 d5bd
000002b0: 3629 993e 607f 94bd 8336 c23e 9504 2abe
000002c0: c300 33bd 6c3a fcbc 8de0 23be fdc1 ddbd
000002d0: c1de 13be b1c3 113e 7f97 b33c 7fa7 85ba
000002e0: 5c3a 3a3e bbad bf3d 9b93 03be d3bf 8fbc
000002f0: 78d6 1ebe 4a1e 93bd ba34 d0bd e96f ccbc
00000300: 50e0 5abe b554 79bf a3c3 c73c dc77 903c
00000310: 25f9 56be 0547 2abe 630b 973e 48dc b5be
00000320: 823a 3ebe 28b6 663f 4805 23bf c966 da3d
00000330: 5721 183e 4375 aabd 0d0e eabc de07 1d3d
00000340: 5d49 aa3e e5e2 913e 310b 79be 7b09 293d
00000350: a88b 15bd 9660 853d 006d f13d ba72 023e
00000360: 80e4 26be d685 b63d 0174 e1bd 316f 07bc
00000370: 2d68 e73d 610b 07bd bb84 5fbd 25e4 da3c
00000380: 72b3 36bc fba3 a1bd 13a0 95be 37f4 0bbf
00000390: 5b98 193e 7a7f 5cbc 9566 4bbe a699 853e
000003a0: 1c14 bb3e f337 aa3e f138 0c3f ea5b 893f
000003b0: 1702 4b3f 6e71 1a3e 77a6 003f 5142 a43e
000003c0: 70d8 22bf 41f1 3cbf 18a1 08bf e413 8f3d
000003d0: 3d61 783e 4e57 c2be e4d7 d33c b771 babd
000003e0: 1726 a83c e955 bb3d c218 71bd 97be 6dbd
000003f0: 8153 373e fa3d 6d3d 28f7 0bbf 1655 913e

layer1.0.bn1.weight f4 [8]
0.92645884 1.1351113 0.9179851 0.31743678 1.0972157 0.51830965 0.9024722 0.37156153
00000000: 682c 6d3f 544b 913f 1201 6b3f 1387 a23e
00000010: 9071 8c3f f1af 043f 6b08 673f 503d be3e

layer1.0.bn1.bias f4 [8]
-0.052794553 0.38801706 -0.038709555 0.3279005 -1.4699383 0.42429528 0.24465925 0.4558121
00000000: 1a3f 58bd 2caa c63e e98d 1ebd 93e2 a73e
00000010: f026 bcbf 3b3d d93e f487 7a3e 3460 e93e

layer1.0.bn1.running_mean f4 [8]
-0.19862498 -0.52838826 -0.5105089 0.23383938 0.17230155 -0.029849727 -0.57191354 -0.43447417
00000000: 5964 4bbe 7444 07bf b6b0 02bf 9773 6f3e
00000010: d16f 303e 6a87 f4bc ed68 12bf 6673 debe

layer1.0.bn1.running_var f4 [8]
3.176211 1.4053137 0.8692847 0.18999699 0.16351898 0.19156872 0.84015256 0.16832292
00000000: 0b47 4b40 52e1 b33f 7189 5e3f 928e 423e
00000010: 8571 273e 972a 443e 3d14 573f d85c 2c3e

layer1.0.conv2.weight f4 [8, 8, 3, 3]
-0.4474386 -0.43953052 -0.030040903 -0.76452816 -1.0593954 -0.37645012 -0.30375996 -0.92586726
-0.1040323 0.3926695 0.12750557 -0.30831227 0.034560125 0.23586053 -0.268338 -0.28241146
-0.28958467 0.57341534 0.35459074 -0.22721705 0.13327643 0.21429585 -0.03739372 -0.18213259
0.3502127 -0.10712224 -0.24992801 0.19437356 0.006479262 0.06550638 -0.12353103 -0.17369175
-0.0036814702 0.033927906 0.04592205 0.12841642 -0.2820059 0.011822025 0.3000606 -0.2420789
0.096981905 0.16386956 -0.1493157 0.124743 0.2104977 0.014813082 0.17627725 -0.07044639
-0.16734679 -0.23839845 0.14527881 0.29207724 -0.07325207 -0.004066341 0.107304916 -0.29746765
0.092984654 0.48714855 0.08795481 -0.06299532 0.69760185 -0.22943996 -0.34750196 0.033709858
-0.08613271 -0.12632062 0.11858191 -0.005835391 0.4240552 -0.052915778 -0.191687 -0.17154157
0.17495874 -0.04972829 -0.04851883 -0.06708476 0.1780948 0.09721271 0.082697466 0.16480811
0.07547911 -0.04812442 -0.014182802 -0.069429666 -0.01853332 -0.43557245 -0.19786988 0.054299388
-0.3274016 -0.21043552 -0.08965084 -0.1208152 0.15034215 -0.06076575 0.043348953 0.5917658
-0.18451703 -0.015348298 0.44190484 0.3195857 0.20157973 0.0771557 -0.47022623 -0.12484831
0.22116348 -0.6732214 -0.3721684 0.26883876 -0.22956096 -0.53749126 -0.10215232 -0.28197312
-0.45362636 -0.14331602 0.0016812026 -0.17760803 -0.023799285 0.020644141 -0.06341442 -0.06824402
0.053097382 0.30418918 0.0037146695 0.014191024 -0.15939516 -0.083044656 -0.14016412 -0.029135639
0.14437109 0.06757443 0.031174887 0.071697004 0.21837522 0.17743936 0.022888247 0.20506461
-0.047571298 -0.108523734 0.17738265 -0.01551827 -0.41420278 0.23060063 -0.06556591 -0.2545255
-0.010605698 -0.29003856 -0.1937008 0.28604755 -0.004632245 0.14890598 -0.44573197 0.2437247
-0.2212219 0.08777357 -0.063000925 -0.09255014 1.3727558 -1.3663871 -0.25753716 0.074837424
0.05526301 -0.019457458 0.12380755 -0.3766447 0.07753288 0.23412406 -0.53909296 0.26661515
-0.24084929 0.57327753 -0.19284892 0.04531944 -0.12563121 0.08302965 0.1274436 -0.19777764
-0.053864878 -0.5974275 0.021115495 0.15505946 0.19965123 -0.05575073 0.21820202 -0.0050347317
-0.063418284 0.08084092 -0.023841148 0.050241835 -0.045050353 -0.0033139638 -0.022739714 0.019924086
0.3490759 -0.27256402 -0.12080783 -0.7835846 0.585871 0.007994794 -0.46141696 0.19282974
0.22530946 -0.5288404 0.22337039 0.1740272 1.1755573 -0.41344008 -0.618731 -0.056415275
0.029978268 0.025551971 0.09589324 -0.27292112 0.21317945 -0.11789234 0.55263275 -0.20133258
0.13406235 0.11567395 -0.03308331 0.00016605855 -0.03986662 -0.03206626 -0.19536723 -0.109340385
-0.08321899 -0.07900824 0.3268153 0.051738877 -0.30533427 -1.0285797 -0.5971141 0.12419007
1.077447 0.36354598 -0.08358174 0.023719957 -0.24744777 -0.14339562 -0.47756043 -0.33141384
0.16057742 0.59159166 0.374468 -0.055934478 0.021695565 0.09823452 0.29364446 -0.12048123
-0.20192072 -0.16717887 -0.060997017 0.1593152 0.23548108 0.009215229 0.3802324 0.3046992
00000000: ac16 e5be 250a e1be 5718 f6bc 1eb8 43bf
00000010: 459a 87bf 12be c0be 6d86 9bbe a305 6dbf
00000020: e30e d5bd fa0b c93e d290 023e 1bdb 9dbe
00000030: eb8e 0d3d 6c85 713e 9963 89be 3c98 90be
00000040: 7144 94be 59cb 123f eb8c b53e 96ab 68be
00000050: 9e79 083e 5f70 5b3e 282a 19bd f780 3abe
00000060: 144f b33e e862 dbbd 21ed 7fbe dd09 473e
00000070: fd4f d43b 3528 863d d6fd fcbd 40dc 31be
00000080: d244 71bb fdf7 0a3d c218 3c3d 987f 033e
00000090: 1463 90be 2bb1 413c 8ba1 993e 88e3 77be
000000a0: 739e c63d 6ccd 273e 37e6 18be 4279 ff3d
000000b0: b68c 573e 92b2 723c 0682 343e 3246 90bd
000000c0: f55c 2bbe b91e 74be f8c3 143e 268b 953e
000000d0: 2e05 96bd f13e 85bb aec2 db3d ae4d 98be
000000e0: bd6e be3d 896b f93e a721 b43d b103 81bd
000000f0: 0996 323f 4ff2 6abe c7eb b1be 5913 0a3d
00000100: 5966 b0bd 315a 01be 13db f23d cf36 bfbb
00000110: c31d d93e 37be 58bd 9949 44be 98a8 2fbe
00000120: 6228 333e e4af 4bbd aebb 46bd bc63 89bd
00000130: 7c5e 363e 7517 c73d 4a5d a93d 75c3 283e
00000140: cb94 9a3d 1d1e 45bd fc5e 68bc 2431 8ebd
00000150: 30d3 97bc 5a03 dfbe 679e 4abe 0969 5e3d
00000160: 2fa1 a7be 697c 57be dc9a b7bd f66d f7bd
00000170: 4bf3 193e 82e5 78bd ac8e 313d f77d 173f
00000180: 08f2 3cbe 6d77 7bbc 5a41 e23e bda0 a33e
00000190: eb6a 4e3e cf03 9e3d 7ec1 f0be 79b0 ffbd
000001a0: ae78 623e 3d58 2cbf db8c bebe 3ca5 893e
000001b0: 0712 6bbe 0799 09bf 3c35 d1bd c85e 90be
000001c0: b741 e8be 6fc1 12be cc5b dc3a e1de 35be
000001d0: b8f6 c2bc e71d a93c 6bdf 81bd 85c3 8bbd
000001e0: a47c 593d afbe 9b3e d071 733b 7881 683c
000001f0: 7c38 23be 5113 aabd 2f87 0fbe ddad eebc
00000200: 04d6 133e 7664 8a3d 7a62 ff3c e1d5 923d
00000210: c19d 5f3e aab2 353e 2280 bb3c 75fc 513e
00000220: 1fda 42bd b141 debd cca3 353e 5840 7ebc
00000230: 6312 d4be 9222 6c3e 6b47 86bd 2b51 82be
00000240: 86c3 2dbc ef7f 94be 8159 46be d374 923e
00000250: 16ca 97bb cf7a 183e fb36 e4be f892 793e
00000260: fe87 62be a1c2 b33d a106 81bd ee8a bdbd
00000270: 76b6 af3f c6e5 aebf e9db 83be 5d44 993d
00000280: 775b 623d 3f65 9fbc d08e fd3d 93d7 c0be
00000290: 8fc9 9e3d 38be 6f3e ff01 0abf c881 883e
000002a0: 32a1 76be 51c2 123f 307a 45be e1a0 393d
000002b0: 78a5 00be 730b aa3d 9380 023e 3986 4abe
000002c0: 6ba1 5cbd 02f1 18bf 67fa ac3c e8c7 1e3e
000002d0: 5f71 4c3e e15a 64bd 5a70 5f3e 64fa a4bb
000002e0: 72e1 81bd ed8f a53d 834e c3bc 62ca 4d3d
000002f0: b886 38bd 162f 59bb a348 babc d637 a33c
00000300: 14ba b23e 838d 8bbe 186a f7bd 0099 48bf
00000310: a4fb 153f 99fc 023c d83e ecbe 2975 453e
00000320: 86b7 663e 1662 07bf 35bb 643e 3034 323e
00000330: a978 963f 6bae d3be 2865 1ebf b413 67bd
00000340: fc94 f53c 5e52 d13c ad63 c43d 51bc 8bbe
00000350: b74b 5a3e 8a71 f1bd 5779 0d3f 212a 4ebe
00000360: a447 093e 77e6 ec3d 5d82 07bd 0120 2e39
00000370: 2e4b 23bd e957 03bd 590e 48be daed dfbd
00000380: b86e aabd 12cf a1bd 5654 a73e 25ec 533d
00000390: c654 9cbe 80a8 83bf 78dc 18bf 5d57 fe3d
000003a0: c9e9 893f b322 ba3e e72c abbd 5b50 c23c
000003b0: f362 7dbe 4dd6 12be cd82 f4be 13af a9be
000003c0: 686e 243e 8d72 173f 45ba bf3e 8d1b 65bd
000003d0: e6ba b13c 2e2f c93d 9158 963e ddbe f6bd
000003e0: 4ec4 4ebe f030 2bbe 02d8 79bd 8623 233e
000003f0: f421 713e 79fb 163c d2ad c23e 8901 9c3e

layer1.0.bn2.weight f4 [8]
1.765298 0.7984345 1.7524629 1.1744572 0.4317794 0.7790291 0.5717085 1.0281631
00000000: 49f5 e13f 3466 4c3f b450 e03f 9d54 963f
00000010: 3112 dd3e 736e 473f 7d5b 123f d99a 833f

layer1.0.bn2.bias f4 [8]
0.27157247 0.8526136 -0.29354322 -0.30593508 0.5107162 0.8960515 0.8377168 0.7465311
00000000: 8c0b 8b3e e344 5a3f 4c4b 96be 86a3 9cbe
00000010: 4cbe 023f a263 653f 9c74 563f aa1c 3f3f

layer1.0.bn2.running_mean f4 [8]
-0.344101 -0.7978913 -0.3898439 -0.11952811 0.047697 1.2980022 -0.63108945 -0.521777
00000000: 022e b0be 9b42 4cbf 9f99 c7be 27cb f4bd
00000010: ee5d 433d f024 a63f 148f 21bf 2d93 05bf

layer1.0.bn2.running_var f4 [8]
2.924095 1.0316372 1.9826428 1.2147025 0.39236918 0.7649088 0.7984273 1.1509964
00000000: 5f24 3b40 b00c 843f 3dc7 fd3f 5f7b 9b3f
00000010: 9de4 c83e 10d1 433f bb65 4c3f da53 933f

layer2.0.conv1.weight f4 [16, 8, 3, 3]
-0.008487425 0.15637165 -0.44077072 0.25236884 0.10149277 0.1028473 -0.08764464 0.16410445
0.112796076 0.04501872 0.25484714 0.1816042 -0.24148205 -0.013536499 0.043582786 0.009300901
-0.27397 0.020467183 -0.025429785 0.07779199 0.19603407 -0.026551908 -0.08599074 0.09970322
0.021537911 -0.056388058 0.046869837 -0.16677544 -0.0135575645 0.03800002 -0.10179584 -0.24227466
-0.033674795 -0.015396379 0.0056650713 -0.088506386 -0.020571318 -0.0433956 0.11680225 0.048059124
0.0021332912 0.018072652 -0.17298852 0.082943775 0.057043415 -0.12602615 -0.4472276 0.10775931
0.16261363 -0.07198167 -0.36842138 0.09253604 0.3282104 0.09463294 -0.1712106 -0.1447814
0.23812471 -0.06561549 -0.2681027 -0.31305993 0.19380575 0.13249567 -0.033027522 -0.05402772
-0.14036645 0.054700088 0.14454056 -0.05914141 -0.16652124 0.15083556 0.11730478 -0.07608853
-0.0103006875 -0.075234756 -0.24114095 0.06716981 0.029349398 -0.13373505 0.0017560744 0.06641295
0.085322045 0.14213434 0.19785383 -0.032558072 -0.05661383 -0.013406567 -0.08616975 -0.16626129
-0.11147378 -0.10354167 -0.09178894 -0.16847406 -0.07720393 -0.15031847 -0.24555351 -0.115110815
-0.116365254 -0.10939774 -0.01903347 -0.25797886 -0.3888613 -0.23442176 -0.31152725 -0.40835005
-0.3483363 -0.09377046 -0.18158622 -0.017362101 0.037493758 0.103798665 -0.09073515 -0.00899415
0.12603316 0.009715499 -0.21600857 -0.056848492 -0.027621562 0.019924613 -0.103163384 0.14068267
-0.12140001 -0.22807693 0.039200667 0.10543925 -0.04916206 -0.026384208 -0.065974675 0.08778606
0.16459389 -0.13897595 -0.09537832 -0.07476265 -0.015316842 -0.14802174 -0.25746924 -0.13546601
-0.06630957 -0.12061975 -0.14655328 -0.0028200566 -0.043256473 -0.08020009 -0.14298497 -0.0440527
-0.117433995 0.04482201 0.011666312 -0.01658482 0.33263662 0.06913816 -0.01791353 0.52906954
-0.045322854 -0.10065945 -0.09925813 0.12176351 -0.13480039 0.054096088 0.20471019 -0.14739522
0.079410546 0.32649383 0.0034975961 -0.11014627 -0.22555332 -0.15329544 -0.68629843 -0.8023863
-0.087310016 -0.5973036 -0.56860435 0.14211671 0.025802998 0.13451119 0.14924018 0.045411564
0.04523997 0.0507104 -0.036286343 -0.068601124 0.036742434 0.11303857 -0.048047986 -0.07481285
0.020045012 -0.07622522 0.0065390225 0.10779367 -0.03943451 -0.014560403 -0.043450512 0.13902105
-0.027293677 -0.15631457 0.19789612 0.12692812 -0.30030686 -0.07878271 0.10217995 0.09751081
-0.35022235 0.051224653 0.32901028 -0.17701496 -0.053725213 0.36854792 -0.15921898 -0.115684845
-0.08037775 0.046680298 -0.107598186 0.04155992 0.35455865 0.09934308 -0.061213348 0.017197737
0.03315832 0.16651537 0.09848791 0.13465829 0.3989475 -0.47222623 -0.07613514 -0.3084423
0.012275509 -0.11809323 0.31345305 -0.21888004 0.10304526 0.26356885 -0.15894756 0.11837034
-0.1659194 0.09606046 0.005513474 -0.0926168 0.02836926 -0.047445945 0.10773989 -0.08776924
-0.0017445191 -0.037814956 0.0094689485 0.014504444 0.08117393 -0.019053105 0.042825952 0.14198543
-0.17312367 -0.038746376 -0.108584695 -0.08392167 0.0049438993 -0.026925713 -0.04234923 -0.03304713
00000000: d70e 0bbc e41f 203e b3ac e1be 7d36 813e
00000010: 71db cf3d 9ba1 d23d 087f b3bd ff0a 283e
00000020: a101 e73d 8d65 383d 537b 823e 74f6 393e
00000030: 1247 77be 31c8 5dbc dd83 323d ce62 183c
00000040: cc45 8cbe cbaa a73c 2052 d0bc 6851 9f3d
00000050: 28bd 483e 6383 d9bc ea1b b0bd 3431 cc3d
00000060: 4670 b03c 2af7 66bd 96fa 3f3d 2ec7 2abe
00000070: 8c20 5ebc e9a5 1b3d 567a d0bd d916 78be
00000080: 95ee 09bd 1841 7cbc 10a2 b93b d642 b5bd
00000090: 2e85 a8bc 96bf 31bd 0536 ef3d a5d9 443d
000000a0: b0ce 0b3b 190d 943c e723 31be 6dde a93d
000000b0: 5ba6 693d 000d 01be 04fb e4be eab0 dc3d
000000c0: 3084 263e 206b 93bd baa1 bcbe 8983 bd3d
000000d0: 320b a83e eace c13d d551 2fbe 9341 14be
000000e0: f7d6 733e 6a61 86bd c244 89be 6449 a0be
000000f0: 0475 463e f2ac 073e de47 07bd 2c4c 5dbd
00000100: 39bc 0fbe 330d 603d 7102 143e 433e 72bd
00000110: 8b84 2abe a374 1a3e 7d3d f03d 4ed4 9bbd
00000120: 37c4 28bc ae14 9abd a7ed 76be 5390 893d
00000130: 266e f03c d7f1 08be 142c e63a 8303 883d
00000140: 53bd ae3d aa8b 113e 329a 4a3e 9d5b 05bd
00000150: e7e3 67bd 38a7 5bbc c479 b0bd 6640 2abe
00000160: 5d4c e4bd a80d d4bd d7fb bbbd 7784 2cbe
00000170: 181d 9ebd 16ed 19be 6172 7bbe 38bf ebbd
00000180: e850 eebd ec0b e0bd 14ec 9bbc ce15 84be
00000190: d418 c7be 420c 70be 8080 9fbe 4213 d1be
000001a0: 2359 b2be ba0a c0bd bdf1 39be f73a 8ebc
000001b0: 0e93 193d 6594 d43d 5ad3 b9bd 335c 13bc
000001c0: d60e 013e c22d 1f3c 5a31 5dbe f7d9 68bd
000001d0: 9d46 e2bc f138 a33c 5347 d3bd 1e0f 103e
000001e0: 92a0 f8bd 008d 69be e190 203d 89f0 d73d
000001f0: 285e 49bd b223 d8bc bb1d 87bd 2ec9 b33d
00000200: 4d8b 283e b64f 0ebe b555 c3bd 291d 99bd
00000210: 7ef3 7abc 0393 17be 02d3 83be 9ab7 0abe
00000220: 50cd 87bd 7d07 f7bd 1012 16be b3d0 38bb
00000230: b32d 31bd f23f a4bd a76a 12be 9b70 34bd
00000240: 3c81 f0bd 4997 373d 0f24 3f3c e3dc 87bc
00000250: 594f aa3e 4f98 8d3d 65bf 92bc 1a71 073f
00000260: 75a4 39bd 8b26 cebd d947 cbbd 265f f93d
00000270: 1d09 0abe dc93 5d3d 8c9f 513e c6ee 16be
00000280: ffa1 a23d 332a a73e ed37 653b 5e94 e1bd
00000290: 73f7 66be 7bf9 1cbe 41b1 2fbf 3069 4dbf
000002a0: 98cf b2bd e4e8 18bf 0e90 11bf 0b87 113e
000002b0: cf60 d33c 4dbd 093e 6bd2 183e 7a01 3a3d
000002c0: 8c4d 393d b5b5 4f3d fda0 14bd bf7e 8cbd
000002d0: 3c7f 163d c480 e73d f7cd 44bd 7b37 99bd
000002e0: 7035 a43c f81b 9cbd 4c45 d63b edc2 dc3d
000002f0: 1586 21bd c28e 6ebc 2af9 31bd 895b 0e3e
00000300: fd96 dfbc ed10 20be 48a5 4a3e 72f9 013e
00000310: d2c1 99be d458 a1bd b943 d13d bfb3 c73d
00000320: 5850 b3be f1d0 513d 0974 a83e 6943 35be
00000330: f80e 5cbd 50b2 bc3e 4d0a 23be 2dec ecbd
00000340: 179d a4bd d733 3f3d 705c dcbd bc3a 2a3d
00000350: b688 b53e 6274 cb3d d9ba 7abd 45e2 8c3c
00000360: 05d1 073d 0183 2a3e 08b4 c93d dde3 093e
00000370: d942 cc3e a3c7 f1be beec 9bbd 26ec 9dbe
00000380: 371f 493c ddda f1bd eb7c a03e 1722 60be
00000390: 6509 d33d 7ff2 863e 26c3 22be 266c f23d
000003a0: c6e6 29be 59bb c43d 5faa b43b e0ad bdbd
000003b0: a666 e83c ae56 42bd bba6 dc3d 5cc0 b3bd
000003c0: 59a8 e4ba dbe3 1abd a623 1b3c 0ca4 6d3c
000003d0: 843e a63d 4215 9cbc 446a 2f3d a164 113e
000003e0: 5547 31be 85b4 1ebd a761 debd 20df abbd
000003f0: 6f00 a23b 5093 dcbc 6376 2dbd 6d5c 07bd

layer2.0.bn1.weight f4 [16]
0.6546657 0.3683164 1.0492741 0.7081352 0.5430873 0.82342905 0.47835732 0.49449527
0.48508278 0.42495713 0.68652344 0.48518145 0.49280334 1.0004835 0.5138745 0.54458165
00000000: 2c98 273f f893 bc3e 9d4e 863f 5948 353f
00000010: c507 0b3f 3fcc 523f 40eb f43e 7c2e fd3e
00000020: c55c f83e fb93 d93e 00c0 2f3f b469 f83e
00000030: b850 fc3e d80f 803f 478d 033f b469 0b3f

layer2.0.bn1.bias f4 [16]
-0.09729139 0.8136785 -0.34059036 -0.15389091 0.3783583 -0.25772023 0.47303143 0.42242774
0.1276012 0.6649192 -0.23176506 0.54891884 -0.027967226 -0.36223897 0.23815766 0.29457062
00000000: b540 c7bd 3c4d 503f dc61 aebe 9495 1dbe
00000010: 2eb8 c13e e8f3 83be 2d31 f23e 7348 d83e
00000020: e4a9 023e 2538 2a3f d253 6dbe f285 0c3f
00000030: 861b e5bc 6377 b9be 9adf 733e f6d1 963e

layer2.0.bn1.running_mean f4 [16]
-0.65277666 -3.716245 -0.021048892 -1.3485577 -4.3855476 -0.04619216 -2.5336561 -0.8210957
4.464449 2.4542751 4.7643356 -0.47115874 -0.6330139 -1.472932 0.16712989 -3.1867049
00000000: 5f1c 27bf f5d6 6dc0 ba6e acbc 8a9d acbf
00000010: 6856 8cc0 fe33 3dbd 6c27 22c0 5433 52bf
00000020: c4dc 8e40 d812 1d40 7075 9840 b83b f1be
00000030: 330d 22bf 0989 bcbf 1924 2b3e f9f2 4bc0

layer2.0.bn1.running_var f4 [16]
1.5601909 2.4613318 3.2518833 1.548443 2.9247475 1.6430418 1.9774606 2.0950634
1.2632337 2.1500058 2.063472 3.2224956 0.8866964 3.4697835 2.4703155 2.356976
00000000: 56b4 c73f 7686 1d40 db1e 5040 6133 c63f
00000010: 102f 3b40 324f d23f 6e1d fd3f 8515 0640
00000020: a4b1 a13f b299 0940 ed0f 0440 5e3d 4e40
00000030: 89fe 623f ef10 5e40 a619 1e40 b2d8 1640

layer2.0.conv2.weight f4 [16, 16, 3, 3]
0.051378123 0.02974483 -0.005805977 0.02671211 -0.029101312 0.02334362 -0.06852102 0.004592092
0.07092842 -0.16550444 0.008432355 -0.10370472 -0.12893495 -0.00101046 -0.08691349 -0.27943465
-0.12757969 -0.18460569 -0.050205912 -0.06586077 -0.051181573 0.028580548 0.050042532 -0.03158869
0.056092493 0.043226622 -0.10430621 0.009078717 0.041714974 -0.015770698 -0.04629904 -0.024892408
-0.017180903 -0.08372136 -0.12810804 -0.08453105 -0.06828914 -0.05604722 -0.0077617965 0.03766461
0.0019035316 0.010571731 0.0315168 0.08995807 0.055652384 0.0036224814 -0.075600155 -0.06935728
-0.10386419 -0.065471604 -0.1002425 -0.10195952 -0.06549667 -0.115404695 0.04250801 0.12618276
0.08774775 0.11138259 0.21396968 0.23230153 -0.0015901193 0.057174552 0.15005516 -0.31372267
-0.26663038 -0.39568558 -0.34199297 -0.30079007 -0.35784188 -0.29593414 -0.22533779 -0.22658643
-0.15489389 -0.15858772 -0.23271836 -0.16894628 -0.09801335 -0.07661758 -0.16116165 -0.17126603
-0.053657394 0.116611995 0.18892953 0.2958159 0.45776898 0.55317104 0.3850895 0.3177462
0.307342 0.17319058 -0.094845675 -0.017751431 -0.03063084 -0.114372306 -0.0736189 -0.018059779
-0.104004584 -0.10334965 -0.050374284 -0.027531072 -0.038047276 -0.072917454 0.072096035 0.077370174
0.03165412 0.061452407 0.15351765 -0.016513348 0.036700983 0.055494294 -0.017435577 0.07693208
0.15027674 -0.03309159 0.05825995 0.09802888 0.0205771 0.010510857 -0.023359306 -0.054936342
0.0620816 -0.0031937615 -0.07400447 0.032661088 -0.04210953 -0.009641262 0.06803448 0.052209854
0.06782333 0.05438342 -0.0055631637 -0.032615997 -0.018919455 0.0051122 0.075635046 0.05471877
-0.049244948 0.0012464323 0.04770287 0.13413401 0.08061081 0.061579157 0.07859227 -0.03338058
0.11133711 0.08620323 -0.057095543 0.05315806 -0.03191323 -0.13212648 -0.058339298 -0.10215721
-0.010015522 -0.1895903 0.30456817 0.24111716 -0.12169601 0.20859991 -0.019084834 0.038059764
0.020639792 -0.3494205 0.0028344027 0.025315773 -0.007868788 0.08439962 0.22968905 0.18484554
0.007511713 0.12227632 0.12489707 -0.12159621 -0.13419226 -0.043358583 -0.06043464 -0.072432406
-0.18142529 0.04424676 -0.05959032 -0.16279353 0.023881733 0.10229748 -0.042760473 -0.033988677
0.017963877 -0.21748269 0.048653543 -0.106796086 0.039088804 -0.049698807 -0.044707514 0.0047324416
0.016232423 0.058029663 0.09936549 0.09373631 0.16530073 0.12214514 -0.2123192 -0.09809344
-0.3383034 -0.015483909 -0.3464715 -0.41503608 0.025303785 -0.08953844 -0.21640213 0.03663721
-0.043991964 -0.18684457 0.0479023 0.15614825 -0.15526317 -0.010906537 0.019617 0.094422184
0.1129083 0.0031146547 0.07631039 0.06587073 0.015411753 0.027323391 -0.09792889 0.062132448
-0.051856946 0.04657843 0.072604515 -0.06484065 0.072285496 0.37167796 0.030335115 -0.011244828
0.0449244 0.09378347 0.14855047 0.050950076 -0.04349579 0.3244253 0.18248773 -0.0020646765
0.2138304 0.3087497 0.13297234 0.11127312 0.045339145 -0.2644705 -0.05931432 0.05526207
-0.14689279 -0.07540676 -0.047362745 0.031239755 -0.015825892 -0.08409908 -0.2004463 -0.039245885
00000000: de71 523d 6eab f33c 1140 bebb 5bd3 da3c
00000010: e065 eebc 1f3b bf3c c054 8cbd 4279 963b
00000020: eb42 913d ff79 29be dc27 0a3c 2463 d4bd
00000030: 8607 04be 6971 84ba b3ff b1bd 0f12 8fbe
00000040: 40a4 02be 4609 3dbe b7a4 4dbd 03e2 86bd
00000050: c5a3 51bd c121 ea3c 66f9 4c3d 2463 01bd
00000060: 3ec1 653d 660e 313d 7f9e d5bd e6be 143c
00000070: 52dd 2a3d 8d31 81bc 10a4 3dbd 2aeb cbbc
00000080: f7be 8cbc 1b76 abbd c12e 03be 9d1e adbd
00000090: 2ddb 8bbd c591 65bd ab56 febb 3546 1a3d
000000a0: ec7f f93a 0e35 2d3c c317 013d f03b b83d
000000b0: c1f3 633d 2767 6d3b 41d4 9abd 310b 8ebd
000000c0: c0b6 d4bd fa15 86bd f14b cdbd 27d0 d0bd
000000d0: 1e23 86bd 4c59 ecbd e11c 2e3d 0e36 013e
000000e0: 18b5 b33d 8e1c e43d de1a 5b3e 74e0 6d3e
000000f0: 8d6b d0ba dd2f 6a3d 0fa8 193e 42a0 a0be
00000100: c783 88be 4d97 cabe b419 afbe 2801 9abe
00000110: 0d37 b7be ae84 97be f3be 66be 4606 68be
00000120: 819c 1ebe d264 22be b94d 6ebe 4100 2dbe
00000130: 39bb c8bd aee9 9cbd 8f07 25be 5d60 2fbe
00000140: dbc7 5bbd 45d2 ee3d be76 413e 2f75 973e
00000150: b260 ea3e 9e9c 0d3f 732a c53e a1af a23e
00000160: ee5b 9d3e df58 313e 733e c2bd 736b 91bc
00000170: 87ed fabc 073c eabd 81c5 96bd 1af2 93bc
00000180: 5b00 d5bd fba8 d3bd 4455 4ebd d888 e1bc
00000190: 76d7 1bbd bf55 95bd 16a7 933d 4174 9e3d
000001a0: c0a7 013d 85b5 7b3d bb33 1d3e 0047 87bc
000001b0: c553 163d fc4d 633d 0ed5 8ebc 918e 9d3d
000001c0: 25e2 193e 0c8b 07bd fca1 6e3d 5ec3 c83d
000001d0: 4e91 a83c bb35 2c3c 045c bfbc ee04 61bd
000001e0: 4749 7e3d 6d4e 51bb a88f 97bd a2c7 053d
000001f0: 0b7b 2cbd 62f6 1dbc a955 8b3d 00da 553d
00000200: f5e6 8a3d 26c1 5e3d 334b b6bb 5a98 05bd
00000210: f9fc 9abc 3e84 a73b 8ce6 9a3d ca20 603d
00000220: 12b5 49bd 545f a33a 1664 433d 6d5a 093e
00000230: 4817 a53d 6d3a 7c3d fcf4 a03d 13ba 08bd
00000240: b604 e43d 528b b03d 04dd 69bd 44bc 593d
00000250: 72b7 02bd 2a4c 07be 30f5 6ebd cd37 d1bd
00000260: 2518 24bc f623 42be 5cf0 9b3e 6be7 763e
00000270: c23b f9bd 379b 553e cc57 9cbc 8ee4 1b3d
00000280: c814 a93c 3ee7 b2be 63c1 393b 0663 cf3c
00000290: 17ec 00bc b5d9 ac3d 9b33 6b3e 2648 3d3e
000002a0: d124 f63b 026c fa3d 09ca ff3d 6f07 f9bd
000002b0: b269 09be c598 31bd 508a 77bd 7157 94bd
000002c0: 8dc7 39be 173c 353d fb14 74bd 59b3 26be
000002d0: a0a3 c33c 5781 d13d 9b25 2fbd b637 0bbd
000002e0: fb28 933c c8b3 5ebe f048 473d e8b7 dabd
000002f0: 951b 203d fa90 4bbd 3a1f 37bd 9912 9b3b
00000300: dcf9 843c 83b0 6d3d 2280 cb3d d3f8 bf3d
00000310: 9844 293e 3b27 fa3d 346a 59be 37e5 c8bd
00000320: 1a36 adbe 39b0 7dbc b664 b1be 9c7f d4be
00000330: e249 cf3c ee5f b7bd 8598 5dbe e610 163d
00000340: eb30 34bd 2f54 3fbe 3435 443d 54e5 1f3e
00000350: 4ffd 1ebe 55b1 32bc d5b3 a03c 6b60 c13d
00000360: 773c e73d 3c1f 4c3b 9f48 9c3d 3ce7 863d
00000370: 9481 7c3c 4ed5 df3c f18e c8bd 987e 7e3d
00000380: f367 54bd 06c9 3e3d adb1 943d 2dcb 84bd
00000390: 6b0a 943d 934c be3e 5981 f83c 3a3c 38bc
000003a0: a602 383d 8c11 c03d 9d1d 183e 07b1 503d
000003b0: a428 32bd 131b a63e 10de 3a3e 864f 07bb
000003c0: 5bf6 5a3e 7114 9e3e e729 083e 29e3 e33d
000003d0: 8ab5 393d ad68 87be 93f3 72bd 7b5a 623d
000003e0: 106b 16be dc6e 9abd 70ff 41bd 84ea ff3c
000003f0: 4da5 81bc 233c acbd cb41 4dbe 4bc0 20bd

layer2.0.bn2.weight f4 [16]
0.69545376 0.5980524 0.7039381 0.8608094 0.6358105 0.5284969 0.8972266 0.5930473
0.8857671 0.48133963 1.0865418 0.5234255 0.4960418 0.75357074 0.6081336 0.57183754
00000000: 4209 323f f619 193f 4a35 343f 015e 5c3f
00000010: 7ac4 223f 934b 073f a4b0 653f f3d1 173f
00000020: a2c1 623f 2672 f63e cd13 8b3f 37ff 053f
00000030: 31f9 fd3e 03ea 403f a5ae 1b3f f263 123f

layer2.0.bn2.bias f4 [16]
0.21752416 0.42405212 0.051108837 -0.20864038 -0.12511215 -0.024595797 -0.104604185 0.4464186
-0.20067264 -0.2482756 -0.09336794 0.23253083 0.41894263 -0.15278044 0.39827704 0.24470054
00000000: a7be 5e3e 5c1d d93e 8057 513d d3a5 55be
00000010: 661d 00be 207d c9bc b83a d6bd fb90 e43e
00000020: 217d 4dbe f53b 7ebe b137 bfbd 901c 6e3e
00000030: a67f d63e 7a72 1cbe f8ea cb3e c792 7a3e

layer2.0.bn2.running_mean f4 [16]
0.18445073 -0.35641634 -0.1351454 -0.61809987 0.1234963 -0.5828391 -0.44234133 0.0856008
-0.47310004 -0.5849515 -0.32166567 1.3646582 0.18952493 -0.15863968 -1.3205954 -2.5658832
00000000: a7e0 3c3e 347c b6be 8e63 0abe cb3b 1ebf
00000010: a1eb fc3d f134 15bf 907a e2be 794f af3d
00000020: 2b3a f2be 62bf 15bf 5db1 a4be 1fad ae3f
00000030: d312 423e 7172 22be 4509 a9bf 6e37 24c0

layer2.0.bn2.running_var f4 [16]
1.4241866 1.0707946 0.8073296 0.61679935 0.3644832 0.37143686 0.8705075 1.0207955
0.554737 0.34671086 0.7893438 0.70083266 0.91263574 0.567062 1.1196135 0.70103073
00000000: bf4b b63f cc0f 893f 27ad 4e3f 90e6 1d3f
00000010: 8b9d ba3e f92c be3e 94d9 5e3f 6da9 823f
00000020: 3e03 0e3f 1684 b13e 6f12 4a3f c569 333f
00000030: 7fa2 693f fa2a 113f 7f4f 8f3f c076 333f

layer2.0.shortcut.0.weight f4 [16, 8, 1, 1]
0.09241474 -0.3442161 0.020712497 -0.004246641 -0.12582128 -0.0016246131 -0.115999244 0.3292192
0.06375887 -0.20798758 0.019398466 -0.17481455 0.0020425043 0.21875966 0.17179182 -0.21368618
-0.051924035 0.1018538 -0.010749878 0.24970312 -0.3113528 0.1632719 -0.25486055 0.124355614
-0.028099574 0.16031623 0.08473956 0.14588545 -0.1638753 -0.33477336 -0.27502424 0.23939404
0.12124993 -0.32368067 -0.03226094 0.015888052 0.35885048 -0.029152405 0.009917252 0.38977906
-0.11041719 0.49287775 0.049994566 0.032206878 0.12316603 -0.024502542 -0.036995355 -0.5809409
-0.04246869 -0.1815517 -0.085809134 0.010552646 0.026350407 -0.24689053 0.00012244543 -0.08806341
-0.06999293 0.112626374 -0.037727147 -0.18433012 -0.11366217 0.03158174 -0.032940418 0.28105497
0.061107796 0.29973188 -0.019822916 0.0086271465 -0.037237898 0.17577147 -0.23277064 0.030346625
-0.042329516 -0.27944326 0.0019067748 -0.025404194 -1.1566886 -0.048170384 -0.19233748 0.18177857
0.03278207 0.17231998 -0.34780988 -0.095657505 -0.19670773 -0.17683776 0.25752515 -0.16603403
0.11448263 -0.14994708 0.073324695 -0.16218221 0.15914012 0.041719805 0.13900346 -0.2474028
-0.268858 0.15786725 0.02160234 0.1026306 0.13429217 0.29467458 0.14131263 -0.08343905
-0.25781986 -0.4109233 -0.10625076 -0.23203382 0.0409063 -0.13025004 -0.19220413 -0.13781708
0.10353972 -0.01379403 0.17792669 0.0018434495 -0.03141135 -0.04155011 -0.004354379 0.02356853
0.109684266 0.32305914 0.027076889 0.10787233 0.040608115 0.017700622 0.12891065 0.304586
00000000: f043 bd3d 183d b0be 41ad a93c 6827 8bbb
00000010: 4bd7 00be f8f0 d4ba 0391 edbd 6b8f a83e
00000020: 0394 823d b2fa 54be 88e9 9e3c 9602 33be
00000030: 89db 053b 8802 603e 32ea 2f3e 8dd0 5abe
00000040: 4cae 54bd ba98 d03d 4220 30bc 2db2 7f3e
00000050: a269 9fbe c030 273e 157d 82be 28ae fe3d
00000060: 1431 e6bc f029 243e ef8b ad3d ff62 153e
00000070: edce 27be 6a67 abbe facf 8cbe b623 753e
00000080: e251 f83d 79b9 a5be 0c24 04bd a927 823c
00000090: 40bb b73e 06d1 eebc f87b 223c 1f91 c73e
000000a0: 6822 e2bd 795a fc3e 1ac7 4c3d 5ceb 033d
000000b0: 793e fc3d 8eb9 c8bc 7188 17bd 8bb8 14bf
000000c0: a6f3 2dbd b0e8 39be b3bc afbd 01e5 2c3c
000000d0: cfdc d73c dfd0 7cbe b264 0039 975a b4bd
000000e0: 7458 8fbd a8a8 e63d c887 1abd 09c1 3cbe
000000f0: b6c7 e8bd db5b 013d 88ec 06bd 70e6 8f3e
00000100: 2b4c 7a3d 7576 993e ab63 a2bc e058 0d3c
00000110: c486 18bd 70fd 333e 6d5b 6ebe 7c99 f83c
00000120: b761 2dbd 3013 8fbe bfec f93a 751c d0bc
00000130: 5f0e 94bf 4f4e 45bd 1ef4 44be 2924 3a3e
00000140: 7e46 063d a674 303e 2314 b2be 15e8 c3bd
00000150: c06d 49be f514 35be 56da 833e d304 2abe
00000160: de75 ea3d ba8b 19be 422b 963d 1813 26be
00000170: a1f5 223e 63e2 2a3d ec56 0e3e 2957 7dbe
00000180: c1a7 89be f4a7 213e 64f7 b03c fe2f d23d
00000190: e383 093e 96df 963e 42b4 103e 18e2 aabd
000001a0: f700 84be 8a64 d2be 009a d9bd 469a 6dbe
000001b0: 5d8d 273d 4460 05be 29d1 44be ec1f 0dbe
000001c0: a20c d43d 5b00 62bc 6a32 363e e79f f13a
000001d0: 30a9 00bd 7330 2abd 2eaf 8ebb ca12 c13c
000001e0: 25a2 e03d 0268 a53e 5ad0 dd3c 2bec dc3d
000001f0: b254 263d e500 913c 2701 043e b2f2 9b3e

layer2.0.shortcut.1.weight f4 [16]
0.10108725 0.119875975 0.20966339 0.33152115 0.37452278 0.4746379 0.12051619 0.08700039
0.18570484 0.9342385 0.3284518 0.12049893 0.13251843 0.51154256 0.0056442427 0.16832267
00000000: d506 cf3d 8981 f53d 00b2 563e 24bd a93e
00000010: 73c1 bf3e bd03 f33e 31d1 f63d 432d b23d
00000020: 6929 3e3e 412a 6f3f d62a a83e 25c8 f63d
00000030: e9b2 073e 74f4 023f 57f3 b83b c75c 2c3e

layer2.0.shortcut.1.bias f4 [16]
0.21752416 0.42405212 0.051108837 -0.20864038 -0.12511215 -0.024595797 -0.104604185 0.4464186
-0.20067264 -0.2482756 -0.09336794 0.23253083 0.41894263 -0.15278044 0.39827704 0.24470054
00000000: a7be 5e3e 5c1d d93e 8057 513d d3a5 55be
00000010: 661d 00be 207d c9bc b83a d6bd fb90 e43e
00000020: 217d 4dbe f53b 7ebe b137 bfbd 901c 6e3e
00000030: a67f d63e 7a72 1cbe f8ea cb3e c792 7a3e

layer2.0.shortcut.1.running_mean f4 [16]
-0.29086393 0.08662839 -0.23435879 -0.5354734 0.5067957 -0.013289769 -0.6245676 0.09954996
0.23254873 -1.8568839 -0.24435998 0.095413625 0.67959136 -1.2877154 0.07041871 1.0195175
00000000: 1eec 94be 3a6a b13d c0fb 6fbe c914 09bf
00000010: 5dbd 013f 55bd 59bc aae3 1fbf d9e0 cb3d
00000020: 4121 6e3e 5fae edbf 8139 7abe 3868 c33d
00000030: b3f9 2d3f dcd3 a4bf af37 903d 8d7f 823f

layer2.0.shortcut.1.running_var f4 [16]
0.08329071 0.12975599 0.13317627 0.21292512 0.16072387 0.21227118 0.0945122 0.09844337
0.0866572 0.34585577 0.2034399 0.10192675 0.12111556 0.28195333 0.038137127 0.1671281
00000000: 5294 aa3d c1de 043e 5c5f 083e 0b09 5a3e
00000010: cc94 243e 9e5d 593e 9d8f c13d ad9c c93d
00000020: 5479 b13d 0214 b13e 8d52 503e f9be d03d
00000030: 6f0b f83d 305c 903e ad35 1c3d a123 2b3e

layer3.0.conv1.weight f4 [32, 16, 3, 3]
-0.11096315 0.1270215 0.12845032 0.019036649 0.011925012 -0.0037016293 0.118860684 0.015686003
-0.13753696 0.16581428 0.053618614 -0.22581361 0.048894666 0.14219588 0.09477035 -0.1375817
0.005504612 0.29665038 -0.074413486 -0.09549049 -0.002420979 -0.001794639 0.039924596 -0.09263394
0.0796635 0.039884023 -0.12853473 0.22873898 0.39885727 0.19142812 0.31613693 0.69266844
0.5574864 0.052043058 0.5005988 0.4395513 -0.11100288 -0.07202273 0.008250159 -0.014077245
-0.071846955 -0.090100035 0.035543628 -0.017673055 -0.08519467 0.15113114 0.09784846 -0.08392767
0.13629906 0.18626714 0.19597524 -0.1404567 0.12426854 0.19041774 0.08080203 -0.06697255
-0.12333257 0.04101716 0.06209783 0.018657738 -0.027161852 0.06762722 0.11920468 0.03025935
0.1032438 0.012521357 -0.05151864 -0.036985785 0.032159016 0.014304264 -0.014467423 0.11649761
0.07465536 0.018844817 -0.033961557 0.081126794 0.111424625 -0.004656826 0.06389299 0.09127013
0.020904355 -0.048562195 -0.035135325 0.024176301 -0.0034080453 -0.09534283 -0.0158077 -0.0062921713
-0.054872576 -0.099492125 -0.11114978 -0.008152463 0.049448177 0.020356435 -0.10559279 -0.08912776
0.11614224 0.031228762 -0.17109703 0.011553423 -0.11775653 -0.121052936 0.08285501 0.0029546393
-0.0708524 0.07751779 0.20302024 -0.037368752 -0.05564658 -0.050903637 -0.17422365 -0.0644769
-0.0056132404 -0.09421247 -0.10665182 0.05436851 -0.012704001 -0.12712224 -0.11579383 0.004928882
-0.10998083 -0.19119303 -0.17842013 0.065636404 -0.053633913 -0.16701785 0.0008102496 0.074842975
-0.009131762 -0.050749328 0.01637846 0.116248764 -0.11570041 -0.12677826 0.008214597 0.028124126
0.0069535873 -0.013511338 -0.013849025 0.087157056 -0.008207067 -0.04591752 0.144036 0.11781782
-0.086162925 -0.083146594 -0.0431547 -0.040580146 -0.087426975 0.012555294 0.0872993 0.00899901
0.14661874 -0.0055613252 -0.031743005 0.11343465 -0.057571393 -0.015422807 0.07120822 -0.03342488
-0.002471216 0.061560594 0.0020432402 0.029836418 0.073470265 0.13030292 -0.0028314914 -0.033999253
0.018686319 0.037722483 -0.00881652 -0.019128831 -0.11860758 0.032222945 -0.12058357 -0.04013452
0.071249194 -0.1037129 -0.041751925 0.012339348 0.039407138 -0.024006741 -0.06557745 -0.033741895
-0.08244594 -0.115359254 -0.0021484795 -0.04952856 -0.032994337 -0.018421471 0.009754721 0.027378323
-0.035375327 -0.0018662274 0.009300025 -0.08898312 -0.08686644 -0.03811028 -0.07971163 -0.12744227
-0.07977527 -0.12771773 -0.19602072 -0.071003385 -0.10829065 -0.11291759 -0.014047741 -0.07110057
-0.10880089 -0.12118156 -0.19738469 -0.114825204 -0.1135902 -0.23061319 -0.20530975 -0.14792813
0.014656185 -0.03080259 -0.024491757 -0.09477193 -0.17997637 -0.15804814 -0.035502654 -0.15659007
-0.16658196 -0.06959196 -0.021604 -0.0006543326 -0.042772356 0.018846726 0.09890207 0.017687755
0.0520748 0.09978846 0.11996639 0.05888375 -0.08090466 0.1995303 0.07748884 -0.12970178
0.1919534 0.05183611 -0.12110586 -0.12645099 -0.009994713 0.21141964 -0.13903354 -0.1319421
0.12202571 -0.1886403 -0.15891919 0.16637854 0.054033972 0.025361003 -0.07505135 -0.075724475
00000000: a640 e3bd ed11 023e 7b88 033e bff2 9b3c
00000010: 2061 433c 0997 72bb 3b6d f33d ef7f 803c
00000020: 7dd6 0cbe 38cb 293e 319f 5b3d af3b 67be
00000030: c645 483d cc9b 113e f516 c23d 38e2 0cbe
00000040: 0860 b43b 8fe2 973e 1966 98bd 8590 c3bd
00000050: 4aa9 1ebb 183a ebba f987 233d ddb6 bdbd
00000060: 9e26 a33d 6e5d 233d 9c9e 03be 8d3a 6a3e
00000070: 0537 cc3e bc05 443e b3dc a13e b852 313f
00000080: 6eb7 0e3f 1a2b 553d 3e27 003f de0c e13e
00000090: 7a55 e3bd a780 93bd ad2b 073c 3fa4 66bc
000000a0: 7f24 93bd 5e86 b8bd 3296 113d 15c7 90bc
000000b0: 8b7a aebd 1fc2 1a3e c664 c83d 45e2 abbd
000000c0: fb91 0b3e d0bc 3e3e bcad 483e e2d3 0fbe
000000d0: 8180 fe3d defc 423e 897b a53d e728 89bd
000000e0: c995 fcbd 9c01 283d 4b5a 7e3d 1dd8 983c
000000f0: 8882 debc 2480 8a3d 9521 f43d 75e2 f73c
00000100: 7c71 d33d 6126 4d3c 3605 53bd 687e 17bd
00000110: 2cb9 033d 6f5c 6a3c c508 6dbc 4d96 ee3d
00000120: e9e4 983d 7260 9a3c 461b 0bbd ce25 a63d
00000130: 9832 e43d 4a98 98bb 54da 823d d5eb ba3d
00000140: 9c3f ab3c 27e9 46bd 0fea 0fbd 610d c63c
00000150: 8359 5fbb 1a43 c3bd 267f 81bc 8f2e cebb
00000160: 11c2 60bd 87c2 cbbd 7fa2 e3bd e891 05bc
00000170: 2c8a 4a3d 8ac2 a63c 0841 d8bd 9d88 b6bd
00000180: fcdb ed3d 76d3 ff3c 0f34 2fbe 914a 3d3c
00000190: 562a f1bd 9aea f7bd e3af a93d 9fa2 413b
000001a0: 101b 91bd a6c1 9e3d 8ae4 4f3e fa0f 19bd
000001b0: abed 63bd 5580 50bd af67 32be 770c 84bd
000001c0: 46ef b7bb 78f2 c0bd 456c dabd 84b1 5e3d
000001d0: 7124 50bc 552c 02be 5125 edbd 7582 a13b
000001e0: a13d e1bd 1bc8 43be c4b3 36be 616c 863d
000001f0: 3caf 5bbd ba06 2bbe ee66 543a 4647 993d
00000200: 639d 15bc 87de 4fbd 1f2c 863c d513 ee3d
00000210: 56f4 ecbd 29d2 01be 8496 063c 9164 e63c
00000220: ebda e33b a95e 5dbc 05e7 62bc 667f b23d
00000230: ef76 06bc 0214 3cbd 2c7e 133e 784a f13d
00000240: 3076 b0bd c348 aabd fcc2 30bd 5e37 26bd
00000250: ea0c b3bd b8b4 4d3c fac9 b23d 9570 133c
00000260: 3923 163e c73b b6bb f404 02bd 6d50 e83d
00000270: fbcf 6bbd f1af 7cbc 9ed5 913d 87e8 08bd
00000280: 20f4 21bb f626 7c3d e2e7 053b 816b f43c
00000290: 9477 963d 216e 053e 8b90 39bb cd42 0bbd
000002a0: 0d14 993c e482 1a3d 2a73 10bc 11b4 9cbc
000002b0: 88e8 f2bd 35fc 033d 85f4 f6bd 1864 24bd
000002c0: 19eb 913d 6e67 d4bd 1104 2bbd fa2a 4a3c
000002d0: 6169 213d c9a9 c4bc 784d 86bd f134 0abd
000002e0: 6bd9 a8bd 7941 ecbd 81cd 0cbb 76de 4abd
000002f0: 1225 07bd a0e8 96bc 44d2 1f3c 8148 e03c
00000300: b8e5 10bd 339c f4ba 225f 183c c83c b6bd
00000310: 08e7 b1bd 8619 1cbd da3f a3bd 3a80 02be
00000320: 3761 a3bd 70c8 02be a8b9 48be 396a 91bd
00000330: 7dc7 ddbd 5641 e7bd 7f28 66bc 2d9d 91bd
00000340: 00d3 debd 0a2e f8bd 361f 4abe 7a29 ebbd
00000350: fba1 e8bd dd25 6cbe b83c 52be 797a 17be
00000360: 7f20 703c b755 fcbc f0a2 c8bc c917 c2bd
00000370: ba4b 38be 5fd7 21be 3b6b 11bd 2659 20be
00000380: 7694 2abe 3b86 8ebd dffa b0bc 8487 2bba
00000390: 1132 2fbd 7364 9a3c 2b8d ca3d e9e5 903c
000003a0: 634c 553d e45d cc3d f0b0 f53d 1630 713d
000003b0: 58b1 a5bd ac51 4c3e 78b2 9e3d 8bd0 04be
000003c0: 6f8f 443e 1a52 543d 5906 f8bd 5e7c 01be
000003d0: ddc0 23bc 647e 583e cf5e 0ebe d41b 07be
000003e0: 9ee8 f93d ec2a 41be b6bb 22be 235f 2a3e
000003f0: ba52 5d3d e1c1 cf3c 86b4 99bd 6f15 9bbd

layer3.0.bn1.weight f4 [32]
0.49106577 0.572587 0.4101937 0.51265574 0.52836406 0.5414641 0.46041644 0.35717684
0.56411237 0.4789973 0.5186233 0.6166003 0.5504832 0.5928077 0.52253306 0.6086311
0.47388604 1.0285875 0.5128034 0.65243953 0.93406886 0.44462073 0.64960295 0.40364057
0.9777142 0.48246455 0.46782053 0.5513569 0.42510688 0.42107892 0.5657541 0.44455063
00000000: f96c fb3e 1095 123f e904 d23e 683d 033f
00000010: de42 073f 649d 0a3f b4bb eb3e e2df b63e
00000020: ab69 103f 223f f53e 7fc4 043f 84d9 1d3f
00000030: 78ec 0c3f 3fc2 173f bac4 053f 3fcf 1b3f
00000040: 31a1 f23e c1a8 833f 1547 033f 4706 273f
00000050: 231f 6f3f 54a5 e33e 614c 263f faa9 ce3e
00000060: 7a4b 7a3f 9805 f73e 2c86 ef3e ba25 0d3f
00000070: 9ca7 d93e a897 d73e 43d5 103f 249c e33e

layer3.0.bn1.bias f4 [32]
0.05573348 0.2385981 0.4284589 -0.06743291 -0.07082073 -0.06301828 0.10863661 0.39397842
-0.120785184 0.2900421 -0.024567941 -0.2947333 -0.14899026 -0.11314864 0.26650655 -0.04055006
0.1576273 -0.066798225 -0.1835776 -0.27953705 -0.41328314 -0.014951948 -0.23810276 0.22082503
-0.66518927 0.034858562 0.035338886 0.049591467 0.30934092 -0.011534024 -0.2504858 0.078186736
00000000: ca48 643d 0f53 743e f75e db3e 441a 8abd
00000010: 750a 91bd ba0f 81bd df7c de3d 8ab7 c93e
00000020: 395e f7bd 6680 943e b542 c9bc 48e7 96be
00000030: e790 18be 79ba e7bd 8c73 883e d217 26bd
00000040: 0d69 213e 82cd 88bd c4fb 3bbe 7b1f 8fbe
00000050: d999 d3be 04f9 74bc 36d1 73be f51f 623e
00000060: d849 2abf dac7 0e3d 82bf 103d 6c20 4b3d
00000070: ef61 9e3e 34f9 3cbc ad3f 80be 5e20 a03d

layer3.0.bn1.running_mean f4 [32]
0.87758476 -2.1430724 -0.90303713 0.6429742 -0.546031 0.15300807 -0.3505119 0.3521153
0.40921906 -0.568363 -0.3001885 -0.25782162 -0.47329536 -0.09658008 -0.30511007 -0.27239427
-1.6525632 -0.62946177 -0.47893852 -0.94666606 -0.25027213 -0.3153464 -1.8155541 1.7687739
-0.72235227 2.3766046 -0.2229115 -1.3956455 2.0253947 -0.55386454 0.40394112 -2.3694677
00000000: 65a9 603f 1928 09c0 712d 67bf f599 243f
00000010: b0c8 0bbf 26ae 1c3e 4c76 b3be 7548 b43e
00000020: 2985 d13e 3d80 11bf 4fb2 99be 3201 84be
00000030: c553 f2be c7cb c5bd 6337 9cbe 4377 8bbe
00000040: 3187 d3bf 6824 21bf 6e37 f5be b558 72bf
00000050: ab23 80be 1575 a1be 1464 e8bf 2f67 e23f
00000060: 14ec 38bf 4a1a 1840 ea42 64be 83a4 b2bf
00000070: 11a0 0140 11ca 0dbf 5fd1 ce3e 5ca5 17c0

layer3.0.bn1.running_var f4 [32]
0.9172213 1.4803834 1.255626 0.79569036 0.79418916 0.9435724 1.1790763 1.0403187
0.88944685 1.3787805 1.4064324 0.60340035 0.856997 0.9699643 2.9149895 1.0410429
1.5465457 1.9481652 0.5829214 0.77334183 1.3083289 1.0177795 1.2146543 0.94579774
1.4181299 1.6587759 0.9985551 1.2921125 1.2748138 1.1639353 0.61610574 1.3405519
00000000: 04cf 6a3f 347d bd3f 5ab8 a03f 5db2 4b3f
00000010: fb4f 4b3f f68d 713f f9eb 963f 2a29 853f
00000020: cab2 633f e17b b03f fa05 b43f 7278 1a3f
00000030: 2864 5b3f 954f 783f 308f 3a40 e540 853f
00000040: 36f5 c53f 7a5d f93f 563a 153f bbf9 453f
00000050: 5277 a73f 9946 823f cb79 9b3f cd1f 723f
00000060: 4885 b53f c552 d43f 4fa1 7f3f f163 a53f
00000070: 192d a33f d5fb 943f 1bb9 1d3f 3497 ab3f
