kd_results/KD_seed-3_cycles-1_KDfrac-0.5_T-2_cifar100-ResNet10_scheckpoint.pth.tar (torch, 717977 bytes, 100 tensors)

conv1.weight f4 [8, 3, 3, 3]
00000000: 8226 68bc d558 48bd 3afa 803d 17c9 36be
00000010: cf75 ae3f 1f76 07be cf30 503d d554 e1bd
00000020: c7f6 8e3d 15b0 943c 845c 43be 9bc3 fc3c
00000030: aacb a7be 8c5f d53f d84b a0be 39e2 06bd
00000040: fe12 c6be c91b b3bc 1237 8c3c 7ebf b7bd
00000050: 8df4 e03d 4369 1fbe 186a 973f 029a 8ebd
00000060: cdc1 a83c d5f2 18be 6e37 663d 3d9d 833e
00000070: 8785 173f 6617 193e f5bd 92be b9ef 50bf
00000080: eff8 3dbe fc2a 073c 2e0d a83d 591e a83d
00000090: a556 6f3d 94aa 763f 38f9 febb 0f80 42be
000000a0: a5cb 61bf b864 00be 7a05 c23d 4325 ba3d
000000b0: 19a8 013e e0c5 1a3e c979 1f3f 5e06 aa3d
000000c0: 41b6 31be 7f6c 3fbf 527a 33be 7b05 bb3d
000000d0: 0944 44bd 3685 053e 8e81 203d 71cd c6be
000000e0: df15 2bbb 58b8 0c3e 2bfc 83bf 4c9c 1a3c
000000f0: e287 b63c 93af 3f3c 7f78 ed3d 8547 9b3d
00000100: 4490 d9be 9c53 953d f789 0f3e 4555 87bf
00000110: 8f9b 56bd 8b50 083d 041e fe3c e47d 593d
00000120: c10f 41bd 61a9 e3be 9da3 3ebd 25f4 f3bd
00000130: fe0d 88bf 22dc 4bbe 285b ca3c 3669 00bc
00000140: 1f3a 42bc 02c2 f8bd 9e96 ff3c 306a 63be
00000150: 4b28 c03e 45de 293f 068e 213f 8885 f43d
00000160: d1f9 c03e d59d e03e 4df0 b1be 9428 8f3e
00000170: 5482 aebb ecae 533e 8e58 21be 425c a93e
00000180: f561 903d d82a 9d3c c526 fab8 90c2 0abe
00000190: 9439 ae3e c596 ffbd 0b09 6fbd 301c 6cbf
000001a0: 0762 23bf 2e8d b9bd 337b 2bbf b873 1ebf
000001b0: b913 8cbd f626 5cbe 40b5 a3be 68e7 4ebe
000001c0: 6f3d 24bf 6a85 d3be d7bf 88be 42a6 93be
000001d0: c554 b0be 30bb 2b3c cb67 bc3e e934 c43e
000001e0: 14e2 dd3e cce9 003f bcf0 673f 3802 d53d
000001f0: 0766 293f d4a9 623e 484c 713b 3a84 78be
00000200: 5397 80be 08b3 683e ef86 9ebe 51f0 a2bd
00000210: 26ec 47be ecbc a6bc 469e 07be 8060 0e3c
00000220: 756c 1dbe 37db 3e3e d6c4 37be dcac 43bf
00000230: f179 8a3f ef30 cf3b cfa6 2dbe f3ff f23d
00000240: d87b 403d 6cee fabe 193a bc3e 33af 68be
00000250: 300f b9bf 8009 d23f 54bb 463e 0d69 b9be
00000260: e5ac 7a3e 76a0 5f3b f8dd c4be 1d4a 793e
00000270: d347 70be 52f6 75bf 0403 b03f a49e fc3d
00000280: 344f a7be 8987 8d3d c2c2 a3be c81b 5bbe
00000290: 1e64 7cbe de1b 39be 377f 05bf e940 e4be
000002a0: 14e2 1bbe cefa b6be f9fe 36be 92bd c8bd
000002b0: 83d8 ee3d 7109 cf3d ef78 713c cd08 78be
000002c0: c18d 25be 0310 bebc ea52 1cbe 7d8a 9d3c
000002d0: b3e6 763e d530 f33e 3a8e ae3e 0773 d33e
000002e0: cc72 b83e ca3f 783e a549 b13e 1e32 9a3e
000002f0: 2c15 9e3e 4ab9 9b3d 5e38 4d3e bb3d 993e
00000300: 72bc 633e a24a 4a3f cf57 8b3e c260 21bd
00000310: 1953 873d 7852 b23d 310f 1abe 888b 3cbf
00000320: f7dd 28bf d94d a8be ac87 26bf 49da 4ebf
00000330: 633e 95be 4d36 1abf 2d81 fc3d 29b4 a03e
00000340: 3845 133e a361 113e 8de9 c23e b85c fe3e
00000350: 215e 663e a05b fe3d 12e6 80bc ef36 a73e
-0.014169337 -0.04891284 0.06297727 -0.17850147 1.3629702 -0.13228653 0.050827798 -0.110025086
0.06980663 0.018150369 -0.1907826 0.03085499 -0.3277257 1.6669784 -0.31307864 -0.032930586
-0.38686365 -0.021863835 0.017116103 -0.08972071 0.10984144 -0.15567498 1.1829252 -0.069629684
0.020600224 -0.14936383 0.056205206 0.257059 0.5918812 0.14950332 -0.2866055 -0.8161579
-0.18551992 0.008249994 0.08205639 0.08208913 0.05843224 0.9635403 -0.007781174 -0.18994163
-0.8820136 -0.12538421 0.09473701 0.09089138 0.1266178 0.15114546 0.62295204 0.08301996
-0.1735468 -0.74774927 -0.1752713 0.09131905 -0.047916446 0.13039097 0.039186053 -0.38828614
-0.0026105565 0.13742197 -1.031133 0.009436678 0.02228159 0.011699575 0.115952484 0.07582001
-0.42492878 0.07291338 0.14017473 -1.0572897 -0.052394446 0.033279937 0.031020172 0.053098574
-0.047134165 -0.44465163 -0.046542753 -0.11911801 -1.062927 -0.19908193 0.02470167 -0.007837584
-0.011854677 -0.12146379 0.03119975 -0.22208476 0.3753074 0.6635478 0.63107336 0.119395316
0.37690595 0.43870416 -0.34753647 0.27960646 -0.005325595 0.20672196 -0.15756437 0.330782
0.07049934 0.019185469 -0.0001192815 -0.13550782 0.34028304 -0.12479929 -0.058358233 -0.9223051
-0.6382145 -0.09060131 -0.6698486 -0.6189532 -0.06839699 -0.21499237 -0.3197422 -0.20205462
-0.6415624 -0.41312724 -0.26708862 -0.28837782 -0.34439674 0.010481641 0.36797938 0.38321617
0.43336546 0.50356746 0.90601707 0.10400814 0.66171306 0.22135097 0.0036819149 -0.2426919
-0.2511545 0.22724545 -0.3096232 -0.07955993 -0.19523677 -0.020353757 -0.1324397 0.00869
-0.15373404 0.18638311 -0.1794618 -0.7643564 1.0818464 0.006322972 -0.16958164 0.11865225
0.046993107 -0.49010026 0.36763075 -0.22723083 -1.445776 1.6409149 0.19407398 -0.3621296
0.24480017 0.0034122742 -0.384506 0.24344678 -0.23464899 -0.9607898 1.375092 0.12334946
-0.32677615 0.06910617 -0.31984526 -0.21397316 -0.24647567 -0.18077037 -0.5214724 -0.44580773
-0.1522296 -0.35738224 -0.17870702 -0.09801783 0.1166239 0.10109223 0.0147383055 -0.24222107
-0.16167356 -0.023200994 -0.15266004 0.019231075 0.24111442 0.47498193 0.34092885 0.41298696
0.36025083 0.24243084 0.346265 0.3011636 0.30875528 0.076037005 0.20041034 0.2992991
0.22239855 0.7902013 0.2721543 -0.039398916 0.066076465 0.08707136 -0.15044858 -0.7365041
-0.6596369 -0.32871893 -0.6505077 -0.80801827 -0.2914916 -0.60239106 0.12329326 0.3138745
0.14381874 0.14197402 0.3806881 0.49680114 0.22496845 0.1241982 -0.015734706 0.32659099

bn1.weight f4 [8]
00000000: 51bc 113f 2ab5 1a3f f1bd db3f 6d1b 983e
00000010: df30 893e d465 023f d414 923e 01d9 883e
0.56927973 0.60432684 1.716734 0.29708424 0.26795098 0.5093663 0.28531516 0.2672806

bn1.bias f4 [8]
00000000: 21ab 3a3f c1eb 59be 9dc2 edbf 00bc 703e
00000010: f41f 4b3e c98f 1e3e 6a5f a83d 7ee8 423e
0.7291737 -0.21281339 -1.8575016 0.23509216 0.19836408 0.15484537 0.08221324 0.19034001

bn1.running_mean f4 [8]
00000000: 21ed 60bf 9b57 1e3d 4cb5 b53f dee8 9abe
00000010: 7842 ed3c 005f 0a3c 8867 d43e 87cc 303e
-0.8786183 0.038657766 1.4195952 -0.3025579 0.028962359 0.008445501 0.41485238 0.17265521

bn1.running_var f4 [8]
00000000: 05de 0341 fbf4 fd3f fc9d 9f41 2a37 2940
00000010: e54f a83f a5a6 ca40 8d22 3a40 94b8 b33f
8.241704 1.9840387 19.95214 2.643992 1.3149382 6.3328424 2.9083588 1.4040704

layer1.0.conv1.weight f4 [8, 8, 3, 3]
00000000: 3bcf 0bbb 8007 10bd 3045 cebd b2de 25be
00000010: f78c 1d3d e13b 1f3e f725 ad3d ef88 42be
00000020: a006 003e 2871 02be 4395 733d f408 073c
00000030: 1f6b a83d b30a 58bd 2d09 9bbd 122b 973c
00000040: 150a 383d 8dd3 35be 766a 0c3d 5ed1 28bd
00000050: 7be4 eb3d 9ed1 03be 7221 1cbd 8ada d3bb
00000060: a44b e7bd 5991 833d 8e0a 4cbd cac4 afbd
00000070: 738d ad3e 40e5 b73e e9b4 27bf 3f12 bcbc
00000080: 320f 123f 12c4 20bf 2ec6 88be d637 603e
00000090: a52d 983e 9c6d e03e 3942 dabd 9a40 a43e
000000a0: 5f42 b23d bf8c b2be 2cd5 1abd 5398 cabe
000000b0: fc39 27bf 059a 533d 4589 39be 921f 983d
000000c0: 907e 43bd 3b47 a33d d15c a8bb d76f d5bd
000000d0: 84cf 8bbb f848 b3bd bbd6 69bd fdf1 12be
000000e0: dd04 9dbe 6838 c23e 8c94 b23a f7a7 d9be
000000f0: 679e 0f3f fefd 733e 86a6 a5be 36fe d4be
00000100: e80a 10bf 9e54 96be 3f6f 9dbe 3ae0 a23d
00000110: 2a73 a23e 5fee 3e3e c380 d33e 6d57 c23e
00000120: 2e66 9dbd 5b79 df3e a394 10bf 961e 2a3e
00000130: 719c 7bbe 2efd d43e 7288 2c3d bea7 0c3e
00000140: f5ed 8ebe 8e96 8fbd 259f d43c 0400 3bbe
00000150: f0dd 063d 84b3 133e 42e8 5d3d 22a8 d6bd
00000160: 0ce6 8bbd fe8b 66be 2f21 89be 3212 1fbd
00000170: 890e f6be f712 a83d b740 b93e e09a 8cbe
00000180: ad17 0c3f 0734 4f3f 1479 6c3e adde 713d
00000190: c883 d9bd b738 b23e 19ac 15be ca48 00be
000001a0: 7b8c 9cbe 6414 513e 8e77 e5bd 76c3 113e
000001b0: 464f 3a3e c277 0cbe 7808 493d 2db5 f4bd
000001c0: 9686 603e e3d2 61be 3dc5 b63c 4f0a 08be
000001d0: bf8d 113e 0e6a 063d e857 763e 521a 00be
000001e0: 2856 7cbe 9f2e 9d3e bc42 26be 80dc 24be
000001f0: b458 2d3e e377 91bd e946 0cbe 5f7b 06bd
00000200: 954a de3d 1f33 393d 0ce7 90bd 779f 08be
00000210: 1c0b 6c3d fc8b 0a3d 1db8 203e 38e7 9f3d
00000220: e94b d83d 0948 1bbd 7c6d 26be b47a ccbd
00000230: 0f29 883d 847f a9bd d963 923e c7e9 cabd
00000240: 718e 55be 3795 b03d 0eb0 08be 5516 663e
00000250: 07e1 b23f 13bc acbf 9657 96bd 9215 183b
00000260: a81d 903c 9cd1 aa3c 6cb4 82bd b58d 4abc
00000270: fa2c 183d e35f 6f3d 7fa1 38bc 2a1c 193e
00000280: 4a38 0bbe d01d 9bbd b3e9 203d fbf2 64bd
00000290: f991 423e 9e18 04be 1fa6 2fbf bb87 ce3e
000002a0: 2eaa f9bd f02a b8be 6b84 803e d220 02bd
000002b0: 6ceb 3a3e ba52 6dbd 3e56 e53d edd4 823d
000002c0: 295c 933d d208 82be e472 163e 2650 bdbd
000002d0: 08a7 0fbe 563d 933d 39a3 09bd 1f63 733e
000002e0: 760e 20be ad4e c8bd be4e c23d d193 273d
000002f0: b17c c83d 8cb4 af3d e8d3 0ebe b967 293e
00000300: 0997 133d 4b6b ccbf ee78 73bd 7f33 90bd
00000310: be3f 93be 05c6 6c3d 7037 a93d 7a5b f6bd
00000320: fa57 413b 326b 0f3e cfa2 9dbd 63c6 403d
00000330: db70 8ebd 36ed 84bd 4427 fcbb 844a 37be
00000340: 0ac7 31be f54c 423e 3877 203e 7a23 6b3e
00000350: c9cb d53c 2c73 413d fd53 7cbe 25ff 8f3d
00000360: b73f 2c3f f3dc 1140 71f8 353f 4408 12bf
00000370: 73d3 eabf 0097 84bf 0c6a 14bd 36c1 8cbe
00000380: a6e1 a53d 72d2 d43d 3212 e2be 2524 57bd
00000390: 87a9 90be dce1 c2bf 7b75 86be 22ea 5b3e
000003a0: 6357 42bd a7c5 443e ed5b b8be dae4 74bf
000003b0: 377b 7fbe 5368 be3e 2195 183f e76c e73e
000003c0: 4ddd 49be 6bd8 863b 2b43 43be 3a0f 1f3e
000003d0: 0d52 553e e0f7 f33d 876b d0be 3781 96bd
000003e0: e478 88be b8e5 e83d 6bd5 883d 5775 5e3d
000003f0: 2c86 a93e 1c0c 7b3c fd47 303e 0918 74be
-0.0021333236 -0.035163403 -0.1007179 -0.16198233 0.038464513 0.15550186 0.08454507 -0.18997549
0.12502527 -0.12738478 0.05946852 0.008241881 0.08223557 -0.05274458 -0.075701095 0.018453155
0.04493149 -0.17756481 0.034281217 -0.041215293 0.115181886 -0.12872931 -0.038117833 -0.006465261
-0.11293724 0.06424207 -0.049814753 -0.085824564 0.3389698 0.3591709 -0.6551042 -0.02295792
0.57054436 -0.6279918 -0.267137 0.218963 0.29722324 0.43833625 -0.10657162 0.32080537
0.087040655 -0.34873006 -0.037800953 -0.3956934 -0.6532285 0.051660556 -0.1811877 0.074278966
-0.04772812 0.079725705 -0.0051380177 -0.104217224 -0.004266681 -0.08754152 -0.05708955 -0.14350124
-0.30667773 0.3793366 0.0013624593 -0.4251096 0.5610108 0.23827359 -0.3235361 -0.41600198
-0.5626664 -0.29361433 -0.30748937 0.07952924 0.31728488 0.18645619 0.41309175 0.37957326
-0.07685505 0.43647274 -0.564768 0.1661323 -0.24571396 0.4159941 0.042122312 0.13735864
-0.27915922 -0.07011138 0.025954792 -0.18261725 0.0329265 0.14423949 0.054176576 -0.104812875
-0.06830987 -0.2251434 -0.2678313 -0.03883571 -0.48057964 0.08206742 0.36182186 -0.2746191
0.54723626 0.8093876 0.23093063 0.05905025 -0.106208384 0.34808895 -0.14616431 -0.12527767
-0.30575928 0.20417935 -0.11204444 0.14234719 0.18194303 -0.13717559 0.049080342 -0.11948619
0.2192634 -0.22053103 0.022310847 -0.13285182 0.14214228 0.032815985 0.24056971 -0.1251004
-0.24642241 0.30699632 -0.16236395 -0.16099739 0.16928369 -0.07102945 -0.13698925 -0.0328325
0.10854069 0.04521477 -0.07075319 -0.13342081 0.057627782 0.033824906 0.15695234 0.07807773
0.10561354 -0.037910495 -0.16252702 -0.09984341 0.06648456 -0.08276275 0.28591803 -0.09907871
-0.20855118 0.086222105 -0.1334841 0.22469456 1.3974923 -1.3494896 -0.073409244 0.0023206216
0.017592266 0.020851903 -0.06382069 -0.012362887 0.037152268 0.058441054 -0.011268972 0.1495215
-0.13595691 -0.07574046 0.039285373 -0.055895787 0.19000997 -0.12900016 -0.68612856 0.4033793
-0.12190662 -0.3597026 0.25101027 -0.03176958 0.18253869 -0.057940222 0.1119809 0.063882686
0.071953125 -0.25397354 0.14692265 -0.09243803 -0.14028561 0.07189433 -0.033602927 0.2376828
-0.15630516 -0.09780631 0.09487675 0.040912453 0.09789408 0.085793585 -0.13948023 0.16543473
0.03603271 -1.5970243 -0.0594415 -0.07041072 -0.2875957 0.057806034 0.08262527 -0.120291665
0.00295019 0.14005736 -0.07697069 0.047064196 -0.06955119 -0.06490557 -0.0076951105 -0.17899519
-0.17361084 0.1897467 0.15670478 0.22962752 0.026098149 0.047228977 -0.24641414 0.07031087
0.6728472 2.2791107 0.71082217 -0.5704386 -1.8345779 -1.0358582 -0.036233947 -0.27491158
0.0809968 0.10391702 -0.44154507 -0.052524704 -0.2825434 -1.5225177 -0.26261505 0.21476033
-0.04744662 0.19216023 -0.36007634 -0.956617 -0.24949346 0.37188968 0.5960255 0.45200273
-0.19713326 0.0041151545 -0.19068591 0.15533152 0.20832081 0.11912513 -0.40707037 -0.073488645
-0.26654732 0.113719404 0.06681331 0.054311123 0.33110178 0.015322711 0.17214961 -0.23837294

layer1.0.bn1.weight f4 [8]
00000000: 1817 9e3e 1a86 1f3f ddb7 473f 38e0 893f
00000010: f22e 453f 985d d13e 049b a53e 6521 7f3f
0.30876994 0.62314 0.7801493 1.0771551 0.7702476 0.4089172 0.3234483 0.9966033

layer1.0.bn1.bias f4 [8]
00000000: 7513 cc3e 963e 11bf 8f6a 4d3e 3df0 843d
00000010: 2096 f2be 6549 a13e 5b18 a93e b1ed c3bf
0.39858595 -0.56736124 0.2006018 0.06491134 -0.4738016 0.31501308 0.33026394 -1.5306913

layer1.0.bn1.running_mean f4 [8]
00000000: 2669 a6be 8b50 c03d b112 bbbe 7d01 8cbe
00000010: ea24 5fbf 73d5 8bbd 8671 b6bd a091 333e
-0.32502097 0.09390362 -0.36537698 -0.27344885 -0.871657 -0.068278216 -0.089083716 0.1753602

layer1.0.bn1.running_var f4 [8]
00000000: 2322 043e e48f 133e 38a4 ab3f a0ed 933f
00000010: 41e2 be3e 80c7 f83e 76d4 013e 70c0 263e
0.12903647 0.14410359 1.340949 1.1556892 0.37281993 0.48589706 0.12678704 0.16284347

layer1.0.conv2.weight f4 [8, 8, 3, 3]
00000000: 76b6 2cbe f38c 553d ff82 4c3e b8f5 b13d
00000010: e28a 713c e998 df3d 1def 1bbd 3983 2d3c
00000020: 075f 1fbc 875f f6bc 1ca6 c13d f50f 0a3b
00000030: 8091 1e3d 4a16 0b3f 9af2 793e f75e 9abd
00000040: 0710 2cbe bd74 1dbe a216 bb3d 1949 b53d
00000050: d1e3 8a3d bd06 6abd cdd1 273d a5d9 1b3e
00000060: 54c1 9e3c 4198 a13e 931a 033e 60e1 e73b
00000070: f62b 033a c2be b53d b0c7 47be b296 ecbe
00000080: 7984 b6be 726c 3e3e 29bf 8a3e e9b7 c43e
00000090: 2d3f 943e 12d6 3abe 39c9 0cbe dadc b1bc
000000a0: 4467 13be 187d 2f3d 781d e0bd 192c 73be
000000b0: 1fa1 5a3e 2831 1ebe effc 42be b204 8e3d
000000c0: ff19 ab3e 3220 003f 8aa5 893e 8203 61be
000000d0: 5801 1dbe 2b63 0ebe 5130 9bbb 6dc9 613d
000000e0: 3ff3 d3bd 7971 623e 3659 c63c 07b6 bd3c
000000f0: a468 39be 2033 003d 6064 66be 42c1 283e
00000100: 5d02 5c3e e707 813e 439e cabe 1308 28bf
00000110: 2245 d6bd 8d90 b03c 15dd 74be 169b 963d
00000120: 68e2 b7bc 95d7 0b3e a095 4abc 99f4 9f3c
00000130: 3f1a 9cbe 2233 cf3d ce1d 90bb a1ca be3d
00000140: 9ea3 073e 6d32 8a3e d72f fabc 74ca 1a3e
00000150: ced8 19bf 9453 1bbd f880 4bbe 42f0 d13d
00000160: b7cb 7dbe 0dff c33d f166 90be b52b 853e
00000170: 5d30 01be 9756 f8bd 7af7 b9be 7ff4 fe3c
00000180: 1d0c 5a3e f21f a53e 46af e83d 9ad3 b3bc
00000190: 59d7 fcbc cf40 443c 932e 443e 2c68 2bbe
000001a0: 4006 813e f492 2a3e c400 78be 4c41 f1bb
000001b0: 2fc7 863d af7f e03c 0056 0f3e f91d 23be
000001c0: 3227 3fbe b3a4 96be 4a17 af3e 28b3 cb3d
000001d0: c02c 28bb 82c0 abbe f47e 0b3f eca2 cf3d
000001e0: fd79 12bf d3e9 553e 3010 3d3e 5aa8 76be
000001f0: 5371 713d dbbf c03d 659b fabd 9d7d 533e
00000200: 783f 5dbe 9b0e 573e c0dc 39be 30c4 193e
00000210: 197e 6bbe a725 e53e cb70 b5bd 24b0 57be
00000220: 683a 1abe 6084 573d 8113 953e 56bf ac3e
00000230: 73e3 813e 4027 143e 3032 643e decf dc3c
00000240: f478 c83c fd63 2a3d 4e15 c4bc 2b2b 493d
00000250: bca4 b3bb 8055 dd3c 504c 763d 7cce 95bd
00000260: c6b1 eabd 1752 953c 0109 0abe 2b8d 16bd
00000270: 8553 5f3e 993f f6bd 7467 0abe 56ac f93d
00000280: 4b1f 343d d0f5 36bc 719a 063e 53fb 5cbd
00000290: d0c1 01bb 5c23 3c3f b9dd 4a3d 2d4d 67be
000002a0: 7718 68be 26b4 333e b123 723e a148 9ebd
000002b0: 6442 bd3d 2b13 c63d 495a 353a ef59 8f3e
000002c0: 0ba0 1c3e bff4 c43d f388 56bf 6e62 11bf
000002d0: e77e 87bd 4967 3ebe 2c6c 8a3e 6021 3abe
000002e0: 7475 0bbd d3ff ca3d db7c 2dbe 614e c7bc
000002f0: 395f 2e3e 6362 56be 0965 1cbc aabc 4dbd
00000300: 2f36 f8be e964 13be 3221 0fbe 55af a73e
00000310: 863e 293f b827 803e 7dda 6a3d ced8 90bc
00000320: 6f77 9ebd 2398 313d bfa6 8abb 7fce a13d
00000330: 5031 13be ab8b d03d 0335 2b3d 338d f4bd
00000340: 5019 5abe 6875 1fbf 035d b1bd 170a 3fbc
00000350: 67dd 43be 2922 19be 7aa8 1bbe 5fca d5be
00000360: 7ade 533a cf2b fcbd 3b8c 80be 7093 8b3e
00000370: 3a8a bc3d 2f40 d5be ec59 753e d775 953e
00000380: 0048 2abe 2ce7 a83d 5a0b 6b3e e6a8 13be
00000390: f88a a73d 1dec 893d 7e68 eb3d eb4c 95bd
000003a0: e5e7 23be 7f1d 9ebc 63b1 263e 3164 8b3e
000003b0: e014 813e 27fa cd3d 4119 55bd 6903 f6bd
000003c0: e5e6 66bd 3287 88be 21cb 52be 92a9 6e3d
000003d0: 7c2a 14bc f12d 5a3e 9b94 9a3e 81dc 133f
000003e0: ecf9 26be dcb1 e23d 5336 023f 51bc 59be
000003f0: 4297 353c 426e 5dbe cc7a 073d a4dc c8be
-0.16866478 0.052136373 0.19971846 0.08689445 0.014742585 0.10917837 -0.038069833 0.010590368
-0.009727246 -0.030074848 0.09455511 0.002106664 0.03871298 0.54330885 0.24408951 -0.07537644
-0.16802989 -0.15376563 0.09135176 0.08851833 0.06781734 -0.057135332 0.040971566 0.15219744
0.019379295 0.31561473 0.12803106 0.0070764273 0.0005003804 0.08874275 -0.19509768 -0.4620872
-0.35647944 0.18596056 0.2709897 0.38421562 0.2895445 -0.18245724 -0.13748635 -0.021711756
-0.14394861 0.042843908 -0.10943121 -0.2374729 0.21350525 -0.15448439 -0.19041799 0.06934489
0.3341827 0.50049126 0.2688411 -0.21973994 -0.15332544 -0.13905017 -0.0047359844 0.055123735
-0.1034913 0.22113599 0.024212461 0.023158086 -0.18106323 0.031298757 -0.22499228 0.16479972
0.21485277 0.25201342 -0.3957387 -0.6563732 -0.10462405 0.021553302 -0.23912461 0.07353799
-0.022446826 0.13656457 -0.012364775 0.019525813 -0.30488774 0.10117175 -0.0043980842 0.09315992
0.13246009 0.26991597 -0.03054039 0.15116292 -0.6009644 -0.037921503 -0.19873416 0.10250904
-0.24784742 0.095701315 -0.28203538 0.26009908 -0.12616105 -0.12125891 -0.36321622 0.031122444
0.21293683 0.32250935 0.11361556 -0.021951485 -0.030864405 0.011978342 0.19158392 -0.16738957
0.2520008 0.1665762 -0.24219042 -0.0073625203 0.0658096 0.027404634 0.1399765 -0.15929402
-0.18667296 -0.2942253 0.34197456 0.09946281 -0.0025661439 -0.3354531 0.5449059 0.10138497
-0.5721739 0.20889978 0.18463206 -0.24087659 0.058945965 0.094115935 -0.122366704 0.20653386
-0.21606243 0.21001665 -0.18150616 0.15016246 -0.22997321 0.4475529 -0.08859404 -0.21063286
-0.15061343 0.052616477 0.29116443 0.33739728 0.25368842 0.14468098 0.2228477 0.026954588
0.024471737 0.041599263 -0.02393594 0.049113434 -0.0054822844 0.027018309 0.06013137 -0.073147744
-0.11459689 0.01822762 -0.13479997 -0.036755722 0.21809204 -0.12023849 -0.13516027 0.121910736
0.043975156 -0.011167005 0.13144852 -0.05395062 -0.001979936 0.73491454 0.049527857 -0.22588034
-0.22665583 0.1754919 0.23646428 -0.077286966 0.09241179 0.09671625 0.00069180556 0.279983
0.15295427 0.09616994 -0.8380272 -0.56790817 -0.066160016 -0.18594088 0.27035654 -0.18176794
-0.03404756 0.09912076 -0.1694216 -0.024329366 0.17028512 -0.20935969 -0.009545573 -0.050228752
-0.4847884 -0.14393963 -0.13977507 0.32750955 0.6611103 0.25030303 0.057337273 -0.017681506
-0.07737624 0.04335798 -0.0042313035 0.07900714 -0.1437428 0.101828896 0.041798603 -0.11940994
-0.21298718 -0.6228852 -0.08660319 -0.01166012 -0.19127427 -0.14954437 -0.15200987 -0.4175596
0.0008082163 -0.12313043 -0.25106987 0.27260923 0.09206052 -0.4165053 0.23960084 0.29191467
-0.16629028 0.082472175 0.22953549 -0.14419898 0.08180803 0.06734488 0.1149454 -0.072900616
-0.1600643 -0.019301174 0.16278605 0.27224877 0.2521124 0.100574784 -0.052026037 -0.12012369
-0.056372542 -0.26665646 -0.205853 0.058267184 -0.009043332 0.21306588 0.30191502 0.5775834
-0.16306275 0.1106908 0.5086414 -0.21263243 0.011083426 -0.21624091 0.033076093 -0.39230835

layer1.0.bn2.weight f4 [8]
00000000: 0fd7 103f a6e7 5f3f 840b a33f 0acb 0f3f
00000010: a34e 213f 3df0 b83f e539 0a3f 3f8e 153f
0.56578153 0.8746284 1.2737889 0.5616919 0.63010615 1.4448315 0.5399459 0.58420175

layer1.0.bn2.bias f4 [8]
00000000: 607a 123f 2113 5a3c 0c81 043f 882f 6f3f
00000010: 7369 933f 50db 1d3f 4d03 9e3f 3cc3 993f
0.5721798 0.013310225 0.5175941 0.934319 1.1516556 0.6166277 1.2344757 1.2012706

layer1.0.bn2.running_mean f4 [8]
00000000: 36ed bf3e 2f42 843e df61 adbd 4462 d53d
00000010: d1f5 02be 6002 0bbf c8f2 ea3e 4aa3 3dbe
0.37485665 0.25831744 -0.08465933 0.10419133 -0.12789084 -0.543005 0.45888352 -0.18519321

layer1.0.bn2.running_var f4 [8]
00000000: 2b87 933e 499a 3e3e adcc f43e b15e 673e
00000010: 7de7 863e d790 393f 8b4a 753e 9c26 843e
0.28814062 0.18613543 0.47812405 0.22594716 0.26348487 0.72486633 0.23954217 0.25810707

layer2.0.conv1.weight f4 [16, 8, 3, 3]
00000000: 36d9 72bd d6fc 8b3e 3a04 e83d 94dc 15be
00000010: f0d1 ccbd 88dd 833e 8105 ab3d 3a7c b8be
00000020: 3187 15bd 5d34 02be c204 01be 65f4 c7bc
00000030: be19 2bbd 23b8 21be 62c7 3dbe 2a59 bb3c
00000040: 1f87 a5bd ea01 6ebe 00f4 8bbe 1d61 623d
00000050: aa77 e53e 98d5 4abd 13dc 0bbf 4eb6 413e
00000060: d875 983e f26d 0fbe b688 b2be dce5 b23d
00000070: a8d2 8a3d cd54 9abe 0751 e2ba 0950 783e
00000080: 49c2 a6bd 90d2 9bbd e298 0ebe c080 143e
00000090: 7391 9ebd a573 2b3e 9c91 e33d 738d 02be
000000a0: ac1b 36be 8697 4d3e 5b50 963d 6564 f4be
000000b0: 2afb ad3e 292c de3c ea9d e1be 045a 49be
000000c0: b622 cd3e b61e b03e 2c7f 05bf 1dc7 b2be
000000d0: ab60 b93e 2be8 b73e c696 473e 3b96 a4bd
000000e0: ac4f 5abe 45c5 b4bc 1ea8 923d 0425 a7bd
000000f0: 4163 0cbe fdc8 c7bc fd06 3a3e 692e 833c
00000100: b2a8 193d b307 71bd 8d6c 9e3c 1dba 04bd
00000110: 8e8b 3d3e 73e3 d9bd 6d0e 22be 3017 123e
00000120: 7ebf acbc 4b19 f8bd 18a9 bd3c d357 5bbd
00000130: f5ad e6bd fdae 363e 9324 c73c f2f8 80be
00000140: 7a2f a3bd 82ff 433e 30ba 7d3d 3d64 a2bd
00000150: a2b8 c93d 889b ad3d a645 e63d cba6 89bc
00000160: b049 8a3c 4af8 983d 70e8 123e ad6d 953b
00000170: ab94 84be 82de 133e 503d 463d d5a0 9bbe
00000180: 234c 6a3d 7b7b ecbd 84ce 1dbe 6735 24bd
00000190: b93a b2bd e731 da3d 2eac b13d 8915 d6bc
000001a0: 9a2a 0ebe 11fb bb3d f50d 9a3d 7483 f9bd
000001b0: 4936 3c3e da7d e3bd 96d1 e13d 1273 febd
000001c0: 9234 09be 3e19 1c3d b381 9abe c138 693d
000001d0: 5fa9 053e 1c28 a73c 827e 0aba bc09 ddbc
000001e0: 55ca dcbc f697 b33e 02c6 f93e db72 a3bd
000001f0: 48ce d53e ac39 213f 3772 143c 0a0a 9dbd
00000200: 1071 9d3c cd9b 883c af8c 59bd 31e8 3ebe
00000210: 2bc5 203e 8a7c 95bc 22b7 f5bd 46ee 093b
00000220: da67 a3bc 96cd 843d 6b73 73bd 234e 593b
00000230: 622b 1a3e 21c2 8abd 147b c1bd cd3a 08bd
00000240: b336 df3d 7d40 c03e 1d4c 193e 542b d6bd
00000250: 9f82 b03e db15 443e c08b 9c3d e121 283f
00000260: b513 003f 3ffb 1bbe f6af 86bd b562 a23d
00000270: a64c 50bd 851e 6a3e b4d2 823e 2468 d836
00000280: 143c 433e ab86 713d 087d 54be e7ba afbe
00000290: 62ee a2be 1ec0 f83d df73 d53d 98e4 223e
000002a0: ee2f 8bbe f785 56be f86b a9bd ea3d d13d
000002b0: 0c8c 2a3d 48c8 9f3d 7168 efbb 9064 22be
000002c0: 36a8 88be fe79 87bd e2bd 74be 153d 41be
000002d0: 0629 9f3d 84d8 123d df0e 643d 4fd7 eebd
000002e0: 5ead b9bc c40a b2bd 7069 b43c a48d 70bd
000002f0: 7e36 23bd 7389 abbb c1ba 07be 21a1 b6bd
00000300: 0aaa 013d 1d87 9e3d d650 943d 214d 113e
00000310: 25f9 263e fde7 0b3c 33a4 8a3b 861d 29bd
00000320: f107 61be 2cd0 813e ce9b 273e 9872 93bd
00000330: 00b6 1e3e 0c0a 8a3e 5c2e b13d 6dd6 1f3e
00000340: fd82 a83d d4fe 5c3d 07dc 90bd 2d38 79bd
00000350: dae5 2cbe 293e 27bd fc39 d9bd 6822 2cbe
00000360: a8d3 2e3d 845f 74be e696 c4bc c0e4 98be
00000370: 7a79 94bd a316 bd3e 0fa0 a3be e346 923e
00000380: 1a29 103d b086 eb3d 16aa 2dbc d1f3 27be
00000390: 9b1b 62bd 1b54 b73c ff94 c6bd 8394 30bd
000003a0: bd16 cd3c 410e ad3b e887 84be 2a10 d33e
000003b0: d890 e13d c1c0 933e 52c0 8c3e 253c eebe
000003c0: 338f c83d 4213 9bbe a6b0 8abd 53d0 ad3d
000003d0: 3466 a03e 3b3f 25bd af6e d23e 5ccf 5bbe
000003e0: f38d 8abe cca9 01bd 7764 ebbe 3fd1 623d
000003f0: 10a2 cabe 5545 573b 6c80 5d3e 547d 72bd
-0.05928918 0.27341336 0.11328931 -0.14634925 -0.1000098 0.25754952 0.08350659 -0.36032277
-0.03650588 -0.12715288 -0.12599471 -0.024408529 -0.041772597 -0.15792899 -0.1853309 0.022869665
-0.08082413 -0.23242918 -0.27334595 0.055268396 0.4481786 -0.049520105 -0.5463268 0.189172
0.29777408 -0.14006785 -0.34869927 0.087352484 0.06778461 -0.30142823 -0.001726658 0.24249281
-0.08142526 -0.07608521 -0.13925508 0.14502239 -0.07742586 0.16743334 0.11111757 -0.12749271
-0.17783993 0.20077333 0.07339545 -0.47732845 0.33980685 0.027120667 -0.4406579 -0.19663244
0.40065545 0.3439843 -0.52147174 -0.34917536 0.36206564 0.35919318 0.19491109 -0.08036467
-0.21319455 -0.022066722 0.07160972 -0.08161357 -0.13709737 -0.02438783 0.18166728 0.016013341
0.037514396 -0.058845233 0.01933887 -0.032404054 0.18510267 -0.106390856 -0.15825815 0.14266658
-0.021087404 -0.12114199 0.02315192 -0.053550553 -0.112636484 0.1784019 0.024309432 -0.2518993
-0.0796804 0.19140437 0.06194514 -0.07929275 0.09849669 0.08476931 0.11243753 -0.016803166
0.01688084 0.074692324 0.1434648 0.0045601935 -0.25894675 0.14440349 0.048398316 -0.30396143
0.057201516 -0.115469895 -0.1541081 -0.04008999 -0.08702607 0.10654049 0.08675419 -0.026133316
-0.13883439 0.091787465 0.07522193 -0.12183276 0.18380083 -0.11107989 0.110263035 -0.12424292
-0.1339896 0.03811001 -0.30177078 0.05693889 0.13052891 0.020404868 -0.00052831334 -0.02698218
-0.026951948 0.35076874 0.4878388 -0.07980891 0.41758943 0.62978625 0.009060434 -0.076679304
0.019218951 0.016675854 -0.053112682 -0.18643261 0.15700214 -0.018247861 -0.119978204 0.0021046563
-0.019946981 0.06484525 -0.059436243 0.0033158145 0.15055612 -0.067753084 -0.094473034 -0.0332592
0.10899105 0.375492 0.14970441 -0.10457483 0.34474656 0.19148962 0.07643843 0.65676695
0.5003007 -0.15232562 -0.06576531 0.07928983 -0.050854348 0.22863205 0.2555138 6.449425e-06
0.19065887 0.05896632 -0.2075082 -0.34322283 -0.31822497 0.121460184 0.10422491 0.15907514
-0.27185005 -0.20949541 -0.082725465 0.10216887 0.041637465 0.078018725 -0.0073061516 -0.15858674
-0.26690835 -0.06615065 -0.2390056 -0.18870957 0.077714965 0.035851017 0.055678245 -0.116621606
-0.022665676 -0.0869346 0.022022933 -0.05872883 -0.03984689 -0.005234891 -0.13254835 -0.08917452
0.031656303 0.077406146 0.07241981 0.14189579 0.16305979 0.008539197 0.004231 -0.04128792
-0.21975686 0.25354135 0.16368029 -0.071995914 0.15499115 0.2696079 0.086514205 0.1560914
0.08228109 0.05395396 -0.07073217 -0.06084459 -0.16884556 -0.040830765 -0.10606763 -0.1681
0.04268232 -0.23864561 -0.023997735 -0.29862022 -0.07249732 0.36931333 -0.31958053 0.28569707
0.035195448 0.11500299 -0.010599634 -0.16401602 -0.055202108 0.022378972 -0.096963875 -0.04311038
0.025035257 0.00528124 -0.25884938 0.4122327 0.11013955 0.28857997 0.2749048 -0.46530262
0.09792938 -0.3028813 -0.06771974 0.08487 0.31327975 -0.040343504 0.4110007 -0.2146582
-0.27061424 -0.03165607 -0.45975086 0.055375334 -0.3957677 0.0032847722 0.2163102 -0.059201553

layer2.0.bn1.weight f4 [16]
00000000: 7202 623f 9f9f 303f c05c e73e 07bc 4c3f
00000010: f96b 473f 4b95 2a3f 84c5 543f 3427 5c3f
00000020: 8daf 013f 0521 3d3f 4d27 343f 5ef4 2c3f
00000030: e8e2 683f b141 523f ec3e 4a3f aff0 d93e
0.8828498 0.6899356 0.4518795 0.79974407 0.7789913 0.66634053 0.83113885 0.8599732
0.50658494 0.7387851 0.7037247 0.67560375 0.9097123 0.8213149 0.7900226 0.4256644

layer2.0.bn1.bias f4 [16]
00000000: bb2a 39be 961f 07be 0b15 193f 7821 85bc
00000010: 2c25 a8bd 4e84 fcbd 89af f2bd c684 23be
00000020: e027 b63e 9e75 53be b033 a9bd cf85 44bc
00000030: f67e 36be 0ebc a4bd c095 38be de54 5a3f
-0.18082707 -0.13195643 0.59797734 -0.01625131 -0.08210215 -0.123299226 -0.11849887 -0.15968618
0.35577297 -0.20650336 -0.08261812 -0.011994793 -0.17821869 -0.08043681 -0.18025875 0.8528575

layer2.0.bn1.running_mean f4 [16]
00000000: 3d0a 37bf 7c0d 0b3f ffd7 fb3f 9431 e53e
00000010: 5397 1abf 996a acbf 5bb6 5dbf 76ff a4bf
00000020: b0c2 0140 944f 1bbf ceb8 6ec0 966b 673e
00000030: fa84 2bc0 b7b7 31bf 9775 ecbe 4ac5 6fc0
-0.715 0.5431745 1.9675292 0.44764388 -0.6038715 -1.3470031 -0.8660638 -1.289046
2.0275078 -0.606683 -3.7300296 0.22599635 -2.6799912 -0.6942095 -0.46183464 -3.7464166

layer2.0.bn1.running_var f4 [16]
00000000: 9a1c 3740 8701 ea3f 6b82 7640 1475 9040
00000010: ced3 3540 b515 0140 5e72 6940 fa0e 3e40
00000020: fcc7 e13f 6cb8 d53f 1e80 f23f 80d8 4240
00000030: 6084 7240 c30a 5340 e727 ff3f a87c 2940
2.8611207 1.8281716 3.85171 4.514292 2.8410525 2.01695 3.6476054 2.969664
1.7639155 1.6696906 1.8945348 3.044464 3.7893295 3.2975318 1.9934052 2.6482334

layer2.0.conv2.weight f4 [16, 16, 3, 3]
00000000: e33a d43c 1c76 30bd 1291 bebc 7931 8f3c
00000010: 2316 043e cf92 043e f77b 73bc 8932 563d
00000020: 0fc9 8d3d d027 7dbd 8d4b c9bd a3bc 6dbd
00000030: 812d 123e f00b 553e 4948 313d 19d2 c2bd
00000040: 63bf e6bc 84e0 4cbd a4d0 6bbd 814b 67bd
00000050: ea3a 86bd 784b 85be 9c66 b43e 4cdc 0a3f
00000060: 5032 06be 87e2 6ebe cea6 063e f8fe c2bd
00000070: ad2e 313b 5579 193d 6f8b 593c 7881 493e
00000080: 1622 ac3d 9e43 fc3c 86a5 9bbc a950 7abc
00000090: ce18 3fbd 9b9e 99bd f1e6 053d c236 f4bd
000000a0: 3689 bf3d 5196 6f3d 19b6 f3bd e698 7dbc
000000b0: 012f 1d3d 5f39 963b 26a0 bd3d 16dc 7cbd
000000c0: 7b8f 283e 9087 253d 4c21 8dbb 2aa6 abbb
000000d0: 7ada 223c 0645 18bd 5b3e 0ebd ff4f 47bd
000000e0: 9cb4 0f3d 3dc7 603e fd1a 513e c1f4 103e
000000f0: e216 393d d014 f0bd 85bd 26bd 03d5 023d
00000100: 1c42 77bc c397 6b3d 5661 c43d 6eba b03d
00000110: a395 963d f181 0bbb fd1a 163d f0cc 763c
00000120: 6ec5 213e 327c a6be 1294 34be b912 0b3f
00000130: 9f86 09bf abf2 c0be 690a 183e c116 623e
00000140: dc25 cb3c 3780 e5bd 42c3 12bd 546f bfbd
00000150: 9a00 abbd 8e0b caba eea3 d43a a9cd a1bd
00000160: 6e8f 6abc b8ee 1339 7159 adb8 3388 2e3c
00000170: 165f a0bd 81a9 83bd 5bfb 643e d26a 523e
00000180: c1ef c2bd f0ae a7bd 7e71 523d 74c3 b1bd
00000190: fca0 1dbb c320 673b 8270 f8bd 4c95 003e
000001a0: 92af 233e b9af b3bd 4922 a93d ddc6 0d3e
000001b0: 00e4 c93b 1719 053e 8b0d 8f3d c714 fa3d
000001c0: ed08 fa3d fedc 5e3d 2277 a73c c313 90bc
000001d0: 6644 613c ddaf abbd 8c53 92bd 87c2 45bd
000001e0: 3c9f 643d 41fd 133e 7b12 5a3e 400e 323d
000001f0: 5e1a eabc 3321 9cbb ffa6 c5bd 1dc4 24bd
00000200: ef90 b0bd d15f 8c3b 56d3 b03d 29b4 4e3d
00000210: b452 d1bd b15d 89bd 8c6f 02bc fde2 ba3d
00000220: 07ef 043e 20f3 8b3d 0a57 1c3e 0d5c a03e
00000230: 42fa d1bd bd33 e33d d895 6d3d 6549 10bd
00000240: 4fe5 3abd 56db 203e 70ab bf3d 7196 f7bd
00000250: 6ee9 653d fbec 2d3e 9c54 00be 023c 4bbd
00000260: b056 843d a742 1cbe 8466 be3d 82cc ec3d
00000270: 5263 02bd 8dd3 fe3d 5a78 063e b17c a93d
00000280: 0b29 c83d 04f6 95bd a559 443e b75f c7bc
00000290: 7fb4 0bbe ab1e 823e fd87 0bbe 8461 f7be
000002a0: e772 c53d 6dcc c73c d667 89bd cbab 06be
000002b0: 6fa5 9abd 287d c43c cf9b 873d 7925 793b
000002c0: 9010 1fbd a2e6 493e f4fc 063e 4c93 ddbd
000002d0: 4743 66bd 8df6 6fbd 58f8 15bd 825f f83d
000002e0: 176c b8bd 1b95 03be 2e92 863d cdd9 08be
000002f0: 019a 2ebe 1a2e 57bd 2df9 01be 3517 54bd
00000300: a175 9e3c ec87 6ebd 230a 05bc 7076 f73c
00000310: 19c7 0b3d c20b ecbb 4831 a2be 8201 debe
00000320: e9e7 87bd ba89 90be 5d2e d0be 519a 1dbe
00000330: c638 dabd 9fca 57be 192d e8bd 66c9 ea3c
00000340: 7d8c 263e 701c 293e 2c1b c3bd fa17 323e
00000350: d6d8 923e fe62 b9bd 5efb 19bd 42b5 8e3d
00000360: af7c 5c3e 06f2 623d cef6 b9be b280 cd3d
00000370: 1ceb 11b9 838a 8abe 7fdc cebd 097d 1cbd
00000380: 8bdc 29be 57aa c5bd 1b43 a1bd 18cd cb3b
00000390: 06ff 30bc 2a9f dfbc dfa0 e3bd 35ac 213c
000003a0: 7ca7 8e39 bbfb 08be 59be 4e3e e5d5 983e
000003b0: 2a56 bc3d f14d 903e 3bc4 ac3e adfb 883e
000003c0: bcfb f43d b6ea a03d ccaa 153d ff73 223d
000003d0: fd75 653d 163f 2dbd a14a da3d 0e3c 0e3e
000003e0: 4172 3bbd 7f13 6b3d b7ae 8abd 9dda 63be
000003f0: 0bdf 203c 4901 76bd 9fa4 83bd 7304 6f3e
0.025906986 -0.043081388 -0.023262534 0.017479645 0.1289907 0.12946628 -0.0148610985 0.052294288
0.069231145 -0.061805546 -0.09828863 -0.058041226 0.14275171 0.20805335 0.043281827 -0.09512729
-0.028167432 -0.050018802 -0.057572022 -0.05646849 -0.06554206 -0.2603414 0.35234535 0.54242396
-0.1310513 -0.23328601 0.13149568 -0.09521288 0.0027035878 0.037469227 0.013277872 0.19678295
0.08404939 0.030793961 -0.018999826 -0.01527802 -0.046654515 -0.07500955 0.032690946 -0.11924507
0.09352343 0.058492962 -0.11899967 -0.015478348 0.038374905 0.004584476 0.092590615 -0.061733328
0.16460983 0.040412486 -0.004306948 -0.005238314 0.009939784 -0.0371752 -0.034727436 -0.048660275
0.035084352 0.21951003 0.20420451 0.14155866 0.04518784 -0.1172272 -0.040708084 0.031941425
-0.015091445 0.057517778 0.09588878 0.08629309 0.0735276 -0.0021287168 0.03664683 0.015063509
0.1579797 -0.32516629 -0.1763461 0.54325444 -0.5372104 -0.3768514 0.14847721 0.22078992
0.024798326 -0.11206096 -0.035830744 -0.09347406 -0.08349724 -0.001541482 0.0016223171 -0.07900555
-0.014316423 0.00014107942 -8.2659426e-05 0.01065259 -0.07830636 -0.06428815 0.2236151 0.20548561
-0.09518386 -0.081876636 0.051377766 -0.08679858 -0.0024052253 0.003526733 -0.12130834 0.12556952
0.15984944 -0.08773751 0.082584925 0.13845392 0.006161213 0.12997852 0.06985005 0.12210994
0.12208734 0.054409973 0.02044255 -0.017587548 0.013749218 -0.08383153 -0.071448416 -0.04828122
0.05581592 0.14452077 0.21296112 0.04347062 -0.028577026 -0.0047647 -0.096509926 -0.04022609
-0.08621394 0.004283883 0.08634059 0.050464783 -0.102208525 -0.06707323 -0.007961165 0.09125326
0.12981807 0.06833482 0.15267578 0.3132023 -0.10252811 0.11093853 0.05800423 -0.035226244
-0.045628842 0.1570867 0.09358871 -0.12089241 0.05613082 0.16984932 -0.12532276 -0.049617775
0.06461847 -0.15259801 0.09296897 0.11562444 -0.031833 0.12442694 0.13131848 0.08275736
0.09773453 -0.073223144 0.19174822 -0.024337633 -0.13643073 0.25414023 -0.13626094 -0.48316586
0.096410565 0.02438947 -0.06709258 -0.13151471 -0.07551085 0.02398546 0.06621515 0.003801672
-0.038834155 0.19716886 0.13182431 -0.1081911 -0.056216504 -0.05858474 -0.036613792 0.12127592
-0.090049915 -0.12849848 0.0657085 -0.13364334 -0.17050935 -0.0525342 -0.1269271 -0.051779944
0.0193432 -0.058235094 -0.008120093 0.030207843 0.03412542 -0.00720355 -0.31678224 -0.43360525
-0.0663603 -0.28230077 -0.40660372 -0.15390898 -0.1065536 -0.21073388 -0.11336727 0.028660487
0.1626453 0.16514754 -0.09526667 0.17391959 0.28681058 -0.090520844 -0.037593238 0.06968166
0.21531938 0.055406593 -0.3632111 0.10034312 -0.00013915863 -0.270588 -0.1010065 -0.03820518
-0.16588037 -0.0965163 -0.078741275 0.0062195174 -0.01080299 -0.027297575 -0.11114668 0.0098677175
0.00027209136 -0.13377278 0.201898 0.2985069 0.09196122 0.28184465 0.33743462 0.26754513
0.11962077 0.078572676 0.036539838 0.039661404 0.056020726 -0.04229649 0.106587656 0.13890097
-0.045763258 0.05739164 -0.067716055 -0.22251363 0.009818803 -0.06005982 -0.06427883 0.23341541

layer2.0.bn2.weight f4 [16]
00000000: 7fa7 e83e 29e8 043f 6848 e23e dfe2 0a3f
00000010: 4e1d fb3e 059e 043f 117a e53f a8b4 003f
00000020: 83bf 333f 7db1 013f 2ab8 9c3f db78 1b3f
00000030: fcef 2e3f 0075 183f 7753 173f 2ad1 f63e
0.4544029 0.5191675 0.44195867 0.5425243 0.49045795 0.5180362 1.7927877 0.5027566
0.702141 0.5066145 1.2243702 0.60731286 0.6833494 0.5955353 0.5911173 0.48206455

layer2.0.bn2.bias f4 [16]
00000000: 2ab3 683d a8ec 013f f897 1ebe 6419 953e
00000010: d57f a5bd 52ff b23e 626f 43be 9eec 373e
00000020: 1da4 e13e cd18 a43e 7910 25be ddc7 0a3f
00000030: d4e1 1bbb 2d8b e93d 22f9 fd3e 1e5f 9a3e
0.05681149 0.50751734 -0.15487659 0.29120934 -0.08081023 0.3496042 -0.19085458 0.17961356
0.4407052 0.32050171 -0.16119565 0.5421122 -0.0023785727 0.11403499 0.49604136 0.30150694

layer2.0.bn2.running_mean f4 [16]
00000000: d234 893f cc22 74bf 2103 863e a0f8 873f
00000010: c798 453e 02f2 1abf 7a84 07c0 4003 24bf
00000020: 7adc a5bf cf8c ca3e 4d48 64bc 91f0 babe
00000030: 7ddf 1f3f 27ad d33f 4bd0 ce3b adfa 443f
1.0719244 -0.95365596 0.26174262 1.0622749 0.19296561 -0.60525525 -2.1174607 -0.6406746
-1.2957909 0.39560553 -0.0139332535 -0.36511663 0.6245039 1.6537217 0.0063114516 0.76945

layer2.0.bn2.running_var f4 [16]
00000000: 15e9 013f cc32 5b3f 53cb 923e 4390 793f
00000010: fb07 003f e548 343f 22bc 1540 73d4 153f
00000020: ad83 983f 9bcc 593f 4904 963f 82e8 5d3f
00000030: 2443 663f 95ec 883f bb06 bf3f ae11 283f
0.5074628 0.85624385 0.2867075 0.9748575 0.5001218 0.7042373 2.3396077 0.58527297
1.1915184 0.8507783 1.1720058 0.86682904 0.899462 1.0697199 1.4923929 0.6565198

layer2.0.shortcut.0.weight f4 [16, 8, 1, 1]
00000000: 41d5 e83d 57d0 54bd aa5f d03d 56f3 22bf
00000010: dd95 ec3d 86ea cf3c 282d 283f deda 0cbe
00000020: 9eeb b53c 2751 883d e1ff 5d3e 7e7f 0b3e
00000030: f412 09be faba 1ebe 965e 363e 3e2d fb3b
00000040: 6f7d f53d 6961 cfbc b2e9 d9b9 c89f 1abe
00000050: 29e4 e7be de4f da3c 0ac8 313d 9c57 4d3f
00000060: 809b fc3e ecc7 37be f7d9 07be e55b 4c3e
00000070: ab2f cebd 05b9 98bd 13a2 3e3d e788 b4be
00000080: 560c 0e3d bb88 2dbd c783 fb3c 9f59 233f
00000090: 3007 bcbe 5ca1 d83c 4826 2bbf 2d21 07be
000000a0: 7bf0 61be 041b d23c 2ef6 95be 2ec1 973e
000000b0: ddb8 7fbe 7631 603e 2b3b 083e 8497 b9bd
000000c0: 2615 9e3e 813f a03e 0ae7 74bc 515a c6bc
000000d0: e868 43be d590 813e d588 89bc 3896 4bbe
000000e0: ef3f f73d 1dfb ff3d e6dc 10be 37f6 593e
000000f0: e410 883e e00a edbd 9987 153e 8272 b43e
00000100: 0d2d 2a3f 95ad 24be 879a 96bc be2f 9fbe
00000110: cece 533e b45b 193e 99d6 2cbe 3b4e c13c
00000120: e612 a1be af31 b03c 0d59 4e3e 447d 45be
00000130: 1bab de3e e511 23bd 5da7 87bd 5a04 ebbd
00000140: 3f59 c7bd 45cb b73d 9098 8b3e 5854 d33c
00000150: c186 8ebc 70b9 e7bd 953c 97bb c765 183c
00000160: 6127 933d 3df3 063c c551 ecbd f9af 473e
00000170: a132 63be f70f ccbd 0700 f13e 193f 0abe
00000180: 894d 91be ac67 8bbd 5a3e 0dbe de1e 26be
00000190: db9f b33e 40d6 ef3e 17b5 68be 6f2c b63d
000001a0: 91a8 1abf 9900 b13d 23ed fd3e 7ac7 37bd
000001b0: b40d 83be 53b1 b4bd 6cd8 83be d3aa 46be
000001c0: e8d5 e2bd 2324 4b3d 7062 6d3e c1b2 8fbd
000001d0: af88 7fbd 34be 42be 63f5 5abd 6594 1b3e
000001e0: c82e 113f e2bf 6fbe 338b 2abd 8879 6bbe
000001f0: 1053 6bbe 6bc0 d43c 86b4 3fbd 4bc9 01be
0.113688 -0.0519565 0.101744965 -0.6365255 0.11552022 0.025380384 0.656939 -0.13755366
0.022207078 0.066561036 0.21679641 0.13622853 -0.13386136 -0.15501013 0.17809519 0.0076653054
0.11986815 -0.025315003 -0.00041563582 -0.15100014 -0.4529126 0.026649412 0.043403663 0.80211806
0.49337387 -0.17947358 -0.1326674 0.1995693 -0.10067686 -0.07457165 0.046541285 -0.35260698
0.034679733 -0.042366724 0.030702485 0.63808626 -0.36724234 0.02644413 -0.6685529 -0.1319625
-0.22064392 0.025647648 -0.29289383 0.29639572 -0.24972863 0.21893868 0.13303821 -0.090621024
0.3087551 0.3129845 -0.014947662 -0.024212988 -0.19082987 0.2530581 -0.01678888 -0.19881523
0.12072741 0.12499068 -0.14146766 0.2128533 0.26575387 -0.1157434 0.14602508 0.35243613
0.6647499 -0.16081841 -0.018384231 -0.31091112 0.20684358 0.14976388 -0.16878738 0.023596874
-0.3145973 0.021508066 0.20151158 -0.19286066 0.43489918 -0.039811987 -0.06623719 -0.11475439
-0.09733819 0.089743175 0.27264833 0.025797054 -0.01739824 -0.11314666 -0.0046153762 0.009301609
0.07185245 0.008236703 -0.11539034 0.19500722 -0.22187282 -0.099639826 0.47070333 -0.13500632
-0.28379467 -0.06806883 -0.13793316 -0.16222712 0.35082898 0.46843147 -0.2272533 0.08895194
-0.6041346 0.08642692 0.49594983 -0.04486797 -0.25596392 -0.088228844 -0.25751054 -0.19401102
-0.11075956 0.04959501 0.23182082 -0.070165165 -0.06238621 -0.19017869 -0.053456675 0.15193327
0.5671201 -0.23413041 -0.041636657 -0.22995579 -0.22980905 0.025970658 -0.04680302 -0.12674443

layer2.0.shortcut.1.weight f4 [16]
00000000: ba98 163f 43fa 723d 4b53 333f 24d9 ac3e
00000010: 41ea 343f 11c1 5e3e c9f4 c13e 2177 973e
00000020: 2e60 123f b8b7 593e 9b58 e63d e340 493e
00000030: 5902 e33e 9732 083f 0769 843d 866a f23e
0.5882679 0.0593207 0.7004897 0.33759415 0.70669943 0.21753336 0.3788207 0.29583076
0.5717801 0.2126149 0.11247369 0.19653659 0.4433773 0.53202194 0.06465345 0.47346896

layer2.0.shortcut.1.bias f4 [16]
00000000: 2ab3 683d a8ec 013f f897 1ebe 6419 953e
00000010: d57f a5bd 52ff b23e 626f 43be 9eec 373e
00000020: 1da4 e13e cd18 a43e 7910 25be ddc7 0a3f
00000030: d4e1 1bbb 2d8b e93d 22f9 fd3e 1e5f 9a3e
0.05681149 0.50751734 -0.15487659 0.29120934 -0.08081023 0.3496042 -0.19085458 0.17961356
0.4407052 0.32050171 -0.16119565 0.5421122 -0.0023785727 0.11403499 0.49604136 0.30150694

layer2.0.shortcut.1.running_mean f4 [16]
00000000: 44bb c03e a30a 9a3e c09a 023f 9737 be3d
00000010: 3031 45bf 938f 60be 011e 7b3e 5053 a33f
00000020: f207 383f e515 2abe 6577 9e3c 9604 933e
00000030: e884 dd3d 3566 c1bf 9c0d 49be 5811 25be
0.37642872 0.3008624 0.5101738 0.09287947 -0.7702818 -0.21929769 0.24523164 1.27598
0.71887124 -0.16609915 0.019344041 0.28714436 0.108163655 -1.5109316 -0.19634098 -0.16119897

layer2.0.shortcut.1.running_var f4 [16]
00000000: 1805 cc3e 6667 8f3d 6ddc 8d3e 22e9 c43e
00000010: 9a2b c23e 1175 313e 2005 903e 04d3 4c3e
00000020: 9e90 0b3f fc04 543e 38f2 913d c21f 1f3e
00000030: d397 943e 1962 123f db96 c13d c1ee 043f
0.39847636 0.070021436 0.27707234 0.38459116 0.3792389 0.17329814 0.2812891 0.20002371
0.54517543 0.20705026 0.07126278 0.15539458 0.29022083 0.57180935 0.094526015 0.5192681

layer3.0.conv1.weight f4 [32, 16, 3, 3]
00000000: cabb 953e a2c0 513e e044 a9bd b41e 973e
00000010: a917 b63e 5a40 333e b984 c8bc d02c 8d3e
00000020: 83dc 7b3e e886 10bd e008 ddbc d887 993d
00000030: c65f adbc bf3c cbbd a89a e7bd 1ace 773e
00000040: d9a1 0a3e ba72 c1bc 28e9 9fbc 983a 5bbd
00000050: 0e3f a6bd 6231 68bd d4e3 643d 8e4c b4bd
00000060: 5b59 90bd dc39 1fbd 160b 51bd 2df7 98bd
00000070: 0316 ddbd 8d3f cbbc 50ff 13be 8bf6 f1bd
00000080: ab68 cabd ca52 59bd 11c9 67be ebb6 84be
00000090: b274 ccbd e9bd 9fbc 1c16 ca3d 6580 553d
000000a0: dbdb 40be d8af d5bd 13db 9e3e c114 683e
000000b0: 0e5b 8dbd d100 30bd 17cf f13d cf6b ab3d
000000c0: e9f7 bcbd 5f19 b63d 6cc2 cd3d a025 d5bd
000000d0: 6f20 09bd b8a2 e63c cbf9 083e 6fa1 02bd
000000e0: f703 06be efb6 82bc 3eee 32be c66f 0abe
000000f0: 880c b33d c003 c9bd b211 94bd 4402 7fbd
00000100: 3d6f 31be e8c5 d8bd 2817 083d 402c 31be
00000110: 10cb 59be 051d 933e 76b2 5d3d f456 f2bd
00000120: b484 1fbd 21b2 81bd 1870 d43b fb72 d3bc
00000130: 9e01 a1bd 3f23 91bd e465 9e3e 432f 493e
00000140: 06d2 a6bb 1405 29be 7232 dfbd d933 473d
00000150: c731 2bbe 7799 6fbe e591 e0bd 4999 2c3e
00000160: 7019 0dbe 7b31 64be 1ae3 a53c 9be6 e7bd
00000170: f265 eabd 2db5 4b3d fa0d 0e3c cf55 8dbd
00000180: 7076 203d 060e 6ebc 46e5 ffbb 6a52 afbc
00000190: 8811 b33d 29fd d1bc c5a0 ccbd 748a 0e3b
000001a0: e09e 993d 48bc 973b c5aa 52bc 6c84 c73d
000001b0: 4833 fbbc e3eb 95bd d769 58bd 417f 4bbd
000001c0: bb4a 98bc 9723 3ebd 5e84 babd 30aa 94bd
000001d0: 25f3 bf3c 6ded bdbb d8ca 1c3d 36ce 4ebd
000001e0: 0605 ae3a 7054 18bb 906e f4bc 88fd 6a3d
000001f0: 2399 073b f20d 46bd c6cb 283d 22ab 813d
00000200: 5e66 46bd 5600 bb3d ca95 0b3e aa0a 06be
00000210: 2d86 a1bd d38a 0b3e ce9d fdbd 2b76 12bd
00000220: 2526 97bc f378 b43d 91ae 99bd 210f 073c
00000230: 11b6 433d d4b3 beb9 d272 493c 4003 703d
00000240: 2c6f f03b 9c93 543d 053f ae3d 1b90 20bd
00000250: 3e86 f93a be55 563e 4dee d1bd 399d 763c
00000260: 6abe 023e c52e 9ebd 716d 7f3d 2271 4e3d
00000270: 4131 ad3d ba32 143e a8a0 7f3d 7eda 433e
00000280: 9e66 373e 3bda 543d ad0d 673c f148 05bd
00000290: 2692 443d d14c a2bc fe7a bebc 49be 543c
000002a0: cd10 dfbd fbfa b8bd 00ee a7bd 15c0 3a3c
000002b0: 1e54 62bd b11d 0ebe e8b6 57bc bc44 f03a
000002c0: 821a 91ba f80a 11be 63aa d43d 09ad 873d
000002d0: 631d c8bb c9b4 863d 9af5 b53d c76c a43c
000002e0: 6b2b 403e c17c d83c 5e7e 873b 8ce0 863d
000002f0: f137 8cbd a36f 293d ea0a 6d3d 1693 2d3d
00000300: 6bd3 13bd 3349 6f3e 8681 133e a7c5 163c
00000310: 9c30 5b3e 30c1 ac3e 5392 e5bd 3fa3 47be
00000320: 3812 d3bd 9cbc f8bd 6206 2fbe c643 aebd
00000330: 8bca 12bd a54b bebd 76ae afbd 9705 943d
00000340: 94d3 e93d 1450 9f3d f72b ac3d ed23 b63c
00000350: efa0 c43d 82f5 6d3d 844b bd3d eda6 e03c
00000360: afb0 51bd 30fc d63d 5817 c83c 0a99 abbd
00000370: 6d9d 803d 224e d9bd 5479 aabd fb2f aabd
00000380: 92ad 7bbd 3d8d 0b3d 6eca 173e f503 3b3e
00000390: 6dd9 d23c 889e dd3d fd3a 4b3e 7348 0f3d
000003a0: bbff 003e fc4a 083e 644c b33c 6a4b 0b3d
000003b0: 33b1 203b 438d 19be f406 0abe 5030 ed3c
000003c0: 8d98 0bbe f6c4 ccbd 2fc5 113d 8662 68bd
000003d0: 5040 843d c604 283e 33f7 523d 3d45 f53d
000003e0: a675 013e 94ff de3d de13 823d b936 443d
000003f0: 12e3 ce3d 97e1 703d 0c6d 003d ed03 5dbb
0.29244834 0.2048364 -0.0826509 0.29515612 0.35564926 0.17505017 -0.02447735 0.27573252
0.24595837 -0.035284907 -0.026981771 0.07496613 -0.021163832 -0.09923696 -0.11308795 0.24199715
0.13538302 -0.023614276 -0.019520357 -0.053522676 -0.081174955 -0.05668772 0.055881336 -0.08803664
-0.07048293 -0.03887354 -0.051035963 -0.0746902 -0.10795214 -0.024810577 -0.14452863 -0.118146025
-0.09883245 -0.05305747 -0.22635294 -0.25920805 -0.09983195 -0.019499736 0.09867498 0.0521244
-0.18833868 -0.1043393 0.31026515 0.22664167 -0.06902133 -0.04296953 0.118070774 0.08370172
-0.092269726 0.08891558 0.10046849 -0.10407567 -0.033478197 0.028153762 0.13376538 -0.031892236
-0.1308745 -0.01595637 -0.17473695 -0.135192 0.087426245 -0.098151684 -0.072299376 -0.06225802
-0.1732759 -0.105846226 0.03322521 -0.17302036 -0.21268868 0.28733078 0.05412527 -0.11832991
-0.038944915 -0.063328035 0.006483089 -0.025811663 -0.078616366 -0.07086801 0.3093711 0.19646935
-0.0050909547 -0.16505843 -0.108982936 0.04863343 -0.16718207 -0.23398386 -0.10965327 0.16855349
-0.13779235 -0.222845 0.020249892 -0.113232814 -0.11445226 0.04973333 0.008670324 -0.06901132
0.03917545 -0.014529711 -0.007809314 -0.021401603 0.08743578 -0.025633411 -0.09991602 0.0021750005
0.07501006 0.004630599 -0.012858097 0.09742054 -0.030664101 -0.073203824 -0.05283531 -0.049681906
-0.018590322 -0.04642066 -0.09107278 -0.07259023 0.02343137 -0.0057961256 0.038279384 -0.050489627
0.0013276644 -0.0023243688 -0.029837877 0.057370692 0.0020690642 -0.048353143 0.04120996 0.06331469
-0.04843747 0.091309234 0.13631359 -0.13090006 -0.0788692 0.13627176 -0.123836145 -0.035757225
-0.018450806 0.08812132 -0.07503999 0.008243353 0.047781054 -0.00036373606 0.012295442 0.05859685
0.0073374715 0.051898584 0.08508114 -0.03919993 0.00190372 0.20931146 -0.102505304 0.015052133
0.1276795 -0.07723764 0.06236023 0.05040086 0.0845666 0.14472476 0.062409073 0.19126317
0.17910239 0.051965933 0.014102382 -0.032540265 0.04799094 -0.01981202 -0.023252007 0.012984821
-0.10891876 -0.09032246 -0.08199692 0.011398335 -0.055256 -0.13878514 -0.013166167 0.0018331031
-0.0011070522 -0.1416434 0.10384061 0.06624801 -0.006107019 0.06577451 0.088847354 0.0200714
0.18766563 0.026426675 0.004134937 0.06585798 -0.068466075 0.04136623 0.057871737 0.0423766
-0.036090296 0.23367767 0.14404878 0.009202397 0.21405262 0.3374114 -0.1120955 -0.19495867
-0.10306209 -0.121453494 -0.17092279 -0.085090205 -0.03583769 -0.09291772 -0.08578198 0.07227629
0.114173084 0.077789456 0.08406823 0.022233928 0.09601008 0.058095463 0.09242919 0.027423346
-0.05119389 0.1049732 0.024425194 -0.08378799 0.062800266 -0.10610606 -0.08323923 -0.08309933
-0.061444826 0.034070242 0.14823315 0.18263228 0.025738442 0.10821253 0.19846721 0.034981202
0.12597553 0.13309854 0.021887012 0.034007467 0.0024519681 -0.14995293 -0.13479215 0.028953701
-0.13632412 -0.09998505 0.03558844 -0.056734584 0.06457579 0.16408071 0.05150528 0.11976097
0.12642536 0.108885914 0.063514456 0.04790375 0.10101904 0.05880889 0.031353995 -0.0033724264

layer3.0.bn1.weight f4 [32]
00000000: 3f01 033f 7bc0 253f 99c0 803f 9279 1f3f
00000010: ad06 143f f578 0e3f cf2e 433f d42e fa3e
00000020: 81a0 133f c557 2c3f 9c9d 0f3f 4daa 0a3f
00000030: 15ac 173f 3edb 533f b835 203f 8ad4 1c3f
00000040: 38d1 cb3e 5329 a83e 6f64 ff3e 74d3 043f
00000050: 2052 e03e 3fb7 143f 6395 303f f7f3 093f
00000060: 430f 143f 6e62 163f 2c54 113f e887 073f
00000070: 7b27 fa3e 11d8 283f 9a88 c53e 9614 133f
0.51173776 0.64746827 1.0058776 0.62294877 0.57822686 0.55653316 0.762433 0.48863852
0.57666785 0.67321426 0.5609987 0.5416611 0.5924695 0.8275641 0.6258197 0.6126181
0.3980806 0.32844028 0.49881312 0.5188515 0.43812656 0.5809211 0.68977946 0.53887886
0.5783579 0.5874394 0.5676906 0.5294175 0.48858246 0.6595469 0.3858078 0.57453287

layer3.0.bn1.bias f4 [32]
00000000: 8ddf 27bd 2de5 ea3d d6c4 f53a de8e 81bc
00000010: f399 84be 6384 f0bd bd2d 1abe c8a8 513d
00000020: 23c6 67be 45d8 97be 8109 7cbe 6f17 bd3e
00000030: e049 24be c808 93be 790d 49be e06d 49be
00000040: 11a1 003f 3780 e83e ba89 84bd 87bb abbc
00000050: 466e 9b3e 2028 49be 5dde 5dbe f654 31be
00000060: 782d 94bd a35e 71bd 8eba e4bd 77d6 113e
00000070: becb c93d a143 8ebe 9285 113f 2bb3 65be
-0.04098468 0.11469493 0.0018750678 -0.015815195 -0.25898704 -0.11744001 -0.1505651 0.051186353
-0.22634177 -0.29657188 -0.24613 0.3693194 -0.16043806 -0.28717637 -0.19634046 -0.1967082
0.5024577 0.4541032 -0.06471582 -0.020963443 0.3035757 -0.19644213 -0.21666856 -0.17317566
-0.07235235 -0.058928143 -0.11168395 0.14241968 0.09853314 -0.27785972 0.5684444 -0.22431628

layer3.0.bn1.running_mean f4 [32]
00000000: 0884 1fbf d230 3e40 a36f 6abf c464 ddbe
00000010: ed7c 59be 3d2d ecbe 2ac2 cabf a30e afbf
00000020: 1d1b cd3d ad3c 453f 828f 99be a34d 103f
00000030: 3676 c8be 0f15 d3be 8caa 323f 7cbc 8b3f
00000040: a754 1cc0 c777 1bc0 fdab 193d 46ea 1bbe
00000050: 1c33 c0bd 1d55 23bf 06c9 983e 4d4e 84bf
00000060: 4b37 aebf 96df e5bf a6c6 9cbf 56bf c8be
00000070: c3c3 1840 cda2 8e3e 184b dabd 9a46 bfbe
-0.6231084 2.9717298 -0.91576594 -0.4324094 -0.21239062 -0.46128264 -1.5840504 -1.3676342
0.10014937 0.7704571 -0.299923 0.56368464 -0.39152688 -0.41227004 0.69791484 1.0916896
-2.4426668 -2.4291856 0.037517536 -0.15226087 -0.09384748 -0.6380175 0.2984087 -1.0336396
-1.3610624 -1.7958858 -1.2248123 -0.39208478 2.3869483 0.27858582 -0.10658854 -0.37358552

layer3.0.bn1.running_var f4 [32]
00000000: 0234 5a3f c10b 6d40 419d 1a40 6d05 dd3f
00000010: 9012 6c3f 2de5 c13f cff1 0040 1cb4 cc3f
00000020: c3a5 ad3f a271 653f 956b 483f f70f 2140
00000030: b697 613f 8e7d 9f3f 0eb2 6d3f d5ea 3a3f
00000040: d99a fe3f 401f ab3f 8695 a43f 0efa 423f
00000050: 25b7 b53f fca6 423f 6b30 723f 4c28 7d3f
00000060: 555d a13f 7735 b13f a6af ab3f a4c2 a83f
00000070: b00c f43f de18 4a3f aeac b93f 9333 4f3f
0.8523561 3.7038424 2.415848 1.7267281 0.92215824 1.5148064 2.0147588 1.5992465
1.3566211 0.89626515 0.7828916 2.5165994 0.8812212 1.2460191 0.92849815 0.73014575
1.9891006 1.3368912 1.2858131 0.76162803 1.4196516 0.7603605 0.9460513 0.98889613
1.2606608 1.3844441 1.3412979 1.31844 1.9066372 0.78944194 1.4505823 0.8093807
