kd_results/KD_seed-2_cycles-4_KDfrac-0.9_T-2_400_cifar100-ResNet10_scheckpoint.pth.tar (torch, 723105 bytes, 100 tensors)

conv1.weight f4 [8, 3, 3, 3]
000000 64 5b c4 3c a2 c3 07 bf 75 4e eb 3e f8 b0 ab bb
       0.02396936 -0.53032887 0.45958295 -0.005239602
000010 d3 63 03 bf 27 91 2b 3e f4 d1 81 bd 65 98 d5 bc
       -0.51324195 0.1675459 -0.063388735 -0.026073644
000020 10 5f a1 3e 2b 8e b0 bd e1 39 0f bf 97 3c 5f 3f
       0.3151784 -0.086208664 -0.5594769 0.8720183
000030 36 ee d3 bd 86 ac fc be e9 26 f6 3e dc 84 12 be
       -0.103481695 -0.49350375 0.4807656 -0.14308494
000040 70 04 7f be e4 4f f5 3e a2 91 89 3d ed 91 d1 be
       -0.24904037 0.47912514 0.067172304 -0.40931645
000050 cd c1 e1 3e 86 05 3a 3d 69 4d bb be 03 ce 46 3d
       0.4409317 0.045415424 -0.36582497 0.04853631
000060 fb 19 c3 3d 65 a5 5a be dc 24 6d 3e c4 3e 90 be
       0.0952644 -0.21352156 0.23158592 -0.28172886
000070 b9 df 4e be c3 56 2a be 27 23 ff be d6 bf 3f bf
       -0.20202531 -0.1663466 -0.49831507 -0.74902093
000080 01 f3 0b bf ae df 0e bf 24 74 4a bf d2 4c 0e bf
       -0.5466767 -0.5581006 -0.79083467 -0.5558597
000090 d8 16 cf 3a 11 1e 90 3e 81 fe 64 3e 2b a0 05 3f
       0.0015799655 0.2814794 0.2236271 0.5219752
0000a0 88 8f 15 3f 9d b0 f1 3e e5 f2 04 3f c7 64 f7 3e
       0.58422136 0.47205058 0.5193313 0.48319075
0000b0 b3 2c d2 3e 39 fe 64 3d ef b4 62 3d 7f 76 19 be
       0.41049728 0.055906508 0.055348333 -0.14986609
0000c0 28 57 a2 3e 2e 0d 9f 3d 1d 8a a2 3d cd 0f 28 3e
       0.3170712 0.07766186 0.07936499 0.16412278
0000d0 e3 70 e2 bd 85 4e cc 3d 3c 85 34 be f0 dd 94 bd
       -0.11056688 0.09975914 -0.1762895 -0.07268894
0000e0 5a db 79 bc 9b 2b 26 bd dd 6b 80 3e 01 20 61 3e
       -0.015250051 -0.04056893 0.25082293 0.21984865
0000f0 bc 5f 74 be f8 84 36 3e c3 d3 5d 3e bb 1b ae bd
       -0.23864645 0.17824161 0.21662812 -0.08501383
000100 a7 d9 1a 3e 57 30 8c 3d a5 08 1d 3f 53 05 6a 3f
       0.1512209 0.068451576 0.61341316 0.91414374
000110 fb 3e 07 3f 8b e2 af 3e af b4 35 3f d2 5e 07 3f
       0.52830476 0.34352526 0.70978826 0.5287906
000120 af 15 de 3d 63 66 35 be 3b 62 14 be 12 c2 96 be
       0.108439796 -0.17714839 -0.14490597 -0.2944494
000130 a8 e8 8f bf 16 a0 6d bf 6d 10 94 be 20 b9 86 bf
       -1.1242876 -0.92822397 -0.28918782 -1.0525246
000140 8d c4 11 bf a7 25 88 bd 2b 83 aa 3d cb 25 c8 3b
       -0.5694054 -0.066478066 0.083257996 0.006108021
000150 fd f2 f6 3e f8 bd fd 3f a0 b3 d1 3e d5 35 b8 be
       0.4823226 1.9823599 0.40957355 -0.3597857
000160 64 0c e1 bf a8 e7 f3 be 91 55 13 be 56 27 2c bd
       -1.7581906 -0.47637677 -0.1438811 -0.0420297
000170 60 3e 34 bd e5 28 f4 3e e1 bd 07 40 a7 27 f6 3e
       -0.044004798 0.4768745 2.1209643 0.48077127
000180 87 e8 ff be 98 7b 08 c0 ad bb de be 8c de a8 bd
       -0.49982092 -2.1325436 -0.4350256 -0.082455724
000190 45 ae aa bd d9 3f bd bd 55 d1 c0 3e bf 8c c5 3f
       -0.083340205 -0.092406936 0.37659708 1.5433577
0001a0 ae 67 30 3e 89 30 55 be 57 63 b7 bf 73 af 62 be
       0.1722705 -0.20819296 -1.4327191 -0.22137241
0001b0 3e 46 9b be 78 f7 7b be 11 fc 14 bf 55 6f 6b 3e
       -0.30327028 -0.2460612 -0.5819712 0.22991689
0001c0 72 0b 80 3f 84 20 68 3f 68 d0 4b 3d e8 b3 71 3f
       1.0003493 0.90674615 0.0497593 0.9441514
0001d0 96 66 52 3f 32 34 80 3e dc ff 49 3e 01 a6 99 bc
       0.82187784 0.25039822 0.19726509 -0.018755915
0001e0 51 3e 0f be a4 12 60 bf e5 1f ff be ce 5b bf be
       -0.13988616 -0.87528443 -0.4982902 -0.3737473
0001f0 3d 94 5f bf 8c 18 0e bf ce 93 3e be 70 0c 1b 3e
       -0.8733557 -0.55506206 -0.1861107 0.15141463
000200 aa 4d d7 3e d3 08 5c 3e c2 ad 66 be b6 cd 04 be
       0.4205144 0.21487741 -0.22527221 -0.12969097
000210 7e 20 cd 3e 68 5c c9 bd 1c 10 97 be 76 13 ca bd
       0.40063852 -0.09832078 -0.29504478 -0.09866993
000220 7e ea 87 3e 2a c3 d3 bd bd de aa bf 8e 24 a5 3f
       0.2654609 -0.10339959 -1.3349224 1.2901781
000230 ab 0e 2a 3e af c2 7d be 90 4c 86 3e b7 e2 1e bc
       0.16607158 -0.24781297 0.26230288 -0.009697608
000240 cc 18 e4 be 65 ed 06 3f d5 b8 9f bd 24 aa f5 bf
       -0.4455017 0.52705985 -0.07798926 -1.9192548
000250 ae 59 e9 3f 01 22 51 3e 42 83 c5 be 90 15 ca 3e
       1.8230493 0.20423128 -0.38576704 0.39469576
000260 6d fe 07 be 68 1c 8f be 38 aa 10 3e 60 ce 4a be
       -0.1328065 -0.2795136 0.14127433 -0.19805288
000270 9c a9 c9 bf 23 4e ba 3f d3 d4 22 3e b8 f7 5d be
       -1.5754886 1.4555095 0.15901498 -0.21676528
000280 0b d9 e1 3e d4 e8 c5 bd 99 2e 32 3e 14 e5 97 be
       0.44110903 -0.09663549 0.17400588 -0.2966696
000290 74 bd 27 3e 3f c5 be bd f1 e0 68 3f e0 0e 45 be
       0.16380864 -0.093149655 0.90968233 -0.19243956
0002a0 11 24 45 3d a3 e4 8b bd 28 66 41 3d 54 45 09 3d
       0.0481301 -0.06830718 0.047216564 0.033513382
0002b0 96 ab 1c bf 31 a6 12 3e 4c c3 a0 be b6 af c5 3f
       -0.6119932 0.1432121 -0.31399 1.5444248
0002c0 9e 0d dd be 8b ab 0a be 8f f5 55 be 57 61 b5 3c
       -0.43174452 -0.13542001 -0.20894454 0.022141142
0002d0 08 4e 04 3e 47 a7 96 be 53 e8 4b 3e 1c 4c f7 bd
       0.12920392 -0.29424497 0.19912843 -0.120750636
0002e0 68 63 94 3f 39 ba b2 be a2 8e 63 3d 4a d3 f0 bd
       1.1592836 -0.34907702 0.055555947 -0.1175905
0002f0 5c 21 59 bc 48 26 15 bd dc 05 9b be df 7e 46 bc
       -0.013252582 -0.03641346 -0.30277908 -0.012115209
000300 84 89 49 be 11 0c 12 bf 24 26 48 be 49 60 db bd
       -0.19681364 -0.5704966 -0.195458 -0.10711724
000310 ea ea 09 bf 05 ac 68 be 66 d3 b4 3d 30 41 34 be
       -0.53874075 -0.2272187 0.088293836 -0.17602992
000320 0a bc 65 bc 2a c8 34 be ec 67 16 bf 55 61 c3 be
       -0.014021883 -0.17654482 -0.5875232 -0.38160196
000330 85 50 c0 bb 26 e4 f7 be dc bc a6 be 3b 19 96 bc
       -0.0058689737 -0.4841625 -0.32565963 -0.018322578
000340 2e cc 55 be 27 27 1e 3d c7 87 90 be b1 45 17 bf
       -0.2087867 0.038611557 -0.2822859 -0.59090716
000350 95 c8 95 be c3 20 8f bd 69 be e1 be 75 c1 71 be
       -0.29254594 -0.06988671 -0.44090584 -0.23608954

bn1.weight f4 [8]
000000 e4 93 97 3e 17 5d cd 3e 2b b3 aa 3e 78 26 62 3f
       0.2960502 0.40110084 0.3333982 0.8833995
000010 3d 55 b4 3e 8c 8e 62 3f 1e d2 19 3f 21 0b 06 40
       0.35221282 0.8849876 0.6008624 2.0944293

bn1.bias f4 [8]
000000 e3 73 e5 3e 8d 64 57 3e 3c 77 34 3f 91 71 5e 3e
       0.44814977 0.21034451 0.7049444 0.2172301
000010 07 b3 50 3e 56 b5 46 3e f2 63 4a 3f 70 ad 15 c0
       0.20380794 0.19405112 0.79058754 -2.3387108

bn1.running_mean f4 [8]
000000 d5 c2 ec 3c 96 25 6b 3e a1 9c b3 be 44 f2 a4 bd
       0.028901497 0.22963557 -0.35080436 -0.08054021
000010 e0 a3 b1 bd 01 fe 4d bd c5 e4 f8 be 25 83 10 40
       -0.08673835 -0.050291065 -0.48612037 2.2580044

bn1.running_var f4 [8]
000000 9f 9d 27 40 7b bd 54 40 80 b5 4c 40 a7 e2 4e 41
       2.6189954 3.324065 3.198578 12.930335
000010 d4 62 d1 3f 73 7b 18 41 4d ba 49 40 e6 10 2c 42
       1.6358285 9.530139 3.151996 43.016502

layer1.0.conv1.weight f4 [8, 8, 3, 3]
000000 aa f6 12 3d d3 62 a6 3c 73 cc d5 bd b1 8e f4 3e
       0.03587977 0.020310795 -0.10439386 0.47765115
000010 21 bb b1 3e 84 43 c7 bc 88 c8 29 3e 3e 31 b0 be
       0.3471308 -0.024324186 0.16580403 -0.3441257
000020 22 9f cd be 08 b1 e5 3c 01 a3 34 3e ae db c9 bd
       -0.4016047 0.028038517 0.17640306 -0.09856354
000030 fd a2 4b be 91 05 31 be 28 57 41 be df bb 8a 3d
       -0.19886394 -0.1728728 -0.18880904 0.06774115
000040 dd f3 f9 3c f8 98 90 3e 8a 8c 89 3e 07 89 aa bb
       0.03051179 0.28241706 0.26865035 -0.005204323
000050 61 8c 15 bd ca b6 ff 3c fa f2 bf bd 01 bd 50 bb
       -0.03651083 0.03121509 -0.09372516 -0.0031850936
000060 77 1b 78 3c a3 6b 3b be ae 53 16 3e c0 57 1c bd
       0.015143267 -0.18302779 0.14680359 -0.038169622
000070 7d dc 10 bd c4 d0 53 be 6c 0c 31 be cb 0a 48 be
       -0.035366524 -0.20685107 -0.17289895 -0.19535367
000080 70 02 af 3e 2b 59 da bd d8 5c 38 3e db 45 85 be
       0.34181547 -0.10661539 0.18004167 -0.26029858
000090 f0 fb 2a 3e 76 82 22 3d 2b 04 82 3d 1a bf 94 be
       0.16697669 0.0396752 0.06348451 -0.2905205
0000a0 a1 fc 36 be 18 63 2b be c2 a1 b4 3d 0e e6 0f bd
       -0.17869808 -0.1673702 0.08819915 -0.035131507
0000b0 1b 4c 63 3e d8 0b c7 bd a3 29 cd be 07 98 48 3e
       0.22197 -0.09719056 -0.4007083 0.19589244
0000c0 9b 76 25 3b 8d a2 c5 be 4f 99 5f 3d c2 12 a1 3d
       0.0025247696 -0.3860058 0.054589566 0.07864906
0000d0 7c ff bb be 12 de 97 3e 6a 40 5d bd d2 8e 5e 3e
       -0.36718357 0.29661614 -0.05401651 0.21734169
0000e0 a2 8c f8 bd 76 ad bf be bf 06 e3 be f7 38 3e 3e
       -0.121361986 -0.37437028 -0.44341084 0.18576418
0000f0 60 66 95 bd 1f 2f 84 3f 18 e2 2e be ce 17 0a 3f
       -0.07294917 1.032688 -0.17078435 0.53942573
000100 8a 1c ac 3e ec 2c 0f 3d ed 52 91 3e 34 2e 00 be
       0.33615524 0.03495495 0.2838358 -0.12517625
000110 58 07 c6 be 60 50 ec 3e a3 b4 8a bb cd f6 c1 be
       -0.38677478 0.4615507 -0.0042329594 -0.37883607
000120 00 c0 34 be 7b 85 fc 3c 4b 45 0b be 58 fb 8b bd
       -0.17651367 0.030825367 -0.13600652 -0.068350494
000130 87 0b 5d be 17 8f 33 bd 46 72 09 3e 31 82 1e 3e
       -0.21586429 -0.043837633 0.13422498 0.15479352
000140 b9 b4 0f 3e 45 26 6d be 36 a7 29 bd e2 50 00 3d
       0.14033784 -0.2315913 -0.04141923 0.031327136
000150 3d be 30 bf 9f 89 a0 bd 0d 76 05 3f 49 c1 03 bf
       -0.6904028 -0.07838749 0.52133256 -0.51466805
000160 da 5c be 3d 9e 20 2e 3f 5f 2e 84 bd d3 af 19 bf
       0.09295054 0.6801852 -0.06454157 -0.6003391
000170 19 bc 0b bf a8 01 98 3d dc 8b 72 3c 82 8b 0b be
       -0.5458389 0.07422191 0.014803853 -0.13627437
000180 71 aa 80 3e fc ab 49 3f 71 d9 bc 3e f8 97 d6 bd
       0.25130036 0.7877805 0.36884645 -0.104782045
000190 51 de 10 3e 75 3c 1c be 4f ea af bc 32 be b6 be
       0.14147307 -0.15257438 -0.021474032 -0.35691983
0001a0 9f 7e 46 3e 45 a3 ab 3d 96 e6 6f bd 9d c1 26 3e
       0.1938424 0.083807506 -0.058569513 0.16284795
0001b0 00 b3 b8 3e 50 e5 41 3e 15 35 a6 be 15 a3 1e 3f
       0.36074066 0.18935132 -0.32462373 0.61967593
0001c0 99 30 d0 3d f1 2b 39 bf a8 4b de 3e fe ae 2a be
       0.10165519 -0.72332674 0.43417096 -0.16668317
0001d0 eb 07 2d bf 7f c7 cf bb db 21 56 3d c5 9b 3f 3d
       -0.67590207 -0.0063409205 0.05227838 0.046779413
0001e0 d9 0f 37 bc 0f c8 37 be fc 17 24 3d 81 e1 54 3c
       -0.011173212 -0.1794741 0.040061936 0.012993217
0001f0 fc 6c d6 3d 53 a0 6f be b5 0a 9b 3d 08 48 43 3e
       0.10470006 -0.23401003 0.075704016 0.19070446
000200 18 7f a8 3b fc 5d 57 bd 52 cc 50 be 54 24 44 3e
       0.005142104 -0.052579865 -0.20390442 0.19154483
000210 c4 ab bf bc e8 1e ea 3d d4 fa 7b be 71 a0 2f bd
       -0.023397334 0.11431676 -0.24607402 -0.04287762
000220 1f 2a cc 3d 29 94 a8 3d 5f ab 3e 3c 70 d2 35 3e
       0.099689715 0.08231384 0.011637538 0.17756057
000230 d3 00 44 3d be c0 09 be 9a 77 96 bd 5d cc de bd
       0.04785235 -0.13452432 -0.07347031 -0.10878823
000240 1b 6e c6 bd 93 55 8f 3e 22 3b 12 3e 11 f7 08 be
       -0.0968897 0.27994975 0.1428037 -0.13375498
000250 e9 93 74 bd 47 35 7d bd 9f 3d 94 be 45 f2 83 3e
       -0.05971137 -0.061818387 -0.28953263 0.25770774
000260 f2 5b 32 3e 9d bd 11 bb 54 73 a3 bc ec ce 70 3d
       0.17417887 -0.0022238262 -0.019952454 0.058791086
000270 37 f8 b2 3d b5 c3 b8 3d 25 85 f6 3d 61 9a b2 3d
       0.087387495 0.09021703 0.12037114 0.08720852
000280 fa 86 10 3d 6d 00 ef 3d 3b d0 17 bd f3 90 53 b8
       0.035284974 0.11670003 -0.03706382 -5.0441315e-05
000290 e6 ea f3 3d c5 26 ca bd 4e 92 19 be 8d 43 9f bc
       0.11910038 -0.09870676 -0.14997217 -0.01944139
0002a0 29 0c 3a 3c 9c bb 4c 3c f0 cd 34 3e 84 52 93 3e
       0.011355438 0.012495901 0.17656684 0.28773892
0002b0 a6 24 02 3f 84 35 1a 3f c8 15 da bd 3d da 23 be
       0.5083717 0.6023791 -0.10648686 -0.1600122
0002c0 bf e7 ea bd 3d a4 eb bc 27 6f 9a 3d cf 73 28 3c
       -0.11469983 -0.028764838 0.07540732 0.010281517
0002d0 6c e0 a2 bd 8a 9c cd bd 9d ed f5 bb 29 9f 91 bd
       -0.07952961 -0.10039623 -0.0075051324 -0.071104355
0002e0 15 d0 de bd c0 05 72 bd 64 3e ae 3d 07 9d b9 bd
       -0.10879532 -0.059087515 0.08507994 -0.09063154
0002f0 76 d3 d6 bb 72 84 d3 bd 32 4f 54 be d5 1c b5 be
       -0.00655597 -0.10327996 -0.20733336 -0.3537356
000300 9a 98 e4 bd 06 12 a6 bd 07 f7 de be e0 3c 2c 3d
       -0.11161919 -0.081089064 -0.43547842 0.042050242
000310 53 03 5a bd bf 5c 5b be 2d 3b f6 be e7 80 cd be
       -0.053225826 -0.21422099 -0.48092023 -0.40137407
000320 29 cd cc be 98 32 ae bd 05 3f 08 bf ad 59 a2 be
       -0.40000275 -0.08505744 -0.5322116 -0.31709042
000330 24 d6 0a bf 4d dc 6a bf 00 76 32 bf ec 9b 24 be
       -0.54233 -0.917424 -0.69711304 -0.16075104
000340 75 17 c7 3d 87 6e 29 bd c2 cb 55 be 37 32 a2 3d
       0.09721271 -0.041365173 -0.20878509 0.07919734
000350 a5 65 53 3e 97 5d 37 3f 85 53 9f 3f 21 be 98 3f
       0.20644243 0.7162718 1.2447363 1.1933023
000360 06 ef 51 3e ae 93 28 be 79 4d b0 3d c2 96 10 be
       0.20501336 -0.16462585 0.08608527 -0.1412001
000370 57 60 17 bd d1 75 c8 3d cc b0 25 3d 0e e6 f6 3b
       -0.03695711 0.09788097 0.04045181 0.007534749
000380 18 9d 86 3d f8 14 e9 3c 6c 79 d5 bd 02 06 0e be
       0.06572932 0.028452381 -0.1042355 -0.1386948
000390 02 ab c4 3d fa 21 18 3d 30 3c 62 3d 2a d3 9f 3d
       0.0960293 0.037141778 0.05523318 0.07803948
0003a0 59 72 8e 3d f9 7a 3b 3e a2 a6 54 be e4 a8 31 be
       0.06955404 0.18308629 -0.2076669 -0.17349583
0003b0 f9 88 dc bd d0 44 a4 3c ee e3 28 3c c0 a4 fe 3d
       -0.10768313 0.020052344 0.010308249 0.12433767
0003c0 44 43 b8 3c 0a 31 e5 bc b8 4f ab 3d f5 f1 ad 3c
       0.022493012 -0.027977485 0.083648145 0.021233538
0003d0 41 a7 a1 bd e8 3c 25 bd c7 3c 0b bd 8a 02 87 be
       -0.07893229 -0.040341288 -0.03399351 -0.26369125
0003e0 b7 60 03 be 93 13 7b 3e d9 75 9b be 50 06 aa 3d
       -0.12829863 0.24519186 -0.30363348 0.08301985
0003f0 23 8a 31 3d b4 99 5d bd f2 73 24 be a0 b4 fb 3c
       0.043344628 -0.05410166 -0.16059855 0.030725777

layer1.0.bn1.weight f4 [8]
000000 6c 43 6a 3f 6d 02 ca 3e 10 b8 20 3f 81 5a 8e 3f
       0.9150913 0.39454976 0.6278086 1.112137
000010 cb 0f d2 3e c3 40 8d 3f 31 87 ea 3e 43 a9 81 3f
       0.41027674 1.1035389 0.45806268 1.012978

layer1.0.bn1.bias f4 [8]
000000 7b ea 43 bf 09 0f f3 3e 43 aa 21 bf 89 4b 8b bf
       -0.76529664 0.47472408 -0.63150424 -1.0882427
000010 b0 bf 45 3e e4 25 b5 3e 1f 8f f6 3e b9 c0 63 3e
       0.19311404 0.3538047 0.48156068 0.22241487

layer1.0.bn1.running_mean f4 [8]
000000 d9 66 e9 bd c7 0b a7 bd 0a 98 41 c0 b4 90 83 bf
       -0.1139657 -0.08156543 -3.0249047 -1.0278535
000010 6f bf 0e c0 10 e6 b4 bf 7a 55 e1 bd 20 dd 72 bf
       -2.2304342 -1.413271 -0.110026315 -0.9486866

layer1.0.bn1.running_var f4 [8]
000000 5f 2c 09 3f 85 47 a9 3e ea 2c 07 41 84 0b a8 3f
       0.5358333 0.33062378 8.448465 1.3128514
000010 53 15 28 3f d7 b5 82 40 5b e6 ab 3e 09 39 bc 40
       0.6565754 4.0846972 0.33574185 5.8819623

layer1.0.conv2.weight f4 [8, 8, 3, 3]
000000 d7 ae f9 3d 82 74 50 bf 04 e5 f1 3d d5 d4 08 be
       0.12191551 -0.81427777 0.118112594 -0.13362439
000010 8e 2f 9f be d8 e1 82 be 58 df 23 3d 08 bf 94 3d
       -0.3109097 -0.2556293 0.04000792 0.07262999
000020 50 20 ac bd 31 e9 7f bd 4c 40 b5 3e b4 83 4a be
       -0.084046006 -0.062478248 0.35400617 -0.19776803
000030 8f 74 1f 3d 08 30 b9 be 55 81 06 3e ed ee a2 3c
       0.03892952 -0.36169457 0.13135274 0.01988932
000040 bc e5 26 bc 43 fc b9 3d c4 af ec bd 72 b8 1b 3d
       -0.010186609 0.09081318 -0.11556962 0.038017698
000050 6a 9e 61 3e 4f d8 57 3d bc ae de 3d 61 eb 9f bd
       0.22033086 0.052696522 0.10873172 -0.07808567
000060 ce 4d e5 bd 74 61 05 bd ef bb 16 3e c9 d0 42 3e
       -0.11196481 -0.03256364 0.14720128 0.19024958
000070 56 94 96 3e 69 1e 14 be 79 69 6a bd 1c d1 8f bd
       0.29410046 -0.14464726 -0.057229493 -0.07022306
000080 8a 40 54 3e be f7 bd bd 5f 14 0d be 37 f3 e5 3d
       0.20727745 -0.09275769 -0.13777302 0.1122803
000090 3b 4b cc 3d 75 52 13 be 11 e8 a5 3e 04 db 27 be
       0.099752866 -0.14386924 0.32403615 -0.16392142
0000a0 a2 0b bb bc 33 19 21 bd 42 1f 4a bd 5b d4 98 3c
       -0.022832695 -0.039330672 -0.049346216 0.018655946
0000b0 00 a2 6f bd a1 e3 ee 3d a7 e5 77 bf 22 af 79 3e
       -0.058504105 0.116645105 -0.96834797 0.24383214
0000c0 67 17 e0 bd 1e 09 7a 3f 9f ea 81 be 4b a3 a1 3c
       -0.10941964 0.9767016 -0.25374314 0.019731184
0000d0 91 c9 2c 3e 35 33 80 bc d3 42 bb 3c 98 cc ed be
       0.16873766 -0.015649417 0.022859013 -0.46445155
0000e0 6a 18 dc 3e d8 ec a1 3d b9 20 31 3e 3f b8 3c be
       0.42987376 0.079065025 0.17297639 -0.1842966
0000f0 82 9a ae bd 88 11 0b 3e d1 ce d4 bd 6d e7 bc 3d
       -0.08525564 0.13580906 -0.103910096 0.092238285
000100 cf 00 3e 3f 34 d1 5c bf e7 aa 18 bd 24 12 5d be
       0.74219984 -0.8625672 -0.03727236 -0.21588951
000110 29 60 4f 3e e7 66 bf bd 14 df 72 be 6f e9 2e 3e
       0.20251526 -0.09345799 -0.2371791 0.17081235
000120 ef 6e 86 3e 3f 80 01 3e b1 f0 75 3c fb 6f 17 3e
       0.2625651 0.12646578 0.015010999 0.14788811
000130 c8 1f 31 3e 0d 0a e2 bd f1 c4 f0 bc e1 b0 1c bd
       0.1729728 -0.11037073 -0.029390784 -0.038254622
000140 db e3 9e be 84 5c 9f 3d d9 67 fb bd d7 aa 53 be
       -0.31033215 0.07781318 -0.12275667 -0.20670639
000150 d5 48 b2 3e 99 bf ec 3d e6 79 c2 be ac a2 98 3e
       0.3482119 0.11559982 -0.37983626 0.2981161
000160 b8 70 1c 3e e7 e1 91 be 0e 45 67 bd ff 72 9f bd
       0.15277374 -0.28492662 -0.05646234 -0.07785606
000170 5c 0d e6 bd 2c 17 0c be c0 ce 66 be 2d 0f db be
       -0.11233017 -0.13680714 -0.22539806 -0.42785016
000180 b9 5c 59 3e f9 31 35 3e c2 10 43 bd 1c 37 40 3d
       0.21226777 0.17694844 -0.047623403 0.046927556
000190 28 e8 aa bd fc 06 7d be 04 e1 cd be c2 5d ba be
       -0.083450615 -0.24709696 -0.40210736 -0.36399657
0001a0 ce b3 1c be 02 a5 c8 be 7e 78 85 be 6b 6e 97 bd
       -0.15302965 -0.3918839 -0.2606849 -0.073941074
0001b0 dc 2f 17 bd 47 be 35 3e fe a8 6d 3e da 69 7d 3d
       -0.036910877 0.17748366 0.23208997 0.061868526
0001c0 e7 1c 47 3e a1 c3 4e 3e 8b 7b 32 be aa d2 9f bd
       0.19444619 0.20191814 -0.1742994 -0.07803853
0001d0 17 b4 10 be 98 2d 98 bc 63 fa 5e be 96 02 a1 3d
       -0.14131199 -0.018576428 -0.21775202 0.07861821
0001e0 d8 2e 0c 3f e8 28 ac 3e 6e 3a 32 3e 8c 2c 73 3d
       0.5475898 0.3362496 0.17405102 0.059368655
0001f0 c1 ae 85 3e ef b6 5b 3e 7a 45 3d bc 97 2f 95 3e
       0.2610989 0.21456502 -0.011552209 0.2913787
000200 1b e8 9d 3e 08 e5 5c 3e 24 98 f0 bd d2 df 73 bd
       0.30841145 0.21571743 -0.117477685 -0.059539624
000210 91 0e 3f bd 61 c0 98 be 17 10 12 bf c1 b5 54 bc
       -0.04664475 -0.29834273 -0.570558 -0.012982787
000220 5c 0e ce bc c3 d0 1a be 29 a1 12 be c3 be 70 3e
       -0.025153331 -0.15118699 -0.1431929 0.2351027
000230 cd b3 01 3c 6c e6 e2 bb f6 54 3f be 17 9d f2 bd
       0.007916403 -0.006924441 -0.18684754 -0.11846369
000240 14 b9 0f 3e 66 04 9b 3d 2d 07 8b bc 79 2f d6 3d
       0.14035445 0.07569198 -0.016971195 0.104582734
000250 38 29 62 3d fb 3e 0c bd 0f f2 9b bc f9 17 b9 bc
       0.05521509 -0.03423975 -0.019036321 -0.022594439
000260 9f 74 3b be 5b dc 9b 3e 42 cb c8 3e e0 ed 0f be
       -0.18306206 0.30441555 0.39217573 -0.14055586
000270 38 83 50 3e 20 31 9a 3e d7 b5 09 3e bc 82 05 bf
       0.20362556 0.30115604 0.13448273 -0.5215261
000280 2e 98 ff be 3c 3a c0 bd da c3 a3 bd 0c 0a c9 3d
       -0.4992079 -0.09386107 -0.0799634 0.098163694
000290 ff 39 15 3d ae 30 5f bc 51 42 bf 3d a8 41 4f 3d
       0.036432263 -0.013622446 0.09338821 0.050599724
0002a0 ae f0 f4 bd d0 88 00 be e6 f6 02 be 30 b2 1f bb
       -0.119599685 -0.1255219 -0.12789497 -0.0024367683
0002b0 20 e0 51 3e cf be 40 3e b9 4d ea 3c 55 06 0d 3e
       0.20495653 0.18822788 0.028601514 0.13771947
0002c0 f1 4c 7c 3d d7 75 bd bd 34 01 68 bd 60 9f 41 be
       0.061596815 -0.09250992 -0.056641772 -0.18908453
0002d0 e0 ec 75 bd ff e7 23 bd bc 77 1d 3e 58 bf 9c be
       -0.060040355 -0.04001617 0.15377706 -0.30614734
0002e0 f7 76 09 be a9 2a 99 3e a0 85 49 bf 94 76 01 bf
       -0.13424288 0.2991536 -0.7871952 -0.5057156
0002f0 fb db 16 3d 9a 90 46 bd cd c4 3d 3d 32 07 38 3d
       0.036830883 -0.048477747 0.046330262 0.044928737
000300 25 6a c4 bc 48 c0 e6 3c 49 bb de 3c f5 9d 38 3e
       -0.023976395 0.028167859 0.027188914 0.18029006
000310 a2 ea a7 bd 60 ab d5 bc ac f6 32 3d f7 ca e7 bc
       -0.081990495 -0.026082695 0.043692276 -0.028295023
000320 8c fc 12 be c1 93 d4 be 13 4a be bb 13 c7 4f 3e
       -0.14354151 -0.41518977 -0.00580717 0.20290785
000330 fa 4f 2e be 62 14 e6 3d bc 99 8c 3e ee 87 ab be
       -0.17022696 0.112343565 0.2746104 -0.33502144
000340 c0 24 9a bd 1f 48 5e bc 81 1c 5f bd b5 42 5b bd
       -0.07526541 -0.013567 -0.054470543 -0.053530414
000350 1c 4a 5f bd d1 bc dd bd 9e 51 09 be c6 5c 0b be
       -0.054514036 -0.108270295 -0.1341004 -0.13609609
000360 f0 e9 3f 3d b2 6e 2b bd c8 1a 1f bd 03 db 5b be
       0.04685396 -0.041853614 -0.0388439 -0.21470265
000370 e4 1c 23 3e be 01 c0 3d 11 a3 42 3d 1a 6a d2 3c
       0.1592899 0.09375332 0.047518793 0.025685359
000380 a0 e9 71 bd e9 35 6e be 30 4d 4a 3d 3b 66 1c 3e
       -0.059060693 -0.23262753 0.049390018 0.15273373
000390 57 5d 76 3e da 38 f7 3a 0c d8 e1 bd f8 3b 2d be
       0.24059044 0.0018861548 -0.11027536 -0.16917408
0003a0 93 4d 19 bc 52 f7 99 3b 42 29 3e 3c 8f 1c 24 bd
       -0.009356874 0.0046986723 0.011606516 -0.040066298
0003b0 ab 1c 95 bd 6f 1e db 3e de fa c4 3e 85 d6 ac 3e
       -0.072808586 0.42796656 0.38472646 0.33757415
0003c0 20 c3 0f be 7a 96 ee be d2 40 b9 be 1d 4e cd bd
       -0.14039278 -0.4659918 -0.36182266 -0.100246646
0003d0 90 4c a7 be ab 29 d3 bd 3f 44 f1 be 6b be 36 bf
       -0.326756 -0.10310682 -0.4712238 -0.71384305
0003e0 50 71 3f be 94 8e fe 3e ec fd bb 3e b8 6a 97 3e
       -0.18695569 0.49718153 0.36717165 0.29573607
0003f0 40 e1 99 3d 12 39 7d bd cc 76 e3 bd 4a 16 4c be
       0.07513666 -0.061822005 -0.11106643 -0.19930378

layer1.0.bn2.weight f4 [8]
000000 23 61 d4 3f e4 96 46 3f 90 a3 1a 3f 8b 74 88 3f
       1.6592144 0.7757399 0.60405827 1.0660566
000010 93 aa 2f 3f 8d 10 9d 3f e6 05 3b 3f f5 6b 94 3f
       0.6861965 1.2270676 0.73055875 1.1595446

layer1.0.bn2.bias f4 [8]
000000 49 87 3e be c8 19 59 3f 98 f3 18 be fb df aa 3f
       -0.18606295 0.84804964 -0.14936674 1.3349603
000010 75 09 87 3f 91 0f c2 bb ca 0a 77 3f de e6 89 3f
       1.0549761 -0.005922266 0.9650084 1.077358

layer1.0.bn2.running_mean f4 [8]
000000 72 dd 8e 3d d6 87 43 3e 56 24 0c bf e4 2b 30 bf
       0.06975831 0.19094786 -0.54742944 -0.6881697
000010 68 15 f1 be 7e 6e 73 bf 5f 34 d6 3d 1e 2c b0 3e
       -0.47086644 -0.9509047 0.10459208 0.3440866

layer1.0.bn2.running_var f4 [8]
000000 4e 28 19 3f cc 01 61 3f 95 b6 95 3e 5a 59 0d 3f
       0.59827125 0.87893367 0.29240862 0.55214465
000010 6a 3a 13 3f 68 11 22 3f 5f 15 50 3f fb d9 68 3f
       0.5751101 0.6330781 0.8128261 0.9095761

layer2.0.conv1.weight f4 [16, 8, 3, 3]
000000 d2 75 d6 bc f4 f3 ad bc 88 d4 e8 3c ce 30 8d 3d
       -0.026179228 -0.02123449 0.028421655 0.068940744
000010 35 0c a9 bb 28 8e 96 3d 15 02 b0 3c dd f6 ba bc
       -0.005158926 0.07351333 0.021485368 -0.022822792
000020 04 d2 37 3d 7f 36 51 3d ee 28 85 3c 21 69 a6 be
       0.04487802 0.051077362 0.016254868 -0.32502082
000030 a6 b7 89 be 3a 1d 86 be 57 ba fa be 70 b5 ef be
       -0.26897925 -0.26194173 -0.4897029 -0.46818113
000040 2a db f8 be 8e eb 9b be d6 ae 3f be 67 26 5a 3c
       -0.4860471 -0.3045315 -0.18719038 0.01331482
000050 5f f6 63 3e 6a 75 08 be 6d 5d ae 3d ff 18 5d 3e
       0.22261952 -0.1332604 0.08513913 0.21591567
000060 0d f4 9a 3d a8 4f dc 3d ee f5 ac bd 19 dd 92 bd
       0.0756608 0.10757381 -0.08445345 -0.07171077
000070 eb 6d bb 3c 6d 30 20 bb 8c 6d cd 3d ea 4b 57 3e
       0.022879561 -0.0024442927 0.1003066 0.21025053
000080 ba 73 12 bc e5 21 18 3e 08 b3 47 3e 1e 6e e8 bc
       -0.008938724 0.1485668 0.19501889 -0.02837282
000090 be b3 2a 3e 85 69 7d 3a ff 28 50 3e 73 be 67 3e
       0.16670129 0.0009666908 0.20328139 0.22631244
0000a0 9b e1 ab 3d 7b a7 2e 3e 0c 6f c1 3e 7d da 73 3e
       0.0839264 0.17056076 0.37780035 0.23813815
0000b0 02 91 35 3e 55 13 98 bc 1a 7c f3 ba 8f f3 7e 3c
       0.17731097 -0.018563906 -0.0018576414 0.015560999
0000c0 97 c2 79 3c c3 70 11 bd 95 f6 01 3d f8 6a 89 bd
       0.015244148 -0.03550793 0.0317293 -0.06709856
0000d0 bc ff 38 bd d8 cb 4c 3c a3 03 8d 3d 9d 49 c8 bd
       -0.045165762 0.012499772 0.06885459 -0.097796656
0000e0 9c 64 db bd 14 5e 1f be b8 6b 25 be 1d ac d2 bd
       -0.10712549 -0.15563232 -0.16154373 -0.10286734
0000f0 d3 ca 86 be f8 57 31 be 6d f3 8f 3d 2a b9 0e be
       -0.26326618 -0.17318714 0.07028852 -0.13937822
000100 55 fa 11 3d 34 12 65 3e 50 01 c6 3e 2c 90 b4 3e
       0.035639126 0.22370225 0.38672876 0.35266244
000110 c3 f5 c4 3e 7a aa 08 3f e5 14 d0 3e 58 cf 23 3e
       0.3846875 0.53385127 0.4064094 0.15997064
000120 a2 c2 ea bc fd 17 df bc a8 ae 11 bd 11 10 26 3b
       -0.028657261 -0.027233118 -0.035566956 0.0025339166
000130 ce fd 27 bd e7 4b 0b bd 44 ce ee 3d b6 d6 7d 3d
       -0.04101353 -0.034007933 0.11660436 0.061972342
000140 2d 78 1a 3b ec 04 1d be ae 24 26 bf b7 2c 47 3d
       0.0023570166 -0.15333909 -0.6489972 0.048626628
000150 df cc af 3e 6d 79 53 be f2 f3 91 be 46 4f d3 3e
       0.34335992 -0.20651789 -0.28506428 0.41271418
000160 9b 32 77 3e 79 74 7c be 53 18 f4 bd 39 c5 b1 3e
       0.24140398 -0.24653806 -0.11918702 0.3472078
000170 a6 ed 67 3e fb bf 07 bf bf a3 23 bc 2a db 00 3f
       0.2264925 -0.53027314 -0.009987771 0.5033442
000180 db 52 ca be fa 06 d3 be b3 a7 0a 3e ee d5 b0 3e
       -0.3951634 -0.4121626 0.13540535 0.34538215
000190 65 c6 21 3c 29 ff e8 bd f6 b1 90 3e 60 47 c0 3d
       0.009873961 -0.11376793 0.28260773 0.09388614
0001a0 04 10 f9 bd 82 bb fb 3d 21 63 02 3e 04 29 72 bd
       -0.12161258 0.12291624 0.12733127 -0.059121147
0001b0 ba 97 30 bd 9a 84 7c 3d f8 09 1e bd 93 00 96 be
       -0.043113448 0.061649896 -0.038583726 -0.29297313
0001c0 b5 fd 52 bd 46 f0 1f 3e 87 72 26 3d 1f fd 09 be
       -0.051511485 0.15619001 0.040636566 -0.13475464
0001d0 9e 84 04 3e fb c2 57 bd 54 31 d1 bd 64 e1 c7 bd
       0.12941214 -0.052676182 -0.10214487 -0.09759787
0001e0 69 45 a6 3d 19 ae b3 3d 3f ef 3a 3c 61 97 c1 3d
       0.08118708 0.08773441 0.01140958 0.09452701
0001f0 90 9c 6b 3e 04 af 1c 3e ca 62 0d be 9f 50 ac bc
       0.23008943 0.15301138 -0.13807216 -0.021034537
000200 99 8b 16 3e 27 88 46 3d 41 fc ad bc 70 d8 da 3d
       0.1470169 0.04846969 -0.021238448 0.106858134
000210 4e a3 bc 3d dd dd 1b be b5 50 99 bd 9b 20 32 3d
       0.092108354 -0.15221353 -0.07486097 0.043488126
000220 2b 31 c4 3e c1 14 fd bd 47 17 d5 be 4c 30 a5 3e
       0.38318762 -0.12357474 -0.41619322 0.3226341
000230 13 bb 1a 3e 02 3d 87 be dd 00 ca bd 00 c7 45 3e
       0.15110426 -0.26413733 -0.09863446 0.19314194
000240 7b 00 a5 3c 4d b1 ae 3d bb 80 66 3d ef 98 83 bd
       0.02014183 0.08529911 0.05627511 -0.06425654
000250 68 b5 b8 bc e0 fd d9 3c 45 18 5b 3c 80 33 67 bc
       -0.022547439 0.026610315 0.0133724855 -0.0141114
000260 b9 ec 57 bd 5f fe bd 3d af 59 ae 3c 9d 7c fb 3d
       -0.05271599 0.09277033 0.021282999 0.122796275
000270 92 9b b6 bc be 0b 2f be 1d be 81 bd 53 d0 cf bd
       -0.022290979 -0.17094323 -0.06335089 -0.101471566
000280 ef b7 16 3e 41 4a aa bd ef 9c b2 3c f4 40 39 3e
       0.14718603 -0.08314944 0.021803347 0.18091184
000290 e7 61 a8 3d 6a 3a 00 3d c2 25 97 bd 55 25 2f be
       0.082217984 0.031305708 -0.073802486 -0.17104085
0002a0 eb 14 0e be 48 40 ce bd 3a d3 84 bd 28 eb 30 3d
       -0.13875167 -0.100708544 -0.06485601 0.043193012
0002b0 57 8a 46 bd 6c 19 62 3d 0e 0d 23 3f 5f 58 4e 3f
       -0.048471775 0.055200025 0.63691795 0.80603594
0002c0 10 61 0b 3f 72 9e 15 bf df 9d 56 bf b5 f2 cf be
       0.5444498 -0.58444893 -0.8383464 -0.40614858
0002d0 68 e8 81 bd bd 1d 9b bc 21 7f 04 3d a6 2b 1b 3e
       -0.06343156 -0.018935079 0.032347802 0.1515337
0002e0 34 f1 bb 3b 26 a0 d7 bc 42 7f 03 be d8 c4 a1 3c
       0.0057355408 -0.026321482 -0.12841514 0.019747183
0002f0 91 3f 0c be d7 c9 a9 bd 81 56 6c bc 1c 60 c0 bd
       -0.13696124 -0.08290451 -0.014424921 -0.093933314
000300 a9 19 5f 3d a6 3f ba 3c 2c 0c 0a bd 65 a0 c7 3d
       0.05446783 0.022735428 -0.033703014 0.0974739
000310 98 fd 95 3d 36 2d 05 bd db fc e2 bd d9 af f2 3c
       0.0732376 -0.03251382 -0.110833846 0.029624866
000320 70 89 24 3e cb 3c c5 3d 11 df 62 3c f8 60 03 be
       0.16068053 0.09630736 0.0138471285 -0.1282996
000330 e0 01 c1 bd 10 31 b0 bd 59 76 9c 3a d9 1f bf bd
       -0.09424186 -0.08603108 0.0011937126 -0.09332246
000340 0a 7c c1 bc a6 6f 09 be 00 6d 9a be b7 87 af be
       -0.023618717 -0.13421497 -0.30161285 -0.3428323
000350 67 49 53 3c 25 99 c9 3e 14 56 e6 3e c9 66 90 3e
       0.012895918 0.39374653 0.44987547 0.2820342
000360 0f 30 f9 bc c4 58 86 bc 5c f3 97 bd 1e f1 d6 3d
       -0.030418424 -0.016399749 -0.07419464 0.10495208
000370 5c fb 00 3e 93 f8 20 3d 6d fe fd 3d e3 2a 52 3c
       0.12595886 0.03929956 0.124020435 0.012827608
000380 37 fb 93 bd 40 fe dc bc 46 ab 57 be 58 b2 8b 3d
       -0.0722565 -0.026976705 -0.2106143 0.06821126
000390 db 27 23 3e be 2c 4f be b8 44 aa 3c 71 a1 d3 3e
       0.15933172 -0.20231912 0.02078472 0.41334108
0003a0 40 f5 81 3e 17 f2 70 3e b5 88 e2 3e 8b 88 9b 3e
       0.25382423 0.2352985 0.44244924 0.30377612
0003b0 60 b5 2d 3e 15 49 1c bd 99 c3 cc 3d b8 ef e2 bd
       0.1696372 -0.038155634 0.09998245 -0.11080879
0003c0 e3 96 b3 be 48 44 af be df fd ca be 95 f9 ef 3d
       -0.35076055 -0.34231782 -0.39646813 0.11717526
0003d0 f5 ba 6f 3e 52 31 82 bd ed 3f 37 3d 89 5b 24 3e
       0.23411162 -0.06357063 0.0447387 0.16050543
0003e0 f6 8b 78 bd bf ee eb bd b8 48 d5 bd e5 35 a6 3d
       -0.060680352 -0.115201466 -0.104142606 0.08115748
0003f0 26 a3 12 be e2 9a a5 be b7 14 e2 be de 18 48 3d
       -0.14320049 -0.3234473 -0.4415643 0.04885184

layer2.0.bn1.weight f4 [16]
000000 54 93 1e 3f 70 51 22 3f 4a 0a 58 3f cf 8c e7 3e
       0.61943555 0.63405514 0.843907 0.45224616
000010 17 8b 53 3f 3b 75 39 3f e3 7f 59 3f 8e bd 38 3f
       0.8263411 0.72444504 0.84960765 0.7216424
000020 7c 40 2f 3f ca ec 5a 3f ab d0 62 3f 2e d5 3b 3f
       0.6845777 0.8551756 0.8859965 0.7337216
000030 82 59 5e 3f b2 8c e4 3e 48 7e 62 3f 9a 2c 8e 3f
       0.8685533 0.44638592 0.8847394 1.1107361

layer2.0.bn1.bias f4 [16]
000000 8c 13 0c 3d 23 6a 01 be a3 ed 88 bd 6d 37 48 3f
       0.03419833 -0.12638144 -0.066859506 0.78209573
000010 27 58 b8 bd 91 87 10 3d d8 5e 91 be 71 84 e3 bd
       -0.09001189 0.035285536 -0.28392673 -0.111092456
000020 08 59 06 be 7a d2 30 be 65 50 ce bd 73 9b 71 bd
       -0.131199 -0.1726779 -0.10073928 -0.05898614
000030 98 59 7c bd 09 af 8a 3f c1 79 04 bb 74 46 90 bf
       -0.06160888 1.0834666 -0.0020214173 -1.12715

layer2.0.bn1.running_mean f4 [16]
000000 05 6a d0 3f 77 ea 36 3f 5e 9a 1a be 53 6f 2d 3f
       1.6282355 0.71451515 -0.15097949 0.6774799
000010 3f 65 26 bf 6d 54 78 c0 6f ce e5 bf b2 53 84 be
       -0.6499824 -3.880153 -1.7953624 -0.25845104
000020 5b 6e d8 3f 5c 49 78 bf e5 0e b4 bd 91 ab b5 bd
       1.6908678 -0.9698694 -0.087919034 -0.08870614
000030 a2 57 97 3c ae 5e 9f 40 93 cc 23 bf 72 1d e3 bf
       0.018474404 4.9803076 -0.6398403 -1.7743361

layer2.0.bn1.running_var f4 [16]
000000 32 62 a1 40 78 43 c5 3f b8 65 04 41 3f ff e9 3f
       5.0432367 1.5411215 8.274834 1.828102
000010 fa a4 ba 40 51 b7 cd 40 34 f1 d6 40 9f e0 a1 40
       5.8326387 6.4286275 6.7169437 5.0586696
000020 5c 5b 6d 40 3a 83 d3 40 9f 30 ed 40 36 81 d6 40
       3.7087011 6.609769 7.412185 6.703273
000030 03 21 de 40 3b 24 a4 40 a3 b9 03 41 f0 25 35 40
       6.9415298 5.1294227 8.232821 2.8304405

layer2.0.conv2.weight f4 [16, 16, 3, 3]
000000 07 ce ea 3e f1 f8 df 3e d4 58 e7 3e cc 11 f1 3e
       0.4586031 0.43744615 0.45184958 0.4708389
000010 ac 81 26 3f 9b ac 09 3f ff 4c 1b 3f f2 ea bf 3e
       0.65041614 0.53779 0.6066436 0.37483937
000020 c4 92 02 3f 69 a7 05 3d a0 c6 c3 3d 3d f1 7d 3c
       0.51005197 0.032630358 0.09559369 0.01549941
000030 99 67 2f 3e 07 bc 6a 3e c4 a0 9c 3d 5d ba 09 3e
       0.17129363 0.22923289 0.07647851 0.13449998
000040 43 a6 34 3e 0d 7c 51 bc 1e 83 56 bd 08 80 dd 3d
       0.17641549 -0.012785924 -0.052371137 0.10815436
000050 43 a4 4d bd 64 4e 45 3c ff e8 1a 3e 68 31 8a 3d
       -0.05020548 0.012042616 0.15127943 0.06747705
000060 be b4 47 bc d3 45 7e bc 7d 11 db bc 9c f8 f1 bd
       -0.012189088 -0.015519577 -0.026741737 -0.118149966
000070 01 eb b2 bd 28 02 1c be f1 d2 44 3b d2 e9 25 be
       -0.0873623 -0.15235198 0.0030032957 -0.16202477
000080 49 5b f8 bd be 70 99 bc 4a 05 cd 3d c1 7f 55 bd
       -0.12126786 -0.018730517 0.100107744 -0.05212379
000090 1d 12 f2 bc 7c 3f 36 3c fe a3 07 3d 9f 05 3c b9
       -0.029549653 0.011123534 0.03311538 -0.00017931171
0000a0 fd ba 40 bd 68 37 e3 3a 67 aa 7c bd a2 7d 87 bd
       -0.047053326 0.0017335238 -0.061685946 -0.066157594
0000b0 f0 76 c7 bd 84 c2 92 bb d7 9f 28 bd 8d 10 83 bd
       -0.097394824 -0.0044787545 -0.04116806 -0.06399641
0000c0 d2 b3 42 3c 4d 0a 10 be 72 39 c7 3b 76 9f 8a bc
       0.011883693 -0.1406643 0.006079846 -0.01692174
0000d0 ee ee 6e bd f6 e1 ec bc 2a 95 63 3b ae 4b 07 3d
       -0.05833333 -0.02891634 0.003472636 0.03303116
0000e0 25 41 77 3d 4e f5 c9 3c 9d 39 cb bd 95 43 e1 bc
       0.06036486 0.024653103 -0.09923098 -0.027498046
0000f0 c2 55 8f bb dc 1b c3 bc bf da 89 3b 2f 48 f0 3c
       -0.004374237 -0.023816995 0.004206985 0.029331295
000100 46 17 79 3d e3 a2 0e 3d 7c 56 6c bb 70 c7 6d bc
       0.06081321 0.03482331 -0.003606229 -0.014512882
000110 c5 c8 37 3d 17 69 2a 3c 25 bf 81 bc d5 67 c4 bb
       0.044869203 0.010401032 -0.015838215 -0.005993823
000120 45 b3 e2 bd cb be 80 bd 14 68 da bd 5a 32 5d bd
       -0.11069349 -0.06286391 -0.106643826 -0.054003097
000130 b1 9c 14 3e aa 89 a1 3d 0c 0b 3c bd f8 ae 74 bd
       0.14512898 0.078875855 -0.045908973 -0.059737176
000140 f1 60 cd bd f3 4a c2 3c 13 98 f8 3c ef 3c 66 3c
       -0.10028256 0.02371738 0.030345952 0.014052614
000150 fd d1 fd 3b 9a fd 0d bd 05 e2 9d 3d fd 73 7f bc
       0.00774598 -0.03466568 0.077091254 -0.015591619
000160 31 4f 41 3d a5 a2 8a 3c 5e 27 2c bd a0 41 14 bb
       0.047194663 0.016923258 -0.04202973 -0.0022622123
000170 45 88 63 bd f9 4b ed bd a9 42 dc bd 41 d4 33 bc
       -0.05554988 -0.11586756 -0.10754902 -0.010975898
000180 59 45 71 bd 1e c5 81 bd 36 57 93 bd b2 cb 78 bd
       -0.058904026 -0.06336425 -0.071943685 -0.060741134
000190 b6 d5 f8 3a 7c aa 1e bd 24 d7 31 bc 78 90 a6 3c
       0.0018984589 -0.038736805 -0.010854516 0.02033256
0001a0 d5 ca 67 3d 3c ce 0c 3d 90 57 5e 3c 23 2f f0 3c
       0.05658992 0.034376368 0.013570681 0.029319352
0001b0 48 62 b2 bc 79 63 b8 bc de 57 81 bd ea 4c bb bb
       -0.02177538 -0.02250837 -0.063155875 -0.005715956
0001c0 c1 70 36 be c7 8e 21 3d ff 70 c4 bc 8a 3f cb bd
       -0.1781645 0.039442804 -0.023979662 -0.099242285
0001d0 bf cb 92 bc 42 ad 38 be cf 96 09 3c e1 d1 1a bd
       -0.01791942 -0.18034843 0.008397772 -0.037797812
0001e0 61 a6 b0 bd d1 be 95 3d 92 55 8f 3d dd 3e 34 3d
       -0.08625484 0.07311786 0.06998743 0.044005264
0001f0 a0 10 94 3c fb 95 32 3d 89 a6 47 bc 4c bd 60 bc
       0.018074334 0.043600064 -0.012185701 -0.013717007
000200 0d 8d 8b 37 de d2 0b bd 63 b6 d9 3d f5 da ab 3d
       1.6635773e-05 -0.034136645 0.10630491 0.08391372
000210 e8 8d fc 3b e4 94 bc bb 68 b1 a5 3c 0e 2e 9a bd
       0.007707346 -0.005755054 0.020226195 -0.075283155
000220 f4 12 dd bd ab 29 0b 3c 34 46 ae 3c 5c 4b 8f bd
       -0.10794631 0.008493821 0.02127371 -0.069967955
000230 9a b6 fd 3c 55 4f 50 3d 25 ad 09 3e 42 e8 58 3e
       0.03097086 0.050856907 0.13444956 0.2118235
000240 fb 91 e1 3d 0a 0b 0a be e3 2c 3f bd 72 a2 d8 3d
       0.11014172 -0.13480774 -0.046673667 0.10577859
000250 60 81 c9 bd b8 92 00 bc 66 0f 07 3e ea c0 e6 bc
       -0.098391294 -0.0078474805 0.13189468 -0.02816816
000260 45 d8 62 3c 1c 64 95 3c 35 39 a1 3d ce 5d 05 3d
       0.013845508 0.018236212 0.078722395 0.032560162
000270 cd 1e 5f 3d 5b b3 0a 3e 82 d2 57 3d e7 d9 80 3e
       0.054472733 0.13544981 0.05269099 0.25166246
000280 ad c8 4a 3d 08 b1 d1 3d 98 e7 8b 3d 99 66 78 bd
       0.049507786 0.10238844 0.068312824 -0.06064472
000290 78 9f aa bc a3 a4 c7 3d 37 06 a7 bd c7 9f 2f 3d
       -0.020827994 0.09748199 -0.08155482 0.042876985
0002a0 5d 44 82 3d d3 d1 70 be 36 ee 6a 3d 29 52 df bc
       0.063606955 -0.23517542 0.057356082 -0.027260857
0002b0 c5 99 1a 3d 79 42 b4 bd ea 5f 6f 3d 66 0a 82 3c
       0.037744302 -0.08801741 0.05844108 0.015874099
0002c0 02 7c 87 3c 7d f1 ba bd 98 46 04 3d 4d 8a 1d 3d
       0.016538624 -0.091280915 0.032293886 0.038461972
0002d0 e6 1e 03 be 18 b9 04 be 6f 4c 75 bc 3f 1a 37 be
       -0.12804756 -0.12961233 -0.0149718365 -0.17881106
0002e0 6e 44 80 be e7 40 4f be 86 38 e8 bd 89 dc 46 be
       -0.25052208 -0.20239602 -0.11338906 -0.19420065
0002f0 4e 81 81 be 7c da bf bb 9a 9d 0b be a8 6c 46 be
       -0.25293964 -0.005854903 -0.13634339 -0.19377387
000300 7e 4f 33 be 04 d4 bd bd 76 3a 02 bd 93 ea b4 bd
       -0.17510793 -0.092689544 -0.031794034 -0.08833804
000310 65 5e 1c 3d 38 ff 44 3d 5b 49 6e 3d b4 c6 35 3c
       0.03817596 0.048094958 0.058175426 0.011094738
000320 c0 de c4 bd 6c 9b a2 bc 21 aa 1a 3a 41 83 83 be
       -0.09612799 -0.019849502 0.0005899985 -0.25686076
000330 b2 da 7b bd 22 0b 88 bc ca 13 48 bd d0 98 e8 bd
       -0.06148786 -0.016606871 -0.048846997 -0.11357272
000340 27 b5 f8 bd 2c 17 73 3e 2a de d6 bd 8f 44 21 be
       -0.12143927 0.23739308 -0.10491593 -0.1574881
000350 51 d6 91 bd 17 49 92 3d fb c5 f8 39 17 c3 75 3c
       -0.07120956 0.07142847 0.00047449753 0.015000126
000360 bd ba d4 3d 72 70 48 3b 74 3d 05 be bc 5c 35 3d
       0.1038718 0.00305846 -0.13011724 0.04427789
000370 53 64 93 bc 98 b3 44 bc 38 dd 17 3e 2d 6b e1 be
       -0.017992174 -0.012005709 0.14830482 -0.4402708
000380 f2 95 ed 3d 00 df 7c 3d 7e e0 e5 3d e6 41 ba 3d
       0.116008654 0.061736107 0.11224459 0.090946004
000390 37 87 b3 3c 75 20 c4 3d fa 6c 38 bc b4 d1 76 3d
       0.021915061 0.09576503 -0.011256451 0.060258582
0003a0 23 c7 0c 3e b2 fd 9c 3d 36 ea eb bd 75 6c 80 be
       0.1374784 0.07665576 -0.115192816 -0.25082746
0003b0 a4 3a 9f bd c6 ae e9 be 8b c4 10 bf 81 ec 99 be
       -0.07774857 -0.45641154 -0.565499 -0.3006325
0003c0 0b 37 f6 be 30 0d f1 be c1 6d 72 be 03 af 9d 3d
       -0.4808887 -0.47080374 -0.2367468 0.076993965
0003d0 58 8b dd bc 5c c4 b1 bc da ed 82 bc f4 f3 e6 3c
       -0.027043983 -0.021700077 -0.015982557 0.028192498
0003e0 92 39 a8 3d 1c 2c c2 bd 9f 5b c6 3c dc 22 9e 3d
       0.08214106 -0.094810694 0.02421361 0.07721493
0003f0 c6 e6 a1 3b ca b0 30 be 2c 57 82 bd 41 c9 83 be
       0.0049408404 -0.1725494 -0.06364283 -0.25739482

layer2.0.bn2.weight f4 [16]
000000 db f7 05 3f 79 55 cc 3f 9b 1e e7 3e f5 f5 7e 3f
       0.5233132 1.5963584 0.45140538 0.9959405
000010 44 bc b2 3f a5 ca df 3e 62 4d 53 3f db 6e ed 3e
       1.3963704 0.43709293 0.8253995 0.4637364
000020 08 10 2f 3f 40 2e ff 3e ae eb a5 3f 45 75 21 3f
       0.68383837 0.49839973 1.2962549 0.63069564
000030 37 c3 1b 3f 16 2b 02 3f 7b f2 3d 3f 60 f2 04 3f
       0.6084475 0.50846994 0.7419812 0.51932335

layer2.0.bn2.bias f4 [16]
000000 98 d5 9c 3e e5 e4 c3 bd 65 60 12 be a6 78 1a be
       0.3063171 -0.095651425 -0.14294584 -0.15085086
000010 11 7d 92 be 1d fb 7f ba e2 72 8f bd 61 c5 3c be
       -0.28611043 -0.0009764897 -0.07004334 -0.18434669
000020 23 c3 35 bd 2a 35 26 3f e6 3b ca bd 53 da d3 3e
       -0.04437555 0.6492487 -0.09874706 0.41377506
000030 41 bd df 3e b0 20 18 3f 38 65 be 3e 60 12 f7 3e
       0.43699077 0.5942488 0.371866 0.48256207

layer2.0.bn2.running_mean f4 [16]
000000 08 c8 c6 3e 91 6c c5 bf d0 61 02 bf 87 29 ad be
       0.38824487 -1.5423757 -0.509305 -0.33820745
000010 53 5c 4c bf 9d 11 87 be 32 9d b7 3f 91 37 10 bf
       -0.79828376 -0.26380625 1.4344847 -0.5633479
000020 d3 e6 b9 3e 07 d9 05 c0 34 ea 7a bf df a3 a7 3f
       0.36308917 -2.0913713 -0.98013616 1.3096884
000030 07 1d dd 3f 8f f2 4a 40 7d 3b 72 be 7b 22 0f bf
       1.7274483 3.1710546 -0.23655505 -0.5591199

layer2.0.bn2.running_var f4 [16]
000000 e4 d6 ca 3f 15 8c 24 40 ee 22 dd 3e 05 0d 5f 3f
       1.584683 2.57105 0.43190712 0.8712924
000010 57 f9 8c 3f fe d9 b2 3e f1 31 8d 3f b9 82 a2 3e
       1.1013592 0.3493194 1.1030866 0.31740358
000020 8a 8d 20 3f 55 ad 5d 3f 2a ca a6 3f 54 20 bd 3f
       0.6271597 0.8659261 1.3030446 1.4775491
000030 98 3a bb 3f 19 f2 af 3f af 63 c2 3f f3 30 2a 3f
       1.4627256 1.3745757 1.5186671 0.6648094

layer2.0.shortcut.0.weight f4 [16, 8, 1, 1]
000000 b4 88 f5 b9 36 5e 10 bf e4 87 c1 3e 32 c4 09 be
       -0.00046831893 -0.56393754 0.3779899 -0.13453749
000010 9f f0 8b bd 37 35 f2 bd d3 22 38 be cb ab 5f 3e
       -0.06833004 -0.11826556 -0.17982034 0.21842878
000020 06 a9 c4 3c 42 12 7c 3c 3f 1e 1c 3d a0 a6 9f bd
       0.024006378 0.015385212 0.038114782 -0.07795453
000030 5f 14 47 3e ee 99 70 be 7f 75 fa 3d 85 f4 88 3d
       0.19441365 -0.2349622 0.12229442 0.066872634
000040 1f f0 79 bd fc d1 85 3e 80 f1 60 3f e5 e9 2e 3e
       -0.061020013 0.26136768 0.878685 0.17081411
000050 ae 7e 28 bf b3 08 da 3c 5a a4 9c be 61 2d 28 3d
       -0.658183 0.026615476 -0.3059414 0.0410589
000060 7e 6b 6f bc 9e 33 81 3d 45 03 0a 3e c3 42 bc 3e
       -0.0146130305 0.06308673 0.1347781 0.36769685
000070 52 03 14 3c 44 16 6b bd 47 ac af 3c d2 df 0f 3e
       0.009033995 -0.05739428 0.021444453 0.14050224
000080 55 40 c8 be a9 b1 25 3d 3f c8 00 3e dd 26 ff bd
       -0.3911158 0.040452633 0.12576388 -0.124585845
000090 ad 21 be 3d 59 61 38 be 5b 1c 7c bd 7c e6 18 be
       0.09283767 -0.18005885 -0.06155048 -0.14931673
0000a0 21 77 6d ba c9 08 53 3f 7d ec 53 be cc 74 1f be
       -0.0009058584 0.8243528 -0.20695682 -0.15571898
0000b0 8e 3b e4 be 6c 17 20 3d ae b0 10 3e 42 81 ca be
       -0.44576687 0.039084837 0.14129898 -0.3955174
0000c0 e0 2a 8f be f1 fe bc be 64 1f 2a be 05 35 d4 be
       -0.279624 -0.36913255 -0.16613537 -0.414467
0000d0 29 2b bc be c9 f1 2d 3e 6b 66 be bd a4 ff 99 3e
       -0.3675168 0.16986765 -0.092968784 0.3007785
0000e0 01 1a 1f bd 2a 14 d0 be b1 61 24 bf 81 fb ad bc
       -0.03884316 -0.40640384 -0.64211565 -0.02123809
0000f0 0a f6 25 3f ac 84 f3 bc 87 9e 3a 3e ea fe cc 3d
       0.6482855 -0.029726349 0.18224536 0.100095585
000100 a8 ac 6a be 06 b6 c0 bc 23 e1 de 3d 96 10 c8 3c
       -0.22917426 -0.023524296 0.10882785 0.024421971
000110 98 f1 52 3e 4a db dc 3d 3c a7 d8 3e ad 46 65 3e
       0.20599973 0.107840136 0.4231509 0.22390242
000120 64 38 2e be 83 e9 c8 3e 81 9c 29 3e b9 2e e1 3d
       -0.17013699 0.39240655 0.16563608 0.1099524
000130 7a de aa 3e 3c 7d 32 bd db c2 93 3e a4 e3 74 be
       0.3337286 -0.043576464 0.288596 -0.23914963
000140 d0 51 e6 bd 67 2e 82 3b 7b 26 1a be f2 b6 62 be
       -0.11246073 0.0039728167 -0.15053742 -0.221401
000150 93 ff 76 bd f9 fa 94 be 4a 7c c6 be e5 fd 3d 3e
       -0.06030233 -0.29097727 -0.387667 0.18553884
000160 89 f7 a3 3e 0c 77 52 be b6 86 24 3e e0 2a 5a 3e
       0.32024792 -0.20553225 0.16067013 0.21305418
000170 b7 ad 0b 3e 17 51 8c 3e e8 9d 97 ba cb 23 81 be
       0.13640486 0.27405617 -0.0011567445 -0.2522262
000180 c1 6f ea 3d 8f d8 0e be bf ed 6a bc a7 5a db 3d
       0.114470966 -0.13949798 -0.01433891 0.1071065
000190 af f4 04 bd 70 54 1b be 0a 6f f9 3d 88 77 46 be
       -0.03245991 -0.15168929 0.12179382 -0.19381535
0001a0 8c f3 99 3c 65 37 70 3e 73 85 82 3e 29 f7 3f be
       0.01879289 0.23458631 0.2549244 -0.18746628
0001b0 1a ab 3c 3e 76 c5 11 be 2a a8 09 3f be 60 6e bd
       0.18424645 -0.14235482 0.53772223 -0.05819773
0001c0 0c 04 a5 3e d0 d5 14 3e f2 bc 69 3e 64 f6 fc 3b
       0.3222965 0.14534688 0.22825983 0.0077198017
0001d0 61 25 85 3e c6 96 97 3e aa 27 bf bd d1 46 66 bd
       0.2600508 0.29607219 -0.09333737 -0.05621988
0001e0 5e 65 e6 b9 48 db 5f 3e 85 7c 94 3e af 58 90 3e
       -0.00043944543 0.21860993 0.2900125 0.2819266
0001f0 62 67 1e 3f b6 51 b3 bd 85 b3 6d 3e 8d 23 a3 bd
       0.618765 -0.087558195 0.23213013 -0.07965765

layer2.0.shortcut.1.weight f4 [16]
000000 7e a6 59 3e 3e 04 ee 3d 6a 20 46 3f 6a 31 31 3e
       0.21254918 0.11621903 0.7739321 0.17304006
000010 96 52 98 3e 9b 60 3a 3f 99 8b 02 3f de c9 3b 3f
       0.29750508 0.7280366 0.5099426 0.733549
000020 54 de b0 3e 5c 1a 88 3e 52 d2 cb 3e e0 07 31 3e
       0.34544623 0.2658261 0.398089 0.1728816
000030 f7 26 b0 3d b5 93 4a 3e 03 9a 32 3e 7e 31 01 3f
       0.08601182 0.19782908 0.17441563 0.50466144

layer2.0.shortcut.1.bias f4 [16]
000000 98 d5 9c 3e e5 e4 c3 bd 65 60 12 be a6 78 1a be
       0.3063171 -0.095651425 -0.14294584 -0.15085086
000010 11 7d 92 be 1d fb 7f ba e2 72 8f bd 61 c5 3c be
       -0.28611043 -0.0009764897 -0.07004334 -0.18434669
000020 23 c3 35 bd 2a 35 26 3f e6 3b ca bd 53 da d3 3e
       -0.04437555 0.6492487 -0.09874706 0.41377506
000030 41 bd df 3e b0 20 18 3f 38 65 be 3e 60 12 f7 3e
       0.43699077 0.5942488 0.371866 0.48256207

layer2.0.shortcut.1.running_mean f4 [16]
000000 5d 3e 60 bf 2d b4 87 3e 05 7e 4c be 52 75 80 3f
       -0.8759516 0.2650465 -0.19969948 1.0035803
000010 1f 29 26 bf b1 e6 8e be a4 d9 d2 bf 12 f3 ae 3e
       -0.64906496 -0.2791038 -1.6472669 0.34169823
000020 c8 41 ac 3f 15 69 a3 3f ff dc ac bf 11 cb 08 3f
       1.3457575 1.2766443 -1.3504943 0.53434855
000030 fa 87 9b bd 35 09 95 3f 8a 98 6b 3f 89 6e 03 40
       -0.07594295 1.1643435 0.9202963 2.0536215

layer2.0.shortcut.1.running_var f4 [16]
000000 9a 38 db 3e c0 75 a6 3d 86 cb 15 3f 5e b3 7d 3e
       0.4281662 0.08127928 0.5851368 0.24775454
000010 2a 95 8e 3e a2 ad 22 3f 30 ff 25 3f be a0 e2 3e
       0.27848178 0.6354619 0.6484251 0.44263262
000020 de de cf 3e dd 54 a7 3e f5 9b 0e 3f 22 0e a9 3e
       0.40599722 0.32681933 0.5570672 0.33018595
000030 2c 16 be 3d a6 cd 77 3e 74 79 7a 3e dc ff 26 3f
       0.09281573 0.24199542 0.24460393 0.6523416
