kd_results/KD_seed-1_cycles-1_KDfrac-0.9_T-4_cifar100-ResNet10_scheckpoint.pth.tar (torch, 717977 bytes, 100 tensors)

conv1.weight f4 [8, 3, 3, 3]
00000000: 3947 49be 7f07 b6be d0c3 35bd 36c4 59bd
00000010: 739c ba3f ac59 73bc 2fe3 bbbc a137 1fbd
00000020: 4024 c73a c9b1 53be ba5b 07bf fe4d bfbe
00000030: a4fc 41be 685c 0640 7cc2 54be 1155 6abd
00000040: 3784 09bf a4cc d6bd daac 82bd 3a4b 8cbe
00000050: 6ffe 42bd 0270 bcbd 8f39 9d3f 53aa bcbc
00000060: 326c 743d 84de 93be a618 da3d fe2a 203f
00000070: dd4b 0240 bc7e 023f 940f 30bf fcd6 88bf
00000080: 5ecc 32bf cb48 efbc 1fda a1be cce1 45bd
00000090: cc3b 213f d8c0 1440 b78d 143f 4337 5bbf
000000a0: 49fd c2bf 0814 21bf 7036 98bd 10e5 07bf
000000b0: 1336 103d 5262 9f3e f7c3 ae3f 09e7 c53e
000000c0: 86e1 fbbe d2ba 70bf ce3c bcbe a946 9c3c
000000d0: 137c b0be 01a8 273d 67be 06be 9591 fabe
000000e0: fa3f b83d 8694 e0be 0799 a1be e189 31bf
000000f0: 74e8 b5be 1e6d 30bf d43c 3ebf fff3 0b3e
00000100: 4bf4 e33b 9972 de3e 27d4 cb3e 1027 b83f
00000110: 5831 d93e c553 fb3e a829 5d3f f0c4 283f
00000120: e1d8 e93d fad6 b8bd 5323 e33c e18c 8bbe
00000130: ce9a d13d 111b f6be fec5 9fbe fbd5 b1be
00000140: a632 d8bd ec5f 813d 1701 61bb 0e1e ea3c
00000150: 29f6 cbbc 18d1 68bf 641e f9be 0ea4 a7bc
00000160: 3eb4 16bf 3e2c 31bf 966c 40be 2be2 89be
00000170: a596 18be 1488 36bc 0933 1dbf 258f 493e
00000180: 0de7 db3c 1a7c 93be adcd dd3d c2b3 423e
00000190: c92a 403e 944a 813e 48dd 143f 640f 993e
000001a0: 7134 6c3f 3aef d03e 60c4 b03e 2cb2 333f
000001b0: af86 d0be 0a14 14bf 4ae6 c5be 1897 37bf
000001c0: 872c 01c0 84b4 4dbf 7a05 adbe 3fe8 dcbe
000001d0: 621d d3be 93ff 04bf c1f7 e4be 2683 96be
000001e0: a2b0 3fbf 3fc8 f1bf 8d89 1cbf 4975 e5be
000001f0: 29cb dabe 19b2 fbbe bf93 01bf 0e5f cfbe
00000200: 7c63 b3be ab41 50bf 666a e5bf 1132 37bf
00000210: 01b2 f5be 5d19 bebe e066 e4be 9198 d8bd
00000220: 8ee4 0e3e 5870 d9bc 3413 a0bf 5bfb b13f
00000230: 62a2 3b3e 9dec 83be 7982 113d 3705 08bd
00000240: 47b3 adbe 80ad eb3e 764a d3bc c01c 08c0
00000250: 526e 0440 6e58 213d 96ea 6cbe 1659 e23e
00000260: 29f3 20be d1c1 5dbe 2feb 573e 75ac 8f3c
00000270: a1b4 bbbf 1a8c a83f f380 343e a6ec 8cbe
00000280: a926 9e3e d5f8 3ebd 296e cebd a947 0dbe
00000290: d31d 00be c91f 173e 36f4 8c3f 792c 373f
000002a0: 83b5 1bbe 2203 7a3f 96ea 1d3f ca80 f33d
000002b0: 3562 2dbe 4ff8 58bd a246 7e3e 817b 8c3b
000002c0: 1464 f8bd 4824 4f3e 8c35 06bd 60d1 063d
000002d0: 6d55 573e 9e97 f9bd d5c3 ed3e bb08 33be
000002e0: d49a 8dbf 52b6 16bf 0ad8 fb3c f2b0 a8bf
000002f0: 6cc7 76bf 5246 72bd 1cd9 d53d bcf5 b73e
00000300: f85d d43e 3809 693e a88a ff3e 4002 cfbe
00000310: 9547 6c3f 816b f93e 73e6 0cbe d870 73be
00000320: 3e67 19be ad89 2f3d 9b74 cdbf adc3 82bf
00000330: 8765 23bf d84d 29bf 953d 39bf 8131 60be
00000340: 596b 733e 4867 913e 5500 3c3f c9ba 8e3e
00000350: e2c6 bf3e 598a 1a3e 1357 283f 1816 183e
-0.19656076 -0.35552594 -0.044376194 -0.053165637 1.4578995 -0.014852922 -0.022935478 -0.03887141
0.0015193298 -0.20673288 -0.5287434 -0.3736419 -0.18944031 2.09939 -0.20777315 -0.057210032
-0.5371737 -0.10488251 -0.06380625 -0.27401143 -0.047605928 -0.09201051 1.228319 -0.023030436
0.059673496 -0.28880703 0.106492326 0.625656 2.0358803 0.5097463 -0.6877377 -1.0690608
-0.6984309 -0.029209515 -0.31611726 -0.04831104 0.6298187 2.3242702 0.5802874 -0.856312
-1.5233546 -0.6292119 -0.07432258 -0.53083897 0.03520782 0.311297 1.3653554 0.38652828
-0.49195498 -0.94035065 -0.3676514 0.019076662 -0.3446966 0.040931705 -0.1315857 -0.48939195
0.089965776 -0.43863314 -0.31562063 -0.6935101 -0.3552891 -0.689165 -0.74311566 0.13667296
0.006956612 0.43446806 0.39810297 1.4386921 0.4242046 0.4908735 0.8639169 0.659255
0.114183195 -0.090253785 0.027726805 -0.2725592 0.10234605 -0.48067525 -0.31205744 -0.34733567
-0.105565354 0.06317124 -0.0034332925 0.028578784 -0.024897652 -0.9094405 -0.48656 -0.02046397
-0.5886878 -0.69208133 -0.18791422 -0.26930365 -0.14901216 -0.011140842 -0.61406 0.19683512
0.026843572 -0.2880562 0.10830245 0.19013885 0.18766321 0.2525221 0.5815015 0.29894555
0.9226752 0.40807515 0.34524822 0.70193744 -0.40727755 -0.5784308 -0.3865226 -0.71714926
-2.0183427 -0.8035357 -0.3379324 -0.4314594 -0.41233355 -0.51952475 -0.4472027 -0.29396933
-0.74878895 -1.8889235 -0.61147386 -0.44816044 -0.42733124 -0.49159315 -0.5061607 -0.40502208
-0.35036838 -0.813502 -1.7923095 -0.7156077 -0.4798737 -0.37128726 -0.44609737 -0.10575975
0.13954374 -0.026542827 -1.250586 1.3904833 0.18323663 -0.2576646 0.03552482 -0.0332081
-0.3392584 0.46030807 -0.025792342 -2.1267548 2.0692334 0.039390974 -0.23136362 0.44208592
-0.15717758 -0.21655966 0.21085809 0.017538289 -1.4664499 1.3167756 0.17627315 -0.27524298
0.3088887 -0.046624023 -0.10079605 -0.13796867 -0.12511377 0.14758219 1.1012027 0.71552235
-0.1520596 0.9766103 0.61686075 0.11889799 -0.16931994 -0.05297118 0.24831632 0.0042871838
-0.121284634 0.20228684 -0.03276591 0.03291452 0.21028681 -0.12187122 0.4643847 -0.17483799
-1.1062875 -0.5887195 0.030742664 -1.3179 -0.96398044 -0.059149094 0.10441801 0.35929668
0.41477942 0.22757423 0.49910474 -0.40431404 0.92296726 0.4871483 -0.13759784 -0.23773515
-0.1498079 0.042855907 -1.605121 -1.0215966 -0.63826793 -0.66134405 -0.7235959 -0.21893884
0.23771419 0.2839911 0.73438007 0.2787688 0.37456423 0.15091838 0.65757865 0.14852178

bn1.weight f4 [8]
00000000: c559 503f f406 873f d38e 0d3f 2594 453f
00000010: 334b 0c40 5803 603f 2194 123f 2f77 043f
0.8138698 1.0548997 0.5529606 0.77179176 2.1920898 0.875051 0.57257277 0.5174436

bn1.bias f4 [8]
00000000: a62f 9f3f 90bb c73e 9b37 eb3e 3756 f23d
00000010: 9e9e 06c0 839c b23e 37e0 433f e3e8 f63e
1.2436416 0.39010286 0.4594086 0.118328504 -2.1034312 0.34885034 0.76514 0.48224553

bn1.running_mean f4 [8]
00000000: f55e e6be b2c1 87bd b5cc 693d acb4 fa3e
00000010: fece c740 f621 e8bd c7d0 c1be 8101 493e
-0.4499432 -0.06628741 0.05707999 0.48965967 6.2440176 -0.113346025 -0.37854597 0.1962948

bn1.running_var f4 [8]
00000000: 9dee 9b40 dbe2 8c41 3868 2340 37c0 8b40
00000010: ae05 a443 dc81 1841 23ce 8f40 de73 1240
4.8728776 17.61077 2.553236 4.3672137 328.04437 9.531704 4.493913 2.288322

layer1.0.conv1.weight f4 [8, 8, 3, 3]
00000000: 18a6 963e 3910 6fbf 2397 bbbd 4c5b ae3e
00000010: 8bde 9b3e d910 803e 44ac 453e 3ca9 a1be
00000020: c424 fbbd 936f 74be 25fb 59be 9934 e53d
00000030: e072 073f 569c c3bd 3bb8 eb3c 2d24 94be
00000040: 1b2a 983d 57b1 d93c 2651 963e 76ef c7be
00000050: 9098 10bd 1b16 01be 8c8f 43bd aafa 0bbd
00000060: f2a0 013e e2e6 8ebd 74a6 653e 353b 7ebe
00000070: db12 64bb 787d aabe 1e8f 9ebd 6e95 553e
00000080: 2554 093b 9695 2cbe 81e9 963e f9fc 0fbd
00000090: bba6 67bd a346 6a3f 57bb 2f3f e439 46bf
000000a0: 52eb 0a3e 1352 233e 051c e9be 5a1a da3d
000000b0: 28a4 903d 3418 8d3d 0ed7 3dbe 62cb 03be
000000c0: 81ca 47be ce6d 523e 3fe4 2cbe d9aa 15bd
000000d0: 84ff ff3e 43f5 9c3c 8d72 32be 738e 7d3d
000000e0: 8a68 03be e6d3 733d bd02 5a3e c4f4 50bc
000000f0: b184 82bd 25a6 b8bb 93ca f8ba 5635 81be
00000100: 7de5 193e 559d a9bd f60c c83d 5090 06be
00000110: 0b31 633d 145f 2b3e 9f85 9cbe 0ef1 633e
00000120: 8e95 0c3f 6496 b0be d4b2 fa3e d491 c8be
00000130: b213 833f e1cd 4e3e 5b9e 86be a73c a7be
00000140: c0b8 fbbe bb72 273e a56c 083f 2f0c e23d
00000150: 7296 24be 5e8f a9bf d8c3 fcbd ae5d 0abd
00000160: 85f8 593e 2cc2 973d 505f 7c3e abdb 37be
00000170: dadc cf3e 5b9c f5be ebb0 8c3d 5857 25be
00000180: 1e25 bb3d 81f9 be3c e41c 2e3e ae3b cb3d
00000190: 6cd8 c83d 9f0a 8dbd 9fd3 873d 199c 65be
000001a0: dd4e de3d b177 0ab7 2b49 7abe a42a 0f3e
000001b0: 9920 7dbc 3ed1 ae3e d602 ca3d 6140 2a3e
000001c0: b8b6 3dbc 2ab9 9f3e a2d7 8abe c635 b0be
000001d0: fe45 b3be 0f41 4e3e 59d0 fdbe 0b12 063f
000001e0: 8626 15be 695d d33e 0101 31bf 28b7 94bd
000001f0: 9a30 083d 0aee 103e 8ed1 ad3d 9f91 ff3c
00000200: 583b 743e 3084 31be 3198 dcbd fd93 2ebe
00000210: f2fd 583e b2ea e0bd 3a90 1f3e 6be7 fdbc
00000220: b1b8 f63d 7acf b8be a927 d43d 7099 c0be
00000230: 8ac0 e1bd f52a 223e 8d91 e43e 71ac 113e
00000240: 0625 b4bc d0ab 3e3d 9d92 f73d 3fcc d2bc
00000250: ab64 20be e378 6a3e a1dd c3be 4ddc ab3e
00000260: c362 6cbc e0fc 5f3d ce82 80bd caaa ef3d
00000270: 93d2 0c3e 70ab 5abd 0c1b 573d 7d69 d33d
00000280: d9e9 89be e20d a8bc aa38 723e 32c4 d43e
00000290: 9bcc 3339 1148 383e 7307 84bc cf4e 12bf
000002a0: 102b 29be aceb 2abe 0d26 4abf ce75 3e3d
000002b0: ff99 ea3e 9b8e 8c3e 8b24 fabd c979 0e3e
000002c0: ebec d93d 2b50 c8be 7085 10bf ba62 a3be
000002d0: fbcf 9a3d cc73 1e3d 5486 a1bd f201 debc
000002e0: d14f ca3d 5c35 1e3e e040 ab3c 8e43 e4bd
000002f0: c4f7 1dbe ad7a ccbd 168e 6dbc d09c d43d
00000300: 4453 303e fe2b 993c 7107 e83c b635 08be
00000310: 5b01 063e 3cc5 68bd f14d 8ebe 1b13 7bbf
00000320: 57f6 41bf c42f 813e 2370 b93d 90fb aebe
00000330: 2ca2 cb3e 4693 893f f4c0 e93e f06c 1bbf
00000340: 0c3e eabe b399 203d 609e 2abf 9c9e 5f3e
00000350: 943f 143f 3f6b 0fbf 83b1 ab3e 675f fd3e
00000360: 456e 773d c1df aa3d e2ec 363d 9ce8 49bf
00000370: 7e33 9bbf 2590 92be bdff 4a3f 1300 443f
00000380: 5ee3 1e3f 7e76 753d 6a19 ee3d 719b 333c
00000390: 99a2 d63e 18a6 c63e c25f 7a3e 0796 6bbf
000003a0: 43f5 a0bf a4ce 4abe 995c 2f3e 04a3 fdbd
000003b0: d808 af3d 3743 1abe 90fe 98be 03ea 64bd
000003c0: ca3e 9bbc 5d7d 3f3e a27b 1c3c 28f1 fe3d
000003d0: d1a1 ac3d 4c6d d33c e1ff e13c 4558 583d
000003e0: f7a9 37be 4ec8 0e3d 83ee 16be 261d 7ebd
000003f0: e1ce ea3e daa6 a43b 06a7 df3d ac36 053f
0.29423594 -0.9338413 -0.091596864 0.3405403 0.30443224 0.25012854 0.19303995 -0.31574428
-0.12262872 -0.23870687 -0.2128721 0.11191673 0.5290966 -0.09551303 0.028774371 -0.2893385
0.07429906 0.02657382 0.29358786 -0.39049882 -0.035301745 -0.12606089 -0.04774432 -0.0341746
0.12659052 -0.06977631 0.22426778 -0.24827273 -0.0034801278 -0.3329885 -0.07742141 0.20857784
0.0020954695 -0.16853938 0.29475024 -0.035153363 -0.05655549 0.91514033 0.6864523 -0.77432084
0.1356633 0.15949278 -0.4552919 0.106495574 0.0706256 0.06889382 -0.18539068 -0.12870553
-0.19510843 0.205497 -0.16883944 -0.036539886 0.4999963 0.019159919 -0.1742651 0.06190343
-0.12832847 0.059528254 0.21290107 -0.012753669 -0.06372965 -0.0056350403 -0.001898127 -0.25236005
0.15028949 -0.08281962 0.09768097 -0.13140988 0.055466693 0.16735488 -0.30570695 0.22259924
0.549157 -0.3448974 0.4896456 -0.39173758 1.0240386 0.20195724 -0.2629269 -0.32663462
-0.4916439 0.1635236 0.5329078 0.1103748 -0.16073015 -1.3246877 -0.12342042 -0.033780746
0.21286209 0.07410082 0.24645734 -0.1795489 0.40598184 -0.47970852 0.06869682 -0.161466
0.09137939 0.023312332 0.17003208 0.09923492 0.09806904 -0.068867914 0.066321604 -0.22422828
0.10854886 -8.253309e-06 -0.24441974 0.1398111 -0.015449666 0.34144014 0.09863822 0.16626121
-0.011579208 0.31195956 -0.2711764 -0.34416026 -0.35014337 0.20142005 -0.4957302 0.5237128
-0.14565477 0.41282204 -0.69142157 -0.07261497 0.033249475 0.14153305 0.08487235 0.031197367
0.23850763 -0.17335582 -0.10771216 -0.1704864 0.21190622 -0.109822646 0.15582362 -0.030994138
0.12046946 -0.36095792 0.10359127 -0.37617064 -0.11023052 0.158367 0.44642296 0.14225937
-0.02199031 0.046550572 0.12088511 -0.025732158 -0.15663402 0.22897677 -0.38255027 0.33566514
-0.0144278435 0.05468452 -0.06274949 0.11702497 0.13752203 -0.05338615 0.05251603 0.10322855
-0.26936224 -0.020514432 0.23654428 0.41555935 0.00017146992 0.17996241 -0.016116833 -0.571515
-0.16520333 -0.16691464 -0.7896431 0.046499066 0.45820615 0.2745255 -0.12214001 0.13913645
0.10640892 -0.39123663 -0.5645361 -0.3191126 0.075592004 0.03868465 -0.07886949 -0.027100537
0.09878505 0.15450042 0.020904958 -0.111456975 -0.15426546 -0.09984336 -0.014499208 0.10381472
0.17219263 0.018697735 0.02832386 -0.13301739 0.13086455 -0.056828722 -0.2779384 -0.9807603
-0.7576651 0.25231755 0.090545915 -0.34176302 0.39772165 1.0748069 0.45655024 -0.607131
-0.45750463 0.03920908 -0.6664791 0.21837848 0.5790951 -0.5602302 0.33533868 0.4948685
0.060407896 0.08343459 0.044659503 -0.7887056 -1.2125089 -0.286256 0.79296476 0.76562613
0.62065685 0.059927456 0.11625941 0.010962353 0.41920927 0.38798594 0.24450591 -0.920258
-1.2574848 -0.1980539 0.17125167 -0.123846084 0.08546609 -0.15064703 -0.29881716 -0.055887233
-0.018950839 0.18700166 0.009550961 0.12448341 0.084293015 0.025808953 0.027587833 0.052818555
-0.1793593 0.034858994 -0.14739423 -0.062039517 0.4586096 0.005024773 0.10920529 0.5203655

layer1.0.bn1.weight f4 [8]
00000000: 616b 5a3f 2965 3c3f 0be9 e63e d750 513f
00000010: b364 023f 8e8c dc3f b6b4 863f 13a0 7c3f
0.853201 0.7359186 0.45099673 0.81763977 0.50934905 1.7230394 1.0523899 0.98681754

layer1.0.bn1.bias f4 [8]
00000000: fc71 4cbf d3e3 9a3e c397 1d3f 7d08 a23e
00000010: d1df 173f 93f7 0fc0 2ea8 b43d 9cf1 d13e
-0.79861426 0.3025194 0.61559695 0.316471 0.5932589 -2.2494857 0.0882114 0.41004646

layer1.0.bn1.running_mean f4 [8]
00000000: c7a6 20be 5df5 d63e 01f0 20bf 24d8 50bf
00000010: 8b34 79bf 02ff b9c0 6046 55bf 917f 88bf
-0.1568862 0.41984072 -0.62866217 -0.81579804 -0.973458 -5.812379 -0.8331051 -1.066393

layer1.0.bn1.running_var f4 [8]
00000000: 85ff 613f 74b5 1e40 5206 993f ce17 0b41
00000010: 9033 a73f 08f5 a141 0e6b cd40 77bd a740
0.88280517 2.479825 1.1955054 8.693312 1.3062611 20.244644 6.419318 5.241878

layer1.0.conv2.weight f4 [8, 8, 3, 3]
00000000: 99a0 3c3d f4b1 833e 8f0e 72be 059b 93be
00000010: 1bef 7d3e c5bc 86be 23a1 3cbe e9f7 c93e
00000020: e417 87be 7841 853d 75aa b23d 8a2e 13be
00000030: 3f4b 85be 0bd9 b1be a7d4 513e 9c42 213e
00000040: e06e a13e 6a1a 44be 7c4c 473d baaa 433d
00000050: edfd ffbd e72a b23c c527 9d3d 1684 7cbe
00000060: d17d 01be 2152 1bbe a6c3 6c3d 6a8b da3c
00000070: 778a 76be c9ad 7dbe 3034 3d3e 1bc1 ab3e
00000080: cfe1 0abb ab16 8cbe 06ee f1bd 097f 44be
00000090: 7aec 33bd 5ce9 1abd 2c2a c53d f147 ebbd
000000a0: 737f f73d 25d8 0f3e 4a1d 4d3d 35b8 89be
000000b0: f6e6 eb3d 845e c1be 722b 81be dec7 2a3e
000000c0: b240 4dbf a212 4abf 1238 c83d 5bbf 473d
000000d0: 7911 ab3c a8be c63e 89f4 a03c 86ab 9f3e
000000e0: 299e 09be a169 9a3d 0071 9c3e 0f62 cfbd
000000f0: ab68 9fbe c9a6 953e 06e5 fbbd a2fc 72be
00000100: dafd 483d 194b 9bbd 7725 273e be3a 353e
00000110: 69dc 4c3e be5b adbd f00e 753e 025d 5a3d
00000120: 9796 4e3d dcdf 83bd 8044 2c3e c869 8e3d
00000130: 0699 2a3e e38e 6c3d f5f4 16be 2874 fe3d
00000140: b07c 6bbe 225d 86bd 79f4 803c 33f0 c13d
00000150: 0c4f 69bc a095 473e 8a5a 653d f916 abb8
00000160: ae1d a9bf bf5c 4e3e 1318 ba3d 4e1b 413b
00000170: 6375 82bd b178 b8bd 4e97 bb3c 5d83 293e
00000180: a442 a93c 2ec5 4b3d e65d 87bb e987 b63d
00000190: cbed 67bd 09da bfbd 4fcc 60be 199c 96bf
000001a0: 3200 82bf 71ef d43b cb83 a43e d37c 69bd
000001b0: b004 afbe 7946 983d 9dda 993e 66c8 ccbd
000001c0: 45dc 7cbe 0100 e1be 088d 82bd 88e1 953e
000001d0: 8104 e53e 1411 26bd 1bc8 20bf ec96 dfbc
000001e0: aec2 473e 8eab 1ebf 0557 3b3e 4efc a9be
000001f0: ed39 6fbe 3387 3abe 24de e93d 81d2 afbd
00000200: 069a 13be f251 fa3d 1972 9f3e 14ef 4d3d
00000210: 58a1 86bd 6b19 9abf ff8c 1abd 2e91 0dbe
00000220: 5182 a53d 7c2c 4e3b 0360 ffbe a9cb cd3d
00000230: 54f8 24be 79a0 263f 4f30 dbbd bbc0 093d
00000240: 0450 41be b243 b63d 5276 b13d 25a9 1ebe
00000250: b677 69bd 214d dcbd 789a 7bbd 04e4 af3b
00000260: bb98 9ebd 67da be3c 4d14 27be 48d8 5fbe
00000270: 4f63 ecbd b5a8 edbd 683e be3d 7abb 1ebe
00000280: 9d65 9dbd a45d 2d3e 36ea 85bd a46c 263d
00000290: 3fa9 033f a3f3 dfbe 55ac 45be 1120 063f
000002a0: 252c 833e e533 d53e 0ad1 de3e 269e 903d
000002b0: 9251 283c 2fc3 273d 5353 063d 8915 82bd
000002c0: ee6f a33e f6b0 803d cebe 563e 855c c6bd
000002d0: b1ab eabd a649 cdbe 1c12 f6be f87c 0ebd
000002e0: e47f 53be ca20 febd 71cb d7bb 8607 d83e
000002f0: 0034 163e 7256 abbd 394f 03bc 55bc 33be
00000300: 06ed 84be 7428 fbbd 8dd7 e3be 8b76 1f3d
00000310: 33a8 a33e ea94 ac3c 78a9 383d c695 063e
00000320: 5867 03be 012e 4f3d 0eb7 293d 84fe 1c3e
00000330: 77be e2bd bb0e 62be fad6 0c3f f40d 2dbd
00000340: afe3 5f3e 90a4 84be 61f9 113e 67c6 a0bc
00000350: 00e8 643e fd80 eebd a956 a6be fe71 b63e
00000360: a023 c03c b463 b2bc 5089 553d f9d3 18bc
00000370: d3c6 163e 644a cd3e aa3f 623c 4cec c13c
00000380: 4774 8b3d de61 3b3d eac9 a63e 97ab 1abe
00000390: 9473 513c c540 9d3d 6c26 47bd d20f 94bd
000003a0: 8e91 39be d795 60bc c8cf 773e 920d 47be
000003b0: d665 04be b800 3b3e abdf d73c 7824 79be
000003c0: 2624 573e e4b5 293f f3ae 723e d548 17be
000003d0: 7dd3 ecbd 8a20 713d f996 813b 4d6f 933d
000003e0: 5b69 683e 92b4 06bb a2b2 f3bd e2e4 81bd
000003f0: 476c f43e 7c5b ce3e fdc0 933d 920a 063f
0.046051595 0.25721705 -0.23638366 -0.28829208 0.24798243 -0.26315895 -0.18420844 0.39446953
-0.26385415 0.06506628 0.08723918 -0.14373222 -0.2603397 -0.34735903 0.20491277 0.15748066
0.31529903 -0.19150701 0.048656926 0.04777024 -0.124996044 0.021748973 0.07673601 -0.24659762
-0.12645651 -0.15168048 0.057803772 0.026677806 -0.24076258 -0.24773325 0.18476939 0.33545765
-0.0021191721 -0.27361044 -0.118129775 -0.19189085 -0.043926693 -0.037820205 0.09627184 -0.11488331
0.12084856 0.14047296 0.05007676 -0.2689835 0.11518662 -0.37767422 -0.2522846 0.16677806
-0.8017684 -0.7893468 0.097763196 0.048766475 0.020882355 0.38817334 0.019647853 0.3118555
-0.1343924 0.07539678 0.30554962 -0.10126125 -0.31134543 0.2922881 -0.12299542 -0.23729184
0.049070217 -0.07582683 0.16322885 0.1769819 0.20005955 -0.08464764 0.2393148 0.053311355
0.050436582 -0.06439182 0.16823006 0.0695377 0.16659936 0.057753455 -0.14741881 0.12424499
-0.22996783 -0.065607324 0.015741574 0.094696425 -0.014240038 0.19490671 0.055994548 -8.1581944e-05
-1.3212183 0.20152567 0.09086623 0.0029465738 -0.06370046 -0.09007395 0.022899296 0.16554017
0.02066166 0.049748592 -0.0041310666 0.089126416 -0.05662326 -0.09367759 -0.21952938 -1.1766387
-1.015631 0.00649827 0.321318 -0.057003807 -0.34183264 0.074353166 0.300496 -0.099991605
-0.24693401 -0.43945315 -0.06374556 0.2927363 0.4473 -0.04054363 -0.62805337 -0.027293645
0.19507858 -0.6198052 0.18294914 -0.33200306 -0.2336194 -0.18215637 0.11419323 -0.08585072
-0.14414224 0.12222661 0.31141737 0.05027683 -0.06573743 -1.2039007 -0.03773212 -0.13824913
0.080814965 0.003145962 -0.4987794 0.10048611 -0.16110355 0.6508861 -0.107025735 0.033631068
-0.1887818 0.088996306 0.08665146 -0.15494211 -0.05699893 -0.10756899 -0.06142661 0.0053677578
-0.07743975 0.023297502 -0.16316338 -0.21859848 -0.11542379 -0.11604444 0.09289247 -0.15501204
-0.07685397 0.16930252 -0.06538813 0.04063095 0.51430124 -0.43740568 -0.1930402 0.5239268
0.25619617 0.41641155 0.4351886 0.070614144 0.010273354 0.040957626 0.032794308 -0.06351764
0.31921333 0.062837526 0.20971224 -0.096856155 -0.11458529 -0.40095252 -0.4806069 -0.03478715
-0.20654255 -0.12408598 -0.0065855314 0.4219324 0.14668274 -0.083660975 -0.008014494 -0.17552312
-0.25962085 -0.12263575 -0.4450039 0.03893141 0.31964263 0.021067102 0.045083493 0.13143072
-0.12832391 0.050580982 0.04143434 0.15331465 -0.110714845 -0.22075932 0.5501553 -0.042249635
0.21864198 -0.259068 0.14255287 -0.019625856 0.22354126 -0.11645696 -0.3248799 0.35633844
0.023454487 -0.021776058 0.052132905 -0.009327882 0.14724283 0.40095818 0.013809124 0.023672245
0.068092875 0.04574763 0.32575923 -0.15104519 0.012783904 0.076783694 -0.048620626 -0.0722958
-0.18121931 -0.0137076 0.24200356 -0.1943877 -0.12929472 0.18261993 0.02635177 -0.24330318
0.21009883 0.6629317 0.2369955 -0.14773877 -0.11563776 0.058868922 0.003954765 0.07198963
0.2269644 -0.0020554406 -0.11899306 -0.06342484 0.4773886 0.40304172 0.07214544 0.5235988

layer1.0.bn2.weight f4 [8]
00000000: 3991 183f 31bb 0340 bc75 323f adb0 0b3f
00000010: ac4e d33f 14fa 873f 7ccb 143f 1f25 233f
0.5959659 2.0583003 0.697109 0.5456646 1.6508384 1.0623193 0.5812299 0.6372852

layer1.0.bn2.bias f4 [8]
00000000: 758c 973c 925d 943e 0e9c 343f 5895 6a3f
00000010: 2a4e 193f 2045 8b3e 0154 aebe bbf7 b93e
0.018499592 0.28977638 0.7055062 0.9163413 0.59884894 0.27201176 -0.34048465 0.36321816

layer1.0.bn2.running_mean f4 [8]
00000000: 1b51 6abe c801 e6bf 6158 163f b124 bf3f
00000010: c121 0fbf 57c2 f2be 604f c73e 2ec6 513f
-0.22882502 -1.7969294 0.58728606 1.4933072 -0.5591088 -0.47413895 0.38927746 0.81943023

layer1.0.bn2.running_var f4 [8]
00000000: e05a 543f fd69 5a40 79ba 483f 2ca2 493f
00000010: ff04 c63f 7162 a73f 425d 2e3f 7aeb 103f
0.82951164 3.412719 0.78409535 0.7876308 1.5470275 1.3076917 0.6811105 0.5660931

layer2.0.conv1.weight f4 [16, 8, 3, 3]
00000000: 9576 67be 1aa6 40bd 4f69 d0bd 4262 15be
00000010: 7a60 02be 406f bbbd f324 fbbd 4f52 68bd
00000020: adea ec3d a157 91bd 0273 abbd 0b31 62be
00000030: d40a 30bc 246b e5bd 25c0 27be 3875 a33c
00000040: 832c 16bd de27 a4bd 0023 d33a f487 80be
00000050: bd17 843e 333f 87bc a60e 6dbe 5118 273e
00000060: f62e f13d 0b71 62bd 6ee1 bbbd 6a56 b9bc
00000070: 861f 65be 7f90 803d e8c0 a53c 5011 63be
00000080: 8887 623e 70df c5bc 50f0 85be ef9b c83d
00000090: cc6b 51be 59aa 58be 28d9 20be c362 37be
000000a0: f96e 6cbe efee 8abe 0224 87be b0e7 5cbe
000000b0: 91e7 adbe 8785 433e ebb9 003e 915e 8f3c
000000c0: cfe0 babd 9d99 e7bd 2e60 cfbc 7a5e 91bd
000000d0: f2d9 2bbe 28ef ffbd f3a3 323c 85a5 ccbd
000000e0: bd4c 30be e3b2 533d 099c 193c ff62 773c
000000f0: 26d2 42bd e37d 0bbe 1fd9 dabd 5704 c23d
00000100: 2af8 97bd 46d9 2b3e df1f fb3c 5b88 22be
00000110: b115 363d 6898 0d3e 2214 00bd d87d f83d
00000120: 2b63 093e 4060 c03c 46a2 edbc 29a5 843e
00000130: 748e 15bc 3a16 e8bb 647e 9d3d 4cb9 02be
00000140: a39a 7dbe 7508 64bd 8998 f43b cf82 133d
00000150: 8cb9 52bd 5b06 833c 39ce 5ebd 4f89 3d3d
00000160: 8fa6 d4bd ba53 21bd 4c2a abbe 2359 adbe
00000170: b3bb 19be a6e0 07bf a4a5 f2be c983 99bd
00000180: 810b 8dbe cefa 9ebe bc86 ed3d b21b 7ebe
00000190: 1335 cfbe 2584 5ebe 2ca0 85bd 0b26 7ebd
000001a0: 1520 2f3d 61df 283e e3d5 953d 0e64 0b3c
000001b0: 505b 3cbc 61de 3d3d 5291 c63d e55a 26bd
000001c0: 48c6 b43d a092 793e 7042 993d 8fde 913d
000001d0: 66b4 943d 5826 213b 268b d2bb fe8e 7c3d
000001e0: 1021 77bc 1d66 a83d 5889 d93d c12b 20bd
000001f0: 6fbd 3e3e 64d4 803e 901d af3d 7e06 5f3e
00000200: 738a 1a3e 013a 173e 9a18 99bd de70 6fbe
00000210: f5b6 aabe 3799 f0be d0b5 87be 6b18 4a3e
00000220: 6ef0 3abc 97f6 d9be 9fa5 683e 660a 8ebe
00000230: cd30 2dbf 86e2 e4bd ca45 f8be 40e3 07bf
00000240: d421 8cbd d357 8e3e 6e77 a6be 19ea 733e
00000250: d666 283f 0eba 4bbf 0c16 813e cacc 2c3f
00000260: e53b 3dbf 0388 173b 30ee 4b3c dd98 cf3d
00000270: c231 8fbd bcc2 e63d 11a3 003e e5ed 963a
00000280: e6c3 a63d a52d 28bd a913 ee3d 5914 c23c
00000290: a352 d5bd e9ee 003e 2e2c 3c3e 1b93 59be
000002a0: d2b6 323d 5670 00be 07e0 2abe a91e d7bd
000002b0: 3ebe 093e acc2 343e b7f0 e7bd 6587 b6bd
000002c0: a5bd cf3d 609b 79be f205 1bbe 83aa ca3d
000002d0: 2b6e 483d 938a 7abd 3ca1 c83c 965c 4d3e
000002e0: b7a4 85be 2f58 0c3f bb7c e83d b47b acbe
000002f0: be47 e33e ec1d 19bb 9112 3dbd bb03 82be
00000300: f8d3 33bd e67c 0f3c b24b 8ebf 2295 793c
00000310: 5287 e2bc 0fff 79bf 994e 083d d0f6 d63d
00000320: 66c7 bdbd 90fa d13c c121 3b3e 23fc 01bd
00000330: e7c6 97bd 518f f73c b1f0 ecbc fc02 ebbd
00000340: 5bba 0ebd 2390 1ebd ff21 0ebe ef2f 9fbd
00000350: cb2a 373d 10a3 7fbd 9279 d1bc 6dc2 433e
00000360: a4d5 5fbe 6794 81be 8cd1 6fbe e64e 593c
00000370: ea66 fd3d 7c5f 7a3e d7ba 803e 879f 4b3e
00000380: 9b8c 4dbc b90a a5bc 85db 083e 0358 6d3b
00000390: 9ef0 3cbf 9938 38bf 3940 d5be a8bd 193f
000003a0: 9bf8 4b3f 06a9 c63e 03d6 713d 1159 c63d
000003b0: 5dcf 203d 1c1c 053d f008 d4bd caa1 0a3e
000003c0: 889d ffbd 0146 5fbd fae3 e6bb 1b1a 933d
000003d0: 6bf0 073e 8dc2 133e 8e17 673c b681 30bd
000003e0: 881c 14be 3772 cbbc f3c0 86bd 824c 6bbd
000003f0: 3b56 e5bd fb5c 41bd 853c ce3d dfc8 fe3e
-0.22603829 -0.047033407 -0.10176336 -0.14588264 -0.12732115 -0.09152079 -0.12262907 -0.05671912
0.11568198 -0.07096792 -0.083715454 -0.22089021 -0.010744769 -0.11202076 -0.16381891 0.019953355
-0.036663543 -0.080154166 0.0016108453 -0.25103724 0.2579936 -0.016509628 -0.23150119 0.1631787
0.11776535 -0.055283587 -0.09173857 -0.022624213 -0.22375306 0.062775604 0.020233586 -0.22174573
0.22122014 -0.024154395 -0.26159906 0.09795367 -0.20451277 -0.21158732 -0.15707839 -0.17908768
-0.23089208 -0.27135417 -0.2639466 -0.21572757 -0.33965734 0.19093905 0.12570922 0.017501147
-0.0912491 -0.11308596 -0.025314417 -0.07098098 -0.16782358 -0.12496787 0.010903346 -0.09992508
-0.17216773 0.05168427 0.009375581 0.015099286 -0.047563694 -0.1362224 -0.10685944 0.09473484
-0.074203804 0.16782102 0.030654846 -0.15872328 0.04445428 0.1382767 -0.0312692 0.12133378
0.13416736 0.023483396 -0.029008042 0.25907257 -0.009128202 -0.0070827277 0.07690123 -0.12765998
-0.2476602 -0.055672128 0.0074644727 0.03601342 -0.051446483 0.015994241 -0.054395888 0.046273526
-0.10383331 -0.03938649 -0.33430707 -0.33857068 -0.15013008 -0.5307716 -0.47392 -0.07495839
-0.2754784 -0.31050724 0.11597964 -0.24815252 -0.4047018 -0.21730097 -0.06524691 -0.062048
0.042755205 0.16491462 0.07316186 0.008507742 -0.01149638 0.046354655 0.096956864 -0.040614028
0.08826882 0.24372339 0.07483375 0.07122528 0.07260971 0.0024589505 -0.006425279 0.061659805
-0.015083566 0.082226016 0.10621899 -0.039104227 0.1862695 0.2516204 0.085505605 0.2177982
0.15091877 0.1476822 -0.074753955 -0.23382899 -0.3334271 -0.46991894 -0.265059 0.19735877
-0.011409862 -0.42570946 0.2271943 -0.27742308 -0.6765259 -0.111760184 -0.48490745 -0.5308113
-0.0684239 0.2780138 -0.32512993 0.2381977 0.65781915 -0.7958077 0.25212133 0.67499983
-0.73919517 0.002312184 0.012446925 0.10136578 -0.069919124 0.112676114 0.12562205 0.001151499
0.081428334 -0.041059155 0.116248436 0.023691343 -0.10416152 0.12591137 0.18376228 -0.21247523
0.043631382 -0.12542853 -0.16687022 -0.10503895 0.13451478 0.17652386 -0.113252096 -0.08912543
0.10143594 -0.24375677 -0.15138987 0.09895804 0.04893319 -0.06116731 0.024490945 0.2005485
-0.2610223 0.5482206 0.113519154 -0.33688128 0.44390672 -0.0023363782 -0.046160284 -0.2539347
-0.04390332 0.008757805 -1.111685 0.01523331 -0.027652416 -0.97654814 0.03327808 0.104962945
-0.09266548 0.025632173 0.18274595 -0.031734597 -0.074109845 0.030219706 -0.028923364 -0.114751786
-0.03484569 -0.03871168 -0.13880156 -0.077728145 0.044718545 -0.062411368 -0.025570665 0.19117136
-0.21858841 -0.25308535 -0.2341978 0.01326344 0.12373145 0.24450487 0.25142547 0.19885074
-0.01254573 -0.020146715 0.1336499 0.003621579 -0.7380465 -0.7196136 -0.4165056 0.6005502
0.79676217 0.3880083 0.059041988 0.09684957 0.039260257 0.03249751 -0.10353267 0.1353828
-0.124812186 -0.05451012 -0.00704622 0.071827136 0.13275306 0.14429684 0.014104737 -0.043092452
-0.14464009 -0.024834735 -0.06579771 -0.05744601 -0.11198088 -0.047207814 0.10070137 0.49762627

layer2.0.bn1.weight f4 [16]
00000000: 2e3f a33f ee85 2c3f 35fa 873f 26f4 5a3f
00000010: 5ff2 093f 753b 533f 0c7d 243f 7e9c 1c3f
00000020: 5bca 553f 828f 223f fe43 8f3f a2e8 583f
00000030: fbd9 1e3f b920 433f a1f6 3f3f 6935 643f
1.2753656 0.6739186 1.0623232 0.8552879 0.53885454 0.825126 0.64253306 0.6117629
0.83511895 0.63500226 1.1192625 0.8472997 0.6205136 0.76221806 0.749857 0.89144

layer2.0.bn1.bias f4 [16]
00000000: 3dce 5fbf 7ff4 e33e b4a6 513f f719 46bd
00000010: 0192 6e3f 2614 5abe 8a72 de3e d42d 0c3f
00000020: 8598 93bd 4220 953c c606 223f a4f2 7cbd
00000030: 6392 0a3f 735a 2dbd 9b86 9dbc 3184 27bd
-0.8742407 0.44522473 0.81894994 -0.048364606 0.93191534 -0.21296749 0.4344676 0.5475743
-0.07206825 0.018203858 0.63291585 -0.061754838 0.5412962 -0.042322587 -0.019229224 -0.040897552

layer2.0.bn1.running_mean f4 [16]
00000000: 8789 97c0 6485 a4c0 ad07 afbf 6a6b fe3e
00000010: d35d 9e3f 9341 ddbf 9e74 c640 6cb3 1ac0
00000020: fb92 51bf 6d1d 133f 7e00 00c0 9365 39be
00000030: 356d 4bc0 cdd1 f5bd 2457 91bf af57 1f3f
-4.735538 -5.141283 -1.3674217 0.49691325 1.2372383 -1.7285637 6.2017355 -2.417201
-0.818649 0.57466775 -2.00003 -0.18105154 -3.1785405 -0.12002907 -1.1354718 0.6224317

layer2.0.bn1.running_var f4 [16]
00000000: 3d01 6f40 3f3a 9a40 19e4 6241 4bde 5541
00000010: 4933 fc40 526c 7140 e4a2 ff40 263c 7840
00000020: 767d ed40 0d67 8b40 12b2 5d41 92c0 f840
00000030: 3081 0841 c265 bb40 f83d 1041 5619 5041
3.7344506 4.81961 14.180688 13.366771 7.8812604 3.7722363 7.988634 3.8786712
7.421565 4.3563294 13.855974 7.773507 8.53154 5.8561716 9.015129 13.006186

layer2.0.conv2.weight f4 [16, 16, 3, 3]
00000000: 3748 cdbe 5431 dcbe d1f1 6dbe 6d13 6b3c
00000010: cacd 9dbe c9c4 463e edcd a73e 5b23 efbd
00000020: 771c ab3e 1a17 3bbe b11b 2abd f1ac 993c
00000030: 0bd9 2cbd ebbe 133e 02cb e2bc 728e 8bbc
00000040: becd 453c bb27 0dbc 187a a23d c629 293e
00000050: b09a ccbd 9786 21be 41a2 483e 6885 0a3e
00000060: 4f68 efbd 5210 32bb 00ef 92bd 4443 65be
00000070: ae6f 0cbe 19c0 97bd 0c02 afbd 8c54 e73c
00000080: 0d66 e7bd 45b4 77bc 0ff8 b3bd be06 63bd
00000090: 7b3f 50be 37ec b4be 4eb3 2ebe 4805 073f
000000a0: 1552 443f a605 7d3e 32f1 493e eb7d 463f
000000b0: d87d e63d 1f87 623c 0a24 03bd e7ac 83be
000000c0: 0250 ae3c 6806 8d3e 8625 e1bd 288a ddbb
000000d0: f1d9 903d 0658 713d b16f c0be 52aa 00bf
000000e0: b98e 8fbe 9bf0 f9bb 1515 1cbe 0dd8 edbd
000000f0: c3de 233e 50e1 a23e 964b 03bd fa0b a0bd
00000100: a095 02bd b0b6 013d ef30 0d3d 7678 a6bc
00000110: ca7b e4bc 0d56 f83b f573 66bd f123 07be
00000120: f45e ec3d e292 d43c e2dc 5fbe 3dd2 583e
00000130: 5f55 cf3e 4be8 05bb 62c5 0dbd 9b1a 4d3e
00000140: a240 003e abfd c5bd 7444 0abe 1092 8c3a
00000150: 6a25 3c3d 92f6 263e 0cea dcbb 4c48 fb3d
00000160: d4df c83e d9bf 00be 60ab 823d 2c64 083e
00000170: 49a2 5d3b db7d cfbd 7503 003e 632c 233e
00000180: fd91 31bd 472e 43be f679 19be 9e43 3dbd
00000190: fdbe c63c af88 5e3d c1f2 6e3d cbe7 24bc
000001a0: 79f8 013e 369b 823c c0a4 90bd 1ea4 d1bd
000001b0: 699f a53e edf5 293f d638 b93e 6e5f d5bd
000001c0: bc62 fb3e 2d03 8b3e 3e35 22be e349 32be
000001d0: 6d3b cbbe 07ed 183d 5364 223e 2390 ddbd
000001e0: 97ff a53d a200 933e c646 8f3d 67d4 4c3d
000001f0: c422 963d 34d8 d83d 18af ad3c b00d 1b3e
00000200: 14ad 993d 8b87 5d3d 1922 a03e 7adc 2e3e
00000210: 99dc a6bd 3c83 97bd cb73 8bbd 5da1 1fbc
00000220: ecdf df3d 0d76 f3bc 60fb e4bd 7774 a4bd
00000230: 6ac7 3bbe 470e 763b 0437 3ebd 2c96 43be
00000240: 1525 c33c 0574 12bd fb6f 82bc 3185 12be
00000250: 8b52 983d f3d3 3fbd 9f2c 95be fcf3 fbbd
00000260: a186 f33d e8ec 133d 4e02 8cbd 9003 1b3c
00000270: 4297 823d 47fb febd 18c5 8abd 6ecc a0bd
00000280: a878 133e e0db 41ba 2f54 75be 8f55 813e
00000290: 3949 063e 0c21 093f 1589 8cbf 4903 8a3d
000002a0: 29d0 af3d f701 373e 92f8 a9bd 01dc abbd
000002b0: 5ba2 2fbc 25d4 a9bd 2a03 98bd 975e e8be
000002c0: 1981 b2bd 54ff acbc f583 85ba 60f0 f23c
000002d0: 0c14 abbe be59 433f 6196 65bc 2a71 a2be
000002e0: 0d84 5dbf a3dd 3a3f 4390 ba3e d800 dcbe
000002f0: 14c0 79bd 6a49 46bd 713c 32bd 2535 b53d
00000300: 3572 153e 2e3e 4f3e 6fc1 08be cabc e7bd
00000310: 9d35 643e 2be3 5e3d ca9c 8d3d c3e5 adbd
00000320: ac17 0fbf 74a5 9abe b652 3c3f 77a2 77bd
00000330: 4c8c e5be 70ee a5be 299f 923e b1af d63c
00000340: a71f 19be b6b3 5c3d 9822 a53c 8905 ffbd
00000350: 3fdf 94bd 104e bbbc 22ac 673c 7273 debd
00000360: aff0 2ebd a1e2 433d 2d30 c63e 93da d33e
00000370: 4424 243f a5e0 883e ed2c 46bd fa0d 123f
00000380: 1cc6 da3d 134d 34bd 9ac3 88be 3024 35be
00000390: 7d76 413c d47b be3d 4521 eabd cffb 5abd
000003a0: 1458 653e b9fc 95bd bb4b 913d c7bc 5abe
000003b0: dfd1 8e3e 81be fa3d c0e3 6bbe 2c89 84be
000003c0: d043 b7bd a806 963e 761b a2be 15f7 c9bd
000003d0: 886e d8bd df8b 06be f4c7 78bd c96c b2be
000003e0: 4809 8cbe 6a22 22bd 673b 4dbe 2635 75be
000003f0: e9b5 9fbd dabe acbe 4be9 cc3e d165 d83e
-0.40094158 -0.43006384 -0.23236777 0.014347893 -0.30821067 0.19411005 0.32774296 -0.116766654
0.33420154 -0.18270531 -0.041530315 0.018759223 -0.042199176 0.14428298 -0.027684692 -0.017035697
0.012072979 -0.0086154295 0.07933444 0.16519842 -0.09990442 -0.15773998 0.19593145 0.13527453
-0.11689817 -0.0027170372 -0.07174492 -0.22388941 -0.13714477 -0.074096866 -0.08545312 0.028238557
-0.112987615 -0.015118663 -0.08787548 -0.05542635 -0.20336716 -0.35336468 -0.17060587 0.52742434
0.7668775 0.24709186 0.19720915 0.77535886 0.112544715 0.013826161 -0.03201679 -0.25717852
0.021278385 0.2754395 -0.10993485 -0.0067608543 0.07072819 0.058921836 -0.37585214 -0.5025989
-0.28038576 -0.0076275594 -0.15242417 -0.11613474 0.16002946 0.31812525 -0.032054506 -0.07814784
-0.031880975 0.031668365 0.034470495 -0.020321112 -0.027891058 0.0075786174 -0.05626293 -0.13197304
0.11541548 0.025948945 -0.21861604 0.2117395 0.4049482 -0.0020432647 -0.034612067 0.2002968
0.12524655 -0.09667524 -0.13502675 0.0010724682 0.04593412 0.16304997 -0.0067417677 0.12269649
0.39233267 -0.12573184 0.063803434 0.13319463 0.0033818653 -0.10131427 0.12501319 0.15934901
-0.043352116 -0.19060622 -0.1498793 -0.046207063 0.024260992 0.05432957 0.058336977 -0.010065029
0.12692441 0.015943151 -0.070626736 -0.10236381 0.32348183 0.6639088 0.36176175 -0.104185924
0.49098766 0.2715086 -0.15840623 -0.17410998 -0.39693776 0.037335422 0.15858583 -0.108185075
0.081053905 0.2871142 0.06995921 0.05000725 0.0733085 0.105881125 0.021201655 0.1514194
0.07503715 0.054084342 0.31276014 0.17076293 -0.081475444 -0.07398078 -0.06809195 -0.009743062
0.109313816 -0.029719377 -0.111807585 -0.080300264 -0.18337789 0.003754513 -0.046439186 -0.19100255
0.023821393 -0.035755176 -0.015922537 -0.14308621 0.07437619 -0.04683299 -0.29135606 -0.12302396
0.11890913 0.036114603 -0.06836377 0.009461299 0.063765064 -0.12450271 -0.06775874 -0.07851492
0.14401495 -0.00073951297 -0.23957895 0.2526059 0.1311387 0.5356605 -1.0979334 0.06738908
0.08584625 0.17871843 -0.08299364 -0.08391572 -0.010719861 -0.082924165 -0.074224785 -0.45384666
-0.0871603 -0.021117844 -0.0010186421 0.029655635 -0.33413732 0.7630881 -0.014012904 -0.31726962
-0.8652962 0.7299444 0.36438188 -0.42969394 -0.060974196 -0.048409857 -0.043514673 0.08848027
0.14594348 0.20238563 -0.13355039 -0.113153055 0.22286077 0.054415863 0.06914671 -0.08491089
-0.55895495 -0.30204356 0.73563707 -0.060457673 -0.448336 -0.32408476 0.28637055 0.026206823
-0.1495348 0.053882323 0.020158097 -0.124522276 -0.07269143 -0.022864372 0.014140161 -0.10861863
-0.042710003 0.047823552 0.3870863 0.41377696 0.64117837 0.2673389 -0.04838269 0.57052577
0.106823176 -0.044018816 -0.26711732 -0.17689586 0.011808035 0.09300962 -0.11432127 -0.0534628
0.2239688 -0.07323594 0.070945226 -0.21361075 0.27894494 0.12243367 -0.23036098 -0.25885904
-0.08948481 0.29301953 -0.31661576 -0.0986158 -0.10567957 -0.13139294 -0.060737565 -0.3484862
-0.2735083 -0.0395836 -0.20042191 -0.23946056 -0.077983685 -0.33739358 0.40021738 0.4226518

layer2.0.bn2.weight f4 [16]
00000000: 0a5c 8d3f c4dc ad3f 7e53 a63f 98e0 3f3f
00000010: b37b bc3f 06a8 623f 87f1 c73f b7f6 2b3f
00000020: 17ec 473f affc 473f ebc6 583f 7480 5d3f
00000030: 60f2 ac3f 0914 463f 8f54 9b3f fe8d 853f
1.1043713 1.3582997 1.299423 0.7495208 1.472525 0.88537633 1.5620583 0.6717333
0.7809462 0.7811994 0.84678525 0.8652413 1.3511467 0.7737432 1.213518 1.0433958

layer2.0.bn2.bias f4 [16]
00000000: 67f0 1e3b a755 aabd 3a3b 18be 9701 07bd
00000010: 1167 78be b822 363f da7e 71be d263 8abb
00000020: 2510 643f 9df1 63be b0fc d3be 666b 7f3e
00000030: 1afe dabd da96 d03e cac8 93bd fd0d 653e
0.0024252178 -0.08317118 -0.14866343 -0.0329605 -0.24258067 0.71146727 -0.23583546 -0.0042233253
0.89087135 -0.22260137 -0.41403723 0.24943313 -0.10692997 0.4074009 -0.07216032 0.22368617

layer2.0.bn2.running_mean f4 [16]
00000000: 6d2a 0340 0b33 cebf a485 bb3f 5004 8dbf
00000010: 4068 2d3c 6198 df3f c681 b7be 4364 ff3d
00000020: 4def ebbf 7beb 61be 44c2 cfbf 9c1f a43f
00000030: b185 e33d 4296 0840 e1c1 a2bf 51cf 07c0
2.0494645 -1.6109327 1.4650159 -1.1016941 0.010583937 1.7468377 -0.35841197 0.12470295
-1.8432404 -0.22062485 -1.623116 1.2822146 0.11109484 2.134171 -1.2715417 -2.1220286

layer2.0.bn2.running_var f4 [16]
00000000: 5d2a 1b40 337c 7c40 6a9d 2140 3e55 9a3f
00000010: 9362 6a40 c1cf 6f40 a3e9 8340 65b7 bd3f
00000020: 6b06 3140 fc9b 6f3f 9f32 553f 48f4 3340
00000030: 1432 7040 7bdf 4140 9c4d 1840 8774 f33f
2.4244606 3.9450805 2.5252328 1.2057264 3.6622665 3.7470553 4.12227 1.4821593
2.7660167 0.9359739 0.83280367 2.8117847 3.7530565 3.0292652 2.379737 1.9019936

layer2.0.shortcut.0.weight f4 [16, 8, 1, 1]
00000000: 35be b53e 028e ccbe 51a0 8a3e cb5a df3d
00000010: 46fe 823d d010 cabd f984 753c 1bca 393d
00000020: ce97 3a3d 567e ce3e aed5 37be 701c 2fbc
00000030: abc3 92be aa1c 1a3e 07dc b03d 9e3e 30be
00000040: a937 973e b252 0abb d6ce a9bc 62e2 13bd
00000050: 8e56 cabe 4362 19be 445a 30bc bf3d 4dbd
00000060: 8f53 393e c319 493d 1b03 eb3e 8ac8 6a3f
00000070: 52b5 913c fd15 b73d 4ea3 3dbf 3afc 3cbe
00000080: 629b 603e 9980 5cbd 5588 cd3e 5608 f6bd
00000090: 34cc 523e d798 aebd 02a1 733d 3090 623e
000000a0: bed9 e2bd 950d 5c3e 05ef 883e b997 0ebe
000000b0: 91c4 7cbe 7afa 2b3d b40d 0dbe f003 7c3e
000000c0: 9275 84be 3785 d63e 07df ac3d 0845 61be
000000d0: 16cc 0d3e 0914 15be 5fae 1a3e da98 c9bc
000000e0: 118f 733e cf46 593b a947 20be 5316 04bf
000000f0: 8702 82bc 67dc 8ebd 8a72 893f 1c3c d73d
00000100: 0774 2fbd f7ac cb3d 0b98 39bd 34f2 523d
00000110: f0fe 42be 8e2b 113e 0ed0 913d ec59 e53c
00000120: 1456 86be 0d0b b23d 601e 323f 35be 43be
00000130: 7695 8abc 9589 413c 181b d43e a466 6ebf
00000140: b59b e63e d67b 573c 234e 33bf 7efb 613d
00000150: 84fd f13d 6fcb d8bd 5613 133d 5d22 393f
00000160: 4200 e6bd 6b9a 343e 7ba9 2ebe cc8f 043e
00000170: f52a 20bf 961b bc3e 0306 8cbd 5f39 133e
00000180: 434f 6abe 15b3 3dbe a31d 3b3e 4ab3 7fbe
00000190: 2259 943e 6d73 803e 0a9a 20be 25be 0b3d
000001a0: 3711 4bbf c6b0 ec3a 17ee b93d a98a 3fbd
000001b0: 7ff9 debc f0dc 9f3d 5408 123e d896 d73d
000001c0: 0bbe 1abe 9f55 023f 9c35 84be 2959 3fbd
000001d0: ffe0 aabe 0a85 383e 4bd0 bbbc ce23 20bc
000001e0: 9a9f c3be 6a5a 91bc 9cc0 c4be a0a0 4bbe
000001f0: 35eb fbbc 28e9 833d 170c 1f3e 3389 8fbe
0.3549668 -0.39952093 0.27075437 0.10905989 0.06396155 -0.09866488 0.014985316 0.04535876
0.04555493 0.40330762 -0.17952606 -0.010687932 -0.28664908 0.15049997 0.08635717 -0.17211387
0.29534653 -0.002110642 -0.02072851 -0.036104567 -0.3951916 -0.1497889 -0.0107637085 -0.050107714
0.18098281 0.049096834 0.45900807 0.9171225 0.017786656 0.08939741 -0.7407731 -0.18455592
0.21934274 -0.053833578 0.40143076 -0.12013309 0.2058571 -0.08525246 0.05947972 0.22125316
-0.11076687 0.21489556 0.26744857 -0.13925065 -0.24684359 0.04198692 -0.13774759 0.24610877
-0.2587095 0.4189851 0.084409766 -0.2199899 0.13847384 -0.14558424 0.1510558 -0.024609018
0.23785044 0.0033153777 -0.15652336 -0.51596564 -0.015870346 -0.06975632 1.073808 0.10509512
-0.04283526 0.099451 -0.045311015 0.051500514 -0.19042563 0.14176771 0.071197614 0.02799698
-0.26237547 0.08693514 0.695776 -0.19115527 -0.016916972 0.011812587 0.4142692 -0.9312537
0.4504067 0.013152083 -0.700411 0.055171482 0.118159324 -0.10585677 0.035907112 0.7231806
-0.11230518 0.17637031 -0.17056839 0.12945479 -0.6256555 0.36739796 -0.06837084 0.14377354
-0.22881798 -0.18525346 0.18273024 -0.24970737 0.28974253 0.25088063 -0.15683761 0.034116883
-0.7932314 0.0018058054 0.09078615 -0.046763096 -0.027218578 0.07805812 0.1426099 0.10526818
-0.15111558 0.509119 -0.2582215 -0.04671589 -0.33374783 0.180195 -0.02292647 -0.0097741615
-0.38207704 -0.017743308 -0.384282 -0.19885492 -0.030751804 0.064409554 0.15531956 -0.28034362

layer2.0.shortcut.1.weight f4 [16]
00000000: 07f8 6b3e a0a3 2c3e e166 253e 7195 5d3f
00000010: 2856 08be 65d7 be3d f0c4 6a3e 8991 253f
00000020: 2f9c 03bc ed8b 593f 39df 4f3f 0ef8 953e
00000030: e18e 283e 08d0 8c3e 1458 d03e a9fb 583e
0.23043834 0.16859293 0.16152526 0.86556154 -0.13314116 0.09318427 0.22926688 0.64675194
-0.008032843 0.84979135 0.81199986 0.29290813 0.16460754 0.27502465 0.40692198 0.2118975

layer2.0.shortcut.1.bias f4 [16]
00000000: 67f0 1e3b a755 aabd 3a3b 18be 9701 07bd
00000010: 1167 78be b822 363f da7e 71be d263 8abb
00000020: 2510 643f 9df1 63be b0fc d3be 666b 7f3e
00000030: 1afe dabd da96 d03e cac8 93bd fd0d 653e
0.0024252178 -0.08317118 -0.14866343 -0.0329605 -0.24258067 0.71146727 -0.23583546 -0.0042233253
0.89087135 -0.22260137 -0.41403723 0.24943313 -0.10692997 0.4074009 -0.07216032 0.22368617

layer2.0.shortcut.1.running_mean f4 [16]
00000000: a702 fc3e cd30 473d 6ea6 96be 2145 c23f
00000010: ccb7 7a3f 1531 663e bea9 a83d 5bd0 183e
00000020: 72fe a13d 2276 4bbe d33e fc3e 39bf 4abe
00000030: e574 f7bd d4f6 42bf 6d5c 29be 90ae b5bf
0.49220774 0.048630524 -0.2942385 1.5177346 0.979367 0.22479661 0.08235501 0.14923231
0.0790986 -0.19869283 0.4926668 -0.19799508 -0.12082843 -0.7615788 -0.16539164 -1.4193897

layer2.0.shortcut.1.running_var f4 [16]
00000000: ceaf ae3e b5ce 193f 567e 7b3e f398 823f
00000010: 16d1 563e f7de 9a3e 136d a63e 1b16 5a3f
00000020: 7061 073e ae81 513f bc35 203f 6f2b 863f
00000030: af19 8f3e 644e f83e 99f2 4e3f b1ef 723e
0.34118503 0.60081035 0.24559912 1.0202926 0.20978197 0.30248234 0.32505092 0.8518998
0.13220763 0.818385 0.6258199 1.0482005 0.27949283 0.48497307 0.80838925 0.23724248

layer3.0.conv1.weight f4 [32, 16, 3, 3]
00000000: 3110 6b3c dd8e dabd e005 84bd e8dd aebd
00000010: 9d22 7abd 51e2 58bd 45d2 1bbe 8fb4 7dbc
00000020: bd3f 863d c654 613d fc3b 003e 4c76 543e
00000030: d1b0 a03e 83cb 1a3f 0e98 f13e cf24 ae3e
00000040: 48dc 313f d568 e33e d0c3 913d fa6f d83d
00000050: ee75 c73d 2fbf 5a3e e23f a83e eb27 a73e
00000060: 9146 b63e 67ac 163f 3b83 b43e 2a83 093e
00000070: e698 4d3e 0d1d 103e 6f76 4c3e 0dc2 a43e
00000080: 8a6a 4b3e 99f4 2b3e 2060 563e ec82 153d
00000090: 4fb6 33be 7e5d 30be 8b7e 87bc cbfc 2abe
000000a0: c29f 49be d61f 51be 50e3 163d a896 6ebc
000000b0: 8452 14be 7d15 67bd 187a 303d 4b47 ad3e
000000c0: c234 24be b6d0 5ebe 9c6c 333e ceb0 8abe
000000d0: b34d 87be 5d5c ea3d fe42 573e 3805 dc3e
000000e0: d4ed 293e 9261 dc3e 663e 3b3f 179c e03e
000000f0: 681f 3e3e e733 bd3e 090a 7e3e 44aa 4cbd
00000100: a63f f8bd d3f1 29bd 849a 6bbd 53f9 1ebe
00000110: afe6 e5bd 9137 b3bd cb30 1abe 6934 77bd
00000120: 29da 4c3e 0897 b83e bff0 533e 53de bf3e
00000130: 7d7a b23e 54e5 123e 80a8 9f3e 3af3 923e
00000140: 87e2 563d 8723 57bd af97 bfbd 1e5f 8d3c
00000150: 6641 91bd c981 3cbd 5cb3 53bd 33d8 99bd
00000160: 9991 4ebd f093 e13b 8d8c 233d 8e84 14bc
00000170: 1aae bdbd 3c9d 583d ac8f 5f3a 86f2 b3bd
00000180: 58d7 ed3c ece6 553d f10b cebc d7a6 5fbb
00000190: 5ecf bfbc 66e1 0a3d 68a1 87bd 37c8 85bd
000001a0: bc28 34bc 2e9f f2bd 5877 1dbe 0f63 8dbc
000001b0: 361e 833c 92b1 bfbd 58c8 01be 72fc d6bd
000001c0: 4b97 59be a93e 4cbe 89bf 91bd 345c 14be
000001d0: a07f 19bc d6e0 cf3d 2252 f93c ff70 eab9
000001e0: 8608 ca3d 0682 d839 5e69 12bd e355 183e
000001f0: 8b07 103e 7647 243d f218 69be 42f1 c4bd
00000200: 7f75 bf3d c4dd 87be 3037 28be 32a0 403e
00000210: c5ea b5bd 7f66 45bd 39e6 1d3c 0b86 46bd
00000220: bcc8 e6bd 86e4 26be caa2 363e 430e a0bd
00000230: b06e 73be b39e 543e 5119 753d 7c76 0fbe
00000240: 80cc f7bd 0566 a6bd 2f2f 1e3e 0a8b febd
00000250: 7c1b 593e 274e 8f3e d49b 7d3d 4cb7 8c3e
00000260: e9b8 913d 9b3e 173e ea49 2d3e 37fd 0c3d
00000270: 5465 0a3e 8f1c 3c3d 55ad 1f3d 8a7b 8b3c
00000280: 64c7 aebd e384 f4bc f219 9d3c e643 90bb
00000290: bb1b d63c e9db 03be 40e6 e4bd 85c3 e5bc
000002a0: dd56 0abe 3b1b 86bd d2b1 eabb 7a90 0bbd
000002b0: 3588 74bc 9393 adbc 6839 2abd 42c1 c83d
000002c0: 4d61 313d 859a 183e e07a 7f3d 1492 a2bd
000002d0: 1261 febc 5fc7 213e ed91 4a3d b2e4 1abc
000002e0: 72fe d33d c43d 0b3e f573 583c f9b5 8f3d
000002f0: c63c 5cbc 19f3 78be 9174 69be 85c9 0abe
00000300: 988d 5abe 98a7 e83d 31c1 953e 06ab 8d3e
00000310: afa4 373e ca17 c5ba 34e4 6ebd 1889 62bc
00000320: 2c14 aa3d 10b9 fd3d b3f2 293e 110a 4f3e
00000330: 4623 443e 2e83 9f3e c196 1e3d d284 06bd
00000340: 1008 07be 2a76 72be 0843 2dbe 8234 a3be
00000350: ae98 97be 2f75 8dbe 6e8a 86be 1fda 963d
00000360: ca5d 9dbd 49ba a6bc a8e4 863e d5ac 0dbe
00000370: 4a2e 2e3e 590e a73e b294 adbc f506 3e3e
00000380: 5839 133d 2922 84bc 5823 243d d52d 2e3d
00000390: fa0e 263c 8021 ce3c 7a66 7abb c5bd 71bd
000003a0: ceb9 6abd e872 883d 2647 fbba a5a7 093d
000003b0: 2e6d 08ba 13ee 5b3a 9fff 0c3e 2711 f53d
000003c0: 9584 ac3d f161 313e 150a 6b3d c637 7fbe
000003d0: 05d1 b2be 4834 0bbe 1cf4 adbe 8ca5 4fbe
000003e0: baaa 433e 4417 47bc 0635 d83d f4ee 243e
000003f0: 1275 a0bd 5100 85bd 484d cf3d 37dd 07be
0.014347122 -0.1067178 -0.06446433 -0.08538419 -0.061068166 -0.052950207 -0.1521693 -0.015484943
0.06555126 0.055012487 0.12522882 0.20748252 0.313849 0.60466784 0.4718632 0.34012458
0.6947675 0.44415918 0.071174264 0.10568233 0.0973929 0.21361993 0.3286124 0.32647642
0.35600713 0.58856815 0.3525637 0.13428941 0.20077857 0.14073582 0.19967054 0.321793
0.1986486 0.16792525 0.20935106 0.03650181 -0.17550014 -0.17223164 -0.016539833 -0.16697995
-0.19689849 -0.204223 0.036837876 -0.014562286 -0.14484602 -0.056416977 0.043085188 0.33843455
-0.1603575 -0.21759304 0.175219 -0.27088016 -0.26426467 0.11443398 0.21021649 0.42972732
0.1659463 0.4304319 0.7314209 0.43869087 0.18566668 0.3695366 0.24808516 -0.049967065
-0.12121515 -0.041490387 -0.057520404 -0.15524797 -0.1122564 -0.08750833 -0.15057676 -0.060352717
0.20005096 0.36052728 0.20697306 0.37474307 0.34859076 0.14345294 0.31183243 0.28701192
0.052462127 -0.052524116 -0.09355103 0.01725727 -0.07092552 -0.04602221 -0.051684722 -0.0751194
-0.05043182 0.0068840906 0.03992896 -0.009064807 -0.09261723 0.052884325 0.00085281837 -0.08786492
0.029033348 0.052222177 -0.025152178 -0.0034126544 -0.02341431 0.033906363 -0.06622583 -0.065323286
-0.01099604 -0.11846767 -0.15377557 -0.017259149 0.016005617 -0.09360041 -0.12674081 -0.10497369
-0.2124912 -0.19945778 -0.071166106 -0.14488298 -0.009368807 0.10150306 0.030434672 -0.00044716147
0.09864907 0.00041295605 -0.035745017 0.14876513 0.14065377 0.040107213 -0.22763422 -0.09616329
0.093485825 -0.2653638 -0.16427302 0.1881111 -0.08882669 -0.04819345 0.009637409 -0.048467677
-0.11268756 -0.16298112 0.17835537 -0.0781522 -0.23772693 0.20763664 0.059838597 -0.14010042
-0.12099552 -0.081249274 0.15447687 -0.12428863 0.2120189 0.27989313 0.061916187 0.27483594
0.07115347 0.14769976 0.16922727 0.034421172 0.13515216 0.045925673 0.03898366 0.017026681
-0.085341245 -0.029848522 0.01917741 -0.0044026254 0.02613627 -0.12876858 -0.11176729 -0.028047333
-0.13509698 -0.065481625 -0.007162311 -0.03407333 -0.014925052 -0.021188533 -0.041558653 0.09802486
0.043305684 0.14902695 0.062373042 -0.079380184 -0.031052146 0.1579871 0.049455572 -0.009453939
0.10351266 0.1359778 0.01321124 0.070171304 -0.013442224 -0.24311484 -0.22798373 -0.13553436
-0.21343076 0.11360091 0.29248956 0.27669543 0.17933916 -0.0015036997 -0.0583231 -0.013826631
0.08304629 0.123888135 0.16596489 0.20218684 0.19154081 0.3115477 0.03871799 -0.03284151
-0.1318667 -0.23677889 -0.16920102 -0.31875998 -0.29608673 -0.27628466 -0.26277488 0.07365822
-0.076839045 -0.0203525 0.26346326 -0.13835461 0.17009845 0.32628134 -0.021189068 0.18557341
0.03594336 -0.01612957 0.04007277 0.042524178 0.010135407 0.025162458 -0.0038208053 -0.05901887
-0.057306103 0.06662542 -0.0019170984 0.033607144 -0.00052042573 0.0008389663 0.13769387 0.11966162
0.084237255 0.17322518 0.05738266 -0.2492362 -0.34925094 -0.13594162 -0.33975303 -0.20277995
0.19108096 -0.012151543 0.105569884 0.16106778 -0.078348294 -0.06494201 0.10122162 -0.1326798

layer3.0.bn1.weight f4 [32]
00000000: ef86 ed3e 8c6d 513f 78ed db3e 1ca9 023f
00000010: cac6 2c3f 8c6c 3f3f 03a6 1c3f dfe1 5e3f
00000020: 202c fe3e b27f 5b3f 9a9f 353f ec0c db3f
00000030: 29bc 513f ecc9 1f3f 8307 353f 71ef 0e3f
00000040: d7bd 803f fe38 1b3f 94df a73f 849c 643f
00000050: 8ae5 1f3f 6dee 1f3f 4ac1 423f 6b70 5e3f
00000060: a9e5 383f 0459 4a3f cc0a 3f3f dd68 423f
00000070: f065 473f 5157 3f3f 17dc 633f a60d 293f
0.4639201 0.8180778 0.42954612 0.5103929 0.6749083 0.74775004 0.61190814 0.870634
0.4964304 0.8574172 0.7094666 1.7113318 0.81927735 0.62417483 0.70714587 0.5583411
1.0057935 0.6063384 1.3115106 0.89301324 0.62459624 0.62473184 0.76076186 0.86890286
0.72225434 0.7904208 0.7462585 0.7594126 0.7788992 0.7474261 0.89007705 0.6603645

layer3.0.bn1.bias f4 [32]
00000000: a8fd 3f3f a9a0 b8bd 4b30 1a3f 0338 083f
00000010: cf23 b13d 8f03 f2bd 6c5c d33e ab08 ab3e
00000020: 2977 0b3f bc8b c1be a186 61be dc5b 9dbf
00000030: 2cd0 b9be 08f2 5b3e 1500 5dbe db78 213e
00000040: a32f abbe f55a 003d cd02 18be 8dab 213e
00000050: a814 04bd 0bc6 e43e fc7e e5bd dbca d2bd
00000060: d94e 85be 0934 043f 29e5 59be 6b74 83be
00000070: 04e7 37be 12eb 79ba 1f64 abbe 0e82 2bbe
0.74996424 -0.090150185 0.6022994 0.5321047 0.08649408 -0.11817085 0.4128145 0.3340505
0.544787 -0.3780192 -0.22024013 -1.2293658 -0.36291635 0.21479046 -0.21582063 0.15768759
-0.3343478 0.031336743 -0.14844818 0.15788098 -0.03224626 0.44682345 -0.11205861 -0.10292598
-0.26036718 0.516419 -0.21278824 -0.25674757 -0.17959219 -0.00095336244 -0.33474824 -0.1674883

layer3.0.bn1.running_mean f4 [32]
00000000: 497f b240 068d 0240 fe54 983f 7c3c 47c0
00000010: d707 1740 8a35 343e f335 50c0 2937 53bf
00000020: ed98 c440 86d4 abbf c667 2b40 6a61 44c0
00000030: dc53 2dc0 4fa7 983f 452d bebf f7e2 abbf
00000040: 5aaf e3bf 6882 4e3f c45e fbbf 7696 cfbf
00000050: 5eed 78bf b478 11c0 ece6 c8bf 07d3 ac3e
00000060: dc2c 22bf dafb 803e 1585 8cc0 dee4 dbbf
00000070: a3fc 4fbe b788 9440 6b7c 29c0 5f0e 0fbf
5.5780377 2.0398574 1.1900938 -3.1130667 2.3598535 0.17598549 -3.2532928 -0.8250604
6.1436677 -1.3424232 2.6782088 -3.0684457 -2.7082434 1.1926059 -1.4857565 -1.3428639
-1.7787888 0.80667734 -1.9638295 -1.6217792 -0.97237194 -2.2729921 -1.5695472 0.3375475
-0.633497 0.25192147 -4.3912454 -1.717922 -0.20311217 4.641689 -2.6482189 -0.55881304

layer3.0.bn1.running_var f4 [32]
00000000: b2ba 9740 dfbb 7a40 aa47 9240 e063 b040
00000010: c09e fc40 a787 8440 bcb2 0341 c6fc c540
00000020: d92d e340 f5d4 4c40 47ac 8e40 8eeb a140
00000030: 7fee 6740 e09b 6540 9ccd 2b40 8b99 8040
00000040: a020 8240 1877 5b40 228b f840 8888 bb40
00000050: 2e65 3440 59bf c940 e2fa 8840 0a62 9740
00000060: f7e8 2f40 db7f f840 b409 9e40 3f2c 3240
00000070: ae0c 6640 dba0 ae40 3cd9 6740 6fc6 8240
4.74154 3.9177167 4.571248 5.512192 7.8943787 4.141559 8.231136 6.187106
7.0993466 3.2004979 4.45853 5.060004 3.6239316 3.5876389 2.6844244 4.018743
4.0664825 3.429144 7.766984 5.8604164 2.8186755 6.304608 4.2806253 4.7307177
2.748594 7.7656074 4.9386845 2.7839506 3.594524 5.4571357 3.622634 4.086723
