ce_results/CE-trained-cifar100-ResNet10_s-28-04_0037model_best.pth.tar (torch, 715905 bytes, 100 tensors)

conv1.weight f4 [8, 3, 3, 3]
0	0x3c673c51	0.014113502
1	0xbc5e535e	-0.013569681
2	0x3e54257e	0.20717427
3	0x3d13ceb9	0.036085818
4	0xbe7db977	-0.2477778
5	0xbcf3ffd6	-0.029785078
6	0x3e4d29f6	0.20035538
7	0xbe7b2b8a	-0.24528328
8	0x3d9affda	0.07568331
9	0x3dc0bd49	0.09411103
10	0x3b9bc294	0.00475342
11	0x3e0d8a5b	0.1382231
12	0xbd30ddd0	-0.043180287
13	0xbeac4c2d	-0.33651868
14	0xbe47d5e3	-0.19515185
15	0x3df76fbf	0.12081861
16	0xbe97e40a	-0.29666167
17	0x3c14ca98	0.009081505
18	0xbcaeb4ff	-0.02132654
19	0x3c88e262	0.01670951
20	0x3e2b5b32	0.16734007
21	0xbe75f253	-0.2401822
22	0xbec573f3	-0.38565025
23	0xbe75f81f	-0.24020432
24	0xbdc249cd	-0.09486733
25	0xbeb6318b	-0.35584673
26	0xbd9a253a	-0.07526632
27	0x3e17389e	0.14767691
28	0xbe90f0e4	-0.28308785
29	0xbea051a7	-0.31312296
30	0xbd460987	-0.04834893
31	0xbee52d2f	-0.44761035
32	0xbec8feaa	-0.39256793
33	0xbc9d7fdc	-0.019226007
34	0xbedf6273	-0.43629798
35	0xbe7166c1	-0.23574354
36	0x3e3db12f	0.18524621
37	0xbd295fa0	-0.04135096
38	0x3e67bb62	0.22630075
39	0x3dfe36a8	0.124127686
40	0xbce8ca4f	-0.02841678
41	0x3e2d869a	0.16945878
42	0x3ea8accb	0.3294433
43	0xbd04dbb6	-0.032436095
44	0x3e4d1f0f	0.20031379
45	0x3e154449	0.1457683
46	0xbe1dde7d	-0.15416904
47	0x3e14b1b4	0.14520913
48	0x3d437ef4	0.047728494
49	0xbdea44a4	-0.114388734
50	0x3da5449f	0.08069729
51	0x3e9025db	0.2815388
52	0xbd97c503	-0.07410624
53	0x3de6ba2d	0.11265979
54	0xbd97c1f1	-0.07410038
55	0x3e9abd87	0.30222723
56	0x3cb18998	0.021672055
57	0x3ef58b73	0.47957954
58	0x3f12d066	0.5734924
59	0x3f121679	0.5706554
60	0x3eb66bf4	0.35629237
61	0x3f2548a3	0.6456396
62	0x3e0616de	0.1309466
63	0xbd8ed72c	-0.069746345
64	0xbe1ff450	-0.15620542
65	0xbe9a88c4	-0.3018247
66	0xbeab586d	-0.334659
67	0xbfb579b4	-1.4177766
68	0xbe86992a	-0.2628873
69	0xbe908c06	-0.2823183
70	0xbea28d7d	-0.31748572
71	0xbe0a5455	-0.13508733
72	0xbb9d0597	-0.004791926
73	0x3ebdaa01	0.37043765
74	0x3d9f4495	0.07776753
75	0x3e6f0163	0.23340373
76	0xbe89cdf5	-0.26914945
77	0x3ea2a1c1	0.31764033
78	0x3cfc1186	0.030770075
79	0xbcc9ac97	-0.02461843
80	0xbe6b8bfd	-0.2300262
81	0xbeafba45	-0.343218
82	0xbee640e2	-0.44971377
83	0xbe45203a	-0.19250575
84	0xbe3c5324	-0.1839109
85	0xbe66a24c	-0.22522849
86	0x3e0bb853	0.13644533
87	0xbebaa2d7	-0.36452362
88	0xbe89f623	-0.269456
89	0xbd80a614	-0.06281677
90	0xbd5af722	-0.05345834
91	0xbe0e576f	-0.13900541
92	0xbd9e18d7	-0.077195816
93	0x3c899642	0.016795281
94	0xbbaef5d8	-0.0053393655
95	0x3e48c5a6	0.19606647
96	0xbe2dc048	-0.1696788
97	0xbd808e27	-0.062771134
98	0x3c900c68	0.01758404
99	0xbdba0085	-0.0908213
100	0xbe183c5a	-0.14866772
101	0xbd40875b	-0.047004085
102	0xbd49436f	-0.049136575
103	0xbd22ed4b	-0.03977708
104	0x3e390b72	0.18070772
105	0xbe144caf	-0.14482377
106	0xbda4c7f4	-0.080459505
107	0x3da7063c	0.08155486
108	0x3dbbfa04	0.09178546
109	0x3f6ba802	0.92053235
110	0x3eea4cdf	0.45761773
111	0x3e5b06be	0.2138929
112	0xbf95568e	-1.1667039
113	0xbea33cb2	-0.31882244
114	0x3d136c21	0.03599179
115	0xbdbc020c	-0.09180078
116	0x3cdb6fbf	0.026786683
117	0x3db6f952	0.08934273
118	0x3f697940	0.9120064
119	0x3ef73d3d	0.4828891
120	0x3ee010c5	0.43762794
121	0xbfd28231	-1.6445981
122	0xbede81cd	-0.43458405
123	0x3e3bb120	0.18329287
124	0xbe0ea7e0	-0.13931227
125	0xbd44d116	-0.048050962
126	0x3d512c9b	0.05106793
127	0x3f1a0c33	0.60174865
128	0x3e338e6f	0.17534803
129	0x3eaaacc0	0.33334923
130	0xbf7beb2a	-0.98405707
131	0xbe731c77	-0.23741327
132	0x3df8d476	0.12149899
133	0xbd8d4c56	-0.068993255
134	0x3d1a1b23	0.037623536
135	0xbcf03a6d	-0.029324735
136	0x3b0d4479	0.0021555705
137	0xbc36e9bc	-0.011164125
138	0xbd23ec9d	-0.040020574
139	0x3e1529f5	0.14566787
140	0x3dcffb58	0.10155362
141	0xbf00a02e	-0.50244415
142	0x3f70d964	0.9408171
143	0x3c28e5bb	0.010308678
144	0xbd5121f2	-0.051057763
145	0x3d89e964	0.06733969
146	0x3da19bf5	0.078910746
147	0xbe9a9d23	-0.3019801
148	0x3cccbd4c	0.024992608
149	0x3cc49c68	0.024000362
150	0xbf797d5b	-0.974569
151	0x3f962980	1.1731415
152	0xbdaf2529	-0.085520096
153	0x3d850377	0.064948015
154	0x3de40741	0.11134196
155	0x3c970621	0.01843554
156	0xbd9ee643	-0.07758763
157	0xbccd2195	-0.025040427
158	0x3cca86ed	0.02472254
159	0xbefdc9ee	-0.49568123
160	0x3f36fff8	0.7148433
161	0xbc5dd825	-0.013540302
162	0x3e079f5e	0.13244388
163	0x3da8005c	0.082031935
164	0xbd510971	-0.051034395
165	0x3d83a497	0.064278774
166	0x3eaced37	0.3377473
167	0xbe0cf256	-0.13764319
168	0xbd3c9452	-0.046039887
169	0xbe48b272	-0.19599321
170	0x3de31a5b	0.11089011
171	0x3d9a6e7c	0.075406045
172	0xbcba800a	-0.022766132
173	0xbe580823	-0.21096854
174	0x3e0b79d8	0.13620698
175	0x3ef30d09	0.47470883
176	0xbeadafcf	-0.33923194
177	0xbe28da49	-0.16489519
178	0xbe3fe5e9	-0.18740048
179	0xbbd322ab	-0.0064433417
180	0x3e01d07f	0.12677191
181	0x3e2242cc	0.15845793
182	0x3c842b2f	0.016133873
183	0x3eb323c1	0.34988216
184	0x3f25b169	0.6472383
185	0xbe2a228a	-0.16614738
186	0xbdbf21ae	-0.09332596
187	0x3d81e1eb	0.063419186
188	0xbd527699	-0.051382635
189	0xbd496041	-0.04916406
190	0xbe019fd5	-0.12658627
191	0xbeb9ecda	-0.36313516
192	0xbe0c9929	-0.13730301
193	0x3efa0813	0.48834285
194	0x3e611ac4	0.21982867
195	0x3e68fd0d	0.22752781
196	0x3edcf284	0.43153775
197	0x3e594f44	0.21221644
198	0x3dac338c	0.08408269
199	0x3e832da8	0.2562077
200	0x3c2eeb88	0.010676272
201	0x3d646607	0.055761363
202	0x3eefdf5e	0.46850103
203	0x3f04821c	0.5176103
204	0x3ebc88f5	0.3682324
205	0x3cd035c6	0.025416266
206	0x3da1880b	0.07887276
207	0x3e954bd2	0.2915941
208	0x3e0eb428	0.13935912
209	0xbe021004	-0.12701422
210	0xbf04bb81	-0.5184861
211	0xbf4038e5	-0.75086814
212	0xbeb8a9bb	-0.36066994
213	0xbe37a8fc	-0.17935556
214	0xbf63cdca	-0.88985884
215	0xbed44be6	-0.41464156

bn1.weight f4 [8]
0	0x3f831b0d	1.024263
1	0x3ea2f8b8	0.31830382
2	0x3ea4e23f	0.32203862
3	0x3fa3dd4d	1.2801911
4	0x3f06e636	0.52695024
5	0x3ee59f41	0.44848064
6	0x3e96eec4	0.2947904
7	0x3eb11af0	0.34590864

bn1.bias f4 [8]
0	0xbf823b1d	-1.017429
1	0x3d1c3407	0.038135555
2	0x3edb343d	0.42813292
3	0xbfc55e63	-1.541943
4	0x3e1a06e9	0.15041699
5	0x3ec33bfd	0.38131705
6	0x3eb64cfc	0.3560561
7	0x3edc1dcc	0.42991483

bn1.running_mean f4 [8]
0	0x3f0d0be1	0.5509625
1	0x3e8f1bde	0.27950948
2	0xbdbcd8be	-0.09221028
3	0x3f7f2e65	0.9968017
4	0x3cba6608	0.02275373
5	0xbeae2fb1	-0.3402076
6	0xbe9f047e	-0.31058115
7	0xbea0a616	-0.31376714

bn1.running_var f4 [8]
0	0x40782eb3	3.8778503
1	0x3fa7864a	1.3087857
2	0x3fca09a0	1.5784187
3	0x40e030da	7.0059633
4	0x40813235	4.037379
5	0x402e3526	2.721994
6	0x3fe9ad7f	1.8256072
7	0x3fd64acd	1.6741577

layer1.0.conv1.weight f4 [8, 8, 3, 3]
0	0x3dc31970	0.09526336
1	0x3e5330b7	0.20624052
2	0x3c680dae	0.014163418
3	0x3e8127d1	0.2522569
4	0x3ec8fb2a	0.39254123
5	0x3e9800ed	0.29688206
6	0xbe0dc25d	-0.13843675
7	0x3c83d54f	0.016092924
8	0xbcf1bf41	-0.029510142
9	0xbdde2ac5	-0.108480014
10	0xbdc73d6a	-0.09728511
11	0x3d0edd50	0.03487903
12	0x3d8c4493	0.06849017
13	0xbdc2e107	-0.09515577
14	0xbd22c75f	-0.039740916
15	0x3db5b9c2	0.08873321
16	0x3e0ce642	0.13759711
17	0x3dada94b	0.08479556
18	0xbd7af580	-0.061269283
19	0xbdb1e6ab	-0.086865745
20	0x3cef1a0d	0.029187227
21	0x3d75abf9	0.05997846
22	0xbd357ea0	-0.044310212
23	0x3d4ccdb6	0.05000087
24	0x3b606e55	0.003424545
25	0x3d4db53c	0.050221667
26	0x3db1542a	0.08658631
27	0xbc0d295a	-0.008615816
28	0x3eb1e1a4	0.34742463
29	0x3e154715	0.14577897
30	0x3e4c8cda	0.19975606
31	0x3f3012a8	0.6877847
32	0x3ec74ab3	0.38924178
33	0xbe87fa28	-0.26558042
34	0x3e3c60b4	0.18396264
35	0xbc7b9c0f	-0.0153570315
36	0xbd8ba3c2	-0.06818344
37	0xbd09df4e	-0.033660226
38	0xbdae978a	-0.085249975
39	0x3e3629ad	0.17789336
40	0xbe50b605	-0.20381935
41	0xbdcdb1b6	-0.10043661
42	0x3e7b34f5	0.2453192
43	0xbe6b2c06	-0.22966012
44	0x3d43f375	0.0478396
45	0xbd56d679	-0.05245063
46	0x3cced2b3	0.025246954
47	0xbdbca384	-0.09210876
48	0xbe4bda68	-0.19907534
49	0xbe1bbcc0	-0.15208721
50	0xbe0353da	-0.12824956
51	0x3ec4aa2a	0.38411075
52	0x3c924216	0.017853778
53	0xbd76dec4	-0.06027104
54	0xbe15c69e	-0.14626548
55	0x3d1210ee	0.035660677
56	0x3da8e854	0.08247438
57	0x3bdedb7c	0.006801067
58	0x3aab703d	0.0013079714
59	0x3d91e1d9	0.07123155
60	0x3c6b1b50	0.0143497735
61	0xbd189c6d	-0.037258554
62	0x3d8b8eab	0.06814321
63	0xbd28a426	-0.04117217
64	0x3b76e883	0.003767521
65	0xbbad2d0c	-0.005284911
66	0xbc47b060	-0.012188047
67	0x3d1d1302	0.038348205
68	0xbd3e31b2	-0.046434112
69	0xbe0d624c	-0.13807029
70	0x3e0876ea	0.13326612
71	0x3c683703	0.014173272
72	0x3df89f52	0.12139763
73	0xbc2a6241	-0.010399402
74	0xbd8ea2b7	-0.06964629
75	0x3dab823c	0.083744496
76	0x3d03e398	0.032199472
77	0xbe181c77	-0.14854608
78	0x3e1961db	0.14978735
79	0x3de5ce38	0.11220974
80	0xbcefef87	-0.02928902
81	0xbbb05ff8	-0.005382534
82	0x3e7f7ee7	0.24950753
83	0xbe0f6f43	-0.14007287
84	0x3d940864	0.07228163
85	0x3e36ddc5	0.17858036
86	0xbd53ab28	-0.0516769
87	0xbe2a0103	-0.16601948
88	0xbdd92f04	-0.10604671
89	0xbe0307a5	-0.12795885
90	0xbe5e593a	-0.21713725
91	0xbe9d0c32	-0.30673367
92	0xbe98ad9c	-0.29819953
93	0xbeaa5580	-0.33268356
94	0x3e7b63df	0.24549817
95	0x3d9fafcd	0.07797203
96	0xbc2145a1	-0.009843261
97	0x3e9d591d	0.3073205
98	0x3ea59a4c	0.32344282
99	0x3df6ffd8	0.12060517
100	0xbc554166	-0.0130160805
101	0x3e28fc4c	0.16502494
102	0x3d27362c	0.040823147
103	0x3cce045f	0.025148569
104	0x3e1b3a39	0.15158929
105	0x3cab5f2a	0.020919401
106	0xbe0e2392	-0.13880756
107	0xbd018398	-0.03161964
108	0xbd919708	-0.07108885
109	0x3e3fa351	0.18714644
110	0xbcde9c85	-0.027174244
111	0x3e0e1a5d	0.13877244
112	0x3eba1be3	0.363494
113	0xbef02aed	-0.4690775
114	0xbcc13800	-0.023586273
115	0xbdd1707f	-0.10226535
116	0x3d292c68	0.041302115
117	0xbc66a8f4	-0.0140783675
118	0xbe634e55	-0.2219785
119	0x3ef05ea4	0.46947205
120	0x3d878868	0.06617814
121	0x3e0bf4ad	0.13667555
122	0x3c954127	0.018219544
123	0xbc72eb72	-0.014826642
124	0xbba28d2a	-0.0049606757
125	0xbbb9b809	-0.0056676907
126	0xbca3216e	-0.019913401
127	0xbe1d6fd2	-0.15374687
128	0x3e2af76a	0.16695943
129	0xbdd97770	-0.10618484
130	0xbebfe9fa	-0.37483197
131	0x3deec8a9	0.11659367
132	0xbd566813	-0.052345347
133	0xbe203764	-0.1564613
134	0xbba79df3	-0.0051152646
135	0x3e339c3e	0.1754007
136	0xbd3d6c0a	-0.046245612
137	0x3d9cc9a9	0.07655651
138	0x3e3c7aa8	0.18406165
139	0xbd27f6f1	-0.041006986
140	0xbcfd458d	-0.030916953
141	0x3eba036a	0.3633073
142	0xbd3a0a5a	-0.04542003
143	0xbf0e181b	-0.5550553
144	0xbd57a5e7	-0.05264845
145	0x3d62cda4	0.055371895
146	0xbe0bce89	-0.13653006
147	0x3e53147b	0.20613281
148	0x3d8c8400	0.068611145
149	0x3d4a0939	0.0493252
150	0xbdfacc57	-0.12246006
151	0xbea73f03	-0.32665262
152	0xbe57dcb2	-0.21080282
153	0x3da8e8f6	0.08247559
154	0xbd0c7227	-0.03428855
155	0x3d7fcc31	0.06245059
156	0xbc8c8bec	-0.017156564
157	0xbe7781b5	-0.24170573
158	0x3de0bdcf	0.10973703
159	0x3e227c0f	0.15867637
160	0xbd69c155	-0.05706914
161	0x3e325faf	0.17419313
162	0x3bd102a5	0.006378489
163	0x3dc3c70d	0.0955945
164	0xbc9234c8	-0.017847434
165	0xbe412122	-0.18860295
166	0x3e628491	0.22120883
167	0x3a3a2d06	0.0007102046
168	0x3e020bae	0.12699768
169	0x3d14b2dc	0.036303386
170	0xbe0225fc	-0.12709802
171	0xbe8dd4df	-0.2770147
172	0xbd62d419	-0.055378053
173	0xbe574bb7	-0.21024977
174	0xbc1e564f	-0.009664132
175	0x3e91ff36	0.28515023
176	0xbb80b917	-0.0039283144
177	0xbb9281cb	-0.004471039
178	0x3e851ced	0.2599863
179	0xbe391126	-0.18072948
180	0x3d24bfb8	0.0402219
181	0xbe1216d5	-0.14266522
182	0x3dbf788f	0.093491666
183	0x3c8c4a73	0.017125344
184	0xbec75469	-0.38931587
185	0x3db24fab	0.08706602
186	0xbe8a1e16	-0.2697608
187	0xbf9de25f	-1.2334708
188	0xbe29df8a	-0.1658918
189	0x3e2267a9	0.15859856
190	0xbf5047f0	-0.8135977
191	0x3d1ea3a8	0.038730294
192	0xbe3a92bc	-0.18220037
193	0x3f37d1e6	0.71804655
194	0x3dd1a299	0.10236091
195	0x3cf8c5f6	0.030367833
196	0x3d510b6e	0.05103629
197	0xbc864727	-0.01639135
198	0xbc17b15e	-0.009258596
199	0x3e13c0f5	0.14429076
200	0x3db48370	0.08814132
201	0xbe0db115	-0.13837083
202	0xbe56ff75	-0.20995887
203	0xbe6c2154	-0.23059589
204	0xbe912881	-0.28351215
205	0x3e9d0f38	0.30675673
206	0x3e654672	0.22390154
207	0x3d5120a9	0.051056538
208	0x3db49efd	0.08819387
209	0xbd45b3f9	-0.04826734
210	0xbdabae04	-0.083828
211	0xbe44de19	-0.19225349
212	0x3d87f728	0.06638938
213	0x3e598051	0.21240355
214	0x3dc4bc96	0.096062824
215	0xbe040c2e	-0.12895271
216	0x3d8249dc	0.06361744
217	0x3da87897	0.08226126
218	0xbdd036fb	-0.10166737
219	0xbd3edb24	-0.046595708
220	0x3ddf6737	0.109083585
221	0xbdefd870	-0.11711204
222	0xbe0ebe56	-0.13939795
223	0xbd8805a7	-0.06641703
224	0xbd00b463	-0.03142203
225	0xbd98bcfa	-0.074579194
226	0xbd8a87df	-0.067641966
227	0xbe32b890	-0.17453218
228	0xbce21944	-0.027599938
229	0xbd96d2d1	-0.07364429
230	0xbe6ae77f	-0.22939871
231	0x3edec4b9	0.43509462
232	0x3e90dcbd	0.2829341
233	0x3cb0ecf6	0.021597367
234	0x3c07d43f	0.0082903495
235	0x3e692c32	0.22770765
236	0x3d9f0693	0.07764926
237	0x3dc31b94	0.095267445
238	0x3ee566c5	0.4480497
239	0xbe26b9ff	-0.1628189
240	0x3d3db5cb	0.04631595
241	0xbe863c40	-0.26217842
242	0xbeaa3221	-0.3324137
243	0x3cb93da2	0.022612397
244	0xbdcab8e5	-0.09898547
245	0xbe2ab8e3	-0.16672091
246	0x3e3007d8	0.17190492
247	0x3dd8b6a0	0.10581708
248	0x3d04e657	0.03244623
249	0x3de6b118	0.11264247
250	0x3dba0b80	0.09084225
251	0xbd3a3e2e	-0.045469455
252	0x3d13880e	0.036018424
253	0xbc872255	-0.016495863
254	0x3b581e30	0.0032976978
255	0x3d46c6c6	0.04852941

layer1.0.bn1.weight f4 [8]
0	0x3f3ebc44	0.7450602
1	0x3eb6cde6	0.35703963
2	0x3f38d90b	0.7220618
3	0x3ee96834	0.45587313
4	0x3f0c46fc	0.54795814
5	0x3ea7d4ea	0.32779628
6	0x3f0b8044	0.5449259
7	0x3ef4ab70	0.47787046

layer1.0.bn1.bias f4 [8]
0	0xbf830ada	-1.0237687
1	0x3e9ac17d	0.30225745
2	0x3d4aa449	0.04947308
3	0x3e49d0a0	0.1970849
4	0xbeb53c6a	-0.35397655
5	0x3eb321ac	0.34986627
6	0xbe781909	-0.242283
7	0x3e741d01	0.23839189

layer1.0.bn1.running_mean f4 [8]
0	0x3d1ab36c	0.037768766
1	0xbd91fa57	-0.07127827
2	0xbec09ca5	-0.3761951
3	0xbe0edf96	-0.13952479
4	0xbf0f596c	-0.5599582
5	0x3ec26b3c	0.37972438
6	0xbe7a3f53	-0.24438219
7	0xbda4002e	-0.08007847

layer1.0.bn1.running_var f4 [8]
0	0x3e0429d3	0.1290658
1	0x3e1a856c	0.15089959
2	0x3f13f39e	0.57793605
3	0x3ea186e2	0.3154822
4	0x3daf1071	0.08548058
5	0x3e382cb6	0.17985806
6	0x3e83aa1a	0.25715715
7	0x3ea0c39b	0.31399235

layer1.0.conv2.weight f4 [8, 8, 3, 3]
0	0x3e1029ec	0.14078492
1	0x3e8f5f7c	0.28002536
2	0xbe6441db	-0.22290747
3	0xbe8198cc	-0.25311887
4	0xbd8984ea	-0.067148045
5	0xbf239471	-0.6389838
6	0xbcc03672	-0.023463462
7	0x3ddd85b9	0.10816521
8	0xbed6a46b	-0.41922316
9	0x3c8098a7	0.01569779
10	0xbd8ee6de	-0.06977628
11	0x3e279c1b	0.16368143
12	0xbedf25f8	-0.43583655
13	0x3d9ca77f	0.07649135
14	0x3ccc8056	0.02496354
15	0xbe88983e	-0.26678652
16	0x3d427a01	0.047479633
17	0xbcfffb7a	-0.031247843
18	0x3e5aa6d4	0.21352702
19	0xbeceb5d1	-0.4037309
20	0x3d3b9143	0.04579283
21	0x3cd14f71	0.025550576
22	0xbe40834a	-0.18800083
23	0x3d561fda	0.05227647
24	0xbe07a426	-0.13246211
25	0x3e0f1fb8	0.13976943
26	0xbc1b687c	-0.00948536
27	0xbe4b79a6	-0.19870624
28	0x3e62a404	0.2213288
29	0xbde18382	-0.11011411
30	0xbf2d783f	-0.67761606
31	0x3ea051e0	0.31312466
32	0xbc115047	-0.008869237
33	0xbe8c1258	-0.27357745
34	0x3d95ecf5	0.073205866
35	0x3d17e0d3	0.037079643
36	0x3cde9783	0.027171856
37	0xbe2e2a9e	-0.17008445
38	0x3dc34078	0.09533781
39	0x3e40ec92	0.18840244
40	0xbda16b6c	-0.07881817
41	0x3e1fa7fc	0.15591425
42	0x3e204572	0.15651491
43	0x3e073c9b	0.13206713
44	0xbcd7c9b5	-0.026341299
45	0xbd0c58db	-0.034264427
46	0x3e01e521	0.12685062
47	0xbe557c8e	-0.20848295
48	0xbe1e5e4c	-0.15465659
49	0x3ea8aa65	0.329425
50	0x3c42eac0	0.011896789
51	0x3d38778c	0.045035884
52	0x3cabae21	0.020957055
53	0xbcdf80db	-0.027283123
54	0x3cd8790c	0.026424907
55	0xbe80e9fa	-0.2517851
56	0x3c9f2c80	0.019430399
57	0x3d936cb5	0.071984686
58	0xbf0fdde7	-0.5619797
59	0xbe28dd5f	-0.16490696
60	0xbe7fca52	-0.24979523
61	0x3d80121f	0.06253456
62	0x3cbd3848	0.023098126
63	0x3df17683	0.117901824
64	0xbc687b09	-0.01418949
65	0xbc827880	-0.0159266
66	0x3f12e227	0.5737633
67	0xbddeadce	-0.10872994
68	0xbe235ee4	-0.15954167
69	0x3df7633f	0.120794766
70	0xbe4ace93	-0.19805364
71	0x3d8e8d14	0.06960502
72	0x3e165d19	0.14683951
73	0x3e38da1a	0.18051949
74	0x3e0f9c00	0.14024353
75	0xbda92fd5	-0.08261076
76	0xbd9ca836	-0.07649271
77	0xbdf8819d	-0.12134097
78	0xbe16fbd1	-0.14744498
79	0xbe35ce98	-0.1775459
80	0xbda428ad	-0.08015571
81	0x3d4945c1	0.049138788
82	0xbdba5a7b	-0.09099289
83	0xbdc4db2f	-0.096121185
84	0x3dcb2595	0.099192776
85	0xbe569a97	-0.20957409
86	0xbdcf20d3	-0.101136826
87	0x3de6ad3c	0.112635106
88	0x3d5bdc10	0.053676665
89	0xbc82de2b	-0.015975079
90	0xbc8c3919	-0.01711707
91	0x3d53a130	0.051667392
92	0x3c9990f7	0.018745882
93	0xbedaa8bb	-0.42706856
94	0xbe2e6c3d	-0.17033477
95	0x3eab3d2b	0.33445105
96	0xbd49c848	-0.04926327
97	0xbe1b3928	-0.15158522
98	0x3dd4f9bb	0.10399195
99	0xbb1b99eb	-0.0023742865
100	0xbe0b0989	-0.13577856
101	0x3e16a222	0.14710286
102	0xbdb27a68	-0.087147534
103	0xbe47ae62	-0.19500116
104	0x3d89c121	0.067262895
105	0x3e1319c8	0.14365304
106	0x3daf9969	0.085741825
107	0xbd67cd0f	-0.056592043
108	0xbd9fc124	-0.078005105
109	0xbceb6382	-0.028733972
110	0x3d99599b	0.07487794
111	0xbd8cb66c	-0.06870732
112	0x3d13be4f	0.036070164
113	0x3db05fb8	0.08612007
114	0xbd877f5c	-0.06616089
115	0x3da35380	0.07974911
116	0x3da84e68	0.0821808
117	0xbe6581b7	-0.22412764
118	0x3de84c0a	0.11342628
119	0x3e3fabb4	0.18717843
120	0x3d8a3706	0.06748776
121	0x3e7ff159	0.2499441
122	0x3e192dc1	0.1495886
123	0x3d17b091	0.03703362
124	0xbd32fbd3	-0.04369719
125	0xbec57814	-0.38568175
126	0x3da977e2	0.08274819
127	0x3d2ef171	0.042710725
128	0xbe186e8b	-0.14885919
129	0xbdb09f93	-0.08624186
130	0x3c5c8e59	0.013461673
131	0xbdda61a7	-0.10663157
132	0xbd15f092	-0.03660638
133	0xbe8bda6b	-0.27315077
134	0x3d48448c	0.048893496
135	0x3d92d76c	0.07169995
136	0xbc954edf	-0.018226085
137	0xbdf096aa	-0.11747487
138	0x3e326b1a	0.17423669
139	0x3d9576e6	0.07298069
140	0x3b34a2c6	0.002756284
141	0xbd157101	-0.036484722
142	0xbf1ed367	-0.62041324
143	0x3e25c1d6	0.16187224
144	0xbd89cbb8	-0.067283094
145	0xbe02074e	-0.12698099
146	0xbbf76380	-0.007549703
147	0x3ccf8b01	0.025334837
148	0xbd4acaca	-0.0495098
149	0xbb42da0c	-0.0029732017
150	0x3d59735b	0.053088527
151	0x3c9cf1cc	0.019158266
152	0xbadcdbcf	-0.0016850176
153	0x3e6de1b5	0.23230632
154	0x3ea77bf2	0.3271175
155	0x3e8fd750	0.28093958
156	0x3e52149b	0.20515673
157	0x3e340114	0.17578536
158	0x3c46cc32	0.012133645
159	0xbc68e3f7	-0.014214507
160	0xbec84cf9	-0.39121225
161	0xbed9a600	-0.4250946
162	0xbe797d32	-0.24364164
163	0xbd67ebc6	-0.056621335
164	0xbbb22ae9	-0.005437244
165	0x3dc8952c	0.09794077
166	0xbd4d5138	-0.050126284
167	0x3d3ff4fe	0.046864502
168	0xbc964e6f	-0.018347947
169	0x3de0e639	0.109814115
170	0x3e031aee	0.12803242
171	0xbe84ac4f	-0.2591271
172	0xbeb73ff3	-0.35790977
173	0xbe912457	-0.28348038
174	0xbdf02833	-0.117264174
175	0x3d54db83	0.051967155
176	0x3e117f57	0.14208733
177	0x3e22aa5e	0.15885302
178	0x3eb22f8e	0.34801906
179	0x3e8debd5	0.27718988
180	0xbd7723f0	-0.060337007
181	0xbcd874ea	-0.026422936
182	0x3bb0187f	0.005374014
183	0xbd931fe7	-0.07183819
184	0xbd62fbe2	-0.055415995
185	0xbd949d67	-0.072565846
186	0x3d8513ac	0.06497893
187	0x3c939680	0.0180161
188	0xbd8d922a	-0.06912644
189	0x3cf71d78	0.030165419
190	0xbe0c1fde	-0.13684031
191	0xbce84bbe	-0.02835643
192	0xbee97e93	-0.4560438
193	0xbeae2b9a	-0.3401764
194	0x3e540eac	0.20708722
195	0xbea6b240	-0.3255787
196	0xbe54e095	-0.20788796
197	0x3e4e527f	0.20148657
198	0xbcb2de0f	-0.021834401
199	0x3db20808	0.08692938
200	0x3aa41e4c	0.0012521236
201	0x3da4edd8	0.080531776
202	0xbd455bf5	-0.0481834
203	0x3bcd0502	0.0062567005
204	0x3b23eff5	0.0025014852
205	0x3db6f4bd	0.08933399
206	0x3d595cb9	0.053066943
207	0x3cd0859f	0.02545434
208	0xbe2415b6	-0.16023907
209	0xbceae94e	-0.028675701
210	0x3e3679f7	0.17819963
211	0x3a97de41	0.0011586623
212	0xbe9738f8	-0.2953565
213	0x3e9d6141	0.3073826
214	0x3cfbf883	0.030758148
215	0xbd845871	-0.06462181
216	0x3d9c3f0f	0.07629215
217	0x3cdfdbae	0.027326431
218	0x3d7785ef	0.060430463
219	0x3e87895a	0.26471978
220	0x3e774b48	0.24149811
221	0x3e8278a4	0.25482666
222	0x3e8b2aeb	0.2718118
223	0x3e3df5d8	0.18550813
224	0x3e4eac05	0.20182808
225	0x3cacaddd	0.021078998
226	0x3b2d296f	0.0026422401
227	0x3dafc940	0.08583307
228	0x3d81649c	0.06318018
229	0xbcadc318	-0.021211192
230	0x3c75f541	0.015012086
231	0x3d0c676c	0.03427832
232	0xbca78608	-0.020449653
233	0x3c253736	0.010083964
234	0xbd445992	-0.047936983
235	0xbdb6add7	-0.08919876
236	0xbc7ed59c	-0.015553858
237	0xbdcec207	-0.100956015
238	0xbdd779e6	-0.10521297
239	0xbc9de561	-0.019274415
240	0x3db89d81	0.090144165
241	0x3d69714d	0.056992818
242	0x3cf67619	0.03008561
243	0x3e047d38	0.12938392
244	0x3d10d26a	0.035356916
245	0x3e03a36b	0.12855308
246	0x3d0e6c77	0.03477141
247	0xbd735658	-0.059408516
248	0xbc99ca04	-0.018773086
249	0xbd44ac9c	-0.048016176
250	0xbdccf0c3	-0.10006859
251	0xbd826f9c	-0.06368944
252	0xbddcf377	-0.10788625
253	0xbbba71f5	-0.0056898543
254	0x3ddb40de	0.10705732
255	0x3d4f593a	0.050622202

layer1.0.bn2.weight f4 [8]
0	0x3fb4daa3	1.4129223
1	0x3f40aeee	0.7526692
2	0x3edad3ed	0.42739812
3	0x3f2ae0aa	0.6674906
4	0x3f54054c	0.8282058
5	0x3ed23a46	0.41060084
6	0x3f09145e	0.535467
7	0x3ead7d0a	0.3388446

layer1.0.bn2.bias f4 [8]
0	0x3e4471be	0.19184014
1	0x3ee173dc	0.44033706
2	0x3ea63376	0.32461137
3	0xbebd9d55	-0.37034097
4	0x3e50392a	0.20334306
5	0x3eb9f2d5	0.3631808
6	0x3dd456c5	0.103681125
7	0x3e971208	0.29505944

layer1.0.bn2.running_mean f4 [8]
0	0xbebfd51f	-0.37467286
1	0xbe64f5be	-0.22359368
2	0xbe81bbb9	-0.25338534
3	0xbd4532f3	-0.048144292
4	0x3cc3d4a1	0.0239051
5	0xbd755295	-0.05989321
6	0x3e4a19e7	0.19736443
7	0xbef66358	-0.48122668

layer1.0.bn2.running_var f4 [8]
0	0x3efc38a5	0.49261966
1	0x3dcd8bce	0.10036431
2	0x3e0b8f25	0.13628824
3	0x3e3065bd	0.1722631
4	0x3e69a1d4	0.22815639
5	0x3e9670a5	0.29382816
6	0x3e2891f5	0.16461928
7	0x3e057be1	0.13035537

layer2.0.conv1.weight f4 [16, 8, 3, 3]
0	0x3e05a808	0.1305238
1	0x3e421e84	0.18956953
2	0x3e583cdf	0.2111697
3	0x3ec495b3	0.3839546
4	0x3eef6bdd	0.4676198
5	0x3e98ca51	0.29841855
6	0x3e215cc0	0.15758038
7	0x3e8d10bb	0.27551827
8	0x3e25aefa	0.1618003
9	0xbdc10c74	-0.09426203
10	0xbd446cbe	-0.047955267
11	0xbca89b84	-0.020581968
12	0x3bf3c7cf	0.0074395905
13	0x3d5b655c	0.05356346
14	0x3d6e7c03	0.058223736
15	0xbd23f876	-0.040031873
16	0xbb8e3a1e	-0.004340424
17	0x3d23cb52	0.039988823
18	0x3c20254c	0.009774517
19	0x3c277474	0.010220636
20	0xbc5c2514	-0.0134365745
21	0xbcbd8a7d	-0.023137325
22	0x3ce9feee	0.028563943
23	0x3d3b88ad	0.04578464
24	0xbd928e0c	-0.071559995
25	0xbd09bc9d	-0.03362714
26	0xbd376c4a	-0.044781007
27	0x3e25a576	0.161764
28	0x3da1ad91	0.07894433
29	0xbc40a998	-0.011759184
30	0x3c8c2bec	0.017110787
31	0xbd1e7c12	-0.03869254
32	0xbe18e2b6	-0.14930233
33	0x3d6fa970	0.058511198
34	0xbd1cecf3	-0.03831191
35	0xbdea0216	-0.11426179
36	0x3c61f8e6	0.013792252
37	0x3bce6462	0.0062985877
38	0xbb6ed723	-0.003644415
39	0xbd320319	-0.043459985
40	0x3da7e347	0.081976466
41	0x3cebf070	0.028801173
42	0x3b85f1a6	0.0040876446
43	0x3c35adbd	0.011088786
44	0x3c3959c2	0.011312904
45	0xbe99001d	-0.298829
46	0xbc3d50c4	-0.011554901
47	0xbe1ca5c8	-0.15297616
48	0xbe7efe1f	-0.24901627
49	0xbda85575	-0.08219425
50	0xbeb5e9e5	-0.3553001
51	0xbe22dad3	-0.15903787
52	0xbe2c34ce	-0.16817018
53	0xbe8b543d	-0.27212706
54	0x3e220a01	0.15824129
55	0x3a8ac485	0.0010587132
56	0xbdfbbebb	-0.12292238
57	0x3e6df80c	0.23239154
58	0x3d685ce3	0.05672921
59	0xbe3a32ad	-0.18183394
60	0x3e633984	0.22189909
61	0xbd079db5	-0.033109386
62	0xbe8fbc56	-0.28073376
63	0xbd27be36	-0.040952884
64	0x3cad15f6	0.021128636
65	0x3ce44c7b	0.0278685
66	0xbc4d0799	-0.012514018
67	0x3df04a7a	0.11732955
68	0x3e2b2dd8	0.16716707
69	0xbdadb48c	-0.08481702
70	0xbd92f5df	-0.071758024
71	0xbbcf292b	-0.0063220463
72	0xbe62935a	-0.22126523
73	0x3e455f1a	0.1927456
74	0x3e162f3b	0.14666454
75	0x3e835ad5	0.25655237
76	0x3e3d855c	0.18507904
77	0xbede2926	-0.4339077
78	0x3d1823d1	0.037143532
79	0xbec725a2	-0.388959
80	0x3dd4ed5b	0.103968345
81	0xbe39cb95	-0.18144067
82	0x3e923215	0.28553835
83	0xbddf836f	-0.10913741
84	0x3e8d7ce5	0.2763435
85	0xbe21efb5	-0.15814097
86	0xbe4a2d39	-0.19743814
87	0x3cf43ed4	0.029815115
88	0xbe55426a	-0.20826116
89	0x3e4a3c0d	0.1974947
90	0x3d210d19	0.03931913
91	0xba976799	-0.001155126
92	0xbd6e8cac	-0.058239624
93	0xbc5defca	-0.01354594
94	0xbd198169	-0.03747693
95	0x3d915f28	0.07098228
96	0xbcabd49c	-0.020975403
97	0x3dff0b54	0.124533325
98	0xbc7aea2d	-0.015314621
99	0xbabed686	-0.0014559783
100	0x3d162599	0.03665695
101	0x3d1ac0ac	0.037781402
102	0xbd25a90c	-0.04044442
103	0xbdbde7d4	-0.09272733
104	0xbdaa9044	-0.08328298
105	0xbc0f3725	-0.008741175
106	0xbd5bc44d	-0.053654004
107	0xbcf68980	-0.030094862
108	0xbe4f83d3	-0.2026513
109	0xbd0b3092	-0.033981867
110	0x3e466256	0.1937345
111	0xbd7dacf8	-0.061932534
112	0x3ec8f5d7	0.3925006
113	0xbe7ec22d	-0.2487876
114	0x3e82f4d2	0.25577408
115	0xbe9ef237	-0.3104417
116	0xbd8acecc	-0.067777246
117	0x3dc310b2	0.09524669
118	0xbe84c378	-0.2593038
119	0x3d87c1dd	0.06628773
120	0xbe3d1317	-0.18464313
121	0x3da5769b	0.08079263
122	0x3d8766f7	0.06611436
123	0x3cad918a	0.021187562
124	0x3e22e13e	0.15906236
125	0xbdf496ac	-0.11942801
126	0x3c4a552e	0.01234941
127	0x3c553dca	0.01301522
128	0xbd8522b6	-0.06500761
129	0x3e07f757	0.13277946
130	0x3d1a27a7	0.03763547
131	0xbd593bdc	-0.053035602
132	0xbde4aac0	-0.111653805
133	0xbdaeb49d	-0.08530543
134	0x3da8b781	0.082381256
135	0xbe13848b	-0.1440603
136	0x3dd56a91	0.104207166
137	0xbd077737	-0.033072677
138	0x3d9e8f3c	0.077421635
139	0x3dab4bc3	0.0836406
140	0xbe0499de	-0.1294932
141	0x3d7a98e3	0.06118096
142	0xbe3f6cd4	-0.18693858
143	0x3debba72	0.11510171
144	0xbbe386ff	-0.006943583
145	0xbd4d9d7e	-0.050199024
146	0xbde70d97	-0.11281889
147	0x3ce80435	0.028322319
148	0xbcaa58de	-0.020794328
149	0xbc87a012	-0.01655582
150	0xbd127ece	-0.03576546
151	0xbbda4356	-0.006660859
152	0x3ce36b85	0.02776123
153	0xbdbd12fd	-0.09232137
154	0xbd4e1410	-0.0503121
155	0xbc8a8f1e	-0.016913947
156	0xbcfe0ef8	-0.031012997
157	0x3b70d262	0.0036746492
158	0xbd413c75	-0.047176797
159	0x3cea848b	0.028627655
160	0xbc905519	-0.017618703
161	0xbd65ee9e	-0.056135766
162	0xbb227f91	-0.0024795274
163	0x3d0bd2c4	0.03413655
164	0xbce3cd5d	-0.027807886
165	0xbcbe0dfe	-0.023200031
166	0x3d00f57b	0.03148411
167	0x3cbfa6e2	0.023395006
168	0xbcda65d3	-0.026659882
169	0x3b923ec5	0.004463049
170	0xbd506cf2	-0.05088515
171	0x3e45e115	0.19324143
172	0x3e4741bf	0.19458674
173	0x3e3b5ee0	0.1829791
174	0x3e77d7eb	0.2420346
175	0x3e483352	0.19550827
176	0x3e41be43	0.18920235
177	0x3e94fd51	0.29099515
178	0x3e8a193b	0.26972374
179	0x3e5bbcfb	0.21458809
180	0x3d16b8f5	0.036797483
181	0x3d9beece	0.07613908
182	0x3d990f88	0.074736655
183	0xbd0b452c	-0.034001514
184	0xbc8722d7	-0.016496105
185	0xbc3734ec	-0.011182051
186	0x3d2b3383	0.041797172
187	0x3c7fef89	0.0156210745
188	0x3c9e36b8	0.019313201
189	0x3db458af	0.088059776
190	0x3c3acc96	0.011401316
191	0x3db9ba3f	0.09068727
192	0xbc43dfe3	-0.011955234
193	0xbd45b4d6	-0.04826816
194	0x3df9962c	0.12186846
195	0x3d48a2dc	0.04898344
196	0x3cc94290	0.024567872
197	0x3dd75cf0	0.10515773
198	0x3d5eebcf	0.054424103
199	0x3d236ebb	0.039900523
200	0x3d8c7a65	0.068592824
201	0xbada5c39	-0.0016659565
202	0xbda5438b	-0.080695234
203	0xbc11c9f1	-0.008898244
204	0xbc963aec	-0.018338643
205	0xbdc2c5b6	-0.095103666
206	0x3c96b646	0.018397462
207	0xbd378782	-0.044806965
208	0x3c77d8d7	0.015127382
209	0xbcc37d9d	-0.023863608
210	0x3d184613	0.037176203
211	0x3c8d0141	0.017212512
212	0xbd017ce9	-0.031613264
213	0x3c3c5c09	0.011496552
214	0x3c879d58	0.01655452
215	0xbd4f65b8	-0.050634116
216	0xbcc1189a	-0.023571301
217	0xbd05544c	-0.032551095
218	0x3d988f8a	0.07449253
219	0x3c2e5cdf	0.010642259
220	0xbdc783ce	-0.097419366
221	0xbe3ad80f	-0.18246482
222	0x3e16050a	0.1465036
223	0x3e31685d	0.17324968
224	0x3da7e3a0	0.08197713
225	0x3de2ccce	0.1107422
226	0x3df17ef3	0.11791792
227	0x3d9e6a65	0.07735137
228	0xbe2c1f6a	-0.16808859
229	0xbe8d38e9	-0.27582482
230	0xbe53de13	-0.20690183
231	0xbb9d5e07	-0.0048024687
232	0x3e07d8ed	0.13266344
233	0x3e5a9b62	0.21348336
234	0x3da8cd9c	0.08242342
235	0x3cb2ce60	0.021826923
236	0x3d548119	0.05188093
237	0xbcda274f	-0.026630072
238	0x3df86844	0.12129262
239	0x3dd8fc38	0.10594982
240	0xbbfda5c1	-0.0077407067
241	0xbddaa72e	-0.10676418
242	0xbe07de5d	-0.13268419
243	0xbd9295a0	-0.07157445
244	0xbd8278d7	-0.063707046
245	0xbe09e5b2	-0.13466528
246	0x3c9e4f2d	0.019324863
247	0x3ce978a9	0.028499918
248	0xbd3048fa	-0.043038346
249	0x3b0b0889	0.0021214804
250	0xbc94333e	-0.01809084
251	0xbdb96060	-0.09051585
252	0x3d3b2d62	0.045697577
253	0x3d3f4b8f	0.046702918
254	0xbd41b4a4	-0.047291413
255	0x3d8d06c6	0.068860576

layer2.0.bn1.weight f4 [16]
0	0x3ec38356	0.3818614
1	0x3efd822c	0.49513376
2	0x3f2a2061	0.66455656
3	0x3f25fd14	0.6483929
4	0x3f09ca85	0.53824645
5	0x3f0b16f6	0.5433191
6	0x3ed0d4da	0.40787393
7	0x3f10ffec	0.56640506
8	0x3ef2b65d	0.47404757
9	0x3ef8dcaf	0.48605868
10	0x3f2381c7	0.638699
11	0x3ec31b43	0.38106737
12	0x3f0cf359	0.5505882
13	0x3ee483eb	0.44631895
14	0x3f262622	0.64901936
15	0x3ed2e7e4	0.41192544

layer2.0.bn1.bias f4 [16]
0	0x3f26f7e1	0.65221983
1	0xbd466324	-0.04843439
2	0xbeeca552	-0.4621988
3	0xbdb69e76	-0.08916943
4	0x3b7c1c81	0.0038469138
5	0xbd382235	-0.044954497
6	0x3ea1471f	0.31499574
7	0xbdac4ddc	-0.08413288
8	0xbe0914e3	-0.13386874
9	0x3d3c5ea6	0.0459887
10	0xbd9426cb	-0.07233962
11	0x3ea2aee5	0.3177406
12	0xbd4d7117	-0.05015668
13	0x3ebd9139	0.3702486
14	0xbd7006ee	-0.05860036
15	0x3e5d98e5	0.21640356

layer2.0.bn1.running_mean f4 [16]
0	0x3e086c32	0.13322523
1	0xbe84210d	-0.25806466
2	0x3eec4a96	0.46150655
3	0xbe78a274	-0.24280721
4	0x3e3d8859	0.18509044
5	0xbe2b2774	-0.16714269
6	0xbf09571f	-0.5364856
7	0xbfff9f94	-1.9970574
8	0xbddd9503	-0.10819437
9	0x3dd315e9	0.103069134
10	0xbeed6878	-0.46368766
11	0x3dbb14a4	0.09134796
12	0xbe10c2aa	-0.14136758
13	0x3eeea14f	0.46607444
14	0xbebf38a2	-0.37347895
15	0xbf1a75a7	-0.60335773

layer2.0.bn1.running_var f4 [16]
0	0x3f67f10a	0.9060217
1	0x3f54067c	0.82822394
2	0x3f1c1bbe	0.6097983
3	0x3fd4b6fb	1.6618341
4	0x3f6a56a7	0.9153847
5	0x3f53c814	0.8272717
6	0x3f2797fc	0.65466285
7	0x3f40b16c	0.75270724
8	0x3ee6008f	0.449223
9	0x3f1ce405	0.6128543
10	0x3fb0cb25	1.3811995
11	0x3f4423ef	0.7661733
12	0x3fa0e604	1.2570195
13	0x3f4da95f	0.80336565
14	0x3fd4940b	1.6607679
15	0x3f4ba663	0.7955076

layer2.0.conv2.weight f4 [16, 16, 3, 3]
0	0xbcf12ec3	-0.029441243
1	0x3c50bdc0	0.012740552
2	0xbcc21cdc	-0.023695402
3	0xbdbd0361	-0.0922916
4	0x3d80dbc9	0.06291921
5	0xbd58fc0b	-0.052974742
6	0x3c8b6f20	0.017020762
7	0xbbc20cb0	-0.0059219226
8	0xbdb94cee	-0.09047876
9	0x3cc8b59a	0.024500657
10	0x3c8adcb1	0.016950937
11	0x3d55bbc3	0.052181017
12	0x3cb16b60	0.021657646
13	0x3c73ab9c	0.014872458
14	0x3da28d91	0.07937158
15	0x3ce31735	0.027721027
16	0x3d67fc9d	0.056637395
17	0x3d58eb8b	0.052959006
18	0xbd11a560	-0.035558105
19	0xbdb426fb	-0.087964974
20	0x3be27acf	0.0069116126
21	0x3dd67c66	0.10472946
22	0x3cdf62e2	0.02726883
23	0x3d4515c8	0.048116475
24	0xbd69c525	-0.057072777
25	0xbe3da729	-0.18520798
26	0xbdd457ff	-0.103683464
27	0x3beaa42e	0.007160685
28	0x3cac7ee1	0.021056594
29	0xbd073bcb	-0.033016007
30	0xbcaa0d1c	-0.020758204
31	0xbd7c9720	-0.06166756
32	0xbd885afd	-0.0665798
33	0xbdbe8cf2	-0.09304227
34	0xbd917fdf	-0.071044676
35	0xbbd1b8f4	-0.006400222
36	0x3c4f3a95	0.012648244
37	0x3b5e5884	0.003392727
38	0x3c9c4eb3	0.019080495
39	0x3d6e8f98	0.05824241
40	0x3d0920b2	0.033478446
41	0x3d7f79b3	0.06237192
42	0xbb152ee1	-0.0022763538
43	0x3d5b5318	0.05354604
44	0x3d75f922	0.060052045
45	0xbc28c10b	-0.010299931
46	0x3b3fe53f	0.0029280928
47	0x3cfde161	0.030991258
48	0xbc0654f4	-0.008198965
49	0xbd3eb05d	-0.046554912
50	0x3d55ef1e	0.052229993
51	0x3c770b2d	0.015078348
52	0xbcbc4c85	-0.022985706
53	0x3cf41a11	0.029797586
54	0x3e9624a1	0.2932482
55	0x3e3d9390	0.18513322
56	0x3dad002b	0.08447298
57	0xbd9ddd0d	-0.07708178
58	0xbf0c4700	-0.5479584
59	0xbd91d5e2	-0.07120873
60	0xbecea760	-0.40362072
61	0xbec45ffa	-0.38354474
62	0x3e1738d3	0.1476777
63	0xbceab59c	-0.028651051
64	0x3a5a1767	0.0008319527
65	0x3d13b766	0.036063574
66	0xbd85c015	-0.06530777
67	0x3d0fa23b	0.035066824
68	0x3d823267	0.0635727
69	0x3ce0406b	0.027374467
70	0x3d684f86	0.056716464
71	0x3ce610ae	0.028084125
72	0x3d4a5b0b	0.04940323
73	0xbc63cbf7	-0.0139036095
74	0xbce89b05	-0.028394232
75	0xbc6e4044	-0.014541689
76	0xbd09ca4d	-0.033640195
77	0x3c7165c1	0.014733733
78	0xbd043dc6	-0.032285474
79	0xbd2e4321	-0.042544488
80	0xbcb21b30	-0.02174148
81	0xbd8f6196	-0.07001035
82	0xbe7bcb3f	-0.24589251
83	0xbe0a0e21	-0.13481952
84	0xbdc142fa	-0.09436603
85	0x3e37baf0	0.17942405
86	0x3e0d6b7a	0.1381053
87	0x3da4cc71	0.080468066
88	0x3e2a723d	0.16645141
89	0xbcb68fd9	-0.022285389
90	0x3ca58e30	0.020209402
91	0xbd292de7	-0.04130354
92	0x3d4c188e	0.049828105
93	0xbd5816f0	-0.05275625
94	0x3c161b7a	0.009161824
95	0x3a689c50	0.000887339
96	0xbd3d00da	-0.04614339
97	0xbd93bc3d	-0.07213638
98	0xbcd72111	-0.026260884
99	0xbc21e927	-0.009882248
100	0x3c40cd65	0.01176772
101	0x3c1af96b	0.00945888
102	0x3dc51e36	0.09624903
103	0x3e2a4c15	0.16630585
104	0xbcfe5526	-0.031046461
105	0x3d80e282	0.06293203
106	0x3cecf6f7	0.028926356
107	0xbe1678b1	-0.14694478
108	0x3d10c5c2	0.035344847
109	0xbb2a65d0	-0.0026000626
110	0xbc323baa	-0.010878483
111	0xbd092703	-0.03348447
112	0x3cf95b74	0.030439116
113	0x3b5fafff	0.0034132001
114	0x3c897426	0.016779017
115	0xbbae4586	-0.0053183464
116	0xbd6004d7	-0.054692116
117	0xbdf9c697	-0.12196081
118	0xbe729b06	-0.23691949
119	0xbcd565c1	-0.026049497
120	0xbd9f6148	-0.07782227
121	0x3e043d2a	0.12913957
122	0x3dd6063e	0.10450409
123	0x3e8d6961	0.2761946
124	0x3eb65abf	0.3561611
125	0xbdb4723d	-0.08810852
126	0xbcac909d	-0.02106505
127	0xbc6f9781	-0.014623524
128	0xbc48b149	-0.012249299
129	0x3d4a8b5b	0.049449306
130	0xbdb27487	-0.08713632
131	0xbc68d584	-0.014211062
132	0x3c871d90	0.016493589
133	0xbd6f1108	-0.05836585
134	0x3d3acb63	0.04560412
135	0xbcf518e6	-0.029919099
136	0xbc1d1a5a	-0.009588802
137	0x3d149947	0.03627899
138	0xbd6af269	-0.057360087
139	0x3df0a6e2	0.1175058
140	0x3da83224	0.082126886
141	0x3cfdd88d	0.030987049
142	0x3d8a20cc	0.06744537
143	0x3c26a8c6	0.010172075
144	0xbd39a132	-0.045319743
145	0x3cd0030a	0.025392074
146	0x3e3da579	0.18520154
147	0x3d666bc1	0.056255106
148	0x3deb3d04	0.11486247
149	0xbd5eb7b3	-0.054374408
150	0x3db39ef7	0.087705545
151	0x3e2cc83a	0.16873255
152	0xbcb27fe9	-0.021789508
153	0x3d1ef64c	0.038809106
154	0x3ba8bb3e	0.005149274
155	0xbccac39a	-0.024751473
156	0xbc3375ea	-0.010953406
157	0xbdedbf0b	-0.11608704
158	0xbd963fad	-0.07336364
159	0x3ccc84dd	0.024965698
160	0xbcfc5ecd	-0.030806923
161	0xbd70b9b2	-0.058770843
162	0x3e0abeb8	0.13549316
163	0x3b64ffa6	0.0034942417
164	0xbda2a1aa	-0.07940991
165	0x3e0c6cdc	0.13713402
166	0xbcada215	-0.02119545
167	0xbac2b96a	-0.0014856283
168	0xbd8f7b94	-0.070059925
169	0xbe166049	-0.14685167
170	0xbd8fac4b	-0.07015284
171	0x3d7b047e	0.06128358
172	0x3d11cba5	0.0355946
173	0xbcf0f588	-0.029413953
174	0xba77124b	-0.0009425028
175	0xbd3b6d6b	-0.045758646
176	0xbd3136d8	-0.043265194
177	0xbccfa77e	-0.025348421
178	0x3cbfc37b	0.023408642
179	0x3cd2f767	0.025752736
180	0x3d679148	0.056535035
181	0xbcbe3e6e	-0.023223128
182	0xbd83c4dc	-0.06434032
183	0x3d329c88	0.04360631
184	0xbd013ab7	-0.031550135
185	0xbcb8f8c4	-0.022579558
186	0x3de3e0a5	0.11126832
187	0xbdc796d4	-0.09745565
188	0xbd85a85f	-0.06526255
189	0x3c66039b	0.014038946
190	0xba552787	-0.0008131195
191	0x3c85ebfa	0.016347874
192	0x3dde027f	0.1084032
193	0xbd3662dc	-0.044527873
194	0xbcf38488	-0.029726282
195	0x3d2e0bb0	0.042491615
196	0xbc8dfd81	-0.017332794
197	0xbdf032b1	-0.117284186
198	0x3c605ce7	0.013694025
199	0x3cc48e0d	0.023993516
200	0xbde66a07	-0.11250692
201	0xbd24d047	-0.04023769
202	0x3ea21813	0.31658992
203	0x3d9e0725	0.077162065
204	0xbdfc1054	-0.12307802
205	0x3e252c15	0.16130097
206	0xbc88a792	-0.016681466
207	0xbaad175d	-0.0013205815
208	0xb93282f4	-0.00017024187
209	0x3d139f82	0.03604079
210	0xbd789b1a	-0.06069479
211	0xbd13b5c6	-0.036062025
212	0x3d53f516	0.051747404
213	0x3d537ff1	0.051635686
214	0xbc6ea882	-0.014566543
215	0x3df100a5	0.11767701
216	0x3d418b8b	0.04725222
217	0xbd33aba6	-0.04386487
218	0xbe3f156c	-0.18660516
219	0x3d25d1c4	0.04048325
220	0x3cb0773f	0.021541236
221	0xbd707c44	-0.05871226
222	0x3e416e00	0.18889618
223	0x3e20ab44	0.15690333
224	0x3b9ab323	0.004721062
225	0xbd48df19	-0.049040888
226	0x3de130b4	0.109956175
227	0xbdf28f9f	-0.118438
228	0xbe9ead80	-0.30991745
229	0x3eafe430	0.3435378
230	0x3efa801a	0.4892586
231	0xbdb70d27	-0.089380555
232	0xbeb036ea	-0.34416896
233	0x3d22876d	0.039679933
234	0x3d33896e	0.043832235
235	0xbc56f81b	-0.013120676
236	0x3cd69802	0.02619553
237	0xbd89be10	-0.06725705
238	0x3d823b68	0.06358987
239	0xbcc00c48	-0.023443356
240	0x3b9cc196	0.0047838194
241	0x3db2175c	0.08695862
242	0xbdcda1db	-0.10040637
243	0xbd05e608	-0.032690078
244	0x3e0220b9	0.12707795
245	0x3ad6e442	0.001639493
246	0xbe316b77	-0.17326151
247	0xbda8704c	-0.08224544
248	0x3d945a5c	0.07243797
249	0x3d3a4a39	0.04548094
250	0xbe5c57f5	-0.21517928
251	0xbe7cbf1f	-0.24682282
252	0x3d3e6e73	0.04649205
253	0x3d003d23	0.031308305
254	0xbd68bde1	-0.056821708
255	0x3d069ea2	0.032866128

layer2.0.bn2.weight f4 [16]
0	0x3f0bcc6b	0.5460879
1	0x3f043403	0.51641864
2	0x3f0c32f0	0.54765224
3	0x3f3fb516	0.7488569
4	0x3edd3f92	0.43212563
5	0x3ed887cb	0.42291102
6	0x3f2220d2	0.6333133
7	0x3f80665f	1.0031241
8	0x3f430723	0.76182765
9	0x3f14aed5	0.5807927
10	0x3f2a0484	0.6641314
11	0x3f03b1fa	0.51443446
12	0x3f7ca7d4	0.98693585
13	0x3f0311e8	0.511992
14	0x3f0169d6	0.5055212
15	0x3f16ff23	0.5898306

layer2.0.bn2.bias f4 [16]
0	0xbd255946	-0.04036834
1	0xbbf73622	-0.007544295
2	0x3e9b31f1	0.3031154
3	0xbdaa8be9	-0.08327467
4	0x3e9b5f7f	0.30346295
5	0x3e64b59e	0.22334906
6	0x3ca511aa	0.020150024
7	0xbe00e46a	-0.12587133
8	0xbdaf540f	-0.08560955
9	0x3e719188	0.23590672
10	0xbc963800	-0.01833725
11	0x3e9421f5	0.28932157
12	0xbe0f9bc0	-0.14024258
13	0x3d58f058	0.052963585
14	0xbcbfd312	-0.023416076
15	0xbe41a664	-0.18911129

layer2.0.bn2.running_mean f4 [16]
0	0xbe229a53	-0.15879183
1	0x3f5b9a17	0.85782
2	0x3ea82c38	0.32846236
3	0x3e89e850	0.26935053
4	0x3f83fb04	1.0310979
5	0xbdcf7ff6	-0.101318285
6	0xbd90c24c	-0.07068309
7	0xbdb19466	-0.08670883
8	0xbf6aa698	-0.9166045
9	0xbf2dca4f	-0.67886823
10	0xbe939bcb	-0.28829798
11	0x3d51bd1e	0.051205747
12	0xbd98aad7	-0.0745446
13	0xbe27bc0c	-0.16380328
14	0xbf1b22db	-0.6060006
15	0xbf3dc038	-0.7412143

layer2.0.bn2.running_var f4 [16]
0	0x3e1abaf2	0.15110376
1	0x3e6fccbe	0.23417947
2	0x3ee841ae	0.4536261
3	0x3ef249b1	0.47321847
4	0x3ec76850	0.38946772
5	0x3e941b1a	0.28926927
6	0x3ed79a0d	0.4210972
7	0x3f092e09	0.5358587
8	0x3e6afb5a	0.22947446
9	0x3ece2633	0.4026352
10	0x3e5588ff	0.20853041
11	0x3ebb0433	0.3652664
12	0x3eea3897	0.457463
13	0x3eac2397	0.33620903
14	0x3e473688	0.19454396
15	0x3e3e32b4	0.18574029

layer2.0.shortcut.0.weight f4 [16, 8, 1, 1]
0	0xbd1153e2	-0.035480388
1	0xbd85c19c	-0.06531069
2	0x3de6680e	0.112503156
3	0x3a298287	0.00064662885
4	0xbd04c43a	-0.0324137
5	0x3c9c7557	0.01909892
6	0xbcd81e76	-0.026381712
7	0x3ebbe4cb	0.36697993
8	0x3d61a3c1	0.05508781
9	0xbc4225c9	-0.011849829
10	0x3ee707c3	0.4512311
11	0x3de9a18b	0.11407765
12	0xbc19515c	-0.0093577765
13	0x3e56df1f	0.20983551
14	0xbe06655b	-0.13124602
15	0x3ebb9009	0.36633328
16	0x3e65f8bb	0.22458164
17	0xbdacc013	-0.08435073
18	0x3dc51f91	0.096251614
19	0xbe6f1821	-0.23349048
20	0xbde10930	-0.109880805
21	0xbd53441b	-0.051578622
22	0x3d75552d	0.059895683
23	0x3d4ece13	0.050489496
24	0xbeefef16	-0.46862096
25	0x3cfdf561	0.031000795
26	0xbd780eb0	-0.060560882
27	0xbda2bde6	-0.079463765
28	0xbdb0c548	-0.086313784
29	0x3d838339	0.06421513
30	0x3d110766	0.035407446
31	0x3d8beff9	0.068328805
32	0xbd356a17	-0.04429063
33	0xbd9b3e92	-0.07580294
34	0x3db6a7e2	0.0891874
35	0x3e5a4b7e	0.2131786
36	0xbd6e697e	-0.058206074
37	0x3f0d98a5	0.5531104
38	0x3e372cf5	0.17888243
39	0x3dee6fe5	0.11642436
40	0x3d5acd93	0.053418707
41	0xbdf89fa9	-0.12139828
42	0x3dd18fc8	0.10232502
43	0x3e125312	0.14289501
44	0x3dd17e3f	0.10229158
45	0x3f166d77	0.5876078
46	0x3e92f555	0.28702798
47	0xbdd62033	-0.1045536
48	0x3c18e756	0.009332499
49	0xbd347807	-0.04405978
50	0x3e058685	0.13039596
51	0xbcc61555	-0.024180094
52	0x3e9a88fd	0.3018264
53	0xbea449e5	-0.32087627
54	0x3d8851cc	0.066562265
55	0x3846162b	4.7227524e-05
56	0x3cac56c6	0.02103747
57	0x3ddeebf0	0.10884845
58	0xbd45967f	-0.048239227
59	0xbd8f0976	-0.069842264
60	0x3dce2f65	0.100676335
61	0xbe103c0a	-0.14085403
62	0x3c67a803	0.014139178
63	0x3daae762	0.08344914
64	0xbe0b1710	-0.13583016
65	0xbddcbbb4	-0.10777989
66	0x3e717b1d	0.2358212
67	0xbe010574	-0.12599736
68	0x3e7cd4be	0.2469053
69	0xbe1c6292	-0.15271977
70	0x3e8aadd5	0.27085748
71	0x3e24ef13	0.16106825
72	0x3dc7e442	0.097603336
73	0xbe335197	-0.17511593
74	0x3da41170	0.080111384
75	0xbe78abe3	-0.2428432
76	0x3d806f34	0.0627121
77	0xbda0257f	-0.07819652
78	0xbdef3651	-0.11680282
79	0xbe0313a2	-0.12800458
80	0xbc9261e4	-0.017868944
81	0x3dac7ddf	0.084224455
82	0xbeb0dad1	-0.34541944
83	0xbda324a1	-0.07965971
84	0xbd8b57cc	-0.06803855
85	0xbe375fb1	-0.17907597
86	0xbe10a294	-0.14124519
87	0xbea2f0d2	-0.31824356
88	0x3dcaf16d	0.099093296
89	0x3cd55756	0.026042622
90	0x3d82e7cb	0.06391867
91	0xbd8a2019	-0.067444034
92	0x3e2ce974	0.1688593
93	0xbe063215	-0.13105042
94	0xbe12735c	-0.14301819
95	0x3d83df34	0.06439057
96	0x3e037aeb	0.12839858
97	0xbe975e6f	-0.29564235
98	0x3d9135eb	0.07090362
99	0xbad95b12	-0.0016582927
100	0x3ddd0ca7	0.10793429
101	0xbe867b31	-0.26265863
102	0xbd458b7c	-0.048228726
103	0xbe270db6	-0.16313824
104	0xbcfc6f84	-0.030814894
105	0x3d95c147	0.07312255
106	0x3c51f379	0.012814396
107	0x3d90e1a3	0.07074287
108	0xbdbb66b1	-0.09150446
109	0xbf2485d6	-0.6426672
110	0x3d81eea6	0.06344347
111	0xbde2fdfd	-0.11083601
112	0x3d258f04	0.040419593
113	0x3de43579	0.111430116
114	0xbea1257a	-0.31473905
115	0xbea0621e	-0.31324857
116	0x3e0e074e	0.13869974
117	0x3da57827	0.08079558
118	0x3e9c4396	0.30520314
119	0xbef91ac4	-0.48653233
120	0xbcabc90e	-0.020969894
121	0x3db5943f	0.08866166
122	0xbf2090dc	-0.6272104
123	0xbe3a4088	-0.18188679
124	0x3d599670	0.053121984
125	0xbe6388c2	-0.22220138
126	0xbe1ccb84	-0.1531201
127	0x3f03c8ad	0.5147808

layer2.0.shortcut.1.weight f4 [16]
0	0x3e4c601d	0.1995854
1	0x3eaaca90	0.33357668
2	0x3d54bb98	0.051936716
3	0x3e81b4f7	0.25333378
4	0x3e55ecc4	0.208911
5	0x3ebd30d9	0.3695133
6	0x3e3364d9	0.17518939
7	0x3d5a4bd8	0.053294986
8	0x3ebf2579	0.37333277
9	0x3df12969	0.117754765
10	0x3ea7393d	0.32660857
11	0x3dba4e8d	0.090970136
12	0x3e5b198b	0.21396463
13	0x3ed8128a	0.42201644
14	0x3f0646c5	0.52451736
15	0x3f1a045d	0.6016291

layer2.0.shortcut.1.bias f4 [16]
0	0xbd255946	-0.04036834
1	0xbbf73622	-0.007544295
2	0x3e9b31f1	0.3031154
3	0xbdaa8be9	-0.08327467
4	0x3e9b5f7f	0.30346295
5	0x3e64b59e	0.22334906
6	0x3ca511aa	0.020150024
7	0xbe00e46a	-0.12587133
8	0xbdaf540f	-0.08560955
9	0x3e719188	0.23590672
10	0xbc963800	-0.01833725
11	0x3e9421f5	0.28932157
12	0xbe0f9bc0	-0.14024258
13	0x3d58f058	0.052963585
14	0xbcbfd312	-0.023416076
15	0xbe41a664	-0.18911129

layer2.0.shortcut.1.running_mean f4 [16]
0	0x3e96361f	0.29338166
1	0x3f4cd4d2	0.8001224
2	0x3d87f895	0.0663921
3	0xbe823007	-0.25427267
4	0x3f211ec6	0.6293758
5	0x3f2969d9	0.66177136
6	0x3d362769	0.04447118
7	0x3d714a8a	0.058908977
8	0x3e9fc538	0.31205153
9	0xbe69d899	-0.22836532
10	0xbf43293f	-0.7623481
11	0x3dbfe02b	0.093689285
12	0xbeb9b764	-0.36272728
13	0xbf12b5aa	-0.5730845
14	0xbe922397	-0.28542778
15	0xbea2f4ca	-0.31827384

layer2.0.shortcut.1.running_var f4 [16]
0	0x3d03d160	0.032182097
1	0x3dc02501	0.09382058
2	0x3d19d7bb	0.037559252
3	0x3dde7b4d	0.108633615
4	0x3db06a62	0.08614041
5	0x3dc931c7	0.098239474
6	0x3df55dc3	0.11980774
7	0x3c9cdc45	0.019148001
8	0x3dd2e0ba	0.102967694
9	0x3d369b3e	0.044581644
10	0x3d87cf80	0.06631374
11	0x3d41ed4c	0.047345445
12	0x3da99d10	0.082819104
13	0x3e32742f	0.17427133
14	0x3e1424f0	0.14467216
15	0x3de33208	0.11093527

layer3.0.conv1.weight f4 [32, 16, 3, 3]
0	0xbdf3f408	-0.1191178
1	0xbd6205ec	-0.05518143
2	0xbc6f895c	-0.014620151
3	0xbdb73f15	-0.08947579
4	0xbd300453	-0.042972874
5	0xbc4b479d	-0.012407211
6	0x3ce0074e	0.027347233
7	0xbd20700c	-0.039169356
8	0xbd2f192c	-0.042748615
9	0xbc7260bf	-0.014793574
10	0x3bac8bc7	0.005265686
11	0xbd8c8213	-0.06860747
12	0xbc9f5ad3	-0.019452488
13	0x3d6e1cee	0.05813306
14	0x3da241c4	0.079227
15	0xbdf56d37	-0.11983722
16	0x3da9661b	0.08271428
17	0x3e52f815	0.20602448
18	0x3dd50f60	0.10403323
19	0x3c5ae214	0.013359565
20	0xbd88c43e	-0.06678055
21	0x3bbacb43	0.0057005
22	0x3e0cf120	0.13763857
23	0xbe05715f	-0.13031529
24	0xbd221dd8	-0.039579242
25	0x3dea79fc	0.11449048
26	0xbdfb985f	-0.12284922
27	0x3e2a1207	0.1660844
28	0x3dfc0b3f	0.123068325
29	0xbd5b1dfc	-0.053495392
30	0x3d657557	0.056020107
31	0x3e879782	0.2648278
32	0x3e35e5bf	0.17763422
33	0xbdc08506	-0.09400372
34	0x3e6fdab4	0.23423272
35	0x3e31e0da	0.1737093
36	0x3d4109c9	0.047128472
37	0x3d41283c	0.04715751
38	0xbe0404e3	-0.12892489
39	0xbb8f60e7	-0.0043755653
40	0x3a4de80c	0.0007854707
41	0xbc1fdfde	-0.009757964
42	0xbdc80b07	-0.09767728
43	0xbce42778	-0.027850851
44	0xbdd4b54c	-0.10386142
45	0xbe039a52	-0.12851837
46	0xbd08400c	-0.033264205
47	0x3d971989	0.07377917
48	0xbdb188a9	-0.08668644
49	0xbe8151d6	-0.25257748
50	0xbdd893cf	-0.10575067
51	0x3d44fd7e	0.04809331
52	0xbe4f60e2	-0.20251802
53	0xbe6cbcaa	-0.23118845
54	0x3cf2207a	0.029556502
55	0xbd6188f7	-0.05506226
56	0xbcc419fc	-0.023938172
57	0xbc00717d	-0.007839558
58	0xbdc0badf	-0.09410643
59	0x3c08b235	0.008343269
60	0xbd82c213	-0.06384673
61	0xbcb5cf8c	-0.022193693
62	0x3a49faca	0.0007704912
63	0xbbc41275	-0.0059836456
64	0x3e2ae313	0.16688184
65	0x3e0005ab	0.12502162
66	0x3b7104f0	0.0036776625
67	0x3e5efbe3	0.21775775
68	0x3e37510a	0.17902008
69	0x3d05f78a	0.032706775
70	0x3dbb924b	0.091587625
71	0x3ca81477	0.02051757
72	0xbaf14c81	-0.0018409641
73	0x3cc5c5a3	0.024142092
74	0xbcda944a	-0.026682038
75	0x3bdce82a	0.0067415433
76	0xbca70f82	-0.020393137
77	0xbd312bee	-0.043254785
78	0xbd20b901	-0.039238933
79	0xbcdbe807	-0.026844038
80	0xbd23e854	-0.040016487
81	0xbcf246ab	-0.029574713
82	0x3d8bbc46	0.0682302
83	0x3daee3d9	0.08539552
84	0xbe5a7a02	-0.21335605
85	0xbd97b4e0	-0.07407546
86	0xbd887313	-0.06662574
87	0xbdd35b6c	-0.10320172
88	0xbd5c14cc	-0.05373077
89	0xbd26588b	-0.040611785
90	0x3d779e22	0.06045354
91	0x3d7cc9f8	0.06171605
92	0x3c67753f	0.014127075
93	0x3d0166bb	0.031592112
94	0x3cb902bb	0.02258431
95	0x3d217427	0.039417412
96	0x3d5b2765	0.053504366
97	0x3d987f51	0.07446159
98	0x3c47dd7b	0.012198801
99	0xbe3e77ef	-0.18600439
100	0xbdcaf7ec	-0.099105686
101	0x3cefacce	0.029257204
102	0xbe8e2d79	-0.27769068
103	0xbe3b85ea	-0.18312803
104	0xbdb3104d	-0.087433435
105	0xbe5b45a3	-0.21413283
106	0xbe887420	-0.26651096
107	0xbe1ff17f	-0.15619467
108	0x3dbc844b	0.092049204
109	0x3d9ee049	0.07757623
110	0xbdbb7bdf	-0.09154486
111	0x3e5900c5	0.211917
112	0x3e90de7d	0.28294745
113	0x3c84112f	0.016121475
114	0x3ddfd2a0	0.109288454
115	0x3e591699	0.21200027
116	0x3db9b622	0.09067942
117	0xbd052528	-0.032506138
118	0xbd08b398	-0.0333744
119	0xbd0474f0	-0.032338083
120	0xbd679576	-0.05653902
121	0xbadcafd9	-0.0016837075
122	0xbdadcb5f	-0.084860556
123	0xbcd9159d	-0.026499564
124	0x3cd32805	0.025775919
125	0xbcbb1aef	-0.022839991
126	0x3d5eab64	0.05436267
127	0x3cdac777	0.02670644
128	0xbd8efce1	-0.069818266
129	0x3da49918	0.08037013
130	0x3d2c2663	0.042028796
131	0xbb35309a	-0.0027647377
132	0xbc9d8b3e	-0.019231435
133	0x3d0f4640	0.034979105
134	0xbd868819	-0.06568927
135	0x3cf629b7	0.030049188
136	0xbd07b509	-0.033131633
137	0xbd08773b	-0.033316832
138	0x3d6904bb	0.056889277
139	0xbd564393	-0.052310538
140	0xbdd119b2	-0.10209979
141	0x3ba85c6a	0.0051379697
142	0xbd499c68	-0.049221426
143	0xbdf668ea	-0.120317295
144	0x3abae45b	0.0014258729
145	0xbd3e69ef	-0.046487745
146	0x3d0e4ddb	0.034742218
147	0xbde803b8	-0.11328834
148	0xbe01a0af	-0.12658952
149	0xbd7f7def	-0.06237596
150	0xbd8368ea	-0.06416495
151	0xbda21c40	-0.079155445
152	0xbd90515c	-0.07046768
153	0xbe10e215	-0.14148743
154	0xbe66182f	-0.22470163
155	0x3d338e49	0.043836866
156	0x3dc9ba99	0.09850044
157	0xbe7c2825	-0.24624689
158	0xbe021e27	-0.12706815
159	0x3e7f8994	0.24954826
160	0xbdc8025d	-0.09766076
161	0xbe31e1d2	-0.173713
162	0xbd8e731e	-0.069555506
163	0xba25692d	-0.0006309923
164	0xbdc32aa1	-0.09529615
165	0xbdcbca7a	-0.09950729
166	0x3da63e2c	0.08117327
167	0xbd85501c	-0.0650942
168	0xbdeacf6e	-0.11465345
169	0x3dd697d8	0.10478181
170	0xbc1e14c4	-0.009648506
171	0x3dc77a1f	0.097400896
172	0x3db36bb9	0.08760781
173	0xbded61df	-0.11590933
174	0x3da83810	0.08213818
175	0x3e26f178	0.1630305
176	0x3cb40845	0.0219766
177	0x3d9afa22	0.0756724
178	0x3e295677	0.1653689
179	0x3e388f29	0.18023361
180	0xbd9c2ced	-0.076257564
181	0xbe21aa92	-0.15787724
182	0xbdfea4fe	-0.124338135
183	0xbd350484	-0.04419376
184	0xbdd04e3a	-0.101711705
185	0xbde60ff1	-0.11233509
186	0x3b07dbc8	0.0020730365
187	0xbc85c360	-0.016328514
188	0x3cb3d99a	0.021954346
189	0x3d543081	0.05180407
190	0xbd412620	-0.0471555
191	0xbbe4ffea	-0.006988515
192	0xbd883df8	-0.066524446
193	0x3db10dfd	0.08645246
194	0x3df0237d	0.11725519
195	0xbd56c010	-0.05242926
196	0x3e015223	0.12628989
197	0x3e2581c3	0.16162781
198	0x3bf901ff	0.007599115
199	0xbd3056c3	-0.043051492
200	0x3ddd85ee	0.10816561
201	0x3d934c1c	0.07192251
202	0xbdb80a89	-0.089863844
203	0x3d9861a5	0.07440499
204	0x3c9c872d	0.019107426
205	0xbd70afd2	-0.058761425
206	0x3d2251fd	0.03962897
207	0xbd51af50	-0.05119258
208	0xbd42f875	-0.04760023
209	0xbd2adbcd	-0.041713525
210	0xbd31a7fb	-0.04337309
211	0xbd90b5ba	-0.070659116
212	0xbd7b39c3	-0.061334383
213	0x3cb409e7	0.021977378
214	0x3cdc1c28	0.026868895
215	0x3d4ca538	0.049962252
216	0xbd2ce7ba	-0.04221318
217	0x3c11dffa	0.008903498
218	0x3ca43a55	0.020047346
219	0x3ccc8c5e	0.024969276
220	0x3d373e16	0.044736944
221	0x3c657df6	0.014007082
222	0x3d4aa555	0.04947408
223	0x3d153f56	0.036437355
224	0xbd23ff0d	-0.040038157
225	0xbd2bf5bd	-0.0419824
226	0x3d8d2609	0.0689202
227	0xbe09aedc	-0.1344561
228	0xbe0d0a00	-0.13773346
229	0x3e57a1bb	0.21057789
230	0x3da19953	0.078905724
231	0xbde5d382	-0.112219825
232	0x3de83a0a	0.11339195
233	0x3dd1812f	0.10229718
234	0xbdaf424c	-0.08557567
235	0xbe1b0502	-0.15138629
236	0xbdb28e28	-0.087185204
237	0xbd6207f6	-0.055183373
238	0xbd846464	-0.064644605
239	0xbde33708	-0.11094481
240	0x3d8c4dff	0.06850814
241	0x3d868aa2	0.06569411
242	0xbc2ce816	-0.0105533805
243	0xbe0528f1	-0.13003899
244	0xbd1a20e9	-0.03762904
245	0x3dcf9956	0.101366684
246	0xbe1a62bf	-0.15076731
247	0xbdb0d655	-0.086346306
248	0x3df50da7	0.119654946
249	0xbda9bb8c	-0.08287725
250	0xbde0c795	-0.10975567
251	0x3d93e5bc	0.07221553
252	0x3ddaf143	0.10690548
253	0x3c3ea65b	0.011636342
254	0xbd1923a4	-0.037387505
255	0x3dc9d68a	0.09855373
