ce_results/CE_with_seed-3_cycles-4_cifar100-ResNet10_scheckpoint.pth.tar (torch, 716069 bytes, 100 tensors)

conv1.weight f4 [8, 3, 3, 3]
0	0xbea4e070	-0.32202482
1	0xbdb01c23	-0.08599117
2	0xbe3ffa8d	-0.18747921
3	0x3ed84e4d	0.4224724
4	0x3f2ad4f8	0.66731215
5	0x3de41e9e	0.11138652
6	0x3be39580	0.006945312
7	0x3e19604a	0.14978138
8	0x3dedc4ed	0.11609826
9	0xbee2f27f	-0.44325635
10	0xbea58293	-0.32326183
11	0xbe602267	-0.21888123
12	0x3e8942d9	0.26808813
13	0x3f10ac8d	0.5651329
14	0x3c61d1aa	0.013782898
15	0xbdb4493a	-0.08803029
16	0xbe0638c9	-0.131076
17	0xbddd4d78	-0.108057916
18	0xbef2d00e	-0.47424358
19	0xbe3e013d	-0.1855516
20	0xbc3a7490	-0.01138033
21	0x3e4a33e9	0.19746365
22	0x3f2a7be7	0.6659531
23	0x3e925cac	0.28586328
24	0x3db7a30b	0.08966645
25	0x3e84462b	0.25834784
26	0x3de17b8c	0.11009893
27	0x3ea46225	0.32106128
28	0x3e5a8973	0.21341495
29	0xbd61c118	-0.05511579
30	0x3f8b3c48	1.0877771
31	0xbe4594d1	-0.1929505
32	0xbe04658a	-0.12929359
33	0x3e5f515e	0.21808383
34	0xbda158f0	-0.078782916
35	0xbe3ff81f	-0.18746994
36	0xbef3a0c3	-0.4758359
37	0xbea96100	-0.33081818
38	0xbe093a99	-0.1340126
39	0xbe67cc8b	-0.2263662
40	0xbfb25109	-1.393098
41	0xbe2423df	-0.16029309
42	0xbec23cb1	-0.3793693
43	0xbe74a92b	-0.23892657
44	0x3ec10daf	0.37705752
45	0x3e7a22c1	0.2442732
46	0x3eb19837	0.34686443
47	0x3d231a2a	0.039819874
48	0x3f259e71	0.6469489
49	0x3d9e057a	0.07715888
50	0x3e157348	0.14594758
51	0x3e5d0d45	0.21587093
52	0x3e392bda	0.18083134
53	0x3dc66ebb	0.09689089
54	0xbd4f777a	-0.05065105
55	0xbdd17e2a	-0.10229142
56	0xbd9b1282	-0.075718895
57	0xbec2984a	-0.38006812
58	0xbfae4043	-1.3613361
59	0xbe4d3d2b	-0.20042865
60	0x3e91cf41	0.28478435
61	0x3fbeddad	1.49114
62	0x3e890029	0.26757935
63	0x3dfd9898	0.123826206
64	0xbd9851da	-0.07437487
65	0x3c9e6ea8	0.019339874
66	0xbe51a88b	-0.2047445
67	0xbfcaf27d	-1.5855252
68	0xbe3cf897	-0.18454204
69	0x3e1beab8	0.15226257
70	0x3fca1718	1.5788298
71	0x3e77d4ea	0.24202314
72	0x3df20cca	0.118188456
73	0xbd884e3c	-0.06655547
74	0x3b6759b3	0.0035301268
75	0xbdb41d07	-0.08794599
76	0xbf885d3e	-1.0653455
77	0xbd956f95	-0.07296673
78	0x3e41d18d	0.18927594
79	0x3f73a036	0.9516634
80	0x3ce9ad05	0.028524885
81	0xbf2c71e1	-0.67361265
82	0x3f0be611	0.5464793
83	0x3eb4ddbd	0.35325423
84	0xbf019e11	-0.50631815
85	0x3f6f7af9	0.93547016
86	0x3f8587f8	1.0432119
87	0xbf0fead2	-0.5621768
88	0x3f347518	0.7049117
89	0x3f4d44d7	0.80183166
90	0xbc434d67	-0.01192031
91	0xbda445d9	-0.08021135
92	0xbe2a385e	-0.16623065
93	0x3e025bd9	0.1273035
94	0xbf093160	-0.53590965
95	0xbf02df2a	-0.5112177
96	0x3e41150c	0.18855685
97	0xbea52fd6	-0.32263058
98	0xbe5a4f59	-0.21319331
99	0x3e63b701	0.22237779
100	0xbdf5ce0b	-0.1200219
101	0xbdd6cef1	-0.1048869
102	0x3f301cd1	0.6879397
103	0xbf09eb7d	-0.5387495
104	0xbf2035fe	-0.62582386
105	0x3f125fc9	0.57177407
106	0xbf0b8d35	-0.5451234
107	0xbf1e816b	-0.61916226
108	0xba9d8315	-0.0012017215
109	0xbbac0d45	-0.0052506053
110	0x3de171dd	0.11008046
111	0xbeb6f011	-0.3573003
112	0xbf2b1ad3	-0.66837806
113	0xbe5a3c31	-0.21312024
114	0x3d879a0d	0.0662118
115	0xbe305e25	-0.17223413
116	0x3db10525	0.08643559
117	0x3e07003e	0.13183686
118	0xbd984be8	-0.07436353
119	0xbd87061e	-0.06592964
120	0xbda4c99e	-0.08046268
121	0xbf26d428	-0.65167475
122	0xbe88608a	-0.26636153
123	0x3e408760	0.18801641
124	0xbe7d336f	-0.24726652
125	0xbcd72c79	-0.026266323
126	0x3d77adf4	0.06046863
127	0x3e1216b9	0.1426648
128	0x3e5fe243	0.21863656
129	0xbe741fca	-0.23840252
130	0xbee28e8a	-0.44249374
131	0xbdcf94ca	-0.10135801
132	0x3cb27803	0.021785742
133	0xbdd1aac1	-0.10237647
134	0x3e0a5c97	0.13511883
135	0xbc41e62c	-0.011834662
136	0x3dc15eab	0.094418846
137	0xbe20171f	-0.1563382
138	0xbf878e31	-1.0590268
139	0x3f9cae22	1.2240641
140	0x3e178093	0.14795141
141	0xbda2edd4	-0.07955518
142	0x3e442bf9	0.19157399
143	0x3d0ab374	0.033862546
144	0xbe534db6	-0.20635113
145	0x3e57338f	0.21015762
146	0xbd7de619	-0.061987016
147	0xbfe966c2	-1.8234484
148	0x3fdbb53d	1.7164685
149	0x3e27e551	0.16396071
150	0xbe1dc82a	-0.15408388
151	0x3ea745a4	0.3267032
152	0xbe211b21	-0.15733005
153	0xbdd9aad8	-0.10628289
154	0x3e8a6be0	0.27035427
155	0xbe8fdd6f	-0.28098628
156	0xbfa37773	-1.2770828
157	0x3fad6c30	1.3548641
158	0x3e098a7a	0.13431731
159	0xbeb5b221	-0.35487464
160	0x3e4a263d	0.19741149
161	0x3c15ee50	0.009151056
162	0x3e4b12bf	0.1983137
163	0xbec6edc1	-0.38853267
164	0xbe0f89b5	-0.14017375
165	0xbc53c22f	-0.012924715
166	0xbf19e46f	-0.60114187
167	0xbf134098	-0.5752044
168	0x3eabd2a3	0.3355914
169	0xbf11ab16	-0.5690168
170	0xbedc9747	-0.43084165
171	0xbda70112	-0.08154501
172	0x3e21a718	0.15786397
173	0x3e97aad6	0.29622525
174	0xbe41947b	-0.18904297
175	0x3ea16239	0.3152025
176	0x3e6a17e7	0.2286068
177	0x3ddf5034	0.109039694
178	0xbca337b9	-0.019924032
179	0x3c88563d	0.016642684
180	0xbd9651e2	-0.07339837
181	0x3eacd2b6	0.3375451
182	0x3e21c099	0.15796126
183	0xbe3827b2	-0.17983893
184	0x3f4ae075	0.79248744
185	0x3ed7fb29	0.42183807
186	0xbda5fe11	-0.081051
187	0x3e9af43f	0.3026447
188	0x3e3b217d	0.18274494
189	0x3eb7e0b7	0.3591363
190	0x3d1dafa5	0.038497586
191	0x3d57872b	0.05261914
192	0xbdde758a	-0.108622625
193	0x3e344c89	0.17607321
194	0xbeb90ab1	-0.3614097
195	0x3bd21958	0.0064117126
196	0xbe9ee92e	-0.31037277
197	0xbea36ce9	-0.3191903
198	0xbf53bfcd	-0.8271454
199	0xbf0ec695	-0.5577176
200	0xbe01d09b	-0.12677233
201	0xbf126b20	-0.5719471
202	0x3f8b1313	1.0865196
203	0x3f0dc580	0.55379486
204	0x3de827e7	0.11335736
205	0x3eddf1fc	0.43348682
206	0x3f9bcddc	1.2172198
207	0x3f095d14	0.5365765
208	0x3e8c8f22	0.27452952
209	0x3e1a73f1	0.1508329
210	0x3e35dc64	0.17759854
211	0x3e0416e3	0.12899356
212	0xbf6dcf7c	-0.9289472
213	0x3e7b2de5	0.24529226
214	0xbf71299e	-0.9420413
215	0xbf08e9a3	-0.534815

bn1.weight f4 [8]
0	0x3f1ed0be	0.62037265
1	0x3f11b291	0.56913096
2	0x3f3c634b	0.7358901
3	0x3eed39d3	0.4633318
4	0x3f406f05	0.751694
5	0x3f7bc4f7	0.9834742
6	0x3ea9c888	0.33160806
7	0x3ee3bb12	0.4447866

bn1.bias f4 [8]
0	0x3f6ff0b0	0.93726635
1	0x3e9b041b	0.3027657
2	0x3e9c6a1d	0.30549708
3	0x3e6ad72b	0.22933643
4	0xbdd15a29	-0.10222275
5	0x3ebdbd9c	0.37058723
6	0x3e88598b	0.26630816
7	0x3f0d63da	0.55230486

bn1.running_mean f4 [8]
0	0xbef2bf5b	-0.47411618
1	0x3e384ea1	0.17998745
2	0x3c9a141f	0.018808423
3	0xbe4c28ec	-0.19937485
4	0x3f54b8ef	0.83094686
5	0xbe166f8b	-0.14690988
6	0x3e3dae43	0.18523507
7	0xbd2adab9	-0.041712496

bn1.running_var f4 [8]
0	0x4085e122	4.183732
1	0x3fc358dc	1.5261493
2	0x40cf7bc0	6.483856
3	0x40072d80	2.112152
4	0x40db2ce7	6.8492312
5	0x40d5b94a	6.6788683
6	0x3fea7bbe	1.8319013
7	0x3f029186	0.510033

layer1.0.conv1.weight f4 [8, 8, 3, 3]
0	0x3d7a0f6b	0.06104986
1	0xbe45c2cf	-0.19312595
2	0x3dd6667a	0.104687646
3	0x3e66133b	0.22468273
4	0x3e2d088f	0.16897796
5	0x3de8476a	0.11341746
6	0xbcc6d51c	-0.02427154
7	0xbd8937c6	-0.06700091
8	0x3e0de4f8	0.13856876
9	0xbac08005	-0.001468659
10	0x3e8a042b	0.26956305
11	0xbe752844	-0.23941141
12	0xbe979317	-0.29604408
13	0x39908041	0.00027561377
14	0x3d1ad043	0.03779627
15	0x3e002d2d	0.12517233
16	0x3e8f3c6e	0.27975792
17	0xbdeebb10	-0.11656773
18	0xbdbf1e8d	-0.09331999
19	0x3e2fe4f9	0.1717719
20	0xbe6c893c	-0.23099226
21	0xbf12033f	-0.57036203
22	0xbf611fdb	-0.8793923
23	0xbe15ba0a	-0.1462175
24	0xbd712fc4	-0.058883443
25	0xbdcf79e4	-0.10130671
26	0x3db273da	0.08713503
27	0xbca13def	-0.019682853
28	0xbcd47f24	-0.025939532
29	0xbe786a75	-0.2425936
30	0x3d27398a	0.040826358
31	0x3db64527	0.088999085
32	0xbe1cf405	-0.15327461
33	0x3e1a5c31	0.1507423
34	0x3e82e7a2	0.25567347
35	0xbe314912	-0.1731303
36	0x3e1ff8c7	0.15622245
37	0x3e1c3a53	0.15256624
38	0x3e0529b7	0.13004194
39	0xbd843018	-0.06454486
40	0xbe053553	-0.13008623
41	0xbde357d9	-0.1110074
42	0xba52c5c1	-0.0008040332
43	0x3d896410	0.067085385
44	0xbd743448	-0.05962017
45	0xbaeab168	-0.0017905654
46	0xbcc8a219	-0.024491357
47	0xbdb8d202	-0.09024431
48	0x3db08663	0.08619382
49	0xbe03fbdb	-0.12889044
50	0xbf78707b	-0.9704663
51	0xbdc24a61	-0.09486843
52	0x3eb4e745	0.35332695
53	0x3d89e0cd	0.067323305
54	0x3e00c24b	0.12574117
55	0x3d760eab	0.060072582
56	0xbd6c76e2	-0.057730563
57	0xba9e9f07	-0.0012101837
58	0xbdb5a46a	-0.0886925
59	0xbe22933d	-0.1587648
60	0xbdf02c10	-0.11727154
61	0xbd362b38	-0.04447481
62	0x3df4122d	0.11917529
63	0xbe1f370e	-0.15548345
64	0xbe1d02b7	-0.15333067
65	0x3e8346f9	0.25640085
66	0x3d8060ea	0.06268485
67	0x3d9dc58c	0.07703695
68	0xbe285dac	-0.16441983
69	0x3ac48573	0.0014993384
70	0x3d01122e	0.031511478
71	0x3d97a627	0.07404738
72	0x3de2917a	0.11062904
73	0x3d5046d6	0.050848804
74	0x3de4f28c	0.11179075
75	0xbf04caf2	-0.5187217
76	0xbec3ba2c	-0.38227975
77	0x3ca65499	0.020304011
78	0x3eacc2c7	0.33742353
79	0x3dfe29e4	0.12410334
80	0x3e99a836	0.30011147
81	0xbe4f4a05	-0.2024308
82	0x3e88a1b6	0.26685876
83	0xbe1ab8b7	-0.15109526
84	0x3d26340a	0.040576972
85	0x3e7765cf	0.2415993
86	0xbdb67716	-0.089094326
87	0xbe19fec8	-0.15038598
88	0xbde22491	-0.11042131
89	0xbe16a761	-0.14712287
90	0xbe90d02d	-0.28283826
91	0xbed9147c	-0.4239844
92	0xbc9a78d0	-0.018856436
93	0x3f1927c5	0.5982631
94	0x3e93375d	0.28753176
95	0x3e0d5f70	0.13805938
96	0xbe8fc5ac	-0.280805
97	0xbdde798d	-0.10863028
98	0x3d417c6e	0.047237806
99	0x3b5995a0	0.0033200756
100	0x3e4c2509	0.19936003
101	0xbdd133fe	-0.10214995
102	0xbe339f0e	-0.17541143
103	0xbcd6ba45	-0.026211867
104	0xbe256230	-0.16150737
105	0xbd205112	-0.039139815
106	0x3d2054b7	0.03914329
107	0xbd2b9180	-0.041886806
108	0x3d55283b	0.05204032
109	0xbd63b660	-0.05559385
110	0xbc1ef2e6	-0.009701466
111	0x3e22efcf	0.15911792
112	0x3d0d69a3	0.03452457
113	0x3c42eb86	0.0118969735
114	0x3e930242	0.2871266
115	0xbe1949da	-0.14969578
116	0xbd9f629c	-0.0778248
117	0xbd52bf7d	-0.05145215
118	0x3ea2ae06	0.31773394
119	0xbd684d57	-0.056714382
120	0xbdb4e5e3	-0.0883291
121	0x3e8fc462	0.28079516
122	0xbea1492a	-0.31501132
123	0xbeeee946	-0.46662349
124	0x3e5a36ce	0.21309969
125	0xbe731140	-0.23737049
126	0xbdbd6876	-0.0924844
127	0x3e9ca96e	0.30598015
128	0xbd36e1fc	-0.04464911
129	0xbe734dd4	-0.23760158
130	0x3e600bf9	0.21879567
131	0xbe0248ab	-0.12723033
132	0xbeb08059	-0.34472921
133	0x3e5388b5	0.20657618
134	0xbd9a3d9f	-0.075312845
135	0xbb10d8fa	-0.0022101984
136	0xbe62524b	-0.22101705
137	0xbde51313	-0.11185279
138	0xbd6add41	-0.05733991
139	0xbdc7a82e	-0.097488746
140	0x3e26f4af	0.16304277
141	0x3e0cdfff	0.13757323
142	0xbdf949bf	-0.12172269
143	0x3d3df03f	0.046371695
144	0xbd062be5	-0.032756705
145	0xbe88b6f3	-0.2670208
146	0xbcaf0cfc	-0.021368496
147	0xbe172374	-0.14759618
148	0xbe4f2ba2	-0.20231488
149	0x3e0db3de	0.13838145
150	0xbcbe8891	-0.02325848
151	0x3cc3a99c	0.023884587
152	0x3eba831c	0.36428154
153	0x3e42e016	0.19030795
154	0xbec03fe9	-0.3754876
155	0xbc84b405	-0.016199121
156	0xbd956a35	-0.07295648
157	0xbf5bdad2	-0.8588077
158	0xbea0d5e1	-0.31413177
159	0x3e8bb292	0.27284676
160	0xbe81aa57	-0.2532527
161	0x3e8d1a51	0.2755914
162	0x3ca2a006	0.019851696
163	0x3d4a6a9f	0.049418088
164	0xbd744895	-0.059639532
165	0x3ce14373	0.027497983
166	0xbd82bafc	-0.06383321
167	0xbcd4c94b	-0.02597489
168	0x3bf3c25e	0.007438942
169	0x3d4e0a85	0.050303
170	0x3b4b41fe	0.0031014676
171	0x3d77e812	0.060524054
172	0xbe615e8f	-0.22008727
173	0xbd0c3b98	-0.03423652
174	0xbdb07d31	-0.08617628
175	0xbebd2767	-0.36944124
176	0xbc76a9e7	-0.015055156
177	0xbc438040	-0.011932433
178	0xbd6f8bff	-0.05848312
179	0x3eeebb07	0.46627066
180	0xbe50d2f9	-0.2039298
181	0xbdb748a7	-0.08949404
182	0x3d998f0e	0.07497989
183	0xbe334edd	-0.17510553
184	0xbd2dd953	-0.042443585
185	0x3e0300ed	0.12793322
186	0xbd7c3246	-0.061571382
187	0xbbd6420e	-0.006538636
188	0x3d8e357b	0.06943794
189	0xbe0dfbf3	-0.13865642
190	0xbe26d37c	-0.16291612
191	0xbc455c4c	-0.012045931
192	0xbd0cefb8	-0.0344083
193	0xbda0e8c9	-0.078569
194	0xbdb86d12	-0.090051785
195	0x3d8c640c	0.0685502
196	0xbe285995	-0.16440423
197	0xbdb1a9ae	-0.08674942
198	0x3d047592	0.032338686
199	0x3ca729ce	0.020405676
200	0xbc8b483c	-0.017002217
201	0x3d7039c7	0.05864885
202	0xbce6c236	-0.028168779
203	0xbddc4d26	-0.107569024
204	0x3df270e4	0.118379384
205	0xbd4ac96e	-0.049508505
206	0xbde69ce1	-0.11260391
207	0x3f3cfda9	0.73824555
208	0x3eb160cf	0.34644172
209	0xbdbf84ba	-0.093514875
210	0x3e86bded	0.26316777
211	0xbdda1875	-0.10649196
212	0xbf37f973	-0.71865004
213	0xbe2225a0	-0.15834665
214	0xbf1c2010	-0.60986423
215	0xbf0a4b99	-0.540216
216	0xbdf7c25e	-0.120976195
217	0x3eb66861	0.3562651
218	0xbd2a09ec	-0.04151337
219	0x3d835ff2	0.064147845
220	0xbe54e2f6	-0.20789704
221	0xbe5fe4fd	-0.21864696
222	0x3d4b9cce	0.049710087
223	0x3d16b65f	0.036795016
224	0x3e427f46	0.18993863
225	0x3db80bb6	0.08986609
226	0xbecc9139	-0.39954546
227	0x3ed6c0d1	0.41943982
228	0x3dc701eb	0.09717163
229	0x3e35f673	0.17769794
230	0xbf1b9b23	-0.60783595
231	0x3d340779	0.04395244
232	0xbd5de795	-0.054175932
233	0x3d37145a	0.044697143
234	0xbe97f3e1	-0.29678252
235	0xc00a3109	-2.1592429
236	0xbed2d06a	-0.41174632
237	0x3e871310	0.2638173
238	0x3d309e0c	0.043119475
239	0x3e08218f	0.13294052
240	0x3d375739	0.044760916
241	0xbcf1b440	-0.029504895
242	0x3dcd4c1a	0.10024281
243	0x3e1ee9d2	0.15518883
244	0x3e06a0fb	0.13147347
245	0xbc53a963	-0.012918803
246	0x3d10c46c	0.035343572
247	0x3d5aec8e	0.053448252
248	0x3bcd8838	0.006272342
249	0xbd00b489	-0.03142217
250	0xbdadaa5e	-0.084797606
251	0xbc5bab9b	-0.013407613
252	0x3e5cc775	0.21560462
253	0xbe6c7d83	-0.23094754
254	0x3e47af93	0.1950057
255	0xbe4fa304	-0.2027703

layer1.0.bn1.weight f4 [8]
0	0x3f338e0d	0.7013863
1	0x3f13dedf	0.5776195
2	0x3f0f19de	0.55898845
3	0x3f733b20	0.9501209
4	0x3e9da322	0.30788523
5	0x3f65155d	0.8948572
6	0x3ea283e6	0.31741256
7	0x3f97640e	1.1827409

layer1.0.bn1.bias f4 [8]
0	0x3e13b0f0	0.14422965
1	0xbe129c4e	-0.14317438
2	0xbdcfc9f3	-0.10145941
3	0x3e90cd4c	0.2828163
4	0xbb20db3f	-0.0024544743
5	0x3ebd8426	0.37014884
6	0x3e9ded5b	0.3084515
7	0xbfc3fefa	-1.5312188

layer1.0.bn1.running_mean f4 [8]
0	0xbf11c672	-0.5694343
1	0xbe80947c	-0.25113285
2	0xbfcc75d4	-1.5973458
3	0xbf4f3e97	-0.8095488
4	0xbe5b8eaf	-0.21441148
5	0xbefa4a06	-0.488846
6	0xbe354e12	-0.17705563
7	0x3ebdb392	0.37051064

layer1.0.bn1.running_var f4 [8]
0	0x3f9e278a	1.2355816
1	0x3f9f418e	1.2441881
2	0x3f39a878	0.7252269
3	0x4026f5dc	2.608756
4	0x3f4e2e39	0.8053928
5	0x40806253	4.0120025
6	0x3ea89690	0.3292737
7	0x3fa3aa3e	1.2786329

layer1.0.conv2.weight f4 [8, 8, 3, 3]
0	0x3c46ea78	0.012140863
1	0xbe66c4f0	-0.22536063
2	0xbea61512	-0.3243795
3	0xbd50f37b	-0.05101345
4	0x3e0b16a5	0.13582857
5	0x3e277a93	0.16355352
6	0x3b420024	0.0029602135
7	0x3d2b6b15	0.04185017
8	0x3e8843a0	0.26614094
9	0xbe769a08	-0.24082196
10	0xbe9479e1	-0.28999236
11	0xbe6cd102	-0.23126605
12	0x3e681f56	0.22668204
13	0x3d598751	0.053107563
14	0xbc976770	-0.01848194
15	0x3c974fcc	0.018470667
16	0xbd09c4d7	-0.033634987
17	0xbe350b2f	-0.17680047
18	0xbdfecdfc	-0.12441632
19	0xbe378e98	-0.17925489
20	0x3d05ef2c	0.032698795
21	0x3dd9e68e	0.10639678
22	0x3bb8a9ac	0.005635461
23	0x3d4f38f3	0.05059142
24	0x3cf429ec	0.029805146
25	0xbd88022a	-0.06641038
26	0xbd78e1e0	-0.060762286
27	0xbe1f75ff	-0.15572356
28	0x3d6e1f28	0.05813518
29	0x3e3d7f90	0.18505692
30	0xbe7cd385	-0.24690063
31	0xbf21f463	-0.6326353
32	0xbe606c1b	-0.21916239
33	0x3d8f8aac	0.070088714
34	0xbde2561a	-0.11051579
35	0x3e9f877f	0.31158063
36	0x3e472828	0.19448912
37	0x3df4ef1a	0.119596675
38	0x3d6e3825	0.058159012
39	0xbd7e026c	-0.06201403
40	0x3cc92622	0.024554316
41	0x3d0357a1	0.03206599
42	0xbd6438b9	-0.055718157
43	0xbe405084	-0.18780714
44	0xbe50bbff	-0.20384215
45	0x3d4dc327	0.05023494
46	0x3c72597c	0.014791843
47	0xbd9fd199	-0.078036495
48	0xbcf3b862	-0.029751007
49	0xbd748e26	-0.059705876
50	0x3e9766c2	0.29570585
51	0xbd9b09b6	-0.075702116
52	0x3dd3d876	0.10344021
53	0x3d9b6aed	0.07588754
54	0xbc8e6091	-0.01738003
55	0xbe4ba4fa	-0.19887152
56	0x3bc97f6d	0.0061492235
57	0xbd422649	-0.047399793
58	0x3dd22855	0.10261599
59	0x3deed4a3	0.11661651
60	0x3df123c5	0.117744006
61	0xbbd9d502	-0.006647707
62	0xbe414359	-0.18873347
63	0xbd5ce858	-0.053932518
64	0xbec3ae35	-0.38218847
65	0xbdd97302	-0.10617639
66	0x3e2b9459	0.16755809
67	0xbeb9130e	-0.3614735
68	0x3eabc057	0.3354518
69	0xbf0734dd	-0.5281504
70	0xbf5f0b89	-0.87126976
71	0xbe4fb701	-0.20284654
72	0x3ec918a8	0.39276624
73	0x3c35e7e4	0.01110265
74	0x3d94b124	0.072603494
75	0x3e844eb2	0.2584129
76	0xbb47242c	-0.003038655
77	0x3c946218	0.018113181
78	0xbe7ff61d	-0.24996229
79	0xbe81820c	-0.2529453
80	0xbd693297	-0.05693301
81	0xbe06b939	-0.13156594
82	0xbe410497	-0.18849407
83	0x3c0a4d9b	0.008441354
84	0xbdbfe7ef	-0.0937041
85	0xbe9dcebb	-0.30821785
86	0x3d8ece68	0.069729626
87	0xbd105eba	-0.03524659
88	0x3d6d6460	0.057957053
89	0xbb024fe7	-0.0019884051
90	0x3e8a32c9	0.2699187
91	0x3d57733d	0.052600134
92	0xbc8576b3	-0.016291952
93	0x3e8f09e8	0.27937245
94	0x3d2a4a2b	0.04157464
95	0x3db63df6	0.08898537
96	0xbd049d5f	-0.032376643
97	0x3d737b3e	0.059443705
98	0x3d9c575f	0.07633852
99	0x3daa832e	0.08325802
100	0x3dedf28f	0.1161853
101	0xbe16cdc0	-0.14726925
102	0x3dfd28c8	0.12361294
103	0x3edc7ea5	0.43065372
104	0xbe074332	-0.13209227
105	0x3deff70d	0.11717043
106	0xbaf67c25	-0.0018805309
107	0xbe0b2fa9	-0.135924
108	0xbe411b00	-0.18857956
109	0xbd92ef55	-0.07174555
110	0x3d29d78f	0.04146534
111	0xbd952779	-0.072829194
112	0x3de4d97e	0.11174296
113	0x3e2526a4	0.16128021
114	0xbd7898cc	-0.060692593
115	0x3e4a8d03	0.19780354
116	0x3da7ef06	0.08199887
117	0x3e4c96a8	0.19979346
118	0xbdca6870	-0.09883201
119	0xbbff3b4a	-0.00778905
120	0x3f26b08a	0.6511313
121	0xbebc487a	-0.36774045
122	0x3d8ae2b8	0.067815244
123	0xbd55e7d8	-0.052223057
124	0xbe43cb67	-0.1912056
125	0xbe2444cf	-0.16041873
126	0x3ba7d568	0.0051218756
127	0xbd2cac3d	-0.042156447
128	0xbd7d7c49	-0.061886106
129	0x3e861faf	0.26196048
130	0xbe24dd79	-0.1610011
131	0xbd8e210b	-0.06939896
132	0x3e4190e4	0.18902928
133	0xbdf51fab	-0.11968931
134	0xbdeb26fa	-0.114820436
135	0x3e30bf73	0.17260532
136	0x3e48cf5f	0.19610356
137	0xbda54340	-0.080694675
138	0x3d8e82a0	0.069585085
139	0x3e9e7854	0.30951178
140	0xbe808f76	-0.25109452
141	0xbe061214	-0.13092834
142	0x3ef1be9b	0.47215733
143	0xbf018f21	-0.5060902
144	0xbc4cea5d	-0.012507048
145	0xbe248fad	-0.16070433
146	0x3d91591d	0.07097075
147	0x3f7e599e	0.99355495
148	0xbebe2c81	-0.3714333
149	0xbefdf65e	-0.49602026
150	0xbf348210	-0.7051096
151	0x3ec86b9d	0.39144602
152	0x3eab6d92	0.33482033
153	0xbda2e761	-0.07954288
154	0x3d8313fb	0.06400295
155	0xbe9d83c9	-0.30764607
156	0xbdb73382	-0.08945371
157	0xbe18e538	-0.1493119
158	0xbf2062bc	-0.62650657
159	0x3d2c33fa	0.042041756
160	0x3ba27ab6	0.004958476
161	0xbe96f21c	-0.2948159
162	0xbd65359b	-0.055959325
163	0x3c94148f	0.01807621
164	0xbd070570	-0.03296417
165	0x3e413046	0.18866071
166	0xbe3d2bfe	-0.18473813
167	0xbcd4b92a	-0.0259672
168	0xbd9bb3c0	-0.07602644
169	0x3d780b44	0.06055762
170	0xbcfb2df4	-0.03066156
171	0xbe4269f4	-0.1898573
172	0x3ea6999d	0.32539073
173	0xbd5f15f3	-0.05446429
174	0xbe854a62	-0.26033312
175	0x3ef7815b	0.48340878
176	0xbd87cbb7	-0.066306524
177	0x3f8287ce	1.0197694
178	0xbfb7d657	-1.4362286
179	0x3eac2603	0.3362275
180	0xbd701c8a	-0.058620967
181	0xbe173f22	-0.14770177
182	0xbd3279e1	-0.043573264
183	0x3e1a3d4f	0.1506245
184	0x3d877b29	0.06615288
185	0x3e264c32	0.16240004
186	0xbe8ce10e	-0.27515453
187	0x3e29960b	0.16561143
188	0xbd5366eb	-0.051611822
189	0x3f9fbcfe	1.2479551
190	0xbf05bbb2	-0.52239525
191	0xbe81d0f3	-0.25354728
192	0xbf2acbc9	-0.667172
193	0xbcc65e50	-0.024214894
194	0x3dd44f04	0.103666335
195	0xbf4af095	-0.7927335
196	0x3f29987f	0.66248316
197	0x3e39b7aa	0.18136469
198	0xbe217514	-0.15767318
199	0x3d88b45e	0.06675027
200	0xba931fd8	-0.00112247
201	0x3ec2ffb2	0.38085705
202	0xbefb93f9	-0.49136332
203	0x3df7303f	0.12069749
204	0xbeaf0fd4	-0.34191763
205	0x3ec5f4d8	0.38663363
206	0xbc55f19f	-0.013058095
207	0xbe014469	-0.12623753
208	0x3db3f81b	0.08787557
209	0x3dc5c3bc	0.09656474
210	0xbd4cbb90	-0.04998356
211	0x3d474d48	0.048657686
212	0xbdf44bb1	-0.119284995
213	0x3c8f835c	0.017518692
214	0x3c330b9e	0.010928063
215	0xbd374c18	-0.044750303
216	0x3da2b6ef	0.07945048
217	0x3deddafc	0.116140336
218	0x3e2ff500	0.17183304
219	0xbdb71a86	-0.08940606
220	0xbd8ce0f7	-0.06878846
221	0x3e77000a	0.24121109
222	0x3c2adb73	0.010428297
223	0xbe5c6414	-0.21522552
224	0xbdcbfd4a	-0.099604204
225	0xbcbc7081	-0.023002865
226	0xbc9c091e	-0.019047316
227	0x3e587882	0.2113972
228	0x3c8b7ac3	0.01702631
229	0x3cc5e085	0.02415491
230	0x3e90d7fa	0.28289777
231	0xbd04dc93	-0.03243692
232	0x3d8e18e1	0.06938339
233	0x3e5f838f	0.2182753
234	0x3d7271b4	0.059190467
235	0x3dd01f82	0.1016226
236	0xbdba0668	-0.09083253
237	0xbd03c963	-0.03217448
238	0x3e158fb8	0.14605606
239	0x3d91863a	0.0710568
240	0xbe626c13	-0.2211154
241	0x3d320dce	0.043470196
242	0xbe0b0312	-0.1357539
243	0xbe8a1188	-0.269665
244	0x3cd78f6e	0.02631351
245	0x3b46b32a	0.0030319192
246	0x3c2aa1b3	0.010414529
247	0xbddac17e	-0.10681437
248	0xbe7d5d16	-0.2474254
249	0x3df36a30	0.11885488
250	0x3e5a2bc0	0.21305752
251	0xbe30301e	-0.17205855
252	0x3e68ab4a	0.22721592
253	0xbe1879eb	-0.14890258
254	0xbe14e3b9	-0.14539994
255	0x3d2cbb77	0.042170968

layer1.0.bn2.weight f4 [8]
0	0x3efefb0b	0.49800906
1	0x3f2f3e01	0.68453985
2	0x3fde0042	1.7343829
3	0x3eb709d5	0.3574969
4	0x3f4a1ba4	0.78948426
5	0x3f897422	1.0738566
6	0x3f30d540	0.69075394
7	0x3ed45f83	0.4147912

layer1.0.bn2.bias f4 [8]
0	0x3e6c27ea	0.23062101
1	0x3f2ab3f6	0.6668085
2	0xbf1995d5	-0.5999425
3	0x3f1eb649	0.61996895
4	0x3eb17473	0.34659156
5	0x3f1176de	0.56822
6	0x3ec4bb4a	0.3842414
7	0xbf07bae3	-0.5301954

layer1.0.bn2.running_mean f4 [8]
0	0xbed9c54e	-0.42533344
1	0x3e82bbf8	0.25534034
2	0xbdfc75f2	-0.12327184
3	0xbea73fb3	-0.32665786
4	0x3f68da7b	0.90958375
5	0xbede4fa8	-0.43420148
6	0xbd453100	-0.048142433
7	0xbdc1cf65	-0.094633855

layer1.0.bn2.running_var f4 [8]
0	0x3f02fef3	0.5117027
1	0x3ec0cc43	0.3765584
2	0x3f99d4fe	1.2018125
3	0x3e5ab40e	0.21357748
4	0x3eea6880	0.45782852
5	0x3f296eb8	0.6618457
6	0x3ebde153	0.3708597
7	0x3e3e2c8e	0.18571684

layer2.0.conv1.weight f4 [16, 8, 3, 3]
0	0xbe8cc471	-0.27493623
1	0xbca30914	-0.01990179
2	0x3d819d38	0.06328815
3	0xbbcfc8e6	-0.0063410876
4	0x3d4533f7	0.04814526
5	0x3bf50a35	0.0074780234
6	0x3e49c307	0.19703303
7	0x3ec369d9	0.38166693
8	0x3e887371	0.26650575
9	0x3cce98eb	0.025219401
10	0x3d96f9b6	0.07371847
11	0xbdeb129b	-0.11478158
12	0x3cf235d4	0.029566683
13	0x3c17659c	0.009240534
14	0xbe0845a6	-0.13307819
15	0xb9c76588	-0.00038031884
16	0x3cd6da5c	0.026227169
17	0x3dc42acc	0.09578475
18	0x3e3cd1b9	0.18439378
19	0x3eb7913c	0.35852993
20	0x3e793401	0.24336244
21	0x3e8e0b19	0.27742842
22	0x3ece2477	0.40262195
23	0x3eef9726	0.46795005
24	0x3e200f9f	0.15630959
25	0x3ecc938a	0.39956313
26	0x3e8bc48a	0.27298385
27	0x3b3a2fc6	0.0028409823
28	0x3a9c68f8	0.0011933139
29	0x3cf2c892	0.029636655
30	0xbd7ac9e6	-0.0612277
31	0x3c422666	0.011849975
32	0x3c045d74	0.008078922
33	0x3d70ce0f	0.058790263
34	0x3e2d36bb	0.1691541
35	0x3dd4fc56	0.10399692
36	0xbc93e543	-0.018053656
37	0xbdc5278d	-0.09626684
38	0xbd8c73f6	-0.06858055
39	0x3dfe7669	0.12424929
40	0x3e1f2053	0.15539674
41	0x3db111d8	0.086459816
42	0x3e564f8f	0.20928787
43	0x3ec37802	0.38177496
44	0x3e829312	0.2550283
45	0xbe584ec2	-0.21123794
46	0xbd4896fa	-0.048972107
47	0x3ddbcf99	0.107329555
48	0xbe177472	-0.14790514
49	0xbe7e1338	-0.24812019
50	0xbd1ab3a0	-0.03776896
51	0x3deccb5b	0.115622245
52	0x3d017ce6	0.031613253
53	0xbdd0f297	-0.1020252
54	0xbdc6cf0b	-0.09707459
55	0xbd9465b3	-0.0724596
56	0xbc9f5e1a	-0.01945405
57	0x3ddab338	0.106787145
58	0x3d75f6b2	0.06004972
59	0xbdbd4c62	-0.092430845
60	0x3ebc8855	0.36822763
61	0x3e7c17f3	0.24618511
62	0xbd346868	-0.044044882
63	0xbbbc42dd	-0.0057452754
64	0xbd6ace76	-0.057325803
65	0x3ca86aa7	0.020558668
66	0x3d8af951	0.067858346
67	0x3d339106	0.043839477
68	0x3ae21956	0.0017249982
69	0xba0a5cbb	-0.00052781
70	0xbb6aa65a	-0.003580472
71	0x3ae4ab92	0.0017446151
72	0x3ea74f71	0.32677796
73	0x3ea2954b	0.31754526
74	0x3e55e8b6	0.20889553
75	0x3e739bb3	0.23789863
76	0x3f08c7bd	0.53429776
77	0x3e9d68b0	0.30743933
78	0xbf34dbc3	-0.7064783
79	0xbf4c6def	-0.79855245
80	0xbf319a0e	-0.69375694
81	0xbcf730ac	-0.030174576
82	0x3d1bb356	0.038012825
83	0x3b0bce63	0.0021332733
84	0xbe02441e	-0.12721297
85	0xbe67e109	-0.22644438
86	0xbdb2b77d	-0.08726404
87	0x3e15551b	0.14583246
88	0x3dd55e32	0.10418357
89	0xbd8ed3f1	-0.06974018
90	0xbd4143dd	-0.04718386
91	0xbcd7c4c8	-0.02633895
92	0xba382b54	-0.00070254994
93	0xbc5a65cb	-0.013329933
94	0xbe25e06f	-0.16198896
95	0xbda52103	-0.08062937
96	0x3dec2eec	0.11532387
97	0x3da74165	0.0816677
98	0x3d5f756b	0.054555338
99	0x3d2a25bb	0.04153989
100	0xbcdb7a1c	-0.026791625
101	0xbabb8f50	-0.0014309678
102	0x3d69f928	0.05712238
103	0x3e3d39a1	0.18479015
104	0x3dc6d682	0.09708883
105	0xbd80ca9a	-0.06288643
106	0xbe28bd25	-0.16478403
107	0xbdf23532	-0.118265525
108	0x3cbbd16d	0.02292701
109	0xbd897e3a	-0.06713529
110	0xbcdb2f83	-0.026756054
111	0x3dae692e	0.08516155
112	0x3e4b69f6	0.1986464
113	0x3d02e60d	0.031957675
114	0xbe6cb389	-0.23115362
115	0xbe3d5e99	-0.18493117
116	0xbe01e5fe	-0.12685391
117	0xbe368760	-0.17825079
118	0xbe505fe9	-0.20349087
119	0xbe431645	-0.19051464
120	0x3e840861	0.25787643
121	0x3f211896	0.6292814
122	0x3f0e54cb	0.55598134
123	0x3c3ccccd	0.011523438
124	0xbec0c9ba	-0.37653905
125	0xbeb036ec	-0.34416902
126	0xbbedaa19	-0.0072529432
127	0xbd0bd417	-0.03413781
128	0x3dc96993	0.0983459
129	0x3ea43643	0.32072648
130	0x3e4881cb	0.19580762
131	0x3dd7024e	0.104984865
132	0xbe84e175	-0.2595326
133	0xbea21389	-0.3165553
134	0xbd54771f	-0.051871415
135	0x3c80e9e4	0.015736528
136	0x3b93b097	0.004507135
137	0xbbf78ed8	-0.00755487
138	0xbcc587f6	-0.024112683
139	0x3cedb531	0.029017063
140	0x3d2e953b	0.042622786
141	0xbcdeedcc	-0.027213
142	0xbc04925b	-0.0080915345
143	0xbc8ca72d	-0.01716956
144	0xbdac7291	-0.08420289
145	0x3bd7e581	0.0065886383
146	0x3c6ac532	0.014329242
147	0xbe84ed55	-0.2596232
148	0x3d7a2b3f	0.0610764
149	0x3e70fc55	0.23533757
150	0x3e4caa4d	0.1998684
151	0x3e1f0a63	0.15531306
152	0x3e9b4b6b	0.30330977
153	0x3def04e5	0.116708554
154	0xbdad1a35	-0.08452264
155	0xbd844ea4	-0.06460312
156	0xbac2d4e4	-0.0014864472
157	0xbeb7ba11	-0.35884145
158	0xbe2f7bb8	-0.17137039
159	0xbd992560	-0.07477832
160	0xbe6fe5dd	-0.2342753
161	0xbe4e1f0b	-0.2012903
162	0x3c8d7b51	0.017270716
163	0xbd2ea93a	-0.042641856
164	0xbddd0a38	-0.10792965
165	0x3d871bcf	0.06597101
166	0xbd0dc5e0	-0.034612536
167	0xbd93907f	-0.07205295
168	0x3d3a8b53	0.045543026
169	0xbd888db4	-0.06667653
170	0x3c76a79c	0.01505461
171	0xbd86df4d	-0.0658556
172	0x3c28bc10	0.010298744
173	0xbd33746e	-0.043812208
174	0x3da4ff4b	0.08056506
175	0x3d3ffeaf	0.046873745
176	0x3daf041f	0.08545708
177	0xbcbc3b5b	-0.022977522
178	0xbd462556	-0.04837545
179	0x3d10cd84	0.035352245
180	0xbdfaa26b	-0.1223801
181	0x3e0a618c	0.13513774
182	0x3ea8c5e0	0.32963467
183	0xbeada840	-0.33917427
184	0xbdba11fe	-0.09085463
185	0x3eb97c64	0.36227715
186	0xbe1ef4d8	-0.15523088
187	0x3dbbb692	0.09165682
188	0x3e3a30be	0.18182656
189	0x3cd623e2	0.026140157
190	0x3ea72bef	0.32650706
191	0x3d24a0ad	0.040192295
192	0x3e8d8d57	0.27646896
193	0x3f200829	0.6251245
194	0x3dd14628	0.10218459
195	0x3e87d659	0.26530722
196	0x3e9dab4c	0.30794752
197	0x3d507fab	0.050903004
198	0x3d1daa1a	0.0384923
199	0x3d320c99	0.043469045
200	0x3d4e4fbd	0.050369013
201	0xbd5f4989	-0.054513488
202	0x3e1306fd	0.14358135
203	0x3dd4bd23	0.103876375
204	0xbbf2a68b	-0.0074051074
205	0x3dee30b2	0.11630382
206	0x3e041750	0.12899518
207	0xbdb27977	-0.08714574
208	0x3cfcea02	0.030873302
209	0xbd3da62b	-0.04630105
210	0xbdc75260	-0.09732509
211	0x3ddaacd4	0.106774956
212	0x3d0a0c1e	0.033702962
213	0xbd7cee6c	-0.061750814
214	0x3d82fe12	0.06396116
215	0xbd3105fe	-0.043218605
216	0x3cc8386b	0.024440965
217	0x3c73a513	0.0148709
218	0x3d85ace4	0.06527117
219	0x3d8a5e09	0.06756217
220	0xbd61ef12	-0.055159636
221	0xbd0e18f6	-0.034691773
222	0x3cce8185	0.025208244
223	0xbe0b9545	-0.1363116
224	0xbc368f7c	-0.011142608
225	0xbde724de	-0.11286329
226	0xbe5624b3	-0.20912437
227	0xbd0899be	-0.033349745
228	0xbe5a2a9d	-0.21305318
229	0x3cfe1b96	0.031019013
230	0x3e227581	0.15865137
231	0xbe46e590	-0.19423509
232	0x3ddadbd9	0.10686464
233	0x3e0016dd	0.12508722
234	0x3d526d93	0.05137403
235	0x3c890494	0.016725816
236	0xbce926ab	-0.028460821
237	0xbda2f537	-0.07956927
238	0xbd93f5c5	-0.07224611
239	0x3dccc7aa	0.099990204
240	0xbd0b1288	-0.03395322
241	0x3c8cf7e0	0.01720804
242	0x3d75df7a	0.060027577
243	0x3f084216	0.5322584
244	0x3ef1aeb4	0.472036
245	0xbe4df97a	-0.20114699
246	0x3f3ce777	0.7379069
247	0x3dcce139	0.10003895
248	0xbf189cdb	-0.5961434
249	0x3d0bcaca	0.03412894
250	0xbec11a0f	-0.37715194
251	0xbf27a512	-0.6548625
252	0xbd5d2b46	-0.053996347
253	0xbcad2817	-0.02113728
254	0xbd909d01	-0.07061196
255	0xbcedabb4	-0.029012538

layer2.0.bn1.weight f4 [16]
0	0x3ed16844	0.4089986
1	0x3f2cc761	0.6749173
2	0x3f0a2919	0.5396896
3	0x3f055def	0.52096456
4	0x3f2bf090	0.67163944
5	0x3f36fb3e	0.71477115
6	0x3eecc88f	0.46246764
7	0x3f0fc5b9	0.56161076
8	0x3ee47dc9	0.44627216
9	0x3f958b1d	1.1683079
10	0x3f611296	0.87918985
11	0x3f2bc50b	0.6709754
12	0x3f95c861	1.1701776
13	0x3f23ce60	0.6398678
14	0x3f402ae5	0.7506545
15	0x3eb44a59	0.35212973

layer2.0.bn1.bias f4 [16]
0	0x3e935a4d	0.28779832
1	0xbd72073c	-0.05908893
2	0x3e21f425	0.1581579
3	0xbc76363c	-0.015027579
4	0xbcb9c993	-0.022679126
5	0xbe07e807	-0.13272105
6	0x3e4d3304	0.20038992
7	0x3e9c9eeb	0.30589995
8	0x3ef697fd	0.48162833
9	0xbf1377b7	-0.57604545
10	0xbe1403e9	-0.14454617
11	0xbd26b54e	-0.04070025
12	0xbf86e42d	-1.0538384
13	0x3e0e4cb3	0.13896446
14	0xbe0f212d	-0.139775
15	0x3eea9fab	0.45824942

layer2.0.bn1.running_mean f4 [16]
0	0x4034a942	2.8228307
1	0xbf1a8808	-0.6036382
2	0x40297531	2.6477778
3	0xbf53b5a3	-0.8269903
4	0xbfa108b8	-1.2580786
5	0xbf133470	-0.5750189
6	0xc01d64b8	-2.4592724
7	0xbdfda93f	-0.12385797
8	0xbd47e8f3	-0.048806142
9	0xbfe2dd9a	-1.7723877
10	0xbfc42435	-1.532355
11	0xbf1d4c8d	-0.6144493
12	0xbe30faaf	-0.17283128
13	0xc0521839	-3.2827284
14	0xbf25c764	-0.6475737
15	0xc050e8d3	-3.2642105

layer2.0.bn1.running_var f4 [16]
0	0x407ecabc	3.981124
1	0x408b1f22	4.3475504
2	0x4057b59d	3.3704598
3	0x3f8b3193	1.0874504
4	0x40679e39	3.6190321
5	0x40812ee3	4.0369735
6	0x3fd57ead	1.6679283
7	0x407ceeca	3.9520745
8	0x3f9bdf6e	1.217756
9	0x40ac2fd6	5.3808393
10	0x4071c220	3.7774734
11	0x406f5dc6	3.7400985
12	0x402c9087	2.6963212
13	0x408cfef5	4.4061227
14	0x4093d806	4.62012
15	0x3fbb6b5d	1.464214

layer2.0.conv2.weight f4 [16, 16, 3, 3]
0	0xbe36558e	-0.17806074
1	0xb985729a	-0.00025453122
2	0x3d69c5e6	0.057073496
3	0x3d2b50c2	0.041825064
4	0x3ecde708	0.40215325
5	0xbe317e3d	-0.17333312
6	0x3dbe93fd	0.0930557
7	0x3cfa283b	0.030536762
8	0xbe20e374	-0.15711766
9	0xbdb72d2b	-0.08944162
10	0x3c98204a	0.018570084
11	0xbd5b7e69	-0.05358735
12	0xbe36fcc4	-0.1786986
13	0xbd553aa6	-0.052057885
14	0x3ccfc77a	0.025363673
15	0x3bb836d9	0.0056217727
16	0xbda0ec23	-0.078575395
17	0xbbb7f79b	-0.0056142337
18	0xbe8534d2	-0.2601686
19	0x3d8f0a0a	0.06984337
20	0xbd707e29	-0.058714066
21	0xbddc07c3	-0.10743668
22	0x3eed2c71	0.4632297
23	0x3ef3b437	0.4759843
24	0x3dd6088e	0.104508504
25	0xbe8d1355	-0.27553812
26	0xbeb5d358	-0.35512805
27	0x3dae5559	0.085123725
28	0x3b05b48b	0.0020401801
29	0xbd9d99d5	-0.07695357
30	0xbe09714c	-0.13422126
31	0xbd618a6b	-0.055063646
32	0xbd7aea7c	-0.061258778
33	0xbd50dd97	-0.050992575
34	0xbd7d20c4	-0.061798826
35	0x3aa1463c	0.0012304257
36	0x3e1899ae	0.14902374
37	0x3e5166f8	0.20449436
38	0xbe204c33	-0.15654068
39	0x3e23c047	0.15991317
40	0xbcf075a4	-0.02935297
41	0xbc285b39	-0.010275655
42	0x3b79f2c1	0.0038139077
43	0x3e38f739	0.18063058
44	0x3b4e7ebb	0.0031508643
45	0xbdc93072	-0.09823693
46	0xbd5bf50b	-0.053700488
47	0x3cd66b89	0.026174324
48	0x3c6c54c2	0.014424505
49	0xbd8b5b74	-0.06804553
50	0xbda7c9cc	-0.081927866
51	0xbdbca6e2	-0.09211518
52	0xbd9c2c22	-0.07625605
53	0x3d10a58e	0.035314135
54	0x3d051777	0.03249308
55	0xbdeaa9e6	-0.11458187
56	0xbd70e250	-0.05880958
57	0x3debcb36	0.11513369
58	0x3d44ef78	0.048079938
59	0x3d34f945	0.044183034
60	0xbe6d9a98	-0.23203504
61	0xbc526da5	-0.012843524
62	0x3e35f0d4	0.1776765
63	0x3e76b3bd	0.24092002
64	0xbe304e1b	-0.17217295
65	0xbe901e33	-0.2814804
66	0xbe813f16	-0.25243443
67	0xbe531c4f	-0.20616268
68	0x3de1e534	0.11030045
69	0xbe13b02c	-0.14422673
70	0x3d744558	0.059636444
71	0x3e6e3adb	0.23264639
72	0x3dc5d508	0.09659773
73	0x3a91b672	0.0011116995
74	0xbdc4c1aa	-0.09607251
75	0x3dc091aa	0.09402783
76	0xbe158aef	-0.1460378
77	0x3dc6f0d8	0.09713906
78	0xbda8a78a	-0.082350805
79	0xbd680409	-0.056644473
80	0x3c8386a8	0.01605542
81	0x3e1099a5	0.1412111
82	0xbdfccaae	-0.123433456
83	0xbe88d64a	-0.2672599
84	0xbe87e996	-0.265454
85	0xbe1b75cc	-0.15181655
86	0x3ba4793d	0.0050193355
87	0xbc990d9d	-0.01868325
88	0x3c0ac4a3	0.008469733
89	0x3d931766	0.07182197
90	0x3d9a1ad7	0.075246505
91	0x3ced073e	0.028934117
92	0xbd96e86a	-0.07368548
93	0x3d4385ac	0.0477349
94	0x3ecf8da0	0.4053774
95	0x3e217d2b	0.15770404
96	0xbd6e92fd	-0.058245648
97	0x3e42a0a5	0.19006594
98	0x3e8fc3ee	0.2807917
99	0x3d445b21	0.04793847
100	0xbe31540b	-0.17317216
101	0xbe226171	-0.15857483
102	0xbb917fdf	-0.0044402923
103	0xbdb1e59b	-0.08686372
104	0xbe6a0bfe	-0.22856137
105	0x3c2bc0a1	0.010482938
106	0xbea25ff7	-0.3171384
107	0xbe66a36a	-0.22523275
108	0x3d8ed120	0.06973481
109	0xbe0e90bd	-0.13922401
110	0x3e66c357	0.22535454
111	0xbe054ac7	-0.13016807
112	0xbe969408	-0.29409814
113	0xbe0269a2	-0.12735608
114	0xbcd25e13	-0.025679624
115	0xbd9ed207	-0.07754903
116	0x3dab72a6	0.08371477
117	0x3ea7a892	0.32745796
118	0x3e22b7ab	0.15890376
119	0xbebb3491	-0.36563542
120	0x3eda2fd0	0.42614603
121	0x3d052189	0.032502685
122	0xbef4b594	-0.47794783
123	0xbe852955	-0.26008096
124	0xbe55d7a0	-0.20883036
125	0x3dbc8ad5	0.092061676
126	0xbe173508	-0.14766324
127	0x3bf5c051	0.0074997325
128	0xbe39cbd4	-0.1814416
129	0xbe03d7df	-0.12875317
130	0xbde7e9c4	-0.11323884
131	0xbe79cae5	-0.24393804
132	0xbd538cb7	-0.051647868
133	0xbec8531b	-0.39125904
134	0xbd71e77e	-0.05905866
135	0xbe01b686	-0.12667283
136	0xbce46afb	-0.027883044
137	0xbd0b6ce8	-0.034039408
138	0x3dc7efe9	0.09762556
139	0xbc3f43bd	-0.011673865
140	0xbda84ed1	-0.08218158
141	0xbd200e27	-0.039075997
142	0xbaa6a6c2	-0.0012714493
143	0x3e01f0b8	0.12689483
144	0xbd9822b0	-0.07428491
145	0xbcc934af	-0.024561254
146	0xbd19db59	-0.0375627
147	0x3c0c4682	0.008561732
148	0xbd04e9eb	-0.032449644
149	0x3d083912	0.03325755
150	0xbd410259	-0.04712138
151	0xbd78f6e3	-0.060782325
152	0x3c80e7c8	0.015735522
153	0x3c6ca1d3	0.014442879
154	0x3d564da0	0.052320123
155	0x3d3a812c	0.045533344
156	0x3d94cce5	0.07265643
157	0x3ce80398	0.028322026
158	0xbc70f8e1	-0.014707775
159	0x3d4962bc	0.049166426
160	0xbcb9fbbc	-0.022703044
161	0xbbb4259b	-0.005497647
162	0xbdb2eff3	-0.08737173
163	0xbe3184fa	-0.17335883
164	0xbd607bcf	-0.054805573
165	0x3d7edb74	0.062221006
166	0xbdd5662a	-0.10419877
167	0xbdc4fbae	-0.096183166
168	0x3d863bc6	0.0655437
169	0x3dc5c00f	0.09655773
170	0xbb605dae	-0.0034235525
171	0x3d3203ff	0.043460842
172	0xbd40c0b3	-0.047058772
173	0x3cab6666	0.02092285
174	0x3d6689e7	0.056283858
175	0x3e833301	0.2562485
176	0x3d51ac3c	0.051189646
177	0xbc978cce	-0.018499758
178	0x3e4bf978	0.19919384
179	0x3dc1abda	0.09456606
180	0xbde166ba	-0.11005922
181	0x3ca60b25	0.020268986
182	0xbdb985eb	-0.09058746
183	0xbdcc0877	-0.09962552
184	0xbdd6cebe	-0.10488652
185	0xbc11ef22	-0.008907111
186	0xbdada4b0	-0.08478677
187	0xbdd4d7bd	-0.10392711
188	0xbbab7f78	-0.0052337013
189	0xbc7c99a5	-0.015417491
190	0xbd4f2506	-0.050572418
191	0x3d4baec9	0.049727235
192	0xbc7725ca	-0.015084693
193	0xbd947e96	-0.07250707
194	0x3c973769	0.018459039
195	0xbd499c0b	-0.04922108
196	0xbda3a30c	-0.07990083
197	0xbdc78e60	-0.09743953
198	0x3dea4648	0.11439186
199	0x3e92764f	0.28605887
200	0x3d21bcea	0.039486803
201	0xbdd3ce3e	-0.10342072
202	0x3ded8b63	0.115988515
203	0xbbec3476	-0.0072084023
204	0xbd7edcdd	-0.06222235
205	0x3c036355	0.008019288
206	0x3d95c8e9	0.07313711
207	0x3d3c580c	0.045982406
208	0x3d677f9c	0.056518182
209	0x3db5652f	0.0885719
210	0xbb81d238	-0.0039618276
211	0x3d80e7b0	0.06294191
212	0x3c1917aa	0.009344021
213	0xbd78c80a	-0.060737647
214	0x3d80039a	0.06250687
215	0x3d857f5c	0.065184325
216	0xbe02200e	-0.1270754
217	0xbda5d777	-0.08097737
218	0x3d284578	0.041081876
219	0xbd832d23	-0.064050935
220	0xbdbe4aa0	-0.09291577
221	0x3c8563c9	0.016282933
222	0x3c83f19d	0.016106421
223	0x3dda9307	0.106725745
224	0x3dd9a877	0.10627835
225	0x3dc8f22f	0.09811818
226	0x3d24c0f9	0.040223096
227	0x3d7c7413	0.061634135
228	0xbd828512	-0.063730374
229	0xbd239325	-0.03993525
230	0xbdcdcf02	-0.10049249
231	0xbbe77509	-0.007063512
232	0xbda95af4	-0.08269301
233	0xbdcb197c	-0.0991697
234	0xbc648cec	-0.013949614
235	0x3d53268a	0.051550426
236	0x3d8d7c95	0.06908528
237	0x3d3dba84	0.046320453
238	0xbdcab592	-0.09897913
239	0x3d8a8b94	0.06764904
240	0x3c2b35fa	0.010449881
241	0xbc944dad	-0.018103445
242	0xbd89bf75	-0.06725971
243	0xbd3e9140	-0.04652524
244	0xbd1092f3	-0.03529639
245	0xbc60165a	-0.013677204
246	0xbd458968	-0.048226744
247	0xbd333ca5	-0.043759007
248	0xbc979cb1	-0.018507333
249	0x3d8f4817	0.06996172
250	0x3d4f36e1	0.050589446
251	0xbcd1da1f	-0.025616704
252	0xbdecbd64	-0.11559561
253	0xbd8f9d34	-0.07012406
254	0xbdf3545f	-0.11881327
255	0xbddb952f	-0.10721814

layer2.0.bn2.weight f4 [16]
0	0x3f5ccd41	0.8625069
1	0x3f074a85	0.5284808
2	0x3f9a6ff0	1.2065411
3	0x3eeb70c2	0.45984465
4	0x3f0fab89	0.56121117
5	0x3f14e789	0.58165795
6	0x3f1c9b18	0.61174154
7	0x3f52ba42	0.82315457
8	0x3f1a7084	0.60327935
9	0x3f3d1f54	0.7387593
10	0x3f60f723	0.878771
11	0x3f272fae	0.6530713
12	0x3f864c16	1.049197
13	0x3f35fde4	0.7109053
14	0x3f0fbcfb	0.56147736
15	0x3f290a88	0.66031694

layer2.0.bn2.bias f4 [16]
0	0xbd78ea0b	-0.060770076
1	0xbe5d92d9	-0.21638049
2	0xbe11af3f	-0.14227007
3	0x3e990e9f	0.29893968
4	0x3e9538da	0.29144937
5	0x3eb15953	0.3463846
6	0x3eeef78d	0.4667324
7	0x3e0e5c5d	0.13902421
8	0x3e713ee8	0.23559153
9	0x3ea37e60	0.31932354
10	0xbdbf8c49	-0.09352929
11	0x3df82319	0.12116069
12	0xbe218ca6	-0.1577631
13	0x3e67cc7e	0.22636601
14	0x3d659029	0.056045685
15	0x3eb61133	0.35559997

layer2.0.bn2.running_mean f4 [16]
0	0xbf3eac6a	-0.74481833
1	0xbe8d1d9e	-0.2756166
2	0xbec9cda5	-0.39414707
3	0xbe480ea2	-0.19536832
4	0xbf991f9e	-1.1962774
5	0x3e79d2b6	0.24396786
6	0xbf02bd59	-0.5107017
7	0x3e42e67f	0.1903324
8	0x3f473859	0.77820355
9	0xbe9e3e6a	-0.30906993
10	0xbced5c33	-0.028974628
11	0xbf41ade8	-0.75655985
12	0xbefaaed9	-0.48961523
13	0x3f8ea2ad	1.1143395
14	0xbf64cd23	-0.89375514
15	0xbfd14e24	-1.6351972

layer2.0.bn2.running_var f4 [16]
0	0x3f442673	0.7662117
1	0x3e82d624	0.25554
2	0x3f37344e	0.71564186
3	0x3eb05a23	0.3444377
4	0x3f1fab8c	0.62371135
5	0x3f72fc75	0.9491647
6	0x3f394f48	0.723866
7	0x3f6921cf	0.9106721
8	0x3f339fa4	0.7016547
9	0x3f6e9343	0.93193454
10	0x3f1b186b	0.60584134
11	0x3f059d69	0.52193314
12	0x3f054cf8	0.5207057
13	0x3f6e8d77	0.9318461
14	0x3ec6e645	0.38847557
15	0x3f1ccedd	0.6125315

layer2.0.shortcut.0.weight f4 [16, 8, 1, 1]
0	0x3c196656	0.009362778
1	0x3d32e250	0.04367286
2	0x3db24335	0.08704225
3	0xbcb1169a	-0.021617223
4	0xbee942de	-0.45558828
5	0x3ea26c19	0.31723097
6	0xbe30f381	-0.1728039
7	0x3da18dcc	0.07888374
8	0xbd99d058	-0.075104415
9	0x3e47e481	0.19520761
10	0x3c8aed8c	0.016958974
11	0xbf3710c1	-0.7150994
12	0xbde3a9fa	-0.11116405
13	0xbd91cc3f	-0.07119035
14	0x3efe9eac	0.49730432
15	0x3e1be34e	0.15223429
16	0xbdfd56ab	-0.12370046
17	0xbd8292e9	-0.06375677
18	0xbea0243d	-0.31277648
19	0xbdfda120	-0.12384248
20	0x3e1a3219	0.15058173
21	0xbccdcce8	-0.025122121
22	0xbdc6653b	-0.09687277
23	0x3e3790ed	0.17926379
24	0x3e6eaef5	0.23308928
25	0xbdc95446	-0.09830527
26	0x3bffde45	0.007808479
27	0xbe99caba	-0.3003748
28	0xbec93713	-0.3929983
29	0x3b146ba1	0.002264716
30	0x3d327092	0.043564387
31	0x3f1d4977	0.61440223
32	0xbdcd5a2d	-0.10026965
33	0x3e467d94	0.19383842
34	0xbd70b9e6	-0.058771037
35	0x3ea7c548	0.327677
36	0xbe7818fa	-0.24228278
37	0x3e0b564b	0.13607137
38	0x3e1d8aa0	0.15384912
39	0x3f4075b0	0.75179577
40	0xbf1008ca	-0.5626341
41	0xbd8dda00	-0.06926346
42	0xbb86f04b	-0.0041180006
43	0xbd75085b	-0.05982242
44	0x3e576159	0.21033229
45	0xbc44e4a4	-0.012017403
46	0xbde682f2	-0.112554446
47	0x3f011f05	0.5043796
48	0x3f12ac65	0.57294303
49	0x3da8b30e	0.08237277
50	0x3e198148	0.14990723
51	0x3c3592a2	0.011082323
52	0x3e2a8406	0.16651925
53	0x3d5e6b59	0.054301593
54	0x3ea7eb1e	0.32796568
55	0xbd73fee8	-0.05956927
56	0x3f33a2a8	0.7017007
57	0x3d78fcc6	0.06078794
58	0x3d2cba1a	0.042169668
59	0x3aba909e	0.0014233773
60	0x3c38052d	0.011231703
61	0xbc7e61c0	-0.015526235
62	0x3e3b2b06	0.18278131
63	0x3ce7faf6	0.02831791
64	0x3dc7a58a	0.09748371
65	0xbe65d1c4	-0.224433
66	0xbe0de561	-0.13857032
67	0x3e7a1466	0.24421844
68	0x3ec0c750	0.37652063
69	0xbe8b8246	-0.27247828
70	0xbdd46a3a	-0.103718236
71	0x3d8ab45f	0.06772684
72	0xbebeeb69	-0.3728898
73	0xbd91995b	-0.07109328
74	0xbdb31698	-0.08744544
75	0xbe431b18	-0.19053304
76	0xba4cb405	-0.00078088074
77	0xbdc78e60	-0.09743953
78	0xbe5d8fba	-0.21636859
79	0xbe9f62e6	-0.3113014
80	0xbf29da85	-0.6634906
81	0xbda0e10a	-0.07855423
82	0x3d13b192	0.036058016
83	0xbcc146b4	-0.023593284
84	0xbdd44cdb	-0.103662215
85	0x3cb84ddb	0.022498062
86	0x3df51ac1	0.119679935
87	0xbe66afb0	-0.22527957
88	0x3dda3e7b	0.106564485
89	0x3eededfa	0.46470624
90	0x3d4c8ce3	0.049939048
91	0x3d28d347	0.041217115
92	0xbcb5e81c	-0.022205405
93	0x3e83c086	0.2573282
94	0xbd74413f	-0.059632536
95	0xbe884e21	-0.26622108
96	0xbdab8f4a	-0.083769396
97	0x3e5d4312	0.21607617
98	0x3cbae8aa	0.022816021
99	0xbe4555f7	-0.19271074
100	0x3ea1d2d3	0.3160616
101	0x3de34903	0.1109791
102	0x3d2e18f8	0.04250428
103	0xbdfe238e	-0.12409125
104	0x3ed4bd27	0.41550562
105	0xbe637b89	-0.22215094
106	0xbd11c4c7	-0.035588052
107	0x3e1e448f	0.1545584
108	0xbdb486fa	-0.08814807
109	0xbd52c896	-0.051460825
110	0x3e731a48	0.23740494
111	0x3d1a642a	0.03769318
112	0x3d5d19b7	0.0539796
113	0xbf17e264	-0.5932982
114	0x3dce4052	0.10070862
115	0x3f1e898e	0.6192864
116	0xbdb28727	-0.087171845
117	0xbcf3fd95	-0.029784003
118	0xbec84837	-0.39117596
119	0x3e5ed79e	0.21761939
120	0x3f1ad9bc	0.60488486
121	0xbe2827c3	-0.16421418
122	0xbd20e0c6	-0.03927686
123	0x3cdfff17	0.027343316
124	0xbdf5520f	-0.11978542
125	0xbea314eb	-0.31851897
126	0x3de63632	0.11240806
127	0xbe68e813	-0.2274478

layer2.0.shortcut.1.weight f4 [16]
0	0x3e84003a	0.25781423
1	0x3f672b43	0.9030039
2	0x3e5ae343	0.21375756
3	0x3eb197f8	0.34686255
4	0x3eb2a063	0.3488799
5	0x3ea715ce	0.32633823
6	0x3e8c2088	0.2736857
7	0x3f154a1b	0.583162
8	0x3e5cf172	0.21576479
9	0x3e7406b2	0.23830679
10	0x3f03ce33	0.5148651
11	0x3e6dde7d	0.23229404
12	0x3e4659ec	0.1937024
13	0x3e36fa9a	0.17869034
14	0x3f0f2931	0.5592223
15	0x3eba23bd	0.3635539

layer2.0.shortcut.1.bias f4 [16]
0	0xbd78ea0b	-0.060770076
1	0xbe5d92d9	-0.21638049
2	0xbe11af3f	-0.14227007
3	0x3e990e9f	0.29893968
4	0x3e9538da	0.29144937
5	0x3eb15953	0.3463846
6	0x3eeef78d	0.4667324
7	0x3e0e5c5d	0.13902421
8	0x3e713ee8	0.23559153
9	0x3ea37e60	0.31932354
10	0xbdbf8c49	-0.09352929
11	0x3df82319	0.12116069
12	0xbe218ca6	-0.1577631
13	0x3e67cc7e	0.22636601
14	0x3d659029	0.056045685
15	0x3eb61133	0.35559997

layer2.0.shortcut.1.running_mean f4 [16]
0	0x3d09f72d	0.03368299
1	0xbe95fb3c	-0.2929324
2	0xbee9dd6b	-0.4567674
3	0xbe3ed2a5	-0.18635042
4	0x3f1d39f9	0.61416584
5	0xbf2b6174	-0.66945577
6	0x3fa781d5	1.3086497
7	0x3f9079f0	1.1287212
8	0xbd37b23e	-0.04484772
9	0xbf8fc403	-1.1231693
10	0xbf783824	-0.96960664
11	0x3f618705	0.8809665
12	0x3ea46195	0.321057
13	0x3ef5d8cb	0.48016962
14	0xbeabaf47	-0.33532164
15	0x3e416e9a	0.18889847

layer2.0.shortcut.1.running_var f4 [16]
0	0x3e4cd467	0.200029
1	0x3ea4bea3	0.32176694
2	0x3e1f5bed	0.1556241
3	0x3e95c595	0.29252306
4	0x3e7f7731	0.24947812
5	0x3ea6903c	0.32531917
6	0x3eaa3c09	0.33248928
7	0x3ebf33d1	0.3734422
8	0x3e2c393b	0.16818707
9	0x3e441efe	0.19152448
10	0x3ea154cd	0.3151001
11	0x3e1af0f0	0.15130973
12	0x3dc562be	0.09637974
13	0x3e805446	0.25064296
14	0x3ec87b57	0.391566
15	0x3eb5fcfc	0.35544574

layer3.0.conv1.weight f4 [32, 16, 3, 3]
0	0x3c011e8f	0.007880821
1	0x3c417a38	0.011808924
2	0x3d8a47bc	0.067519635
3	0x3d0d6704	0.03452207
4	0x3d570d75	0.052503068
5	0x3d97f55e	0.07419847
6	0x3d8600f1	0.06543148
7	0x3d2d3af8	0.042292565
8	0x3ce5e18f	0.028061656
9	0x3dd0c62d	0.10194049
10	0x3daac8d1	0.08339084
11	0x3db4a34c	0.08820209
12	0x3dd15bce	0.102225885
13	0x3e422621	0.18959858
14	0x3dc5d2b1	0.09659327
15	0x3de68a3e	0.11256836
16	0x3e1b3d76	0.15160164
17	0x3d6e1d97	0.058133688
18	0xbd05c3b8	-0.032657355
19	0xbd7b9ae3	-0.06142701
20	0xbc8dd020	-0.017311156
21	0xbd026017	-0.03182992
22	0xbcb64378	-0.022248968
23	0xbd1ce122	-0.03830064
24	0x3d057817	0.03258523
25	0xbb7c4d3e	-0.0038498188
26	0xbd218db3	-0.039441776
27	0xbcb5afdc	-0.022178583
28	0xbd26f796	-0.04076346
29	0x3d874483	0.066048644
30	0xbd4054ee	-0.046955995
31	0xbb460bda	-0.0030219466
32	0x3ccc0542	0.02490485
33	0xbd2014f4	-0.039082482
34	0xba4bbc0a	-0.00077718555
35	0x3c6ac591	0.01432933
36	0xbd1f0051	-0.03881866
37	0xbdcd52c8	-0.10025555
38	0xbe0c0be7	-0.13676415
39	0xbd6789b9	-0.056527827
40	0xbe0d7e9a	-0.13817826
41	0xbe5fb397	-0.21845852
42	0x3ae01a0b	0.0017097605
43	0xbdd1ffee	-0.10253893
44	0xbe563ec5	-0.20922382
45	0xbda5a97c	-0.08088967
46	0x3caf01d1	0.02136317
47	0xbc49db63	-0.012320372
48	0x3ce3535a	0.027749706
49	0x3dd7d5f3	0.105388544
50	0x3da0982b	0.07841524
51	0x3d2c61b6	0.042085372
52	0x3e023ada	0.12717763
53	0xbc01a6e2	-0.007913323
54	0x3da93864	0.08262709
55	0x3e1d4e7c	0.1536197
56	0x3dd699cb	0.104785524
57	0x3df6a8b7	0.120438986
58	0x3e86af6c	0.2630571
59	0x3e65ce18	0.224419
60	0x3ab23621	0.0013596454
61	0x3d8aac60	0.06771159
62	0x3de8deeb	0.11370643
63	0x3d9f8786	0.07789521
64	0xbc8b2b3b	-0.016988387
65	0xbb37f424	-0.0028069103
66	0x3cf97e12	0.030455623
67	0x3c8f348a	0.017481107
68	0x3ddf9ef6	0.10918991
69	0xbd4765f7	-0.048681226
70	0xbd733b06	-0.05938246
71	0x3b7b8847	0.0038380788
72	0xbc0dd37c	-0.008656379
73	0xbdfc96d1	-0.123334534
74	0x3c3e7e1a	0.011626745
75	0xbe03933e	-0.12849137
76	0xbe0e49e0	-0.13895369
77	0xbd20dc09	-0.039272342
78	0xbe239e9f	-0.15978478
79	0xbe84cb4b	-0.2593635
80	0xbd9fd964	-0.07805136
81	0x3cd843da	0.026399542
82	0x3d21c88d	0.0394979
83	0xbd8471c0	-0.064670086
84	0x3db4214e	0.08795415
85	0x3e6a8a13	0.22904234
86	0x3d9e92dd	0.07742856
87	0x3d604718	0.0547553
88	0x3e640f7a	0.22271529
89	0x3cbf62e7	0.02336259
90	0x3c695385	0.014241104
91	0x3d3698db	0.044579368
92	0x3cf3a651	0.029742392
93	0x3d728788	0.059211284
94	0x3dcdb2f4	0.10043898
95	0x3dc06756	0.0939471
96	0xbcb01aba	-0.02149712
97	0x3e01f1f7	0.12689959
98	0x3dd44b73	0.10365953
99	0xbda038e7	-0.07823353
100	0xbe37caf9	-0.17948522
101	0xbdcd47f6	-0.10023491
102	0xbdeeedac	-0.11666426
103	0xbe69c8ba	-0.22830477
104	0xbe1b6a30	-0.15177226
105	0xbdf16280	-0.117863655
106	0xbe140d01	-0.14458086
107	0xbe067838	-0.13131797
108	0x3e0a19b7	0.13486372
109	0x3e746fb4	0.23870736
110	0x3d9cf2d7	0.076635055
111	0x3e6d31c6	0.23163518
112	0x3e917b87	0.28414556
113	0x3dfb8170	0.122805476
114	0x3e11809e	0.1420922
115	0x3e3b4809	0.18289198
116	0x3d8037a1	0.0626061
117	0xbdf77efe	-0.12084769
118	0xbd384eda	-0.044997074
119	0xbd0789af	-0.03309029
120	0xbdaa1286	-0.08304314
121	0x3d9b31e1	0.07577873
122	0x3d23e417	0.040012445
123	0xbda19197	-0.07889097
124	0xbc07ab4b	-0.0082805855
125	0xbbf5383c	-0.0074835103
126	0xbe303701	-0.17208482
127	0xbe25cccd	-0.16191407
128	0xbd7799e3	-0.060449492
129	0xbe6abf42	-0.22924522
130	0xbea1413e	-0.31495088
131	0xbe5be4ea	-0.21474043
132	0xbe0980d1	-0.13428046
133	0xbe76f539	-0.24116983
134	0xbded99c1	-0.11601592
135	0xbde43fbf	-0.11144971
136	0xbdda052f	-0.1064552
137	0x3c091af4	0.0083682425
138	0xbe072db6	-0.13201031
139	0xbdc29381	-0.095007904
140	0x3b45f5a5	0.003020623
141	0xbc9ded72	-0.019278262
142	0x3d86f693	0.06589999
143	0x3e28e669	0.16494144
144	0xbe420622	-0.18947652
145	0xbdefc177	-0.11706822
146	0xbd127974	-0.035760358
147	0xbd7c42e5	-0.061587233
148	0xbd860ee6	-0.065458104
149	0xbccf00ac	-0.025268875
150	0x3d3c1f1e	0.045928113
151	0x3cd3ef05	0.02587081
152	0x3c2c6374	0.010521758
153	0x3a9d7c3d	0.0012015175
154	0xbb852033	-0.0040626763
155	0xbd92c3f5	-0.07166282
156	0xbd86cb83	-0.065817855
157	0xbdca8f1c	-0.09890577
158	0xbd5d3094	-0.054001406
159	0x3b04cb9d	0.0020262965
160	0xbdf2d319	-0.1185667
161	0xbdb51652	-0.08842148
162	0xbd925f8a	-0.07147129
163	0xbe855dc9	-0.26048115
164	0xbe1c835e	-0.15284488
165	0xbe08f2bc	-0.13373846
166	0xbec34aa3	-0.3814288
167	0xbe72bd45	-0.23705013
168	0xbb834375	-0.0040058442
169	0xbe8d9c6b	-0.276584
170	0xbe48c0af	-0.19604753
171	0xbb8e0ee2	-0.0043352703
172	0xbd9cceb6	-0.076566145
173	0x3cdf22de	0.027238306
174	0xbe2a8c0b	-0.16654985
175	0xbe0dc94d	-0.13846321
176	0x3dbd9ce4	0.0925844
177	0xbe1d2398	-0.15345609
178	0xbda1e1c0	-0.079043865
179	0x3d9cc125	0.07654027
180	0x3cab0d88	0.020880476
181	0xbb79daf3	-0.0038124889
182	0x3c53ea8f	0.012934341
183	0xbdaff869	-0.08592302
184	0x3ccd8a1c	0.02509027
185	0x3d2ba5e5	0.041906256
186	0xbcb7fadc	-0.022458486
187	0xbc200722	-0.009767326
188	0x3cc6e3dc	0.024278574
189	0x3cd87c8b	0.026426574
190	0x3b36a5f4	0.0027869912
191	0xbe488c37	-0.19584738
192	0x3e14c3e7	0.14527856
193	0x3d9028d3	0.070390366
194	0xbe5896ca	-0.21151271
195	0x3e5fe79c	0.21865696
196	0x3cba29f0	0.022725075
197	0xbe9246c0	-0.28569603
198	0x3da0befa	0.07848926
199	0x3e0aa1f1	0.13538338
200	0x3dcf923a	0.101353124
201	0x3d9f7fdc	0.07788059
202	0x3c183556	0.00929006
203	0xbcc35325	-0.023843357
204	0xbccd6cc1	-0.025076272
205	0xbe1c5597	-0.15267025
206	0xbe2f8bd1	-0.1714318
207	0xbc97ce05	-0.018530855
208	0xbe2d55d5	-0.16927274
209	0xbe3dfe18	-0.1855396
210	0xbd7856b5	-0.060629565
211	0xbe830597	-0.25590202
212	0xbe85ed90	-0.26157808
213	0xbcb093f3	-0.021554923
214	0xbe7e3280	-0.24823952
215	0xbe4f00ea	-0.20215192
216	0xbe53d0f7	-0.20685183
217	0xbe3e6edd	-0.18596978
218	0xbd397bb3	-0.045283984
219	0xbe4ffdc7	-0.20311652
220	0xbe2dfce2	-0.16990998
221	0xbd3ef2de	-0.046618335
222	0x3d2f584f	0.042808827
223	0xbcec096b	-0.028813085
224	0x3d3c7c80	0.04601717
225	0x3d9ffe0b	0.07812127
226	0x3dc1450f	0.09437
227	0x3c0bf70a	0.008542785
228	0x3e10e21c	0.14148754
229	0x3e2d5e49	0.16930498
230	0x3d963214	0.073337704
231	0x3bd81c52	0.006595173
232	0x3ce3cd0a	0.027807731
233	0x3b857578	0.0040728413
234	0xbd9d1460	-0.07669902
235	0xbda19583	-0.07889845
236	0xbd277497	-0.040882673
237	0xbdac4840	-0.08412218
238	0xbde922f9	-0.11383624
239	0x3cc63a74	0.024197794
240	0xbd63fcab	-0.055660885
241	0x3d95cf8c	0.07314977
242	0x3da6f429	0.081520386
243	0x3bcf518a	0.006326859
244	0x3d7d8bd9	0.061900947
245	0xbd8449f4	-0.06459418
246	0xbd5cecd2	-0.053936787
247	0x3d151d76	0.03640505
248	0xbc696d97	-0.01424732
249	0xbb632183	-0.0034657426
250	0x3d8d92aa	0.069127396
251	0x3bbb4e79	0.005716142
252	0x3cfc9331	0.030831905
253	0x3e009a7f	0.12558936
254	0xbd3c08b8	-0.045906752
255	0x3decf376	0.11569874
