ce_results/CE_with_seed-2_cycles-4_cifar100-ResNet10_smodel_best.pth.tar (torch, 716069 bytes, 100 tensors)

conv1.weight f4 [8, 3, 3, 3]
-0.1506068 -0.18804209 0.27986684 -0.2912367 -0.3524714 0.054211818 -0.10579364 -0.09984105
0.17544153 -0.028287495 -0.044147555 0.27882123 -0.10215167 -0.17450628 0.10144482 -0.08898645
-0.0466845 0.20973025 -0.06386737 -0.0992296 0.18297806 -0.1107169 -0.12830256 0.10324887
-0.079303 0.0397926 0.27688697 -0.40564483 -0.42597067 0.00905547 -0.4667181 -0.50688946
-0.29621282 -0.27681735 -0.30781382 -0.28284255 0.2897355 0.18988602 0.44323605 0.30704552
0.26416057 0.12394337 0.24037652 0.24052149 0.09858365 0.02114456 -0.19360048 -0.01893451
0.3343356 0.21740396 0.04826456 0.17378257 0.15213566 0.036162656 -0.1726897 0.08073979
-0.0010735252 -0.27075306 0.21440098 0.48284185 -0.41534474 0.012000145 0.33055478 -0.044319212
0.123960935 0.11866857 0.3457532 0.6405934 0.499176 0.21911773 0.5909881 0.35745096
0.09874581 -0.25691178 -0.10264807 0.015060039 -0.9260383 -0.9603479 0.18532568 -0.6996446
-0.8361378 0.023934811 -0.0920497 -0.033401977 0.21337211 1.5991597 0.2295027 -0.35740674
-1.2161249 -0.2054902 -0.09251462 -0.030166324 -0.02478321 0.28131548 1.6809547 0.24089867
-0.22802709 -1.6560382 -0.2315637 0.008727298 -0.064960144 -0.022967106 0.19917698 1.1902621
0.058609277 -0.03403892 -1.1219398 -0.15601796 -0.11010131 -0.012330743 -0.084669866 0.09770383
0.6818423 0.86447525 -0.041032147 0.78676736 0.5906187 0.16990177 0.025756517 0.012634373
-0.3308974 -1.0373126 -0.27623817 -0.34916535 -0.73615247 -0.4600573 -0.08051261 0.16605341
-0.038122457 0.34086034 -0.17098925 -0.13382345 0.4668132 0.03699818 -0.32869092 -0.11763836
0.18277085 -0.08824292 -0.9574565 1.0639677 0.046344787 -0.058967993 0.07295989 -0.022911761
-0.27444464 0.3015807 -0.0421277 -1.7627395 1.5140297 0.14676343 -0.17998227 0.31799367
-0.08996024 -0.18792886 0.20308676 -0.030101877 -1.2924325 1.2219137 0.098097 -0.2885249
0.37138668 -0.10299049 -0.060339626 -0.19382949 0.13758543 -0.21407215 0.74627376 0.16639784
-0.06966424 -0.036844436 0.2259885 -0.02612718 -0.5988324 0.033343934 -0.17437008 1.0970343
-0.33422324 -0.06314251 0.014487911 -0.17392583 -0.021541402 -0.39765304 0.03598025 -0.01789084
0.8548446 -0.104867116 -0.0055338796 0.17827924 0.021153051 -0.18977728 -0.34598982 0.14268073
-0.07450057 -0.28028703 0.12005915 -0.08741459 -0.37423512 0.06569111 -0.08496767 -0.19057567
0.12322421 0.0045325654 -0.18293086 0.007969868 0.04164222 -0.22435561 -0.015665313 -0.029342117
-0.18123238 0.064169884 -0.009192349 -0.1418571 -0.08393477 0.0042270436 -0.20068072 -0.07046492
00000000: ab38 1abe 1b8e 40be b54a 8f3e fa1c 95be
00000010: 2277 b4be 360d 5e3d 56aa d8bd 7779 ccbd
00000020: f2a6 333e 2dbb e7bc 11d4 34bd a8c1 8e3e
00000030: e534 d1bd c6b1 32be 4dc2 cf3d 873e b6bd
00000040: 3f38 3fbd 87c3 563e e5cc 82bd e338 cbbd
00000050: 9a5e 3b3e 8bbf e2bd bf61 03be 2574 d33d
00000060: 9c69 a2bd 91fd 223d 21c4 8d3e aeb0 cfbe
00000070: d418 dabe 655d 143c adf5 eebe 82c3 01bf
00000080: 35a9 97be 01bb 8dbe c699 9dbe bdd0 90be
00000090: 3658 943e 7b71 423e d6ef e23e 1235 9d3e
000000a0: 0e40 873e 06d6 fd3d 4325 763e 444b 763e
000000b0: 3ae6 c93d 5b37 ad3c 343f 46be 8c1c 9bbc
000000c0: 092e ab3e 259f 5e3e 0fb1 453d 0ff4 313e
000000d0: 73c9 1b3e 4b1f 143d 92d5 30be e75a a53d
000000e0: 87b5 8cba 25a0 8abe ee8b 5b3e 0c37 f73e
000000f0: 11a8 d4be 429c 443c 7a3e a93e 1088 35bd
00000100: 3bdf fd3d 8208 f33d 9006 b13e eefd 233f
00000110: ff93 ff3e 6660 603e ff4a 173f d003 b73e
00000120: 3e3b ca3d f189 83be 2739 d2bd 62be 763c
00000130: d910 6dbf 5cd9 75bf 04c6 3d3e e91b 33bf
00000140: 200d 56bf f012 c43c 8e84 bcbd 83d0 08bd
00000150: 387e 5a3e 44b1 cc3f c102 6b3e 04fe b6be
00000160: fba9 9bbf 066c 52be 4e78 bdbd 5e1f f7bc
00000170: 2906 cbbc 9508 903e 8629 d73f 24ae 763e
00000180: ef7f 69be 0ff9 d3bf 091f 6dbe f1fc 0e3c
00000190: d309 85bd 8325 bcbc 0df5 4b3e 825a 983f
000001a0: 4810 703d 656c 0bbd b99b 8fbf 2cc3 1fbe
000001b0: cc7c e1bd e206 4abc 6567 adbd f218 c83d
000001c0: 388d 2e3f 404e 5d3f 5311 28bd 9669 493f
000001d0: ca32 173f bbfa 2d3e 55ff d23c 6700 4f3c
000001e0: 626b a9be a9c6 84bf 176f 8dbe cdc5 b2be
000001f0: 7d74 3cbf a18c ebbe cce3 a4bd e809 2a3e
00000200: 4b26 1cbd 3f85 ae3e ce17 2fbe 0409 09be
00000210: 2402 ef3e 678b 173d 2d4a a8be 61ec f0bd
00000220: 4828 3b3e b4b8 b4bd df1b 75bf 1830 883f
00000230: 08d4 3d3d 6c88 71bd ff6b 953d 72b1 bbbc
00000240: 0284 8cbe c968 9a3e 188e 2cbd 73a1 e1bf
00000250: bacb c13f 2749 163e 464d 38be 11d0 a23e
00000260: 133d b8bd 6c70 40be faf5 4f3e 3698 f6bc
00000270: 6e6e a5bf ab67 9c3f 14e7 c83d 89b9 93be
00000280: 6526 be3e aeec d2bd af26 77bd 3d7b 46be
00000290: 32e3 0c3e bb35 5bbe cc0b 3f3f 3264 2a3e
000002a0: 20ac 8ebd 31ea 16bd 8869 673e ab08 d6bc
000002b0: 154d 19bf a693 083d 128e 32be 9f6b 8c3f
000002c0: 4f1f abbe dc50 81bd b45e 6d3c 9d19 32be
000002d0: 9877 b0bc 2e99 cbbe 0760 133d d08f 92bc
000002e0: 19d7 5a3f 92c4 d6bd 8c55 b5bb d58e 363e
000002f0: 2a49 ad3c fa54 42be 9425 b1be e61a 123e
00000300: c193 98bd c881 8fbe 92e1 f53d 6c06 b3bd
00000310: bf9b bfbe 1089 863d 8803 aebd 4526 43be
00000320: fa5c fc3d ea85 943b 3a52 3bbe 0d94 023c
00000330: 0891 2a3d 7abd 65be 8b54 80bc e15e f0bc
00000340: fb94 39be 806b 833d 829b 16bc fd42 11be
00000350: fee5 abbd 0383 8a3b 3f7f 4dbe e94f 90bd

bn1.weight f4 [8]
0.16631554 0.23830259 0.26092136 0.7026591 0.26962456 0.6342263 0.4150594 1.464882
00000000: 9f4e 2a3e 9805 743e 7c97 853e 77e1 333f
00000010: 3b0c 8a3e a85c 223f aa82 d43e 4181 bb3f

bn1.bias f4 [8]
0.40938258 0.096183024 0.41062868 0.18601574 0.23339726 0.18064132 0.51266 -1.8326988
00000000: 989a d13e 9bfb c43d ec3d d23e e97a 3e3e
00000010: b1ff 6e3e 0afa 383e b03d 033f e095 eabf

bn1.running_mean f4 [8]
0.21233623 0.17030261 -0.26575115 -0.082748115 -0.06956904 -0.04312879 -0.35394478 0.7825976
00000000: ab6e 593e cf63 2e3e 8910 88be d877 a9bd
00000010: 367a 8ebd d0a7 30bd 4038 b5be 5158 483f

bn1.running_var f4 [8]
1.2362757 1.6775157 2.0334718 6.552646 1.4864951 6.052406 2.1204057 5.231253
00000000: 483e 9e3f d6b8 d63f 6724 0240 47af d140
00000010: 7945 be3f 4fad c140 bab4 0740 6d66 a740

layer1.0.conv1.weight f4 [8, 8, 3, 3]
0.029146018 -0.014726407 -0.109515615 0.07894944 0.11992723 -0.031133031 0.11497048 0.038578246
0.03431923 -0.011803212 -0.029959358 0.038721334 -0.0035124028 -0.051785212 -0.04321307 -0.02645682
0.00387652 -0.025738617 -0.00033769733 -0.058796078 0.046056777 -0.031738214 -0.008839087 -0.080295324
0.08050199 0.09813477 -0.048137907 0.02889551 0.09822601 -0.16622064 -0.053347636 -0.005272339
-0.0887266 -0.18719272 -0.0066207238 0.06495671 0.005084046 -0.0077808253 0.016278956 0.013736446
0.094131455 -0.09428777 0.022185074 -0.030286668 -0.024637677 -0.08118174 0.061171167 0.23127165
-0.19659401 -0.29598668 0.8412503 0.003992987 -0.67785764 0.05787197 -0.12714574 0.066175
0.20925047 -0.051816184 -0.260067 0.16401538 0.164556 0.052375115 -0.13540101 0.105680965
0.23567902 -0.2707745 0.03487776 0.36357483 -0.31429374 -0.03125629 0.35354817 -0.27723867
0.06668298 -0.007903345 -0.01662348 -0.015076692 -0.11503933 -0.10496394 0.071720876 -0.029326016
0.03771574 -0.067055695 0.15942061 0.17623527 -0.26577786 -0.025398618 0.21199897 -0.33093646
0.0129651455 0.27283308 -0.3184373 -0.46697116 -0.36124772 0.26016682 0.22635283 -0.018558288
0.32436192 0.49601766 0.13406526 0.012513803 0.112021156 -0.021574255 0.014445614 -0.18150839
0.25810647 0.04545067 0.0069224187 0.048399564 0.24085326 0.042059768 -0.15120493 0.55020547
0.005250157 -0.54164326 0.710754 0.0009761558 -0.5267413 0.0072576585 -0.060936622 -0.023103252
-0.049402047 -0.10762626 -0.054767374 0.14624481 0.033722326 -0.39897475 -0.23819284 0.063592665
0.19456153 -0.18638848 -0.22801112 0.011185101 0.026733449 0.30383974 -0.017688755 0.0024572331
-0.053110834 0.23553097 -0.04538475 -0.20875499 0.13010372 -0.15623194 -0.38678095 -0.12056725
-0.29006124 0.009506868 -0.1925759 -0.28842214 0.1344517 0.021579703 -0.20307674 0.28719997
0.076770596 0.043078415 0.14624794 0.05066602 -0.08799831 0.1101633 0.11469504 -0.09630611
0.06849392 0.009532275 -0.14370151 0.008745533 0.019846166 -0.14626987 0.03544222 0.064664386
-0.039787393 0.074649915 0.13146155 -0.100626595 0.28913918 0.2309258 -0.26140064 0.079028204
-0.07001768 0.10465449 -0.5456715 0.018645085 0.041826464 -0.2929823 -0.22397077 0.025562627
-0.27566642 -0.23469391 0.28597936 0.07904768 0.15158989 -0.06175968 0.09872127 -0.047238823
0.019207776 0.16728537 -0.18068077 0.064301856 0.021500856 0.031964216 0.04830995 -0.022639696
-0.020712702 0.1877956 -0.019947 0.31513232 0.09089515 -0.643324 -0.16903938 -0.2566693
-0.1459951 -0.20788382 -0.020987017 0.15643607 -0.042420335 0.40579912 0.6555076 0.4770127
0.1770847 -0.1872626 0.038608305 0.15978947 -0.18454102 0.088851236 0.14349923 -0.19127172
0.01957776 -0.104671106 -0.26191172 -0.19711798 -0.036642898 -0.25785068 -0.044291213 0.051434726
-0.10984894 0.15832047 0.020790137 -0.00043305825 -0.22502373 0.05641598 0.031585593 -0.031356495
-0.0879088 0.07219457 0.11982952 -0.046657376 0.03453364 -0.09040761 -0.042046525 -0.07788917
-0.32641572 0.06202511 -0.18792002 0.040864497 0.14095725 -0.03202999 -0.06919537 0.070104055
00000000: a1c3 ee3c 0747 71bc b949 e0bd 3eb0 a13d
00000010: 689c f53d b30a ffbc a575 eb3d 3904 1e3d
00000020: 5292 0c3d 4262 41bc 546d f5bc 439a 1e3d
00000030: 5730 66bb bb1c 54bd 3000 31bd f9bb d8bc
00000040: 370d 7e3b cbd9 d2bc f80c b1b9 28d4 70bd
00000050: 08a6 3c3d eeff 01bd d1d1 10bc e071 a4bd
00000060: 3ade a43d e2fa c83d 412c 45bd 47b6 ec3c
00000070: b82a c93d be35 2abe 0d83 5abd 96c3 acbb
00000080: 4bb6 b5bd 73af 3fbe a8f2 d8bb 0608 853d
00000090: 1298 a63b 4bf6 febb 725b 853c d50e 613c
000000a0: fec7 c03d f219 c1bd 79bd b53c bf1b f8bc
000000b0: f4d4 c9bc 9d42 a6bd 9e8e 7a3d 7ad2 6c3e
000000c0: f14f 49be 918b 97be 2e5c 573f 9ad7 823b
000000d0: 1488 2dbf 290b 6d3d 7e32 02be c286 873d
000000e0: c145 563e 353d 54bd 8027 85be a6f3 273e
000000f0: 5e81 283e 4a87 563d 90a6 0abe 436f d83d
00000100: d755 713e f5a2 8abe fbdb 0e3d 7b26 ba3e
00000110: 1ceb a0be 9806 00bd 4404 b53e 3af2 8dbe
00000120: 1691 883d 087d 01bc f72d 88bc 3b04 77bc
00000130: be99 ebbd 56f7 d6bd 65e2 923d 1d3d f0bc
00000140: d27b 1a3d 7f54 89bd 283f 233e 0577 343e
00000150: 0914 88be c310 d0bc 4216 593e 8170 a9be
00000160: c36b 543c c7b0 8b3e 370a a3be d816 efbe
00000170: 76f5 b8be 9634 853e 09c9 673e 8d07 98bc
00000180: c412 a63e 07f6 fd3e 6748 093e b206 4d3c
00000190: 596b e53d 7ebc b0bc 4cad 6c3c 56dd 39be
000001a0: 8826 843e 7b2a 3a3d 75d5 e23b 9f3e 463d
000001b0: 3da2 763e dd46 2c3d 77d5 1abe 44da 0c3f
000001c0: 8209 ac3b 22a9 0abf f9f3 353f b5e4 7f3a
000001d0: 85d8 06bf a7d1 ed3b ae98 79bd 0843 bdbc
000001e0: cd59 4abd 286b dcbd c153 60bd 33c1 153e
000001f0: 6c20 0a3d 6b46 ccbe d3e8 73be df3c 823d
00000200: 233b 473e 9fdc 3ebe bf7b 69be b741 373c
00000210: 1b00 db3c e290 9b3e 02e8 90bc 8809 213b
00000220: bf8a 59bd 082f 713e 5ce5 39bd dec3 55be
00000230: e939 053e 44fb 1fbe 2708 c6be f6eb f6bd
00000240: e882 94be b2c2 1b3c 9e32 45be 11ac 93be
00000250: b5ad 093e ebc7 b03c 59f3 4fbe e00b 933e
00000260: e739 9d3d fe72 303d 05c2 153e 2c87 4f3d
00000270: 7538 b4bd 4c9d e13d 3ce5 ea3d 233c c5bd
00000280: 8a46 8c3d 422d 1c3c 7d26 13be 6d49 0f3c
00000290: 6d94 a23c c5c7 15be dc2b 113d c36e 843d
000002a0: 1bf8 22bd 0ee2 983d db9d 063e 5115 cebd
000002b0: 0d0a 943e d077 6c3e 4ed6 85be 8ad9 a13d
000002c0: 6e65 8fbd 1855 d63d 21b1 0bbf 94bd 983c
000002d0: 3a52 2b3d c701 96be 9858 65be b768 d13c
000002e0: 2624 8dbe 9a53 70be e36b 923e c0e3 a13d
000002f0: 613a 1b3e b8f7 7cbd 612e ca3d 7f7d 41bd
00000300: a059 9d3c db4c 2b3e 6104 39be b1b0 833d
00000310: 9022 b03c e9ec 023d a7e0 453d e276 b9bc
00000320: afad a9bc 7d4d 403e e467 a3bc 0659 a13e
00000330: 3d27 ba3d e2b0 24bf a918 2dbe 296a 83be
00000340: bd7f 15be 7fdf 54be f7ec abbc c730 203e
00000350: f2c0 2dbd e7c4 cf3e 59cf 273f 023b f43e
00000360: b155 353e c4c1 3fbe be23 1e3d da9f 233e
00000370: 52f8 3cbe a3f7 b53d 76f1 123e bcdc 43be
00000380: 8a61 a03c ce5d d6bd 4b19 86be 4cd9 49be
00000390: dd16 16bd 0105 84be b46a 35bd 38ad 523d
000003a0: 7bf8 e0bd c31e 223e 1450 aa3c 180c e3b9
000003b0: 9f6c 66be 7114 673d e55f 013d ab6f 00bd
000003c0: 8709 b4bd bfda 933d 2e69 f53d ce1b 3fbd
000003d0: 2573 0d3d a027 b9bd fa38 2cbd 5b84 9fbd
000003e0: f61f a7be 0b0e 7e3d 1b6e 40be 8861 273d
000003f0: 1957 103e e131 03bd 4db6 8dbd b792 8f3d

layer1.0.bn1.weight f4 [8]
0.54171115 0.32878882 0.45020926 0.86743176 0.38555974 1.0420452 0.3793992 1.0392635
00000000: 95ad 0a3f 0257 a83e d481 e63e 0210 5e3f
00000010: 1668 c53e bd61 853f 9d40 c23e 9606 853f

layer1.0.bn1.bias f4 [8]
-0.08915012 0.42374843 0.11840572 -0.5243717 0.08825168 0.13292426 0.2823921 0.17045307
00000000: 5794 b6bd 8ef5 d83e b37e f23d 393d 06bf
00000010: 4cbd b43d 4c1d 083e b395 903e 408b 2e3e

layer1.0.bn1.running_mean f4 [8]
0.0050295414 0.05421585 -0.35235253 -0.6857389 -0.88044655 -0.61157596 -0.294544 -0.41594145
00000000: dace a43b 7011 5e3d 8d67 b4be 968c 2fbf
00000010: f264 61bf 3e90 1cbf 79ce 96be 47f6 d4be

layer1.0.bn1.running_var f4 [8]
0.47140887 0.15058981 0.18216124 0.27452174 0.21225312 1.4111654 0.109361194 1.1310668
00000000: 815c f13e 3734 1a3e 7a88 3a3e 1d8e 8c3e
00000010: e258 593e 11a1 b43f c3f8 df3d ccc6 903f

layer1.0.conv2.weight f4 [8, 8, 3, 3]
-0.2807438 -0.30097675 0.021849709 -0.3668647 -0.43318868 -0.36573818 -0.09088849 -0.22037424
-0.31342155 0.04283979 0.07540717 -0.07628859 -0.07467688 -0.11067378 0.12502488 0.14125845
-0.009183036 -0.13287616 0.0009654884 -0.107080616 -0.05925767 0.084800035 0.24535608 -0.33410138
-0.08790255 0.29445526 -0.23057614 -0.13954109 -0.052519746 0.3569157 -0.2080804 -0.03524906
0.41967884 -0.23466155 -0.10192864 0.1821643 -0.04799175 -0.09801379 0.16356476 -0.027595628
0.09355527 -0.007852215 -0.045955796 -0.028053556 0.050692793 0.08037903 -0.050992347 0.11712596
0.45765352 0.4014107 -0.5029353 -0.06750365 -0.45918667 0.10451301 -0.012423481 -0.22599947
0.14170825 0.1155195 -0.051654164 -0.1124836 0.06531223 -0.06178665 -0.009708317 0.3038376
0.39706144 -0.5945056 -0.1817766 -0.0870275 0.3731135 -0.15847176 -0.09131742 0.15817367
-0.01653627 -0.106449194 0.052461624 0.034250673 0.106936544 0.048188817 0.11274655 0.09053148
-0.16163515 -0.15821795 -0.28668144 -0.01189538 0.015754249 -0.21623215 -0.018094331 0.28899089
-0.08619672 -0.12495529 -0.031271577 0.02333214 -0.09025113 0.10011246 0.020114407 -0.109559
0.1388411 0.0059459945 -0.027726395 -0.009930951 0.07613619 0.028467758 -0.2111327 -0.14650936
-0.06420026 -0.35089663 -0.2441355 -0.24284689 0.051756285 -0.015379772 -0.07621103 0.22017862
0.05905151 -0.063348465 0.17552242 0.18144208 -0.061500344 0.0027156349 -0.14010054 -0.017462684
0.3258434 0.26005086 0.38633427 0.28608653 0.29361552 0.16749564 0.08961617 0.29993978
-0.0321367 -0.0018049795 0.0064548836 0.11975025 -0.13695754 -0.15115784 0.14354475 -0.057874784
0.123994924 -0.07600418 -0.03401275 -0.13062164 -0.20254216 0.022719981 -0.21301143 -0.14499746
0.008105878 -0.07524076 -0.066088594 -0.0721576 -0.0048604244 0.119308114 -0.060061343 0.06318749
0.052822754 0.09345604 0.033718333 0.04163646 0.11340769 0.045177944 -0.02803347 -0.12327405
-0.06546195 -0.11927902 0.044825 0.11589845 0.06869989 0.14356609 0.16381441 0.04131059
0.10374339 -0.030009042 -0.15488009 0.11094826 0.113691814 0.0027167667 0.12992558 0.25428605
0.20358007 0.053471625 0.13486694 0.2742851 0.031908613 0.07964289 0.16973272 -0.25890908
-0.2606788 -0.025953088 -0.28186023 -0.41807437 -0.13044286 0.0014194732 -0.19397587 -0.15844963
0.10597446 0.056903757 -0.0780494 0.12369824 0.1502705 -0.016746584 0.095126055 0.007501411
0.00582706 -0.3033353 0.033615954 0.23687723 -0.25867647 -0.08612899 0.2489553 0.07545505
-0.06664612 -0.1326869 0.10559479 -0.25833288 -0.24775103 0.09797582 0.1314728 -0.09468095
0.061847683 0.31338614 0.032802068 0.0029297427 0.07934015 -0.054148488 -0.095019855 -0.25105733
0.100469865 -0.16426466 0.13424218 -0.09493366 -0.07217576 0.06719131 0.15251595 -0.04183265
0.29051775 -0.017649496 0.04701243 -0.10350772 0.08152605 0.32958582 0.27795607 0.053696793
-0.2906881 -0.31409514 -0.26211584 0.14210643 -0.1827788 0.0517913 -0.15965849 -0.33334884
-0.06973644 0.1307357 0.025158739 0.22716118 0.08193469 -0.08064497 -0.15754363 -0.23210105
00000000: a7bd 8fbe a019 9abe 29fe b23c b1d5 bbbe
00000010: e8ca ddbe 0942 bbbe bf23 babd c9a9 61be
00000020: ca78 a0be c778 2f3d 136f 9a3d 313d 9cbd
00000030: 31f0 98bd efa8 e2bd 8606 003e 0ea6 103e
00000040: 7274 16bc b010 08be d418 7d3a 154d dbbd
00000050: 2cb8 72bd a4ab ad3d a03e 7b3e 560f abbe
00000060: 4106 b4bd d7c2 963e 271c 6cbe dce3 0ebe
00000070: f21e 57bd a8bd b63e 0713 55be 5161 10bd
00000080: 25e0 d63e 1e4b 70be f6bf d0bd 4789 3a3e
00000090: ff92 44bd 74bb c8bd 857d 273e 3a10 e2bc
000000a0: e899 bf3d 94a6 00bc 253c 3cbd 92d0 e5bc
000000b0: 3fa3 4f3d c39d a43d 5add 50bd bcdf ef3d
000000c0: 9051 ea3e b485 cd3e 5ec0 00bf 5b3f 8abd
000000d0: 841a ebbe eb0a d63d db8b 4bbc 686c 67be
000000e0: f81b 113e 7d95 ec3d 5193 53bd cd5d e6bd
000000f0: 6bc2 853d 0014 7dbd a20f 1fbc 9a90 9b3e
00000100: a34b cb3e 8531 18bf a523 3abe 793b b2bd
00000110: bc08 bf3e 6c46 22be a104 bbbd 47f8 213e
00000120: 1277 87bc 0902 dabd 00e2 563d 6f4a 0c3d
00000130: 8c01 db3d a361 453d aae7 e63d 9268 b93d
00000140: af83 25be e303 22be e9c7 92be d7e4 42bc
00000150: 0e0f 813c f66b 5dbe 903a 94bc 9df6 933e
00000160: e887 b0bd 8fe8 ffbd a016 00bd 0b23 bf3c
00000170: 96d5 b8bd c307 cd3d f8c6 a43c 7860 e0bd
00000180: 5c2c 0e3e 9ed6 c23b 7722 e3bc 6db5 22bc
00000190: 4aed 9b3d 3735 e93c 2c33 58be 8d06 16be
000001a0: 6d7b 83bd b9a8 b3be a8fe 79be dbac 78be
000001b0: 66fe 533d 70fb 7bbc 8714 9cbd 8176 613e
000001c0: ffdf 713d d7bc 81bd 26bc 333e f4cb 393e
000001d0: c9e7 7bbd cbf8 313b 8476 0fbe e70d 8fbc
000001e0: f2d4 a63e 6325 853e 9bcd c53e ef79 923e
000001f0: c654 963e fa83 2b3e af88 b73d b591 993e
00000200: c6a1 03bd 1095 ecba 7d83 d33b 9e3f f53d
00000210: 993e 0cbe 1fc9 1abe 65fd 123e 1c0e 6dbd
00000220: 0df1 fd3d 14a8 9bbd f450 0bbd aec1 05be
00000230: 3667 4fbe 411f ba3c ab1f 5abe 377a 14be
00000240: 84ce 043c d417 9abd 7559 87bd 5dc7 93bd
00000250: 3244 9fbb d057 f43d e202 76bd 7168 813d
00000260: ac5c 583d e165 bf3d 3c1c 0a3d fe8a 2a3d
00000270: 4a42 e83d 820c 393d 73a6 e5bc 1b77 fcbd
00000280: ea10 86bd 8f48 f4bd 6b9a 373d 2b5c ed3d
00000290: 87b2 8c3d fd02 133e f7be 273e 4b35 293d
000002a0: 6a77 d43d 86d5 f5bc e398 1ebe d738 e33d
000002b0: 41d7 e83d c80b 323b 360b 053e c831 823e
000002c0: 4b77 503e 1005 5b3d 8f1a 0a3e 196f 8c3e
000002d0: 9bb2 023d d01b a33d 6ace 2d3e bb8f 84be
000002e0: b177 85be 929b d4bc fc4f 90be d80d d6be
000002f0: d092 05be 9e0d ba3a 9ca1 46be 9f40 22be
00000300: 2309 d93d ea13 693d 5dd8 9fbd 8155 fd3d
00000310: 83e0 193e 2230 89bc 73d1 c23d 65ce f53b
00000320: ecf0 be3b c44e 9bbe e2b0 093d f28f 723e
00000330: 3e71 84be 6564 b0bd 23ee 7e3e 2d88 9a3d
00000340: c37d 88bd 13df 07be 1542 d83d 3544 84be
00000350: 72b2 7dbe 8ca7 c83d cea0 063e 16e8 c1bd
00000360: ff53 7d3d 2674 a03e 765b 063d ed00 403b
00000370: 177d a23d ceca 5dbd c599 c2bd 968a 80be
00000380: 25c3 cd3d ff34 28be c876 093e 946c c2bd
00000390: e3d0 93bd 999b 893d 242d 1c3e b658 2bbd
000003a0: bebe 943e ad95 90bc 1b90 403d dbfb d3bd
000003b0: 21f7 a63d 79bf a83e 4250 8e3e 2bf1 5b3d
000003c0: 12d5 94be 14d1 a0be 0c34 86be 5984 113e
000003d0: 5e2a 3bbe 1d23 543d 847d 23be b3ac aabe
000003e0: fbd1 8ebd 94df 053e b319 ce3c f19c 683e
000003f0: 60cd a73d 3129 a5bd 1e53 21be e6ab 6dbe

layer1.0.bn2.weight f4 [8]
1.2566552 0.48625037 0.3193967 0.5219415 0.4509598 0.91709757 0.5878132 0.70388657
00000000: 14da a03f cff5 f83e f787 a33e f59d 053f
00000010: 34e4 e63e e8c6 6a3f ed7a 163f e931 343f

layer1.0.bn2.bias f4 [8]
-0.48118076 0.55935186 0.30134732 0.9902369 0.5354865 -0.08523151 0.6005632 0.7217723
00000000: 535d f6be af31 0f3f 324a 9a3e 2a80 7d3f
00000010: a515 093f dc8d aebd 83be 193f 12c6 383f

layer1.0.bn2.running_mean f4 [8]
-0.20612377 0.06335824 -0.09347672 -0.59664553 -0.37313077 -0.5038474 0.12428934 0.3077328
00000000: 1c12 53be f7c1 813d b970 bfbd c3bd 18bf
00000010: ff0a bfbe 25fc 00bf 698b fe3d 278f 9d3e

layer1.0.bn2.running_var f4 [8]
0.5440161 0.3668432 0.16378847 0.21355823 0.24421057 0.44505104 0.51384443 0.68230927
00000000: a444 0b3f dfd2 bb3e 2ab8 273e 02af 5a3e
00000010: 5612 7a3e bbdd e33e 4f8b 033f d2ab 2e3f

layer2.0.conv1.weight f4 [16, 8, 3, 3]
-0.07356644 0.017412733 0.10454772 -0.04450649 -0.10223011 0.0021190352 -0.116334334 -0.18873066
-0.036208972 -0.09268978 -0.060092684 -0.07203653 -0.14114895 -0.18577532 -0.14694044 -0.20858677
-0.3332941 -0.2724582 -0.08367074 0.011467638 0.13822289 0.040104967 -0.122545436 -0.09902288
0.077115074 -0.17594524 -0.26368177 0.009319674 0.13814926 0.08583535 0.020735038 0.11910033
0.14281431 0.049900018 -0.045726694 0.09584216 0.120381854 0.03942131 -0.06369866 0.31264997
0.040009193 -0.23627104 0.3498915 0.075905815 -0.18491267 0.04278869 0.089708775 0.051801942
0.05986893 0.104556724 0.13944647 -0.05066883 0.09105896 0.14030947 -0.019465744 -0.13056666
-0.0769574 -0.098030105 -0.12532812 -0.031479336 -0.064312674 -0.14244802 -0.15642647 0.2153788
0.00019093341 0.023325628 0.68410826 0.2872497 -0.09436187 0.6117007 0.33187842 -0.04615648
-0.054962926 -0.07370016 -0.014462807 -0.024764068 -0.043281876 -0.054985777 0.028433574 -0.06353834
-0.12766646 0.25310525 0.03073843 -0.1797914 0.18458672 0.00052095146 -0.35347557 0.2693111
0.20207414 -0.13378574 -0.114473805 0.071492225 0.23585312 -0.16403031 0.31200475 0.5068893
-0.42511666 -0.073239736 0.19697745 0.04661203 0.00052262744 -0.09207312 0.034161538 -0.052865468
-0.2546564 0.17704992 -0.04956988 -0.19671169 0.10932166 -0.08881178 -0.39283526 0.11913863
0.08686123 -0.16122875 0.04214833 0.17984733 0.14205553 0.006152718 0.006556253 -0.020801784
0.06430835 0.03559595 0.02770856 0.1209235 0.112559356 0.05863248 0.0014262405 -0.0019704695
0.0056726937 -0.015439707 -0.12494322 -0.14463477 0.027263986 -0.09885334 -0.22892436 -0.19825971
0.18727937 0.19450627 -0.19685778 0.1618509 0.32363573 -0.215427 -0.05320265 -0.12352332
0.023993393 0.038428143 -0.02378629 -0.089760035 0.017053602 0.032551482 0.10459881 0.02517583
0.01006422 0.15206984 0.0138598 0.068042375 -0.074192934 -0.061052736 -0.004088648 -0.054119468
-0.0636831 -0.14425108 0.053112216 -0.13715222 -0.020483403 0.08973994 0.104843855 0.12272821
-0.11124252 -0.098667294 -0.070169374 -0.026312616 -0.11845482 -0.06745231 0.370836 0.63127476
0.43561345 -0.36652207 -0.6657998 -0.42290747 -0.054550305 -0.1568116 -0.0034482689 0.16164021
0.061256144 -0.066060305 -0.107586354 0.019101143 0.04388882 -0.04105709 -0.039435446 -0.028680539
0.034819283 -0.0019162289 0.0057419487 0.06279732 0.01710706 0.0011694835 -0.032054204 0.00776126
0.02220836 0.04562278 -0.13654627 -0.12841083 -0.0044712387 0.079931386 0.051494285 0.061515655
0.14557578 0.11814412 -0.28319046 -0.4089689 -0.20471808 0.07994483 0.28189436 0.23960693
0.036147792 0.01005837 -0.04659831 0.12868336 0.041330084 -0.04576582 0.1195115 0.044738125
0.031729612 -0.046196114 -0.16346745 -0.06609561 0.073724106 0.0374424 0.18058488 0.0015895587
0.15521835 0.24559724 0.2904043 0.3659478 0.37792015 0.017395027 0.08071431 0.038705856
-0.44802162 -0.40434158 -0.45401105 0.07618615 0.11691652 0.057168745 0.07855181 -0.0076837316
0.18891382 -0.041899823 0.014882616 0.13769194 -0.14330445 -0.33264107 -0.40630555 0.15761513
00000000: 00aa 96bd 26a5 8e3c 1d1d d63d 704c 36bd
00000010: 055e d1bd 83df 0a3b b240 eebd 9c42 41be
00000020: dc4f 14bd 24d4 bdbd bf23 76bd e387 93bd
00000030: 5a89 10be e33b 3ebe 8e77 16be c597 55be
00000040: 86a5 aabe a47f 8bbe 915b abbd c3e2 3b3c
00000050: 4d8a 0d3e 1b45 243d 1af9 fabd 82cc cabd
00000060: 82ee 9d3d fd2a 34be 4c01 87be 8cb1 183c
00000070: 0077 0d3e 72ca af3d 87dc a93c e0ea f33d
00000080: ea3d 123e f663 4c3d ea4b 3bbd e548 c43d
00000090: c38a f63d 3d78 213d 7174 82bd a813 a03e
000000a0: aee0 233d 09f1 71be fb24 b33e 8274 9b3d
000000b0: bf59 3dbe 3243 2f3d 3cb9 b73d 462e 543d
000000c0: 2039 753d d621 d63d 0ecb 0e3e 1e8a 4fbd
000000d0: 1f7d ba3d 49ad 0f3e a076 9fbc 44b3 05be
000000e0: d79b 9dbd 02c4 c8bd 0456 00be 7af0 00bd
000000f0: 5db6 83bd e5dd 11be 432e 20be 438c 5c3e
00000100: 4c35 4839 6315 bf3c b821 2f3f 6512 933e
00000110: cc40 c1bd 6b98 1c3f f8eb a93e 940e 3dbd
00000120: ce20 61bd 1cf0 96bd 69f5 6cbc 04de cabc
00000130: 5648 31bd c438 61bd 87ed e83c 6420 82bd
00000140: ffba 02be 0397 813e 29cf fb3c 3d1b 38be
00000150: 4d04 3d3e 7690 083a c0fa b4be 25e3 893e
00000160: 86ec 4e3e 21ff 08be 3e71 eabd 846a 923d
00000170: 7b83 713e 90f7 27be 16bf 9f3e 7fc3 013f
00000180: e4a8 d9be b7fe 95bd 75b4 493e 42ec 3e3d
00000190: ef00 093a d590 bcbd f8ec 0b3d 7689 58bd
000001a0: 5362 82be 934c 353e c909 4bbd ca6e 49be
000001b0: 09e4 df3d f3e2 b5bd b421 c9be f4fe f33d
000001c0: 4de4 b13d 2619 25be baa3 2c3d e629 383e
000001d0: 0177 113e bd9c c93b d6d5 d63b 8168 aabc
000001e0: 19b4 833d 0fcd 113d 10fd e23c bda6 f73d
000001f0: 8585 e63d 9d28 703d b1f0 ba3a fe22 01bb
00000200: 01e2 b93b d3f6 7cbc 3be2 ffbd 231b 14be
00000210: b958 df3c 9f73 cabd 266b 6abe 9804 4bbe
00000220: 2ac6 3f3e a72c 473e 1695 49be 3ebc 253e
00000230: 95b3 a53e e598 5cbe 06eb 59bd cbf9 fcbd
00000240: cb8d c43c d466 1d3d 77db c2bc 1cd4 b7bd
00000250: ffb3 8b3c b454 053d e737 d63d 8b3d ce3c
00000260: 66e4 243c 32b8 1b3e 3714 633c cd59 8b3d
00000270: 77f2 97bd 6f12 7abd 11fa 85bb 60ac 5dbd
00000280: 496c 82bd 8eb6 13be 328c 593d a271 0cbe
00000290: cfcc a7bc 93c9 b73d 60b8 d63d ee58 fb3d
000002a0: 1ed3 e3bd 1412 cabd f6b4 8fbd 8e8d d7bc
000002b0: 7198 f2bd 7024 8abd 37de bd3e 399b 213f
000002c0: ba08 df3e c8a8 bbbe db71 2abf 5487 d8be
000002d0: 2470 5fbd 3893 20be 5afc 61bb 0385 253e
000002e0: b9e7 7a3d a04a 87bd 3c56 dcbd 007a 9c3c
000002f0: c3c4 333d 7b2b 28bd 1087 21bd 73f3 eabc
00000300: aa9e 0e3d f929 fbba f526 bc3b e29b 803d
00000310: 1b24 8c3c 5b49 993a 454b 03bd 2b52 fe3b
00000320: 4eee b53c f4de 3a3d c9d2 0bbe 217e 03be
00000330: 7883 92bb 11b3 a33d aceb 523d d7f7 7b3d
00000340: d111 153e 8bf5 f13d 57fe 90be 5f64 d1be
00000350: 9ea1 51be 1dba a33d 7554 903e 855b 753e
00000360: b50f 143d ddcb 243c dfdd 3ebd 92c5 033e
00000370: bc49 293d f174 3bbd 72c2 f43d 533f 373d
00000380: e9f6 013d 2338 3dbd 0364 27be 235d 87bd
00000390: aafc 963d 345d 193d 3eeb 383e bd58 d03a
000003a0: 8ff1 1e3e d87d 7b3e dfaf 943e 835d bb3e
000003b0: c07e c13e 0480 8e3c 8b4d a53d 088a 1e3d
000003c0: 1763 e5be dc05 cfbe 2374 e8be 7c07 9c3d
000003d0: ee71 ef3d c629 6a3d c5df a03d d0c7 fbbb
000003e0: a072 413e 269f 2bbd 37d6 733c 1eff 0c3e
000003f0: 67be 12be ee4f aabe 4807 d0be dc65 213e

layer2.0.bn1.weight f4 [16]
0.53387904 0.4324406 0.7272912 0.39036736 0.5961962 0.63125336 0.71650606 0.6677814
0.47818762 0.62495166 0.6757755 0.67761785 0.6357631 0.3853676 0.6707222 0.94485736
00000000: 4cac 083f db68 dd3e c22f 3a3f 3bde c73e
00000010: 50a0 183f d299 213f f16c 373f b9f3 2a3f
00000020: 02d5 f43e d5fc 1f3f a0ff 2c3f 5d78 2d3f
00000030: 5fc1 223f e74e c53e 73b4 2b3f 2ce2 713f

layer2.0.bn1.bias f4 [16]
0.063070506 0.16259435 -0.09855922 0.3648496 0.017142337 -0.016038828 -0.17070249 -0.064818725
0.1516085 -0.08778551 -0.0106214825 0.010376965 -0.017434029 0.637395 0.062428866 -0.9555858
00000000: 1c2b 813d 227f 263e 6bd9 c9bd 91cd ba3e
00000010: 166e 8c3c dc63 83bc a2cc 2ebe aebf 84bd
00000020: 423f 1b3e e4c8 b3bd ba05 2ebc 2504 2a3c
00000030: cfd1 8ebc 522c 233f 69b5 7f3d 45a1 74bf

layer2.0.bn1.running_mean f4 [16]
0.36751863 -0.44012845 -0.6947445 0.8619881 -1.215853 -2.0502555 -1.7843996 -1.0759424
0.67335963 -0.27351394 -0.67407197 -1.0899132 -0.022849368 1.3767257 -0.6843487 2.3907797
00000000: 672b bc3e 8458 e1be c7da 31bf 41ab 5c3f
00000010: 12a1 9bbf 6337 03c0 3567 e4bf 7bb8 89bf
00000020: 4c61 2c3f 050a 8cbe fb8f 2cbf 4782 8bbf
00000030: 992e bbbc 8c38 b03f 7a31 2fbf 8902 1940

layer2.0.bn1.running_var f4 [16]
1.2084334 0.35206997 2.039729 0.38048723 1.4561845 1.4638077 1.7787095 1.7639374
1.1413345 1.2867237 2.1188166 1.804616 1.7320908 1.4949582 2.0109878 0.7596505
00000000: f2ad 9a3f 8442 b43e ec8a 0240 39cf c23e
00000010: 4164 ba3f 0d5e bb3f c1ac e33f b3c8 e13f
00000020: 4017 923f 5db3 a43f b19a 0740 a8fd e63f
00000030: 27b5 dd3f ca5a bf3f 06b4 0040 7578 423f

layer2.0.conv2.weight f4 [16, 16, 3, 3]
-0.06879973 0.22156277 0.49110058 -0.047367297 0.46258113 0.5579721 0.08440921 0.20175007
0.06064706 0.057037365 0.115461394 0.036995556 0.1306612 0.009824026 -0.077692956 0.29868776
0.14831682 -0.03529192 0.0027048318 0.04650675 0.0005230824 0.10413682 0.22240739 0.044036258
-0.07707423 0.02117443 -0.06017666 -0.07978262 -0.18324564 -0.104258716 0.02896249 0.04895712
-0.012838748 0.08409203 0.07343872 -0.07422707 -0.07806791 -0.014618732 -0.09524977 -0.06973443
-0.19108343 -0.08704831 -0.076567605 -0.01262588 -0.046979293 0.046913996 -0.040723406 -0.013590381
0.024923211 -0.0064543006 -0.04191632 -0.08003603 -0.07952663 0.091432564 0.00060520484 0.07009933
0.029368205 -0.086591214 0.03024251 0.015750227 -0.03233389 0.02718404 -0.043640725 0.050600454
0.032628383 -0.029586876 -0.00013477613 -0.011739745 0.047612935 -0.040542584 -0.007703657 -0.008595152
-0.067115255 0.013477233 -0.031979237 0.07147045 0.015238089 0.08432463 -0.068150304 -0.043377746
-0.07612848 -0.044421893 -0.025637854 -0.040710334 0.03919812 0.054599278 0.0023677922 -0.04051951
0.07010403 -0.025931092 -0.009014936 -0.04559762 -0.057063177 -0.045084644 0.068603486 0.013555509
-0.0015009171 0.0007060348 -0.02182172 -0.023194568 0.019252185 -0.060666665 0.054308202 0.0744982
0.043748125 -0.013388917 0.10885794 0.032854788 -0.056383755 0.0356609 -0.07766844 -0.0012355829
-0.019000169 0.021364583 -0.032295406 0.048704475 -0.02999605 -0.05298305 0.0908794 0.10606742
-0.02611863 0.16063528 0.12212254 0.03357869 0.123742424 0.048158 -0.004947747 0.017911088
-0.04854329 0.0046374365 -0.02175073 -0.03395694 -0.017882518 -0.009945239 -0.025279509 -0.1611832
-0.23543479 0.2082771 -0.26567245 -0.5402248 -0.03033766 0.10792483 -0.016599542 0.25638688
0.12525134 0.032870203 0.03000688 0.10238901 -0.023795838 -0.087263875 0.094414175 0.115665294
-0.035794795 -0.027710302 0.04891997 0.093353495 0.057941 0.053087242 0.054731607 0.12908994
0.043797847 0.054694314 -0.06330558 -0.061106592 0.029102355 0.06951991 0.0008732755 0.015447077
-0.03314799 -0.07022126 -0.05084543 -0.09917866 -0.14877161 0.017072227 0.014419408 -0.110548735
0.11375574 -0.10645413 -0.040451016 0.043069758 -0.22450387 -0.12627636 0.06579221 -0.16330744
-0.042868838 -0.09336559 0.08141636 -0.090068564 -0.17194827 0.055583425 -0.0004582045 -0.103707634
-0.16176471 -0.16184486 -0.18260166 -0.14365669 -0.2095366 -0.11314707 0.004703758 -0.04144847
-0.10398613 -0.22410451 -0.23532596 -0.32328224 -0.2062327 -0.2641312 -0.26973483 -0.079762325
-0.06718116 0.15897894 -0.028595163 -0.14530525 -0.10135006 0.0050416775 -0.044722524 -0.13256754
0.039633494 0.10669514 0.06193812 0.10049602 0.14681292 0.14251205 0.0014140721 -0.01370106
-0.08737069 0.04412703 0.16665633 0.15439904 0.14723738 0.2330714 0.15505381 0.1598911
0.13519715 0.09037373 -0.045995265 -0.15045555 0.0074159782 -0.15089118 -0.46265993 -0.2244953
-0.033015553 -0.15520093 -0.28507423 0.12691087 -0.028595889 -0.109019734 0.022570632 -0.012291474
0.07960513 -0.018332092 -0.05677304 0.02667434 -0.0063766353 -0.08429853 -0.015998915 -0.008544568
00000000: dfe6 8cbd 5ae1 623e 8971 fb3e 3604 42bd
00000010: 6fd7 ec3e 42d7 0e3f bcde ac3d 9297 4e3e
00000020: 0d69 783d 03a0 693d 0677 ec3d a788 173d
00000030: 0dcc 053e f4f4 203c 7c1d 9fbd 9aed 983e
00000040: 5de0 173e 438e 10bd 8c43 313b dd7d 3e3d
00000050: 771f 093a af45 d53d c3be 633e 5d5f 343d
00000060: 18d9 9dbd 0076 ad3c cd7b 76bd 1265 a3bd
00000070: bfa4 3bbe 9885 d5bd be42 ed3c 4387 483d
00000080: 9d59 52bc 7138 ac3d 0a67 963d 5d04 98bd
00000090: 12e2 9fbd 6883 6fbc 5012 c3bd edd0 8ebd
000000a0: 60ab 43be 6246 b2bd 7acf 9cbd c7dc 4ebc
000000b0: 5c6d 40bd e428 403d 96cd 26bd 30aa 5ebc
000000c0: c32b cc3c 997e d3bb 72b0 2bbd eee9 a3bd
000000d0: dcde a2bd ff40 bb3d 9ca6 1e3a 3d90 8f3d
000000e0: 9795 f03c bc56 b1bd 24bf f73c 9f06 813c
000000f0: 8b70 04bd 10b1 de3c 9ec0 32bd 6c42 4f3d
00000100: 57a5 053d 2d60 f2bc b152 0db9 0f58 40bc
00000110: c805 433d fb0f 26bd f56e fcbb aed2 0cbc
00000120: b973 89bd 9dcf 5c3c a9fc 02bd 195f 923d
00000130: 2da9 793c 64b2 ac3d 6392 8bbd ddac 31bd
00000140: 40e9 9bbd bbf3 35bd 7a06 d2bc e1bf 26bd
00000150: 358e 203d 7ea3 5f3d f62c 1b3b c9f7 25bd
00000160: b492 8f3d 716d d4bc 62b3 13bc 92c4 3abd
00000170: 14bb 69bd adaa 38bd fc7f 8c3d ed17 5e3c
00000180: 6cba c4ba 3215 393a 77c3 b2bc 8902 bebc
00000190: c2b6 9d3c 9c7d 78bd 4772 5e3d 8392 983d
000001a0: 3c31 333d 305d 5bbc e9f0 de3d be92 063d
000001b0: a7f2 66bd 2a11 123d a210 9fbd 48f3 a1ba
000001c0: 3ea6 9bbc c704 af3c 3048 04bd 587e 473d
000001d0: 47ba f5bc c104 59bd fb1e ba3d e039 d93d
000001e0: bdf6 d5bc 937d 243e 621b fa3d cf89 093d
000001f0: ab6c fd3d 5341 453d b620 a2bb 46ba 923c
00000200: 54d5 46bd a3f5 973b 962e b2bc 6f16 0bbd
00000210: 5c7e 92bc 5bf1 22bc f916 cfbc 350d 25be
00000220: d115 71be 9846 553e 3806 88be 2c4c 0abf
00000230: af86 f8bc b107 dd3d c3fb 87bc 2445 833e
00000240: e341 003e e8a2 063d fdd0 f53c 54b1 d13d
00000250: 7def c2bc 67b7 b2bd 385c c13d ede1 ec3d
00000260: 909d 12bd b700 e3bc 4e60 483d 1e30 bf3d
00000270: 8b53 6d3d 0272 593d 402e 603d 2730 043e
00000280: 5f65 333d 2507 603d 5ba6 81bd e84a 7abd
00000290: 1068 ee3c 7460 8e3d 87ec 643a bd15 7d3c
000002a0: 30c6 07bd 2ad0 8fbd 4c43 50bd 2e1e cbbd
000002b0: 9657 18be 0edb 8b3c 613f 6c3c 6067 e2bd
000002c0: c5f8 e83d 9f04 dabd f7af 25bd ea69 303d
000002d0: 58e4 65be 974e 01be 11be 863d 113a 27be
000002e0: 3c97 2fbd 7536 bfbd 9fbd a63d de75 b8bd
000002f0: 3513 30be 72ab 633d 2b3b f0b9 ab64 d4bd
00000300: a6a5 25be a9ba 25be eefb 3abe bd1a 13be
00000310: c390 56be a7b9 e7bd fb21 9a3b dfc5 29bd
00000320: aef6 d4bd a77b 65be 4af9 70be 4085 a5be
00000330: aa2e 53be 343c 87be af1a 8abe 6e5a a3bd
00000340: 4796 89bd 60cb 223e 6740 eabc e6ca 14be
00000350: 9f90 cfbd a834 a53b f72e 37bd c9bf 07be
00000360: bb56 223d fb82 da3d d3b2 7d3d dbd0 cd3d
00000370: 2056 163e aeee 113e 6358 b93a 697a 60bc
00000380: 68ef b2bd 8bbe 343d f5a7 2a3e c81a 1e3e
00000390: 65c5 163e 45aa 6e3e 6dc6 1e3e 7eba 233e
000003a0: 1f71 0a3e dd15 b93d 8865 3cbd 0511 1abe
000003b0: bc01 f33b 3883 1abe c3e1 ecbe 19e2 65be
000003c0: 513b 07bd feec 1ebe 40f5 91be ecf4 013e
000003d0: ed41 eabc bd45 dfbd 0ce6 b83c 2e62 49bc
000003e0: 0408 a33d 2f2d 96bc d98a 68bd 2584 da3c
000003f0: 18f3 d0bb b5a4 acbd 2810 83bc 84fe 0bbc

layer2.0.bn2.weight f4 [16]
0.5810894 0.9240501 0.49511972 0.84303623 0.9131922 0.3812659 0.73429173 0.4140799
0.60246825 0.44354922 1.0722389 0.5580976 0.6162581 0.49491388 0.70883524 0.40528804
00000000: 46c2 143f 8c8e 6c3f 5580 fd3e 39d1 573f
00000010: f7c6 693f 4935 c33e 8bfa 3b3f 4802 d43e
00000020: 5c3b 1a3f e218 e33e 203f 893f 7cdf 0e3f
00000030: 17c3 1d3f 5a65 fd3e 3a76 353f ea81 cf3e

layer2.0.bn2.bias f4 [16]
0.15295279 0.15098104 -0.100996114 -0.10315465 -0.1705444 -0.054616846 0.0025710922 -0.042974573
0.054077424 0.4040972 -0.1984074 0.37904465 0.3686766 0.48457804 0.20017453 0.13790017
00000000: a89f 1c3e c69a 1a3e 0dd7 cebd bf42 d3bd
00000010: 31a3 2ebe eab5 5fbd c57f 283b 1b06 30bd
00000020: 4a80 5d3d d4e5 ce3e 4f2b 4bbe 2412 c23e
00000030: 2ec3 bc3e 9d1a f83e 8dfa 4c3e b435 0d3e

layer2.0.bn2.running_mean f4 [16]
0.6348057 -0.6097923 -0.24070396 -0.3986877 -0.19211985 -0.7924581 0.15345833 -0.30028424
0.80199635 -0.45367458 -0.7733114 1.1122061 1.8122276 0.8187238 0.22261746 0.0340903
00000000: a082 223f 591b 1cbf 197b 76be cb20 ccbe
00000010: 11bb 44be 89de 4abf 2e24 1d3e dbbe 99be
00000020: a24f 4d3f 0948 e8be bcf7 45bf c55c 8e3f
00000030: 13f7 e73f e297 513f d5f5 633e 45a2 0b3d

layer2.0.bn2.running_var f4 [16]
0.66152674 0.9894853 0.25183862 0.41316116 0.35581204 0.18865812 0.572494 0.18438882
0.4229702 0.42364582 0.57640874 0.6290942 1.0183101 0.861213 0.64708966 0.20809498
00000000: d159 293f e94e 7d3f fef0 803e dc89 d33e
00000010: ff2c b63e 982f 413e f78e 123f 6cd0 3c3e
00000020: 8d8f d83e 1be8 d83e 868f 133f 510c 213f
00000030: fc57 823f 7578 5c3f aba7 253f da16 553e

layer2.0.shortcut.0.weight f4 [16, 8, 1, 1]
0.007254336 -0.38256013 0.6678922 -0.120361805 0.005618771 0.035039764 -0.012019315 0.26382932
0.17012909 0.0041918103 0.022517068 -0.15922368 0.16731565 -0.14082804 0.14741027 0.016251955
-0.019574884 -0.025678072 0.53359306 0.0115222335 -0.75348574 0.013273431 -0.12840393 -0.12681217
-0.15944703 0.08714446 0.2497984 -0.39407694 0.1240876 -0.060242202 0.16648018 -0.30083957
-0.1343561 -0.2994079 -0.12826218 -0.19082117 0.2487638 -0.07320204 -0.2759152 0.2398063
0.020208016 0.4720698 -0.3100738 -0.05236344 -0.3178569 0.028661322 0.070067205 -0.5084007
-0.22888625 -0.08652686 0.18464667 0.024878087 -0.19805865 0.27832085 0.19310766 0.013068047
0.036019802 -0.11382065 -0.3428421 -0.01986846 0.5714181 0.022418091 0.064595945 0.1834685
-0.24649483 0.08499324 -0.24395128 0.021517646 -0.054445975 0.098289475 0.18522437 0.11722838
-0.21053606 0.05031208 0.21751699 0.31599844 -0.046384975 -0.13022654 0.060911864 0.27359843
-0.14189693 -0.06187568 -0.15910427 0.17412671 -0.18785375 -0.3670954 0.024107337 0.18383604
0.2152041 -0.065334596 0.23845509 0.22514443 0.14064269 0.07735401 -0.15174863 0.016587341
-0.13683885 -0.06788703 0.007953037 0.057988197 0.007605195 0.012958537 0.32240033 0.02851291
0.06336692 0.2932463 -0.15017703 -0.17424275 -0.08150166 -0.10276334 0.19956926 0.25865874
-0.062452696 0.14862953 -0.07983645 -0.34957588 0.002695786 -0.039181452 -0.07701601 0.081899025
0.12757142 0.66109407 0.31166276 0.13033128 0.060155433 0.06758908 0.19943355 0.109651454
00000000: c8b5 ed3b ecde c3be fcfa 2a3f 4080 f6bd
00000010: ab1d b83b db85 0f3d a9ec 44bc a314 873e
00000020: 5236 2e3e 745b 893b b775 b83c 880b 23be
00000030: cb54 2b3e 3a35 10be b8f2 163e d222 853c
00000040: 825b a0bc d25a d2bc 8e99 083f c0c7 3c3c
00000050: 71e4 40bf ce78 593c 527c 03be 0ddb 01be
00000060: 1546 23be cb78 b23d 27cb 7f3e 74c4 c9be
00000070: a421 fe3d 87c0 76bd c879 2a3e a507 9abe
00000080: a594 09be fe4b 99be 2957 03be a066 43be
00000090: f0bb 7e3e f3ea 95bd c244 8dbe c88f 753e
000000a0: 488b a53c 22b3 f13e fec1 9ebe 0c7b 56bd
000000b0: 24be a2be 26cb ea3c 657f 8f3d 8c26 02bf
000000c0: 2861 6abe ff34 b1bd 0414 3d3e 21cd cb3c
000000d0: e3cf 4abe 1280 8e3e 04be 453e 5d1b 563c
000000e0: 8089 133d cd1a e9bd 0089 afbe 2ec3 a2bc
000000f0: 7548 123f 25a6 b73c e14a 843d 2bdf 3b3e
00000100: 2469 7cbe f010 ae3d 5dce 79be c645 b03c
00000110: be02 5fbd fe4b c93d 75ab 3d3e 6f15 f03d
00000120: c496 57be 0a14 4e3d c6bc 5e3e 8cca a13e
00000130: 2cfe 3dbd 1b5a 05be b87e 793d 1815 8c3e
00000140: 6e4d 11be 5a71 7dbd 3bec 22be 464e 323e
00000150: bc5c 40be eef3 bbbe c07c c53c 843f 3c3e
00000160: 775e 5c3e 25ce 85bd 922d 743e 438c 663e
00000170: a304 103e c76b 9e3d fe63 1bbe 2de2 873c
00000180: 7c1f 0cbe 5b08 8bbd 744d 023c 0885 6d3d
00000190: 0035 f93b 0b50 543c a811 a53e e893 e93c
000001a0: 84c6 813d 6124 963e 02c8 19be b16c 32be
000001b0: 58ea a6bd 9675 d2bd e25b 4c3e eb6e 843e
000001c0: 66ce 7fbd 5732 183e 4b81 a3bd 9cfb b2be
000001d0: c9ab 303b bb7c 20bd 92ba 9dbd adba a73d
000001e0: 15a2 023e 763d 293f 4392 9f3e 9075 053e
000001f0: 8b65 763d 256c 8a3d 4f38 4c3e f190 e03d

layer2.0.shortcut.1.weight f4 [16]
0.3538561 0.11430771 0.6013987 0.32222268 0.4358619 0.72147274 0.23598005 0.41498032
0.22491398 0.17645538 0.23339064 0.13450955 0.082954034 0.21158159 0.09378364 0.46073663
00000000: a02c b53e 291a ea3d 44f5 193f 5ffa a43e
00000010: 4a29 df3e 70b2 383f c1a4 713e 4d78 d43e
00000020: da4f 663e b8b0 343e f5fd 6e3e dfbc 093e
00000030: cee3 a93d d8a8 583e a311 c03d ace5 eb3e

layer2.0.shortcut.1.bias f4 [16]
0.15295279 0.15098104 -0.100996114 -0.10315465 -0.1705444 -0.054616846 0.0025710922 -0.042974573
0.054077424 0.4040972 -0.1984074 0.37904465 0.3686766 0.48457804 0.20017453 0.13790017
00000000: a89f 1c3e c69a 1a3e 0dd7 cebd bf42 d3bd
00000010: 31a3 2ebe eab5 5fbd c57f 283b 1b06 30bd
00000020: 4a80 5d3d d4e5 ce3e 4f2b 4bbe 2412 c23e
00000030: 2ec3 bc3e 9d1a f83e 8dfa 4c3e b435 0d3e

layer2.0.shortcut.1.running_mean f4 [16]
0.2845329 0.1326077 -0.49683437 -0.29341963 -0.5573356 -0.53173184 0.2400638 0.36847234
0.15092757 0.72130966 -0.1421347 0.47189644 0.40331915 0.24223752 -0.45460317 1.3272555
00000000: 4cae 913e 50ca 073e 1361 febe 193b 96be
00000010: 8cad 0ebf 941f 08bf 49d3 753e 68a8 bc3e
00000020: c28c 1a3e c0a7 383f c28b 11be 699c f13e
00000030: d97f ce3e 1d0d 783e bfc1 e8be 82e3 a93f

layer2.0.shortcut.1.running_var f4 [16]
0.15336326 0.03576524 0.15630585 0.1098969 0.12013795 0.15160523 0.111079045 0.09095174
0.09024793 0.09143577 0.07531205 0.07201358 0.050881136 0.140243 0.089685455 0.14557156
00000000: 420b 1d3e 937e 123d a40e 203e a011 e13d
00000010: e30a f63d 673e 1b3e 697d e33d e844 ba3d
00000020: e8d3 b83d ad42 bb3d 343d 9a3d db7b 933d
00000030: bd68 503d dc9b 0f3e 02ad b73d b610 153e

layer3.0.conv1.weight f4 [32, 16, 3, 3]
-0.014488218 -0.04101819 -0.018436305 -0.0064792125 0.020891372 -0.07116902 -0.054414906 -0.007669471
-0.072220534 0.06596858 -0.12436125 0.11049185 0.11416161 -0.34257585 -0.37248817 0.2120986
0.026702005 -0.040684633 0.006157257 -0.04785195 0.006733121 0.075960845 -0.027708637 -0.010975372
0.06955566 0.062126376 -0.0668726 0.050914567 0.0144171845 0.007219292 0.012734596 0.06043159
0.055390812 -0.017233 0.032257874 0.030965604 -0.017603965 0.051295727 0.07324674 -0.057861436
-0.03610164 0.07177018 0.0062765875 -0.06420134 0.08836436 -0.043450456 -0.034473877 0.0021135213
0.016307266 0.045357134 0.062423695 -0.05373508 -0.009502379 0.07648288 -0.120970435 -0.19948453
-0.08833525 -0.19688548 -0.44614282 -0.41018912 -0.033694793 -0.27008274 -0.38329396 -0.06692138
-0.009614618 0.009186806 -0.023552148 -0.10227925 -0.10685407 0.0314633 0.0027007237 -0.078599125
0.009381651 -0.037400678 -0.11698907 0.06900756 0.19506314 0.17536595 0.058456782 0.17879789
0.2529147 -0.03950093 -0.005062884 0.027693782 -0.09335377 -0.07374244 0.23065107 -0.02142585
-0.09221797 0.15658988 -0.013063793 -0.027963646 -0.038562823 0.056082796 0.08771353 -0.0007867615
-0.05873479 0.044108268 0.0523022 -0.08721297 0.021870123 -0.1365238 -0.053716607 0.37062755
0.52198756 -0.37903267 -0.016985096 0.35260853 0.0065665315 0.14262979 0.05520588 -0.08248584
0.12023939 -0.07115856 -0.14651603 -0.21415943 -0.33861962 -0.070756115 -0.16171548 -0.101746425
0.11753989 0.22939548 0.13560164 0.08028959 0.21226282 0.039748255 -0.011738246 0.14075622
0.15966217 -0.07089194 0.13592534 0.039999716 0.00093960186 0.11090847 0.014796474 -0.03968538
-0.069814526 -0.06385063 -0.010264769 -0.097409084 -0.1735733 0.041573174 0.00040564642 -0.093397066
-0.18647394 -0.17660426 -0.08685837 -0.30544284 -0.19616047 -0.07910576 -0.21746422 -0.15758023
-0.012176453 -0.015837645 -0.027591925 -0.034584567 -0.119668014 -0.12958595 -0.046564214 -0.007964188
0.0047006733 -0.022599436 0.14031345 0.1748055 0.05107329 0.18217824 0.22496402 0.07506752
0.102792695 0.24049097 0.026067274 0.13640754 0.12396962 0.079688825 0.11228101 0.15898636
0.13970189 -0.03889041 -0.024317898 -0.059033696 0.092121094 0.103043295 0.05730634 0.022472482
0.03901843 0.13502553 -0.00092563103 0.043263774 0.08792391 -0.09319331 -0.12095641 -0.15010989
-0.13503309 -0.14510344 -0.15550065 -0.15965644 -0.16618982 -0.11344 -0.023762316 -0.00563004
0.03276194 -0.03701758 0.03152558 0.05093755 -0.07415588 0.014182844 0.048108738 -0.049933862
-0.16095376 -0.00011558731 -0.13660754 -0.13683203 0.06376823 -0.1227237 -0.043380633 0.10409482
0.03514255 0.019244714 -0.019432876 0.046580352 -0.011251028 -0.038209755 0.04039996 -0.008262349
-0.081117354 0.029048594 -0.08233909 -0.08221335 0.00552052 -0.1057881 -0.08721688 -0.11840773
-0.24433807 -0.089055024 0.024693929 0.094868764 0.047860447 0.069815785 0.11044762 0.079482764
0.037612278 0.11204667 0.073861 0.06606304 0.006967661 -0.03230054 0.11030605 0.05554365
0.0048239473 0.051419757 0.034296002 0.030380301 0.029378563 0.035680816 -0.01562195 -0.025183525
00000000: fe5f 6dbc b102 28bd bc07 97bc 934f d4bb
00000010: 6224 ab3c 10c1 91bd 2ae2 5ebd 3050 fbbb
00000020: 5ce8 93bd 891a 873d 1cb1 febd 8d49 e23d
00000030: 90cd e93d 1a66 afbe c5b6 bebe 6030 593e
00000040: 2abe da3c eea4 26bd d1c2 c93b 6800 44bd
00000050: 83a1 dc3b 5c91 9b3d 39fd e2bc 0cd2 33bc
00000060: 3373 8e3d 3a78 7e3d 80f4 88bd cb8b 503d
00000070: 0e36 6c3c d08f ec3b c4a4 503c 1d87 773d
00000080: 7ae1 623d 382c 8dbc d520 043d 94ab fd3c
00000090: 3136 90bc 781b 523d 6302 963d 1d00 6dbd
000000a0: 50df 13bd 3efc 923d d5ab cd3b fe7b 83bd
000000b0: 60f8 b43d 1bf9 31bd 7b34 0dbd 0183 0a3b
000000c0: d196 853c 67c8 393d fdaf 7f3d 5119 5cbd
000000d0: deaf 1bbc 0ea3 9c3d 59bf f7bd ac45 4cbe
000000e0: 1de9 b4bd 599c 49be d56c e4be 4f04 d2be
000000f0: 8d03 0abd 4948 8abe 1b3f c4be 140e 89bd
00000100: a186 1dbc 4284 163c 6ff0 c0bc c977 d1bd
00000110: 4fd6 dabd a9df 003d a0fe 303b 94f8 a0bd
00000120: 7fb5 193c 7431 19bd f797 efbd d653 8d3d
00000130: a2be 473e 2293 333e 6170 6f3d cb16 373e
00000140: 097e 813e bacb 21bd 8de6 a5bb 12de e23c
00000150: 4330 bfbd 4706 97bd cb2f 6c3e 4485 afbc
00000160: c6dc bcbd 1959 203e 8509 56bc 0414 e5bc
00000170: 0df4 1dbd 13b7 653d 27a3 b33d ac3e 4eba
00000180: e493 70bd dfaa 343d d53a 563d b79c b2bd
00000190: f928 b33c e5cc 0bbe f205 5cbd e5c2 bd3e
000001a0: faa0 053f 9210 c2be 5424 8bbc 1b89 b43e
000001b0: 0f2c d73b 8b0d 123e 901f 623d 56ee a8bd
000001c0: 1240 f63d 94bb 91bd 4c08 16be 9c4c 5bbe
000001d0: 8d5f adbe 95e8 90bd be98 25be 6e60 d0bd
000001e0: c1b8 f03d a6e6 6a3e 28db 0a3e de6e a43d
000001f0: 6d5b 593e 11cf 223d c651 40bc 6622 103e
00000200: 7b7e 233e cb2f 91bd 0330 0b3e bed6 233d
00000210: 9d4f 763a fb23 e33d e96c 723c 238d 22bd
00000220: ebfa 8ebd 1ec4 82bd 902d 28bc 6a7e c7bd
00000230: 33bd 31be a248 2a3d f1ac d439 f646 bfbd
00000240: 06f3 3ebe bfd7 34be cde2 b1bd 0163 9cbe
00000250: 4ade 48be 3302 a2bd f1ae 5ebe b65c 21be
00000260: bf7f 47bc f3bd 81bc 7608 e2bc 8ca8 0dbd
00000270: 8114 f5bd 2eb2 04be 1eba 3ebd 3a7c 02bc
00000280: 1b08 9a3b 7422 b9bc 54ae 0f3e 3700 333e
00000290: 3a32 513d ef8c 3a3e f85c 663e 00bd 993d
000002a0: fa84 d23d 4443 763e 098b d53c 6bae 0b3e
000002b0: c9e3 fd3d e533 a33d 96f3 e53d 52cd 223e
000002c0: 030e 0f3e 8d4b 1fbd 5436 c7bc 51cd 71bd
000002d0: fca9 bc3d 5d08 d33d 0eba 6a3d 3618 b83c
000002e0: cad1 1f3d 2244 0a3e 0ca6 72ba 5b35 313d
000002f0: 7311 b43d 22dc bebd ffb7 f7bd 68b6 19be
00000300: 1d46 0abe ff95 14be 903b 1fbe fa7c 23be
00000310: aa2d 2abe 3b53 e8bd 30a9 c2bc 337c b8bb
00000320: 6231 063d bf9f 17bd f720 013d e4a3 503d
00000330: 0adf 97bd 295f 683c ab0d 453d 7387 4cbd
00000340: 10d1 24be 7767 f2b8 d9e2 0bbe b21d 0cbe
00000350: eb98 823d 9056 fbbd e4af 31bd aa2f d53d
00000360: a2f1 0f3d 17a7 9d3c b231 9fbc 0acb 3e3d
00000370: 3b56 38bc d581 1cbd 6e7a 253d ce5e 07bc
00000380: db20 a6bd 51f7 ed3c 66a1 a8bd 795f a8bd
00000390: 7ae5 b43b 6ea7 d8bd c39e b2bd c07f f2bd
000003a0: c233 7abe 7b62 b6bd ec4a ca3c 8e4a c23d
000003b0: 5109 443d 94fb 8e3d 5d32 e23d dcc7 a23d
000003c0: 550f 1a3d b978 e53d 7044 973d 0f4c 873d
000003d0: fa50 e43b 924d 04bd 23e8 e13d bd81 633d
000003e0: 3412 9e3b 869d 523d f779 0c3d 1ce0 f83c
000003f0: 50ab f03c 0c26 123d 35f3 7fbc ae4d cebc

layer3.0.bn1.weight f4 [32]
0.67258066 0.4606175 0.48098966 0.35255414 0.36258262 0.6510814 0.42707586 0.5404079
0.5189094 0.5219993 0.42524332 0.5318331 0.51926696 0.6024764 0.5921388 0.3452387
0.6035837 0.52439064 0.49073684 1.0662653 0.6703945 0.38421446 0.5494407 0.41969645
0.44897875 0.35963228 0.59042835 0.5651496 0.58296627 0.4839536 0.44708365 0.37789056
00000000: 3f2e 2c3f 0fd6 eb3e 4744 f63e fa81 b43e
00000010: 6ea4 b93e 45ad 263f b0a9 da3e 2c58 0a3f
00000020: 3fd7 043f bfa1 053f 7eb9 d93e 3726 083f
00000030: aeee 043f e53b 1a3f 6996 173f 20c3 b03e
00000040: 7684 1a3f 773e 063f dc41 fb3e 627b 883f
00000050: f99e 2b3f c2b7 c43e 25a8 0c3f 74e2 d63e
00000060: 8be0 e53e b921 b83e 5026 173f a5ad 103f
00000070: 473d 153f c4c8 f73e 26e8 e43e df7a c13e

layer3.0.bn1.bias f4 [32]
-0.21588902 0.06045553 0.088082075 0.2875439 0.074731246 -0.20538776 0.10182096 -0.1366907
-0.03696892 -0.18575786 0.17165819 -0.10206541 -0.086713076 0.053741407 0.05892273 0.10907031
-0.12728414 -0.10562472 -0.05949345 -0.36260062 0.054682247 0.19442669 -0.11152535 -0.016290206
0.057128575 0.20461676 -0.13541818 -0.15598732 0.061828904 0.046074133 0.20179614 0.08549582
00000000: 0312 5dbe 38a0 773d 6064 b43d f438 933e
00000010: b20c 993d 2b51 52be 8287 d03d a6f8 0bbe
00000020: b96c 17bd 4f37 3ebe 2ac7 2f3e ab07 d1bd
00000030: a096 b1bd f31f 5c3d f658 713d 4160 df3d
00000040: c656 02be c651 d8bd 67af 73bd caa6 b9be
00000050: 7efa 5f3d ca17 473e 6767 e4bd 0a73 85bc
00000060: a7ff 693d 0e87 513e 10ab 0abe 24bb 1fbe
00000070: 4e40 7d3d 3bb8 3c3d a6a3 4e3e 6f18 af3d

layer3.0.bn1.running_mean f4 [32]
0.20419534 -1.6053666 -1.045652 0.1964693 0.21114613 -0.33569396 -0.7966337 -1.4733539
-0.59790105 -0.84115225 -2.2326553 -0.88442844 0.6365428 0.06783101 -2.1606565 0.6443512
-1.4140283 0.40463573 -0.2767356 -0.4036449 0.1324207 0.055271428 -1.1229368 1.8132361
-2.7941213 -0.1367834 0.098546036 -1.226834 -1.2519449 -1.5453817 0.117482334 0.16480316
00000000: 9518 513e a77c cdbf edd7 85bf 402f 493e
00000010: b136 583e 14e0 abbe 30f0 4bbf dc96 bcbf
00000020: 0b10 19bf c155 57bf d3e3 0ec0 e769 62bf
00000030: 78f4 223f fcea 8a3d 3248 0ac0 33f4 243f
00000040: e1fe b4bf 6a2c cf3e 4ab0 8dbe 8baa cebe
00000050: 4b99 073e 4b64 623d 65bc 8fbf 1f18 e83f
00000060: e2d2 32c0 f310 0cbe 81d2 c93d e608 9dbf
00000070: bb3f a0bf 11cf c5bf 949a f03d 29c2 283e

layer3.0.bn1.running_var f4 [32]
0.66449696 0.8754392 0.83329695 0.7832676 0.911255 0.92131585 1.114462 0.5992616
0.59396684 0.8120485 0.8579018 0.63817006 0.77694243 0.9915258 2.2966719 0.5641693
0.62730205 0.6638786 0.50977415 1.780771 1.8910775 1.0834984 0.63728225 0.46912226
0.9035093 0.94046456 0.5499348 0.66641885 1.0747821 0.8317958 1.2048087 1.1326233
00000000: 791c 2a3f c91c 603f f352 553f 3a84 483f
00000010: 0248 693f 5bdb 6b3f b1a6 8e3f 3569 193f
00000020: 360e 183f 69e2 4f3f 749f 5b3f 1d5f 233f
00000030: b3e5 463f a3d4 7d3f acfc 1240 666d 103f
00000040: de96 203f f3f3 293f 8f80 023f 4ef0 e33f
00000050: d40e f23f 13b0 8a3f ee24 233f cb30 f03e
00000060: 634c 673f 49c2 703f 87c8 0c3f 6d9a 2a3f
00000070: 7692 893f 92f0 543f 2c37 9a3f cdf9 903f
