ce_results/CE_with_seed-1_cycles-1_cifar100-ResNet10_scheckpoint.pth.tar (torch, 716069 bytes, 100 tensors)

conv1.weight f4 [8, 3, 3, 3]
00000000: 4263 d0be 9484 4dbd 3328 52bd 4b7a 303d
00000010: 0715 a2bd b1a0 8fbd da5f 58bd 578f 9abc
00000020: 162e d5be 32ab 8ebe 791e 543d 1dda e13d
00000030: db00 f43d b181 64bd ce96 7e3d 2dae e23d
00000040: 97ca 223d ea17 85be 6e39 15be fe44 6ebc
00000050: 4449 d53c 74a6 863d 60c6 aebd ca44 84bd
00000060: fe79 9c3c 4b03 dc3c 45e0 2ebe 50d7 2bbf
00000070: 5736 193e 6e6e 98be 4744 f9be 27b1 b73f
00000080: e1e6 963f 119f 5ebf 2fa7 e33e 2442 453f
00000090: 8afa 4c3e 1980 19be 14b9 73bd 63cb 1dbd
000000a0: 2978 fabe f8cf 44bf 8e37 1d3f 0a3a 6dbe
000000b0: 369a e4be 37ab b93e 9c98 6e3c b72d b73e
000000c0: 692f c23d be74 fdbe 7844 cabe 0e27 073f
000000d0: dfe0 c1be f7ad 93be 1875 343e e920 8b3d
000000e0: 54c2 8b3d 266d 85be ece1 51bf 4fe8 62be
000000f0: 73f2 863e d4fc 3dbe 1c79 ae3e 1099 d53d
00000100: abc8 9d3d a152 f4bc 4da9 dcbd fa7b 1ebf
00000110: 7dc0 81bd b4a3 383e ca49 81be 34ab 303e
00000120: d128 073e 8908 93bc 0fb8 533e 15c2 f0bd
00000130: 1eb7 40bf fed5 74bd fb77 033e b6f9 0fbf
00000140: cab8 d7bb 930b bcbe 3d70 86be 184a 473c
00000150: 15d2 22bf 1ec3 16bf 50d4 aebe 723d e4be
00000160: 196f 40bf 8c06 03bf 0ba3 853e 9e81 0b3e
00000170: 6b07 8cbd 8e3d a23e 4da9 883e 98fb d8bb
00000180: cff2 c93e e180 5e3e c2b0 2e3e a60f 623c
00000190: cea0 4a3e b983 db3d 6539 2d3e 7569 d23e
000001a0: a744 8f3e 4013 833e db6b c53e 857f b83e
000001b0: e1da 58bd 739a 06be 08fc 5bbe 5ad1 4bbe
000001c0: 979d 0c3d 1f9d a43d 3ce2 39bc e399 af3e
000001d0: 5707 543d d487 10bd 120a 613f e156 3d3f
000001e0: 7fa6 f2be 58d6 773f d55f 823f 1627 8dbf
000001f0: cffa 02bd 5db3 0fbf ec6b 823e 5ce9 3abf
00000200: a4f3 17bf f382 ca3c fb0b 72bf 4603 3dbf
00000210: 14c4 333f 2639 243f ccc3 8f3e 1876 0c3e
00000220: 2c7c 383e 6960 a63d c697 67bd f593 f33e
00000230: b6d8 7d3e d46e 39be dddc 02bd 37fd 81be
00000240: a697 19be fd9c 85be 2a8f 8ebe 900a 31be
00000250: bf88 5d3e a206 e13d fb4f e63b be68 d33d
00000260: 228e 393c 4e0f acbd fdc0 ab3e 18c0 823e
00000270: b7ae 13be 0590 523f ca98 1b3f 95f7 d1be
00000280: c5ea 4bbc e875 23be 5175 973d b4a3 4fbd
00000290: d499 6a3c 1d03 3abf 25d8 633f 4330 e5bd
000002a0: 848e d43d 0a26 92bd e413 1bbd 7f39 b33d
000002b0: dd04 16be 4e29 4cbe 7afa d2bf 60ba fc3f
000002c0: 2947 013d c463 a1bc ac9d 413c f28b 313d
000002d0: 80b4 cc3c 2304 77bd 2737 1fbd 176b 94bf
000002e0: b218 b43f 3dca a23a 9dae 43bc bb30 5dbd
000002f0: 8f19 38bc 263c bf3e 223e a93f a145 8f3b
00000300: 03cc e7be fd53 6fbf 1658 dbbd aa8b 84bd
00000310: 8e56 f4bb 8033 bbbc d23c 073f f4b5 ae3f
00000320: d7f6 8c3d 99db 15bf 79a8 aabf b584 dcbd
00000330: cfc3 ad3c ae34 8fbd 36b7 1c3d b226 8a3e
00000340: 2a5e 693f ae37 babc 4c0b 9abe 9047 5fbf
00000350: 7c86 f9bb e097 263d 305b 87bd 4203 4d3d
-0.40700728 -0.050175264 -0.05130787 0.043085378 -0.07914167 -0.07013071 -0.052825786 -0.018867178
-0.41636723 -0.27864987 0.051786873 0.1102793 0.11914226 -0.055787746 0.062155537 0.11068378
0.039743986 -0.25994807 -0.14572689 -0.014542816 0.026035912 0.06574717 -0.08533931 -0.06458433
0.01910114 0.026857039 -0.1707774 -0.67125416 0.14962135 -0.2977175 -0.48684904 1.4350938
1.1789209 -0.86961466 0.44463488 0.7705405 0.20017448 -0.14990272 -0.059502676 -0.038524043
-0.489198 -0.76879835 0.61412895 -0.23166671 -0.44648904 0.3626344 0.014562752 0.35777065
0.09481699 -0.4950313 -0.39505363 0.5279397 -0.37866876 -0.28843662 0.17622793 0.067933865
0.068241745 -0.26059836 -0.81985354 -0.22158931 0.2635685 -0.18553478 0.34076774 0.10429585
0.0770429 -0.029824557 -0.10774479 -0.61907923 -0.06335542 0.18031198 -0.2525161 0.17252809
0.13199164 -0.017948406 0.20675682 -0.11755768 -0.75279415 -0.05977439 0.12838738 -0.56240404
-0.006583308 -0.3672758 -0.26257506 0.012163661 -0.6360181 -0.58891475 -0.34146357 -0.4457813
-0.7516952 -0.51181865 0.26100954 0.13623664 -0.06837352 0.31687587 0.26691666 -0.006621789
0.3944306 0.21728851 0.17059615 0.013797676 0.19787905 0.107184835 0.16916426 0.41096082
0.27982065 0.25600624 0.3855885 0.3603479 -0.052943114 -0.13144855 -0.21482861 -0.1990408
0.034329977 0.08037781 -0.011345442 0.34297094 0.051764812 -0.035285786 0.8790599 0.7396069
-0.4739265 0.9681144 1.0185496 -1.1027553 -0.03197747 -0.5613306 0.25472963 -0.7301233
-0.5935614 0.024720645 -0.9454953 -0.7383312 0.70221066 0.641497 0.2807907 0.13716924
0.18016118 0.081238575 -0.056541227 0.4757382 0.247897 -0.18108684 -0.031948913 -0.253885
-0.14999256 -0.26096335 -0.278436 -0.17289186 0.21634196 0.10987593 0.0070285774 0.10322712
0.011325391 -0.08401357 0.33545676 0.2553718 -0.14422117 0.82251006 0.6078001 -0.41009203
-0.01244611 -0.15962946 0.07395423 -0.05069323 0.014318902 -0.72661 0.89001685 -0.11190846
0.10378745 -0.071361616 -0.037860766 0.08751201 -0.14650293 -0.19937631 -1.6482689 1.9744377
0.031562004 -0.019700892 0.011817377 0.043346353 0.024988413 -0.06030668 -0.038870957 -1.1595181
1.4070036 0.0012419891 -0.0119434865 -0.05400155 -0.011236562 0.37350577 1.3222086 0.004372314
-0.45272836 -0.9348753 -0.107101604 -0.06471951 -0.007456607 -0.022851706 0.5282718 1.3649278
0.068830185 -0.58538204 -1.3332664 -0.10767499 0.021211533 -0.0699247 0.03826066 0.26982647
0.9115931 -0.022731628 -0.30086744 -0.8721857 -0.0076149087 0.040672183 -0.066091895 0.050051935

bn1.weight f4 [8]
00000000: 29a1 c43f 5987 b93e 591b 9b3f 1cf3 d53e
00000010: dfdc 8b3e bff8 c53e 6439 2a3f ce09 1a3f
1.5361682 0.36236075 1.2117721 0.4178704 0.2731695 0.3866634 0.6649382 0.6017121

bn1.bias f4 [8]
00000000: 4c6c f8bf cfd5 de3d 28ce a3bf 7c71 d43d
00000010: 456f dd3e cce4 043f 7b7e ad3e cfa6 813e
-1.940805 0.108806245 -1.2797289 0.10373208 0.43248954 0.51911616 0.3388556 0.25322577

bn1.running_mean f4 [8]
00000000: fe9e 0f3f 3759 f1bd 120d 393f 0afa b93e
00000010: ea09 55be 7955 d1be 2018 02be a19d 0e3c
0.5610198 -0.117845945 0.7228557 0.36323577 -0.20804563 -0.40885523 -0.12704515 0.008704574

bn1.running_var f4 [8]
00000000: e81b 1740 0c8c 883f 3ba9 d440 5e22 6740
00000010: eb67 823f e7f2 4440 cee6 5540 8e6c ac40
2.3610783 1.0667739 6.645658 3.6114726 1.0187963 3.0773256 3.3422122 5.3882513

layer1.0.conv1.weight f4 [8, 8, 3, 3]
00000000: 5fb6 97be 9ca2 45be 0860 5cbe 33d2 0bbe
00000010: c7c9 9c3e 38f1 2d3f 2e13 cabe 181b c8bd
00000020: 5d22 a63e cc3c aabd edc7 b83d c6b2 0ebd
00000030: b8b3 3d3e ac98 fa3c 6ba9 193c 0e3a 1dbb
00000040: 8f6d 363e 25b6 50be cc3c 5a3d ecd8 37bb
00000050: dcc9 943d 17d8 11be 0b7a 77be 7846 b73c
00000060: 77f8 02be 42b6 10bf 0c2d 27be 9bed bfbd
00000070: ea85 17be acc2 af3c 3a69 293d efac 913d
00000080: ac63 90bd 8b78 b53d 5866 553e 8d6a 25bd
00000090: 8133 bb3d 0b56 893c 8155 b6bd d94c 7bbd
000000a0: 66e6 b13d 39fa 48be fabd 1a3e a51a 803e
000000b0: c900 0cbe 2132 c4bd 1a7d fa3c 7ed9 723d
000000c0: 0605 98be 6905 21be 6d35 8dbe a48a dd3e
000000d0: d661 0c3f 4676 fdbd 34d3 013d 97da 5b3c
000000e0: 2395 fbbc 4a14 b53c 8bd2 9bbe 607e ac3e
000000f0: d1df 9abc a40a 1a3f 0f07 5bbf 5493 debb
00000100: d11d 07bd 2e2c 153d 9923 083e 5319 173d
00000110: d87e ca3d 2661 c7bd 0600 f2bf 0fb7 9fbe
00000120: 797c 913e 01ce c83e 4ba5 c9be e4da 803e
00000130: a080 a43e f4d7 d2be 96af 143e 57cd 7b3e
00000140: b5ce adbe d302 acbc 5c2c 19be 7ff8 b6bc
00000150: 1008 0b3e f209 01be 1bdb 143e e7d5 b1bd
00000160: 24d7 0cbd 8cfb d23d cde5 72bc e509 9f3c
00000170: e0d0 3b3e 3886 9dbe 7104 81be 2e19 783e
00000180: 9d61 a63e e7c4 603d 5e55 c13e 6afe 84bd
00000190: a929 cdbc a309 edbd f096 bf3c 21c8 8cbd
000001a0: de4e 6cbe 7894 273d 7502 96bd 3a75 4fbe
000001b0: 4b26 dc3d 2bdc 2cbe 193e 8bbd fb15 3b3e
000001c0: 9cb6 cbbd cb7a 0c3e 7cc8 bebd 3026 5a3d
000001d0: 31b2 09be dafd 3ebe 0caf 20be 9195 043b
000001e0: fb76 8bba 4955 40be f178 253c c43d 09bd
000001f0: e6f7 bdbd 37c0 c8bd b2e6 fcba 7376 ebbc
00000200: 546f 743b 7a37 263c ecc1 d5be 3def c1bd
00000210: e6e9 fa3a 6b11 91bd 60c2 26be ecfc d73d
00000220: c9e0 20bd 375b d23c b8fd 61bc bbdf 543d
00000230: a1d5 39bc 4345 2d3e 37d0 013e 2774 d6be
00000240: e92c 993e 1d95 943e 3a0d 23be 296b 663e
00000250: 534d ef3c d12d 1dbf 70f3 173e 8bca 6abd
00000260: 9019 e5be 937f b43d 82a6 04be bb19 dfbd
00000270: 1bfe d83d b0cb 343e b71d d43d 7888 cbbd
00000280: bffe 9ebe a919 1b3e 3c14 fb3d 5f30 aabd
00000290: ad82 2f3e cfdc 9fbd 6be0 5bbe 2474 743e
000002a0: 0a5c f7be 763a 27bf 55d0 33be 7274 73bd
000002b0: c4c6 883d 5d2d b43c 9f3f 153e 22a8 ab3c
000002c0: 3009 54bc 1906 6b3d a671 08be 0713 c5bd
000002d0: 7985 04be 6175 ab3d 020c 4abd 2e17 b93e
000002e0: 4186 1dbe e386 163d b4f7 e43d fab8 85bc
000002f0: ff58 9bbd e23d b2bd 2429 37be e7d0 42bc
00000300: ad44 ce3e 8d22 8fbe a657 863a e635 263f
00000310: f1ed 71be b4ca 0c3e 5336 0a3d 7450 59bb
00000320: dfee 7d3c 1546 2abe ab14 f6bd 0cd2 b6bc
00000330: e449 44bd 8314 c8bf 4e2f 003f 328c 603c
00000340: aed7 a73b cf01 273d 28b7 9f3d 1755 9fbd
00000350: 3702 00bd fff7 a4be 40b0 e23e 7834 823b
00000360: 0485 b53c a820 773e b402 3e3d 4b59 c7bd
00000370: 5aec 213d 25bb 91be 4738 58bd 09cc 0e3e
00000380: 370a acbe 259b 833e 54cb 303d e67d 84be
00000390: ff03 3e3e a458 eb3d 7f69 023e 4d42 8ebe
000003a0: 21bd 67be 7124 3c3e b2c8 063e 8bcf bfbd
000003b0: b274 9e3e c996 09bd 4b42 acbe f2a8 113e
000003c0: 0219 84be 93c0 a4be e83f 6a3e 37d6 a23d
000003d0: fb15 cd3d fe0f 313e 6151 9dbd 6ac7 96bc
000003e0: d381 8c3d cda7 aabd e089 36bd 02db cb3c
000003f0: bf5f 833e 7b3a 5b3e 47cb 9abd ca9e ea3e
-0.29631326 -0.19300312 -0.21521008 -0.13654403 0.30622694 0.67946196 -0.39467758 -0.09770793
0.32448092 -0.08312377 0.09022508 -0.03483846 0.18525589 0.030590378 0.009378771 -0.0023990902
0.17815231 -0.20381983 0.053280637 -0.002805288 0.07265064 -0.14242588 -0.2416765 0.02237247
-0.12790094 -0.56528103 -0.16325778 -0.093714915 -0.14797178 0.021455131 0.041360117 0.071130626
-0.07050261 0.08860882 0.20839822 -0.040384818 0.09140683 0.016764661 -0.08903027 -0.061352585
0.08686523 -0.19626702 0.15111533 0.25020328 -0.13672175 -0.09579874 0.030577231 0.059289448
-0.29691333 -0.1572472 -0.27579823 0.43269837 0.54836786 -0.123760745 0.03169556 0.013418815
-0.030710762 0.022104401 -0.3043407 0.33690166 -0.018905552 0.60172486 -0.85557646 -0.006792465
-0.03298742 0.036419086 0.1329483 0.036889385 0.09887475 -0.097353265 -1.8906257 -0.3119435
0.28415278 0.39219669 -0.3938392 0.25167 0.32129383 -0.41180384 0.14520106 0.2459005
-0.33946767 -0.02099744 -0.14958328 -0.022335289 0.13577294 -0.1260145 0.14536707 -0.08683377
-0.03438486 0.10301885 -0.014825297 0.019413898 0.18341398 -0.30766463 -0.251987 0.24228355
0.32496348 0.05487528 0.37760442 -0.06493838 -0.02504428 -0.11574104 0.023387402 -0.06874109
-0.2307696 0.040913075 -0.073246874 -0.20259562 0.10749491 -0.16880862 -0.067989536 0.18270104
-0.09946939 0.13718717 -0.09315583 0.053259075 -0.13446881 -0.18651524 -0.15691775 0.002023075
-0.0010640317 -0.18782534 0.010099635 -0.03350617 -0.092757985 -0.09802287 -0.0019294827 -0.028743004
0.0037297802 0.010145063 -0.41749513 -0.09469459 0.0019143193 -0.070834 -0.16285086 0.10546288
-0.03927687 0.02567826 -0.013793401 0.05197118 -0.011342437 0.16920952 0.12677084 -0.41885492
0.29917076 0.29020014 -0.15923014 0.22501816 0.029211676 -0.61398035 0.14838958 -0.057322066
-0.44746065 0.08813395 -0.12954143 -0.108935796 0.10595342 0.17655826 0.1035723 -0.09938139
-0.3105373 0.15146507 0.12259719 -0.08310007 0.17139693 -0.07805788 -0.21472327 0.23872429
-0.48312408 -0.6532358 -0.17559941 -0.059437223 0.066785365 0.021994287 0.14575051 0.020954195
-0.012941644 0.057378862 -0.13324603 -0.0962277 -0.12941541 0.083719976 -0.049327858 0.36150497
-0.15383245 0.03674973 0.11180058 -0.016323555 -0.07585334 -0.087032095 -0.17886788 -0.0118906265
0.4028677 -0.27956048 0.001024951 0.6492599 -0.23625924 0.137492 0.033743214 -0.0033159526
0.015498846 -0.16628297 -0.12015661 -0.022316955 -0.04792203 -1.563126 0.5007218 0.0137053
0.0051221466 0.04077321 0.07798606 -0.077799015 -0.031252112 -0.32220456 0.44275093 0.00397354
0.022158153 0.24133551 0.046389297 -0.09733828 0.039532043 -0.28463092 -0.052788045 0.1394502
-0.33601543 0.25704303 0.04316266 -0.25877303 0.18556212 0.11491516 0.12735556 -0.27784958
-0.2263074 0.18373276 0.13162497 -0.093657576 0.30948406 -0.033591066 -0.33644328 0.14224604
-0.2580033 -0.32178172 0.22875941 0.079510145 0.10013958 0.17291257 -0.076815374 -0.018405635
0.068606995 -0.08332787 -0.04456508 0.024884705 0.25658986 0.21409027 -0.07558303 0.4582427

layer1.0.bn1.weight f4 [8]
00000000: 2b5a 9b3f a01d 6a3f 5f79 8c3f f07a bf3e
00000010: eea2 c53e 32b9 203f 04d2 2f3f 91ff fa3e
1.2136892 0.91451454 1.097454 0.3739848 0.38600868 0.62782586 0.68679833 0.49023107

layer1.0.bn1.bias f4 [8]
00000000: bf63 b43e 0379 07bf f770 903e c639 0a3f
00000010: 335e d53e 7011 b2be b468 fb3d 71e0 89bd
0.3523235 -0.52919024 0.28211185 0.53994405 0.4167343 -0.3477893 0.1227583 -0.06732262

layer1.0.bn1.running_mean f4 [8]
00000000: 18d1 1ebf dc42 50bf e334 b0be 9dbc bd3f
00000010: 51cb 28be cf93 0b3e 5f2c 95bd b014 3a3b
-0.620378 -0.8135202 -0.3441535 1.4823185 -0.16483809 0.13630603 -0.07283854 0.0028393678

layer1.0.bn1.running_var f4 [8]
00000000: 13e2 b83f 20cc c23e 58cb 523f 0c24 033f
00000010: 3035 953e 9b2f 293e 4c57 023f d24f 163e
1.4443992 0.3804636 0.8234153 0.5122688 0.2914214 0.16522066 0.50914454 0.14678887

layer1.0.conv2.weight f4 [8, 8, 3, 3]
00000000: 8843 84bc a96d 77bf 8fc1 e3be 4aa6 283e
00000010: 93bb b33c 24b4 6eb8 bcf9 4d3d ba9f 493e
00000020: f3bf f33d 444a a7be 791d b5bd ce5c 5c3e
00000030: 5674 5d3e c97e 543e 7273 49be 9170 e9bd
00000040: 5a37 3b3e 8eb1 3dbd e0c0 813e 94ae dd3e
00000050: 3456 15bf 68ff d53d 9496 1a3e d331 d2be
00000060: d111 9d3d 3be0 f1bd 1ef1 01be e2d3 263c
00000070: 2b0e 9e3e b3f9 843d 0fd8 22bf 4520 47be
00000080: dd0c 1b3f 90c5 a3be 61fc 86be 5701 563d
00000090: aff0 49bd dbe7 a0bd c3c7 43be 1757 28be
000000a0: c83e 2cbe 6851 b33d bc7d 523e de5a 82be
000000b0: 8245 8b3e d82c 953e f7c8 263e cf3c 44be
000000c0: 7dd5 253e cb22 4c3e b303 a7be 8aea e63c
000000d0: 7563 c83d 47c8 1abf 58f9 f3bd 3448 8a3e
000000e0: e8a7 883e 31ec bd3d 7a48 6a3e dc92 b83d
000000f0: 91b2 33be 34bf fcbd 66e0 9fbd 2557 0bbe
00000100: 89a3 f5bd 51e9 af3c 9e52 ce3d e0b6 a53d
00000110: f817 d73d 3d0c b4bd 4ce6 763d 3e0e 8c3c
00000120: 4c43 d4bc 1cc3 25be 9481 6d3d 727e ba3c
00000130: 7dae d6bc aa78 1e3d 9bc5 153e 8bbf 56bd
00000140: 4edb 58bd 2f70 703e f823 f23d bede 393d
00000150: cd8c ca3d 5928 1abd 6274 26be cf38 8f3d
00000160: 3aeb f1bc d8cb 2cbe 916d d63d ee5d 403e
00000170: 1126 6fbd df47 3fbd 6a7a 773d 6d3c dcbd
00000180: 2787 e93b 3ce3 8d3d 44f1 e33d f571 813d
00000190: e5de e93c 2ec9 81be 33b3 d0bd dbf2 863d
000001a0: 0cf6 e1bd 4a0a 21be 40b2 893d 03e8 e4bd
000001b0: b1bf 0fbd 1ff4 afbd 852b 4abd 204f 40bd
000001c0: 8a11 e8be fb51 e0be 0c8c e83d 65ec a3be
000001d0: 949a 04bf 53d2 ccbd b565 55be 768c 753d
000001e0: f71d 99bc 5abf 6bbe f296 68bd 2799 35bc
000001f0: 0b73 24be 9ca9 c8bc 5e29 babd 6c1d f4bd
00000200: 0e60 e8bc ab4d 4fbd 7f97 30be 71d8 e5bd
00000210: c356 cdbc 960a 0bbe 8d48 7c3d c3c5 59bd
00000220: d01b 0a3e 70f6 9f3d 6e5b f53d ab2e 893e
00000230: 5fd2 143e d8ae 3d3e ccf7 713e b87d 79bc
00000240: b140 c23e a858 5ebe 4c78 dc3e f6a5 a7bd
00000250: 83fa dbbe a660 98be 0a24 ea3e f669 fcbd
00000260: 6e93 79b7 054f ddbd ecf5 b73d 2357 393d
00000270: 8ea4 33be 8474 2f3e 8f8d bf3d 62e9 a4be
00000280: c583 6f3d 927d 4c3d 7275 013b 3aba 88bd
00000290: b3da 1dbf 1873 943e c6c5 de3d f6cb 98bc
000002a0: ab3c 0fbe 3f2d 99bd 1950 8cbd b5aa 8fbe
000002b0: 1afe 063e b980 e83d cfee 90bd f76d 1c3e
000002c0: 489a 42bc 878f 2dbe 6c9b d13d c003 67bd
000002d0: 6a19 a0bd 7811 1bbd 3239 81bd e3cd a33c
000002e0: af39 0dbe 1ef6 1ebc 07ac 5c3e ad17 b5bd
000002f0: 5b8d 7abd 66f0 3f3e 07d8 a93e 0d9b 83bc
00000300: 1b44 4f3e a9e9 bf3e 1a6d df3d d517 d5bd
00000310: 7482 363e 4195 02bf 6e9f 273e b588 07bf
00000320: cb2e cabd f199 99be 84ca 82bf fa95 d7be
00000330: 68d2 9b3e 4485 65bd 0ddb 843e a53e 753d
00000340: 2836 7dbd 4271 27bc 34db 4fbd 5534 aabd
00000350: 865b 5e3d ff98 413e d936 233d 8674 9a3d
00000360: 9ba4 b6bc a413 9abd 42d3 883d 3e92 903d
00000370: 0bec b6bd c6c5 eebd a24a 693e 170b cbbb
00000380: d452 5ebe 783b 49be a354 28bd 8bd7 dc3d
00000390: f208 74be 65f6 f3bd fdbd 813d 54d8 25be
000003a0: 080e 0fbe ba44 32bd 50d3 c7bd 59cb 793c
000003b0: 695e 193d ca2d 1dbe 5100 0f3e 1c3e ae3d
000003c0: b275 06bd 1448 04bd 7fe0 d53d d6b5 e93d
000003d0: 55b6 423e 4d89 983e 82f5 85be e1aa 1fbe
000003e0: ac66 063d 1bab 1dbf f1bd 0cbf 1b0c 4ebe
000003f0: 48b7 67bd 9f23 27be 9a0b 9fbe ed4c aa3e
-0.016145483 -0.96651703 -0.4448361 0.16469684 0.021940028 -5.691139e-05 0.050286993 0.19689837
0.11901846 -0.32673848 -0.08843512 0.21519777 0.2162641 0.2075149 -0.19672945 -0.113984235
0.18282834 -0.046311907 0.25342464 0.43297255 -0.5833466 0.104491055 0.15096503 -0.41053638
0.07669414 -0.11810347 -0.12689635 0.010182353 0.30870184 0.06492939 -0.6361093 -0.19445904
0.605665 -0.31986666 -0.26364425 0.05224737 -0.0493018 -0.07856723 -0.19119172 -0.16439472
-0.16820824 0.087557614 0.20555776 -0.2545995 0.27201468 0.29135776 0.162876 -0.19163822
0.1619472 0.19935147 -0.3262001 0.028188009 0.09784595 -0.6046185 -0.11912793 0.27008212
0.26690602 0.092735656 0.2287921 0.09012386 -0.17548586 -0.123411566 -0.078064725 -0.13607462
-0.119940825 0.021473559 0.10074352 0.08091521 0.105026186 -0.08791397 0.060278222 0.017096635
-0.025910996 -0.1618771 0.057984903 0.022765372 -0.02620625 0.038689293 0.14626162 -0.052428763
-0.05294352 0.23480295 0.11823267 0.04537844 0.09890137 -0.037636135 -0.16255334 0.06993257
-0.02953111 -0.16874635 0.10470117 0.18785831 -0.058385912 -0.0466994 0.060419478 -0.10753713
0.007126707 0.06928107 0.11130002 0.06320564 0.028548667 -0.253488 -0.101904295 0.0658929
-0.11033258 -0.15726581 0.067234516 -0.11177065 -0.03509492 -0.08591484 -0.04935791 -0.04695046
-0.4532588 -0.43812546 0.11354837 -0.32016292 -0.5179837 -0.10001054 -0.2083958 0.059948407
-0.018691046 -0.23022214 -0.056784578 -0.011083878 -0.1605951 -0.024494939 -0.090899214 -0.11919674
-0.028366115 -0.05061118 -0.17245291 -0.112229235 -0.025065785 -0.13578257 0.061592627 -0.053167116
0.13487172 0.07810676 0.119803295 0.26793417 0.14533375 0.18523729 0.23629683 -0.015227728
0.3793998 -0.21713507 0.4306053 -0.081859514 -0.42964563 -0.29761237 0.4573062 -0.12324898
-1.4875883e-05 -0.108060874 0.08982453 0.045249116 -0.17543241 0.17134291 0.09353172 -0.32209307
0.058475275 0.04992444 0.001975384 -0.06676145 -0.61661834 0.2899406 0.10877566 -0.018651944
-0.13987987 -0.07479333 -0.06851215 -0.28059927 0.1318287 0.11352677 -0.07076799 0.15276323
-0.011877604 -0.16949283 0.102347225 -0.05640006 -0.07817347 -0.037858456 -0.06309737 0.019995635
-0.13791536 -0.009702234 0.21549998 -0.088424064 -0.061169963 0.18744048 0.33172628 -0.016065145
0.20240824 0.37482956 0.10909481 -0.10404936 0.17823201 -0.51008993 0.16369411 -0.52942973
-0.09872206 -0.3000026 -1.0218053 -0.4210661 0.30433965 -0.056035295 0.25948372 0.059874196
-0.061819226 -0.010219874 -0.050746158 -0.08310763 0.054286502 0.1890602 0.03984723 0.07541756
-0.022295287 -0.075232774 0.06680919 0.070591435 -0.089317404 -0.11658816 0.22782376 -0.0061963904
-0.21711284 -0.19651592 -0.04109634 0.10783299 -0.23831537 -0.119122304 0.063350655 -0.16195804
-0.13970196 -0.043522574 -0.097571015 0.015246236 0.037443552 -0.15349498 0.13964964 0.0850794
-0.032827087 -0.0322953 0.1044321 0.114116356 0.19014867 0.29792252 -0.2616387 -0.15592529
0.03281276 -0.6158921 -0.5497733 -0.20121805 -0.056571275 -0.16322182 -0.3106354 0.33261815

layer1.0.bn2.weight f4 [8]
00000000: be0f 803f c829 933e 1420 7e3f 1d91 753e
00000010: a00d ec3f 8c41 a73e bf62 483f 1110 243f
1.0004804 0.28742814 0.992677 0.23981138 1.8441658 0.32667196 0.78275675 0.64087015

layer1.0.bn2.bias f4 [8]
00000000: d4ab 3a3f d209 c93e bcc6 a93e 3d1b 473f
00000010: 780e 2cbf 93a9 803e 78b3 4d3f bf0a ed3e
0.7291844 0.39265305 0.33159435 0.7777594 -0.6720958 0.25129375 0.8035197 0.4629726

layer1.0.bn2.running_mean f4 [8]
00000000: 413f 5cbf 4748 89bf 850d 43bf 2278 b4be
00000010: 9a4b 3dbf 91d7 5abf dd7a c8be de59 3cbf
-0.8603402 -1.0725182 -0.76192504 -0.35247904 -0.73943484 -0.8548518 -0.39156237 -0.73574626

layer1.0.bn2.running_var f4 [8]
00000000: 9a7c 993f c973 a83e c052 663f 9453 ab3e
00000010: ea70 2e40 1c05 023f dbd2 493f 5026 223f
1.199115 0.32900837 0.89970016 0.33462203 2.7256417 0.50789046 0.78837365 0.6333971

layer2.0.conv1.weight f4 [16, 8, 3, 3]
00000000: 3c1b 94be 98e9 e53c 2bac fb3c cbb9 f33d
00000010: 16ca d93e 4d28 8f3e 4799 bf3e c2bf fb3d
00000020: fb6b 26be 1a4a cfba 2be6 643c d66f ab3d
00000030: 8bad 93bd 280a 19bb a706 a43d fdf1 2cbe
00000040: 103b dabd a6f4 f4bb f33b 4d3e 14d0 7cbd
00000050: 3058 44be 2328 49be 79d2 8cbe 5283 8bbd
00000060: 47a2 81be c52e 9a3d 0db2 173e 19c2 2f3e
00000070: 140c 823d e626 f2bc 5820 40bd f15a 25be
00000080: 02bd 8fbd eb4e bcbb cf30 30be a18c fe3c
00000090: aef5 febd cc06 4fbe efdd b8bc b270 92bd
000000a0: 5ace 86bd 4606 273b 72f1 d13c d3e7 0bbc
000000b0: dbb8 52bd 81da 1ebe fab7 20be a95d 98be
000000c0: cc48 55be 2c97 6bbe e671 38bd e28a 0abe
000000d0: 9ae9 6fbd 9921 ec3d 324b 323e 7e04 8e3e
000000e0: d835 35be 2ca5 1f3d 0bfd b9be c5aa 1abe
000000f0: c432 9ebe d8b0 abbe ccc2 893d 7535 bebc
00000100: e624 443e 3394 153e 3991 cf3c 9bee 593e
00000110: 4b51 b73d 400e 1abd b7ed 68bd 2754 14be
00000120: 83b7 2a3e e210 a23e 68be 9dbd 1b08 63be
00000130: 5e11 023f 552e d03e b908 8abe 4f07 e6bd
00000140: fa16 083f a72d 063d 7b2d 13bb 5541 973d
00000150: 637a 9dbc 4edf 88bd 464f da3d d91b 0f3d
00000160: 141c 30be f702 afbc 8ba7 e33d e3b3 4e3e
00000170: 7349 1ebb 8115 b0bd a8f1 6f3e 9e5f bb3e
00000180: b12e abbd 4639 a73c d5e6 7a3e 7363 f53c
00000190: 5a3c e4bc 7623 cb3d a337 85bd daa3 16be
000001a0: 1858 9c3d 303e e03c 38cf 3dbd 966f 6a3d
000001b0: 807f 10be e985 73bd d7bd 0f3d 5ab5 7fbd
000001c0: 4dcf 2ebe effb 013e 6ec2 193d 9df0 a4bd
000001d0: 9454 a4bc e619 93be ca3b 26bd ed2c a83e
000001e0: 88fd 98be c848 b6be 612b bb3e 00ea e73d
000001f0: dd01 99be 5575 3d3d 4c11 c2bc 6df0 54be
00000200: 7126 353d 9738 a23e aaa2 6fbe d9f6 69be
00000210: fd3b 0b3d fe9a bd3d 96e9 4cbe e944 95bd
00000220: 532e 5cbd d755 a4bc 61a1 f93c 32c5 1fbc
00000230: d8cc 9fbd 6975 0dbd 87b0 dc3c fd3a 8c3d
00000240: a656 083e a752 f13d d496 8dbd d478 053e
00000250: 96f4 e4bb 4acb 2abe 5b16 363e 25a0 823d
00000260: 28d5 b3bd 0cea 1f3c b38f 5fbe 22e3 66bd
00000270: 548b 5bbd 1ba3 80be e597 663d db3c 033e
00000280: 465d cabc a034 793e 6724 f83d 8b3f ac3c
00000290: f5d7 56bd 09b2 cc3d 9256 fcbd 0ab1 bcbd
000002a0: 922a 1c3e 1d95 cf3d 8e90 5bbb 2b65 40bd
000002b0: 5982 083d d730 933d cd8a 47be 42a2 6ebc
000002c0: 7f38 9a3d 5e42 18be 223a 863d 7077 d23d
000002d0: 9965 e53c c4d8 ae3c 39ff b23d ecd0 2cbe
000002e0: 8330 6dbe 8bd7 1bbe 8c65 47be a4a8 a8be
000002f0: cbce 28be 04ea e3be 80f4 87be 5724 f2bb
00000300: 5a89 20be 47b4 e93c 336f 673e 67f0 8f3d
00000310: 5630 aa3e eb18 b63e f872 f6bd 5b4f 043d
00000320: ee70 babc 4614 533e 1e9e 263e c5f7 6c3e
00000330: 650c 823e 4320 9d3e 0b16 983e f055 233c
00000340: f1d6 7ebc 513e 56be 1a32 47bd 2f6d 00be
00000350: 5f5c 85be 3649 093e 1c11 5abd 35a9 94bd
00000360: 043b 0a3d 8b54 fa3d 5c47 d7bd 9b25 83bd
00000370: dc7d bb3e eb59 debe 8954 c7bd 3db8 c33e
00000380: 1737 c6be 7bb9 06be aaf6 a1bb 047d e2bd
00000390: 6da1 a9bd a7dc 2d3d beb0 1c3d 11f9 96bd
000003a0: 77d4 c3bd 9569 5f3e 4722 493e 2cab 2c3e
000003b0: b6fc 86be d993 8a3c 6e79 523e f733 aabe
000003c0: ef21 a2bd 238c 643e 4e13 2dbe d53e 8cbd
000003d0: 16d7 6bbc 8806 b5bd 548b a2bd 63a2 2b3d
000003e0: 0d34 c2bd 59a5 2d3d 0e9b 983d 53c3 b33a
000003f0: b798 0ebd 1590 ccbc 5740 b93c 09d2 59bd
-0.28927028 0.028065488 0.030721745 0.119006716 0.42536992 0.27960435 0.3742163 0.12292434
-0.16252129 -0.0015814931 0.013970892 0.083709404 -0.07210835 -0.0023352 0.08009081 -0.16889186
-0.106557965 -0.0074754534 0.200424 -0.061721876 -0.19174266 -0.19644217 -0.27504328 -0.06812157
-0.2531912 0.07528452 0.14814015 0.17163886 0.0634996 -0.029559564 -0.046905845 -0.16147973
-0.07018472 -0.0057467124 -0.17206119 0.031072916 -0.124492034 -0.20217437 -0.022566764 -0.07150401
-0.06582327 0.0025485917 0.025627825 -0.008539158 -0.051445823 -0.1551304 -0.15695181 -0.29758957
-0.20828551 -0.23006886 -0.045030497 -0.13529542 -0.05857239 0.11529846 0.17411497 0.27737802
-0.17696321 0.03897588 -0.3632587 -0.15104206 -0.30898106 -0.3353336 0.06726608 -0.02321885
0.191547 0.14607315 0.025337802 0.21282427 0.08951052 -0.037611246 -0.056867328 -0.14485227
0.16671567 0.31653506 -0.07702333 -0.2217106 0.5080775 0.4066035 -0.2695978 -0.11231863
0.5316006 0.03275838 -0.0022457528 0.07385508 -0.019223398 -0.06683217 0.106596515 0.034938667
-0.17198211 -0.021363718 0.11115941 0.20185809 -0.0024152666 -0.085978515 0.23432028 0.36596388
-0.08358515 0.020413052 0.24502118 0.029954648 -0.02786081 0.09918873 -0.065047525 -0.14710942
0.0763399 0.027373403 -0.046340197 0.057235323 -0.14111137 -0.05945388 0.035093155 -0.06242881
-0.17071266 0.12693761 0.03753894 -0.08053706 -0.020059861 -0.28730696 -0.040584363 0.32846776
-0.2988093 -0.35602403 0.36556533 0.11323929 -0.29884234 0.046254475 -0.023689888 -0.2079484
0.044226114 0.316838 -0.23401895 -0.22848071 0.033992756 0.09258078 -0.20010981 -0.07288534
-0.053755116 -0.020060463 0.03047246 -0.009751605 -0.07802743 -0.0345358 0.026939644 0.068471886
0.13314304 0.11783343 -0.06913534 0.13034374 -0.0069871647 -0.16679111 0.17781965 0.063782014
-0.08780891 0.009760391 -0.2183216 -0.056368954 -0.05359967 -0.2512444 0.0562972 0.12816183
-0.02470268 0.24336481 0.12116318 0.021026393 -0.052452046 0.09994895 -0.123211995 -0.09213455
0.15250614 0.10135863 -0.003350291 -0.04697148 0.033327434 0.0718705 -0.19486542 -0.014565052
0.07530307 -0.14869067 0.06554057 0.10276687 0.028002547 0.021343596 0.08740086 -0.16876572
-0.23163037 -0.15218942 -0.19472331 -0.32941163 -0.16485135 -0.44514477 -0.26553726 -0.007389586
-0.15677395 0.028528346 0.22601013 0.07028275 0.33240002 0.35565886 -0.12033647 0.03230224
-0.022758927 0.20613202 0.16271254 0.23141392 0.2540008 0.30688676 0.29704317 0.00996922
-0.015554176 -0.2092221 -0.048631765 -0.1254165 -0.26047036 0.13406834 -0.053238973 -0.07258836
0.033747688 0.122231565 -0.105116576 -0.06403657 0.3661946 -0.43427977 -0.09732921 0.382265
-0.38713905 -0.13156693 -0.0049427347 -0.11059001 -0.08282743 0.04244676 0.038254492 -0.073717244
-0.09562009 0.2181762 0.19641982 0.16862172 -0.26364678 0.016916202 0.20554134 -0.3324277
-0.079166286 0.22319083 -0.16901895 -0.06847922 -0.014394542 -0.08839136 -0.07936731 0.04190291
-0.09482584 0.042394016 0.07451449 0.0013714827 -0.03481361 -0.024971047 0.022613687 -0.05317882

layer2.0.bn1.weight f4 [16]
00000000: bf8d 273f 596e 3a3f 199b d13e 22c2 333f
00000010: af88 353f fbe5 d03e 6b5d 073f 2e00 033f
00000020: 7b2e 343f a090 303f e9e4 2d3f 58c3 313f
00000030: 07ea a73f 1b89 1a3f 5900 db3e 9463 503f
0.6545066 0.7282463 0.40938643 0.702181 0.7091169 0.4080046 0.5287692 0.5117215
0.70383424 0.6897068 0.67927414 0.69438696 1.3118294 0.60365456 0.42773703 0.81401944

layer2.0.bn1.bias f4 [16]
00000000: e1fe f03b 70ad 053d 4aad 6e3e 85b9 38bd
00000010: 6017 b9bc 1054 303f 7ca2 af3d a298 143e
00000020: 4dd3 9abd 8011 c8bd ccdc 06be 2f95 db3d
00000030: 602a 11bf fe60 08bc ed5d 3d3e 37bd f0bd
0.0073546027 0.032636106 0.23308292 -0.0450988 -0.022594154 0.6887827 0.08575913 0.1451135
-0.07559834 -0.09768963 -0.13170165 0.10721814 -0.56705284 -0.008323906 0.18492861 -0.1175484

layer2.0.bn1.running_mean f4 [16]
00000000: 5639 ccbf 5830 293f 6cca 8c3f 0007 bbbe
00000010: d007 8ebe f93e ecbf 448d 3ebd b131 11c0
00000020: 1f98 cdbe 9433 2cbf e2fa bfbe cfeb 74bf
00000030: 22ce 91bf 40a1 753e ec5b 30c0 0700 dcbf
-1.5954998 0.6608939 1.0999274 -0.36528778 -0.27740335 -1.8456718 -0.04652144 -2.268658
-0.40155122 -0.672662 -0.37496096 -0.95672315 -1.1391032 0.23987293 -2.7556105 -1.7187508

layer2.0.bn1.running_var f4 [16]
00000000: 066a 1a40 b2a9 2940 ad5c 793f abf1 2440
00000010: a087 3340 17f2 be3f fedf 0140 db80 3f3f
00000020: 1d9d 3e40 0853 2740 df77 f43f fa02 3640
00000030: ff32 ae40 3764 1740 fc3c 213f 67a7 1240
2.4127212 2.6509824 0.97407037 2.5772502 2.805153 1.491763 2.0292964 0.7480599
2.9783394 2.6144428 1.9099082 2.8439317 5.443725 2.3654916 0.6298368 2.2914674

layer2.0.conv2.weight f4 [16, 16, 3, 3]
00000000: 60be 3abb 6ce4 4abd af78 513c 4028 15be
00000010: 18e2 993d c3f5 2a3d 503f e3bd 6f4f fabd
00000020: 05b7 e6ba 07f3 13bd 69c0 163d 6e97 be3d
00000030: d9c5 f9bd d972 1ebd 4eb1 66bd c871 abbd
00000040: ac69 32be 6239 98bd 5c2d cebd 67e6 b5bd
00000050: d555 c0bd 8607 b0bd 7a3f 513d 4482 5f3d
00000060: ec9d d1bc 2e40 d33d 1c14 cf3c 216c 123e
00000070: 602a 2f3e f728 da3d 76c5 0a3e 29e5 8c3e
00000080: faf5 313e b20f dc3d 2710 de3d 8c5b f93d
00000090: 44e7 253d aed6 4d3e 9d8d a33e 7fa3 873c
000000a0: 19bc 6e3e 4db2 ad3e b08b 2bbd 5106 2f3e
000000b0: a426 643e 7d32 8fbd c6bd 4bbe 1549 68be
000000c0: 105f 28bd 3481 97be 4b28 bfbe 6d77 5e3d
000000d0: 4ff1 26be cd47 0abe 6ccf 0c3e 650d 623e
000000e0: 9ed0 5c3e 2ec5 4ebd 548b ff3d e3d3 233d
000000f0: 595e 053d 8102 88bd 6c17 36be 7a86 ca3c
00000100: 7785 15bd 3c67 8f3d 6578 9e3d 42d9 49bb
00000110: f57c c93d 51e8 983d 0471 e9bc 01bc 3c3d
00000120: 9a2d 2c3e daa8 1c3e e452 f3bc 5691 ef3d
00000130: 39a2 593e ef15 ae3d a7be aa3c a0c6 f83d
00000140: 49a0 de3d f856 d43c 0f3a 353d faf0 e0bd
00000150: 1c99 fb3d d347 9f3e d4e2 7f3d 9ef4 0a3e
00000160: e188 583e 81bf 083e e1f2 a1bc d38f 87bb
00000170: 3d06 673d 510f a2bd 3e41 5fbd ab6f 123e
00000180: e930 b0bd 24a9 79bd 772c f93d 585c 8bbd
00000190: 5999 dbbd 0f32 35bd 76b9 61bd adb7 45bd
000001a0: 9c14 edbc 4b48 d1bd b471 85bc f054 113e
000001b0: 8cb7 52be 913e 6fbe 54e6 76bd b5fb a1bd
000001c0: 0893 fcbd 4cdc 753c 0852 9e3a 7e78 0f3b
000001d0: a4c3 583e 77ba ab3d 4811 a9bb b675 b13b
000001e0: 1736 bebd f370 b6bc a466 823e 57bd 1d3d
000001f0: c6c0 1b3e a79f 443e 50af 18bd fc5a 9d3d
00000200: a55f 1fbc cbe4 a03d 1c7f 5e3e db28 a83d
00000210: 50dd 9d3c 9bad fc3d 6a81 ae3b 15fd 32bd
00000220: 7aa3 f1bd 5148 cdbd 0415 44bd 421f 1bbe
00000230: a224 11be f339 8e3c 6f55 85be e0fe 2bbe
00000240: 3720 7b3d 1a9b bf3e efb0 e13c 9f28 a73e
00000250: aaf2 a73e 9fe4 e5be fdf6 083e a587 66bd
00000260: 5d70 2ebe c4ca eb3b cbc6 0a3e 70d3 cdbc
00000270: adff eb3d ad35 9dbd 1da3 8dbd 1331 173d
00000280: c7db 3f3d 53bf d03c f294 413d af2d 88be
00000290: 76a7 2f3e aeb5 9bbe ced9 003e 2f6f 993e
000002a0: a863 19be 4404 5a3e a283 10bd 7589 1ebe
000002b0: 393f 9cbd 3071 5bbb 4127 93be a20c 53be
000002c0: 9f91 90bd 9a44 6fbe 009c 0bbd 39bf 46bd
000002d0: 2159 23bd 0e3d d3bd c26b 83bd bcf7 0f3e
000002e0: 4a01 9dbd 1558 de3d d987 9abd a833 bdbd
000002f0: dba2 e3bd da7e dfbc 374b 383e 1e4f d5bd
00000300: 27f7 0e3e 89eb 71bd 61f7 88be df9c c03d
00000310: 4246 0dbe 02e1 7fbd 79fe 2e3e 1a4a 493e
00000320: d5a8 24be 95bd a23d 310c a1bb a61a 66be
00000330: 72c7 943d 1fd7 fdbd daaf 08be 3996 a63c
00000340: ab32 ca3c c6e4 ca3d 30bd 053e 4ea0 523e
00000350: 5cb9 89bd 083b 8d3c c4bd 3abd fea8 3d3d
00000360: 22ff fcbc 8da9 d33d e067 88bd 8816 c43d
00000370: 0a84 6abd 29a6 02be 30e4 1fbd a1c0 55bc
00000380: 1323 593d 5960 a73b 4428 0fbe feba 6abc
00000390: 1a92 543b 5ab1 28bd 1254 b3bd f7dc 863d
000003a0: c6e6 b9bd b787 09bd a56e bf3d ec33 9d3e
000003b0: 2f49 ac3d d840 973e bedf 943e ccc4 ef3c
000003c0: faa5 9b3d 9c3b cebd 70b4 b93d 02ea cf3d
000003d0: cab0 25bd 422d c9bb 1d50 27bd 520e 85be
000003e0: 5ff9 8e3e 44ab e1bd d4f1 373d f22b 6a3e
000003f0: 3537 cbbe a1b4 403d 57ca 2ebe fd80 e0bd
-0.002849482 -0.049534246 0.012785121 -0.14566135 0.07513827 0.041738283 -0.1109606 -0.12222182
-0.0017602151 -0.03612044 0.03680459 0.09306227 -0.121959396 -0.038683746 -0.056321435 -0.083713114
-0.17423123 -0.0743282 -0.10067245 -0.088818364 -0.09391371 -0.08595185 0.051085927 0.05456759
-0.025587998 0.10314976 0.025278144 0.1429906 0.17106009 0.10652345 0.13551888 0.27518585
0.17378989 0.10745181 0.108429246 0.12175664 0.040503755 0.20101425 0.3194398 0.016557453
0.23313941 0.33925095 -0.041881263 0.17092253 0.22280365 -0.06992052 -0.19896612 -0.22684129
-0.041106284 -0.29590762 -0.3733543 0.054313112 -0.1630299 -0.13503952 0.13751 0.22075422
0.21563956 -0.050481014 0.124777466 0.039996993 0.03256068 -0.066411026 -0.17782372 0.024722327
-0.036504235 0.07002112 0.07737807 -0.0030799662 0.09838287 0.07466186 -0.028496273 0.046077732
0.1681427 0.15298787 -0.029702611 0.116976425 0.2125329 0.08500277 0.020842863 0.1214726
0.10870416 0.025920376 0.044244822 -0.10983463 0.12285063 0.31109485 0.06247218 0.13569877
0.21145965 0.13354303 -0.019769134 -0.004137018 0.056402434 -0.079130776 -0.05450558 0.1430041
-0.08603079 -0.06095232 0.12166684 -0.068047225 -0.10722608 -0.044237193 -0.05510851 -0.04827087
-0.028940491 -0.10218867 -0.01628957 0.14192557 -0.2057783 -0.23363711 -0.06027825 -0.079093374
-0.123327315 0.015006136 0.001207889 0.0021891887 0.21168381 0.08385175 -0.005159531 0.0054156436
-0.092876606 -0.022270655 0.25468934 0.038510647 0.15210256 0.19201528 -0.037276566 0.076833695
-0.009727393 0.07856139 0.21728176 0.082109176 0.01927057 0.123378 0.005325486 -0.04369839
-0.11798759 -0.10023559 -0.047871605 -0.15148643 -0.1417413 0.017361617 -0.26041743 -0.16796446
0.06131002 0.3742302 0.027550189 0.3264818 0.32802325 -0.44900987 0.13375469 -0.056281704
-0.1703505 0.0071958024 0.13552396 -0.025125235 0.11523376 -0.076762535 -0.06915877 0.036912035
0.046840455 0.025481855 0.047261186 -0.26597354 0.17153725 -0.30412048 0.12583086 0.2996764
-0.14979422 0.2129069 -0.035281785 -0.15482123 -0.07629246 -0.0033484213 -0.28740886 -0.20610288
-0.07059025 -0.23366013 -0.03408432 -0.048522208 -0.03987992 -0.1031438 -0.064170375 0.14059347
-0.076662615 0.10856644 -0.07545442 -0.09238368 -0.111150466 -0.027282167 0.17997442 -0.10415481
0.13961469 -0.059062514 -0.26751235 0.09404921 -0.13796332 -0.062470444 0.17089261 0.19657174
-0.1608003 0.07946316 -0.0049147834 -0.22471103 0.07264604 -0.12394547 -0.13348332 0.020335304
0.024682363 0.09906916 0.1306045 0.20568964 -0.067248076 0.017240062 -0.04559113 0.04630374
-0.030883376 0.103350736 -0.066604376 0.0957461 -0.05725483 -0.12758698 -0.039035976 -0.013046415
0.053011965 0.005107921 -0.13980204 -0.014326809 0.0032435716 -0.04118476 -0.087562695 0.065851144
-0.0907722 -0.033576693 0.09347276 0.30703676 0.08412396 0.2954166 0.29076952 0.029268645
0.07600017 -0.10069963 0.09067619 0.10152055 -0.040451802 -0.0061394284 -0.040847886 -0.25987488
0.2792463 -0.110189945 0.04490836 0.22868326 -0.39690557 0.04704726 -0.17069374 -0.109621026

layer2.0.bn2.weight f4 [16]
00000000: 3d0e 163f 3271 613f fcff 193f ef96 1d3f
00000010: 6334 8c3e 0007 353f b267 ea3e 0048 2e3f
00000020: 9460 2f3f b756 883f 611e 3c3f fb7c d93e
00000030: 5929 373f d4f3 713f 610b 233f 055e 953f
0.58615476 0.8806335 0.60156226 0.6155843 0.27383718 0.70713806 0.45782238 0.68078613
0.6850674 1.0651463 0.73483855 0.42478165 0.71547467 0.9451268 0.6368924 1.1669317

layer2.0.bn2.bias f4 [16]
00000000: a129 9b3e 4a9e d7bd 98f4 093f 2fa2 af3e
00000010: 4033 8e3e 89b2 8b3e e331 1c3e d363 453e
00000020: 32e4 8f3b 9b91 03be 8e2b 523e 4da0 b03e
00000030: 8d19 18be 8c53 a6be e2e5 d2bc 0e06 02be
0.30305198 -0.10528238 0.53888845 0.34303424 0.27773476 0.2728465 0.15253405 0.19276361
0.0043912167 -0.12848513 0.20524427 0.344973 -0.14853497 -0.32485616 -0.025744382 -0.12697622

layer2.0.bn2.running_mean f4 [16]
00000000: 9007 7dbe cb38 8cbe 2f0d f83f 47a7 d5bf
00000010: 7e1d 363e a0ad 5fbf 3a09 353d 0ec6 c7bf
00000020: ddef 4ebf 251a 1fbb e827 ff3e ca01 7b3f
00000030: 3caa c83e 4239 a3be 10b2 fc3c 8afc 9fbe
-0.24709916 -0.2738708 1.9379023 -1.6691674 0.17784688 -0.87374306 0.044198252 -1.5607316
-0.8083475 -0.0024277058 0.49835134 0.98049605 0.3919238 -0.31879622 0.030846626 -0.3124736

layer2.0.bn2.running_var f4 [16]
00000000: 80fa 7b3f 84b5 453f 40f7 6a3f ca15 403f
00000010: 654e 8b3e 84b3 4f3f a945 9a3e dc43 0e3f
00000020: 2ac1 be3e 11a0 3d3f bd36 7d3f 0e5b f93e
00000030: ea5e f83e 5db8 c43e 9d1f aa3e a780 483f
0.9842911 0.77230096 0.91783524 0.7503325 0.27208248 0.81133294 0.3013127 0.55572295
0.37256747 0.74072367 0.9891165 0.48702282 0.48509914 0.38421908 0.33227244 0.7832131

layer2.0.shortcut.0.weight f4 [16, 8, 1, 1]
00000000: d4bf 14be c0f7 433c 42ae c73d 40d9 1a3e
00000010: ad74 433d c16c 7e3a dcf5 433e fa87 20be
00000020: dba9 2f3e 0377 58bd b2b2 543e 180b 75bd
00000030: d7b8 743c feb9 ba3d 3792 c9be 132a 7cbe
00000040: ab84 ad3b 4f9f 10be 2e0e cf3d e398 d83d
00000050: 1eeb 21be 8b84 f73b 4915 f13d 1b32 dbbd
00000060: 3595 db3b d918 13be c5e3 b0be 6ed8 a6be
00000070: 3bb4 7f3d cd39 093f c868 67bc f8e0 98ba
00000080: 28c8 09bd 28c3 173f d322 04bd 3171 84bf
00000090: 2146 703b 7700 813e 5e2b 023d b5f9 71bd
000000a0: 093b b93d 1c08 ad3e adfa 8abe d229 753e
000000b0: 78a9 193e dc1f b63c 56c2 ea3c 098a 57bd
000000c0: cb24 83bb 250c f03e 2844 623c 4895 3a3f
000000d0: 0bc9 d43a 5ee8 07bf 9e9a cabd c771 bd3d
000000e0: d38b 2fbe 3249 6a3d 1d59 83be c3fa ae3e
000000f0: 8df6 1b3e b3ad 683e 2b43 dbbd 989c 90be
00000100: 94a6 3f3e 2300 fe3e 910d 9f3b 07b6 7b3e
00000110: 93cb 283b 89f3 023f 8459 573e 3b1f a63e
00000120: 3030 18be 0020 86be 8230 31be 846c 69bd
00000130: 1606 823b 439b 1c3d bdb1 ca3d 0f77 923d
00000140: 0c86 853d 1eeb de3e 629b 9ebd f765 e9be
00000150: ee59 5abc 425e c3bd dc18 d53d 9709 3d3e
00000160: 8f7f 2abd c011 ccbd 0b55 edbd 2468 a53e
00000170: a889 a33c 79b0 7e3f 3cd3 693d 35a8 193e
00000180: ee35 a33d 17d3 99be 2011 2fbd 25db a3bd
00000190: 2514 1dbd e25e 8abe 2a2c 92bd 3373 ab3e
000001a0: 8085 85bb 1365 86be ba80 4f3e d63d 6e3c
000001b0: ceb6 87bd be19 44be 9773 513d c7e2 113e
000001c0: c738 0b3e b317 323c 6e68 0abd c207 a2bd
000001d0: f0e1 643d 1c43 193e 9638 543e 3018 0cbf
000001e0: d434 79bd 705a 0d3e 3f5a 09be 360a 003e
000001f0: db84 d5be ee70 343d 19c6 44bd 9723 81be
-0.14526302 0.011960924 0.09750034 0.15121937 0.047718693 0.00097055366 0.19136757 -0.15676871
0.17154638 -0.052847873 0.20771292 -0.059825033 0.014936647 0.091175064 -0.39369366 -0.24625425
0.0052953563 -0.14123271 0.101101264 0.10576036 -0.15812346 0.007553642 0.11771638 -0.10702916
0.0067011365 -0.14364947 -0.34548774 -0.32586998 0.06242774 0.5360382 -0.014124103 -0.0011663726
-0.03363815 0.5928216 -0.032259773 -1.0347043 0.0036662894 0.25195667 0.03177964 -0.05907603
0.09044463 0.3379525 -0.27144375 0.23941734 0.15006053 0.022231989 0.02865712 -0.052621875
-0.004002189 0.46884266 0.013810195 0.72884035 0.0016234232 -0.5308894 -0.09892772 0.09250217
-0.17143182 0.05719871 -0.25653926 0.3417569 0.1523077 0.22722511 -0.10706171 -0.28244472
0.18715888 0.4960948 0.004853912 0.24581157 0.0025756105 0.51152855 0.21030241 0.32445702
-0.14862132 -0.2619629 -0.1730366 -0.056988254 0.0039680107 0.038234007 0.09897182 0.07151615
0.06519708 0.43538755 -0.07744481 -0.45585606 -0.013327105 -0.095394626 0.10405132 0.1846069
-0.041625556 -0.09964323 -0.11588486 0.32306015 0.0199631 0.99488026 0.057086214 0.15005572
0.07969271 -0.3004386 -0.04274094 -0.08000783 -0.03834929 -0.27025515 -0.0713733 0.33486328
-0.0040747523 -0.26248989 0.20263949 0.01454111 -0.06626664 -0.19150445 0.051135626 0.14246665
0.13595878 0.010869908 -0.033791 -0.07911636 0.055879533 0.14967006 0.20724711 -0.5472441
-0.060841396 0.1380403 -0.13413332 0.12503895 -0.41702923 0.04405301 -0.048040483 -0.25222465

layer2.0.shortcut.1.weight f4 [16]
00000000: 94ad 8c3d 9864 b03e 32c9 673d 372d 8e3e
00000010: 02ba 353f 28a1 c83d 49a7 0a3f 1c5d 3f3e
00000020: d5c8 0e3f 852c e53d 956c 483e 68df 0b3f
00000030: 15c5 bd3e ac53 bc3e e652 ad3e d2ed bc3e
0.06869045 0.34451747 0.05658836 0.2776887 0.7098695 0.09796363 0.54161507 0.18687862
0.55775195 0.11190132 0.19572671 0.54637766 0.37064424 0.36782587 0.3385231 0.36900192

layer2.0.shortcut.1.bias f4 [16]
00000000: a129 9b3e 4a9e d7bd 98f4 093f 2fa2 af3e
00000010: 4033 8e3e 89b2 8b3e e331 1c3e d363 453e
00000020: 32e4 8f3b 9b91 03be 8e2b 523e 4da0 b03e
00000030: 8d19 18be 8c53 a6be e2e5 d2bc 0e06 02be
0.30305198 -0.10528238 0.53888845 0.34303424 0.27773476 0.2728465 0.15253405 0.19276361
0.0043912167 -0.12848513 0.20524427 0.344973 -0.14853497 -0.32485616 -0.025744382 -0.12697622

layer2.0.shortcut.1.running_mean f4 [16]
00000000: 5137 5a3e d365 d9be 402f bd3d ef91 34be
00000010: 71b4 08bf 8bf5 d03e 2fd2 003f 9726 b7bd
00000020: cdf6 d23f c200 6fbe d0c8 953c 8ef9 923f
00000030: 2b41 75be 1f15 3cbb 4a04 74bc 7c8f b9be
0.21310164 -0.42460498 0.09237528 -0.17633794 -0.5340033 0.40812334 0.50320715 -0.08942907
1.6481568 -0.23340133 0.018284231 1.1482408 -0.23950641 -0.0028699113 -0.014893601 -0.36242282

layer2.0.shortcut.1.running_var f4 [16]
00000000: 606b 8b3d 3cfe 313e bfcc 483d f73c 263e
00000010: 9b2c b63e 38fc 963d f502 2e3e 6b01 0f3e
00000020: 048e 183e 12e8 593d b382 cf3d f9f9 8d3e
00000030: 16a2 f33d d7e8 8f3d f18e d33d 4156 5b3e
0.068075895 0.17382139 0.049023386 0.16234194 0.35580906 0.07372326 0.16993316 0.13965385
0.14897925 0.053199835 0.10132351 0.27729777 0.1189615 0.070268326 0.10329998 0.21419622

layer3.0.conv1.weight f4 [32, 16, 3, 3]
00000000: 3196 d3be f7cd 8bbe 0790 84be 9d94 f3bd
00000010: 5148 283e 5cc0 823e 8d21 5abd 4000 ae3e
00000020: 3dae e53e 742e 71bc 667a 10bd 99d4 2ebd
00000030: f947 843d 6a1b 51bd d574 bebd 75c5 873d
00000040: ef9f 90bb 49f9 003d fe8b 53be 95cd 00be
00000050: 2a45 593e b184 1e3d b4ef 17bd 202c a03e
00000060: 8e07 1f3d 0f5e 81be c80b 83bd 46a5 3bbe
00000070: 2ac9 f8bd 4612 f13c 3105 e3bd 89b0 25bb
00000080: 80a9 8e3e c3ec 82bb d16f 7b3d 523a 923e
00000090: 98e7 443e bdde f73d ae62 a83d 465f aa3d
000000a0: 5e58 423d 4669 90bd 2cd6 8fbd f2a8 5abe
000000b0: 1385 2dbe 4f9d bdbc 7aaf 943c 1a92 b5bb
000000c0: 55ef 203d 6dba 043e b305 943d f110 8e3d
000000d0: 0a9a 123d c14f 01be 22eb 04bd bb81 40bd
000000e0: be79 b03d 886d 80bd bf84 a03c 306d 133e
000000f0: 6b4e f03c 4cb1 373d d8e5 373e 0a5a a83d
00000100: 2e17 ba3b fcb0 9ebc f106 153e 0bdc 16bc
00000110: eab7 c9bd 566a 0d3e 3cb6 923c f668 383d
00000120: 8e93 61bd ce36 8fbd 3d1a e53c ca3e 12be
00000130: 7227 1fbe f8e8 d7bd 7eef 9ebd 54ba 47be
00000140: 9107 8dbd 3ddf 143d ba44 06be a102 22be
00000150: 5b19 17be d85e b4be 26dc d2be 7eb7 85be
00000160: 887a dabe 4ce0 b8be de20 433d a562 293d
00000170: 0d70 23be 6742 1a3e bed3 613e 88e1 cb3c
00000180: fb7a 483e 0288 fe3e aa67 0e3e 2b0c 543d
00000190: 5f91 aa3d 3955 bf3d dca8 9e3d 5cdc 413e
000001a0: 529c 843e 9055 413c 191b 0c3d 1778 febc
000001b0: ffa0 3f3c acfc 693d 31bb 6b3c 71e1 b33d
000001c0: bee7 053e caf6 883d 3355 953d 175c 023e
000001d0: c53f b03d 5d61 8dbd daed 8b3d 070c 503e
000001e0: 01a5 adbd 85bf c7bd 9312 193e 592f 09be
000001f0: cf7b 43be f08e a23d a1cc c53c 5250 5bbd
00000200: ce50 2dbd b6a0 a6bc 781c 30bd 6fe8 ffbd
00000210: bc2d ebbd ae94 d2bd b936 13bd 62de 85bb
00000220: 3fb2 37be 9309 37be dd6c 2d3d 0c78 17be
00000230: c9ed 36be 6f2a 9ebd 5cbd 88be 12c6 a0be
00000240: aa02 9abc f535 0abd 3222 7ebb 9f89 31bd
00000250: d7d0 d4bc d8a2 b63c c250 28be 45f0 2dbd
00000260: ab59 073d b240 063d ec73 023d 5e86 bebb
00000270: 989d 9dbc 0caf 88bd 9a8f 13bd 1855 ab3a
00000280: 5690 3dbd 102f ebbc a736 803d 60b3 e23d
00000290: 5f46 d23d c1ec bbbd 74e8 a83b dca3 c7bc
000002a0: 1388 2a3c 2a2c ab3b da03 d1bc 2934 ebbc
000002b0: 316b 773d 2d92 77bd f8bb b3bd dd28 a4bd
000002c0: c2c7 23be c0cf cb3d 1633 c43c ee1b 05be
000002d0: c525 5a3e 888b a83d 872d 2dbe 9351 343b
000002e0: 52bd b73e a8ef b83e 5bf2 76be d7c7 a5be
000002f0: 1f7f 00bd 6660 703c 5926 79bb 52c5 95bd
00000300: d608 90bc 135f 0a3e 59b6 ff3b bc4c c8bd
00000310: bc48 a3bc 6795 d73d 7ad8 403d d0a3 4ebe
00000320: 9118 0dbe 7667 943e 7568 643e f4cb cabd
00000330: 6a8b b2bd c349 bb3d 8b8d 1b3e 8e6b 24bd
00000340: 5bdd cebc 80f8 963d a217 473c 132c 61be
00000350: 2a75 12be 76a1 d23d dd25 d73c 11a4 103d
00000360: b716 353e 50e0 5a3e b1f0 26bd d35a 133b
00000370: 86be a43e 3422 c33e f21a 71be 1e58 f8bd
00000380: 64a5 ce3d a024 ef3b e30f 88bd 48b1 99bd
00000390: 327d f93c 8c23 25bd 3fb1 44bc 01bc b43c
000003a0: 004d a23d 1f52 9fbc e06c f33d 8b55 523c
000003b0: 4bd0 ebbd 8891 ec3c d583 4f3e ff36 2f3e
000003c0: 40f2 00be ecc1 75be 1c7d 45bc a208 02be
000003d0: e97f bcbd 62c7 7a3d e0be d9bc 7e64 85bd
000003e0: 276a fcbb 24c7 ccbc d5a7 783e e369 063e
000003f0: c0e7 05bd 5b6d d3bb 3f12 d0bc ecea 6dbd
-0.41325524 -0.27305576 -0.25891134 -0.1189358 0.16433837 0.25537384 -0.053254653 0.33984566
0.44859496 -0.014720548 -0.03527298 -0.042683218 0.0645904 -0.051051535 -0.09299628 0.06629459
-0.004413597 0.031487737 -0.20658872 -0.12578423 0.2121779 0.038700763 -0.037093833 0.31283665
0.038825564 -0.25267074 -0.063987315 -0.18324766 -0.12147744 0.029427659 -0.110849746 -0.0025282225
0.27863693 -0.0039955094 0.061385933 0.2856012 0.19228971 0.12103031 0.08221947 0.08318953
0.047447555 -0.07051329 -0.07023272 -0.2135351 -0.16945295 -0.0231463 0.01815008 -0.0055410983
0.039290745 0.12961741 0.072276495 0.06936825 0.035791434 -0.1262808 -0.032450803 -0.04699872
0.086169705 -0.062708914 0.019594548 0.1439712 0.029334268 0.044846818 0.17958772 0.082202986
0.0056790328 -0.019371502 0.14553429 -0.009207736 -0.09849532 0.13810095 0.017909162 0.045021974
-0.05507236 -0.06992875 0.027966613 -0.14281765 -0.15542391 -0.10542482 -0.07760523 -0.19504672
-0.06886209 0.03634571 -0.13112155 -0.15821315 -0.14755766 -0.3522861 -0.41183585 -0.26116556
-0.4267161 -0.36108625 0.047638766 0.04135384 -0.15960713 0.15064393 0.2205343 0.024887815
0.19578163 0.4971314 0.13906732 0.051769417 0.083285086 0.09342427 0.07747051 0.18931717
0.25900513 0.011800185 0.03420553 -0.031063123 0.011696099 0.057125732 0.014387892 0.08783234
0.13076684 0.06687696 0.07291641 0.12730442 0.08605913 -0.06903336 0.06832476 0.20317088
-0.084787376 -0.09753326 0.14948492 -0.13396968 -0.19090198 0.079374194 0.024145426 -0.053543396
-0.04231339 -0.020340305 -0.0429959 -0.12495505 -0.114833325 -0.10282265 -0.03594086 -0.004085348
-0.17939089 -0.17874746 0.04234015 -0.14791888 -0.17864145 -0.07722937 -0.2670697 -0.31401116
-0.018800098 -0.033742864 -0.0038777706 -0.043344136 -0.025978489 0.022294447 -0.16437057 -0.042465467
0.0330445 0.032776542 0.031848833 -0.0058143577 -0.019240186 -0.066740125 -0.03602562 0.0013071625
-0.046280228 -0.028708965 0.06260424 0.11069369 0.102673285 -0.091760166 0.0051546637 -0.024370126
0.010408419 0.0052237706 -0.025514532 -0.028711395 0.06040496 -0.06044214 -0.087760866 -0.080156066
-0.1599417 0.099517345 0.02395014 -0.12998936 0.2130347 0.082297385 -0.16911899 0.0027514442
0.35886627 0.36120343 -0.24115889 -0.32379028 -0.031371232 0.014671421 -0.0038017242 -0.073130265
-0.017582338 0.1351283 0.00780372 -0.09780261 -0.019932143 0.10526543 0.04708145 -0.20179677
-0.13778903 0.28985184 0.22305472 -0.09902182 -0.08717997 0.09144928 0.15190713 -0.040141635
-0.025252035 0.07371616 0.012151631 -0.21989469 -0.14302507 0.102847025 0.026263172 0.035312716
0.17684446 0.21374631 -0.040756885 0.0022484555 0.32176608 0.38112032 -0.23545435 -0.12126182
0.100901395 0.007298067 -0.06643655 -0.07504517 0.030455206 -0.040317103 -0.012005149 0.022062303
0.07924843 -0.019448338 0.11886001 0.012837778 -0.11514338 0.028877988 0.20265134 0.17110823
-0.12592411 -0.23999757 -0.012053754 -0.12698606 -0.092040844 0.061225303 -0.026580274 -0.06513308
-0.007703084 -0.024997301 0.24282773 0.1312633 -0.032691717 -0.006452245 -0.025399325 -0.058085367

layer3.0.bn1.weight f4 [32]
00000000: d521 123f a0f0 fb3e 2ff9 053f ab0d 833f
00000010: eabe 0a3f 7b55 153f e80f 023f 0e5b 183f
00000020: 5c53 433f 318b ff3e ece0 093f 7f32 0d3f
00000030: 1d9f 063f c661 0b3f d4cb 113f 8ac6 293f
00000040: f3b5 073f ae45 f93e 88b4 143f aef7 c63e
00000050: bd74 2a3f 4748 f63e af5a c73e a904 0a3f
00000060: c42a 0d3f ed0b 133f 5064 0e3f 13f0 223f
00000070: d7e7 093f 1135 d63e eca2 da3e 820a f33e
0.57082874 0.4920702 0.5233335 1.0238546 0.5419756 0.5833356 0.5080552 0.5951394
0.7629907 0.49910882 0.5385883 0.55155176 0.5258654 0.54446065 0.5695164 0.6631857
0.5301201 0.48685974 0.5808797 0.3886084 0.6658438 0.48102018 0.38936374 0.5391336
0.5514338 0.5744007 0.55621815 0.63647574 0.53869385 0.4183736 0.42702425 0.47468954

layer3.0.bn1.bias f4 [32]
00000000: 849a 003e 0fb1 41be 6557 95bb 5d1c 67be
00000010: cf07 55bd bba2 b4be 9c01 89bd 3470 e1bd
00000020: 9833 0cbd b6f5 31bd 8096 b6bd e819 d9bd
00000030: 0a84 d3bc ea6a 7cbe 6c8a 153e e9b5 06be
00000040: 8f66 863d 34f7 fbbc 5dda 3dbe d5f4 6d3e
00000050: e29d 91be 7ba6 823d e978 df3e 8e72 fdbd
00000060: 7d6b 2a3d f548 b1bd 7d6c e73d 1b17 053e
00000070: bcc6 d3bc 85df 813e b700 053e 2b49 a83d
0.12558943 -0.18915199 -0.0045575374 -0.22569413 -0.0520094 -0.35280403 -0.0668976 -0.11007729
-0.03422889 -0.04344722 -0.08915424 -0.10600644 -0.025819797 -0.2465016 0.14603585 -0.1315533
0.0656253 -0.030757524 -0.1854033 0.23237927 -0.28440768 0.0637941 0.43646935 -0.12375365
0.041606415 -0.086564936 0.11299989 0.12997095 -0.0258516 0.25365844 0.12988554 0.08217081

layer3.0.bn1.running_mean f4 [32]
00000000: b725 193f 0183 edbd 73b9 983f 84b8 dfbf
00000010: 0500 51bc e1f3 423e 8c1d b8bf 351b edbe
00000020: d8cc 1ec0 4d11 743f bd02 953f 8dae b8be
00000030: c323 113e b98c e5be dc96 7c3f bd78 5ebe
00000040: fcfd cdbe 15dd 0a40 6a28 80bf 0329 aebf
00000050: d9c3 8bbf 4b9d a3bf 2bf9 7a3e e727 6ebe
00000060: 642e 0ebf 05bd 19bf 1b75 a73f 34ff 73bf
00000070: 750b ff3e a522 01c0 43df 8ac0 8aa6 6dbf
0.59823173 -0.11597253 1.1931595 -1.7478185 -0.012756352 0.19038345 -1.4384017 -0.4630982
-2.4812527 0.953389 1.1641461 -0.36070672 0.14173798 -0.44833925 0.98667693 -0.21725745
-0.40232837 2.1697438 -1.0012333 -1.3606266 -1.0919143 -1.2782377 0.24509113 -0.23257409
-0.55539536 -0.60054046 1.3082613 -0.95311284 0.4981343 -2.0177395 -4.3397536 -0.92832243

layer3.0.bn1.running_var f4 [32]
00000000: f6a4 2340 64d8 253f 3daf bb3f bec8 0040
00000010: ca49 663f 3a2d 4b3f 190d ab3f 9043 9f3f
00000020: 7b2b ec3f 5603 a03f 1d1e 6f3f 022d b23f
00000030: f51f 893f c8ff 693f 6ecb 1940 c5e3 953f
00000040: 4c15 c83f 1a3a f73f c8dd 803f 7ea6 863f
00000050: eaa8 7e3f 5c8e 873f 7300 be3f c0e6 7e3f
00000060: 28cc 933f 31d9 3c3f 951c 6540 25b2 1e40
00000070: f161 d63f da90 833f 815d c63f 8552 dd3f
2.5569434 0.6478331 1.4662853 2.0122523 0.89956343 0.79365885 1.3363372 1.2442493
1.8450769 1.2501018 0.93405324 1.3919985 1.0712878 0.91405916 2.4030414 1.1710135
1.5631499 1.9314606 1.0067682 1.0519559 0.9947649 1.059032 1.4843887 0.99570847
1.1546679 0.7376891 3.5798695 2.479623 1.6748639 1.027858 1.5497285 1.7290808
