ce_results/disk-CE-cifar100-ResNet10_s-model_best.pth.tar (torch, 896919 bytes, 128 tensors)

conv1.weight f4 [8, 3, 3, 3]
0	0xbca8d39f	-0.020608721
1	0x3e65e161	0.22449256
2	0x3e7ed9ee	0.24887821
3	0x3dc4d3e8	0.096107304
4	0x3f02cba6	0.5109199
5	0x3f4d8b9c	0.8029115
6	0xbdebe717	-0.11518686
7	0x3f279151	0.6545611
8	0x3f201e0e	0.6254586
9	0x3cd59fc1	0.026077153
10	0xbe6bbaf1	-0.23020531
11	0xbf032dee	-0.5124196
12	0xbe123c66	-0.14280853
13	0xbf84f517	-1.0387295
14	0xbf49faff	-0.78898615
15	0xbe9e2375	-0.30886427
16	0xbf058bd2	-0.52166474
17	0xbec1bed6	-0.3784091
18	0xbe48e37f	-0.19618033
19	0x3e927293	0.28603038
20	0x3ebed1e5	0.37269512
21	0x3e9eadee	0.30992073
22	0xbc4e0f4a	-0.012576887
23	0x3d8a403b	0.06750532
24	0x3e8e00b1	0.27734903
25	0x3d93f815	0.07225052
26	0xbea32037	-0.31860515
27	0x3c935ff8	0.017990097
28	0xbe9903c7	-0.29885694
29	0xbe7ec0f6	-0.24878296
30	0xbe2ff05d	-0.17181535
31	0xbf159856	-0.5843557
32	0xbf165565	-0.5872405
33	0xbe84fe90	-0.25975466
34	0xbf164867	-0.5870423
35	0xbf2a472e	-0.6651486
36	0x3dbcf5e9	0.09226591
37	0x3e405ae1	0.18784668
38	0x3edfed6c	0.43735826
39	0x3e81334b	0.25234446
40	0x3f07d057	0.53052276
41	0x3ed86774	0.42266428
42	0x3e91afff	0.28454587
43	0x3f05dd08	0.5229039
44	0x3e99ea39	0.3006151
45	0x3cd2fd73	0.02575562
46	0xbe2bf131	-0.16791226
47	0xbc879bc9	-0.016553776
48	0xbdf5da24	-0.12004498
49	0x3d4d7f39	0.050170157
50	0x3d826c87	0.06368356
51	0xbdbbb992	-0.09166254
52	0x3e6e90c1	0.23297407
53	0x3e30afe5	0.17254598
54	0xbd5977e5	-0.053092856
55	0x3e5350af	0.20636247
56	0x3eafc5ed	0.34330693
57	0x3d77e304	0.060519233
58	0xbf0dbccd	-0.5536621
59	0xbe143f57	-0.14477287
60	0x3e172e2f	0.14763711
61	0xbea3c44f	-0.3198571
62	0x3de0470c	0.10951051
63	0xbd2a6a12	-0.041605063
64	0x3cfd6240	0.030930638
65	0x3dfa22c1	0.1221366
66	0x3d71e94d	0.059060384
67	0xbf311866	-0.69177854
68	0xbe8b2f01	-0.271843
69	0x3d4069ba	0.04697583
70	0xbef09f6e	-0.46996635
71	0xbbfc0801	-0.007691384
72	0xbdeb89d6	-0.115008995
73	0xbd60c862	-0.0548786
74	0x3cf7fef2	0.030272935
75	0x3d133e51	0.0359481
76	0xbf31fe2c	-0.6952846
77	0xbeadf0ca	-0.3397277
78	0x3ddd1ae9	0.10796148
79	0xbefa3592	-0.48868996
80	0xbdfd8168	-0.12378198
81	0xbc63d1ac	-0.01390497
82	0xbea16b3a	-0.3152712
83	0xbdbdcaaa	-0.09267171
84	0xbed2bb9a	-0.41158754
85	0xbf677641	-0.90414816
86	0xbd9eca82	-0.07753469
87	0x3db12b9f	0.08650898
88	0xbdc3eaff	-0.09566306
89	0x3da64ab9	0.08119721
90	0x3e34cde5	0.17656668
91	0xbd49c4b0	-0.04925984
92	0x3d88120a	0.06644066
93	0xbe8c2603	-0.2737275
94	0xbf397a3c	-0.7245214
95	0x3afdcacd	0.0019362808
96	0x3d763b3c	0.060115084
97	0xbcb71256	-0.02234761
98	0x3d0aa07d	0.03384446
99	0x3e683195	0.22675164
100	0x3dbafd15	0.09130303
101	0x3e006754	0.12539417
102	0xbe842a6f	-0.25813624
103	0xbf1a1696	-0.60190713
104	0x3cc1c26e	0.023652282
105	0x3cdcd87c	0.026958697
106	0xbc4d4fd2	-0.012531238
107	0x3dc3744d	0.09543667
108	0x3da229f6	0.0791816
109	0xbe9b59b5	-0.3034188
110	0x3e391dfb	0.18077843
111	0xbb814bf0	-0.00394582
112	0x3f72fa84	0.94913507
113	0xbe1574ea	-0.1459538
114	0xbd202019	-0.03909311
115	0xbe77a8ce	-0.24185488
116	0x3caa585d	0.020794088
117	0x3ca0a9ef	0.01961228
118	0xbf137d6d	-0.5761326
119	0xbdb863bd	-0.090033986
120	0xbe254eea	-0.16143385
121	0x3fc75573	1.5572952
122	0xbecf6131	-0.4050384
123	0xbd8d634a	-0.069037035
124	0xbe8b8f52	-0.27257782
125	0x3ceda880	0.029011011
126	0x3d32e736	0.04367753
127	0xbe9339f8	-0.28755164
128	0x3de8eed6	0.11373679
129	0xbd7b6f38	-0.061385363
130	0x3f879bf8	1.0594473
131	0xbdfec1ce	-0.12439309
132	0x3d949ef9	0.07256884
133	0xbbaf2555	-0.0053450265
134	0x3ddf1ce6	0.10894184
135	0x3ef327b5	0.47491232
136	0x3f8ca31c	1.0987277
137	0x3e9afcc4	0.3027097
138	0xbec00b8d	-0.37508813
139	0xbf1ed75b	-0.62047356
140	0xbea2b120	-0.3177576
141	0xbcf36d7d	-0.029715294
142	0xbe6778a2	-0.22604612
143	0x3be21fff	0.006900787
144	0x3efcc76a	0.4937089
145	0x3f9288fe	1.1448057
146	0x3eaed9ab	0.34150442
147	0xbf046997	-0.5172362
148	0xbf7aa2ff	-0.9790496
149	0xbee0f674	-0.4393803
150	0xbd9d5980	-0.076830864
151	0xbe65bf15	-0.22436173
152	0x3d38a90e	0.045083098
153	0x3e54fbe3	0.20799212
154	0x3f1bead3	0.6090519
155	0x3dff27f4	0.12458792
156	0xbe55377c	-0.20821947
157	0xbf066b5c	-0.5250757
158	0xbe5337be	-0.20626733
159	0x3b66dff6	0.0035228706
160	0xbd17c3eb	-0.037052076
161	0x3d1cb2ed	0.038256574
162	0xbdf1bf35	-0.11804048
163	0x3cae4dbd	0.021277303
164	0x3d3ec15e	0.046571128
165	0xbd3cf172	-0.046128698
166	0x3e6facec	0.23405808
167	0xbd1fd9d4	-0.039026096
168	0xbf53397f	-0.8250961
169	0x3f732141	0.94972616
170	0xbcce058e	-0.025149133
171	0xbd9c6286	-0.07635979
172	0x3dfeac43	0.124352
173	0x3c506de3	0.012721512
174	0xbea3f58e	-0.3202328
175	0x3e6d0045	0.23144634
176	0x3bb9c664	0.005669402
177	0xbfb6d95a	-1.428508
178	0x3fab7f60	1.3398247
179	0x3d37c66b	0.04486696
180	0xbdde54e6	-0.10856037
181	0x3d07e3d0	0.033176243
182	0xbbbb9e86	-0.0057256846
183	0xbe2491bd	-0.1607122
184	0x3e105af9	0.14097203
185	0xbdc6b395	-0.09702221
186	0xbf5233d1	-0.82110316
187	0x3f73754a	0.95100844
188	0x3d16dbd8	0.036830753
189	0xbe72ae19	-0.23699225
190	0xbe7139ba	-0.23557177
191	0xbe06a79a	-0.13149872
192	0xbe2eb6e9	-0.17061962
193	0x3f1c58fc	0.6107328
194	0x3f00d4c7	0.5032467
195	0xbeaebdab	-0.3412908
196	0x3efc1d44	0.49241078
197	0x3f019825	0.5062278
198	0x3e015c74	0.12632924
199	0x3e3230b0	0.17401385
200	0x3ebc76ed	0.36809483
201	0x3e9c5da3	0.3054019
202	0x3f16b793	0.5887386
203	0x3ead7cae	0.33884186
204	0x3ea843f5	0.32864347
205	0x3ecccdb7	0.40000698
206	0x3dafdca5	0.085870065
207	0x3e722abe	0.23649117
208	0xbe852a4c	-0.26008832
209	0xbe45aade	-0.19303462
210	0xbe3bab32	-0.18327025
211	0xbf56949b	-0.83820504
212	0xbf5653ab	-0.8372142
213	0xbd872cc4	-0.06600335
214	0xbf43274e	-0.7623185
215	0xbf510e6e	-0.8166264

bn1.weight f4 [8]
0	0x3e8d934b	0.27651438
1	0x3e955591	0.29166844
2	0x3fb32898	1.3996763
3	0x3fb1a4d2	1.3878424
4	0x3eff5b42	0.49874312
5	0x3edf3faf	0.43603274
6	0x3ecc4a4e	0.3990044
7	0x3e95784b	0.2919334

bn1.bias f4 [8]
0	0x3e5bc52f	0.21461938
1	0x3e0a693f	0.1351671
2	0xbfbc5713	-1.4714073
3	0xbfbcc12f	-1.4746455
4	0x3f2ca675	0.67441493
5	0x3e83dfbc	0.25756633
6	0x3e848d2c	0.25888956
7	0x3f045b54	0.51701856

bn1.running_mean f4 [8]
0	0x3cf48b2b	0.029851517
1	0x3e316d64	0.17326885
2	0x3f810b44	1.0081563
3	0x3f89d9b4	1.0769563
4	0xbef4a4ef	-0.47782084
5	0xbcbdb556	-0.023157757
6	0xbd89d7c3	-0.067306064
7	0xbee0ebf5	-0.4393002

bn1.running_var f4 [8]
0	0x3fe69c06	1.8016365
1	0x3ffdd7ec	1.9831519
2	0x413391fe	11.223143
3	0x411b4f69	9.706887
4	0x405b068a	3.422274
5	0x40a3d7b4	5.120081
6	0x405fb9a6	3.495706
7	0x403a7e40	2.9139557

layer1.0.conv1.weight f4 [8, 8, 3, 3]
0	0xb90e5512	-0.00013573866
1	0xb85a37a2	-5.2027062e-05
2	0x392e15e3	0.00016602087
3	0x37223e6b	9.670485e-06
4	0xb9936dac	-0.00028119737
5	0xb88464d2	-6.31303e-05
6	0xb9cceb0d	-0.0003908504
7	0xba393ce0	-0.0007066261
8	0xb9e4756b	-0.00043575032
9	0xb97d1827	-0.00024136958
10	0xb980cb31	-0.00024565452
11	0xb98795b4	-0.00025860744
12	0x38974250	7.212593e-05
13	0x37f20c45	2.8854362e-05
14	0xb8a8db60	-8.051726e-05
15	0xb7517197	-1.2483818e-05
16	0x397afb60	0.00023935502
17	0xb7816e7b	-1.5429445e-05
18	0xb96bd302	-0.00022489953
19	0xb9a35cc4	-0.00031158898
20	0xb9a408bf	-0.00031287034
21	0xb9ad0785	-0.00033002734
22	0xba15eeec	-0.0005719501
23	0xba00c3e8	-0.0004912005
24	0xb7b4077a	-2.1461154e-05
25	0x379ff0b4	1.9066363e-05
26	0x39c896e2	0.0003825939
27	0xb9ddd27f	-0.00042309237
28	0xb9ef7481	-0.00045672434
29	0x38fc4aca	0.00012030227
30	0xb86d50fb	-5.6580622e-05
31	0x3928139b	0.00016029032
32	0x399228d4	0.0002787771
33	0x37a5c7b1	1.9762521e-05
34	0x38757d1a	5.852906e-05
35	0x38f33018	0.00011596101
36	0x3a1bbe5f	0.0005941148
37	0x3a28067d	0.0006409658
38	0x39aa2a8d	0.0003245663
39	0x3926c168	0.00015903043
40	0xb8cd9d47	-9.804457e-05
41	0x3a5a3a8d	0.0008324765
42	0xb8f5b9a0	-0.00011717086
43	0x3964fa3b	0.00021836993
44	0x39c11ff2	0.0003683563
45	0xb91952c1	-0.00014622045
46	0xb9aef8ff	-0.00033373383
47	0xb9aeddf9	-0.0003335325
48	0xb9e02d61	-0.0004275842
49	0xba38f7ef	-0.0007055988
50	0xba175c96	-0.0005773989
51	0xba092887	-0.00052321743
52	0xb9f41592	-0.00046555378
53	0xb90d38ab	-0.00013467918
54	0xb906f734	-0.00012871326
55	0x38fd9169	0.00012091065
56	0x3a72148d	0.00092346297
57	0x38f92af4	0.00011881246
58	0xb97f3b96	-0.00024340893
59	0x39d79288	0.0004111717
60	0x399f28aa	0.0003035714
61	0x39ef9317	0.00045695223
62	0x399eb639	0.00030271875
63	0x3987f20c	0.00025929546
64	0xb8fd6ee5	-0.00012084636
65	0x398af547	0.00026504157
66	0xb8ef7268	-0.00011417718
67	0xba33906c	-0.00068498286
68	0x3825a63d	3.9493887e-05
69	0xb997541c	-0.0002886363
70	0xba1c4962	-0.00059618626
71	0x38d72bce	0.00010260158
72	0x3e4bed41	0.19914724
73	0xbe19af41	-0.1500826
74	0xbef323b1	-0.47488168
75	0x3f1d78c6	0.6151241
76	0x3e0971cf	0.13422321
77	0xbe8e22a5	-0.27760807
78	0x3ee0dfa7	0.43920633
79	0x3e5a6a26	0.21329555
80	0xbd0aa4a5	-0.033848424
81	0xbcd90dbe	-0.02649581
82	0x3ddbe266	0.107365415
83	0x3e602ab9	0.21891297
84	0xbe9de9a3	-0.30842313
85	0xbd39214c	-0.04519777
86	0x3e9a0ff2	0.3009029
87	0xbea5f2c0	-0.32411766
88	0xbd50f06a	-0.051010527
89	0x3ec41e43	0.38304338
90	0x3e326b90	0.17423844
91	0x3cce1bf4	0.025159813
92	0x3d5c6de5	0.05381574
93	0x3d0508c3	0.03247906
94	0x3c73b092	0.014873641
95	0x3d9bb2a9	0.07602436
96	0x3c271b04	0.010199312
97	0xbdf933ce	-0.12168084
98	0xbe3947d3	-0.18093805
99	0x3e17d6e5	0.1482807
100	0x3e62f463	0.22163539
101	0x3e7c418d	0.2463438
102	0xbe636937	-0.22208105
103	0xbebaed29	-0.36509064
104	0xbbabd47e	-0.005243837
105	0xbe7c6a71	-0.24649979
106	0xbeabc5cc	-0.33549345
107	0x3d68d625	0.05684485
108	0xbe34b14a	-0.17645755
109	0xbe4de174	-0.20105535
110	0xbd50c80f	-0.05097204
111	0x3d3b427b	0.045717698
112	0x3dfd48a8	0.12367374
113	0x3e2c7d9a	0.16844788
114	0x3e2f7e92	0.17138126
115	0x3cdfffde	0.027343687
116	0xbcb3b3ff	-0.021936415
117	0xbe21c9bb	-0.1579961
118	0x3d3a5371	0.045489732
119	0xbd1f7033	-0.03892536
120	0xbdd25791	-0.10270608
121	0xbc99e758	-0.018787071
122	0x3e0c7282	0.13715556
123	0x3df90d2f	0.12160718
124	0x3e63b8c0	0.22238445
125	0xbdaf81af	-0.08569657
126	0xbc4cd513	-0.012501973
127	0xbdab1993	-0.08354487
128	0xbe07d141	-0.13263418
129	0xbdddf798	-0.108382404
130	0x3e493742	0.19649985
131	0x3d83eb77	0.06441396
132	0x3d8ccd78	0.068751276
133	0x3c3f3e7f	0.011672615
134	0xbdd229d2	-0.10261883
135	0x3e33db82	0.17564204
136	0x3d8949aa	0.067035034
137	0xbdfd4b22	-0.12367846
138	0x3f31b60d	0.6941841
139	0x3dde8671	0.108654864
140	0xbedbcfd5	-0.42932
141	0x3e4ad8b4	0.19809228
142	0xbe49182e	-0.1963813
143	0xbeea30f9	-0.45740488
144	0x3d2f580e	0.042808585
145	0xbdd19929	-0.10234291
146	0xbb8eccc9	-0.0043579084
147	0x3d273d01	0.040829662
148	0x3e2d9c3e	0.16954133
149	0xbc569124	-0.013096128
150	0xbd555877	-0.05208632
151	0xbcae01d0	-0.021241099
152	0xbc25aa41	-0.0101113925
153	0x3d9b6df5	0.07589332
154	0xbe3613cb	-0.17780988
155	0x3d19bf0b	0.03753571
156	0x3e40c44c	0.18824881
157	0xbe510c73	-0.20414905
158	0x3d5a53be	0.05330252
159	0xbda3603c	-0.079773396
160	0xbd23a6cb	-0.039953988
161	0x3d2ce3d0	0.042209446
162	0xbe5fce99	-0.21856155
163	0x3c9494ec	0.018137418
164	0x3e1bc9fb	0.15213768
165	0xbf0f3424	-0.55938935
166	0x3e045f35	0.12926944
167	0x3d8430ed	0.06454644
168	0xbc9aa8db	-0.018879345
169	0x3e92da6a	0.28682262
170	0x3e5ea359	0.21742
171	0xbbbe78dd	-0.005812748
172	0x3e7c87e4	0.24661213
173	0x3e0e39f3	0.13889293
174	0xbf6f7d0f	-0.935502
175	0x3e823789	0.25432995
176	0x3e59a77e	0.212553
177	0xbe982457	-0.29715225
178	0x3e8c0724	0.27349198
179	0x3e20c98c	0.15701884
180	0x3d56c528	0.052434117
181	0x3e133793	0.14376669
182	0xbe0e55ee	-0.13899967
183	0x3f8ce1db	1.1006426
184	0xbf82736a	-1.0191472
185	0xbda2f7e4	-0.07957438
186	0xbdd8a785	-0.10578827
187	0x3cdf3c21	0.027250351
188	0x3dd18ba9	0.10231716
189	0x3e159537	0.14607702
190	0xbce5a81b	-0.02803426
191	0xbe2b4bb4	-0.16728097
192	0xbed8a49d	-0.4231309
193	0x3ec49ca1	0.38400748
194	0x3e5a94f3	0.21345882
195	0x3e7ab5b2	0.24483374
196	0xbe6b2697	-0.2296394
197	0xbda32ca1	-0.07967497
198	0x3d27b4a1	0.040943746
199	0xbfcc35e1	-1.5953943
200	0x3f004a96	0.5011381
201	0x3d94e57c	0.07270333
202	0xbe9ec0f4	-0.31006587
203	0x3e0e409f	0.13891838
204	0x3daf4b14	0.08559242
205	0xbdf1660c	-0.11787042
206	0x3ba770af	0.0051098685
207	0x3e4ba947	0.19888793
208	0xbd5c2875	-0.05374952
209	0xbd8a0a70	-0.06740272
210	0x3e57331c	0.2101559
211	0xbd7a71a7	-0.061143544
212	0x3cf4e59e	0.029894646
213	0xbdf0807a	-0.11743255
214	0xbd4ccd2f	-0.050000366
215	0xbd3ad1f9	-0.0456104
216	0x3ee27335	0.4422852
217	0x3e7c43d7	0.24635254
218	0xbe967113	-0.29383144
219	0x3e8d5228	0.27601743
220	0xbc8f8455	-0.017519156
221	0xbe9649a8	-0.2935307
222	0xbd56a7f3	-0.052406263
223	0xbe618c35	-0.22026141
224	0xbe05ab70	-0.1305368
225	0xbecc8380	-0.39944077
226	0xbeef550c	-0.46744573
227	0xbdb0bccd	-0.08629761
228	0xbd9d12ba	-0.076695874
229	0xbd98d71e	-0.07462905
230	0x3e77b77b	0.24191086
231	0x3e24a0bf	0.16076945
232	0x3e378511	0.17921855
233	0x3eb764bb	0.3581904
234	0x3e7a220e	0.24427053
235	0x3d57e8a3	0.052712094
236	0x3e161029	0.14654602
237	0x3e0b90d1	0.13629462
238	0x3d2d3e2e	0.042295627
239	0xbcca592f	-0.02470073
240	0xbdb2fced	-0.08739648
241	0xbd0fed5b	-0.03513847
242	0x3cd2ddbb	0.025740495
243	0xbd5d8d84	-0.054090038
244	0xbe3c6276	-0.18396935
245	0xbcda9d54	-0.026686348
246	0xbd94cb69	-0.0726536
247	0xbe50c9ad	-0.20389433
248	0xbea2ac4b	-0.31772074
249	0x3d712ef5	0.058882672
250	0x3e46d649	0.19417681
251	0x3dec3c2b	0.11534914
252	0x3d2c42e1	0.04205597
253	0xbe2c489f	-0.16824578
254	0xbe21b8b3	-0.15793113
255	0xbd852e34	-0.06502953

layer1.0.bn1.weight f4 [8]
0	0x3921868c	0.00015404279
1	0x3ec2d07d	0.3804969
2	0x3f55030b	0.8320777
3	0x3ebbc253	0.36671695
4	0x3f6e2e93	0.93039817
5	0x3eacdb19	0.33760908
6	0x3f50165e	0.8128413
7	0x3f296974	0.66176534

layer1.0.bn1.bias f4 [8]
0	0xba39b9a1	-0.0007084851
1	0x3e98cd37	0.29844067
2	0x3e8c77bb	0.27435097
3	0x3ea44249	0.32081822
4	0xbf91a63d	-1.1378857
5	0x3f0f589c	0.5599458
6	0x3e9ed7c5	0.31023994
7	0xbe5d4ff5	-0.21612532

layer1.0.bn1.running_mean f4 [8]
0	0x39477b83	0.0001902413
1	0x3e85d473	0.26138648
2	0xbe91b0f3	-0.28455314
3	0x3dcd349b	0.10019799
4	0x3eb0aaab	0.3450521
5	0xbe7e10d8	-0.24811113
6	0xbeabac18	-0.33529735
7	0xbd8cf7c3	-0.06883194

layer1.0.bn1.running_var f4 [8]
0	0x364f37b4	3.0877827e-06
1	0x3e280f4b	0.16412084
2	0x3f608ef0	0.87718105
3	0x3deac409	0.11463172
4	0x3e982ca3	0.29721555
5	0x3dcf6303	0.10126307
6	0x3f81f90c	1.0154128
7	0x3e3604f3	0.17775325

layer1.0.conv2.weight f4 [8, 8, 3, 3]
0	0xb972ad0c	-0.00023143383
1	0xb8f611bc	-0.000117334974
2	0x3907744b	0.00012917926
3	0x364f77cd	3.0915137e-06
4	0xb8c56a09	-9.4134426e-05
5	0xb90d3697	-0.00013467144
6	0x39857620	0.00025455747
7	0x3813a052	3.519684e-05
8	0x38510cf3	4.9841543e-05
9	0xbe6ec15c	-0.23315948
10	0x3d4f047b	0.050541382
11	0x3d954528	0.07288581
12	0xbeb76e34	-0.35826266
13	0x3d871265	0.06595305
14	0x3eb1afe7	0.34704515
15	0xbee76c55	-0.45199838
16	0xbe60d06c	-0.21954507
17	0xbe290654	-0.1650632
18	0x3d38c8b7	0.04511329
19	0xbc28bc90	-0.010298863
20	0xbcf3ce4e	-0.02976146
21	0x3cbc5d9a	0.022993851
22	0x3d2efb1d	0.04271995
23	0x3dfd2ca8	0.12362033
24	0xbca9081e	-0.020633753
25	0x3e84c38f	0.2593045
26	0x3e00a025	0.1256109
27	0xbdeb8cfe	-0.115015015
28	0xbe57e527	-0.21083508
29	0xbde84297	-0.11340826
30	0xbeab1387	-0.33413336
31	0xbd54b70c	-0.05193238
32	0x3e694455	0.22779973
33	0xbeb91487	-0.36148474
34	0x3dd6d4c5	0.10489801
35	0x3f07356a	0.5281588
36	0xbd676b7f	-0.056499
37	0xbd96bdd9	-0.07360429
38	0xbc869078	-0.01642631
39	0xbcd79324	-0.02631528
40	0xbd8b1f49	-0.067930765
41	0x3c370a84	0.011171941
42	0x3b2727e1	0.0025505947
43	0xbdce7288	-0.10080439
44	0xbd800538	-0.062509954
45	0x3df2960a	0.11845024
46	0x3e9b15d0	0.3029008
47	0x3e3be5eb	0.18349425
48	0x3e8477b2	0.2587257
49	0x3e58ab07	0.21158992
50	0xbe01e7fd	-0.12686153
51	0xbddf903f	-0.10916185
52	0xbe7157ce	-0.23568651
53	0xbf0854e8	-0.53254557
54	0xbe30061c	-0.1718983
55	0xbbf3da2c	-0.0074417796
56	0x3d7bfb53	0.06151898
57	0xbc086e35	-0.008327057
58	0x3dcc83da	0.09986086
59	0x3d557d5f	0.052121516
60	0x3dbef777	0.09324544
61	0x3eb0f2ee	0.3456034
62	0xbc3a70c2	-0.011379423
63	0x3e3f714b	0.18695562
64	0xbd29ab5f	-0.041423198
65	0x3ddb28fa	0.10701175
66	0x3e15a9c8	0.14615548
67	0x3d80a703	0.06281855
68	0x3db8c4e5	0.0902193
69	0x3e0821d6	0.13294157
70	0x3d83dd8e	0.064387426
71	0x3d6c1ebc	0.057646498
72	0x3980d331	0.00024571412
73	0x39d437f5	0.00040477482
74	0x39af13ac	0.00033393258
75	0x3927fd91	0.00016020822
76	0x39e86a72	0.00044329796
77	0x394ae417	0.00019349191
78	0xb76a9de2	-1.3984247e-05
79	0x399c3cd5	0.00029799962
80	0x39202df6	0.00015275911
81	0x3cbde8da	0.023182321
82	0xbe6e96f5	-0.23299773
83	0xbe9aa885	-0.30206695
84	0x3e7ef44d	0.24897881
85	0xbe819430	-0.2530837
86	0xbee6b3f5	-0.4505917
87	0x3e86d1da	0.2633198
88	0xbd923ab2	-0.071401015
89	0xbe8c9493	-0.27457103
90	0x3da76990	0.08174431
91	0xba794418	-0.0009508743
92	0xbbe3f30a	-0.0069564627
93	0x3d1c110a	0.038102187
94	0x3d82073a	0.063490346
95	0x3cf2bb62	0.029630367
96	0x3d555edc	0.052092418
97	0x3ea07ffe	0.3134765
98	0x3e26e382	0.16297725
99	0x3e293638	0.16524589
100	0x3eb2bc0b	0.3490909
101	0xbd9526e2	-0.07282807
102	0x3de331e4	0.110935
103	0x3e52bfd9	0.20580997
104	0xbd93290d	-0.07185564
105	0xbe1dbf01	-0.15404893
106	0xbe9b6c2e	-0.30355972
107	0xbe152811	-0.14566065
108	0xbd3b124d	-0.04567175
109	0xbe3eeaa7	-0.186442
110	0xbe259f81	-0.16174127
111	0x3c9613be	0.01831996
112	0xbd97f57d	-0.0741987
113	0xbd7898cb	-0.06069259
114	0x3de4663f	0.111523144
115	0x3ca3045b	0.019899538
116	0xbd80eb88	-0.06294924
117	0xbe0ed0a1	-0.13946773
118	0xbe38c4f6	-0.18043885
119	0x3aac5dd1	0.0013150518
120	0xbc1c3e1c	-0.009536292
121	0x3e0df7bc	0.13864034
122	0x3dfa7290	0.12228882
123	0xbce9adc8	-0.028525248
124	0x3ec2fb65	0.38082424
125	0x3e920dd8	0.28526187
126	0xbe042200	-0.12903595
127	0x3d7e491d	0.062081445
128	0x3e2759ca	0.16342846
129	0x3dbaf245	0.091282405
130	0x3e5ea9eb	0.21744506
131	0x3c53536e	0.012898309
132	0x3db7bf34	0.08972016
133	0x3ed0243d	0.40652648
134	0xbc136bfc	-0.008997913
135	0x3e294002	0.16528323
136	0xbcc51984	-0.024060018
137	0x3e021bc2	0.12705901
138	0x3dbccc4b	0.09218653
139	0x3dd3d0ea	0.103425816
140	0x3d46a259	0.04849467
141	0x3e15fd75	0.14647467
142	0x3d8f7f12	0.070066586
143	0xbd0389b4	-0.032113746
144	0xb8ffe290	-0.00012201548
145	0xb9ecc62f	-0.00045161086
146	0x38923418	6.971526e-05
147	0xb955c202	-0.00020385536
148	0xb9c1ca35	-0.00036962485
149	0x38832640	6.2536914e-05
150	0x387db6a1	6.0489987e-05
151	0xb9560cf9	-0.00020413463
152	0x39657c96	0.00021885554
153	0x3cb51b98	0.022107884
154	0xbd48cce8	-0.04902354
155	0x3d68198b	0.056664985
156	0x3dbaac19	0.09114856
157	0xbcbe3797	-0.023219867
158	0x3d6cf4d7	0.057850685
159	0x3db17f20	0.08666825
160	0xbd083ad8	-0.033259243
161	0x3cde254a	0.02711739
162	0xbea14ca6	-0.3150379
163	0xbce25dfa	-0.027632702
164	0xbdcf7a97	-0.10130804
165	0xbe5ae8bf	-0.21377848
166	0xbca64545	-0.020296702
167	0x3e3dad57	0.18523155
168	0xbecd61e4	-0.40113747
169	0x3e8fbf86	0.28075808
170	0xbc72e908	-0.014826067
171	0x3dab6123	0.08368137
172	0x3b509aec	0.0031830622
173	0xbdde0bb9	-0.1084208
174	0x3dc6d548	0.09708649
175	0x3e562aec	0.20914811
176	0xbdec23f3	-0.11530294
177	0xb9f31ec6	-0.000463715
178	0xbe61f572	-0.22066286
179	0xbc4a9f49	-0.012367078
180	0x3e656a84	0.22403914
181	0xbd3f6330	-0.046725452
182	0x3e631d9c	0.22179264
183	0x3e0eaacf	0.13932346
184	0x3e6b0ef1	0.22954918
185	0x3efc39b1	0.49262765
186	0x3e04a3dd	0.12953134
187	0x3d9f5b92	0.077811375
188	0x3e98c24c	0.29835737
189	0xbda09a2f	-0.07841908
190	0xbe37d572	-0.17952517
191	0xbd098503	-0.033574115
192	0x3e5e82d9	0.21729602
193	0xbce90bc9	-0.028448002
194	0xbd923a6d	-0.0714005
195	0xbde760e5	-0.11297778
196	0x3dc077eb	0.093978725
197	0xbcbfaddf	-0.023398338
198	0xbe64cf2f	-0.2234466
199	0x3df03556	0.11728923
200	0x3de150e4	0.11001757
201	0xbe0f93ae	-0.14021179
202	0xbdb0534b	-0.08609637
203	0xbda31804	-0.07963565
204	0xbd83ff14	-0.06445137
205	0x3e71b72f	0.23605035
206	0x3a17e2fb	0.00057940156
207	0x3ce566d3	0.028003132
208	0x3e76ce87	0.24102221
209	0x3cb781ef	0.022400824
210	0xbe6faa28	-0.23404753
211	0x3e130b27	0.14359723
212	0xbe0f709c	-0.14007801
213	0xbe50e171	-0.20398499
214	0x3d7fa44f	0.062412556
215	0xbd97a402	-0.07404329
216	0xba0be49e	-0.0005336496
217	0x35cf97d9	1.5466895e-06
218	0xb86fa792	-5.7138102e-05
219	0xb8811c0e	-6.156425e-05
220	0xb9080bbb	-0.0001297434
221	0xb7e48b6a	-2.7244638e-05
222	0xb8c95616	-9.6004616e-05
223	0xb8492891	-4.7959915e-05
224	0x3938a5c3	0.00017609358
225	0xbd8a4341	-0.06751109
226	0x3e1bb5df	0.15206097
227	0xbd36ae3d	-0.04459976
228	0xbe0420a3	-0.12903075
229	0x3e67522c	0.2258994
230	0x3de0b655	0.10972277
231	0xbc762a99	-0.0150248045
232	0xbd778c03	-0.06043626
233	0xbd4e1986	-0.05031731
234	0xbe50b503	-0.2038155
235	0x3d3ec9f6	0.046579324
236	0xbc950d7a	-0.018194903
237	0x3da4c7f0	0.080459476
238	0xbf8df456	-1.109019
239	0x3e810872	0.25201756
240	0x3e41c639	0.18923272
241	0xbe922747	-0.2854559
242	0x3d835bd4	0.06413999
243	0x3e146759	0.14492549
244	0xbe9b15d8	-0.30290103
245	0x3dbe8f53	0.09304681
246	0x3e6e337e	0.2326183
247	0xbd83a686	-0.06428246
248	0xbd0715d7	-0.032979812
249	0x3c8573c3	0.016290551
250	0x3da51207	0.08060079
251	0xbde97390	-0.11398995
252	0xbeb2daa8	-0.34932446
253	0x3e0ce441	0.13758947
254	0x3d1c98e7	0.038231757
255	0xbf1c91e7	-0.6116013

layer1.0.bn2.weight f4 [8]
0	0x3ed99d89	0.42503002
1	0x3ed07125	0.40711322
2	0x3f5f9506	0.87336767
3	0x3f9aed6f	1.2103709
4	0x3ed020f4	0.4065014
5	0x3fa0b48d	1.25551
6	0x3f852f7c	1.0405116
7	0x3ed1ff7d	0.41015235

layer1.0.bn2.bias f4 [8]
0	0x3e8a0df9	0.26963785
1	0x3f035a3e	0.51309574
2	0xbf062bbd	-0.5241049
3	0x3e28f9d4	0.16501552
4	0x3e68ef6a	0.22747579
5	0x3ebb8b2d	0.3662962
6	0xbc25e621	-0.010125668
7	0xbe1e2e86	-0.15447435

layer1.0.bn2.running_mean f4 [8]
0	0x3e0fe97b	0.1405391
1	0x3f350c7d	0.7072218
2	0xbe23a06a	-0.15979162
3	0xbf00ba0f	-0.502839
4	0x3e50509a	0.20343247
5	0xbf27ac4c	-0.6549728
6	0xbea63bf3	-0.32467613
7	0x3de730ea	0.112886265

layer1.0.bn2.running_var f4 [8]
0	0x3e8be78e	0.273251
1	0x3eb2d1c5	0.34925666
2	0x3ec7d428	0.3902905
3	0x3f0fe181	0.56203467
4	0x3ed9db8c	0.42550313
5	0x3f82d276	1.0220478
6	0x3f161bfc	0.5863645
7	0x3ebbdfbb	0.3669413

layer2.0.conv1.weight f4 [16, 8, 3, 3]
0	0xbd00554f	-0.031331357
1	0x3d319581	0.04335547
2	0xbdd4d949	-0.10393006
3	0xbdb0efa4	-0.08639458
4	0x3d582146	0.052766107
5	0xbc553f41	-0.013015569
6	0x3c488700	0.012239218
7	0xbd2dfe7d	-0.042479027
8	0xbc6efc7a	-0.014586562
9	0x3dd6c20b	0.104862295
10	0xbb464ab4	-0.003025693
11	0xbe0b23eb	-0.1358792
12	0xbde78098	-0.11303824
13	0x3df27ed3	0.11840596
14	0x3dad9bde	0.08476995
15	0xbdbd610d	-0.092470266
16	0xbdbb794c	-0.09153995
17	0x3d03767b	0.032095414
18	0xbdb43ae4	-0.08800295
19	0xbd85cc6c	-0.06533131
20	0x3d91adb8	0.07113212
21	0xbccc7fc9	-0.024963276
22	0xbe069d61	-0.13145973
23	0xbc56a409	-0.0131006325
24	0x3d10a7ca	0.035316266
25	0xbda169d3	-0.078815125
26	0x3bab00f0	0.0052186176
27	0xbd80c05d	-0.062866904
28	0x3eb971f8	0.36219764
29	0x3dd1d024	0.10244778
30	0xbe4c948d	-0.19978543
31	0xbed96803	-0.42462167
32	0x3ecf1814	0.40448058
33	0x3e8e1580	0.27750778
34	0xbe9e78eb	-0.30951628
35	0xbeb2be11	-0.34910634
36	0xbe174964	-0.1477409
37	0xbe9bf0d4	-0.30457175
38	0x3ded3733	0.11582794
39	0x3e63a068	0.22229159
40	0xbd8d1803	-0.068893455
41	0xbe2f4be3	-0.17118792
42	0x3e04e720	0.12978792
43	0x3ec593ec	0.38589418
44	0xbe878ee9	-0.2647622
45	0xbdcca674	-0.09992686
46	0x3ea9fab9	0.331991
47	0x3c7d8f13	0.015476006
48	0xbf104736	-0.5635866
49	0xbe06e5cb	-0.13173597
50	0x3eeb6830	0.45977926
51	0x3ec0f075	0.37683454
52	0xbf3c3804	-0.73522973
53	0x3de3fe76	0.11132519
54	0xbe22827e	-0.15870091
55	0x3d9c0a21	0.076191194
56	0x3e1abb2e	0.15110466
57	0xbdb5fbb1	-0.08885897
58	0xbe44cf8a	-0.19219795
59	0x3d981441	0.07425738
60	0x3d6bb4d8	0.057545513
61	0xbda5cbbe	-0.08095501
62	0xbdde753a	-0.10862203
63	0xbdf68cd9	-0.12038583
64	0xbdb8a6ac	-0.09016165
65	0x3d08d0fd	0.03340243
66	0x3deaa3cc	0.11457023
67	0xbca23874	-0.01980231
68	0x3d84da4c	0.06486949
69	0x3d70f0dd	0.058823455
70	0x3dea1f5c	0.114317626
71	0xbe67ed8f	-0.22649215
72	0xbd86b1a5	-0.06576852
73	0xbccc2f9c	-0.024925046
74	0x3dc37704	0.09544185
75	0xbd3f9dad	-0.04678123
76	0xbdac373c	-0.084089726
77	0x3d736c95	0.059429724
78	0x3cbce096	0.02305631
79	0xbda229a4	-0.079180986
80	0x3e030faf	0.12798952
81	0xbda76ac6	-0.08174662
82	0xbddbe283	-0.10736563
83	0x3cc76837	0.024341686
84	0xbd84a121	-0.064760454
85	0x3d14378b	0.036185782
86	0x3e0e27d4	0.1388238
87	0xbd39694c	-0.045266435
88	0xbcfeb4b4	-0.031092025
89	0x3d58674a	0.05283288
90	0x3e17d0a1	0.1482568
91	0x3d95335e	0.07285188
92	0xbeb8d70e	-0.36101574
93	0x3dbda3d6	0.09259765
94	0xbe22fb31	-0.15916134
95	0xbefc7deb	-0.49314818
96	0x3d8b171a	0.06791516
97	0x3d837cda	0.06420298
98	0xbe9005a1	-0.28129295
99	0xbc9c9e61	-0.01911849
100	0x3e396452	0.18104675
101	0xbe70bd82	-0.23509791
102	0x3ccf1268	0.025277331
103	0x3e35d36a	0.1775643
104	0xbf2fe940	-0.68715286
105	0x3d380c69	0.04493371
106	0x3e2e231e	0.17005584
107	0xbe59e3a9	-0.21278252
108	0x3c906643	0.017626887
109	0x3e7ce6c2	0.24697402
110	0xbea0dbae	-0.31417602
111	0x3e215c10	0.15757775
112	0x3f197568	0.5994477
113	0xbf3fe415	-0.749574
114	0x3df5f304	0.12009242
115	0x3eab87e2	0.33502108
116	0xbf2e4dad	-0.68087274
117	0x3da56114	0.08075157
118	0xbd8dc922	-0.06923129
119	0xbd01a21f	-0.03164875
120	0xbd9b6802	-0.07588197
121	0xbc11c572	-0.008897172
122	0x3d3ff62a	0.04686562
123	0xbdc00f1c	-0.09377882
124	0x3cd68077	0.026184304
125	0x3d893c03	0.067008995
126	0x3bef0be0	0.007295117
127	0xbe9441b3	-0.28956375
128	0x3ea7a47b	0.32742676
129	0x3b3a0f11	0.0028390328
130	0xbf023867	-0.50867313
131	0x3ee3c4c8	0.4448607
132	0xbc99d2f8	-0.018777356
133	0xbe7361c0	-0.23767757
134	0x3e7e8865	0.24856718
135	0xbda681cf	-0.08130228
136	0x3d9119a0	0.07084966
137	0xbd82bb0d	-0.06383333
138	0x3d0bc6ef	0.034125265
139	0x3e1cdada	0.1531786
140	0xbdcdde02	-0.1005211
141	0x3ce715ee	0.0282087
142	0x3c878ed2	0.016547594
143	0xbe0ff131	-0.14056851
144	0xbe2ace61	-0.1668029
145	0xbebcc3e8	-0.36868215
146	0xbe703b3f	-0.234601
147	0xbda43bc4	-0.08019212
148	0xbed22539	-0.41044024
149	0xbeaa7974	-0.33295786
150	0x3d94b117	0.0726034
151	0xbddd0680	-0.107922554
152	0xbd8cac07	-0.06868749
153	0xbdec8329	-0.11548454
154	0x3d408299	0.046999548
155	0x3cbed159	0.023293184
156	0xbe8fb1af	-0.2806525
157	0xbdac5b7f	-0.08415889
158	0xbd307b8b	-0.04308657
159	0xbea966e7	-0.3308632
160	0xbe5218e5	-0.20517309
161	0xbe241d45	-0.1602679
162	0x3d5efcb9	0.054440234
163	0x3d9432a6	0.07236223
164	0x3da695db	0.081340514
165	0xbe49eb58	-0.19718683
166	0xbe8bb71d	-0.27288142
167	0xbe5e7675	-0.21724875
168	0xbddaf6b4	-0.10691586
169	0xbe264b98	-0.16239774
170	0xbd6a175d	-0.057151187
171	0xbb925482	-0.0044656405
172	0xbd400479	-0.046879265
173	0xbd8ee46e	-0.06977163
174	0xbbed0de4	-0.007234322
175	0xbddb3aad	-0.10704551
176	0x3d93768c	0.072003454
177	0xbdb24aea	-0.08705695
178	0xbd415e83	-0.047209274
179	0xbd0470e1	-0.032334212
180	0xbd25eb4d	-0.040507603
181	0x3d75c90a	0.06000618
182	0xbd066aeb	-0.03281681
183	0xbd2eb354	-0.04265149
184	0x3c8ac802	0.016941074
185	0xbd80953a	-0.06278463
186	0xbda8ec0e	-0.08248149
187	0xbd1d0280	-0.038332462
188	0xbe97bf11	-0.2963796
189	0xbd9e35d4	-0.07725111
190	0x3e0dde32	0.13854292
191	0x3ceca712	0.02888826
192	0xbc979b13	-0.018506562
193	0xbd645638	-0.055746287
194	0x3ec75695	0.38933244
195	0xbd424b1d	-0.047434915
196	0x3de6fa89	0.112782545
197	0x3b97c516	0.004631649
198	0x3d0503ee	0.03247445
199	0x3c4c61dc	0.012474503
200	0x3d61fc52	0.055172272
201	0xbdd6efda	-0.10494967
202	0x3d01dabf	0.031702753
203	0x3db46836	0.08808939
204	0xbdc2e42d	-0.09516177
205	0xbd914115	-0.070924915
206	0xbc2d7a04	-0.010588173
207	0xbd6354a0	-0.055500627
208	0xbde1a224	-0.11017254
209	0xbbcd033c	-0.006256489
210	0x3e80099b	0.25007328
211	0xbd2d33d5	-0.04228576
212	0xbe49d34e	-0.19709513
213	0x3df96eed	0.121793605
214	0xbd456c60	-0.048199058
215	0xbe1f6ac6	-0.15568075
216	0x3d083472	0.03325314
217	0xbd3859ef	-0.045007642
218	0xbb7b1c1e	-0.003831632
219	0xbdda1b86	-0.10649781
220	0xbdc7d973	-0.09758272
221	0xbd3beb26	-0.045878552
222	0xbd9b8e6c	-0.07595524
223	0x3cb5ddf5	0.022200564
224	0x3d38f1d8	0.045152515
225	0xbdc275b6	-0.09495108
226	0xbdc6096c	-0.09669766
227	0xbda31837	-0.07963603
228	0x3cb539a6	0.022122215
229	0x3ca91ca5	0.020643542
230	0xbd55df58	-0.05221495
231	0xbd4d02fb	-0.05005167
232	0x3d5016cb	0.050802987
233	0x3db119fe	0.08647536
234	0x3b85a35b	0.0040783114
235	0x3dcf8a12	0.10133757
236	0x3e746bfd	0.2386932
237	0xbacf4768	-0.0015814127
238	0x3b384271	0.0028115774
239	0xbd9d1e45	-0.07671789
240	0xbd205a25	-0.03914847
241	0xbdf22926	-0.11824255
242	0xbda971c4	-0.08273652
243	0xbe1acf21	-0.15118076
244	0xbd3f2f5d	-0.04667603
245	0x3bd73296	0.0065673096
246	0x3d71c479	0.05902526
247	0x3d3c4ba6	0.04597058
248	0x3c63fb2d	0.013914865
249	0xbbe63171	-0.007024937
250	0xbd4fd353	-0.050738644
251	0x3d8b950e	0.06815539
252	0x3ea2776d	0.3173174
253	0x3eed20ab	0.46313986
254	0x3ea45a14	0.32099974
255	0xbe511416	-0.20417818

layer2.0.bn1.weight f4 [16]
0	0x3f2e2727	0.6802849
1	0x3f4ce0c0	0.8003044
2	0x3eaf3df5	0.34226957
3	0x3f3b5eb1	0.7319136
4	0x3f06e65b	0.52695245
5	0x3f358900	0.7091217
6	0x3f1fb202	0.62380993
7	0x3eb2991a	0.34882432
8	0x3f4d0e3b	0.8009984
9	0x3edf878a	0.43658096
10	0x3ee06346	0.4382574
11	0x3ef6bb0a	0.48189574
12	0x3f18d925	0.59706336
13	0x3f26a6c4	0.65098214
14	0x3f602932	0.8756286
15	0x3f205694	0.6263211

layer2.0.bn1.bias f4 [16]
0	0xbd68c60e	-0.056829505
1	0xbdfb6e3b	-0.12276884
2	0x3f1444bd	0.57917386
3	0xbdba556b	-0.090983234
4	0x3e888fad	0.26672116
5	0xbd34117a	-0.04396198
6	0xbca955ca	-0.02067079
7	0x3f196783	0.5992357
8	0xbe0c4bf1	-0.13700844
9	0x3edf1dfb	0.4357756
10	0x3f3d381f	0.7391376
11	0x3e9356b0	0.28777075
12	0xbcfec204	-0.031098373
13	0xbd210757	-0.03931364
14	0xbf17f80b	-0.5936286
15	0xbc71f6a2	-0.0147682745

layer2.0.bn1.running_mean f4 [16]
0	0xbf50c5ae	-0.81551635
1	0xbf622123	-0.8833181
2	0xc00def79	-2.2177413
3	0xbedb0cdc	-0.42783248
4	0xbfd046eb	-1.6271642
5	0x3cce5b66	0.025190067
6	0xbbbc9cf4	-0.005756015
7	0x3f80699f	1.0032233
8	0xbf6420d2	-0.8911258
9	0xbfa2df36	-1.2724369
10	0x3f8820a3	1.063496
11	0x3f294bad	0.661311
12	0xbe88b409	-0.26699856
13	0xbea43c20	-0.32077122
14	0xbfe9b9d0	-1.825983
15	0xbf27fc17	-0.65619034

layer2.0.bn1.running_var f4 [16]
0	0x3fe26909	1.7688304
1	0x401552a6	2.3331695
2	0x3f4ed745	0.80797225
3	0x4028cf5c	2.6376562
4	0x3f8a2244	1.0791707
5	0x40262882	2.5962224
6	0x3fd3baee	1.6541421
7	0x3f2b9e82	0.6703874
8	0x401eb212	2.4796185
9	0x3f9b86c4	1.2150502
10	0x3fd577c7	1.6677178
11	0x3f2c0ed0	0.672101
12	0x3f8fa067	1.1220826
13	0x3fdbafd2	1.7163031
14	0x3f5b5e4f	0.8569078
15	0x3fbbfa02	1.4685671

layer2.0.conv2.weight f4 [16, 16, 3, 3]
0	0xbc1603e4	-0.009156201
1	0x3d89ee32	0.06734885
2	0x3d6c64a1	0.057713155
3	0x3c270929	0.010195055
4	0x3e4d8288	0.20069325
5	0x3e10e391	0.1414931
6	0xbd113932	-0.035454936
7	0x3e0b8ae1	0.13627197
8	0x3dadcc9e	0.08486293
9	0x3b8e5d8e	0.0043446487
10	0xbda546b2	-0.08070125
11	0xbd204ff8	-0.039138764
12	0x3dcad8cd	0.09904633
13	0xbbd72270	-0.0065653846
14	0x3d192bae	0.03739517
15	0x3d85eefd	0.06539724
16	0xbc3ee0f6	-0.011650315
17	0xbdd1075b	-0.10206481
18	0x3df54181	0.119753845
19	0xbe1e06d5	-0.15432294
20	0xbe1772e8	-0.14789927
21	0x3eba8d08	0.36435723
22	0x3d2ca97b	0.042153817
23	0xbed271f6	-0.4110257
24	0x3e44d4a9	0.19221748
25	0x3e8c8f53	0.27453098
26	0xbe2ab3ae	-0.16670105
27	0xbd716b84	-0.058940426
28	0x3db3c500	0.08777809
29	0xbc12f690	-0.008969918
30	0xbb563b75	-0.0032689248
31	0x3e34b9af	0.17648958
32	0x3d295a10	0.041345656
33	0xbe1418ef	-0.14462636
34	0xbdd549f0	-0.10414493
35	0xbda6b0bb	-0.081391774
36	0xbc87233f	-0.016496299
37	0x3e53a71d	0.20669217
38	0x3d8018ee	0.06254755
39	0x3e38521c	0.18000072
40	0x3ec78461	0.38968185
41	0x3d8736c6	0.06602244
42	0x3daa3ac8	0.08311993
43	0x3e529486	0.2056447
44	0xbaeb8f8f	-0.0017971861
45	0xbd30c8be	-0.043160193
46	0x3e0553d6	0.13020262
47	0x3d9f73f9	0.07785792
48	0xbe175494	-0.14778358
49	0xbcb95f3c	-0.02262842
50	0xbd2074cd	-0.03917389
51	0xbd83dfbf	-0.064391606
52	0x3a43fec2	0.00074766215
53	0xbcf5c52b	-0.030001244
54	0xbd094708	-0.033515006
55	0x3d29b492	0.04143197
56	0x3b48f187	0.003066154
57	0x3d318cec	0.043347284
58	0x3d0b39cc	0.033990666
59	0x3d4a1f0a	0.049346007
60	0xbd8d9eb3	-0.06915035
61	0x3ce5e975	0.028065423
62	0xbd706eca	-0.058699407
63	0xbd81b475	-0.063332476
64	0x3dc413e3	0.095741056
65	0xbc3adbeb	-0.011404972
66	0xbe755e28	-0.23961699
67	0x3e4d473f	0.2004671
68	0x3ee8f071	0.45495942
69	0xbeb413ed	-0.35171452
70	0xbe382143	-0.17981438
71	0xbe103857	-0.14083992
72	0xb94e2210	-0.0001965838
73	0xbba58811	-0.005051621
74	0xbdf86e3d	-0.12130401
75	0x3dcb2007	0.09918218
76	0x3e016132	0.12634733
77	0x3c88736f	0.016656606
78	0xbc885927	-0.016644074
79	0xbb1b2e58	-0.0023678746
80	0xbcad082d	-0.021122063
81	0xbd7b0314	-0.061282232
82	0x3dc3bf29	0.09557945
83	0xbcf95c7e	-0.030439612
84	0xbde26568	-0.11054498
85	0x3d357fab	0.044311207
86	0x3d5ec1e4	0.054384127
87	0x3b54a5fd	0.003244757
88	0xbaf6df03	-0.0018834773
89	0x3d8fc51e	0.07020019
90	0xbd412535	-0.047154624
91	0x3e34f83e	0.17672822
92	0xbda573e1	-0.08078743
93	0x3dde526f	0.10855567
94	0x3e94dc0a	0.29074126
95	0xbe0ea12f	-0.13928674
96	0xbe24a6d3	-0.16079263
97	0xbe4d39f0	-0.20041633
98	0xbe8481c5	-0.25880256
99	0xbddb1d77	-0.10698979
100	0xbe540580	-0.20705223
101	0xbce07d43	-0.02740348
102	0x3ddb7683	0.10715964
103	0x3d823075	0.06356899
104	0x3d4e87ac	0.050422356
105	0x3d2da4f8	0.042393655
106	0x3ed606c1	0.41802028
107	0x3d47c33b	0.04877017
108	0xbcc23478	-0.02370666
109	0x3cf31326	0.029672217
110	0x3c42bd2a	0.011885921
111	0x3d443899	0.04790554
112	0x3e88638d	0.2663845
113	0x3db2b608	0.08726126
114	0xbd48e634	-0.049047664
115	0x3e167693	0.1469367
116	0x3c7e997e	0.015539525
117	0xbcd28691	-0.025698932
118	0x3d5c7ee0	0.053831935
119	0xbcd0c70a	-0.025485534
120	0xbc4ac1be	-0.012375293
121	0x3de465cc	0.11152229
122	0x3c87ebe2	0.01659197
123	0xbd231d85	-0.039823074
124	0x3cf974d6	0.03045122
125	0xbc5b5d70	-0.013388976
126	0x3d50bf36	0.050963603
127	0xbcf8d93c	-0.030377023
128	0xbde467c2	-0.11152603
129	0xbcae2d89	-0.021261947
130	0xbe460471	-0.19337632
131	0xbe8b5e4b	-0.27220377
132	0x3d296328	0.04135433
133	0xbd56d489	-0.052448783
134	0xbe0db5e8	-0.13838923
135	0xbd9537eb	-0.07286056
136	0x3d81a83f	0.063309185
137	0x3d3fabfc	0.046794876
138	0x3d04ecc7	0.03245237
139	0x3e4b5bf1	0.19859292
140	0x3e32ee8b	0.1747381
141	0xbcdb4f4a	-0.026771206
142	0x3e149569	0.1451012
143	0x3d773cc6	0.060360692
144	0xbdc97892	-0.0983745
145	0xbd8d22bb	-0.0689139
146	0xb91dd511	-0.0001505206
147	0xbdd349a3	-0.103167795
148	0x3d40c511	0.047062937
149	0x3decbd6d	0.115595676
150	0xbd6e1a3b	-0.058130484
151	0x3bcdf313	0.00628508
152	0x3d44bc82	0.048031338
153	0x3d14ee70	0.036360204
154	0x3e747cc2	0.23875716
155	0x3d907f05	0.07055477
156	0x3eb0971d	0.3449029
157	0x3f5e0425	0.86725074
158	0x3ee1b954	0.44086707
159	0x3e83d6fa	0.25749952
160	0x3f18295c	0.5943811
161	0x3e8c1531	0.27359918
162	0x3c5be400	0.013421059
163	0x3d4c8f9a	0.049941637
164	0xbd05ba8e	-0.032648616
165	0xbd719887	-0.058983352
166	0xbd02af98	-0.03190574
167	0xbdc03656	-0.09385364
168	0xbd3c3a7d	-0.045954216
169	0xbb34942d	-0.002755414
170	0xbce293ac	-0.027658306
171	0xbcca281a	-0.024677325
172	0xbb2f8aba	-0.0026785568
173	0x3b67f852	0.0035395813
174	0xbd4b15e5	-0.049581427
175	0xbd19522d	-0.037431885
176	0xbcb3d404	-0.021951683
177	0xbcc36f00	-0.02385664
178	0xbb029631	-0.0019925947
179	0x3d1b1824	0.03786482
180	0xbc48cdf7	-0.012256137
181	0x3da387c3	0.07984879
182	0x3c3e2bfc	0.011607166
183	0x3d135a9c	0.035975084
184	0xbd6cb9e9	-0.057794485
185	0xbe1e3ced	-0.15452929
186	0x3dabb218	0.08383578
187	0xbb4d46f6	-0.0031322814
188	0xbd6e5490	-0.058186114
189	0xbc9d5113	-0.019203698
190	0xbdf21a95	-0.11821476
191	0x3cd36a9d	0.025807673
192	0xbdb0b693	-0.08628573
193	0xbd0d353d	-0.0344746
194	0x3d23c402	0.03998185
195	0xbd92239d	-0.07135699
196	0x3b44e3ae	0.0030042934
197	0xbb9d3d52	-0.0047985697
198	0xbd939943	-0.07206967
199	0xbdd44cfd	-0.10366247
200	0xbcdc3936	-0.026882749
201	0xbd8d7a33	-0.06908073
202	0xbd9c53a9	-0.076331444
203	0x3b6a1997	0.003572082
204	0xbde9894a	-0.11403139
205	0xbc88db00	-0.01670599
206	0x3c651b94	0.013983626
207	0xbd1dbc40	-0.038509607
208	0x3c0ede45	0.008719985
209	0x3d645bb9	0.055751536
210	0xbd0b46f0	-0.0340032
211	0x3d0d2e04	0.034467712
212	0xbc3dfa3c	-0.011595305
213	0x3b381d61	0.0028093683
214	0x3c92b0d5	0.017906586
215	0xbdc4ef11	-0.09615911
216	0xbc0e5614	-0.008687515
217	0x3e2bb9e3	0.16770129
218	0x3e4ae2bb	0.19813053
219	0x3dff42fb	0.124639474
220	0x3f32519d	0.6965578
221	0x3f43df8e	0.7651299
222	0x3dad4dfb	0.08462139
223	0x3ef50dc2	0.4786206
224	0x3f085cd0	0.5326662
225	0xbdb2a07d	-0.08722017
226	0x3e2c4f7c	0.16827196
227	0x3d91b6d5	0.071149506
228	0xbde08c2a	-0.10964234
229	0x3e200170	0.15625548
230	0x3c49773c	0.012296494
231	0xbc703052	-0.014659958
232	0x3dbe193b	0.09282156
233	0x3c7876f1	0.015165077
234	0xbd29d8d1	-0.041466538
235	0x3d1179db	0.0355166
236	0xbc16b2d1	-0.009197907
237	0xbde23382	-0.110449806
238	0x3d7c2999	0.061563108
239	0xbda16c1b	-0.078819476
240	0xbe023f80	-0.12719536
241	0x3e0535fd	0.13008876
242	0xbb03e4fa	-0.0020125494
243	0xbcd6fc7b	-0.026243439
244	0x3c261326	0.010136401
245	0xbd8c04d3	-0.06836858
246	0xbd7b2b1b	-0.061320405
247	0xbd5b4123	-0.053528916
248	0xbddb4707	-0.10706907
249	0xbd21195d	-0.03933083
250	0xbcb97e84	-0.022643335
251	0x3cfcd492	0.03086308
252	0xbd27675b	-0.04087005
253	0xbb8bf57e	-0.0042712083
254	0x3c453c92	0.012038367
255	0xbcddd1d0	-0.027077585

layer2.0.bn2.weight f4 [16]
0	0x3ef3afbc	0.47595012
1	0x3f2f99bc	0.68593955
2	0x3fb7caf0	1.4358807
3	0x3f2ad5c1	0.6673241
4	0x3e9fb71a	0.31194383
5	0x3f14489c	0.57923293
6	0x3f450bdc	0.7697122
7	0x3ee57b8a	0.44820815
8	0x3efdfe60	0.49608135
9	0x3f3044bb	0.68854874
10	0x3f6a2535	0.91463023
11	0x3f5b00e0	0.8554821
12	0x3f35637d	0.7085493
13	0x3f1917a0	0.59801674
14	0x3f8d4bcb	1.1038755
15	0x3f1e5b03	0.6185762

layer2.0.bn2.bias f4 [16]
0	0x3e25e0ac	0.16198987
1	0x3ec9f815	0.39447084
2	0xbea75ebf	-0.32689473
3	0xbdfe7845	-0.12425283
4	0xbdb99266	-0.090611264
5	0x3d967236	0.07346003
6	0xbd8eb33b	-0.06967779
7	0xbd257481	-0.04039431
8	0x3ecfc3a8	0.4057896
9	0x3eb721fc	0.35768116
10	0xbdee46d6	-0.11634605
11	0xbd89c5d0	-0.06727183
12	0xbdeb4467	-0.11487656
13	0x3e61e922	0.2206159
14	0xbdf0e407	-0.11762243
15	0x3f0ca725	0.5494254

layer2.0.bn2.running_mean f4 [16]
0	0x3f1142b4	0.56742406
1	0x3f42b13a	0.76051676
2	0xbfb3d57c	-1.4049525
3	0xbeeb7328	-0.45986295
4	0x3de3a125	0.1111472
5	0xbf2413dd	-0.6409281
6	0x3e629973	0.22128849
7	0xbf23b202	-0.63943493
8	0xbf5a29fe	-0.85220325
9	0x3f885a72	1.0652602
10	0xbf15fe43	-0.585911
11	0x3eb8128e	0.35951656
12	0xbf1f2a34	-0.6217377
13	0xbf34c206	-0.70608556
14	0xbef6d88c	-0.48212087
15	0xbfc46e24	-1.5346112

layer2.0.bn2.running_var f4 [16]
0	0x3f07848f	0.52936643
1	0x3fbc0e5c	1.4691882
2	0x3f436a58	0.7633414
3	0x3eb34a3e	0.3501758
4	0x3dfb3e03	0.12267687
5	0x3f2863b8	0.6577716
6	0x3f361c00	0.71136475
7	0x3e8995ef	0.26872203
8	0x3efc0cbc	0.49228466
9	0x3f9cf542	1.2262347
10	0x3f58f5d6	0.84750116
11	0x3f50a2e7	0.8149857
12	0x3ecc10a5	0.3985645
13	0x3f086640	0.5328102
14	0x3f1d9782	0.6155931
15	0x3f8f84a3	1.1212353

layer2.0.shortcut.0.weight f4 [16, 8, 1, 1]
0	0xbe1815b4	-0.14852029
1	0x3f0d2de4	0.5514815
2	0xbd2369bb	-0.039895754
3	0xbc5496f0	-0.012975439
4	0x3f0f402b	0.5595729
5	0x3d7d43a1	0.061832074
6	0x3cef7b69	0.029233651
7	0xbf12b715	-0.5731061
8	0xbdada88f	-0.084794156
9	0xbd9b7578	-0.07590765
10	0x3dec424e	0.11536084
11	0x3e5347a4	0.20632797
12	0x3cb05c9c	0.021528535
13	0xbe054d68	-0.1301781
14	0xbddf3d4b	-0.109003626
15	0x3c18fdf5	0.009337892
16	0x3c916883	0.01775003
17	0x3d6e4f44	0.058181062
18	0xbe56081a	-0.20901528
19	0xbdce87d9	-0.10084505
20	0xbd239fef	-0.039947446
21	0x3d88c570	0.06678283
22	0xbb848663	-0.0040443405
23	0x3e15cd4d	0.14629097
24	0x3de9dcf4	0.114190966
25	0xbef02aa4	-0.46907532
26	0xbd735310	-0.059405386
27	0x3d07f055	0.033188183
28	0xbdd83349	-0.10556657
29	0x3e0335cc	0.1281349
30	0x3c12f787	0.008970148
31	0x3eebeae4	0.46077645
32	0x3eed57af	0.4635596
33	0xbf2a7988	-0.6659169
34	0xbe344579	-0.17604627
35	0xbd1a9bca	-0.03774623
36	0x3e091c62	0.13389733
37	0x3d5199dc	0.051172122
38	0x3d04b44d	0.03239851
39	0xbeeb95d0	-0.46012735
40	0x3df878c4	0.12132409
41	0x3e881813	0.26580867
42	0xbd4e4764	-0.050361052
43	0xbcf086b6	-0.02936111
44	0xbf17ce8e	-0.5929955
45	0xbdcd9575	-0.10038272
46	0xbe8aee14	-0.27134764
47	0xbd8e61b3	-0.069522284
48	0x3d9a53bf	0.075355045
49	0x3d9e487e	0.077286705
50	0xbdf056b6	-0.11735289
51	0xbdd485c2	-0.10377075
52	0x3e461c59	0.19346751
53	0xbf1ce063	-0.61279887
54	0xbe129afb	-0.14316933
55	0x3cced28d	0.025246883
56	0xbf4a4842	-0.79016507
57	0x3f1d3798	0.61412954
58	0xbe5663f9	-0.20936574
59	0xbc830a3c	-0.015996091
60	0xbe0dd813	-0.13851957
61	0x3d5222eb	0.05130283
62	0xbcab5c11	-0.020917924
63	0x3edffe12	0.43748528
64	0xbc4832bf	-0.01221913
65	0xbdd8eba4	-0.1059182
66	0x3db12e0f	0.08651363
67	0xbe8b9940	-0.27265358
68	0x3f1b0838	0.60559416
69	0xbe205f1d	-0.15661283
70	0xbe5e0e00	-0.21685028
71	0x3dce77d1	0.10081447
72	0xbc97407a	-0.018463362
73	0xbc26acfa	-0.010173077
74	0xbd65e14e	-0.05612307
75	0xba94d287	-0.0011354246
76	0xbc37bea8	-0.01121489
77	0xbe0a55bb	-0.13509266
78	0x3e213e44	0.15746409
79	0x3b6b9024	0.0035944069
80	0x3bdacd87	0.006677333
81	0xbd908573	-0.070567034
82	0xbde79577	-0.11307805
83	0xbe54c806	-0.20779428
84	0xbe8054e6	-0.25064772
85	0x3e8d460a	0.27592498
86	0xbdecf4ad	-0.11570106
87	0xbe33fc82	-0.17576793
88	0xbd50b200	-0.050951004
89	0xbccb691d	-0.024830395
90	0xbd2270e6	-0.03965845
91	0x3d636a83	0.0555215
92	0xbede2d53	-0.43393955
93	0x3e162a1e	0.14664504
94	0x3e9d49cd	0.30720368
95	0xbe944186	-0.2895624
96	0x3e5a72a4	0.21332794
97	0xbecc1412	-0.39859062
98	0xbd382905	-0.044960994
99	0xbc8ba2e5	-0.017045448
100	0xbe7dedd1	-0.24797751
101	0xbd814021	-0.0631106
102	0xbba2d408	-0.0049691238
103	0x3ec4b94a	0.38422614
104	0xbd9a7214	-0.0754129
105	0xbe82ebe4	-0.25570595
106	0x3cedb1a8	0.029015377
107	0x3d4ccff3	0.050003003
108	0x3e1f3189	0.1554624
109	0x3e5c95d1	0.21541525
110	0x3bef240d	0.0072979988
111	0x3e028c3f	0.12748812
112	0xbc9ec8a7	-0.019382788
113	0x3d948b50	0.07253134
114	0x3e2f6ade	0.1713061
115	0xbcb7595f	-0.022381483
116	0x3dc8bb9b	0.09801408
117	0xbe87e1cd	-0.2653946
118	0x3e830814	0.255921
119	0xbd8e4de3	-0.069484495
120	0xbe10d8e3	-0.14145236
121	0xbd83ab74	-0.064291865
122	0xbeb6323a	-0.35585195
123	0xbe2ea35e	-0.17054507
124	0xbed0e9a4	-0.40803254
125	0x3d231349	0.039813314
126	0xbe57ad91	-0.21062304
127	0xbe3b8b2d	-0.1831481

layer2.0.shortcut.1.weight f4 [16]
0	0x3f09f41d	0.5388811
1	0x3d206f72	0.039168783
2	0x3dd91342	0.10599376
3	0x3ed99cdd	0.4250249
4	0x3f3608b6	0.7110704
5	0x3ed446f9	0.41460398
6	0x3eede8c0	0.46466637
7	0x3f3aee79	0.7302013
8	0x3e8dd48c	0.27701223
9	0xbae32c8f	-0.0017332005
10	0x3e5cfb2b	0.21580188
11	0x3e894a5b	0.2681454
12	0x3ead5f9b	0.33862004
13	0x3e0539a1	0.13010265
14	0x3e6c0b4c	0.23051184
15	0x3e1df183	0.1542416

layer2.0.shortcut.1.bias f4 [16]
0	0x3e25e0ac	0.16198987
1	0x3ec9f815	0.39447084
2	0xbea75ebf	-0.32689473
3	0xbdfe7845	-0.12425283
4	0xbdb99266	-0.090611264
5	0x3d967236	0.07346003
6	0xbd8eb33b	-0.06967779
7	0xbd257481	-0.04039431
8	0x3ecfc3a8	0.4057896
9	0x3eb721fc	0.35768116
10	0xbdee46d6	-0.11634605
11	0xbd89c5d0	-0.06727183
12	0xbdeb4467	-0.11487656
13	0x3e61e922	0.2206159
14	0xbdf0e407	-0.11762243
15	0x3f0ca725	0.5494254

layer2.0.shortcut.1.running_mean f4 [16]
0	0x3f220cc1	0.6330071
1	0xbde1693e	-0.110064015
2	0x3d12871c	0.03577338
3	0xbd00c329	-0.03143612
4	0xbea91021	-0.33020118
5	0xbf1d5bab	-0.61468
6	0xbeda1a20	-0.42598057
7	0x3da0baa4	0.07848099
8	0x3e16fd8e	0.14745161
9	0xbd961e4b	-0.07329997
10	0xbeaafcd0	-0.33396006
11	0xbe8c2eea	-0.27379543
12	0xbe9c8340	-0.30568886
13	0x3e5f146e	0.21785137
14	0x3d116a2b	0.03550164
15	0xbf5db9ff	-0.8661193

layer2.0.shortcut.1.running_var f4 [16]
0	0x3e75585d	0.23959489
1	0x3cf74e9c	0.030188851
2	0x3cb20cad	0.02173456
3	0x3e138350	0.1440556
4	0x3e1db25f	0.15400074
5	0x3e8f6331	0.28005365
6	0x3e5206ee	0.20510456
7	0x3e63273e	0.22182938
8	0x3e0eaf50	0.13934064
9	0x3ce9fd50	0.028563172
10	0x3de53257	0.11191242
11	0x3dd92a54	0.106037766
12	0x3dcd7f66	0.10034065
13	0x3daa2082	0.083069816
14	0x3dc15fde	0.09442113
15	0x3ddf4373	0.10901537

layer3.0.conv1.weight f4 [32, 16, 3, 3]
0	0xbd7f6d86	-0.06236031
1	0xbdbdefa6	-0.09274225
2	0xbd9a6932	-0.07539596
3	0xbdbe1efb	-0.09283253
4	0x3c78a256	0.015175423
5	0xbd866998	-0.06563109
6	0x3ce3b61a	0.027796794
7	0x3cfad5c5	0.030619511
8	0x3b7b3cda	0.003833583
9	0xbc4bd4cd	-0.012440872
10	0xbc3161a8	-0.010826506
11	0xbd32b615	-0.04363068
12	0xbdd8663d	-0.105663754
13	0xbd9ecdf8	-0.07754129
14	0xbe221461	-0.15828086
15	0x3e326022	0.17419484
16	0x3e263fa4	0.16235214
17	0x3d5a3daa	0.053281464
18	0x3d036e32	0.032087512
19	0x3c28ec2b	0.010310213
20	0xbcab529c	-0.020913415
21	0x3d68d91d	0.05684768
22	0xbd91d3e7	-0.07120495
23	0x3aa3134f	0.0012441667
24	0x3d3e98da	0.04653249
25	0xbd1c0085	-0.038086433
26	0x3c8c4c50	0.017126232
27	0x3b2b1fc2	0.0026111458
28	0xbbe84405	-0.0070881867
29	0xbd6d2e81	-0.057905678
30	0xbcbf9223	-0.023385113
31	0xbc4af2f8	-0.01238703
32	0xbdc15603	-0.094402336
33	0xbc594980	-0.013262153
34	0xbcbc5bec	-0.02299305
35	0x3cd81880	0.02637887
36	0xbcb404de	-0.021974977
37	0xbd1d29e3	-0.038370024
38	0xbdadf48d	-0.0849391
39	0x3d737279	0.05943534
40	0x3d39c104	0.04535009
41	0xbd7fec86	-0.062481426
42	0x3d67d30e	0.05659776
43	0x3d905cf9	0.07048983
44	0x3d89df2b	0.06732019
45	0xbda416ca	-0.08012159
46	0xbdd994fb	-0.10624119
47	0xbd337642	-0.04381395
48	0xbe2f48db	-0.17117636
49	0xbe416d4b	-0.18889348
50	0xbd820ade	-0.06349729
51	0x3d1a3622	0.03764928
52	0x3e4b7bde	0.1987147
53	0x3e73c5ce	0.23805925
54	0x3dadbe2f	0.0848354
55	0x3d53483f	0.05158257
56	0x3d894238	0.06702083
57	0x3dad8e3e	0.08474396
58	0x3d896ba9	0.06709988
59	0xbb8def67	-0.0043315175
60	0xbda6935b	-0.081335746
61	0xbe50d74d	-0.2039463
62	0xbde304c9	-0.11084897
63	0x3d86493e	0.065569386
64	0x3dc87fed	0.09790025
65	0x3df35a8f	0.11882507
66	0x3cc3ef1e	0.02391773
67	0xb9bfe57c	-0.00036601338
68	0x3dbc48fb	0.091936074
69	0xbdc496c7	-0.09599071
70	0xbe0ef17d	-0.13959308
71	0xbdef1907	-0.116746955
72	0x3d569421	0.05238736
73	0x3c8c86e9	0.017154174
74	0x3c234804	0.0099659
75	0x3e781feb	0.24230926
76	0x3ea24716	0.3169486
77	0x3e8dfa1b	0.27729878
78	0xbe81a8c4	-0.2532407
79	0xbe60225c	-0.21888107
80	0xbe6b1632	-0.22957686
81	0xbe567e68	-0.20946658
82	0xbe5b7630	-0.21431804
83	0xbe343532	-0.17598417
84	0x3d33404d	0.043762494
85	0x3e12f11c	0.14349788
86	0x3cc3c8de	0.023899492
87	0x3e25f2af	0.16205858
88	0x3e50fef9	0.20409764
89	0xbb6e849c	-0.003639496
90	0x3c00725a	0.007839764
91	0xbd636e1a	-0.055524923
92	0xbd501de5	-0.05080976
93	0xbe015418	-0.12629735
94	0xbe02c5f6	-0.12770829
95	0xbdbc113f	-0.09182977
96	0x3e3a1407	0.18171702
97	0x3e6233be	0.2209005
98	0x3e16e475	0.14735587
99	0xbd092f94	-0.03349264
100	0xbda2d378	-0.07950491
101	0xbb1be538	-0.0023787748
102	0x3caf1b6f	0.021375386
103	0xbd8ee56b	-0.06977352
104	0xbdfcf434	-0.123512655
105	0x3d3ae217	0.045625772
106	0x3e0f8013	0.140137
107	0x3ddc6541	0.107615
108	0x3d850479	0.06494994
109	0x3d2eb53e	0.042653315
110	0x3d23ecd3	0.040020775
111	0x3dbac426	0.091194436
112	0x3d891fc0	0.06695509
113	0x3ced4f04	0.028968342
114	0xbcb62aa2	-0.022237126
115	0xbd35c95a	-0.044381477
116	0xbd842b90	-0.064536214
117	0xbe218e25	-0.1577688
118	0xbe3bd41a	-0.18342629
119	0xbde32687	-0.11091333
120	0xbdb017b7	-0.08598273
121	0x3d540ce4	0.051770106
122	0x3d39c903	0.045357715
123	0xbc934b42	-0.017980222
124	0x3c697fe0	0.014251679
125	0x3e075c7a	0.13218871
126	0x3d6c7207	0.057725932
127	0x3d04db78	0.032435864
128	0xbd2e144c	-0.042499825
129	0xbcf4badd	-0.02987426
130	0xbcf6a196	-0.030106347
131	0x3d6cf889	0.05785421
132	0x3dc75d87	0.09734636
133	0x3e37516a	0.17902151
134	0x3d571ce3	0.052517783
135	0x3e275e6f	0.16344617
136	0x3e2ff3cb	0.17182843
137	0x3d22f38b	0.039783042
138	0xbe2bd732	-0.16781309
139	0xbe7ce503	-0.24696736
140	0xbe7ad23e	-0.24494264
141	0x3d867ed1	0.06567157
142	0x3e2e633b	0.17030041
143	0x3dd3a554	0.10334268
144	0x3bec4687	0.007210556
145	0xbd7840b9	-0.0606086
146	0xbcc3981b	-0.02387624
147	0x3b71dcaf	0.003690522
148	0xbccb2a5e	-0.024800476
149	0xbac42d43	-0.0014967102
150	0x3d19848d	0.037479926
151	0xbcc58b14	-0.02411417
152	0x3c344763	0.011003348
153	0xbe9869f9	-0.2976835
154	0xbee1b595	-0.4408385
155	0xbe6ce8f9	-0.23135747
156	0xbec75389	-0.3893092
157	0xbf02937c	-0.51006293
158	0xbeab156a	-0.33414775
159	0xbe45c55e	-0.19313571
160	0xbee28419	-0.44241408
161	0xbe8509b6	-0.2598397
162	0x3e1da280	0.1539402
163	0x3db57cc0	0.08861685
164	0xba6f89d2	-0.00091376633
165	0x3e14278f	0.14468215
166	0x3d8c8495	0.068612255
167	0x3bfb6e2f	0.007673047
168	0xbcd398d6	-0.025829714
169	0xbcb6b114	-0.022301234
170	0xbd7d1664	-0.06178893
171	0x3c2a4de7	0.01039455
172	0x3c8d790f	0.01726964
173	0x3d2e82ef	0.042605337
174	0x3d0f38e8	0.03496638
175	0xbcde4ecb	-0.02713718
176	0xbc152ee6	-0.00910542
177	0x3c6daa75	0.014505972
178	0xbbeb8574	-0.0071875397
179	0x3c2e3af1	0.01063417
180	0x3da36842	0.0797887
181	0x3d189e5f	0.03726041
182	0x3da7720b	0.08176049
183	0x3bd216f7	0.006411429
184	0x3d7545a1	0.059880856
185	0x3da30033	0.079590224
186	0x3c432816	0.011911413
187	0x3d340100	0.043946266
188	0x3d21c83a	0.03949759
189	0x3d9f8af7	0.07790177
190	0x3d59fc31	0.053219024
191	0x3d203c8d	0.039120246
192	0x3e053c8a	0.13011375
193	0xbd7653b9	-0.060138438
194	0xbc8093fd	-0.015695566
195	0x3e550a8b	0.20804803
196	0xbd29dd84	-0.04147102
197	0xbd191411	-0.037372652
198	0x3d978128	0.073976815
199	0x3e9869ed	0.29768315
200	0x3e8ab661	0.2709227
201	0x3e8092ce	0.25112003
202	0x3eba8851	0.36432126
203	0x3ec23afa	0.3793562
204	0x3e644030	0.2229011
205	0x3e8e7887	0.2782633
206	0x3e5c3122	0.21503118
207	0x3d1f5b30	0.038905323
208	0x3aff6684	0.0019485508
209	0xbbf7ca58	-0.007561963
210	0x3b438b35	0.0029837613
211	0x3ce58fa2	0.028022591
212	0x3d934fda	0.07192965
213	0x3c903a15	0.01760582
214	0x3d054c2f	0.032543357
215	0x3b2b9f67	0.002618754
216	0x3b474d17	0.003041094
217	0xbd3b9a65	-0.04580154
218	0xbcf724af	-0.03016886
219	0x3d541f31	0.05178756
220	0xbcfdcc54	-0.03098122
221	0x3cafa653	0.021441614
222	0x3dc768de	0.09736799
223	0x3c932b07	0.017964853
224	0x3c38e0a8	0.011284031
225	0x3d8b9697	0.06815832
226	0x3da58ddc	0.08083698
227	0x3da3161a	0.079632
228	0x3e443cad	0.19163771
229	0x3e137e09	0.14403547
230	0x3e809897	0.25116417
231	0x3dac47f7	0.08412164
232	0x3c942be4	0.018087335
233	0x3dde394c	0.10850772
234	0x3c488edc	0.012241092
235	0x3c0f2583	0.008736971
236	0x3cd3b2b7	0.025842054
237	0x3c914ee2	0.01773781
238	0xbd3ce702	-0.046118744
239	0x3cbd46b2	0.023105
240	0x3c1188ea	0.0088827405
241	0xbcc71d1d	-0.024305874
242	0xbc688747	-0.014192409
243	0xbdbe7587	-0.0929976
244	0xbdebe559	-0.11518354
245	0xbd0482a1	-0.03235114
246	0xbe0ca8a0	-0.137362
247	0xbe6366c4	-0.2220717
248	0xbdd43d03	-0.103631996
249	0x3b736e9e	0.003714479
250	0xbdb5002e	-0.08837925
251	0xbc1e4c8a	-0.009661803
252	0xbcf088c8	-0.029362097
253	0xbd388b5f	-0.04505479
254	0x3d8c4fcc	0.068511575
255	0xbd89b1e0	-0.0672338
