meta_results/meta_seed-3_metalr-1e-05_T-2_200-epochs_cifar100-ResNet10_smodel_best.pth.tar (torch, 909317 bytes, 128 tensors)

conv1.weight f4 [8, 3, 3, 3]
0	0xbe7a2e4a	-0.2443172
1	0x3d8b3828	0.0679782
2	0xbe0e1f1a	-0.13879052
3	0x3ed2e54e	0.4119057
4	0x3f02c66d	0.51084024
5	0x3dae4946	0.085100695
6	0x3d01d294	0.031694964
7	0x3d89a699	0.06721229
8	0x3de5be99	0.11217994
9	0xbec302df	-0.38088128
10	0xbe4c3348	-0.19941437
11	0xbe891b1c	-0.26778495
12	0x3e9cfd81	0.30662158
13	0x3eda50ad	0.42639676
14	0x3b054bd5	0.002033939
15	0xbd376017	-0.044769373
16	0xbdfac8a1	-0.12245298
17	0xbdb755b4	-0.089518934
18	0xbee9956c	-0.45621812
19	0xbe07dcb9	-0.13267793
20	0xbc019332	-0.007908629
21	0x3e18e28e	0.14930174
22	0x3f0713e4	0.52764726
23	0x3eb1489c	0.3462571
24	0x3d8d91ad	0.06912551
25	0x3e48505a	0.19561902
26	0x3e5ba2a8	0.21448767
27	0x3ea1327d	0.31483832
28	0x3e880309	0.26564816
29	0xbd44b135	-0.04802056
30	0x3f78d61c	0.97201705
31	0xbe28b8a6	-0.16476688
32	0xbde9d633	-0.114178084
33	0x3e57d569	0.21077503
34	0xbcc31965	-0.02381582
35	0xbe76d55c	-0.24104828
36	0xbf02ad54	-0.5104573
37	0xbe9f1262	-0.31068712
38	0xbddbdaae	-0.10735069
39	0xbe80611c	-0.2507409
40	0xbfab4df3	-1.3383163
41	0xbd8af930	-0.0678581
42	0xbea6deac	-0.3259176
43	0xbe58276f	-0.21108793
44	0x3ebe3acf	0.37154242
45	0x3e47e2ff	0.19520186
46	0x3ebc4319	0.3676994
47	0x3d6f3fd8	0.058410496
48	0x3f10ce6a	0.5656496
49	0x3c4aa988	0.012369521
50	0x3e28bcb7	0.16478239
51	0x3e05d5f7	0.13069902
52	0x3e0a877f	0.1352825
53	0x3dab0edc	0.083524436
54	0x3d48b005	0.04899599
55	0xbc8e2803	-0.017353063
56	0xbd693d89	-0.05694345
57	0xbe855156	-0.26038617
58	0xbfa2c249	-1.2715541
59	0xbe27a982	-0.16373256
60	0x3e4ffbb4	0.20310861
61	0x3fad41af	1.353567
62	0x3e7208b4	0.23636132
63	0x3d61dd6d	0.05514281
64	0xbd973d64	-0.07384756
65	0xbc57cfe3	-0.013172123
66	0xbe126d9d	-0.14299627
67	0xbfc20340	-1.5157242
68	0xbde74ad1	-0.11293567
69	0x3dd8e894	0.10591236
70	0x3fbefc94	1.4920831
71	0x3e3fdb64	0.18736035
72	0x3d6315b1	0.05544061
73	0xbd254548	-0.040349275
74	0x3ca7e226	0.020493578
75	0xbdaf1d9c	-0.085505694
76	0xbf7a6277	-0.97806495
77	0x3cfc46db	0.030795505
78	0x3da615d5	0.08109633
79	0x3f5b8492	0.8574916
80	0x3c6f8dcb	0.014621208
81	0xbf0e2908	-0.5553136
82	0x3f03c75f	0.5147609
83	0x3ea1389b	0.314885
84	0xbee7eb6e	-0.45296806
85	0x3f5d60c3	0.8647577
86	0x3f7f2c53	0.9967701
87	0xbf04fbb7	-0.51946586
88	0x3f169e1d	0.5883501
89	0x3f3d2a49	0.7389265
90	0x3d6e2fdc	0.05815111
91	0xbda775ba	-0.081767514
92	0xbe2224af	-0.15834306
93	0x3df3425b	0.11877891
94	0xbefaa041	-0.4895039
95	0xbed90ced	-0.42392674
96	0x3e3c19db	0.18369238
97	0xbe95e616	-0.29277104
98	0xbe1132ea	-0.14179578
99	0x3e2b02fd	0.16700359
100	0xbdf9695d	-0.121782996
101	0xbdc7df07	-0.09759336
102	0x3f0dd447	0.55402035
103	0xbf0d5cf3	-0.55219954
104	0xbf254737	-0.6456179
105	0x3f10d68d	0.5657738
106	0xbf01ca4b	-0.506993
107	0xbf21ce25	-0.63205177
108	0x3d45eb98	0.048320383
109	0x3cbaea06	0.02281667
110	0x3d882633	0.06647911
111	0xbeacd9fe	-0.33760065
112	0xbf13d682	-0.5774919
113	0xbe33b6c6	-0.17550191
114	0x3db2a6a5	0.08723191
115	0xbdccefd6	-0.100066826
116	0x3e3fe729	0.18740524
117	0x3e3c4097	0.18384014
118	0xbd1bdeaa	-0.038054146
119	0xbd2f43c0	-0.04278922
120	0xbdec32a1	-0.11533094
121	0xbf0c3ce4	-0.5478041
122	0xbe10b729	-0.1413237
123	0x3e0cef47	0.13763152
124	0xbe3c6020	-0.18396044
125	0x3e2eca5a	0.17069378
126	0x3dd97bcb	0.10619315
127	0x3d962a54	0.07332292
128	0x3e15ad39	0.1461686
129	0xbe4eb21d	-0.20185132
130	0xbeddb1a3	-0.4329959
131	0xbccfb04e	-0.025352623
132	0x3d739586	0.05946877
133	0xbd94af00	-0.07259941
134	0x3e9b12ce	0.30287784
135	0xbcdee0ae	-0.027206745
136	0x3d874478	0.06604856
137	0xbdfc4ba0	-0.12319112
138	0xbf73cb2e	-0.952319
139	0x3f8e5957	1.1121014
140	0x3d76e72b	0.060279053
141	0xbe60b7fe	-0.21945187
142	0x3e562ccb	0.20915525
143	0x3c6dcf56	0.014514765
144	0xbdb970d9	-0.09054727
145	0x3e18449c	0.14869922
146	0xbd3cd009	-0.046096835
147	0xbfc7487f	-1.5568999
148	0x3fbb537d	1.4634854
149	0x3e0a878a	0.13528267
150	0xbe6e1650	-0.23250699
151	0x3eb7113a	0.3575533
152	0xbe1596f0	-0.1460836
153	0xbd23f4b4	-0.04002829
154	0x3e7d20c8	0.24719536
155	0xbe8f7415	-0.2801825
156	0xbf96fe83	-1.1796421
157	0x3f93be1b	1.154239
158	0x3e08cb2c	0.13358754
159	0xbeaf709e	-0.34265608
160	0x3e9a2f8c	0.301144
161	0x3d43d5d5	0.047811348
162	0x3e08737e	0.13325307
163	0xbe830c54	-0.25595343
164	0xbd8a6268	-0.06757051
165	0xbe242085	-0.1602803
166	0xbefc5540	-0.4928379
167	0xbf066fb9	-0.52514225
168	0x3e7b204a	0.24524036
169	0xbefa7aab	-0.48921713
170	0xbeaad287	-0.33363745
171	0xbdcaf430	-0.09909856
172	0x3e75ea7b	0.24015228
173	0x3e95d267	0.29262087
174	0xbe43a4b2	-0.19105795
175	0x3edea2d5	0.43483606
176	0x3e86b1b5	0.26307455
177	0x3db593d5	0.08866087
178	0x3d8570c8	0.06515652
179	0x3de6721b	0.11252233
180	0xbe06b72a	-0.13155809
181	0x3e757ff7	0.23974596
182	0xbbe1361f	-0.006872907
183	0xbe7a2eba	-0.24431887
184	0x3f33a958	0.70180273
185	0x3e927841	0.2860737
186	0xbdf0ae4c	-0.117519945
187	0x3e652799	0.22378387
188	0x3d7c1a90	0.06154877
189	0x3e913f95	0.28368822
190	0x3d86211b	0.06549283
191	0x3cc1af16	0.023643058
192	0xbd7ecdc6	-0.06220796
193	0x3de9071c	0.11378309
194	0xbe98db1d	-0.2985467
195	0x3c67a001	0.014137269
196	0xbeab0940	-0.33405495
197	0xbe812fe1	-0.2523184
198	0xbf38b4a2	-0.72150624
199	0xbf048954	-0.51772046
200	0xbdc099f5	-0.09404365
201	0xbf0581f0	-0.52151394
202	0x3f86ccbd	1.0531231
203	0x3f0600fa	0.5234524
204	0x3daf11bd	0.08548305
205	0x3e9da262	0.3078795
206	0x3f86aa8e	1.0520799
207	0x3ef7a602	0.4836884
208	0x3e872aaa	0.26399738
209	0x3de915c6	0.11381106
210	0x3e0f69b3	0.14005165
211	0x3d8f5c2f	0.070000045
212	0xbf4fa2d9	-0.8110786
213	0x3e5e7cdc	0.21727318
214	0xbf54926c	-0.8303592
215	0xbee3f7fa	-0.4452513

bn1.weight f4 [8]
0	0x3efded27	0.49594995
1	0x3f03149e	0.51203334
2	0x3f4b7a7f	0.7948379
3	0x3eefd4a3	0.46841916
4	0x3efbc10d	0.49170724
5	0x3f480b76	0.7814249
6	0x3ea85473	0.3287693
7	0x3ebfd935	0.37470403

bn1.bias f4 [8]
0	0x3f6de331	0.9292479
1	0x3e9530de	0.29138845
2	0x3e78b7c6	0.24288854
3	0x3e31f490	0.1737845
4	0x3e201896	0.15634379
5	0x3e9dc351	0.30813077
6	0x3e798581	0.24367334
7	0x3ef427ec	0.47686708

bn1.running_mean f4 [8]
0	0xbef77368	-0.48330235
1	0x3dfa7426	0.12229185
2	0x3c30d905	0.010793929
3	0xbe5a8103	-0.21338277
4	0x3f0f8c0e	0.5607308
5	0xbdcfc638	-0.10145229
6	0x3d87e196	0.06634824
7	0xbd3dd862	-0.046348937

bn1.running_var f4 [8]
0	0x405fc2d0	3.4962654
1	0x3f8c3edf	1.0956687
2	0x409caa92	4.8958216
3	0x3ff4fb2c	1.9139152
4	0x4050125e	3.251121
5	0x40a9afe1	5.3027196
6	0x3f9b2f78	1.2123861
7	0x3ebee2ed	0.37282506

layer1.0.conv1.weight f4 [8, 8, 3, 3]
0	0x3dc58ccd	0.09645996
1	0xbe51764f	-0.20455287
2	0x3d348cfc	0.044079766
3	0x3e889199	0.26673582
4	0x3dea91ed	0.114536144
5	0x3df9ff7e	0.122069344
6	0x3c9ffa90	0.019528657
7	0xbd470870	-0.04859203
8	0x3dfab1a9	0.12240917
9	0xbd03848a	-0.03210882
10	0x3e679df9	0.22618856
11	0xbe4566db	-0.19277517
12	0xbeb8086f	-0.35943934
13	0x3cc51bdc	0.024061136
14	0x3d01bc18	0.03167352
15	0x3e1aa7d0	0.15103078
16	0x3e90a828	0.28253293
17	0xbdec3802	-0.1153412
18	0xbd953d50	-0.07287085
19	0x3d02af7d	0.03190564
20	0xbe528e1e	-0.20562026
21	0xbf238364	-0.6387236
22	0xbf3c6a02	-0.73599255
23	0xbe39e7c4	-0.18154818
24	0xbc59de0b	-0.013297568
25	0xbdad747f	-0.084694855
26	0x3d1f7e54	0.038938835
27	0xbce8ad4e	-0.02840295
28	0xbd8fb94b	-0.07017764
29	0xbe1488b3	-0.14505272
30	0x3d6254d3	0.055256676
31	0x3d4ff032	0.050766177
32	0xbdd29ef7	-0.102842264
33	0x3dda269f	0.10651898
34	0x3e86beda	0.26317483
35	0xbe330df7	-0.17485796
36	0x3e287fef	0.16455053
37	0x3e352211	0.17688777
38	0x3df0a624	0.11750439
39	0xbc72c7e2	-0.014818164
40	0xbde2866a	-0.11060794
41	0xbd82cdf1	-0.063869365
42	0xbcd43120	-0.02590233
43	0x3bb86307	0.0056270394
44	0xbdc1a6e2	-0.094556585
45	0xbc4c2fb2	-0.012462543
46	0x3d046fae	0.03233307
47	0xbd9c8dfd	-0.076442696
48	0x3d98c0d2	0.074586526
49	0xbe3ed206	-0.18634805
50	0xbf57133d	-0.8401373
51	0xbcea05cf	-0.028567223
52	0x3ebef21a	0.37294084
53	0x3d74de92	0.059782572
54	0x3e380d44	0.1797381
55	0x3d9163cc	0.07099113
56	0xbb29c2ac	-0.0025903387
57	0x3c474a84	0.012163762
58	0xbe1911df	-0.14948224
59	0xbe3cb896	-0.18429789
60	0xbe070c50	-0.1318829
61	0xbdde50b9	-0.108552404
62	0x3dfbd42b	0.12296327
63	0xbe0bce84	-0.13652998
64	0xbde28067	-0.11059647
65	0x3e22c211	0.15894343
66	0x3dc99be6	0.098441884
67	0xbcdc62a0	-0.026902497
68	0xbcfe8d2c	-0.031073175
69	0xbc8011c6	-0.015633475
70	0xbd15e532	-0.03659553
71	0x3db6dcf4	0.08928862
72	0x3d0344d9	0.03204808
73	0x3e099b10	0.13438058
74	0x3d89b557	0.06724041
75	0xbef8b4e2	-0.48575503
76	0xbecd2994	-0.40070784
77	0xbd7c5c9e	-0.061611764
78	0x3ea7b44c	0.32754743
79	0x3e4d325f	0.20038746
80	0x3eac8e1b	0.33702168
81	0xbe554250	-0.20826077
82	0x3e485833	0.19564895
83	0xbda047d9	-0.07826204
84	0x3dc10dc5	0.094264545
85	0x3e8dfb7d	0.27730933
86	0xbe51a036	-0.20471272
87	0xbd12d538	-0.035847872
88	0xbdf2f28b	-0.11862668
89	0xbe3a75f9	-0.18209065
90	0xbe404dd2	-0.18779686
91	0xbecb2502	-0.39676672
92	0x3b8ef247	0.004362378
93	0x3f134298	0.5752349
94	0x3ed51f49	0.4162543
95	0x3d31b705	0.04338743
96	0xbeaa22e0	-0.33229733
97	0xbe170b97	-0.14750515
98	0xbbc8b038	-0.0061245225
99	0xbc661c56	-0.014044842
100	0x3e619ad0	0.22031713
101	0xbd52f6f7	-0.051505055
102	0xbe2ed0ca	-0.17071834
103	0x3cc3fe0f	0.023924856
104	0xbde9d51f	-0.11417603
105	0xbd649da7	-0.05581441
106	0x3d9365d7	0.07197159
107	0xbb813355	-0.003942887
108	0x3dd2136e	0.10257612
109	0xbd9a1f07	-0.07525449
110	0x3bcd4a02	0.006264926
111	0x3d4d864c	0.050176904
112	0xbd7dcd58	-0.06196341
113	0xbc0712d2	-0.008244233
114	0x3e576f61	0.21038581
115	0xbd8ed5fd	-0.06974409
116	0x3d6c5eda	0.057707645
117	0x3d50c558	0.05096945
118	0x3ead2e93	0.33824596
119	0xbe299243	-0.165597
120	0xbdc06d55	-0.093958534
121	0x3da6f6dc	0.081525534
122	0xbe76625e	-0.24060962
123	0xbec8b35a	-0.39199334
124	0x3e9a9a5f	0.301959
125	0xbe53c929	-0.20682205
126	0xbc69e92c	-0.014276784
127	0x3e9c8241	0.30568126
128	0x3d9a07ec	0.07521042
129	0xbe6869d1	-0.22696616
130	0x3db86493	0.09003558
131	0xbe068a3d	-0.13138671
132	0xbe8663da	-0.26248056
133	0x3dc206f8	0.094739854
134	0xbddaa47f	-0.106759064
135	0x3da65e35	0.08123437
136	0xbdbcf042	-0.09225513
137	0xbdf49f61	-0.119444616
138	0xbd14f457	-0.036365833
139	0xbdfb59e6	-0.12273006
140	0x3e37eb23	0.17960791
141	0x3daf96b9	0.0857367
142	0xbdb0f199	-0.08639831
143	0x3d087b1a	0.033320524
144	0xbdfce642	-0.12348606
145	0xbe7ce3ad	-0.24696226
146	0x3d45abdc	0.0482596
147	0xbdcca4e4	-0.09992388
148	0xbe1bcec8	-0.152156
149	0x3e429ba1	0.1900468
150	0xbc75835e	-0.014984934
151	0x3d4644f4	0.048405603
152	0x3ec145af	0.37748477
153	0x3e55836f	0.20850919
154	0xbea31fa0	-0.31860065
155	0xbbc839e7	-0.006110418
156	0xbd6b27ee	-0.057411127
157	0xbf486713	-0.7828228
158	0xbea30e29	-0.3184674
159	0x3e7d7f67	0.24755631
160	0xbe5fbfad	-0.21850462
161	0x3e70e713	0.23525648
162	0x3d786691	0.06064469
163	0x3d3086b6	0.04309722
164	0xbd7d589b	-0.06185208
165	0xbd35ef58	-0.04441771
166	0x3c097e92	0.008391993
167	0x3c7d8a4e	0.015474869
168	0x3bbfbec0	0.0058515966
169	0x3da3428f	0.079716794
170	0xbe1d45de	-0.15358683
171	0x3d973f28	0.07385093
172	0xbe4ff7c5	-0.2030936
173	0xbd0260e7	-0.031830695
174	0xbd2b646c	-0.041843817
175	0xbeb84bab	-0.3599523
176	0xbd874ea5	-0.06606797
177	0x3cc928a0	0.024555504
178	0xbdbeb240	-0.09311342
179	0x3ec96cdc	0.39340866
180	0xbe22a447	-0.1588298
181	0xbd158c20	-0.036510587
182	0x3d84b66d	0.064801075
183	0xbe1f034f	-0.15528606
184	0x3d27ec40	0.04099679
185	0x3e2659b2	0.16245154
186	0xbd963dfb	-0.073360406
187	0x3bf90a48	0.0076001026
188	0x3daed1ee	0.08536135
189	0xbdee6762	-0.116408125
190	0xbdb1d3b8	-0.0868296
191	0x3d0238b1	0.031792346
192	0xbceefe00	-0.029173851
193	0xbda839c6	-0.082141444
194	0xbd090c1c	-0.033458814
195	0x3dedf8f2	0.11619748
196	0xbd61e7e3	-0.055152785
197	0xbdd3e8fe	-0.10347174
198	0x3d89b9a9	0.06724865
199	0x3da45913	0.08024802
200	0xbd96aaa0	-0.07356763
201	0x3db7f486	0.08982186
202	0x3c882712	0.016620193
203	0xbe2213c8	-0.15827858
204	0x3dc70faf	0.09719788
205	0xbd0a2797	-0.033729162
206	0xbe458ab9	-0.192912
207	0x3f16c527	0.5889458
208	0x3e9b345d	0.30313388
209	0xbdc9db06	-0.098562285
210	0x3e7130b0	0.23553729
211	0xbe0c61ed	-0.1370923
212	0xbf31de0a	-0.6947943
213	0xbdc25b25	-0.09490041
214	0xbf213e11	-0.6298533
215	0xbf08844b	-0.53326863
216	0xbd9abcbb	-0.07555529
217	0x3ea853fc	0.32876575
218	0xbdd36bea	-0.10323317
219	0xbd3e37a5	-0.046439786
220	0xbdcd9a2d	-0.10039172
221	0xbe782279	-0.242319
222	0x3dbd64be	0.09247731
223	0xbc9fa421	-0.019487442
224	0x3ded635b	0.11591216
225	0x3de0cc26	0.10976438
226	0xbea799f1	-0.32734635
227	0x3ed4ee3c	0.41588008
228	0x3d67e119	0.056611154
229	0x3e55d06f	0.20880292
230	0xbf1af7a3	-0.60534114
231	0x3c99a430	0.018755049
232	0xbd90c2a7	-0.07068377
233	0x3d4d92e0	0.0501889
234	0xbea1bffa	-0.3159178
235	0xbff521f0	-1.9150982
236	0xbe8ee9ff	-0.279129
237	0x3e56e609	0.20986189
238	0x3b0bbbf8	0.0021321755
239	0x3dfc8f7e	0.123320565
240	0x3d1ad613	0.037801813
241	0xbd700a90	-0.058603823
242	0x3d8e5335	0.06949464
243	0x3e044101	0.12915422
244	0x3dd75a24	0.1051524
245	0xbbe81cb4	-0.0070835
246	0xbcd3c272	-0.025849555
247	0x3d9793b9	0.07401223
248	0x3ab14bc0	0.0013526604
249	0xbd2ff62b	-0.042959373
250	0xbcb27fd1	-0.021789463
251	0xbda8d563	-0.08243825
252	0x3e605e2d	0.21910925
253	0xbe7d4cc3	-0.24736314
254	0x3e31df3c	0.17370313
255	0xbe7653d9	-0.24055423

layer1.0.bn1.weight f4 [8]
0	0x3f14d601	0.58139044
1	0x3ef741b9	0.4829233
2	0x3efb7ebb	0.49120125
3	0x3f6c1787	0.922234
4	0x3ed7fd08	0.42185235
5	0x3f4a46cf	0.79014295
6	0x3e9a67bd	0.3015727
7	0x3f8e6a19	1.1126128

layer1.0.bn1.bias f4 [8]
0	0x3e175fde	0.14782664
1	0xbdbe6038	-0.09295696
2	0xbdf0117e	-0.11722086
3	0x3e05b30b	0.1305658
4	0xbd6653d9	-0.056232307
5	0x3e8644a3	0.2622424
6	0x3e7bd75b	0.2459387
7	0xbfac72b7	-1.3472508

layer1.0.bn1.running_mean f4 [8]
0	0xbee65989	-0.44990185
1	0xbe10306f	-0.14080976
2	0xbf95b9b4	-1.1697297
3	0xbf52ecab	-0.82392377
4	0xbdd138fe	-0.102159485
5	0xbf195fa5	-0.59911567
6	0xbeb1466c	-0.3462404
7	0xbc731024	-0.014835391

layer1.0.bn1.running_var f4 [8]
0	0x3f7f757b	0.99788636
1	0x3f7f838f	0.9981012
2	0x3eeb2dea	0.45933467
3	0x3ff93442	1.9469073
4	0x3f1647f2	0.5870353
5	0x40170320	2.3595657
6	0x3e5b3b31	0.21409298
7	0x3f7a6c8e	0.9782189

layer1.0.conv2.weight f4 [8, 8, 3, 3]
0	0x3deae159	0.11468763
1	0xbe1aa59d	-0.15102239
2	0xbe94c12f	-0.29053637
3	0xbd35e5e2	-0.044408686
4	0x3e4514c6	0.19246206
5	0x3e17b43c	0.14814848
6	0xbc94832d	-0.018128956
7	0x3cc4a65c	0.024005108
8	0x3e70afa2	0.23504499
9	0xbe5e0895	-0.21682961
10	0xbe806cf9	-0.2508314
11	0xbe2e6ede	-0.1703448
12	0x3dfb6927	0.122759156
13	0xbd10beed	-0.03533833
14	0xbcbcf6d1	-0.02306691
15	0x3d1220fa	0.03567598
16	0xbccdc82c	-0.025119863
17	0xbdec1ec8	-0.115293086
18	0xbd4e74d1	-0.050404374
19	0xbe0bedd2	-0.1366494
20	0xbd21da45	-0.0395148
21	0x3d552c37	0.05204412
22	0xbd545aeb	-0.05184452
23	0xbbc195d0	-0.0059077516
24	0x3d59497b	0.053048592
25	0xbce846d7	-0.028354092
26	0xbc335d0d	-0.010947478
27	0xbe00caf8	-0.12577426
28	0x3cb3c999	0.021946715
29	0x3e180fd0	0.14849782
30	0xbe21715d	-0.15765901
31	0xbf05ac84	-0.5221636
32	0xbda32fb7	-0.07968085
33	0x3d2bedab	0.041974705
34	0xbe022416	-0.12709078
35	0x3e5cb3fc	0.21553034
36	0x3e857346	0.2606451
37	0x3d53b092	0.051682062
38	0xbc8bd814	-0.017070808
39	0xbd7582e1	-0.05993927
40	0xbcc43574	-0.02395127
41	0x3de55caa	0.11199315
42	0xbd351d40	-0.044217348
43	0xbe43129e	-0.1905007
44	0xbde2355a	-0.11045332
45	0xbccbb2aa	-0.024865467
46	0x3c9af052	0.018913422
47	0xbde372f2	-0.111059085
48	0x3d7c81a1	0.06164706
49	0xbcbae553	-0.022814428
50	0x3e94fa05	0.29097
51	0xbdaa7a08	-0.08324057
52	0x3cdfef8f	0.02733591
53	0x3de44319	0.1114561
54	0xbd83e0d7	-0.06439369
55	0xbdf8fbb2	-0.12157382
56	0xbc9381b2	-0.01800618
57	0xbd8baf22	-0.06820513
58	0x3d790332	0.060794063
59	0x3def1ee0	0.11675811
60	0x3ddc3c56	0.10753696
61	0x3afb0e76	0.001915409
62	0xbe2012ce	-0.15632173
63	0x3d1012fc	0.035174355
64	0xbea8f131	-0.32996514
65	0xbdde4c8c	-0.10854444
66	0x3da38de3	0.07986047
67	0xbeeda558	-0.4641521
68	0x3d61e1ee	0.055147104
69	0xbebebd00	-0.3725357
70	0xbf3adea9	-0.72996
71	0xbe45ded1	-0.19323279
72	0x3ec5b4cb	0.38614497
73	0xbba9de93	-0.0051840036
74	0x3d596bf1	0.053081457
75	0x3e1f9a47	0.15586196
76	0xbc99c417	-0.01877026
77	0xbbea3d20	-0.0071484
78	0xbe1c05ef	-0.15236638
79	0xbe9ac38d	-0.30227318
80	0xbdddf717	-0.10838144
81	0x3c0b07c7	0.008485741
82	0xbe1420f5	-0.14465697
83	0x3ddd2e7c	0.10799882
84	0xbdc11616	-0.09428041
85	0xbe842586	-0.25809878
86	0x3cf3f569	0.029780107
87	0xbdbcf441	-0.09226275
88	0x3d9007e6	0.070327565
89	0xbcace1a6	-0.021103691
90	0x3e61da01	0.22055818
91	0x3dca8b01	0.09889794
92	0x3c8771a3	0.016533678
93	0x3e3c8e0c	0.18413562
94	0x3e0ebef1	0.13940026
95	0x3dc6e16c	0.097109646
96	0xbccaa78f	-0.024738101
97	0x3df8dbbf	0.12151288
98	0x3dd9d962	0.106371656
99	0x3d6fa1d0	0.058503926
100	0x3ddbda98	0.10735053
101	0xbdbfdc44	-0.09368184
102	0x3e09cb50	0.13456464
103	0x3edef8a3	0.4354907
104	0xbe3e01da	-0.18555394
105	0x3cc62e9f	0.024192153
106	0x3d4afc94	0.049557284
107	0xbdd48471	-0.10376824
108	0xbe23a54b	-0.15981023
109	0xbd0f0228	-0.034914166
110	0x3d142d4f	0.036176022
111	0xbd0c1806	-0.034202598
112	0x3cc780e1	0.024353446
113	0x3d0ec1f1	0.034852926
114	0xbd665af7	-0.056239095
115	0x3dd50d72	0.10402955
116	0x3d12253c	0.03568004
117	0x3d74f278	0.05980155
118	0xbda64495	-0.0811855
119	0xbd72a161	-0.059235934
120	0x3f0955ed	0.5364674
121	0xbea478f1	-0.3212352
122	0x3c147b6d	0.00906263
123	0xbdc30c46	-0.09523825
124	0xbe3f2f63	-0.1867042
125	0xbb5fa8cb	-0.0034127708
126	0x3dced221	0.10098673
127	0xbd9cf139	-0.07663197
128	0xbafe3075	-0.0019393103
129	0x3e631434	0.22175676
130	0xbe1c058a	-0.15236488
131	0xbdf0284b	-0.11726435
132	0x3d6aebc9	0.05735377
133	0xbe0dc89c	-0.13846058
134	0xbe3a774a	-0.18209568
135	0x3dfb43bd	0.122687794
136	0x3e12a13d	0.1431932
137	0xbc50645b	-0.012719239
138	0x3bb8553b	0.0056253946
139	0x3e842bf7	0.25814793
140	0xbc876f38	-0.016532525
141	0xbe3c153b	-0.18367474
142	0x3ed59ddd	0.41722003
143	0xbe86f9fb	-0.26362595
144	0x3d56dde3	0.0524577
145	0xbe46faa6	-0.19431552
146	0x3d68799d	0.056756604
147	0x3f52f0b2	0.8239852
148	0xbe44d30b	-0.19221132
149	0xbefbd230	-0.49183798
150	0xbf0c650f	-0.54841703
151	0x3e4d7e57	0.20067726
152	0x3ecb4dc3	0.39707765
153	0xbd3a0c7e	-0.04542207
154	0x3d2bb2a6	0.04191842
155	0xbe548f63	-0.20757823
156	0xbcb8cb29	-0.022557812
157	0xbd6a01d9	-0.05713067
158	0xbf0d0500	-0.55085754
159	0x3d1539f9	0.03643224
160	0xbb65f7ab	-0.0035090249
161	0xbeb83611	-0.3597875
162	0xbc4ba0fc	-0.012428518
163	0x3b97490d	0.0046168626
164	0xbd14eb6e	-0.036357336
165	0x3e3d9468	0.18513644
166	0xbdc9448a	-0.09827526
167	0xbce7dc74	-0.028303362
168	0xbda5eeb2	-0.08102168
169	0x3d2a211f	0.041535493
170	0x3cbf6de1	0.023367824
171	0xbde785ab	-0.11304792
172	0x3e7976d8	0.24361742
173	0xbd193312	-0.03740222
174	0xbe3c7ce7	-0.18407021
175	0x3edb6bb5	0.4285561
176	0xbdb9416c	-0.09045681
177	0x3f61b327	0.8816399
178	0xbfa7deb4	-1.3114839
179	0x3e93de84	0.28880703
180	0x3c4af038	0.012386374
181	0xbd73d5fd	-0.059530247
182	0xbd66523c	-0.05623077
183	0x3e5bd623	0.21468405
184	0xbd89ae0a	-0.067226484
185	0x3da9d3a7	0.082923226
186	0xbeb3a562	-0.35087115
187	0x3df79699	0.12089271
188	0x3dca936d	0.098914005
189	0x3f97374a	1.1813748
190	0xbee56e23	-0.4481059
191	0xbe2ddf3f	-0.16979693
192	0xbf5489bc	-0.83022666
193	0x3d85a6d1	0.06525958
194	0x3d3d1a7f	0.046167847
195	0xbf21f337	-0.6326174
196	0x3f01be85	0.50681335
197	0x3dc33958	0.09532422
198	0xbe0ee568	-0.13954699
199	0x3d804e1c	0.06264898
200	0xbce39fed	-0.02778622
201	0x3ebb397d	0.36567298
202	0xbeb12170	-0.34595823
203	0x3de9c4c1	0.11414481
204	0xbeabdc00	-0.33566284
205	0x3ea3997e	0.31953043
206	0x3c771868	0.0150815025
207	0xbe6ae118	-0.22937429
208	0x3cdedc9a	0.0272048
209	0x3e2a07cd	0.16604538
210	0xbcbc3196	-0.022972863
211	0x3cf453d0	0.029825121
212	0xbd6612df	-0.05617034
213	0xbaa50e3b	-0.0012592742
214	0x3d408134	0.046998218
215	0xbdbe9036	-0.0930485
216	0x3dae886b	0.085221134
217	0x3d5b4943	0.053536665
218	0x3d8818e6	0.06645374
219	0xbcd6f18f	-0.026238231
220	0xbd7442b4	-0.059633926
221	0x3e672224	0.22571617
222	0x3d63c78a	0.055610217
223	0xbe3ed1ac	-0.18634671
224	0xbd9b12a4	-0.07571915
225	0xbd35dffc	-0.04440306
226	0x3d56ffc9	0.05249003
227	0x3e12a866	0.14322051
228	0x3d016db8	0.031598777
229	0x3ddb0c1b	0.10695668
230	0x3e938660	0.28813457
231	0xbd264e56	-0.04060205
232	0x3e03d02f	0.12872384
233	0x3e0e4520	0.13893557
234	0x3def79fa	0.11693187
235	0x3d99b84a	0.075058535
236	0xbd0569f1	-0.032571737
237	0xbd0bbea0	-0.03411734
238	0x3db9f6ca	0.090802744
239	0x3d8a28f8	0.067460954
240	0xbe879795	-0.26482835
241	0x3c5df69a	0.013547564
242	0xbe15e268	-0.14637148
243	0xbe2b2909	-0.16714872
244	0x3d7f98c9	0.062401567
245	0xbb86b3f8	-0.0041108094
246	0xbcb023af	-0.02150139
247	0xbe157857	-0.14596687
248	0xbe6ee116	-0.23328051
249	0x3de2d13d	0.11075065
250	0x3e797ca6	0.24363956
251	0xbe134254	-0.14380771
252	0x3e29a481	0.1656666
253	0xbe045f26	-0.12926921
254	0xbe2b5e1e	-0.16735122
255	0xbca443ee	-0.020051923

layer1.0.bn2.weight f4 [8]
0	0x3ee1e951	0.4412332
1	0x3f111b31	0.56682116
2	0x3fc2a184	1.5205541
3	0x3eb3f64a	0.3514884
4	0x3f44c6be	0.76865757
5	0x3f8794ca	1.0592282
6	0x3f228c9d	0.6349581
7	0x3eb8a790	0.3606534

layer1.0.bn2.bias f4 [8]
0	0x3e1e583f	0.1546335
1	0x3f17f39c	0.59356093
2	0xbf0136db	-0.5047433
3	0x3f25ffa2	0.6484319
4	0x3e63984f	0.2222607
5	0x3f11eeff	0.57005304
6	0x3ed26da3	0.4109927
7	0xbeaa91bb	-0.3331431

layer1.0.bn2.running_mean f4 [8]
0	0xbe9995a4	-0.2999698
1	0x3d9c0fd0	0.076202035
2	0xbe0ab1f2	-0.13544443
3	0xbe2e10b0	-0.16998553
4	0x3efa2812	0.48858696
5	0xbed312cd	-0.4122528
6	0xbdb266b6	-0.08710997
7	0x3db6550e	0.08902942

layer1.0.bn2.running_var f4 [8]
0	0x3e5bb960	0.21457434
1	0x3e333221	0.17499591
2	0x3f1c4295	0.61039096
3	0x3de8589c	0.11345026
4	0x3e7f1bb3	0.2491291
5	0x3ec3a714	0.38213408
6	0x3e517870	0.204561
7	0x3df166ed	0.1178721

layer2.0.conv1.weight f4 [16, 8, 3, 3]
0	0xbea3a148	-0.31958985
1	0xbe0f52e2	-0.13996461
2	0x3d02e20f	0.031953868
3	0xbe0aa73a	-0.13540354
4	0xbd814c95	-0.06313435
5	0x3d3a6227	0.04550376
6	0x3df49ae7	0.11943608
7	0x3ea08418	0.3135078
8	0x3eb73055	0.35779062
9	0x3d88544d	0.06656704
10	0x3d84b2f6	0.064794466
11	0xbdbe5d81	-0.09295178
12	0x3d98728f	0.07443725
13	0x3d93c638	0.072155416
14	0xbdab54da	-0.083657935
15	0x3d13177a	0.03591106
16	0xbc025777	-0.007955424
17	0x3d67481e	0.05646526
18	0x3df91d7d	0.121638276
19	0x3e8897aa	0.2667821
20	0x3e482bf8	0.19548023
21	0x3e601574	0.21883184
22	0x3eb6ca1c	0.35701072
23	0x3ebfb989	0.3744624
24	0x3df0b254	0.117527634
25	0x3e9dd7c8	0.3082869
26	0x3e99508e	0.2994427
27	0xbd75ad87	-0.05997994
28	0xbdb0d6c1	-0.08634711
29	0xbcc68c31	-0.02423677
30	0xbd7d4957	-0.06183752
31	0xbd817068	-0.06320268
32	0xbdab8885	-0.083756484
33	0x3dcf77f2	0.101303
34	0x3e466308	0.19373715
35	0x3e1fa8ab	0.15591685
36	0x3d2bf64e	0.04198294
37	0xbd86146f	-0.06546866
38	0xbd8bf058	-0.06832951
39	0x3e0c17fa	0.13681021
40	0x3e501333	0.20319824
41	0x3dbad941	0.09123469
42	0x3e1f70d9	0.15570392
43	0x3eac68bd	0.3367366
44	0x3e92799e	0.28608412
45	0xbdee9d0d	-0.11651049
46	0x3c70f01d	0.014705685
47	0x3e04349e	0.12910697
48	0xbcc39bd1	-0.02387801
49	0xbe45097b	-0.19241898
50	0xbd57078f	-0.052497443
51	0x3d5d8975	0.054086167
52	0x3d6138f7	0.054985967
53	0xbe090602	-0.13381198
54	0xbda01b82	-0.07817747
55	0xbde67caa	-0.112542465
56	0xbd49aee0	-0.04923904
57	0x3ddc8bac	0.10768828
58	0x3ce2bbc7	0.02767743
59	0xbdcd7fae	-0.100341186
60	0x3ea511b5	0.32240072
61	0x3e99da45	0.3004934
62	0x3d50e615	0.051000673
63	0xbdeef4df	-0.11667799
64	0xbc00a928	-0.00785283
65	0x3d254f0a	0.04035858
66	0x3c1e3e2d	0.009658379
67	0x3d44f84b	0.048088353
68	0x3d43adb9	0.047773097
69	0xbc95265c	-0.018206768
70	0x3d0c59c8	0.03426531
71	0x3d24060f	0.04004484
72	0x3eb64cdd	0.35605517
73	0x3e9fbdb5	0.31199422
74	0x3e8ff917	0.28119728
75	0x3e44a063	0.19201808
76	0x3ee039e7	0.43794176
77	0x3e83fdf4	0.25779688
78	0xbf264d0b	-0.6496131
79	0xbf34fc1b	-0.7069718
80	0xbf15a9a4	-0.58461976
81	0x3d044d58	0.032300323
82	0x3d2ebe30	0.042661846
83	0x3d1d6c3d	0.038433302
84	0xbdcedf63	-0.101012014
85	0xbe52d4bd	-0.20588966
86	0xbdd9898b	-0.10621937
87	0x3db99709	0.09062011
88	0x3e09bb5c	0.13450378
89	0x3cb462ed	0.022019828
90	0x3d37949e	0.044819467
91	0xbcd091fa	-0.025460232
92	0x3ad02972	0.0015881492
93	0xbd271fcf	-0.04080182
94	0xbe013c0c	-0.12620562
95	0xbd664bcf	-0.05622464
96	0x3da46206	0.08026509
97	0x3d3f3250	0.04667884
98	0x3c985e3a	0.018599618
99	0x3d90986a	0.07060321
100	0xbd741f7e	-0.059600346
101	0x3d282237	0.041048255
102	0x3dc386ad	0.09547172
103	0x3e4a31a5	0.197455
104	0x3ddf2320	0.108953714
105	0xbdbf9911	-0.09355367
106	0xbe347be5	-0.17625387
107	0xbe3ab046	-0.18231305
108	0x3cf8e188	0.03038098
109	0xbd066ade	-0.03281676
110	0xbd750371	-0.059817735
111	0x3d019832	0.031639285
112	0x3e014d92	0.12627247
113	0x3d242381	0.04007292
114	0xbdb5d281	-0.08878041
115	0xbde05266	-0.10953216
116	0xbe2825d2	-0.16420677
117	0xbe1c3384	-0.15254027
118	0xbe79964f	-0.24373744
119	0xbe12dcbc	-0.14342016
120	0x3e709b38	0.23496711
121	0x3f17cc96	0.5929655
122	0x3ee32197	0.44361565
123	0xbc8165f5	-0.015795687
124	0xbe99a790	-0.30010653
125	0xbe8194f6	-0.2530896
126	0xbcb91089	-0.022590892
127	0xbb95ad41	-0.0045677726
128	0x3e3cc9de	0.18436381
129	0x3e8a5f02	0.2702561
130	0x3e6c15fa	0.23055258
131	0x3e162af4	0.14664823
132	0xbe7f8063	-0.2495132
133	0xbea91258	-0.33021808
134	0xbe112a47	-0.14176284
135	0x3d0f00ed	0.034912992
136	0x3d03ff2d	0.032225776
137	0x3c576bba	0.013148243
138	0xbd3de812	-0.046363898
139	0x3d924fba	0.07144113
140	0x3c81cc5d	0.015844518
141	0xbb07bac7	-0.0020710693
142	0xbda7bc49	-0.081902094
143	0xbd7dd79c	-0.0619732
144	0xbda77661	-0.08176876
145	0xbb13824a	-0.0022508078
146	0xbd2dcd25	-0.04243197
147	0xbe5abd77	-0.21361338
148	0x3c7e4de3	0.015521499
149	0x3e427594	0.18990165
150	0x3e126a3f	0.14298342
151	0x3debcba4	0.11513451
152	0x3e54de7e	0.20787999
153	0x3db80c73	0.089867495
154	0xbda87383	-0.08225157
155	0x3bbcbb60	0.0057596415
156	0xbbf08f82	-0.007341326
157	0xbea1cc36	-0.31601113
158	0xbd9e8366	-0.07739906
159	0xbde10b1d	-0.10988448
160	0xbe650887	-0.22366534
161	0xbe3c1209	-0.18366255
162	0xbd37a7dd	-0.04483782
163	0xbd6367db	-0.055518966
164	0xbdf99c4a	-0.12188013
165	0x3d1f61ab	0.038911503
166	0xbc4d9ed2	-0.012550073
167	0xbdfe9f03	-0.12432673
168	0x3cf4033d	0.0297867
169	0x3ac01f77	0.0014657815
170	0xbd60e91c	-0.05490981
171	0xbd24b251	-0.04020912
172	0x3d2761af	0.040864643
173	0xbd1994a1	-0.03749526
174	0x3ceab995	0.028652946
175	0x3cf35f9d	0.029708678
176	0x3cce4629	0.02517994
177	0xbc73f964	-0.014891002
178	0xbd1ac70b	-0.03778748
179	0x3ce393cc	0.027780436
180	0xbdfc0568	-0.12305719
181	0x3e4f183a	0.20224085
182	0x3e8e3d81	0.277813
183	0xbe641461	-0.22273399
184	0xbd3c224d	-0.04593115
185	0x3eaaf743	0.3339177
186	0xbde47cd5	-0.11156622
187	0x3ce66814	0.0281258
188	0x3e06362a	0.131066
189	0x3c4db895	0.012556215
190	0x3e93a47e	0.28836435
191	0xbd54b9af	-0.051934894
192	0x3ea56dd8	0.32310367
193	0x3f156650	0.5835924
194	0x3e07f448	0.1327678
195	0x3e4d91ce	0.20075151
196	0x3e7c64e1	0.24647857
197	0x3d7cfcbc	0.061764464
198	0x3af21021	0.0018467942
199	0x3daaf8a9	0.083482094
200	0x3d8a0c72	0.06740655
201	0xbc82fcd3	-0.015989697
202	0x3e4fe1d6	0.20300993
203	0x3e004caf	0.12529252
204	0x3b32ca5b	0.0027281258
205	0x3db1451a	0.08655758
206	0x3e3f1481	0.18660165
207	0xbe27caf0	-0.16386008
208	0x3d9ade67	0.07561951
209	0xbbc444f6	-0.005989666
210	0xbe23d974	-0.1600092
211	0x3e1eb6ff	0.15499495
212	0x3aec493f	0.00180272
213	0xbdcbbbc4	-0.09947923
214	0x3d8935d6	0.066997215
215	0xbe0b419e	-0.1359925
216	0x3c61e997	0.013788602
217	0xbd1c1f28	-0.03811565
218	0x3d0420a3	0.032257687
219	0x3cb797f1	0.022411318
220	0xbdf19ebf	-0.117978565
221	0xbd05dfc3	-0.0326841
222	0x3ca6e8b4	0.020374633
223	0xbe36a78e	-0.17837355
224	0x3db7b622	0.08970286
225	0xbe00ba3f	-0.12571047
226	0xbe176ce4	-0.14787632
227	0xbd58c944	-0.052926317
228	0xbe2b287e	-0.16714665
229	0xbb55056f	-0.003250446
230	0x3dcb78ce	0.09935151
231	0xbe2cf1bb	-0.16889088
232	0x3dd3ac87	0.10335641
233	0x3df1a7bf	0.11799573
234	0x3d11e4c6	0.035618566
235	0x3d7904c1	0.06079555
236	0x3cd43f63	0.025909131
237	0xbd5fbc1b	-0.05462275
238	0x3ccf09d7	0.025273247
239	0x3d8eb5f3	0.06968298
240	0xbd4ca4e1	-0.04996193
241	0x3cabf4ca	0.020990748
242	0x3d9b0db9	0.07570977
243	0x3f10677e	0.56407917
244	0x3eb88ff6	0.36047333
245	0xbe81fed3	-0.25389728
246	0x3f2e1fca	0.68017256
247	0x3e0bf399	0.13667144
248	0xbf04c828	-0.51867914
249	0xbc963b05	-0.01833869
250	0xbe94f125	-0.2909023
251	0xbf1c9966	-0.6117157
252	0xbd7d32de	-0.06181609
253	0xbd6f1356	-0.05836805
254	0xbdb2dc3c	-0.087334126
255	0xbd845bc7	-0.06462818

layer2.0.bn1.weight f4 [16]
0	0x3ec0c925	0.3765346
1	0x3f0eebaf	0.55828375
2	0x3ee58c4f	0.4483361
3	0x3ee06ee6	0.4383461
4	0x3f0ca8f9	0.5494533
5	0x3f2c3edf	0.67283434
6	0x3eae1d94	0.3400694
7	0x3f058407	0.5215458
8	0x3eacf48a	0.33780318
9	0x3f7b0c05	0.98065215
10	0x3f25e5f1	0.6480399
11	0x3f15d10e	0.5852212
12	0x3f84f090	1.0385914
13	0x3ef66380	0.48122787
14	0x3f171595	0.59017307
15	0x3e8ecfd9	0.2789295

layer2.0.bn1.bias f4 [16]
0	0x3e81d4df	0.2535772
1	0xbcad68c3	-0.021168118
2	0x3e2a5172	0.16632631
3	0xba528ffb	-0.0008032319
4	0xbc95c869	-0.01828404
5	0xbe228d40	-0.15874195
6	0x3e1262b2	0.14295462
7	0x3e4c8835	0.19973834
8	0x3f016bed	0.50555307
9	0xbeffb339	-0.49941424
10	0xbe372c7c	-0.17888063
11	0xbd855cef	-0.06511866
12	0xbf8f1277	-1.117751
13	0x3e368c09	0.17826857
14	0xbd9caad6	-0.07649772
15	0x3ecb23c4	0.39675725

layer2.0.bn1.running_mean f4 [16]
0	0x400f661f	2.240608
1	0xbdbe33c2	-0.09287216
2	0x4009440e	2.1447787
3	0xbf96d089	-1.178239
4	0xbf26ac31	-0.65106493
5	0xbe62f95f	-0.2216544
6	0xbff9bcd3	-1.951075
7	0x3c4d008d	0.012512338
8	0xbf0a656c	-0.5406101
9	0xbfbfe58d	-1.4991928
10	0xbf9e1fc2	-1.2353442
11	0xbf248eb0	-0.64280224
12	0xbd2dbcda	-0.04241643
13	0xc00f064e	-2.2347598
14	0xbeffd175	-0.4996449
15	0xc01e794a	-2.476153

layer2.0.bn1.running_var f4 [16]
0	0x4013fed7	2.3124292
1	0x4028b431	2.635998
2	0x3fe6a648	1.8019495
3	0x3f4edab8	0.8080249
4	0x3fdd9836	1.7312076
5	0x401fed1e	2.4988475
6	0x3f2ae2cb	0.6675231
7	0x402a445e	2.6604228
8	0x3f5d90a0	0.86548805
9	0x404310d5	3.0479023
10	0x3fcfb822	1.6228068
11	0x4005d888	2.091341
12	0x3fd26ee2	1.6440089
13	0x402bba7b	2.6832569
14	0x401cea1c	2.451789
15	0x3f49f815	0.7889417

layer2.0.conv2.weight f4 [16, 16, 3, 3]
0	0xbe2ddf53	-0.16979723
1	0x3dad9eaa	0.084775284
2	0x3d503679	0.0508332
3	0x3dc37047	0.095428996
4	0x3ed19c73	0.40939674
5	0xbe447182	-0.19183925
6	0x3e413350	0.1886723
7	0xbc5502fe	-0.013001202
8	0xbdbfe7d2	-0.09370388
9	0xbd6e2d3c	-0.058148608
10	0x3d2a72d9	0.041613434
11	0xbd22ccf1	-0.03974623
12	0xbe30970c	-0.1724512
13	0xbd2e5b29	-0.042567406
14	0x3df1040b	0.11768349
15	0xbb4a9e2c	-0.0030917032
16	0xbd8d9f8c	-0.06915197
17	0x3d62449d	0.055241216
18	0xbe5d263a	-0.21596614
19	0x3de9981a	0.11405964
20	0xbd914c90	-0.07094681
21	0xbd1ae492	-0.037815638
22	0x3e9b13c2	0.30288512
23	0x3e9e374f	0.30901572
24	0x3d7cbe72	0.06170506
25	0xbe1e687c	-0.15469545
26	0xbea432da	-0.32070047
27	0x3d8e4871	0.06947411
28	0xbd782e0b	-0.060590785
29	0x3cff3df2	0.031157468
30	0xbd51e09e	-0.051239602
31	0x3c48c2b2	0.01225345
32	0x3bfb3095	0.0076657035
33	0xbd75c28a	-0.05999998
34	0xbdf07238	-0.117405355
35	0x3b97f0d9	0.0046368656
36	0x3df35d61	0.11883045
37	0x3e108ccf	0.14116214
38	0xbe176e69	-0.14788212
39	0x3d7d56de	0.06185042
40	0xbd49c769	-0.049262438
41	0xbcdb9537	-0.02680455
42	0x3d1ae7d1	0.037818734
43	0x3e22fee9	0.15917553
44	0x3cabc375	0.020967225
45	0xbd22122f	-0.039568122
46	0xbd0030ad	-0.03129642
47	0x3d46aabe	0.048502676
48	0x3ae8804d	0.0017738432
49	0xbcb7f167	-0.022453977
50	0xbdb0d2d6	-0.08633964
51	0xbdf97e6c	-0.12182316
52	0xbdab8e5b	-0.083767615
53	0x3dbebdd3	0.0931355
54	0x3d3c9e56	0.04604944
55	0xbcc44c7d	-0.023962254
56	0x3dcf2f99	0.101165004
57	0x3ba42583	0.0050093546
58	0x3c454078	0.012039296
59	0x3e15b116	0.14618334
60	0xbe0d3b12	-0.13792065
61	0xbdc28794	-0.09498516
62	0x3da5589e	0.08073543
63	0x3e88ba41	0.267046
64	0xbe1f3dc3	-0.15550904
65	0xbe8a9e7e	-0.27074045
66	0xbe8a7483	-0.27042016
67	0xbde259f7	-0.11052316
68	0x3df5b056	0.11996524
69	0xbdfdc5b1	-0.12391222
70	0x3d8fd3ff	0.07022857
71	0x3e7d71b2	0.24750403
72	0x3e07f48f	0.13276885
73	0xbc8806d6	-0.016604822
74	0xbdaebc3a	-0.08531995
75	0x3df97220	0.12179971
76	0xbe3e0e55	-0.18560155
77	0x3d9f073b	0.07765051
78	0xbdc96d6a	-0.09835322
79	0xbdd78a96	-0.1052448
80	0x3c317070	0.01083003
81	0x3e024768	0.12722552
82	0xbe2569ba	-0.16153613
83	0xbe335c70	-0.17515731
84	0xbe51a5f4	-0.20473462
85	0xbdaf8064	-0.085694104
86	0x3b686041	0.0035457762
87	0x3d8b3317	0.06796854
88	0xbd0e38fa	-0.034722306
89	0xbce0dd8e	-0.027449396
90	0xbc14dea6	-0.009086287
91	0xbd54bbd9	-0.051936958
92	0xbdab2b35	-0.083578505
93	0x3c9a57b8	0.018840656
94	0x3e9a1c46	0.30099696
95	0x3d99cdc4	0.0750995
96	0xbc681648	-0.0141654685
97	0x3d374c1f	0.04475033
98	0x3e7f9ae8	0.24961436
99	0x3b2f8650	0.0026782937
100	0xbe1d0b1c	-0.15336269
101	0xbe258dba	-0.16167346
102	0xbd65da29	-0.056116257
103	0xbe6f9e4e	-0.23400232
104	0xbe87ab53	-0.26497898
105	0xbc407f31	-0.011749075
106	0xbe8e6728	-0.27813077
107	0xbe334e44	-0.17510325
108	0x3d1c7bfb	0.038204174
109	0xbd8f5f81	-0.07000638
110	0x3e4e3c8c	0.20140284
111	0xbde41715	-0.11137215
112	0xbe89411a	-0.2680748
113	0xbe0c0559	-0.13673915
114	0xbd15acf1	-0.036541883
115	0xbd8456ec	-0.064618915
116	0x3dd8ad50	0.10579932
117	0x3ea85a95	0.3288161
118	0x3e04ea37	0.12979971
119	0xbeb6c237	-0.3569505
120	0x3ea1deda	0.31615335
121	0x3db31df8	0.087459505
122	0xbecef932	-0.40424496
123	0xbe53cc4a	-0.20683399
124	0xbe5d6ec0	-0.21624279
125	0x3df34aa0	0.11879468
126	0xbe57148c	-0.21003932
127	0x3d00eeb9	0.031477664
128	0xbe34f54c	-0.17671698
129	0xbe2b42e4	-0.16724735
130	0xbdf5e2e4	-0.120061666
131	0xbe451b43	-0.19248681
132	0xbd0b2b62	-0.03397692
133	0xbec3734f	-0.3817391
134	0xbd6bbe1c	-0.05755435
135	0xbe0f6d97	-0.14006649
136	0xbdb9fda5	-0.09081582
137	0xbdffde34	-0.12493554
138	0x3db71084	0.08938697
139	0x3c3dc050	0.011581495
140	0xbe27f892	-0.16403416
141	0xbc0e5efa	-0.008689636
142	0x3ca5ec83	0.02025438
143	0x3db51fca	0.08843954
144	0xbd60671e	-0.05478584
145	0xbd241fde	-0.040069453
146	0xbc1f86a5	-0.009736692
147	0xbd4f9775	-0.05068155
148	0xbd639411	-0.05556113
149	0x3bbf777f	0.0058431025
150	0x3d141f55	0.036162693
151	0xbc3008af	-0.010744258
152	0x3cdc83cd	0.026918316
153	0xbb071c59	-0.0020616262
154	0x3ca66e39	0.02031623
155	0x3c483120	0.012218744
156	0x3da2663b	0.07929655
157	0xbc0ab64e	-0.008466316
158	0xbbd7778b	-0.00657553
159	0x3cbda792	0.023151193
160	0xbd27859b	-0.0408989
161	0xbca1850e	-0.019716766
162	0xbcaa93c8	-0.02082242
163	0xbe11b4c3	-0.14229111
164	0xbd922de2	-0.07137658
165	0x3d47528a	0.0486627
166	0xbdf17721	-0.117903
167	0xbd90fa69	-0.07079012
168	0x3daebbc4	0.08531907
169	0x3de7da77	0.11320966
170	0xbb43b642	-0.0029863273
171	0x3d504a0a	0.05085186
172	0x38a23474	7.734532e-05
173	0x3c2cc98a	0.0105460975
174	0x3b39d8b0	0.0028357916
175	0x3e1c2c04	0.15251166
176	0x3c7de0c8	0.015495487
177	0xbb74850a	-0.0037310743
178	0x3e256ff5	0.1615599
179	0x3d1f75a0	0.038930535
180	0xbd78800b	-0.060668986
181	0x3d20692d	0.039162803
182	0xbdb0697f	-0.08613872
183	0xbdb76ab6	-0.089559
184	0xbe04811c	-0.12939876
185	0xbd4a1c35	-0.049343307
186	0xbd9717c4	-0.0737758
187	0xbdb093f6	-0.08621971
188	0x3c0c1fad	0.008552474
189	0x3c1683d0	0.0091867
190	0xbc70cd6e	-0.014697416
191	0x3c905703	0.017619615
192	0x3b6a3ba8	0.0035741124
193	0xbcbbf7d0	-0.022945315
194	0x3be4693e	0.0069705537
195	0xbceb7f16	-0.028747123
196	0xbddc41e0	-0.10754752
197	0xbd6249b6	-0.055246077
198	0x3db61299	0.08890266
199	0x3e3a0e94	0.18169624
200	0x3cbba0c5	0.02290381
201	0xbdd3f53a	-0.10349508
202	0x3de499dd	0.111621596
203	0xbca09b6f	-0.019605367
204	0xbcec9145	-0.028877864
205	0x3cdce474	0.026964404
206	0x3da5c478	0.08094114
207	0x3acbf70f	0.00155613
208	0x3ccafdc8	0.024779215
209	0x3d2bd549	0.04195145
210	0xbc461643	-0.012090269
211	0x3c5e2f0a	0.01356102
212	0xbd73d397	-0.05952796
213	0x3c800179	0.015625702
214	0x3de772f4	0.113012224
215	0x3ddbc4a2	0.10730864
216	0xbe01a240	-0.1265955
217	0xbd4844c4	-0.048893705
218	0x3dd82dab	0.105555855
219	0xbcbec23e	-0.023285981
220	0xbd8f6d92	-0.07003321
221	0x3d1a8a88	0.03772977
222	0x3d8b0da2	0.0678971
223	0x3e0db017	0.13836704
224	0x3e0253b9	0.1272725
225	0x3db3449d	0.08753321
226	0x3d67b72b	0.056571167
227	0x3d36dc03	0.044643413
228	0xbcd31b56	-0.02576987
229	0xbd04d5f8	-0.03243062
230	0xbdc02192	-0.09381403
231	0xbd0b77fe	-0.03404998
232	0xbdffe70d	-0.12495241
233	0xbe073c35	-0.13206561
234	0xbd723160	-0.05912912
235	0x3baca652	0.0052688504
236	0x3d54061f	0.05176365
237	0x3ce3f285	0.027825603
238	0xbd97167e	-0.07377337
239	0x3d82236f	0.06354415
240	0xbc64507a	-0.013935203
241	0xbd79bb7c	-0.060969815
242	0x3b4b1636	0.003098858
243	0xbc897870	-0.016781062
244	0x3c963126	0.018333983
245	0x3d061e48	0.032743722
246	0xbc1a764f	-0.009427621
247	0xbd43bea5	-0.047789235
248	0xbcf38aed	-0.02972933
249	0x3d3f3dde	0.04668986
250	0x3d0d9d2f	0.03457373
251	0x3d90c614	0.070690304
252	0xbd329125	-0.04359545
253	0xbc433dea	-0.011916617
254	0xbe007ed6	-0.12548384
255	0xbda9dc1f	-0.08293938

layer2.0.bn2.weight f4 [16]
0	0x3f426d86	0.7594837
1	0x3f029586	0.51009405
2	0x3f87b2ca	1.0601437
3	0x3eb17639	0.3466051
4	0x3ee63066	0.449588
5	0x3f0ae8aa	0.5426127
6	0x3f023bb0	0.50872326
7	0x3f53492e	0.8253354
8	0x3f05d03f	0.52270883
9	0x3f273170	0.6530981
10	0x3f398dd9	0.7248207
11	0x3f2218aa	0.63318884
12	0x3f62e6c2	0.8863336
13	0x3f28fea4	0.6601355
14	0x3ef1ae67	0.4720337
15	0x3ef47c4b	0.47751078

layer2.0.bn2.bias f4 [16]
0	0xbdc22071	-0.09478844
1	0xbe543e3c	-0.20726866
2	0xbd7e662f	-0.06210917
3	0x3e925f91	0.28588536
4	0x3e9aecf7	0.30258915
5	0x3e9a7da3	0.30173978
6	0x3ef54922	0.47907358
7	0x3daaa080	0.08331394
8	0x3e81ef84	0.25378048
9	0x3e9df48f	0.30850646
10	0x3b219a13	0.0024658486
11	0x3dac8589	0.08423907
12	0xbdd90e25	-0.10598401
13	0x3e40feb6	0.18847165
14	0x3d87370d	0.06602297
15	0x3eb48a7d	0.35261908

layer2.0.bn2.running_mean f4 [16]
0	0xbf1e40a5	-0.6181739
1	0xbe80ce98	-0.2515762
2	0xbe8a8944	-0.2705785
3	0x3d8db020	0.06918359
4	0xbf410195	-0.7539304
5	0x3e5b78cf	0.21432804
6	0xbef7fd84	-0.48435605
7	0x3e440e4a	0.19146076
8	0x3ede8205	0.43458572
9	0xbe0d62c7	-0.13807212
10	0x3d7ca0c5	0.06167676
11	0xbed9ead5	-0.42561975
12	0xbee2b090	-0.44275331
13	0x3f3acc74	0.7296822
14	0xbf0f8e00	-0.5607605
15	0xbf9d816a	-1.2305119

layer2.0.bn2.running_var f4 [16]
0	0x3ebd911c	0.37024772
1	0x3df8e202	0.121524826
2	0x3ed83f50	0.42235804
3	0x3e23cfd6	0.15997252
4	0x3ea84fb9	0.32873324
5	0x3ed51779	0.4161947
6	0x3ebb8b62	0.36629778
7	0x3ed9262e	0.4241194
8	0x3eb2c837	0.34918377
9	0x3eeebb1e	0.46627134
10	0x3ea1d397	0.31606743
11	0x3e770b76	0.24125466
12	0x3e8b5452	0.2721277
13	0x3ee91817	0.45526192
14	0x3e7db8b4	0.2477749
15	0x3e8c5395	0.27407518

layer2.0.shortcut.0.weight f4 [16, 8, 1, 1]
0	0xbd864887	-0.06556802
1	0xbd0a2e14	-0.03373535
2	0x3da19766	0.07890205
3	0xbcb1798b	-0.021664402
4	0xbedcc9b5	-0.4312264
5	0x3ea8c1a3	0.32960233
6	0xbdf1b219	-0.118015476
7	0x3d9a5b97	0.075370006
8	0xbccb14ce	-0.024790194
9	0x3e1611cd	0.14655228
10	0xbca51fe4	-0.020156808
11	0xbf277e6b	-0.65427274
12	0xbdbaf5f4	-0.09128943
13	0xbd056d41	-0.032574896
14	0x3ed33477	0.41250965
15	0x3de3bc0c	0.111198515
16	0xbe1c60cb	-0.15271299
17	0xbd151be9	-0.03640357
18	0xbe7e1f8a	-0.24816719
19	0xbdecf5aa	-0.11570294
20	0x3db4fb5a	0.08837004
21	0x3da4e38e	0.08051215
22	0xbdc9c80e	-0.098526105
23	0x3e89c717	0.26909706
24	0x3e32896c	0.17435235
25	0xbda78255	-0.08179156
26	0x3c57a96c	0.013162952
27	0xbe5b2a90	-0.21402955
28	0xbe8eb152	-0.2786966
29	0x3b2a049c	0.0025942689
30	0x3dd15e47	0.1022306
31	0x3f177a69	0.5917116
32	0xbdb4d534	-0.08829728
33	0x3e6c4950	0.23074841
34	0x3b97fca7	0.004638273
35	0x3e9310e8	0.28723836
36	0xbe53ba79	-0.20676602
37	0x3e06565d	0.13118882
38	0x3e1bd3fc	0.15217584
39	0x3f32ae53	0.6979725
40	0xbef03f38	-0.46923232
41	0xbd229dbc	-0.03970121
42	0xbc4b68f7	-0.012415162
43	0xbdec1200	-0.11526871
44	0x3e0bc69e	0.13649985
45	0x3cbd827c	0.023133509
46	0xbd3e6daf	-0.04649132
47	0x3f06439d	0.5244692
48	0x3f0ad9f0	0.54238796
49	0x3e3d3305	0.18476494
50	0x3e118d22	0.14213994
51	0x3cb349f5	0.021885851
52	0x3e32e7c0	0.17471218
53	0x3dabe41d	0.083931185
54	0x3e7f4032	0.24926832
55	0x3cc8dc75	0.024519185
56	0x3f195570	0.5989599
57	0x3dd11b75	0.10210315
58	0xbd87bbdf	-0.066276304
59	0x3ce55dcc	0.027998827
60	0xbd48c081	-0.04901171
61	0xbcc27fda	-0.023742605
62	0x3dfd5130	0.12369001
63	0x3d3364c4	0.04379727
64	0x3e58887e	0.21145818
65	0xbe5c73d4	-0.2152856
66	0xbdc5865b	-0.09644767
67	0x3eb04265	0.34425655
68	0x3ea6da69	0.3258851
69	0xbe67d0f4	-0.22638303
70	0xbd4f4448	-0.050602227
71	0x3d0f9b4d	0.035060216
72	0xbe991de5	-0.2990562
73	0xbbede4d5	-0.007259945
74	0xbe0ab4e3	-0.13545565
75	0xbdddf80a	-0.10838325
76	0xb9fe3d73	-0.00048492439
77	0xbe2ee398	-0.17079008
78	0xbe3da8e7	-0.18521462
79	0xbe9be2d1	-0.30446485
80	0xbf182ee7	-0.5944657
81	0xbcba1e61	-0.022719564
82	0xbd29ccb7	-0.041454997
83	0xbd58ae08	-0.052900344
84	0xbd238fc2	-0.03993202
85	0xbd46fcab	-0.048580807
86	0x3d937c14	0.072014004
87	0xbea38ee2	-0.31944948
88	0x3e37d710	0.17953134
89	0x3ec3456a	0.38138896
90	0x3d856f00	0.06515312
91	0xbb9ca87f	-0.0047808285
92	0x3d8f72f3	0.07004347
93	0x3e8ea46a	0.27859813
94	0xbdc0983c	-0.094040364
95	0xbe8a985f	-0.27069375
96	0xba96c824	-0.0011503738
97	0x3e2300a8	0.15918219
98	0xbd5b590c	-0.05355172
99	0xbe4e14d3	-0.20125131
100	0x3ea118a2	0.31464106
101	0x3d42e0ec	0.047577783
102	0x3d005f08	0.03134063
103	0xbdd16dcd	-0.10226021
104	0x3ed3a3df	0.4133596
105	0xbe22c1a5	-0.15894182
106	0x3ca75b96	0.020429414
107	0x3e588e18	0.21147954
108	0xbdf1fbc3	-0.11815598
109	0xbdec54fa	-0.115396455
110	0x3e85af95	0.2611052
111	0x3e03fe3f	0.12889956
112	0x3d503f9a	0.050841905
113	0xbefa1607	-0.4884493
114	0x3d7c2dd0	0.061567128
115	0x3efbe3ed	0.4919733
116	0xbbe40e77	-0.006959732
117	0x3bb0b996	0.0053932173
118	0xbebdf740	-0.371027
119	0x3e6afa4e	0.22947046
120	0x3f17d679	0.59311634
121	0xbe24a64b	-0.1607906
122	0xbd763057	-0.060104694
123	0x3dcb5e65	0.09930114
124	0xbda8fcaa	-0.08251317
125	0xbe9d0917	-0.30670998
126	0x3dbaeac3	0.091268085
127	0xbe95c3b8	-0.29250884

layer2.0.shortcut.1.weight f4 [16]
0	0x3e8aa9af	0.27082583
1	0x3f53e747	0.82774776
2	0x3e275503	0.16341023
3	0x3eb0215a	0.34400445
4	0x3e9f7cc5	0.3114988
5	0x3e9fcddf	0.31211755
6	0x3e85dc78	0.26144767
7	0x3effab19	0.49935225
8	0x3e5626da	0.20913258
9	0x3e417ca4	0.18895203
10	0x3edcfdc9	0.43162373
11	0x3e67294c	0.22574347
12	0x3e0d2049	0.13781847
13	0x3e5ac031	0.21362378
14	0x3ece235b	0.4026135
15	0x3ec51c94	0.38498366

layer2.0.shortcut.1.bias f4 [16]
0	0xbdc22071	-0.09478844
1	0xbe543e3c	-0.20726866
2	0xbd7e662f	-0.06210917
3	0x3e925f91	0.28588536
4	0x3e9aecf7	0.30258915
5	0x3e9a7da3	0.30173978
6	0x3ef54922	0.47907358
7	0x3daaa080	0.08331394
8	0x3e81ef84	0.25378048
9	0x3e9df48f	0.30850646
10	0x3b219a13	0.0024658486
11	0x3dac8589	0.08423907
12	0xbdd90e25	-0.10598401
13	0x3e40feb6	0.18847165
14	0x3d87370d	0.06602297
15	0x3eb48a7d	0.35261908

layer2.0.shortcut.1.running_mean f4 [16]
0	0xbd8b082c	-0.06788668
1	0xbe6bd236	-0.23029408
2	0xbe8fbe55	-0.280749
3	0xbca4aea3	-0.020102805
4	0x3f3016db	0.68784875
5	0xbef506e3	-0.47856817
6	0x3fa450b7	1.2837132
7	0x3f54a9f2	0.83071816
8	0x3e644627	0.22292386
9	0xbf6a3874	-0.9149239
10	0xbf5ec584	-0.87020135
11	0x3f5215da	0.8206459
12	0x3e509d1b	0.20372431
13	0x3f0b6d64	0.5446379
14	0xbe33675c	-0.17519897
15	0x3e3da995	0.18521722

layer2.0.shortcut.1.running_var f4 [16]
0	0x3e1521cf	0.14563678
1	0x3e74a9a8	0.23892844
2	0x3dc7968b	0.09745511
3	0x3e30ba46	0.17258558
4	0x3e400e52	0.18755463
5	0x3e3b8754	0.18313342
6	0x3e440927	0.19144116
7	0x3e460099	0.19336165
8	0x3e2c0fc7	0.16802894
9	0x3e0e4216	0.13892397
10	0x3e775abd	0.24155708
11	0x3de82a57	0.11336201
12	0x3d7509a6	0.059823655
13	0x3e48dda8	0.19615805
14	0x3e7f1de5	0.24913748
15	0x3e8ef699	0.27922514

layer3.0.conv1.weight f4 [32, 16, 3, 3]
0	0x3d6bf0eb	0.057602804
1	0x3d40462e	0.04694193
2	0x3d5677c8	0.052360326
3	0x3d61d3d2	0.05513365
4	0x3cd74b8c	0.02628114
5	0x3cb39958	0.021923706
6	0x3cd9b912	0.026577506
7	0x3ceb622b	0.028733334
8	0x3d2dd694	0.042440966
9	0x3d856693	0.06513705
10	0x3d35f6d8	0.04442486
11	0x3d77ffd9	0.06054673
12	0x3d9ebf37	0.07751315
13	0x3dcf9f29	0.10137779
14	0x3d91661f	0.07099556
15	0x3d957edf	0.07299589
16	0x3dae9429	0.08524353
17	0xbc5cba25	-0.013472115
18	0xbd517f2a	-0.051146664
19	0xbd6cb44b	-0.05778913
20	0xbd3f0128	-0.046631962
21	0xbcb67713	-0.022273576
22	0xbd53503a	-0.051590182
23	0xbcd6cd9c	-0.026221089
24	0x3ca8b125	0.020592282
25	0xbc1d24ba	-0.009591276
26	0x3d2e0f20	0.042494893
27	0xbae624d8	-0.0017558588
28	0xbb284893	-0.0025678023
29	0x3d15d4a1	0.03657973
30	0xbd2193df	-0.03944766
31	0x3c9f3242	0.019433144
32	0xbc8da16f	-0.017288892
33	0xbd6af194	-0.057359293
34	0xbc6a1a1a	-0.01428845
35	0xbd855c69	-0.065117665
36	0xbdb29aed	-0.08720956
37	0xbe1d7604	-0.1537705
38	0xbe232a67	-0.15934144
39	0xbdb89458	-0.09012669
40	0xbe39ddc8	-0.18151009
41	0xbe56c8cf	-0.2097504
42	0x3be675e5	0.007033097
43	0xbe21d16b	-0.15802543
44	0xbe2b6bdc	-0.16740364
45	0xbd121636	-0.035665713
46	0xbc83d886	-0.016094457
47	0x3d0d58b2	0.034508415
48	0x3d5eeae9	0.054423247
49	0x3d2e22fc	0.042513832
50	0x3c8d480c	0.017246269
51	0x3da62b72	0.08113755
52	0x3d1739e7	0.036920454
53	0xbd34c696	-0.0441347
54	0x3dc8cd56	0.0980479
55	0x3e138c10	0.14408898
56	0x3d9bdc2d	0.076103546
57	0x3e0bdb69	0.13657917
58	0x3e75e9db	0.2401499
59	0x3e595f8e	0.21227857
60	0xbbe69e6f	-0.0070379297
61	0x3d36cc4f	0.044628438
62	0x3d5c7a11	0.05382735
63	0x3d82f662	0.0639465
64	0xbcb94d58	-0.022619888
65	0x3ca0716d	0.019585336
66	0x3c7d8625	0.015473877
67	0xbd0fe4da	-0.03513036
68	0x3d42470f	0.047431048
69	0xbcb956bc	-0.022624366
70	0xbc4c1766	-0.0124567505
71	0x3bec3a13	0.0072090714
72	0xbd6a664c	-0.057226464
73	0xbde49e73	-0.11163034
74	0x3cd5ee87	0.026114715
75	0xbdcf1a2f	-0.10112416
76	0xbe119eb6	-0.142207
77	0xbd691497	-0.0569044
78	0xbe27f8c4	-0.1640349
79	0xbe4f98a7	-0.20273076
80	0xbd36724f	-0.044542607
81	0x3d6a851b	0.057255846
82	0x3ceacfd0	0.028663546
83	0xbc760224	-0.015015159
84	0x3dc6e878	0.09712309
85	0x3e399c4c	0.18126029
86	0x3dd3a1d2	0.10333599
87	0x3d26cf23	0.040724885
88	0x3e0a1723	0.13485388
89	0x3c21157e	0.009831784
90	0x3d205b8e	0.039149813
91	0x3d320afc	0.043467507
92	0x3d1b1d2f	0.03786963
93	0x3cccbbe5	0.024991939
94	0x3d8b0b63	0.06789281
95	0x3e15b541	0.14619924
96	0xbbbada3f	-0.0057022865
97	0x3db18bc1	0.08669234
98	0x3ddd5375	0.10806934
99	0x3a469dd7	0.00075766206
100	0xbe0b09d9	-0.13577975
101	0xbdcd99e4	-0.10039118
102	0xbda9dce0	-0.08294082
103	0xbe4aab6e	-0.19791958
104	0xbe29fd5c	-0.16600555
105	0xbc8dea6a	-0.017323691
106	0xbdd4e43e	-0.10395096
107	0xbe0175a4	-0.12642533
108	0x3de9dbba	0.11418863
109	0x3e610d07	0.21977626
110	0x3dbbbae5	0.09166507
111	0x3e86233c	0.26198757
112	0x3e83d85b	0.25751004
113	0x3dd1fd38	0.10253376
114	0x3ddfc23b	0.109257184
115	0x3e27e6ae	0.16396591
116	0x3db2e649	0.0873533
117	0xbd470614	-0.04858978
118	0xbc938bc7	-0.018010987
119	0xbd277d49	-0.040890966
120	0xbd336e71	-0.043806497
121	0x3d8b3fb6	0.06799261
122	0x3d191c97	0.03738078
123	0xbcf94c4a	-0.030431885
124	0xbc1139cd	-0.008863878
125	0x3c5799c1	0.013159216
126	0xbe05b0d4	-0.13055736
127	0xbe2baf7d	-0.16766162
128	0xbd315e5c	-0.04330288
129	0xbe44aa3c	-0.19205564
130	0xbe746ec2	-0.23870376
131	0xbe172bb2	-0.14762762
132	0xbe22266b	-0.15834968
133	0xbe8c1197	-0.2735717
134	0xbe05b802	-0.13058475
135	0xbd99298f	-0.0747863
136	0xbd0b3eeb	-0.03399555
137	0xbc95aabb	-0.018269887
138	0xbdaf63f1	-0.08563984
139	0xbdde72d3	-0.10861745
140	0x3c650b6a	0.013979772
141	0xbd812bb6	-0.06307165
142	0x3c9b9c5b	0.018995455
143	0x3db85fb1	0.09002627
144	0xbdfc4aa9	-0.12318928
145	0xbdacd306	-0.08438687
146	0xbcd5808d	-0.026062274
147	0xbcc3b31f	-0.023889123
148	0xbda0d270	-0.07852638
149	0xbd528a0b	-0.05140118
150	0x3d99a0b9	0.075013585
151	0x3c910a13	0.017705
152	0x3a817193	0.0009875767
153	0x3d69562f	0.056966957
154	0x3afed1a2	0.0019441138
155	0xbce3ad69	-0.02779265
156	0xbd6cdfea	-0.05783073
157	0xbdaa2b33	-0.08309021
158	0xbdb76d98	-0.0895645
159	0xbdb12ca3	-0.08651092
160	0xbe23749c	-0.15962452
161	0xbdadfdce	-0.08495675
162	0xbe09a5fb	-0.13442223
163	0xbe81b430	-0.25332785
164	0xbe20860d	-0.15676136
165	0xbe6380e0	-0.2221713
166	0xbec1b0c5	-0.37830177
167	0xbe483102	-0.19549945
168	0xbdd0f80b	-0.102035604
169	0xbe895ab4	-0.26827013
170	0xbde1bac8	-0.11021954
171	0xb998df3a	-0.00029158016
172	0xbd0ffd76	-0.03515383
173	0x3cb6521f	0.022255955
174	0xbde732fa	-0.1128902
175	0xbdc4bf76	-0.09606831
176	0x3d45122b	0.04811303
177	0xbdcdafba	-0.10043283
178	0xbdbfd355	-0.0936648
179	0x3cd1b406	0.025598537
180	0x3cc60001	0.024169924
181	0x3b689b5f	0.0035493
182	0x3c41ba8f	0.011824264
183	0xbd3da294	-0.046297625
184	0x3cd1c079	0.025604473
185	0x3a6095ce	0.00085672445
186	0xbd700bb3	-0.058604907
187	0xbc486ea9	-0.012233415
188	0x3d9c20aa	0.07623418
189	0x3d0f4fa1	0.03498805
190	0x3bd9b9d9	0.006644469
191	0xbdc944ae	-0.09827553
192	0x3da50847	0.080582194
193	0xbca1a8fb	-0.019733896
194	0xbe2cc42e	-0.16871712
195	0x3dfbaf40	0.12289286
196	0xbd08200a	-0.03323368
197	0xbe601737	-0.21883856
198	0x3d534109	0.051575694
199	0x3d8a05bb	0.06739374
200	0x3d24f44b	0.04027204
201	0x3d92242e	0.07135807
202	0x3ac0d3fa	0.0014711611
203	0xbd476178	-0.048676938
204	0x3b5750d0	0.0032854564
205	0xbe1bd974	-0.1521967
206	0xbe55165c	-0.2080931
207	0x3c8acf9b	0.016944697
208	0xbdf99036	-0.12185709
209	0xbd871cb7	-0.06597274
210	0x3c65c237	0.014023355
211	0xbe00cffc	-0.1257934
212	0xbe077e68	-0.13231814
213	0xbc8cd2c7	-0.01719035
214	0xbe6bb417	-0.23017918
215	0xbe565556	-0.2093099
216	0xbe29ace5	-0.1656986
217	0xbe007610	-0.12545037
218	0xbdb4cbf6	-0.08827965
219	0xbe1ab901	-0.15109636
220	0xbe0dc771	-0.13845612
221	0xbdae4d29	-0.08510811
222	0x3d851d0b	0.0649968
223	0xbd61ee0c	-0.05515866
224	0xbc34a4d4	-0.011025626
225	0x3d931e97	0.07183569
226	0x3d8ba7aa	0.06819089
227	0xbc60b6cc	-0.013715457
228	0x3d958781	0.07301236
229	0x3dc68e76	0.09695141
230	0x3c7a61fc	0.01528215
231	0x3d0379a1	0.032098416
232	0x3c85aeee	0.016318765
233	0xbd252a2b	-0.040323418
234	0xbcda1b06	-0.026624214
235	0xbdbdbebe	-0.09264897
236	0xbd868a0c	-0.06569299
237	0xbdd25d89	-0.10271747
238	0xbd85ec26	-0.06539182
239	0x3b23ebec	0.0025012447
240	0xbd31b7cd	-0.043388177
241	0x3d342c26	0.043987416
242	0x3db5cacf	0.08876573
243	0xbb8ce025	-0.004299181
244	0x3d198b69	0.037486468
245	0xbcce8342	-0.025209073
246	0xbdada6b6	-0.08479063
247	0xbbc5acdf	-0.0060325707
248	0xbd3e72d9	-0.046496246
249	0x3ced1ea1	0.028945269
250	0x3d9a2f91	0.07528604
251	0xbca385e1	-0.0199613
252	0x3d109ce2	0.035305865
253	0x3d66e023	0.056366097
254	0xbd358e06	-0.044324897
255	0x3d99b18d	0.07504568
