meta_results/meta_seed-2_metalr-0.0001_T-2_400-epochs_lite_meta_cifar100-ResNet10_scheckpoint.pth.tar (torch, 735511 bytes, 104 tensors)

conv1.weight f4 [8, 3, 3, 3]
00000000: b779 363d e6b0 87be 8532 4f3e 2004 8ebd
00000010: d1e5 17bf d3cc 313e 940d 18bd dea5 643d
00000020: b975 a33e 2aac 003c 2697 32be 1f03 ea3e
00000030: afd7 ebbc beba 36bf eabb b03e 59b6 19be
00000040: 9d2d 63be 8630 ac3e a290 503d 7f85 11be
00000050: 9157 753e ceee 123d 3ca0 f6be 22b4 763e
00000060: 8dd6 8c3d 111c eebd 1646 b33e 9dcf 42be
00000070: e864 95be 5e1f febd 6062 98be 9812 19bf
00000080: a533 d5be 4edb bbbe 7fd4 0ebf a49d cfbe
00000090: c9ed 183e d841 4f3e 5e6b 733e af6d ce3e
000000a0: aa3c fe3e 9044 943e 8664 953e 9790 023f
000000b0: c6d7 bb3e d7c4 af39 e0b3 03bd 64d8 813d
000000c0: 258d de3d c316 503d af1e 1bbd ebad 493d
000000d0: d99b b3bd d748 913c c69d 31be 44f1 20ba
000000e0: 624f 1dbb bba1 50be b7b9 993e dfc3 9f3e
000000f0: a4cc 4fbe b41c 553e 4cff 813e 2b47 0a3d
00000100: a8de f03d 9ac3 9f3c 61e6 ae3e fef7 193f
00000110: 385a ae3e 10cf 633e 2b99 063f cf31 a53e
00000120: 82b8 7dbc 4562 1ebe dd6c 2d3d 3e68 7ebe
00000130: 2d3b 7ebf 4d10 31bf 9ab3 c7bd f215 47bf
00000140: e645 0abf 5103 d9bd 1e1c 443d 7184 77bc
00000150: f53e 2e3e 0e52 c53f 8ca8 363e b659 f9bd
00000160: fcbe abbf 42ff 74be dd52 d7bd 7dde 95bd
00000170: a2fe 7bbd f96b 803e 13dd f03f 787a 223e
00000180: 7b2a 3fbe 39e5 e5bf 63de f0bd 7550 7ebd
00000190: a136 57bd 3d1b aabd 1809 573e 7d42 a43f
000001a0: fc90 c13c 0737 ccbd 468a 98bf d082 90bc
000001b0: c496 07be cb9f 00be ecfc d2be 77ec 0d3e
000001c0: 67db 313f 9e19 2b3f ea9c ffba 753a 293f
000001d0: 8650 263f ca4f b23c e5ca 953e 8757 75bd
000001e0: 923a 3ebe 274c 5cbf f417 a1be c004 95be
000001f0: 9f5a 2fbf 8bde e8be b65f 1abe eaaa 683e
00000200: 118d 5e3e 66bc 863e f829 47be 99dd 95bd
00000210: d405 983e 5038 993d aaac 32be 03f4 473d
00000220: 676b aabb a7b2 20bd 4847 74bf 48e5 7a3f
00000230: ca27 db3d 1de2 92bd f7c4 67bc 31e9 2f3d
00000240: b02a d7bd 04ed 913d 730d d8bc a63c dabf
00000250: 08e4 e03f 5ca1 03bc 6bbf 69bd 506f cb3d
00000260: 7100 8ebd f927 863d 8979 b5bd 318f 76bd
00000270: 7f63 a1bf b71d a43f db91 533c 23ae 91bd
00000280: d9bc ec3d a689 b7bc 17f7 d6bc eaf1 03bd
00000290: d5e7 25bc a920 ca3c 35ce 383f 4225 af3d
000002a0: f39e aebd f7d6 103e d399 89bc c040 d8bc
000002b0: 5a8b 96be 1a19 663d ed02 49bd ec48 833f
000002c0: 618f b1bd 17f1 c4bd 7527 e13c 6203 81bd
000002d0: 073c 4e3d 6423 afbc d6cf 0d3e 24e2 2c3d
000002e0: 1000 633f 1b12 483d 88ba 95bc 7ba8 4d3e
000002f0: 3374 703d e1cd 95be a2a8 86be fc4d 3b3d
00000300: b595 0dbd ae78 66be 1cb6 af3d 4591 bdbd
00000310: e84d 96be 0c6e 51bd 7196 3fbe 8b47 37be
00000320: 09c6 393d e9a0 933b 2d23 77be dea1 8c3b
00000330: 1b6e 623a b944 89be e972 b3bc 66c8 98be
00000340: 053b 8dbe 00cc f43c d92e 16be 3920 9abe
00000350: f7cd 843c d09c f1bd fda2 95be bee4 eb3c
0.04454967 -0.2650215 0.20234115 -0.069343805 -0.59335047 0.1736329 -0.037122324 0.055822246
0.31925753 0.007853547 -0.17440471 0.45705506 -0.02878937 -0.71378696 0.34518367 -0.15010966
-0.22185369 0.3363077 0.050919183 -0.14211081 0.23959185 0.035872273 -0.48169124 0.24092153
0.0687686 -0.11626447 0.3501441 -0.1902451 -0.29178548 -0.124083266 -0.29762554 -0.59793997
-0.41640964 -0.36690754 -0.55792993 -0.40549958 0.14934458 0.20239961 0.23771426 0.40318057
0.49655658 0.2895856 0.29178256 0.51001877 0.3668806 0.00033525258 -0.032153964 0.06340101
0.10866765 0.050802957 -0.03787106 0.049238127 -0.0876996 0.017734928 -0.17345342 -0.0006139467
-0.0024003615 -0.20374195 0.30024502 0.31204125 -0.20292908 0.2081173 0.2539009 0.033759277
0.11761218 0.01950245 0.3416014 0.6014403 0.34053206 0.22246957 0.52577466 0.32264563
-0.015485885 -0.15467174 0.04234015 -0.24844453 -0.99309045 -0.691655 -0.09751053 -0.7776786
-0.54012907 -0.10596336 0.047878377 -0.01510726 0.17016204 1.5415666 0.17837733 -0.12175314
-1.3417659 -0.23925498 -0.10513852 -0.07317827 -0.061522134 0.25082377 1.8817466 0.1586703
-0.18668549 -1.7960578 -0.11761167 -0.06208845 -0.052542333 -0.083059765 0.20999563 1.2832791
0.023628704 -0.09971433 -1.1917198 -0.017640501 -0.13241106 -0.12560956 -0.4120859 0.13859735
0.69475406 0.66835964 -0.001950172 0.66104823 0.6496662 0.021766562 0.2925636 -0.059897926
-0.1857703 -0.860537 -0.31463587 -0.29105186 -0.6849765 -0.45482287 -0.15075573 0.22721449
0.217335 0.26315612 -0.19449604 -0.07317657 0.29691947 0.07481444 -0.17448679 0.048816692
-0.0052007916 -0.039232876 -0.95421267 0.98006105 0.107009485 -0.07172034 -0.014146081 0.042946998
-0.10506189 0.07125285 -0.0263736 -1.7049758 1.756959 -0.008034077 -0.057067316 0.099333405
-0.06933678 0.06550593 -0.088610716 -0.06019515 -1.2608489 1.2821568 0.012913193 -0.07113292
0.11559457 -0.022404503 -0.026240868 -0.03221313 -0.010126074 0.024673777 0.72189647 0.08552028
-0.08526411 0.14144503 -0.016796982 -0.026398063 -0.29403192 0.056176282 -0.049075056 1.0256629
-0.086699255 -0.09616297 0.027484635 -0.06299473 0.050350215 -0.02137918 0.13848814 0.042207852
0.8867197 0.04884539 -0.018277422 0.20083801 0.058704566 -0.29258636 -0.26300532 0.04572867
-0.0345666 -0.22506973 0.085796565 -0.092562236 -0.29356313 -0.05113034 -0.18709733 -0.17898385
0.045354877 0.004505266 -0.24134512 0.004291757 0.0008637623 -0.26810244 -0.02190538 -0.29840392
-0.2758409 0.029882431 -0.14666308 -0.3010271 0.016211493 -0.11797488 -0.29225913 0.028795596

bn1.weight f4 [8]
00000000: e886 573e 5204 853e b71b 633e 2518 163f
00000010: 3c15 7c3e c721 163f e64f 963e ddcf d93f
0.21047556 0.2597986 0.22178541 0.5863059 0.24617475 0.5864529 0.29357833 1.701656

bn1.bias f4 [8]
00000000: 9052 b13e fc61 a43d 6167 e23e 8149 063e
00000010: 156a b43d 5e04 1e3e a4c2 c93e 519e 09c0
0.34633303 0.080265015 0.44219497 0.13113977 0.08809296 0.15431353 0.39406312 -2.1502879

bn1.running_mean f4 [8]
00000000: 4031 9c3d 3658 283e 3051 72be 6aa7 6fbd
00000010: 4027 1fbd 0c13 0ebd 3cc4 63bf 6433 903f
0.07626581 0.164399 -0.23663783 -0.058509268 -0.03885579 -0.034686133 -0.88971305 1.1265683

bn1.running_var f4 [8]
00000000: 32e9 d93f f22a dc3f 8ffd fd3f 58d5 cb40
00000010: 20e7 653f 7e95 8640 76a5 0941 49c7 3441
1.702429 1.7200606 1.9843005 6.369793 0.89805794 4.2057486 8.602896 11.298654

layer1.0.conv1.weight f4 [8, 8, 3, 3]
00000000: c92b a93d 9303 cc3c 7575 8dbd 5623 813e
00000010: 7b3c 2ebd 4876 4dbe b549 0b3e 0fad 6abe
00000020: f1e9 abbc 5c19 f0bc 9c76 babc c0ae fbba
00000030: 27fc 9ebc 5d48 7cbd e3a5 a3bd 831a 193c
00000040: 4c5d a73d 7c29 0b3d 9c9a ee3d 6cd4 16bd
00000050: e31e 87bd 038c 82bd b4b1 06be bbdd 90bd
00000060: cc2f 5e3d 7dae a0bb c09e 283e fbbe 27bd
00000070: 555c ad3c 5a83 2ebe c3d3 783d 7b40 24be
00000080: cad9 6cbd bc9e 42bd d4d1 2a3e 4319 f5bd
00000090: 8e7e 933d 91dd a93d affb eaba 8108 f1bd
000000a0: fb2c a0bb cdbc 54be c5d5 4a3d 67a0 06bd
000000b0: 114f a53d bfe7 edbc 896d 21be fc1b 81bd
000000c0: f37c 853c 1ee8 8dbe a45f d13e 6a63 3abc
000000d0: 1e9b 79be cd6a 703b 4ffc b1bd 81ae 4c3e
000000e0: ab7f 3b3e d504 82be 1408 93be 853d 0f3e
000000f0: 39b7 c4ba d33c 953e 543c dbbd b89e 4c3e
00000100: 0f45 d33e 022d 0ebe 4676 ef3d a01c a13e
00000110: 608a 82be c0c0 003e 3039 983e 982a 94be
00000120: 58fc 2dbd d76a 003d 1374 2cbe 1628 383e
00000130: 8941 acbc 9d13 e53d fcce b93d 84f7 12bd
00000140: 6970 173e 5115 a3b9 d4ea 533d b20b a03c
00000150: 455c f5be 88fd a6bd abba ab3e d730 cdbe
00000160: c09f d23d 1071 153f 410a 8bbd 3222 f8be
00000170: 4e73 fcbe b8ea 853e 2e59 563e b7c4 17be
00000180: 795a db3d 02ac 1e3f 609a 463e b7a9 47bd
00000190: 5dfd 0fbd 7cc9 99bb e01d a8bd 1487 f0bd
000001a0: 2759 3a3e 0067 c33c 6ebf a0bc 1d2c b93d
000001b0: 27e0 1d3e ef25 5c3e 134e 4cbe c88e df3e
000001c0: a79e 0c3e 27fc e7be 4571 ea3e 0410 70bd
000001d0: 581d f1be aadc dd3b 6160 f9bc 7e2b a73d
000001e0: 765f 10bd d7b2 e9bd 87f0 1ebd bc87 b2bc
000001f0: 377f a63d 3be0 60be 4455 293e e1e0 833d
00000200: 543c 5dbd 23b0 93ba f4e4 70bd 38c2 03bc
00000210: a716 27bd 7508 34bd 06d6 98bc 3d82 a33d
00000220: e8e6 de3c dd4a 613e e4fb e5bd 73af debd
00000230: 0c23 113e 5dfc 73be 4eb5 77be 11ae 8bbd
00000240: 9e5e 1cbe c8ce a73d 21f2 a2bd a05f 8cbe
00000250: 1562 91bd 6f5a 62be bf09 b8be 1c90 db3e
00000260: 3ec9 143d 4a29 abbc e7e5 eabc b2af ac3c
00000270: c277 4fbd c8e8 493c 29f8 a43d eee6 ebbc
00000280: 170d 7f3d 1fe7 6b3d 9dde a8bc b2a7 69bd
00000290: 734c 283d 5d6d 91bd b007 dfbd 05a7 5b3d
000002a0: 0f7f c6ba 8098 13bd fb9c 0d3e 1ce5 c5bd
000002b0: 7273 8d3e e6e1 983d 8005 08bd c608 a4be
000002c0: a7b8 29be 3db9 d7bc 581b febc a085 903d
000002d0: 73f2 203d ce75 0bbe 98b6 183e 0d6d 6dbd
000002e0: 63d1 70bd 0adb cbbc 2c0a e33d 7118 31be
000002f0: 6397 0b3e ad1a 5bbd abd9 1b3e ddc2 24be
00000300: 75c9 c53c c736 343e e028 a0bd 1a51 823d
00000310: 0ae2 bb3d 5009 cbbc 43e1 13bd daec c6bd
00000320: 4235 09bd da8d 4e3e efb0 13bd b239 613e
00000330: 77e4 d2bc 6a1d babe 0d02 7fbc f9b6 57be
00000340: b045 0abd 523e ebbb 469e b4be c7a6 a9bc
00000350: 411a 6c3e af35 633e a4b7 743f 2fda 843f
00000360: 92e2 c33d c4ae 90be 5482 c4bc 985b 29bd
00000370: 2ef9 ebbc 54ca 5c3d 2952 7d3c 0200 efbd
00000380: a41c 1dbd 3a32 30be d4ce 62be 06e9 12be
00000390: 2437 b9bc 0ff9 cebc fa97 873b fc35 99bd
000003a0: 580f 0f3d 0707 173e 1936 c93c 5fed 6bb9
000003b0: f0a8 f1bd 4850 4d3d 66e2 2a3d 166f 383d
000003c0: 0b7a e9bc b7cb 883c 2dd7 293d b91c 5dbd
000003d0: cc3e 2f3d c3f7 abbd e3ac 893d a4f4 a3be
000003e0: 7f97 a0bd 4bed c93d 8020 9dbe dd84 e6bd
000003f0: 271b 9f3d 1c8d 4ebd bd7f 06be 2218 b3bc
0.082603045 0.024904048 -0.06907169 0.25222272 -0.042538147 -0.20064652 0.13602336 -0.22917579
-0.020985575 -0.029308967 -0.022761635 -0.001920186 -0.019407345 -0.06159245 -0.07990625 0.0093447
0.08172092 0.03397511 0.11650583 -0.036823675 -0.06597688 -0.06374361 -0.13153726 -0.07073542
0.0542448 -0.004903613 0.16466808 -0.040953618 0.021162191 -0.17042294 0.060748827 -0.16040222
-0.057824887 -0.047514662 0.16681606 -0.11967709 0.07201873 0.082942136 -0.0017927791 -0.117692
-0.0048881746 -0.20775147 0.049520273 -0.032867815 0.08071721 -0.02904117 -0.1576444 -0.06304166
0.016294932 -0.27716154 0.4089328 -0.011376241 -0.24375579 0.0036684752 -0.08690702 0.19988443
0.1831042 -0.25394312 -0.287171 0.13988312 -0.0015008218 0.29147968 -0.10704866 0.19982421
0.41263625 -0.13884357 0.11692481 0.31467152 -0.25496197 0.12573528 0.2973113 -0.28938746
-0.042476982 0.03135189 -0.16841154 0.17984042 -0.021027343 0.111853816 0.09072682 -0.03588058
0.14788975 -0.00031105665 0.05173762 0.019536827 -0.4792196 -0.08153826 0.33540854 -0.40076324
0.10284376 0.58375645 -0.06789065 -0.4846359 -0.4930672 0.2615564 0.20932457 -0.14821135
0.10710616 0.61981213 0.19394827 -0.048745837 -0.035153735 -0.0046932083 -0.08208823 -0.11744514
0.18198071 0.023852825 -0.01962253 0.09041617 0.15417539 0.21498846 -0.19951658 0.4366362
0.13732396 -0.45309564 0.45789543 -0.058609024 -0.470927 0.00677069 -0.030441465 0.08162592
-0.03524729 -0.11411064 -0.038803604 -0.021793239 0.08129733 -0.21960537 0.16536433 0.064393766
-0.05401261 -0.0011267703 -0.058812097 -0.008041911 -0.040793087 -0.043953378 -0.018656742 0.07983825
0.027209714 0.22001214 -0.11229685 -0.10873308 0.14173526 -0.23826738 -0.24190256 -0.0682031
-0.15270469 0.08193737 -0.07956339 -0.27416706 -0.07098786 -0.2210481 -0.35944936 0.42883384
0.036324732 -0.020893712 -0.02867408 0.021079872 -0.05065132 0.012323566 0.08055145 -0.02879664
0.062268343 0.05759346 -0.020613963 -0.057044692 0.041088533 -0.071009375 -0.10890138 0.05362608
-0.0015144068 -0.036034107 0.13829415 -0.0966284 0.2762714 0.07464962 -0.03320837 -0.32037944
-0.16574346 -0.026333446 -0.031018898 0.07056737 0.039293718 -0.13619158 0.14913404 -0.057965327
-0.058793437 -0.02488472 0.110859245 -0.1729448 0.13631968 -0.053492237 0.15219752 -0.1608996
0.024143914 0.17599021 -0.07820296 0.06363125 0.09173973 -0.024784714 -0.0361035 -0.097131446
-0.033498056 0.201713 -0.03605741 0.21994665 -0.025743706 -0.36350566 -0.015564454 -0.21065892
-0.033757865 -0.00717906 -0.35277003 -0.020709408 0.2305689 0.22188447 0.95592713 1.0379084
0.09564699 -0.28258336 -0.023987927 -0.041347116 -0.028805342 0.053903893 0.015461483 -0.11669923
-0.038357392 -0.1720666 -0.22149211 -0.14346704 -0.0226093 -0.025265245 0.00413799 -0.07481
0.034926742 0.14748774 0.024561929 -0.00022499774 -0.117998004 0.05012539 0.041719817 0.045027815
-0.028500577 0.016698701 0.041464973 -0.05398247 0.042784497 -0.08396866 0.06722429 -0.32022583
-0.078413956 0.09859713 -0.30688858 -0.112558104 0.07768851 -0.05042754 -0.13134666 -0.021862093

layer1.0.bn1.weight f4 [8]
00000000: adeb f23e 8146 733e 9a3a 3b3f a3ca 683f
00000010: e86a 983e bd82 543f a0f3 833e 4e20 523f
0.4744543 0.23757364 0.73136294 0.909342 0.29769063 0.8301199 0.2577181 0.82080543

layer1.0.bn1.bias f4 [8]
00000000: 4550 f0be a73d d13e 7775 3dbf 5124 2dbf
00000010: ee40 bb3d bf3c 933d 1fde 473e 59e5 ed3d
-0.4693624 0.4086735 -0.7400736 -0.6763354 0.09143244 0.07189321 0.19518326 0.1161601

layer1.0.bn1.running_mean f4 [8]
00000000: d24b 36be 9c37 193e d522 64be c843 57bf
00000010: 451b 57bf 9ab1 54bf f42b 30be 887c ecbe
-0.1780236 0.1496262 -0.22278912 -0.840878 -0.84025985 -0.830835 -0.17204267 -0.4618876

layer1.0.bn1.running_var f4 [8]
00000000: 8a83 943d 91fb 963d 495a c43d b0b3 9a3e
00000010: 4cb8 f73d ea4b 7b3f d7cf 873d c631 633f
0.072516516 0.07372201 0.09587533 0.30215216 0.12095699 0.9816271 0.06631439 0.88747823

layer1.0.conv2.weight f4 [8, 8, 3, 3]
00000000: 9f87 e0ba ff72 55be adae d53b 6324 41bd
00000010: db66 083e 5784 9dbe eb83 133d 4860 94bd
00000020: 35f7 a5be 7450 36bd 7b2e 673e 7c9c 9fbd
00000030: a52c 363d c69c b0bd 4ee2 78bd af6c 0abc
00000040: a7ce 1abd 3693 6a3d 6e2b 9abd d08c 98bd
00000050: 6a5e f93c 81f5 d53d b2c2 7e3d 79f9 f5be
00000060: ab48 7d3c 3c93 11bc 2b5a 6bbc 64fc 523e
00000070: 37fb 07bc 09c2 19be 0a5e 34be be47 9abe
00000080: ab09 ee3e c0fb a33d 1580 bf3d bcfc fcbd
00000090: 37dc 8e3d fcfb 95bd 73ab ca3d 1541 7bbe
000000a0: 2337 ec3d 447f 9cbc 1730 0c3e 5f6e 09bc
000000b0: 9e36 63bd fded 4bbc 1479 02bf e2e6 4c3e
000000c0: 7a26 8ebd 262b 563f 6c45 99be 65a9 b63d
000000d0: 0bd3 2dbe e2c4 e83d e926 9a3c 8cc0 afbe
000000e0: a144 b63e 1bcd 1d3d 3041 273e 09ce 81be
000000f0: e3f3 c8bd 335c c53d dca9 803c 3dd0 84bc
00000100: 1e78 2e3f b0c9 3ebf e2ae caba d34e 10bf
00000110: 249c 0b3f 19ef 963b 4612 50be d80a 473e
00000120: 23fc 103d e3f8 423c 0265 953d d6d4 d73d
00000130: 12e9 f13d d2d1 3dbd 26ff 4d3c b5dc ac3d
00000140: 05f5 6abe 38dc 99bd 7d73 50be 801a 033d
00000150: ace7 203e 23be 82bb 4ac7 99be 06e9 e83d
00000160: f1c8 fe3d c433 94be 159a a43c d2f7 ecbc
00000170: 8773 fbbd 6735 4fbd 2ddb 3fbe 9316 bebe
00000180: e535 443e 4bc4 2e3e 5987 db3c cf90 233e
00000190: 5bb4 d93d 3309 e43d f372 84be 0178 36be
000001a0: 3c7c 973d 5764 fcbe ba85 8fbe 7e6e 143d
000001b0: 9858 a1bd 242f 083e 09e9 1c3e d814 4c3c
000001c0: 5f5d 733e 8ba4 693e 5888 7dbe 7e91 34be
000001d0: 8de0 9cbd bd6f b0bd 1306 c3bd a5d8 c43b
000001e0: 1440 8d3e c4a1 0a3e ca63 c33d a310 0d3e
000001f0: 3468 843e 78ec 273e b4b5 86bd 6a0d 743e
00000200: 5969 943e 4291 cf3d 535f f2bd af77 32bd
00000210: 4928 9bbc f8ca 78be b961 a8be 82ed bfbd
00000220: 649a 1dbe 07e2 e2bd aa11 57bd 87e6 1e3d
00000230: 2018 993d e3a5 f7bb 6048 8cbe b7cb d3bd
00000240: 23fd b0b8 ffaa 7a3c c139 c63d ef89 cbbd
00000250: 40ea a7bd 6ba2 153d c332 453d 63f8 4bbd
00000260: bc88 27be 9795 383e 179d a73d f569 05ba
00000270: 4b37 3f3e 4b73 733e 65b2 1c3e 8f09 72be
00000280: a7dd 8cbe 437a bebd 5f8d 133d 5bcd 4c3e
00000290: 905a f83d c378 4f3d d354 c73d 97f7 b83d
000002a0: 8a2f 143e b14a ac3d 606f de3c 701d c23c
000002b0: 26b9 a33c 08cc c63d 6279 173b 701a a73d
000002c0: 84a9 c03d d2a8 b1bd f36a bf3c 573c e63d
000002d0: f0d2 cebd 7e92 d03d 72f3 9b3e 5f27 9cbe
000002e0: 470f 81be 05b0 b03d 74fa f0be 4a84 d8be
000002f0: 1562 d4bc daeb 41be 0b56 86bc 6cc5 7b3c
00000300: cfcf fd3b a192 21be 8d62 0c3c 8139 3d3e
00000310: 5935 433d dd0f 313a 645b 703d 63b1 d23d
00000320: ab89 f8bd 02f5 b1be cd64 01bd 73e8 263e
00000330: 36cc 45be 3806 28bd fd80 073e c4c4 08be
00000340: b16b f1bd 5164 adbd c4dd bc3d d8ed 3b3d
00000350: 8299 f6bd 1438 c63c bb57 1cbc cfca 29be
00000360: d053 203d 4c10 fb3d a720 95bc af89 16bc
00000370: 3e2e b83e 9538 8b3d c179 91bc 008f 2ebe
00000380: ad5a 36ba 77ad 88bd d7b0 903d aebe 9abb
00000390: 2568 8d3d d10e 273e 3b5b 503d e416 0ebe
000003a0: eb36 5a3c e342 87bd 2d59 8d3c 8bdb 423e
000003b0: e92e e53c 99cc 673d 79e0 883e 4562 b13d
000003c0: 433d 34be 1ad3 22bf 3d4d b6be 9e5a 323d
000003d0: ceca 36be 4439 043e e451 8cbe cf81 d9be
000003e0: 23ae 86bb be49 0d3e 25f1 603e e265 08bd
000003f0: 6275 a4bc 909a 84bd 17a5 2abe c2b4 3bbd
-0.0017130262 -0.20844649 0.006521067 -0.04715384 0.13320486 -0.3076503 0.03601448 -0.07244927
-0.32415166 -0.04451032 0.22576325 -0.07793519 0.04447617 -0.08623652 -0.060762696 -0.008448764
-0.037794735 0.057269298 -0.07527815 -0.07448733 0.030440528 0.10447217 0.062197395 -0.48041895
0.01545922 -0.008885201 -0.014364759 0.20604092 -0.00829964 -0.15015425 -0.17613998 -0.3013286
0.4649175 0.08007002 0.093506016 -0.12352893 0.069755964 -0.07323453 0.098959826 -0.24536546
0.11533954 -0.019103654 0.1369022 -0.008388131 -0.05547201 -0.012446878 -0.50966 0.2000995
-0.069409326 0.8365959 -0.29935777 0.08919028 -0.16975038 0.113656774 0.018817382 -0.3432659
0.35599235 0.038525682 0.16333461 -0.25352505 -0.09812143 0.09636726 0.015705995 -0.016212577
0.68152034 -0.745265 -0.0015463496 -0.56370276 0.54535127 0.0046061394 -0.20319471 0.1943773
0.035396706 0.0119001595 0.07294656 0.10538642 0.11812033 -0.04634268 0.012573039 0.08440534
-0.2294503 -0.075127065 -0.20356555 0.032007694 0.15713376 -0.003989951 -0.30034858 0.11372571
0.1244067 -0.28945744 0.020093003 -0.028926764 -0.122778945 -0.050588038 -0.18735953 -0.37126598
0.19161184 0.17067067 0.026797937 0.15973209 0.10630103 0.11134567 -0.2586895 -0.17819215
0.07396743 -0.49295303 -0.28031713 0.036238186 -0.07878226 0.13299233 0.15323271 0.012456141
0.23766087 0.22816674 -0.24759042 -0.17633626 -0.07660017 -0.086150624 -0.09522643 0.0060072714
0.2758795 0.13538271 0.09540518 0.13775878 0.2586075 0.163988 -0.06577626 0.23833242
0.28986624 0.101351276 -0.11834588 -0.04357117 -0.018940108 -0.24296176 -0.32887056 -0.09371473
-0.15390927 -0.110782675 -0.05250708 0.038794067 0.074753046 -0.007557617 -0.27398968 -0.1034159
-8.4394844e-05 0.015299558 0.096789844 -0.09938418 -0.081989765 0.036531847 0.048144113 -0.049797427
-0.16360754 0.18025814 0.081842594 -0.0005089336 0.18673436 0.2377445 0.15302427 -0.23636459
-0.27512857 -0.09300663 0.036023494 0.20000212 0.121266484 0.050652277 0.09732976 0.09031599
0.1447126 0.08412684 0.027152717 0.023695678 0.019985747 0.097068846 0.0023113121 0.081593394
0.094073325 -0.08674778 0.023366427 0.11241978 -0.10098827 0.10184191 0.30459172 -0.30498788
-0.25206968 0.08627323 -0.4706608 -0.4228843 -0.025925675 -0.18937626 -0.01639845 0.015366893
0.00774572 -0.1577859 0.008568418 0.18478967 0.0476583 0.0006754378 0.058680907 0.1028774
-0.12135633 -0.3475724 -0.03159027 0.1629961 -0.19316182 -0.041021556 0.13232799 -0.1335631
-0.11788119 -0.084663995 0.09221986 0.045881122 -0.12040998 0.024196662 -0.009542401 -0.16581272
0.03914243 0.12258968 -0.018204046 -0.0091881 0.3597278 0.067979015 -0.017758252 -0.17046738
-0.0006956261 -0.06673711 0.070649795 -0.004722438 0.069046296 0.16314246 0.050868254 -0.1387592
0.0133187575 -0.066045545 0.017254436 0.19029061 0.02797647 0.056591604 0.2673376 0.086613216
-0.17601494 -0.63603365 -0.35605803 0.04354345 -0.17850801 0.1291247 -0.27406228 -0.4248185
-0.004110114 0.13797662 0.2196699 -0.033300288 -0.020075504 -0.06474793 -0.1666454 -0.04582668

layer1.0.bn2.weight f4 [8]
00000000: c2c2 823f 1e5b f63e b0f4 ba3e 4742 033f
00000010: 0a4e d73e 713b 4a3f 00c1 e03e 7d67 4c3f
1.0215685 0.48116392 0.36514807 0.51273006 0.42051727 0.7899695 0.43897247 0.7984541

layer1.0.bn2.bias f4 [8]
00000000: 6ceb 02bf 7b61 0f3f 510b 1c3e fbef 813f
00000010: f5cf 423f 8801 8abe 47c2 2f3f fc7f 3c3f
-0.51140475 0.5600812 0.15238692 1.0151361 0.7609857 -0.26954293 0.6865582 0.7363279

layer1.0.bn2.running_mean f4 [8]
00000000: 3cc9 b7bc 4896 86be e18f 30be 05fe d9be
00000010: 4964 83be ece1 01bf f19e 363e f270 d53d
-0.022434823 -0.2628653 -0.17242385 -0.42576614 -0.2566245 -0.50735354 0.17834069 0.10421933

layer1.0.bn2.running_var f4 [8]
00000000: aa27 0e3e 5d33 113e 63ec a13d 26d7 1f3e
00000010: 4b21 cc3d f4a5 3a3e e2a8 3d3e c4f7 8c3e
0.13882318 0.1417975 0.07906415 0.15609416 0.09967288 0.18227369 0.18521455 0.2753278

layer2.0.conv1.weight f4 [16, 8, 3, 3]
00000000: 684b 94bc 1105 e9bc c4c2 9bbc 7894 b13d
00000010: 0728 953d 05a3 293d 00bc 473d c3b1 d23d
00000020: 59c0 753d e7ef bc3d 7fe4 193d 4d30 1bbe
00000030: 02f8 80be e93a 91be a862 b8be 5cdd c3be
00000040: 9269 babe 0ab6 7bbe 8a47 19be 3954 1bbb
00000050: 9323 5c3e c890 963c bc7a a03c 281d f43d
00000060: adff 1a3e 29de b5bb b6cd cebd bc44 29bd
00000070: d91d a13d 28ab 98ba bc77 423d 66b9 153e
00000080: 5431 c33d 905e 973c 25a6 583d 0eec 363d
00000090: 49bb 023d 6db4 e3bc 7bad 453d 0010 f73d
000000a0: d67e b8bd 1c47 483b 86b5 723e 1376 583c
000000b0: c55f 9e3d 3d48 6e3c 29e0 3f3c 8943 023c
000000c0: cbf1 cbbc b820 b43d 6fa0 a73d 08cb 0abe
000000d0: bda6 4fbd 10eb c53d 86eb 983d 4f6d aabd
000000e0: e2ad d3bd dfe4 02be 7905 16be c95a efbd
000000f0: 09c8 0dbd 9fd5 0cbd 88b4 063e 4afd a8bd
00000100: 5141 203d a05f 383e 9732 c53e 1803 963e
00000110: 1678 783e 2f90 fb3e c8bc be3e ad57 ad3d
00000120: 2109 d83c 4d87 49bd 2396 1fbd 85d0 eb3c
00000130: f86d 9bbc fa50 3dbd 35c4 d53c 223e f53c
00000140: 7c5c 193c 4afc 9fbd 7518 82be b548 9f3d
00000150: 457e 0f3e 099c 85bd 315e 19be c491 383e
00000160: bbdc 063e 4b0c 4cbe b342 19bd de5b c83e
00000170: 6376 a1bd f98c 85be cc17 593e ff03 c03e
00000180: 0578 adbe 2cbd 82be 638a a03d ed91 0c3e
00000190: 0694 2c3e 66ce 9fbd 55fa 033e d901 6a3d
000001a0: 593d 1abe fde1 bd3c e3d8 6c3d f320 bebd
000001b0: d146 1b3d 6922 bcbd 4dd0 85be b8c0 063e
000001c0: c986 1e3d 7de2 65bd 0dd6 b43d 0817 f03d
000001d0: 979e 7c3d 2ad6 0fbd 16c9 42bc d04e d63c
000001e0: b1fe 11bc 32a4 5b3d 1422 033e ac48 67bc
000001f0: 2c70 873d 485f 0a3e d3c5 b4bd 7a1d 29bd
00000200: 82ca 93bd 8f0b 523e cca7 803d 479c 8d3d
00000210: 70a3 1b3e eca7 2fbd 2f8b 67be 595e 20bd
00000220: 4550 ba3e 852f fc3c a9a4 ffbe 820f 1f3e
00000230: 6240 a73e c1bd 30be 353c 92be 2541 1e3e
00000240: 6b38 09bc 9e95 2d3d d1fc 8fbb 18f5 f6bc
00000250: 3b40 453d 7dc9 933c 78e1 863d 01c7 043e
00000260: 40ee 413d d0cb fc3d a80e 3c3d 8e8d 803d
00000270: 3a47 04bd 8fe2 29be 3d73 6abd 4cc6 adbd
00000280: a672 803d 06cf 51bb 6fe6 56bd 0570 193c
00000290: e861 353d fb37 85bd c2ab f1bd de66 05be
000002a0: 83f1 963d e4cc e13d d142 853d 3171 653d
000002b0: 9666 5dbd 3198 80bc 0998 c83e 3681 433f
000002c0: 6131 003f 0ba1 acbe b194 43bf e42d 08bf
000002d0: e26f cabd 4485 0ebd 1b66 db3c 54e6 0f3d
000002e0: 8266 9abd 0342 e4bd 2a06 fd3c 14a6 c93d
000002f0: 5cb6 343d cd89 26bd 3814 4abc e0db 43bd
00000300: 4d3d a6bc 328c 893c eb9b 263d 65c7 1c3d
00000310: 8a7a 66ba 7b27 75bc 74f4 85bd d2b7 61bd
00000320: 3cfa 8a3b c29f 073d d444 81bc dc48 b0bd
00000330: 0daa b63b 4692 52b9 5891 2f3c aba8 8e3d
00000340: 146e 273d d281 3e3c 6530 b2bd e50b 74be
00000350: fabd 58bd fb87 5ebb faed 573e cf1b 013e
00000360: b7ab 593c 8c4e c53c bfe8 63bd e255 aa3c
00000370: 8639 dc3c f3e0 3cbc 3876 b43c 0a6f 7bbc
00000380: 1332 89bc e9f2 da3c bc9e 7dbe ff6d ee3b
00000390: 861e e23d 3f7d 38be 84ed 843d 6028 3c3e
000003a0: d52d 8e3d a368 aa3d 50ab 5d3e fcf8 813e
000003b0: 7730 553e 09c3 f5bd d0fc c83d 2c91 dd3b
000003c0: 8328 b5be 958d 3cbe ecb2 97be 1d3d aa3d
000003d0: c891 1c3e 68f1 2abc 4305 113d 4cab 303d
000003e0: b4f4 103e 7e6a 86bd f558 d9bc 71d2 523c
000003f0: 1ed7 eebd 5cac 9bbe f1f6 e0be a0d7 123d
-0.018102363 -0.028444799 -0.01901377 0.08670896 0.07283025 0.041415233 0.048763275 0.102878116
0.05999789 0.09225445 0.037571426 -0.15155144 -0.25189215 -0.28365257 -0.3601277 -0.3825482
-0.3640867 -0.24581161 -0.14968696 -0.0023701324 0.21497945 0.018379584 0.019589774 0.119196236
0.15136595 -0.005550165 -0.1009783 -0.041325316 0.07867021 -0.0011647688 0.04747747 0.14621505
0.09530893 0.018477708 0.052892823 0.044658713 0.03191689 -0.027795995 0.048261147 0.12063599
-0.09008567 0.0030559963 0.23702058 0.013211745 0.0773311 0.01454359 0.011711159 0.007950672
-0.02489557 0.08795303 0.08184897 -0.13554013 -0.050696123 0.09663975 0.074667975 -0.0832163
-0.103359 -0.1278262 -0.14650525 -0.11687238 -0.034614597 -0.034383412 0.13154805 -0.08251436
0.03912479 0.18005228 0.3851516 0.29299235 0.24264559 0.4913344 0.37253404 0.084639885
0.02637154 -0.0492013 -0.03896154 0.028785953 -0.018973336 -0.046219803 0.026094535 0.029936854
0.009360429 -0.07811792 -0.25409284 0.0777754 0.14013012 -0.06523902 -0.14977337 0.18024355
0.1317014 -0.19926564 -0.037417125 0.3913259 -0.078839086 -0.26084116 0.21200484 0.3750305
-0.3388063 -0.25534952 0.07838895 0.13727541 0.16853341 -0.07803039 0.12888463 0.05713067
-0.15062465 0.023179049 0.057824027 -0.09283628 0.037909333 -0.09186251 -0.26135483 0.13159454
0.03870276 -0.0561242 0.088298894 0.11723143 0.06167468 -0.035116352 -0.011888763 0.026160628
-0.008910821 0.053623386 0.12805969 -0.014116447 0.06613192 0.1351291 -0.088267945 -0.041287877
-0.0721636 0.20512222 0.06282005 0.06914573 0.15199065 -0.042884752 -0.22611688 -0.039152477
0.36389366 0.030784378 -0.49930313 0.1553326 0.32666308 -0.17259885 -0.2856156 0.15454538
-0.0083752675 0.042379014 -0.0043941517 -0.030146167 0.048156958 0.018040413 0.065859735 0.12966539
0.047346354 0.12343562 0.045912415 0.062769994 -0.03229449 -0.16590331 -0.057238806 -0.08485088
0.062718675 -0.0032014265 -0.052465852 0.009365086 0.044282824 -0.06504818 -0.11800338 -0.13027522
0.073702835 0.11025408 0.06506885 0.05601615 -0.05405291 -0.01569757 0.39178494 0.76369035
0.50075346 -0.33716616 -0.7639876 -0.53195024 -0.09884621 -0.03479506 0.026782086 0.035131767
-0.07539083 -0.11145403 0.030886728 0.0984613 0.044119224 -0.04065876 -0.012333922 -0.04781711
-0.020292902 0.016790483 0.04067604 0.038276095 -0.00087920635 -0.014963026 -0.06540766 -0.055106945
0.004241256 0.03311134 -0.01577989 -0.08607647 0.005574471 -0.00020081652 0.010715805 0.069657646
0.040876463 0.011627631 -0.08700637 -0.23832662 -0.05291555 -0.0033955562 0.21086875 0.12608264
0.013285569 0.024085306 -0.055641886 0.020792905 0.026882898 -0.011528241 0.022029027 -0.015346298
-0.01674751 0.026727157 -0.24767584 0.007276296 0.11040978 -0.18016528 0.06490615 0.18374777
0.069423355 0.08320739 0.21647382 0.25385273 0.20819269 -0.12000091 0.09813845 0.0067616906
-0.3538247 -0.18413384 -0.29628694 0.08312438 0.15289986 -0.010433532 0.03540541 0.04313211
0.14155847 -0.065632805 -0.026531676 0.012867556 -0.11662124 -0.30404937 -0.439384 0.035850167

layer2.0.bn1.weight f4 [16]
00000000: 24b6 f63e ca41 f13e cbb5 283f 8437 b63e
00000010: 4c50 193f d4c8 103f 86dc 293f 1662 153f
00000020: 647e 113f 9d52 293f 95a2 0a3f 36da 163f
00000030: 4a1e e43e f02c b73e cc20 2a3f 115e 603f
0.48185837 0.47120506 0.65902394 0.3558923 0.5988815 0.5655644 0.6635212 0.5835279
0.5683348 0.6614168 0.5415433 0.58926713 0.4455436 0.35776472 0.66456294 0.87643534

layer2.0.bn1.bias f4 [16]
00000000: 74e1 c33d c2a9 91bd 489f 7abd d000 0f3f
00000010: 349c 3bbd 7220 f83d 8dbb 37be 2f18 96bc
00000020: 0dad bfbc 2917 cdbd 3f32 583d 915e 9e3b
00000030: b3c0 853e 4588 613f 0ca0 c73c 1739 5cbf
0.09564486 -0.07112457 -0.06118706 0.55860615 -0.045803264 0.121155635 -0.17942639 -0.018322079
-0.023397947 -0.10014183 0.052782293 0.0048330505 0.2612358 0.88098556 0.024368308 -0.8602461

layer2.0.bn1.running_mean f4 [16]
00000000: 19d5 7f3f a6c4 d13e bc60 85be 6a3e 243f
00000010: ae78 14be 1115 c7bf 12ad 74bf 4f8e 89bf
00000020: 1d47 943f 0dae a4be 28a6 6a3d deae d3be
00000030: c9ff 853e 1a2f 1240 fe92 cfbd 881d 4f3e
0.99934536 0.40970343 -0.26050365 0.64157736 -0.1449916 -1.5553304 -0.95576584 -1.0746554
1.1584202 -0.3216404 0.057287365 -0.4134435 0.2617171 2.2841249 -0.101354584 0.20226109

layer2.0.bn1.running_var f4 [16]
00000000: c508 793f 71e7 8d3e ed3f c13f 60d2 ab3e
00000010: 7321 7a3f b53e 873f 6965 753f fd7b 803f
00000020: 5fbe 423f 4987 813f e489 5d3f 0719 9a3f
00000030: bd37 543f 86a1 883f 788b ab3f 9ada df3e
0.97279006 0.27715638 1.5097634 0.3355894 0.9770729 1.0566012 0.95857865 1.0037838
0.76071733 1.0119411 0.8653853 1.2038888 0.8289755 1.0674293 1.3401937 0.43721467

layer2.0.conv2.weight f4 [16, 16, 3, 3]
00000000: febc 913e a421 c33e 5d4e de3e 0754 833e
00000010: ff49 fb3e fb97 043f f900 e63e 42e7 7a3e
00000020: ac45 9a3e 7b25 223d e144 dd3d 1881 783d
00000030: 75a5 9a3d b535 a53d 15b9 df3d e1fd 273e
00000040: bc97 b13d 55b8 bf3c d902 413c d9db 3c3d
00000050: 4606 3dbd ed33 533d cc91 073e 4142 cd3d
00000060: 781e e53c 2e34 8fbc a875 b4bc 56cb 0abd
00000070: 12d3 e0bd 8521 febd 5bb1 853c 2093 68bd
00000080: 45b9 7bbc 3e8d 5dbd 03f6 773d 4fd6 583d
00000090: a3fd 89bd 3de3 dcbc 4f79 903c 8009 d33c
000000a0: f9bd 80bd 2305 c43c 5d3f 2d3c bc6f 3abd
000000b0: 0f5b b1bd bc6d 603c b43c 1cbd b11c 05bd
000000c0: 7614 b43c e303 cebd f6f2 46bc 9c48 57bd
000000d0: f883 6cbd 7362 ba3a 5044 0fbc f664 4d3d
000000e0: 0859 4c3d 9492 3bbd 5694 efbc e915 7abc
000000f0: 9600 0dbd 6809 a6bd fb10 6ebd 13a1 c23c
00000100: 8558 3b3d c4d8 203d dfec 72bc 8f95 d3bc
00000110: a072 043d b214 173d fe30 cf3c c602 77bd
00000120: b41f 513c 0380 59bc b498 4abd fd08 173c
00000130: bb0f c13d 73d8 183d 3586 213b d9a7 8abc
00000140: 47a3 a5bd bc93 85bc 665a 843d 6107 7c3c
00000150: 2317 5ebc ba6b a8bb 2702 a73b 3a9e 3bbc
00000160: d463 423c b632 183c 3d48 48bd 1f95 31bd
00000170: ad32 dfbc ce46 c9bd d742 92bd 7816 79bd
00000180: 2f90 28bd 82c9 3ebd 5878 e5bc d50f 373c
00000190: 36f1 b33c 2d49 17bd 079e 643c 3a55 923c
000001a0: 12da e23d 9438 393d b00c cdbb 83d8 023c
000001b0: 6753 6fbd eb8b 78bd 5b7c 07bd 7dde 71bd
000001c0: 9c35 e4bd 25c6 0dbd de8a 79bc 973d 53bd
000001d0: a067 7bbd fec5 9bbd ee0f 96bd a561 1ebd
000001e0: 961f ba3b 1fd0 663d c392 8f3d 73f9 ed3c
000001f0: a0b5 be3c d34b 3e3d 3dd0 b6bc 36d1 92bc
00000200: 7848 7d3c a1ab d1bc f9cb e03d 4396 f53c
00000210: e281 d13a a12a 04bc 4105 86bc a4c6 9bbd
00000220: d5a9 16be 09b9 903d af64 fbbd a9e1 92be
00000230: 48c2 8abc b445 26bb 653b bbbd 0ed0 f03d
00000240: 2539 8e3d 2303 e7bd 9998 053d 3daa 2c3d
00000250: 7144 b43a 3002 00bd 21f6 593d 14be 623c
00000260: 0b2e 853b 34e4 dabc e12d 493d 49a2 9e3d
00000270: 756e 873d d0d6 1c3e a5ed 1a3d ee11 2d3e
00000280: a669 813d 729b d13d 7100 433d 7027 0ebd
00000290: 0357 423a 0665 3cbd 4ba6 98bd a407 463d
000002a0: 6304 103d 2ef1 c1bd 8f6a 79bb 53a2 a83c
000002b0: e4fe 50bd c3ec a7bd 9697 b4bc cd4a 37bb
000002c0: 9c82 913d 9f35 30bd 982f c0bd 0ee2 0e3c
000002d0: aac8 29be f78c c8bd 2a60 78bc 9484 1dbe
000002e0: b7a3 17be 6af9 61be 8c43 10be e6bf 35be
000002f0: 6b92 56be 5102 4bbd ae42 3fbd 6162 85bc
00000300: 3583 c1bd c167 56bd f6fe 90bc 1fa6 ee3c
00000310: 8588 903d 5647 afba 704a 1a3c 3cd6 a13d
00000320: 77fd cfbc 5952 92bd 8072 923d 953f 14be
00000330: 1a28 96bd 5913 aa3c c9b2 93bd 8694 44bd
00000340: 93d3 3dbd d96f 273e 9fb3 fdbc d249 9cbd
00000350: cffc c8bc 0f1c b43d 0e30 9a3d 51da 933d
00000360: 1b4e ba3d a214 70bc d7ce 6e3d 5e2f 803c
00000370: b9fc c5bd d75a cb3d f4f2 be3d 05a1 79be
00000380: e685 9c3d 7378 d73d a128 c83d 44c9 55ba
00000390: 2b6d 573d 7cdb ad3d 4eb7 2ebc 9d3b d63c
000003a0: 869a 023e 1899 af3d b6c6 eebd c1dc 15be
000003b0: a5c4 c0bc e50b 87be 234c a0be d102 eabd
000003c0: 4768 5dbe 0439 a9be 5a7b 76be 7131 dd3d
000003d0: 82b5 243b e25a d6bd 2665 843d d191 bebc
000003e0: fdf8 953d de20 ccbd 59f9 febd 30f9 94bd
000003f0: 79af 2dbc 7fd0 b8bd a465 07be ec77 04be
0.28464502 0.38111603 0.4341916 0.25650045 0.49079892 0.51794404 0.44922617 0.2450228
0.3013128 0.039586525 0.10804153 0.06066999 0.0755109 0.080668844 0.109239735 0.16405441
0.08671519 0.023403326 0.011780464 0.0461081 -0.04614856 0.051563192 0.13239211 0.100224026
0.02796863 -0.017480936 -0.02202876 -0.033885323 -0.109777585 -0.12408737 0.016319921 -0.056780934
-0.015363996 -0.054089777 0.06053735 0.052938756 -0.067378305 -0.026963824 0.01763597 0.025761366
-0.062862344 0.02392823 0.010574189 -0.045516714 -0.08659946 0.013698038 -0.03814383 -0.032498065
0.021982413 -0.10059335 -0.012142887 -0.05255948 -0.057743043 0.0014220014 -0.008744314 0.050145112
0.049889594 -0.045794085 -0.029245537 -0.015264013 -0.034424387 -0.08107263 -0.058121663 0.023758447
0.045738716 0.039269224 -0.014826982 -0.025828151 0.032335877 0.03688497 0.025291916 -0.06030538
0.012763906 -0.013275149 -0.049462035 0.009218452 0.094268285 0.037315797 0.0024646644 -0.01692574
-0.08087783 -0.016305797 0.06462555 0.015382619 -0.013555321 -0.005139795 0.005096692 -0.011451298
0.011864621 0.009289434 -0.048897017 -0.043355104 -0.027245844 -0.09827958 -0.07141655 -0.060812443
-0.04115313 -0.04657889 -0.028011486 0.011173208 0.021965604 -0.03693502 0.013953692 0.017862905
0.1107675 0.045219973 -0.006257616 0.007986191 -0.058429148 -0.06068031 -0.03307758 -0.059050072
-0.11143038 -0.034612793 -0.015230862 -0.05157241 -0.06137812 -0.076061234 -0.07327257 -0.03866734
0.005680035 0.056350823 0.070104145 0.02904961 0.023279965 0.04645903 -0.022316093 -0.017922025
0.015459172 -0.025594534 0.10976405 0.029978877 0.0015984143 -0.008066804 -0.016359927 -0.07606247
-0.14713223 0.07066543 -0.12275063 -0.2868779 -0.016938344 -0.0025371136 -0.09142188 0.11758433
0.06944493 -0.11279895 0.03261623 0.04215454 0.0013753307 -0.031252086 0.053213242 0.0138392635
0.0040643266 -0.026720144 0.04911602 0.07745797 0.06612865 0.1531632 0.03782429 0.16901371
0.06318979 0.10234727 0.047607843 -0.03470558 0.00074134785 -0.04599478 -0.07453593 0.04834713
0.035160434 -0.094698295 -0.0038057899 0.020585215 -0.051024333 -0.081994556 -0.022044938 -0.0027968169
0.0710499 -0.043019887 -0.09384078 0.008720888 -0.16580454 -0.09792512 -0.015159646 -0.15382606
-0.14808546 -0.220678 -0.14088267 -0.17748985 -0.20954292 -0.049562756 -0.04669445 -0.016282262
-0.09448854 -0.05234504 -0.0176997 0.029131947 0.07057289 -0.00133727 0.009417161 0.0790219
-0.025389416 -0.07144613 0.071507454 -0.1447738 -0.073318675 0.020761179 -0.07211835 -0.047993205
-0.04634435 0.1635126 -0.03096944 -0.076312676 -0.024534611 0.08794414 0.07528697 0.07219375
0.09096929 -0.014653357 0.058302727 0.015647586 -0.09667344 0.09929436 0.093236834 -0.2437783
0.076427266 0.10521021 0.09773374 -0.0008155296 0.052594345 0.08489129 -0.01066382 0.026151473
0.12754259 0.08574122 -0.11658995 -0.14634992 -0.023531267 -0.26376262 -0.31308088 -0.114263184
-0.2162181 -0.33051312 -0.24070492 0.10800446 0.00251326 -0.10466553 0.06464605 -0.02326289
0.07322881 -0.099672064 -0.12449903 -0.07274091 -0.010600918 -0.090241425 -0.13222367 -0.12936372

layer2.0.bn2.weight f4 [16]
00000000: 33ef f83e 5765 8d3f a556 bc3e 6589 3a3f
00000010: 2992 7f3f 9a68 9b3e 8e49 2b3f 4b15 bf3e
00000020: aead f43e 41a9 d73e 03c2 833f bee7 053f
00000030: c4a5 003f 877e f63e e4ff 143f d2f5 c43e
0.48619995 1.1046551 0.36784855 0.728659 0.998324 0.30353242 0.6690911 0.37320933
0.47788757 0.42121318 1.0293583 0.52306736 0.5025294 0.48143408 0.5820296 0.38468796

layer2.0.bn2.bias f4 [16]
00000000: ba9c 5d3e f2aa 92bd 54cc b3bd 0f06 afbd
00000010: 2301 57be 9034 18bb 10d7 44bd 74a2 20be
00000020: 0e52 26bc 5497 093f 2939 10be 2609 bc3e
00000030: da31 c63e 081f de3e 0b76 943e b1f8 493e
0.21641818 -0.071615115 -0.08779207 -0.085460775 -0.20996527 -0.002322469 -0.048056662 -0.15686971
-0.010151399 0.53746533 -0.14084305 0.3672573 0.3870991 0.4338305 0.2899631 0.19723774

layer2.0.bn2.running_mean f4 [16]
00000000: 3f44 bd3e 7c8f 46bf 354e 92bd 7da1 0a3c
00000010: a387 ddbe 7042 28bf bce9 2f3f 4400 25be
00000020: 7417 d93e 0011 a5bf ea75 67bf 0935 463f
00000030: 388f c33f 26e6 e43f 758d c43c 499d 063e
0.3696613 -0.7756269 -0.07143823 0.008461353 -0.43267545 -0.65726376 0.68716025 -0.16113383
0.42400706 -1.2895813 -0.904143 0.77424675 1.5278082 1.7882736 0.023993233 0.13145937

layer2.0.bn2.running_var f4 [16]
00000000: fa59 383f 294e 5b3f 2578 153e 6b04 983e
00000010: 70db b13e 54bc f93d c762 f23e bb06 cf3d
00000020: 5f50 713e 394b c13e 7936 fe3e f5f2 173f
00000030: e2c0 223f f4f4 573f deb7 0f3f d040 683e
0.72012293 0.8566614 0.14596613 0.2969087 0.3473773 0.12194124 0.47340986 0.101087056
0.23565815 0.37752703 0.49650934 0.593551 0.63575566 0.84358144 0.56139934 0.22680974

layer2.0.shortcut.0.weight f4 [16, 8, 1, 1]
00000000: 62b6 343b 9333 abbe c0c9 eb3e 4fbd d8bd
00000010: f559 bdbc 14b9 b4bd 8575 18bd 2f05 0d3e
00000020: 3be0 2dbe 4f61 cebc 8ec4 2e3c 9075 d2bd
00000030: f300 73bd 20ca 59be acc9 953d f006 093e
00000040: 3e35 86bb d308 3d3e 347f 0f3f d259 293e
00000050: a6c7 18bf 0fb1 f53c 469a 7cbe 6b14 0d3c
00000060: bdce 3ebd 0b6b ffbd a872 6a3e fc7b b03d
00000070: 9c7b 8bbd 24fa 24be e9c4 333e 6d89 0f3e
00000080: 3b46 98be 0396 113c ffe0 fd3c e2af 60be
00000090: a069 363d 9f9d 6c3d 7a80 54be b6ad 923d
000000a0: 64a9 173d 0e69 113f dbca 2ebe c00e 3cbd
000000b0: 92eb 8cbe d9b2 96bc fb71 363e a6ce dfbe
000000c0: 69eb 08be 9a70 39be 742c 87bb a727 dcbe
000000d0: a2fa 64be f74f 673e a9c2 49bd acdb 063e
000000e0: 63d6 a0bb 1a7d abbe f0b7 d7be d1b9 e0bc
000000f0: 19d6 f43e 7afe cb3c 59f7 513d 7ef9 083e
00000100: aa5a f3bd d796 86bd e10b 7ebc 8b23 f43c
00000110: 1d6a df3d 8911 443e 0b8b 8b3e fd17 9d3e
00000120: cb95 45be 7044 723e bdd9 bebd 7a10 753e
00000130: f272 063e 5216 873d 71c8 8cbb 7238 373d
00000140: 325e 9fbc efad f83b ee81 e6bd 5867 1ebe
00000150: d7ef edbc 70b4 31be c52d 38be aa60 16be
00000160: 86a1 233e 90c0 48be 6b00 e23d d65c 703e
00000170: 7102 463e 6c20 bc3c 0a8d d3bc 059a 2cbe
00000180: ba10 f3bd 10e8 02be db3c b43b df63 e23d
00000190: c2d7 33bd e33e 31bd 66c2 203e 709b 873d
000001a0: 2071 8fbc 716d 723e 1ec0 ac3c 8158 21be
000001b0: d0ab bf3d cb00 00be a0e7 ab3e dbcf 043d
000001c0: 1715 0bbc c09d 063e e310 a43d 5fae d9bd
000001d0: 76da ad3d 632a 383d 76bb 22bd 07e1 e33d
000001e0: 4f6c b43c 1463 973e e5e3 8a3d 908b cb3e
000001f0: 3cd2 bc3e 400a af3a 409d 2b3e 4f0f 963d
0.002757453 -0.33437786 0.4605236 -0.10582983 -0.023114184 -0.08824363 -0.03722145 0.13771509
-0.16980068 -0.025192885 0.0106669795 -0.102763295 -0.059327077 -0.21268511 0.073138565 0.13381553
-0.0040957024 0.18460397 0.5605347 0.1653817 -0.5967964 0.029991655 -0.24668226 0.008610825
-0.04658388 -0.12471589 0.228953 0.08617398 -0.06810686 -0.16111046 0.17555584 0.14017268
-0.29741082 0.008885863 0.030991076 -0.21942094 0.044534326 0.057767507 -0.20752135 0.07162039
0.037026778 0.56800926 -0.1706957 -0.045912504 -0.27523476 -0.018395828 0.17816918 -0.43712348
-0.13371052 -0.1810936 -0.0041251723 -0.42999002 -0.22361234 0.22589098 -0.049257908 0.13169736
-0.0049083694 -0.33493882 -0.4213252 -0.027432354 0.47819594 0.024901617 0.05126128 0.13376424
-0.11882527 -0.06571739 -0.015505762 0.029802104 0.109089114 0.19147314 0.2725452 0.30682364
-0.19295423 0.2365892 -0.09318874 0.23932067 0.13129786 0.06596054 -0.0042963554 0.044731565
-0.019454096 0.007589094 -0.11255251 -0.1546911 -0.029045029 -0.17353988 -0.1798621 -0.14685312
0.15979585 -0.19604707 0.11035236 0.23472914 0.19336869 0.022964679 -0.025824089 -0.16855629
-0.11868425 -0.12783837 0.0055004186 0.11054205 -0.043906935 -0.043272864 0.15699157 0.06621444
-0.017509997 0.23674561 0.021087702 -0.15756418 0.093589425 -0.12500302 0.33575153 0.03242479
-0.008488915 0.13146114 0.080110334 -0.10628962 0.08488934 0.044962298 -0.039729558 0.11126905
0.022024302 0.29567778 0.06781749 0.39754915 0.36879146 0.0013354495 0.16759205 0.07327139

layer2.0.shortcut.1.weight f4 [16]
00000000: 7662 413e e0b4 c63d c449 1e3f b624 0e3e
00000010: d9ac 8d3e 6106 163f a239 c03e d38d 0b3f
00000020: 5b90 8b3e fea4 fa3d b248 6c3e 3363 c33d
00000030: 3c25 4e3d 6609 d33d 8614 633d 031f d83e
0.18885216 0.09702468 0.6183131 0.13881192 0.27670935 0.58603483 0.3754397 0.5451328
0.27258572 0.12238501 0.23074606 0.09540405 0.05032848 0.10304527 0.055439495 0.4221116

layer2.0.shortcut.1.bias f4 [16]
00000000: ba9c 5d3e f2aa 92bd 54cc b3bd 0f06 afbd
00000010: 2301 57be 9034 18bb 10d7 44bd 74a2 20be
00000020: 0e52 26bc 5497 093f 2939 10be 2609 bc3e
00000030: da31 c63e 081f de3e 0b76 943e b1f8 493e
0.21641818 -0.071615115 -0.08779207 -0.085460775 -0.20996527 -0.002322469 -0.048056662 -0.15686971
-0.010151399 0.53746533 -0.14084305 0.3672573 0.3870991 0.4338305 0.2899631 0.19723774

layer2.0.shortcut.1.running_mean f4 [16]
00000000: 3e37 18bd 8da2 d9bd c46b f6bd 5477 b63e
00000010: 3eca d6be 8750 61be c39f 44bf f5a7 bd3d
00000020: fd85 313f a001 0a3f a4c6 2dbf bac0 8c3e
00000030: e698 4b3e 1d60 d93e b5c6 243e 9fba ac3f
-0.037162058 -0.10626707 -0.120322734 0.35637915 -0.41951174 -0.22003375 -0.7680628 0.09260551
0.69345075 0.5390873 -0.67881227 0.2749079 0.19882545 0.4245614 0.16091426 1.3494452

layer2.0.shortcut.1.running_var f4 [16]
00000000: f8c5 b63d 25b4 df3c e33f f53d a60b e73c
00000010: 0343 9d3d f5b0 123e a23a dc3d 7f23 ac3d
00000020: 3ac6 d03d 801d 6c3d 5e67 933d 8fa7 6c3d
00000030: c524 9e3c 88f6 343d 88d2 623c 8b76 253e
0.08924478 0.02730758 0.11975076 0.028203797 0.07678797 0.14325316 0.10753371 0.08405208
0.10194059 0.05764532 0.0719745 0.057776984 0.019304642 0.044180423 0.01384414 0.16158502

layer3.0.conv1.weight f4 [32, 16, 3, 3]
00000000: 19e8 a9bc f7fa e3bd 3c1e a23c 3719 b33d
00000010: 8ef0 763c 749f 54bd f29d 273c a354 da3d
00000020: b16f a8bc 3fa4 233d ee62 83bd 4778 3a3d
00000030: 05f1 6b3d 81e8 b6be ebe2 b0be d6aa 3d3e
00000040: f849 693d 6d40 4dbd 27c6 99bb cc69 70bd
00000050: 7b5a 45bc 1a07 55bb 6dfc 6cbd f99a 3dbd
00000060: 7652 173d 7c35 06bd 4e1f a6bd a690 073d
00000070: 200f 6fbb 4baf 603c 3630 8d3d 60e1 4a3d
00000080: 24e0 973c b0d5 2f3d e4fa a63d 5c89 933c
00000090: 8d36 75bd d80e 823c 98c8 5d3d d57a 4a3c
000000a0: 1167 d83d fd4a fa3d 40e4 d13c ab7b 463d
000000b0: c684 b03d b2a9 2fbd 4512 54bd a97f 39bd
000000c0: 3268 20bd ec48 9f3c f562 34bc 59b1 6b3b
000000d0: ad49 d13c 79c0 2f3d 8349 08be e1ad 72be
000000e0: d7ef 14be 37ef 60be a978 f6be f4d9 d6be
000000f0: aa43 86bd a291 91be 6928 bcbe 7031 213c
00000100: e3ae daba b1ec 653c 1617 aabc 1fb0 423b
00000110: afce 3ebd 5cae 9ebc fd9b c2bb e84e 33bd
00000120: 0976 03bd 04a7 21bd 5127 d5bc f43b 313c
00000130: 2add b53c 80f2 4b3d 5e4f 083d 5382 1f3d
00000140: 9a77 a93d da94 c1bb 0424 5ebd d14a 85bd
00000150: 7111 7b3d ed9b a4bc 7125 173e e703 3e3c
00000160: 81a7 a63d 8213 ac3e d64f b23d d04a c7bb
00000170: 73cd 17bd 3e44 bd3d 5507 9f3c b324 1fbd
00000180: 76dc 7f3d 540c 8ebc 7776 043c e61a cfba
00000190: 8b61 23bd ab90 3abe afdb 31bc f6d4 913e
000001a0: cf93 ad3e dc12 6dbe 77b7 033e 9415 d33e
000001b0: bc9f 1abc fce6 7f3d 7de6 cd3d 7e7a b4bc
000001c0: ae45 1d3d 4975 463d 668d 4bbd 11b7 cabd
000001d0: 7cb3 7abe 02f6 7abd bc41 a0bd 5a1d 0dbe
000001e0: fb22 183e 7046 823e 86ce 50bd 089f f83d
000001f0: cb09 7d3e e0f6 65bd ae07 6abd 6e8c ed3d
00000200: 93eb 513e a943 a9bd 3b28 023e d97c b93d
00000210: 487d 62bd 0445 8d3d 95e4 e63c b497 8fbd
00000220: 3d53 a0bd fe13 113d 58a3 fabd 8a9a 93be
00000230: 1281 14be 79b7 533d 0c7d 36be 0b15 62be
00000240: cdd4 f4bd 2680 48be a7d6 8e3b 5bec 19be
00000250: efa1 98be 5979 b0bd 9f96 a4bc c916 b2bd
00000260: 1954 ee3d 1bec 173d c846 1abc a553 843c
00000270: 519f bdbc ec62 dcbd a897 d7bc 04e6 f03c
00000280: f8ef 73bd a886 a6bc f967 0d3e 22fb 693e
00000290: 070e 263d ae28 403e 5641 9a3e d95b ca3d
000002a0: b9db 9f3d 7741 623e 0487 bd3b d026 163e
000002b0: 8add 243e 4329 ae3d 9529 103e ba30 2a3e
000002c0: 8c36 d53d 4cdf cebc 19fc 76ba 7dfa 15bb
000002d0: f3e6 ca3d 56c0 b23d 7ec4 4ebc 4f89 ed3d
000002e0: e19c b43d dc94 ad3c a4fe 973c 172b e93d
000002f0: 8049 843d cde6 89bd 7c7f 49be b847 48be
00000300: 2771 00be 7a9b 82be 4c75 75be 6b49 17be
00000310: f255 4bbe b592 26be 6925 23bd 2c28 1e3d
00000320: 6e25 653d 9965 c93c d014 ba3d 6ae5 843d
00000330: db8f 8e3d 4033 dd3d a160 033d fa10 c3ba
00000340: 59b4 06bb 29fa 843d b348 99bd f748 38bd
00000350: b668 713d 12e0 3abd c363 8cbd 1e97 083c
00000360: 111f 2f3d 5ad5 723d 5ac5 d1bc 9d6d c73c
00000370: e744 0fbd 3573 a0bd eb2e 023d 707c 983c
00000380: 2a1c c2bb ad11 293e 6a75 ac3c b645 cebd
00000390: 292a 8e3d 3915 8ebc b889 91bd 7ad1 1ebe
000003a0: 8bf5 7cbd 4fcb a23d da20 173d 9623 9f3c
000003b0: 70c0 84bc e33f d43d 7abd e93d 6210 b73d
000003c0: 821e 0d3d a53f e63d 7a41 943d bcf2 98bb
000003d0: 7f13 093c 4d8a d2bd 3470 fabc 614a 883d
000003e0: 75b8 953d d0fb 49bc 33dc 3d3e 212a 3b3e
000003f0: 2c55 283a 2baa f73c cf28 a4bd b3af cf3c
-0.020740556 -0.11131852 0.019789807 0.08745044 0.015072001 -0.05190988 0.010230528 0.106606744
-0.020561071 0.03995156 -0.06415354 0.04552486 0.0576029 -0.3572426 -0.34548125 0.185222
0.056955308 -0.05011027 -0.004692811 -0.058694646 -0.012045498 -0.0032505454 -0.05785792 -0.04629037
0.036943875 -0.03276585 -0.0811144 0.033096932 -0.003647752 0.013713668 0.06893961 0.04953134
0.018539496 0.042928398 0.08153322 0.018009834 -0.059866477 0.015876219 0.05414638 0.012358387
0.10566533 0.12221334 0.025621533 0.048457783 0.086190745 -0.042886443 -0.051775236 -0.04528776
-0.03916187 0.019443952 -0.011009921 0.0035963862 0.025547827 0.042908166 -0.13309292 -0.23699142
-0.14544617 -0.21966253 -0.4813893 -0.4196316 -0.06555875 -0.28431422 -0.3674958 0.009838447
-0.00166842 0.014033482 -0.020762961 0.0029707027 -0.046583828 -0.01937025 -0.0059390054 -0.043776423
-0.03209499 -0.03946592 -0.026019724 0.010817517 0.022200186 0.049791813 0.033278815 0.038942646
0.08274765 -0.005907637 -0.054233566 -0.06508411 0.06129593 -0.020093882 0.14760377 0.01159761
0.081374176 0.33608633 0.08706634 -0.0060819164 -0.037061166 0.09241532 0.019412676 -0.03885336
0.062466107 -0.017339863 0.008084885 -0.0015800863 -0.039887946 -0.18219249 -0.010855599 0.2848279
0.33901832 -0.23151726 0.12862955 0.412274 -0.009437498 0.062476143 0.10053728 -0.022031065
0.03839653 0.048451696 -0.049695395 -0.098981984 -0.2448253 -0.061269768 -0.07825038 -0.13780728
0.14857094 0.25444365 -0.050978206 0.12139708 0.24710767 -0.05614364 -0.05713623 0.115990505
0.2050002 -0.08264858 0.12710659 0.09057016 -0.05529526 0.06897929 0.028185168 -0.07011357
-0.078283764 0.035419457 -0.122381866 -0.2882884 -0.14502361 0.051688645 -0.17821139 -0.2207834
-0.11954651 -0.19580135 0.0043590846 -0.15031569 -0.29811046 -0.08616895 -0.020091353 -0.08695752
0.11637134 0.037090402 -0.00941629 0.016153166 -0.023147257 -0.10761055 -0.026317433 0.029406555
-0.059555024 -0.020327881 0.13809194 0.22849706 0.04054072 0.18765518 0.30127972 0.098808
0.07805581 0.22095285 0.0057839174 0.14663243 0.16100135 0.08503964 0.14078362 0.1662015
0.104107946 -0.02525296 -0.0009421721 -0.0022884898 0.09907331 0.087280914 -0.01262009 0.11598455
0.08818985 0.021189146 0.01855404 0.11385172 0.064593315 -0.06733475 -0.19677538 -0.19558609
-0.12543164 -0.25509244 -0.23970526 -0.147741 -0.19857004 -0.16266902 -0.0398306 0.03861253
0.0559439 0.024584578 0.09086001 0.0648907 0.06961032 0.10800791 0.032074574 -0.0014882379
-0.0020554273 0.06493027 -0.074845694 -0.04499146 0.05893775 -0.045623846 -0.068549655 0.00833681
0.042754237 0.0592855 -0.0256068 0.02434426 -0.03497782 -0.07834474 0.031783026 0.018614024
-0.0059237676 0.16510649 0.021052081 -0.1007189 0.06941635 -0.017344104 -0.07106346 -0.15509596
-0.061757606 0.07948934 0.036896564 0.019426148 -0.016205043 0.10363748 0.11413093 0.08938672
0.034452923 0.11242608 0.07239051 -0.004667608 0.008366465 -0.10280285 -0.03057108 0.06654812
0.07310573 -0.012328103 0.1854103 0.1827779 0.0006421383 0.03023251 -0.08015596 0.025352335

layer3.0.bn1.weight f4 [32]
00000000: 4709 073f 08fe c63e 5af1 d33e d024 a53e
00000010: 7242 cc3e 4fe7 0c3f 98b9 e23e a4c7 f63e
00000020: 9a29 033f a2e7 133f 9e6e c13e f076 e93e
00000030: 2a17 d43e 4c95 f63e 9200 023f 0fdb 963e
00000040: 1243 073f d8fd f63e fcbd e63e 51af 6b3f
00000050: 7151 1f3f 7681 b93e 6bff 143f cb9e d33e
00000060: d677 b03e f867 b03e d6b6 073f e846 083f
00000070: 8e18 053f a37d c13e c927 d33e 55cc 123f
0.5274853 0.38865685 0.41395074 0.32254648 0.39894444 0.5504045 0.44282222 0.4819919
0.51235354 0.5777532 0.37779707 0.45598555 0.41423923 0.4816078 0.5078212 0.29464003
0.52836716 0.48240542 0.45066822 0.92064387 0.62233645 0.36231583 0.58202237 0.41332087
0.34466428 0.34454322 0.5301336 0.53233194 0.5199059 0.37791166 0.4124129 0.57343036

layer3.0.bn1.bias f4 [32]
00000000: b0eb 8bbd 963a 113e 29f7 463e a6be 843e
00000010: 2bb1 953c 43d9 76be f0c1 513d 0519 51be
00000020: 9646 19be 70c7 41be 268f 4a3e 6f36 80bd
00000030: 40fc 093c d55a 003d 6cdb f23c a19f 503e
00000040: 8475 8fbd acd2 93bd 96bc f4bd 8394 57be
00000050: 6db5 563d 5391 1b3e e035 34be 508d 0abb
00000060: e940 373e 6308 8c3e a520 3abe 5f2f 81be
00000070: 5dee 233b 75c2 ca3d 335f 143e b0cc 58be
-0.06832063 0.14182505 0.19430222 0.25926703 0.018272957 -0.24106316 0.051210344 -0.204197
-0.14968333 -0.18923736 0.1978117 -0.062603824 0.0084219575 0.031336624 0.029645644 0.20373394
-0.07004836 -0.07217917 -0.119500324 -0.21052746 0.052419115 0.15192156 -0.17598677 -0.0021141358
0.17895855 0.2735015 -0.18176515 -0.25231454 0.0025013902 0.09900371 0.1448944 -0.21171832

layer3.0.bn1.running_mean f4 [32]
00000000: 26dc 0c3f 7c7c 2dbf 7c61 95bf 850f 593f
00000010: 6886 823e 9004 f5be 48a4 9abf f81e 31bf
00000020: 523e 19bf 214d 04c0 716f 9fbf 2cd3 e4be
00000030: 41b4 723f ef89 1cbf 538e abbf 9f26 033f
00000040: 0eeb d5bf 4eb5 b53d c850 49be 4c95 d6bd
00000050: 8e9e f23e dab4 b73d 5543 bdbf 81a2 b23e
00000060: 7233 2ec0 547a 9a3d c58a 71be 0d2d 5bbf
00000070: 7fdb 86bf 59d2 41bf eb35 153f d518 c73f
0.5502342 -0.67768073 -1.1670375 0.84789306 0.2549317 -0.47855043 -1.2081385 -0.6918788
-0.5986072 -2.0672076 -1.2455884 -0.4469236 0.94806296 -0.6114797 -1.3402809 0.51230806
-1.6712358 0.08872472 -0.19659722 -0.10477695 0.47386593 0.089700416 -1.4786173 0.34889606
-2.72189 0.075428635 -0.23588093 -0.8561562 -1.0535735 -0.7571159 0.582854 1.5554453

layer3.0.bn1.running_var f4 [32]
00000000: 192b 023f cfc1 0e3f 6168 513f 3861 1e3f
00000010: b7e7 513f e76f e43e e616 573f b119 c23e
00000020: 24b6 ce3e ae6e 573f 3bd6 1b3f 6499 b33e
00000030: 9c08 043f 5107 2e3f a149 c13f 9720 ea3e
00000040: a2e2 1a3f eb21 e83e 12cb 933e 5998 943f
00000050: 0d8b a03f 493f 183f 215a 1b3f 4ec9 b63e
00000060: 19b2 243f 1262 593f e124 ba3e e555 af3e
00000070: b833 2d3f bdcb 053f 5a83 6a3f 288f 3f3f
0.5084701 0.5576448 0.81799895 0.61867094 0.81994194 0.44616625 0.84019315 0.37910226
0.40373337 0.8415326 0.60873765 0.35077965 0.51575637 0.67979914 1.5100595 0.4572799
0.60502064 0.45338377 0.28865868 1.1608993 1.2542435 0.59471565 0.606844 0.35700458
0.64334255 0.8491527 0.3635626 0.3424522 0.6765704 0.52264005 0.91606677 0.74827814
