meta_results/meta_seed-2_metalr-0.0001_T-2_400-epochs_lite_meta_cifar100-ResNet10_smodel_best.pth.tar (torch, 735511 bytes, 104 tensors)

conv1.weight f4 [8, 3, 3, 3]
000000 83 34 8f bd 2a 97 b1 be f6 61 07 3e 84 5d 2c bd
       -0.06992438 -0.34685642 0.13220963 -0.04208137
000010 6f 8f 91 be fd 67 7a 3e 8f 68 2e 3d cd 6a af 3d
       -0.28429744 0.24453731 0.042580184 0.085652925
000020 c0 75 bc 3e dd 4d a7 3c c7 2e 9c be dd 52 bc 3e
       0.36808586 0.02042287 -0.30504438 0.3678197
000030 85 32 a4 bd f7 88 cd be 48 cd 87 3e 2b 17 4f be
       -0.08017448 -0.40143558 0.26523805 -0.20223682
000040 b9 48 83 be 95 97 a8 3e 6d c6 70 3d fc c6 7a be
       -0.2564142 0.32928148 0.058782984 -0.24489969
000050 c9 43 63 3e a6 f7 68 3d 27 4b 45 be fe 20 87 3e
       0.22193827 0.0568768 -0.1926695 0.2639236
000060 f6 00 a8 bd 6c ee 43 be b0 92 a4 3e 1f 4b 91 be
       -0.08203308 -0.1913392 0.32143164 -0.28377625
000070 56 fb bb be d0 ee 22 be ab 9e ac be 24 3c 13 bf
       -0.36715192 -0.15911412 -0.33714804 -0.5751364
000080 36 c7 9d be 49 3d bc be cf d1 00 bf b7 e2 96 be
       -0.30816048 -0.36765507 -0.5032014 -0.29469845
000090 6b 07 7c 3e 6d 62 97 3e ec 94 98 3e a0 b4 d4 3e
       0.24612205 0.2956728 0.29801118 0.41544056
0000a0 d7 3e da 3e 50 b5 57 3e fd 31 aa 3e a7 53 c3 3e
       0.42626068 0.21065259 0.33241263 0.3814976
0000b0 07 ed 6c 3e 45 0b 4a bd 8b 60 79 bd 93 c5 a6 3d
       0.23137294 -0.049327154 -0.060883086 0.08143153
0000c0 b6 6b 09 3e 6a 13 19 3d 03 03 13 bd c1 b2 f6 3d
       0.13419995 0.03737203 -0.035891544 0.12045813
0000d0 50 4e 2c bd 5c 6d ac 3c 15 12 04 be dd c0 c1 3d
       -0.042066872 0.02104824 -0.12897523 0.09460614
0000e0 a0 c4 99 bc 55 11 3b be 0a 4d 96 3e c7 49 9b 3e
       -0.018770516 -0.1826833 0.2935565 0.30329725
0000f0 c4 9c 85 be 78 e1 eb 3d c8 e1 30 3e dd dc 96 bd
       -0.26096165 0.11517614 0.17273629 -0.07366345
000100 b0 eb e4 3d 9b 47 ea 3c f0 65 c9 3e 08 2f 20 3f
       0.11177766 0.028598597 0.39335585 0.62571764
000110 38 7e c7 3e e5 e1 98 3e 9d 2f 0d 3f e3 5c 92 3e
       0.38963485 0.29859844 0.5515078 0.28586492
000120 f0 3b da bd 18 8b 34 be 4c 1d 49 3d ab c9 3b be
       -0.106559634 -0.17631185 0.049100205 -0.18338649
000130 36 32 65 bf fe e2 28 bf 72 c1 b8 bd 68 1e 45 bf
       -0.8952974 -0.6597136 -0.09021272 -0.7699952
000140 49 05 26 bf 32 43 84 bd e5 ae 9d bd bc 6b b4 3b
       -0.64851815 -0.06458129 -0.07699374 0.005506007
000150 45 f4 7b 3e 26 e2 c1 3f f4 12 18 3e 95 b9 81 be
       0.246049 1.514714 0.1485098 -0.253369
000160 73 43 9e bf 2a a3 29 be 9e 4b f8 bd 92 3f 5b bd
       -1.2364334 -0.16566148 -0.12123798 -0.053527422
000170 46 24 cb bc c0 66 ae 3e 63 a3 e4 3f 72 63 4c 3e
       -0.02479757 0.34062767 1.7862362 0.1995981
000180 b4 a3 92 be 20 71 d8 bf de 5b 49 be d5 5f 25 bd
       -0.2864052 -1.6909523 -0.19663951 -0.040374596
000190 d4 73 25 bd 14 1b 22 bd 6c 6d 6f 3e 5d 86 9a 3f
       -0.040393665 -0.039576605 0.23381585 1.2072254
0001a0 ef 82 28 3d b1 84 a3 bd cd 24 95 bf a6 8a c0 bd
       0.041140493 -0.07984293 -1.1651856 -0.09401445
0001b0 c1 35 5a bd 33 28 7d bd 3d 95 86 be b6 26 16 3d
       -0.05327392 -0.061805915 -0.26285735 0.03665801
0001c0 8e 26 1d 3f 3c 6e 1b 3f bc ed 87 ba 71 c1 2c 3f
       0.61386955 0.6071508 -0.0010370533 0.6748267
0001d0 ab 3e 24 3f 3a 40 9b 3d a5 bd 2b 3e cc 19 0e bd
       0.64158124 0.075806096 0.16771562 -0.03469257
0001e0 44 08 57 be 6d f6 4b bf ca ec 85 be ae 9b 96 be
       -0.20999247 -0.7967289 -0.26157218 -0.2941565
0001f0 ca de 32 bf ca 78 de be f8 6b 3d be d3 4f 2b 3e
       -0.698712 -0.4345153 -0.18498218 0.1672967
000200 fc ee cb 3d d0 04 a2 3e 16 2f ba bd b6 85 b3 bd
       0.09957692 0.31644297 -0.09091012 -0.08765738
000210 10 89 a5 3e 1c d9 c0 3c 0f 55 45 be ce ec 93 bd
       0.32331133 0.023541026 -0.19270729 -0.07222901
000220 1c 0c 27 3e 90 88 ca bd 37 f3 64 bf 73 81 6a 3f
       0.16313213 -0.098893285 -0.89433616 0.91603774
000230 43 51 d8 3d 61 ba 54 bd 3b f4 ca bc e4 b4 c1 3c
       0.105623744 -0.051935557 -0.024774661 0.023645826
000240 67 aa 83 be 11 a1 a9 3e 72 1e 57 bd 86 bd d4 bf
       -0.25715944 0.33130696 -0.05251927 -1.6620338
000250 2b 74 b9 3f 17 77 0b 3e 50 f6 dc bd 2a d4 40 3e
       1.4488577 0.13619648 -0.10789168 0.18830934
000260 be dc 1f bd 8b 0c 81 bd 04 42 2d 3e a5 02 d5 bd
       -0.039028876 -0.063012205 0.16919714 -0.10400895
000270 ca 74 a0 bf f4 69 8d 3f db be 22 3e 17 10 b2 bd
       -1.2535641 1.1047959 0.15893118 -0.08694475
000280 44 47 36 3e 2c 5c f3 bd a9 68 b4 39 60 78 5a be
       0.17800623 -0.11882815 0.00034410253 -0.21334982
000290 aa 94 96 3c 98 2a 21 be 58 76 34 3f 26 14 79 3d
       0.018381435 -0.15738904 0.7049308 0.06081023
0002a0 be a7 f8 ba 6c f5 1f bc ed 7b 92 3c fd 81 06 3e
       -0.001897089 -0.009763103 0.017881358 0.13135524
0002b0 8d 49 0e bf 75 27 b4 3d ac 0e 6d be 51 b9 8e 3f
       -0.5558098 0.08796588 -0.23150128 1.1150304
0002c0 9e 04 9c be 54 1d 14 3d 79 fc d8 bd e7 60 a1 bd
       -0.30472273 0.036160782 -0.1059503 -0.07879811
0002d0 65 02 cf 3d 82 77 99 be 7b 0d 37 3e 98 b6 45 be
       0.101078786 -0.2997399 0.17876236 -0.19307935
0002e0 ea 36 4c 3f 92 db 4b be 2f 02 77 3c ff c9 29 3c
       0.7977129 -0.19907978 0.015076204 0.010363101
0002f0 23 24 85 3d 3e 2d a6 be fe dd 8b be 5b 4d b3 3c
       0.06501033 -0.32456392 -0.27317804 0.021887472
000300 b7 be 01 be 2d e8 80 be b5 67 8e 3d be 0d 37 be
       -0.12670408 -0.25177136 0.06953374 -0.17876336
000310 3e a6 bf be 8e fd 31 bc 81 6e 09 be d4 48 12 be
       -0.3743152 -0.010863675 -0.1342106 -0.14285594
000320 94 a6 b3 3d 6f fa 12 3d c1 66 4d be 67 ef 2d 3d
       0.08772007 0.035883363 -0.20058729 0.04246464
000330 b3 8b 54 3c 04 28 8f be 7e d4 d0 3c 1b 76 13 be
       0.01297276 -0.27960217 0.02549195 -0.14400522
000340 e9 a6 33 be 4d c1 8d 3d 85 79 75 bd 4b dc 77 be
       -0.1754414 0.06921635 -0.059930343 -0.24205129
000350 7a 50 58 3c dc 17 17 bd 58 b9 8d be 01 f0 ca 3c
       0.013202781 -0.03688799 -0.2768047 0.024772646

bn1.weight f4 [8]
000000 70 ab 42 3e 0b 43 67 3e ce de 52 3e f7 f4 00 3f
       0.1901071 0.22584169 0.20592806 0.50373787
000010 98 48 65 3e 14 16 0e 3f 6a 75 a8 3e db ab d7 3f
       0.22390974 0.5550244 0.3290208 1.6849321

bn1.bias f4 [8]
000000 c6 2f 9a 3e 0c 04 99 3d 69 97 de 3e ee d4 dc 3d
       0.30114573 0.07471475 0.43474892 0.107828006
000010 60 c6 c9 3d 08 69 0b 3e bb 19 c4 3e a2 28 0c c0
       0.0985229 0.13614285 0.3830088 -2.18998

bn1.running_mean f4 [8]
000000 9d ce 5a 3b 56 c6 31 3e b0 44 69 be 88 ca 7a bd
       0.0033387311 0.17360815 -0.22780108 -0.061228305
000010 01 6d 61 bd 53 90 1d bd fe d2 af be c2 e7 81 3f
       -0.055035595 -0.038467716 -0.34340662 1.0148852

bn1.running_var f4 [8]
000000 0d 0f ac 3f e5 ac e0 3f 2e 39 f8 3f a4 0f cc 40
       1.3442093 1.7552763 1.939245 6.3769093
000010 1e 96 71 3f e0 53 96 40 85 8c d4 3f 0c bb 06 41
       0.94369686 4.6977386 1.6605383 8.420666

layer1.0.conv1.weight f4 [8, 8, 3, 3]
000000 95 0e b8 3d a5 e7 7f bd d1 8b c1 bd b4 bf 1c 3e
       0.08987156 -0.062476773 -0.09450496 0.15307504
000010 77 bb bb 3c 43 2c fa bd 8a e6 55 3e 91 20 96 bd
       0.022916539 -0.122154735 0.20888725 -0.0733043
000020 b0 ad 1e bd d8 da 91 bc d2 16 27 bd 67 37 41 3c
       -0.03873986 -0.017804548 -0.040793248 0.011792994
000030 1e 73 65 b9 ce 76 7d bc 85 a9 80 bd b1 d8 bf 3b
       -0.00021882026 -0.01547022 -0.06282333 0.005854689
000040 3e 08 2e 3d b5 7d 93 3b 5b 6b 04 3e a9 fc 4c bd
       0.04248833 0.0045010694 0.12931578 -0.050045643
000050 c2 14 70 bd f1 2f 2f bd 52 5c 6c bd 59 53 a1 bd
       -0.058613546 -0.04277033 -0.05770523 -0.078772254
000060 29 8a 4e 3d d1 6b 3f 3d dc fc a0 3d 8a b5 84 bd
       0.05042473 0.04673368 0.07860729 -0.06479938
000070 f5 48 21 3e 9c fe 00 be 38 dc d9 bd a5 19 1d be
       0.15750487 -0.12597126 -0.106377065 -0.15341814
000080 ca d6 ac bd 25 25 80 bd ef 8c 10 3e 3d 30 e6 bd
       -0.08439405 -0.06257085 0.14116262 -0.112396695
000090 83 85 57 3d 77 22 ff 3c 56 a9 99 bc 0b 9f 40 bd
       0.05261756 0.031144364 -0.018757503 -0.047026675
0000a0 b5 26 1c 3d a8 5c 70 bd 5d 62 bd bc a2 47 b0 bd
       0.03812285 -0.058682114 -0.023118192 -0.08607413
0000b0 a4 46 20 3d 2b 3c 09 bd 2b 68 3b bd 59 44 67 3c
       0.03912987 -0.033504646 -0.04575364 0.014115416
0000c0 35 08 09 be b0 ae 91 be 01 5a eb 3e fa 59 83 3d
       -0.13382037 -0.28453588 0.45967105 0.06413646
0000d0 ae 1b ad be b4 2a 66 3d aa 5b 48 be 79 b0 73 3e
       -0.3381018 0.05619307 -0.19566217 0.23797788
0000e0 8e aa 46 3e 86 cd 11 be 5b 53 3b be 68 e2 19 3e
       0.19400999 -0.14238557 -0.18293516 0.15027773
0000f0 c2 04 2b 3d fe b4 b6 3e 4d 8e ba be e3 c9 30 3d
       0.041752584 0.3568496 -0.36436692 0.043161284
000100 1b e7 80 3e a1 9a ac be ea aa 9d 3d 26 62 ba 3e
       0.2517632 -0.33711722 0.07698615 0.36403006
000110 85 d5 a3 be 61 a3 2c 3d c9 77 a4 3e 29 f8 8f be
       -0.3199884 0.042147998 0.3212264 -0.2811902
000120 36 f7 df 3a 57 78 2b 3d 29 ba 44 be 8a ca 1d 3e
       0.0017087224 0.041862812 -0.1921164 0.15409294
000130 aa 4d c1 bc cb c2 a8 3d 44 6e 1c 3e 2e b1 15 3d
       -0.023596603 0.08240279 0.15276438 0.036545925
000140 7c ae 0d 3e 6d 61 67 bd 91 84 99 3d bb aa d7 bb
       0.13836092 -0.056489397 0.07495988 -0.006581632
000150 15 05 bf be dc 00 02 3c b7 50 96 3e 45 03 d1 be
       -0.37308565 0.007934775 0.29358456 -0.40822807
000160 7e 5a 20 3e 04 2d 09 3f f8 5b 1c be 2c 8a df be
       0.1565952 0.53584313 -0.15269458 -0.43660104
000170 d9 c4 d8 be fc 62 8d 3e 2f 4a 87 3e 12 9a 1e be
       -0.42337683 0.27614582 0.26423785 -0.1548846
000180 54 b9 42 3e 33 f3 11 3f 3d a8 af 3d e2 ac d2 bc
       0.1901601 0.5701172 0.08577011 -0.025717203
000190 2b 62 da 3d 65 7e a9 3c 0d 95 9b bd 5d 6d 28 be
       0.10663255 0.020690152 -0.075967886 -0.16447969
0001a0 28 e2 23 3e 9f 29 10 3d 24 74 d2 bc 25 c9 dc 3d
       0.1600424 0.035195943 -0.025690146 0.10780553
0001b0 bc e4 1c 3e 6f e8 94 3d fa f6 0c be bb 7c f4 3e
       0.1532163 0.07270896 -0.13766089 0.47751412
0001c0 39 03 75 3d bc 5b e1 be 18 7d ef 3e bf 68 27 bd
       0.059817526 -0.440153 0.46775126 -0.040871378
0001d0 e5 ba b7 be 4a 13 98 bc 70 55 da bc 3b 02 0f 3d
       -0.35884777 -0.018563885 -0.026652068 0.034914237
0001e0 a8 ec 26 bd 83 28 3b bd 6a ba b6 bd 04 4f 44 3c
       -0.040753037 -0.04569293 -0.089222744 0.011981729
0001f0 a6 4b 0e 3d b3 c4 8e be 4f b9 22 3e 65 4c a4 3d
       0.034740113 -0.27884445 0.15891002 0.080223836
000200 fd fd 67 3d c3 4f 7a bd ea cd 26 be 69 c3 82 3c
       0.056638706 -0.061111223 -0.16289487 0.01596232
000210 e1 a0 62 bd d9 00 81 bd 10 a8 fe bd 24 bd 5b bc
       -0.055329207 -0.0629899 -0.12434399 -0.013411794
000220 3c 77 b3 b9 f1 14 ab 3e 21 d3 23 be 3f 48 61 be
       -0.00034230377 0.33414415 -0.15998508 -0.22000216
000230 c6 3a 47 3e 16 e6 7c be fd 48 c4 be ed df ea bd
       0.19456014 -0.24697146 -0.38336936 -0.11468492
000240 59 71 22 be a5 db d0 3c 90 66 32 be 2b e7 f1 be
       -0.15863551 0.02549536 -0.17421937 -0.4724668
000250 52 60 bc bc 1e ab 53 3d e4 6a 82 be 63 46 d4 3e
       -0.022995148 0.051676862 -0.25472176 0.4145995
000260 a8 83 a5 3d 80 9a ba 3c a8 34 69 3d a9 2c 7e 3b
       0.08081752 0.02277875 0.056934983 0.0038783944
000270 b8 4f a6 bd a7 c9 18 3c 06 c4 4e 3d 19 56 cd 3b
       -0.08120674 0.009325421 0.05047991 0.006266367
000280 46 69 66 3b ca 83 eb bc 30 8d 72 bd 75 da 06 bd
       0.0035157963 -0.028749365 -0.05921668 -0.03292318
000290 b5 51 6d bd 7c a8 50 be 62 b5 fb bd a9 9a 7d 3d
       -0.05793925 -0.20376772 -0.122904554 0.061915074
0002a0 79 97 f7 3d 27 c6 b1 3c 49 d5 5e 3e cc a6 8e bd
       0.12089438 0.021700932 0.2176105 -0.06965408
0002b0 f1 60 8b 3e 1b 3e f7 3c 67 2f ba bd b5 01 01 bd
       0.27222398 0.030180981 -0.090910725 -0.03149577
0002c0 be 61 2c be 9b b3 22 bd 97 a4 54 be a2 ee 6d 3c
       -0.1683416 -0.039722066 -0.20765911 0.0145222265
0002d0 5b 28 a9 3d 07 38 02 be e9 48 2a bc 31 c9 c2 bd
       0.0825965 -0.12716685 -0.01039336 -0.095110305
0002e0 97 ce 5b be e4 18 44 bc bb 04 dd 3d ff 24 ec bd
       -0.21465527 -0.011968825 0.10791918 -0.11530494
0002f0 2e 44 76 3e 32 d9 a2 3b b4 46 3c 3e 19 5b 34 bd
       0.24049446 0.0049697394 0.18386346 -0.04403219
000300 78 14 24 bd ac 24 ca 3d 19 0f 18 be be 85 30 3d
       -0.040058583 0.09870276 -0.1484951 0.043096296
000310 4f b1 06 3e 1c bd 58 be 19 e4 5b 3d 3b c1 ca 3c
       0.13153575 -0.2116589 0.053684328 0.024750343
000320 e3 1b 6a bd 82 ae a1 3e a5 2a f2 3d 81 e4 44 3e
       -0.0571555 0.3157845 0.1182454 0.19227792
000330 56 95 9c bb 2e e2 23 bf 7f 1c 5c bd 4d d7 75 be
       -0.0047785444 -0.64017 -0.053738113 -0.24007912
000340 2f 29 b1 be 08 24 04 be c9 49 19 be 60 6c 98 bd
       -0.34601733 -0.1290437 -0.14969553 -0.07442546
000350 93 91 e9 bd 34 cb 1e 3f 90 f2 82 3f d6 48 1b 3f
       -0.11404719 0.62028813 1.0230274 0.60658014
000360 71 02 64 3e d6 4f 83 be b2 97 02 3c 15 20 10 bd
       0.22266556 -0.25646847 0.007970737 -0.035186846
000370 58 69 01 be 04 0f 9a bd 03 b4 99 bd 77 ab f8 bc
       -0.12637842 -0.07522395 -0.07505038 -0.030355198
000380 03 60 6f bd 07 bd 3c be 24 60 8d be 20 05 68 be
       -0.058441173 -0.18431483 -0.27612412 -0.22658205
000390 bc 18 20 bd 1e cf c7 bd 18 c8 5a b9 c6 8a ec bd
       -0.03908609 -0.09756301 -0.00020864641 -0.115499064
0003a0 f8 d9 01 bd bc 23 28 3e 67 e6 f7 3c c1 67 f6 3c
       -0.03170201 0.16419882 0.030261232 0.03007877
0003b0 7e 0f 1e be 18 05 66 3d 69 98 8a 3d 93 32 18 3d
       -0.15435597 0.0561572 0.06767351 0.037157606
0003c0 57 9d a2 bd 0c 37 56 3d e9 80 c7 3d f2 3f 26 bd
       -0.079401664 0.05229859 0.097413845 -0.040588327
0003d0 79 d0 e0 3d e6 d3 ff bd 29 7a bc 3c c2 b2 63 be
       0.10977263 -0.12491588 0.02300747 -0.2223616
0003e0 1d ba 3c be 80 66 c8 3d dc 02 88 be 35 af 11 ba
       -0.18430372 0.09785175 -0.26564682 -0.0005557419
0003f0 f1 2a 7d 3d 54 dc 27 bd d8 8d 1d be 20 c5 af 3b
       0.06180853 -0.040981606 -0.1538614 0.0053640753

layer1.0.bn1.weight f4 [8]
000000 02 bc f5 3e bf 2d 8e 3e 09 fb f4 3e 36 54 64 3f
       0.47995 0.27769276 0.47847775 0.89190996
000010 3c 40 98 3e 64 72 77 3f 11 24 9e 3e 6b 2b 6b 3f
       0.29736507 0.9665892 0.3088689 0.91863126

layer1.0.bn1.bias f4 [8]
000000 e8 dc 98 be 22 d9 cb 3e 3e 0c a0 3c 34 03 2b bf
       -0.29856038 0.39814097 0.019537088 -0.6680176
000010 89 58 d2 3d 79 54 9b 3d 23 98 85 3e 2b 37 11 3e
       0.10270793 0.07584471 0.26092634 0.14181201

layer1.0.bn1.running_mean f4 [8]
000000 6f 10 af bd c6 0f 01 3e ea f9 59 be e5 15 31 bf
       -0.08548056 0.12603673 -0.21286741 -0.69174033
000010 8c b0 5e bf 53 ab 17 bf d1 82 a1 bd 83 6b 8d be
       -0.8698814 -0.59245795 -0.078862794 -0.27621087

layer1.0.bn1.running_var f4 [8]
000000 21 1d cd 3d 20 b2 99 3d 0c cf 94 3d ae e9 66 3e
       0.100153215 0.07504678 0.072660536 0.22550079
000010 af 11 de 3d 05 e6 77 3f 40 c7 5a 3d 0d 62 1d 3f
       0.10843217 0.96835357 0.053412676 0.6147774

layer1.0.conv2.weight f4 [8, 8, 3, 3]
000000 de 9a 46 bb 9c 5d e8 be fc d1 a4 bd 54 53 87 bd
       -0.003030471 -0.45383918 -0.08047864 -0.066076905
000010 81 b0 9c bd 2e 24 5e be f0 a7 5e 3d 14 fa 89 bd
       -0.07650853 -0.21693489 0.054359376 -0.06737152
000020 bd 0d ee be c1 24 85 3b 73 87 e8 3d d7 66 c6 3b
       -0.46494856 0.0040632193 0.1135396 0.00605474
000030 32 a1 8e 3d c8 7e ca bd b5 f7 a3 bc 25 3b 66 bd
       0.06964339 -0.09887463 -0.020015577 -0.05620875
000040 40 fd 38 3d 0c 9a 32 bd cc 4f 28 bc fc 75 5f be
       0.045163393 -0.04360394 -0.010272931 -0.21822351
000050 00 69 69 3e f1 4f d9 3d 65 46 62 3e 79 63 9a be
       0.2279396 0.10610951 0.22097166 -0.30154017
000060 f7 a8 e8 bc e7 35 bd 3d 5d 09 94 bd 6b 66 ee 3d
       -0.028400881 0.09238797 -0.072283484 0.116406284
000070 22 ac a2 bd ff bb dc 3d c9 e6 7a be 7b 22 b9 bd
       -0.07942988 0.10778045 -0.245021 -0.0903978
000080 8e 81 c8 3e 5d 5b 1a bd e7 8b 6c 3d 7d 6f 69 bd
       0.39161342 -0.037684787 0.05775061 -0.05699109
000090 77 ce 33 3d c6 36 a3 bd 01 16 c8 3d 25 22 d5 bd
       0.043898072 -0.079694316 0.09769822 -0.10406903
0000a0 88 f5 64 3d 9b 04 86 bd 14 bb a1 3d f6 8c 51 bc
       0.05589822 -0.06543847 0.078970104 -0.012789955
0000b0 7d a1 34 3d 58 cb da bd 02 87 ab be 46 98 86 3e
       0.04409932 -0.10683316 -0.3350144 0.2628805
0000c0 fc 8e 14 3e 2d 0b 2e 3f d3 73 cd be 15 3a 3a bc
       0.14507669 0.679858 -0.4012743 -0.011366387
0000d0 a0 2d 4b be 43 20 96 3d d4 5f a2 bd 8e e2 8e be
       -0.19841623 0.07330372 -0.07928434 -0.27907223
0000e0 cd 23 c4 3e d1 32 96 3d ef a7 17 3e 7b 18 4a be
       0.38308564 0.07333911 0.14810155 -0.19735901
0000f0 91 69 c8 bc a4 d6 6e 3c df 0c 63 bd 15 b2 0d 3d
       -0.0244644 0.0145775415 -0.055432197 0.03459366
000100 69 d8 0a 3f 9f 61 35 bf 7b c5 57 bd d0 9e e1 be
       0.54236466 -0.7085208 -0.052678566 -0.44066477
000110 e0 86 da 3e af 73 a1 bc 2f b3 34 be 97 69 43 3e
       0.42681026 -0.019708483 -0.17646478 0.19083248
000120 96 2d d6 3c 4f f3 9e bd 92 4e 79 3d dd 96 c7 3d
       0.026144784 -0.07761251 0.060865946 0.09745572
000130 39 52 ab 3d 5d f3 f7 bb 90 b9 73 3d e6 78 9c 3d
       0.08365292 -0.007566853 0.059503138 0.07640247
000140 f8 fb 86 be f4 95 27 be 15 ff a4 be de 45 c5 3d
       -0.26364112 -0.16365796 -0.32225862 0.09632467
000150 4c ff 3b 3d 5b db 36 be 5b e2 40 be d0 d9 bc 3d
       0.045897767 -0.17857115 -0.18836348 0.09221232
000160 3c ed bd 3d e1 da 16 be c4 94 a4 bc c6 18 b6 ba
       0.092737645 -0.14731933 -0.020090468 -0.0013892881
000170 c8 7d 79 3c b4 2e 96 bd 1a 53 3c 3d 88 25 a6 bd
       0.0152277425 -0.07333127 0.04597769 -0.08112627
000180 fe ff 8f 3d 83 6f 23 3e 70 80 28 3d 4a cc 2f 3e
       0.070312485 0.15960507 0.041138113 0.17167774
000190 b1 2d 6d 3e 2b d2 7f 3d cf 30 62 be 3e 3a c0 bd
       0.23161961 0.06245629 -0.22088932 -0.09386109
0001a0 02 61 11 3c 3f 3e 08 bf f9 90 96 be a2 3f 06 be
       0.008873226 -0.5321998 -0.2940748 -0.13110211
0001b0 d7 ae eb ba 5a 45 40 3e 62 30 50 3b 40 e0 1e 3e
       -0.0017981183 0.18776456 0.003176712 0.15515232
0001c0 9a f6 3a 3e 7f a8 8c 3d bb 67 a5 bd b1 9a b5 bd
       0.18258134 0.068680756 -0.08076426 -0.08867396
0001d0 54 36 04 be 68 e6 13 be 07 a5 5a bd bc e8 71 bd
       -0.1291135 -0.14443362 -0.05338004 -0.059059843
0001e0 94 48 a8 3e 41 45 a0 3d ea c5 76 3e 56 2c 36 3e
       0.32867873 0.07825709 0.24098936 0.1779035
0001f0 9d b6 ab 3e 97 22 76 3e a1 99 5b 3d 61 4b 94 3e
       0.3353776 0.24036632 0.05361331 0.2896376
000200 23 e3 15 3e 35 b9 a3 3d 5a af 01 be 30 5b a4 3d
       0.14637427 0.0799431 -0.12664548 0.08025205
000210 8a df 80 bd 85 51 31 be 5d c2 11 be c1 c8 10 be
       -0.06292637 -0.17316253 -0.142343 -0.14139082
000220 bd 91 bb bd 0a d4 0a bd 1e 4c 6a b9 af 3a 95 bd
       -0.09158657 -0.033893622 -0.00022344335 -0.07286584
000230 d9 dd 64 bd 4c ac ae 3d 8c fa a6 be dc d8 d4 bd
       -0.055875633 0.08528957 -0.32613027 -0.10392925
000240 c6 7f 47 bd d3 07 16 3d 68 c1 5a 3d f2 d6 ec bd
       -0.04870584 0.036628556 0.053407103 -0.11564435
000250 ff 41 2d bd f2 9b 96 bb e6 8c 72 3d e1 4a f8 3b
       -0.042299267 -0.004596227 0.059216402 0.0075772856
000260 ce 85 b1 bd 19 fb a1 3d 63 fd 55 3d 87 b7 54 3d
       -0.08668099 0.07909221 0.0522436 0.051932838
000270 cf 9c 22 3e 2c a2 c9 3d 8b e3 d2 3d 74 94 f6 bd
       0.1588013 0.09845385 0.102973066 -0.12040034
000280 5c 4e 8b be 9f ed 4a bd d8 61 e7 bd 1e cc 83 3e
       -0.2720822 -0.04954302 -0.11297959 0.25741667
000290 ee c8 32 3e d9 82 7e bd 84 c9 25 3e 30 bd f4 3d
       0.17459461 -0.062136505 0.16190153 0.11950147
0002a0 d8 4b 32 3e 24 22 c0 bc a0 85 3c bd 2d 7e 25 3c
       0.17411745 -0.02345378 -0.046025872 0.010100883
0002b0 ae f1 6d 3d 0e 9f 13 3d ca 06 ad 3d 12 42 43 3e
       0.05809181 0.03604036 0.084485605 0.19068173
0002c0 18 ab 5b 3e 43 35 06 bd 87 80 02 3d 46 72 66 3e
       0.21451986 -0.032765638 0.031860854 0.2250453
0002d0 fd 2d 15 bd 1a 64 1e 3d db d9 9b 3e 2d da ab be
       -0.03642081 0.038669683 0.30439648 -0.33564892
0002e0 a4 33 8f be 74 68 18 3e 9d dd c3 be 78 03 cf be
       -0.27969086 0.14883596 -0.38255015 -0.40432334
0002f0 e4 7e 10 bd 9d 93 23 be 08 24 19 be bf 46 9b bd
       -0.035277262 -0.15974279 -0.14955151 -0.07581853
000300 50 cb 3c 3d a0 27 a2 bd f8 63 5e 3c 3b 7f 3e 3e
       0.04609233 -0.07917714 0.013573639 0.18603222
000310 d1 62 21 3e aa 5d 61 3c 47 81 18 bd e1 01 8d 3d
       0.15760352 0.013755241 -0.037232663 0.06885124
000320 fa c0 7a bb 5a e9 9c be c3 de 7d 3d 95 7a 3f 3e
       -0.0038261996 -0.30646783 0.06198002 0.18699105
000330 9b cf 1e be 42 f5 93 bd 85 d9 1b 3e 9e 04 98 bd
       -0.15508883 -0.072245136 0.15219696 -0.07422756
000340 09 c6 c3 bd 2d 08 97 bd b6 78 1c 3e d1 56 22 be
       -0.095592566 -0.07374606 0.15280423 -0.1585343
000350 b8 9a 11 be 3e eb f1 3d 5d fa f3 3c 63 2d 9a bd
       -0.14219177 0.11812447 0.029782468 -0.07528188
000360 cd 7f af 3c 04 a2 26 3d bf 6f 62 3c 91 0e 6b ba
       0.021423245 0.040681854 0.013820588 -0.0008966709
000370 95 48 52 3e 7a bf d0 bd ea 00 67 3c 10 8b e7 bd
       0.205355 -0.10192771 0.014099339 -0.11305821
000380 10 5a c4 3d fb 28 eb bd 49 3c 47 3e 42 7b d7 bc
       0.095874906 -0.11482426 0.1945659 -0.026303891
000390 79 03 82 3d 7e ac e8 3d 9e fb 6a 3d cb db 4f be
       0.063483186 0.11361025 0.057368867 -0.20298688
0003a0 0c 2e 05 3e 7a 07 c9 3c 6c 60 8a bc 9a ac 33 3d
       0.13005847 0.024539698 -0.01689168 0.043865778
0003b0 5f 7d a6 bd d2 bb 11 3e 3d f8 9b 3e 5b 99 a0 3e
       -0.081293814 0.14231804 0.30462828 0.31367
0003c0 c1 42 6b be 15 30 e4 be ae 8b 94 be d3 e7 2f 3d
       -0.22974683 -0.44567934 -0.29012817 0.042945694
0003d0 6c 0a 41 be 8c e0 e0 3d 39 82 79 be d3 1a bb be
       -0.18851632 0.10980329 -0.24366082 -0.36543903
0003e0 7c 04 6a bd 0f 07 d7 3d 06 42 8c 3e 3e 73 fe bc
       -0.057133183 0.10499393 0.27394122 -0.031060811
0003f0 13 cb df 3c 19 80 dd bd ae 9f 41 be 9e c9 45 bd
       0.027318513 -0.10815448 -0.18908569 -0.04828798

layer1.0.bn2.weight f4 [8]
000000 4a 41 79 3f ab 96 db 3e fe 47 ae 3e 55 9c 01 3f
       0.9736525 0.42888388 0.340393 0.5062917
000010 af af cd 3e 12 41 4d 3f f1 65 e4 3e 8b 79 25 3f
       0.40173098 0.80177414 0.44609025 0.64638585

layer1.0.bn2.bias f4 [8]
000000 ed 6e cd be 3c 82 12 3f c8 df 21 3e e9 c3 80 3f
       -0.40123692 0.5722997 0.15808022 1.0059787
000010 11 0c 16 3f a5 13 5f be 12 bc 2e 3f de 25 1f 3f
       0.5861216 -0.21784838 0.6825572 0.62167156

layer1.0.bn2.running_mean f4 [8]
000000 db 5a 84 bd 8b d1 23 be d7 ec 8f bd 6a d1 eb be
       -0.06462642 -0.15997903 -0.070275955 -0.46058208
000010 45 f6 58 be c4 fd 1a bf 4c aa d1 3c 82 76 d3 3d
       -0.21187694 -0.60543466 0.0255939 0.10325338

layer1.0.bn2.running_var f4 [8]
000000 51 a7 59 3e 15 5a 2c 3e ce b8 d4 3d 7f 99 3d 3e
       0.21255232 0.16831239 0.10386811 0.18515585
000010 f7 ba 11 3e 0c 2e 8a 3e 5b ca 64 3e 37 6e bb 3e
       0.14231478 0.26988256 0.22342817 0.36607525

layer2.0.conv1.weight f4 [16, 8, 3, 3]
000000 28 80 08 bd 93 c8 0d bd 5a 45 d8 3a b1 b7 46 3d
       -0.033325344 -0.03461511 0.001650016 0.048515026
000010 d0 1c c7 3c c5 8c 5b 3c c8 5d 40 bc 87 ab 50 3d
       0.024305731 0.013400261 -0.011741109 0.05094483
000020 43 eb 79 3d 5c 1b dd 3d 1d 2d 0e bd db 5b f4 bd
       0.06101538 0.10796234 -0.034710992 -0.119315825
000030 88 f0 2d be 29 0d 8c be 76 86 56 be c4 b5 b0 be
       -0.16986287 -0.2735379 -0.2094973 -0.34513676
000040 c1 1e e2 be 4d ff 56 be 61 e4 27 be 5f 41 51 bd
       -0.44164088 -0.20995827 -0.16395713 -0.051087733
000050 13 1d 13 3e d9 29 b2 3d 47 dc 74 bd c7 e0 81 3c
       0.1436656 0.08699388 -0.059780385 0.015854253
000060 a8 ca 88 3e 6b 22 34 bd 58 82 10 be 9d 17 7a bd
       0.26717114 -0.043978136 -0.14112222 -0.061057676
000070 13 8c 99 3d 4f 55 b9 3d ca cf 0e 3d cb 6b ca 3d
       0.0749742 0.090494744 0.03486613 0.09883841
000080 79 86 fe 3d 4e 74 9d 3d 66 23 08 bd 14 14 91 3d
       0.124279924 0.07688199 -0.033236884 0.07083908
000090 76 38 0b 3d ec 6b 13 3c 96 60 99 3d 00 9e 1c 3e
       0.033989392 0.008997899 0.074891254 0.15294647
0000a0 fe b9 62 bd ef fe d6 bd c4 2c 95 3e db 1e a9 3c
       -0.055353157 -0.104978435 0.29135716 0.020644596
0000b0 6c 4c b0 bc d8 c7 11 3d 0f d2 b5 3d 7c 76 16 3d
       -0.021520816 0.035590976 0.08877956 0.03673409
0000c0 60 7c e5 3a 27 60 4b 3e 14 3b 3e 3e e0 02 c4 bd
       0.001750838 0.19860898 0.18577224 -0.09570861
0000d0 c0 84 50 3d f0 e3 05 3e ef 3a 38 bc be a9 ed bd
       0.05090785 0.13075233 -0.01124452 -0.116046414
0000e0 d2 c4 8a bd 46 ed b4 bd a9 ab ab bd 8e 18 6b bd
       -0.06775822 -0.08834319 -0.08382351 -0.057396464
0000f0 a4 8c fc bc f6 48 30 bd 03 34 cc bc 3b af 8e 3d
       -0.030828781 -0.04303833 -0.024927145 0.06967016
000100 f3 47 c0 3c ed aa 41 3e 3e d9 04 3f cc 3b 43 3e
       0.023471808 0.1891286 0.51893985 0.1906578
000110 03 b2 d8 3d 7e b0 18 3f c4 d9 a1 3e 6b df 94 3d
       0.10580828 0.59644306 0.31611454 0.07269176
000120 52 33 0c bc ce b7 fc bc 3b 70 f6 bc d7 fb 03 bd
       -0.008557158 -0.030849364 -0.030082813 -0.032222595
000130 f1 43 40 bd f8 e8 a6 bd 2e 10 d1 3c de 63 14 bc
       -0.046939794 -0.08149904 0.02552041 -0.009057013
000140 76 0a 9b bc c5 78 60 3d f2 8b 2e be de a0 91 bd
       -0.018925887 0.054802675 -0.17045572 -0.07110761
000150 1b b9 71 3e b3 d0 ec bc c8 d2 5e be 1a ad 4f 3e
       0.23605768 -0.02890811 -0.21760094 0.20280877
000160 29 f1 fe 3d e4 2f f0 bd f9 98 f7 bb 0e 13 a9 3e
       0.124483414 -0.117278844 -0.0075560776 0.3302235
000170 d3 18 82 3d 43 75 5e be 64 a2 8c 3e 9b 6f aa 3e
       0.06352391 -0.2172442 0.27467644 0.33288273
000180 6c 47 00 bf d4 5b 36 be 5f 82 bd 3d 37 29 b8 3d
       -0.5010898 -0.17808467 0.09253382 0.08992236
000190 66 39 94 3d b7 96 10 bd 85 2b 9b 3d c8 45 55 3d
       0.072375104 -0.035299983 0.0757666 0.0520685
0001a0 56 fb 03 be b6 82 e1 3b b4 ea 4c 3d 8e c6 a9 bd
       -0.12888846 0.006882037 0.050028518 -0.082898244
0001b0 d2 e4 8a 3d e2 43 11 be a9 ff a0 be 78 4e 62 3e
       0.06781925 -0.14186051 -0.31445053 0.22100246
0001c0 e3 af c6 3c f7 80 1d be fe d0 d8 3d 61 71 4d 3e
       0.024253791 -0.15381227 0.10586737 0.20062782
0001d0 66 5c 13 3e a9 59 17 bd 26 27 62 bd 60 d3 84 3d
       0.14390716 -0.03695074 -0.055213116 0.06485629
0001e0 ed e5 16 3d c2 fb 54 3d c3 28 fa 3d ea 4e 53 3d
       0.036840368 0.051997907 0.12214806 0.05158893
0001f0 d0 5c df 3d 85 cc 0c 3e f0 35 b6 bb 35 5d 7b 3d
       0.109063745 0.13749893 -0.005560629 0.061368186
000200 22 02 7c 3c 43 53 b1 3d 9b ee cd 3c 8b 36 31 3b
       0.015381368 0.08658459 0.02513819 0.0027040567
000210 d7 ac ef 3d f0 31 3e bd c7 1f 75 be 80 f1 f6 bc
       0.117028885 -0.046434343 -0.23937903 -0.030144453
000220 bf b1 87 3e 88 d5 00 3e d6 ab bc be 3a 6b 1a 3e
       0.26502797 0.12581456 -0.3684985 0.15079966
000230 7c ca d2 3e c0 21 98 be 57 20 94 be 56 de 0f 3e
       0.41170108 -0.2971325 -0.28930923 0.14049658
000240 b1 42 83 3d 75 2f 23 3d c0 6f 8b bc e8 92 dd bc
       0.06409205 0.03984018 -0.01702106 -0.02704759
000250 48 1c 34 3d a4 9b 02 bb e5 35 a7 3d ea fa b3 3d
       0.043972284 -0.0019929195 0.081645764 0.087880924
000260 40 1a 28 3d 51 6c 26 3e ad 64 98 3d b1 47 16 b8
       0.04104066 0.16252257 0.074410774 -3.5829555e-05
000270 1a 04 8a bd 9c 8f 73 bd 12 dd 4d bd bd a3 f6 bd
       -0.067390636 -0.05946313 -0.050259657 -0.12042949
000280 73 90 e4 bc 4a 05 b4 bc 66 b6 3e 3d 9e 60 1d bd
       -0.02790091 -0.021975178 0.046560667 -0.03842222
000290 02 a9 63 bb eb 4e 86 bb b7 52 b9 bc 81 98 33 bd
       -0.0034738188 -0.004098763 -0.02262245 -0.04384661
0002a0 6e b2 04 3d c8 fe 4e bd 4a b8 e5 3c 02 01 48 bd
       0.032396726 -0.050535947 0.028041977 -0.048829086
0002b0 ad ad b1 bd 07 c0 80 bc 99 ea d3 3e f3 d4 27 3f
       -0.08675704 -0.015716566 0.4138992 0.6555931
0002c0 4f d0 d9 3e 9f a2 bb be f1 fa 30 bf 46 c1 fa be
       0.4254174 -0.36647508 -0.69132906 -0.4897558
0002d0 4b 7e ac bd 6c 9a d0 bd 7b 99 66 3d b7 01 9b 3c
       -0.08422526 -0.10185704 0.056298714 0.018921716
0002e0 69 12 39 3c 0c 32 95 bd 60 f1 20 3d 8e 02 06 3d
       0.011295893 -0.07284936 0.039292693 0.03271728
0002f0 0f 7e 47 3d 66 25 81 bd cc fc 72 bd ca 79 9a bd
       0.048704203 -0.06305961 -0.059323117 -0.07542761
000300 c7 5d 68 3c fc 3b c7 3d 82 2c d4 3d d7 23 f7 3c
       0.0141825145 0.09728238 0.10360052 0.030168457
000310 3c ea 4c bc 1f 49 28 bd 94 74 26 bd 46 88 86 3b
       -0.012507018 -0.04108536 -0.04063852 0.0041056005
000320 52 b3 35 3d f3 2a a9 3c 5a 6c c5 bd c3 a8 0e be
       0.044360466 0.020650363 -0.09639807 -0.13931565
000330 21 82 01 3d 03 87 e6 bb 57 47 85 3d 63 c8 f3 3d
       0.03161824 -0.0070351376 0.065077476 0.11903455
000340 41 0e 10 3e 51 09 34 3d 7b 11 49 be 21 8d b8 be
       0.14067937 0.043954197 -0.19635575 -0.36045173
000350 9c 12 08 be 00 64 19 3c 7c 74 8c 3e a6 f7 0c 3e
       -0.13288349 0.009362221 0.2743262 0.13766345
000360 6c d2 1d 3d 00 1f 40 3d 9f 00 3c bd 35 57 b4 3d
       0.038530752 0.046904564 -0.04589903 0.08805696
000370 29 1a 81 3d dd d8 ad bc b1 8e 3b 3d 64 9e 8f 3c
       0.06303818 -0.021221573 0.045790378 0.017531581
000380 af 2a ed b9 10 10 05 bc cf a5 8a be 4c 31 88 bd
       -0.00045235964 -0.008121505 -0.27079627 -0.06650028
000390 94 10 2c 3e 01 7b 42 3c 1f 13 b9 3d 7d 24 f3 3d
       0.16803199 0.011870147 0.0903685 0.11872194
0003a0 5b dd 53 3d 79 84 66 3d 83 92 64 3e 75 d3 91 3e
       0.051724773 0.05627868 0.22321515 0.2848164
0003b0 c1 44 a7 3e 1f d5 e9 bc 8f 84 a6 3d 5a 9e 75 3d
       0.32669643 -0.028544007 0.08130752 0.05996547
0003c0 f8 65 bf be 7d 44 8e be 27 6f cb be 15 68 1b 3e
       -0.37382483 -0.27786627 -0.3973324 0.15176423
0003d0 2e 79 b7 3d f5 75 81 3d 08 ec d8 3d 97 08 2b 3d
       0.0895866 0.06321327 0.105918944 0.04175624
0003e0 1c 69 3b 3e 7d 0a af bd 92 7c b4 bc af 04 8e 3d
       0.18301815 -0.08546922 -0.022032056 0.06934487
0003f0 dd 87 84 bd d6 a3 ac be 1b 08 ec be f5 ac 98 3d
       -0.06471226 -0.33718747 -0.46099934 0.07454864

layer2.0.bn1.weight f4 [16]
000000 eb fe f0 3e 2c 2a e6 3e fa ad 27 3f e9 bb b5 3e
       0.47069487 0.4495405 0.6549984 0.35494927
000010 11 bc 13 3f 54 21 0e 3f 8d f9 1c 3f d9 8f 17 3f
       0.5770884 0.55519605 0.61318284 0.5920387
000020 72 49 ef 3e 6f 98 1d 3f 12 0c 12 3f d0 31 13 3f
       0.46735722 0.6156072 0.5704967 0.5749788
000030 40 bd 03 3f 6b b6 b8 3e cf 39 25 3f 98 1a 67 3f
       0.5146065 0.36076674 0.64541334 0.90274954

layer2.0.bn1.bias f4 [16]
000000 03 59 f6 3d db d2 f3 bb 2c 6d 8c bd 11 0f fe 3e
       0.120286964 -0.0074409074 -0.068567604 0.4962087
000010 be c0 29 bd 87 24 c1 3c 80 c8 f4 bd f2 17 ae bc
       -0.04144358 0.023576988 -0.11952305 -0.021251652
000020 d9 a5 32 3d bc 85 87 bd 70 03 6e 3d 75 ad d5 3c
       0.043615196 -0.06617305 0.058108747 0.026083687
000030 c1 28 bb 3d 9d 07 52 3f 40 9b 96 3c 8f 57 80 bf
       0.091386326 0.82042867 0.018384576 -1.0026721

layer2.0.bn1.running_mean f4 [16]
000000 a8 cf 3c 3f 79 ff 09 3f 8c 1f 05 bf 4e f6 94 3f
       0.7375436 0.53905445 -0.5200126 1.1637666
000010 0e 60 34 be c5 92 b8 bf d4 8d ad bf ca 93 95 bf
       -0.17614767 -1.441979 -1.3558908 -1.1685727
000020 d5 e2 31 3f 8e 43 ff bd 74 dd c4 bd 5c aa f9 be
       0.69486743 -0.12464057 -0.09612551 -0.48762786
000030 0d a6 2d be ec 70 fc 3f 38 95 3f be 49 84 9a 3f
       -0.16957875 1.9721961 -0.18709266 1.207162

layer2.0.bn1.running_var f4 [16]
000000 28 97 4d 3f d2 07 75 3e 68 4f a9 3f 0f f2 8f 3e
       0.8030877 0.23928764 1.3227358 0.28114364
000010 b2 fc 4d 3f df 18 83 3f dd 38 6e 3f 7a 4d 67 3f
       0.8046371 1.0241965 0.93055516 0.90352595
000020 24 06 41 3f b1 79 69 3f 4a ce 88 3f 38 f6 80 3f
       0.75399995 0.9120131 1.0687954 1.007514
000030 51 01 43 3f ee b1 7f 3f 4a e1 a5 3f 1b c4 48 3f
       0.76173884 0.99880874 1.2959378 0.78424233

layer2.0.conv2.weight f4 [16, 16, 3, 3]
000000 dc fa 27 3e a5 de 8b 3e 71 49 fe 3e 71 25 45 3d
       0.16404289 0.27318302 0.49665406 0.04813141
000010 c3 ca 00 3f 67 83 07 3f ef 3a b0 3e 41 4d 6d 3e
       0.5030939 0.5293488 0.34419963 0.23174001
000020 07 d0 1c 3e 1c b7 92 3d 2c 12 86 3d 16 0c c2 3d
       0.15313731 0.071638316 0.06546435 0.094749615
000030 56 cc 69 3d f9 1e 2f bd 19 e6 a4 3d 91 2b 67 3e
       0.057079636 -0.042754147 0.080517 0.22575213
000040 0e 93 b7 3d 66 84 d5 3c 63 c2 59 3c 3f ef 61 3c
       0.08963595 0.026064109 0.013290974 0.013789951
000050 09 77 1b bd d3 da c8 3d 05 0e 1e 3e ee 45 a0 3d
       -0.037955318 0.098073624 0.15435036 0.07825838
000060 bc 79 a3 bb 71 a8 3f bc 70 c7 cb bc 9b 23 ed bc
       -0.004988877 -0.011697874 -0.024875373 -0.028947642
000070 ed b1 0f be 83 10 10 be e8 da fc 3a bb 05 26 3d
       -0.14032717 -0.14068799 0.0019291313 0.04053281
000080 48 0a 89 3c ab be 02 3d cb f5 c5 3d a9 65 9c 3d
       0.016728535 0.031920116 0.09666022 0.07636578
000090 8d 42 f4 bc 5c 46 3f bd 46 2b dc bc 48 45 33 3d
       -0.02981689 -0.04669796 -0.026876103 0.043767244
0000a0 a6 c3 d9 bd d5 cb 2c bd 28 fe 82 bc 60 d8 77 bd
       -0.1063302 -0.042186577 -0.015990332 -0.060509086
0000b0 82 3c e0 bd 11 d2 85 bc b3 d2 51 bd 39 12 0f bd
       -0.10949041 -0.016335519 -0.05122633 -0.034929488
0000c0 ea 9c 9e 3c 3a 38 e7 bd 33 3d a8 bc e9 21 65 bd
       0.019361932 -0.11290021 -0.020536995 -0.055940542
0000d0 6d 81 7b bd 38 7b 37 3d aa 79 7f 3b 22 a3 9f 3c
       -0.061402727 0.044795245 0.003898243 0.019486967
0000e0 a3 27 d1 3b fc fe 1f bd 86 28 55 bd 75 a9 1e 3d
       0.006382899 -0.03906153 -0.0520406 0.038735826
0000f0 f5 d9 c8 3c 0f ba cc bc 16 dd c0 ba c6 75 55 3d
       0.024517993 -0.024991063 -0.0014714326 0.05211427
000100 bf dc 40 3d e4 d2 a1 bc 59 92 0c 3d df 66 7b bd
       0.04708552 -0.01975388 0.034319256 -0.061377402
000110 e9 fb 07 3d 29 bc 80 3d 43 d7 6f 3c 9e 00 b7 bd
       0.033199225 0.06285889 0.014638725 -0.089356646
000120 b5 9f d3 3c a7 f1 2b bc 39 d4 a3 bd 3a ac b3 bc
       0.02583299 -0.010494626 -0.07999463 -0.02193271
000130 d5 38 8e 3d c0 1f af 3c b8 3f 6c bc c8 e9 3c bc
       0.069444336 0.021377444 -0.014419489 -0.011530347
000140 46 9f ca bd 73 44 24 bd c8 96 28 3b 16 f4 8e bb
       -0.0989366 -0.04010434 0.0025724638 -0.0043625934
000150 1d 53 ae bb 9f 51 17 3c d0 77 ad bc d6 1a bc bc
       -0.0053199665 0.009235769 -0.021175295 -0.022962015
000160 36 a8 e9 3c 6e 5f f0 3c f0 2c f8 bc 40 6a 83 bd
       0.028522592 0.02934238 -0.030294865 -0.0641675
000170 bd 69 04 bd 18 80 8a bd 01 f7 8b 3c 2a 4a 1c bd
       -0.032327402 -0.06762713 0.017085554 -0.038156666
000180 05 d0 a7 bb f0 fa 1e bd e2 10 14 bd f6 be 22 bc
       -0.0051212334 -0.03881353 -0.036148913 -0.009933224
000190 74 df 0c bb 63 56 98 bc b3 07 b1 3c f7 d6 09 bc
       -0.0021495493 -0.01859588 0.021610117 -0.008413068
0001a0 01 e2 f9 3d 68 74 d8 3c fb f6 de 3c e7 70 30 3d
       0.1220131 0.026422694 0.027217379 0.043076422
0001b0 8e fc 79 bc 6f 9c 2b bd 99 d3 f6 bc a5 98 57 3c
       -0.015257968 -0.041897234 -0.030130195 0.013158952
0001c0 a8 1d b8 bc c1 4b fd 3b 9d 4d 7b 3b 89 c1 17 bd
       -0.022475079 0.007729978 0.0038345822 -0.037049804
0001d0 6d bb 24 bc ca f9 b5 bd 61 c8 43 3a ba 7a 43 bc
       -0.010054451 -0.08885534 0.00074685185 -0.011931116
0001e0 d7 47 91 bc 08 12 36 3e f2 10 de 3d 2e 77 58 3d
       -0.017734451 0.17780316 0.10843076 0.052848034
0001f0 eb f0 a7 3c 3d c0 e0 3d be fd cf bc a1 76 3a bd
       0.02050062 0.109741665 -0.025389548 -0.04552329
000200 3d a4 98 bc 26 28 04 bc 84 da fe 3d 06 2e a9 3a
       -0.018633002 -0.008066213 0.12444022 0.0012907393
000210 27 fe ed bc 1f 21 a6 bc 59 9f 44 bd 55 8b ac bd
       -0.029051853 -0.020279465 -0.04800353 -0.08425013
000220 e1 2d 0d be b0 14 2d 3e 71 6d 46 be 6d 9c c3 be
       -0.13787033 0.16902423 -0.19377686 -0.3820528
000230 82 74 88 bb 62 de c5 bc da e5 26 be a5 0e 09 3e
       -0.0041642794 -0.024153892 -0.16298619 0.13384493
000240 08 1c 91 3d 38 ae 39 bd aa 31 c4 ba 4e e5 22 3d
       0.07085425 -0.045332164 -0.0014968414 0.039769463
000250 3c 8f d1 3c 7d fd 39 bd 93 e6 d0 3d e8 74 24 3b
       0.025580995 -0.04540776 0.102002285 0.0025094096
000260 1e a0 8b bd 63 4b a5 bc 51 0e 2a 3d 1d bb a8 3d
       -0.06817649 -0.020177549 0.04151756 0.08238814
000270 ef 3c 20 3d 73 c6 06 3e 4b 08 70 bc 8c b8 3a 3e
       0.03912061 0.1316164 -0.014650415 0.18234462
000280 00 44 70 3d 97 11 d2 3d d6 09 98 bc 30 29 a0 bd
       0.0586586 0.10257261 -0.018559378 -0.07820356
000290 ac 38 44 bc 9c a4 69 3d f7 07 6d 3c 92 db ac 3d
       -0.011976402 0.05704175 0.014467231 0.08440317
0002a0 02 56 58 3d e4 e5 5a bd 83 28 33 3c eb 78 67 bc
       0.0528164 -0.053441897 0.010934952 -0.01412795
0002b0 2d a0 75 bd 58 76 48 bd 51 f8 e4 bc b7 fc c6 bd
       -0.05996721 -0.048940986 -0.027950438 -0.0971617
0002c0 c3 3e 6a 3d d0 8b a1 bd 7a e9 1a be 16 c2 79 3d
       0.05718876 -0.07887995 -0.15128127 0.06097611
0002d0 40 5a 44 be c6 d2 3c be 7c ad 2e 3c a6 50 14 be
       -0.19175053 -0.18439779 0.010661479 -0.1448389
0002e0 1b 57 49 be 10 9d 4d be bc c2 e5 bd c0 a6 59 be
       -0.19662134 -0.20079446 -0.11218783 -0.21255016
0002f0 75 0e 68 be 82 be 9f bc 5c 1c de ba 60 14 1f bd
       -0.22661765 -0.01950002 -0.0016945708 -0.03883779
000300 ea a6 c0 bd 02 80 e1 bd 45 5a 54 bd 7c ac c1 bd
       -0.09406836 -0.11010744 -0.0518439 -0.09456727
000310 e8 90 7b bd 63 a6 21 bd ad f5 b6 3c 9d 54 df 3c
       -0.06141749 -0.03946532 0.022333944 0.027262026
000320 b6 77 05 bd 13 f4 3f bd 06 f8 05 3c 8d 94 3b be
       -0.03258487 -0.046863627 0.008176809 -0.18318386
000330 c4 cf e0 bd 8f 4b bd bd 49 35 0b be 38 ef 85 bd
       -0.10977128 -0.09242927 -0.13594545 -0.06539768
000340 39 13 ad bd 18 ad 27 3e 8b 4f e8 bc 95 13 a7 bd
       -0.08450932 0.16374624 -0.028358242 -0.08158032
000350 bc d1 4d 3c 47 2c 4e 3c 1b 12 af 3a c1 6d 43 3b
       0.012562212 0.012583799 0.0013356836 0.0029820057
000360 4d 45 3e 3d 19 0b 04 bd b8 a2 bd 3d de f1 7b 3d
       0.04645281 -0.032237146 0.09259552 0.06150996
000370 35 e5 6e bc 3b b8 05 3e 51 98 e4 3c aa 03 c1 bd
       -0.014581014 0.1305856 0.027904661 -0.09424527
000380 45 9d a2 bd 60 bb a9 3d 09 60 60 3d 4c c8 31 3c
       -0.07940153 0.08287692 0.054779086 0.010850977
000390 fb 82 06 3e 38 30 16 3e fd 47 ef 3c 46 dd ea bb
       0.13135903 0.14666831 0.029209131 -0.007167491
0003a0 c5 16 e7 3d 7c 1c 9c 3d 24 88 71 bd 90 af ba bd
       0.1128364 0.076226205 -0.058967724 -0.09115517
0003b0 8d c8 6d 3d 06 f7 7a be 12 93 a7 be 33 c8 10 be
       0.05805259 -0.24508294 -0.32729393 -0.1413887
0003c0 b8 0b 01 be 88 f2 87 be 7c 16 47 be 51 3b a9 3d
       -0.12602127 -0.26552224 -0.19442171 0.08263267
0003d0 cb b4 88 bd 39 01 c8 bd b3 b2 40 3c 40 c2 b0 bd
       -0.066751085 -0.09765858 0.011761355 -0.086308
0003e0 10 a7 e1 3c 40 e7 8b bc 57 ea 30 bd 84 49 c4 bb
       0.027545482 -0.017078042 -0.043192234 -0.005990209
0003f0 29 a5 4e 3d 2e e5 ce bd ab 4e 7d bd 37 55 57 3b
       0.050450478 -0.10102306 -0.0618426 0.0032857188

layer2.0.bn2.weight f4 [16]
000000 46 f4 01 3f ba 95 61 3f 70 68 d2 3e 7a f5 39 3f
       0.50763357 0.8811909 0.41095304 0.7264019
000010 7e 21 7e 3f 78 1b a6 3e f8 70 32 3f de bb cb 3e
       0.99269855 0.32442832 0.69703627 0.3979177
000020 56 b5 fe 3e 33 de c6 3e 4c 3b 84 3f eb aa f7 3e
       0.49747723 0.388414 1.0330596 0.48372588
000030 37 50 04 3f 67 db f4 3e aa 1e 13 3f d3 1f cd 3e
       0.516849 0.4782364 0.57468665 0.40063342

layer2.0.bn2.bias f4 [16]
000000 99 25 52 3e 3b 3e 84 3d 76 5e b4 bd 21 33 94 bd
       0.20522155 0.06457182 -0.088070795 -0.072363146
000010 65 d6 51 be 94 80 34 bc 9c a9 30 bd 69 74 00 be
       -0.20491941 -0.011016984 -0.043130502 -0.12544407
000020 01 99 c3 3c 3f f7 01 3f 3c 7e 3a be fb 02 b9 3e
       0.023876669 0.5076789 -0.18212217 0.36135086
000030 32 3a c2 3e fe cf ec 3e 46 42 71 3e f4 19 48 3e
       0.37935024 0.46252435 0.23560438 0.1954115

layer2.0.bn2.running_mean f4 [16]
000000 bd 27 39 3f 82 bb 11 bf 18 da d2 be bd f7 5c bd
       0.7232626 -0.5692674 -0.41182017 -0.0539472
000010 4a e9 b6 be ec e0 27 bf d1 7a a7 3e 8b 1a a1 3a
       -0.3572486 -0.6557758 0.3271089 0.0012291236
000020 25 74 d6 3e 44 ca 5b bf ff 92 4b bf 4b 87 31 3f
       0.41885486 -0.8585551 -0.79521173 0.69347066
000030 ce f4 bd 3f ee bc e6 3f 82 18 de 3d 56 6d 5f 3e
       1.4840333 1.8026407 0.10844518 0.21819052

layer2.0.bn2.running_var f4 [16]
000000 58 c2 21 3f 0d 52 2a 3f 36 52 2d 3e b1 97 8c 3e
       0.6318717 0.6653145 0.16925892 0.2745948
000010 de 9d aa 3e 01 37 fc 3d 23 53 f1 3e 91 bb e7 3d
       0.33323568 0.12315179 0.4713374 0.11315072
000020 8e bf 6d 3e cc 7a 9e 3e 5f d5 cb 3e f4 35 e6 3e
       0.23217604 0.30953062 0.39811227 0.44963038
000030 d5 60 24 3f 9a 44 3d 3f 39 90 fd 3e 72 f4 48 3e
       0.64210254 0.739328 0.49524096 0.19624498

layer2.0.shortcut.0.weight f4 [16, 8, 1, 1]
000000 16 22 aa bb fc 94 ad be 0b 1e 13 3f 68 7c d0 bd
       -0.0051920516 -0.3390273 0.57467717 -0.101799786
000010 ef 66 42 3d c5 77 c6 bd 97 17 13 bd 73 db 59 3e
       0.047461446 -0.09690813 -0.03591117 0.2127512
000020 b6 fc c2 bb 22 c9 58 3b 07 f6 13 3d b0 65 65 be
       -0.0059505356 0.003307887 0.0361233 -0.22402072
000030 c2 67 02 3e 08 5d 64 be 72 1b 12 3e 4c f4 84 3d
       0.12734893 -0.22301114 0.14268282 0.064919084
000040 0c de 63 3b 0f a2 8a 3d a0 3e 12 3f ae dd 88 3d
       0.0034769801 0.067691915 0.5712681 0.06682907
000050 72 fc 2a bf e5 0f fe 3c 3b b5 12 be bb d8 87 bc
       -0.6679145 0.031013438 -0.14326946 -0.016582837
000060 e6 77 c0 bd d3 0f 51 bb 60 c9 c0 3e b8 48 05 be
       -0.09397869 -0.00319003 0.37653637 -0.13016021
000070 a8 37 6a 3d e1 d7 23 be d2 6e b5 3d bf 03 6f bd
       0.057181984 -0.1600032 0.08859028 -0.058353182
000080 a7 67 a8 be dd b0 70 bd 91 b0 aa bd ac 58 70 be
       -0.3289158 -0.05876242 -0.083344586 -0.23471326
000090 0d 2e 79 bd 5d c3 32 bd b9 3e 39 be e2 5f 34 3e
       -0.060834933 -0.043643344 -0.18090333 0.17614701
0000a0 f4 ad 04 3d 77 56 03 3f fb 61 42 be 76 cc b4 bd
       0.032392457 0.5130381 -0.18982689 -0.0882806
0000b0 ec 7e 8f be 66 be 8a bc be 0f 29 3e 50 65 ee be
       -0.2802652 -0.016936492 0.16509911 -0.4656167
0000c0 14 a7 70 be ec f1 5e be 9d 4c 02 3d 50 4e a2 be
       -0.23501235 -0.21771973 0.031811345 -0.31700373
0000d0 2a ab 50 be e4 a1 51 3e 9f a7 2a 3c 7f 97 25 3d
       -0.20377794 0.20471913 0.010415941 0.04042768
0000e0 de 41 68 bc 00 02 4e be f2 d1 a6 be 8d 93 ab 3c
       -0.01417586 -0.2011795 -0.3258205 0.020944381
0000f0 00 07 0d 3f 2c 3e bc 3c 19 85 ed 3c 17 0f 41 3e
       0.55088806 0.022978865 0.02899413 0.18853413
000100 e5 ac 57 be 3d 31 01 3e bc 74 b2 bd 43 f1 1b 3d
       -0.21062048 0.12616439 -0.087136716 0.038071882
000110 cf 90 ef 3c e2 53 4c 3e 6b e2 49 3e 9a cf 83 3e
       0.029243855 0.19953874 0.19715278 0.25744325
000120 1e 66 74 be d2 6b ed 3d 8f e6 26 be f4 8e 8f 3e
       -0.2386708 0.11592831 -0.16298889 0.28038752
000130 95 6a d9 bd c9 06 08 bd cb b9 13 3d a6 bd d7 3d
       -0.10616032 -0.033209596 0.036065858 0.105342194
000140 56 77 39 be af 59 8c bd eb 95 05 be 1d 96 d1 3c
       -0.1811193 -0.06853043 -0.1304547 0.025584275
000150 2a a7 1f 3d 72 0e 33 be d5 e3 18 be b0 2a 13 bd
       0.03897778 -0.17485979 -0.14930661 -0.03592938
000160 b9 a4 27 3e ea b3 36 be c0 c3 4c 3e 2b d4 3f 3e
       0.1637143 -0.1784207 0.19996548 0.1873328
000170 fe d5 8a 3e 2d c9 d2 3d 9d 65 10 be 61 66 e5 bd
       0.27116388 0.102922775 -0.14101262 -0.11201168
000180 8f fa b4 bb 48 66 bf bd 76 6b dd 3d 24 24 14 3e
       -0.005523033 -0.093456805 0.10811512 0.14466912
000190 be 09 8f 3c 09 0c 06 be 35 2e 4c 3e b7 d0 36 bd
       0.0174607 -0.13090529 0.19939502 -0.04463264
0001a0 dc 3a 44 bd 8c 6a 89 3e 1b 90 d4 bd 83 d0 d5 bd
       -0.047907695 0.268391 -0.103790484 -0.10440161
0001b0 4a 0a cd bb 28 31 21 be d3 e9 aa 3e d0 41 fc 3d
       -0.00625733 -0.15741408 0.3338152 0.1231724
0001c0 48 78 28 3e a2 eb d6 3d 81 3d 5d 3d 4d f4 30 be
       0.16452134 0.10494162 0.054013733 -0.17280693
0001d0 d7 af e5 3d a5 b2 60 3b d2 46 55 bd 37 20 a5 3d
       0.112151794 0.0034286168 -0.052069493 0.08062785
0001e0 da ad 8d 3d 1e 2d d6 3e af 03 15 3e 1e 00 be 3e
       0.06917925 0.41831297 0.14552186 0.37109464
0001f0 86 39 62 3e 61 1c 0e bd 62 44 40 3e 2d 20 7f 3d
       0.22092256 -0.034695033 0.18776086 0.062286545

layer2.0.shortcut.1.weight f4 [16]
000000 27 17 8f 3e 50 af 17 3e 14 d4 1c 3f 24 35 47 3e
       0.2794735 0.1481297 0.61261106 0.19453865
000010 43 02 be 3e 93 56 11 3f 57 90 98 3e 8d 35 f7 3e
       0.371111 0.56772727 0.29797623 0.48283044
000020 cc bb 8c 3e 29 19 16 3e 61 22 04 3e e1 14 1f 3e
       0.27487028 0.14658035 0.1290374 0.15535308
000030 0c 22 4d 3d 02 92 e9 3d d2 51 63 3d b6 6a d9 3e
       0.050081298 0.11404802 0.05549795 0.42464226

layer2.0.shortcut.1.bias f4 [16]
000000 99 25 52 3e 3b 3e 84 3d 76 5e b4 bd 21 33 94 bd
       0.20522155 0.06457182 -0.088070795 -0.072363146
000010 65 d6 51 be 94 80 34 bc 9c a9 30 bd 69 74 00 be
       -0.20491941 -0.011016984 -0.043130502 -0.12544407
000020 01 99 c3 3c 3f f7 01 3f 3c 7e 3a be fb 02 b9 3e
       0.023876669 0.5076789 -0.18212217 0.36135086
000030 32 3a c2 3e fe cf ec 3e 46 42 71 3e f4 19 48 3e
       0.37935024 0.46252435 0.23560438 0.1954115

layer2.0.shortcut.1.running_mean f4 [16]
000000 ce cd 04 3e 73 4d 30 bc c6 ec 3a be 4d d7 e1 3d
       0.12969133 -0.010760653 -0.18254384 0.110273935
000010 c8 e7 13 bf 42 47 77 be cb 9f 1b bf 4f 4f 8d 3e
       -0.57775545 -0.24148276 -0.607907 0.2759957
000020 9a 05 08 3f e7 df 90 3e 6a 98 b9 be e1 33 87 3e
       0.5313355 0.28295824 -0.36249095 0.26406768
000030 77 1f aa 3e bc 73 c9 3e 50 d9 f0 3c a9 07 a1 3f
       0.3322713 0.3934611 0.029400498 1.2580463

layer2.0.shortcut.1.running_var f4 [16]
000000 2a a6 de 3d fb 30 07 3d 51 5e cf 3d be a0 35 3d
       0.10871537 0.033005696 0.10125411 0.04434275
000010 1f 53 95 3d 97 3c e5 3d d2 e5 93 3d 36 db 82 3d
       0.07291245 0.11193197 0.07221569 0.063894674
000020 6c 93 b6 3d d4 ff 83 3d d4 34 0f 3d 33 b0 8f 3d
       0.08914837 0.0644528 0.03496249 0.07016029
000030 5d 91 9d 3c 56 d7 82 3d 8a 0d af 3c ba fd 00 3e
       0.019234354 0.06388728 0.02136876 0.12596789
