meta_results/meta_seed-1_metalr-1e-05_T-2_400_4-cycles_cifar100-ResNet10_scheckpoint.pth.tar (torch, 909673 bytes, 128 tensors)

conv1.weight f4 [8, 3, 3, 3]
0.14913578 0.2384581 0.10349808 0.07971455 -0.3751488 0.12706733 0.37704626 -0.16443622
0.15740253 -0.15746161 0.07836244 0.034808595 -0.06583985 -0.61545986 0.09867843 0.28673542
-0.33598483 0.17775868 -0.15142806 0.020256242 -0.29408076 -0.14480057 -0.44412202 -0.3586573
-0.026718043 -0.3766924 -0.41940144 -0.020497818 -0.45413962 -0.15692183 0.0083619105 1.5479138
0.45390457 -0.04004487 0.68616205 0.5004911 0.22097191 -0.27989313 0.050659765 -0.25683248
0.25893283 -0.80930847 -0.29073557 -0.5943882 -0.5710622 -0.043799486 -0.09872661 0.42615464
-0.11757862 -0.025581552 -0.34007567 0.1092018 -0.29975796 0.03200638 -0.20095211 -0.30587056
-0.18598716 -0.18772623 -1.2815372 -1.3246485 -0.18410587 -0.36655462 -0.21193586 -0.16519675
-0.16594362 -0.09405358 -0.01976996 -0.91469204 -0.95856446 -0.17587869 -0.19317539 -0.030926907
-0.0018942651 -0.09385795 0.09231671 0.038238022 -0.7634797 -0.7292663 0.009767544 -0.13492325
0.056109354 -0.16517103 -0.24735539 -0.007960963 -0.11996542 0.08823467 -0.33977413 -0.13015741
-0.19235568 -0.058031015 0.16152379 0.07339646 0.08700383 0.26306728 0.98828816 -0.2652121
-0.20130628 0.11904521 -0.26199022 -0.3041409 -0.39030206 0.017158072 -0.015349161 0.9763048
0.17167063 -0.12653388 0.5678678 0.23893778 -0.05953621 0.037169613 -0.39237088 -0.23829725
-0.19041468 0.02179217 -0.26077068 0.18694021 0.12333901 0.12827288 0.4508848 -0.03612772
0.5845488 0.6688637 0.79164284 0.21097739 0.7369479 0.29057145 -0.25837427 0.08099248
-0.20313463 -0.14060979 -0.78961897 -0.44332787 -0.21389502 -0.55146515 -0.70356613 0.002016706
-0.11898193 -0.23697695 -0.03158039 0.29622513 0.4613069 -0.11709046 0.4428566 0.76426715
-0.101676136 -0.115047805 -0.00052691106 0.020673882 -0.17527753 -0.22198325 -0.08578581 0.0134556545
0.49086985 -0.113780424 0.020371715 0.016086143 0.13923937 0.21032074 -0.19136973 0.10334245
-0.05419331 0.026298137 -0.05429388 -0.01590161 0.03342046 -0.91664386 1.0207207 0.021533985
-0.09016027 0.018280122 0.10566762 -0.079808556 0.20157075 -0.00931466 -1.736624 1.6156687
0.15410997 -0.021126794 0.04041864 -0.038055293 -0.0830833 0.09273114 -0.14339587 -1.1230463
1.1283149 -0.005790811 -0.045291886 0.12152179 -0.10908121 0.25799006 1.4791757 0.20396094
-0.19335395 -1.1695306 -0.4086962 -0.019407256 0.013222068 0.11814694 0.23645742 1.7155333
0.32409924 -0.24218509 -1.6669186 -0.48601338 0.012710777 -0.036533684 0.040810417 0.0044480744
0.9179571 0.16955404 -0.14786103 -1.1023189 -0.18114896 0.029482428 0.057762623 0.14826395
00000000: 0db7 183e 5c2e 743e cdf6 d33d 6241 a33d
00000010: 8113 c0be f01d 023e 350c c13e f861 28be
00000020: 212e 213e 9e3d 21be 7d7c a03d 7593 0e3d
00000030: 0bd7 86bd c78e 1dbf eb17 ca3d fcce 923e
00000040: 3406 acbe 5f06 363e f50f 1bbe 6bf0 a53c
00000050: c191 96be 9a46 14be f663 e3be eea1 b7be
00000060: ccdf dabc d4dd c0be c9bb d6be 0aeb a7bc
00000070: fd84 e8be 1eb0 20be 6500 093c 0a22 c63f
00000080: 2e66 e83e 1706 24bd 51a8 2f3f 2f20 003f
00000090: 7646 623e 274e 8fbe 9d80 4f3d 8c7f 83be
000000a0: d892 843e d72e 4fbf 4bdb 94be d329 18bf
000000b0: 2231 12bf 1767 33bd 2d31 cabd f130 da3e
000000c0: 0fcd f0bd 6790 d1bc 661e aebe 31a5 df3d
000000d0: e079 99be 1f19 033d 64c6 4dbe 119b 9cbe
000000e0: 6b73 3ebe 4e3b 40be 6909 a4bf 158e a9bf
000000f0: 4086 3cbe 0cad bbbe b705 59be 5629 29be
00000100: 20ed 29be 2a9f c0bd 9cf4 a1bc 4229 6abf
00000110: 7b64 75bf 8b19 34be c5cf 45be 6d5a fdbc
00000120: fd48 f8ba 9938 c0bd 8b10 bd3d 799f 1c3d
00000130: 6873 43bf 32b1 3abf 0d08 203c 5229 0abe
00000140: ecd2 653d 9822 29be bb4a 7dbe b36e 02bc
00000150: 6eb0 f5bd 61b4 b43d e0f6 adbe fc47 05be
00000160: e3f8 44be eeb1 6dbd 7e66 253e e250 963d
00000170: 102f b23d c1b0 863e 7400 7d3f e1c9 87be
00000180: 3c23 4ebe facd f33d 9523 86be 5bb8 9bbe
00000190: acd5 c7be 168f 8c3c 0c7b 7bbc 1def 793f
000001a0: 6dca 2f3e 1992 01be c95f 113f 1bac 743e
000001b0: 3edc 73bd 2a3f 183d d6e4 c8be 3204 74be
000001c0: 11fc 42be 7e85 b23c bc83 85be 416d 3f3e
000001d0: 2a99 fc3d f759 033e 5fda e63e a9fa 13bd
000001e0: fda4 153f a73a 2b3f 1ba9 4a3f 750a 583e
000001f0: 9ea8 3c3f c8c5 943e a249 84be 63df a53d
00000200: 8602 50be 03fc 0fbe 7824 4abf dffb e2be
00000210: 4c07 5bbe d22c 0dbf e91c 34bf b62a 043b
00000220: ccac f3bd 16aa 72be 705a 01bd d2aa 973e
00000230: 6b30 ec3e 20cd efbd 1abe e23e 03a7 433f
00000240: 943b d0bd 2f9e ebbd 6720 0aba 465c a93c
00000250: f47b 33be 944f 63be 79b0 afbd 1b75 5c3c
00000260: 4b53 fb3e b605 e9bd 95e2 a63c 16c7 833c
00000270: c494 0e3e 525e 573e 6df6 43be 35a5 d33d
00000280: cef9 5dbd 316f d73c 4263 5ebd 1844 82bc
00000290: e4e3 083d 2ca9 6abf faa6 823f 0a68 b03c
000002a0: f3a5 b8bd 32c0 953c 4468 d83d ab72 a3bd
000002b0: 9068 4e3e 849c 18bc b249 debf 3bce ce3f
000002c0: 01cf 1d3e 1912 adbc 048e 253d dedf 1bbd
000002d0: 9427 aabd d3e9 bd3d 5ed6 12be fbbf 8fbf
000002e0: 9f6c 903f d8c0 bdbb fc83 39bd 6be0 f83d
000002f0: f865 dfbd 4617 843e a155 bd3f 23db 503e
00000300: 94fe 45be 2eb3 95bf a140 d1be f7fb 9ebc
00000310: 5fa1 583c 06f7 f13d e521 723e 9896 db3f
00000320: 56f0 a53e 5eff 77be 975d d5bf bfd6 f8be
00000330: dd40 503c 58a4 15bd d328 273d 27c1 913b
00000340: 3dff 6a3f 939f 2d3e e268 17be c918 8dbf
00000350: 1d7f 39be 2285 f13c 8098 6c3d 81d2 173e

bn1.weight f4 [8]
0.90065426 0.4282248 2.2200398 0.45410025 0.35669726 0.5349468 0.9162434 0.85849917
00000000: 4791 663f 4840 db3e 2215 0e40 d47f e83e
00000010: 06a1 b63e 46f2 083f ed8e 6a3f 9ac6 5b3f

bn1.bias f4 [8]
-0.6776736 0.518604 -1.6780832 0.9865002 1.0012662 0.8651588 0.71276486 0.5668813
00000000: 047c 2dbf 3bc3 043f 6ecb d6bf 478b 7c3f
00000010: 7e29 803f 0c7b 5d3f c277 363f 221f 113f

bn1.running_mean f4 [8]
0.49794152 -0.076760225 3.1075277 -0.20150788 -0.28210235 -0.55422175 -0.07116255 -0.017184839
00000000: 31f2 fe3e 7734 9dbd bce1 4640 1558 4ebe
00000010: b86f 90be 7ae1 0dbf acbd 91bd 38c7 8cbc

bn1.running_var f4 [8]
5.1644263 1.568908 78.43507 2.3356032 1.7877381 3.0027063 4.2939897 6.5559497
00000000: fb42 a540 fad1 c83f c1de 9c42 867a 1540
00000010: 9ad4 e43f 572c 4040 5d68 8940 57ca d140

layer1.0.conv1.weight f4 [8, 8, 3, 3]
-0.054686926 0.20570067 -0.020145036 0.06005534 0.35313094 0.26826608 -0.058992315 -0.310245
0.038184587 0.050382465 0.17070399 0.13458204 0.19698422 -0.25091204 -0.041859698 -0.14574689
0.29897997 -0.19005749 0.073405 0.09596941 0.03718419 0.18963929 0.3034964 -0.004799972
-0.21461901 -0.40145147 -0.018468117 0.07043704 -0.0791133 0.19355464 -0.2002731 -0.4700627
-0.39682248 0.02438928 0.5258339 0.14314185 0.257237 0.08904029 0.052479547 -0.19456735
-0.02466758 -0.113274224 0.07982171 -0.0020987464 -0.053559266 -0.3895159 -0.13852847 -0.37597522
0.34436712 0.25021824 0.14816678 0.23801671 0.06464566 0.017634053 0.055297893 0.030241096
-0.09674724 0.008374281 -0.2797514 0.51426804 -0.04295338 0.21358506 -0.26129213 -0.028641252
-0.11508267 0.009307777 -0.055277195 0.15374811 0.1697931 -0.2661987 -2.235376 -0.33631885
0.21566772 0.059215378 0.09484734 0.16224861 0.07573515 0.046490945 -0.1144964 0.060854767
-0.13362396 -0.09633548 -0.060512684 -0.10363322 -0.054807946 -0.093589745 -0.2235286 -0.14899725
-0.033328038 0.06889127 0.3583058 1.079236 0.01600631 0.2668697 1.2545263 0.015647009
-0.1367351 0.4533648 -0.44928232 -0.3415779 -0.28378007 -0.3643427 -0.36457312 -0.23320225
-0.44615552 -0.33171603 -0.30877727 -0.34902057 0.03265712 0.035995774 -0.04458394 -0.027880067
0.058280338 -0.10723943 0.027889675 0.052832987 -0.05602371 -0.5168785 -0.65460384 -0.113899
-0.51706475 -0.48142493 -0.35062066 0.12483677 0.09839015 -0.10571084 0.03631506 0.022507127
-0.11114474 -0.021088656 0.10044088 -0.07687739 0.06670178 0.044709183 -0.19406824 0.16450228
0.18512622 -0.104205444 -0.30209997 -0.10464264 -0.3691404 0.24657391 0.34753424 0.22806998
-0.019995896 0.01666128 -0.12698303 -0.19865939 -0.17382552 -0.08143833 -0.116805196 -0.06333357
0.12592326 0.4524115 -0.18630208 -0.24970508 0.05928532 0.03206342 -0.18934888 -0.16087319
-0.13286324 -0.14461064 0.051477406 0.0653499 0.0038990085 0.022490643 -0.10119063 0.020002598
0.084840894 -0.0466915 -0.0037160583 0.0707112 -0.17457226 -0.07235545 -0.056696463 -0.23820066
-0.1237678 0.022133948 -0.13273172 -0.16627222 -0.81855464 -0.77087057 -0.10893579 -0.37652686
-0.3420117 0.18335009 0.012942221 0.47815624 0.4564634 -0.054853316 0.112452485 -0.1734043
0.14412685 0.23024471 0.052743897 -0.061707996 -0.10836142 0.02380706 -0.021462962 -0.27586567
0.20998548 0.031421255 0.09862534 0.06965957 -0.037620574 0.03658043 -0.039418746 -0.022897607
-0.049372643 -0.114740394 0.022561142 -0.041712586 -0.033236057 -0.2479336 0.23636782 0.023778472
-0.049469817 -0.18615808 0.10080936 -0.19938533 -0.1855421 0.54072326 -0.10722211 0.14346029
0.4312539 0.11831219 0.07973439 -0.066423014 -0.030952387 -0.14360629 -0.1539131 0.058765255
0.14809917 -0.48615912 -0.18760897 -0.22274753 0.08279569 -0.08178345 -0.097194135 0.33971784
0.028531954 0.39778653 0.82163054 -0.024380084 0.17351021 -0.04851154 -0.16726787 -0.0131468205
-0.39146948 0.2085195 0.26153323 -0.27969056 -0.05972979 0.09583623 -0.016233783 -0.061946128
00000000: 66ff 5fbd 32a3 523e 3407 a5bc 97fc 753d
00000010: 94cd b43e 2c5a 893e eda1 71bd 6fd8 9ebe
00000020: 7167 1c3d d85d 4e3d 07cd 2e3e e0cf 093e
00000030: 3bb6 493e 8b77 80be 1375 2bbd ac3e 15be
00000040: e713 993e 6e9e 42be 5c55 963d 9c8b c43d
00000050: 734e 183d cd30 423e e163 9b3e 1549 9dbb
00000060: 16c5 5bbe 0c8b cdbe 734a 97bc 4b41 903d
00000070: 2706 a2bd 3033 463e 6414 4dbe 0fac f0be
00000080: 512c cbbe 07cc c73c 0d9d 063f c793 123e
00000090: 91b4 833e c15a b63d cbf4 563d aa3c 47be
000000a0: aa13 cabc 51fc e7bd 9179 a33d 1f8b 09bb
000000b0: f660 5bbd a16e c7be 68da 0dbe d37f c0be
000000c0: e350 b03e 9b1c 803e 08b9 173e a7ba 733e
000000d0: f264 843d 4a75 903c 0b80 623d 2dbc f73c
000000e0: 6b23 c6bd 4834 093c 933b 8fbe 12a7 033f
000000f0: e2ef 2fbd 0bb6 5a3e 15c8 85be 0fa1 eabc
00000100: 76b0 ebbd a57f 183c 576a 62bd 2570 1d3e
00000110: 3ede 2d3e 324b 88be 6610 0fc0 fc31 acbe
00000120: 00d8 5c3e d38b 723d 523f c23d 8024 263e
00000130: 081b 9b3d 4a6d 3e3d 177d eabd d942 793d
00000140: b8d4 08be 894b c5bd 26dc 77bd a73d d4bd
00000150: 4c7e 60bd fbab bfbd aee4 64be bc92 18be
00000160: fb82 08bd de16 8d3d dc73 b73e 6824 8a3f
00000170: aa1f 833c 25a3 883e 5194 a03f 282e 803c
00000180: 4904 0cbe 6e1f e83e 5508 e6be 4ce3 aebe
00000190: 9f4b 91be 208b babe 54a9 babe 92cc 6ebe
000001a0: 7f6e e4be afd6 a9be 0e18 9ebe d3b2 b2be
000001b0: 79c3 053d 4e70 133d a69d 36bd bd64 e4bc
000001c0: 5db7 6e3d 59a0 dbbd e378 e43c 6767 583d
000001d0: 1e79 65bd 2652 04bf 1e94 27bf e143 e9bd
000001e0: 5b5e 04bf 547d f6be 8d84 b3be 6caa ff3d
000001f0: c680 c93d ed7e d8bd 1abf 143d de60 b83c
00000200: da9f e3bd 1ec2 acbc f3b3 cd3d e571 9dbd
00000210: f19a 883d fa20 373d d3b9 46be 4973 283e
00000220: ba91 3d3e aa69 d5bd d9ac 9abe e14e d6bd
00000230: f8ff bcbe df7d 7c3e 02f0 b13e 2d8b 693e
00000240: 6fce a3bc 3d7d 883c d707 02be 5e6d 4bbe
00000250: 51ff 31be 24c9 a6bd 9037 efbd 08b5 81bd
00000260: 07f2 003e 7ba2 e73e f9c5 3ebe b0b2 7fbe
00000270: 2ad5 723d ef54 033d ace4 41be f1bb 24be
00000280: 4d0d 08be d014 14be f9d9 523d 2bd6 853d
00000290: 8286 7f3b 4c3e b83c 083d cfbd 7ddc a33c
000002a0: 10c1 ad3d 963f 3fbd 1d89 73bb 09d1 903d
000002b0: 12c3 32be 182f 94bd 8d3a 68bd e0ea 73be
000002c0: f979 fdbd 4152 b53c d3ea 07be 4443 2abe
000002d0: cc8c 51bf c657 45bf ba19 dfbd 21c8 c0be
000002e0: 281c afbe 20c0 3b3e 9c0b 543c e5d0 f43e
000002f0: 92b5 e93e dfad 60bd 7d4d e63d e690 31be
00000300: fd95 133e 45c5 6b3e fc09 583d 86c1 7cbd
00000310: 98ec ddbd 0607 c33c 18d3 afbc 443e 8dbe
00000320: 6f06 573e 93b3 003d 15fc c93d ada9 8e3d
00000330: 0818 1abd 5cd5 153d 8d75 21bd c393 bbbc
00000340: f83a 4abd 03fd eabd 25d2 b83c d1da 2abd
00000350: 8822 08bd 4ee2 7dbe 680a 723e 12cb c23c
00000360: dda0 4abd 39a0 3ebe 2375 ce3d ab2b 4cbe
00000370: c0fe 3dbe d76c 0a3f 4497 dbbd 41e7 123e
00000380: 50cd dc3e a94d f23d c94b a33d ca08 88bd
00000390: dc8f fdbc 870d 13be 659b 1dbe d6b3 703d
000003a0: 4fa7 173e d9e9 f8be 911c 40be ee17 64be
000003b0: c990 a93d 157e a7bd b80d c7bd 7fef ad3e
000003c0: d8bb e93c adaa cb3e 6156 523f beb8 c7bc
000003d0: a9ac 313e 09b4 46bd 4548 2bbe c365 57bc
000003e0: b06e c8be 2386 553e afe7 853e 9a33 8fbe
000003f0: 39a7 74bd c945 c43d b6fc 84bc 39bb 7dbd

layer1.0.bn1.weight f4 [8]
0.5407328 1.4119022 0.23694709 0.7768901 0.21886188 0.32860714 0.21783094 0.45158142
00000000: 776d 0a3f 36b9 b43f 42a2 723e 45e2 463f
00000010: 541d 603e 323f a83e 130f 5f3e ae35 e73e

layer1.0.bn1.bias f4 [8]
0.1537296 -2.21329 0.18646038 -1.1524452 0.3672004 0.135447 0.4109532 0.1195451
00000000: 4b6b 1d3e 8ba6 0dc0 78ef 3e3e 5383 93bf
00000010: b101 bc3e 9eb2 0a3e 7568 d23e 10d4 f43d

layer1.0.bn1.running_mean f4 [8]
-1.3526716 -4.384077 -2.3236036 0.0831092 -0.074497975 0.46940234 -1.1420584 -0.9523736
00000000: 5824 adbf 5c4a 8cc0 ecb5 14c0 2835 aa3d
00000010: 6592 98bd 8155 f03e f82e 92bf c2ce 73bf

layer1.0.bn1.running_var f4 [8]
4.4285865 11.389794 0.54963434 0.7076339 0.3906854 1.8382885 0.40187308 2.5200815
00000000: fbb6 8d40 993c 3641 d6b4 0c3f 7f27 353f
00000010: eb07 c83e 0a4d eb3f 4fc2 cd3e 0449 2140

layer1.0.conv2.weight f4 [8, 8, 3, 3]
0.0740571 -0.13277602 0.013568733 -0.26397058 -1.56248 -0.22309114 0.11213803 0.05617142
0.14027865 -0.2636887 -0.13795641 -0.18882833 -0.30783862 -0.21669954 -0.18438368 -0.24731901
-0.1901997 -0.048507378 -0.020722358 -0.16698179 0.018849565 0.023252754 0.32688037 -0.08151926
0.052558556 0.063474365 -0.11143878 -0.26437974 0.26050395 0.061678555 -0.6493114 -0.14885698
0.099096015 0.119121425 0.15438505 0.096569054 0.045548152 0.09293132 -0.08488772 0.11109487
0.005457519 -0.08144575 0.1485436 -0.019340755 -0.11924471 0.01760029 0.27386194 -0.049330883
0.017080279 0.11390896 0.2312798 0.07114852 -0.36699966 0.26735613 -0.024156192 0.039950147
-0.10534125 -0.1451554 -0.07293791 0.06529282 0.036472194 0.17734699 0.07223306 -0.013009691
0.047809754 0.09401118 0.20400964 0.21661334 -0.12988798 0.3057628 -0.48856273 -0.29867065
-0.015562615 -0.17016749 0.08717412 0.01627933 0.10888118 0.11286956 -0.032136615 -0.08316666
-0.1890069 0.24139471 -0.022662966 0.098971136 -0.026131252 -0.28526074 -0.20172256 -0.20100729
-0.44220906 -0.39363253 -0.03380934 -0.03965859 -0.32693118 -0.18475501 0.026149003 0.23651339
-0.5947824 0.13076875 0.62534285 -0.21525724 -0.03896399 -0.053150974 -0.08709699 -0.06661976
0.10635249 -0.07924008 -0.048164587 0.037504848 0.08610404 0.21750583 -0.33289936 0.48882386
0.20768324 -0.53606737 0.13349067 0.10580631 -0.21471556 -0.026019484 0.10216308 0.0020359324
0.10710621 0.09412955 0.18313137 -0.024616545 -0.054197133 -0.28228015 -0.20652384 -0.25223818
-0.3053089 0.096062265 0.050248757 -0.027569978 0.3114526 0.6027231 0.12843812 -0.04475485
0.03277921 -0.09401248 -0.0876706 -3.4526754e-05 -0.030226782 -0.043644927 0.17276333 0.082664475
-0.08899817 0.13200283 0.014205994 -0.13108316 -0.07919237 0.054113597 -0.19428073 0.10905013
0.16162369 0.115329586 0.084823 0.21737452 0.23053159 0.3581793 0.33426306 0.25410077
0.31627762 0.23812547 0.11553865 -0.112177335 -0.06905243 -0.03050527 0.10885998 0.13419908
-0.18209329 -0.16776691 0.037267238 -0.33958665 0.10142487 0.05955886 0.14786233 -0.21838467
-0.014585045 -0.12199446 0.10805759 0.12492802 -0.11021678 -0.020432306 -0.122849934 0.23802218
-0.06820467 0.039450753 -0.17164704 -0.035054162 0.18962388 -0.026474604 -0.120263144 -0.0036694896
-0.3172532 0.2761321 -0.12956151 0.12910976 -0.16247724 -0.056494717 0.24828997 -0.10332668
-0.032032125 0.0079049 0.30556503 -0.16351691 -0.04425163 0.019772943 0.07080315 0.28878695
-0.0328415 0.08330712 -0.1676611 0.2537979 -0.0912249 -0.06672714 -0.36002377 0.07782268
-0.13358516 -0.08315706 0.1413139 0.020480566 0.06699407 0.16780996 0.008107394 -0.3682867
-0.32309884 0.006255386 -0.1438542 -0.18386284 -0.108250104 -0.2124598 -0.43522808 -0.20863779
-0.27823696 -0.39376524 -0.20031454 -0.112552196 0.21934447 -0.007116062 0.084613696 0.28476495
-0.078002155 0.056613337 0.17106658 0.027800929 -0.047707997 -0.20822275 -0.08759786 0.14067286
-0.02016215 0.07532298 -0.12413216 -0.17579466 -0.25259006 -0.14724836 0.040715527 -0.29932356
00000000: 40ab 973d 70f6 07be 644f 5e3c 2727 87be
00000010: 58ff c7bf 0172 64be a0a8 e53d 0114 663d
00000020: 35a5 0f3e 3502 87be 7244 0dbe 375c 41be
00000030: 069d 9dbe 7ce6 5dbe 13cf 3cbe 3241 7dbe
00000040: b6c3 42be acaf 46bd efc1 a9bc 46fd 2abe
00000050: 676a 9a3c 8f7c be3c dd5c a73e 92f3 a6bd
00000060: a447 573d d9fe 813d 043a e4bd c85c 87be
00000070: c660 853e a7a2 7c3d 4639 26bf f76d 18be
00000080: daf2 ca3d eff5 f33d 1d17 1e3e ffc5 c53d
00000090: b390 3a3d c752 be3d 9dd9 adbd b585 e33d
000000a0: fdd4 b23b 08cd a6bd d01b 183e 8170 9ebc
000000b0: 9236 f4bd 7c2e 903c a237 8c3e 2e0f 4abd
000000c0: f1eb 8b3c 1a49 e93d 9dd4 6c3e 51b6 913d
000000d0: 61e7 bbbe e7e2 883e 35e3 c5bc c4a2 233d
000000e0: 27bd d7bd 9ea3 14be 7960 95bd 3eb8 853d
000000f0: de63 153d 739a 353e edee 933d 9926 55bc
00000100: 29d4 433d ef88 c03d e7e7 503e e3cf 5d3e
00000110: 5b01 05be f18c 9c3e e524 fabe 5ceb 98be
00000120: 57fa 7ebc 6340 2ebe 5888 b23d 3b5c 853c
00000130: 19fd de3d 2828 e73d afa1 03bd 4853 aabd
00000140: 068b 41be 2d30 773e afa7 b9bc 61b1 ca3d
00000150: 3511 d6bc b20d 92be 5c90 4ebe dbd4 4dbe
00000160: 3a69 e2be 348a c9be aa7b 0abd 0c71 22bd
00000170: 8663 a7be 6b30 3dbe 6f36 d63c 9130 723e
00000180: a943 18bf 3ee8 053e 7816 203f 656c 5cbe
00000190: b498 1fbd d6b4 59bd e85f b2bd f16f 88bd
000001a0: 56cf d93d a048 a2bd 3b48 45bd af9e 193d
000001b0: 5157 b03d d9b9 5e3e c971 aabe 1f47 fa3e
000001c0: eaaa 543e b63b 09bf c7b1 083e fbb0 d83d
000001d0: 65de 5bbe d026 d5bc e03a d13d 476d 053b
000001e0: 805a db3d fec6 c03d ca86 3b3e a3a8 c9bc
000001f0: d0fd 5dbd 0687 90be fc7a 53be 5d25 81be
00000200: 7351 9cbe 4bbc c43d a4d1 4d3d 6fda e1bc
00000210: b776 9f3e 104c 1a3f 4885 033e dd50 37bd
00000220: 7e43 063d 9d89 c0bd a58c b3bd d2d0 10b8
00000230: 289e f7bc 06c5 32bd dfe8 303e fe4b a93d
00000240: ac44 b6bd c02b 073e 42c0 683c aa3a 06be
00000250: 9c2f a2bd 38a6 5d3d 87f1 46be ad55 df3d
00000260: ae80 253e eb31 ec3d aeb7 ad3d 6d97 5e3e
00000270: 7910 6c3e 4763 b73e 8724 ab3e 7f19 823e
00000280: 24ef a13e 2ad7 733e 879f ec3d 3bbd e5bd
00000290: 5c6b 8dbd 30e6 f9bc fbf1 de3d 7c6b 093e
000002a0: aa76 3abe 17cb 2bbe 88a5 183d 4dde adbe
000002b0: d8b7 cf3d fef3 733d 3969 173e 3ba0 5fbe
000002c0: 1df6 6ebc 3bd8 f9bd 4c4d dd3d 43da ff3d
000002d0: 56b9 e1bd a761 a7bc bf98 fbbd 16bc 733e
000002e0: e4ae 8bbd 1d97 213d 3ec4 2fbe f494 0fbd
000002f0: c32c 423e 45e1 d8bc 864c f6bd d27b 70bb
00000300: 036f a2be 3061 8d3e c6ab 04be 5935 043e
00000310: 6f60 26be 0167 67bd ba3f 7e3e f09c d3bd
00000320: 1e34 03bd 8e83 013c 0573 9c3e fa70 27be
00000330: 3241 35bd defa a13c 3e01 913d e2db 933e
00000340: cf84 06bd ec9c aa3d 5aaf 2bbe ccf1 813e
00000350: 1fd4 babd 3da8 88bd 0955 b8be 7f61 9f3d
00000360: 8cca 08be 404e aabd 97b4 103e dcc6 a73c
00000370: 3034 893d 60d6 2b3e e0d4 043c 1390 bcbe
00000380: 366d a5be fbf9 cc3b 844e 13be 8a46 3cbe
00000390: 3bb2 ddbd 108f 59be 37d6 debe 25a5 55be
000003a0: 1375 8ebe 999b c9be 411f 4dbe c481 e6bd
000003b0: d69b 603e db2d e9bb f249 ad3d b6cc 913e
000003c0: 98bf 9fbd 63e3 673d 142c 2f3e c6be e33c
000003d0: 7669 43bd 5838 55be 8266 b3bd 8c0c 103e
000003e0: 182b a5bc ef42 9a3d 0039 febd 8403 34be
000003f0: 7c53 81be 46c8 16be 53c5 263d f040 99be

layer1.0.bn2.weight f4 [8]
2.1448057 1.1526649 1.4774741 0.9555344 1.0588403 1.0008781 1.9376135 2.1611063
00000000: 7f44 0940 868a 933f df1d bd3f e79d 743f
00000010: 1488 873f c61c 803f b803 f83f 914f 0a40

layer1.0.bn2.bias f4 [8]
0.56493866 -0.050655045 -0.99957204 0.040369786 0.020807285 0.44578105 -0.5442246 0.10689987
00000000: d29f 103f aa7b 4fbd f4e3 7fbf ca5a 253d
00000010: 0a74 aa3c 6a3d e43e 4e52 0bbf 52ee da3d

layer1.0.bn2.running_mean f4 [8]
-0.40117744 0.11058219 0.10345408 -0.085728884 -0.22313792 0.18792781 -0.33630672 0.0068844873
00000000: 2167 cdbe ea78 e23d bcdf d33d a092 afbd
00000010: 447e 64be 2670 403e 6530 acbe 4497 e13b

layer1.0.bn2.running_var f4 [8]
0.37495857 0.13536155 0.09228381 0.21602559 0.12923081 0.14370763 0.23496272 0.2632206
00000000: 92fa bf3e 389c 0a3e 4bff bc3d d035 5d3e
00000010: 1555 043e 1828 133e 119a 703e dac4 863e

layer2.0.conv1.weight f4 [16, 8, 3, 3]
0.12759411 -0.06387069 -0.0337162 -0.018626224 -0.19714606 -0.03565901 -0.0912839 -0.0045006024
0.049941614 0.2925592 0.22730298 -0.21124792 0.28237218 -0.18438247 -0.32757893 -0.15881652
-0.29844528 0.25551257 0.10259537 0.07746399 -0.074260935 0.2264088 -0.07722043 -0.06002291
0.055953525 -0.18508828 -0.0137353055 -0.25304392 -0.08192536 0.3171028 -0.15405415 0.5004069
0.2760804 0.32500884 0.40282172 -0.31866348 0.048275184 -0.009500361 0.03524159 0.11646603
-0.17092808 0.001047759 -0.053231176 -0.13132821 0.16747728 0.26193455 0.04056907 -0.27662176
-0.077570215 -0.45429558 -0.22743453 -0.37930313 -0.17403194 0.17900686 -0.06344244 -0.010586658
0.014563857 -0.08433557 0.07981922 0.1499598 0.1014062 0.16032046 0.079964764 -0.0930199
0.046453808 0.14003594 0.08921745 0.1990612 0.12972881 0.1657469 0.048618376 -0.051164165
0.2109827 0.33660948 0.2778175 0.2227318 0.31527683 0.10535438 0.07714333 -0.008151324
-0.13708039 -0.06271741 -0.05375915 0.15171298 -0.09614725 -0.10241364 0.07113261 -0.20902984
-0.15171367 -0.12626702 0.18785036 0.21992102 0.28752828 0.13488577 0.08053315 0.17337556
0.006183393 -0.019155841 -0.063699916 -0.18088204 -0.040951792 -0.0074055465 -0.20206194 -0.38170248
-0.3308878 -0.15446177 -0.31532547 -0.39311063 0.031541236 -0.018234376 -0.033217445 -0.091918066
-0.18479453 -0.12040353 -0.045096394 -0.16237663 -0.1920403 -0.10578194 -0.29997477 -0.3274192
-0.13001251 -0.1134815 -0.05399379 -0.0720029 0.029690217 -0.0069244495 -0.10236795 -0.16615236
-0.14152025 -0.24466161 -0.107183084 0.0036089895 -0.06190468 0.120358504 0.2773891 0.022703482
0.023386223 0.07484176 0.1230375 0.23187226 0.060137514 0.21284577 0.23751254 0.055757042
-0.17244856 0.07387001 -0.0032994684 -0.17100945 0.28008723 0.007665551 -0.10564598 0.26576462
-0.06562876 0.015536444 -0.050481033 0.033628337 0.101404294 -0.09394767 -0.012472978 0.07489575
-0.070459895 -0.056143407 -0.24416175 0.17373142 0.011614625 -0.2445276 0.1561753 -0.023182752
-0.14472549 0.15710469 0.012121925 -0.064323425 -0.117978625 0.06830714 -0.034399718 -0.12923288
0.0353532 -0.0051385234 -0.12432759 0.13678916 0.023254229 -0.113088086 0.088854976 0.015846135
-0.08904616 0.0051263077 0.12289833 -0.13105157 0.043837596 -0.2132651 0.074265786 0.021215295
-0.116535336 0.16765387 0.08137015 -0.16351867 -0.05495606 0.14337152 -0.1851053 0.34929642
-0.037846446 -0.5696302 0.55887157 -0.06616064 -0.39646906 0.31233904 0.06658999 0.34761104
-0.26514876 -0.019025393 0.5234691 -0.5527558 0.03471102 0.32174337 -0.35522312 -0.036291804
0.040809702 -0.07043955 0.10537288 -0.13939366 0.69420266 -0.59306836 0.23375104 -0.38554165
0.17526254 0.07575679 0.00022179024 -0.08371707 0.00816172 -0.088357784 0.027554603 -0.07538928
0.019619972 0.06042221 0.007953304 -0.070305705 0.00027231156 -0.0814065 -0.12897275 -0.025633018
0.09545451 -0.073535316 -0.045970276 -0.035972387 0.06521546 -0.0572595 0.10315739 -0.046122212
-0.069241084 0.021009784 -0.08371359 0.052107394 0.034418296 0.0275759 -0.094820954 0.069494925
00000000: 08a8 023e a3ce 82bd 001a 0abd 0696 98bc
00000010: a8e0 49be 2f0f 12bd 0ef3 babd ca79 93bb
00000020: 948f 4c3d 52ca 953e 1dc2 683e 6051 58be
00000030: 1693 903e c2ce 3cbe 6db8 a7be cca0 22be
00000040: d2cd 98be 8bd2 823e 851d d23d 71a5 9e3d
00000050: 1e16 98bd b5d7 673e bf25 9ebd 95da 75bd
00000060: 862f 653d c887 3dbe 0c0a 61bc f98e 81be
00000070: 7cc8 a7bd 4c5b a23e 5fc0 1dbe ab1a 003f
00000080: 695a 8d3e 8f67 a63e a63e ce3e dc27 a3be
00000090: 33bc 453d 67a7 1bbc 7c59 103d be85 ee3d
000000a0: c507 2fbe f554 893a ef08 5abd e77a 06be
000000b0: 2a7f 2b3e 491c 863e c12b 263d 5ea1 8dbe
000000c0: 22dd 9ebd 6e99 e8be 99e4 68be 0534 c2be
000000d0: 6e35 32be 934d 373e 1cee 81bd a973 2dbc
000000e0: 3e9d 6e3c 21b8 acbd 4278 a33d 108f 193e
000000f0: 0eae cf3d 0c2b 243e 91c4 a33d 3881 bebd
00000100: 5946 3e3d 9565 0f3e a3b7 b63d b3d6 4b3e
00000110: a1d7 043e 8eb9 293e 1024 473d 8491 51bd
00000120: d90b 583e 1458 ac3e 183e 8e3e ce13 643e
00000130: f76b a13e 0ac4 d73d 52fd 9d3d 218d 05bc
00000140: cd5e 0cbe fc71 80bd 8e32 5cbd a65a 1b3e
00000150: d9e8 c4bd 3ebe d1bd f9ad 913d eb0b 56be
00000160: d45a 1bbe 244c 01be d85b 403e fa32 613e
00000170: e836 933e 7f1f 0a3e 90ee a43d 5d89 313e
00000180: 0f9e ca3b b6ec 9cbc 1a75 82bd 2439 39be
00000190: 11bd 27bd 3aaa f2bb 53e9 4ebe 826e c3be
000001a0: 206a a9be 3a2b 1ebe 5772 a1be cc45 c9be
000001b0: 6231 013d 4260 95bc 040f 08bd 8a3f bcbd
000001c0: c73a 3dbe 2096 f6bd ffb6 38bd 0f46 26be
000001d0: 36a6 44be 34a4 d8bd 4b96 99be 7da3 a7be
000001e0: 0022 05be fd68 e8bd 9828 5dbd 4276 93bd
000001f0: e638 f33c 7ee6 e2bb 4aa6 d1bd d823 2abe
00000200: afea 10be 9388 7abe ce82 dbbd cc84 6c3b
00000210: c38f 7dbd 857e f63d f205 8e3e a7fc b93c
00000220: 7794 bf3c a346 993d 16fb fb3d ec6f 6d3e
00000230: c152 763d 3ef4 593e 7d36 733e 7f61 643d
00000240: 5b96 30be 2949 973d e53b 58bb 1a1d 2fbe
00000250: 9867 8f3e 4d2f fb3b eb5c d8bd 4d12 883e
00000260: 5f68 86bd 928c 7e3c 33c5 4ebd debd 093d
00000270: 0ead cf3d a367 c0bd 765b 4cbc f162 993d
00000280: 474d 90bd a1f6 65bd 8a05 7abe a6e6 313e
00000290: 454b 3e3c 7165 7abe 6bec 1f3e c1e9 bdbc
000002a0: eb32 14be 0de0 203e 0a9b 463c 00bc 83bd
000002b0: c79e f1bd 9de4 8b3d b8e6 0cbd a055 04be
000002c0: 84ce 103d 0f61 a8bb 779f febd 7512 0c3e
000002d0: a77f be3c ba9a e7bd 99f9 b53d c1cf 813c
000002e0: d55d b6bd 96fa a73b 1fb2 fb3d 6232 06be
000002f0: 0d8f 333d 2b62 5abe a918 983d b3cb ad3c
00000300: 14aa eebd 75ad 2b3e 65a5 a63d 7071 27be
00000310: 9b19 61bd fccf 123e 3e8c 3dbe fbd6 b23e
00000320: e004 1bbd 49d3 11bf 3512 0f3f 3b7f 87bd
00000330: fefd cabe e7ea 9f3e 5560 883d 13fa b13e
00000340: 94c1 87be 24db 9bbc 1202 063f 6781 0dbf
00000350: 242d 0e3d 8cbb a43e cedf b5be b7a6 14bd
00000360: 1328 273d 9c42 90bd bdcd d73d 36bd 0ebe
00000370: 44b7 313f 54d3 17bf 6f5c 6f3e b765 c5be
00000380: 0678 333e 6026 9b3d 5d90 6839 db73 abbd
00000390: bcb8 053c edf4 b4bd 31ba e13c b265 9abd
000003a0: 10ba a03c 477d 773d 934e 023c 70fc 8fbd
000003b0: 0ac5 8e39 73b8 a6bd 6f11 04be 56fc d1bc
000003c0: a77d c33d af99 96bd 544b 3cbd c857 13bd
000003d0: af8f 853d f088 6abd 2f44 d33d a5ea 3cbd
000003e0: 45ce 8dbd b61c ac3c 0872 abbd 906e 553d
000003f0: 33fa 0c3d dbe6 e13c 7d31 c2bd 5b53 8e3d

layer2.0.bn1.weight f4 [16]
0.60307866 0.6738026 0.7265411 0.7317771 0.3602776 0.68484694 0.72519433 0.8116745
0.8477203 0.5491971 0.7999652 0.66836286 0.8002165 0.47362474 0.58380556 0.6406848
00000000: 5d63 1a3f 547e 2c3f 99fe 393f be55 3b3f
00000010: 4e76 b83e 2152 2f3f 56a6 393f e6c9 4f3f
00000020: 3304 593f 2e98 0c3f 85ca 4c3f d419 2b3f
00000030: fdda 4c3f f17e f23e 4874 153f eb03 243f

layer2.0.bn1.bias f4 [16]
0.022889204 0.23136355 -0.03887002 -0.060292747 0.9869347 -0.05057315 -0.06682441 -0.11507471
-0.17059721 0.18559709 -0.10501761 -0.047076 -0.05705596 0.24316314 0.6129872 -0.04942361
00000000: 2482 bb3c 91ea 6c3e 2c36 1fbd 87f5 76bd
00000010: c1a7 7c3f cb25 4fbd 3cdb 88bd 4aac ebbd
00000020: 09b1 2ebe 2a0d 3e3e 7913 d7bd c4d2 40bd
00000030: 83b3 69bd c2ff 783e bbec 1c3f 6970 4abd

layer2.0.bn1.running_mean f4 [16]
0.37859815 -2.033366 -0.32390502 -0.3693315 -0.3782391 -0.492474 -0.53980845 -1.8683343
-2.8346999 3.1335902 -0.74829566 -0.33075675 -0.96689206 -0.08084829 -2.2156506 -0.38973165
00000000: 9ed7 c13e ab22 02c0 e1d6 a5be 0519 bdbe
00000010: 8ea8 c1be 8d25 fcbe e330 0abf 9425 efbf
00000020: b96b 35c0 be8c 4840 4e90 3fbf f358 a9be
00000030: 3d86 77bf ca93 a5bd 38cd 0dc0 e88a c7be

layer2.0.bn1.running_var f4 [16]
1.8836677 11.393315 6.603627 4.724035 2.5535665 5.8849726 6.724104 6.1043925
6.2108316 6.140675 5.7581677 5.6941934 5.7146153 4.7997684 6.8362656 3.576195
00000000: 061c f13f 054b 3641 ea50 d340 4b2b 9740
00000010: a26d 2340 b251 bc40 dc2b d740 2f57 c340
00000020: 22bf c640 6980 c440 e942 b840 d536 b640
00000030: 21de b640 b497 9940 b0c2 da40 61e0 6440

layer2.0.conv2.weight f4 [16, 16, 3, 3]
-0.05153188 -0.08104519 -0.00163399 -0.046028238 0.010008366 -0.07593201 -0.012822968 -0.10961963
-0.02379593 -0.1723212 -0.3579641 -0.44659758 0.20225781 0.19574209 0.0037392357 0.3617743
0.5911982 0.30168265 -0.0038621859 0.02346774 0.02723166 -0.009121109 -0.11940147 -0.028362228
-0.031584 0.076545015 0.19127476 -0.06108279 0.065678924 -0.10273688 -0.13426861 -0.113456264
-0.0744368 -0.01404919 -0.018861417 0.021498691 0.14762533 0.014831337 0.16048263 -0.21390153
-0.14137392 -0.049062513 -0.20152111 -0.13151404 0.07886595 -0.08797661 -0.045135025 -0.16767594
0.0735752 -0.08855322 0.084059216 -0.03126149 0.028466346 -0.09959048 -0.05195712 0.018232403
0.042916954 -0.044322472 0.13284859 0.03192082 -0.07780014 0.10865412 0.014996512 -0.05972611
-0.056524016 0.009681729 -0.01437608 0.09943011 -0.15020835 0.056193892 0.16128442 0.077936605
-4.341733e-05 0.057216913 -0.06321288 -0.030849915 0.006919721 -0.23996082 -0.036736656 -0.054392442
-0.01748763 0.19084613 0.38951972 0.214052 -0.10703097 -0.017697824 0.07891868 -0.28313065
-0.5017866 -0.40740198 0.03548669 -0.06344048 -0.03979383 0.079372846 0.21527267 0.044315804
0.0072407676 0.044504263 0.10509657 -0.10016242 0.13734265 -0.0149338795 -0.04087813 0.38290915
-0.0018636594 -0.032937475 0.053346988 0.028571447 -0.034989692 -0.051676903 -0.082368314 -0.16798404
0.1177341 -0.061674524 0.079228565 0.02089417 -0.016573042 0.0998632 -0.08167576 0.028486501
0.0066586835 -0.13262786 -0.14043565 -0.0039910036 0.20119917 -0.008047873 0.03808682 -0.084509276
0.015722968 -0.039568543 -0.044337645 -0.077801734 -0.09119924 -0.002462099 -0.026468161 -0.032181494
-0.034610488 -0.0966053 -0.07043731 0.037286557 -0.16608325 -0.023382748 -0.091425724 -0.028816208
-0.021539034 -0.08199833 0.013185475 0.028503878 -0.15802744 -0.2024547 0.12563601 -0.058699615
-0.14368737 0.09239809 0.06699112 0.003672175 0.0050272625 -0.09183449 -0.0047758957 -0.056560315
-0.0257613 -0.020539142 -0.07157301 0.2636397 -0.11128199 -0.13419731 -0.20524246 0.2703884
0.11901457 -0.15627843 0.025370322 0.0046147886 0.05144678 -0.14901699 -0.119545855 0.083338864
0.06276904 -0.043434445 -0.1391053 0.08200801 -0.046195284 -0.39681876 -0.21320929 0.38397244
0.14510001 0.025543028 -0.11823747 0.17117792 0.14722997 -0.01778678 0.24512622 -0.04277897
-0.0990638 -0.116105 0.17644304 0.018165622 -0.11837235 -0.15558004 0.02052837 0.18729313
-0.08152911 -0.16048108 0.09584382 -0.24704593 0.03550576 -0.25239888 0.226201 -0.03778566
0.20406225 0.077980116 -0.26710182 0.3965633 0.6467997 -0.25260994 -0.2392022 0.21678457
-0.015892353 0.04536017 0.037961297 -0.024657505 -0.020709917 -0.21992591 0.08883193 0.03374566
-0.056347497 0.022192942 -0.075215474 -0.040531043 -0.10898333 0.10396367 -0.11812472 -0.107866265
-0.010931579 -0.02853396 0.02361484 -0.02691465 -0.105928876 0.049698263 -0.1342762 -0.123747855
0.13673301 -0.002935622 0.066791855 -0.0370055 0.01495753 -0.044060208 0.02258507 -0.044356655
-0.10534419 0.03995133 -0.03250325 -0.12628517 -0.22033694 0.33210188 0.044787455 -0.2821594
00000000: 1813 53bd 05fb a5bd 9b2b d6ba 1b88 3cbd
00000010: 21fa 233c 3e82 9bbd 6d17 52bc 4280 e0bd
00000020: afef c2bc f874 30be 1247 b7be 70a8 e4be
00000030: ac1c 4f3e 9d70 483e f70d 753b 7b3a b93e
00000040: c458 173f 2676 9a3e ba1c 7dbb 6b3f c03c
00000050: ee14 df3c b470 15bc c288 f4bd e757 e8bc
00000060: 395e 01bd a2c3 9c3d 88dd 433e f331 7abd
00000070: ac82 863d b767 d2bd b67d 09be c25b e8bd
00000080: 5272 98bd 932e 66bc 4283 9abc 061e b03c
00000090: 182b 173e 23ff 723c 8f55 243e 0109 5bbe
000000a0: 53c4 10be c6f5 48bd 8d5b 4ebe 9eab 06be
000000b0: 7984 a13d 152d b4bd 81df 38bd 3eb3 2bbe
000000c0: 98ae 963d 645b b5bd 3d27 ac3d 0c0c 00bd
000000d0: 4132 e93c 18f6 cbbd fdd0 54bd 1f5c 953c
000000e0: b0c9 2f3d 7b8b 35bd 7609 083e 68bf 023d
000000f0: ae55 9fbd 0d86 de3d eeb3 753c 5ea3 74bd
00000100: ba85 67bd 1da0 1e3c a689 6bbc 03a2 cb3d
00000110: 38d0 19be 912b 663d be27 253e 3a9d 9f3d
00000120: 011b 36b8 485c 6a3d c175 81bd f6b8 fcbc
00000130: d4be e23b 4ab8 75be 2d79 16bd 9cca 5ebd
00000140: 3842 8fbc 2b6d 433e 216f c73e 7330 5b3e
00000150: 0e33 dbbd 07fb 90bc 1ea0 a13d 80f6 90be
00000160: 1675 00bf fe96 d0be 7e5a 113d 15ed 81bd
00000170: dbfe 22bd 3b8e a23d 7070 5c3e 7d84 353d
00000180: f643 ed3b 1a4a 363d df3c d73d f421 cdbd
00000190: 8da3 0c3e 3bad 74bc d36f 27bd ab0c c43e
000001a0: 0846 f4ba 72e9 06bd 5f82 5a3d ab0e ea3c
000001b0: 5a51 0fbd 29ab 53bd b8b0 a8bd 0204 2cbe
000001c0: 931e f13d 6d9e 7cbd 9642 a23d 402a ab3c
000001d0: 30c4 87bc 1485 cc3d 9f45 a7bd 865c e93c
000001e0: 1631 da3b 99cf 07be 5dce 0fbe f7c6 82bb
000001f0: 2807 4e3e 3adb 03bc ed00 1c3d 3313 adbd
00000200: 74cd 803c a012 22bd 649b 35bd 8456 9fbd
00000210: abc6 babd 2b5b 21bb c2d3 d8bc bed0 03bd
00000220: bac3 0dbd 00d9 c5bd 7041 90bd cab9 183d
00000230: ba11 2abe 2d8d bfbc 693d bbbd f80f ecbc
00000240: a172 b0bc beee a7bd e407 583c f780 e93c
00000250: f2d1 21be 4950 4fbe baa6 003e 026f 70bd
00000260: c822 13be 363b bd3d a432 893d e0a8 703b
00000270: bcbb a43b b913 bcbd 1e7f 9cbb caab 67bd
00000280: 5d09 d3bc b441 a8bc df94 92bd c8fb 863e
00000290: d0e7 e3bd 056b 09be 142b 52be 5970 8a3e
000002a0: e9bd f33d 7407 20be 6cd5 cf3c a737 973b
000002b0: dcb9 523d e997 18be 75d4 f4bd 91ad aa3d
000002c0: 0e8d 803d 51e8 31bd 9f71 0ebe d1f3 a73d
000002d0: 4437 3dbd d42b cbbe 8953 5abe 0998 c43e
000002e0: 1995 143e 9d3f d13c 7d26 f2bd 4449 2f3e
000002f0: 74c3 163e 95b5 91bc 5e02 7b3e 0039 2fbd
00000300: f6e1 cabd 75c8 edbd 7cad 343e 12d0 943c
00000310: 346d f2bd 6050 1fbe 1d2b a83c c5c9 3f3e
00000320: bcf8 a6bd 2755 24be c449 c43d 9cf9 7cbe
00000330: 7d6e 113d 6d3a 81be 3ca1 673e 23c5 1abd
00000340: b2f5 503e 0ab4 9f3d 92c1 88be 580a cb3e
00000350: aa94 253f 1756 81be 6cf1 74be c6fc 5d3e
00000360: ae30 82bc 96cb 393d 4e7d 1b3d 89fe c9bc
00000370: d8a7 a9bc 4234 61be 84ed b53d e438 0a3d
00000380: a2cc 66bd f9cd b53c 920a 9abd e103 26bd
00000390: a732 dfbd e8ea d43d 60eb f1bd fde8 dcbd
000003a0: 5e1a 33bc 0dc0 e9bc e973 c13c 1d7c dcbc
000003b0: 3df1 d8bd 6890 4b3d b37f 09be 846f fdbd
000003c0: bd03 0c3e 9063 40bb 2bca 883d 1493 17bd
000003d0: 6e10 753c 7a78 34bd 5304 b93c 53af 35bd
000003e0: b2be d7bd 01a4 233d 2122 05bd e650 01be
000003f0: 02a0 61be 4209 aa3e 0d73 373d 3277 90be

layer2.0.bn2.weight f4 [16]
0.6873491 0.8031274 0.7128312 0.6273454 0.57744896 0.62213856 0.5208765 0.81838053
0.56304246 0.82565224 0.7117914 0.5370995 0.6975691 0.68235666 0.40142342 1.3953526
00000000: 1cf6 2f3f c299 4d3f 1b7c 363f b599 203f
00000010: b2d3 133f 7944 1f3f 2a58 053f 6381 513f
00000020: 8d23 103f f25d 533f f637 363f 5a7f 093f
00000030: e393 323f edae 2e3f 5f87 cd3e ea9a b23f

layer2.0.bn2.bias f4 [16]
-0.006488031 -0.10286529 0.22119585 0.56602657 0.19588931 0.51615983 0.5777821 0.06361307
-0.010344217 -0.039774276 0.30449083 -0.06490693 0.08108483 0.14971037 -0.08638773 -0.19588093
00000000: 8c99 d4bb 0aab d2bd 2a81 623e 1ee7 103f
00000010: 3597 483e 0d23 043f 87e9 133f 9247 823d
00000020: ca7a 29bc 5aea 22bd 39e6 9b3e eded 84bd
00000030: ce0f a63d ad4d 193e 0dec b0bd 0395 48be

layer2.0.bn2.running_mean f4 [16]
-0.58098155 0.0061490536 -0.01585979 0.4793772 -0.46295062 1.073697 -0.7574313 -0.43600824
-0.32863608 -0.36050102 1.8786142 -0.6608255 0.22503482 -0.9279421 0.98109704 -0.9634295
00000000: 35bb 14bf 007e c93b 64ec 81bc ee70 f53e
00000010: dd07 edbe e76e 893f 05e7 41bf 793c dfbe
00000020: fd42 a8be 9793 b8be 6e76 f03f dc2b 29bf
00000030: 876f 663e 9d8d 6dbf 2d29 7b3f 51a3 76bf

layer2.0.bn2.running_var f4 [16]
0.6286634 0.4850776 0.9620695 1.0911756 1.0703694 0.9802019 1.0129638 0.59196824
0.28149095 0.8888864 1.4322231 0.26447803 0.87076026 0.6688738 0.26723596 1.0707072
00000000: 16f0 203f 175c f83e 304a 763f a4ab 8b3f
00000010: dd01 893f 83ee 7a3f cca8 813f 3b8b 173f
00000020: 951f 903e 0f8e 633f 1653 b73f aa69 873e
00000030: 25ea 5e3f 503b 2b3f 27d3 883e ef0c 893f

layer2.0.shortcut.0.weight f4 [16, 8, 1, 1]
0.51917106 0.1271074 0.02478026 0.36779538 0.13493904 -0.22788705 -0.034792587 -0.121095575
-0.20940639 -0.09604939 0.02173995 -0.11069069 -0.0011323665 -0.14458662 -0.17608884 0.056193817
0.025394522 -0.14320973 0.12764083 0.55232614 0.41134882 0.38278833 0.06979741 -0.094206624
0.15738896 0.17030255 0.20643604 0.37077242 0.12920967 -0.13654749 -0.06069063 -0.21405973
0.044569053 0.11962031 0.019259008 -0.34705386 0.2065273 0.07262654 -0.015374868 -0.03254073
-0.07507962 -0.012207231 -0.09925095 -0.030431518 -0.07274231 0.05811205 -0.16806807 0.28083807
0.12116784 0.13828264 -0.0122995945 0.01012336 -0.029184338 -0.32881594 -0.13514051 0.14691488
0.18601424 -0.009685118 -0.0681129 -0.08023025 0.14171068 0.35430497 -0.20467515 0.06816185
0.16226776 0.33792934 0.026539894 -0.35820416 0.26481614 0.01994822 0.098383434 -0.14044857
0.17277345 0.017461112 -0.02175046 -0.18742345 0.0971063 -0.34200507 -0.037698943 0.1745268
0.13219577 -0.045314748 0.18428567 -0.20718606 -0.1000833 -0.09608023 0.02883119 -0.23347852
0.03318127 0.5007812 -0.093706384 0.22058508 -0.7475783 0.09956713 0.0043496992 0.036445204
-0.05833416 -0.11699986 -0.036817204 0.21901014 -0.3071408 -0.46583933 -0.045076277 0.05610235
0.39321154 0.14997254 -0.1110843 0.28457704 0.0023592368 -0.27081278 0.07018411 -0.13379252
0.049012806 -0.39128736 0.007306673 -0.21880834 0.94258034 -0.22830318 -0.026665134 -0.038202334
-0.05522022 0.006131454 -0.29095906 0.1558409 -0.043789715 0.3090033 -0.09781481 0.15042055
00000000: 65e8 043f 7128 023e f9ff ca3c ad4f bc3e
00000010: 762d 0a3e 395b 69be ac82 0ebd f500 f8bd
00000020: a16e 56be 8bb5 c4bd fb17 b23c cdb1 e2bd
00000030: ea6b 94ba 840e 14be a250 34be 7d2b 663d
00000040: 2c08 d03c 92a5 12be 47b4 023e 3f65 0d3f
00000050: 509c d23e d5fc c33e f2f1 8e3d 67ef c0bd
00000060: 922a 213e cb63 2e3e f863 533e e2d5 bd3e
00000070: 8a4f 043e 1bd3 0bbe bd96 78bd 7932 5bbe
00000080: 0a8e 363d 7efb f43d 11c5 9d3c 0bb1 b1be
00000090: e47b 533e 39bd 943d dfe6 7bbc 6e49 05bd
000000a0: 58c3 99bd d600 48bc 1544 cbbd 854b f9bc
000000b0: ecf9 94bd e706 6e3d 091a 2cbe 02ca 8f3e
000000c0: d826 f83d f799 0d3e 3d84 49bc 73dc 253c
000000d0: fe13 efbc 905a a8be 4662 0abe db70 163e
000000e0: 847a 3e3e 54ae 1ebc c77e 8bbd c24f a4bd
000000f0: 9b1c 113e 7667 b53e 5d96 51be 7198 8b3d
00000100: 8529 263e 1305 ad3e 316a d93c 8966 b7be
00000110: fb95 873e 736a a33c 417d c93d c0d1 0fbe
00000120: 86eb 303e 9b0a 8f3c 052e b2bc efeb 3fbe
00000130: abdf c63d 4a1b afbe 356a 1abd 27b7 323e
00000140: 545e 073e f59b 39bd 62b5 3c3e 9528 54be
00000150: 79f8 ccbd b6c5 c4bd 632f ec3c fe14 6fbe
00000160: 15e9 073d 3233 003f 22e9 bfbd 0ee1 613e
00000170: 4b61 3fbf dae9 cb3d ec87 8e3b 9147 153d
00000180: cdef 6ebd 9f9d efbd a3cd 16bd 3244 603e
00000190: 8f41 9dbe 7e82 eebe e7a1 38bd 94cb 653d
000001a0: 0653 c93e 6792 193e 2a80 e3bd 15b4 913e
000001b0: 6d9d 1a3b f9a7 8abe b0bc 8f3d e800 09be
000001c0: a7c1 483d d156 c8be d16c ef3b 4b0f 60be
000001d0: f24c 713f 4fc8 69be d770 dabc 0d7a 1cbd
000001e0: 992e 62bd 5dea c83b 96f8 94be c294 1f3e
000001f0: d85c 33bd ae35 9e3e 2253 c8bd d807 1a3e

layer2.0.shortcut.1.weight f4 [16]
0.55005497 0.18571714 0.3516521 0.11765742 0.11295565 0.08237632 0.073158726 0.28517732
0.32074964 0.1633683 0.13469684 0.59993446 0.30785507 0.28917316 0.6257785 0.35969496
00000000: 67d0 0c3f a22c 3e3e be0b b43e 60f6 f03d
00000010: 4b55 e73d ebb4 a83d 3ed4 953d c302 923e
00000020: 4c39 a43e 054a 273e f8ed 093e 4e95 193f
00000030: 2e9f 9d3e 810e 943e 0533 203f f029 b83e

layer2.0.shortcut.1.bias f4 [16]
-0.006488031 -0.10286529 0.22119585 0.56602657 0.19588931 0.51615983 0.5777821 0.06361307
-0.010344217 -0.039774276 0.30449083 -0.06490693 0.08108483 0.14971037 -0.08638773 -0.19588093
00000000: 8c99 d4bb 0aab d2bd 2a81 623e 1ee7 103f
00000010: 3597 483e 0d23 043f 87e9 133f 9247 823d
00000020: ca7a 29bc 5aea 22bd 39e6 9b3e eded 84bd
00000030: ce0f a63d ad4d 193e 0dec b0bd 0395 48be

layer2.0.shortcut.1.running_mean f4 [16]
0.8419017 -0.7738603 1.6011587 0.5143213 -0.032273583 0.023104656 -0.18611251 0.6503894
0.22218694 -0.25124505 -0.5418064 0.15586701 -0.8631157 0.40970212 -0.038934246 0.49631786
00000000: df86 573f b51b 46bf c5f2 cc3f 90aa 033f
00000010: 4e31 04bd fa45 bd3c 4794 3ebe eb7f 263f
00000020: f984 633e 31a3 80be d3b3 0abf 9a9b 1f3e
00000030: 27f5 5cbf 7ac4 d13e 8479 1fbd 601d fe3e

layer2.0.shortcut.1.running_var f4 [16]
0.6661431 0.27352613 0.9029837 0.24343635 0.18072146 0.22996604 0.22483629 0.3107671
0.45374954 0.2903894 0.40182838 0.56121904 0.4734112 0.4861856 0.69024324 0.53925985
00000000: 5b88 2a3f 9e0b 8c3e f129 673f 6147 793e
00000010: 0c0f 393e 387c 6b3e 7c3b 663e de1c 9f3e
00000020: dc51 e83e ebad 943e 73bc cd3e 0dac 0f3f
00000030: f462 f23e 52ed f83e c8b3 303f ef0c 0a3f

layer3.0.conv1.weight f4 [32, 16, 3, 3]
-0.03187018 0.13413158 0.0842993 0.049305994 0.11215049 0.16814868 0.10421362 0.12793548
0.10755824 -0.041919477 -0.009807076 0.05519584 -0.079270914 -0.044423513 0.043536454 -0.036830775
0.015074575 0.0752757 -0.0534908 -0.10807293 -0.034155738 -0.25080976 -0.36176085 -0.16149198
-0.1421047 -0.30810955 -0.054993737 -0.06542548 -0.10201578 -0.10627925 0.017217567 -0.15212275
-0.25774097 0.10902111 0.013410922 -0.08716205 0.41299307 0.21696328 0.10816336 -0.041196957
-0.11764629 -0.0294943 -0.30508578 -0.22522846 0.05138268 -0.055776175 -0.02305879 0.033641618
-0.117381595 -0.20841247 -0.034566727 -0.06478153 -0.11422744 0.059080232 -0.025670743 -0.029069617
0.10712524 -0.0045103426 0.09522515 0.1735743 0.061192796 0.08830143 0.15608573 -0.06633272
-0.006159236 0.03770062 -0.028297292 -0.03611664 -0.0068872757 -0.002678667 -0.09324089 0.011391716
-0.11586514 -0.1517761 -0.08139262 -0.1114313 -0.14088923 -0.1213436 0.0012425069 -0.06762423
-0.08862026 -0.09688825 -0.09793163 -0.024855351 0.11668369 0.22492307 0.12688226 0.14892472
0.21478936 0.103741504 0.028964179 -0.07114235 -0.04333672 0.18810743 0.037486363 0.04707226
0.18947916 0.09278277 0.021199888 0.06075547 0.09324207 0.04859673 -0.010380966 0.028916806
0.11504308 -0.060853 0.050943296 0.14958183 -0.031061986 0.0919571 0.07213759 0.11136962
0.18636374 0.08975224 0.08008924 0.09765219 -0.019186914 0.150052 0.07078412 -0.03930309
0.05770404 -0.052679442 -0.0933204 -0.035536963 -0.15658611 -0.0684482 -0.06864428 -0.04189896
-0.02905908 -0.014167033 0.040356062 0.095621005 0.0053389296 0.110281125 0.16666892 -0.05412621
-0.12612961 -0.11147502 -0.1349833 -0.16551417 -0.19454582 -0.14524916 -0.2519693 -0.16832924
0.09593179 -0.008247167 -0.0777309 0.12972789 0.0016395075 -0.019929115 -0.033644274 0.00655161
0.07084811 0.101880565 0.11967111 0.111374825 0.13137792 0.30519179 0.28703696 0.110582404
0.27835536 0.22347076 -0.010333428 0.031156773 0.024386069 -0.038823824 0.068098165 0.12990016
-0.04057561 0.15165025 0.14467882 -0.09606335 0.09128848 0.11982222 -0.23720345 -0.08956519
0.06872985 0.102926895 0.030608198 0.021552581 -0.13958131 -0.0865598 0.19636859 -0.05490116
-0.15758818 -0.0031254136 0.12763713 -0.022822015 -0.12402824 -0.00040186968 -0.07365403 -0.12761845
0.0878867 0.054611627 -0.022893788 0.054829102 0.059529617 0.066731244 0.19066577 0.034085855
-0.002435689 0.076568305 -0.07519234 0.04574531 -0.00043727597 0.085198954 0.19094764 -0.29232904
-0.2539668 -0.08994483 -0.28242096 -0.4240676 -0.2814439 -0.12780994 -0.25983247 -0.22464046
0.09117553 0.12064584 0.068878435 0.1557394 0.31190902 0.1872591 0.067069 0.20146856
0.16546641 -0.07280698 -0.0341471 0.023427878 -0.01951216 0.057692215 -0.025330093 0.09548654
0.081227414 0.04245096 -0.16611676 -0.09964114 0.011015705 -0.11541509 -0.11383195 -0.105826385
0.01893149 -0.018893974 -0.110805616 -0.0142798945 0.028356314 0.022064328 -0.04427724 -0.016767541
0.010989113 -0.036913987 -0.01833005 0.014140787 0.026151726 0.07595414 -0.031318847 0.038615856
00000000: 4e8a 02bd ca59 093e 1da5 ac3d 15f5 493d
00000010: 28af e53d 2b2f 2c3e f36d d53d 8501 033e
00000020: 7f47 dc3d c2b3 2bbd dcad 20bc 0815 623d
00000030: ca58 a2bd 6ef5 35bd 4853 323d dedb 16bd
00000040: 5afb 763c 252a 9a3d 2b19 5bbd 5755 ddbd
00000050: e3e6 0bbd 236a 80be b838 b9be 275e 25be
00000060: e583 11be 89c0 9dbe 1d41 61bd cbfd 85bd
00000070: a6ed d0bd efa8 d9bd db0b 8d3c 11c6 1bbe
00000080: a0f6 83be 7646 df3d 7cb9 5b3c 0482 b2bd
00000090: d473 d33e 9f2b 5e3e c084 dd3d 24be 28bd
000000a0: 8af0 f0bd 089e f1bc 3434 9cbe 4aa2 66be
000000b0: a576 523d 8f75 64bd cae5 bcbc cbcb 093d
000000c0: c365 f0bd 146a 55be d795 0dbd 2eac 84bd
000000d0: 13f0 e9bd 1dfe 713d 734b d2bc 6823 eebc
000000e0: 7a64 db3d 7fcb 93bb 6705 c33d 76bd 313e
000000f0: 4ca5 7a3d 61d7 b43d f0d4 1f3e 73d9 87bd
00000100: 6bd3 c9bb f76b 1a3d b9cf e7bc 0bef 13bd
00000110: a8ae e1bb 938c 2fbb 14f5 bebd 52a4 3a3c
00000120: b44a edbd 326b 1bbe 2db1 a6bd 1836 e4bd
00000130: 4445 10be fe82 f8bd 9ddb a23a 937e 8abd
00000140: 8a7e b5bd 596d c6bd 6190 c8bd 739d cbbc
00000150: dcf7 ee3d 3c52 663e 6ced 013e b97f 183e
00000160: bef1 5b3e 6d76 d43d 4946 ed3c 15b3 91bd
00000170: d881 31bd 3c9f 403e 4d8b 193d d8ce 403d
00000180: d306 423e e504 be3d 63ab ad3c bada 783d
00000190: b3f5 be3d 5d0d 473d ed14 2abc f0e2 ec3c
000001a0: b59b eb3d ff40 79bd eba9 503d fb2b 193e
000001b0: b575 febc 0154 bc3d dfbc 933d c115 e43d
000001c0: 23d6 3e3e 06d0 b73d d405 a43d dffd c73d
000001d0: e02d 9dbc 3ba7 193e 44f7 903d 47fc 20bd
000001e0: 125b 6c3d 66c6 57bd c41e bfbd 358f 11bd
000001f0: 1c58 20be 922e 8cbd 5f95 8cbd 3e9e 2bbd
00000200: 4f0d eebc d81c 68bc 664c 253d f2d4 c33d
00000210: 30f2 ae3b 12db e13d 42ab 2a3e 72b3 5dbd
00000220: 1f28 01be 044d e4bd 1039 0abe 8c7c 29be
00000230: 0537 47be 32bc 14be 1f02 81be 805e 2cbe
00000240: e377 c43d 201f 07bc 6131 9fbd 63d7 043e
00000250: bee4 d63a 6242 a3bc 94ce 09bd e3ae d63b
00000260: d018 913d c2a6 d03d 2016 f53d 7c18 e43d
00000270: ef87 063e 1942 9c3e 82f6 923e 0779 e23d
00000280: 9884 8e3e 85d5 643e 8a4d 29bc 7d3c ff3c
00000290: 4bc5 c73c bb05 1fbd 0d77 8b3d 8c04 053e
000002a0: 9c32 26bd 344a 1b3e af26 143e ddbc c4bd
000002b0: 74f5 ba3d 5a65 f53d 76e5 72be f46d b7bd
000002c0: 3cc2 8c3d 56cb d23d 0bbe fa3c 0a8f b03c
000002d0: 67ee 0ebe 4446 b1bd d914 493e 0ae0 60bd
000002e0: cc5e 21be bdd3 4cbb 4fb3 023e 3cf5 babc
000002f0: 8502 febd 09b2 d2b9 edd7 96bd 69ae 02be
00000300: f1fd b33d 71b0 5f3d c18b bbbc 7b94 603d
00000310: 54d5 733d 64aa 883d e33d 433e 9c9d 0b3d
00000320: 15a0 1fbb d8cf 9c3d 71fe 99bd 6f5f 3b3d
00000330: 3042 e5b9 ca7c ae3d c787 433e 27ac 95be
00000340: f007 82be ff34 b8bd 7b99 90be 631f d9be
00000350: 6a19 90be 9ce0 02be c308 85be 2608 66be
00000360: 3cba ba3d 2b15 f73d 2310 8d3d 267a 1f3e
00000370: 8ab2 9f3e d9c0 3f3e 795b 893d c64d 4e3e
00000380: 0770 293e d31b 95bd d4dd 0bbd d2eb bf3c
00000390: f7d7 9fbc ac4e 6c3d 0e81 cfbc 728e c33d
000003a0: 8f5a a63d 0fe1 2d3d 831a 2abe a710 ccbd
000003b0: 377b 343c bf5e ecbd ba20 e9bd 81bb d8bd
000003c0: 3616 9b3c 89c7 9abc 0eee e2bd 38f6 69bc
000003d0: 804b e83c 40c0 b43c 0d5c 35bd 155c 89bc
000003e0: ae0b 343c 1f33 17bd e728 96bc c2ae 673c
000003f0: 253c d63c d88d 9b3d 3148 00bd a92b 1e3d

layer3.0.bn1.weight f4 [32]
0.31171376 0.59489 0.39973864 0.43556762 0.3865585 1.1151446 0.37010917 0.6224359
0.8877154 0.40758905 0.30092472 0.37557328 0.447556 0.38059554 0.38043186 0.5871913
0.38397914 0.51692873 0.40202585 0.70242906 0.49435583 0.30896473 0.50583553 0.50853425
0.3472192 0.4520129 0.58964163 0.48288313 0.499433 1.0139136 0.36821932 0.39165163
00000000: f298 9f3e b64a 183f 8baa cc3e b802 df3e
00000010: ffea c53e 0fbd 8e3f f37e bd3e f657 1f3f
00000020: 5141 633f 83af d03e ce12 9a3e 244b c03e
00000030: 0f26 e53e 6bdd c23e f7c7 c23e 2b52 163f
00000040: ea98 c43e 7155 043f 55d6 cd3e 64d2 333f
00000050: 351c fd3e a030 9e3e 707e 013f 4d2f 023f
00000060: b7c6 b13e 3c6e e73e c1f2 163f 753c f73e
00000070: afb5 ff3e ecc7 813f 3e87 bc3e 9086 c83e

layer3.0.bn1.bias f4 [32]
0.24765186 -0.046310212 0.12191004 0.012493504 0.050151072 -1.275758 0.20360558 -0.26243535
-0.19809692 0.269243 0.5633617 0.2810636 -0.02036482 0.090879835 -0.00043209165 -0.15736994
0.16159007 -0.09144504 0.013823376 -0.30239114 -0.0604022 0.37908033 0.19284394 -0.08037152
0.083316036 -0.04759452 -0.15085697 0.2834056 0.04451264 -0.4294199 0.11489927 0.21337429
00000000: 7398 7d3e c7af 3dbd f9ab f93d 8eb1 4c3c
00000010: 366b 4d3d 0a4c a3bf fb7d 503e ed5d 86be
00000020: ebd9 4abe 38da 893e 7938 103f 91e7 8f3e
00000030: 1fd4 a6bc 351f ba3d 5c8a e2b9 9625 21be
00000040: de77 253e 8a47 bbbd 717b 623c 03d3 9abe
00000050: 4c68 77bd d116 c23e e278 453e d399 a4bd
00000060: 99a1 aa3d 79f2 42bd 407a 1abe 8a1a 913e
00000070: e352 363d eddc dbbe 4f50 eb3d ca7e 5a3e

layer3.0.bn1.running_mean f4 [32]
-0.7089241 1.1141179 0.08705426 -0.6975369 2.2501438 1.1153651 0.14887275 -0.05721764
0.38243178 -0.40259394 -1.6253313 -0.39552125 -0.5577181 -0.24703273 0.5063614 0.063548274
-0.94741964 0.02241798 -1.0790658 -0.5728271 -0.6005962 -1.9461889 0.11482435 -1.1571044
1.6504134 -1.0504038 -1.1155882 -1.7210828 -0.9489661 -0.87331116 -1.3241911 3.080662
00000000: 0d7c 35bf 6a9b 8e3f 8149 b23d c791 32bf
00000010: 5b02 1040 49c4 8e3f 1972 183e 0b5d 6abd
00000020: 19ce c33e cb20 cebe db0a d0bf c381 cabe
00000030: 9dc6 0ebf 26f6 7cbe e7a0 013f 9925 823d
00000040: 188a 72bf e9a5 b73c d41e 8abf cca4 12bf
00000050: acc0 19bf b81c f9bf 0729 eb3d ff1b 94bf
00000060: bf40 d33f a273 86bf 98cb 8ebf 714c dcbf
00000070: 71ef 72bf 5291 5fbf 187f a9bf 9129 4540

layer3.0.bn1.running_var f4 [32]
1.231068 1.462905 0.955548 0.6634032 0.9683453 0.66116995 1.6261424 0.77824885
1.417676 1.0331806 1.0437698 1.8008646 0.64746606 0.8175063 1.0415785 1.0243856
1.1232891 1.0077492 0.5870123 1.0441331 0.8888187 0.8385352 1.6521232 0.9250096
1.164934 0.6167926 0.71795315 2.1490967 1.1303782 1.3303903 0.96132606 1.3897194
00000000: a393 9d3f 7940 bb3f cb9e 743f cbd4 293f
00000010: 7ae5 773f 6f42 293f 6f25 d03f 513b 473f
00000020: 6876 b53f 433f 843f 409a 853f bb82 e63f
00000030: 56c0 253f 1848 513f 7252 853f 111f 833f
00000040: f0c7 8f3f edfd 803f 7046 163f 27a6 853f
00000050: 9f89 633f 3eaa 563f c678 d33f 6ecd 6c3f
00000060: 8f1c 953f 1fe6 1d3f c7cb 373f cd8a 0940
00000070: 3cb0 903f 3b4a aa3f 7719 763f 53e2 b13f
