meta_results/meta_seed-2_cycles-1_T-4_cifar100-ResNet10_smodel_best.pth.tar (torch, 899319 bytes, 128 tensors)

conv1.weight f4 [8, 3, 3, 3]
00000000: ceb9 be3c 75b5 debe ab07 20be 30bf cb3d
00000010: abfd 12bf 759a b9be 924f 283e 6aa6 7cbd
00000020: 8e7d 6a3b b6b8 013e 6b26 98bc 8b72 863e
00000030: 7bad 4c3e a837 abbe c44e d7bd 18e1 613e
00000040: 16be 043e 931a 1c3e bc71 1c3b 49a0 1abe
00000050: 4b6b a23d d0c3 853c 9d48 efbe 8455 5cbe
00000060: 806f e93d 6afa c23d 03bb 543e 935d 69bd
00000070: 0037 b6be 1fab c43b 7db9 cabe 17f4 f6be
00000080: 458d 9abe ae54 c4bc 7334 d2be e4af b4be
00000090: e549 dd3c 76fb 81be dca5 ed3d c7ee 68be
000000a0: a36c 69be bdb0 95bd 581b 7ebd 7637 55be
000000b0: ec0a cfbd b100 8f3e a20c 043e 5ece 933e
000000c0: c650 f83e f9d5 243f 5d42 1d3f f28d d33e
000000d0: cb7e de3e e26e a23e f219 87be 8a8e 68bd
000000e0: 6bfe 353e ce43 21bf 8a3a 833e d6ef 873f
000000f0: 90ea 14bf b817 51bd d8e3 543f b6c5 a4bd
00000100: c88c f5bd ed11 58be edd6 2cbe 54fb a63e
00000110: aa30 283e c2e4 9a3e a7fb e43d 9b35 2d3d
00000120: ea31 fa3e da0e 443d 034f 713e 5e1a 553e
00000130: c47a 24bf 26bd 86bf 6cc0 653f 25bc e9be
00000140: add6 88bf 0414 edbc 2391 f83d ef69 57bd
00000150: fbdf 2f3e ae67 b33f 3c2f 293e 103a 9fbe
00000160: 4387 9bbf 1328 11be 42a1 66bc aa50 7a3c
00000170: bdfd 6fbd d8f6 5c3e 0fb1 b03f 741b 143e
00000180: 0001 75be ef89 b3bf adb3 72be 280e 063d
00000190: 8d6b b8bd 4e5f d2bd 7bfa 793e d2bf 873f
000001a0: ca07 003e 3841 47be 026d 5ebf 0c5b 14be
000001b0: 3c1c c7bd 78f3 c13d 0b22 863b 0d99 253e
000001c0: d8da 5d3f ae4d 463f e543 3cbe a39c 1f3f
000001d0: 399c b83e 5266 6e3e 98bf f7bd 003c dcbd
000001e0: 0f69 c1be 6849 a1bf 4e1e e6be 28b3 e5be
000001f0: ba5d 7fbf ec26 d0be 3c5a c9bd a2d7 383e
00000200: 9fbc 1fbe ce09 913e d7e3 243e 059a e63d
00000210: 2a37 073f 4513 cd3e b25d 593d c8dc 6a3d
00000220: 6473 a83d 04df 90bc 4bb4 60bf b8a2 9c3f
00000230: 47ab 8fbe cca4 54bd ff30 07bc 3d0a ff3c
00000240: f0cd 3ebe 05ed f83c 8b1d a73d b00f d3bf
00000250: 1d69 ec3f bb27 12be edd1 05be f66c 443d
00000260: d5e7 c4bc 4d01 d8bd 4afb 293d 5894 053b
00000270: e426 a2bf 75cd be3f 5156 69bd 9dbc 52be
00000280: af99 0c3e 91bc ce3d cd02 8fbd 21ad aabe
00000290: 8075 403e 104d a1be c81a 6f3f 9998 5b3e
000002a0: af3a b4bc 177c 3dbe cf83 8cbc 8ef6 303e
000002b0: 484e b3be 6650 12be e9fc 24be 09cd b23f
000002c0: b139 75be e59e 86bd 4041 14be 5b72 09bd
000002d0: 4ce3 08bc f7c0 2cbe 4b44 a93d 24c7 94be
000002e0: 741c 663f 1433 24be ac5b 1dbd f31f 98bd
000002f0: 8b62 2f3d b6c2 393e de5f 943a acc0 d93d
00000300: 7014 a7be cc15 fbbe 9b5a 093d a27b 7bbe
00000310: aa0d d6be 5844 973d c071 633d 97f7 26bd
00000320: 5a67 933d ec9a 9cbe b567 fabe 27c6 813c
00000330: c0f0 60be a478 e3be a3a5 c5bb 03bf 783c
00000340: 5514 82bd e9f3 4f3d 07e3 c3be 95b9 07bf
00000350: c25e c2bd 1c8f 99be a722 02bf 78e5 58bd
0.023281958 -0.43497816 -0.15627925 0.099485755 -0.57418317 -0.36250654 0.16436604 -0.061682142
0.0035780403 0.12668118 -0.018573007 0.26259264 0.19988053 -0.334409 -0.1051307 0.22058523
0.12963137 0.15244512 0.0023871502 -0.15100206 0.07930621 0.016328722 -0.46735087 -0.21516997
0.1139822 0.09520419 0.20774464 -0.056974005 -0.35588837 0.0060018445 -0.3959464 -0.482331
-0.30185905 -0.02396616 -0.4105564 -0.35290444 0.027012775 -0.25387162 0.11603901 -0.22747336
-0.22795348 -0.07309101 -0.062037796 -0.20821938 -0.10109505 0.27930215 0.12895444 0.28868383
0.48499125 0.64388996 0.6142939 0.41319233 0.4345611 0.31725222 -0.26386982 -0.05677656
0.17772834 -0.62994087 0.256306 1.0620067 -0.58170414 -0.05104801 0.8316016 -0.08045523
-0.119897425 -0.21100588 -0.16878863 0.32613623 0.16424814 0.30252653 0.111808114 0.04228745
0.48866206 0.047865726 0.23565297 0.2081084 -0.64249825 -1.0526474 0.8974674 -0.45651355
-1.0690514 -0.028940208 0.12137058 -0.05259126 0.17175286 1.4016016 0.16521925 -0.31098986
-1.2150654 -0.14175443 -0.014076533 0.015278021 -0.058591593 0.21578538 1.3804034 0.14463598
-0.23926163 -1.4026469 -0.23701353 0.032728344 -0.09004889 -0.10272084 0.24411957 1.0605414
0.12502971 -0.19458473 -0.8688508 -0.14487857 -0.09722182 0.09470266 0.0040934137 0.16171665
0.86662054 0.7746228 -0.18385275 0.62348384 0.36056688 0.2328122 -0.120970905 -0.107536316
-0.37775466 -1.2600527 -0.44944996 -0.44863248 -0.9975239 -0.40654695 -0.09831664 0.18051007
-0.15599297 0.28327793 0.16102539 0.11259846 0.5281855 0.40053764 0.05306787 0.05733946
0.08225134 -0.017684467 -0.87775105 1.2237158 -0.28060362 -0.051914975 -0.008251428 0.031132812
-0.18633246 0.030386457 0.08159932 -1.6489162 1.8469578 -0.14272968 -0.13068362 0.047955476
-0.024036327 -0.10547123 0.041499414 0.002038261 -1.2668118 1.490645 -0.056967083 -0.20579763
0.137305 0.1009456 -0.06982956 -0.33335212 0.18794823 -0.31504107 0.9340024 0.2144493
-0.022000639 -0.18504368 -0.017152695 0.17281553 -0.3502066 -0.14288482 -0.16112103 1.3968822
-0.23947789 -0.065732755 -0.14478016 -0.033556323 -0.008354973 -0.16870485 0.08264979 -0.29058182
0.89887166 -0.1603511 -0.038417503 -0.07427969 0.042818587 0.18140683 0.0011320075 0.10632452
-0.3263278 -0.49040067 0.033533674 -0.24558881 -0.418073 0.073860824 0.055528402 -0.040763464
0.07197447 -0.30586946 -0.48907247 0.015841557 -0.21966839 -0.4442798 -0.0060317083 0.0151822595
-0.06351534 0.05076972 -0.38259146 -0.5301755 -0.0949073 -0.29991996 -0.50834125 -0.052953213

bn1.weight f4 [8]
00000000: 337d 313f f75b a43e bddf 853e 83be 193f
00000010: 5e54 893e 4c16 3e3f 5215 e33e 6fe2 b93f
0.69331664 0.32101414 0.2614726 0.6005632 0.2682218 0.7425277 0.44352204 1.4522227

bn1.bias f4 [8]
00000000: 39ba 31bf 32fa c93d 3fec 623e 2450 533e
00000010: a026 073f d979 a63e ef7e 0d3f bf54 d5bf
-0.6942478 0.09862174 0.22160433 0.2063604 0.5279331 0.32514837 0.5527181 -1.6666487

bn1.running_mean f4 [8]
00000000: 666b ba3e c1a1 be3e fc10 c1bd d00d 2ebc
00000010: 8eab 1e3d 418f 99bd a081 cbbe 5aed b23f
0.36410064 0.37232783 -0.09427068 -0.01062341 0.038737826 -0.07498027 -0.39747334 1.3978684

bn1.running_var f4 [8]
00000000: 1e58 0540 8999 5740 9738 8b3f 284a a740
00000010: 708a c73f 533d 9c40 2ded 2440 2d46 a541
2.0835032 3.368746 1.0876645 5.2278023 1.5589123 4.882486 2.576976 20.659266

layer1.0.conv1.weight f4 [8, 8, 3, 3]
00000000: 3d31 afbc 9ae8 97be bc2e db3e 7c8a 86bc
00000010: f315 4dbd 4b2e ad3e f427 163d c472 4cbd
00000020: 2a79 a23d 3f04 d53d c977 29be f1b4 1a3e
00000030: 9c68 69bd 5f44 6dbe 9f79 ee3d c407 043d
00000040: 5fc1 a6bd e22b 083e f03a 46bc e9a9 25be
00000050: 9bb3 363e 8bf2 cabd 56d3 b1bd 8fe3 903e
00000060: 4fcc 4bbd 67c2 25bd a9bf ce3c 47e0 0fbe
00000070: 140b 493e 07d2 78be 695b 17bd c323 babd
00000080: 24e1 0f3d 16e6 f43c fe92 453d b9f2 43bd
00000090: f234 613d 1b9d c6bd 56cc 8d3d 6c27 12bd
000000a0: f71c cabc 6aed 6bbd fcff e03d e8cd 463c
000000b0: 5143 ea3c 9450 00be 8b66 02bf 845a a43e
000000c0: ec22 043e 0f67 9fbf 6be1 a93f b0b0 18be
000000d0: 79c6 2abf 0fef 3a3f 2ee5 f03e bc24 babe
000000e0: 9ebc 0a3e 8563 1a3f 3417 58bf 97f4 973e
000000f0: 30cb 553d 3a44 f5be 8f54 4b3e e0ab aabb
00000100: f58a 853e e39d 14be 6c05 b5bd f0aa 6e3e
00000110: 1a0f bcbe 7158 3fbc 34f1 853e 9898 9ebd
00000120: bdcf 2d3e 30bb 173e a68e 363e d6a8 82be
00000130: e891 bcbe 46ad abbe 8a17 243e cdf7 b9bd
00000140: 6cb5 293e 5adf 693d bd71 bfbd 5d55 ff3a
00000150: 342e a53d 9c47 2b3c fdb7 fb3d 9b87 bb3c
00000160: cb46 2f3e 6017 bfbd 8352 d63b 0781 eb3d
00000170: 94c6 1dbe 6b1e 00be 22af 2cbd 642e 743e
00000180: 61c4 553e 9363 0f3e 8f14 3ebe c2f8 443d
00000190: 176c 88bd 70e2 863e 8f88 4dbe e21f e6bf
000001a0: eb7e cabe af1e 27bc a7bd b0bd 05d1 ab3b
000001b0: e40c 73bd 7267 d73c 6360 433d 279f c4bd
000001c0: c4be 3c3e 62e3 c13d d8c8 dfb9 afb7 cf3d
000001d0: a1a7 d7bd f59a 72bc 0324 a83c e6eb 58be
000001e0: 6228 fc3c 8db6 93be 5af2 d53e fe0b 443a
000001f0: 8496 8d3e 6291 29be 7257 9dbd ca3a bb3d
00000200: d041 64be 9574 09be fe38 61bf 1a0c 64be
00000210: 69b9 663e 0a6e 493f 0542 433e 4783 c13d
00000220: 73c6 913e eda7 453e 5b78 a83d f870 2e3e
00000230: d32e 8c3e d1ab 24be fba1 d8be 7e3f 75be
00000240: 0efd 563e b65b 243c 8daf 8c3d 35db 67bd
00000250: bda6 80be db64 5d3d ea75 0bbe d968 77be
00000260: 15fc 523e f5a7 08be 799c 87bd 532e f9bb
00000270: caa6 36bd f13b 95bc 3106 c83d 9aa4 56bb
00000280: 65d6 e53d b488 5a3d a86e b23c 2701 733c
00000290: 9eaa ff3c 1e5d a0bd 4dbb 713c 27a4 663e
000002a0: efc6 1cbc cfc1 eebd 214e 8cbd ffa2 88be
000002b0: f48e bb3e bd00 cbbd bad6 9e3e edb0 0a3d
000002c0: e08d b5bc 31bc ecbc baa3 48be 49ca 46bc
000002d0: 232a 27bd 643a 0b3c 2199 dd3b 933e eb3d
000002e0: d72e 433e 247e c93d e43f b4bd e225 d8bc
000002f0: 70fb a4be 0dab b63b 6665 8fbd a594 943e
00000300: db32 b8be eb83 9ebf 1cfa 40bd bb47 eb3c
00000310: e201 dabc 8617 ccbc 1640 8f3e 3429 90be
00000320: 5068 33be f967 663f 303f 47bf 660e 98bb
00000330: 6075 d13e cfa1 92b9 1dd8 7bbe 4c5f 55bd
00000340: ceda 5e3e a860 133e 803d 51be 3972 5f3c
00000350: 99f1 0abd ffb1 d83d bd32 073e 1845 003e
00000360: baa0 1bbe a808 6c3d 440a 24be 6125 b3bd
00000370: 0d18 743c 22d5 2fbe e611 813d 8a46 ec3d
00000380: 2748 b4bd 0e8b d73d f450 68be f46d f2be
00000390: 8f25 193e abeb 23be 7bf2 a6be ed77 c73e
000003a0: 7887 a03e 17e9 903e 417d 013f 1386 973f
000003b0: e7ae 343f 1173 d53c 64e6 3a3f 041b a83e
000003c0: f4aa 1abf 0073 36bf 6f95 40bf 068f 683e
000003d0: d2a7 a63d 529e a2be e122 92bc 54aa 51bd
000003e0: 5948 79bc 75db ac3d d95d 30bd 21ec b2bd
000003f0: 62e0 1b3e e5b7 793d a54d e1be 257b 183e
-0.021385783 -0.29669648 0.42809093 -0.016423456 -0.05006976 0.3382438 0.036659196 -0.049914137
0.079332665 0.104012005 -0.165496 0.15108086 -0.05698453 -0.23170613 0.11644291 0.03223397
-0.08142351 0.1329799 -0.012099013 -0.16178097 0.17841952 -0.09909543 -0.08682887 0.28298613
-0.04975539 -0.0404686 0.025237875 -0.14050399 0.19633132 -0.24298869 -0.03695241 -0.09088852
0.03512682 0.02989487 0.048235886 -0.0478389 0.054982133 -0.09697934 0.069237396 -0.035682127
-0.024672015 -0.057599463 0.10986325 0.012134053 0.028596552 -0.12530738 -0.5093772 0.32100308
0.12903947 -1.2453326 1.3271917 -0.14911151 -0.66709095 0.73021024 0.4704985 -0.3635615
0.13548514 0.60308105 -0.84410405 0.29678795 0.052195728 -0.47903615 0.19856475 -0.0052084774
0.26082578 -0.14513354 -0.08838925 0.23307395 -0.36730272 -0.011678801 0.26160586 -0.07743949
0.16973777 0.148175 0.17827854 -0.25519437 -0.36830068 -0.33530635 0.16024604 -0.090804674
0.16573113 0.05709777 -0.09347866 0.0019480396 0.08065453 0.010454085 0.12290952 0.02289181
0.17116849 -0.0933063 0.006540598 0.114992194 -0.15407783 -0.12511604 -0.042159207 0.23845822
0.20875694 0.14002828 -0.1856253 0.048088796 -0.066612415 0.26344633 -0.20071624 -1.797848
-0.39549956 -0.010200187 -0.08629923 0.005243423 -0.059338465 0.026294444 0.047699343 -0.096006684
0.18432146 0.09467198 -0.00042683515 0.10142457 -0.105300196 -0.014807452 0.020524984 -0.21183738
0.030780975 -0.28850213 0.41786462 0.00074785936 0.27653897 -0.16559365 -0.076826945 0.091420725
-0.2229073 -0.13423379 -0.8797759 -0.22270241 0.22531666 0.7868353 0.19068153 0.09448867
0.28471717 0.1930234 0.08226081 0.17035282 0.27379474 -0.16081168 -0.4231108 -0.23950002
0.2099497 0.010031631 0.06869421 -0.056605536 -0.2512721 0.05405126 -0.136192 -0.2416109
0.20603974 -0.1334532 -0.06621642 -0.007604399 -0.044592656 -0.018217059 0.09766806 -0.0032751919
0.11222533 0.053353027 0.02178128 0.014831818 0.031209286 -0.07830261 0.014754129 0.22523557
-0.009568914 -0.1165806 -0.068508394 -0.26686856 0.36632502 -0.0991225 0.31023198 0.033860136
-0.022162378 -0.02889833 -0.19593707 -0.0121331895 -0.04081167 0.008497808 0.006762639 0.114865445
0.19060837 0.098385125 -0.08801249 -0.026385251 -0.32223082 0.00557459 -0.07001762 0.29019657
-0.359763 -1.2384008 -0.047113523 0.028720727 -0.026612226 -0.02491356 0.2797858 -0.28156435
-0.17520261 0.900024 -0.7783079 -0.0046403883 0.40909863 -0.00027967847 -0.2459416 -0.052092835
0.21763155 0.1439234 -0.20433617 0.013638073 -0.03392181 0.10580825 0.13202949 0.12526357
-0.15198031 0.057625443 -0.16019541 -0.08747364 0.014898312 -0.17171147 0.06302242 0.11536892
-0.088028245 0.105245695 -0.22687131 -0.47349513 0.14955734 -0.16007869 -0.32606873 0.38958684
0.31353354 0.28302833 0.5058175 1.1837791 0.7057938 0.026055845 0.730078 0.3283311
-0.60417104 -0.71269226 -0.7522802 0.22710809 0.08137478 -0.31761414 -0.017838897 -0.05118783
-0.015215003 0.084402956 -0.04305825 -0.08736444 0.15222314 0.06096639 -0.4400455 0.14890726

layer1.0.bn1.weight f4 [8]
00000000: d7be 6b3f 3037 913f 41f3 733f 4d2e ad3e
00000010: e416 853f 2dea eb3e d4b0 4c3f f6a2 bc3e
0.92088073 1.1344967 0.9529305 0.33824387 1.0397611 0.460771 0.7995732 0.3684308

layer1.0.bn1.bias f4 [8]
00000000: 9a30 5abd 01a1 d33e 1f62 8abb 98b2 cd3e
00000010: c8cd b3bf 0588 0c3f e0c3 6d3e 9c57 b03e
-0.053269006 0.41333774 -0.0042231227 0.4017532 -1.4047174 0.5489505 0.23219252 0.3444184

layer1.0.bn1.running_mean f4 [8]
00000000: 49bb 07be 91fd 16bf 584f 0dbf f6da 983e
00000010: 655f 4d3c 02cd 8ebe 03b3 f2be bd8a 6fbf
-0.13255037 -0.5898066 -0.55199194 0.29854554 0.012534951 -0.27890784 -0.474022 -0.9357107

layer1.0.bn1.running_var f4 [8]
00000000: 8dd6 5f40 dca3 dd3f be13 8e3f b49c 863e
00000010: 7722 a53e 278c 483e 1239 9a3f cd9d 593e
3.4974701 1.7315631 1.1099775 0.2629143 0.32252857 0.19584714 1.2048666 0.21251602

layer1.0.conv2.weight f4 [8, 8, 3, 3]
00000000: b28a b5be 51f6 d6be 070f 5dbc 849a 35bf
00000010: fb15 80bf 71ff 32bf e416 32be fec3 57bf
00000020: 3854 98be c854 ae3e 5379 143e 6caa 54be
00000030: 83d8 6ebd a74d b13e faef 4abe 279d 99be
00000040: 6824 9fbe b31a 063f a590 b93e 8fe9 93be
00000050: 399c 82be 482a fb3c 9336 683c c94d 3e3e
00000060: 32fe 893e 550f 10be eefb 79bd f0f5 723e
00000070: 9f43 78bc df03 813c 6664 29be ca8d bcbb
00000080: e13f 7abd 3c2a c7bc bc73 e73d 4b1e 903d
00000090: 8de8 083d 65be c63d 79d3 913e 899e 323d
000000a0: 018a 9d3d 4b6b 2c3e e870 a1bc e859 7cbd
000000b0: 9b9b 923d 9582 163e 4684 96bc 3507 693b
000000c0: 8453 2cbe d820 e9bc a290 193d 4925 bf3e
000000d0: 3cdb 5abe f4e0 86be 4495 0c3e 44cb 68be
000000e0: c4a8 763d fb90 123f ddf0 be3d 9f3d 17be
000000f0: 8abe ed3e 99c9 0ebe e750 76be 010b f0bc
00000100: f38b c6bd 88fe 5abe e7b8 073e 0c12 2f3e
00000110: 7827 8e3e e573 27bc 73b7 17be 771d 12be
00000120: 7aee 243e 83c5 493d 68b2 34be 320b e7bc
00000130: 5834 613c 6ba0 003e 0132 a8bc 307c b93d
00000140: fc4c 3abd 0f06 d2bd 3f11 21be cb3f 24be
00000150: 60ac 7d3c 5ef3 79be cff1 19be 140b 71bc
00000160: aaef 4bbe a27d c7bc 5d74 b6bd 2e3f b4bd
00000170: 3d0d 4d3d 5a7d 2dbe 6b21 9a3c b0ee e73e
00000180: a9c2 46be ef87 b03d f84b 933e 9b1a 753e
00000190: 6eb6 263e 41ec 7c3c ee15 13bf 8d47 81be
000001a0: 4b9a 9e3d b885 21bf b777 9fbe 515e bd3e
000001b0: f701 34be c9de 01bf 22e0 65be aa2b 8abc
000001c0: 8acb cbbe 1470 33be de69 ea3b b416 a1be
000001d0: 0cfa 3ebd 1b9b 5c3d 29a0 89bd a850 653d
000001e0: ad20 d73c 9c92 b23d dad2 83bd 45f7 333e
000001f0: 5f4f 30be 890f 15be 1ec6 1dbd 1635 b73d
00000200: e2d1 0a3d 97cc 313e 53d5 803e e591 8d3e
00000210: 8112 013e b05a 493e 4d06 e23d 054a 943d
00000220: d06e 36be 2f7d 2ebe 72d2 6a3e f446 0dbe
00000230: 7238 c6be 33a3 903e f7bb 19bd c0b5 95be
00000240: e920 273c a199 44be d7de 88be db09 b43e
00000250: 852c 41bd 2ce0 463e 4759 16bf 7f87 fd3d
00000260: a6d7 48be 4b57 773c 5731 093c 81bd 20bd
00000270: b5f7 b53f 9b2b a6bf 1df8 78be f668 033d
00000280: 45be 0b3d d364 d83c 9c6c 123e d1db c0be
00000290: 703d 1fbe 726a c03e 98d0 62bf 0572 bb3e
000002a0: 530c d4be 5774 773f 389e 59be 6d31 b43d
000002b0: 114b 95bd 0c35 5ebc ab79 f73c c076 20be
000002c0: 064a 903c 247e cdbe 6e74 2ebe e364 053e
000002d0: a688 2d3e 1a73 7c3c 3271 323e 18c4 683d
000002e0: 34f4 0fbd a8c5 e03d 5ca6 0c3d b340 95bd
000002f0: b338 86bd 87ec 9bbc 2c02 8ebd f1c2 fc3d
00000300: 3390 053f 06b3 babe b1c5 68be f322 55bf
00000310: e4e3 243f 2219 a83d 2127 16bf cc81 623e
00000320: 4ba8 d63e 67ca 1dbe 6bbd 413c 2652 3dbd
00000330: 0fef 5e3f ac9f 35be 9748 16bf f552 783d
00000340: 3060 15be 640c 0c3d 512e a33d c931 4fbe
00000350: 215f a33d 0b85 7abc b769 fb3e c9c9 edbd
00000360: 1b35 343d ed6f c33d dd31 bebc 970d 14bd
00000370: c0bf adbc 665e 8abd 68f8 cfbd 13e3 abbd
00000380: 7f93 88ba e416 82bd 327b b33e a02c a33d
00000390: 543f d0be 0316 85bf ec29 f2be dc26 a63e
000003a0: 14d7 8c3f 12b1 973e f691 59bd c591 6ebc
000003b0: d2d7 b2be 7197 c9bd 813e bdbe d6e1 9cbe
000003c0: d6dd 083d 3d71 003f 1d64 d73e c2dc fbbd
000003d0: aa22 1bbc 260c fe3d fb9e a83e c7f2 d7bd
000003e0: 47d5 72be 3d3f 2cbe 5b28 b83c 67fc 3e3e
000003f0: fd49 6a3e fe88 49bd 4b2a 5f3e e78c b83e
-0.3545738 -0.419848 -0.013492352 -0.709389 -1.0006708 -0.6992102 -0.17391545 -0.84283435
-0.29751754 0.34049058 0.14499407 -0.20768136 -0.05831195 0.34629557 -0.19818106 -0.3000271
-0.31082463 0.5238449 0.36243168 -0.2888913 -0.25509813 0.03065981 0.014173168 0.1858436
0.26951748 -0.14068349 -0.061031274 0.2372663 -0.015152841 0.015748916 -0.16542205 -0.0057542073
-0.061096076 -0.024312131 0.113013715 0.07037028 0.033424903 0.097042836 0.28481653 0.043608222
0.07692338 0.16837804 -0.019707158 -0.06160918 0.07158586 0.1469825 -0.01837362 0.0035557274
-0.16828734 -0.028458044 0.03749145 0.37333134 -0.21372694 -0.263435 0.13728815 -0.2273379
0.06021954 0.5725247 0.09323285 -0.147696 0.46434432 -0.13944091 -0.240543 -0.029302122
-0.09694662 -0.21386158 0.13254128 0.17096728 0.27764487 -0.0102205025 -0.14816074 -0.14269052
0.16106597 0.049260627 -0.17646182 -0.02820358 0.01374539 0.12561195 -0.020531656 0.0905689
-0.045483574 -0.10255062 -0.15729235 -0.1603996 0.015482992 -0.24409243 -0.15033649 -0.014712114
-0.19915643 -0.024351899 -0.08908913 -0.08801113 0.050061453 -0.16942349 0.018814763 0.45299292
-0.19410194 0.08619677 0.28768897 0.2393593 0.16280529 0.015437187 -0.5745534 -0.252499
0.07744273 -0.63094664 -0.31146023 0.3698602 -0.17578875 -0.5073057 -0.22448781 -0.016866524
-0.39803725 -0.17523223 0.0071537336 -0.31462634 -0.046625182 0.053858858 -0.06720001 0.055985123
0.026260698 0.0871937 -0.06436701 0.17574795 -0.17217778 -0.14556707 -0.038519017 0.08945672
0.033891566 0.17363201 0.25162753 0.2765037 0.12604715 0.19663501 0.11036358 0.072406806
-0.17815709 -0.17039941 0.22931841 -0.13796598 -0.3871494 0.2824951 -0.037532773 -0.29240227
0.0102007175 -0.1919923 -0.26732513 0.3516377 -0.047161598 0.19421452 -0.58729976 0.123793595
-0.19613513 0.015096496 0.00837358 -0.039243225 1.4216219 -1.2982057 -0.24313398 0.03208252
0.034117002 0.026415264 0.14299244 -0.37667707 -0.1555078 0.3758121 -0.8859954 0.36610427
-0.41415653 0.96661896 -0.21251762 0.0879849 -0.072897084 -0.013562452 0.030209383 -0.156703
0.017613422 -0.401353 -0.17036602 0.13026766 0.16946658 0.015408302 0.17425993 0.056827635
-0.035145 0.109752 0.03433834 -0.07287731 -0.06553783 -0.019033683 -0.06934008 0.123418696
0.52173156 -0.3646471 -0.22731663 -0.83256453 0.64410233 0.08207919 -0.58653456 0.22119826
0.41925272 -0.15409242 0.011824946 -0.04622092 0.87083524 -0.17736691 -0.58704513 0.06062599
-0.14587474 0.034191504 0.079678185 -0.20233835 0.07977129 -0.015290509 0.49104092 -0.11610753
0.043995958 0.095428325 -0.023217136 -0.036145773 -0.021209598 -0.06756286 -0.101548016 -0.0839292
-0.0010419934 -0.06352022 0.35054928 0.07967496 -0.40673316 -1.0397342 -0.4729761 0.32451522
1.1003137 0.2962728 -0.053117715 -0.014561121 -0.34930283 -0.09843338 -0.3696175 -0.3064105
0.033414684 0.5017279 0.42068568 -0.122979656 -0.009468714 0.12404661 0.32933792 -0.10544353
-0.23714171 -0.16820998 0.02248018 0.18650971 0.22879787 -0.04920291 0.21793477 0.36045

layer1.0.bn2.weight f4 [8]
00000000: f4e4 d73f fbc8 2b3f d099 e83f 9d46 993f
00000010: 6afd f93e bee0 393f bf85 283f 7c74 883f
1.6866746 0.67103547 1.817194 1.1974674 0.48826152 0.72608554 0.6582908 1.0660548

layer1.0.bn2.bias f4 [8]
00000000: f052 803e 94e5 493f 5893 c9be 6ed8 b4be
00000010: b554 183f 5988 553f 38e9 583f 7bd4 403f
0.25063276 0.78865933 -0.39370227 -0.35321373 0.5950425 0.83411175 0.84730864 0.7532422

layer1.0.bn2.running_mean f4 [8]
00000000: b88e b5be fa2c 66bf 64c1 cabe 791d 2b3e
00000010: 4e25 22bf abc9 963f 5da8 17bf e847 fcbe
-0.35460448 -0.8991238 -0.3960067 0.16710462 -0.6333817 1.1780294 -0.59241277 -0.4927361

layer1.0.bn2.running_var f4 [8]
00000000: 295f 2b40 d980 653f 3352 ff3f 05d7 b33f
00000010: 473c e73e 4b93 463f 23c6 703f ffd1 a63f
2.677683 0.8964973 1.994696 1.4049994 0.45163175 0.775685 0.9405233 1.3032836

layer2.0.conv1.weight f4 [16, 8, 3, 3]
00000000: 3499 0cbd e1eb 9fbd d35b 76be ce83 1f3e
00000010: 138f 31bc aa53 cabd 4399 0c3c f0b2 093d
00000020: 5c92 143e 6ca6 7c3d edad d53e 261e b83e
00000030: ae4a 86be a3b9 bbbc 328a 4b3e d36f 3fbe
00000040: bcf2 afbe ad89 51bd 874b 8cbd 11ce 163d
00000050: b947 1d3e 5af8 23be 8471 16be 3f35 ba3c
00000060: ff02 2bbc 3c65 53be 07cc b93c 4472 f6bd
00000070: c474 ffbc 9b16 c6bc d76e 3ebd 436c 2cbe
00000080: 3600 b3ba 9f25 1c3d 66f4 ebbc 09d9 c5bd
00000090: 82c9 b6bc 3e11 f23d cb88 fd3d 328a 38bd
000000a0: b047 e73d eb5b e23d fc7f 98be e23e 303d
000000b0: 5e4b 063e 98af 86bd 8e50 c5bd 846c a63d
000000c0: cfd6 ce3d cd04 15be a5df d73c f5d3 18bd
000000d0: 0b7c b63d 7eb3 2dbe 7ebd 653b 1ee8 babb
000000e0: d6a5 ee3d d701 913d e81f 98be 3b68 63bd
000000f0: 0699 463e 896d 403e fe5d a6bd 4833 69bc
00000100: 5489 d0be e98f 25be 34bf d83e 7571 0f3d
00000110: 894f a9be 217c 923e 760c a33e 5a90 563d
00000120: ef20 fc3d dc9c 43bd 4d0a 82bc a7fb f03d
00000130: ff35 ed3c 58d4 03be 3340 cf3d 2f03 9a3d
00000140: 219d 5abd 306b 913d 35e2 e43d 06d2 cb3d
00000150: c6b9 fe3c 57a4 183d 96b7 2f3c c723 11be
00000160: b93e 08be dc21 f1bd ee88 cabd fdf6 cb3c
00000170: 1e50 183e 8845 d1bc 794d 1a3e 8597 363e
00000180: 6822 b93c a4bc d73d e727 ce3d 2e4c bcbe
00000190: 3d2b e6be 78b5 4fbe 67a8 00bf 01f7 01bf
000001a0: c815 b0be b954 e0bd c85e 74be d61a 88bd
000001b0: 55b4 da3d b7aa 1a3d 1261 4abe 23d3 503e
000001c0: 7d2c 4f3d d525 53be 2763 913d dd1c 593c
000001d0: 265e f6bd b81d 483d 14be 36bd b882 f43d
000001e0: 4587 8fbd cb75 aebd 7b3d f63c 43db 1bbd
000001f0: 0e73 1bbe 7cae bdbd 96fb 943d f663 0d3e
00000200: 3c17 353e eec8 25be 2920 20be fe85 b4bd
00000210: b142 d5bd 696a 49be a0bf 0bbe ab17 0bbe
00000220: 0a72 81bc a177 e93b 8c5d d7bd 23a9 21be
00000230: 7341 d5bd 3fc0 52be 5bd9 8abe 69ce 21be
00000240: 9c80 b23b ea2b 813e d7e7 e23d fe9c 563e
00000250: 92ef ef3e 1779 c13c 9c77 d03d af71 d83e
00000260: a40b c2bd 76c4 15be 8b83 f93c ea39 563e
00000270: a8e6 50bd 6788 953d e518 463e 935d b0bc
00000280: ebea 903d 5bea 6e3e 767b 593c f0c5 22be
00000290: c57d 45be c741 42be 2de3 15bf 0760 16bf
000002a0: 8d1b 75bd ed69 0ebf c31c d4be c60a ed3d
000002b0: ed2d 67ba 64fb 983d b215 253e 81f3 df3d
000002c0: 294e b63c 8ea7 593d 63f5 1d3d bfe9 cabc
000002d0: 92c3 c13d 29b6 4b3d acb1 96be f31e 82bd
000002e0: db3c 9a3d f48c 03be 5fa9 02bd fd27 323e
000002f0: c6d5 183b b5d6 d7bd 21a5 f6bd c4e6 623d
00000300: 7f57 dcbd 98e4 30be f981 8d3d 9d0b c13d
00000310: c125 0cbe f28f 003e 922f a5bc 6ff6 3c3d
00000320: 2d23 83be 9033 4f3d bb11 9d3e 2a1a 773d
00000330: 73e1 28bd 11e1 3a3e 6b3c 83bc e90c b7bd
00000340: c83e 203d bdbd b83d feec aebd f858 643d
00000350: f231 a33e 9940 fb3d 5e2f e23b 6460 af3d
00000360: 896f f2bc 34c4 bd3d 4de0 f23d fce2 863e
00000370: 4631 763e 55f2 9cbe a2f1 77be 83ff a0be
00000380: bd7d 0ebe e02d e1bd 689b 283e 4571 24be
00000390: f57c 223e ea70 de3d f45c c6bc 4e55 293e
000003a0: e16d 063e 98c8 05bd c148 3abd ecaf d43b
000003b0: 65db c63b 5b47 3abb 7cf1 143b e3cd e3bd
000003c0: ab64 0cbd 7794 3abe b213 4fbd 3ab7 433e
000003d0: 7e5b 713e 891b 91bd 178e 803e 2a1e 813e
000003e0: 89de f8bd b657 913d 71c4 68bd fcb4 f9bd
000003f0: de11 473e 144b c0bc 3043 a5bd 933d 02be
-0.034325793 -0.07808662 -0.24058466 0.15577623 -0.010837334 -0.09879239 0.008581462 0.033617914
0.14508957 0.06168215 0.41734257 0.359605 -0.2622885 -0.022915667 0.19876936 -0.18695001
-0.3436488 -0.05115669 -0.06850343 0.036817614 0.15359391 -0.16012707 -0.1469174 0.022730468
-0.010437726 -0.20644087 0.022680296 -0.12033513 -0.031183608 -0.024180701 -0.046492424 -0.16838174
-0.0013656679 0.038121816 -0.028803062 -0.09660537 -0.022312883 0.11819695 0.12379607 -0.04505367
0.1129297 0.11052688 -0.29785144 0.04302872 0.13114688 -0.065764606 -0.09634505 0.081261665
0.10099565 -0.14552613 0.02635176 -0.037311513 0.08910378 -0.16963002 0.0035055573 -0.00570394
0.116527244 0.07080429 -0.29711843 -0.055519324 0.19394311 0.18791784 -0.08123396 -0.014233418
-0.40729773 -0.16168179 0.42333376 0.03502031 -0.33068493 0.28610328 0.31845444 0.052383758
0.12310969 -0.047757015 -0.015874052 0.11766749 0.028956411 -0.12873971 0.10119667 0.075201385
-0.053372506 0.071005225 0.11175958 0.09952168 0.031094443 0.0372661 0.010724923 -0.14173804
-0.13305177 -0.11774036 -0.098893985 0.024898047 0.14874312 -0.02554585 0.15068616 0.17831238
0.022599414 0.10534027 0.100662045 -0.3677687 -0.44954863 -0.20284069 -0.5025696 -0.50767523
-0.34391618 -0.109536596 -0.23864281 -0.066457435 0.10678927 0.037760463 -0.19763592 0.20393042
0.050579537 -0.206199 0.0709899 0.01325151 -0.12029676 0.048856467 -0.044614866 0.11938995
-0.070082225 -0.08518561 0.030058613 -0.0380509 -0.15180609 -0.09261796 0.07274549 0.13807663
0.17684644 -0.1618993 -0.15637268 -0.088146195 -0.10413111 -0.19669499 -0.13647318 -0.13583247
-0.015801448 0.0071248566 -0.105158895 -0.15787177 -0.10412874 -0.20581149 -0.27118954 -0.15801395
0.0054474603 0.25228816 0.11079376 0.20958325 0.46862465 0.02361731 0.10179064 0.42274234
-0.094748765 -0.14625725 0.030458232 0.2092053 -0.05100122 0.07301407 0.19345434 -0.021528995
0.07076057 0.23331587 0.013274064 -0.1589582 -0.19286259 -0.18970405 -0.5854977 -0.58740276
-0.059840728 -0.5563038 -0.41428193 0.115743205 -0.0008818794 0.07469824 0.16121557 0.109351166
0.022254067 0.05313831 0.038564097 -0.024769662 0.0946113 0.04973427 -0.29432428 -0.06353559
0.075311385 -0.12846738 -0.031899806 0.17398067 0.0023320778 -0.10538999 -0.120432146 0.055395856
-0.10758876 -0.17274702 0.06909556 0.09426043 -0.13686277 0.12554911 -0.020164285 0.046133455
-0.25612774 0.050586283 0.3067759 0.060327686 -0.04123063 0.18249919 -0.01602002 -0.08938009
0.039122373 0.09020565 -0.085412964 0.05574891 0.31874043 0.122681804 0.0069026193 0.08563307
-0.0295942 0.092659384 0.11859188 0.2634505 0.24042234 -0.30653635 -0.2421327 -0.3144494
-0.13915153 -0.10995078 0.16465533 -0.16058834 0.1586798 0.108613804 -0.024214245 0.16536447
0.13127853 -0.032662004 -0.04547954 0.006490698 0.0060686343 -0.0028423879 0.0022726944 -0.11123254
-0.034275692 -0.18220697 -0.050555892 0.19112864 0.23570058 -0.0708533 0.25108406 0.25218326
-0.1215182 0.07096808 -0.056827966 -0.12192723 0.1944041 -0.0234733 -0.080694556 -0.12718801

layer2.0.bn1.weight f4 [16]
00000000: fb65 2b3f 9a85 dc3e 3371 723f 42ef 173f
00000010: 2f6a 093f 3bab 753f 9f48 013f cdeb 093f
00000020: 091b fe3e e4f8 db3e f80b 133f 39f2 093f
00000030: 6182 0d3f c7b4 863f 7771 043f 0d9d 1a3f
0.66952485 0.4307068 0.9470398 0.59349453 0.5367765 0.959644 0.50501436 0.5387543
0.4963 0.42963326 0.5744014 0.5388523 0.5527707 1.0523919 0.51735634 0.6039589

layer2.0.bn1.bias f4 [16]
00000000: b122 0bbe f609 2b3f 4a8f 33be da03 9a3d
00000010: 99fa ab3e 8082 a4be 2f46 e03e bfd7 cf3e
00000020: 54ad 883d 0de9 c13e e38b 98bd be8d e33e
00000030: e0f4 acbb 77dd 85be 1fb6 593e 2555 083e
-0.13587452 0.66812074 -0.17535129 0.07520266 0.33589628 -0.32130814 0.43803546 0.4059429
0.06673685 0.37873116 -0.07448556 0.44444078 -0.005278215 -0.26145527 0.2126088 0.1331373

layer2.0.bn1.running_mean f4 [16]
00000000: 3d45 9b3d 56b5 3fc0 5f05 853f f194 11c0
00000010: 0a1a 49c0 6e1c d7bf 0d99 0fc0 294d 043f
00000020: f5fb 4040 e367 1b40 b137 9940 3057 65bf
00000030: 42be 4abf dfe0 febf 3cfa 79be 42ed 2bc0
0.075815655 -2.9954429 1.0392264 -2.2747157 -3.1422143 -1.6805551 -2.2437165 0.5168024
3.0153782 2.4282157 4.7880483 -0.8958616 -0.7919656 -1.9912375 -0.24411863 -2.686356

layer2.0.bn1.running_var f4 [16]
00000000: 8fb2 a63f 484e 1840 3121 3e40 b5c3 f63f
00000010: dcfb 4940 0638 0a40 3f49 f13f 7295 0440
00000020: 89d6 8d3f e9cd 1a40 06db 0040 27b6 6f40
00000030: bb18 7c3f 8a99 7e40 fb02 f43f c5f6 e63f
1.3023242 2.379778 2.9707758 1.9278475 3.1559973 2.1596694 1.8850478 2.0716214
1.1081096 2.4188178 2.0133681 3.7454927 0.98475236 3.9781213 1.906341 1.8044058

layer2.0.conv2.weight f4 [16, 16, 3, 3]
00000000: 26c7 d93d 1e82 5d3d dae2 843c 3367 ca3d
00000010: 511f 183e 4ac5 453d ac55 8ebb 5a21 d43d
00000020: 7ae2 fd3c a8fc 37be 0cad 89bd 8db4 b0bb
00000030: a1ca 3ebe 6cc0 27be 4a57 68bd 8dd1 3bbe
00000040: 0a04 a3bd a696 05bc 6fed ccbd c99e 643d
00000050: d3d3 3a3d feaa 8ebd 0acb d63d bdaf a5bc
00000060: c2f2 333d e617 21bd aa64 97bd 2072 11bd
00000070: 6a9d 19bd 5f1a 7ebd c7d1 02be 1d34 a4bd
00000080: 62f8 76bd 5a6c cebd 0108 cabd b373 ccbd
00000090: 405f 643c 63cd 23be 2039 acbd 0450 173e
000000a0: f685 d3bc 48e0 4ebd ecbb 623d 5816 fc3d
000000b0: 955e eb3c 7716 1dbd 9531 1abd e40a 3abe
000000c0: bfbe 8a3b 435f 663b 1ce1 d9bd a26f d73b
000000d0: 99c1 403d f775 81bd adf2 413b 7324 f03d
000000e0: 41e6 0f3e 0898 db3d 96c9 1a3e f0a9 573e
000000f0: 6048 9dbd a7e1 b33d 890f 223e 932f 2dbe
00000100: eee2 4dbe 26e3 bdbe 12bd 82be 412a 94be
00000110: 318f a9be b7c4 ebbd 13fd 21be 1de1 3cbe
00000120: 2035 79be 61b7 46be 922c b3bd 355f a0be
00000130: ae84 95be 0730 02be 809e 39be 947b 84be
00000140: 765f 9fbd 8980 f73c 64dd 6b3d 16c5 893e
00000150: 4d64 bc3e 63a7 c13e 0088 bd3e 125b b33e
00000160: 9589 ae3e 7228 723e dd90 babc 0130 da3a
00000170: f024 923b a294 5bbd 0524 e8bd 9adb 20bd
00000180: d7a7 fbbd 5920 2abd 06ea 0a3c 8e3d c5bc
00000190: 6518 f7bd 9ca1 26be 6da8 893d 85cf 3b3d
000001a0: 556e bbbb fa75 b43d 88e2 003e 41a6 ab3c
000001b0: 7460 c9bd 8fc4 2bbd 9d50 23be de61 5a3d
000001c0: 40ae a33c 247b 56bd 68d9 9c3d 182d 113e
000001d0: a1a5 9d3d c2d6 bdbd 2d81 853c 908f a0bd
000001e0: d1dd 3c3a d761 bd3d f1b8 72bc 99c2 613d
000001f0: cf79 553d 3b84 203c 1751 523d d7d5 cc3d
00000200: e080 443d 059f cb3d dabe 2a3d 4bca da3c
00000210: acb0 16bd 36cc 74bd 28c3 1e3d 3530 823d
00000220: b421 e13c 58c8 f6bc 8f93 553c 227b f73d
00000230: bad3 5c3d c97d 9ebd 4af4 6bbc 0b5a 27bd
00000240: ff66 fd3d 82e1 3c3d 2085 e0bd 19ee 023e
00000250: e513 c9bc 09cb a1bd 9b45 8c3d 73e5 7a3d
00000260: eac4 a03d d53c 8cbe a9e6 3d3e 405c fd3d
00000270: 81a0 473c 025e 873e 81fb 833e 353c e43d
00000280: 98f4 053e 90ec 3bbe 85c5 113d a9cb c5bc
00000290: 5cd3 3ebd a250 f73d bb14 763e fbb2 4c3e
000002a0: 796b a53c 4f3a 573e c5e4 253e 012c 16be
000002b0: 05ca 5abe 3669 43be 1483 0bbd 2e93 bfbd
000002c0: 15b5 8abe d2ef be3d b4f0 20bd ec2e 33be
000002d0: df99 e8bb 2fcf c23c 879b 90bc 61d3 e63d
000002e0: fc07 66bd 3e3d fdbd fc9b c83d c194 473d
000002f0: 7969 13be b693 e8bc 2e6a aabd 7824 46bb
00000300: 03cd e93c b791 913d 0fd4 1d3e 86c0 193d
00000310: c408 4a3e 0f2f 1a3e 5b8e 02be 2251 94bd
00000320: d176 7abe b2af c6bd 210a c8bd 3370 adbe
00000330: 2d90 0abe 5734 81be fd11 99be 86b9 483e
00000340: 7ddf b93d 85b9 05be b5cd ed3d 6b5e bf3e
00000350: bedf 47be e945 07bd acfb 953b bb3c 9bbb
00000360: d453 cb3d 95d3 013d c73c ba3d 3eb8 53bd
00000370: 8eb8 983c f403 d1bc dadc e4bc f15b 183d
00000380: 46ed 90bd 7cbf b33d fe23 9d3d 70a1 3abd
00000390: 83f5 9c3d fcfe 4e3e de72 e93c 1c27 dfbc
000003a0: 21d6 913d acba 2b3d 2743 af3d de67 94bc
000003b0: 7778 48bd 012d 5c3e c5f3 4c3e 64bc 77bd
000003c0: 957d 533e 639a 943e 4e53 2f3e cfde 2bbd
000003d0: c9db 273d 43cd 15be 2667 0bbe c913 113e
000003e0: 4302 21bd e746 24be cbe0 0b3d 10b9 cdbd
000003f0: c24c d43d c98f e7b9 849f 1cbe c36d f63c
0.10633688 0.054079168 0.016221453 0.09882965 0.14855696 0.048283853 -0.004343709 0.10357924
0.030991782 -0.17967474 -0.06722459 -0.005392617 -0.18631984 -0.16381997 -0.05672387 -0.18341656
-0.07959755 -0.008153593 -0.10006224 0.05581549 0.045612168 -0.06966208 0.104879454 -0.0202254
0.043932684 -0.039329432 -0.07392247 -0.03550923 -0.037503637 -0.06203687 -0.12775336 -0.08017752
-0.06029547 -0.1007926 -0.09864808 -0.099830054 0.013938725 -0.15996318 -0.08409333 0.14776617
-0.025820713 -0.05050686 0.055354998 0.12308949 0.028731624 -0.038351502 -0.03764494 -0.18168217
0.0042341645 0.0035151995 -0.10638639 0.006574587 0.04705963 -0.06321328 0.002959411 0.11725702
0.14052679 0.10722357 0.15115961 0.2106092 -0.0767982 0.08783274 0.15826239 -0.1691268
-0.20106098 -0.37087363 -0.25534874 -0.28938487 -0.3311706 -0.1151213 -0.15819196 -0.18445249
-0.24336672 -0.19405891 -0.087487355 -0.31322637 -0.2920279 -0.12713633 -0.18126869 -0.25875533
-0.077818796 0.030212658 0.05758418 0.26908177 0.36795273 0.37823018 0.37017822 0.3503042
0.34089342 0.23648241 -0.022774154 0.0016646386 0.0044599697 -0.053608544 -0.11334995 -0.03927193
-0.12287872 -0.041534755 0.008478647 -0.024077203 -0.120652 -0.16272587 0.06721578 0.045852203
-0.0057199397 0.08811565 0.12586415 0.0209533 -0.0983285 -0.0419355 -0.1594872 0.05331599
0.01998055 -0.05236353 0.076586545 0.14177358 0.07697607 -0.092694774 0.016296947 -0.078398824
0.0007204684 0.09247177 -0.014814601 0.055117223 0.05211812 0.009797151 0.051346865 0.10001724
0.047974467 0.0994244 0.041685916 0.026707789 -0.03678958 -0.059765063 0.038760334 0.06356851
0.027481891 -0.030124828 0.013035669 0.120840326 0.053912856 -0.07738835 -0.014401505 -0.040857356
0.123731606 0.0461135 -0.109628916 0.1278614 -0.02454562 -0.07900054 0.06849214 0.061253976
0.078500584 -0.2739016 0.18545021 0.12371111 0.012184263 0.2643891 0.2577782 0.11144296
0.13081586 -0.1835196 0.03558876 -0.024144964 -0.046588287 0.12075926 0.24031346 0.1999015
0.020192849 0.21018337 0.1620055 -0.14665224 -0.21366127 -0.19083104 -0.034060553 -0.09354244
-0.2709128 0.09323086 -0.039292052 -0.17498368 -0.007098421 0.023780433 -0.017652286 0.11270786
-0.05615996 -0.12365197 0.09795377 0.048725847 -0.14395703 -0.028390747 -0.083210334 -0.003023414
0.02854014 0.07107871 0.15412925 0.03753712 0.19729906 0.15057014 -0.12749617 -0.07242037
-0.24459387 -0.0970148 -0.09767557 -0.33874664 -0.13531561 -0.25235245 -0.29896536 0.19602022
0.0907583 -0.13059051 0.11611501 0.37376723 -0.19518945 -0.033025656 0.0045771208 -0.0047374642
0.09928098 0.03169592 0.090936236 -0.05168938 0.01864269 -0.02551458 -0.027937341 0.037197057
-0.07076506 0.08776757 0.076728806 -0.045564115 0.07664015 0.20214456 0.028497156 -0.027240328
0.0712092 0.04192607 0.0855773 -0.018115934 -0.04894301 0.21501543 0.20014866 -0.060482398
0.20653374 0.29024038 0.17121622 -0.041960534 0.040981088 -0.14629082 -0.13613567 0.14167704
-0.039308798 -0.16042672 0.034149926 -0.100450635 0.10366203 -0.00044166882 -0.15295225 0.030081635

layer2.0.bn2.weight f4 [16]
00000000: 0c14 203f f1c5 2d3f 2b21 283f 4ef8 7c3f
00000010: 0aed 213f 9aaa ee3e 4f6c 603f 9213 093f
00000020: 7542 6f3f 74aa d33e 61cd 823f c42f 043f
00000030: a6c5 f33e 8735 503f 933c 173f eda6 0e3f
0.6253059 0.6788016 0.6567561 0.9881638 0.6325232 0.46614534 0.87665266 0.53545487
0.9346078 0.41340983 1.0218927 0.51635385 0.4761173 0.81331676 0.59076804 0.5572346

layer2.0.bn2.bias f4 [16]
00000000: a99c 593e 0a48 883e b141 5e3d 3ee2 8ebe
00000010: fad5 d6bd 82f1 1a3e cdd4 f4bd f534 c83e
00000020: 5a6f 46be 1fd1 5fbe efea 89bd 73e9 763e
00000030: b31a b93e cc38 50be c052 6d3e c6b8 743e
0.21251167 0.2661746 0.054261867 -0.27906984 -0.104900315 0.1513119 -0.11954651 0.39102903
-0.19378415 -0.21857117 -0.06734263 0.24112491 0.36153182 -0.20334166 0.23176098 0.2389861

layer2.0.bn2.running_mean f4 [16]
00000000: b78a 03bf 18c4 443e e131 e5be 6a05 63bf
00000010: fec6 4abd a629 ef3e 171b 8abe cf64 143f
00000020: 7c4c 6dbc a55a f3be 98a5 febe 5fb8 d03f
00000030: 20cb 223f 1a23 323e 9e9a 7bbd c1f9 cdbf
-0.5138354 0.19215429 -0.44764617 -0.88680136 -0.04950618 0.46711463 -0.26973793 0.5796632
-0.014483567 -0.47530094 -0.49735713 1.6306266 0.63591194 0.17396203 -0.06142675 -1.6091844

layer2.0.bn2.running_var f4 [16]
00000000: 2f4d 773f e786 5a3f f980 7a3f 7a44 383f
00000010: 3d6c d53e fd57 003f 3c99 543f 084c 793f
00000020: c513 443f de93 9b3e 4426 703f a2b0 583f
00000030: ec01 673f 3e38 1e3f d75c 563f eb32 523f
0.9660215 0.85362095 0.97853047 0.71979487 0.41684142 0.5013426 0.8304632 0.9738164
0.76592666 0.3038625 0.9380839 0.8464452 0.9023731 0.6180457 0.8373541 0.82108945

layer2.0.shortcut.0.weight f4 [16, 8, 1, 1]
00000000: 7cd6 a9bd a5fc a8be fc5f 1a3c 66f5 84bd
00000010: 2b38 57be f2fc bdbd 397c 1fbb 01ca a83e
00000020: 1250 5a3e 2eae 43be cd53 07bd e9f3 28be
00000030: 6526 3b3e fbcf 593e 9da2 7d3e ef4f 16be
00000040: b609 6bbe cca5 073e 9b2d cabc f108 813e
00000050: a8a0 72be 4e61 b93d ca7b a3be 75f2 a53d
00000060: a355 1c3d 7daf fa3d bad2 eb3d 6ce6 033e
00000070: 3a3a 6dbe 4462 adbe c908 9abe c0f5 163e
00000080: 2ef9 b03d 7b2c 16be b002 45ba ae92 a63d
00000090: 9544 083f ff9c 1fbe b895 4cbd 0943 e43e
000000a0: bd5f 0d3b 5cdc ed3e a0bf 3b3d 4247 97bc
000000b0: 2387 1a3d 4895 c9bc 8ba8 ec3c 4c85 2abf
000000c0: 4875 00be 8292 80be 0f4e d7bd dbdd eabc
000000d0: 2edb dd3c 714c 5dbe 31ba f93d ceda 19be
000000e0: 10ea c2bd 5533 993d 36e1 89bc 817c 85be
000000f0: 8967 67bd 55e1 d83d cb9e db3c a3a9 f33d
00000100: 0a7c b4bd f72f 993e 44de 5cbd b6c5 6cbd
00000110: bdc9 0dbe 8b10 4a3e 363c 97be 23ab c8bd
00000120: 2880 79bd 749c dfbe 7dfc 8e3b d721 00bc
00000130: a8f3 93bf 1b2c 52be f1a4 7cbd ebce 193e
00000140: 42a6 05be 8496 06bc 1254 00bf e109 8ebd
00000150: 086c 77be fad0 02be 3020 4d3e 4f3b 45be
00000160: b131 183e b647 893d 8485 be3d 09be 25be
00000170: 158c 633e 3a43 2a3d af26 c53c 6ad5 42bc
00000180: d7cf 12be 8641 253e cf15 0f3c 4d0f fa3d
00000190: 2ba6 a63d a00f ee3e 4d56 1abd 3437 86bd
000001a0: cce1 97be ddd3 c1be 9fe5 d5bd 029a 9dbe
000001b0: 90be 0c3e a7ff 14be 442e c9bd c279 80bd
000001c0: 8cfa 26be 11eb 17bd 081e cd3d fed9 7bbc
000001d0: d1b0 36be 2f4a b63d 884e c3be f3ef 4d3d
000001e0: 3ba5 9a3d 7092 f73e ca18 923d d43a e23d
000001f0: 6e78 33bd 5c74 22bc 9571 843d 2dda a53e
-0.08292863 -0.33005252 0.0094222985 -0.064921185 -0.2101752 -0.09276761 -0.0024335517 0.32966617
0.21319607 -0.19109413 -0.033038903 -0.16499294 0.18276365 0.21270745 0.24769063 -0.1467893
-0.22952923 0.1324684 -0.02467995 0.25202134 -0.23694098 0.090517625 -0.3193038 0.08102886
0.038167607 0.12240503 0.11514802 0.12880868 -0.23166743 -0.33864033 -0.30084828 0.14742184
0.08641277 -0.14665405 -0.0007515354 0.08133446 0.5322965 -0.15587233 -0.04994747 0.44582394
0.0021571957 0.46457183 0.045837045 -0.018466596 0.037726533 -0.024607316 0.028888961 -0.66609645
-0.12544739 -0.25111777 -0.10512935 -0.028670242 0.027082052 -0.21611191 0.12193716 -0.15024874
-0.095173 0.07480494 -0.016831022 -0.2607155 -0.056495223 0.10589854 0.026809117 0.1189759
-0.08812721 0.29919407 -0.053922907 -0.05780574 -0.13846488 0.19732873 -0.29538125 -0.09798267
-0.060913235 -0.43674052 0.004363595 -0.007820568 -1.1558733 -0.20524637 -0.061680738 0.15020339
-0.13051704 -0.008214597 -0.5012828 -0.06935478 -0.24162304 -0.1277503 0.2003181 -0.19260906
0.14862706 0.06703131 0.0930281 -0.16185774 0.22221406 0.04156802 0.024066297 -0.011891702
-0.14337097 0.16138276 0.008733227 0.1220995 0.08137163 0.46496296 -0.03767996 -0.06553498
-0.29664457 -0.3785695 -0.104441874 -0.3078156 0.13744569 -0.14550649 -0.098232776 -0.062732235
-0.16306514 -0.03708941 0.10015494 -0.015371798 -0.17840888 0.08900868 -0.38145852 0.05027766
0.075510465 0.4835391 0.071336344 0.11046377 -0.043816023 -0.009915438 0.064669766 0.32393017

layer2.0.shortcut.1.weight f4 [16]
00000000: 198f 0e3e e1a0 473e 66dc 653e ab39 bf3e
00000010: 063b ca3e 2352 c63e 79e8 303e a29e 863d
00000020: d0aa 4f3e cee9 763f f6a4 f83e 5073 c93d
00000030: 883a 123e b015 fb3e 2925 f43d a30d 873e
0.13921775 0.19494964 0.22447357 0.37348685 0.39498156 0.3873454 0.17276181 0.065732256
0.20280004 0.9645051 0.48563355 0.09836447 0.1428014 0.49039984 0.1192115 0.26377591

layer2.0.shortcut.1.bias f4 [16]
00000000: a99c 593e 0a48 883e b141 5e3d 3ee2 8ebe
00000010: fad5 d6bd 82f1 1a3e cdd4 f4bd f534 c83e
00000020: 5a6f 46be 1fd1 5fbe efea 89bd 73e9 763e
00000030: b31a b93e cc38 50be c052 6d3e c6b8 743e
0.21251167 0.2661746 0.054261867 -0.27906984 -0.104900315 0.1513119 -0.11954651 0.39102903
-0.19378415 -0.21857117 -0.06734263 0.24112491 0.36153182 -0.20334166 0.23176098 0.2389861

layer2.0.shortcut.1.running_mean f4 [16]
00000000: d830 e6be 4bac 123f f78b f0be d244 3cbf
00000010: 74ed 2f3f 1347 c6bd a320 1cbf 9900 e63d
00000020: 209f 76be 48c1 fbbf e4ad 30bf 8e7c f03e
00000030: e813 303f 5c3a 80bf d00d 33bf fff4 723f
-0.4495914 0.5729415 -0.46981785 -0.7354251 0.687217 -0.09681525 -0.609873 0.11230583
-0.24084139 -1.966836 -0.69015336 0.46970028 0.68780375 -1.001781 -0.6994295 0.94905084

layer2.0.shortcut.1.running_var f4 [16]
00000000: 7665 b83d bc50 313e 5350 2f3e 05bd 323e
00000010: 60f2 3e3e 7d9a 883e 53f5 ed3d e393 b13d
00000020: c36f c33d e7ae b23e 078a b53e 4025 423d
00000030: 05fe 133e 063d 8c3e d10f af3d f521 823e
0.09003727 0.17315954 0.17120485 0.17454918 0.18647146 0.26680365 0.116190575 0.08670785
0.09542801 0.34899065 0.3545687 0.047398806 0.1445237 0.27390307 0.085479386 0.25416532

layer3.0.conv1.weight f4 [32, 16, 3, 3]
00000000: e843 d8bd 7e84 d83d d4ea fa3d e188 a2bd
00000010: 285d 3abc 4077 c73d 2633 0dbb dc96 04be
00000020: 668b f6bc e799 b23d 7600 cc3b 6a65 14be
00000030: 92a8 313c ea14 e03c 7a25 a43c 34cf 8abd
00000040: 9172 453d ff8d 423e 9039 163c 7412 afbd
00000050: ab12 fabc b5c5 a1bd 1196 c8bc 88ea 19be
00000060: 25b4 253d 849c 13bd 2d33 5abe 92b9 373e
00000070: 992f b53e 94a6 773e b7cc a83e 7f18 353f
00000080: cd32 1b3f e04e 463e ceac 063f 7388 b63e
00000090: 5128 b1bc 7eae 453e 92b9 c23d 7cc5 223d
000000a0: 8b29 0c3e 52fe f53d 18d8 983d fc5b e73c
000000b0: b231 f03c d89d ae3d 6d47 96ba 2e9c dd3a
000000c0: 00e8 e8bc c92b b33d 4319 fd3c e4b7 50be
000000d0: cc22 01bd 02a6 443d 67a6 1f3d 8a36 86bd
000000e0: 536b 8437 be81 2c3d f9f3 873d 1d38 af3c
000000f0: d9ab 9dba 138c 1f3e 8883 313d 9b29 17bc
00000100: 9c8f 2d3d cc9c 93bd cf5a 873c 4a1d cc3d
00000110: 8639 7d3d 0020 a53d 60a3 1a3e 2d46 223e
00000120: eccb 4b3c aa47 403c de13 ffbc 9f91 6c3d
00000130: 0ba1 e33c 5dd0 5ebd 4520 a33c c70a b73c
00000140: 941f 363d 8cb9 493d e955 773d 8778 4dbd
00000150: 75a6 bc3d 2931 83bc f364 5ebd ad40 993d
00000160: d0ab 3bbd 8457 4ebd 646f d2bd 8f2d 86bc
00000170: e6cc 303d 9bac 8e3a 6231 2bbe bdba 46be
00000180: d239 483d d47c f6bd 9e5f 4abe 2f8e fdbd
00000190: f133 f7bc a79b 17bd a718 2f3d b9ef 173d
000001a0: 9579 debd 1ffc f33d c995 0b3e b881 5fbd
000001b0: c941 1fbd ca64 0abd 42df d4bd 491a 4ebd
000001c0: c112 25bc 47eb ecbd a12c aebd ab5a 82bd
000001d0: 7a6e a4bd 72b1 93bd 0105 8bbd 661c cb3b
000001e0: c6fc 81bc 541d 22bc 9add 04bd 5f40 953d
000001f0: 16fb 253d 057d 40bd 9001 b0ba 6749 33bd
00000200: 338c 9fbd af56 d0b8 2199 eb3d 0816 a6bd
00000210: 13e9 e5bc 1690 533d 99f6 c9bc 8112 743d
00000220: 0132 c13d 8655 113d 430d 79bd acd7 263e
00000230: 5a64 483d 60ed 1fbe 41c5 233d 5972 eb3c
00000240: 97de 50be a274 27be d8cf 6ebd aac5 0bbe
00000250: 7e68 cabc d5f2 933c efe8 243d 167e 283e
00000260: aadb 423e 633e dc3d 8794 4f3d fb99 b23d
00000270: a86b 02bd 4206 abbb cc86 ee3c 8104 32be
00000280: fe3d d3bd ecd1 703d c0bf 93bc 876f 06bb
00000290: 8caf fd3c 5149 393e 0b3d df3d cbb8 873d
000002a0: fc8f e93d 690c fe3d 0346 5fb9 69e4 7c3d
000002b0: d2e5 df3c 9fe0 9bbc f784 b03c a256 953d
000002c0: 0da6 af3d 5a37 9bbd 499e 11bd 19c6 b43c
000002d0: d9fa 64bd 5801 99bd a030 b5bd 7aca cebc
000002e0: 1b16 aebd 2265 27be 1c04 18bd beda a7bd
000002f0: ab48 35bd ba12 3c3b 50c0 03bc ac99 a63c
00000300: 513f f93d 51d0 ba3d 5351 653d 75c2 36bd
00000310: 07df e63c 7777 44bd 00b7 13bd 409d 1dbe
00000320: dfea 47be c5d6 dfbd 2d49 0cbe 9d98 f1bd
00000330: 837b 83bd 68e1 0bbe c77c c1bb 615e 8dbc
00000340: 31f9 6fbd c169 cebd 701b 49be 3eab 4dbe
00000350: 3555 83be 674d 5dbe 52d9 62be 27ae 59be
00000360: c9e1 b63d 7d5e db3c ec7e a23c d687 8a3c
00000370: d5ca 01bd 69be c6bb 6326 0c3d 1788 7dbd
00000380: f255 25bd ed5a c9bd cb0d adbd fc5e 3fbd
00000390: 066e 53bd fb84 15bb a855 af3c 0f39 6a3d
000003a0: 60d3 fd3d c064 a33d 2089 b03d cd8e 7f3d
000003b0: 671b cfbc 47be 6f3e dcc5 383e 79e3 ca3c
000003c0: 7261 173e 9716 b03d 1495 d7bd 4e23 7dbd
000003d0: 024b b0bd ec17 383d 8bfa 8ebd 95f2 5fbd
000003e0: 5798 a33d f1ff fcbd c10c aabd e0cf d13d
000003f0: 3501 1c3d 56f6 ba3d 9dea c7bd d6e2 15bd
-0.10559827 0.10572146 0.12251821 -0.07936264 -0.011374749 0.09739542 -0.002154538 -0.12948173
-0.030095767 0.08720761 0.006225641 -0.14491811 0.010843413 0.027353723 0.020037401 -0.06777802
0.048204962 0.1899948 0.009168997 -0.085484415 -0.03052648 -0.07899038 -0.02448562 -0.15030873
0.040455002 -0.036037937 -0.21308585 0.17941883 0.35387877 0.24184638 0.32968685 0.70740503
0.6062439 0.19366026 0.5260743 0.35650977 -0.02162567 0.19304845 0.09508051 0.039739117
0.13687722 0.120113984 0.074630916 0.028242104 0.029320572 0.085262 -0.0011465378 0.0016907507
-0.028430939 0.08748586 0.030895835 -0.20382649 -0.031527326 0.04800988 0.038977053 -0.06553371
1.5785603e-05 0.04211592 0.06638331 0.021389062 -0.0012029364 0.15580778 0.04333833 -0.009226228
0.042373285 -0.07207641 0.016522793 0.09966524 0.061822437 0.08062744 0.15101385 0.15847082
0.0124387555 0.011735836 -0.031137403 0.057756063 0.027786752 -0.05439793 0.019912848 0.022344006
0.04446371 0.049249217 0.060384665 -0.050163772 0.09211437 -0.016014652 -0.05429549 0.07483039
-0.04581815 -0.05037643 -0.10275152 -0.016379146 0.043164156 0.0010885181 -0.16718057 -0.19407173
0.048883267 -0.12035528 -0.19763038 -0.12380635 -0.030176135 -0.037013676 0.04274812 0.03709385
-0.10863034 0.11913323 0.13631357 -0.05456707 -0.038881097 -0.033787526 -0.103941455 -0.050318036
-0.010075272 -0.11568313 -0.08504606 -0.0636495 -0.08028884 -0.072115794 -0.06788064 0.0061984537
-0.015867602 -0.009894688 -0.0324379 0.072876684 0.040522657 -0.046994228 -0.00134282 -0.043771174
-0.07790413 -9.934359e-05 0.115038164 -0.08109671 -0.02806524 0.051651083 -0.02465372 0.05958796
0.094333656 0.035481952 -0.060803663 0.1629321 0.048923828 -0.15617895 0.039983038 0.028741049
-0.20397411 -0.16353086 -0.058303684 -0.13649622 -0.024708029 0.018060127 0.040261205 0.16454348
0.19029108 0.10754087 0.050678756 0.08720776 -0.03184095 -0.005219252 0.02911701 -0.1738453
-0.103145584 0.058793947 -0.01803577 -0.0020513253 0.030967496 0.18094374 0.10900315 0.06627043
0.11404416 0.12404711 -0.00021293019 0.061741266 0.027331267 -0.019028006 0.021547778 0.072919145
0.085765935 -0.07578917 -0.035551343 0.022067117 -0.05590329 -0.074709594 -0.08847165 -0.025243033
-0.0850031 -0.16347173 -0.037113294 -0.08196019 -0.044258755 0.0028697685 -0.008041456 0.020336948
0.1217028 0.091217645 0.05598576 -0.044619042 0.02818252 -0.047965493 -0.036063194 -0.15392017
-0.1952319 -0.10929636 -0.1369979 -0.11796687 -0.06420042 -0.13660204 -0.005904767 -0.017256917
-0.058587257 -0.10078765 -0.19639373 -0.20084855 -0.25650945 -0.21611558 -0.22153214 -0.2125784
0.08929784 0.026778454 0.019835912 0.016910475 -0.031687576 -0.006065179 0.034216296 -0.061897364
-0.040365167 -0.09831796 -0.084498964 -0.046721444 -0.0516186 -0.0022814858 0.021403149 0.05718332
0.12393832 0.07978201 0.086199045 0.062392045 -0.025281621 0.23412429 0.18044227 0.02476667
0.14783266 0.08598059 -0.10526481 -0.061801247 -0.086080566 0.04494469 -0.06981381 -0.054674704
0.07988041 -0.123535044 -0.08303214 0.10244727 0.03808709 0.09129016 -0.09761546 -0.03659328

layer3.0.bn1.weight f4 [32]
00000000: a860 ed3e 7e8a ff3e 9b7b d13e 0b54 063f
00000010: c21a 0c3f c50a 163f cbf9 e53e b5b5 c43e
00000020: f3ca 163f 2219 d73e 9231 0b3f 9a83 2a3f
00000030: 8bde 0e3f 3569 153f 1cde 0e3f 1d53 113f
00000040: ce3e 003f 718a 703f 20da 093f 4f1a 1f3f
00000050: 62cb 703f cd4c fe3e 0b97 0c3f 24f1 cd3e
00000060: 9f43 743f f98f d83e b6cd f03e 0694 1d3f
00000070: baa8 d63e 8712 d83e 15a4 123f 893b de3e
0.46362805 0.4991035 0.40914616 0.5247199 0.5472833 0.58610183 0.4491714 0.3841988
0.58903426 0.42011362 0.54372513 0.6660706 0.55808324 0.5836366 0.5580766 0.56767446
0.5009583 0.93961245 0.5384846 0.6214952 0.9406034 0.4966797 0.54917973 0.40223038
0.9541568 0.42297342 0.47031945 0.6155399 0.41925603 0.42201635 0.5728162 0.43404797

layer3.0.bn1.bias f4 [32]
00000000: 8e7e b63d f276 7e3e 8805 f93e 5028 5bbd
00000010: fe0d fbbc 0cdb 663d 7c61 363e 7719 913e
00000020: 1dc1 03be f40f 8a3e 9f85 1dbd dfb7 8fbe
00000030: b026 02be 1584 90bc b2f8 6e3e a113 033e
00000040: ac6c 333e 03ec d5bd 3146 3abe e607 8abe
00000050: ec50 87be 4583 06be c127 68bd 12d7 3e3e
00000060: 1dcb 1cbf dbef cc3d cd42 d83d 9323 fabd
00000070: c466 9b3e afc8 0d3d b75e 31be 01c9 333d
0.08910857 0.24850062 0.48637033 -0.053505242 -0.03064632 0.056361243 0.17810625 0.2833974
-0.12866636 0.26965296 -0.03845751 -0.2806997 -0.1271007 -0.017641107 0.23337057 0.12800457
0.17521924 -0.10445406 -0.18190838 -0.2695915 -0.26428926 -0.13136013 -0.056678537 0.1863673
-0.61247426 0.10006686 0.10559616 -0.122138165 0.3035184 0.034615215 -0.17321287 0.043892864

layer3.0.bn1.running_mean f4 [32]
00000000: a927 093f 84e4 afbf 1487 1bbf ef02 a13e
00000010: a809 27bf 9db0 e4bd 81d9 52bd 218c 88bf
00000020: 17fb 8c3d c2c0 69bf 3ff2 e4be e5ff 42bf
00000030: 756f c6be 5d38 c6bd aa01 5ebe ec7e 253c
00000040: f0f3 a3bf 07c3 60bf 7aea 32bf c40d b4bf
00000050: a695 80be d64d 4e3e 13d3 87bf ba96 2a40
00000060: 1cfa 89bf f2ed e93f 07f3 8cbe 57e7 09bf
00000070: b155 94bd 6702 8cbf c397 273e aca4 48c0
0.5357614 -1.3741612 -0.6075299 0.3144755 -0.6524911 -0.11166499 -0.05147696 -1.0667764
0.06883829 -0.9130975 -0.4471607 -0.76171714 -0.3875691 -0.09678719 -0.21680322 0.010101061
-1.2808819 -0.8779759 -0.6988903 -1.4066701 -0.25114173 0.2014688 -1.061129 2.6654496
-1.0779452 1.827574 -0.27529165 -0.5386862 -0.07242907 -1.0938233 0.16366486 -3.1350508

layer3.0.bn1.running_var f4 [32]
00000000: 3937 8a3f f15a 8f3f f41b bc3f 85e8 6c3f
00000010: ea24 563f 3a6a 763f 59bf 5c3f 2554 613f
00000020: 3bf5 5b3f 32e8 953f 761c b53f a494 2e3f
00000030: 42c3 533f 3c06 7c3f 79fc 4a40 e25a ae3f
00000040: d04b ce3f a7a4 0240 d331 283f d5ee 503f
00000050: 31a1 b43f 3b6a 813f f5c2 6e3f c296 5b3f
00000060: 502a 993f 56b9 ba3f 9d1c 853f b45e a63f
00000070: 70c4 873f 98a9 6b3f 75f6 613f f9e8 9b3f
1.0798103 1.1199628 1.4696031 0.92542297 0.83650076 0.9625584 0.86229473 0.8801902
0.85921067 1.1711485 1.414931 0.6819556 0.82719815 0.9844701 3.1716597 1.3621485
1.6116886 2.0412996 0.65701026 0.8161443 1.4111692 1.0110544 0.9326623 0.85776913
1.1966038 1.458781 1.0399357 1.2997651 1.0606823 0.92055655 0.8826669 1.2180473
