meta_results/meta_seed-2_metalr-0.001_T-2_200-epochs_cifar100-ResNet10_scheckpoint.pth.tar (torch, 909317 bytes, 128 tensors)

conv1.weight f4 [8, 3, 3, 3]
00000000: f408 73bc a142 a9be 0fad 463e 74d4 adbd
00000010: 0d30 dcbe a600 523e e53a 803d 9c3b 853c
00000020: 150b c33e f675 903d 0f5b 89be 739c d83e
00000030: 9caa d1bd 2e07 e5be 3174 7e3e 7b10 37be
00000040: d61b 86be f1ee 9c3e e714 b43d af38 78be
00000050: e95f 773e 08f4 52bc 2c63 91be c554 403e
00000060: 42c3 98bd 92f9 22be 4b45 a73e 2396 85be
00000070: 17c9 b8be 71e8 10be 4e74 b8be 4781 16bf
00000080: a76a c5be 8684 c7be ddce f7be 61bf b1be
00000090: 6bc1 733e e949 813e d19c a03e 10d7 d53e
000000a0: bcbc f93e 8cb9 773e 8cc9 a43e c30d eb3e
000000b0: 576d 813e 44d0 b7bc 295c d6bd d394 773d
000000c0: 4483 053e 8e98 973d 1e2a 8ebd 5b83 053e
000000d0: 5f34 a7bc 4a09 cabc 9332 44be d267 e73d
000000e0: a763 16bd 5ebd 26be ad89 ad3e ec82 ce3e
000000f0: aeb6 7abe 76a3 263e cd64 6a3e 3352 d1bc
00000100: 33b2 3a3e 3f73 b13d 2f18 ca3e b14c 1f3f
00000110: c6ee de3e 4e43 863e 32fe 083f 0128 8d3e
00000120: af5a 87bd 9cd3 67be fbaa da3c e299 27be
00000130: d3f7 74bf 7b25 44bf f16c 9abd 280f 4abf
00000140: 66ab 4ebf dc88 d0bd 06f1 ad3c 0af8 133d
00000150: 4675 8d3e 70f6 cd3f 2a76 753e 68bb 94be
00000160: c717 a8bf 3441 7bbe 2a1e e7bd c6f0 863c
00000170: 7958 63bd a9a0 d13e 34cc ef3f eb1c 913e
00000180: 0f6f b9be 02e3 e2bf 03bc 94be bf1a 9bbd
00000190: feea 6dbc ce5f adbd 2326 873e 560c a53f
000001a0: e854 a23d b644 04be d687 96bf 08c7 f1bd
000001b0: 1cb5 55bd 8597 ec3c f3e6 99be 4527 963d
000001c0: 00fb 1f3f e7f8 373f ab1f ebbc be5a 2f3f
000001d0: c33e 2a3f 41ed 7a3d 7820 5f3e 7034 84bd
000001e0: 4b2f 83be 5e11 6dbf 357b 92be 8c59 8ebe
000001f0: 4d49 31bf fe51 d9be 5f99 2abe f23c 753e
00000200: 8116 cd3d 3679 bb3e fa7f 32be c7de 3bbd
00000210: 776a ab3e 7186 2ebb ef61 45be b805 0dbe
00000220: d751 4e3e 33da a3bd b61c 79bf 6d63 793f
00000230: e9d1 b93d 4a0c bcbd c9d6 cebc 2fdd a13c
00000240: 5e46 aabe 495e c73e 0aca fbbc 9815 dbbf
00000250: bf5d c23f 97f8 143e bd70 1dbe db90 4f3e
00000260: 368f 57bd 63c7 22be bd3b 8d3e 8956 edbd
00000270: ffb6 a6bf f390 9d3f f274 f33d 0a00 3bbe
00000280: 286d 6f3e 61a0 04be 06c3 e7bb 45b4 61be
00000290: 9407 313d 993f 67be 222a 403f 710d ab3d
000002a0: cba3 88bd 29d6 c53c 8327 3d3d b22e 433e
000002b0: 5167 0fbf 6e3d e83c a660 69be ea99 923f
000002c0: d85b 90be 7f67 523d 0149 5fbd 805e 1ebe
000002d0: 8fc9 6e3d 867b cfbe 3d25 e53d 6b01 38be
000002e0: 925a 543f e184 b9bd a823 203d 5c2e 873d
000002f0: a5a8 0b3d 4220 8abe 2893 44be 71e8 8c3d
00000300: 4dc5 c8bd 97bf 77be 7c5b 8e3d bee0 b8bd
00000310: ac3e acbe cb75 ac3b 1b97 e1bd 5d8a 9cbd
00000320: 9104 8c3d 8169 203c 455c 62be 29b7 f9bc
00000330: 77ae 613d d059 69be 688f 043b 76a5 3ebe
00000340: 6710 26be a55f 603d 6dea d9bd 4180 8ebe
00000350: 2afd 37bd 79b4 38bd 912e 86be bda6 4bbc
-0.014833678 -0.33058646 0.19401954 -0.08487788 -0.4300541 0.2050806 0.06261233 0.016263776
0.38094392 0.07053749 -0.26827285 0.4230686 -0.10237619 -0.4473204 0.24849011 -0.1787738
-0.26193112 0.30651048 0.08793049 -0.24240373 0.2415768 -0.012875564 -0.28395975 0.18782337
-0.074591175 -0.15915516 0.32670054 -0.26091108 -0.3609092 -0.1415117 -0.36026233 -0.5879101
-0.38557932 -0.38968295 -0.48400012 -0.34716323 0.23804252 0.252517 0.3136964 0.41765642
0.48776805 0.24191874 0.32185018 0.45908937 0.25278732 -0.022438176 -0.10466797 0.060444664
0.13038355 0.07402144 -0.06941627 0.1303839 -0.020410715 -0.024662632 -0.19159918 0.11299099
-0.03671613 -0.16283175 0.338941 0.4033426 -0.2448375 0.16273293 0.22890015 -0.025551891
0.1823204 0.086645596 0.39471576 0.62226397 0.43541545 0.26223224 0.5351287 0.27569583
-0.066090934 -0.22639316 0.026692858 -0.16367295 -0.9569065 -0.7661969 -0.0754031 -0.78929377
-0.80730283 -0.10182354 0.021233093 0.03612522 0.27628535 1.6090832 0.23970857 -0.2904923
-1.3132256 -0.24536592 -0.1128505 0.016472232 -0.055504296 0.40942886 1.8734193 0.28342375
-0.36217543 -1.7725527 -0.29049692 -0.07573461 -0.014521359 -0.08465539 0.26396284 1.289439
0.07926351 -0.12916836 -1.1760204 -0.1180554 -0.052174672 0.028880844 -0.30059013 0.07331709
0.6249237 0.7186417 -0.028701624 0.68497837 0.66502017 0.06126142 0.2178973 -0.06455314
-0.2562202 -0.92604625 -0.28609625 -0.27802694 -0.69252473 -0.42445368 -0.16660069 0.2394903
0.10014058 0.36615914 -0.17431632 -0.045866754 0.33479664 -0.0026630426 -0.1927564 -0.13771713
0.20148407 -0.080006026 -0.97309434 0.97417337 0.0907324 -0.091820315 -0.025248902 0.019758789
-0.3325681 0.3893912 -0.030735988 -1.7115965 1.5184859 0.14547954 -0.15375037 0.20270102
-0.05262681 -0.15896372 0.2758464 -0.11588771 -1.3024596 1.230986 0.1188754 -0.18261734
0.23381484 -0.12951805 -0.007072809 -0.22041424 0.043220118 -0.22582854 0.7506429 0.08352173
-0.06671866 0.024149971 0.04618026 0.19060782 -0.56017023 0.028349604 -0.22790775 1.1453221
-0.2819507 0.051368233 -0.05451298 -0.15465736 0.05829769 -0.40523928 0.11188743 -0.17969291
0.829507 -0.09058548 0.039096504 0.06600639 0.03409638 -0.26977736 -0.1919676 0.06880272
-0.09803257 -0.2419418 0.06951043 -0.09027241 -0.33641565 0.0052630655 -0.11015149 -0.07643578
0.068368085 0.009790779 -0.2210551 -0.030482845 0.055098023 -0.22788167 0.0020227078 -0.18617806
-0.16217194 0.054778714 -0.10640416 -0.27832225 -0.04491917 -0.045093987 -0.26207402 -0.01242989

bn1.weight f4 [8]
00000000: 3f8b 883e 5c40 8c3e 5498 a53e 32ce 1c3f
00000010: 94e5 8f3e 19b2 233f 0e79 dc3e 248e cb3f
0.26668736 0.27392852 0.3234278 0.6125213 0.28104842 0.6394363 0.43061107 1.5902753

bn1.bias f4 [8]
00000000: d87e ff3e f723 2a3e 2cf2 ff3e f73b 4a3e
00000010: 518c 213e f4e3 403e bae9 f43e 6b79 fabf
0.49901462 0.16615282 0.4998945 0.19749437 0.15776183 0.18836957 0.4783457 -1.9568304

bn1.running_mean f4 [8]
00000000: 8b11 653d c650 193e 9b40 8fbe 6b65 b7bd
00000010: 8378 22bd e667 4bbd 028e b4be 9623 5e3f
0.055924933 0.14972219 -0.27978978 -0.08954891 -0.03966571 -0.049659632 -0.35264593 0.8677305

bn1.running_var f4 [8]
00000000: 877c be3f f7cf eb3f 38de 2140 d050 ff40
00000010: 9e4a 883f f0a6 bb40 933d fb3f a427 dc40
1.4881753 1.8422841 2.5291882 7.978615 1.0647771 5.864128 1.9628166 6.879839

layer1.0.conv1.weight f4 [8, 8, 3, 3]
00000000: 621a 253e 9f14 73bd cc55 52bd 1efe 463e
00000010: c47b 75bc 3463 abbd f593 813e 2721 1ebe
00000020: 0909 1fbb 846a a5bc fbb3 0abd ed60 d63c
00000030: f4d0 613c 7beb 88bc e5c2 71bd 478b 333c
00000040: 7026 853c 5cf8 403b 75cc e23d 9653 81bd
00000050: 516e b1bd cc91 86bd 0c04 ebbc 2b10 c9bd
00000060: 6e74 713d 9163 953d 73c7 fa3b c2dc 2d3c
00000070: 06b5 f13d 34f8 1dbe 39f7 edbd 5bd2 afbc
00000080: 67dd c7ba f1aa 3bbd 6758 243e 729f 1bbe
00000090: 99a2 933d 0256 d83b e911 6bbb b630 49bb
000000a0: b4c0 a7bc 655b a8bd f3b9 e33c 1f75 f6bd
000000b0: 525d aabb a7a0 2abd a09d 6abd f574 8e3d
000000c0: d317 ecbd b665 8dbe 3cd2 063f 2021 2f3a
000000d0: 0941 f5be eecb f63d 9364 5cbe 3562 8d3e
000000e0: 6cc8 4b3e 65b3 85be 45a8 06be 876f 033e
000000f0: 5c07 063e af4a c23e 827e bbbe ea40 7c3d
00000100: 59e7 6d3e e687 a9be 3667 073e af66 cf3e
00000110: 2458 8ebe 828b df3c 6e4b b03e ff57 a1be
00000120: aa8c 9f3c cf75 993d b2d1 26be 5191 d43d
00000130: 38a4 89bc 8f8d b83c 2273 a93d f18e cc3c
00000140: 6426 253e 2d24 aebd 4c8a 243d ed1d 123d
00000150: 3061 c6be ba48 0bbc 2a5a ab3e e6bd cebe
00000160: 9a52 343e bb30 1b3f cc11 2ebe 88a0 fbbe
00000170: f0fc 00bf d4bb 983e b839 593e 9c2a 4abe
00000180: d108 713e 33e8 163f b182 e33d 8597 24bd
00000190: 3696 143e 2826 84bc 90b1 eabc 6631 71be
000001a0: 9387 303e eb67 383c edde eebb 5224 0f3e
000001b0: 59f4 253e 706b d63d ad15 4ebe 6c24 f53e
000001c0: 6839 d43d d3a7 03bf 2381 053f 1fb0 4ebb
000001d0: 1b77 e8be f73f 89bc dc90 42bd 1dee 823c
000001e0: d9f7 0abd de33 1dbd c5d0 50bd 7024 a73a
000001f0: 3241 263d ae5e a6be 55b1 b73d b52d 0a3e
00000200: 9b34 883d 6189 a3bd 42df 7fbe 503d 6a3c
00000210: 3e17 06bd 5f17 57bb 1962 cabd eb1c 28bd
00000220: cc3d 5a3b 41b6 b33e d6c4 bdbd bd6a 07be
00000230: ec55 823e 93a6 4cbe ccc7 bfbe 36f5 20be
00000240: 127f 7abe f4c1 483d d1eb febd 2ac4 bbbe
00000250: 90a5 8c3d 1dc7 143d b85b 9abe ca95 dc3e
00000260: 2597 203e 868b f0bb d667 a33c 1260 af3c
00000270: 0616 edbc c5a1 2d3d 803d 993d b156 dc3c
00000280: 1064 173d ab9a 78bd bfd9 06be 1755 7dbd
00000290: 9d48 d7bc 7ee6 71be 503f d0bd 3bc3 b93d
000002a0: 8300 a13d 3db7 223d d18e 833e 5723 3cbc
000002b0: dee2 983e 0a79 c03d 169a dcbd a99b bcbd
000002c0: d6ec 10be c0ca bbbc ac83 89be f2ba 2c3c
000002d0: 14cf fa3c e1bf 02be ecdc 293b d0b1 08be
000002e0: 5fe1 69be 57aa 93bd eba1 4d3d c66b e2bd
000002f0: 3fe1 893e 2897 a3bc 3d1b a33e a205 4fbe
00000300: c4b9 a3bd 3ecb 0f3e e271 46be 162e 9a3d
00000310: 2398 233e 2294 28be 3d90 b23d 6ae9 a33b
00000320: 7b67 dbbd cc3e a13e 0666 9e3d 27c5 6f3e
00000330: ce4a 52bc aaef 32bf 0f9a 0abe 59c9 a1be
00000340: 0317 32be 906b 88bc 2578 6bbe ff71 76bb
00000350: 249a 433b f88e 023f 10e7 643f ef29 1b3f
00000360: 7338 183e 7450 c9be 38bd 6fbd bda8 a9bc
00000370: a26f 31be ce0f 803d 94f4 97bd 44f3 05be
00000380: 8d84 253d 2ad5 15be 5b17 6bbe c74d 43be
00000390: fccc 1ebd 2b7f bbbd bf6d e23c c1ea b7bd
000003a0: ff62 19bd fbb2 693e 46fd e33d 82e8 cc3d
000003b0: ab37 63be 3337 863d ae53 ac3d 2ec5 2b3c
000003c0: 8392 85bd 0f13 4a3d 8d73 c33d 6851 2cbd
000003d0: b2f7 443d 9589 f4bd f311 c5bc 241c b1bd
000003e0: a174 8dbe a5d7 343d b95b 7ebe 5cc8 2cbd
000003f0: e91c 073e a350 5739 1e59 28be 95f8 513d
0.16123345 -0.059345838 -0.051351354 0.19432876 -0.014983121 -0.08368531 0.25308195 -0.15442334
-0.002426686 -0.020192392 -0.03386305 0.026169265 0.013782728 -0.016713848 -0.059023757 0.010958499
0.01625368 0.0029444909 0.11074153 -0.06314771 -0.08663619 -0.06570777 -0.028688453 -0.09817537
0.058948927 0.072943814 0.0076531707 0.010611715 0.118021056 -0.15426713 -0.116194196 -0.02146261
-0.0015248478 -0.04581732 0.16049348 -0.15197542 0.072087474 0.00660205 -0.003586883 -0.00306992
-0.02047763 -0.08220557 0.027798628 -0.12034058 -0.005199113 -0.041657116 -0.05727923 0.069559015
-0.115279816 -0.27616662 0.5266454 0.0006680656 -0.4790118 0.12050615 -0.21522741 0.2761399
0.19900674 -0.2611343 -0.13150127 0.12835513 0.13088745 0.37947604 -0.36619955 0.061585344
0.23232783 -0.33111495 0.13222966 0.4050803 -0.2780162 0.027288202 0.34432548 -0.31512448
0.019476254 0.07493173 -0.1629093 0.103792794 -0.016801938 0.022528438 0.08273913 0.024970504
0.16127926 -0.08502994 0.040170953 0.03567307 -0.38746023 -0.008501226 0.33467227 -0.40379256
0.17609635 0.6062123 -0.16998976 -0.49145913 -0.5038595 0.298308 0.21213424 -0.19742817
0.2353852 0.5894806 0.11108912 -0.040183563 0.14510426 -0.016131476 -0.028649122 -0.23554
0.17239217 0.011255245 -0.0072897584 0.13978699 0.16206492 0.10469711 -0.20125456 0.4787935
0.10362512 -0.51427954 0.5215017 -0.0031538082 -0.4540337 -0.016754134 -0.04750143 0.015982682
-0.033927772 -0.038379543 -0.05098035 0.0012751948 0.04058952 -0.3249411 0.0896937 0.13493998
0.06650659 -0.07985187 -0.2498751 0.014296845 -0.03273701 -0.0032820327 -0.09881992 -0.041043203
0.0033300994 0.35099986 -0.09266059 -0.13224311 0.25456178 -0.19985418 -0.3745712 -0.1571854
-0.24462536 0.049013093 -0.12447322 -0.366731 0.06867516 0.0363227 -0.301481 0.4308303
0.15682657 -0.0073408512 0.019946974 0.021408115 -0.028941166 0.042390604 0.07482433 0.026896806
0.03696066 -0.060694378 -0.13169001 -0.061848726 -0.026279742 -0.23623082 -0.10168326 0.090704404
0.07861426 0.03972553 0.25694898 -0.011483035 0.29860586 0.09398086 -0.10771577 -0.09209377
-0.14152846 -0.022923827 -0.2685827 0.010542618 0.03061632 -0.12768508 0.0025919033 -0.1334908
-0.22839878 -0.07210224 0.050203245 -0.110557124 0.26929662 -0.019969538 0.3185672 -0.20216992
-0.07994416 0.14042374 -0.1937938 0.075283214 0.15976004 -0.16462758 0.087189175 0.0050021904
-0.10713097 0.31493223 0.07734303 0.23415051 -0.012835218 -0.6989695 -0.13535331 -0.3159893
-0.17391591 -0.016652852 -0.2299505 -0.0037604568 0.0029846514 0.50999403 0.89415073 0.6061086
0.14865284 -0.39319193 -0.058530062 -0.020710343 -0.17327741 0.062530145 -0.074196965 -0.1308108
0.040409613 -0.14632097 -0.22958128 -0.19072638 -0.038769707 -0.09155115 0.027640222 -0.08980323
-0.037447926 0.22822182 0.111322924 0.10005285 -0.22189204 0.06553497 0.08414398 0.010484023
-0.065220855 0.049334582 0.09543524 -0.042069823 0.048087783 -0.11940304 -0.02405641 -0.086479455
-0.27628043 0.044150967 -0.24839677 -0.042183265 0.13194622 0.00020534037 -0.16440246 0.051262457

layer1.0.bn1.weight f4 [8]
00000000: 39c4 063f a15b 993e 9a75 1b3f 75c7 4a3f
00000010: f43a ca3e dbf4 843f 690f d63e 3d0f 643f
0.5264316 0.2995272 0.6072632 0.792106 0.39498103 1.0387224 0.41808632 0.8908575

layer1.0.bn1.bias f4 [8]
00000000: 9cd3 8abe 01f1 f93e 8106 21be 2763 e8be
00000010: 379f 683d ada0 6e3e b865 b73e 332d 9d3e
-0.2711457 0.48816684 -0.15725137 -0.45388147 0.056792464 0.2330348 0.35819793 0.30698547

layer1.0.bn1.running_mean f4 [8]
00000000: 4293 18bd bd06 1d3e 0822 abbe a9ff 76bf
00000010: 2d5d 98bf 24d2 76bf 7f26 49be 9ea4 b7be
-0.03724981 0.15334602 -0.334244 -0.96483856 -1.1903435 -0.964144 -0.19643591 -0.3586778

layer1.0.bn1.running_var f4 [8]
00000000: b926 273e 4e21 133e 8f3d 563e c4af ae3e
00000010: f353 863e 58e6 ca3f 6a0c f43d 6799 893f
0.16323365 0.14368173 0.2092192 0.34118474 0.26235923 1.5851545 0.1191643 1.074994

layer1.0.conv2.weight f4 [8, 8, 3, 3]
00000000: c083 8e3b 69a2 f9be 5d56 9cbd af85 78bd
00000010: 2e0d f2bd 1656 7cbe f471 7a3d 833e 22be
00000020: 7310 fbbe eca2 823d 4dc7 fe3d 45f6 a6b9
00000030: fa35 8c3a a7bd 2bbe e6b5 56bc fd41 05bc
00000040: abcb 9e3d dcd8 9c3c 333c 143c 355d e6bd
00000050: f79e dd3d 5559 fa3d 6596 353e ebf8 c5be
00000060: 5aef c9ba c08e 973d 04d0 adbd 57e1 d03d
00000070: 4a41 7dbd 0b7e a23e 1a7a 95be b58f ab3d
00000080: 293b 923e 11a6 6bbc ab7f ba3c 0924 80bb
00000090: b1de fd3c dffc 02be e52b 6f3e b4b9 b3bc
000000a0: 24bd ebb9 8793 a6bd 0c02 393d 716c a7bd
000000b0: be2c 803d d3d8 ebbd 1bc7 47be c211 5d3e
000000c0: d7f2 3b3e 41f8 303f b0f1 1abf f6d7 d9bd
000000d0: a7a8 b8be ba0e 543e c936 d5bd 92f7 82be
000000e0: 07bb c63e 6437 823d 220c 4c3e c637 84be
000000f0: 4911 19bd 4e38 f7bc 4653 92bc b5e7 313e
00000100: ae57 ee3e adba 4abf 8edb fcbd 51d4 cfbe
00000110: c28f 0a3f ecc9 38bd 5bf9 e5bd 8a13 283e
00000120: f51a 1c3d 1b0a 27bd 5882 6e3c 24ca 833d
00000130: e8d5 ca3d 37de f93b 33b1 473d 8ce3 b63d
00000140: 7478 78be 28d9 bdbd 32a0 a4be db5f 523d
00000150: 05c2 a43d 3e32 41be 8af3 70be 7ba9 263e
00000160: 9a04 75bc aad7 82be 4112 24bd 1609 363d
00000170: 4da2 e63c bec6 cfbd 7138 5e3d db93 64bc
00000180: 8e85 c93d 6c93 173e 4fc8 983d 8369 e23d
00000190: f43b 7f3e ee0f 433d 92f9 72be f4cf 0abd
000001a0: 568c 7dbd b7d1 dfbe a1a9 8dbe c967 9abe
000001b0: a98a c13c f2ca ad3d dd10 a5bd c49a 863e
000001c0: 54f7 f53d e393 71bb 9d54 8d3d 8fa8 0a3d
000001d0: 0dd9 18be edd8 d9bd 3f11 a3bc a88f 35bd
000001e0: 5a97 b33e aeb2 033e 3157 a83e 5ec3 6a3e
000001f0: 8ba4 cf3e 869f a53e 9587 513b 58dd 933e
00000200: 598f 3f3e 729c 173d 2af3 ffbd 3f12 b63d
00000210: 4446 0abd 2385 36be 4e3c 40be bfe5 d6bd
00000220: 5a1b 3a3a e989 a0bc fa68 763b 4108 463d
00000230: 8fa3 ffbd 37e0 ea3d d2ea 60be ec65 24be
00000240: d23e 1abd 887f 7dbc 63b0 703d 0d7b c6bd
00000250: 8a24 96bd 6924 f53c 7108 8f3c 3b75 5fbd
00000260: 1d15 c1bd 60b2 aa3d ba9e 063e ca76 c23d
00000270: 10ff 263e 8fea f63d 6220 163e b149 1bbe
00000280: 6704 7abe 8219 9bbd b8a1 7cbd d4ee 5b3e
00000290: 72f0 383e 0d5e c53c 962b e03d 9875 003e
000002a0: 7c0e 443e e8ab 36bd 933a 99bd b910 8f3d
000002b0: 7a15 093e b06e a9b9 0cca ae3d c38e 813e
000002c0: 9963 473e 2433 ccbc b9b8 d33d eb1f 583e
000002d0: 95d5 5cbd f1e7 2b3d fe37 973e ae93 a3be
000002e0: 3fb9 99be 2d82 953d 9b71 bcbe 5ab4 cebe
000002f0: 0a6c a4bd 9b1e 17be 1503 41be c7b7 1bbe
00000300: 567e 883d 263c 95bd f828 b7bc fdef 813e
00000310: d299 f23d 117b 653c 2602 a0bd 28bf 223d
00000320: ed5b 203b fdaa c0be 685f 383d 6fa4 533e
00000330: c7a3 23be 2377 84bd 043e 593e ebf3 69bd
00000340: ab0e 45bd 4140 10be ce6d 123e f2d9 1dbe
00000350: 57a5 27be 1bce e53d 7d46 7e3d 72c2 80bd
00000360: 3b2e eb3c 0e93 693e 4c04 ad3c 80a7 72bc
00000370: 7cdf 723e 4afd 38be 7173 d0bc 057e 0cbe
00000380: cd68 2c3e 939b a9bd 475c 173e a28f 48bd
00000390: ca68 103b 4149 4d3d 7e51 e73b d7dd 3fbe
000003a0: 53ed 1f3e d84a 3c3d 7c7e 7bbd e50c 0fbc
000003b0: e5d3 2bbd 9c54 5b3e 67d6 853e 98da 833e
000003c0: 94a2 a6be 4661 f5be d862 d2be b7b0 093e
000003d0: dd00 76be 35fd 2e3e 7471 87be a261 a8be
000003e0: 7eed 61bd bf6b 103e 0947 673e dc6b c33d
000003f0: 59b2 793c 5a74 0dbe 581f 20be e8f4 ccbd
0.004349202 -0.48756722 -0.0763366 -0.060674366 -0.1181892 -0.24642214 0.06114383 -0.15844159
-0.49035987 0.06378731 0.12440357 -0.00031845472 0.0010697239 -0.16771565 -0.013104891 -0.008133409
0.0775369 0.019146375 0.009047556 -0.112482466 0.10821336 0.1222407 0.17733152 -0.38666472
-0.0015406415 0.07400274 -0.084869415 0.1019923 -0.061829843 0.31736788 -0.2919472 0.08377019
0.2856076 -0.014382855 0.022765955 -0.0039105457 0.030989977 -0.12791775 0.23356588 -0.021939136
-0.00044963614 -0.08133607 0.045167968 -0.081749804 0.06258534 -0.11515965 -0.19509546 0.21588805
0.18354355 0.69128805 -0.60525036 -0.106368944 -0.36066172 0.20708743 -0.1041084 -0.25579506
0.38814566 0.06358221 0.19926503 -0.25823802 -0.03737 -0.030178215 -0.017861973 0.17373545
0.4655127 -0.79191095 -0.12346564 -0.40591672 0.54125607 -0.045114443 -0.112292014 0.16413704
0.038111646 -0.04078112 0.014557444 0.0643504 0.09904081 0.007625367 0.048752975 0.0893012
-0.24264699 -0.09269935 -0.3215347 0.051360946 0.08044819 -0.18866822 -0.23530403 0.16275589
-0.01495471 -0.25555164 -0.04005647 0.04444226 0.028153563 -0.10145329 0.054253045 -0.013951267
0.09839927 0.1480233 0.07460081 0.11055281 0.24925214 0.047622614 -0.23728016 -0.033889726
-0.061901413 -0.43714687 -0.2766848 -0.30157307 0.023625689 0.08485974 -0.08059857 0.26289952
0.12010065 -0.003686183 0.06900904 0.033852156 -0.14926548 -0.106370784 -0.019905685 -0.044326454
0.3507641 0.1286113 0.32879022 0.22926089 0.40555224 0.3234827 0.0031971682 0.2887981
0.18707027 0.037014432 -0.12497552 0.08890199 -0.033758417 -0.17824225 -0.18773004 -0.10493039
0.00070994126 -0.01959701 0.0037599192 0.048347715 -0.12482368 0.11468547 -0.21964577 -0.16054505
-0.037657566 -0.0154723 0.058761965 -0.09691439 -0.07331188 0.029924588 0.01746008 -0.05455516
-0.09427855 0.083348036 0.13146487 0.094953135 0.16308236 0.12056457 0.1466079 -0.1516483
-0.24415742 -0.075732246 -0.061677665 0.21477824 0.18060473 0.024092698 0.10945813 0.12544858
0.1914615 -0.044597536 -0.07481875 0.069856115 0.13387099 -0.0003231666 0.08534631 0.2530423
0.19471587 -0.02492673 0.103379674 0.21105926 -0.053914625 0.041969243 0.29534906 -0.31948608
-0.30024144 0.0730022 -0.36805424 -0.40371972 -0.08028419 -0.14757769 -0.18848832 -0.15206824
0.06664722 -0.07286863 -0.022358403 0.2537841 0.11845745 0.014006392 -0.0781291 0.039733082
0.0024468855 -0.37630454 0.04501286 0.20668195 -0.15980445 -0.06468036 0.21215063 -0.057117384
-0.04810969 -0.14087011 0.142997 -0.15415171 -0.16371666 0.11220952 0.06207894 -0.062870875
0.028708568 0.22810003 0.021120213 -0.014810443 0.23718065 -0.18065372 -0.025445672 -0.13719948
0.16836853 -0.082816266 0.14781295 -0.048965104 0.0022035115 0.05011869 0.007059275 -0.18736969
0.15617876 0.045969814 -0.06139992 -0.008731102 -0.041950125 0.21418995 0.26140139 0.2575271
-0.32545912 -0.47925776 -0.41091037 0.13446318 -0.24023767 0.17088778 -0.26453745 -0.32886988
-0.05515813 0.14103602 0.22585692 0.09542057 0.015240275 -0.13813916 -0.15636957 -0.1000765

layer1.0.bn2.weight f4 [8]
00000000: 6f7c 913f c46e fa3e 7992 923e e883 1b3f
00000010: 625f cd3e c96f 6e3f 05b2 083f 891c 4d3f
1.1366099 0.48912632 0.28627375 0.6074815 0.40111834 0.9313932 0.53396636 0.80121666

layer1.0.bn2.bias f4 [8]
00000000: 05aa fbbe 016a 093f 883b 123e 40ad 693f
00000010: 2edc 153f 5c2f edbc e910 0c3f a28f 2a3f
-0.49153152 0.53677374 0.14280522 0.91279984 0.5853909 -0.028953247 0.547133 0.66625416

layer1.0.bn2.running_mean f4 [8]
00000000: 0829 e2bd 60d9 c13d 3da2 1dbd a394 29bf
00000010: 7148 b0be 4348 28bf 769e 4dbd af81 6d3e
-0.11042982 0.09465289 -0.0384848 -0.66242427 -0.34430268 -0.6573526 -0.05019995 0.23194002

layer1.0.bn2.running_var f4 [8]
00000000: fb51 d23e 35ed bf3e bcf9 413e e8ad a93e
00000010: b63c 6a3e fa2b e83e 7214 f13e ad67 423f
0.4107817 0.37485662 0.18942922 0.33140492 0.22874722 0.4534605 0.4708591 0.75939447

layer2.0.conv1.weight f4 [16, 8, 3, 3]
00000000: 56ac 08bd 3883 3dbd 38aa 22bd d7e5 053d
00000010: 698b e6bc 0c10 493b e569 9fbd 29e7 143d
00000020: 33ad cb3c 01ff 133e 0ef7 113c 4cad e3bd
00000030: 05be 1ebe 9c67 9bbe 00ba 72be e6fd a1be
00000040: cb13 edbe 58c8 99be dad9 14be 61ed 49bd
00000050: 46f9 1a3e afdc d53d 7747 c6bd 691c 183c
00000060: d8c6 3a3e 5d2a e7bd 0674 44be 2a35 d23b
00000070: 6d8e e93d b360 a23d ea19 b13c cf2c 0e3e
00000080: 8145 9b3d 92ce 923d ca3c 943c 4bad 813d
00000090: 7f1f a5ba 5c59 a9bc 1de7 5e3d 2097 773e
000000a0: 5877 68bd 5635 0dbe b6fa 9a3e e51a 333c
000000b0: 9ec1 aebd e39d 3dbd 27bd a13b 9913 aa3d
000000c0: 7ab8 62bd 73d4 373e 154d 4d3e 6f7f 07be
000000d0: fe6b 053d 7f42 043e c0cf e83c a939 f5bd
000000e0: b7fa 3bbd 0182 90bd 4d19 cdbd a3d5 033c
000000f0: 65eb 6fbd 5d25 e2bd 47d9 20bd b4a4 543d
00000100: 9b47 00bc a5ba 1f3e a9dd 033f fe6f 343e
00000110: 0df7 423d 8791 1b3f 02ad c03e 081e bc3d
00000120: 0c92 3bbd c029 bfbc 36f0 40bd a87c 85bd
00000130: a6c1 4fbd ec55 c6bd 3f1c a23c 5d1a b6bc
00000140: d33d 23bd 497b d33d 799f 86bd 60da eebd
00000150: 70f3 5f3e 9c5e a93c df66 57be f548 3c3e
00000160: 82ff 183e c2ee 17bd 5c3d 42bd fcfa 9c3e
00000170: 7a6e f23d 371b 2ebe 2eae b03e 4ba4 d53e
00000180: 81f9 04bf 678b 33be 09f3 903d 2da2 413d
00000190: 7fbb e43d 5f95 3dbd e2fc d73d 9041 4b3b
000001a0: 67bd e1bd cc1e 913d f7c8 a83c 02a5 b9bd
000001b0: 0f2d a33d b86e 20be 1919 dcbe 4a48 853e
000001c0: 4f39 733d 398e 20be 1078 bf3d d90f 483e
000001d0: c43f 1c3e 30bf bbbc e649 1dbd 8a1b 0d3e
000001e0: 9a57 af3d 1688 c03c 1431 a13d 1fbf c33d
000001f0: 3ebd 093e 6595 d23d f99b 383d ce63 c83c
00000200: 7be0 693c aed6 823d 0c4e 103d 1a00 82bd
00000210: c9d1 2a3d 70be 31bd b9b9 8fbe fb27 efbd
00000220: 50cd 7f3e f827 333e 796b c7be 3522 1c3e
00000230: 024f d73e 23ee c1be 23e3 5abe f555 dc3d
00000240: aa43 f53c 4f2c 123d c121 25bd f519 3abd
00000250: 1fa9 69bb 4999 7cbb 236e 133e 739d 633d
00000260: b1d0 1b3c 925c 4b3e e1a7 683d 201a 223d
00000270: 2a14 b9bd 8394 f7bc c831 08bd e125 abbd
00000280: d58f ff3b 167d 86bd d474 e9bb 710e d4bd
00000290: 60b9 24bd e5b8 b63b 5544 73bc e8a0 eb3c
000002a0: 671e 103c 497e 1dbd 601b d73b cd95 bbbc
000002b0: 9e10 99bd f379 ecbc b53a cf3e f1cb 243f
000002c0: 845b ec3e 707b bbbe f8f3 36bf daac 0fbf
000002d0: c9db d0bd 625f 02be 34b6 d33c 82c2 833c
000002e0: 2080 50bc f95d c0bd c473 ec3d 02b4 9d3d
000002f0: fd3a 833d 1315 92bd 0a94 4fbd c566 acbd
00000300: be41 583d 9a86 773d 8161 ae3d b2be 0b3d
00000310: 54b6 b1b9 ec3f 28bd e326 c7bd 920f eabb
00000320: 72c3 f23c 045e 063d 6bc3 10be 348b 34be
00000330: e46f 17bc c7cc 193d d25f 643d f828 163e
00000340: 060b 0e3e f673 263d 20d1 92be fa43 bdbe
00000350: 676d 08be f373 7d3d 099a 993e 1f31 3f3e
00000360: 9683 5e3d b059 3d3d 97f9 86bd a71d f93d
00000370: 60cb db3c cc37 0cbc 4d33 f33c 0a33 713d
00000380: f284 92bc a197 77bd 342c 81be ce1a 98bb
00000390: d80a 523e 3acc cf3d c115 323e 4b3f bc3d
000003a0: 141a 1d3d e2c3 d03c a851 4e3e 9ed0 9d3e
000003b0: 8498 bd3e e59e cfbd 0b0f 9c3d 2942 6c3d
000003c0: dd3e d3be cabd 76be 00f0 babe b063 1f3e
000003d0: d161 f03d 0312 153e 91da c93d 0f7d 023d
000003e0: 2679 7b3e 46f2 cebc cf07 41bd 7ad9 f03d
000003f0: 3c5b bcbd de36 8ebe a150 08bf 08fe c43d
-0.033367477 -0.046267718 -0.039713115 0.032689895 -0.028142648 0.003067973 -0.0778387 0.036353264
0.024862861 0.14452745 0.008909 -0.11117038 -0.15502174 -0.30352485 -0.23703766 -0.31639022
-0.46304163 -0.30035663 -0.14536229 -0.049298648 0.15134153 0.10442483 -0.096815996 0.009284117
0.18239915 -0.11287377 -0.19184884 0.006415029 0.11404119 0.079286 0.021618802 0.1388428
0.07581616 0.071683064 0.018095393 0.06331881 -0.0012597888 -0.020672493 0.054419626 0.24178743
-0.05675444 -0.13789877 0.30269402 0.010931705 -0.08533023 -0.04629315 0.004935879 0.08304519
-0.05535171 0.17952137 0.20048936 -0.13232206 0.032573693 0.12915991 0.028419375 -0.119738884
-0.045893397 -0.07056046 -0.10014591 0.00804654 -0.0585741 -0.11042283 -0.03926971 0.051914886
-0.007829572 0.15598543 0.515101 0.17620847 0.047598887 0.6076893 0.37631994 0.091854155
-0.045793578 -0.023335338 -0.047104083 -0.06517917 -0.050721787 -0.09684357 0.01978886 -0.022229368
-0.039853882 0.10326249 -0.06573386 -0.116627455 0.21870208 0.020674996 -0.21035336 0.18387206
0.14941218 -0.03709293 -0.047421798 0.30660236 0.11837478 -0.17002569 0.3450789 0.41726908
-0.5194321 -0.17533647 0.07077605 0.047273804 0.111685745 -0.04628503 0.105462804 0.003101442
-0.11022454 0.07085952 0.02060364 -0.09064676 0.079675786 -0.15667236 -0.42987898 0.26031715
0.059380826 -0.15679254 0.09349072 0.19537295 0.152587 -0.022918314 -0.038400553 0.13780037
0.085616305 0.02350239 0.07870689 0.09557938 0.13451096 0.10282401 0.045070622 0.024461653
0.014274712 0.06388603 0.03523068 -0.063476756 0.041703973 -0.043394506 -0.28071383 -0.116775475
0.24980664 0.17495716 -0.38949183 0.15247424 0.42052466 -0.37876996 -0.21375708 0.107585825
0.029939491 0.035686787 -0.040315393 -0.04543491 -0.0035653783 -0.0038543514 0.14397483 0.055570077
0.009510205 0.19859532 0.056800727 0.039575696 -0.09037049 -0.030222183 -0.0332506 -0.08356834
0.0077991285 -0.06566827 -0.0071245227 -0.10354317 -0.04021585 0.0055762404 -0.014847835 0.02876325
0.008796311 -0.038450513 0.0065645427 -0.022898579 -0.074738726 -0.028866744 0.40474477 0.6437369
0.4616357 -0.36617613 -0.71466017 -0.56123126 -0.10198171 -0.12731698 0.025843717 0.01608396
-0.01272586 -0.09392924 0.11545518 0.077003494 0.064077355 -0.07132926 -0.05067829 -0.08418039
0.05279707 0.0604311 0.08514691 0.034117408 -0.00033895916 -0.041076586 -0.09724214 -0.0071429694
0.029634211 0.032804504 -0.14137046 -0.17631227 -0.009242985 0.037548807 0.055755444 0.14664066
0.13871393 0.040637933 -0.28675175 -0.36965925 -0.13322984 0.061878156 0.30000332 0.18671082
0.05432471 0.04622811 -0.06590574 0.12163859 0.026830375 -0.008558225 0.029687548 0.058886565
-0.017885659 -0.06044734 -0.25229037 -0.0046418672 0.20511949 0.10146375 0.17391111 0.0919176
0.03835495 0.02548403 0.20148337 0.30823225 0.37030423 -0.101377286 0.07620057 0.057680283
-0.41258898 -0.24095836 -0.3651123 0.15565372 0.11737407 0.14557652 0.09856141 0.031857546
0.24557933 -0.02526201 -0.047126587 0.1176023 -0.09197089 -0.27776235 -0.5324803 0.09618765

layer2.0.bn1.weight f4 [16]
00000000: 5867 f13e 0de9 f53e 9633 323f 7d7f bf3e
00000010: 1abb 213f 3e06 293f 751e 373f 0794 263f
00000020: 52fe f43e d580 1e3f 6785 283f 5237 223f
00000030: c1cc 223f b459 bb3e e51a 393f 8ec7 6b3f
0.47149158 0.48029366 0.69609964 0.37401953 0.6317612 0.6602515 0.7153085 0.6506962
0.4785028 0.6191533 0.65828556 0.6336566 0.6359368 0.36591876 0.7230666 0.9210137

layer2.0.bn1.bias f4 [16]
00000000: cd0e 963c ba39 e9bc ce49 2bbe 8ef2 f63e
00000010: 8746 95bd fb83 3dbd 9451 12be f485 d3bd
00000020: 66a6 b23c 4776 f1bd f17c 2ebb 5d06 9abc
00000030: 571b e23c 27e5 4a3f 49ef b53c 8cab 69bf
0.018317604 -0.028469909 -0.16727373 0.4823193 -0.07288843 -0.046268445 -0.14288932 -0.10328284
0.02180786 -0.11790138 -0.0026624764 -0.018801862 0.027600927 0.7925591 0.022208827 -0.91277385

layer2.0.bn1.running_mean f4 [16]
00000000: 6c76 0f3f a5d2 f03e 13a0 29bf 48da b33f
00000010: 9977 a9be 20ca eebf 65e2 e3bf 110c 8bbf
00000020: beaa 953e 0675 4abe ebf4 c9be b3c5 22bf
00000030: cae4 053e 95b9 1c40 8bac cbbe 81ab 243f
0.5604007 0.4703571 -0.6625988 1.4050989 -0.33099058 -1.8655434 -1.7803465 -1.0863057
0.29231828 -0.19771203 -0.3944467 -0.63582915 0.13075557 2.448827 -0.39780077 0.64324194

layer2.0.bn1.running_var f4 [16]
00000000: cf80 a13f 0aae c33e 0a91 1140 8256 f03e
00000010: 1766 c53f 43bc f23f e005 dd3f 8caa d03f
00000020: 2cf0 a83f ef18 ae3f b7d6 0740 921b fa3f
00000030: 4b77 c63f 2548 c83f abcf 0740 91e1 5e3f
1.2617434 0.3821872 2.2744775 0.46941 1.542178 1.8963703 1.7267418 1.6302047
1.3198295 1.3601359 2.1224802 1.9539664 1.5505155 1.5647017 2.12205 0.8706294

layer2.0.conv2.weight f4 [16, 16, 3, 3]
00000000: ca84 fa3d 7b2c 7d3e 0e1f 103f fe93 053d
00000010: dea6 003f d26d 123f e0b0 993e 8f31 6f3e
00000020: 4e7d 203e a48a 9f3d ed1e 033e 8168 343d
00000030: 2f88 a53d e385 683d 3b62 863d 963e 933e
00000040: f706 2f3e 845f b63d ae8c 183d 4c5f 9a3d
00000050: 28f6 65bb 7f11 ae3d e72a ee3d 439f c43d
00000060: 5a9f 463c 58ca 263c 3a4e 78bc 6ebd bcbc
00000070: 9cef 4dbe 83c7 26be 0bb5 c53c 6016 6dbb
00000080: c8f8 783d d802 ad3c e1d5 a63d 9bd7 c13d
00000090: c1e7 04bd 9c96 a2bd a17e 44bc 7a12 043d
000000a0: 7455 babd 8378 f0bc b623 cc3c f341 1abd
000000b0: b7ed edbd 3394 d63c e0e8 2abd df4d 08bd
000000c0: b02a f23b 9063 d6bd 0677 6cbc 724e 00be
000000d0: 9eae 83bd 074b 5c3d 8e58 703d 54f2 21bc
000000e0: 45f9 49bc 6628 083d 462d 96bd 12db 943b
000000f0: df1c b03d 1743 8dbc 5cf7 dabc c5d4 883d
00000100: e8bf 9b3d a376 b0bd 5d27 253d 2465 57bd
00000110: de17 833d 21c5 3c3d e637 a53c eb4f 52bd
00000120: 4598 f83c ad3a 5cbd 3e0c 82bd 8ac4 aa3c
00000130: 4dc0 8a3d d3c6 6b3d 206c af3b 08be 7dbd
00000140: 870c 72bd 492a acbc fed0 a93b 39b8 353c
00000150: 0714 1fbc 9b3f 7e3c c090 f0bb bec8 efbc
00000160: 1537 433d 8236 333d 4c23 04bb 99a6 80bd
00000170: 997c 85bc d6b1 f2bd ba0d bc3c 9ff6 bf3b
00000180: 1d9d bdbb df6d 8dbd 5afb f13b 1949 cfbc
00000190: f428 9dbc a100 02bc 34b1 173c ef9a 37bd
000001a0: 652b e93d e859 663d 70a1 583d 1702 ad3c
000001b0: 22c8 033c 0dab 083b af26 10bb f161 2a3d
000001c0: 7eee 96bc 969b e73c 2b46 97bc 83d1 5fbd
000001d0: f535 1cbd 0d75 933a d90d dd3d 0c83 723d
000001e0: af5b 923c 192d 883e f1fa d83d 95e4 583d
000001f0: 45ae 633d 37f5 5c3d 609d a83b 349e 67bd
00000200: c414 31bd 462a 123a fa8c bf3d db13 cc3b
00000210: 3917 5abc 3dbb c2bc 8dbd 4abd 8fdb d1bd
00000220: a977 d2bd 0441 2f3e ce9a 7dbe 1483 b9be
00000230: d400 603c cb99 0bbd 17f3 01be 642f 203e
00000240: cfcc be3d 9f8b dabc d47e 833d 16f6 943d
00000250: a556 b73b 6dc5 f9bc 311e 243e a335 ffbb
00000260: 789f 9fbd 9012 b13c aa24 8f3d 310a 093d
00000270: ee39 7b3d f338 ac3d b9c2 13bd ec9d 4a3e
00000280: 10f9 20bc b711 453d cd9d 1cbd 259a 87bd
00000290: 2e3d debb d93a bd3d f0ab 94bc 0eea 863d
000002a0: 373a 19bd f0cf 9abd 162b 19bd 8abc 94bd
000002b0: aa7d 9cbd bebe debc b7c8 753d 3b7e 89bd
000002c0: 1860 b63d a996 bdbd a234 f0bd 605e b23d
000002d0: 8b02 4fbe 40ad 3cbe 9e12 41bd c582 16be
000002e0: 6ac9 65be 2279 61be 5625 c5bd dff5 71be
000002f0: c52c 54be ba82 12bc 518e c43c 61ff 91bd
00000300: 1b9a 35be d267 f0bd f559 0ebe 884b d4bd
00000310: 3859 dbbd fb23 3bbd 1872 203d 6c26 663d
00000320: 2d1c 9ebd 6077 1cbd 134d 39bd 67b8 64be
00000330: d2e5 13be 948c f6bd 968c bfbd 5fc7 d0bd
00000340: fa5b 00be f7b8 123e 22b1 b5bd bfd5 f2bd
00000350: 1eff 80bd f303 abbd ee07 45bd 7e12 a0bd
00000360: 3437 4c3d 32fc 813c f5c9 aa3d ce9a 3d3d
00000370: a789 63bc df5a cb3d 8e0b 993d c3ce c4bd
00000380: 8dce 92bd d2a0 0d3e 398c 163e 64f5 613d
00000390: be8b e73d 9439 2e3e 5563 b03d 16e6 c43c
000003a0: 0ac0 ec3d 02d4 933d 3e82 80bc 9eed 08be
000003b0: 038d 8bbb 43d7 67be cb48 adbe 691e 55be
000003c0: fb60 b1bd 2a2e 84be 8881 6dbe aeb4 f43d
000003d0: daf9 03bd 0262 d3bd 65d1 543c bd23 82bd
000003e0: 29e9 f13c 856f 80bd e289 b7bd 72bb 1f3d
000003f0: 1c4f c03d 177e e5bd de0d 4fbd 5cef 6cba
0.12232359 0.24723999 0.56297386 0.03261184 0.5025462 0.5719882 0.30017757 0.23358749
0.156728 0.077901155 0.12804766 0.044044975 0.080826156 0.05676831 0.06561705 0.28758687
0.170925 0.08904937 0.037243538 0.07537708 -0.0035089348 0.08499431 0.11629277 0.09600689
0.012122953 0.010180078 -0.015155369 -0.023039546 -0.20110935 -0.16287045 0.02413418 -0.0036176667
0.06078413 0.02111952 0.08146263 0.094649516 -0.03244758 -0.07938883 -0.011993081 0.032244183
-0.0909833 -0.02935434 0.024919372 -0.03766055 -0.11617606 0.026193714 -0.041725993 -0.03327739
0.0073903427 -0.10468209 -0.014432674 -0.12529925 -0.0642979 0.05378249 0.058678202 -0.009884436
-0.012327497 0.033241652 -0.07332854 0.004542717 0.08599257 -0.017243905 -0.026729278 0.066812076
0.076049626 -0.08616378 0.040320743 -0.05258669 0.06401037 0.046086434 0.020168256 -0.051345747
0.030346045 -0.053766895 -0.06349991 0.02084567 0.0677496 0.05756266 0.0053534657 -0.061948806
-0.05909398 -0.021016257 0.0051823845 0.011091285 -0.009709365 0.015518094 -0.0073414743 -0.029270526
0.047659952 0.043753155 -0.002016264 -0.06281776 -0.016294764 -0.11850326 0.022955764 0.005858257
-0.0057865516 -0.06905722 0.0073847 -0.02530341 -0.019184567 -0.00793472 0.009258557 -0.04482549
0.1138523 0.056238085 0.052888334 0.02111916 0.008043321 0.0020853907 -0.0021995713 0.04159731
-0.018424269 0.028272431 -0.018466076 -0.054643165 -0.038137395 0.0011250094 0.10793657 0.059207007
0.017865984 0.26596907 0.10594738 0.052952368 0.05558612 0.053944793 0.0051457137 -0.05654736
-0.043232694 0.0005575757 0.09353061 0.006227953 -0.013311201 -0.023770923 -0.049497176 -0.102469556
-0.102767296 0.17114645 -0.24766085 -0.36232817 0.013672072 -0.034082215 -0.12690388 0.15643078
0.09316408 -0.026677905 0.06420675 0.072735 0.0055950456 -0.030489648 0.16027142 -0.0077883764
-0.07794088 0.021615297 0.06989415 0.033456985 0.061334543 0.084093 -0.036074374 0.19786805
-0.009825006 0.048112597 -0.038236428 -0.066211976 -0.0067821955 0.0923974 -0.018148392 0.06587611
-0.037409034 -0.07559192 -0.037394606 -0.072625235 -0.07641156 -0.027190562 0.06000587 -0.0671353
0.08905047 -0.09257252 -0.11728789 0.08709407 -0.20215814 -0.18425465 -0.047136895 -0.14698322
-0.22440115 -0.22018865 -0.09626262 -0.23628949 -0.20720203 -0.0089423 0.023993643 -0.07128788
-0.17734568 -0.11738552 -0.13901503 -0.10365969 -0.107103765 -0.04568861 0.03917131 0.056188986
-0.07720218 -0.038199782 -0.04523952 -0.22335969 -0.14443138 -0.12038532 -0.093529865 -0.10194277
-0.12535086 0.14328371 -0.08871676 -0.11857175 -0.0629866 -0.08350363 -0.048103265 -0.07816027
0.049857333 0.015867326 0.083393015 0.04629021 -0.013887799 0.09929442 0.07472907 -0.09609749
-0.07168303 0.1383088 0.14701928 0.055165663 0.113059506 0.17014152 0.08612696 0.024035495
0.11560066 0.07218172 -0.015687104 -0.13371894 -0.0042587533 -0.2264071 -0.338446 -0.20812382
-0.08661076 -0.2581647 -0.23193944 0.119485244 -0.0322207 -0.10321428 0.012989377 -0.06354473
0.029530125 -0.06271271 -0.08961846 0.03899712 0.09390089 -0.1120569 -0.050550334 -0.0009038353

layer2.0.bn2.weight f4 [16]
00000000: 93d2 023f 6cf2 7f3f b953 f73e 9a50 573f
00000010: c85b 7b3f d375 a13e 2b4b 4f3f 69f0 de3e
00000020: 7aa4 1b3f 9e18 ef3e 7f83 893f d502 fa3e
00000030: 81c8 0b3f cd50 f63e 3dac 2b3f dca6 e13e
0.5110256 0.9997928 0.48306063 0.84107363 0.9818692 0.31535205 0.8097407 0.43542793
0.60797846 0.4669847 1.0743254 0.48830286 0.5460282 0.4810852 0.6705969 0.44072616

layer2.0.bn2.bias f4 [16]
00000000: 3a20 6a3e f7a7 823d 893b 05be d132 15be
00000010: 40f3 32be 64d8 1abd 3247 91bd 908a 3abe
00000020: cc5f 3d3c b86b d53e a193 20be b293 c93e
00000030: 30ed b23e 6575 d73e 9f50 6d3e 37b2 453e
0.22863856 0.06379693 -0.13010992 -0.14570166 -0.17475605 -0.037804022 -0.070936576 -0.1821692
0.011558484 0.41683745 -0.15681316 0.39370495 0.34946585 0.42081752 0.23175286 0.19306265

layer2.0.bn2.running_mean f4 [16]
00000000: c66f 6f3f dbdc 10bf f738 1bbf cbb2 0bbe
00000010: 4d9b d2be 8a17 34bf 1d79 363e 1382 2abe
00000020: db91 0e3f 1925 1cbf 4a59 6bbf 4bf8 503f
00000030: 62f6 d23f 17dc dc3f c7c1 b63d 329e 613d
0.9352993 -0.56587 -0.60633796 -0.13642423 -0.4113411 -0.7034842 0.17819639 -0.16651182
0.5569131 -0.60994107 -0.9193312 0.81628865 1.648144 1.7254666 0.08923679 0.055082507

layer2.0.bn2.running_var f4 [16]
00000000: a3f6 393f 6d52 803f 6ab2 683e 091e c03e
00000010: 2524 e83e 77d7 0f3e 5a87 193f f081 113e
00000020: a7da d03e c814 df3e 42c7 123f 517c 143f
00000030: b3b1 5b3f a0ed 5e3f aa25 243f 9480 7b3e
0.7264196 1.0025154 0.2272431 0.37522915 0.45340076 0.14047037 0.59972155 0.14209723
0.40791818 0.43570542 0.57335293 0.5800219 0.8581802 0.87081337 0.6411997 0.24560767

layer2.0.shortcut.0.weight f4 [16, 8, 1, 1]
00000000: ae7b 8c3b 9264 afbe cbbc 303f 70a2 a9bd
00000010: ec3a 693d e3c9 a5bd cfc7 d7bd b533 823e
00000020: 2894 92bd 1aa7 173e 291c 1eb9 b1c5 0dbe
00000030: c3b1 223e 3cb5 2fbe 3c91 433e 3c10 ff3d
00000040: bc1e dbbc 381c 5d3d 118c 163f d571 113d
00000050: 596a 30bf 1c9b 2d3d eed1 35be c5f3 b8bc
00000060: 1f37 f8bd a160 423d 57ba b83e 640c 00be
00000070: 850a 913d 65ea 91bd 7b22 d23c d6f6 87bd
00000080: 5334 a8be e9f1 59be 6860 2ebd 66df 55be
00000090: 9581 743d c42c cabd 4911 45be c423 dc3d
000000a0: 68f4 fb3c 315e 123f 2cbb 99be 52c2 d3bd
000000b0: c76a 86be caa7 433d 0204 1e3e bde3 ffbe
000000c0: 7237 9fbe e109 0abe 13c2 253d 4866 9fbe
000000d0: 5f4f d7bd 3da0 553e a47e 493c 5fda 883d
000000e0: 3e0d ebbb 317a 3fbe e628 aebe 7d05 4bbc
000000f0: 7a4f 103f 3a6d 853c 95f5 523d b1c0 4c3e
00000100: 2d61 77be bae1 3c3e 1843 1abe cc32 8d3c
00000110: a28e 5c3d 883a 1e3e 0147 563e b82f 8b3e
00000120: 8976 95be cef8 c73b e5a2 37be 7522 8a3e
00000130: c37b 8bbd c9ac babc 46ea bf3d cd14 ba3d
00000140: 6286 78be af6c 9cbd 3691 fdbd 61ab 003c
00000150: 655c 73bd fe8e 84be b5e5 a1bc 939d cc3d
00000160: 07ce 573e e404 3ebe 41a4 173e ebbc 223e
00000170: 85fd 8b3e 25f7 d63d 07a0 53be cd5b 25be
00000180: 000c 1db8 95f3 99bc 262c 193d 64a7 303e
00000190: 60cd f53c 072b 00bd db2b 923e d6c3 453d
000001a0: c298 98bc 65c3 a33e 66c7 ecbd 0132 f8bd
000001b0: 7c9a 4d3b 48d9 0abe 4565 b43e 3b53 183e
000001c0: 6ad2 1b3e 7e1e 2e3e eb94 eb3d 0ac8 27be
000001d0: 0c66 ac3d fbda 3dbc 1831 e4bd 837e d23d
000001e0: 9321 a63d 648e e33e 5979 253e 2305 b93e
000001f0: 3eb3 293e a7b1 d4bc a36f 8e3e 25c4 fd3d
0.0042872047 -0.34256417 0.69038075 -0.082829356 0.056940958 -0.080951475 -0.10536157 0.25430074
-0.07157165 0.14809838 -0.00015078545 -0.13844945 0.15888123 -0.17158979 0.19098371 0.12454268
-0.026748054 0.05398199 0.58807474 0.03550895 -0.68912274 0.042384252 -0.17755863 -0.022577176
-0.121198885 0.047455434 0.36079666 -0.12504727 0.070820846 -0.07124785 0.025651207 -0.06638877
-0.3285242 -0.21283688 -0.04257241 -0.20886001 0.05969389 -0.098718196 -0.19244875 0.10749009
0.03075619 0.57174975 -0.30025613 -0.10339798 -0.2625334 0.047767438 0.15431216 -0.49978438
-0.3109699 -0.13480331 0.040468287 -0.31132722 -0.10513186 0.20861907 0.01229826 0.06682276
-0.0071732095 -0.18698956 -0.34015578 -0.012391445 0.5637127 0.016287435 0.051503737 0.19995381
-0.24158163 0.18445483 -0.15064657 0.017236136 0.053846963 0.15452015 0.20925523 0.27184844
-0.29191998 0.006102658 -0.17933233 0.26979414 -0.06810715 -0.022787469 0.09370856 0.09085999
-0.24270013 -0.07637917 -0.123812124 0.00785336 -0.059414286 -0.25890344 -0.019762853 0.099909924
0.21074687 -0.18556553 0.14808752 0.15892379 0.27341858 0.10496358 -0.20666514 -0.161483
-3.7442893e-05 -0.018792907 0.03739562 0.17251354 0.030005157 -0.031291034 0.28549084 0.048282467
-0.018627528 0.31985012 -0.1156147 -0.121189125 0.0031372597 -0.13559449 0.35233513 0.148755
0.15216985 0.1700382 0.11503013 -0.16384903 0.084179014 -0.011587854 -0.111421764 0.102780364
0.081118725 0.44444573 0.16159572 0.36136732 0.16572282 -0.025963617 0.27819547 0.12390927

layer2.0.shortcut.1.weight f4 [16]
00000000: 5aef d13e f98d 063e 5e0c 2c3f 99b4 093e
00000010: 0e77 ca3e 6052 253f 8223 893e 7880 fa3e
00000020: f4a8 753e c13c 163e f880 083e 02b1 533e
00000030: 37b1 e73c 4fd0 513e 22f9 893d d85d f43e
0.41002923 0.13140096 0.6720637 0.13447799 0.39543957 0.6457882 0.26784903 0.4892614
0.23990232 0.14671613 0.13330448 0.20672992 0.028282745 0.2048962 0.067369714 0.47727847

layer2.0.shortcut.1.bias f4 [16]
00000000: 3a20 6a3e f7a7 823d 893b 05be d132 15be
00000010: 40f3 32be 64d8 1abd 3247 91bd 908a 3abe
00000020: cc5f 3d3c b86b d53e a193 20be b293 c93e
00000030: 30ed b23e 6575 d73e 9f50 6d3e 37b2 453e
0.22863856 0.06379693 -0.13010992 -0.14570166 -0.17475605 -0.037804022 -0.070936576 -0.1821692
0.011558484 0.41683745 -0.15681316 0.39370495 0.34946585 0.42081752 0.23175286 0.19306265

layer2.0.shortcut.1.running_mean f4 [16]
00000000: cd8e 563e d039 933e 8bc2 9dbe 7f97 a33d
00000010: 63a9 2fbf 38b5 c1be 29a6 e0be 0c43 9f3e
00000020: 9112 163f 9525 673e ee43 a8be 8995 023e
00000030: 1488 153f 9687 e03e 261c ac3d f769 ba3f
0.20952912 0.28755045 -0.30812487 0.0798788 -0.6861784 -0.3783357 -0.4387677 0.3110584
0.5862208 0.2257293 -0.32864326 0.12752356 0.58410764 0.43853444 0.084038064 1.4563588

layer2.0.shortcut.1.running_var f4 [16]
00000000: e64a 3b3e 855e 453d c982 0f3e b7ca 3e3d
00000010: e403 ea3d 9cac 513e 5268 d63d ff83 bf3d
00000020: 2737 1b3e ff70 b13d 071b 423d 8429 f03d
00000030: 4503 553d d5ab f63d ec78 1f3d f915 4d3e
0.1829029 0.048185844 0.14014734 0.046580043 0.11426523 0.20476002 0.10469116 0.09351348
0.15157758 0.086641304 0.047389057 0.117266685 0.05200507 0.12044493 0.03893368 0.20027913

layer3.0.conv1.weight f4 [32, 16, 3, 3]
00000000: d0da 49bc eb8b 85bd 72c6 65bc 1067 133d
00000010: 8cb0 913d 85ac 33bd 1c4b 76bd 906e c23d
00000020: 6611 3d3d 7a46 b83d 30ab 80bd 9d7e a63d
00000030: 6938 823d c1cf c9be 739e e1be c216 463e
00000040: dc89 0e3d c42c 69bb d79e 58bd ff64 aabd
00000050: 9113 c1bc 6967 823d d2de ff3a 755b 6dbd
00000060: 7d24 333d 4f43 a03c c27d 06bc 14a3 fbbb
00000070: 4784 17bd fbb7 7a3d 7eda 4c3d 5c9f 443d
00000080: 332a 283d 2da7 cb3c 71ee 273d ba46 453d
00000090: ddcd 0bbd 4f7e 943c 8bd9 8f3d 0865 cc3b
000000a0: d847 7c3c 1d64 f33d 9344 643d 55de 593d
000000b0: c47d 7a3d f390 73bd c698 e0bc 4a2b abbc
000000c0: 6851 09bd 7c3f db3c 34f4 2d3c a55b 8fbc
000000d0: 4125 9e3d b1d6 963d c2d1 abbd d211 57be
000000e0: 6deb cebd 9ad6 38be d912 f7be 5d93 c2be
000000f0: b225 adbd 7cca 90be d7e7 bebe 0a4a 8fbd
00000100: 0c20 e5bc 55a8 4e3d 0166 cdba 66d6 b2bd
00000110: 36fe 02bd 615c 08bb 8137 8ebb e2f6 96bd
00000120: 9c5c 343c 0843 efba 0923 26bd 58da 793d
00000130: b452 ff3d 87ea f93d 1ff6 e03c 3cd8 293e
00000140: 757c 6f3e 7df3 2abd 71a2 e6bc df5e 75bc
00000150: 779e f7bc c518 b13b e578 313e bc59 44bc
00000160: a635 3e3d 1d08 883e 9642 873d 40ad 0fbd
00000170: cf14 31bd 8fb8 973d bf60 aa3c 45c8 1abd
00000180: c84e 6e3d c3de 52bc dab1 6c3c dab4 c739
00000190: 6a57 4cbc 1b9f 2dbe a570 6bbd e672 9a3e
000001a0: e808 fd3e 181c a2be cd69 0a3d ad40 c73e
000001b0: 6308 9e3d 88b0 e53d 01ab cb3d 9fd3 25bd
000001c0: d789 e53d 7ebe 33bd 972c 8abc ad40 32be
000001d0: a90b c8be 3e0f 00be 2291 febd 842d 1ebe
000001e0: 4888 193e 8006 873e 348a 933d a27b f73d
000001f0: b27b 203e 78a2 8ebd 7ee6 01be 0587 0d3e
00000200: bab2 423e b327 05bd 1375 023e a2d2 b53d
00000210: 7159 7abc 8c9b a03d 9e75 39bc 5523 8cbc
00000220: ed1b 49bd 77da c93b 47b6 c3bd 746d aabe
00000230: ba78 99be fa4e 3d3c 86da efbd 2307 8ebe
00000240: 151a 2abe ea83 4cbe 93f1 503c c27a 7dbe
00000250: 5446 67be fc3c bcbd e3c7 24be acee 14be
00000260: d2b7 87bb b452 133d 1744 06bd f2f6 56bc
00000270: 71ad a6bc 1515 dcbd bb21 e0bc 8699 b63c
00000280: 024a b9bd 67ee 9bbc 2d5c 2e3e 6121 503e
00000290: 32a3 cb3d 189c 3c3e 4bcb 963e cb25 fc3d
000002a0: 4d66 eb3d b211 873e 8685 7d3d 2dbd 133e
000002b0: 3c38 563e 80e6 d83d 9294 083e a87b 4c3e
000002c0: 3839 df3d 1fbf 9b3b af8c 5cbb 66c5 b5bc
000002d0: a6af c33d 71f9 b33d 5074 0dbd 5b19 873d
000002e0: 7ef2 f43d 4046 f33c 4538 13bc ed28 cb3d
000002f0: 045e 653d f27d 76bd 5cfc 1ebe 7a9f 4abe
00000300: 5c5a c8bd f0eb 79be e45a 5fbe 07f0 f6bd
00000310: 6663 75be 3e66 1dbe a7c5 88bd f328 54bc
00000320: 31e6 e23c 6dce f0bb 238e 213d 143a 7e3d
00000330: 26a0 3a3d 2e45 d83d f26e b43d b8b7 6bbd
00000340: 1abf 03bd 5af3 1f3e 67b1 fcbd 667b 93bd
00000350: d5a5 093e 6479 10be b0ca b1bd 9255 6c3d
00000360: 4783 1b3d 4603 873d b8b7 3abd 5cca e93c
00000370: 8e09 edbc c83d 90bd 9dbd a23d dab3 50bc
00000380: 34e4 61bd 5615 033e dcbb 463c 7d95 8abd
00000390: 7dff 693c 6d49 a3bc 2886 a0bd 68bf 24be
000003a0: c7d4 1fbe efb9 7dbd f842 edba 0169 3b3d
000003b0: bacd 4cba 32aa 983d 279f 903d e045 ab3d
000003c0: fd13 763d bb6d 063e 5641 963d 91a8 ba3c
000003d0: 8e96 0cbd 4d2e 9bbd d34f 3d3d 146d 833d
000003e0: 6a82 963c 5638 253d 9d19 cb3d 2952 013e
000003f0: c8c8 33bd 6ed5 2e3d 9f83 5ebc 6073 aa3c
-0.012320235 -0.06520828 -0.014024364 0.03598696 0.07113752 -0.0438657 -0.060130224 0.094937444
0.04615917 0.08997817 -0.062826514 0.08129618 0.06358416 -0.39416316 -0.440662 0.19344619
0.03479944 -0.003557966 -0.052885856 -0.08320045 -0.0235689 0.0636738 0.0019521362 -0.05794855
0.04373597 0.019563345 -0.008208694 -0.0076793525 -0.036991384 0.061210614 0.050013058 0.04800354
0.04105587 0.024859989 0.04099888 0.048163153 -0.034131873 0.018126635 0.07023915 0.00623763
0.015397988 0.118843295 0.05572946 0.053190548 0.061155096 -0.059464406 -0.027416598 -0.020894665
-0.0335249 0.02676367 0.010617305 -0.017499754 0.07721949 0.07365168 -0.083896175 -0.21002892
-0.10103498 -0.18050614 -0.48256567 -0.38003054 -0.084544554 -0.28279483 -0.37286255 -0.06996544
-0.027969383 0.050453503 -0.0015670658 -0.087322995 -0.031980716 -0.0020807015 -0.0043401127 -0.07371308
0.011008408 -0.001825423 -0.040560756 0.060999244 0.12466946 0.12202936 0.02746111 0.16586393
0.2338732 -0.041736115 -0.02815363 -0.014976232 -0.03022693 0.005404564 0.17331274 -0.011984285
0.046437882 0.2656869 0.06604497 -0.035077333 -0.043232735 0.07408249 0.020798085 -0.03778865
0.0581806 -0.012870493 0.0144467 0.00038090983 -0.012472013 -0.16955225 -0.057480473 0.30165786
0.49420857 -0.3166206 0.033792306 0.3891653 0.077164434 0.11215311 0.09944726 -0.04048502
0.112079315 -0.04388284 -0.016866965 -0.17407484 -0.39071396 -0.12505814 -0.12430026 -0.1544705
0.14993393 0.26372147 0.072040945 0.12084128 0.15672186 -0.06964582 -0.12685582 0.13821037
0.19013491 -0.032508563 0.12739973 0.08878066 -0.015280114 0.07842168 -0.011319546 -0.017106691
-0.049098898 0.0061600762 -0.09556251 -0.3328663 -0.2997492 0.011554474 -0.11711602 -0.2773982
-0.16611512 -0.19972196 0.012752908 -0.2475386 -0.22585422 -0.09191319 -0.16091876 -0.14544171
-0.004141786 0.035967544 -0.03277978 -0.0131204 -0.020346375 -0.107462086 -0.027359834 0.022290003
-0.09047319 -0.019034578 0.1702735 0.20325233 0.099432364 0.1841892 0.29451975 0.12311896
0.11494122 0.26380688 0.061894916 0.14427634 0.20919889 0.105908394 0.13337925 0.19969046
0.108995855 0.004753008 -0.003365319 -0.022188853 0.09554987 0.087878115 -0.034534752 0.06596633
0.11960314 0.029696584 -0.008985584 0.09919915 0.055997863 -0.060178705 -0.15525955 -0.19787398
-0.0978286 -0.2440641 -0.21812016 -0.120575 -0.23963699 -0.15371034 -0.06678324 -0.012949216
0.027697654 -0.0073488266 0.039442193 0.062067106 0.045562886 0.1056007 0.08810224 -0.057548255
-0.03216467 0.15620175 -0.12338524 -0.07201271 0.13442166 -0.14108807 -0.08681238 0.057698794
0.037966993 0.06592421 -0.045585364 0.028538875 -0.02893522 -0.07043034 0.07946322 -0.012738192
-0.055149272 0.12801108 0.01212975 -0.06766794 0.014282105 -0.019932473 -0.07838088 -0.1608864
-0.15608512 -0.0619449 -0.0018101623 0.045754436 -0.0007812638 0.07454337 0.07061606 0.08362937
0.060077656 0.13127796 0.073366806 0.022785457 -0.034323268 -0.075771905 0.046218704 0.064172894
0.018372733 0.04033693 0.09916995 0.12628998 -0.04389265 0.04268401 -0.013581186 0.020806968

layer3.0.bn1.weight f4 [32]
00000000: fc51 1d3f df42 d63e 556b e93e 2cb7 b03e
00000010: 8cd7 a33e 208c 283f 7366 f33e 146d f03e
00000020: 7a8d 173f 4226 0b3f efa5 be3e e528 0c3f
00000030: 1195 093f d13a 043f 18d7 193f 9a84 ac3e
00000040: 0d59 1d3f 0f34 f73e 8cea fa3e c98b 7a3f
00000050: e0da 103f 5d5c c13e 865c 1b3f 1522 e13e
00000060: b624 b63e 6fd0 9a3e b568 173f 37f8 0d3f
00000070: c9f2 1a3f 1a90 db3e 5b4d e23e 1f4b ee3e
0.61453223 0.41847894 0.455897 0.3451475 0.32000387 0.65838814 0.475391 0.4695822
0.5920025 0.5435525 0.37235972 0.547499 0.5374308 0.51652247 0.6009383 0.33694917
0.61464006 0.48281905 0.4900707 0.97869545 0.56583977 0.3776578 0.60688055 0.43971315
0.35574883 0.30237147 0.59144145 0.5545687 0.6052671 0.42883378 0.44199643 0.46541688

layer3.0.bn1.bias f4 [32]
00000000: 1f0f 32be 1c44 133e 0fd7 0d3e 0e86 833e
00000010: 6714 be3d 232d 8cbe 01cc 023d 7cc3 1dbe
00000020: 3d68 20be 307d 2dbe c2a8 323e 91f2 27be
00000030: 9a0b d5bd fcef 943d f263 b43c 8a2a 423d
00000040: 8eea 8fbd 27fd 20be fb5b 2fbe 2f2e 89be
00000050: 82d2 fa3d d233 3a3e e8d8 5fbe 1c5d 5fbd
00000060: 1dbc 123e ad4f 8a3e 09b6 72be 9124 32be
00000070: 6a31 adbd 612b 3d3d a559 ac3d cbea e2bd
-0.1738858 0.1438145 0.1385157 0.25688213 0.09281235 -0.27378187 0.031932835 -0.15406603
-0.15664764 -0.16942286 0.17447188 -0.16401125 -0.104026034 0.07272336 0.022020314 0.04740385
-0.0702716 -0.1572157 -0.17124932 -0.26793048 0.122471824 0.1818383 -0.21860087 -0.054532155
0.14329572 0.27013913 -0.23702253 -0.17396761 -0.084566906 0.046183947 0.08415536 -0.110799395

layer3.0.bn1.running_mean f4 [32]
00000000: 8ae2 ac3e b404 7cbf 2e97 94bf c83a 863e
00000010: 80e1 883e c691 e7be 4d3e a1bf f720 47bf
00000020: 6b60 08bf 0a87 d1bf ef1d d9bf 4459 27bf
00000030: c13f 563f f596 4cbf bfcf 07c0 1bb9 a43f
00000040: 1245 aebf 75ce bcbd 5ed6 95be cac7 f0bd
00000050: d7ab d73e b1cf 5abd 9c90 d4bf 8b84 883f
00000060: 79c6 31c0 b977 893d e9f0 8fbe ebe3 96bf
00000070: 6695 e0bf f0ac c6bf c909 c33e 7531 453f
0.33766586 -0.98444676 -1.1608636 0.26216722 0.26734543 -0.45228404 -1.2597138 -0.77784675
-0.5327212 -1.6369336 -1.696226 -0.65370584 0.8369103 -0.7991784 -2.1220548 1.286899
-1.3614829 -0.09219066 -0.29265112 -0.11756857 0.4212329 -0.053420726 -1.6606631 1.0665449
-2.7777388 0.067122884 -0.28113487 -1.1788305 -1.7545593 -1.5521526 0.38093403 0.7702859

layer3.0.bn1.running_var f4 [32]
00000000: bc9a 493f 7940 533f 387e 7b3f 8d3e 5e3f
00000010: c34c 3e3f a920 353f e289 933f 348d 173f
00000020: a993 0b3f 201a 743f 8546 513f 06df 0b3f
00000030: 3287 4b3f b2ae 793f ddfe 2440 eb7c 3e3f
00000040: e2f5 613f 197a 0d3f 51d7 d93e 6054 f13f
00000050: 5829 df3f 5151 6f3f 8af7 393f c36e 033f
00000060: ccec 463f 4b7c 673f 474f 063f e28e 1f3f
00000070: c4bf 823f 55fa 433f f7ee 8b3f 4e39 733f
0.7875173 0.8252025 0.9823947 0.86814195 0.7433588 0.7075296 1.1526453 0.59199834
0.54522187 0.95352364 0.8174823 0.5463718 0.79503167 0.9753219 2.5780556 0.7440936
0.8826581 0.5526443 0.42547086 1.8853874 1.7434492 0.93483454 0.7264334 0.51340884
0.77705073 0.9042403 0.5246472 0.62327397 1.0214772 0.7655385 1.0932301 0.95009315
