meta_results/meta_half_seed-1_metalr-0.0001_T-2_5_4-cycles_cifar100-ResNet10_scheckpoint.pth.tar (torch, 910257 bytes, 128 tensors)

conv1.weight f4 [8, 3, 3, 3]
000000 d7 0e 49 3e a8 da 20 3e 2c b1 22 3d e0 c6 98 3e
       0.19634567 0.1570841 0.039719746 0.2983923
000010 be 9e 90 be c7 ea d7 3d c0 1a c3 3e 66 7e 65 be
       -0.2824611 0.10542827 0.38106346 -0.22411498
000020 1d 1e 51 3e 41 73 08 be 37 95 bc 3c 4c 12 0f 3e
       0.20421644 -0.13325216 0.02302037 0.13971823
000030 d7 c3 1d 3d f4 74 fc be e3 70 9b 3d bc 2f 4f 3e
       0.038516846 -0.49307978 0.07589891 0.20233053
000040 2e 9b 90 be df fd 96 3d 63 3b 37 be a9 04 94 bd
       -0.28243393 0.07372641 -0.17893748 -0.07227451
000050 a0 d6 31 be 07 24 de bd a8 87 d0 be 7e 8d a0 be
       -0.17367029 -0.108467154 -0.40728498 -0.3135795
000060 df 60 cc bc 0f 45 5c be ae fa 9c be a5 ff 22 be
       -0.024948535 -0.21510719 -0.30660003 -0.15917833
000070 ad 9b 02 3c 50 2e 30 3e c8 f4 8a be 76 e5 a2 3f
       0.007971686 0.17205167 -0.27139878 1.2726276
000080 59 65 70 3f c8 8d 98 be f1 03 e1 3e fe 8c fa 3e
       0.93904644 -0.2979567 0.4394832 0.48935694
000090 f0 0f 86 3e 4d 37 a6 be 83 3b 5a 3c 70 36 11 be
       0.26184034 -0.32464066 0.013319853 -0.14180923
0000a0 86 05 bf bd f5 ae 5c bf 47 b8 57 be 14 d3 16 bf
       -0.093272254 -0.86204463 -0.2106639 -0.5891583
0000b0 b6 24 ef be 13 a4 51 3d 4e 87 c9 be 7e 84 55 3e
       -0.46707696 0.051181864 -0.39361042 0.20851323
0000c0 2d 36 21 3e 7f 2e d8 3d a3 f1 08 bf 62 7b 82 3e
       0.15743323 0.105557434 -0.5349371 0.2548476
0000d0 43 b9 f2 3d 9c a2 fc 3d c4 d5 fa 3b 38 97 a0 3c
       0.11851742 0.12335703 0.0076548774 0.019603357
0000e0 31 ba 3f 3d f7 eb 63 bd 9c 6c 80 bf 3b 2b 67 bf
       0.046808425 -0.055644955 -1.0033145 -0.9030034
0000f0 24 0f 43 3d b4 3d 11 be 39 59 c8 bd ae 74 ad 3c
       0.04762186 -0.14183694 -0.09782643 0.021173801
000100 0a e2 aa 3d de 1b 9d 3d e4 4f de 3d c7 28 4c bf
       0.08343895 0.07671331 0.10855082 -0.7974972
000110 62 b0 36 bf 43 70 bf 3b 15 3a ca bc cc 81 aa 3d
       -0.7136289 0.00584224 -0.024685899 0.08325538
000120 0a 13 15 3d c4 bb a3 3d f5 fb 84 3d dc 02 90 3d
       0.03639511 0.07994798 0.064933695 0.070317954
000130 1b 84 50 bf 12 ba 46 bf 78 32 37 3d 80 0c 21 bd
       -0.81451577 -0.7762767 0.044725865 -0.03931856
000140 66 77 25 3d d0 29 27 be 89 18 ae be fc 38 4d bd
       0.04039707 -0.16324544 -0.34003094 -0.050103173
000150 d5 ed 63 be 0e 2d 10 bf 57 a7 e1 be 8a 11 80 be
       -0.22258694 -0.5631875 -0.44072983 -0.2501338
000160 39 d0 a2 be 5f 84 d4 be fc bc d7 3e 22 c2 81 3e
       -0.31799486 -0.4150724 0.4213637 0.25343424
000170 74 0e 3b 3e 41 68 ca 3e 29 ec 95 3e 0d bd 97 3c
       0.18267232 0.39532664 0.29281738 0.018522764
000180 6a 49 03 be 2c 0d a4 3e 1b 74 01 be 3d fc a4 be
       -0.12820974 0.320413 -0.12641947 -0.32223693
000190 cf 77 22 be 25 06 58 3c 1f 14 fe 3d 56 30 08 3f
       -0.15866016 0.013185059 0.124061815 0.53198755
0001a0 dd 75 cd 3e 8f ed d3 3c bf ee 47 3f 9c 08 bc 3e
       0.40128985 0.025870113 0.7809867 0.36725318
0001b0 3e fa 01 be ec 9e 5a 3e 43 2f 31 be 44 ab bc be
       -0.12693116 0.21349686 -0.17303185 -0.36849415
0001c0 ce 0a 70 be 68 f0 8a 3e b5 b1 33 be 2c 24 b6 bd
       -0.23441622 0.2713654 -0.17548259 -0.08893618
0001d0 8e 18 17 3d 9c 07 d3 bc f4 73 46 3f 4e 53 60 3e
       0.03688865 -0.025760464 0.7752068 0.21906778
0001e0 57 83 8a 3e 4b 22 2b 3f 03 dc 82 3f 2f 77 a2 3d
       0.2705333 0.668492 1.0223392 0.07932889
0001f0 98 0c f8 3e 39 a6 3d 3e 15 9a bc 3d 96 7e 45 be
       0.48447108 0.1852044 0.09209076 -0.1928657
000200 bb 74 46 bf 5d a8 1f be f2 c4 83 bf 90 27 35 bf
       -0.77521867 -0.15591569 -1.0294478 -0.7076349
000210 93 61 a5 bc a6 b5 7f be ba 89 c0 be 80 77 a0 bd
       -0.020188129 -0.24971637 -0.37605077 -0.07835293
000220 4e f7 3d bd 06 c2 0b be 8c 0d 18 3d 12 41 ab bd
       -0.046378426 -0.13648233 0.037122294 -0.083620206
000230 67 5b c0 3e 83 0d dd 3c 79 ad 13 3e f8 7b 55 3f
       0.37569734 0.026983982 0.14421643 0.83392286
000240 2d d2 8f bd 3b 97 94 bb c7 0f 6d bd cb db ab 3b
       -0.0702251 -0.0045346296 -0.057876375 0.005244707
000250 64 a9 0e bf d7 18 41 bd b4 05 02 be 73 b0 17 be
       -0.5572722 -0.04714283 -0.12697488 -0.14813404
000260 9e 5f 3c 3f fb 9f 04 3c 16 59 fe 3d 0f b6 02 3e
       0.735834 0.008094783 0.124193355 0.12764762
000270 5b b4 27 3e dc e2 3f be 0c 8d 42 bd 63 a7 26 3e
       0.16377394 -0.18738884 -0.047497794 0.1627479
000280 c1 14 28 be 76 8b a6 3e c3 38 5b be e6 e4 c2 3d
       -0.16414167 0.32528275 -0.21408372 0.09516315
000290 f7 63 ae bc 6a 5d 32 bf 3b ac 65 3f 0b 8b 0f 3e
       -0.021287901 -0.6967379 0.8971593 0.14017884
0002a0 42 bc 87 be 16 24 ff 3c e8 8a c7 3d 53 43 8a be
       -0.26510817 0.031145137 0.09743291 -0.2700449
0002b0 2c 63 63 3e e7 c4 f5 bc bc 88 ca bf 95 fc c7 3f
       0.222058 -0.030001117 -1.5822978 1.5623957
0002c0 dd 7b 91 3e 46 8f ab be a6 bd 93 3e 08 2a 11 be
       0.28414813 -0.33507746 0.28855628 -0.1417619
0002d0 b6 b8 fc bd a1 63 0e 3e cc 76 52 be 1b 98 9c bf
       -0.12339918 0.13905193 -0.2055313 -1.2233919
0002e0 b5 a5 95 3f 0b 2b 9d 3d f7 e1 a1 bd e9 d6 94 3e
       1.1691195 0.076742254 -0.079044275 0.29070213
0002f0 da af 0c be 5f 38 2a 3e f1 4d aa 3f ef c3 32 3e
       -0.13738957 0.16623066 1.3305036 0.17457555
000300 7d 69 6c be 49 6f 8a bf 94 03 56 be 23 da 8d bd
       -0.23087116 -1.0815212 -0.20899802 -0.06926372
000310 aa 2a 6f 3c 45 b6 f2 bc 00 09 7c 3e 37 18 c0 3f
       0.014597574 -0.029627929 0.24612808 1.500739
000320 41 56 81 3e 0f 98 17 be 92 4c db bf c5 56 13 be
       0.2526112 -0.148041 -1.7132742 -0.14388569
000330 e3 92 9d 3b 0c 51 44 3c 3a 96 87 bd 74 2e 18 3d
       0.00480877 0.011982214 -0.0662045 0.037153676
000340 65 75 37 3f 8c c1 8d 3d 82 4c 7d bd a6 6a 7d bf
       0.71663505 0.06921682 -0.06184054 -0.9899086
000350 ea f2 db bc 89 ce 20 3d 78 b0 e5 3d 1b d7 6d bc
       -0.026849229 0.039259467 0.11215299 -0.014516617

bn1.weight f4 [8]
000000 37 0f 01 3f bd 36 a9 3e 10 94 ec 3f 59 52 a2 3e
       0.5041384 0.33049574 1.8482685 0.3170345
000010 98 f1 98 3e 7d 20 a9 3e 12 72 ff 3e ec 97 06 3f
       0.2987182 0.330326 0.49891716 0.52575564

bn1.bias f4 [8]
000000 66 ba ba be c0 d1 66 3e c9 3b fd bf 0a 5d 9e 3e
       -0.36470336 0.22540951 -1.978387 0.30930358
000010 67 7b 02 3f f9 2a d1 3e c4 83 99 3e c8 b1 9d 3e
       0.5096955 0.40853098 0.29983342 0.307997

bn1.running_mean f4 [8]
000000 e8 7a 72 3e e1 8a bf bd 80 a6 d4 3f 39 88 02 bc
       0.23679698 -0.09352661 1.6613312 -0.007967048
000010 9f cb 6f be 2b 26 dc be e6 e2 6d bd e4 21 01 3d
       -0.23417519 -0.4299787 -0.058077715 0.03152646

bn1.running_var f4 [8]
000000 50 1c 19 40 1f a3 b0 3f dc d7 cb 41 6e 87 32 40
       2.392353 1.3799781 25.4804 2.789516
000010 71 c6 ec 3f 3f 80 1b 40 02 37 ab 40 22 f6 9d 40
       1.849806 2.4297025 5.350465 4.9362955

layer1.0.conv1.weight f4 [8, 8, 3, 3]
000000 94 33 ba 3a 03 24 0d 3e 7b 79 87 bd 51 f4 f6 bc
       0.0014206045 0.13783269 -0.066149674 -0.030145796
000010 9a 8a 0d 3d fa 4c 44 3e 89 f8 df bd 7b 06 9e be
       0.03455601 0.19169989 -0.10936076 -0.3086432
000020 ae f5 62 3e 69 a0 d4 bd 72 bf c4 3d e7 2f d4 bb
       0.22164032 -0.10382158 0.09606828 -0.006475437
000030 02 1e 47 3e 0d f4 63 bc 8a b3 0b 3d bd 6b 0a be
       0.19445041 -0.013913167 0.03410677 -0.13517661
000040 54 1c 92 3e 26 24 43 be 66 8f 47 3e b1 48 da 3e
       0.28537238 -0.19056758 0.19488296 0.42633584
000050 43 e3 b4 3d 38 3c 51 3e ea 28 e1 3e 1c 07 7a 3c
       0.08832409 0.20433128 0.43976527 0.015260484
000060 be b1 12 bf e8 aa 03 bf d7 f5 53 bd 6b 02 01 3e
       -0.57302463 -0.5143266 -0.051748123 0.12598579
000070 09 5c 6f be b7 41 3e 3d c6 37 4d bd b5 a7 b1 ba
       -0.23374952 0.04644939 -0.050102018 -0.0013554009
000080 b4 67 29 be 94 b9 9b bc 51 c9 5c 3e f4 89 97 3d
       -0.16543466 -0.019009389 0.21561171 0.07399359
000090 aa c7 16 3e bb 65 a6 bd 55 76 24 bd 5d 77 82 be
       0.14724603 -0.08124872 -0.040151913 -0.25481692
0000a0 6b 7e 6a bc 5c 2e 0a bc dd cb 38 3e 36 47 ae 3d
       -0.014312367 -0.0084339045 0.18046518 0.08509676
0000b0 b7 e1 11 3d 0e 38 83 be fb 36 42 be b3 11 bd bd
       0.03561565 -0.25628704 -0.18966286 -0.092318915
0000c0 77 ce a2 3e 52 0a 23 3e c8 00 35 3e 01 66 87 3d
       0.31798145 0.15921906 0.1767608 0.066112526
0000d0 f5 bc 47 be 2c cd f4 bd 64 e8 f3 3d f9 78 01 3e
       -0.19505675 -0.11953196 0.11909559 0.12643804
0000e0 8d b9 12 3d c6 b0 ee bb 65 fc ce be 7f e2 5d 3e
       0.035821486 -0.0072842566 -0.40426937 0.21668433
0000f0 83 7e a9 3d 42 2e 9c 3e b6 64 b7 bd 53 c5 cc 3c
       0.08276083 0.30504042 -0.08954756 0.024996435
000100 6e 2e b3 bd 50 c9 8b 3d 36 e7 aa 3d 29 71 0c 3c
       -0.0874909 0.06825507 0.08344881 0.008571901
000110 ba 62 90 3c 37 ca a5 be 59 79 e2 bf 8b 90 a9 be
       0.017625201 -0.3238084 -1.7693282 -0.3311809
000120 a7 ef 12 3d 61 26 21 3e 03 4c 36 3e dc a1 66 3d
       0.03587308 0.15737297 0.17802434 0.056306705
000130 0e b6 71 b8 00 00 66 3d 94 bc e9 bd 93 9d 8d bd
       -5.762843e-05 0.056152344 -0.114129215 -0.069148205
000140 0f 45 b7 3c f5 42 2b 3c db 91 ef bd 8d 6e aa 3c
       0.022371797 0.0104529755 -0.116977416 0.020804668
000150 74 5f 3c bd ed fc 57 be 89 23 13 be 17 ae 63 3c
       -0.04598947 -0.21092577 -0.14369024 0.013896487
000160 52 07 30 bc 80 84 39 3e 92 15 a8 3e db c0 83 3f
       -0.010743933 0.18116951 0.32828957 1.029323
000170 af af 70 3e ed c3 5b 3e f4 58 5c 3f b7 75 30 3e
       0.23504518 0.21461459 0.8607323 0.17232405
000180 44 79 2e be 18 ce ee 3e 69 64 1d be 7a 68 09 3d
       -0.17038447 0.46641612 -0.15370335 0.033546902
000190 f0 68 29 bd d5 db 9c bd 8d e7 14 bd e9 8a df 3c
       -0.04135984 -0.07659117 -0.036353637 0.027287917
0001a0 1d 52 8d bc 29 6e 16 bd 72 3c db 3c 32 b4 0f bd
       -0.017251069 -0.03672615 0.026762221 -0.035083957
0001b0 e5 f2 c5 bc 93 34 1d bd a0 81 ff 3c a7 da 37 bd
       -0.024163673 -0.038380217 0.03118974 -0.044886257
0001c0 01 3c 33 3c 74 2a 26 3d e2 5d 8f 3d 5b 3a cc 3c
       0.010939599 0.04056783 0.070003286 0.02493017
0001d0 03 7d c6 bd 9f c2 94 be 7a c6 c0 be 91 ca e1 3e
       -0.09691813 -0.29054734 -0.37651426 0.44099858
0001e0 d0 bd 37 3e 2c 29 d5 3d 48 7b 93 3d 65 66 89 3d
       0.17943501 0.104082435 0.072012484 0.06708983
0001f0 ba 32 3e bd e5 2a db bb 49 91 2a 3e ca 55 1d bc
       -0.046435095 -0.006688463 0.16656984 -0.009602973
000200 97 35 42 3d ed a6 e0 bc ac 71 3f bc e7 ed a3 bd
       0.04741439 -0.027423346 -0.011684816 -0.08004361
000210 35 a2 c5 bc 31 c5 12 3e 7f 9a ff bd 5d 91 c1 bc
       -0.024125198 0.14333035 -0.1248064 -0.023628885
000220 b0 7c e3 3c 65 0d d9 bd 17 0d 7e be de 2b 5b 3e
       0.027769417 -0.10598258 -0.24809681 0.21403453
000230 ab 84 da bb 4f 7f c9 bc 81 33 d7 3d 9e 37 9a 3d
       -0.0066686473 -0.024596838 0.105078705 0.075301394
000240 3b 2f ab bd 26 6d 95 3c d8 43 fc bc d7 b1 0e be
       -0.08358618 0.018240523 -0.03079407 -0.13935028
000250 4a ed 8d 3d 37 ab b1 3d ee 79 1a 3c ee ce ac bd
       0.06930025 0.08675235 0.009428484 -0.08437906
000260 15 82 d8 3c 89 6d 6e 3e c0 fe 21 3e 9b ac 89 bc
       0.026429215 0.23283972 0.15819836 -0.016805938
000270 90 86 12 3e 8c 19 8c 3e 30 cd d5 3b 30 c2 05 bf
       0.14309144 0.2736324 0.0065247044 -0.5224943
000280 d0 d6 c7 be 1f bc bc be 67 8b f5 bd 3e ec 55 be
       -0.39031076 -0.36862275 -0.119894795 -0.208909
000290 e4 0b ad 3d e1 37 39 bd fb d0 28 be d2 a8 c7 3d
       0.084495336 -0.045219306 -0.1648597 0.09748997
0002a0 fe 87 00 3e 44 50 a7 bd 7e ba 97 bb 51 08 10 bc
       0.12551877 -0.08169606 -0.004630386 -0.008791045
0002b0 8a 7f 36 be 98 b1 8a be 08 e0 62 3e 4d 8f 6e bd
       -0.1782209 -0.27088618 0.22155774 -0.05824213
0002c0 78 af 89 be 96 4f 0d 3e 42 55 81 bd a2 4f 66 be
       -0.26891685 0.13799891 -0.0631509 -0.22491315
0002d0 1d 60 cf be 37 cc 42 bf 2b ad a0 be 73 98 64 be
       -0.40503016 -0.7609286 -0.31382117 -0.2232378
0002e0 1a 06 1f bf 26 d2 36 3d 87 cc 30 3e 9b e9 ec 3d
       -0.62118685 0.044634007 0.17265521 0.11567994
0002f0 6a eb 23 3f a0 cc a9 be 96 63 aa 3d 18 14 6a 3d
       0.6403109 -0.3316393 0.08319776 0.05714807
000300 09 f5 24 3d d4 d2 1f 3e 39 32 af 3d 48 b6 b4 bd
       0.040272746 0.15607768 0.08554501 -0.0882383
000310 7f b1 0b be bb 21 f8 3b 3e b5 51 bc 7d 15 6b be
       -0.13641928 0.0075723804 -0.012799559 -0.22957416
000320 d1 f8 14 3e 25 cb 8d 3d f6 53 ab 3d 78 e3 4d 3e
       0.14548041 0.06923512 0.08365624 0.20106304
000330 a8 7c 40 bd 25 5c 05 3e 5b 5e 88 bd e6 84 09 bd
       -0.04699388 0.13023432 -0.06658622 -0.033574007
000340 5c 0a 6d 3e 28 61 12 be 14 5a ba 3d f6 e3 54 be
       0.23148483 -0.14294875 0.09099212 -0.20790085
000350 f8 e9 f2 3d b3 cd a6 bd 32 25 9e bd 82 86 6f 3d
       0.11861032 -0.08144703 -0.07721938 0.058477886
000360 dc 91 17 3e 7a 26 3a be 29 06 83 3d fb d0 98 3c
       0.14801735 -0.1817874 0.06397659 0.018654337
000370 33 51 65 be 42 56 b8 3e bb 8b 4f be 5c cb 2b be
       -0.22394256 0.3600331 -0.20268147 -0.16776794
000380 c1 b5 b7 3e d7 fe b9 3d 71 0a b0 bd 4b 8a 62 bb
       0.35880855 0.0908181 -0.085957415 -0.0034567292
000390 9f 74 e4 3d 65 60 ff bd 08 b1 89 3d f8 1a 63 bd
       0.11155056 -0.12469558 0.06723219 -0.05544564
0003a0 49 c9 d5 bd e7 14 a7 be 21 7a 9d be d1 c7 c4 be
       -0.10438783 -0.32633135 -0.3075724 -0.38433698
0003b0 86 dc 07 3e d3 9a 5c be 5e c8 87 be 21 2e fc 3e
       0.13267717 -0.21543436 -0.26520056 0.49253944
0003c0 13 40 8e 3d 77 ac 37 3e 66 cf 4a 3f 8a b2 bc bd
       0.06945815 0.17936884 0.79222715 -0.09213741
0003d0 6a 29 a9 3c 49 40 c9 bc de c6 3f bd 8e 35 01 3e
       0.02064963 -0.024566786 -0.046820514 0.12618086
0003e0 a0 48 42 be a7 e5 2a 3c cc 27 19 3e 7d 21 8e bd
       -0.18973017 0.01043073 0.14956588 -0.06939981
0003f0 75 54 02 3b e5 d3 46 3d 17 f8 2d be 09 c0 c3 3b
       0.0019886766 0.048541922 -0.1698917 0.00597382

layer1.0.bn1.weight f4 [8]
000000 cd 7d 57 3f bd f1 81 3f 5c bf ba 3e c2 78 15 3f
       0.8417633 1.0151898 0.3647412 0.58387387
000010 5f 2a 98 3e 50 a9 21 3f 85 64 cc 3e 45 d3 1e 3f
       0.29719827 0.63148975 0.3992044 0.6204112

layer1.0.bn1.bias f4 [8]
000000 3d e6 a1 3e 61 a2 96 bf 03 67 98 3e f3 94 e9 be
       0.3162097 -1.1768304 0.29766092 -0.45621452
000010 cf 70 e2 3e 4f 92 8f 3e 77 ac 1c 3f ae 5e 52 3e
       0.4422669 0.28041312 0.6120066 0.2054393

layer1.0.bn1.running_mean f4 [8]
000000 ea 0c fa be fa ad 5f 3e 50 c6 90 bf 54 ab 86 be
       -0.48837978 0.2184371 -1.131052 -0.26302588
000010 d0 04 c3 3e 8e dc fa be 43 0b b4 bd 3f bb 03 bf
       0.3808961 -0.48996395 -0.087912105 -0.5145759

layer1.0.bn1.running_var f4 [8]
000000 34 f6 78 3f 25 2a 88 3e 1f 64 5d 3e b5 8b da 3d
       0.97250676 0.26594654 0.21620224 0.10671178
000010 a7 bd 47 3e 43 5c 48 3f 04 b6 38 3e 02 f2 fc 3e
       0.1950594 0.7826578 0.18038183 0.49403387

layer1.0.conv2.weight f4 [8, 8, 3, 3]
000000 ed 01 1b 3c ec 33 84 be 29 d9 45 3e 9d b8 7d be
       0.009460908 -0.25820863 0.19321121 -0.24777456
000010 2c 1f 93 bf d3 8a cc 3e a5 58 92 bd 89 b5 a5 3e
       -1.1493888 0.39949664 -0.07145814 0.32365063
000020 c6 a7 f4 3e fe dd c5 3c 88 5a df 3b 7e 59 9b bd
       0.4778425 0.024153706 0.006816212 -0.07585429
000030 2e 35 d0 bd db 24 2d be 91 79 d7 3d 6e 70 eb be
       -0.10166393 -0.1690859 0.10521234 -0.45984215
000040 d9 68 fc be ed 57 9b 3d 8f 32 81 3a 24 49 06 3d
       -0.49298742 0.0758513 0.0009856987 0.032784596
000050 a7 9e 00 be 46 4c 4c 3e 35 28 83 3d 3a d9 8d 3d
       -0.12560521 0.19950971 0.06404153 0.06926198
000060 ed a7 08 3e f1 d9 95 bd 7b 78 ba be a2 67 ae bd
       0.13345309 -0.0731696 -0.36420044 -0.0851586
000070 56 ef 36 3e c9 07 1c bd 2b 87 2f bf d2 5c 94 3d
       0.17864737 -0.038093362 -0.68565625 0.072442666
000080 90 e3 d5 bc aa a5 8b 3e 0f 0b a9 3e 97 dc b4 bc
       -0.026109487 0.2727483 0.3301625 -0.022077842
000090 65 7d b0 3d 90 4b ba bc 99 c7 91 bd 98 c7 30 3c
       0.08617667 -0.02274111 -0.07118148 0.010789774
0000a0 f4 85 a1 3d 00 b9 bd bd 79 49 00 3d 14 b3 dc 3d
       0.07886878 -0.092638016 0.03132007 0.10776344
0000b0 8f 52 96 bb e2 ad 87 3d 81 a0 70 3e 5e f7 3f 3d
       -0.0045874785 0.066249624 0.23498727 0.046866767
0000c0 de 1e b4 3e 9f d1 20 3e 68 03 26 3e 4a 3c bd bd
       0.351798 0.15704964 0.16212237 -0.09240015
0000d0 b9 4e 4d bf cd 46 8f be 7e 94 f1 3b f7 25 a0 bd
       -0.80198246 -0.27983704 0.007372438 -0.07819741
0000e0 8e 7c 41 be 6a 2a 75 be e8 34 20 3e 25 79 16 3e
       -0.1889517 -0.23941961 0.15645182 0.1469465
0000f0 78 8d 75 3e 50 d3 84 be 8a c2 c6 3d ee 01 b6 3d
       0.23979747 -0.2594247 0.09705074 0.08887087
000100 af 97 11 3d 28 1a e3 3d 2d fc e3 3b 09 60 b2 3d
       0.035545047 0.11088973 0.006957552 0.087097235
000110 81 45 db 3c 75 e1 d7 3e e8 18 17 bf 25 dd 21 be
       0.02676654 0.42164198 -0.5902238 -0.15807016
000120 0c fc e0 bd 0d 08 73 be 44 b9 8f 3d 49 45 bd 3d
       -0.10985574 -0.2373354 0.070177585 0.09241731
000130 be 83 a2 bd f6 e0 d3 3d 43 cc a8 3c 6f 8c 04 be
       -0.07935284 0.10345642 0.020605212 -0.12944196
000140 83 ab fb bd dc 1c 2f 3e 92 e1 ce 3d cb 4c b9 3c
       -0.12288573 0.17100853 0.10101618 0.022619626
000150 13 cf f6 3d 39 1f 36 3d c4 22 10 be d1 bd d3 bd
       0.12051215 0.04446337 -0.14075762 -0.10338939
000160 f0 26 a5 be 31 df da be a5 f1 a1 bd c2 db 64 be
       -0.3225627 -0.42748407 -0.07907418 -0.22349456
000170 84 8a 9b be c2 3e 84 be e0 91 3b 3d c7 3c 52 3e
       -0.30379117 -0.2582913 0.045793414 0.20530997
000180 1a eb ce be 4d ad d1 3e f0 5a 66 3f b7 f3 3d bd
       -0.40413743 0.4095253 0.8998251 -0.046375003
000190 fc 64 4e 3e 34 b0 23 bd 1a e4 79 be ba 23 bc 3d
       0.2015571 -0.039962962 -0.2440342 0.09186502
0001a0 23 1c 4b 3d 4d 1c 66 be 65 cd 3a bb 89 83 b8 bd
       0.04958738 -0.22471733 -0.0028503772 -0.09009463
0001b0 17 d6 6b 3e 6c 56 26 3e 44 4b 10 bd c5 ff e8 3e
       0.23030888 0.16243905 -0.03522803 0.45507637
0001c0 cc 46 84 3e eb d7 e6 be 17 25 49 3d 53 20 43 3d
       0.25835264 -0.45086607 0.049107637 0.04763825
0001d0 c8 2f e1 be 30 49 9b bd b9 8a e2 3c 98 6b a6 bc
       -0.43981767 -0.07582319 0.027654039 -0.020314977
0001e0 0f 19 59 be 3c bf 34 3d d2 b6 3b 3e 05 32 5b bd
       -0.21200965 0.044127688 0.18331459 -0.0535145
0001f0 b5 fa b1 3d a4 57 0e 3e d7 ab 15 be 25 43 75 be
       0.08690397 0.1390062 -0.14616333 -0.23951395
000200 51 e8 8d be 27 cb 2b 3e 5e 48 d8 bd c7 6e 25 be
       -0.27716306 0.16776715 -0.10560678 -0.1615554
000210 87 db 9d 3e 5d 8f 27 3f fb 2f 6a 3c d3 c6 91 bc
       0.3083155 0.6545313 0.014293666 -0.017795002
000220 74 24 ca 3d 23 a2 c0 3d 5b e4 d0 3d 98 00 8c 3d
       0.09870234 0.09405925 0.10199805 0.06836051
000230 a6 94 3f 3e 9c f9 4c bd 99 72 6c be 4e 5f f3 be
       0.18709049 -0.050042734 -0.2309059 -0.4753365
000240 45 fa 79 bc 84 a9 29 bd 99 d6 eb 3c ce 2c ab bd
       -0.015257423 -0.04142143 0.028788852 -0.08358155
000250 18 7b 98 bd 90 f4 37 3d 9f a5 d9 bd 33 30 13 3d
       -0.07445353 0.044910967 -0.10627293 0.03593464
000260 6d d4 95 3e 84 87 c9 3d ad 51 9e bd ce 9c ca 3d
       0.2926363 0.09840301 -0.07730422 0.09893189
000270 b5 b8 d3 3d 36 10 35 3d 2c 45 63 3e 9d 49 1a 3e
       0.103379644 0.044204913 0.22194356 0.15067144
000280 d1 03 35 3e 3e fb db 3e ae 36 ea 3d 73 5a 30 bd
       0.17677237 0.4296512 0.114362106 -0.04305501
000290 e0 c4 43 bc 1c 59 45 bd 83 5f 94 3d 91 b2 27 3e
       -0.011948794 -0.048180684 0.0724478 0.16376711
0002a0 d9 1a 08 be 37 14 b2 3d 4c f6 89 3e 0b 1a 65 be
       -0.13291492 0.08695262 0.26945722 -0.22373216
0002b0 dc b1 6b be ce 17 5a be e3 99 12 be 66 72 2a be
       -0.23017067 -0.21298143 -0.14316516 -0.16645202
0002c0 9e af e3 bc b6 ca fb bd 1b b2 36 bd 9a 57 12 3e
       -0.027793702 -0.122945234 -0.04460345 0.1429123
0002d0 e9 9c 34 3e 30 f4 a3 bc fe c5 34 be c1 8c 2d 3e
       0.17637981 -0.020013899 -0.17653653 0.16948225
0002e0 68 04 45 be 47 c3 09 be 3f 76 7d 3d 95 84 3a be
       -0.19239962 -0.13453399 0.061880346 -0.18214639
0002f0 d4 80 94 bd 0b 90 04 3e b3 81 07 3e c7 29 89 3d
       -0.072511345 0.12945573 0.1323307 0.066974215
000300 b5 72 52 3c 3a d6 5f bc 8b 92 a6 3b 9d ff 7e be
       0.012844731 -0.013661915 0.0050833873 -0.24902196
000310 b7 1e 66 be 5a 53 9c be f3 ee 1a 3e db 29 fb bd
       -0.22472654 -0.30532342 0.15130214 -0.12263843
000320 20 32 f6 bc 36 9a f3 3c 86 22 d4 ba d9 4c 2c be
       -0.030053198 0.02973662 -0.0016184605 -0.1682619
000330 de 45 d9 bd 30 75 15 3e 52 91 65 3e 06 4a 29 3d
       -0.10609029 0.14595485 0.22418717 0.04133036
000340 09 36 b5 bd f3 fc 82 3c b5 31 c1 3b c9 e4 09 be
       -0.08848197 0.015989756 0.005895818 -0.13466181
000350 4c ae 9f bd ea 17 e3 3d 0b e9 bd bd 93 f2 24 3e
       -0.07796916 0.110885456 -0.09272965 0.1610816
000360 e5 8a 16 be 48 2a 5f bd 4c c3 90 3e 3f a3 54 3d
       -0.14701422 -0.054483682 0.28274 0.051913496
000370 6e 49 a0 3d c9 04 26 3e c5 cf 54 3c b1 e4 bb be
       0.078265056 0.16212763 0.012988989 -0.36697915
000380 d8 6e 42 be 97 61 85 3d a2 71 ff bd d0 0d 2e be
       -0.18987596 0.065127544 -0.124728456 -0.16997457
000390 49 cd 82 3c 2d a4 1b be f3 30 4c be be e6 d8 bd
       0.015967028 -0.15199347 -0.19940548 -0.105908856
0003a0 02 28 81 be 4f 84 91 be ad db b1 be 99 5b 79 bd
       -0.25225836 -0.28421256 -0.34737912 -0.06087837
0003b0 1a ab ed 3d 90 e7 09 be 6a 36 03 3e e2 3f 9a 3e
       0.11604901 -0.1346724 0.12813726 0.30126864
0003c0 79 cd 68 bc 6a 00 62 3d f8 53 01 3e b5 ec 43 3e
       -0.014209145 0.055176176 0.12629688 0.19133265
0003d0 85 85 46 3e 2e e9 b4 bb 6e c4 21 3d 55 11 b3 3d
       0.19386871 -0.0055209612 0.03949397 0.0874354
0003e0 dd 25 de 3b 7f 1a ce bd 1a d4 8b be 21 73 9b bd
       0.006779416 -0.100636475 -0.27310258 -0.075903185
0003f0 99 95 8f be fd 70 a1 be 3f 50 0d be 74 72 19 be
       -0.2804382 -0.31531516 -0.13800143 -0.14985067

layer1.0.bn2.weight f4 [8]
000000 33 fc bd 3f 16 d3 2b 3f a4 14 5d 3f f9 e6 22 3f
       1.484259 0.67118967 0.8635962 0.63633686
000010 2f 65 f3 3e 8f dd 20 3f ce c1 b1 3f 06 26 86 3f
       0.47538134 0.6283807 1.388727 1.0480354

layer1.0.bn2.bias f4 [8]
000000 2e 9e 0d 3f 44 74 19 3e e2 e8 96 be 53 a3 98 3e
       0.5531949 0.14985758 -0.2947455 0.29812106
000010 1d 4f f3 bd be 90 d6 3e d6 ab a0 bb 32 9d 45 3e
       -0.11880324 0.41907305 -0.004903297 0.19298247

layer1.0.bn2.running_mean f4 [8]
000000 ab 06 d1 be 29 8c 3d 3d 5b 10 1a bd b8 0e e1 3e
       -0.408254 0.046276245 -0.037613254 0.43956542
000010 66 24 8d be 86 68 2a 3f 62 30 1d bf 60 08 d9 3e
       -0.27566832 0.6656574 -0.6140195 0.42389202

layer1.0.bn2.running_var f4 [8]
000000 2f a8 26 3f d7 74 a2 3e 4f 58 94 3e 28 df 0b 3f
       0.6510038 0.31729767 0.28973624 0.54637384
000010 12 13 5a 3e bc 5b 28 3f 5f f0 24 3f 20 90 07 3f
       0.21296337 0.65764976 0.6442928 0.5295429

layer2.0.conv1.weight f4 [16, 8, 3, 3]
000000 68 61 5f bd e8 c8 c6 3c 01 9b 4f 3d 22 54 a5 bc
       -0.054536253 0.024265721 0.050684933 -0.02018172
000010 d2 17 f6 3d 55 32 25 3e 96 1f c3 3c b8 14 b3 3d
       0.12016262 0.16132481 0.023818772 0.08744186
000020 e3 bd 5a 3c 10 5f a6 3d 34 66 64 bd a1 b2 fb bd
       0.013350937 0.081236005 -0.05576153 -0.1228993
000030 8d 28 17 bd 7c 81 98 be 97 24 73 bd 14 2c 76 be
       -0.036903907 -0.2978629 -0.059361067 -0.24040252
000040 45 7c c9 be ed b9 96 3d 9e 5a 7c 3d 77 01 6c bc
       -0.39352623 0.07359681 0.061609857 -0.014404646
000050 82 8c 9d 3d c8 7d 8f 3d b7 08 64 bd b7 a5 19 3d
       0.07692815 0.07006413 -0.055672374 0.037511554
000060 18 6e 15 bd 85 07 6a be 08 06 ed bd e6 db 94 be
       -0.036481947 -0.22854431 -0.11573416 -0.2907402
000070 8a e3 f3 bd 5e 65 2d be c8 45 ac bd 47 d2 bf 3e
       -0.11908634 -0.169332 -0.08411747 0.37465116
000080 ba c3 5c 3e 19 53 3b 3e 11 7e 15 3f 94 e2 16 3e
       0.21559039 0.18293418 0.5839549 0.1473487
000090 68 c1 49 3e 82 80 1b 3e 58 70 b8 3d 19 42 68 39
       0.19702685 0.1518574 0.09005803 0.00022149867
0000a0 49 03 4e be c6 cd 27 be bc 7c 21 be 2b 02 bf be
       -0.2011844 -0.1638709 -0.15770239 -0.37306342
0000b0 67 12 8e be a9 2d 24 3d fd da 20 3b 59 26 29 be
       -0.27748415 0.040082607 0.002454459 -0.16518535
0000c0 74 5a 03 be 7e b6 a5 bd 99 86 4d be 97 b3 6a be
       -0.12827474 -0.08091448 -0.20070876 -0.2292007
0000d0 57 57 a2 bd 2a de 32 be 6c 5a 0c 3d de 81 5e bc
       -0.07926815 -0.17467561 0.03426592 -0.013580767
0000e0 76 56 88 3d 76 fb bb 3d 91 1b e1 3d e0 d9 e3 3d
       0.06657116 0.09178822 0.10991586 0.11125541
0000f0 3b 80 73 bd 0b fa 71 3d e6 de 47 3e cc c2 01 3e
       -0.059448462 0.05907635 0.19518623 0.12671965
000100 dd 46 a5 3d bf 73 22 bd 5a a3 4b 3e dd d7 85 3e
       0.08070157 -0.039661165 0.19886532 0.26141253
000110 a9 02 40 3e f2 8a 46 3e e9 69 29 3e 57 bf 59 3d
       0.18751015 0.19388941 0.16544308 0.05316099
000120 ed 27 c3 3d bb ea 88 3e 93 d5 99 3e 15 a5 e7 3d
       0.095290996 0.26741585 0.30045757 0.11310784
000130 35 5f 5d 3e b3 45 2b 3e 1f 94 b5 3d a4 75 ef 3d
       0.2161835 0.16725807 0.088661425 0.1169236
000140 32 d0 c7 bd 51 15 8f 3d 28 7f a6 3d 8e d3 d8 3d
       -0.09756507 0.06986488 0.08129722 0.10587226
000150 85 45 07 be e3 f4 5c 3d e2 9b 88 3d fa b7 9f be
       -0.13210113 0.05394448 0.06670357 -0.3119505
000160 fd 93 0b be 1e cc cc bd 62 11 3a bc 49 bc 2b bd
       -0.13630672 -0.0999987 -0.011356683 -0.04192761
000170 55 a5 fe ba f3 50 b6 3d 87 be 51 3c 04 ce a4 3d
       -0.0019427935 0.089021586 0.012801773 0.08047107
000180 20 3f f1 3d 14 18 37 3b ef 14 d2 3c d5 03 56 3d
       0.11779618 0.0027937936 0.025644748 0.05224975
000190 dd 85 23 3d 26 5e 59 3d fe 8e da bd 86 6e 88 be
       0.039922584 0.053068303 -0.10671805 -0.26646823
0001a0 f8 74 73 be 02 44 97 be 2a 7d e2 be a1 91 e7 be
       -0.23775089 -0.29544073 -0.44236118 -0.45228294
0001b0 34 5c 31 3e 75 b7 7b 3d ce 74 90 bc dc f9 ce bd
       0.17320329 0.061454255 -0.017633822 -0.10106251
0001c0 34 4b 26 bd d7 7c 1a bd 70 eb 80 be b0 0f 42 be
       -0.040599063 -0.037716713 -0.25179625 -0.18951297
0001d0 14 55 9e bd 2d 97 91 be e8 7c bf be 89 92 c3 be
       -0.07731071 -0.2843565 -0.37399983 -0.38197735
0001e0 93 21 9c be 2d 1e 39 be a0 55 99 be 74 75 71 bc
       -0.30494365 -0.18077917 -0.2994814 -0.014737476
0001f0 0d cb 5f 3d fb a3 40 bd 25 41 1e bd 4b 23 72 bd
       0.054637004 -0.047031384 -0.038636345 -0.05911569
000200 02 14 5f bd d7 19 2d be 13 89 3a be f2 08 6f bd
       -0.05446244 -0.16904388 -0.18216352 -0.05835814
000210 2f 3d ff bd b5 9a eb bc f2 7d ef 3d 7d b9 b1 bd
       -0.12462842 -0.028760293 0.11693944 -0.08677957
000220 f9 3b 9c 3d ea 0a fb 3d 17 16 97 3e 38 25 b1 3e
       0.076286264 0.12257941 0.2950904 0.34598708
000230 d6 d3 61 3e 40 a2 80 3e 99 12 99 3e 61 1d 15 3e
       0.22053465 0.25123787 0.29897 0.14561988
000240 0b e2 27 be a6 f0 03 3e 72 52 df bd 3a 4f a0 be
       -0.16394822 0.12884769 -0.10904397 -0.31310445
000250 fe 1b b5 3e 65 ad 12 bd 6d 0c 78 be 77 a4 5f 3e
       0.3537292 -0.035809893 -0.2422349 0.21840082
000260 d6 df c7 3c 19 5d d9 3c bf 7e f6 bd 59 ef 75 3d
       0.024398725 0.02653365 -0.12035894 0.060042713
000270 5d 82 91 3d 24 62 da bd c9 6f e6 bb eb 56 ea 3c
       0.07104943 -0.1066325 -0.007032369 0.028605899
000280 05 3c 8a bd fe 6d d7 bc 3b 0a 58 be 7c 66 37 3e
       -0.06749729 -0.026297566 -0.21097653 0.17910188
000290 51 83 b1 3d 59 f1 ad be b0 ae c6 3d 54 33 0f 3c
       0.08667625 -0.33973196 0.09701288 0.008740265
0002a0 d3 2f 69 be 1a 69 c8 3d 0c b3 28 bc 91 23 c8 3d
       -0.2277215 0.097856715 -0.010296594 0.09772409
0002b0 26 c7 2f be 67 af 80 bc 9b 30 40 3e b6 d4 0d be
       -0.17165813 -0.015708638 0.18768542 -0.13850674
0002c0 1b 03 13 bd 14 0f d4 3d 23 6b 47 be 48 e0 43 3d
       -0.035891633 0.103544384 -0.19474463 0.047821313
0002d0 48 98 3d 3d ba 34 05 bd 8c cf 62 bc d2 57 54 3d
       0.046287805 -0.032520987 -0.013843428 0.051841564
0002e0 05 1f e4 bd fa de df 3b df 55 16 3e 97 02 c8 bd
       -0.11138729 0.006832001 0.14681195 -0.09766119
0002f0 e4 62 37 3d e7 cc 00 be b3 ab 3b 3d 64 b2 c4 bb
       0.044772044 -0.12578164 0.045818042 -0.006002711
000300 d3 b7 ca bd 59 e5 7a 3d 8b 2f fc bb b3 1a ae be
       -0.09898343 0.06125388 -0.0076960973 -0.34004745
000310 53 5f 4c 3c 38 af 74 3e 85 95 7e be 47 60 87 3e
       0.012473899 0.23894966 -0.24861725 0.2644064
000320 f9 dd f1 3d 9e f1 e5 be 2f e6 bc 3e 23 23 16 bd
       0.11809916 -0.44910902 0.36894366 -0.036654603
000330 53 9a b7 be b4 eb a8 3e 0c 3b ca bd 5b b8 77 3e
       -0.35859928 0.32992327 -0.098745435 0.2419142
000340 0a 94 3b be 41 64 20 3d a6 4c f3 3e 4a ce ec be
       -0.18318191 0.03915811 0.47519416 -0.46251136
000350 08 24 de bd 38 bf b6 3e be 16 cc be a9 2b ed bc
       -0.10846716 0.35692763 -0.398611 -0.028951483
000360 04 e1 6d be 61 32 4a 3e ef cc 8b 3d 8c 01 0a 3e
       -0.23230368 0.1974578 0.06826197 0.13477153
000370 c2 c2 b3 3e 91 0d 28 bf 39 c8 30 3e 32 a4 31 bf
       0.35109526 -0.656457 0.17263879 -0.6939117
000380 43 c0 fa 3e 41 63 7d bc 85 d0 bc 3d a3 6a 6b bd
       0.4897481 -0.0154655585 0.092194594 -0.057474744
000390 f1 20 ab 3d 48 8b bd bd 70 b0 5f 3d cd cf 24 bd
       0.083558924 -0.092550814 0.054611623 -0.040237237
0003a0 e3 f7 b0 3d c7 d4 cf bd c4 9a d1 bc cd 7e d5 bd
       0.08641031 -0.10148006 -0.025586493 -0.10424576
0003b0 3d 80 93 bc ed 0b fa bc ae 7b 21 be 80 28 17 be
       -0.018005485 -0.030523265 -0.15769836 -0.14761543
0003c0 14 07 70 bd 0a 2f 91 bd 24 b8 94 bd 2e b9 06 3c
       -0.0586005 -0.0708905 -0.072616845 0.008222861
0003d0 2d 43 9e 3a 1e 52 68 bd 3b 70 95 3c 3c 61 79 bd
       0.0012074463 -0.056718938 0.018241992 -0.060883746
0003e0 c3 3e 7a 3b 6f c3 0c 3d f8 ea 16 3d 3f 9c 11 be
       0.0038184382 0.034366067 0.036845177 -0.1421976
0003f0 71 d9 d5 3c 32 eb 3b bd 57 fb 82 bc 37 53 20 3d
       0.02610466 -0.045878597 -0.015988989 0.03914186

layer2.0.bn1.weight f4 [16]
000000 4c 30 03 3f 1f 1c 26 3f 46 05 27 3f 8b 36 40 3f
       0.5124557 0.6488666 0.6524242 0.75083226
000010 50 18 ba 3e 53 8f 3e 3f 5a e9 44 3f 96 7a 42 3f
       0.36346674 0.74437445 0.76918566 0.759683
000020 f4 9a 29 3f a7 fe ff 3e 38 e3 3d 3f ed 86 3b 3f
       0.66252065 0.49998972 0.74174833 0.73252755
000030 0e be 3f 3f 5c 4a 10 3f e2 d2 01 3f 55 97 3b 3f
       0.74899375 0.56363463 0.50712407 0.7327779

layer2.0.bn1.bias f4 [16]
000000 72 1f 2e 3e 08 45 29 3e 54 0b bb bd e7 6c 01 be
       0.17004183 0.1653024 -0.0913302 -0.12639199
000010 40 f3 30 3f 94 28 a2 bd 5d 2b 07 be 01 da f1 bd
       0.6912117 -0.07917896 -0.13200136 -0.11809159
000020 56 f3 98 bd 13 ae cd 3d f2 aa 38 be 21 a6 ff bd
       -0.07468288 0.10042968 -0.1803396 -0.124828584
000030 1b 1c 02 be 7e 3f 80 3e 12 91 2e 3f 51 7e cf bd
       -0.12706034 0.2504844 0.6819011 -0.10131515

layer2.0.bn1.running_mean f4 [16]
000000 6f 1e c6 3e 62 4f 8d bf 1f 19 19 bf b2 f9 00 bf
       0.38695094 -1.1039851 -0.59803957 -0.50381005
000010 8a 19 3c be f7 c7 22 bf ff 39 42 bf bf 52 9b bf
       -0.18369117 -0.6358637 -0.75869745 -1.2134627
000020 dd 6a 49 bf b7 68 88 3f cf 48 49 bf d7 82 de be
       -0.78678685 1.0656956 -0.7862672 -0.43459198
000030 c7 05 80 bf 86 35 b1 bf 6e e2 23 c0 89 d9 ea be
       -1.0001763 -1.3844459 -2.5606952 -0.4586909

layer2.0.bn1.running_var f4 [16]
000000 96 0b cf 3f 72 28 87 40 53 63 5d 40 88 53 20 40
       1.6175411 4.223687 3.4591873 2.5050983
000010 c2 be cf 3f cd fb 7a 40 4c 60 5d 40 cb b2 43 40
       1.623009 3.9216187 3.4590025 3.0577877
000020 c6 be 31 40 39 12 12 40 13 0d 46 40 41 22 3e 40
       2.777269 2.2823622 3.094548 2.9708407
000030 f5 fb 2c 40 6e 03 cb 3f 18 30 e5 3f b4 a9 41 40
       2.7028782 1.5860422 1.7905302 3.0259829

layer2.0.conv2.weight f4 [16, 16, 3, 3]
000000 45 bb 16 3e c8 e6 7f 3c e9 ce 57 be 7a 1e ce bd
       0.14719875 0.015618987 -0.21075024 -0.10064407
000010 f2 e7 1a 3e a2 99 ef 3d c4 eb 4d be 1a 56 f2 bd
       0.15127543 0.11699225 -0.20109469 -0.11832829
000020 2d 4f 0e be 76 48 e5 bd 31 07 6b be a4 a4 c4 be
       -0.1389739 -0.111954615 -0.22951962 -0.3840686
000030 a5 0c cb 3e de 52 6a 3e 57 1d e4 bd 54 c3 95 3e
       0.39658085 0.22883174 -0.11138409 0.29250586
000040 5d b8 00 3f 0c 4e a4 3e b9 77 47 3c a8 23 be 3d
       0.50281316 0.32090795 0.01217454 0.09284145
000050 ec 35 6c 3c 93 0f c6 bc 33 e2 41 3e 22 e6 9c 3d
       0.014417153 -0.024177348 0.18933944 0.07661082
000060 46 32 bb bd a3 c3 a4 3d 11 93 b8 3d 16 97 3d bd
       -0.09140448 0.08045127 0.09012426 -0.046286665
000070 de 78 90 bd 21 46 1a be be 3a 5a bd 37 f8 74 3d
       -0.070543036 -0.15065815 -0.053278677 0.05980703
000080 05 92 2b be 0d 67 16 be 9d ad 6a bd a5 fa d4 bd
       -0.16754921 -0.14687748 -0.057294477 -0.10399369
000090 da 36 fb bb e3 26 75 3d 38 6e 10 3e 9d 87 8d be
       -0.007666451 0.05985154 0.14104545 -0.27642527
0000a0 4f 8d 4a bd 53 cf 35 bd ef 99 e5 3c 93 c5 4d bc
       -0.04945117 -0.044387173 0.028027503 -0.012559312
0000b0 16 6a a6 3d 60 7f 14 3d 86 dd 85 ba 75 9a 40 be
       0.08125703 0.036254287 -0.0010213114 -0.1880892
0000c0 5a 6e a0 3d bd 9d cd 3e f3 95 94 3d e5 20 71 3c
       0.07833548 0.40159407 0.07255163 0.014717315
0000d0 c0 56 74 3e 58 da 87 3c fb 3a ae 3d 5c bb 7e 3d
       0.23861217 0.016583607 0.085073434 0.0621904
0000e0 76 b2 48 3d 06 b8 14 3d 80 1e 53 3e 98 bf 85 bc
       0.04899832 0.03630831 0.20617104 -0.01632671
0000f0 c6 57 14 bc 7a 26 69 3e 81 4a 1c 3b aa 43 24 bd
       -0.00905413 0.22768584 0.0023848119 -0.040103592
000100 b4 61 0b be f8 ec 92 bd 14 bf b7 3c c4 ad 47 3e
       -0.1361149 -0.071741045 0.02242998 0.1949988
000110 0e ca 1c be 75 8e 82 bd 29 a1 f1 3c 9f 0f b7 bc
       -0.15311453 -0.06374828 0.029495792 -0.022346316
000120 1a ca 11 3b 09 00 83 3e 6c cc 31 3e 8c ce 21 be
       0.0022245706 0.25585964 0.17363137 -0.15801448
000130 18 e9 ec 3c f5 6f fc 3d 7a 49 1f be 0b df bf bd
       0.028919742 0.123260416 -0.15555373 -0.09368714
000140 a3 99 79 3c c8 4c df 3d 0c 92 b2 3d c3 8b 06 be
       0.015234384 0.10903317 0.087192625 -0.13139252
000150 11 20 89 3b 81 fb 55 3d f2 a7 4e bd ae 25 84 bd
       0.004184731 0.052241806 -0.050453134 -0.06452499
000160 a1 9e e8 bc 1f 35 ca bd 3c 64 0a be 5d c1 94 bd
       -0.028395953 -0.09873413 -0.13514799 -0.072634436
000170 f1 38 c1 bd f4 09 e2 bc b1 d8 ad 3d 2a 7b ad 3c
       -0.09434689 -0.027592637 0.08488596 0.021176893
000180 61 f1 ac bd 91 3e 4d bc 25 51 29 bd 4d 6b d3 3c
       -0.08444477 -0.012527124 -0.04133715 0.025808001
000190 50 56 c1 3d 40 b2 97 bd 0b 7a 97 3d c6 2f 91 3e
       0.09440291 -0.07407045 0.07396325 0.2835676
0001a0 d9 d5 43 3e 76 b3 6a bd 52 06 1f 3d da 28 b8 bd
       0.19124545 -0.057300054 0.038824387 -0.08992167
0001b0 0f 54 f6 bd 20 fa a6 bd e6 e7 f8 bd e8 0d 1a bd
       -0.12027752 -0.08153176 -0.12153606 -0.03761092
0001c0 45 c8 d8 3d 69 64 af bd 1d fe 83 ba 6f 2f 35 3d
       0.105850734 -0.085640736 -0.0010070238 0.04423469
0001d0 71 c0 7b bc aa f0 f0 3d 1d 80 7d be 64 19 db bd
       -0.015365706 0.11764653 -0.24755903 -0.10698202
0001e0 ea f0 21 3e 26 78 90 bd f6 d8 92 be 25 25 30 3e
       0.15814558 -0.070541665 -0.28681153 0.1720167
0001f0 6f 4b 42 3e 43 ce 07 3e fd bf 8f bc ed af b6 bd
       0.18974088 0.13262276 -0.017547602 -0.08920274
000200 e3 2b 31 3d 55 12 b2 3d 1b ba 62 3c 15 74 aa 3d
       0.043254744 0.08694903 0.013838316 0.08322922
000210 4e f3 76 bc 3a 1c c9 3c 40 5a 42 3d 7c 01 37 bd
       -0.015072657 0.024549592 0.04744935 -0.04467915
000220 ab 94 84 bd f1 31 68 be ff f1 1d bd b0 bd da 3c
       -0.06473669 -0.22675301 -0.038560864 0.026701778
000230 5d 0e 75 be 9b 86 d2 bd cb f0 4c bd 56 27 bc bd
       -0.2393126 -0.1027958 -0.050034326 -0.0918719
000240 b7 17 ca bd 42 df f7 3c dc 3e d8 3d ee b1 11 be
       -0.098678045 0.030257825 0.105588645 -0.14228031
000250 bd 4b 2a be 84 30 4d 3d f0 fc 02 3e 25 5b 1e bc
       -0.16630454 0.050095096 0.127918 -0.009665285
000260 02 63 6f be d2 2f 2a bb b0 42 67 3e 40 9f f9 bd
       -0.23377612 -0.0025968445 0.22584033 -0.12188578
000270 0a cb d6 3d fc 06 12 bd a5 67 fe bd e1 94 a2 3d
       0.104879454 -0.035651192 -0.124221124 0.07938553
000280 03 a4 c9 be 71 d0 52 3d c0 0b 1c bd f6 2a 0c be
       -0.39382944 0.051468316 -0.038097143 -0.13688263
000290 bd 5a 84 bd d4 9c f6 bd 78 91 12 bd c6 ab b1 3d
       -0.064626195 -0.12041631 -0.03578326 0.08675341
0002a0 00 78 22 bc dc 09 78 bc 00 07 7e be 89 44 83 3d
       -0.009916306 -0.015139069 -0.24807358 0.064095564
0002b0 5d fc a2 bc f5 48 f6 3b 71 cd dd 3d 8e a4 1f 3e
       -0.019895727 0.0075160214 0.108302005 0.15590116
0002c0 cb 66 da bd 72 6c a2 3d f9 bd 77 bc c8 c5 0f 3c
       -0.106641375 0.079308406 -0.015120977 0.008775182
0002d0 14 d9 64 3e c5 a1 00 3e af 3d 01 bf ee 07 03 3e
       0.22348434 0.1256171 -0.50484747 0.12795994
0002e0 f0 d0 6b 3e 6b 90 6c bc 8e f4 90 be 8a 4f b5 bd
       0.23028922 -0.014438729 -0.2831158 -0.088530615
0002f0 05 d9 0f 3f f2 79 99 bd c4 73 25 3e 81 c8 20 bd
       0.5619052 -0.07493962 0.16157442 -0.039253715
000300 8f 34 a2 bd 5f 44 39 be b6 f7 08 be cd 13 f9 bd
       -0.07920181 -0.18092488 -0.13375744 -0.1216198
000310 e3 0d b4 bd d0 9c 10 be 50 89 66 bd b2 24 bd 3b
       -0.08791711 -0.14122319 -0.056283295 0.0057721967
000320 d2 00 80 be 22 b8 23 be f4 45 76 be 4e 19 23 be
       -0.25000626 -0.1598821 -0.24050122 -0.15927622
000330 5c e6 35 bd da ca 62 be d9 ce ff bb 53 6e de 3d
       -0.04440914 -0.22147694 -0.0078066406 0.108608864
000340 6a d3 b7 3e b4 a6 86 3d 35 23 c6 bd 0f 29 28 3e
       0.35903484 0.06574765 -0.09674684 0.16421913
000350 ce f3 be 3e f7 a6 0d be 53 06 be bd ba b2 41 3e
       0.37295383 -0.13833223 -0.0927855 0.18915835
000360 9c 21 0c 3d b9 b0 3b bd 90 e0 89 bd 17 27 4d 3c
       0.03421174 -0.045822833 -0.06732285 0.012521527
000370 b1 19 59 3e d1 93 3f 3e 39 b8 30 3c e2 f6 9c 3e
       0.21201207 0.18708731 0.01078611 0.30657107
000380 1a c8 0a be ff 71 21 3d e4 34 22 be b2 47 6b 3d
       -0.13552895 0.039415356 -0.15840489 0.05744142
000390 f1 ed 0a 3d 93 d2 e4 bd 18 5e 4c bc 11 62 46 be
       0.033918325 -0.11172976 -0.012473606 -0.19373347
0003a0 5b a8 f0 3c 8c 9d 4f 3e ec 3d 97 3d b3 b5 25 3e
       0.029377153 0.20274943 0.073848575 0.16182594
0003b0 98 ce b1 bd ed c9 58 3e 8f 11 b0 bd 62 8a 70 be
       -0.08681983 0.21170779 -0.08597099 -0.23490289
0003c0 0a 5a 13 3e 51 52 3b bd fb 70 63 3e 4a 40 cc bd
       0.14389816 -0.0457328 0.22211067 -0.099732
0003d0 d4 f6 8b bd 39 e7 e2 bc 84 58 1b 3b 0d 44 50 be
       -0.06834188 -0.027698146 0.0023703882 -0.2033846
0003e0 8a 7a 8e be 49 68 3b 3c 2c 9d 86 bd c1 1d 9d bd
       -0.27827865 0.011438438 -0.06572947 -0.07671691
0003f0 aa 56 d4 bd c4 8c a5 3e ea d4 7d bd 27 8c 41 be
       -0.10368092 0.32333958 -0.06197063 -0.1890112

layer2.0.bn2.weight f4 [16]
000000 a7 62 40 3f 4a 21 6b 3f ab 48 32 3f b1 45 1f 3f
       0.7515053 0.9184767 0.6964213 0.62215716
000010 d1 4a 18 3f c5 32 15 3f d6 0a 09 3f d8 06 4a 3f
       0.5948916 0.58280593 0.5353216 0.7891669
000020 b7 ff 2a 3f bd 61 5a 3f f8 d0 43 3f 3e 6a bb 3e
       0.6679644 0.85305387 0.76490736 0.36604494
000030 25 81 2d 3f 15 22 46 3f 39 5a dc 3e fb 36 d3 3f
       0.67775184 0.77395755 0.43037584 1.6501154

layer2.0.bn2.bias f4 [16]
000000 b4 56 be bc bf 47 b4 bd e4 e3 3c 3e ca 60 c5 3e
       -0.023234703 -0.08802747 0.18446308 0.38550407
000010 6d e8 54 3e 7f bb 8e 3e b1 c7 f1 3e 37 ec c2 3d
       0.20791788 0.27877423 0.47222665 0.09517711
000020 75 e8 1d be 97 24 56 bc d9 15 39 3e 18 90 ce 3c
       -0.15420707 -0.013070247 0.1807474 0.025215194
000030 5e d0 15 3c 38 00 d8 bc 8d 65 80 bd 5b b7 2c be
       0.009143917 -0.026367292 -0.06269369 -0.1686682

layer2.0.bn2.running_mean f4 [16]
000000 67 6d 9b 3e f1 36 bf 3e df 71 a3 be 1f 05 b2 be
       0.30356905 0.37346604 -0.31922814 -0.34769532
000010 6b c3 44 be 96 c1 98 3f 43 68 11 bf 2e 9c 04 bf
       -0.19215171 1.1934078 -0.56799716 -0.5180081
000020 e6 03 1d bf 79 40 ca 3d 02 7b b0 3f b1 ce 54 bf
       -0.61334074 0.098755784 1.3787539 -0.83127886
000030 82 18 3a be 70 fc 1b bf 76 e1 4b 3f f6 b9 af bf
       -0.18173411 -0.60932064 0.796409 -1.3728626

layer2.0.bn2.running_var f4 [16]
000000 f7 76 17 3f 15 01 58 3f 78 7f 4c 3f 06 52 43 3f
       0.591659 0.8437665 0.79882 0.7629703
000010 63 dd 4d 3f 0f 39 7a 3f 03 3b 81 3f 4f 65 fc 3e
       0.80415934 0.97743315 1.0096134 0.49296042
000020 10 0e be 3e 05 c8 7f 3f 46 66 90 3f 92 44 75 3e
       0.37120104 0.9991458 1.1281211 0.23951939
000030 28 28 0b 3f d5 69 37 3f c7 c7 91 3e ce b9 aa 3f
       0.5435815 0.7164586 0.2847273 1.3337953

layer2.0.shortcut.0.weight f4 [16, 8, 1, 1]
000000 93 9b f4 3d 03 ef a1 bd 8d 70 51 be f0 58 bb 3e
       0.11943736 -0.07906916 -0.20453091 0.3659129
000010 87 94 d8 bd 91 e9 89 3d f1 06 d2 3d c6 5d 24 3d
       -0.10575204 0.067340024 0.1025523 0.04012849
000020 e5 01 d6 bd a6 42 4d bd 74 b2 91 bd b8 db 39 3c
       -0.1044958 -0.05011239 -0.07114115 0.011343889
000030 e1 73 67 bd 88 e3 5d bd 57 d2 46 be de 87 91 3d
       -0.056506995 -0.05417207 -0.19416176 0.07105993
000040 5a 9c 4d 3b b9 6b 80 be 1d 46 4f 3e cf 52 99 3e
       0.003137371 -0.25082186 0.2024159 0.2994599
000050 b8 b8 75 3e d6 34 f7 3e 12 05 3a 3d c8 84 9c bd
       0.23996246 0.48282498 0.04541499 -0.076425135
000060 c0 6b 2c 3e 80 04 54 3d b6 cf 27 bc 03 49 70 3e
       0.16837978 0.051762104 -0.010242393 0.23465352
000070 2d ed 4b 3e f7 37 96 3e aa a0 30 3d b3 b4 54 be
       0.19914694 0.29339573 0.04312197 -0.20772056
000080 38 bf c2 bc bf 87 97 3d bf 8c 71 be 00 35 a3 bd
       -0.02377282 0.073989384 -0.23588847 -0.07969093
000090 32 db 7a 3e 91 13 9f 3e 94 08 8b 3d 47 42 65 bd
       0.24497679 0.31069615 0.067887455 -0.05597141
0000a0 86 4a 09 3e 07 cb 0d bc 9e 05 d2 bd e7 26 ae bd
       0.13407335 -0.0086543625 -0.10254978 -0.08503514
0000b0 f1 04 cd 3d 75 77 f4 3c e5 1a 43 be 12 6f 78 3e
       0.10010708 0.029842118 -0.19053228 0.2426112
0000c0 dd 4e eb 3c a2 b7 a9 3d f5 90 27 be 41 f6 4a be
       0.028724128 0.08286978 -0.1636389 -0.19820501
0000d0 40 53 38 bc 48 81 e4 be e1 8c ee bd 5b 7f 12 3e
       -0.011250317 -0.44629884 -0.11647964 0.14306395
0000e0 be 5e 0f 3e 01 4a 9e bd f3 69 a7 bd eb e8 88 3e
       0.14000985 -0.07728959 -0.08174505 0.26740202
0000f0 2a 4e f3 bd 0e 9a 7b bd 37 96 cc bd de cf 6c 3e
       -0.11880143 -0.061426215 -0.09989589 0.2312617
000100 3c 30 2d 3d 7f 0e e6 3e 45 be c3 3d 29 7a d8 be
       0.042282328 0.44932935 0.095577754 -0.422807
000110 b4 4e 8f 3e a5 2b 3f 3e 47 54 a9 bd a0 4d 34 bc
       0.27989733 0.18668993 -0.08268028 -0.011004835
000120 95 bc b4 ba e8 de 01 3d 1f 80 88 bd 97 89 f9 bc
       -0.0013789112 0.03170672 -0.06665062 -0.030461116
000130 d6 35 12 bd a2 17 0e bf 9d bf a0 bd 76 7b eb 3b
       -0.035695873 -0.5550481 -0.07849047 0.0071863486
000140 76 ee 1f 3e f9 82 d6 3d 51 c0 2e 3e d9 df b7 be
       0.1561831 0.104742 0.1706555 -0.3591297
000150 da 70 2c bd 8a 25 8a be cb 6e 93 bd 85 24 3c 3c
       -0.04209981 -0.26981765 -0.071988665 0.011483316
000160 c0 8f 0a 3d c9 e4 eb 3e 0a 15 c8 3c e5 70 89 3e
       0.033828497 0.46072987 0.024424095 0.26843944
000170 19 59 3f bf d4 e8 d1 3d 6e 6c 1b 3d 15 c6 d5 bb
       -0.7474533 0.102494866 0.037945203 -0.0065238574
000180 85 08 06 be 6f de 14 be 6c ac 0a be 4d 37 6f 3e
       -0.13089187 -0.14537977 -0.13542336 0.2336094
000190 f2 a3 26 be 00 60 12 bf be 01 57 bd 12 77 85 3c
       -0.16273478 -0.57177734 -0.052491896 0.016292129
0001a0 c1 4c a4 3e 16 5d 79 3d 1b 4e e6 bd 68 a9 24 3e
       0.3208981 0.06087979 -0.11245366 0.16080248
0001b0 0a 23 32 bd 23 98 c6 3e ee 52 30 3d d3 38 3a be
       -0.043490447 0.38787946 0.043047838 -0.18185739
0001c0 2b 24 66 bc 67 3f d0 be 0f b6 61 be a1 d3 00 3e
       -0.014046709 -0.40673372 -0.22042106 0.1258073
0001d0 a5 4f 78 3f e8 23 79 be 91 20 31 3a 62 53 ad bc
       0.9699653 -0.24330103 0.0006756867 -0.021157924
0001e0 41 7d de bd 93 77 84 3d 21 2e 21 be 36 cd 0b 3e
       -0.10863734 0.064681195 -0.15740253 0.136525
0001f0 ed 9c 0a be ec 83 7d 3e 6a e4 61 3e 0b 83 d7 3d
       -0.13536425 0.24757355 0.2205979 0.10523041

layer2.0.shortcut.1.weight f4 [16]
000000 6d 60 9a 3e 12 bd b8 3d ce 73 c6 3e 54 f2 31 3e
       0.30151692 0.09020437 0.38760227 0.17377597
000010 95 6f 37 3e ab 5c f3 3c 19 d9 1d 3e 53 ad 5b 3e
       0.17913659 0.029707273 0.15414847 0.21452837
000020 3d 88 f5 3e b3 15 7d 3e 3a 4b 5f 3e 84 70 22 3f
       0.47955504 0.24715309 0.2180604 0.63452935
000030 d7 3e eb 3e ed a9 c7 3e a3 d9 20 3f 27 b2 a7 3e
       0.4594638 0.3899683 0.6283209 0.32753107

layer2.0.shortcut.1.bias f4 [16]
000000 b4 56 be bc bf 47 b4 bd e4 e3 3c 3e ca 60 c5 3e
       -0.023234703 -0.08802747 0.18446308 0.38550407
000010 6d e8 54 3e 7f bb 8e 3e b1 c7 f1 3e 37 ec c2 3d
       0.20791788 0.27877423 0.47222665 0.09517711
000020 75 e8 1d be 97 24 56 bc d9 15 39 3e 18 90 ce 3c
       -0.15420707 -0.013070247 0.1807474 0.025215194
000030 5e d0 15 3c 38 00 d8 bc 8d 65 80 bd 5b b7 2c be
       0.009143917 -0.026367292 -0.06269369 -0.1686682

layer2.0.shortcut.1.running_mean f4 [16]
000000 49 12 d6 3e 17 b1 a4 be 8b 16 29 3f e2 b6 1c 3f
       0.41810825 -0.3216636 0.6605002 0.6121656
000010 c7 f6 8e 3e 2f 6e 0a 3e df ea 0d bf 4d da 5e 3e
       0.2792265 0.13518594 -0.5543651 0.21762963
000020 0a b7 6f 3e fd 6f 17 bf 1f 72 a8 be 75 5f 8b 3e
       0.23409668 -0.59155256 -0.32899567 0.27221265
000030 c1 2e 36 bf 10 49 2c 3f 6a d6 89 3a 33 eb c9 3e
       -0.7116509 0.67298985 0.0010516171 0.39437255

layer2.0.shortcut.1.running_var f4 [16]
000000 c4 6c 51 3e 8d 85 83 3d 1b 77 59 3e 4f db 49 3e
       0.20451647 0.06421957 0.21236841 0.19712566
000010 0b c8 26 3e b6 87 e0 3d 7a e2 43 3e ea 96 f2 3d
       0.16287248 0.10963385 0.19129363 0.11845191
000020 b2 55 77 3e d8 d3 40 3e 7c 85 78 3e b8 84 64 3e
       0.24153784 0.18830812 0.2426967 0.22316253
000030 50 d2 58 3e 89 38 a3 3e ca 12 80 3e 06 f6 49 3e
       0.21173978 0.3187907 0.25014335 0.19722757
