meta_results/meta_seed-3_cycles-1_T-2_cifar100-ResNet10_smodel_best.pth.tar (torch, 899319 bytes, 128 tensors)

conv1.weight f4 [8, 3, 3, 3]
00000000: b977 a13f d70d ae3f f6c2 9c3f 4dfd 8d3f
00000010: 4023 0e40 f18b 6c3f 1c0b 2a3f 20a2 353f
00000020: 7ae4 163f 5392 ab3f 16e9 b73f c30a 9e3f
00000030: 5a58 8b3f a413 1f40 26f0 613f c604 343f
00000040: 90dc 313f 7598 0c3f 484f 863f 5f7c 993f
00000050: 83f7 863f 971e 523f 026d f93f 7507 293f
00000060: a111 103f bfb1 003f 7151 c63e 0ff4 173e
00000070: 66bb 943e 8b6b 103e 5e4e 6db9 3c0d 87be
00000080: d555 40be 13d3 a83e d5a8 8f3e c5fa 973e
00000090: e6df 7e3e 2fb5 e33e 0f1f 203e 26d6 dc3d
000000a0: e15c ffbd 216e 70bd 848e c03e 0311 b53e
000000b0: 0d5f 923e 4c05 743e c900 b83e 8f8b 043e
000000c0: 2047 143e f0f4 a6bd d581 40bb 3389 c53e
000000d0: ceb7 9e3e e3ca a13e bdb0 223e 5cfc 9bbe
000000e0: 74de a7be 9263 ca3c 5042 46bf b587 26bf
000000f0: 0abf 2abd ffd4 cc3d 6539 633d 1217 113e
00000100: e9c3 e1be d2e0 a4be db31 163e 60c7 3abf
00000110: ffc1 06bf a243 13bd e676 ba3d c47d c63d
00000120: ac43 a03d 5b01 0bbf 7b13 d2be 41e7 8f3d
00000130: 6a04 47bf 3d85 0ebf dfb7 ae3b 0b56 02bd
00000140: b64a 813c 6435 a4bd 436b c73e 4f92 f4bd
00000150: 8250 1d3f 14af 853f a291 a63f 29dc f73e
00000160: 15a5 463f 921f 273f 7ed5 02be 30b2 cd3e
00000170: 4d2d b3be 773d b83c f6c0 72be 525e ca3e
00000180: 85ec fc3b b56c 7a3a 8b98 1abd 1692 d7bd
00000190: 509a 4c3e 7233 f5be 631b 14bf c7f1 b1bf
000001a0: 39c9 5dbf 9d42 dfbe fad0 62bf 0d3d 58bf
000001b0: 830e e63b 00c1 59bf b4c7 6abf 661b aa3e
000001c0: 0c70 b23d a18f 523f 07c6 bbbd ed63 01be
000001d0: 86c3 37be 89f3 12bf 5557 4cbf 2170 66bf
000001e0: ba64 4f3f 4221 a03f 8836 0240 5ccb 09be
000001f0: e773 283f cc2f 073e 598c 86be 7ec6 38bf
00000200: 7732 38bf 09bc d13e dc16 72bc c3e7 193f
00000210: 5896 6ebd 4e0f 69bd 478d f1be 7389 963d
00000220: c5f1 06bc 9cb8 e73d 2617 023d fc84 c7bf
00000230: 19b4 e53f 64ac 963d 46a5 1fbe 341f 383e
00000240: 2228 f53d 9d12 8dbe fead 783e 0ee7 a4bd
00000250: 822a 2cc0 50c4 2040 9d07 903e 642e 90be
00000260: 1efa 183e 4b0f 323d cf33 52be 9c19 d73d
00000270: 412c 1ebd ae64 f0bf 8eab f73f aec5 823d
00000280: 8a6f 89be 0dd8 d83d b4ef cebe aff7 9dbe
00000290: 5fdc dabe 1480 a0be dd12 4fbf 93f6 5abf
000002a0: 46b0 8fbe 03d5 0abf fa29 a0be 7c4d 0fbe
000002b0: 510e ce3e 2d18 4a3e 12cf 0d3e 54a3 6938
000002c0: 7ec8 6ebe a3bf 263d c993 adbd 5fae 933a
000002d0: a1f4 84bd 18c0 223f 2eb6 f53e e544 cd3e
000002e0: 7398 073f e964 8d3e 44ec b73e 6f6c fa3e
000002f0: 6b02 133f 3e6c a63d 6ddb c5bd 2697 2ebe
00000300: 742d e23e 914a d63f 824c a73f db29 163e
00000310: d361 233e 6f0b b13e 68c8 babe a325 bcbf
00000320: cdff a8bf 3864 27bf 3b3c 03bf dbf9 02bf
00000330: 4520 62be 188b 99bf 7efb 1fbf 77d8 ce3d
00000340: fa03 8abe ee06 64be d6d3 db3e 628b a23f
00000350: 035f 833f 167f 003f 2c8d 9c3e 246b 103f
1.2614661 1.3597974 1.2246997 1.1092926 2.2209015 0.92401034 0.664232 0.7095051
0.5894238 1.340403 1.4368007 1.2347034 1.0886338 2.4855738 0.8825706 0.70319784
0.69477177 0.5492013 1.0492945 1.199108 1.0544285 0.82077926 1.9486392 0.66027004
0.562769 0.5027122 0.3873401 0.14839195 0.29049224 0.14103524 -0.00022631275 -0.26377285
-0.18782742 0.32973537 0.28058496 0.2968351 0.24890098 0.4447417 0.15636848 0.10783033
-0.12468887 -0.058698777 0.3760873 0.3536454 0.28588143 0.23830146 0.359381 0.12943862
0.14480257 -0.08152187 -0.002937426 0.38581237 0.30999607 0.31600103 0.15887733 -0.30465972
-0.32786906 0.024705682 -0.77444935 -0.6505082 -0.041686095 0.10001563 0.055474658 0.14168957
-0.4409478 -0.32202774 0.14667456 -0.7296047 -0.52639765 -0.03595317 0.09104709 0.09691957
0.078254074 -0.54298943 -0.41030487 0.0702653 -0.7774111 -0.55672055 0.0053319777 -0.03182034
0.015782695 -0.08017996 0.38949022 -0.11941969 0.6145097 1.0444055 1.3013194 0.48410156
0.77595645 0.6528255 -0.12776753 0.4017501 -0.349955 0.022490246 -0.23706421 0.39525086
0.007718625 0.0009552942 -0.037743133 -0.105259106 0.1998074 -0.47890812 -0.5785429 -1.390191
-0.86635166 -0.4360551 -0.8860012 -0.84468156 0.007020773 -0.8506012 -0.9171097 0.33224028
0.087127775 0.8225041 -0.0916863 -0.12635775 -0.1794568 -0.57402855 -0.7982076 -0.90014845
0.8101307 1.251015 2.0345783 -0.13456482 0.6580185 0.13201827 -0.26278952 -0.72177875
-0.71952003 0.40963772 -0.014775958 0.60119265 -0.058248848 -0.05689936 -0.471781 0.07350435
-0.008236353 0.11314508 0.031760357 -1.5587459 1.7945586 0.073571 -0.1559039 0.17980653
0.11970545 -0.27553263 0.24285123 -0.08051883 -2.6900945 2.511982 0.28130808 -0.28160393
0.14939162 0.043471616 -0.20527576 0.105029315 -0.038616423 -1.8780725 1.9349229 0.06385361
-0.2684291 0.105880834 -0.40417254 -0.3085303 -0.42746255 -0.31347716 -0.8088816 -0.8553249
-0.28064173 -0.5423128 -0.31282026 -0.13994402 0.40245298 0.19735785 0.13848522 5.570364e-05
-0.23318669 0.040710103 -0.084754534 0.0011267177 -0.06491972 0.6357436 0.47990555 0.40091625
0.52966994 0.2761605 0.35922444 0.48910853 0.57425565 0.08126114 -0.09660993 -0.17049846
0.44175303 1.6741506 1.3070223 0.14664404 0.15955286 0.34579036 -0.36481023 -1.4698986
-1.3203064 -0.65387297 -0.5126378 -0.511625 -0.22082622 -1.1995573 -0.6249312 0.10099881
-0.2695616 -0.22268268 0.42935055 1.2698786 1.026337 0.5019392 0.30576456 0.56413484

bn1.weight f4 [8]
00000000: e238 083f 18ba 38be c802 0f40 6cd6 053f
00000010: c579 273f 103d 713f 46f4 0e3f 0bfd 083f
0.53211796 -0.18039739 2.2345448 0.52280307 0.6542018 0.942338 0.5584148 0.5351111

bn1.bias f4 [8]
00000000: 0969 773f d78c 38bf b9c9 1ac0 812d a53e
00000010: 0bb1 663f 32c9 403f 4416 3a3e 62be 6b3f
0.96644646 -0.72089905 -2.4185622 0.3226128 0.90113896 0.75307 0.18172556 0.92087376

bn1.running_mean f4 [8]
00000000: 8517 21c1 b004 c6bf e41d ef3f 602a 1dbf
00000010: 4924 81be 0873 fbbd e9c7 173f 0a7b be3c
-10.068242 -1.547018 1.8680997 -0.61392784 -0.25222996 -0.122778 0.59289414 0.023252029

bn1.running_var f4 [8]
00000000: cbd4 4e44 ea50 a341 3e0f 0542 74e6 2041
00000010: 600e 0541 fa99 3641 75e3 bd40 8230 e340
827.3249 20.414509 33.264885 10.056263 8.3160095 11.412592 5.9340158 7.0996714

layer1.0.conv1.weight f4 [8, 8, 3, 3]
00000000: 9554 f73c 0ee8 ae3c ffff 24bd fce6 ed3b
00000010: 9de0 f63c 44d5 593d 568f f4bd 68ab 8dbd
00000020: 0c86 433c 39e8 97bc 6d4e 3bbd 25f9 e7bd
00000030: dde5 023d a6ed 85bc eb39 a63b 7227 be3d
00000040: 13a1 043d 16ac 27bd 9740 d8bd 9503 d5bc
00000050: c615 70bd 70c9 b13d 2a36 163e cda9 8abd
00000060: 7995 6bbd 8f7b f53d 4024 5bbe 380a 6fbe
00000070: 33f5 973e 75e3 613f f7dc 60bf 73c3 83bd
00000080: 1665 7b3f 70cc 87bf 988d f6be de88 ff3e
00000090: c984 ae3e 8418 063f 82fa f43d a9e0 003e
000000a0: d229 883e 010b acbe 4275 0abe b14b cbbe
000000b0: 5147 2dbf a09e e5bd 3bce 8ebe 59f6 133e
000000c0: 5947 193e 9763 043e 17ce 8ebd 927f 89be
000000d0: 2eae c7bd 82d3 dfbc fd4c 693e 2adb 493d
000000e0: 0961 e8be 17ef f33e 4cc6 093d 6076 1cbf
000000f0: 6ded 143f 55d6 523e 32e4 f1be 2130 16bf
00000100: fa7c 34bf d9d4 a3be e861 e5be a91b a4bd
00000110: 2547 983e 6421 8a3e 2a33 423f a780 7a3f
00000120: f0ac 87bd 2f85 693e 4790 1fbe d713 b5be
00000130: 3462 8d3c 9340 093e 9ce5 43be bc13 383e
00000140: 1cc5 08be 2e4a c6bc 12c6 5ebc bf26 bfbd
00000150: b45b b43d 156f 953d 06d1 4abd 6aa4 b1ba
00000160: ec4d a9bc c878 9cbd 1929 d23e bfa1 9bbe
00000170: 2a95 9bbe a03b 483f f592 83bd 0ab8 15be
00000180: fa16 653f 713c 66bd 6709 08be 5d31 2e3e
00000190: b5f8 1ebe f691 0f3e 82e8 38bd 1c8b 24bc
000001a0: c760 3fbe 96ab 123e 85fd 11be c953 883b
000001b0: 44f5 de3e d10d a3bc 5213 4dbe 0050 9cbd
000001c0: 4182 063d 8c0d 83be 2f76 7b3e 9240 bdbd
000001d0: ba2f bebd 194d 23be 3234 50be e87f 54be
000001e0: 71e8 39be 730c 543f f7b1 7dbe f3ac ebbd
000001f0: 5bde 213d dfc7 a0bd e882 643d 5cf6 1fbe
00000200: 2537 e5bc 9efd 8e3e 87c1 4dbe 4eba 2bbe
00000210: b368 683e 5245 c0bc 890f 13bc 27aa 1f3e
00000220: 1be0 3dbd cabe 21be ef2f eabd e85b f8bd
00000230: dba9 013e 4951 273e 079f 543e 4f5c 89be
00000240: 214d 36be 6b14 dd3d 53d6 f8be 62a4 183f
00000250: 91a7 8d3f a149 87bf c7ee 693e d530 8d3e
00000260: 6d27 34be 46d9 5c3c bfe4 d93c 4e38 653c
00000270: fd3c 25bd 174f b9bc 34c4 6f3c f14b 093e
00000280: d2bf b9bc 217f f2bd 35f8 4cbd 5cf6 9a3e
00000290: 6048 8d3e 7a2c 24bf 8df1 70be 33c9 683e
000002a0: 9437 e5be 336b ee3d ea3e f53e b7d3 eebb
000002b0: 4600 6a3e 9115 57bd 398a 5e3e e297 643d
000002c0: 68ca 483e cc13 ecbe 3385 c63e 9e16 9fbe
000002d0: 19d7 93be 2baa a53e a0c9 91bd 712b d73e
000002e0: c3d1 d0be 5d85 04be d5f2 1cbf 2da9 a63e
000002f0: 6e14 bb3e 9f0f d13d be70 a4be 2918 8f3e
00000300: 4231 363e 939c 24c0 9cb4 7d3e 4617 54bd
00000310: 66da b2bd d8ac 033d 9b5d 703e 9d0d 22be
00000320: 52b3 1b3c 0c81 843c 102b 86bd 1e14 4e3c
00000330: aaf8 943d d4a3 24be 42bb 58be dc88 82be
00000340: 0c05 55be d1de 853e b7d7 b93e 89d8 953e
00000350: ff71 dfbe 0b40 d5be a282 733d 181d ae3e
00000360: d61c 203f 7847 ac3f 4b9a 473f 923f c83c
00000370: c556 72bf 80b7 edbe 01ba aa3d 5667 36bf
00000380: 3ffd a8be a2ac d6bd d6b9 06be e25e 1ebe
00000390: ee02 50be 7a4c 00bf be13 28be 3540 833d
000003a0: b4d4 373d aa20 e5bb 23d6 1bbf 0660 68bf
000003b0: b666 773d 51e7 583e ef1a db3d 031a a33e
000003c0: e47f a03e 29d9 003f 3e81 f53d 44d4 673e
000003d0: fdca 7f3e 42fc 16bd 8408 b4be 5dce 0d3e
000003e0: f651 f8bd 1acb 883d 8ea7 e7bd 4cb7 503c
000003f0: 15b0 d13e f71a 9ebd db24 963e 49e7 a3bf
0.030191699 0.021350887 -0.0402832 0.0072602015 0.0301364 0.0531819 -0.11941402 -0.06917459
0.011933815 -0.01854335 -0.04572909 -0.113268174 0.031957496 -0.016348671 0.0050728223 0.09284867
0.032380175 -0.0409356 -0.105591945 -0.026002685 -0.058614515 0.08680999 0.146691 -0.06770668
-0.057515595 0.119864576 -0.21400547 -0.23343742 0.2967926 0.88237697 -0.87837166 -0.06433763
0.9820112 -1.0609264 -0.48154902 0.4990911 0.34085682 0.5238116 0.11961843 0.12585701
0.26594406 -0.33602145 -0.13521293 -0.39706185 -0.67686945 -0.11211896 -0.27891716 0.14449443
0.14968623 0.12928616 -0.06972902 -0.2685514 -0.09750019 -0.027322534 0.22783275 0.049281277
-0.45386532 0.4764335 0.033636376 -0.61118126 0.58174783 0.20589574 -0.47244412 -0.5866719
-0.705032 -0.31998327 -0.4480126 -0.08013088 0.2974178 0.269786 0.7585932 0.9785256
-0.06624782 0.22804712 -0.15582381 -0.353667 0.017258741 0.1340354 -0.19130558 0.17976278
-0.13356441 -0.024205294 -0.013597028 -0.09333562 0.088065535 0.07296578 -0.049515747 -0.0013553028
-0.020667039 -0.07640225 0.4104698 -0.3039684 -0.3038724 0.7821598 -0.06424514 -0.14620987
0.89488184 -0.056209985 -0.13284837 0.17011018 -0.15524562 0.14020523 -0.04514361 -0.010042932
-0.18689261 0.14323267 -0.14256866 0.0041603786 0.43546498 -0.01990405 -0.20026901 -0.07632446
0.032839064 -0.25596273 0.24556802 -0.092408314 -0.09286447 -0.15947379 -0.20332411 -0.20751917
-0.18155076 0.82831496 -0.2477492 -0.11507597 0.039518695 -0.078506224 0.055788904 -0.15621322
-0.027980397 0.2792787 -0.20093356 -0.16770288 0.2269619 -0.023470555 -0.008975872 0.15592252
-0.0463563 -0.15795437 -0.11434924 -0.12126905 0.12662451 0.16339602 0.20763789 -0.26828238
-0.1780286 0.1079491 -0.48601016 0.5962583 1.1066762 -1.0569345 0.22844993 0.27576318
-0.17593165 0.013479536 0.026598332 0.013990475 -0.040341366 -0.02262072 0.014634181 0.13407876
-0.022674475 -0.11840654 -0.050041396 0.30266082 0.2759428 -0.64130366 -0.23529644 0.22733001
-0.44768965 0.116415404 0.47899562 -0.007288422 0.22851667 -0.0525108 0.21732415 0.05580891
0.19608462 -0.46108854 0.38773498 -0.31071943 -0.28875044 0.3235639 -0.07118535 0.4202533
-0.40785035 -0.12941499 -0.6130803 0.32550946 0.36539024 0.102080576 -0.32117265 0.2794812
0.17792228 -2.5720565 0.24775928 -0.051780008 -0.087330624 0.03214726 0.23473208 -0.15825506
0.0095032025 0.016174816 -0.06551182 0.0125780385 0.072739914 -0.1607812 -0.21165183 -0.2549504
-0.20802706 0.26146558 0.3629739 0.29266766 -0.4364166 -0.41650423 0.059450753 0.34006572
0.62544 1.345931 0.7796981 0.024444375 -0.9466365 -0.46429062 0.08336259 -0.7125143
-0.3300571 -0.10482146 -0.13156828 -0.15465882 -0.20313618 -0.50116694 -0.16413781 0.06408731
0.044880584 -0.0069924193 -0.6087362 -0.9077152 0.060400687 0.2118199 0.106984966 0.31855783
0.31347573 0.5033136 0.119875416 0.22639567 0.24979778 -0.036861666 -0.35162747 0.13848253
-0.12125008 0.066793635 -0.113112554 0.012739014 0.40954652 -0.07719987 0.29324993 -1.2804958

layer1.0.bn1.weight f4 [8]
00000000: 4e8e 1a3f c30b 813f b8b7 a83f fc69 b83f
00000010: b323 6c3f e00c 363f 1bbf 163f bc79 bd3f
0.6037339 1.0081714 1.3181067 1.4407344 0.9224197 0.71113396 0.58885354 1.4802775

layer1.0.bn1.bias f4 [8]
00000000: 71f7 403f 7e22 a3bf bd95 963e e4b0 063f
00000010: f683 f3be 2ab3 783e 4f64 3b3f 3921 00c0
0.75377566 -1.2744901 0.29411116 0.52613664 -0.47561616 0.24287096 0.73199934 -2.0020278

layer1.0.bn1.running_mean f4 [8]
00000000: ce3a d8be 0c5b 04bf 2418 b9bf b1a6 1cc0
00000010: f605 53bf 568c 35bf 651b 2c3e 6e7c e8bf
-0.42232364 -0.51701427 -1.4460492 -2.447674 -0.8243097 -0.7091726 0.16807325 -1.8162973

layer1.0.bn1.running_var f4 [8]
00000000: eee2 593f 317e 713f ff45 c440 4529 0841
00000010: ae2f 253f 3643 a040 835d 543f 5d58 ab40
0.8511189 0.9433318 6.1335444 8.510076 0.6452588 5.0082045 0.8295519 5.3545365

layer1.0.conv2.weight f4 [8, 8, 3, 3]
00000000: a736 94be 7231 b2bc e7da 253e ceab 61bd
00000010: e33f 013e 6dfd 3c3e ca70 0bbe 95a9 f6bc
00000020: bb10 263e 8f77 19bd ea92 e63d 4e48 77bc
00000030: 3422 aeba a0e7 ca3e 3098 453d 7c45 acbd
00000040: e1db bc3d 037c 71bd dac3 96be ff53 d53d
00000050: 9a99 393e d5a7 93bf 1231 a13e 3f6f 493f
00000060: 053c 17bf 88b5 5b3e b053 0c3f 7edf 50bd
00000070: bd80 6dbc 38de 0bbe 35cc f9bd 8cea 3ebf
00000080: 241c 93be eae9 833e be27 d13e f466 ec3d
00000090: a7ab 85be c6dd 94bd a8c8 acbe 2440 bbbc
000000a0: 8224 903e fac2 2f3d 31b9 a2be adcf c1bd
000000b0: 6c33 81be e32d 8fbe 7c12 8abd dd3f b23e
000000c0: e864 4f3e 0c7a ce3e 53cb ad3e 69bf 07be
000000d0: bb78 6f3e 029e a53e 55d6 8a3e 4de1 653e
000000e0: bf68 11be 77df 6ebe 3c2c c43e da27 5a3d
000000f0: a3e9 8dbd a6f9 1dbe 1fd9 e9be 8846 c9bc
00000100: 3289 b6bd 66bc 99be e533 37be a0e1 aabe
00000110: 39b1 01bf 174f b43d 1401 41bd 2ea5 9abe
00000120: 3993 10be 07c7 b6bd fc3b 113e 93f0 8dbd
00000130: 4804 b5bd c4b0 083e b70b 9fbd c75a 023e
00000140: 6db3 6f3e 50e2 96bd 8091 2a3d 3056 88be
00000150: bd74 c5bd b73b 5abd 08e3 813e 45c3 b5bc
00000160: 40ff 5ebd da45 023e cce3 8fbe 3361 34be
00000170: b02e 0fbd 1b3d 0fbe 827c e53d eb32 223c
00000180: ed8d 61bd 7f8d 9f3d 6bf4 963e d805 8ebe
00000190: 41ff 313d b5d4 07bd d45d 883e 9b43 e0bc
000001a0: b5c0 203e 0b0e fcbd e37e f93d b61e 7fbe
000001b0: 3d9f db3c ebd0 50bc 32bc 9cbd 8a60 1e3e
000001c0: 588c 73bc 9684 d8bd 7e7a a33e 0ff8 e33d
000001d0: 59f5 5fbe bc4a 2dbe 917f a73c be75 643c
000001e0: 5949 1dbe db87 aebe c0d8 cb3d 9bd3 2fbd
000001f0: 842a 873d a1a7 503d 0a89 1a3e d7b2 26be
00000200: af95 553e 9b53 c4bd 4162 603e 0eb3 73bd
00000210: 7f1d 80bd 70f4 37be 27d0 9e3d a38d e33b
00000220: 60f0 603e 5905 883e 962c e53e 88cb 3a3f
00000230: f156 4d3f bb4a ea3e 3d10 333f 1a55 433f
00000240: da6c 3e3e 6031 073e 8c27 b8bc eb00 fcbd
00000250: ac4c 56bd 06ff 61bd 54ad 0f3d a93a 353d
00000260: be66 3ebe f2de 8d3d 6e05 6b3d d72a 06be
00000270: 1ca2 973e 23b5 413d d179 5bbe 6fee e6bc
00000280: ef09 febc 378e abbc 6a07 6f3e fc3d e23c
00000290: 11ee 78be 667f 2c3f 2fdd 7d3e ec7b f8be
000002a0: 3896 3abf bcca 653d 5abe 133f f420 17be
000002b0: 4e95 39bd 9f07 49bd 4945 e43d ac4a cb3e
000002c0: 25d8 f93e 6f13 08be 6bcb f1bf 676d b4bf
000002d0: 248b 9dbd 2cd7 153e c498 093f f46c 0dbf
000002e0: 4bc3 b3be cf4f ecbc 5db5 cb3d 6233 193e
000002f0: fd14 293e 47e4 263d e7ee f8bd d9d1 ad3d
00000300: 237a 95be 19f2 9dbe cf87 63bd 123d 563e
00000310: faca 383f 9e79 783e 720e b3bd d075 1fbd
00000320: d4af f4bc 3193 363e f356 5a3d c2f1 26be
00000330: d54a febd 5b72 5e3e 7ba0 b43e dca6 31be
00000340: a77f 29be 2aac e2be 6ad7 50bd ed5f 863d
00000350: cdad 71bd 8001 9abe 5149 5bbe 30e0 d4be
00000360: 3ccb 7f3e fc4f 5ebc 85d8 09bf aec8 063f
00000370: fa59 0b3e d265 4ebf 0a52 063f 5784 933e
00000380: e119 2ebf ef88 8ebd a158 763e bc56 38be
00000390: 87af e33d beed 1fbe f109 4cbe 0441 a73d
000003a0: 53aa 73be 6b2a 22be 8f21 fa3d e294 0c3f
000003b0: 288d 053e 9610 a33e e338 6bbe 8885 84be
000003c0: f9d2 1d3d e64f d5be 7eee 433d 817b b3bd
000003d0: 4fc7 a6bd f47e 583e 33c8 b73e 972c db3e
000003e0: a36f 0bbf 6722 753e a4b5 963e 020a 71be
000003f0: ca39 333e 7643 24bd d02b bcbd f82a 653c
-0.28947946 -0.021752093 0.16196786 -0.055095486 0.12622027 0.1845605 -0.13617244 -0.03011016
0.1621732 -0.037467536 0.112584904 -0.015092922 -0.001328534 0.3962984 0.04824084 -0.084116906
0.09221626 -0.058956157 -0.29446298 0.104164116 0.18125 -1.1535593 0.3148275 0.78685373
-0.5907596 0.21455967 0.54815197 -0.05099439 -0.014496026 -0.13658988 -0.121971525 -0.7457664
-0.28732407 0.257644 0.40850633 0.11543074 -0.26107523 -0.072688624 -0.3374684 -0.022857733
0.28152853 0.042910554 -0.31781915 -0.09463439 -0.25234544 -0.27964696 -0.06741807 0.3481435
0.20253336 0.4032749 0.33944187 -0.13256611 0.23385899 0.32347113 0.27116647 0.22449227
-0.14200114 -0.23327433 0.38314998 0.05326066 -0.06929328 -0.15427265 -0.45673463 -0.024569765
-0.08912887 -0.3002655 -0.1789089 -0.33375263 -0.50661045 0.08804148 -0.04712017 -0.30204147
-0.14118661 -0.0892468 0.14183038 -0.069306515 -0.08838707 0.1334868 -0.07765906 0.12729941
0.23408289 -0.073673844 0.041642666 -0.26628256 -0.09641407 -0.053279605 0.25368524 -0.022187838
-0.054442644 0.12721959 -0.28103483 -0.17615204 -0.034956634 -0.13988154 0.112053886 0.009899835
-0.05506699 0.0779066 0.2948335 -0.27738833 0.04345632 -0.033161838 0.26634085 -0.027375987
0.15698512 -0.12307366 0.12182405 -0.24914059 0.02680933 -0.012745122 -0.07653083 0.15466514
-0.0148650035 -0.10572164 0.31929392 0.11131298 -0.21870936 -0.1692304 0.02044657 0.013944088
-0.15360011 -0.34088024 0.09953451 -0.042926412 0.06599906 0.050941113 0.15091339 -0.1627916
0.20857881 -0.09586259 0.21912481 -0.05949693 -0.06255626 -0.1796434 0.07754546 0.0069443746
0.21966696 0.2656658 0.4476058 0.72966814 0.8021079 0.4576014 0.6994665 0.7630173
0.18596211 0.13202429 -0.022479795 -0.123048626 -0.052319214 -0.05517485 0.035077408 0.044245396
-0.1859388 0.06927289 0.057378225 -0.1310228 0.29615867 0.047291886 -0.21433188 -0.028189866
-0.031010596 -0.020941837 0.23342672 0.027617447 -0.24309565 0.67381895 0.24791406 -0.48532045
-0.72885466 0.056101546 0.5771233 -0.14758664 -0.045308404 -0.049079534 0.111460276 0.39705408
0.48797718 -0.13288663 -1.8890203 -1.4095887 -0.076925546 0.14632863 0.53748727 -0.55244374
-0.35109934 -0.02884665 0.09946702 0.14961007 0.16511913 0.040745046 -0.12154942 0.08487291
-0.29194745 -0.30848768 -0.05554944 0.20921734 0.7218472 0.24265143 -0.087429896 -0.038930714
-0.029868998 0.17829587 0.053305577 -0.16303161 -0.12416617 0.2172331 0.35278687 -0.17348808
-0.16552602 -0.44271976 -0.050986685 0.06561265 -0.05900364 -0.3007927 -0.21414687 -0.4157729
0.24979872 -0.013568874 -0.5384601 0.5264996 0.13608542 -0.80624115 0.5246893 0.28811905
-0.6800824 -0.06959712 0.24057247 -0.18001837 0.111174636 -0.15618035 -0.19925667 0.081666976
-0.23795442 -0.15836494 0.12213432 0.5491468 0.13042128 0.31848592 -0.2297092 -0.25883126
0.038531277 -0.4166252 0.047834866 -0.08763791 -0.08143484 0.21142179 0.35894927 0.42807457
-0.5446722 0.23938905 0.29435456 -0.23538974 0.17502514 -0.0401034 -0.09188044 0.013987295

layer1.0.bn2.weight f4 [8]
00000000: 4ed3 353f 5339 ba3f 3c1e 1640 7770 383f
00000010: 9b28 8d3f 6cc1 fc3f 15cb 5e3f e96e 6f3f
0.7102555 1.4548744 2.3455954 0.7204661 1.1028017 1.9746528 0.8702863 0.9352861

layer1.0.bn2.bias f4 [8]
00000000: 5eb8 c93e de91 acbe 3217 2f3f 21b0 7b3f
00000010: 9510 023f 627b 4a3f 3d2e 843f 3661 203f
0.39398474 -0.33705038 0.6839477 0.98315626 0.5080655 0.7909452 1.0326611 0.6264833

layer1.0.bn2.running_mean f4 [8]
00000000: a1ea cbbd 82a1 b83e d158 cdbf a3ea 94be
00000010: 3c64 0a3f d825 bfbf 93ee 823f 84ec 12be
-0.09956861 0.3606072 -1.604273 -0.29085264 0.54059196 -1.4933424 1.0229057 -0.14348036

layer1.0.bn2.running_var f4 [8]
00000000: 1013 8440 60f5 f23f fec9 e840 ad15 0f40
00000010: 3bfa 1c40 1f8e 8940 52ee e13f 699e f73f
4.127327 1.8981133 7.2746572 2.235698 2.4527729 4.298599 1.7650855 1.9345218

layer2.0.conv1.weight f4 [16, 8, 3, 3]
00000000: 99d6 b23e f5ad 923e 4a0c 91be aa49 91be
00000010: 1f06 98bd 0518 d93d 1e1d 6b3d c1f4 b9be
00000020: fdb0 3c3e 8b95 fb3d e407 c1ba 6370 713e
00000030: 96e2 1abe 0791 e6bd 672a cf3d 8242 61be
00000040: c918 c6be cea5 163b cd7b f4be 634f 483e
00000050: 0a2c 183f 7ee0 483d 046f 76bf aa26 b23e
00000060: 0234 113f 9cb0 b0be 18ef 0fbf 9bab 9d3d
00000070: d93e 2a3e 8271 37be 6392 2fbd 0ffa 513e
00000080: ef67 1bbe 7840 63bd f80c 6fbd b774 603e
00000090: 6467 70be 1b12 863e 4056 583d 0cba 8cbe
000000a0: 5160 edbc 0cbc 633e 5af8 bebd f68a 1cbf
000000b0: 025a 933e a6da 2c3e 41e2 29bf 1929 bfbd
000000c0: 2b42 423f 4fc4 903e 0f5c 32bf 52a2 17bf
000000d0: 22ba 5a3f 5f25 ec3e 6cb9 4f3e 3039 283e
000000e0: d7df 88be 4f8a e4bd b097 2a3e 3a9d 8e3d
000000f0: 2121 89be 8062 78be 6712 b13e f8b2 97bd
00000100: 8a62 aa3d 9391 25bd 96f9 efbd 4fa7 9a3d
00000110: 2b21 303e f5fa 6fbd 12f8 25be a9b0 093d
00000120: 5053 50be 04c0 05be 47da 993d 111c 9bbe
00000130: 7e49 c1be 9434 eebc 3a92 3abe 0e3b e4be
00000140: 44bf 8dbe 7db4 cabd 54c5 35be efac c5bd
00000150: c094 4d3c bc9f 07bd fd6a a43b 0d40 a3bd
00000160: 122d ef3c 4767 303e bbe6 af3e fa5c e4bc
00000170: 7853 c8be 6898 823e 34a3 8a3e 8eaf 19bf
00000180: 579b 873e 8901 afbd 22ba c7be 5fbf 4ebe
00000190: 7825 53be 749b b43e 3ace 10bc 609c 26be
000001a0: 8be5 393e 5aee 233e 3ebf 83be 772d aa3b
000001b0: b082 a63e 6e5b 3abe 60b5 60bd 7653 953e
000001c0: 8595 19bd f9d8 af3d 597d 7f3e 7837 7abd
000001d0: 6257 9ebd 3e01 65bd e2a7 ab3e 6eed 753e
000001e0: ee36 b8be 216b 923e 355e 043f 3ece dabe
000001f0: fcbe 883d c034 343f a64c a5bd 06f7 acbd
00000200: 9073 af3d ba31 4b3e ca6f c53b 740a 463d
00000210: c341 143e 476f 0b3e 1f3b 9d3d b5f1 bfbc
00000220: 2df4 f9bd 9ead ca3d a58c acbc dc01 18be
00000230: fa8c 1e3e 2e80 623e b9b3 05be 2496 f1bd
00000240: 36cc 4fbc 6729 be3e 917a c53e 21d0 563e
00000250: 6110 593f 22e4 513f 333e 293e 3206 343f
00000260: e41e 233f 1641 093e b522 d23d d3e5 223c
00000270: cba4 e83d 95d6 9a3d 4ca5 c33c b0c7 81be
00000280: f1cc 89be 9002 b4be 38d5 d03d 9b98 413c
00000290: 81c4 6dbe 9cb2 323d 4df9 9fbe fd7c 7abe
000002a0: 956b a2bd f5d4 87bd af0d 73be c4c4 0f3e
000002b0: effa 10be 874d 8ebe a7f6 c93d 5642 8abd
000002c0: af09 a4be 424a 1ebc 7fa0 60be 1a09 61be
000002d0: 4173 ef3d fc59 903e dcdf 933e 6bf6 53be
000002e0: c5fe 553e 1a99 d93e 8d0b 65be 9d0e 9d3d
000002f0: ba8d 3c3e b5b4 2e3d 875f 103d 84a9 2c3d
00000300: aa25 683d 81ca b7bc 565c 943d 8342 07be
00000310: 56cc 87be cac9 bcbd dc82 d1bd c9df 14be
00000320: 248a 72be 84e0 043d 2bbc 033e 772b 1dbe
00000330: 9e59 83bd 0669 cc3d 42ea 783d dfe9 313d
00000340: 27c3 57bb 54fe 383d 47ef 4bbe f186 01be
00000350: 4ed0 b73d 8738 0cbc b680 2c3b 2222 7b3e
00000360: 989b 0dbe d653 90be 9c7b 43bd aca6 3abe
00000370: 7323 fc3d 97c0 383e 5494 8f3e 0f89 003f
00000380: f4b3 80bd 7603 b13d f17d 2b3e 888b 8b3e
00000390: ee1a 883e 3b91 983e 2bd4 e03e a70f cc3d
000003a0: ce1e 0f3d 1e52 5b3e c645 41be 72c4 8c3f
000003b0: 5933 21be 611a 423f e2ad 8a3d 3d27 28bf
000003c0: 66fa 613e d889 1fbf 4e49 2fbd 8fef 16bd
000003d0: e930 b23e d782 97be 49be 9b3e 39fc 8cbe
000003e0: 4a47 8abe 22d9 2ebe b1f1 01bf b789 d63e
000003f0: ce94 f6be 716e 1a3e 49d8 893e bdf5 febd
0.3492935 0.28648344 -0.28329688 -0.28376514 -0.074230425 0.106002845 0.057400815 -0.36319545
0.1842689 0.122843824 -0.0014727083 0.23578028 -0.15125498 -0.112581305 0.101155095 -0.21998027
-0.38690785 0.002298701 -0.47750703 0.19561534 0.594422 0.049042217 -0.96263146 0.34795123
0.5671998 -0.34509742 -0.56224203 0.07698747 0.16625537 -0.17914394 -0.042864215 0.20505546
-0.15176366 -0.055481404 -0.058361977 0.21919523 -0.2347694 0.26185688 0.05281663 -0.27485693
-0.028976591 0.22239703 -0.09324713 -0.6114954 0.28779608 0.16880283 -0.6636086 -0.09334011
0.75882214 0.28274772 -0.6967172 -0.59232056 0.85440266 0.46122262 0.20285577 0.16428065
-0.26733276 -0.11159193 0.16659427 0.06963582 -0.26783088 -0.24256325 0.34584352 -0.074071825
0.08319576 -0.040422034 -0.117175266 0.07551443 0.17200153 -0.05858894 -0.16207913 0.033615742
-0.20344281 -0.1306153 0.07512336 -0.3029485 -0.37751383 -0.029077806 -0.18219844 -0.44576305
-0.27684987 -0.09897707 -0.17751056 -0.09652125 0.012547672 -0.03311132 0.005017637 -0.07971201
0.029196296 0.17226897 0.3435572 -0.027876366 -0.39126182 0.25506902 0.2707764 -0.600335
0.26485702 -0.08545215 -0.39009196 -0.2019019 -0.20619762 0.3527485 -0.008838231 -0.1627059
0.1815397 0.16008893 -0.25731844 0.005193408 0.32521582 -0.1819894 -0.054860473 0.29165238
-0.03749611 0.08586306 0.2495016 -0.061088055 -0.07731511 -0.055909388 0.33526522 0.24016353
-0.35979408 0.28597358 0.5170625 -0.42735475 0.066770524 0.7039299 -0.0807126 -0.084455535
0.08566964 0.19843188 0.006025289 0.048349813 0.14478211 0.13616668 0.07677292 -0.023430685
-0.12204776 0.09896396 -0.021063158 -0.1484446 0.15483466 0.22119209 -0.1305684 -0.11796215
-0.012682965 0.37140962 0.38570073 0.20977832 0.8479062 0.8198873 0.16527633 0.70321953
0.6371901 0.13403735 0.10260526 0.00994249 0.11359557 0.075604595 0.02388253 -0.25347662
-0.2691417 -0.35158205 0.10196918 0.011816169 -0.23219492 0.043627366 -0.3124489 -0.24461742
-0.07930676 -0.06632415 -0.23735689 0.14039904 -0.14158224 -0.27793524 0.09861498 -0.06750934
-0.32038638 -0.009661259 -0.21936224 -0.21976128 0.11691905 0.28193653 0.2888173 -0.2069947
0.20897968 0.4249962 -0.22367688 0.07668803 0.1841344 0.042652804 0.035247352 0.04215385
0.056676544 -0.022435429 0.07244174 -0.13208966 -0.26523083 -0.09218176 -0.102300376 -0.14538492
-0.23685509 0.032440677 0.12864749 -0.15348612 -0.064135775 0.09980969 0.06077028 0.043435927
-0.0032922716 0.04516442 -0.19915496 -0.12649132 0.08975278 -0.008558399 0.0026321835 0.2452474
-0.13828886 -0.28188962 -0.047725305 -0.18227643 0.12311449 0.18042217 0.28042853 0.50209135
-0.06284323 0.08643238 0.16747262 0.2725489 0.26583046 0.29798302 0.4391187 0.09963923
0.034941487 0.21418044 -0.18874273 1.099745 -0.15742244 0.758215 0.06771447 -0.6568487
0.22068176 -0.6231971 -0.04279452 -0.036849555 0.3480294 -0.2959201 0.30418614 -0.2753618
-0.27007514 -0.17075017 -0.50759417 0.41901943 -0.48160404 0.15081193 0.26922825 -0.124492146

layer2.0.bn1.weight f4 [16]
00000000: 037a 9d3f f81b 873f 931c 1c3f d868 973f
00000010: 139f 173f e456 8c3f 3b98 9e3f 8767 a93f
00000020: 205b 443f 8223 873f c08f 9d3f 68f6 a53f
00000030: 2063 af3f e0e5 993f b221 913f c362 203f
1.230286 1.055541 0.609811 1.1828871 0.59227103 1.0964017 1.2390207 1.3234719
0.76701546 1.0557711 1.2309494 1.2965822 1.3702126 1.2023277 1.1338408 0.626507

layer2.0.bn1.bias f4 [16]
00000000: 7cb0 90bd 459a 42be 1b4a 903f 0a29 d53d
00000010: 7f07 43be c924 b0be 746a 04be e732 55be
00000020: d965 023f 208f 3abe 96ce 33bd 9fad 00be
00000030: ce61 a3be fd4f 99bd b9e7 44be be14 923f
-0.07064912 -0.19004162 1.1272615 0.10408218 -0.19045828 -0.34403065 -0.12931234 -0.20820199
0.5093666 -0.1821866 -0.043898188 -0.12566231 -0.31910557 -0.0748596 -0.1922902 1.141258

layer2.0.bn1.running_mean f4 [16]
00000000: b7b4 e3be 577a 313f 1617 6d40 ec7b ccbe
00000010: 48d5 81c0 2d03 adc0 df09 a2be 49b9 89c0
00000020: 4062 8540 e10d 90bf d5cc a2c0 24fe 22bf
00000030: 2cf8 d1c0 f5f2 94bf 2694 3abd 3c71 efc0
-0.44473812 0.693273 3.704534 -0.39938295 -4.0572853 -5.4066377 -0.31648156 -4.303868
4.1682434 -1.1254236 -5.087504 -0.6366904 -6.5615444 -1.1636645 -0.04555144 -7.4825726

layer2.0.bn1.running_var f4 [16]
00000000: 994f 9a41 6a5a 3b41 bab2 7341 d9d1 be41
00000010: f8a5 c440 17ba 2e41 e755 ce41 4546 9941
00000020: 0097 d540 d795 0b41 7b61 8741 f84f b441
00000030: 8cb0 9741 7ac6 a741 eec0 1141 cbb8 8041
19.288866 11.709574 15.231134 23.852465 6.14526 10.920432 25.791945 19.159311
6.6746826 8.724082 16.922598 22.539047 18.961205 20.971912 9.109602 16.09023

layer2.0.conv2.weight f4 [16, 16, 3, 3]
00000000: feaa a5bd 7d15 053e 9f1f fb3b 80ea 7c3c
00000010: 7e6b f63d db00 843e 9909 7abd 0d5b 7c3d
00000020: a7f1 5ebc b518 0ebe 8280 d0bd 5a55 403d
00000030: 515e 7ebd 19be 4b3e 2b1f 703e 6756 b1bd
00000040: 13b6 c0bb a579 f23d 7791 efbd 3e64 c3bd
00000050: ee22 59bd a597 2bbc bb4b db3e 298e 053f
00000060: 7ffa dfbd 680d 15be 3c5d 373e 8d0f 80bc
00000070: e2c3 363c 9674 083d 44dd 2b3e fd1b 373e
00000080: c1c5 4ebd c140 e8bc b07d 07be 160d 8abd
00000090: b5aa dbbc 398e c83a 3477 083d b74b 83bd
000000a0: 51d9 963b d79b 393d 6abd 0fbe 544f 24bd
000000b0: a649 06bd d4a1 0fbd 4e05 8b3c 06dd ffbd
000000c0: fa39 9a3d 93b5 263d 02e7 6fbd d9df f0bd
000000d0: 4ccd 473c a54a 60bd 4a59 d1bd 0dec 34bd
000000e0: acdc 68bd c6f9 af3e ec15 aa3e c0bb 033e
000000f0: a379 4d3c a1e0 bf3d e37a 85bd 617f 42bc
00000100: 8b62 4a3c 6d07 6f3d e640 333d 528b 8d3e
00000110: b889 1a3e 5e59 02be 550f 723d e708 dc3c
00000120: 6ec5 343e aa2b ebbe 310a 1cbe 3e35 cb3e
00000130: ef8f c0be 253d 8abe 2cb0 ca3e 8274 c03e
00000140: 0727 913d 4115 d6bd 4fa5 b6bc 615e 1fbd
00000150: d3f2 3bbd 99ea f6bc 1d62 21bd 9e29 bebd
00000160: 2cbd 94bd 9805 6bbc 7919 d03c 0704 e53d
00000170: 73cd a7bc b526 bdbd 60d0 b03e 86bc 623e
00000180: dec9 62be c2ce a9bb 7397 56bd 93e0 c8bd
00000190: b785 a1bd 0548 363d 208d 07be a9f8 593e
000001a0: 4c8f c83d dbd5 8abe 3e7a c4bd 90c4 6e3c
000001b0: b109 663d 1481 333e 5d5c 4abd cc2e 3f3e
000001c0: 63a1 ae3e fa1c 79bd 47a9 903d 74c8 1bbe
000001d0: 7338 23be 3cc1 9ebd 351e 493d 3543 cabd
000001e0: b02e 863a e7d9 3c3e 93ce 9b3d c477 813d
000001f0: 91e7 923d b7fa 833d 7835 97bd 9a3c 203e
00000200: 0dc1 c63c d785 b6bd 9114 243e 0774 1d3e
00000210: 4f9f 06be 50e3 1bbe 30be 90bd 11b1 213e
00000220: e4a8 563e 53bf 1cbd 38df fc3e 76f8 fc3e
00000230: 16d3 d03c e3d2 d83d 9ee8 2e3e 030f a3bd
00000240: 82fe 6e3d 78ad c43e 6fbf cf3d 8fbb debd
00000250: 4607 3b3e 41e7 443e 187e febc 52a7 04be
00000260: 11a9 80bd d70f a03d 8412 093e 5383 ba3d
00000270: b0f2 eaba 33bd 363e 57e8 2e3e 83f2 753e
00000280: 7287 9b3d 25e2 b73d 8506 713e ea45 82bd
00000290: f375 b7be 9b84 d03e ba4b 07be 9b60 12bf
000002a0: 934f d03d 2e75 803d 728f 93be da81 09be
000002b0: 3b02 07be 6729 be3d 95a4 33bd a829 3ebe
000002c0: 1381 f4bc ecff 543e 920f 1e3e 5580 6a3d
000002d0: 4cb8 3db9 ba7d a6b8 9491 81bd 1036 013d
000002e0: 988f 89bc 1c3f 80bd b569 283d 4609 b5bd
000002f0: 8482 fdbd adc1 35bd 9cae d1bd 2628 dcbd
00000300: 07f6 543d 7e44 233d be89 5dbd 0050 323d
00000310: 4dc6 b83d ac80 23bd 0989 d4be 56bb e6be
00000320: fdb4 4ebe 24a8 d2be 7f30 16bf c02d 9fbe
00000330: b65e 0bbe 2e0d 47be fe76 15be 377e 453e
00000340: 1b5d b93e ad5f 5b3e 26b2 233e 5e33 da3e
00000350: 4ff9 b83e 8b2a 24be ddb9 39be df73 53bb
00000360: 6259 b43d 37bc e3bc e30f 7cbe 7387 f93c
00000370: 2163 a43a 5d22 6abe 1785 d13d c994 c73d
00000380: 3151 4abe 4acf fcbd 8530 3ebe 1bb2 2dbd
00000390: fc1d b5bd 6aa2 4ebe 5230 88be 455e afbd
000003a0: 130a 7cbd d211 31be a365 ce3e c079 e53e
000003b0: c591 af3d 341c d13e 2950 073f d94d c53e
000003c0: a59d 8a3c 9a64 bd3d 19e0 8e3e 5b6c 613d
000003d0: 31a8 b4bc 2264 02be 12f0 90bc 5bd7 253d
000003e0: c7b6 81bd cdd9 03bd 0c93 56be 89b0 97be
000003f0: fb72 b4bd 4dfc 0bbd a3b4 4e3e 2692 9f3e
-0.08089255 0.12996478 0.0076636816 0.0154367685 0.12032221 0.25781903 -0.06104431 0.06161027
-0.013607419 -0.13876612 -0.10180761 0.046956398 -0.062101666 0.19896735 0.2344939 -0.08659058
-0.00588108 0.11839608 -0.11697667 -0.09540604 -0.053011827 -0.010473167 0.42831215 0.52170044
-0.1093645 -0.14555895 0.1790666 -0.015632415 0.011155101 0.03331431 0.16783625 0.1788177
-0.05048156 -0.02835119 -0.1323154 -0.06740777 -0.026814798 0.0015301175 0.033316806 -0.06410926
0.004603543 0.045314636 -0.140371 -0.040114716 -0.03278508 -0.03506644 0.016970303 -0.12493329
0.075305894 0.040700506 -0.058569916 -0.117614456 0.012194943 -0.054758687 -0.10222109 -0.044170428
-0.056851074 0.3437025 0.3321985 0.1286459 0.0125412075 0.093690164 -0.065175794 -0.01187119
0.012352596 0.05835669 0.043763064 0.27645355 0.15091598 -0.12729403 0.059096653 0.026859714
0.17653438 -0.4593175 -0.15238263 0.39689058 -0.37609813 -0.26999775 0.39587533 0.37588888
0.07087522 -0.104532726 -0.022295622 -0.038908366 -0.045885872 -0.030141162 -0.03940021 -0.092852816
-0.07262644 -0.014344595 0.025402771 0.11182409 -0.020483708 -0.092358984 0.34533978 0.22142228
-0.22147319 -0.005182118 -0.052390527 -0.09808459 -0.07886832 0.044502277 -0.13237429 0.21286263
0.09792957 -0.27116284 -0.09593628 0.014573231 0.056161586 0.17529708 -0.04940449 0.18670195
0.34107503 -0.06081865 0.07063537 -0.15213186 -0.15939502 -0.077517 0.049101073 -0.098761
0.0010237303 0.18442498 0.0760776 0.063216716 0.07173074 0.064443044 -0.07383245 0.15648118
0.024261976 -0.08912247 0.1602347 0.15376292 -0.13146709 -0.15223432 -0.070675254 0.15790202
0.20962864 -0.0382684 0.49389052 0.4940831 0.025491279 0.105870984 0.17080924 -0.07961848
0.058348186 0.38413596 0.10143935 -0.10875618 0.18264493 0.19228841 -0.031065986 -0.12954453
-0.06282247 0.07815521 0.1338597 0.09107079 -0.001792511 0.17845611 0.17080818 0.24018292
0.075941935 0.089786805 0.23537643 -0.06360991 -0.35832176 0.4072617 -0.13212481 -0.5717866
0.101714276 0.0627235 -0.28820378 -0.1342844 -0.13184445 0.092852406 -0.04385813 -0.18570578
-0.029846704 0.20800751 0.15435627 0.057251293 -0.000180931 -7.938915e-05 -0.06326595 0.0315457
-0.016792104 -0.06262037 0.041116435 -0.088396594 -0.123784095 -0.044374157 -0.10238382 -0.10749845
0.051992442 0.03986024 -0.05408644 0.043533325 0.09022198 -0.039917633 -0.415108 -0.450648
-0.20186229 -0.41143906 -0.5866775 -0.31089592 -0.13610348 -0.19438621 -0.14596173 0.19286428
0.36203846 0.21423216 0.15985927 0.42617315 0.36127707 -0.16031854 -0.18137307 -0.003226511
0.08806111 -0.027799709 -0.24615435 0.030460095 0.001254175 -0.22864671 0.10230463 0.097451754
-0.19757535 -0.12344225 -0.18573196 -0.042406183 -0.0884361 -0.20179144 -0.26599365 -0.08562902
-0.061533045 -0.17291954 0.40311918 0.4481945 0.08572725 0.4084183 0.5285669 0.38535956
0.016920874 0.09247704 0.27905348 0.055034976 -0.022052856 -0.1273351 -0.0176926 0.040488582
-0.0633369 -0.032190133 -0.20954531 -0.29626873 -0.08810993 -0.03417616 0.20186095 0.3116619

layer2.0.bn2.weight f4 [16]
00000000: 96fc 0a3f 6680 343f 98a4 0e3f 584c 503f
00000010: 96f0 323f 7bac 723f 09e1 2640 2434 123f
00000020: 7769 543f dc46 183f fc73 e63f b957 813f
00000030: 2617 a73f 91c2 713f db4f 743f 77ea 1c3f
0.54291666 0.7050842 0.557199 0.8136649 0.69898355 0.94794434 2.607485 0.5711081
0.82973427 0.5948312 1.8004146 1.0104896 1.3053939 0.9443751 0.9543435 0.61295265

layer2.0.bn2.bias f4 [16]
00000000: 473a 4f3d b2c1 293f add8 53be 176f 173f
00000010: e40d b0bd d5b9 093f b723 e2be f8cc a43e
00000020: f310 fa3e 405d 9c3e 3aac a7be 36f4 2e3f
00000030: 1b7f debd 6ae4 7e3d 56d1 0d3f 3e79 013f
0.050592687 0.6631118 -0.20688124 0.59153885 -0.085963994 0.5379918 -0.44167873 0.3218763
0.48841056 0.30539894 -0.32748586 0.68341386 -0.10864087 0.06222955 0.55397546 0.50575626

layer2.0.bn2.running_mean f4 [16]
00000000: 82c6 4940 4ad8 c8bf 3d63 6f3f f5be 3640
00000010: ef06 d0bf 25db 16c0 b3b8 83c0 ed79 3ebf
00000020: 60c3 75bf 4d86 153f acbb 60be 096e de3d
00000030: 2900 463f 98ef 2e40 7a1e d63f e653 7d3f
3.152741 -1.5691006 0.935108 2.855405 -1.6252116 -2.3571255 -4.1162963 -0.74404794
-0.96001244 0.5840805 -0.21946591 0.10860831 0.77343994 2.7333736 1.6728051 0.98956144

layer2.0.bn2.running_var f4 [16]
00000000: 35bf 0440 465c 9740 2615 a83f 55b7 a240
00000010: 0ebe 3540 48fe 8240 0070 1841 1d6b 2d40
00000020: bb50 6a40 e168 5b40 0245 a540 bf46 9440
00000030: 69ef 9c40 0178 be40 2182 e640 4d2a 4640
2.0741704 4.730014 1.3131454 5.0848794 2.839725 4.09354 9.527344 2.7096627
3.6611774 3.4282763 5.164674 4.633636 4.904225 5.952149 7.203385 3.0963318

layer2.0.shortcut.0.weight f4 [16, 8, 1, 1]
00000000: b1b2 953e 05fc f7be 03f9 d13d 5b8f 97bf
00000010: 79aa c93c ecde 313e a049 743f 752c 49be
00000020: 9824 1bbc 9893 c7bc afea 133e c266 043d
00000030: 46aa 75bd 51e2 e2be 8af5 2e3d cb5d 433d
00000040: b02e e03d 9aa6 b8be cea7 91bd a1a4 d8bc
00000050: d786 3bbf 6645 ddbd 880d 78bd 1bb4 9f3f
00000060: 1091 f33e 7552 33bf 74ff adbe a0c0 e53e
00000070: 1553 b73c 9e50 8bbe abed 43be 5341 b4be
00000080: bdc0 673e d53f 04bf 4d97 5b3c 08d3 b63f
00000090: 2862 0fbe 6e0a b0bc 26dc 19bf 8afc 373e
000000a0: f3ac 17be 3874 d2bd 422b 40bf 2342 a73d
000000b0: 29ec 91be 0880 423e 9cd3 7abe d77f 93bc
000000c0: 54f6 db3c 6c33 4f3d 8931 2bbe 2645 f63c
000000d0: 0ec2 b2bd a0cb cb3e 7408 92bc 37b2 02be
000000e0: 186d 0c3f 41f7 963f b9ab 6d3e 354f a93d
000000f0: e9f0 5c3e 17dd 783d 3c47 953e ca16 823e
00000100: d7ee cb3e 4bb8 3cbf a12a 80be 500b 493e
00000110: 90b3 d2bc 982a 633d ed2f bbbe 3372 8e3d
00000120: f68b 68be 8179 843e 19bd 2cbc c2bc 093f
00000130: e2eb ec3e 3b8a 123d f010 4fbe 6389 73bf
00000140: 8197 3bbe d35e 063d 59f1 a13e 914a 033e
00000150: fb2d 2c3e 140a 89be 335f 8dbd 37d3 78bc
00000160: 8887 06bc 8bb5 dfbe ad22 dcbe ee1e a73c
00000170: 5a6b e2be 897b f5bd ba0c 9f3e b232 adbd
00000180: 7bdf afbd 55bf d8be e747 1b3e 9573 0b3e
00000190: f91f 4b3e 79f8 523f 6460 b83d c3d9 1ebe
000001a0: ed74 0dbf 9510 23bf e331 863f 6f8a ccbc
000001b0: b67d 1fbf 3929 ddbd 8431 f13c d690 a4be
000001c0: 2822 b4bd 93cf c0bd 0f82 58be 503c 90bd
000001d0: 284f 2c3e 0bfd f0be 8271 a039 f1b3 943e
000001e0: 3858 213f c38d 66bf 436a 1a3e 78d2 ec3d
000001f0: 8661 9bbd b19c 73bd a11f 37be 8a7e 0abd
0.29237893 -0.48434463 0.10252573 -1.1840624 0.02461742 0.17370194 0.9542484 -0.19645865
-0.009469174 -0.02436237 0.14444993 0.03232456 -0.05997684 -0.4431329 0.042714633 0.04769687
0.10946405 -0.36064607 -0.07112084 -0.026445689 -0.73252624 -0.10804252 -0.06055978 1.2476839
0.4757161 -0.70047694 -0.33983958 0.44873524 0.022378484 -0.27209944 -0.19133632 -0.35206088
0.22632118 -0.516599 0.013402772 1.4283152 -0.14002287 -0.021489348 -0.60101545 0.1796743
-0.14812069 -0.10276073 -0.75066006 0.081669115 -0.28500488 0.18994153 -0.24494785 -0.018005295
0.026850857 0.05058615 -0.16718115 0.03006227 -0.08728419 0.3980379 -0.017826296 -0.12763296
0.54853964 1.1794206 0.23210038 0.08267061 0.21576275 0.060757723 0.2915591 0.25408012
0.39830658 -0.7371871 -0.25032523 0.19633222 -0.025720388 0.055460542 -0.36560002 0.069553755
-0.22709641 0.2587395 -0.010543131 0.53803647 0.46273714 0.035776358 -0.20221305 -0.9513151
-0.18319513 0.032805275 0.31629446 0.12821414 0.16814415 -0.26765501 -0.069029234 -0.015187076
-0.008211024 -0.43693194 -0.42995206 0.02040049 -0.44222528 -0.11986453 0.31064397 -0.08456935
-0.085875474 -0.42333475 0.15164147 0.1361831 0.19836415 0.8241039 0.0900276 -0.15512757
-0.5525654 -0.6369718 1.0483974 -0.024968354 -0.62301195 -0.10798878 0.029442556 -0.3214175
-0.08795577 -0.09414592 -0.21143363 -0.07042754 0.1682707 -0.47068056 0.00030602148 0.29043534
0.63025236 -0.9006006 0.15079598 0.11563581 -0.075869605 -0.059475604 -0.17883159 -0.033812083

layer2.0.shortcut.1.weight f4 [16]
00000000: 72f3 913f 1b17 223b 1356 8b3f 4ef6 ab3e
00000010: d78a 993f 3fd7 db3e 8ce9 13bd 9569 273f
00000020: cb0c bf3e 3c68 de3e bd73 6f3e e276 a43e
00000030: 954e 583f d4f3 903f 5257 043d c946 273f
1.1402419 0.002473301 1.0885643 0.33586353 1.1995496 0.42937657 -0.0361114 0.6539548
0.37314448 0.434389 0.23383994 0.3212195 0.84494907 1.132441 0.032309838 0.65342385

layer2.0.shortcut.1.bias f4 [16]
00000000: 473a 4f3d b2c1 293f add8 53be 176f 173f
00000010: e40d b0bd d5b9 093f b723 e2be f8cc a43e
00000020: f310 fa3e 405d 9c3e 3aac a7be 36f4 2e3f
00000030: 1b7f debd 6ae4 7e3d 56d1 0d3f 3e79 013f
0.050592687 0.6631118 -0.20688124 0.59153885 -0.085963994 0.5379918 -0.44167873 0.3218763
0.48841056 0.30539894 -0.32748586 0.68341386 -0.10864087 0.06222955 0.55397546 0.50575626

layer2.0.shortcut.1.running_mean f4 [16]
00000000: f3fa a33d fd34 2fbf 6157 993e 71b1 4abf
00000010: a85d a03f 0210 c4bf 97aa b33e fdf3 4040
00000020: 1a5f 02be 1a80 cdbe 6c29 8dbd 3842 b6bf
00000030: 0827 fc3f 61cb c1bf 20cd 47bf 1872 983e
0.08006849 -0.6844023 0.29949477 -0.79177004 1.2528582 -1.5317385 0.35091087 3.0148919
-0.12731591 -0.40136796 -0.06892666 -1.4238958 1.9699411 -1.5140191 -0.7804737 0.29774547

layer2.0.shortcut.1.running_var f4 [16]
00000000: 3617 1440 be83 053f aef2 eb3f 14a7 b23f
00000010: 4062 1a40 28ab 893f 4ddc e73e 5d96 733f
00000020: 53f3 993f 9ad6 a13f b386 ca3e b0b8 2c3f
00000030: 0d0c 0040 0a0a 6440 192c 293f cb50 f33f
2.3139167 0.5215415 1.8433435 1.3957238 2.4122467 1.0755358 0.45285264 0.9515131
1.2027382 1.2643616 0.39555892 0.6746931 2.0007355 3.5631127 0.6608291 1.9009031

layer3.0.conv1.weight f4 [32, 16, 3, 3]
00000000: a936 c63e 7462 043f a42d 9b3e b7c3 043e
00000010: 67be ca3e b0fb ed3e cc0b 00be abdc fe3c
00000020: 0048 0e3e c884 5b3d 3dd1 343d 45c6 613c
00000030: b84b f43d a685 843d 65d2 b7bd 79c1 b63e
00000040: cd74 ab3e bb09 723d 33d1 5b3b 1faf 1dbc
00000050: 0da6 333c 1fba b4bd aa96 49bd 21b7 3cbd
00000060: 3701 3cbe bc52 89bd 3ac3 0ebd 4931 24be
00000070: 3dc5 04be bac9 28be 957b 743d a7d6 0dbd
00000080: 7ec9 7cbe 6d1b b13d dad1 a4be af4e f1be
00000090: cf08 b4bd a48c b2bd a7cd 913d 4c28 563c
000000a0: dbd6 85be 0a3b b8be 7bc6 893e c7cc c33d
000000b0: 108e 36bd c7de 37be e655 22bd b191 893d
000000c0: 2a95 40be 8e56 8dbd 09f1 713c 4fc5 75bc
000000d0: cd5d 94bd c750 83bd fc7f e8bc ed97 3cbe
000000e0: 8d8a a0be 61d4 21bd 1ca6 e2bd 5574 87be
000000f0: e5c3 1c3e a57b a4bd 01ec 41be 5176 30bd
00000100: 6988 b5be 0c05 94be 61c0 b73d 4fa5 87be
00000110: eed6 80be f0e4 a33e 6abb d33d d775 d0bd
00000120: 152a ecbb c5e9 c1bd 6cb7 28ba 6994 a53d
00000130: 2027 53bd d843 2ebd 4b08 dd3e 6ec9 3d3e
00000140: 304d 663d 7178 65be 2ed7 a9be 5cba 6ebd
00000150: d540 7fbe a2fb d9be 4f49 bcbe ee5c e03d
00000160: 1fbf 82be 2a60 4abe 8bdb 393e fb76 0a3c
00000170: 92f2 f6bc cac6 3e3e 51f2 c73c c791 bfbd
00000180: 980f 0d3d 9483 723b 9973 95bd e36d e1bd
00000190: cd95 6f3d 1a33 843d 8460 4cbe 74b8 71bd
000001a0: 6380 1f3e 65e0 203d b248 eebc 0011 4f3e
000001b0: 2864 2ebd 82fa 68bd 1a4b 05be fd5e 82bd
000001c0: 6903 c9bd c323 31bd bbd5 25be fd7d d9bd
000001d0: 0c39 bb3d 7bfa 40bd 355f 543d 1130 6bbc
000001e0: ba9a a1bc f880 e03d f693 0a3d dbf4 113b
000001f0: 2f54 3f3d 9ce6 8cbb c269 823d 0016 92bc
00000200: 98c4 afbd dc35 d03d f7b7 563d 5dcd b0bd
00000210: d8b0 083e 10b9 953e ee2a cf3d adc9 69be
00000220: 5151 c4bd 9501 303d 0199 d3bd 1a99 0cbe
00000230: 47f2 4ebd aec5 8838 c1c0 123d 0bb5 ed3b
00000240: 1584 d4bd 0ce7 4b3c 0da8 5f3d 3d6a 4ebd
00000250: bcf2 283d 7f3b a13d a0d2 1e3b d04f bd3d
00000260: 52c6 fbbc 6649 9a3d cf47 373e 9ce8 de3d
00000270: 89fe 713d cef4 683d d6ae 323d a99c 233e
00000280: 9b84 4e3e 0246 be3d b20f 533d 2bfc 813d
00000290: 9708 b73d bc09 37bc 2231 ae3d 60a9 d8bc
000002a0: ea8c 7dbd 19e5 aabc fd88 69bd e4c2 25be
000002b0: 7bbf 5ebd f706 85be 0d97 0ebd ccf6 173d
000002c0: 5ef4 b9bd 8155 da3b 3ea0 693e 8228 f53c
000002d0: 98e9 993d 773d a33d 8f12 aa3d 4785 cb3c
000002e0: 46e7 c23d 5625 5e3d 8f81 bebd 5cc4 3cbc
000002f0: 823a 7dbc 52f8 003d 3067 403d 9b2b f5bc
00000300: c69f 13bd dfda 8f3e aa25 933e e556 32be
00000310: 8618 203e 0947 c93e e392 90be f635 b6be
00000320: ce4b d3bd 113e 86be 6390 9ebe 2444 c0bd
00000330: 1398 aabe 001c acbe 934e 35be 1704 943b
00000340: 0cbc f03c fb02 843d f68f 023d ed3e cdbd
00000350: 4f89 2f3d 87fb 7f3e 6880 433e 1f8e 9a3b
00000360: a07a 50be 4bde abbd 4ca4 63bb ac6a 91be
00000370: 5f7b 97be 2c90 60be 32b0 b1bd dd60 2abe
00000380: 86e5 5abd 2899 d93c 4edc 103e edc9 1d3e
00000390: 8e6c d33d 262c ea3d 672b f03d 4b78 db3d
000003a0: 0842 523e de2d 113e 8501 373d aa71 943d
000003b0: f2ca 8d3d d943 e1bd e9e5 783d d752 363e
000003c0: 38c6 fbbd 4923 d43d 4774 d93d c8e9 30bd
000003d0: 1126 48bc b601 5e3e f7b4 d53d 8fb1 b73d
000003e0: 8b6c 253d 4a7a 673e f876 013e 23a0 b2bd
000003f0: dd04 be3d 09eb 263e 4f37 17bb d86e f53d
0.38713577 0.5171273 0.3030826 0.12965284 0.3959839 0.46481085 -0.125045 0.031111082
0.13894653 0.053593427 0.044144858 0.013780181 0.11928505 0.06470804 -0.089756764 0.35694483
0.3348755 0.05909131 0.003354144 -0.009624272 0.010964883 -0.08824562 -0.04921595 -0.046073083
-0.18359838 -0.067052335 -0.03485415 -0.16034426 -0.12965865 -0.16483203 0.05968817 -0.034628537
-0.24686238 0.08647809 -0.32191354 -0.47130343 -0.087907426 -0.08718231 0.07119303 0.013071131
-0.26140484 -0.35982543 0.2690924 0.095605426 -0.044569075 -0.17956077 -0.0396327 0.067172416
-0.18806902 -0.069012746 0.01476694 -0.015000655 -0.072444536 -0.064118914 -0.02838134 -0.1841733
-0.31355706 -0.03950918 -0.11066839 -0.26455942 0.15309103 -0.08031396 -0.18937685 -0.043081585
-0.35455635 -0.289101 0.0897224 -0.26493308 -0.25163978 0.32010603 0.10338481 -0.10178726
-0.007207165 -0.09468416 -0.00064360234 0.080849476 -0.051550984 -0.04254517 0.4317039 0.1853387
0.056225955 -0.22409226 -0.33171982 -0.058283195 -0.24927075 -0.42574793 -0.3677468 0.10955225
-0.2553644 -0.19763246 0.18150155 0.008451219 -0.030144963 0.1863052 0.024407538 -0.09353977
0.0344387 0.0037004696 -0.07297439 -0.11007287 0.05849247 0.06455059 -0.19958693 -0.0590138
0.1557632 0.0392765 -0.029087398 0.20221329 -0.042575985 -0.056879528 -0.1301693 -0.06365774
-0.098151036 -0.043246996 -0.16194813 -0.106197335 0.0914174 -0.047113877 0.05184861 -0.014354722
-0.0197271 0.10962099 0.033832513 0.002227119 0.046711143 -0.0042999517 0.06367828 -0.017832756
-0.08582419 0.10166523 0.052421536 -0.0863292 0.1334871 0.29242754 0.1011561 -0.2283084
-0.095858224 0.04297026 -0.103319176 -0.13730279 -0.050524022 6.521806e-05 0.035828356 0.007254248
-0.10376755 0.012445223 0.054603625 -0.050394285 0.041247115 0.07872676 0.002423443 0.09243739
-0.030734215 0.07533531 0.17898487 0.108842105 0.059080634 0.05687409 0.043623768 0.1597773
0.20167772 0.09290697 0.05152864 0.06346925 0.08937185 -0.011171754 0.08505465 -0.026447952
-0.061901964 -0.020861195 -0.057015408 -0.16187626 -0.05438183 -0.25981876 -0.034812022 0.0371006
-0.090798125 0.006663025 0.22815034 0.029926542 0.075152576 0.07970708 0.08304321 0.024843825
0.09516768 0.054234825 -0.09302055 -0.011521425 -0.015455844 0.031486817 0.046973407 -0.02992802
-0.036041044 0.28096673 0.28739673 -0.1741596 0.15634355 0.39312008 -0.28237066 -0.35588044
-0.10317193 -0.26219228 -0.30969533 -0.09387997 -0.33319148 -0.33615112 -0.17705755 0.004517089
0.029386543 0.06445881 0.031875573 -0.10021768 0.042855557 0.24998294 0.19091952 0.004716649
-0.20359278 -0.083920084 -0.003473538 -0.28401697 -0.29586312 -0.21929997 -0.08676185 -0.16638513
-0.053441547 0.026562288 0.1414654 0.1540906 0.103234395 0.11434202 0.11727028 0.107163034
0.20533001 0.14177653 0.044679184 0.07248242 0.06923474 -0.10999269 0.060766134 0.17805038
-0.122936666 0.103582926 0.10617881 -0.0431917 -0.012216107 0.2168034 0.10434907 0.089694135
0.040386718 0.22605243 0.12643039 -0.0872195 0.09278271 0.16300596 -0.0023073738 0.119840324

layer3.0.bn1.weight f4 [32]
00000000: 8b6f 5d3f 6a54 703f a391 bf3f 8b82 733f
00000010: d008 813f cc1b 793f 2d81 903f e433 413f
00000020: f949 753f b535 883f 41d7 433f 5297 473f
00000030: 278e 4d3f 23eb 953f 5404 823f ee85 863f
00000040: 51bb 1a3f d65d 193f b3b1 423f f79b 4a3f
00000050: f452 1a3f 6ded 693f 51a6 773f a28e 553f
00000060: 7098 723f 3740 623f 7622 5c3f a5a6 4c3f
00000070: fffb 523f dd55 7e3f 5e44 1b3f a299 793f
0.86498326 0.93878806 1.496632 0.9512107 1.0080814 0.9730804 1.1289421 0.75469804
0.95816 1.064139 0.76500326 0.7796527 0.8029503 1.1712383 1.0157571 1.0509622
0.6044207 0.5990881 0.760524 0.79144233 0.60282826 0.9137791 0.96738154 0.83420765
0.9476385 0.88379234 0.85990083 0.7994178 0.82415766 0.99349767 0.60651195 0.9750005

layer3.0.bn1.bias f4 [32]
00000000: fd07 23bd c768 0d3e b046 dc3d 628f ecbd
00000010: a2ff b5be 8ae1 2abe 0c24 91be 9188 9e3d
00000020: bae9 b0be f7cd dcbe f688 b9be 3dc2 163f
00000030: 0b57 3fbe b871 afbe 184e dabe 053d dfbe
00000040: 02c5 383f 5d43 013f 8e14 b4bd 1cb2 1ebe
00000050: c3c5 9a3e 223a babe 1073 76be 9bdd 3fbe
00000060: b15c 28be d3a1 f2bb dfa1 abbc c711 363e
00000070: 7334 eabc 6827 88be aacf 593f 0203 a1be
-0.03980254 0.138095 0.1075567 -0.115507856 -0.35546595 -0.16687599 -0.28347814 0.07740892
-0.3455332 -0.4312589 -0.36237305 0.58890134 -0.18685548 -0.34266448 -0.42637706 -0.43601242
0.7217561 0.50493413 -0.08792983 -0.15497631 0.30229005 -0.36372477 -0.2406733 -0.1873688
-0.16441609 -0.007404545 -0.02095121 0.17780219 -0.028589463 -0.26592565 0.85082495 -0.31447607

layer3.0.bn1.running_mean f4 [32]
00000000: 0e7b ecbf 6727 5b40 163d 4dc0 acb6 29c0
00000010: 7acd c7bf 6567 55c0 0a04 f8bf 9c6c 44c0
00000020: aa24 b43f b859 4ebd b84a 5e3f 8e1a 9c3f
00000030: 78b3 32c0 91a1 5bbf 9203 903f d77a ac3f
00000040: 1924 1040 e8fa a9c0 2c60 4cbe b2cd bc3d
00000050: 92d2 88c0 a1b2 53c0 a97a 7a3f 5648 5d3f
00000060: 9aae 94bf dc52 53c0 c012 5cc0 4606 87bf
00000070: 39ba 1840 ce69 693f 9fc9 dd3f db0a e33e
-1.8475053 3.42428 -3.2068534 -2.6517744 -1.5609581 -3.3344357 -1.9376233 -3.069129
1.4073689 -0.05037853 0.8683276 1.2195604 -2.792204 -0.85793406 1.125109 1.3474988
2.2522032 -5.311878 -0.19958562 0.09218921 -4.2757044 -3.3077776 0.97843415 0.864385
-1.1615784 -3.3019323 -3.4386444 -1.054879 2.3863661 0.9117707 1.7327155 0.4434422

layer3.0.bn1.running_var f4 [32]
00000000: b1df c240 4496 aa41 d2a0 6641 19c3 2141
00000010: 9c60 e640 2b17 0241 451a 1f41 8d4c 0a41
00000020: ad00 0141 2bc1 a540 7f22 8840 200d 5d41
00000030: b36a 9040 4fbb da40 d72c b740 aa77 8440
00000040: ab4e 2341 d8bf bf40 61e5 cc40 e942 9640
00000050: 582f cf40 d369 8d40 2990 9a40 078e bf40
00000060: b391 ee40 15f0 f440 ac89 f740 8060 db40
00000070: dcb5 0041 0606 9a40 d5a5 0c41 f086 a240
6.089806 21.323372 14.414263 10.110131 7.199293 8.130656 9.943913 8.643689
8.062665 5.17983 4.254211 13.815704 4.513025 6.835365 5.7242236 4.1396074
10.206706 5.9921684 6.4030004 4.6956677 6.4745293 4.419168 4.8300977 5.9860873
7.4552855 7.654307 7.7355556 6.85553 8.044399 4.8132353 8.790486 5.078972
