meta_results/meta_seed-3_metalr-1e-05_T-2_200_4-cycles_cifar100-ResNet10_smodel_best.pth.tar (torch, 909673 bytes, 128 tensors)

conv1.weight f4 [8, 3, 3, 3]
000000 8d 2a 2f be 76 37 7b be e6 13 90 3d 99 a9 a9 3e
       -0.17106076 -0.24532875 0.07035045 0.33137205
000010 19 c5 0b 3f f4 69 04 be 5d 69 ec 3d 74 72 04 3e
       0.5459762 -0.12931043 0.11543534 0.12934285
000020 ad 38 bf 3d 9b 35 b0 be 1a 91 f4 be 6d e3 dd bd
       0.09336982 -0.34415898 -0.47766954 -0.10834394
000030 ca 2c 4a 3e dd 4b 4f 3f df d6 8d 3d 11 8a 49 be
       0.19743648 0.80975133 0.06925749 -0.19681574
000040 c0 ef 43 be 2e 3b ce bd 26 4f c0 be 0e a9 8d be
       -0.19134426 -0.100698814 -0.37560385 -0.2766804
000050 33 6f 2f bd d4 67 4c 3e 0d 4a 45 3f a1 98 1b 3e
       -0.042830657 0.19961482 0.7706612 0.15194942
000060 b3 34 a1 3d 62 df ae 3e 40 b7 90 3d 5e 56 bc 3e
       0.0787138 0.34154803 0.07066202 0.36784643
000070 e7 56 b2 3e 0e fa 90 bd 71 77 64 3f 28 af 97 be
       0.34831926 -0.07078944 0.89244753 -0.2962582
000080 5d 55 ca bc 82 ef dc 3d ce 2e b8 bd 6a 7d bc bd
       -0.024698908 0.1078787 -0.08993302 -0.09203608
000090 ac 15 1b bf 9b 36 85 be 46 83 56 be a1 34 a2 be
       -0.60579944 -0.26018223 -0.20948514 -0.31680778
0000a0 26 79 b1 bf fe 8f e6 bc 01 c6 98 be 0d 3b a3 be
       -1.3865097 -0.028144833 -0.29838565 -0.3188099
0000b0 d4 da b1 3e 06 4f c1 3e ec 29 d7 3e ab 11 06 bc
       0.34737265 0.37755603 0.4202417 -0.008182923
0000c0 8e e4 4b 3f cc 8a bc 3d 0e 8a 13 3e 93 13 89 3e
       0.7964562 0.09206161 0.14408132 0.26772746
0000d0 96 4e ea 3d e0 df b9 bd 5a ad 1e 3d 0a 8c 3c bd
       0.1144077 -0.09075904 0.03873954 -0.04603199
0000e0 ff 33 21 3d 88 c4 b4 be 39 7d c8 bf 2c e4 aa be
       0.039356228 -0.3530619 -1.5663215 -0.33377206
0000f0 31 52 9b 3e bf d4 d2 3f fe 27 9c 3e 80 ef b3 3d
       0.30336145 1.6471175 0.30499262 0.087859154
000100 14 be a6 bd 23 02 d3 bc d2 fb 6a be b8 24 e0 bf
       -0.08141723 -0.025757855 -0.22947624 -1.7511206
000110 a3 7c 47 be 63 78 04 3e 88 1b db 3f 99 c6 ac 3e
       -0.19481139 0.12936549 1.7117777 0.33745268
000120 d1 96 1b 3c e9 7b 01 be 99 8e 5b bb 5a cb 25 be
       0.009496407 -0.12644924 -0.0033501743 -0.16190854
000130 b5 b8 92 bf 61 67 8a bd ff dc 56 3e ab 3c 8b 3f
       -1.1462618 -0.06757999 0.20982741 1.0877889
000140 60 1f a3 3d 94 f3 2d bf a8 10 02 3f 6e b0 5c 3e
       0.07964969 -0.67949796 0.50806665 0.21551678
000150 48 9e 1b bf 62 2b 9a 3f 7c 79 93 3f 42 b7 6e bf
       -0.60788393 1.2044489 1.1521449 -0.9324838
000160 f1 d3 40 3f 09 ba 55 3f 3f 63 97 3d 93 ff eb bd
       0.75323397 0.8348699 0.073919766 -0.11523356
000170 32 07 43 be c0 54 1c 3e ab 55 d1 be 2a 86 c5 be
       -0.19045714 0.15266705 -0.40885672 -0.38578922
000180 df 09 b5 3e ac 43 33 be 5a d6 80 bd 21 2b 87 3e
       0.35359094 -0.17506284 -0.06290884 0.26400092
000190 46 59 0b be 36 98 8c bd 5c 80 1c 3f b7 3e 50 bf
       -0.13608274 -0.068649694 0.6113336 -0.81345695
0001a0 b0 57 49 bf 80 16 42 3f 65 13 42 bf e6 a5 48 bf
       -0.78649426 0.7581558 -0.75810844 -0.7837814
0001b0 54 15 cf bc 7f 14 32 3e 05 70 93 3d 72 24 64 be
       -0.025278725 0.17390631 0.071991004 -0.22279528
0001c0 10 3a 4a bf 42 90 81 3d be 9c 62 3e 22 f1 03 be
       -0.78994846 0.06326343 0.22130105 -0.12884954
0001d0 34 4a 2c 3e c5 c2 ba 3d 37 10 9c 3c 7c 15 97 bd
       0.16825181 0.091191806 0.0190507 -0.07377145
0001e0 74 b3 26 be 38 b4 79 bf 9b a2 24 bd d6 d5 80 3e
       -0.16279393 -0.97540617 -0.040194135 0.25163144
0001f0 ee c6 a6 be 01 2f 16 3d 40 b1 ea 3c d6 e9 e9 bc
       -0.32573646 0.03666592 0.028648973 -0.028553884
000200 16 3b 24 3c 65 16 b8 be 67 e0 78 bf cc dd d4 bd
       0.010023853 -0.35954586 -0.9721741 -0.10393867
000210 64 14 a5 3d 7b da b6 be ac 2c 17 3b 0e a8 93 3d
       0.0806053 -0.35713562 0.0023067398 0.07209788
000220 7c 83 fa 3d 3f 61 2c 3c a2 c1 eb bd 55 1d 2a 3f
       0.1223211 0.010521232 -0.11511542 0.6645101
000230 ad 52 4a 3e 0c ff 79 3d b9 10 6f 3e 94 6f bf 3c
       0.19758101 0.061034247 0.23346223 0.023368634
000240 77 7d 0c 3d 5b 35 2d 3e 8d 32 42 3d f6 9d 9e be
       0.03429934 0.16914885 0.04741149 -0.3097989
000250 b6 0f 57 3f 9f 03 7f 3e db 2c 9c 3d e9 33 8c 3e
       0.8400835 0.24903725 0.07625743 0.27383354
000260 6a 81 74 bd 02 16 1f bd d0 04 d0 3d 9a 7d df bd
       -0.05969373 -0.038839348 0.10157168 -0.109126285
000270 b4 d1 80 be a8 f9 29 3f 09 23 2e 3e b9 2b ec bd
       -0.2515999 0.6639657 0.17005552 -0.11531777
000280 bb 68 da 3d 02 6e d8 bd 62 ad ed 3b 50 bb 61 3e
       0.10664507 -0.10567857 0.007253335 0.2204411
000290 44 ca 02 be 42 f5 8a bf 89 71 92 3f 68 66 1a 3e
       -0.1277247 -1.0856097 1.1440898 0.15078127
0002a0 10 c9 10 be ae 8d b2 3d e5 5c ff 3b 46 92 58 be
       -0.141392 0.087184295 0.0077930563 -0.21149549
0002b0 a4 50 9a 3e 30 79 52 bd 16 47 e6 bf d5 14 c6 3f
       0.3013965 -0.051385105 -1.7990444 1.5475107
0002c0 5a 7d b4 3d a7 55 2a bd 2b d3 77 3e 6b 29 19 be
       0.088129714 -0.04158559 0.24201648 -0.14957206
0002d0 f9 d2 0c 3d 70 59 69 3e 0f 46 82 be 95 a4 a1 bf
       0.034380887 0.22788024 -0.25444075 -1.2628351
0002e0 f5 a2 9b 3f 19 b4 fc 3d 6c a1 90 be b7 01 b9 3d
       1.2159106 0.123390384 -0.28248155 0.0903353
0002f0 aa 27 58 3c 81 65 bf 3e c6 34 de 3c ee 8b f4 3d
       0.01319305 0.3738213 0.027124774 0.11940752
000300 9d b9 0d be 96 30 38 3c 51 f7 b9 be 55 a3 13 3e
       -0.13840337 0.011242053 -0.363215 0.14417775
000310 3f 84 e9 be 3d d2 ab be b4 eb 45 bf 4c 0a ff be
       -0.45608708 -0.33558837 -0.7731278 -0.49812543
000320 63 8c 1b be 69 1a 28 bf c1 32 ae 3f 54 81 f3 3e
       -0.15190272 -0.656653 1.3609239 0.47559607
000330 9a f8 3d 3b 79 b1 d0 3e 8b a6 9a 3f 6e f3 0b 3f
       0.002898729 0.407604 1.2082075 0.5466832
000340 68 df d3 3d c9 bc 47 3e 6f 0a 67 3e f6 97 7e 3e
       0.10345346 0.1950561 0.22562574 0.24862656
000350 60 f1 4d bf d8 73 51 3e 82 4c 79 bf 8f 04 17 bf
       -0.80446434 0.20454347 -0.97382367 -0.5899133

bn1.weight f4 [8]
000000 c5 96 eb 3e c4 08 f4 3e 6b 18 38 3f c1 40 b5 3e
       0.46013466 0.47662938 0.7191226 0.35400966
000010 e9 3a c3 3f a2 ba 04 3f de 1a 1c 3f 97 07 ba 3e
       1.5252353 0.5184728 0.60978496 0.36333916

bn1.bias f4 [8]
000000 3a d7 51 3f 5d b4 8d 3e 48 15 37 3e 61 50 29 3f
       0.81969035 0.2767667 0.17879212 0.66138273
000010 01 7e c8 bf 72 af 35 bf 6d ef 8f 3e 8c 0a ef 3e
       -1.5663453 -0.70970833 0.28112355 0.46687734

bn1.running_mean f4 [8]
000000 1c dc d6 be 22 18 15 3e 7a 89 22 3d ee aa 89 be
       -0.41964805 0.14559987 0.03968189 -0.26888222
000010 7a 4f 8a 3f 88 23 8e bf af 1a 9e bd fc e9 3f bd
       1.0805504 -1.1104593 -0.07719933 -0.046854004

bn1.running_var f4 [8]
000000 68 7b 5b 40 f2 bc b6 3f 3a b2 ff 40 89 6e 1b 40
       3.4294071 1.4276412 7.990506 2.4286215
000010 26 b0 5c 41 b9 89 30 41 52 4c b0 40 32 73 ff 3e
       13.793005 11.033624 5.5093164 0.49892575

layer1.0.conv1.weight f4 [8, 8, 3, 3]
000000 fb 60 80 3d 4d 06 09 be 5b 2c b2 bd 87 cd 36 3e
       0.062684976 -0.1338131 -0.086998664 0.1785184
000010 60 82 05 3f d7 62 e6 be 3b 5a 3d be 2f 14 59 3e
       0.5215206 -0.44997284 -0.18491451 0.21199106
000020 1c ad 7c bd 05 41 2a be 0e f7 d1 3d 79 08 eb 3b
       -0.061688527 -0.16626365 0.102522 0.007172641
000030 89 2e c6 3d f0 47 3f be 36 52 41 3e fd 78 57 3d
       0.096768446 -0.18679786 0.18879017 0.052605618
000040 80 e7 b0 3c e4 28 97 be 92 de b6 bd 9b 7b 87 3e
       0.021594763 -0.29523385 -0.08929171 0.2646149
000050 35 f2 4f bd 8d fe 96 3d ba 84 0a bf 30 6d c4 3e
       -0.050768096 0.073727705 -0.54108775 0.38364553
000060 2c 2b d3 3d 4b 86 3f bb 1b 0a 8c bd ea 7c a7 bc
       0.10310969 -0.0029224332 -0.06837865 -0.020445306
000070 8a 93 98 3d 7e 35 45 bd a6 e8 15 3c de 69 5c 3e
       0.07450016 -0.048146717 0.009149706 0.2152476
000080 72 7f 35 3e 1b 62 17 bd 5c cd a8 bc 74 f6 c2 bd
       0.17724398 -0.036958795 -0.020605735 -0.095196635
000090 46 f9 59 3d 48 6e 89 be 9b a5 6e 3e f3 c4 c9 be
       0.05321624 -0.2684195 0.23305361 -0.39408073
0000a0 43 3b 56 bf 9c 12 32 3e dc c4 4e 3e 36 c4 ca 3d
       -0.83684176 0.17389911 0.20192283 0.099007055
0000b0 c5 3e 87 3e e7 b7 22 3e 01 01 16 3d a4 33 f4 ba
       0.26415077 0.15890466 0.03662205 -0.0018631113
0000c0 f8 68 a5 3e f9 c8 4f 3d dd 7c 92 be 4e 4a 68 bc
       0.32306647 0.05072877 -0.28610888 -0.014177872
0000d0 bb 82 f1 3d 2e 54 a5 3d 38 97 93 3d dc ee f1 bd
       0.11792513 0.080726966 0.07206577 -0.11813137
0000e0 63 ee 61 be ae ef b7 bd ab ab d4 3d 15 d1 da bf
       -0.22063594 -0.08981262 0.103843056 -1.7095057
0000f0 33 af ee 3b 7c 00 b7 3d 0b dc 6e be db 30 c0 bc
       0.007284069 0.08935639 -0.23326127 -0.023460796
000100 0d a7 82 be cc bb 3e 3e 4d e3 b4 3d 80 32 a4 3e
       -0.25518075 0.18626326 0.08832417 0.32069778
000110 a0 10 bb be 93 d2 64 bc e9 92 a9 bb fa ba 99 3d
       -0.3653612 -0.01396622 -0.0051749838 0.07506366
000120 ef d4 9c bd 3c f8 85 3d 68 a6 28 3d f2 4f 86 be
       -0.07657801 0.065414876 0.041174322 -0.26232868
000130 9f 98 2f 3d 74 b5 ee 3d a1 3e 95 bd 40 7b 48 3e
       0.04287016 0.11655703 -0.07287336 0.19578266
000140 52 07 c0 3d 6c f5 8b 3c 2f 20 0e 3e 3c 3c 0b bd
       0.09376396 0.0170848 0.13879465 -0.03399299
000150 87 74 af 3d b5 e9 3c be dc 53 e1 bc 81 29 de bd
       0.08567148 -0.18448527 -0.027505808 -0.1084776
000160 f4 c4 64 be 8c da 3a 3d 3a 98 ea bd 51 9d 79 be
       -0.22340757 0.04561858 -0.11454816 -0.24376418
000170 34 26 9a 3b 74 4f 70 3e 6a f8 c7 3e 15 c1 76 3d
       0.004704261 0.23467809 0.39056712 0.06024273
000180 40 fb d3 bd c2 07 21 3a 87 1f 49 be 76 a3 b9 3c
       -0.103506565 0.00061428186 -0.19640933 0.022660952
000190 14 a8 e7 3d eb 92 a1 3c 87 16 58 be 5f bf dd bd
       0.11311355 0.019723376 -0.21102343 -0.10827517
0001a0 ad 83 a6 bd 10 3f 9a 3c 45 53 99 3d 98 bb 7c 3d
       -0.08130584 0.018828899 0.074865855 0.06170234
0001b0 88 a9 dd 3e 6b c6 a8 bd 84 e1 16 bd 46 cd f8 3e
       0.43293405 -0.0824097 -0.036836162 0.4859411
0001c0 77 d1 dd bc 1f 97 c3 bd 13 5b ab 3e 8a df d2 be
       -0.02707742 -0.095503084 0.33467922 -0.41186172
0001d0 f4 9c aa be 2c ad 75 bd 98 4f 37 3e 6d 17 27 bd
       -0.3332287 -0.059979603 0.17901456 -0.040793825
0001e0 3d 12 62 bd a8 5d 6f 3d 68 50 20 be 37 9b 8a be
       -0.055193175 0.058438927 -0.15655673 -0.27071545
0001f0 d8 46 af 3c 80 b6 02 be 59 0c 4a bd 5b 09 80 3e
       0.021396086 -0.1276493 -0.049328182 0.25007138
000200 69 36 c7 bd fc 85 78 bd f5 41 d9 3d 3b 81 09 be
       -0.09727175 -0.060674652 0.106082834 -0.13428204
000210 6d 5b da be 9b a2 75 bd 2b b7 b4 be 34 9b 3a bd
       -0.42647877 -0.059969526 -0.35295996 -0.04555817
000220 08 c8 34 bd cb 43 c2 bd 1a 94 97 bd 70 05 b7 3c
       -0.044136077 -0.09485587 -0.07401295 0.02234146
000230 37 c5 e8 3d e3 c0 bd 3d 52 f3 e8 bc aa 0b 2e bd
       0.11365741 0.09265306 -0.028436337 -0.042491592
000240 15 bd 65 bc 01 b0 c5 be 82 f9 6e 3d 64 cb f1 3c
       -0.014022131 -0.38610843 0.058343418 0.02951593
000250 e3 db cb bd 05 0d ec 3d 01 41 56 3b d6 2b 58 bc
       -0.099540494 0.11525921 0.0032692554 -0.013194045
000260 68 a5 a1 3e 78 e1 ce 3d b1 c2 c9 be d2 94 fb 3c
       0.31571507 0.101015985 -0.3940635 0.030710611
000270 3d 5d eb bd e1 aa 43 bf 68 34 93 be af 24 9e 3e
       -0.11492393 -0.76432616 -0.2875092 0.30887362
000280 00 28 90 bd 93 0f 73 3e 6f 97 c6 3c 94 ce 1e 3e
       -0.070388794 0.2373641 0.024242131 0.15508491
000290 b7 c2 d2 bd 57 38 1d 3e 4e 99 cf bd 1f 71 22 be
       -0.10291045 0.15353523 -0.101366624 -0.15863465
0002a0 dc 6f 06 bd a4 67 64 3c bb 30 da 3a b8 1e aa 3c
       -0.03282152 0.0139407255 0.0016646603 0.020766601
0002b0 c3 ac 52 be b9 d3 a4 bd dc b7 44 bd ba 37 63 be
       -0.20573716 -0.080481954 -0.048026904 -0.22189227
0002c0 69 67 28 3d 98 36 0e be c2 97 b8 bc fb c8 d6 3e
       0.041114245 -0.13888013 -0.022533301 0.4195021
0002d0 96 99 9f 3d 55 fc 1a be 32 51 ee 3d 9b 7a 83 bd
       0.07792966 -0.1513532 0.116365805 -0.064198695
0002e0 8c 95 56 be 4e 1f 52 3d 38 5d 47 3d 18 4a 94 3d
       -0.20955485 0.051299386 0.048672885 0.07240695
0002f0 a7 8d 20 3e c3 3b 08 be 60 b0 05 be 3e 57 f3 bd
       0.15679036 -0.13304047 -0.13055563 -0.118818745
000300 55 31 14 39 f2 dd 5a bd 6c c9 a2 bd 98 11 d6 3d
       0.00014132757 -0.05343432 -0.079485744 0.104525745
000310 44 8b 1a bc 10 5c c3 bc 76 8c 6f be 32 72 1b be
       -0.009432618 -0.02384761 -0.23393425 -0.15180281
000320 c2 a7 37 bd 99 28 4c 3b a9 46 7d bb 48 39 22 be
       -0.04483772 0.0031152128 -0.0038646853 -0.15842164
000330 c2 94 3b 3e 92 bd 12 be 5a 21 8d bd ee 20 38 3f
       0.18318465 -0.14330128 -0.06891127 0.71925247
000340 31 99 3c 3e 4b 87 93 bd 06 0c 11 3e b6 03 b7 bc
       0.18417813 -0.072035395 0.14164743 -0.022340637
000350 c7 60 33 bf f7 1b 96 be 62 ac 09 bf df 4b 17 bf
       -0.70069546 -0.2931821 -0.5377866 -0.59100145
000360 26 e0 0f be a9 0a e9 3e d4 39 38 3d a1 8e a4 3e
       -0.1405035 0.45515946 0.044977024 0.32140067
000370 6f 12 fd be 9d 67 9a be 38 cb c2 bd b6 a0 eb 3d
       -0.49428126 -0.30157176 -0.09511417 0.115052626
000380 fe 59 bd 3d 2e 9e 5a 3d 01 10 34 be 4e 48 b6 3e
       0.0924568 0.05337351 -0.1758423 0.3560204
000390 37 a6 2a 3c 0e 32 3e 3e fa ac f6 be c9 ad 78 3b
       0.010415605 0.18573782 -0.48178846 0.003794538
0003a0 77 9c e7 bb 10 14 d4 3c 45 9a e6 be bf 60 0f c0
       -0.0070682126 0.025888473 -0.45039573 -2.24028
0003b0 33 cc 79 be 02 22 ae 3d 42 1a 3c be 99 32 3e 3e
       -0.24394302 0.0850258 -0.18369392 0.18573989
0003c0 52 65 c4 3d 91 f9 17 3d 8e ff eb 3c 71 af 5a 3d
       0.09589638 0.03710324 0.028808381 0.05338997
0003d0 c1 57 5a 3e cd ce 9b bd b0 d8 80 3d df ad 89 3d
       0.21322538 -0.076078035 0.0629133 0.067226164
0003e0 93 12 8f 3d 6e a3 8c bd 2c 05 d7 bd 48 66 c2 bd
       0.069859646 -0.06867109 -0.10499033 -0.09492165
0003f0 ad 7a 3d 3d 0f bc f0 be a9 54 1e 3d 2e 1f 9e 3d
       0.04625957 -0.47018477 0.038654957 0.07720791

layer1.0.bn1.weight f4 [8]
000000 9b c9 54 3f f5 86 19 3f ba 39 ea 3e bb ce 8a 3f
       0.83120126 0.59971553 0.45747167 1.0844339
000010 b0 fa a9 3e e3 04 c7 3e 44 4a b0 3e 72 58 8e 3f
       0.33199072 0.38870916 0.3443166 1.1120741

layer1.0.bn1.bias f4 [8]
000000 b9 bc 5a 3e 86 f6 6a be 7f 1b c3 bd a7 54 20 3e
       0.21361054 -0.22945604 -0.09526729 0.15657292
000010 2e 5c a1 3d 71 4f a3 3e 76 4b 46 3e ea 36 b3 bf
       0.0787891 0.31896546 0.19364724 -1.4001133

layer1.0.bn1.running_mean f4 [8]
000000 77 f7 0e bf 18 90 ab be 81 d4 a5 bf ca fe 1f bf
       -0.5584635 -0.33508372 -1.2955476 -0.6249815
000010 3d d8 ac bf 24 1e 2e bf 5e c4 23 3e dd 17 8d be
       -1.3503491 -0.6801474 0.15992877 -0.2755727

layer1.0.bn1.running_var f4 [8]
000000 da 25 9a 3f 75 9b c0 3e 99 d5 cf 3e 19 32 14 40
       1.2042801 0.37618604 0.4059265 2.3155577
000010 a5 97 94 3e 10 53 32 3f c5 e6 6b 3e e4 41 bb 3e
       0.29021946 0.69657993 0.2303725 0.36573708

layer1.0.conv2.weight f4 [8, 8, 3, 3]
000000 9a 75 20 3e 8e 83 3e bd d3 63 e2 3b 3d fd 0e be
       0.15669861 -0.04651218 0.0069088726 -0.1396379
000010 f0 7f e5 3d 68 89 3a 3e a1 d7 d0 bd fa fb 28 be
       0.11206043 0.18216479 -0.10197378 -0.16502371
000020 4d b0 21 3d dd cb 4c be fd cf 73 be 4e ab 7a be
       0.039474774 -0.19999643 -0.2380981 -0.2447941
000030 c2 80 0a 3e f8 6a 4e 3e 53 38 03 3e 6e 57 39 3e
       0.1352568 0.20157993 0.12814455 0.18099758
000040 fa 59 0b 3e ae dc f3 bd e7 aa 8b b9 21 7e b8 bd
       0.13608542 -0.11907326 -0.00026639478 -0.09008432
000050 8d ee a4 3d 35 19 85 3d 55 6d 96 bd 5c 54 87 bd
       0.080533125 0.064989485 -0.07345072 -0.06607887
000060 2e f7 4e bc b1 2f ee bd 8d bb 5c be 3a 1b fa bd
       -0.012632174 -0.1163019 -0.2155592 -0.12212224
000070 65 3f b5 3c 4e 79 7c bc 62 f2 c1 be 8e 6f 1f bf
       0.022124955 -0.015409781 -0.37880236 -0.62279594
000080 14 88 1c be 8f 77 03 3d 5f c8 6b bd d9 6a 56 3e
       -0.15286285 0.03209644 -0.057564136 0.20939197
000090 9b 56 7a bd 3a a5 8b 3d 57 3f 94 bc f1 41 f4 3c
       -0.06111775 0.06818624 -0.018096609 0.0298166
0000a0 8b da 6b 3e 73 8f 48 3d 25 7b 87 3d 90 ed 8f 3d
       0.23032586 0.04896493 0.06615285 0.07027733
0000b0 a0 eb 1f be c6 a6 7d 3d 43 f9 39 be 6e 3e 93 be
       -0.15617228 0.061926626 -0.18161492 -0.28758568
0000c0 dc 33 9a 3b 3e ba f2 3d e5 88 bf 3e 07 7d a8 3c
       0.004705889 0.11851929 0.3740913 0.02056743
0000d0 f9 18 84 3e b7 86 42 3e 9b d4 33 be 72 fa d8 bc
       0.25800303 0.18996702 -0.17561571 -0.02648661
0000e0 bc 99 fc 3c 25 22 b6 3d 6d 80 32 3e 5b 52 de 3d
       0.030835025 0.08893231 0.17431803 0.10855552
0000f0 87 54 f9 3d 29 04 c1 3d 6f 96 18 be e7 05 d6 3d
       0.121743254 0.094246216 -0.14901136 0.104503445
000100 40 07 f8 bd b8 40 4f 3d fe 67 e5 3d 22 1f eb be
       -0.12110758 0.05059883 0.112014756 -0.4592219
000110 a7 d9 2c 3e 38 fd cd be 12 df 5c bf 3c 83 83 be
       0.16879903 -0.40232253 -0.8627788 -0.2568606
000120 a3 63 04 bd 88 8f 50 3e f1 8a 25 3d d4 c2 ae 3e
       -0.032321583 0.20367253 0.040415708 0.34133017
000130 44 6e 13 bc 9c 00 c9 bd 6d 46 2d 3e 59 de 04 3b
       -0.008998457 -0.09814569 0.16921397 0.002027413
000140 a0 d2 57 bd e2 c3 5c 3d a4 c6 07 be 43 46 57 3d
       -0.052691102 0.053897746 -0.13259369 0.05255724
000150 64 4b 24 3d eb ea 85 be 04 d4 2e 3e 29 d6 96 bd
       0.04011096 -0.2615579 0.17073065 -0.073650666
000160 15 14 31 be 69 c4 ba 3d ca 82 85 3e e8 f5 d0 3d
       -0.17292817 0.091194935 0.26076347 0.10203153
000170 96 49 2c be a9 d2 b4 3e 6b 08 a2 3d fc 59 c3 3d
       -0.16824946 0.3531697 0.07911762 0.095386475
000180 4c 07 77 bd 8c 73 9d bd c3 a1 4b 3c 66 fd f8 3a
       -0.060309693 -0.076880544 0.012428704 0.0018996417
000190 63 e5 ca 3d 1b 16 8c bb ce f0 e6 3c e0 d9 9d 3e
       0.09907033 -0.004275096 0.028190996 0.30830288
0001a0 de 32 25 be 3a 19 42 3e 87 93 a7 bd 65 f7 cc bd
       -0.16132686 0.18954936 -0.081824355 -0.10008124
0001b0 f1 1a f2 bd 99 bf 03 3c 8f 43 4e 3e 58 83 e3 3d
       -0.11821545 0.008041286 0.20142959 0.11109036
0001c0 60 39 46 3e d5 f3 a1 3e 07 4c 64 be 80 0e fa bd
       0.19357824 0.31631342 -0.22294627 -0.12209797
0001d0 01 40 52 be 58 96 41 bd d9 81 5d bd be 26 27 3e
       -0.20532228 -0.04726252 -0.05407891 0.16323373
0001e0 82 f6 8c bc 8f 4a f4 be e2 50 eb 3b 55 a6 45 be
       -0.017207388 -0.47713134 0.007181273 -0.19301732
0001f0 52 27 09 be fd fa 09 bd c6 ff 01 bd 13 36 04 3e
       -0.13393906 -0.033686627 -0.031738065 0.12911253
000200 e9 d9 b7 bd 4b 58 65 3e 82 17 7e be 46 ea 68 bd
       -0.0897711 0.22396962 -0.24813655 -0.056864046
000210 77 aa 88 3e 1c 71 ed bd c7 ec 39 3d a6 f3 24 3e
       0.26692554 -0.115938395 0.045391824 0.1610857
000220 46 1c 90 3e 15 b2 0b bf 09 72 f7 3c 1f f4 21 3f
       0.2814657 -0.54568607 0.030205743 0.63263124
000230 ae f5 8a be bb 50 4d be 6d c0 ef 3e 67 35 0a bf
       -0.27140564 -0.20050327 0.46826497 -0.53987736
000240 28 91 96 3e 6f 02 79 bc 8f 1c fe bd 5d 3f 5e 3f
       0.2940762 -0.015198334 -0.12407791 0.86815435
000250 a1 c0 0d bf a0 3d dd bd 57 0b a6 bf cf 39 1f 3f
       -0.55372053 -0.1080277 -1.2972211 0.62197584
000260 04 f5 36 3e a2 02 05 be 56 ff 38 3e c7 47 28 be
       0.17866904 -0.12989286 0.18066153 -0.16433631
000270 54 30 40 3c d5 00 9a bd 21 2c 5a bf 9b 55 88 bd
       0.011730272 -0.0751969 -0.85223585 -0.06656953
000280 e1 ad 38 3c 8b d6 63 bd c1 05 44 bd 8f 03 6d bb
       0.011271925 -0.055624526 -0.04785705 -0.0036165451
000290 ba 04 29 3c a6 18 23 3e 9b f3 34 be dd 81 fb 3d
       0.010316068 0.15927371 -0.17671053 0.12280629
0002a0 cf 41 a3 bd 09 15 e2 3d 2d 7b e8 bd 6c 81 04 be
       -0.07971536 0.110391684 -0.11351619 -0.12939996
0002b0 cd 78 78 3e c5 dc ce bc d8 01 bb be ba f4 c0 3e
       0.24264832 -0.025251755 -0.36524844 0.37686712
0002c0 e9 8d 9e 3d 64 5f a7 3f 16 ff c4 bf 6b 2d cd 3d
       0.07741911 1.3075986 -1.5390346 0.100184284
0002d0 43 07 48 be 1c e0 1b be e2 26 8c 3e cd f7 80 39
       -0.1953402 -0.1522221 0.27373415 0.00024598688
0002e0 97 0f 50 3c 3e 6a e4 bc 6d 53 13 3d 1f cd cd 3e
       0.012699029 -0.027882691 0.035968233 0.40195557
0002f0 7c a1 bc be 42 36 0c 3f 5c c2 fa be 7d 40 11 3e
       -0.36841953 0.5477029 -0.4897641 0.14184757
000300 66 10 24 be 14 8c 60 3d f1 19 54 be 42 6a e9 be
       -0.1602188 0.05482109 -0.20713021 -0.4558888
000310 2a 85 32 3f 65 13 49 3e ca 69 46 be 42 da 3d 3e
       0.6973444 0.19636305 -0.19376293 0.1854029
000320 5c 59 8b bb c6 75 8a 3e d9 4e 23 bf 75 17 25 3e
       -0.004252596 0.2704298 -0.63792187 0.1612223
000330 e2 05 74 be 2b 6d 82 3e 01 82 40 3c c2 00 47 bd
       -0.23830369 0.25473914 0.011749745 -0.048584707
000340 2c 47 32 3d 7e 9b 16 3e bc 54 53 be be 72 73 bd
       0.043524906 0.14707753 -0.20637792 -0.0594356
000350 14 c6 ed bd 35 c9 3f 3c 7d 68 b6 bd f4 4d 58 bd
       -0.11610046 0.011705686 -0.08906648 -0.052808717
000360 fc 07 18 be 1d a0 e3 3d 0c 45 85 bd 53 a6 ad 3d
       -0.14846796 0.111145236 -0.0650731 0.084789895
000370 34 f9 9a 3b 07 7d af bd a0 f8 28 3e ed 24 e6 bd
       0.0047294144 -0.08568769 0.16501093 -0.11237512
000380 6a 41 d1 bd a1 d1 94 3d ca 59 f3 bd ca 60 15 bd
       -0.10217555 0.07266546 -0.1188236 -0.03646926
000390 44 39 dc 3d de c0 83 bd 17 c1 10 3e 48 7c a9 bb
       0.1075311 -0.06433271 0.14136158 -0.005172286
0003a0 21 8d b3 bd 2d 1f 9a 3d 2f cd d5 3d a3 b2 ad 3b
       -0.087671526 0.075254776 0.10439526 0.005300836
0003b0 ab 25 05 be de c5 19 3d 19 18 01 3e 08 2b 34 3e
       -0.1300265 0.037542216 0.12606849 0.1759454
0003c0 da c6 18 be c0 f4 6c bd f0 13 c1 3d 9b 7b 23 be
       -0.14919606 -0.0578506 0.09427631 -0.1596512
0003d0 4a aa f4 bc 1b 3e 4a 3e ee d1 a4 bd 65 51 96 bd
       -0.029866356 0.19750254 -0.080478534 -0.073397435
0003e0 75 55 3d bd bc f2 41 3c b8 da 5e bd 1d 73 b1 bd
       -0.046224076 0.011837658 -0.054407805 -0.08664534
0003f0 5a 93 6e bc 11 26 8a be f9 90 af bd 1c 99 f1 3c
       -0.014561499 -0.26982167 -0.08572573 0.029491954

layer1.0.bn2.weight f4 [8]
000000 54 23 00 3f 63 84 0b 3f 44 44 be 3f 2a 3c dd 3e
       0.50053906 0.5449888 1.4864583 0.43209964
000010 30 25 12 3f b4 2c 41 3f d4 6f 4a 3f f1 af b5 3e
       0.57087994 0.75458837 0.79076886 0.35485795

layer1.0.bn2.bias f4 [8]
000000 8a e3 a2 3e ae b7 e9 3e a5 f8 e7 be 36 b7 18 3e
       0.31814224 0.4564795 -0.45306888 0.1491364
000010 4c 89 0c 3f 7c 9a 7d 3f 02 b2 e3 3e f8 b0 e4 be
       0.54897 0.9906385 0.44471747 -0.44666266

layer1.0.bn2.running_mean f4 [8]
000000 4d 55 aa be 58 d9 e4 3d 76 3b ec bd 44 3a 0c bf
       -0.33268204 0.111742675 -0.11534779 -0.54776406
000010 4c 88 bb 3e 76 ee fa 3e 1f c1 17 bf 7d 3b 50 3d
       0.36627424 0.49010056 -0.59279054 0.050837982

layer1.0.bn2.running_var f4 [8]
000000 2e 67 08 3f 08 ba 7b 3e d3 b0 67 3f f3 6a 79 3e
       0.5328244 0.24582684 0.9050419 0.24357204
000010 89 76 8c 3e 40 5f de 3e 18 a8 96 3e ca f2 0c 3e
       0.27434185 0.43432045 0.2942512 0.13764492

layer2.0.conv1.weight f4 [16, 8, 3, 3]
000000 e2 05 8a bd c6 06 19 3e f6 b8 82 3e 86 b7 5d 3c
       -0.06739403 0.1494399 0.2553174 0.013532525
000010 38 22 d1 3d a1 b1 f5 3c 13 ac 4e 3e de 96 f9 3e
       0.10211605 0.029991927 0.20182829 0.48747915
000020 f2 54 5b 3e f0 1e 4d bd d9 ba 9e 3d ed 5f 0d bd
       0.21419123 -0.050078332 0.07750482 -0.03451531
000030 c9 44 55 3c f8 d7 1e 3d 40 32 e9 3d b6 7b e6 3d
       0.013016888 0.038780183 0.113865376 0.11254065
000040 1a c6 4c 3e ef a9 d1 3d e9 d4 36 3d 39 f7 b1 3d
       0.19997445 0.102374904 0.04463664 0.08689732
000050 dc 8b d1 3d ee 23 1e 3e 3c fd a9 3e 61 f9 88 3e
       0.10231754 0.15443394 0.33201015 0.2675276
000060 2c 84 6e 3e 00 5e a7 3e b7 2d 24 3e c3 d7 bb 3c
       0.23292607 0.32688904 0.16033064 0.022930032
000070 1b 79 08 3e 5a e9 3a 3e 40 36 27 be 70 99 bf 3b
       0.13327448 0.18253079 -0.16329288 0.0058471486
000080 1e a0 3c 3e ef 56 37 be b8 b2 36 3d d6 e4 42 3e
       0.18420455 -0.17904256 0.044604033 0.19032606
000090 70 f7 41 3d 38 5d 67 bc 9a e6 b3 3d 61 eb 55 3e
       0.047355115 -0.014121346 0.08784218 0.20890571
0000a0 1b de b0 3e 88 2a 06 3e 93 23 91 3e 52 8b 05 3f
       0.34544453 0.13102162 0.28347453 0.5216571
0000b0 b7 46 87 3e 0e a7 58 bc b0 1f 31 3d 88 8a 01 be
       0.2642114 -0.013223423 0.04324311 -0.12650502
0000c0 12 99 23 be 55 ee b0 bd bd f0 14 bd 8f 91 a6 3d
       -0.1597636 -0.08639208 -0.0363624 0.08133232
0000d0 96 c7 08 3d 1d c5 e9 bd a0 8d 9f bd a0 6e 72 3c
       0.033393465 -0.114145495 -0.07790685 0.014796883
0000e0 40 dc 27 3d 9e 77 27 bd 66 8e a2 bd 97 d6 6f bd
       0.04098153 -0.04088556 -0.079373166 -0.05855426
0000f0 89 d3 9b 3e 55 5d 22 bc 36 39 9c be 0f 6b 60 bc
       0.30434826 -0.009909947 -0.30512398 -0.0136974
000100 18 52 16 bc 0f 2d a1 3b ab 89 2c 3d 09 75 b5 3d
       -0.009174846 0.0049187015 0.042123478 0.08860213
000110 94 f3 27 bc 3a 53 78 3d e8 60 8b bc 46 ed 30 b9
       -0.010250945 0.060626246 -0.017013982 -0.00016873059
000120 80 73 cd 3e 50 08 8c 3e 6e fb de 3d cf 84 31 3e
       0.40127182 0.27350092 0.108878 0.17335819
000130 39 6e eb 3e b2 09 a0 3e d6 fb 15 bf 33 63 3e bf
       0.4598253 0.31257397 -0.58587396 -0.74370116
000140 5a e4 14 bf ac df 68 bd 98 5a e2 bd aa f8 c4 bc
       -0.58160937 -0.056853935 -0.11052436 -0.024044354
000150 7b 83 07 bd 24 1b 72 be ad f1 b1 bd 38 0e 2a 3e
       -0.033084374 -0.23643166 -0.08688674 0.16606987
000160 e2 a7 2a 3e 83 59 ab 3c dc 69 67 3b b1 af d1 ba
       0.16665605 0.020916706 0.00353109 -0.0015997795
000170 39 ec c0 3c 9b 89 4e bc a3 7b d7 bc 44 71 b9 bb
       0.02355014 -0.01260605 -0.026304072 -0.0056592543
000180 89 ca 2c 3d eb ba a0 ba 3d 1c 05 3c 9a 98 26 3d
       0.04218534 -0.0012262737 0.008124408 0.040672876
000190 d6 89 0b bd 49 73 5a bc 06 f6 81 3a f8 51 5e 3d
       -0.034066997 -0.01333315 0.000991524 0.05427739
0001a0 a3 79 b5 3d 1a 32 c3 bd fe a9 7b bd c9 6c a6 bd
       0.08861091 -0.095310405 -0.061441414 -0.08126218
0001b0 59 6c c5 3c 5e 49 1a bd 26 b5 9b bd 7e 25 c6 3d
       0.024099516 -0.037667625 -0.07602911 0.0967512
0001c0 f1 a1 8b 3e f0 8c e9 3c 6a dc ca be 61 ac 8d be
       0.2727199 0.028509587 -0.39621288 -0.27670577
0001d0 ed e5 f1 bd 8e f5 03 be 69 60 30 be 03 24 21 be
       -0.11811433 -0.1288664 -0.17224278 -0.15736394
0001e0 f3 23 e3 3e 67 ad 32 3f a8 6e 0c 3f ca 0a 84 be
       0.44363365 0.6979584 0.5485635 -0.2578948
0001f0 54 f8 17 bf df 53 3e be bb d4 f3 bd 25 52 96 bd
       -0.59363294 -0.18586682 -0.119058095 -0.073398866
000200 62 80 4c 3d 5a 6c f8 3d b3 ba 05 3d 24 74 81 3c
       0.049927123 0.121300414 0.032648753 0.01580245
000210 9c c9 82 bc 09 41 31 bd e0 3a ba 3c 05 24 9b 3d
       -0.015965275 -0.043274913 0.022733152 0.075752296
000220 08 77 0d 3d a4 81 18 3c 00 d3 58 3d e2 84 d2 3c
       0.034537345 0.0093082525 0.0529356 0.02569813
000230 f6 d9 a9 bc 67 91 a4 bd a0 9d dd bd 3e 48 ae 3c
       -0.020733815 -0.08035546 -0.1082108 0.021274682
000240 76 a4 11 bc 62 1e 12 be 92 47 7e bd c3 85 73 be
       -0.008889308 -0.14269403 -0.062079974 -0.23781495
000250 89 de 14 3e 81 95 20 3e 44 1c ae 3e cb 2e 25 3e
       0.14538015 0.15682031 0.3400594 0.16131131
000260 51 bd 88 bd f7 05 f1 3e c4 53 31 3e ff 15 16 be
       -0.06676734 0.47074863 0.1731711 -0.14656828
000270 3d 33 38 3e c9 7d f4 be 5a 3e 68 be 69 39 35 be
       0.17988296 -0.47752216 -0.22680035 -0.17697681
000280 9a 8b d3 be 73 f4 62 3c e6 75 98 3d 6a 9c 61 3d
       -0.41317445 0.013852227 0.07444362 0.05508081
000290 9d c2 26 bc e5 6a a4 3d 3b a2 10 3c 27 bc 8b bd
       -0.010178235 0.08028201 0.008827741 -0.068229966
0002a0 76 b3 67 3d c3 df d6 bd f3 e2 ea bd 0f ad 47 be
       0.05656763 -0.10491898 -0.114690684 -0.1949961
0002b0 9c 5b c8 3d 2a 8a 84 3b ed f1 b5 3c bf 46 50 3e
       0.09783098 0.0040447908 0.022210086 0.20339487
0002c0 eb 98 33 bc cc 0d 29 3e 42 3e e2 3d e4 00 9b bd
       -0.010961751 0.1650917 0.11047031 -0.07568529
0002d0 95 ed c3 3c 44 f6 84 be 9b e0 42 3d 6b 7d b5 be
       0.023916999 -0.25969136 0.04757748 -0.3544725
0002e0 69 f8 2e be a0 b2 cf 3d c3 a8 12 be 78 42 37 3e
       -0.17086948 0.10141492 -0.1432219 0.1789645
0002f0 7f 21 a8 3e 90 a8 50 be 8a a0 0b bc c7 50 e1 3d
       0.32838055 -0.20376801 -0.008522162 0.11001735
000300 96 b7 26 3d 10 be a1 3d d9 b7 9a 3d 5a a5 de 3d
       0.040702425 0.0789758 0.075545974 0.10871382
000310 15 36 be bc 10 83 d3 bd bb a0 24 be 3c 16 36 bc
       -0.023219148 -0.103277326 -0.16076939 -0.0111136995
000320 d2 26 81 3e 6a d1 6e bd 1b a9 15 3f 82 d7 bd 3e
       0.2522493 -0.05830518 0.5846116 0.37078482
000330 03 85 35 3e 2c 05 bb 3e 38 b1 1a bd 46 c5 97 bd
       0.17726521 0.36527383 -0.037766665 -0.07410674
000340 f5 ec 6d bc 94 dc e9 bb e5 83 bb bd 25 e8 a2 3d
       -0.014521827 -0.0071368907 -0.09156016 0.07954434
000350 0a 31 5c 3d 0a e9 3a bd f4 00 00 3d 33 b2 ab bd
       0.053757705 -0.0456324 0.03125091 -0.08383598
000360 a7 0c 44 be a7 de 98 bd 46 c2 0b 3e 15 a8 61 be
       -0.19145451 -0.074643426 0.13648328 -0.22036774
000370 95 ad 54 3d 63 d3 33 3e 9b 86 bc bd ec e3 92 3c
       0.051923353 0.17561106 -0.092053615 0.017930947
000380 d3 fe 1c 3e be 2b 5c bc 8e 1a 5f be 97 41 0f bd
       0.15331583 -0.013438163 -0.21787474 -0.03497466
000390 80 e1 34 be ee 25 5b 3d 5b d3 3b 3e fd 29 5d be
       -0.17664146 0.05350297 0.18342344 -0.21598049
0003a0 85 3c ec 3d db db 30 3e 8b 17 18 bc 68 22 14 bd
       0.11534981 0.17271368 -0.009282957 -0.036165625
0003b0 dd e3 86 bc e7 40 f8 bc 4e 4f 5c bd 32 21 69 3d
       -0.016466076 -0.030304385 -0.05378657 0.056916423
0003c0 b8 e4 12 bc dd af 6b 3c 8c 09 89 3d 12 6c c8 3e
       -0.008965664 0.014385191 0.06691274 0.3914495
0003d0 92 a9 20 3f d1 50 09 be c7 da 4e 3f b2 d2 94 3d
       0.62758744 -0.13409735 0.8080258 0.072667494
0003e0 5d 13 49 bf ef 96 69 3e 13 5d 12 bf b1 e6 0d bf
       -0.7854517 0.22811483 -0.5717327 -0.5543013
0003f0 e7 54 80 3c d9 62 c6 3d 43 f1 98 bd 84 67 e6 bd
       0.015665485 0.096868224 -0.07467892 -0.11250213

layer2.0.bn1.weight f4 [16]
000000 09 c4 c2 3e 36 76 2b 3f fd 31 18 3f d8 a1 07 3f
       0.38040188 0.6697725 0.59451276 0.5298133
000010 d6 aa 1e 3f f2 53 41 3f 50 41 ee 3e 78 82 c8 3e
       0.61979425 0.75518715 0.46534204 0.3916204
000020 bf 90 f8 3e a7 f7 b3 3f b5 1c 31 3f 3c 42 30 3f
       0.48547933 1.4059952 0.6918443 0.68851066
000030 1c 21 7b 3f 6e 19 e9 3e 9c e7 38 3f 13 cd ae 3e
       0.98097396 0.45527214 0.7222841 0.34140834

layer2.0.bn1.bias f4 [16]
000000 be ff 0c 3f 46 d3 81 bd 45 2d 17 3d b3 c3 37 bd
       0.5507773 -0.06339125 0.036908407 -0.044864368
000010 f7 5e 26 bd 14 72 14 be e8 28 85 3e 86 be 29 3f
       -0.04061791 -0.14496642 0.26007771 0.6630634
000020 e3 8a 3b 3e 27 b9 4b bf 98 0f d8 bd 9e 4f 4c bd
       0.183147 -0.79579395 -0.10549849 -0.049880616
000030 ee 1f 4c bf 77 a7 28 3f 31 a3 c0 bd 78 74 0d 3f
       -0.7973622 0.6588053 -0.09406126 0.5525584

layer2.0.bn1.running_mean f4 [16]
000000 10 bf 71 40 31 47 0d bf 0b ea a8 3f c0 35 d6 be
       3.7772865 -0.55186754 1.3196424 -0.41837883
000010 82 bc 92 3e ef a9 1c bf 09 ed 0e c0 97 cb 8a 3d
       0.28659445 -0.611968 -2.2332175 0.06777113
000020 b6 f8 c3 3e 7b ae b7 bf 65 9a 63 bf ed ae 20 be
       0.3827569 -1.4350122 -0.8890746 -0.15691729
000030 21 4a aa be 9c 2c 6d c0 3c aa b6 be 11 4f 4c c0
       -0.3325968 -3.7058477 -0.35676754 -3.1923258

layer2.0.bn1.running_var f4 [16]
000000 00 87 08 40 0c 0b 20 40 c4 f0 ec 3f c1 76 36 3f
       2.1332397 2.5006742 1.8510976 0.71274954
000010 6b c2 e4 3f cd 6e 26 40 63 2e c7 3f 76 d9 0a 40
       1.7871832 2.6005127 1.5561031 2.1695228
000020 04 69 55 3f aa 05 87 40 e6 99 0b 40 b4 d0 00 40
       0.83363366 4.2194414 2.1812682 2.0127382
000030 aa 68 d1 3f 37 57 15 40 10 48 11 40 fb dd 55 3f
       1.6360066 2.3334482 2.2700233 0.8354184

layer2.0.conv2.weight f4 [16, 16, 3, 3]
000000 05 75 10 bd c4 75 67 be 00 f3 1b 3e ff 58 dd bc
       -0.03526785 -0.22603518 0.15229416 -0.027019976
000010 9a 60 c7 3e 85 9d 6e be 75 3f 31 be db 7d 42 3e
       0.3894089 -0.23302276 -0.17309363 0.18993323
000020 88 e2 01 be 2b 8a 03 be 20 19 7d bd 46 37 a4 bd
       -0.12684071 -0.12845676 -0.06179154 -0.08018355
000030 6d 13 03 be 9a 0d 03 3e e8 9e 14 be 8b c1 1c bd
       -0.12800379 0.12798157 -0.14513743 -0.038270514
000040 e5 e9 8f bc c8 0d b5 bd 0d ff 62 bd 94 bf fd 3c
       -0.017567584 -0.08840519 -0.055419017 0.03097514
000050 10 5d 53 3c 1f e7 15 3e 40 30 fb 3e 41 f9 ee 3d
       0.012900606 0.14638947 0.4906025 0.11668635
000060 37 f7 ad 3d 73 c7 a7 bc f8 db be be c2 f4 fc 3d
       0.08494418 -0.020480847 -0.37277198 0.12351371
000070 bc 9b f3 3c 2c 15 57 bd f7 2e 41 3d 50 b9 cb 3c
       0.029737346 -0.052510425 0.04716393 0.024868637
000080 0b 0b 6b be a6 d3 bd bc f7 37 02 be 46 eb 28 bd
       -0.22953431 -0.02317221 -0.12716661 -0.04124
000090 9d 0f 09 3e 37 4f 2b 3e f2 23 07 ba c4 2f 85 3e
       0.13384862 0.16729437 -0.00051551976 0.26013005
0000a0 4e 01 3e 3e 82 4d 41 bd 39 58 7a 3d 7a 58 08 bc
       0.18555185 -0.047193058 0.061119292 -0.008321876
0000b0 23 3f d2 bc f3 51 41 bc 92 aa 69 bd 85 3b af 3c
       -0.025664872 -0.011799323 -0.057047434 0.021390686
0000c0 d8 8d c1 3c 74 c6 80 bc f3 50 68 be a1 0c 9b 3b
       0.023627207 -0.01571963 -0.2268713 0.00473173
0000d0 ad 08 84 bd 07 d9 97 be 0b 1a 34 bc 2a 90 91 bd
       -0.06446967 -0.29657766 -0.010992537 -0.07107575
0000e0 1b 2c 02 be 49 23 85 bd c2 95 3f 3e 0d ed 9f 3d
       -0.12712137 -0.06500871 0.18709472 0.07808886
0000f0 db 7c 72 bd 71 1d 04 be 20 09 5c 3e 25 be b4 3d
       -0.059201103 -0.12901856 0.21487856 0.0882533
000100 57 df 7c bd 86 42 79 bd 03 e6 4f bd 92 94 9b be
       -0.06173643 -0.060854457 -0.050756466 -0.30386788
000110 49 71 8b 3e 63 61 38 bd 9a c5 64 3d 6b 18 01 3a
       0.27234867 -0.04501475 0.05585251 0.0004924598
000120 73 c9 fd bd c1 d5 46 bc 83 b7 74 3d 4f e1 1a be
       -0.12391939 -0.012135924 0.059745323 -0.15125011
000130 df a2 80 bd c5 64 27 3e 1f 51 39 be 64 99 99 3b
       -0.06281065 0.16347034 -0.18097351 0.004687475
000140 1d f0 98 3c bf 21 c1 3d 5b 22 9a 3c ac 5d c2 be
       0.018669182 0.09430265 0.01881521 -0.3796209
000150 a9 3a 40 be 41 44 da bd e4 d9 c8 3d 65 02 03 be
       -0.18772377 -0.1065755 0.09807184 -0.12793882
000160 b3 9e 0a be 09 73 35 3e 1d e9 af 3b 2e 3d 90 3d
       -0.13537101 0.17719664 0.0053683654 0.07042919
000170 bd c7 de bb cd 83 32 ba 19 4c 9c 3e de 81 49 3e
       -0.006798713 -0.0006809801 0.30526808 0.19678447
000180 69 cc 3d bb 8c db 79 3e 39 bd 1a 3f b7 3d 36 bd
       -0.002896095 0.24400157 0.6044498 -0.04449245
000190 66 fc f4 bd 8d 19 29 be 47 06 ed bc 6e b0 26 3d
       -0.11962204 -0.16513653 -0.028933657 0.0406956
0001a0 1d 00 8a bd d6 18 32 bd 4a 37 84 be 8b d8 d0 bc
       -0.06738303 -0.043480717 -0.25823432 -0.02549388
0001b0 fd f9 38 3d 3a 5d 84 bc d7 35 d3 3d 24 46 0b bd
       0.045160282 -0.016157735 0.103130035 -0.03400244
0001c0 e0 9e d0 bd fd 04 8c bd 7e 0f 2f 3e 1c c9 d7 bb
       -0.10186553 -0.06836889 0.17095754 -0.0065852534
0001d0 91 bf 8b bd 6c 6a 7c 3d 21 8a 9d 3e b4 d7 92 be
       -0.06823648 0.06162493 0.30769446 -0.28680193
0001e0 f6 ba c4 3e ce 8d 94 3e f0 56 3a bf c6 f8 01 be
       0.3842389 0.29014438 -0.72788906 -0.12692556
0001f0 9e e2 ff be 22 ed 15 3f 5e d5 cf bd 97 a9 22 3c
       -0.49977583 0.5856496 -0.101481184 0.009928129
000200 47 b0 1a be 55 8d 40 bb 54 f7 5f 3d 25 23 c5 be
       -0.15106307 -0.0029381115 0.05467923 -0.38503376
000210 c4 be 99 bd 1c 11 ba be fe 69 01 be 1c bb a4 bd
       -0.07507089 -0.36341178 -0.12638089 -0.08043501
000220 b7 ea e4 bc 4c 40 d4 3c 7a 65 6c bb 73 05 c1 3d
       -0.027943952 0.025909565 -0.0036071227 0.094248675
000230 60 80 23 be ff 2f 62 3c dd 75 4b 3d d4 7e bf 3d
       -0.1596694 0.0138053885 0.04967295 0.093503624
000240 86 f8 6d be 22 8b b0 3c 20 57 4d bc 55 61 e8 bc
       -0.23239335 0.021550719 -0.012532979 -0.028366724
000250 f9 e2 17 be 98 97 21 3e f4 be 51 3b df 5c 08 bd
       -0.14832677 0.15780485 0.0032004686 -0.033291694
000260 d2 65 c7 3c 04 e1 87 bd d7 b7 21 3c 22 09 c7 3c
       0.024340544 -0.06634715 0.009870491 0.024296347
000270 58 6b 01 3c 94 cc cd 3d 39 03 1b bc ff c6 af 3c
       0.007899128 0.10048786 -0.009461218 0.021457193
000280 0c 18 a8 bd 89 8f 11 bd 7f 96 98 bd 31 c8 ce bd
       -0.082077116 -0.035537276 -0.0745058 -0.10096777
000290 21 a0 39 bd 0b 6c 1a 3d 97 a6 f3 bd fa f8 cb bc
       -0.045318726 0.037700694 -0.11897009 -0.024898995
0002a0 bd 91 a1 3a 47 c5 a7 bd 30 f1 d4 bd 11 be c6 3d
       0.0012326759 -0.081919245 -0.10397565 0.09704221
0002b0 a1 f0 ea 3c f1 34 9d 3d 41 9d 61 3d 99 d3 60 3e
       0.028679194 0.076761134 0.05508161 0.21955718
0002c0 52 93 f5 3d 22 0b d9 3b 74 36 67 3e 46 e8 66 3e
       0.1199099 0.0066236416 0.22579366 0.22549543
0002d0 e6 9c 95 bb 6a 49 d9 3d be 7d b3 bb 2b d0 44 3d
       -0.004565823 0.10609706 -0.005477636 0.048050087
0002e0 22 0b 68 3d fb 34 22 bd c4 19 af bb 54 62 a4 bd
       0.056651242 -0.039601307 -0.0053436477 -0.08026567
0002f0 d4 95 33 bd 3e 6c f8 bc 79 7c bb bb 7c 52 d9 bc
       -0.04384406 -0.030325051 -0.0057216254 -0.02652859
000300 4d 54 3a 3d 94 f7 a1 bc a2 86 cf bc e9 a0 de 3b
       0.04549055 -0.019771375 -0.025332753 0.0067940843
000310 98 4d db bd f0 58 6c bd 62 13 b0 3e 31 06 9f 3e
       -0.10708159 -0.057702005 0.34389788 0.3105941
000320 f3 39 fb 3d ff 32 a0 3d 73 b5 c2 3b 05 f5 2a 3d
       0.12266912 0.07822227 0.0059420406 0.041737575
000330 d5 da 0c 3d c3 fb 20 be a3 08 4e 3d 9e 27 8d 3d
       0.034388382 -0.1572104 0.050301205 0.06892322
000340 e5 ee ac bd 1c 9e 41 bd c6 01 b8 bd de 6b ec 3d
       -0.08444003 -0.047269925 -0.08984713 0.115440115
000350 00 f6 33 bd f4 d7 3c be 83 ae 85 3d 2a f6 52 3c
       -0.043935776 -0.18441755 0.06527426 0.012876073
000360 9a ae 46 be ff fd 27 be 39 b1 44 3e 3b db cb bd
       -0.19402543 -0.16405486 0.1920823 -0.09953924
000370 6b 52 d6 bd e3 9c 8d bd 8a 46 e8 3d 70 f2 a0 3d
       -0.10464939 -0.069146894 0.11341579 0.07858741
000380 e0 ea 15 3e bc 84 14 3d b8 ae 4d bc f7 da 10 3e
       0.14640379 0.036259398 -0.012553863 0.14146028
000390 10 0c 23 3a 86 91 a4 bd 0a 40 6b bd 74 8a 1c ba
       0.0006219754 -0.08035569 -0.05743412 -0.0005971559
0003a0 8f 96 13 be 88 b6 89 bc 74 92 a0 bd 79 5f 82 bc
       -0.14412902 -0.01681067 -0.07840434 -0.015914666
0003b0 a2 10 91 3d 7e 63 08 bd 6e 35 64 bd a2 b4 04 3e
       0.070832506 -0.03329801 -0.055715017 0.12959531
0003c0 83 a0 45 3d 46 eb 14 be 4c 64 3d bd 3e 0e 36 bd
       0.04824878 -0.14542875 -0.04623823 -0.044447176
0003d0 bf 0d 62 3d b2 6c 01 bb 5e 46 c1 3c f1 90 0f 3d
       0.05518889 -0.0019748625 0.023593124 0.035050336
0003e0 02 3e cc 3b de 46 0a 3d 44 f2 e4 3b ab f3 55 bd
       0.006232978 0.03375899 0.006986888 -0.052234333
0003f0 a1 e9 44 3b 9f cb b6 bd 95 c5 14 be ba 67 87 3c
       0.003004648 -0.089255564 -0.14528497 0.016528953

layer2.0.bn2.weight f4 [16]
000000 ef 0e 62 3f 35 3a cd 3e 1b de 9f 3f 92 4a 21 3f
       0.88304037 0.4008347 1.2489656 0.6300441
000010 93 51 f9 3e 5f b7 1c 3f c7 3c 07 3f 69 9c 56 3f
       0.4869505 0.612173 0.52827114 0.8383241
000020 80 87 13 3f 44 27 5b 3f 24 27 64 3f de 3e 1d 3f
       0.5762863 0.8560679 0.89122224 0.6142405
000030 eb ac 66 3f ac 7f 42 3f cb 0e fb 3e e8 a1 0a 3f
       0.901076 0.7597606 0.49034724 0.541533

layer2.0.bn2.bias f4 [16]
000000 0c 77 36 bd 44 02 9c bd 6b f1 0f be 9a cf 8a 3e
       -0.044547126 -0.0761762 -0.14056937 0.27111512
000010 f4 57 b9 3e 83 b3 eb 3e 8f 57 0a 3f fe e8 d6 3d
       0.36199915 0.46035394 0.54039854 0.104936585
000020 50 9c c9 3e 26 5c a0 3e 12 39 5c bd c8 b5 c9 3d
       0.3937707 0.31320304 -0.053765364 0.09849125
000030 3f ce e0 bd 91 5d 77 3e dd db c6 3d 88 57 c0 3e
       -0.10976838 0.24156787 0.09709904 0.3756678

layer2.0.bn2.running_mean f4 [16]
000000 01 a3 94 be 1a ad 05 be 78 01 cc be 77 2f 78 bf
       -0.29030612 -0.13054314 -0.3984487 -0.96947426
000010 a4 46 ed bf 5c cf 4d be 4e dc 0a bf eb cc 6a bf
       -1.8537183 -0.20098633 -0.5424241 -0.9171893
000020 1b 9d 62 3f 7c ac b1 be c6 72 01 bf c6 be 52 bf
       0.88520974 -0.34701908 -0.50565755 -0.8232235
000030 9a 26 e0 be d2 31 71 3f 51 49 33 bf b1 4b 95 bf
       -0.4377945 0.94216645 -0.70033747 -1.1663724

layer2.0.bn2.running_var f4 [16]
000000 e1 d3 19 3f 61 4e 05 3e 8f 61 16 3f 47 9f c8 3e
       0.60088927 0.1301818 0.5874261 0.3918402
000010 a1 fc 03 3f 4f 2e 46 3f 72 21 2e 3f c7 5a 26 3f
       0.51557356 0.7741441 0.68019783 0.64982265
000020 c6 12 3d 3f d5 90 8f 3f 52 b3 26 3f 96 4f d0 3e
       0.7385677 1.1216074 0.6511737 0.4068572
000030 ab 29 db 3e ef 88 82 3f 69 96 c4 3e 46 2c f9 3e
       0.42805228 1.0198039 0.38396004 0.4866659

layer2.0.shortcut.0.weight f4 [16, 8, 1, 1]
000000 65 b3 fe 3c bd b8 80 3e c5 65 d9 3b 4b 15 8b 3c
       0.031091401 0.25140944 0.0066344463 0.016977927
000010 24 ff d7 be 89 bc 08 bd b1 01 80 be 25 59 a2 bb
       -0.42186844 -0.033382926 -0.2500129 -0.0049544745
000020 02 76 7b 3e 73 34 15 3e fb 84 55 bc 6e 8c 40 bf
       0.24556735 0.14570789 -0.013032193 -0.7521428
000030 b6 37 d8 bd e2 f3 8d be 6f b5 19 3d 00 05 52 3d
       -0.10557501 -0.2772513 0.037526544 0.0512743
000040 9b a0 55 3d 66 b0 81 be c2 35 54 be 3e 5c 6c be
       0.05215512 -0.25329894 -0.20723632 -0.23082063
000050 a3 93 6f 3c db a6 d1 bd 80 a1 1d be 11 f5 ea 3d
       0.014622602 -0.10236903 -0.15393639 0.11472524
000060 74 63 47 be 0a a2 82 3e 0a a3 b6 3d 40 0c 21 be
       -0.19471532 0.2551425 0.08917816 -0.15727329
000070 7f 46 d5 be ae 58 13 be c3 bb e9 3b ea 88 c1 3e
       -0.41655347 -0.14389297 0.0071329786 0.3779977
000080 0a 6e 8e bd 2e b7 0e 3e ac 4d 3a 3c 4b d4 50 3e
       -0.06954582 0.13937065 0.0113710575 0.20393483
000090 5c d7 3b be ee ab 12 3e 11 f8 a0 3d ac dd 46 3f
       -0.18343872 0.14323398 0.07859815 0.77681994
0000a0 ab ca 04 bf d2 5a cc bd 2c 92 39 3d 9f c1 2d bd
       -0.51871747 -0.0997826 0.045305416 -0.04242098
0000b0 20 5d 9f 3e 95 ce 63 bc 35 29 08 bd ec c5 b9 3e
       0.31125736 -0.013904233 -0.033242423 0.36283815
0000c0 a3 a6 43 3f 26 19 1f 3e 64 54 11 3d b2 2e db bd
       0.7642614 0.15536937 0.03548087 -0.10702266
0000d0 28 dd ea 3c f5 d1 91 3d 29 14 a9 3c 8c d1 e9 bd
       0.028669909 0.07120124 0.020639496 -0.11416921
0000e0 56 64 f0 3e 13 9f 94 3d ed 45 68 3d 37 d2 17 3d
       0.4695155 0.072569035 0.05670731 0.03706571
0000f0 48 18 a2 bc 57 1e 8e 3e d0 8a e1 3d 02 5b 24 3e
       -0.019786969 0.27757522 0.110128045 0.16050342
000100 c0 e7 99 bd 43 b8 7a be 06 3c 5a bd 67 c3 71 3e
       -0.07514906 -0.24484353 -0.0532799 0.23609696
000110 63 c1 7d 3e cc b1 b0 be 0f 4c 6e bd d3 d7 fc 3c
       0.24780802 -0.34510648 -0.058178004 0.030864632
000120 b5 7e ef be 08 fd 15 be 7c 26 83 bd a3 be 0a be
       -0.46776357 -0.14647305 -0.06403825 -0.13549285
000130 a4 3a 14 3e a0 ea ce 3d 60 84 2d be 3a 91 3b be
       0.14475495 0.10103345 -0.16945028 -0.18317118
000140 74 f1 0c bf 15 4c c9 3d ab 11 20 bd 60 18 a4 bd
       -0.5505593 0.098289646 -0.03907935 -0.08012462
000150 06 22 50 bd 0d 6b 80 3d 8a af a1 3c 9d c0 8e bd
       -0.050813697 0.06270418 0.019737024 -0.06970332
000160 7a 05 01 3e 13 a1 36 3e 06 d5 2c 3c 26 ea be 3e
       0.12599745 0.17834882 0.010548836 0.37288016
000170 b5 dc dd bd a7 df 0c 3e b7 f3 c9 3c 1c 8a 82 be
       -0.10833112 0.13757192 0.024652345 -0.25495994
000180 ee ce 12 bc fe 87 55 3e 3f b8 83 3c a8 ec 37 be
       -0.008960469 0.20852658 0.016079066 -0.17961371
000190 8b e3 24 3e 9b 08 03 3e ef 8e a8 3d 70 c6 0d be
       0.16102426 0.12796251 0.082303874 -0.13845229
0001a0 e9 f6 f3 3e 44 f0 10 3d 91 41 96 bd e2 4f 72 3d
       0.47649315 0.035385385 -0.073367245 0.059158213
0001b0 01 dc 71 3b cc cc 12 be 37 2f e0 3d b6 07 fd 3d
       0.0036904814 -0.14335936 0.109465055 0.12354986
0001c0 32 e5 1a bd 25 64 ae be e5 10 3d 3d d6 22 48 3f
       -0.037816234 -0.3406078 0.04615869 0.78178155
0001d0 af 30 06 3d 40 f6 94 3d 72 b8 83 bd f4 6e c4 3d
       0.032761272 0.07273531 -0.064316645 0.09591475
0001e0 6a 61 1b 3f 8b c6 a5 bd b8 06 57 bd 5f 7f 1b 3e
       0.6069552 -0.0809451 -0.052496642 0.15185307
0001f0 a8 33 57 be 0e 0b a0 be 45 75 c8 bc 8b 72 4f be
       -0.21015799 -0.31258434 -0.024469981 -0.20258538

layer2.0.shortcut.1.weight f4 [16]
000000 5c d3 59 3e 79 d4 43 3f 8a 04 3e 3e 90 56 7c 3e
       0.21272033 0.7649608 0.18556419 0.24642396
000010 b7 ad 9d 3e 08 47 8b 3e 4c 9f ab 3e f0 69 c1 3e
       0.30796596 0.2720263 0.3351997 0.37776136
000020 96 18 12 3e 24 7d 93 3e bf 91 be 3e 56 47 6d 3e
       0.14267191 0.28806412 0.3722057 0.23171744
000030 de 9c 12 3e 6b 75 12 3e e2 cd f0 3e 6f b6 d2 3e
       0.14317653 0.14302604 0.47032076 0.4115481

layer2.0.shortcut.1.bias f4 [16]
000000 0c 77 36 bd 44 02 9c bd 6b f1 0f be 9a cf 8a 3e
       -0.044547126 -0.0761762 -0.14056937 0.27111512
000010 f4 57 b9 3e 83 b3 eb 3e 8f 57 0a 3f fe e8 d6 3d
       0.36199915 0.46035394 0.54039854 0.104936585
000020 50 9c c9 3e 26 5c a0 3e 12 39 5c bd c8 b5 c9 3d
       0.3937707 0.31320304 -0.053765364 0.09849125
000030 3f ce e0 bd 91 5d 77 3e dd db c6 3d 88 57 c0 3e
       -0.10976838 0.24156787 0.09709904 0.3756678

layer2.0.shortcut.1.running_mean f4 [16]
000000 7b 26 9b be f0 e2 10 bf dc f4 24 bf 01 2d 00 bf
       -0.30302796 -0.5659628 -0.64436126 -0.5006867
000010 c2 18 e5 3e 74 b9 f5 be 35 77 88 3f 7e 21 8c 3f
       0.4474545 -0.47993052 1.0661379 1.0947721
000020 a1 93 b4 be d1 ea 4c bf 41 a0 21 bf 18 d4 2a 3f
       -0.35268882 -0.800458 -0.63135153 0.6672988
000030 c1 7c a0 3e d6 ec 17 3f 8d 8c d9 3e 6d 8e 68 3e
       0.3134518 0.5934576 0.42490044 0.22710581

layer2.0.shortcut.1.running_var f4 [16]
000000 4b 51 16 3e 53 5d 55 3e 16 de ad 3d 65 6f 1c 3e
       0.14679448 0.20836382 0.08489625 0.15276869
000010 a3 e8 15 3e 05 6b 63 3e ea f7 8f 3e 9b 8d 15 3e
       0.14639525 0.22208793 0.2811883 0.146048
000020 ea f1 9e 3d 50 f0 51 3e d9 ae 4e 3e 76 97 b4 3d
       0.07760985 0.20501828 0.20183887 0.088179514
000030 99 52 79 3d 0a 05 22 3e 2d aa 81 3e 83 3d b0 3e
       0.060869787 0.15822235 0.25325146 0.3442193
