meta_results/meta_half_seed-1_metalr-0.0001_T-4_400-epochs_cifar100-ResNet10_smodel_best.pth.tar (torch, 910257 bytes, 128 tensors)

conv1.weight f4 [8, 3, 3, 3]
0.15646459 0.3271651 0.14762329 0.11882077 -0.33001304 0.18591285 0.33932447 -0.025720153
0.16255869 -0.2546047 0.076572746 -0.06953125 -0.08020009 -0.67514783 0.08833599 0.17852382
-0.26113498 0.18964049 -0.06232461 0.16396327 -0.21236902 -0.111270264 -0.41560367 -0.31113553
-0.072465226 -0.25701502 -0.37439433 -0.0035972113 -0.5907564 -0.24100338 0.1774076 1.2912811
0.46555477 0.000628152 0.70194286 0.49942037 0.24852493 -0.26317915 0.070829906 -0.25240558
0.09750415 -0.7122155 -0.3210557 -0.5970821 -0.48650563 -0.08315787 -0.05108123 0.39264876
0.024766598 -0.12385993 -0.21403754 0.17861691 -0.32429746 0.09581186 -0.066023916 -0.007975049
0.021659445 0.06178427 -1.0376936 -1.2446475 -0.06831 -0.054030918 -0.06090746 -0.07219459
0.11567907 0.07030948 0.24373046 -0.52594393 -0.773623 -0.11130873 0.09719781 0.09142201
-0.035291214 0.017464666 0.08327512 0.13544263 -0.49196753 -0.65553844 0.012735233 0.045824338
0.0021450007 -0.09442433 -0.44327128 -0.15607902 -0.25159746 -0.24503101 -0.42910674 -0.121734515
-0.26747593 -0.020917319 0.26296127 -0.03607088 0.21503977 0.32921734 0.8781642 -0.1235423
-0.0383829 0.078650504 -0.049505316 -0.15649985 -0.40662637 0.13134177 0.03818072 0.7655212
0.18054049 0.0019552382 0.45013028 0.285038 0.018370545 0.04247493 -0.28916723 -0.30006674
-0.24422197 0.026279995 -0.2176908 0.18811108 0.22681515 0.17520544 0.36153787 -0.011915502
0.5457509 0.5472747 0.8457766 0.2956722 0.7138178 0.44512728 -0.21217866 0.0066772094
-0.10732395 -0.26867813 -0.94570816 -0.48155293 -0.15880749 -0.6521531 -0.7001046 0.023999454
-0.09500635 -0.16665022 -0.021500368 0.1318477 0.52129006 -0.09211866 0.14818373 0.80482334
-0.032403663 -0.09924535 0.14458293 0.027476767 -0.27037394 -0.19640498 -0.04755347 -0.22617903
0.60868275 -0.06539803 0.033746406 0.066329606 0.08085556 0.041408423 -0.26205072 0.20831499
-0.0964322 0.117577314 -0.07647515 -0.05928481 0.11898258 -0.83743507 0.92847866 0.066562735
-0.102218986 0.052350804 0.13566852 -0.021076068 0.17080775 -0.07756089 -1.681638 1.466182
0.108305484 -0.0019933593 -0.0080624 -0.06338872 -0.042798437 0.12472068 -0.09890096 -1.0820203
1.0048591 -0.040461704 0.023384048 0.060816396 -0.08731257 0.37221026 1.3437796 0.32638794
-0.36442423 -1.159889 -0.5488241 -0.039967872 -0.030221783 0.13742399 0.47308853 1.6377071
0.4409272 -0.40795454 -1.5903376 -0.69260573 0.06870917 -0.042652626 0.0388402 0.07606079
0.76915157 0.22872607 -0.19927926 -0.9924141 -0.20146498 -0.000850176 0.057597086 0.19290137
00000000: 4138 203e 2f82 a73e 8f2a 173e 4e58 f33d
00000010: 78f7 a8be f05f 3e3e f0bb ad3e 12b3 d2bc
00000020: c975 263e 8c5b 82be 2cd2 9c3d 6666 8ebd
00000030: f23f a4bd 7dd6 2cbf 80e9 b43d f3ce 363e
00000040: 7cb3 85be 1e31 423e 1748 7fbd fde5 273e
00000050: 4477 59be aae1 e3bd 01ca d4be 284d 9fbe
00000060: a668 94bd 7997 83be 9db0 bfbe 31bf 6bbb
00000070: d03b 17bf 97c9 76be 57aa 353e b348 a53f
00000080: 325d ee3e 91aa 243a 87b2 333f 07b4 ff3e
00000090: 527d 7e3e 6bbf 86be 450f 913d 4e3b 81be
000000a0: 41b0 c73d c153 36bf 6a61 a4be 5fda 18bf
000000b0: 4417 f9be ac4e aabd 8d3a 51bd 4209 c93e
000000c0: 52e3 ca3c 46aa fdbd a82c 5bbe 5ae7 363e
000000d0: 510a a6be 0239 c43d 8c37 87bd c8a9 02bc
000000e0: 266f b13c 8111 7d3d 25d3 84bf 9c50 9fbf
000000f0: 1de6 8bbd 864f 5dbd 1a7a 79bd c2da 93bd
00000100: 26e9 ec3d 6bfe 8f3d 7a94 793e 43a4 06bf
00000110: 280c 46bf d5f5 e3bd a50f c73d 763b bb3d
00000120: 858d 10bd 0f12 8f3c 258c aa3d 79b1 0a3e
00000130: 2be3 fbbe 5ed1 27bf 70a7 503c 4db2 3b3d
00000140: 2493 0c3b 8b61 c1bd 74f4 e2be 2ed3 1fbe
00000150: 62d1 80be 69e9 7abe e1b3 dbbe f24f f9bd
00000160: 9bf2 88be cc5a abbc dca2 863e 0fbf 13bd
00000170: 6333 5c3e 2d8f a83e 5ecf 603f bf03 fdbd
00000180: 6337 1dbd 8413 a13d 16c6 4abd 7f41 20be
00000190: 5531 d0be 757e 063e 6363 1c3d 33f9 433f
000001a0: 9bdf 383e 7423 003b 7a77 e63e 80f0 913e
000001b0: d37d 963c 31fa 2d3d ba0d 94be 59a2 99be
000001c0: 5315 7abe 2549 d73c 56ea 5ebe 31a0 403e
000001d0: 3b42 683e 0e69 333e 7e1b b93e 3d39 43bc
000001e0: 55b6 0b3f 321a 0c3f d184 583f 5962 973e
000001f0: c3bc 363f b9e7 e33e 5d45 59be 7ecc da3b
00000200: a9cc dbbd 2e90 89be ee19 72bf 1b8e f6be
00000210: 6e9e 22be 81f3 26bf 0e3a 33bf 819a c43c
00000220: b092 c2bd 5ba6 2abe 8a21 b0bc 1503 073e
00000230: 4473 053f b5a8 bcbd 7abd 173e e708 4e3f
00000240: b4b9 04bd 2541 cbbd 8c0d 143e f516 e13c
00000250: 746e 8abe 631e 49be 6dc7 42bd 7a9b 67be
00000260: a2d2 1b3f 67ef 85bd ac39 0a3d d1d7 873d
00000270: 9a97 a53d e19b 293d 832b 86be 8650 553e
00000280: 3f7e c5bd 60cc f03d 019f 9cbd a1d4 72bd
00000290: 24ad f33d 2562 56bf c7b0 6d3f 0b52 883d
000002a0: 3058 d1bd cc6d 563d b0ec 0a3e b8a7 acbc
000002b0: 3ae8 2e3e 3ed8 9ebd ea3f d7bf daab bb3f
000002c0: 44cf dd3d 05a3 02bb 2818 04bc f2d1 81bd
000002d0: 6a4d 2fbd 8e6d ff3d 968c cabd a47f 8abf
000002e0: 399f 803f 2cbb 25bd e78f bf3c 9d1a 793d
000002f0: efd0 b2bd 5892 be3e f800 ac3f 521c a73e
00000300: d095 babe 3e77 94bf bc7f 0cbf 5ab5 23bd
00000310: ac93 f7bc e0b8 0c3e a938 f23e 63a0 d13f
00000320: 36c1 e13e 6bdf d0be 2f90 cbbf 9c4e 31bf
00000330: 65b7 8c3d 85b4 2ebd e716 1f3d c2c5 9b3d
00000340: 1ee7 443f 2b37 6a3e dd0f 4cbe da0e 7ebf
00000350: d64c 4ebe 58de 5eba ecea 6b3d f087 453e

bn1.weight f4 [8]
0.5322242 0.20344906 1.6488942 0.24649414 0.20617668 0.26642784 0.39831382 0.39638677
00000000: d83f 083f f354 503e f70e d33f f668 7c3e
00000010: fb1f 533e 3b69 883e caef cb3e 35f3 ca3e

bn1.bias f4 [8]
-0.4146452 0.170741 -1.9103855 0.24015783 0.4647183 0.33653238 0.4137374 0.32883158
00000000: 604c d4be bbd6 2e3e 8387 f4bf efeb 753e
00000010: 8fef ed3e f94d ac3e 63d5 d33e 9d5c a83e

bn1.running_mean f4 [8]
0.3192867 -0.07121899 1.5754228 -0.10237267 -0.32724065 -0.4957286 -0.028910315 0.06531738
00000000: 8c79 a33e 43db 91bd 74a7 c93f c3a8 d1bd
00000010: 168c a7be 24d0 fdbe 53d5 ecbc 1ec5 853d

bn1.running_var f4 [8]
2.9633005 1.207073 20.617037 2.1845353 1.9984337 2.2284775 3.5345385 7.4724283
00000000: b7a6 3d40 5e81 9a3f b1ef a441 6dcf 0b40
00000010: adcc ff3f 609f 0e40 e135 6240 221e ef40

layer1.0.conv1.weight f4 [8, 8, 3, 3]
-0.0384612 0.10866333 -0.10830067 0.09036237 0.38175496 0.16300584 -0.06953656 -0.3788152
0.09021896 0.020136492 0.13901491 0.027965456 0.10591683 -0.091945566 -0.061728396 -0.10529186
0.26173905 -0.12042288 0.33493346 0.15918826 0.13074562 0.46115723 0.33529055 0.11453148
-0.67816174 -0.7648075 -0.03665607 0.13083975 -0.1667023 0.13383572 -0.2379609 -0.36555824
-0.26273733 0.0035890928 0.62047213 0.06084847 0.20341633 0.036002953 0.057980027 -0.13081312
-0.04655345 -0.092343144 0.0533679 0.04602514 -0.09103063 -0.5846503 -0.11194762 -0.21564393
0.24185893 0.1614523 0.10969415 0.17596361 -0.017089965 0.02889286 0.07151163 0.10010979
-0.016855994 -0.063272335 -0.35885558 0.37999964 0.0029238309 0.22676064 -0.29237005 0.003464274
-0.1320533 0.094444245 -0.01671072 0.011714855 0.07784781 -0.23279776 -1.8165338 -0.317865
0.15266486 0.060325064 0.116650924 0.030297564 0.08189185 0.038042773 -0.10842584 0.15600662
-0.04356564 0.08446211 -0.005225789 -0.10664205 0.0848072 -0.095132224 -0.26687908 -0.100131854
0.03181266 0.25367075 0.20622976 0.7593816 0.09167716 0.0029918647 0.954006 0.17775264
-0.081810154 0.36889887 -0.10030485 0.020741258 0.04447038 0.1413726 -0.08908969 -0.016331566
-0.08523068 -0.076507136 -0.031795826 0.13458255 0.028190032 -0.033373848 -0.013646448 -0.03312024
0.059959274 -0.013022324 0.025950471 0.030775826 -0.06452211 -0.065757774 -0.29213464 0.38901484
0.019914078 0.09818084 0.049071975 0.07388403 0.06504419 -0.1758416 0.029503949 -0.07307042
-0.046276458 0.042975653 0.03785317 0.06596302 0.0019566754 -0.0038333547 -0.10001801 0.026308915
0.042138703 -0.115569666 -0.17453127 0.20783839 -0.09497042 -0.027614878 0.04512721 0.0048953537
0.05299128 0.05775063 -0.12112024 -0.09819344 -0.06879076 -0.13752908 -0.07257328 -0.059578277
0.1039261 0.23300703 -0.08096746 -0.29651767 0.0770152 0.04312343 -0.045455426 -0.12237639
-0.06385184 -0.03177268 -0.03625044 -0.03302397 0.11452085 0.075465724 -0.15047689 0.121399544
0.015748376 -0.19560184 0.101173736 -0.09897069 -0.18316466 -0.12428518 -0.025124291 -0.07106056
0.06577111 -0.006360794 -0.010595971 -0.101968646 -0.77138436 -0.7989003 -0.057450116 -0.31080505
-0.25525668 0.21735917 0.0076519107 0.33343062 0.35391986 -0.15846685 0.07555992 -0.18457313
0.15354785 0.24187319 0.12571134 -0.027750678 0.013885301 0.0029858383 -0.007840636 -0.21161069
0.16392322 0.036420427 0.06230676 0.16411693 -0.04372741 -0.003897927 -0.20330733 0.023022095
-0.079746105 -0.05215345 -0.07372828 0.13608454 -0.07503747 -0.27019566 0.2928242 -0.000324366
0.0728671 -0.006115016 -0.053150848 -0.08346713 -0.1894872 0.41904873 -0.12189029 0.043457124
0.23179 0.0750121 0.015177519 -0.13457602 -0.084328696 -0.13191658 -0.023737011 0.047020856
0.10198068 -0.31666872 -0.36696133 -0.34428555 0.3021017 -0.21752226 -0.26879695 0.6379271
-0.0077933776 0.25903028 0.7168278 -0.14078306 0.11238115 0.03921516 -0.14390102 0.025719738
-0.01892875 0.0894419 0.17801194 -0.31521457 -0.11715137 0.11332494 -0.04014036 -0.026012555
00000000: 7e89 1dbd e18a de3d becc ddbd e80f b93d
00000010: 6375 c33e 01eb 263e 2f69 8ebd 11f4 c1be
00000020: b8c4 b83d 49f5 a43c ed59 0e3e d017 e53c
00000030: ecea d83d f54d bcbd ead6 7cbd 42a3 d7bd
00000040: a902 863e 45a0 f6bd 667c ab3e 3f02 233e
00000050: 2ee2 053e cd1c ec3e 34ab ab3e 7b8f ea3d
00000060: 029c 2dbf 6dca 43bf ad24 16bd dbfa 053e
00000070: 02b4 2abe 3b0c 093e 06ac 73be 732a bbbe
00000080: 8285 86be fc36 6b3b 43d7 1e3f 3f3c 793d
00000090: 5f4c 503e d577 133d 777c 6d3d e0f3 05be
000000a0: d5ae 3ebd 671e bdbd 4d98 5a3d db84 3c3d
000000b0: 446e babd a4ab 15bf cb44 e5bd c3d1 5cbe
000000c0: dea9 773e c053 253e 54a7 e03d ce2f 343e
000000d0: 4100 8cbc b8b0 ec3c b174 923d 5d06 cd3d
000000e0: 9515 8abc ed94 81bd ebbb b7be 508f c23e
000000f0: be9d 3f3b f133 683e 87b1 95be e008 633b
00000100: fb38 07be fc6b c13d ebe4 88bc aaef 3f3c
00000110: ac6e 9f3d 8962 6ebe 2e84 e8bf 34bf a2be
00000120: 2d54 1c3e 6a17 773d aee6 ee3d 9932 f83c
00000130: eab6 a73d bdd2 1b3d 5e0e debd 33c0 1f3e
00000140: e271 32bd 79fa ac3d 183d abbb 2667 dabd
00000150: 66af ad3d afd4 c2bd 60a4 88be ee11 cdbd
00000160: fe4d 023d 22e1 813e e52d 533e d566 423f
00000170: 3cc1 bb3d 2913 443b bd39 743f ca04 363e
00000180: 158c a7bd 50e0 bc3e a16c cdbd 92e9 a93c
00000190: 9326 363d fbc3 103e a874 b6bd c7c9 85bc
000001a0: 6c8d aebd c6af 9cbd 573c 02bd 02d0 093e
000001b0: c8ee e63c 04b3 08bd 5a95 5fbc 17a9 07bd
000001c0: db97 753d 965b 55bc 1596 d43c 961d fc3c
000001d0: 2b24 84bd 03ac 86bd ac92 95be f42c c73e
000001e0: d922 a33c 0913 c93d b2ff 483d 8350 973d
000001f0: e335 853d d20f 34be 44b2 f13c f2a5 95bd
00000200: 628c 3dbd 3d07 303d ed0b 1b3d 9f17 873d
00000210: 913b 003b 0539 7bbb 3ed6 ccbd cb85 d73c
00000220: a299 2c3d caaf ecbd 53b8 32be 96d3 543e
00000230: da7f c2bd 9938 e2bc 4fd7 383d 3469 a03b
00000240: 620d 593d ed8b 6c3d e30d f8bd a419 c9bd
00000250: 2ce2 8cbd 6cd4 0cbe 4da1 94bd 5a08 74bd
00000260: 35d7 d43d 6599 6e3e 45d2 a5bd 2ad1 97be
00000270: 25ba 9d3d 32a2 303d 782f 3abd 79a0 fabd
00000280: c1c4 82bd 1224 02bd 577b 14bd 2444 07bd
00000290: e889 ea3d c68d 9a3d 9d16 1abe 53a0 f83d
000002a0: bd02 813c d94b 48be 2d34 cf3d 25b1 cabd
000002b0: 848f 3bbe 3a89 febd 75d1 cdbc 3388 91bd
000002c0: 01b3 863d 356e d0bb b99a 2dbc f0d4 d0bd
000002d0: 7279 45bf bb84 4cbf d050 6bbd d721 9fbe
000002e0: 01b1 82be 6793 5e3e e1bc fa3b 6bb7 aa3e
000002f0: fc34 b53e 2245 22be 29bf 9a3d bd00 3dbe
00000300: a63b 1d3e 9bad 773e 79ba 003e 6455 e3bc
00000310: 2c7f 633c 0eae 433b 0376 00bc 79b0 58be
00000320: 7ddb 273e 962d 153d 6035 7f3d 450e 283e
00000330: 831b 33bd 5d74 7fbb cc2f 50be d598 bc3c
00000340: ed51 a3bd db9e 55bd dafe 96bd bf59 0b3e
00000350: 3fad 99bd 1657 8abe 0eed 953e ab0f aab9
00000360: 593b 953d 7960 c8bb b4b4 59bd d1f0 aabd
00000370: ef08 42be 8e8d d63e 9ea1 f9bd 1900 323d
00000380: 5c5a 6d3e f29f 993d 21ab 783c 4cce 09be
00000390: 86b4 acbd 2415 07be 1f74 c2bc f198 403d
000003a0: 3fdb d03d 6722 a2be 5be2 bbbe 3246 b0be
000003b0: 13ad 9a3e 28be 5ebe c19f 89be 314f 233f
000003c0: 975f ffbb 9e9f 843e 0782 373f 6f29 10be
000003d0: 1728 e63d 13a0 203d ca5a 13be 33b2 d23c
000003e0: 7710 9bbc 512d b73d c348 363e ce63 a1be
000003f0: 0fed efbd e816 e83d 386a 24bd 4818 d5bc

layer1.0.bn1.weight f4 [8]
0.73494977 1.0600582 0.39482093 0.54356843 0.29758385 0.4657686 0.29917526 0.61369896
00000000: ab25 3c3f fdaf 873f f825 ca3e 4d27 0b3f
00000010: e95c 983e 3979 ee3e 802d 993e 601b 1d3f

layer1.0.bn1.bias f4 [8]
0.17908505 -1.3348212 0.2151085 -0.33966365 0.41713127 0.15546581 0.537263 0.2207567
00000000: 1262 373e 6cdb aabf 6745 5c3e 65e8 adbe
00000010: 3b92 d53e 6e32 1f3e 118a 093f 0b0e 623e

layer1.0.bn1.running_mean f4 [8]
-0.80512315 0.15912344 -0.74185723 -0.08960032 0.12880194 0.15198755 -0.30495316 -0.64464223
00000000: 8d1c 4ebf 41f1 223e 5bea 3dbf 5f80 b7bd
00000010: a8e4 033e a0a2 1b3e d222 9cbe 4607 25bf

layer1.0.bn1.running_var f4 [8]
0.7157603 0.082687676 0.1276385 0.05247755 0.069424324 0.25642347 0.0650897 0.34594256
00000000: 113c 373f 2858 a93d abb3 023e b3f2 563d
00000010: 572e 8e3d f049 833e c04d 853d 621f b13e

layer1.0.conv2.weight f4 [8, 8, 3, 3]
0.074606 -0.11062178 -0.11024048 -0.22071214 -1.4548937 -0.21372676 0.07289941 0.048227735
0.14472964 -0.030305825 0.037701856 0.075844586 -0.008515791 -0.067108065 0.103095494 -0.45628414
-0.5786132 0.08692268 -0.0035526971 -0.105389334 0.02359188 0.022167336 0.2305557 -0.13360919
0.009306378 0.10798837 -0.0862354 -0.069987565 0.19253631 0.10910456 -0.60531837 -0.17189364
0.074844636 0.16032918 0.08638722 0.0631775 0.04184361 0.11228543 -0.10639744 0.11077802
-0.026965102 -0.06731652 0.069445975 0.028093234 -0.1016282 0.00025088416 0.15624781 -0.07900445
0.072010435 0.35862148 0.30353826 0.04472584 -0.45635965 0.21453187 -0.027331859 -0.0212443
-0.08145785 -0.09333159 -0.0760609 0.0045559295 0.026097706 0.12123947 0.1423295 -0.066224486
0.06561572 0.04110448 0.05289675 0.14215079 -0.06768684 0.27856126 -0.34510386 -0.2532305
-0.03289434 -0.20834316 0.097389616 0.052697904 -0.073952794 0.06311491 -0.0013722103 -0.1620387
-0.16686234 0.0887656 -0.0031499243 -0.036580496 0.12032297 0.033002794 -0.109886095 -0.3781882
-0.37765026 -0.4150539 0.003127287 0.007437354 -0.43612957 -0.13533138 0.12629639 0.13478531
-0.59003544 0.24711818 0.5812143 -0.039490946 0.067184694 -0.075036176 -0.0041571152 0.07428871
0.07892417 -0.1021338 -0.019753758 -0.023598658 0.23495346 0.27246684 -0.29379952 0.4870915
0.26298815 -0.44787228 -0.058861498 -0.09349778 -0.33168918 0.034173265 0.1293949 -0.13200969
0.06678569 0.063775845 0.007742783 0.024238428 0.11802091 -0.11950822 -0.21417576 -0.22502384
-0.28151092 0.15192331 0.08171373 -0.2247127 0.44195557 0.6440801 0.021510847 -0.13261968
-0.035706583 0.018740725 -0.021410935 0.16189848 0.057241403 0.009697977 0.1959517 0.13687858
0.015544708 0.094815105 0.070191234 -0.15060575 -0.071739174 -0.07448761 -0.15189189 0.06895373
0.21735741 0.007108785 -0.19609465 0.047038004 0.1920792 0.20301408 0.21342854 0.18130419
0.13365135 0.22760023 0.07334531 -0.14981337 -0.0009058418 -0.04383955 -0.07020659 0.20070049
-0.032742128 -0.025225641 0.10404106 -0.4221592 0.044623204 0.017795062 0.13596246 -0.3197527
-0.013206844 -0.06842162 0.036655914 0.14945872 -0.23793675 0.12019073 -0.01756053 0.28503188
-0.051414248 -0.049686786 -0.20305365 -0.06797721 0.107213885 0.13923752 -0.08412921 0.013374516
-0.3517243 0.28642237 -0.29894882 0.16893375 -0.030385545 -0.22938643 0.26785856 -0.15629312
-0.1011775 -0.029002955 0.36272725 -0.061387103 -0.03622082 -0.13217516 0.031196106 0.20683017
-0.17413774 0.13290542 -0.120739035 0.10354852 -0.18954311 0.0025252772 -0.38964194 -0.0030944813
-0.13862064 -0.111041255 0.23793118 -0.013626119 -0.10288216 0.11920881 0.04407009 -0.3594961
-0.22991869 -0.019301932 -0.0874482 -0.06828512 0.01278361 -0.08689908 -0.24504076 -0.2705644
-0.324073 -0.42385724 -0.1960885 -0.11005055 0.05969269 0.026381586 0.23514777 0.21969013
-0.10499651 0.16818754 0.16644715 0.15014215 0.11269843 -0.15160711 -0.1906739 0.284248
-0.061089855 -0.016904382 -0.042835057 -0.14142461 -0.22676542 -0.045253772 0.051884837 -0.27090555
00000000: 08cb 983d ac8d e2bd c3c5 e1bd 5d02 62be
00000010: f539 babf 30db 5abe 494c 953d 728a 453d
00000020: 0234 143e ec43 f8bc 436d 1a3d 6854 9b3d
00000030: d185 0bbc f46f 89bd bb23 d33d 139e e9be
00000040: ff1f 14bf 8504 b23d 5ed4 68bb 5dd6 d7bd
00000050: c243 c13c 4698 b53c cb16 6c3e d9d0 08be
00000060: c779 183c 0229 dd3d 2f9c b0bd a455 8fbd
00000070: 3d28 453e 3672 df3d 25f6 1abf e304 30be
00000080: 2548 993d 552d 243e c8eb b03d 3563 813d
00000090: 3564 2b3d e7f5 e53d e7e6 d9bd 96df e23d
000000a0: ebe5 dcbc 3edd 89bd b139 8e3d c823 e63c
000000b0: 7222 d0bd 1a89 8339 6dff 1f3e 16cd a1bd
000000c0: 357a 933d 3c9d b73e 5e69 9b3e 7132 373d
000000d0: f9a7 e9be 3eae 5b3e 10e7 dfbc 8708 aebc
000000e0: 60d3 a6bd a224 bfbd d1c5 9bbd e849 953b
000000f0: dbca d53c 664c f83d d3be 113e b4a0 87bd
00000100: 8961 863d 2c5d 283d 43aa 583d fa8f 113e
00000110: 669f 8abd 959f 8e3e 74b1 b0be 6ea7 81be
00000120: 37bc 06bd e957 55be 3574 c73d c2d9 573d
00000130: 9074 97bd 6442 813d bddb b3ba 79ed 25be
00000140: f6dd 2abe bdca b53d f66e 4ebb 6ed5 15bd
00000150: e46b f63d f02d 073d f60b e1bd e2a1 c1be
00000160: 605b c1be f281 d4be 2bf3 4c3b 0cb5 f33b
00000170: 604c dfbe 4f94 0abe d753 013e 2905 0a3e
00000180: 900c 17bf 8c0c 7d3e 76ca 143f 42c1 21bd
00000190: 2198 893d 91ac 99bd 6938 88bb ae24 983d
000001a0: ffa2 a13d 872b d1bd a2d2 a1bc f951 c1bc
000001b0: a497 703e c680 8b3e e46c 96be 0f64 f93e
000001c0: 62a6 863e 844f e5be c118 71bd c47b bfbd
000001d0: 2ad3 a9be 44f9 0b3d 1980 043e 8c2d 07be
000001e0: f0c6 883d e99c 823d 2cb7 fd3b ab8f c63c
000001f0: f2b4 f13d bac0 f4bd e450 5bbe a66c 66be
00000200: 3322 90be c991 1b3e 8759 a73d 161b 66be
00000210: 0048 e23e 6fe2 243f 8437 b03c 74cd 07be
00000220: 1141 12bd 2686 993c fc65 afbc b7c8 253e
00000230: f675 6a3d 44e4 1e3c 90a7 483e e629 0c3e
00000240: 3baf 7e3c 6c2e c23d 6cc0 8f3d 6538 1abe
00000250: fdeb 92bd f68c 98bd 8c89 1bbe 9d37 8d3d
00000260: f192 5e3e d0f0 e83b 09cd 48be ecaa 403d
00000270: 69b0 443e ece2 4f3e 038d 5a3e cea7 393e
00000280: e6db 083e 0910 693e 1136 963d ad68 19be
00000290: 0476 6dba 1a91 33bd 79c8 8fbd 6e84 4d3e
000002a0: 9c1c 06bd 01a6 cebc 7b13 d53d 4025 d8be
000002b0: d2c6 363d f3c6 913c be39 0b3e a0b6 a3be
000002c0: 8561 58bc a220 8cbd 8324 163d b50b 193e
000002d0: b1a5 73be 8f26 f63d 1adb 8fbc b3ef 913e
000002e0: bf97 52bd 5f84 4bbd 4ced 4fbe a337 8bbd
000002f0: f492 db3d 4894 0e3e ef4b acbd c920 5b3c
00000300: 3515 b4be f4a5 923e d20f 99be f8fc 2c3e
00000310: 1beb f8bc 47e4 6abe c224 893e 4e0b 20be
00000320: 2636 cfbd 9b97 edbc 63b7 b93e 0b71 7bbd
00000330: 485c 14bd ed58 07be fa8e ff3c 4acb 533e
00000340: 2a51 32be 5c18 083e 0746 f7bd 3f11 d43d
00000350: 9717 42be 1f7f 253b 267f c7be c8cc 4abb
00000360: 92f2 0dbe 9969 e3bd 3ba4 733e 1640 5fbc
00000370: e2b3 d2bd c023 f43d d782 343d df0f b8be
00000380: ce6f 6bbe 161f 9ebc 0b18 b3bd 12d9 8bbd
00000390: 5972 513c 25f8 b1bd f7eb 7abe 6b87 8abe
000003a0: e5ec a5be d103 d9be 6ccb 48be 2f62 e1bd
000003b0: 5280 743d 321e d83c 94ca 703e 73f6 603e
000003c0: 6908 d7bd 5b39 2c3e 1f71 2a3e ddbe 193e
000003d0: 6fce e63d e53e 1bbe 0540 43be f488 913e
000003e0: 5b39 7abd 0f7b 8abc d073 2fbd 9dd1 10be
000003f0: 3235 68be 055c 39bd 3285 543d 22b4 8abe

layer1.0.bn2.weight f4 [8]
1.4744664 0.70792496 0.87032264 0.71784335 0.60781914 0.68246406 1.2478302 1.1742865
00000000: 51bb bc3f 923a 353f 77cd 5e3f 95c4 373f
00000010: 099a 1b3f f7b5 2e3f e6b8 9f3f 054f 963f

layer1.0.bn2.bias f4 [8]
0.18881416 0.17486395 -0.021318225 0.43217614 0.061310425 0.35958812 -0.37915516 0.0045748265
00000000: 8058 413e 890f 333e 8fa3 aebc 3146 dd3e
00000010: a420 7b3d ef1b b83e a020 c2be 6de8 953b

layer1.0.bn2.running_mean f4 [8]
-0.5698211 0.12611546 -0.07251638 0.03243351 -0.32828057 0.3464516 -0.5797421 0.097449124
00000000: ccdf 11bf 6924 013e 7883 94bd 00d9 043d
00000010: 6414 a8be 1b62 b13e fa69 14bf 6893 c73d

layer1.0.bn2.running_var f4 [8]
0.64011586 0.36224163 0.18598455 0.5196823 0.22930466 0.41294336 0.4905744 0.48791033
00000000: a2de 233f bc77 b93e bc72 3e3e e609 053f
00000010: d7ce 6a3e 506d d33e 912c fb3e 62cf f93e

layer2.0.conv1.weight f4 [16, 8, 3, 3]
0.09661258 -0.05028212 -0.054355267 -0.0397681 -0.1470144 -0.057847273 -0.07025926 -0.04130902
0.019961197 0.28175187 0.28565276 -0.124612376 0.3815309 -0.2137251 -0.38405937 -0.16816638
-0.33677256 0.18170762 0.01632885 0.11339581 0.013072599 0.18369147 0.07182892 -0.05379167
0.08532991 -0.08687615 -0.11554398 -0.29319787 -0.18402746 0.22578008 -0.21749929 0.45621705
0.31910565 0.2554257 0.4690394 -0.28060034 -0.045741532 0.09908091 0.038312428 0.17877272
-0.092969984 -0.04285846 -0.036888465 -0.14647533 0.105007984 0.2573978 0.07185614 -0.19516985
-0.0572118 -0.28483945 -0.15360518 -0.2176044 -0.18265855 0.096841075 -0.048448913 -0.014866236
0.03537256 -0.078136966 0.025210835 0.18337838 0.13937722 0.13383344 0.1113517 -0.12506452
0.00262405 0.14047247 0.06007512 0.14776662 0.12828712 0.17699327 0.073457345 -0.06638865
0.16621871 0.28289893 0.27247337 0.23098955 0.30491978 0.06737146 0.14142624 0.06332744
-0.14209183 -0.058808856 -0.03821323 0.11724457 -0.07913089 -0.09588884 0.03511356 -0.21589886
-0.09363551 -0.11918905 0.13257438 0.18277813 0.18498066 0.12440555 0.08778301 0.10468393
0.006705523 0.0390374 -0.006109733 -0.1612049 0.03670305 0.08348398 -0.15740572 -0.34048712
-0.23753728 -0.17235887 -0.28200537 -0.31459394 0.0069804452 -0.032581724 0.0017489485 -0.068626195
-0.16892447 -0.063761175 -0.021745449 -0.14658372 -0.16653186 -0.14679956 -0.36236838 -0.40553853
-0.19825833 -0.09923812 -0.024456458 -0.07131993 0.03269425 -0.103173755 -0.14409585 -0.13721915
-0.15567483 -0.27332738 -0.16465098 0.034561064 -0.04864027 0.0133923 0.13650534 0.10241824
0.11139206 0.11788663 0.13418423 0.26656446 0.09051724 0.18729793 0.22612472 0.016538184
-0.16038081 0.075533494 -0.0018602299 -0.15428616 0.22406948 0.023402408 -0.07223804 0.15918969
-0.020722738 0.026046649 -0.11624721 0.073838554 0.14613508 -0.16813555 -0.038139425 0.13527903
-0.052617233 -0.10021727 -0.12624751 0.1006621 -0.04708761 -0.22306494 0.105927184 -0.024860231
-0.087483786 0.10837064 -0.021564806 0.011699141 -0.16737238 0.06845679 0.037565194 -0.17242287
-0.009405463 0.09688225 -0.10981463 0.024749106 0.03202884 -0.14918739 0.084097795 0.04062472
-0.10844911 0.043135356 0.09502599 -0.09496573 0.029267628 -0.16122931 0.07215032 -0.038785413
-0.18272589 0.16836135 0.06944757 -0.19781762 -0.014348634 0.18469247 -0.21770051 0.35413143
-0.04902797 -0.5247735 0.55641484 -0.058454335 -0.3452654 0.31459495 0.031596024 0.32758278
-0.25212666 0.020534987 0.5085331 -0.53175145 0.03748676 0.26930755 -0.30308607 -0.054768458
0.06449031 -0.078385465 0.08544801 -0.13619064 0.6493889 -0.5555895 0.19739725 -0.27687383
0.10491842 0.06128083 0.011954112 -0.0553888 0.03327043 -0.07516708 -0.0034502177 -0.051995754
-0.00862 0.044027597 0.024401836 -0.093814 0.008415481 -0.10033963 -0.049891833 -0.004748226
0.10583825 -0.002040016 -0.120909125 -0.037609942 0.072980486 -0.029541299 0.06969949 -0.02594612
-0.060838997 0.08192627 -0.11391102 0.008811004 -0.016706107 0.0800534 -0.10060571 0.029454743
00000000: d1dc c53d a0f4 4dbd a1a3 5ebd e0e3 22bd
00000010: f18a 16be 43f1 6cbd 16e4 8fbd a633 29bd
00000020: aa85 a33c c841 903e 1441 923e c634 ffbd
00000030: 0558 c33e c1da 5abe 6ea3 c4be cf33 2cbe
00000040: 746d acbe 9011 3a3e 15c4 853c 103c e83d
00000050: 742e 563c 9e19 3c3e 0a1b 933d a754 5cbd
00000060: 73c1 ae3d 1fec b1bd 52a2 ecbd 081e 96be
00000070: b271 3cbe e532 673e 22b8 5ebe 4895 e93e
00000080: d161 a33e 28c7 823e ef25 f03e d9aa 8fbe
00000090: 795b 3bbd efea ca3d 7eed 1c3d 3210 373e
000000a0: 0c67 bebd 5a8c 2fbd 5c18 17bd a1fd 15be
000000b0: 6d0e d73d a5c9 833e 5029 933d 9bda 47be
000000c0: ec56 6abd 7ad6 91be ad4a 1dbe b0d3 5ebe
000000d0: d80a 3bbe 9d54 c63d 5e72 46bd 8391 73bc
000000e0: d1e2 103d 4606 a0bd f486 ce3c 8bc7 3b3e
000000f0: e7b8 0e3e a20b 093e 5c0c e43d ea10 00be
00000100: 41f8 2b3b 04d8 0f3e 5411 763d 2250 173e
00000110: b35d 033e b93d 353e ce70 963d c6f6 87bd
00000120: 3d35 2a3e 21d8 903e a181 8b3e 8688 6c3e
00000130: 721e 9c3e 0cfa 893d 0ad2 103e d1b1 813d
00000140: 8580 11be 8ee1 70bd 7a85 1cbd ec1d f03d
00000150: 600f a2bd 5e61 c4bd 3cd3 0f3d 9714 5dbe
00000160: f9c3 bfbd 6319 f4bd 94c1 073e 312a 3b3e
00000170: 926b 3d3e 56c8 fe3d 94c7 b33d 8764 d63d
00000180: 01ba db3b aee5 1f3d 2834 c8bb e612 25be
00000190: f055 163d a6f9 aa3d f72e 21be 5454 aebe
000001a0: f93c 73be d87e 30be 0263 90be 7512 a1be
000001b0: 38bc e43b 6a74 05bd f93c e53a e48b 8cbd
000001c0: 89fa 2cbe 3895 82bd 8323 b2bc 0b1a 16be
000001d0: 5487 2abe a052 16be 5988 b9be bfa2 cfbe
000001e0: 3b04 4bbe 5b3d cbbd e958 c8bc 2f10 92bd
000001f0: 68ea 053d c34c d3bd dd8d 13be 2d83 0cbe
00000200: 3969 1fbe 91f1 8bbe 449a 28be e78f 0d3d
00000210: 053b 47bd 616b 5b3c 0ec8 0b3e a7c0 d13d
00000220: 8521 e43d 8c6e f13d 9767 093e 237b 883e
00000230: 1a61 b93d 07cb 3f3e 3d8d 673e 167b 873c
00000240: de3a 24be 4eb1 9a3d f5d2 f3ba 31fd 1dbe
00000250: 7872 653e 68b6 bf3c 8af1 93bd 9f02 233e
00000260: bbc2 a9bc c85f d53c 0413 eebd ab38 973d
00000270: 6fa4 153e ba2b 2cbe 1638 1cbd 9686 0a3e
00000280: 2b85 57bd b63e cdbd 0747 01be ee27 ce3d
00000290: f0de 40bd 236b 64be 5af0 d83d afa7 cbbc
000002a0: b32a b3bd 6df1 dd3d ada8 b0bc c1ad 3f3c
000002b0: aa63 2bbe 1333 8c3d f6dd 193d 9f8f 30be
000002c0: 5f19 1abc 336a c63d 7ee6 e0bd a3be ca3c
000002d0: ac30 033d 94c4 18be 773b ac3d 1b66 263d
000002e0: 911a debd b3ae 303d fc9c c23d 657d c2bd
000002f0: aac2 ef3c 4c19 25be 8cc3 933d 74dd 1ebd
00000300: 7f1c 3bbe eb66 2c3e 873a 8e3d b490 4abe
00000310: 8816 6bbc 0620 3d3e e2ec 5ebe b750 b53e
00000320: 8dd1 48bd 8e57 06bf 3471 0e3f d06d 6fbd
00000330: a0c6 b0be 9712 a13e d56a 013d eeb8 a73e
00000340: bf16 81be fd38 a83c 3a2f 023f dd20 08bf
00000350: b88b 193d aee2 893e 192e 9bbe e454 60bd
00000360: 7f13 843d 8f88 a0bd 5eff ae3d 8f75 0bbe
00000370: 5a3e 263f 1d3b 0ebf 8122 4a3e 68c2 8dbe
00000380: 78df d63d 9c01 7b3d 2edb 433c 5edf 62bd
00000390: 9346 083d 33f1 99bd 0c1d 62bb 80f9 54bd
000003a0: e73a 0dbc 4856 343d 5ce6 c73c 8e21 c0bd
000003b0: 16e1 093c dd7e cdbd 615b 4cbd 0297 9bbb
000003c0: b9c1 d83d cab1 05bb 349f f7bd e20c 1abd
000003d0: cb76 953d 9800 f2bc 9bbe 8e3d f58c d4bc
000003e0: 5032 79bd f6c8 a73d 2e4a e9bd 085c 103c
000003f0: 3fdb 88bc 09f3 a33d 5e0a cebd 134b f13c

layer2.0.bn1.weight f4 [16]
0.48614588 0.597236 0.6861048 0.641947 0.34038815 0.63077885 0.69579047 0.73556745
0.76360065 0.4573656 0.7701664 0.6149489 0.7595257 0.4431273 0.47450435 0.55933
00000000: 1de8 f83e 75e4 183f 90a4 2f3f a356 243f
00000010: 5b47 ae3e b97a 213f 531f 323f 264e 3c3f
00000020: 557b 433f d32b ea3e a029 453f 4b6d 1d3f
00000030: 4770 423f 95e1 e23e 3cf2 f23e 4030 0f3f

layer2.0.bn1.bias f4 [16]
0.051418073 0.23234196 -0.032972246 -0.04898693 1.021216 -0.0431473 -0.06165448 -0.11690663
-0.17278181 0.20578903 -0.1792786 -0.035606302 -0.09954788 0.26716566 0.6041512 -0.04625671
00000000: c29b 523d 0deb 6d3e e80d 07bd 85a6 48bd
00000010: 35b7 823f 39bb 30bd 6889 7cbd be6c efbd
00000020: b7ed 30be 5cba 523e cf94 37be ead7 11bd
00000030: c2df cbbd f0c9 883e a7a9 1a3f ad77 3dbd

layer2.0.bn1.running_mean f4 [16]
0.47352597 -1.2652652 -0.29268804 -0.20258516 -0.4333401 -0.23276131 -0.36950678 -1.0811208
-1.3267847 2.0431137 -0.7620616 -0.24195884 -0.96805626 -0.31345174 -1.38437 -0.30755132
00000000: ff71 f23e 36f4 a1bf 35db 95be 7c72 4fbe
00000010: c1de ddbe fb58 6ebe fe2f bdbe 2b62 8abf
00000020: 15d4 a9bf 60c2 0240 7816 43bf 0fc4 77be
00000030: 89d2 77bf bf7c a0be 0933 b1bf 5e77 9dbe

layer2.0.bn1.running_var f4 [16]
0.5707752 3.4078484 2.1288285 1.2279444 0.8384897 1.9177233 2.1100583 1.7315995
1.6006348 1.9595876 1.6573051 1.8060234 1.785459 1.3085308 1.8198409 0.9646803
00000000: 531e 123f 301a 5a40 ba3e 0840 482d 9d3f
00000010: 43a7 563f f577 f53f 320b 0740 0da5 dd3f
00000020: 9ae1 cc3f c4d3 fa3f 9322 d43f c62b e73f
00000030: ec89 e43f f07d a73f 8cf0 e83f 4af5 763f

layer2.0.conv2.weight f4 [16, 16, 3, 3]
-0.08494922 -0.10309833 -0.06522223 -0.047004793 0.016967196 -0.055231947 -0.040666085 -0.12292107
-0.05995802 -0.1801399 -0.26195347 -0.3735171 0.18965586 0.19660263 -0.021903826 0.37736216
0.5071501 0.28034884 -0.008191573 -0.034690462 0.023846019 0.039170317 -0.11476046 -0.03082283
-0.0012050298 0.12817872 0.22376211 -0.06917025 0.005515888 -0.053271167 -0.10058571 -0.08777041
-0.05867608 0.016166825 0.008146956 0.02253013 0.0806634 -0.06279722 0.1709307 -0.18389937
-0.2075232 -0.049471293 -0.13665035 -0.19977996 0.08054384 -0.09856034 -0.06425091 -0.13002543
0.11552657 -0.105939694 0.06877762 -0.061591588 -0.01580752 -0.14153355 -0.09640139 -0.021027237
0.073608235 0.010588216 0.19498937 0.0058158827 -0.02498363 0.13716578 0.045490127 -0.09786844
-0.077704445 -0.021041812 0.037869442 0.15026347 -0.027270967 0.0652673 0.17042483 0.054090716
0.00804994 0.030929126 -0.051707067 -0.016638737 0.08024012 -0.21158472 -0.062243607 -0.01699483
-0.010201723 0.18068483 0.2484849 0.13270663 -0.13727266 -0.046602156 -0.05052569 -0.17623554
-0.4857827 -0.34004092 0.02095392 -0.08138706 0.01285425 0.12260215 0.23344117 0.0067075877
0.04298656 0.092213936 0.082635164 -0.08411667 0.105633475 -0.016530499 -0.09579162 0.3766755
-0.09364302 -0.036800217 0.054084778 -0.023682173 -0.059317466 -0.08461427 -0.060309432 -0.119804315
0.07215323 -0.020914558 0.08446185 0.06397563 0.012535379 0.11933022 -0.032710843 0.050882187
-0.014733767 -0.08591143 -0.23778866 -0.13812464 0.097038694 -0.013221278 -0.02475686 -0.13037813
-0.03803233 -0.08006466 -0.051984724 -0.24240299 -0.077134244 0.06211823 0.0068623773 -0.03385129
-0.057305325 -0.1156834 -0.051803894 0.085800916 -0.11651085 -0.0016808762 -0.0350336 -0.040633176
-0.011475122 -0.008317154 -0.053800173 -8.472661e-05 -0.16505007 -0.1961556 0.084540695 -0.103377216
-0.077252835 0.051048417 0.058705248 -0.04101126 0.09759455 -0.0045845 -0.12200726 -0.044822417
-0.023158686 0.017070815 -0.0928002 0.21735919 -0.11294662 -0.105631955 -0.12081124 0.22258706
0.10563908 -0.20648876 0.016618583 -0.05774306 0.13217674 -0.15115999 -0.13567914 0.023954662
0.082098864 -0.03087725 -0.21076673 0.11649644 -0.02897526 -0.46720454 0.024759514 0.40107322
-0.052070428 -0.23253454 -0.12777624 0.28708082 -0.028273549 -0.004516404 0.18192336 -0.00957917
-0.032645717 -0.09080899 0.15338148 0.04981703 -0.11693595 -0.12847003 0.011351837 0.19829015
-0.09907419 -0.1314542 0.04621161 -0.19573036 0.02271488 -0.25497812 0.19414878 -0.0106600905
0.27497837 0.09881863 -0.34363332 0.32514963 0.60236245 -0.16813408 -0.2406413 0.1814488
-0.048577424 0.020839091 -0.01977036 0.03558794 -0.042349007 -0.32043365 0.10718957 0.018062985
-0.023584962 0.030196551 -0.016557753 -0.0989847 -0.22890961 0.21855494 0.01830412 -0.08241304
-0.09970454 0.092230655 0.0020444174 -0.040024407 -0.12381488 0.13959734 -0.07839112 -0.13908704
0.10367622 0.018834796 0.091763094 -0.018617606 0.02051251 -0.015269145 0.04846366 -0.05839223
0.0003807717 0.033118162 -0.054167368 -0.09504039 -0.14187226 0.31775466 -0.0055471864 -0.32267228
00000000: dbf9 adbd 3825 d3bd 3c93 85bd 1988 40bd
00000010: cafe 8a3c e53a 62bd 7b91 26bd 0bbe fbbd
00000020: 8a96 75bd 9876 38be c41e 86be a23d bfbe
00000030: 2535 423e 3352 493e a76f b3bc 9d35 c13e
00000040: 97d4 013f e289 8f3e f335 06bc 9617 0ebd
00000050: ba58 c33c 0e71 203d 8807 ebbd 2980 fcbc
00000060: 17f2 9dba 4841 033e e521 653e 22a9 8dbd
00000070: 9fbe b43b de32 5abd e1ff cdbd f9c0 b3bd
00000080: 5456 70bd 4a70 843c cf7a 053c 1b91 b83c
00000090: da32 a53d d49b 80bd 7508 2f3e 1e50 3cbe
000000a0: f680 54be 69a2 4abd 12ee 0bbe 1e93 4cbe
000000b0: 2bf4 a43d 01da c9bd fb95 83bd 6325 05be
000000c0: 3299 ec3d e9f6 d8bd 48db 8c3d 7647 7cbd
000000d0: c67e 81bc 2cee 10be 186e c5bd 5041 acbc
000000e0: eabf 963d 327a 2d3c 4bab 473e 2993 be3b
000000f0: 78aa ccbc 3075 0c3e db53 3a3d 406f c8bd
00000100: 8223 9fbd e15f acbc fd1c 1b3d abde 193e
00000110: 5d67 dfbc ddaa 853d d983 2e3e 3a8e 5d3d
00000120: e5e3 033c 145f fd3c caca 53bd f64d 88bc
00000130: ef54 a43d aaa9 58be 27f3 7ebd be38 8bbc
00000140: 2125 27bc 7205 393e d372 7e3e 3fe4 073e
00000150: 3491 0cbe e7e1 3ebd 07f4 4ebd 1777 34be
00000160: 83b8 f8be d819 aebe 8ea7 ab3c 42ae a6bd
00000170: a29a 523c d616 fb3d 340b 6f3e 53cb db3b
00000180: ad12 303d a9da bc3d a03c a93d 5c45 acbd
00000190: 5d56 d83d f86a 87bc 662e c4bd 9cdb c03e
000001a0: e9c7 bfbd d3bb 16bd 0088 5d3d 1e01 c2bc
000001b0: dff6 72bd 3f4a adbd 0607 77bd f75b f5bd
000001c0: 13c5 933d 0255 abbc 56fa ac3d a805 833d
000001d0: 3161 4d3c 6763 f43d cefb 05bd d769 503d
000001e0: e665 71bc 55f2 afbd df7e 73be 8c70 0dbe
000001f0: 39bc c63d 0f9e 58bc e6ce cabc d881 05be
00000200: cac7 1bbd f1f8 a3bd efed 54bd 7d38 78be
00000210: 8ff8 9dbd af6f 7e3d cbdd e03b a6a7 0abd
00000220: fdb8 6abd 6beb ecbd 5230 54bd 64b8 af3d
00000230: 3e9d eebd d950 dcba 647f 0fbd f96e 26bd
00000240: 2602 3cbc ac44 08bc 925d 5cbd 41af b1b8
00000250: e302 29be 03dd 48be ac23 ad3d 6fb7 d3bd
00000260: bc36 9ebd 2518 513d ea74 703d 6cfb 27bd
00000270: a7df c73d 9339 96bb f1de f9bd b697 37bd
00000280: 49b7 bdbc 18d8 8b3c 080e bebd 6893 5e3e
00000290: 8f50 e7bd 9155 d8bd e26b f7bd dded 633e
000002a0: 4d59 d83d ca71 53be b223 883c fd83 6cbd
000002b0: 5759 073e afc9 1abe 79ef 0abe 913c c43c
000002c0: 7323 a83d 49f2 fcbc 3cd3 57be af95 ee3d
000002d0: 865d edbc 6f35 efbe 77d4 ca3c 7859 cd3e
000002e0: cd47 55bd 891d 6ebe c6d7 02be 42fc 923e
000002f0: ee9d e7bc 58fe 93bb 1e4a 3a3e f3f1 1cbc
00000300: 84b7 05bd 10fa b9bd 0910 1d3e f10c 4c3d
00000310: 1e7c efbd a68d 03be 0efd 393c 930c 4b3e
00000320: 69e7 cabd ee9b 06be 6348 3d3d 8a6d 48be
00000330: 8e14 ba3c 7e8c 82be f0ce 463e a9a7 2ebc
00000340: f7c9 8c3e 6c61 ca3d b5f0 afbe 037a a63e
00000350: 6d34 1a3f 572b 2cbe ac6a 76be b7cd 393e
00000360: 1ff9 46bd beb6 aa3c 73f5 a1bc a9c4 113d
00000370: 2776 2dbd e10f a4be 3586 db3d d3f8 933c
00000380: 4035 c1bc c25e f73c 20a4 87bc 7eb8 cabd
00000390: 4867 6abe decc 5f3e 86f2 953c 2bc8 a8bd
000003a0: e531 ccbd 6de3 bc3d a2fb 053b a2f0 23bd
000003b0: a892 fdbd 9bf2 0e3e 868b a0bd d56c 0ebe
000003c0: 3354 d43d 6e4b 9a3c 4aee bb3d f383 98bc
000003d0: da09 a83c 702b 7abc d581 463d b12c 6fbd
000003e0: 50a2 c739 e9a6 073d 9ade 5dbd 89a4 c2bd
000003f0: f646 11be bdb0 a23e 2cc5 b5bb 4d35 a5be

layer2.0.bn2.weight f4 [16]
0.65167683 0.78705657 0.5784968 0.56210405 0.50980204 0.60230994 0.45968613 0.7596453
0.55864006 0.74832594 0.68860793 0.5192483 0.67627245 0.66301876 0.39970827 1.30924
00000000: 4bd4 263f 8a7c 493f 5e18 143f 0de6 0f3f
00000010: 6382 023f fc30 1a3f fb5b eb3e 1d78 423f
00000020: 0903 0f3f 4a92 3f3f 9c48 303f 75ed 043f
00000030: 3120 2d3f 99bb 293f 90a6 cc3e 2d95 a73f

layer2.0.bn2.bias f4 [16]
-0.018656198 -0.10532594 0.30633852 0.6479031 0.16716298 0.5011867 0.53153723 0.064623654
-0.05141341 -0.02719195 0.30234542 -0.10202957 0.07436713 0.14143443 -0.113384746 -0.17995211
00000000: e2d4 98bc 20b5 d7bd 67d8 9c3e fadc 253f
00000010: c62c 2b3e c64d 003f d312 083f 6859 843d
00000020: de96 52bd a7c1 debc 05cd 9a3e e1f4 d0bd
00000030: cb4d 983d 30d4 103e 4336 e8bd 5e45 38be

layer2.0.bn2.running_mean f4 [16]
-0.92968017 -0.23815697 -0.32499674 -0.40259454 -0.41071635 0.9895587 -0.7742864 -0.23098983
-0.44916317 -0.12709826 2.0313919 -0.73840904 0.3430615 -0.7451922 0.8991219 -0.68673486
00000000: 85ff 6dbf 6cdf 73be f965 a6be df20 cebe
00000010: 6a49 d2be b853 7d3f a237 46bf 9988 6cbe
00000020: b7f8 e5be 0c26 02be 5302 0240 6008 3dbf
00000030: c2a5 af3e ebc4 3ebf da2c 663f dbcd 2fbf

layer2.0.bn2.running_var f4 [16]
0.49973178 0.31794697 0.61942804 0.8370271 0.77532244 0.8190218 0.659922 0.46143782
0.2144044 0.6340595 1.1783961 0.21591963 0.72696155 0.49540955 0.23197538 0.7525443
00000000: d8dc ff3e f2c9 a23e d692 1e3f 6847 563f
00000010: 887b 463f 6aab 513f a6f0 283f 9441 ec3e
00000020: d48c 5b3e b951 223f afd5 963f 091a 5d3e
00000030: 271a 3a3f 52a6 fd3e f48a 6d3e bea6 403f

layer2.0.shortcut.0.weight f4 [16, 8, 1, 1]
0.47352797 0.121861674 0.05786003 0.27682596 0.118603885 -0.18755959 -0.035430394 -0.13251954
-0.12514032 -0.06405932 0.00082832755 0.093675785 0.060719725 -0.03300936 -0.22877778 -0.004683721
-0.052053493 -0.071474686 0.19636163 0.37589148 0.33723357 0.30691516 0.116842695 -0.037330307
0.081179686 0.26574907 0.13188936 0.3875766 0.14181772 -0.15780677 -0.03677033 -0.27700657
0.10084297 0.12556814 0.009658766 -0.3424724 0.21366252 0.058744777 -0.044521287 -0.05418067
0.030384798 -0.023708494 0.002499362 -0.012148341 -0.033813674 0.05594553 -0.08823353 0.25266933
0.1361209 0.20935054 0.019882552 0.09409537 -0.004884364 -0.40869394 -0.08326621 0.12058673
0.19204256 0.010163668 -0.08732209 -0.040505514 0.17481136 0.26289397 -0.12213407 0.018155217
0.10137685 0.2937042 -0.041448575 -0.42165685 0.17591998 -0.011725563 0.06936608 -0.069843404
0.054154936 0.1624526 -0.0233383 -0.0452398 0.042497456 -0.45554778 -0.07707135 0.106801815
0.18416387 0.040278763 0.14549205 -0.21831499 -0.1271237 -0.084985554 0.009576858 -0.19398348
0.01889223 0.4303527 -0.062433295 0.124202006 -0.782652 -0.0292727 -0.0063626156 0.007948017
-0.056294147 -0.1813454 -0.064969085 0.3044799 -0.2040241 -0.40309832 -0.0411691 0.007956946
0.3554385 0.07315932 -0.025676228 0.17793714 -0.023939133 -0.18909983 0.01769115 -0.10381433
0.06602456 -0.3605311 0.008609001 -0.106056355 0.9452599 -0.15381116 -0.0088444175 -0.033640936
0.060785286 -0.016837317 -0.27283338 0.05249812 0.01273459 0.3397489 -0.11183175 0.18838531
00000000: 4272 f23e 9d92 f93d a4fe 6c3d 22bc 8d3e
00000010: 98e6 f23d 9f0f 40be 761f 11bd 34b3 07be
00000020: c924 00be 8831 83bd 1f24 593a 17d9 bf3d
00000030: 3fb5 783d d334 07bd b944 6abe e679 99bb
00000040: 0b36 55bd 5261 92bd 0613 493e d974 c03e
00000050: e1a9 ac3e fc23 9d3e 394b ef3d aae7 18bd
00000060: 8941 a63d 4310 883e 010e 073e 7170 c63e
00000070: aa38 113e 1998 21be 7c9c 16bd ced3 8dbe
00000080: c286 ce3d ef94 003e cd3f 1e3c 8b58 afbe
00000090: 59ca 5a3e 5d9e 703d f45b 36bd 8dec 5dbd
000000a0: 8ae9 f83c 5138 c2bc 56cc 233b d609 47bc
000000b0: 3580 0abd 2427 653d c8b3 b4bd e05d 813e
000000c0: 4763 0b3e fd5f 563e bce0 a23c 13b5 c03d
000000d0: 040d a0bb 5540 d1be 7a87 aabd 2df6 f63d
000000e0: cea6 443e 8385 263c edd5 b2bd 1ce9 25bd
000000f0: c001 333e 0a9a 863e 6d21 fabd 40ba 943c
00000100: aa9e cf3d 6660 963e fbc5 29bd 68e3 d7be
00000110: 5e24 343e 931c 40bc ce0f 8e3d 0f0a 8fbd
00000120: 91d1 5d3d f959 263e f62f bfbc 5e4d 39bd
00000130: d011 2e3d 8f3d e9be 95d7 9dbd e9ba da3d
00000140: 7495 3c3e 58fb 243d defb 143e f78d 5fbe
00000150: b72c 02be e80c aebd 41e8 1c3c 9ba3 46be
00000160: e1c3 9a3c 3057 dc3e 0eba 7fbd 9f5d fe3d
00000170: e25b 48bf 4dcd efbc 7d7d d0bb 6638 023c
00000180: b194 66bd 9cb2 39be 830e 85bd cae4 9b3e
00000190: b2eb 50be e762 cebe eea0 28bd da5d 023c
000001a0: 09fc b53e 8ed4 953d f456 d2bc 2735 363e
000001b0: 001c c4bc 63a3 41be 08ed 903c 9c9c d4bd
000001c0: e237 873d 8897 b8be c40c 0d3c 1334 d9bd
000001d0: 8efc 713f ac80 1dbe 2de8 10bc 14cb 09bd
000001e0: fef9 783d 6aee 89bc d1b0 8bbe 4508 573d
000001f0: bea4 503c 91f3 ad3e 0b08 e5bd 14e8 403e

layer2.0.shortcut.1.weight f4 [16]
0.45630637 0.1305049 0.23682801 0.15309079 0.121319436 0.058805704 0.10435986 0.17919086
0.3328247 0.24151058 0.10527554 0.5860649 0.2659409 0.21278147 0.66441184 0.32733282
00000000: fda0 e93e 14a3 053e 0b83 723e d5c3 1c3e
00000010: 5376 f83d 40de 703d 9fba d53d cf7d 373e
00000020: 0068 aa3e 8d4e 773e b49a d73d 5908 163f
00000030: 6829 883e 63e3 593e e516 2a3f 2b98 a73e

layer2.0.shortcut.1.bias f4 [16]
-0.018656198 -0.10532594 0.30633852 0.6479031 0.16716298 0.5011867 0.53153723 0.064623654
-0.05141341 -0.02719195 0.30234542 -0.10202957 0.07436713 0.14143443 -0.113384746 -0.17995211
00000000: e2d4 98bc 20b5 d7bd 67d8 9c3e fadc 253f
00000010: c62c 2b3e c64d 003f d312 083f 6859 843d
00000020: de96 52bd a7c1 debc 05cd 9a3e e1f4 d0bd
00000030: cb4d 983d 30d4 103e 4336 e8bd 5e45 38be

layer2.0.shortcut.1.running_mean f4 [16]
0.4678964 -0.1696047 0.7926825 0.31818706 -0.05952511 0.15408036 -0.011547427 0.33652478
-0.08385989 -0.2554791 -0.24545808 -0.08592622 -0.35534087 0.21342455 0.08332306 0.3461521
00000000: 1e90 ef3e dbac 2dbe 3eed 4a3f 6ae9 a23e
00000010: 9ad0 73bd 3ec7 1d3e 6b31 3dbc fa4c ac3e
00000020: bcbe abbd 28ce 82be 5d59 7bbe 16fa afbd
00000030: 3def b5be f78b 5a3e 48a5 aa3d d93a b13e

layer2.0.shortcut.1.running_var f4 [16]
0.21258733 0.040500104 0.1660703 0.110187106 0.073071785 0.049035944 0.08617055 0.085302934
0.12684509 0.09006549 0.1108267 0.1405728 0.12584552 0.11986192 0.19525507 0.18254606
00000000: 7eb0 593e 70e3 253d 550e 2a3e c7a9 e13d
00000010: a9a6 953d ead9 483d 2f7a b03d 4eb3 ae3d
00000020: aee3 013e 4174 b83d 1cf9 e23d 51f2 0f3e
00000030: a6dd 003e 2b7a f53d f2f0 473e 5bed 3a3e

layer3.0.conv1.weight f4 [32, 16, 3, 3]
-0.017930951 0.0941046 0.020282298 0.10511087 0.14043546 0.08160874 0.14325632 0.12657005
0.028960021 -0.10270658 -0.04560004 0.052262265 -0.11899786 -0.03409324 0.050325863 -0.009493645
0.021513147 0.088245824 -0.06406891 -0.07649115 0.035455495 -0.33487028 -0.37973678 -0.104465455
-0.1642156 -0.2843924 -0.014376439 -0.07777466 -0.04642446 -0.034271713 -0.04836761 -0.13028888
-0.2410679 0.016635157 -0.024056084 -0.056316033 0.33237934 0.20516533 0.14994891 -0.022261422
-0.058554083 -0.02208223 -0.19254617 -0.17512934 -0.025475796 -0.04597504 -0.067758374 0.008014564
-0.11324047 -0.17897597 -0.1279753 0.009154542 -0.08528554 -0.08179657 0.033430856 0.00850107
0.059937727 0.03755291 0.033925638 0.109031856 0.041608855 -0.01510309 0.06126254 -0.05271649
-0.032117542 0.00032445008 -0.004093703 -0.05765501 -0.008213366 -0.002121395 -0.031501766 0.0152939875
-0.12291472 -0.1664309 -0.089972116 -0.19774877 -0.19092464 -0.11339376 -0.060056288 -0.12820229
-0.055112705 -0.089383274 -0.039295983 0.05396151 0.08254817 0.19664072 0.1200095 0.092705145
0.14562751 0.09445467 -0.050424617 -0.19350483 -0.027896313 0.20362586 -0.033380978 0.08790485
0.18479547 0.022563415 0.09617188 0.086514436 0.10480898 0.06840057 0.05021367 0.02142265
0.10794531 0.037287824 0.07511543 0.07919676 -0.019822134 0.0863389 0.115987755 0.116818085
0.15566218 0.05800151 0.07682463 0.018104639 -0.013196251 0.12762837 0.0926321 -0.045583576
0.095443904 -0.003008061 -0.08695344 -0.009160059 -0.10606101 -0.068887 -0.08690786 -0.039152212
0.0060657538 -0.05159729 0.05933563 0.10765038 -0.012331715 0.08246238 0.15053041 -0.07293791
-0.15703835 -0.15355685 -0.16421238 -0.2074636 -0.24278776 -0.1181188 -0.19314826 -0.19251719
0.11544325 -0.009333567 -0.069685884 0.12507594 0.031816736 -0.021945482 -0.03087571 -0.014794279
0.06387098 0.090869196 0.12089216 0.08856504 0.09440716 0.22662193 0.25196883 0.05269955
0.20974365 0.20402506 -0.021099756 0.0650998 0.019080635 -0.05293094 0.060067724 0.09110299
0.025508728 0.13446766 0.120166 -0.15908015 0.07593493 0.13725135 -0.23164086 -0.0637975
0.09961068 0.11761019 0.010097037 -0.023799486 -0.13490605 -0.07001568 0.13729547 -0.06791027
-0.19223239 -0.05138479 0.10234758 -0.052934427 -0.1469403 0.005947809 -0.07616548 -0.08920466
0.10833536 0.06423611 -0.0042963233 0.05641528 0.024508897 -0.023694003 0.15955007 0.047635235
0.024960708 0.03693214 -0.05880076 0.04853987 -0.03634374 0.054333158 0.23033735 -0.31499514
-0.27414224 -0.09497541 -0.27453175 -0.42386404 -0.26283535 -0.10142428 -0.24838237 -0.2248683
0.093818255 0.12910196 0.094530754 0.1506802 0.28287956 0.18739836 0.058656 0.19872561
0.18479745 -0.06200214 -0.032307904 0.020785527 0.0010642501 0.038858447 -0.018805854 0.07957212
0.09763192 0.047371995 -0.15912548 -0.07877466 -0.02314264 -0.08851226 -0.035722483 -0.0023914692
0.01703661 -0.016012695 -0.034787178 -0.00016437785 0.026008267 0.053145137 -0.039314676 -0.018761542
0.04937815 -0.06621253 -0.028143706 0.0037616685 -0.012180544 0.042181242 0.00884532 0.009331179
00000000: eee3 92bc eab9 c03d 1027 a63c 5e44 d73d
00000010: 50ce 0f3e 7c22 a73d c9b1 123e 949b 013e
00000020: 913d ed3c d457 d2bd 1cc7 3abd f510 563d
00000030: 26b5 f3bd 5aa5 0bbd 7e22 4e3d 3c8b 1bbc
00000040: 573c b03c 3aba b43d 9036 83bd 64a7 9cbd
00000050: c839 113d 1e74 abbe dc6c c2be fcf1 d5bd
00000060: 2228 28be e19b 91be 288b 6bbc 5248 9fbd
00000070: 9327 3ebd 7f60 0cbd 1d1d 46bd 736a 05be
00000080: 81da 76be 7446 883c 4411 c5bc a4ab 66bd
00000090: a02d aa3e dc16 523e 358c 193e 965d b6bc
000000a0: 68d6 6fbd cbe5 b4bc d32a 45be 1b55 33be
000000b0: 9eb2 d0bc 5350 3cbd e7c4 8abd 854f 033c
000000c0: 9fea e7bd 7a45 37be f50b 03be effc 153c
000000d0: 2faa aebd f684 a7bd cbee 083d 1248 0b3c
000000e0: 4381 753d 15d1 193d 9cf5 0a3d 184c df3d
000000f0: 0c6e 2a3d f372 77bc 6eee 7a3d 3fed 57bd
00000100: af8d 03bd f41a aa39 7824 86bb a927 6cbd
00000110: 5b91 06bc 1a07 0bbb ff07 01bd a293 7a3c
00000120: b6ba fbbd dd6c 2abe 4d43 b8bd a77e 4abe
00000130: c081 43be fd3a e8bd 95fd 75bd 7647 03be
00000140: dcbd 61bd 940e b7bd d3f4 20bd bf06 5d3d
00000150: 040f a93d 2f5c 493e 8ac7 f53d 32dc bd3d
00000160: 611f 153e 7371 c13d 0b8a 4ebd 2126 46be
00000170: cf86 e4bc 4c83 503e 7eba 08bd 7507 b43d
00000180: 063b 3d3e e9d6 b83c c3f5 c43d 7b2e b13d
00000190: 17a6 d63d 9915 8c3d d9ac 4d3d 8e7e af3c
000001a0: 6e12 dd3d 1ebb 183d 1ed6 993d e931 a23d
000001b0: 0762 a2bc 73d2 b03d fd8a ed3d 523e ef3d
000001c0: e865 1f3e fe92 6d3d 3b56 9d3d 2e50 943c
000001d0: 1735 58bc 03b1 023e e6b5 bd3d d8b5 3abd
000001e0: 1878 c33d e422 45bb a514 b2bd 1214 16bc
000001f0: 8436 d9bd a114 8dbd c0fc b1bd 125e 20bd
00000200: 3bc3 c63b ae57 53bd eb09 733d cd77 dc3d
00000210: f60a 4abc 09e2 a83d a524 1a3e 7960 95bd
00000220: a9ce 20be 023e 1dbe 4a27 28be 5771 54be
00000230: 5b9d 78be 45e8 f1bd a8c8 45be 3a23 45be
00000240: 836d ec3d d1eb 18bc 79b7 8ebd e813 003e
00000250: 4452 023d 03c7 b3bc 0fef fcbc b463 72bc
00000260: cace 823d a119 ba3d 4f96 f73d 9661 b53d
00000270: 8b58 c13d 940f 683e 0f02 813e 7cdb 573d
00000280: 0ac7 563e f2eb 503e 65d9 acbc 0b53 853d
00000290: fe4e 9c3c 1dce 58bd 9309 763d 3494 ba3d
000002a0: aef7 d03c e4b1 093e 9819 f63d e8e5 22be
000002b0: c683 9b3d 9e8b 0c3e 4333 6dbe 44a8 82bd
000002c0: af00 cc3d 9cdd f03d 0b6e 253c 24f7 c2bc
000002d0: d024 0abe 6164 8fbd 2f97 0c3e 8a14 8bbd
000002e0: 91d8 44be dc78 52bd 9c9b d13d c5d1 58bd
000002f0: 8577 16be d7e5 c23b a6fc 9bbd efb0 b6bd
00000300: eede dd3d 398e 833d 2cc8 8cbb b513 673d
00000310: e2c6 c83c ed19 c2bc 1861 233e 2a1d 433d
00000320: 667a cc3c 2846 173d 11d9 70bd bed1 463d
00000330: 2cdd 14bd 728c 5e3d 8edd 6b3e 0b47 a1be
00000340: 5f5c 8cbe 7882 c2bd 6d8f 8cbe b504 d9be
00000350: 5b92 86be 88b7 cfbd f357 7ebe e043 66be
00000360: c923 c03d 4e33 043e 5799 c13d e94b 1a3e
00000370: 97d5 903e 5be5 3f3e 4641 703d ba7e 4b3e
00000380: 8b3b 3d3e f5f5 7dbd 4b55 04bd 6946 aa3c
00000390: 4f7e 8b3a 092a 1f3d bc0e 9abc b5f6 a23d
000003a0: 3ef3 c73d 2309 423d caf1 22be 9c54 a1bd
000003b0: a295 bdbc ea45 b5bd bd51 12bd 32ba 1cbb
000003c0: 5c90 8b3c 0e2d 83bc 007d 0ebd d85c 2cb9
000003d0: 4a0f d53c b7ae 593d 6d08 21bd ceb1 99bc
000003e0: be40 4a3d 6f9a 87bd a18d e6bc 5386 763b
000003f0: e890 47bc 3dc6 2c3d f6eb 103c cde1 183c

layer3.0.bn1.weight f4 [32]
0.31230655 0.5598668 0.36202523 0.4477607 0.37651047 1.1032426 0.35732093 0.6069119
0.95415276 0.432595 0.31751615 0.33825737 0.45543948 0.37716168 0.36165303 0.4748102
0.37709087 0.54775125 0.40604934 0.59839606 0.48023796 0.31794798 0.48658767 0.44155437
0.35368744 0.42798883 0.58957064 0.47845036 0.48429883 1.0741905 0.34366655 0.3562695
00000000: a5e6 9f3e 6e53 0f3f 5f5b b93e e440 e53e
00000010: fbc5 c03e 0e37 8d3f c5f2 b63e 945e 1b3f
00000020: 5b43 743f 187d dd3e 7a91 a23e 1230 ad3e
00000030: 5d2f e93e 561b c13e 962a b93e 531a f33e
00000040: 0e12 c13e 6d39 0c3f b3e5 cf3e 7c30 193f
00000050: c0e1 f53e 14ca a23e 0522 f93e 6a13 e23e
00000060: 8516 b53e 5a21 db3e 1aee 163f 72f7 f43e
00000070: 04f6 f73e 137f 893f 10f5 af3e f568 b63e

layer3.0.bn1.bias f4 [32]
0.20403151 0.00874485 0.1976638 0.0017923441 0.06044773 -1.1918535 0.21290536 -0.29182437
-0.27739692 0.20374906 0.47391486 0.30651322 -0.07341433 0.12847795 -0.01046898 -0.029159617
0.089792 -0.19588606 0.014374055 -0.23856781 -0.04033329 0.36868697 0.17859012 -0.030909413
0.050494913 -0.03337537 -0.14562984 0.2960375 0.028735451 -0.46913806 0.16503006 0.28897658
00000000: a3ed 503e 8f46 0f3c 6168 4a3e 17ed ea3a
00000010: 0a98 773d a88e 98bf dd03 5a3e 016a 95be
00000020: f806 8ebe 98a3 503e f8a4 f23e 4def 9c3e
00000030: 415a 96bd b98f 033e 1686 2bbc 26e0 eebc
00000040: dee4 b73d 5b96 48be 2881 6b3c 1f4b 74be
00000050: 8534 25bd 8ac4 bc3e 54e0 363e bd35 fdbc
00000060: c1d3 4e3d 9db4 08bd fd1f 15be 3a92 973e
00000070: 9c66 eb3c dd32 f0be a4fd 283e bdf4 933e

layer3.0.bn1.running_mean f4 [32]
-1.5919675 0.9058691 -0.14613473 -0.22224988 2.42826 0.71742445 0.8163979 -0.24518846
-0.17280893 -0.5991568 -0.95691556 0.48042378 -0.49652112 0.077832684 0.53058654 0.555134
-1.5236434 0.3996384 -0.31583467 -0.54950625 -0.46635982 -1.5232168 -0.2121528 -1.3344948
1.780785 -0.93380946 -1.1029986 -2.2513099 -0.6275667 -1.122103 -1.3868077 3.2059653
00000000: 97c5 cbbf 0ae7 673f 58a4 15be 7995 63be
00000010: 9d68 1b40 21a9 373f 74ff 503f af12 7bbe
00000020: d3f4 30be 5762 19bf 6bf8 74bf 1bfa f53e
00000030: 0438 febe be66 9f3d 85d4 073f 431d 0e3f
00000040: bf06 c3bf 689d cc3e 15b5 a1be 71ac 0cbf
00000050: b7c6 eebe c5f8 c2bf 953e 59be bad0 aabf
00000060: c3f0 e33f 230e 6fbf 0f2f 8dbf 7615 10c0
00000070: 36a8 20bf 12a1 8fbf ea82 b1bf 892e 4d40

layer3.0.bn1.running_var f4 [32]
1.0341161 1.1806229 0.7701298 0.5789271 0.7857352 0.5559738 1.526973 0.6015694
1.3897038 0.99835354 1.084952 1.4914576 0.48157632 0.6544868 0.81383914 0.7826485
0.958054 0.9486584 0.5617719 0.6627924 0.76976645 0.77599114 1.441962 0.7111099
1.1274229 0.5141166 0.71244335 1.8372612 0.9344558 1.0594715 0.85893196 0.974747
00000000: eb5d 843f a71e 973f 3a27 453f 9134 143f
00000010: f125 493f 4d54 0e3f da73 c33f 7400 1a3f
00000020: d0e1 b13f 1994 7f3f b5df 8a3f 15e8 be3f
00000030: 2c91 f63e 728c 273f c357 503f a75b 483f
00000040: 0743 753f 47db 723f 49d0 0f3f c3ac 293f
00000050: 6a0f 453f 5ba7 463f 3692 b83f 4c0b 363f
00000060: 654f 903f 259d 033f b062 363f 602b eb3f
00000070: 7f38 6f3f c39c 873f f7e2 5b3f 0589 793f
