meta_results/meta_seed-1_metalr-1e-05_T-2_400-epochs_cifar100-ResNet10_scheckpoint.pth.tar (torch, 909381 bytes, 128 tensors)

conv1.weight f4 [8, 3, 3, 3]
000000 4e 5e 4e 3e de 65 35 3e e2 54 12 3d 0c 0e 75 3e
       0.20153162 0.1771464 0.03572548 0.2393114
000010 08 02 89 be 46 8d f1 3d a4 aa 94 3e 22 69 80 be
       -0.26759362 0.11794524 0.29036438 -0.2508021
000020 76 31 42 3e 36 c4 d0 bd a8 6e 97 3c 74 58 c5 3d
       0.1896418 -0.10193674 0.018485382 0.09636012
000030 cc 52 0d bc 39 e3 f1 be 70 eb a8 3d 4c 15 21 3e
       -0.008625697 -0.4724367 0.08248031 0.1573078
000040 a8 b1 85 be 8c 8f 97 3d 43 46 2a be f3 73 92 bd
       -0.26112103 0.07400426 -0.16628365 -0.07151022
000050 94 4c 3d be 6d 6d f6 bd bc 90 b7 be c2 96 7a be
       -0.18486243 -0.1203259 -0.3585261 -0.24471572
000060 17 cb ee bc 27 1f 20 be 44 84 77 be 5b 05 26 be
       -0.029149575 -0.15636884 -0.24171549 -0.1621298
000070 cc af 3c bd a6 69 2b 3e 87 ed 79 be 0e 34 8c 3f
       -0.04606609 0.1673952 -0.24407016 1.0953386
000080 cd ab 58 3f 58 fd 85 be 7b 73 c3 3e 6c 75 e6 3e
       0.8463715 -0.26169848 0.38174042 0.4501146
000090 4f b8 74 3e f3 38 a5 be f2 42 9f 3d dc 28 d8 bd
       0.23898433 -0.3227001 0.07776441 -0.10554668
0000a0 fc 5e d8 bd 31 9e 3e bf 42 0d 4c be 2b 83 0f bf
       -0.10564992 -0.7446013 -0.19926932 -0.5605952
0000b0 8a 5e d2 be 37 be 5a 3d e0 53 c5 be 83 e8 30 3e
       -0.41087753 0.05340406 -0.38540554 0.17276196
0000c0 93 01 54 3e 07 b1 3a 3d 77 9a 07 bf cf de 63 3e
       0.20703726 0.045578983 -0.5297007 0.22252963
0000d0 23 68 80 3d 5f fd 86 3d ba a7 84 bc 30 b0 2b 3c
       0.062698625 0.065912955 -0.01619326 0.010479018
0000e0 ca 09 34 3d ab 37 17 bd 5b 59 65 bf 61 50 4e bf
       0.043954648 -0.036918323 -0.8958947 -0.805914
0000f0 41 f6 75 3c 40 ee df bd 08 c6 52 bd cc c0 96 bc
       0.015012325 -0.109341145 -0.05145839 -0.01840248
000100 99 66 7c 3d 8e 28 8d 3d 78 2c e6 3d 60 31 34 bf
       0.061621282 0.06892501 0.112389505 -0.7038784
000110 ff a3 20 bf 2c c2 ad bc 25 13 94 bc 78 07 c6 3d
       -0.6275024 -0.021210752 -0.018075535 0.09669393
000120 c9 2c fc b9 38 2d 3d 3d 57 b5 27 3d 71 28 92 3d
       -0.00048098553 0.046185702 0.040944424 0.0713662
000130 79 4d 39 bf 88 0d 33 bf 12 93 51 3c 2e 0d d7 bc
       -0.7238384 -0.6994252 0.012791412 -0.026251402
000140 d0 01 76 3d fd 99 04 be b2 53 96 be 4e 1c eb bc
       0.060060322 -0.12949367 -0.2936073 -0.02870002
000150 04 18 0b be db df e7 be 67 fa b7 be fa 27 24 be
       -0.1358338 -0.45287976 -0.3593323 -0.16030875
000160 33 ab 92 be 26 be b5 be 89 0a a9 3e 73 75 50 3e
       -0.2864624 -0.35496634 0.3301585 0.20357303
000170 0d 56 30 3e e0 75 a7 3e 66 73 78 3e ab dd 0b 3d
       0.17220326 0.3270712 0.24262771 0.034146946
000180 1f 2e d5 bd aa f8 71 3e b3 fc a3 bd 63 db 97 be
       -0.104091875 0.23630014 -0.08007183 -0.29659566
000190 9c dd e4 bd ad 86 59 3d 43 f9 09 3e c5 79 05 3f
       -0.11175081 0.053106952 0.13473992 0.5213893
0001a0 61 a1 d2 3e 68 38 05 3d 0e e6 31 3f 92 00 bf 3e
       0.41138747 0.032524496 0.6949166 0.37305123
0001b0 4c 25 f9 bd 09 57 1c 3e dd 7d 0f be 89 b4 9e be
       -0.12165317 0.15267576 -0.14012857 -0.30997112
0001c0 bf 80 6a be 5a 4d 68 3e df 3f 2b be d6 fb 87 bd
       -0.22900675 0.22685757 -0.16723584 -0.06639831
0001d0 a6 76 83 3d 39 0d a9 3d 23 ad 37 3f 8b de 37 3e
       0.06419115 0.08254475 0.7174856 0.17955987
0001e0 52 e5 a2 3e 08 2e 1a 3f b1 d9 60 3f d6 85 97 3d
       0.31815583 0.6022649 0.8783217 0.07398574
0001f0 c5 7d d8 3e ac 8b 2a 3e 27 0e 9f bb f1 7f 78 be
       0.42283455 0.16654843 -0.004853982 -0.24267556
000200 7f 49 34 bf 08 c2 0d be 08 18 65 bf d8 41 1c bf
       -0.70424646 -0.13843548 -0.89489794 -0.6103797
000210 86 8e 27 bd 26 9e 4d be 0d 44 b1 be be d0 ac bd
       -0.040907405 -0.2007986 -0.3462223 -0.08438252
000220 41 13 be 3b 5d 5f 46 be 1c 1d 0d bc 04 2f 5e bd
       0.005800635 -0.19372316 -0.008612897 -0.054244056
000230 0d 46 92 3e 0b 1e a3 bc b3 15 06 3e 07 5f 3d 3f
       0.2856907 -0.019911787 0.13094215 0.73973125
000240 fc 09 4e bc 83 04 bc 3c 6a a8 b3 bd 7d f3 66 3c
       -0.012575623 0.02295137 -0.08772357 0.014096138
000250 1a d1 fe be de 68 23 bd e6 a3 a4 bd cf bb 00 be
       -0.49768907 -0.03989493 -0.08039074 -0.12571643
000260 6e 40 2f 3f de cc d9 bc ff c2 de 3d 64 b5 9d 3d
       0.68457687 -0.026586946 0.10877036 0.07700613
000270 92 f9 0b 3e 65 07 16 be 24 18 9c bd 30 ba f7 3d
       0.13669422 -0.14651258 -0.07621792 0.12096059
000280 fc c5 3f be 02 b9 7f 3e 9e ec f3 bd 73 c1 1f 3d
       -0.18727869 0.24972919 -0.119103655 0.039002847
000290 04 bc 91 bb ac b8 0f bf d5 b6 32 3f c3 36 e8 3d
       -0.004447462 -0.5614116 0.6981023 0.1133857
0002a0 5a a3 19 be 49 a5 e5 bb 9b eb d4 3d c7 b5 4b be
       -0.1500372 -0.007008229 0.10396501 -0.19893561
0002b0 6b 18 27 3e 34 71 75 bc 8b 49 ae bf 90 6c b0 3f
       0.16317908 -0.014980603 -1.3616194 1.3783131
0002c0 b7 8c 6e 3e d4 fe 62 be bc 1f 6c 3e d4 5e 0f be
       0.23295866 -0.22167522 0.2305898 -0.14001018
0002d0 65 c0 9d bd 84 ef 94 3d 1b 7f 4b be 25 02 88 bf
       -0.07702712 0.072722465 -0.19872706 -1.0625654
0002e0 b6 c5 78 3f 1a 59 75 3d aa fa 58 bd 4b 32 36 3e
       0.9717668 0.059899427 -0.052973427 0.17792623
0002f0 ef 6b e5 bd f4 90 0b 3e 9a df 99 3f d3 6b 0d 3e
       -0.11202227 0.13629514 1.2021363 0.13810663
000300 07 f3 3e be 6d c9 6b bf 63 da 2d be cc d1 93 bd
       -0.18647395 -0.92104226 -0.16977839 -0.0721775
000310 22 b6 39 3d a0 c8 dc bc 76 91 68 3e 07 97 af 3f
       0.04533971 -0.026951134 0.22711739 1.3717965
000320 22 7f 67 3e 46 4c 0c be 10 f2 c7 bf ad b7 fe bd
       0.22607091 -0.13700971 -1.5620747 -0.12437377
000330 fe 69 cc bc 44 13 16 bb 89 bc 56 bd 16 4f 83 3d
       -0.024952885 -0.0022899667 -0.052425895 0.06411569
000340 05 3c 27 3f d1 a5 c5 3d 36 65 c3 bd 2d aa 64 bf
       0.6532596 0.096507676 -0.09540789 -0.8932217
000350 18 b0 9d 3c 75 34 09 3d aa 83 c1 3d cc ab 79 3a
       0.019249007 0.033497293 0.09448941 0.0009524196

bn1.weight f4 [8]
000000 ee af ff 3e 9c 3f 91 3e 55 e6 cb 3f da 63 8c 3e
       0.4993891 0.28368843 1.5929667 0.2741993
000010 1d cb 78 3e f1 f6 8a 3e d2 a8 e2 3e 01 51 eb 3e
       0.24296232 0.27141526 0.44269425 0.4596024

bn1.bias f4 [8]
000000 13 25 ac be 9e 40 5c 3e 90 71 e3 bf dd 3b 99 3e
       -0.33622035 0.21509025 -1.7769032 0.29928485
000010 a0 92 e2 3e 06 88 b4 3e 42 b7 7b 3e 40 b1 5d 3e
       0.4425249 0.35260028 0.24581626 0.21649647

bn1.running_mean f4 [8]
000000 16 11 87 3e fc 91 ba bd f6 f5 ba 3f bc 71 ee bc
       0.26380223 -0.091098756 1.4606311 -0.029106967
000010 ec a1 66 be c0 8e aa be 8e 3c 1d bd 06 e1 dc 3c
       -0.22522706 -0.33312035 -0.038387828 0.026962768

bn1.running_var f4 [8]
000000 6e c2 0d 40 bb 7c 8e 3f 3d 59 9e 41 30 03 15 40
       2.214992 1.1131815 19.793573 2.3283195
000010 9c 3d c9 3f 2c 71 c5 3f 9a b8 60 40 16 d1 80 40
       1.5721927 1.5425162 3.5112672 4.025523

layer1.0.conv1.weight f4 [8, 8, 3, 3]
000000 14 52 01 3d c1 17 21 3e ad 1f 9b bc 0a 0c 34 bc
       0.031572416 0.15731718 -0.018936003 -0.010989198
000010 35 82 62 3d 16 a2 44 3e 3b dd b9 bd ea c3 8c be
       0.055299956 0.19202456 -0.090753995 -0.2749322
000020 c8 ab 5b 3e fa af a5 bd 4b f7 c6 3d 24 35 33 ba
       0.21452248 -0.080902055 0.09715136 -0.00068362267
000030 5d ee 25 3e 53 18 01 bc 1f d3 f6 3c 46 26 dc bd
       0.1620421 -0.0078793345 0.030129967 -0.107494876
000040 c0 90 77 3e 88 5a 0b be 05 bf 4c 3e 86 e0 bc 3e
       0.24176311 -0.13608754 0.19994743 0.36890048
000050 aa 66 c3 3d 18 34 26 3e 24 5b bd 3e ba 05 ef 3c
       0.09541066 0.1623081 0.36983597 0.029177535
000060 82 05 10 bf 79 b9 02 bf 25 2a 84 bd 33 7e c4 3d
       -0.56258404 -0.5106426 -0.06453351 0.09594383
000070 1e b6 62 be 94 f6 81 3c 74 49 51 bd 12 04 04 bb
       -0.22139785 0.015864648 -0.05109544 -0.0020144028
000080 79 48 42 be a5 08 19 3c 2a 28 66 3e 0a a8 89 3d
       -0.18972959 0.00934044 0.22476259 0.06721504
000090 f5 42 f1 3d 99 19 8e bd ab 43 61 bd 5d d2 52 be
       0.11780349 -0.06938476 -0.054996174 -0.2058806
0000a0 8c 2e cb bc a1 19 2c bc 71 e8 15 3e 88 b1 8e 3d
       -0.024802469 -0.010504157 0.1463945 0.06967455
0000b0 f4 24 d6 3c 48 67 3f be 5a 9c 10 be f1 2d 65 bd
       0.026140667 -0.18691742 -0.14122143 -0.055952016
0000c0 82 ba 96 3e 68 9e 18 3e 8b f3 17 3e 97 8d 97 bc
       0.2943917 0.14904177 0.14838998 -0.018500132
0000d0 47 b9 23 be 5d b7 96 bd 03 d4 81 3d 0b 3e 60 3d
       -0.15988646 -0.073591925 0.06339266 0.05474667
0000e0 98 87 59 3d b5 c0 ae bc 81 bb b0 be 92 a0 46 3e
       0.053107828 -0.021332124 -0.34518054 0.1939719
0000f0 04 cf 1e 3d bd 46 84 3e 68 5d 27 bd b1 af bc 3c
       0.038771644 0.2583522 -0.040860564 0.023032995
000100 af 05 a7 bd 7b 63 03 bd b4 19 93 3d cf c2 43 bd
       -0.08155381 -0.032077294 0.07182637 -0.047793206
000110 8e d8 22 39 41 d3 64 be fa 0f c9 bf 26 6d 81 be
       0.00015530197 -0.22346212 -1.5708001 -0.25278586
000120 97 ff 5b 3d 14 42 3f 3e 4e c8 53 3e c0 af 6b 3d
       0.053710546 0.1867755 0.20681879 0.057540655
000130 23 99 b1 3b e3 1a 60 3d dc c5 f8 bd 3f a7 ae bd
       0.0054198666 0.05471314 -0.12147114 -0.085279934
000140 35 75 30 bc 3b 4b b2 3c a4 d5 be bd a9 87 50 3d
       -0.010770132 0.021764388 -0.093180925 0.050910626
000150 29 f6 75 bb d3 41 f7 bd 7e b7 93 bd e5 7d 95 3c
       -0.0037530756 -0.12073102 -0.07212733 0.018248508
000160 56 75 66 3c 67 c2 43 3e 76 60 85 3e 50 88 64 3f
       0.014066061 0.19117127 0.26050156 0.89270496
000170 84 db 27 3e a0 80 3f 3e 10 e7 43 3f 36 3d 0a 3e
       0.16392332 0.1870141 0.7652445 0.13499913
000180 9c 2c 21 be d4 69 ce 3e 18 52 24 be 04 a2 3f 3d
       -0.15739673 0.40315115 -0.16046941 0.04678537
000190 53 05 56 bb b7 4a 04 bd 70 f0 97 bc fc 54 7e 3d
       -0.0032656982 -0.032297816 -0.018547267 0.062092766
0001a0 f5 c5 20 3d b3 d4 9b bd 65 b9 07 3b 0d 49 97 bc
       0.039251287 -0.076089285 0.002070987 -0.01846745
0001b0 a2 30 ff bc 1a 5d 2b bd f0 b4 0f 3d d9 2d 13 bc
       -0.03115112 -0.041836835 0.035084665 -0.008983099
0001c0 6f d7 92 3c da fd 8d 3d 51 ee 28 3d 30 96 61 3c
       0.017924992 0.06933184 0.0412429 0.013768718
0001d0 e1 9b 64 bd f9 1f 6c be 7a 06 99 be b2 e4 a7 3e
       -0.05581272 -0.23059072 -0.29887754 0.32791668
0001e0 7f dd 0c 3e df 04 f9 3d a8 7e 8c 3c c8 bb 18 3d
       0.13756369 0.12159132 0.017150238 0.037288457
0001f0 a7 46 71 3c d0 34 8b bc 21 57 26 3e c4 bc 79 bd
       0.0147263175 -0.016992956 0.16244175 -0.060971037
000200 9b 9b 88 3b cb dc 20 3c 84 01 ef bc 83 cf c7 bd
       0.0041689402 0.009818266 -0.029175527 -0.097563766
000210 1c af 62 bd d6 cc ac 3d 73 7a d6 bd 1c c4 4b bd
       -0.05534278 0.08437507 -0.10472574 -0.04974757
000220 c9 b9 28 3d dc 25 5c bd 4a cc 6e be 12 bf 08 3e
       0.041192804 -0.053747043 -0.23320118 0.13354138
000230 52 88 c3 bb 7c 8b 0d bd 64 a5 75 3d 61 12 e7 3c
       -0.0059671784 -0.03455685 0.059972182 0.028207006
000240 17 91 4b bd f3 f5 c1 3b 51 20 50 bc 32 a2 dc bd
       -0.049698915 0.005919212 -0.012703017 -0.10773124
000250 4d c5 56 3d a0 22 9c 3d 69 c9 62 3d 18 fa 3e bd
       0.052434254 0.07623792 0.05536786 -0.046625227
000260 50 4a 22 3d 61 3b 49 3e ee a4 15 3e 88 4f 9c bc
       0.03962165 0.19651558 0.14613697 -0.019080892
000270 62 8c 07 3e 22 e9 8b 3e a3 36 84 3d c5 3a fb be
       0.13237146 0.27326304 0.064557336 -0.49068275
000280 73 67 c3 be 3c 29 b0 be b9 f7 ce bd 80 74 4d be
       -0.38164863 -0.3440646 -0.10105843 -0.20063972
000290 ba 2c 45 3d e4 87 29 bd b0 43 38 be 63 07 9e 3d
       0.048138358 -0.04138936 -0.1799457 0.07716253
0002a0 ff d8 02 3e ce 1a 76 bd a3 dc 00 3c 85 68 2f bd
       0.1277809 -0.060084157 0.007865104 -0.042824287
0002b0 87 1b 49 be 68 a1 81 be 9c f6 58 3e b6 1e 19 bd
       -0.19639407 -0.25318456 0.21187824 -0.037382804
0002c0 1c cb 44 be 82 49 eb 3d c9 c6 95 bd 4f 4a 4e be
       -0.19218105 0.1148863 -0.07313306 -0.20145534
0002d0 35 75 ad be 26 ec 23 bf da c9 62 be fd d3 35 be
       -0.33878484 -0.6403221 -0.22147313 -0.17756648
0002e0 ec f8 06 bf 5b 63 97 3c df 02 28 3e 62 ea c5 3d
       -0.52723575 0.018479994 0.16407345 0.096638456
0002f0 03 ce 05 3f 02 27 a2 be 0d 17 96 3d ce 9d 09 3d
       0.52267474 -0.31670386 0.07328615 0.03359776
000300 d8 c3 13 3d f1 7d 22 3e d0 83 8b 3d 08 6d 9a bd
       0.036075443 0.15868355 0.068122506 -0.07540327
000310 df 2e e6 bd e3 b7 e8 3c 5c 09 82 bc a3 5d 2a be
       -0.11239409 0.028407997 -0.015873604 -0.16637282
000320 d0 9c c4 3d 01 20 65 3d 5d f9 de 3d c9 f3 4c 3e
       0.09600222 0.055938724 0.10887406 0.20014872
000330 f4 33 5f bc d9 d0 03 3e 46 d9 4a bd 53 dd a0 bd
       -0.013623226 0.12872638 -0.049523614 -0.07854714
000340 c4 7f 52 3e 0e 86 b2 bd 60 fb 57 3d 59 28 2b be
       0.20556551 -0.08716975 0.052729964 -0.1671461
000350 ca 3e 13 3e 62 69 1f bd c9 41 5c bd 15 72 91 3d
       0.14379421 -0.03891886 -0.053773675 0.071018375
000360 b5 55 0a 3e 47 5b 30 be 85 b7 34 3d 71 3c a1 3c
       0.13509257 -0.1722232 0.04412033 0.019682141
000370 7e e2 5b be 1a ba ac 3e 00 4d 43 be 0a 74 1d be
       -0.21473119 0.33735734 -0.19072342 -0.15376297
000380 de 03 9e 3e cb 20 69 3d 2a c0 68 bd f0 98 6f 3d
       0.30862325 0.05691604 -0.056823887 0.058495462
000390 14 80 d8 3d b7 3c e6 bd 97 ab f7 3d 61 98 46 bd
       0.10571304 -0.11242049 0.12093275 -0.048485164
0003a0 bf 1d c4 bd 30 92 8d be 4f af 7f be 62 ea 9a be
       -0.09575986 -0.27650595 -0.24969219 -0.30256945
0003b0 90 36 19 3e ab 04 46 be b4 a2 63 be b5 95 f4 3e
       0.1496222 -0.19337718 -0.22230035 0.47770467
0003c0 ec e6 95 3d 7a c8 54 3e 38 af 3d 3f a0 9d 62 bd
       0.073194355 0.207796 0.7409549 -0.055326104
0003d0 46 51 1c 3c 0c 16 1d bc 46 0c 1b bd 5a 57 e1 3d
       0.0095408615 -0.009587776 -0.0378535 0.11002989
0003e0 4a 11 19 be b1 db 09 3d 13 28 11 3e 1e ef 7a bc
       -0.14948002 0.03365678 0.14175443 -0.015315799
0003f0 26 4b bb bc 24 8a c8 3c 10 f7 ce bd 52 c1 c5 bc
       -0.022862982 0.024479933 -0.10105717 -0.024140034

layer1.0.bn1.weight f4 [8]
000000 c0 a1 32 3f 01 81 62 3f 54 22 93 3e a6 e2 ed 3e
       0.6977806 0.88478094 0.28737128 0.46461982
000010 aa 54 93 3e da 00 0f 3f ec 60 ab 3e ad d8 10 3f
       0.2877553 0.55860674 0.33472383 0.5658062

layer1.0.bn1.bias f4 [8]
000000 c3 4f 8f 3e 6b b5 89 bf 92 6a 81 3e e4 1f a4 be
       0.2799054 -1.0758489 0.2527662 -0.3205558
000010 fa c1 c0 3e 03 7a 02 3e b2 8d 18 3f d5 20 4e 3e
       0.37647992 0.12741856 0.5959121 0.20129712

layer1.0.bn1.running_mean f4 [8]
000000 09 10 c0 be d2 83 6f 3e dd 2d 3a bf f0 bf 16 bd
       -0.37512234 0.23390129 -0.7272623 -0.03680414
000010 65 29 9b 3e a0 52 bd be 7b e8 b6 bd 3d 9b ca be
       0.3030502 -0.369771 -0.08931061 -0.39571562

layer1.0.bn1.running_var f4 [8]
000000 06 f1 01 3f 72 d2 0c 3e 8f 07 05 3e 85 58 6d 3d
       0.507584 0.13752154 0.12991165 0.057945747
000010 ed bb d3 3d 02 61 c7 3e f5 be d9 3d ad 35 8c 3e
       0.103385784 0.389412 0.10632125 0.273847

layer1.0.conv2.weight f4 [8, 8, 3, 3]
000000 7f 3e c7 bc 13 4e 32 be cf b9 39 3e 1b 8a 69 be
       -0.024321793 -0.17412595 0.18137287 -0.2280659
000010 fc 31 81 bf 27 7c b1 3e 9f b1 03 bd 81 40 9d 3e
       -1.0093379 0.34665033 -0.032151815 0.30713275
000020 d2 b3 c4 3e 31 6d db 3c 5e 3a d6 bb d1 0a d1 bd
       0.38418442 0.026785465 -0.0065377196 -0.10207141
000030 c2 ec c7 bd 12 7e 0e be 0b 2e ee 3d e1 25 cf be
       -0.09761955 -0.1391528 0.11629876 -0.40458587
000040 c3 7d fa be 5d a1 ce 3d 81 bb 8f 3c 9d 6b 7d 3d
       -0.48924074 0.10089371 0.017545464 0.061870206
000050 b9 38 fe bd 55 63 44 3e d2 ae b2 3d 68 a6 0b 3d
       -0.12413163 0.19178517 0.087247506 0.034094244
000060 ed b4 ed 3d e5 ca 26 bd 1c 76 b4 be eb 6e b1 bc
       0.116067745 -0.04072084 -0.3524636 -0.021659335
000070 de 64 32 3e ec 99 a0 bb eb 20 19 bf d6 93 d1 3d
       0.1742129 -0.0049011614 -0.59815854 0.102332756
000080 1c f7 0f 3d 86 20 80 3e 3a de 9e 3e ad e4 fb bc
       0.03514777 0.25024813 0.3102892 -0.03074869
000090 1c 77 be 3d a8 5e a0 b9 fc bf 4a bd 32 a9 bc bc
       0.09300062 -0.00030588103 -0.049499497 -0.023029897
0000a0 eb b3 99 3d ac 0f c9 bd a0 84 d5 bc 81 a0 ee 3d
       0.0750502 -0.09817442 -0.026064217 0.116517074
0000b0 2f b9 c8 3c 71 71 96 3d d1 2f 60 3e a9 f0 2d 3d
       0.024502365 0.07345856 0.2189324 0.04246584
0000c0 15 38 9d 3e 6a 9c 01 3e 7a c4 2e 3e 80 fc 96 bd
       0.3070685 0.12657323 0.17067137 -0.07372379
0000d0 59 92 28 bf 8f 0e 90 be 7d ce a1 3b 4f 56 8d bd
       -0.6584831 -0.28136107 0.0049379454 -0.06901228
0000e0 c3 4c 06 be 7c 71 89 be af ac ae 3d c8 4f d3 3d
       -0.1311522 -0.26844394 0.085290305 0.103179514
0000f0 1b 67 53 3e f5 1d 76 be c6 20 69 3d 3e 87 ee 3c
       0.206448 -0.24034865 0.05691602 0.029117223
000100 55 f2 a8 bc d3 db 8a 3d 73 6e b4 3c 19 ff bc 3d
       -0.020623365 0.067802094 0.022025323 0.092283435
000110 58 83 11 bc 5e e3 a6 3e 64 90 f9 be fd 00 a1 bd
       -0.008881412 0.32595342 -0.48742974 -0.078615166
000120 af c9 ca bd 13 85 54 be 8a 26 a8 3d 5b e8 ef 3d
       -0.09901749 -0.20753889 0.08210476 0.1171424
000130 e2 2d 82 bd c8 da f9 3d b6 5f 8b 3d 02 27 98 bd
       -0.06356408 0.12199932 0.06805365 -0.07429315
000140 69 db e7 bd ab 74 04 3e 33 c6 da 3d 34 04 53 3c
       -0.11321146 0.1293513 0.10682335 0.01287942
000150 09 db 8a 3d ac 02 3d 3d 4b c5 0f be a6 03 0c be
       0.06780059 0.046145126 -0.14040105 -0.13673267
000160 bd 25 98 be 35 cb cb be 95 fb 6f bd e9 e0 4d be
       -0.29716292 -0.39803472 -0.058589537 -0.20105328
000170 2f d5 89 be a6 25 62 be d6 de db 3c 0d e8 2e 3e
       -0.2692046 -0.22084674 0.026839655 0.17080708
000180 fa 6c b4 be ba c3 a9 3e 9a 25 43 3f c3 32 86 bd
       -0.35239393 0.3315714 0.7622925 -0.06552651
000190 98 bf 23 3e ed 4e 8a bd f2 1f 6a be b2 ef 9f 3d
       0.15991056 -0.06753335 -0.22863749 0.0780939
0001a0 25 8d 4e 3d 18 bc 28 be ed 32 19 3c c0 65 8c bd
       0.050427575 -0.16478002 0.009350521 -0.06855345
0001b0 f3 16 1c 3e 65 f8 0a 3e 17 36 1b bc d7 e7 c3 3e
       0.1524313 0.13571317 -0.009473345 0.38262817
0001c0 f2 c4 7a 3e 06 1b c9 be 00 53 5c 3d 8a 7e c4 3d
       0.24489191 -0.3927843 0.053790092 0.09594448
0001d0 71 d4 bb be 2d 7d c8 bd 4f 54 53 3d 32 ec c9 bc
       -0.36685517 -0.097895004 0.051594075 -0.02464876
0001e0 af 93 3d be cd 32 56 3d b0 54 17 3e e8 64 61 bd
       -0.18513368 0.05229454 0.147784 -0.055027872
0001f0 9a 9d 52 3d 0d de 9d 3d b0 94 10 be 9d 03 3d be
       0.05141983 0.077083685 -0.1411922 -0.1845841
000200 9c 4b 86 be 9c c5 df 3d 76 18 ac bd 7f 29 28 be
       -0.2622956 0.10926363 -0.08403103 -0.1642208
000210 3d c8 a8 3e 57 3c 1d 3f ba 1f 68 3b a7 42 15 3d
       0.3296527 0.61420196 0.00354193 0.036440518
000220 29 8e a8 3d 2c 08 6d 3d 42 22 b7 3d d0 e0 8f 3d
       0.0823024 0.05786912 0.08942081 0.070253015
000230 21 0d 57 3e bb b7 bb ba e3 20 50 be 8f df ca be
       0.21001102 -0.0014321724 -0.20325045 -0.39623687
000240 c8 6e 6d 3c 0c fe 57 bd c6 b2 d1 3a 0b 5e 58 bc
       0.014491744 -0.052732512 0.0015998713 -0.013206015
000250 14 da c5 bd c3 06 36 bc 5f 28 83 bd 98 ba 28 3d
       -0.09660736 -0.011110011 -0.064041846 0.041193575
000260 73 bd 5f 3e 60 7f 9f 3d de af a6 bd 77 d3 b0 3d
       0.21849613 0.07787967 -0.08139013 0.08634084
000270 41 f6 a3 3d ac 24 24 3d 3a 8f 59 3e 5c c3 ad 3d
       0.080059536 0.040074036 0.21246043 0.084845275
000280 4b ee de 3d 82 4e c3 3e 04 b4 d6 3d e4 47 2a bd
       0.108852945 0.38145834 0.10483554 -0.041572466
000290 a1 9e 39 bd ba 6b d8 bc af 6c 96 3d 99 8a 02 3e
       -0.045317296 -0.026418556 0.073449485 0.12748183
0002a0 39 7a e1 bd e3 47 d3 3d dc 5e 7a 3e f4 f3 63 be
       -0.1100964 0.10316446 0.24450248 -0.2226103
0002b0 49 41 67 be 51 b6 43 be f4 b4 06 be 74 d7 00 be
       -0.22583498 -0.19112517 -0.13154966 -0.12582189
0002c0 08 7e b2 bc 7b 2b 11 be 95 cd e7 bc 2e 76 f9 3d
       -0.021788612 -0.14176743 -0.028296271 0.12180744
0002d0 b7 0d 0c 3e eb f4 37 bd b0 41 1b be c1 5d 16 3e
       0.13677107 -0.044911306 -0.15161777 0.14684202
0002e0 20 93 35 be 66 33 f4 bd 76 75 04 3c 94 44 55 be
       -0.17731905 -0.11923866 0.0080846455 -0.20826942
0002f0 8b 14 b0 bd 9f 6b 7d 3d 4c 5f b2 3d 50 71 19 3d
       -0.08597668 0.061870214 0.08709583 0.03746158
000300 fa 5b 73 3c e1 98 c0 bb 3f a6 90 3c c1 9a 3e be
       0.014853472 -0.0058775996 0.017657397 -0.18613721
000310 c0 e0 51 be 51 26 94 be 76 83 8e 3d a0 ae 0f be
       -0.20495892 -0.28935483 0.06958668 -0.14031458
000320 06 41 1e bd 9a 44 5f bb 43 f9 2b bd c2 ac 13 be
       -0.03863623 -0.003406799 -0.04198576 -0.1442137
000330 2c 7c 37 bd 76 18 ce 3d 8c ac 30 3e 53 e0 32 3d
       -0.044796154 0.10063259 0.17253321 0.043670963
000340 7d 9c af bd 9c 24 01 bd f4 bf 40 3b 5c fd e7 bd
       -0.0857477 -0.031529054 0.0029411288 -0.11327621
000350 f8 b6 2b bd db 43 22 3e 37 4b c7 bd 83 18 13 3e
       -0.04192254 0.15846197 -0.09731143 0.14364819
000360 18 69 f7 bd 2a 01 31 bd 4d 47 88 3e 9d f8 96 3d
       -0.12080592 -0.043214 0.26616898 0.07371638
000370 ad 9c a3 3d fe 28 3c 3e be 88 a6 3d e6 c1 a8 be
       0.07988868 0.18375012 0.0813155 -0.32960433
000380 2c 75 38 be 27 15 cb 3d d4 56 92 bd e8 99 17 be
       -0.18013448 0.09916144 -0.071454674 -0.14804804
000390 2f 56 29 3d 22 07 d5 bd 12 5b 33 be 3e a6 ae bd
       0.041341957 -0.10401751 -0.1751521 -0.08527802
0003a0 c4 dd 3b be 06 2d 81 be 8b 32 96 be 79 e6 50 bd
       -0.18346316 -0.25229663 -0.29335436 -0.051001046
0003b0 31 7b cd 3d ef 27 01 be 57 ca b4 3d c2 f7 89 3e
       0.100332625 -0.1261289 0.08827656 0.26946837
0003c0 75 5a 44 bd 16 30 e2 3c d1 02 e4 3d e2 a4 28 3e
       -0.04793783 0.02761082 0.1113335 0.16469148
0003d0 5d 1b 54 3e 35 c4 28 3d 1d 2a fb bb 30 a2 7a 3d
       0.20713563 0.041202743 -0.0076649324 0.06118983
0003e0 11 e7 2a b9 86 67 bb bd 2d 62 6e be c5 a3 6e bd
       -0.00016298542 -0.09150605 -0.23279639 -0.05826165
0003f0 fd d9 74 be 09 b7 8a be 78 ca f9 bd 31 c5 e9 bd
       -0.23911281 -0.2709277 -0.12196821 -0.114145644

layer1.0.bn2.weight f4 [8]
000000 da 4a a5 3f d2 8c 13 3f be 67 4e 3f 65 a7 06 3f
       1.2913468 0.5763675 0.8062705 0.52599174
000010 13 7d da 3e 65 44 06 3f bc d7 93 3f f9 10 5d 3f
       0.4267355 0.5244811 1.1550212 0.86354023

layer1.0.bn2.bias f4 [8]
000000 68 ce f4 3e 53 c9 07 3e 73 e9 7b be 60 e2 9c 3e
       0.47813725 0.13260393 -0.24600773 0.3064146
000010 67 72 dc bd 3c 8d a4 3e 77 87 11 3c f9 aa f1 3d
       -0.10764008 0.32139003 0.008882395 0.118001886

layer1.0.bn2.running_mean f4 [8]
000000 5e 45 be be 06 92 df 3d 13 5b 24 be 98 7a cc 3e
       -0.37162298 0.10916524 -0.16050367 0.39937282
000010 fd 52 bb be 3e fe b0 3e 5f 5a 16 bf a8 c6 b8 3e
       -0.36586753 0.3456897 -0.58731645 0.36089063

layer1.0.bn2.running_var f4 [8]
000000 95 a3 b7 3e b2 8b 41 3e 13 b1 31 3e 59 23 97 3e
       0.3586699 0.18900946 0.17352705 0.29519156
000010 29 f8 f9 3d 22 c1 c2 3e 66 a5 ad 3e 0f 84 91 3e
       0.12205536 0.38037974 0.33915251 0.28421065

layer2.0.conv1.weight f4 [16, 8, 3, 3]
000000 df 2e 03 bd 8f b3 ec 3c c3 66 c4 bc ca f3 49 bc
       -0.03202712 0.028894214 -0.023974782 -0.01232619
000010 1f dd fa 3d a8 26 f0 3d ef 0e 8b bc 05 43 c5 3d
       0.12249207 0.11726123 -0.016974894 0.096319236
000020 73 17 35 3d 15 30 20 3d f5 8b 2c bd cb 1e b2 bd
       0.044211816 0.039108355 -0.04212566 -0.086972795
000030 1e 97 21 bd 6f 26 85 be 4b b6 0a bd 05 e9 15 be
       -0.039450757 -0.26005885 -0.033865254 -0.14639671
000040 ea b6 9b be b0 da 19 3d 45 ef 5f 3d b2 f3 17 bd
       -0.3041299 0.037562072 0.054671545 -0.03709764
000050 26 e0 2a 3d d0 93 9c 3d c9 08 8e bd 62 42 25 3d
       0.04171767 0.076453805 -0.069352694 0.04034651
000060 d3 19 6d bc 8a d5 53 be f4 b2 c3 bd b2 80 64 be
       -0.014471489 -0.20686927 -0.09555617 -0.22314718
000070 4f de 89 bd 5a e8 32 be f9 d4 a0 bd 23 d9 b3 3e
       -0.06731855 -0.17471448 -0.07853121 0.351266
000080 d6 f2 3c 3e 4f 82 2c 3e 19 a1 06 3f f7 00 0a 3e
       0.1845201 0.16846584 0.52589566 0.1347693
000090 dd a3 3f 3e 6d e1 0e 3e 13 3f a6 3d 2c 44 10 bd
       0.18714853 0.1395318 0.08117499 -0.035221264
0000a0 06 f9 50 be b0 9d 3d be 0c 7a 20 be 4a dd b3 be
       -0.20407495 -0.18517184 -0.15671557 -0.35129768
0000b0 82 ab 82 be 4e ee f3 3b b1 1f 51 3b 60 17 27 be
       -0.25521475 0.0074441796 0.0031909759 -0.1631751
0000c0 70 07 24 be ec 34 a6 bd b7 e3 5b be 6c b5 80 be
       -0.16018462 -0.08115563 -0.21473585 -0.25138414
0000d0 c3 c8 d7 bd a3 d5 2b be bd a9 34 3c f4 37 c1 3c
       -0.10536339 -0.16780715 0.011026797 0.02358625
0000e0 51 25 27 3d d8 8b 8c 3d 4e 30 a0 3d 69 49 e6 3d
       0.040807072 0.068626106 0.078217134 0.112444706
0000f0 18 1d 4e bd b7 35 90 3d 84 8e 24 3e cf 3c c5 3d
       -0.050320715 0.07041495 0.1606999 0.09630739
000100 6d e2 a6 3d e5 ab 43 bc 7f 1e 32 3e f4 d5 7e 3e
       0.08148656 -0.011942838 0.17394446 0.24886304
000110 7c 30 12 3e 6f 7e 1f 3e d4 fd 1c 3e 5a 25 b6 3c
       0.14276308 0.15575574 0.15331203 0.022234607
000120 34 86 d0 3d 42 c5 86 3e 2b 16 80 3e b5 a1 a9 3d
       0.10181847 0.2632237 0.25016913 0.08282796
000130 52 8b 72 3e 78 73 21 3e 47 d3 d8 3d 9f fb 84 3d
       0.23685959 0.15766704 0.10587173 0.064933054
000140 73 6c ab bd dd c4 da 3d b1 61 f2 3d 9a 31 17 3e
       -0.083702944 0.1068208 0.118350394 0.14765015
000150 ea cf e3 bd 30 67 fe 3c 90 ff 5b 3d 93 cf 74 be
       -0.11123641 0.031055063 0.05371052 -0.23907308
000160 b9 6c f5 bd 46 23 a0 bd 49 50 19 bc 8b 99 c2 bc
       -0.11983628 -0.07819228 -0.00935752 -0.023754856
000170 08 a4 ac 3b 43 8a 82 3d b4 c6 90 3b 2e 40 b6 3d
       0.0052685775 0.063740276 0.0044182185 0.0889896
000180 d5 34 97 3d 21 dd a3 bc 56 2d 9c 3b 32 1d 23 3d
       0.07383124 -0.020002903 0.0047661467 0.039822765
000190 1a 2d e4 3c 02 6e 09 3d 60 41 d6 bd d7 1a 83 be
       0.027853537 0.033552177 -0.10461688 -0.25606415
0001a0 ec 62 77 be d5 f7 88 be 3a 84 d4 be 5e 56 d5 be
       -0.2415883 -0.2675158 -0.4150713 -0.41667455
0001b0 33 0a 22 3e 48 41 aa 3d ab c9 f8 3c 44 de a5 bd
       0.15824203 0.08313233 0.0303696 -0.080990344
0001c0 ba cc 33 bd a4 c0 d7 bb a7 b6 63 be 4b 0c 39 be
       -0.043896414 -0.006584244 -0.22237645 -0.18071096
0001d0 dc 29 96 bd c1 06 84 be a5 45 a4 be ee bf 9c be
       -0.07332203 -0.25786403 -0.32084385 -0.3061518
0001e0 d7 83 85 be 89 0d 22 be bf 25 72 be 46 ab 7c bc
       -0.26077148 -0.15825476 -0.23647211 -0.015421694
0001f0 9b f9 6e 3d 6a c9 ef bc 5a 85 c6 bd 8f 3f 8f bd
       0.05834351 -0.029270846 -0.096934035 -0.06994545
000200 7d a6 aa bd 7a 9a 0f be 00 8d 0a be 2b 6a 4c bd
       -0.08332536 -0.14023772 -0.1353035 -0.049905937
000210 27 a5 fc bd c0 a0 9b bc 98 62 f4 3d 14 18 d1 bd
       -0.12336188 -0.01899755 0.11932868 -0.10209671
000220 bd b2 a6 3d 5f ee b9 3d 54 d0 6e 3e 05 6c a4 3e
       0.0813956 0.09078669 0.23321658 0.32113662
000230 81 4b 31 3e 8a 86 4e 3e 7a f0 86 3e 59 58 ad 3d
       0.17313959 0.2016851 0.26355344 0.084641166
000240 fa 02 07 be ee 2d fb 3d f6 e4 d5 bd 60 39 66 be
       -0.13184729 0.1226462 -0.104440615 -0.22482824
000250 b5 c5 90 3e 27 e1 19 bd 0c ca 48 be ac 99 3f 3e
       0.28275838 -0.037568238 -0.19608325 0.18710965
000260 d0 5d 53 3d 81 2b 25 3c f0 a2 0a be d0 0d 8b 3d
       0.05160314 0.010081173 -0.13538718 0.06789744
000270 6c ae 61 3d 8b 48 f1 bd d4 16 c2 3b 96 6e 0f 3d
       0.055097982 -0.117814146 0.0059231315 0.035017572
000280 e8 34 84 bd f5 c8 90 bc a6 71 40 be d3 97 17 3e
       -0.064554036 -0.017673949 -0.18793353 0.1480401
000290 5f a5 a0 3d de e4 8e be 0e ab d1 3d a1 6c 11 3d
       0.07844042 -0.27908987 0.10237704 0.035503987
0002a0 bc de 2e be 49 7e ca 3d 38 cc 85 3c 16 0f b6 3d
       -0.17077154 0.09887368 0.01633273 0.08889596
0002b0 ad b0 19 be 03 6d b5 bc 05 57 21 3e 3d 7b 03 be
       -0.15008803 -0.022146707 0.15755852 -0.1283998
0002c0 91 58 58 bd 83 24 b2 3d ca 1f 11 be d5 61 13 3d
       -0.05281884 0.0869837 -0.14172283 0.03598197
0002d0 d7 3c 2b 3d a4 a5 60 bd fb 4b 46 bc 5f 70 92 3d
       0.04180607 -0.054845467 -0.012103076 0.07150339
0002e0 71 ef f3 bd 70 85 c3 bb 49 19 25 3e 66 be a9 bd
       -0.11910904 -0.0059668347 0.16122927 -0.08288269
0002f0 53 78 6a 3d 54 1e d7 bd fc a8 94 3d 30 b2 ef 3c
       0.057243656 -0.105038315 0.07258794 0.029259771
000300 3d 61 c7 bd 49 79 a2 3d 24 22 83 bc c3 fb 93 be
       -0.097353436 0.079332896 -0.01600749 -0.28903016
000310 7c 6d 07 3d 8d 0b 79 3e 8a 26 61 be bd 70 79 3e
       0.033063397 0.24320813 -0.21987358 0.24359412
000320 e4 86 a5 3d ff 0c ce be 65 cc b6 3e ab 6c 6b 3b
       0.08082369 -0.4024429 0.35702816 0.0035922925
000330 67 d4 9e be 35 c8 8b 3e 36 df f1 bd 23 9a 5b 3e
       -0.31021425 0.27301183 -0.11810152 0.21445517
000340 4d e7 43 be b4 5e 6c 3d 61 f8 de 3e 82 c2 d0 be
       -0.19131203 0.057707503 0.43548873 -0.40773398
000350 6a 0a a0 bd d0 ce 9b 3e b6 f1 ae be 16 66 0b bc
       -0.07814486 0.30431223 -0.34168786 -0.008508226
000360 39 6e 45 be d3 f0 38 3e 13 b0 6d 3d ea ab dc 3d
       -0.19280328 0.18060617 0.058029246 0.107749775
000370 b5 67 9b 3e 67 4b 11 bf 56 58 26 3e 9c a9 2b bf
       0.3035256 -0.5675568 0.16244635 -0.6705568
000380 24 26 f3 3e 02 93 cd bc 11 fa ab 3d 1d 0e 52 bd
       0.47490036 -0.025094513 0.08397306 -0.05128299
000390 ba f9 8f 3d e1 45 e9 bd 43 bb 96 3c 2c fb 42 bd
       0.070300534 -0.113902815 0.01839984 -0.047602817
0003a0 c5 c5 c1 3d 6c f0 b6 bd 20 06 f6 3a 17 ec 55 bd
       0.0946155 -0.089325756 0.0018770136 -0.052227106
0003b0 55 7a b7 bc 5e 09 cd bc 17 6d a9 bd a3 77 f1 bd
       -0.0223972 -0.02502888 -0.0827276 -0.11790397
0003c0 42 fd f7 bc 36 a4 cc 3b fe db 57 bd 11 63 67 bc
       -0.03027213 0.0062451614 -0.052700035 -0.01412274
0003d0 90 09 49 bc 9a 8c eb bc c8 35 2d 3d 46 8b 2f bd
       -0.012270346 -0.028753567 0.042287618 -0.04285743
0003e0 ca df ce 3c ca 2b 31 3d 61 14 87 3c 29 29 0d be
       0.025253195 0.04325465 0.01648921 -0.13785233
0003f0 21 87 27 3d 9a 8e 24 bd ee 2d 9e bc 28 6f 21 3d
       0.040900353 -0.040175058 -0.01930901 0.039412647

layer2.0.bn1.weight f4 [16]
000000 d8 81 f6 3e 01 db 0c 3f 2d 5f 1e 3f b3 70 21 3f
       0.48145938 0.55021673 0.61863977 0.6306259
000010 55 a1 b8 3e 8c 07 20 3f 06 2a 23 3f 3f 5e 23 3f
       0.36060587 0.62511516 0.63736 0.63815683
000020 e2 76 10 3f d4 68 eb 3e 2f 9f 1d 3f 06 d7 21 3f
       0.564314 0.45978415 0.6157102 0.63218725
000030 82 b1 2f 3f 06 2e f7 3e 72 6d f1 3e 80 23 24 3f
       0.6863023 0.482773 0.47153813 0.6411667

layer2.0.bn1.bias f4 [16]
000000 5b 6a 46 3e 8b 86 3e 3e 74 fe 1c bd 14 12 b0 bd
       0.19376509 0.18606012 -0.038328603 -0.08597198
000010 b8 d8 27 3f 1d ec 6d bd c6 ce 7d bd 51 fb 83 bd
       0.6556506 -0.058086503 -0.061964773 -0.06444419
000020 ca 98 ca bc 82 e9 a3 3d 07 aa 68 bd 29 02 bb bd
       -0.024731059 0.080035225 -0.056802776 -0.091312714
000030 f3 44 9b bd 22 4c 83 3e ee a2 16 3f fe ea 53 bd
       -0.075815104 0.25644022 0.5884236 -0.051737778

layer2.0.bn1.running_mean f4 [16]
000000 60 5a 2f 3e 66 ff 73 bf 0f 59 9e be f2 66 d7 be
       0.17124319 -0.9531158 -0.3092732 -0.4207073
000010 ff 77 6d be 69 74 e3 be fe 49 d1 be 6c 65 48 bf
       -0.23190306 -0.4442475 -0.40876764 -0.7827976
000020 35 2e 12 bf 62 b8 61 3f b7 0f 0d bf 38 4a d3 be
       -0.57101756 0.8817197 -0.55102104 -0.41267562
000030 06 a7 3c bf 5f 56 81 bf 82 70 f9 bf 5e 29 ad be
       -0.7369236 -1.0104483 -1.948746 -0.33820623

layer2.0.bn1.running_var f4 [16]
000000 09 86 7a 3f 5c cf 1a 40 89 3b fb 3f 72 72 b7 3f
       0.9786077 2.4189062 1.9627544 1.4331801
000010 e4 ba 66 3f 94 3f 0b 40 06 be fb 3f 92 8f df 3f
       0.9012892 2.1757555 1.9667366 1.7465689
000020 04 3f ce 3f c2 36 95 3f e4 d2 e0 3f cc ed d8 3f
       1.6112981 1.1657336 1.7564359 1.694757
000030 08 d1 bc 3f 68 0d 65 3f b9 01 90 3f 95 bf df 3f
       1.4751291 0.8947358 1.1250526 1.7480341

layer2.0.conv2.weight f4 [16, 16, 3, 3]
000000 2c 85 3d 3e 13 10 5b bb 7b af 28 be 2b f5 3b bd
       0.18507832 -0.003342633 -0.1647319 -0.045888107
000010 65 2b 17 3e 3c f8 0f 3e a8 07 2c be a8 0e f0 bd
       0.14762647 0.14059538 -0.16799796 -0.117215455
000020 b8 f6 aa bd 40 3b 1b be b7 db 7a be b9 3f ab be
       -0.08347839 -0.15159321 -0.24497877 -0.33447054
000030 a2 e4 c2 3e da aa 72 3e 05 53 af bd 2b c8 68 3e
       0.38065058 0.23697987 -0.085607566 0.22732608
000040 7a ec d0 3e fa 59 8f 3e 71 b9 7a 3c 72 e5 b1 3d
       0.40805417 0.27998334 0.015303002 0.08686341
000050 cc e6 95 3d 25 93 30 bd 22 e9 2b 3e 96 7e cd 3d
       0.07319412 -0.043109078 0.16788152 0.1003391
000060 10 b4 aa bd 63 b2 a0 3d 58 0d a7 3d 54 ea 7c bd
       -0.083351254 0.078465246 0.08156842 -0.06174691
000070 7c 7d 15 bd a7 e0 23 be 3f 05 01 bd 19 e9 1e 3d
       -0.036496624 -0.16003667 -0.031499144 0.038796518
000080 df 25 b6 bd 7b 43 f1 bd 81 72 78 bd 5a 88 c2 bd
       -0.08893942 -0.11780449 -0.060656074 -0.09498663
000090 51 63 96 3b 51 35 41 3d a6 a9 12 3e 5d 5a 86 be
       0.004589476 0.047169987 0.14322528 -0.26240817
0000a0 d7 84 84 bd 90 be 5e bd a6 1c 89 3c 37 9d 2a bd
       -0.0647065 -0.054380953 0.016737293 -0.041653838
0000b0 ab dd cb 3d 1b 75 1a 3d b8 bc 42 bd f3 d4 1a be
       0.09954389 0.037709337 -0.047543257 -0.15120296
0000c0 b0 f5 9d 3d d1 cd a8 3e d6 2a ef 3c 70 9b 96 39
       0.07712877 0.32969525 0.02919523 0.0002872604
0000d0 24 8a 3e 3e 28 6c 47 bc bf 38 d2 3d ac cf 99 3c
       0.18607384 -0.012171783 0.1026473 0.018775783
0000e0 f1 51 53 3d cb 79 58 bb a1 46 31 3e 56 46 07 3c
       0.051591817 -0.0033031579 0.17312099 0.0082565155
0000f0 df 70 da bc a7 28 51 3e a0 b0 09 3b 2c f5 14 bd
       -0.02666515 0.20425664 0.0021009818 -0.036366627
000100 15 ee 15 be fd f1 66 bd 5f 63 f3 3c a2 a5 39 3e
       -0.14641602 -0.05638312 0.02971047 0.1812959
000110 bc c6 f5 bd fb b6 54 bd f9 66 68 3c 34 42 1d bd
       -0.12000796 -0.051932316 0.014184707 -0.038393214
000120 c7 59 11 3d 7b ff 60 3e 00 ad 00 3e 3d 68 3d be
       0.03548601 0.21972458 0.12565994 -0.18496795
000130 d4 24 c4 3c 13 40 a9 3d 20 4c 0e be d6 73 b0 bd
       0.023943342 0.08264174 -0.13896227 -0.08615844
000140 c3 23 c1 bc a4 ca 00 3e 8a 90 ca 3d 17 1f 21 be
       -0.023576623 0.12577301 0.0989085 -0.15734516
000150 bc bf 98 3b 11 12 7d 3d e7 b7 85 bd 26 03 23 bd
       0.0046615284 0.061784808 -0.06529217 -0.039797924
000160 e6 6b 94 bc 60 35 d5 bd d8 75 b3 bd 3b 33 9f bd
       -0.018117856 -0.10410571 -0.08762711 -0.07773443
000170 f0 da 31 bd 9a 64 ac 3c 80 42 c5 3d 8a a5 c6 3c
       -0.043421686 0.021044064 0.096318245 0.024248857
000180 ad a9 34 bd 0c 17 e3 bc 83 70 a3 bc ca bd 20 3c
       -0.044107128 -0.02772095 -0.01995111 0.009810874
000190 7e 1e a5 3d 04 b6 a2 bd 75 66 95 3d e3 cf 80 3e
       0.080624565 -0.07944873 0.07294933 0.25158605
0001a0 2d e2 19 3e cd 1a d9 bd 19 30 cf bc 46 2c f1 bd
       0.15027685 -0.10600815 -0.02529149 -0.117760226
0001b0 ac 50 d8 bd 6f d8 66 bd 5a 72 da bd fc 6a a7 3c
       -0.10562262 -0.05635875 -0.10666342 0.020436756
0001c0 1f 20 b3 3d a1 86 bb bd b9 b8 b5 3c 36 5e 10 3b
       0.08746361 -0.09156538 0.02218281 0.002202881
0001d0 3e b6 d3 bc 84 d8 c4 3d d3 ab 75 be 76 c6 90 bd
       -0.025843736 0.096116096 -0.23991327 -0.070691034
0001e0 04 a4 fe 3d 16 fc 8d bd 4c af 69 be 21 f7 36 3e
       0.12433627 -0.06932847 -0.22820777 0.1786771
0001f0 14 28 3d 3e 2f 83 f1 3d 92 1c c3 bc cd 4e af bd
       0.1847232 0.117925994 -0.023817334 -0.08559952
000200 a6 a1 20 3c 8c 07 bb 3d a4 75 31 3c 50 2c 65 3d
       0.009804165 0.09132299 0.01083127 0.055950463
000210 bd 40 83 3b 8e 5a d4 3c e3 68 52 3d 84 c5 89 bd
       0.00400552 0.025922086 0.05136956 -0.06727126
000220 a6 16 13 bd dc 68 00 be 11 46 a5 3b f5 11 be 3d
       -0.03591027 -0.1254 0.005043753 0.09280769
000230 e8 18 04 be ff dd 97 bd 5f 5f ab bc 2e 85 f7 bd
       -0.12900126 -0.07415389 -0.0209195 -0.12085949
000240 32 e6 a6 bd df dd 14 3d 51 b4 5c 3d 9b a2 c1 bd
       -0.08149375 0.036344405 0.0538829 -0.09454843
000250 c9 69 19 be 68 6d 10 3d d9 79 14 3e dc e2 9b 3c
       -0.1498176 0.035260588 0.14499606 0.019029073
000260 53 e0 3f be 2a fd ff 3b 1c c1 70 3e 2e 25 04 be
       -0.18737917 0.007812162 0.23511165 -0.12904808
000270 c6 d7 a2 3d 2c 87 a6 bd 35 d5 10 be af 27 85 3d
       0.07951312 -0.08131251 -0.14143832 0.0650171
000280 b2 a7 aa be 7a 2d 06 3d ac 72 42 bd 11 aa 02 be
       -0.33331066 0.032758214 -0.04747264 -0.12760188
000290 d9 8b 82 bd 43 11 ce bd d1 a7 c6 bc e1 ac 62 3d
       -0.0637433 -0.10061886 -0.024249943 0.05534065
0002a0 b1 ef 25 3b 86 57 0a bd b7 90 71 be 01 ca 9c 3d
       0.002531987 -0.033774875 -0.2359036 0.07655717
0002b0 6a dc 21 bd 23 47 ae bc 16 6a 04 3e 53 fe 08 3e
       -0.039516844 -0.021274155 0.12931094 0.13378267
0002c0 66 05 15 be 3e 06 bf 3d 58 a4 79 bb 66 5d 0c 3c
       -0.1455284 0.093273625 -0.0038092341 0.00856719
0002d0 5d 87 28 3e 48 b5 e0 3d 4b 84 ee be 37 1c ca 3d
       0.16457887 0.10972077 -0.46585307 0.09868663
0002e0 37 7e 4a 3e 70 19 15 3c 35 4d 70 be 90 5f 95 bd
       0.1977471 0.009100303 -0.23466952 -0.07293618
0002f0 f9 7b f4 3e 57 0b ac bd e4 ab 27 3e f0 00 83 bd
       0.47750834 -0.084006004 0.16374165 -0.06396663
000300 98 05 67 bd b0 67 1b be 10 e2 06 be 96 aa 7d bd
       -0.05640182 -0.15176272 -0.13172174 -0.06193026
000310 78 e2 8b bd 19 3a 9c bd e1 fe 69 bd d4 be f4 3c
       -0.06830305 -0.07628269 -0.057127837 0.02987615
000320 6d 78 6d be b7 50 1f be e6 4c 75 be 5f b8 22 be
       -0.2319047 -0.15558134 -0.23955116 -0.15890644
000330 ab 59 01 bd f1 5b 52 be 0e 8f 3a 3d c7 6a d3 3d
       -0.031579655 -0.20542885 0.045546584 0.103231005
000340 9a 9c b8 3e 6e 73 13 3d 59 ff 52 bd b1 e9 86 3d
       0.36056978 0.035998754 -0.05151305 0.06587542
000350 e8 02 a3 3e 8a 49 f3 bd 79 0a ba bd 60 a1 2e 3e
       0.31838155 -0.11879261 -0.09084029 0.17053747
000360 ab f1 ec 3c 43 86 3a bd 89 2c a6 bd c5 18 37 bc
       0.02892383 -0.0455382 -0.08113963 -0.011175339
000370 24 21 75 3e cf 0f 1d 3e 38 42 6c bc ab af 81 3e
       0.23938423 0.15338062 -0.014420085 0.25329337
000380 4b 6f 14 be f9 45 5d 3c 42 fd 1f be 57 9d 1e 3d
       -0.1449558 0.013505452 -0.15623954 0.03872427
000390 b1 48 c3 3b e9 55 a2 bd f3 7b 35 3c e5 28 13 be
       0.005959593 -0.07926542 0.011076915 -0.14371069
0003a0 de 32 61 3d 7c 9e 4d 3e 4e 7e 6f 3d 3b ba 1e 3e
       0.05498015 0.20079988 0.058470063 0.15500729
0003b0 da 06 ae bd 81 66 1d 3e 61 51 98 bd b0 68 4e be
       -0.084974006 0.15371133 -0.07437397 -0.20157123
0003c0 bb 0d 1e 3e 48 6f 89 bc c0 30 6d 3e cf 39 84 bd
       0.15434925 -0.016776696 0.23163128 -0.064563386
0003d0 65 23 a8 bd c4 d5 0a bd d8 3c b3 bb 50 87 2b be
       -0.08209876 -0.03389527 -0.0054698996 -0.16750836
0003e0 6f 45 49 be ea 09 fc 3b 65 c3 58 bd a6 24 a3 bd
       -0.19655393 0.0076916115 -0.052920718 -0.079659745
0003f0 4f de 98 bd be eb 88 3e fb be 75 bc 09 44 34 be
       -0.07464277 0.26742357 -0.014999147 -0.17604078

layer2.0.bn2.weight f4 [16]
000000 84 d5 25 3f 6d 9c 55 3f df 2d 1f 3f 1f 34 0f 3f
       0.64778924 0.8344181 0.6217937 0.55938905
000010 40 07 10 3f ad 26 0f 3f 31 9c f1 3e 69 8f 27 3f
       0.5626106 0.5591839 0.47189477 0.654532
000020 32 1c 1d 3f 77 3c 47 3f a6 28 20 3f cd a7 b6 3e
       0.6137115 0.7782664 0.62562025 0.35674897
000030 71 ef 0e 3f 7e 5b 2f 3f 31 a1 cb 3e 27 37 bb 3f
       0.5583411 0.6849898 0.39771417 1.4626206

layer2.0.bn2.bias f4 [16]
000000 fb 74 ab bc 0b 5e 81 bd 63 5a 2a 3e 89 0f a9 3e
       -0.020929804 -0.063167654 0.16636042 0.33019665
000010 e5 98 48 3e 08 24 79 3e 38 97 c7 3e 9c 41 02 3e
       0.19589575 0.24330151 0.38982558 0.1272034
000020 0e af 23 be 89 ea 4c bc 33 df 3e 3e 54 bd 50 3c
       -0.15984747 -0.012507089 0.18639831 0.012740452
000030 28 b1 2b 3d 42 d0 86 bc 7c fc 5d bd 6a c2 4b be
       0.041916996 -0.016456727 -0.054195866 -0.19898382

layer2.0.bn2.running_mean f4 [16]
000000 5e a3 86 3e d8 dc a9 3e d9 09 8f be 37 2f 9e be
       0.26296514 0.33176303 -0.279372 -0.30895397
000010 29 db 02 bc 8e 6a 8e 3f 84 ab cf be f8 17 a4 be
       -0.007986822 1.1126268 -0.40560544 -0.32049537
000020 9b 28 05 bf d2 7c d9 3d 14 e9 97 3f 6e 47 10 bf
       -0.52015084 0.10619511 1.1868005 -0.56358993
000030 8b da 62 be a8 da bd be 96 b2 2a 3f b7 e7 88 bf
       -0.2215368 -0.37080884 0.6667875 -1.0695714

layer2.0.bn2.running_var f4 [16]
000000 f4 7a b2 3e 3f 7d 0a 3f 61 4a 09 3f 0e 49 ee 3e
       0.3485943 0.5409736 0.5362912 0.4654011
000010 4f 89 07 3f d1 14 26 3f f5 1a 18 3f 87 74 9b 3e
       0.5294389 0.64875513 0.59416133 0.3036234
000020 0d 73 53 3e 67 6c 38 3f ba 95 17 3f 61 13 0e 3e
       0.20649357 0.7204041 0.5921284 0.1387458
000030 85 68 bb 3e 78 a7 d4 3e 38 35 28 3e ab 03 3c 3f
       0.3660318 0.4153402 0.16426551 0.73443097

layer2.0.shortcut.0.weight f4 [16, 8, 1, 1]
000000 af 29 2a 3e f6 31 6b bd 65 e4 1f be df b8 a7 3e
       0.16617464 -0.057420693 -0.1561447 0.32758233
000010 e2 30 df bd 4c d5 70 3d 19 02 d4 3d c1 96 38 3d
       -0.108979955 0.058797166 0.103519626 0.045065645
000020 7f 17 9d bd aa 2f 32 bd db 0c 8d bd 85 51 2d 3d
       -0.07670497 -0.043502487 -0.068872176 0.04231407
000030 45 5a 19 bd a4 85 2e bd 9f 4d 41 be f5 a0 61 3d
       -0.037439603 -0.04260792 -0.18877266 0.05508514
000040 21 1c 01 3d bf 13 4a be 5b 5a 49 3e 54 d1 82 3e
       0.031520966 -0.19734095 0.19663374 0.2555033
000050 5a e7 6e 3e d5 57 dc 3e 42 40 93 3c 7e 67 9c bd
       0.23330441 0.4303576 0.017974976 -0.07636927
000060 a1 5a 08 3e a4 0f 32 3c 95 32 42 bd 2c 6a 8a 3e
       0.13315822 0.010867987 -0.04741152 0.27034128
000070 9f 5a 33 3e 3c ce 85 3e 77 90 d9 3c 1b f8 30 be
       0.17515038 0.26133907 0.026558144 -0.17282145
000080 de 36 0e bd 88 e1 ce 3d e2 cf 31 be a7 2c d9 bd
       -0.034720294 0.101016104 -0.17364457 -0.1060422
000090 ac 4f 74 3e 15 2c 8a 3e f4 81 00 3d 24 07 5e bd
       0.23858517 0.26986757 0.031373933 -0.05420603
0000a0 cf 8a 0c 3e 1a 09 be bc 80 00 f7 bd a1 52 8d bd
       0.13724826 -0.0231977 -0.12060642 -0.06900526
0000b0 ad c6 df 3d 1d b2 94 3d cc bf 39 be d0 e9 25 3e
       0.10926566 0.07260535 -0.18139571 0.16202474
0000c0 7c 7f ab 3c 1c 59 2f 3d 64 49 06 be 51 7e 5c be
       0.020934813 0.04280959 -0.13113934 -0.21532561
0000d0 2e ec cc bc c2 df cd be b0 88 a3 bd d9 87 b8 3d
       -0.025014963 -0.40209776 -0.079850554 0.09010286
0000e0 87 a6 f5 3d 5c eb 51 bd 1e e7 b1 bd 33 8a 80 3e
       0.11994653 -0.051249847 -0.0868666 0.25105438
0000f0 7d 02 c6 bd b0 81 03 bd 2f 55 e1 bd 05 2c 54 3e
       -0.09668443 -0.0321061 -0.110025756 0.20719917
000100 27 8c aa 3c 4d 0a c1 3e 00 bf c3 3d 0b 81 c2 be
       0.020818783 0.3770317 0.09557915 -0.37989077
000110 01 b8 7b 3e 27 0c 4d 3e e4 23 56 bd e1 b3 fa bc
       0.2458191 0.20024167 -0.05228032 -0.030603351
000120 28 9a 9b 3c 8a c0 93 bc bf 7b cd bb 88 5c 55 bd
       0.018994406 -0.018036146 -0.006270855 -0.052090198
000130 ab 8f c1 b9 36 34 f3 be 3a 35 a1 3c a6 2a 54 3c
       -0.0003691887 -0.4750077 0.0196787 0.012949621
000140 15 b5 31 3e ca c0 39 3d 9d a8 3e 3e b3 22 93 be
       0.17354234 0.045349874 0.18619008 -0.2873741
000150 1a 62 83 3c 06 1f 6e be e7 44 08 bd 1c 9b c5 3b
       0.01603799 -0.23254022 -0.033268835 0.0060304534
000160 b9 f6 a1 3c a1 d3 c2 3e ed 58 f8 3c 10 56 93 3e
       0.019770967 0.38052085 0.03031584 0.28776598
000170 4f a8 22 bf e2 0b 12 3e cd dc 12 3c 91 04 d6 bc
       -0.6353807 0.14262345 0.008963776 -0.026125224
000180 36 fc d7 bd d2 19 10 be 6d 45 c8 bd b7 42 64 3e
       -0.10546152 -0.1407235 -0.09778867 0.22291075
000190 c0 76 9d bd 8f df 04 bf 99 dd 21 bd fd 8b bd 3c
       -0.076886654 -0.51903623 -0.039517973 0.02313804
0001a0 52 8a 87 3e 95 5f 87 3d 74 78 95 bd 1c b8 24 3e
       0.26472718 0.06610028 -0.07298365 0.16085857
0001b0 a5 d9 21 bd 52 b5 a9 3e e9 93 4f 3d 3f 99 3f be
       -0.039514203 0.3314615 0.050678167 -0.18710802
0001c0 77 73 0e 3c 27 e4 b8 be f8 a2 30 be 84 72 23 3e
       0.008694521 -0.36111566 -0.17249668 0.15961653
0001d0 bc 0b 53 3f 45 d0 6a be 99 b5 26 bc 13 c0 48 3b
       0.8243978 -0.22931011 -0.010175132 0.0030632063
0001e0 37 12 ee bd 21 a8 8e 3d 14 9d f8 bd 31 ad e1 3d
       -0.11624568 0.06965662 -0.12139335 0.11019362
0001f0 d4 a8 be bd 0a ef 6d 3e 7a 38 16 3e 1a b6 b7 3d
       -0.09309545 0.23235717 0.14669982 0.0897028

layer2.0.shortcut.1.weight f4 [16]
000000 72 bc 94 3e fc d2 9d 3d 75 f8 96 3e 68 b4 3e 3e
       0.29050022 0.07706258 0.29486433 0.18623507
000010 bd 8f 11 3e 12 39 75 3d 6e 1b e6 3d ec 85 43 3e
       0.14214988 0.05986888 0.112357005 0.19094056
000020 c2 6b b5 3e e6 6d 78 3e e1 2e 2b 3e 9f ce 0e 3f
       0.35433775 0.24260673 0.16717102 0.5578403
000030 11 81 bc 3e 7b 38 b7 3e 1a c6 0f 3f 6c d7 81 3e
       0.3681722 0.3578528 0.56161654 0.25359666

layer2.0.shortcut.1.bias f4 [16]
000000 fb 74 ab bc 0b 5e 81 bd 63 5a 2a 3e 89 0f a9 3e
       -0.020929804 -0.063167654 0.16636042 0.33019665
000010 e5 98 48 3e 08 24 79 3e 38 97 c7 3e 9c 41 02 3e
       0.19589575 0.24330151 0.38982558 0.1272034
000020 0e af 23 be 89 ea 4c bc 33 df 3e 3e 54 bd 50 3c
       -0.15984747 -0.012507089 0.18639831 0.012740452
000030 28 b1 2b 3d 42 d0 86 bc 7c fc 5d bd 6a c2 4b be
       0.041916996 -0.016456727 -0.054195866 -0.19898382

layer2.0.shortcut.1.running_mean f4 [16]
000000 bb f2 d0 3e 0f 64 5c be ef 60 0f 3f dd 0a fa 3e
       0.4081019 -0.21522544 0.56007284 0.48836413
000010 4d 5f 49 3e 6e e8 a9 3d 53 16 f2 be 4b ff 54 3e
       0.1966526 0.082962856 -0.47282657 0.20800512
000020 62 5e 36 3e 02 07 cc be aa 48 30 be 27 7a 8f 3e
       0.17809442 -0.39849097 -0.17215219 0.28022882
000030 e1 d1 f8 be 35 52 08 3f a2 22 61 3c 03 e4 8b 3e
       -0.48597625 0.5325044 0.013741167 0.27322397

layer2.0.shortcut.1.running_var f4 [16]
000000 92 5b 0d 3e e6 68 15 3d 52 9d e5 3d 35 8f 02 3e
       0.13804463 0.036476992 0.11211647 0.12749942
000010 c4 9b b6 3d 76 0f 6e 3d b8 30 db 3d 4f a4 9d 3d
       0.08916429 0.058120213 0.10702652 0.07697355
000020 65 22 0e 3e e7 dd b7 3d 40 a9 05 3e 56 90 17 3e
       0.13880308 0.089778714 0.13052845 0.14801154
000030 1c cf f4 3d 75 50 3a 3e 30 6c 1b 3e ac f1 c1 3d
       0.119535655 0.18194754 0.15177989 0.094699234
