meta_results/meta_seed-2_cycles-1_T-4_cifar100-ResNet10_scheckpoint.pth.tar (torch, 899319 bytes, 128 tensors)

conv1.weight f4 [8, 3, 3, 3]
-0.037980843 -0.021304604 -0.028769478 -0.027491214 -0.02055178 -0.033406038 -0.008011926 -0.009322131
-0.03307884 -0.03426329 -0.020846097 -0.026166439 -0.023242036 -0.018259658 -0.027720984 -0.0026002706
-0.0060377275 -0.024509689 -0.021003468 -0.010141406 -0.012432284 -0.011993398 -0.007283726 -0.013150823
0.0064856326 0.0027711347 -0.009223978 0.42082855 -0.5724801 -0.25887182 -1.2215089 -1.810265
-1.8976915 -1.2399563 -2.6008036 -2.3828845 0.25537318 0.21223882 -0.052316442 0.07609321
1.0542173 0.35039774 0.21651189 0.45437944 0.30619782 -0.08377259 0.24972166 -0.029445019
0.81849766 2.299716 1.4737843 1.0483859 1.9815111 1.6539258 -0.00026153357 0.00026267226
0.000556819 -0.00043890305 0.00073951134 0.0014512627 -0.0004535772 0.00023905179 0.0011026113 -2.3500053e-05
0.00030143652 0.00039701338 -7.096931e-05 0.0006528771 0.00069801346 0.00034456287 0.00034872082 0.00050699554
0.0005014573 0.0005039688 0.0007659352 6.016013e-05 -0.00017961385 -0.0002904209 0.00057544245 -0.00034838179
-0.00054836355 -0.29651672 0.55055386 -0.15535878 0.72471684 2.0542645 0.09699664 -0.4301584
-3.2655864 -0.79592204 0.020737683 0.6452183 0.24010873 1.0538105 2.03877 0.6796963
-0.12943071 -4.0174146 -0.2502344 0.16981262 0.50921965 0.034019593 0.89987624 1.775299
0.34867075 0.4234364 -2.658131 0.20776428 0.29571763 1.4229944 0.0005318666 0.7356132
1.0705378 2.0411777 1.1879296 1.5043589 1.0971388 0.6243227 0.014455016 -0.9374329
-1.2968032 -3.1352673 -0.6436374 -0.410932 -1.7243516 -0.7866816 0.45202675 1.4328101
0.444766 0.6671091 0.52418125 2.2101927 1.5795639 1.3274382 1.281117 -0.08258082
0.73928064 0.6376741 -0.16802707 3.0860775 1.9583918 -0.26910323 1.5004267 1.219218
-0.19965501 0.9615962 0.45265192 -0.365086 3.3200378 1.5965924 -0.70813537 1.0362568
0.1436492 -0.519268 -0.0055948542 -0.098312095 -0.87941784 2.0249884 0.9518199 -0.98045236
0.51048553 0.16304329 -0.0055509494 -0.013538971 -0.027061885 0.0047652423 0.008445669 -0.008194676
-0.0011067548 0.006239269 -0.0058590816 -0.003773336 -0.0075924373 -0.01773294 0.005360026 0.009803613
-0.003925712 0.001370468 0.006940496 -0.0018581179 -0.00888431 -0.015119213 -0.023113083 -0.006383719
-0.008628278 -0.021303786 -0.007994784 -0.010987731 -0.021567047 0.00034142841 0.00024706157 0.00037235406
-6.448843e-05 -0.00015373531 0.00018110953 -1.4979526e-05 -0.00010642569 0.00022239021 0.0002790101 0.00021632282
0.0003350705 -7.873025e-05 -0.00017664145 0.0001476908 -2.5844965e-05 -0.00014009046 0.00016225564 0.00022481437
0.00016987447 0.00027259658 -0.0001436996 -0.00022072572 5.828794e-05 -9.398275e-05 -0.0001973629 9.729022e-05
00000000: cd91 1bbd fe86 aebc f8ad ebbc 4135 e1bc
00000010: 355c a8bc c5d4 08bd 7444 03bc dabb 18bc
00000020: ad7d 07bd aa57 0cbd 6fc5 aabc 005b d6bc
00000030: 1566 bebc 4795 95bc 1e17 e3bc 4d69 2abb
00000040: 21d8 c5bb 8bc8 c8bc 770f acbc 2428 26bc
00000050: c7b0 4bbc f57f 44bc 52ac eebb 8d76 57bc
00000060: 6e85 d43b ed9b 353b 2b20 17bc d776 d73e
00000070: 0e8e 12bf d98a 84be 675a 9cbf c3b6 e7bf
00000080: 8ee7 f2bf e3b6 9ebf 9173 26c0 2e81 18c0
00000090: 46c0 823e 2255 593e c449 56bd c2d6 9b3d
000000a0: 98f0 863f 5567 b33e 4bb5 5d3e 6ca4 e83e
000000b0: f6c5 9c3e f790 abbd 09b7 7f3e ae36 f1bc
000000c0: 1089 513f 8c2e 1340 f7a4 bc3f 8231 863f
000000d0: 28a2 fd3f d7b3 d33f 711e 89b9 46b7 8939
000000e0: 7ef7 113a 921c e6b9 c4db 413a 4c38 be3a
000000f0: 1ace edb9 faa9 7a39 7f85 903a fb21 c5b7
00000100: 200a 9e39 3c26 d039 5cd5 94b8 d725 2b3a
00000110: e4fa 363a 72a6 b439 84d4 b639 e5e7 043a
00000120: 3b74 033a c61c 043a 0bc9 483a 7354 7c38
00000130: ba56 3cb9 a243 98b9 4ad9 163a 03a7 b6b9
00000140: 0ec0 0fba 0ad1 97be 19f1 0c3f 5f16 1fbe
00000150: 0b87 393f 1279 0340 2da6 c63d b93d dcbe
00000160: 5eff 50c0 8cc1 4bbf 13e2 a93c 072d 253f
00000170: 10df 753e 43e3 863f 357b 0240 9400 2e3f
00000180: 7c89 04be a98e 80c0 b91e 80be 5ce3 2d3e
00000190: 385c 023f 2158 0b3d 4a5e 663f ff3c e33f
000001a0: f984 b23e a8cc d83e d11e 2ac0 29c0 543e
000001b0: 4d68 973e ae24 b63f f76c 0b3a 2651 3c3f
000001c0: 6207 893f a8a2 0240 140e 983f d58e c03f
000001d0: 0b6f 8c3f 9dd3 1f3f bbd4 6c3c 9afb 6fbf
000001e0: a6fd a5bf 38a8 48c0 6cc5 24bf ae65 d2be
000001f0: 8eb7 dcbf f763 49bf 0d70 e73e 5266 b73f
00000200: 5fb8 e33e a9c7 2a3f be30 063f cc73 0d40
00000210: 262f ca3f 7fe9 a93f a4fb a33f 2220 a9bd
00000220: 7f41 3d3f 9c3e 233f 4a0f 2cbe 4b82 4540
00000230: 95ac fa3f e6c7 89be fb0d c03f 560f 9c3f
00000240: 5d72 4cbe 2b2b 763f fec1 e73e 8dec babe
00000250: 807b 5440 245d cc3f 5c48 35bf 10a4 843f
00000260: c718 133e bfee 04bf 0a55 b7bb da57 c9bd
00000270: 8721 61bf 6999 0140 78aa 733f edfe 7abf
00000280: 2eaf 023f d2f4 263e bde4 b5bb 8fd2 5dbc
00000290: e3b0 ddbc c025 9c3b b45f 0a3c f642 06bc
000002a0: 8710 91ba c872 cc3b 8afd bfbb 134a 77bb
000002b0: fbc9 f8bb ac44 91bc 28a3 af3b 559f 203c
000002c0: 42a3 80bb 46a1 b33a 1a6d e33b 178c f3ba
000002d0: 7f8f 11bc 93b6 77bc a657 bdbc 842e d1bb
000002e0: 9f5d 0dbc 4785 aebc 8efc 02bc e205 34bc
000002f0: 60ad b0bc bf01 b339 0b88 8139 8438 c339
00000300: f63d 87b8 0234 21b9 38e8 3d39 9350 7bb7
00000310: db30 dfb8 6b31 6939 1a48 9239 b7d4 6239
00000320: 67ac af39 fb1b a5b8 d438 39b9 72dd 1a39
00000330: a4cd d8b7 3fe5 12b9 2b23 2a39 26bc 6b39
00000340: 5520 3239 4beb 8e39 11ae 16b9 9c72 67b9
00000350: 337a 7438 9b18 c5b8 33f3 4eb9 4a08 cc38

bn1.weight f4 [8]
0.05982969 0.9117277 0.00018474335 2.2396762 1.6577123 1.4655883 -0.01538885 9.032613e-06
00000000: fa0f 753d fd66 693f aab7 4139 db56 0f40
00000010: eb2f d43f 6698 bb3f 8421 7cbc c78a 1737

bn1.bias f4 [8]
-0.093362786 3.7976842 -0.00095646584 1.4340926 2.083717 2.8651524 -0.04043641 -0.0012748833
00000000: fd34 bfbd 420d 7340 56bb 7aba 5990 b73f
00000010: 9f5b 0540 a85e 3740 a6a0 25bd fc19 a7ba

bn1.running_mean f4 [8]
0.17691301 1.0329392 -0.0027463632 0.011614089 -3.2580075 -6.168753 0.053597007 -0.00071210746
00000000: af28 353e 5a37 843f 54fc 33bb 0549 3e3c
00000010: 3283 50c0 6d66 c5c0 8988 5b3d b9ac 3aba

bn1.running_var f4 [8]
0.23304552 42.43576 5.8497782e-05 32.153004 107.3491 311.60776 0.030527042 4.4993926e-06
00000000: 7ca3 6e3e 38be 2942 845b 7538 ad9c 0042
00000010: bdb2 d642 cbcd 9b43 d913 fa3c 7df9 9636

layer1.0.conv1.weight f4 [8, 8, 3, 3]
0.024828447 -0.02423302 -0.010591435 0.029409798 -0.019964654 -0.0070237527 0.023362093 -0.021532293
-0.009658022 -0.002575025 0.012351699 0.025259964 -0.015479977 0.0009134565 0.017081928 -0.013847211
-0.0013729943 0.005671109 7.572383e-05 -4.529406e-06 -9.461084e-05 2.5514446e-05 3.4341752e-05 6.733649e-05
1.8823499e-05 8.3479485e-05 1.3841224e-06 -0.0060054353 -0.01956112 -0.021813976 -0.013000846 -0.014447708
-0.019837637 -0.019622043 -0.013166712 -0.023648255 -0.01785441 -0.017168576 0.02763122 -0.013681373
-0.0060248612 0.022979638 -0.015778195 -0.0068418323 0.016470412 -0.007813434 -0.11753083 0.075782254
-0.038119607 -0.106692486 0.10572151 -0.030007662 -0.124118194 0.086320356 0.0010889587 -0.0032555165
0.0005350567 0.0003372121 -0.004109199 -0.000101884914 0.00032991316 -0.0040244325 -2.9338855e-05 -9.932465e-05
2.5709089e-05 -0.00019141188 -0.00011020429 4.9189035e-05 -0.00025599272 -6.997577e-05 6.421036e-05 -0.00011121875
0.018645583 0.016230129 0.017745757 0.017726736 0.018916076 0.018323781 0.005442251 0.0008685246
-0.0052142316 0.07649125 -0.061199155 -0.5914463 0.29008523 0.14307024 -0.39176458 0.1201999
0.037734263 -0.5707979 0.00043283927 0.0004919668 0.00031713038 0.000224626 0.0003374559 0.00067329395
0.00040020206 0.00053796335 0.00034926523 -0.33596352 -0.43994072 -0.13717495 0.25083995 -0.6481989
0.43566447 0.079688765 -0.30146256 0.7279062 -0.8048235 -0.58575624 -0.19273816 -0.6593488
-0.64524055 -0.24773061 -0.42237863 -0.76413554 -0.50379276 -0.9806442 -1.0586782 -0.59491247
-1.2389247 -1.3265353 -0.63536686 -0.88517356 -0.6058071 -0.5058117 0.0021119488 -0.0005179409
0.002854662 0.0057837013 0.00010638173 0.0013361315 0.014811045 0.01578877 0.013703375 6.40869e-06
0.000116703806 6.6149325e-05 -4.0671646e-05 9.309124e-06 4.040769e-05 -0.00010087591 -0.0002128185 -0.00016106006
0.0002016037 0.00011739527 9.221884e-05 8.081096e-05 2.8074986e-05 0.000107765096 5.0615687e-05 4.8413953e-05
0.00023725936 2.1250975e-05 3.195261e-05 7.313109e-06 2.8281782e-05 4.1429892e-05 6.4564534e-05 1.0990871e-05
9.812861e-05 4.5374953e-05 -0.00015353807 -9.9829405e-05 -0.00013593725 -0.00019258082 -0.00010035869 4.5019016e-05
-0.000102395454 -0.00010290636 -2.909038e-05 1.2684677e-05 0.00061019685 0.00031038973 0.00032803055 -0.00015686853
-0.00015617804 0.00037324728 -0.00019751153 -0.00013017184 -3.7708105e-05 0.00010843313 0.00011759208 -3.5716697e-05
0.00014911077 0.00010803229 -5.8751237e-05 3.199165e-05 -0.00014121154 7.053553e-05 -0.00054894714 0.00030049536
9.2975875e-05 -0.0013759042 0.00023683706 0.00038039914 -0.00043459897 0.00027506318 6.2722786e-05 -0.00019846176
-0.00019450043 0.00039342625 -0.00040621078 -7.670843e-05 0.00022025053 -7.4039207e-07 -0.00012802941 0.00014232844
0.0003209551 0.00031543302 3.3409673e-05 0.00018951694 0.00020439067 0.0001357823 0.00018958373 0.00022608151
0.0012953817 0.0057766414 5.38323e-05 0.011673021 0.01919258 0.009954392 0.011572197 0.02433894
0.019168325 -0.21914428 -0.55144894 -0.30110434 -0.2846195 -0.5818195 -0.21370459 -0.06430071
-0.11922513 0.038198773 0.00025285213 0.0009263751 0.00056550856 -0.0001309507 0.00052956806 0.00030072493
-0.0008345978 -0.00074456265 -0.00072830176 -0.06331101 0.7941103 -0.16997372 -0.9326703 -2.5695493
-1.4127715 0.71534437 -0.13199808 0.72952396 0.3103167 0.35126388 0.21660069 -0.05951712
00000000: 0765 cb3c 5484 c6bc b387 2dbc d1ec f03c
00000010: ea8c a3bc 8227 e6bb dc61 bf3c 7e64 b0bc
00000020: ae3c 1ebc c0c1 28bb c85e 4a3c fced ce3c
00000030: bb9f 7dbc 0775 6f3a 66ef 8b3c 6adf 62bc
00000040: 0bf6 b3ba b6d4 b93b eccd 9e38 4dfb 97b6
00000050: cf69 c6b8 db07 d637 2d0a 1038 0137 8d38
00000060: 28e7 9d37 b511 af38 15c6 b935 3ec9 c4bb
00000070: a43e a0bc 39b3 b2bc 8001 55bc 14b6 6cbc
00000080: 8a82 a2bc 68be a0bc 31b9 57bc fcb9 c1bc
00000090: 6943 92bc 1da5 8cbc de5a e23c d627 60bc
000000a0: 336c c5bb cb3f bc3c 4641 81bc 7331 e0bb
000000b0: f5ec 863c eb03 00bc 01b4 f0bd ba33 9b3d
000000c0: 4e23 1cbd 9781 dabd 8584 d83d a1d2 f5bc
000000d0: ae31 febd bac8 b03d 64bb 8e3a 815a 55bb
000000e0: 0c43 0c3a d8cb b039 76a6 86bb 0cab d5b8
000000f0: 32f8 ac39 63df 83bb b61c f6b7 844c d0b8
00000100: d9a9 d737 bcb5 48b9 7a1d e7b8 5350 4e38
00000110: c336 86b9 f5bf 92b8 ada8 8638 1d3e e9b8
00000120: 9fbe 983c 0cf5 843c 8d5f 913c a937 913c
00000130: e3f5 9a3c c11b 963c e954 b23b b3ad 633a
00000140: 25dc aabb 72a7 9c3d f7ab 7abd 0669 17bf
00000150: 0d86 943e 0181 123e 5e95 c8be 5d2b f63d
00000160: 3e8f 1a3d d01f 12bf b4ee e239 55f7 003a
00000170: 8544 a639 9589 6b39 90ec b039 fe7f 303a
00000180: 36d2 d139 1c06 0d3a 961d b739 6903 acbe
00000190: e93f e1be 9777 0cbe 186e 803e 5df0 25bf
000001a0: 6a0f df3e dd33 a33d 4d59 9abe 1058 3a3f
000001b0: ea08 4ebf 1ff4 15bf 275d 45be 15cb 28bf
000001c0: 7c2e 25bf 18ad 7dbe 0342 d8be 639e 43bf
000001d0: 90f8 00bf 800b 7bbf c482 87bf 2f4c 18bf
000001e0: 1695 9ebf e9cb a9bf 67a7 22bf bc9a 62bf
000001f0: 2d16 1bbf e07c 01bf 9f68 0a3b 6dc6 07ba
00000200: 4815 3b3b 3485 bd3b 4219 df38 2221 af3a
00000210: 06aa 723c 7357 813c 1f84 603c 3a0a d736
00000220: e1be f438 a6b9 8a38 d996 2ab8 622e 1c37
00000230: 6d7b 2938 588d d3b8 0828 5fb9 3be2 28b9
00000240: 9565 5339 1b32 f638 9d65 c138 0e79 a938
00000250: 9382 eb37 f2ff e138 2e4c 5438 1610 4b38
00000260: d3c8 7839 1f44 b237 db04 0638 2163 f536
00000270: aa3e ed37 02c5 2d38 d266 8738 6e65 3837
00000280: 65ca cd38 fc50 3e38 10ff 20b9 815b d1b8
00000290: 618a 0eb9 85ef 49b9 a977 d2b8 cdd2 3c38
000002a0: 24bd d6b8 6ecf d7b8 1e07 f4b7 46d0 5437
000002b0: 9ef5 1f3a cebb a239 84fb ab39 137d 24b9
000002c0: b9c3 23b9 67b0 c339 191b 4fb9 bd7e 08b9
000002d0: c528 1eb8 9866 e338 c49b f638 83ce 15b8
000002e0: 9e5a 1c39 658f e238 a96b 76b8 c62e 0638
000002f0: 2f12 14b9 79ec 9338 38e7 0fba ce8b 9d39
00000300: 0bfc c238 af57 b4ba 7757 7839 4f70 c739
00000310: e3da e3b9 5b36 9039 0a8a 8338 2c1a 50b9
00000320: d0f2 4bb9 c744 ce39 b0f8 d4b9 86de a0b8
00000330: 0df3 6639 5bbf 46b5 a23f 06b9 003e 1539
00000340: dd45 a839 b460 a539 5d21 0c38 11b9 4639
00000350: b451 5639 c960 0e39 ffca 4639 4b10 6d39
00000360: ccc9 a93a fb49 bd3b fec9 6138 3340 3f3c
00000370: c239 9d3c bf17 233c 5099 3d3c 7562 c73c
00000380: e406 9d3c 5c67 60be c22b 0dbf 592a 9abe
00000390: a6b9 91be 1ff2 14bf 60d5 5abe 17b0 83bd
000003a0: 4e2c f4bd 5176 1c3d 3d91 8439 fbd7 723a
000003b0: a33e 143a d04f 09b9 b6d2 0a3a 9eaa 9d39
000003c0: e9c8 5aba c12e 43ba 81eb 3eba 34a9 81bd
000003d0: d04a 4b3f 970d 2ebe 7bc3 6ebf 7f73 24c0
000003e0: b2d5 b4bf cf20 373f 812a 07be 15c2 3a3f
000003f0: d5e1 9e3e dcd8 b33e 92cc 5d3e 39c8 73bd

layer1.0.bn1.weight f4 [8]
-0.0142724365 5.9917164 4.9080503e-05 1.3270216 0.3577047 0.02313175 4.585889 1.8192947
00000000: f0d6 69bc 24bc bf40 cadb 4d38 d8db a93f
00000010: 1225 b73e cc7e bd3c 9abf 9240 a6de e83f

layer1.0.bn1.bias f4 [8]
-0.28922433 -0.65409017 -0.00042509625 -0.054064233 -1.5295436 -0.20144461 2.8951025 1.6110816
00000000: 3615 94be 7472 27bf 74df deb9 7572 5dbd
00000010: 16c8 c3bf 7f47 4ebe 5c49 3940 ec37 ce3f

layer1.0.bn1.running_mean f4 [8]
-0.6217802 -35.323177 0.00039188564 -10.535007 0.98409706 -1.794016 -15.067225 -0.04983096
00000000: fd2c 1fbf ef4a 0dc2 0076 cd39 648f 28c1
00000010: c9ed 7b3f 51a2 e5bf 5b13 71c1 8c1b 4cbd

layer1.0.bn1.running_var f4 [8]
0.19111326 309.37985 6.09532e-06 59.846012 15.759692 0.38664198 94.24495 30.939896
00000000: 32b3 433e 9fb0 9a43 6686 cc36 5162 6f42
00000010: b327 7c41 f0f5 c53e 6a7d bc42 e884 f741

layer1.0.conv2.weight f4 [8, 8, 3, 3]
0.018271018 -0.03328589 -0.026865594 0.015322248 -0.029272994 -0.024034131 0.015535709 -0.045009013
-0.028288536 0.5104918 0.70598775 0.76146585 0.36482114 0.5553184 0.66353005 0.23148385
0.3280766 0.76810324 0.00028505214 -5.699657e-05 -0.00021024181 4.4352157e-05 8.507507e-05 0.00012575307
0.00016984373 7.443224e-05 9.679334e-05 0.4108471 0.37410524 -0.20563458 -0.064242914 0.26251483
0.46272007 -0.69127387 -0.4316563 0.27822036 0.11738108 -0.09147953 -0.25157082 0.13470925
0.09636467 -0.10654228 -0.0013348262 -0.15794274 -0.34650445 0.024048556 0.006335407 0.0010753223
0.030610908 0.024101153 0.03566983 0.025725307 0.03207813 0.048959702 -0.1470062 -1.2331799
0.7700162 0.4332457 1.4612718 -0.80483085 -0.5599784 2.1592767 -0.21440566 -0.12087867
0.17931402 0.35714757 -0.47593135 -0.2915976 0.21558951 -0.28235236 -0.44847202 -0.023661423
-0.011852759 0.016872793 -0.024717247 -0.0010086216 0.0037698743 -0.025134297 0.00040896516 0.0067949784
-0.023401035 -0.3761479 -0.41046935 -0.61900294 -0.377935 -0.41578704 -0.62232727 -0.47001988
-0.54479295 -0.67717344 -7.748462e-05 -0.00017504506 5.043742e-05 -0.00013199485 -7.349337e-05 0.00024617356
-0.000199001 -3.737821e-05 0.00015641676 -0.2596231 -0.059615936 -0.25660858 -0.1247127 -0.00028270128
-0.1678606 -0.19657926 -0.11242478 -0.17203358 -0.07051389 -0.013903352 -0.006645614 0.058768395
0.10377947 0.13621785 -0.046822425 -0.007286643 0.028586 0.021559304 0.042168953 0.016589848
0.00040753474 0.028254606 0.0006666332 0.004072132 0.03776631 0.0049578054 -0.8601616 0.07032204
-0.140453 -0.90219957 0.8174188 0.0067399335 -0.91699046 0.85823554 -0.08044048 -0.1581426
-0.005183918 -0.11083023 -0.20476605 -0.07735802 -0.1248619 -0.27592823 -0.2276488 -0.2291446
-0.020452313 -0.02404768 -0.031465378 -0.011801628 -0.005749083 -0.018338833 -0.00094789086 8.7449705e-05
-0.011573917 0.9317852 0.9955425 0.7662509 1.2318498 1.108725 0.9681413 0.9491165
1.0953438 0.8169087 0.00012747187 -0.00023720614 -0.0001798312 0.0001925813 -0.0005039497 3.0093246e-05
-0.00038257253 0.0005346251 -0.00026776295 0.9699806 1.0657655 0.7725014 0.77296925 0.88032866
0.56282043 0.3206572 0.6938992 0.41432613 0.26607484 0.34546018 0.40114605 -0.2602873
-0.17580569 -0.061923243 -0.2083255 -0.18583165 -0.072753675 -0.016008215 0.0038991396 0.0019027366
-0.02633578 0.009225478 0.005250863 0.008927725 0.024580922 0.00491293 0.41439053 0.14734909
0.30099964 0.50539106 0.024987262 0.2978596 0.48064303 0.124697976 0.40671703 0.40663937
0.29768142 0.44464025 0.41756302 0.17389552 0.3034938 0.5039707 0.43678412 0.35063782
0.008362605 -0.00235538 0.0013137746 0.0058666677 -0.0044041593 -0.0022853033 0.004586624 -0.0066502267
-0.0049695047 -0.21875253 -0.2517314 -0.5072261 -0.19309874 -0.31404123 -0.47864076 -0.11653895
-0.15377308 -0.41194242 0.0002423163 0.00025108922 4.6558274e-05 0.00025580244 0.0001266928 0.00015648539
0.0002995612 0.00043551376 0.00045160207 0.34097633 0.3081172 0.24657544 0.40242437 0.49181718
0.7029027 -0.04549332 0.09269186 0.39183956 0.020964537 -0.016218698 0.016728994 0.11990215
00000000: 1aad 953c c956 08bd 3c15 dcbc 2b0a 7b3c
00000010: ebcd efbc 3ae3 c4bc 7d89 7e3c 5f5b 38bd
00000020: 5cbd e7bc 97af 023f 9dbb 343f 6def 423f
00000030: d6c9 ba3e 5929 0e3f 1bdd 293f 1a0a 6d3e
00000040: a8f9 a73e 6aa2 443f 0d73 9539 9a0f 6fb8
00000050: 5b74 5cb9 c406 3a38 556a b238 95dc 0339
00000060: 1418 3239 8118 9c38 87fd ca38 8d5a d23e
00000070: b98a bf3e df91 52be ca91 83bd 5868 863e
00000080: a5e9 ec3e 53f7 30bf 0e02 ddbe e672 8e3e
00000090: 7e65 f03d 9f59 bbbd e4cd 80be 39f1 093e
000000a0: d75a c53d d732 dabd 56f5 aeba bebb 21be
000000b0: 0869 b1be 7a01 c53c 3f99 cf3b d4f1 8c3a
000000c0: bac3 fa3c c86f c53c 871a 123d e1bd d23c
000000d0: 5b64 033d f889 483d cb88 16be d7d8 9dbf
000000e0: c81f 453f 61d2 dd3e f40a bb3f 6509 4ebf
000000f0: bf5a 0fbf 9731 0a40 288d 5bbe 3c8f f7bd
00000100: 189e 373e 0cdc b63e 46ad f3be 484c 95be
00000110: 7fc3 5c3e 7d90 90be 209e e5be 9ad5 c1bc
00000120: 1332 42bc d038 8a3c d37b cabc ba33 84ba
00000130: ff0f 773b 71e6 cdbc 606a d639 69a8 de3b
00000140: 87b3 bfbc 7596 c0be 0a29 d2be fa76 1ebf
00000150: b280 c1be 0ae2 d4be d750 1fbf 72a6 f0be
00000160: 8d77 0bbf 3d5b 2dbf 3d7f a2b8 4d8c 37b9
00000170: c48c 5338 1968 0ab9 7420 9ab8 db10 8139
00000180: edaa 50b9 8cc6 1cb8 ce03 2439 52ed 84be
00000190: d72f 74bd 3362 83be 5f69 ffbd 8637 94b9
000001a0: a6e3 2bbe 134c 49be f73e e6bd 9229 30be
000001b0: 9669 90bd e3ca 63bc 73c3 d9bb 21b7 703d
000001c0: 558a d43d b17c 0b3e dfc8 3fbd cbc4 eebb
000001d0: 302d ea3c 239d b03c 5ab9 2c3d 6fe7 873c
000001e0: 63aa d539 3476 e73c ffc0 2e3a 856f 853b
000001f0: d9b0 1a3d 1675 a23b 8d33 5cbf 0005 903d
00000200: e9d2 0fbe 8df6 66bf 5c42 513f a9da dc3b
00000210: e3bf 6abf 53b5 5b3f fabd a4bd 22f0 21be
00000220: dbdd a9bb f6fa e2bd 31ae 51be e26d 9ebd
00000230: 99b7 ffbd 7746 8dbe c41c 69be e2a4 6abe
00000240: 9c8b a7bc a4ff c4bc d7e1 00bd 9e5b 41bc
00000250: ce62 bcbb 523b 96bc e17b 78ba 3465 b738
00000260: 87a0 3dbc 7a89 6e3f e0db 7e3f 0529 443f
00000270: 41ad 9d3f b3ea 8d3f 1cd8 773f 4df9 723f
00000280: 3a34 8c3f ee20 513f f8a9 0539 8aba 78b9
00000290: 1291 3cb9 a6ef 4939 7e1b 04ba c170 fc37
000002a0: 0494 c8b9 1526 0c3a 8962 8cb9 a650 783f
000002b0: 016b 883f a7c2 453f 50e1 453f 385d 613f
000002c0: 0015 103f 2e2d a43e 61a3 313f 8e22 d43e
000002d0: f63a 883e 28e0 b03e 0463 cd3e 6144 85be
000002e0: 6806 34be 3aa3 7dbd 4853 55be a74a 3ebe
000002f0: e1ff 94bd a923 83bc b588 7f3b 3f65 f93a
00000300: 22be d7bc 7626 173c 6e0f ac3b 9845 123c
00000310: ee5d c93c a5fc a03b ff2a d43e aee2 163e
00000320: a01c 9a3e 4f61 013f 16b2 cc3c 0e81 983e
00000330: d816 f63e a761 ff3d 373d d03e 0933 d03e
00000340: b369 983e e3a7 e33e d2ca d53e ab11 323e
00000350: 8a63 9b3e 3904 013f 2ba2 df3e cd86 b33e
00000360: 4f03 093c b85c 1abb f632 ac3a 2d3d c03b
00000370: c450 90bb 07c5 15bb 644b 963b 25ea d9bb
00000380: 3ad7 a2bb aa00 60be f0e2 80be 92d9 01bf
00000390: adbb 45be 03ca a0be 6710 f5be f9ab eebd
000003a0: b176 1dbe 1eea d2be 4916 7e39 a0a4 8339
000003b0: 9147 4338 391d 8639 d7d8 0439 3a16 2439
000003c0: 6c0e 9d39 ab55 e439 01c5 ec39 7394 ae3e
000003d0: 8ac1 9d3e 467e 7c3e 910a ce3e 76cf fb3e
000003e0: 6ef1 333f 3457 3abd 3bd5 bd3d 329f c83e
000003f0: d2bd ab3c 13dd 84bc 3e0b 893c 428f f53d

layer1.0.bn2.weight f4 [8]
1.9578574 0.40618816 2.688023 0.41488242 0.15712991 1.8954891 -0.0024719501 3.4805472
00000000: 129b fa3f e5f7 cf3e 9208 2c40 786b d43e
00000010: aae6 203e 639f f23f 7100 22bb 49c1 5e40

layer1.0.bn2.bias f4 [8]
1.7064333 0.23752728 -0.96562016 -2.3079004 0.4042714 0.557087 -0.017617417 2.724596
00000000: 686c da3f 5a3a 733e e232 77bf a4b4 13c0
00000010: a9fc ce3e 419d 0e3f 6752 90bc c85f 2e40

layer1.0.bn2.running_mean f4 [8]
15.035377 -14.970435 34.521477 -1.744046 -1.2012233 7.8391514 1.9085933 15.385466
00000000: e790 7041 e786 6fc1 fe15 0a42 e63c dfbf
00000010: afc1 99bf 54da fa40 c94c f43f de2a 7641

layer1.0.bn2.running_var f4 [8]
203.16446 190.3142 511.1884 158.0182 40.981304 321.14462 2.7946157 811.19507
00000000: 1a2a 4b43 6f50 3e43 1d98 ff43 a904 1e43
00000010: dbec 2342 8392 a043 fcda 3240 7ccc 4a44

layer2.0.conv1.weight f4 [16, 8, 3, 3]
0.6334365 0.95829463 -0.7194981 -0.88005894 0.4221228 0.4987549 0.9273221 -1.0148485
0.4357366 -0.17754263 -0.031771187 0.042396538 -0.15459792 -0.03356129 -0.006162262 -0.09771819
0.08954708 0.051345535 -0.1233587 -0.03898898 -0.07983543 -0.06116774 -0.09429914 0.008256938
-0.16656317 -0.11819036 -0.22239864 -0.18786395 -0.18055522 -0.059506215 0.020257553 0.12430271
-0.08379922 -0.18502678 0.17711358 -0.034020625 -0.28158525 0.32602984 0.23957254 0.17191231
-0.22940269 0.1926533 0.2812111 0.27973086 -0.1937719 0.7612295 -1.5599087 0.9278134
1.0487752 0.5637772 -1.2341732 -1.3977021 1.3859264 0.4228968 0.01116141 -0.08682819
-0.011994678 0.011991415 -0.021678112 -0.13372436 -0.054262545 0.027991893 -0.041965496 -0.38104373
-0.1347039 0.16771837 0.5969854 -0.33527303 -0.39524502 -0.22061037 0.5092126 0.029915262
-0.37511277 -0.3540622 -0.40406236 -0.28428838 -0.30818152 -0.2260854 -0.05844373 0.015916144
-0.053836692 -0.14513528 -0.21199071 -0.23150353 0.0029546733 -0.0132127525 -0.03258947 -0.068906344
-0.07450092 -0.082232684 -0.49911943 -0.73860013 -0.80695754 -0.7131569 -0.9003381 -0.964366
-0.69851464 -0.9188934 -0.98220176 0.19920753 0.11093742 0.11890335 0.14689131 0.21029158
0.13457465 -0.005048019 0.31604296 0.30941153 0.03243759 -0.0013077368 0.16582443 0.23268288
0.21524577 0.3349429 0.26939678 0.22887039 0.37026128 -0.0032039804 0.53281343 0.45171973
0.23704539 0.92073077 0.7489989 0.25212738 0.8698495 0.70512503 0.01665202 0.013990217
0.0002877907 0.014797742 0.0068432195 -0.016520604 0.010130705 0.0050683133 -0.024085127 -0.11031617
-0.15857765 -0.08057509 0.09834145 0.124995664 0.07302961 0.35830852 0.35829315 0.32375962
0.00719001 0.010259558 0.013975819 0.017373277 0.021395598 0.018431418 0.029157877 0.031226799
0.030270908 -0.017640442 -0.024842871 -0.025496062 -0.0055605317 -0.014840974 -0.016243894 -0.00040768398
-0.009446128 -0.010099261 -0.008025331 -0.012957774 -0.008519528 -0.008925869 -0.013882642 -0.00882815
-0.007369668 -0.008683411 -0.004706017 0.0038667682 0.004977726 0.0031508203 0.00410761 0.0054683792
-0.0015394384 0.0046703294 0.007857036 0.0062876875 0.010067522 0.012825813 0.014115695 0.013221864
0.019260665 0.025234547 0.010388969 0.017002039 0.024838356 0.00015855956 0.0064479774 0.016519189
-0.00041833593 0.013314191 0.022501534 -0.028192794 -0.025448894 -0.009210336 8.577449e-06 0.0015319139
-0.00019282941 0.008372878 0.011082676 0.009057904 0.00053193164 0.0041997344 0.0027689647 -0.002405356
-0.0014078327 -0.0053612976 0.0085052345 0.014601598 0.010089956 -0.01110075 -0.0073367264 -0.0041055125
-0.08031154 -0.0021034938 -0.055080917 0.04360573 -0.036500156 -0.1390441 -0.09223024 -0.18004918
-0.038603712 -0.008147359 0.030498909 0.011911603 0.017793927 0.04470924 0.027376935 0.06689297
0.021669766 0.011591498 -0.02421046 0.020485949 -0.0045379563 0.013117157 -0.0061034514 -0.0532129
-0.01036633 -0.06601147 -0.044253368 -0.048721474 -0.028106125 -0.016556256 -0.01572011 -0.0139271235
-0.03186998 -0.020211177 -0.03408626 -0.027602784 -0.022413 -0.03903715 -0.036807325 -0.03683302
00000000: e528 223f cc52 753f 0731 38bf 8b4b 61bf
00000010: 7b20 d83e cd5c ff3e fb64 6d3f 8ee6 81bf
00000020: de18 df3e bccd 35be 8122 02bd fea7 2d3d
00000030: eb4e 1ebe 9077 09bd cdec c9bb 7920 c8bd
00000040: 7664 b73d b24f 523d 7ca3 fcbd e9b2 1fbd
00000050: c280 a3bd 068b 7abd e81f c1bd 1c48 073c
00000060: 898f 2abe ca0d f2bd 78bc 63be 685f 40be
00000070: 78e3 38be cabc 73bd 2bf3 a53c 6b92 fe3d
00000080: ed9e abbd a977 3dbe 435d 353e 3659 0bbd
00000090: f12b 90be 62ed a63e 8152 753e c809 303e
000000a0: 8ae8 6abe e846 453e e7fa 8f3e e238 8f3e
000000b0: 246c 46be f0df 423f 17ab c7bf 2e85 6d3f
000000c0: 443e 863f b453 103f 63f9 9dbf e7e7 b2bf
000000d0: 0966 b13f ee85 d83e 59de 363c fad2 b1bd
000000e0: 5385 44bc a477 443c 4c96 b1bc 0aef 08be
000000f0: 6742 5ebd 414f e53c 03e4 2bbd 2a18 c3be
00000100: d2ef 09be 5dbe 2b3e 09d4 183f e8a8 abbe
00000110: 8e5d cabe afe7 61be c25b 023f da10 f53c
00000120: c80e c0be a447 b5be 43e1 cebe 3f8e 91be
00000130: f8c9 9dbe ee82 67be b162 6fbd 9362 823c
00000140: dd83 5cbd 589e 14be 1814 59be 430f 6dbe
00000150: 31a3 413b 4d7a 58bc 897c 05bd c51e 8dbd
00000160: f093 98bd 9c69 a8bd 958c ffbe e614 3dbf
00000170: c594 4ebf 7391 36bf 8f7c 66bf b1e0 76bf
00000180: dbd1 32bf 993c 6bbf 9371 7bbf 0ffd 4b3e
00000190: 2833 e33d 9983 f33d ad6a 163e ad56 573e
000001a0: f0cd 093e da69 a5bb 62d0 a13e 306b 9e3e
000001b0: 47dd 043d 5e68 abba e1cd 293e 6c44 6e3e
000001c0: 6369 5c3e a37d ab3e 60ee 893e 005d 6a3e
000001d0: e392 bd3e dff9 51bb 7666 083f cf47 e73e
000001e0: 07bc 723e 03b5 6b3f 64be 3f3f d716 813e
000001f0: 75ae 5e3f 1383 343f d169 883c 3937 653c
00000200: 9de2 9639 3a72 723c 163d e03b 3856 87bc
00000210: 42fb 253c 1814 a63b 2c4e c5bc 72ed e1bd
00000220: 2e62 22be 8e04 a5bd 3e67 c93d bafd ff3d
00000230: 8c90 953d 3774 b73e 3372 b73e d2c3 a53e
00000240: 2d9a eb3b b517 283c d5fa 643c 6752 8e3c
00000250: d245 af3c 7cfd 963c 80dc ee3c 58cf ff3c
00000260: b2fa f73c b082 90bc 4783 cbbc 1edd d0bc
00000270: 1f35 b6bb 8e27 73bc ea11 85bc 6bbe d5b9
00000280: efc3 1abc 5f77 25bc ae7c 03bc d84c 54bc
00000290: 7e95 0bbc cf3d 12bc 0574 63bc f2a3 10bc
000002a0: 427d f1bb de44 0ebc ef34 9abb 9b69 7d3b
000002b0: 311c a33b fe7d 4e3b 2199 863b 1730 b33b
000002c0: fbc6 c9ba 9009 993b ccba 003c f208 ce3b
000002d0: 3ff2 243c 5c23 523c 8445 673c 84a0 583c
000002e0: 8bc8 9d3c aeb8 ce3c 7f36 2a3c dc47 8b3c
000002f0: cf79 cb3c 0243 2639 8e49 d33b 4053 873c
00000300: 1954 dbb9 c423 5a3c 2355 b83c 93f4 e6bc
00000310: 337a d0bc f3e6 16bc dde7 0f37 80ca c83a
00000320: 4032 4ab9 652e 093c 1d94 353c 9a67 143c
00000330: 5471 0b3a ed9d 893b 8577 353b 2da3 1dbb
00000340: 0787 b8ba d3ad afbb 8a59 0b3c 8a3b 6f3c
00000350: 5850 253c ecdf 35bc ec68 f0bb 8987 86bb
00000360: 607a a4bd c5da 09bb 879c 61bd ec9b 323d
00000370: 3081 15bd 9461 0ebe 35e3 bcbd d05e 38be
00000380: ed1e 1ebd 807c 05bc d9d8 f93c e228 433c
00000390: 92c4 913c 0921 373d 9845 e03c 2eff 883d
000003a0: cb84 b13c 44ea 3d3c 0455 c6bc 26d2 a73c
000003b0: 23b3 94bb 58e9 563c 76ff c7bb c5f5 59bd
000003c0: 8ad7 29bc 0631 87bd 0543 35bd 2b90 47bd
000003d0: d13e e6bc fca0 87bc 76c7 80bc 972e 64bc
000003e0: 198a 02bd e991 a5bc 099e 0bbd 3c1f e2bc
000003f0: 789b b7bc 6be5 1fbd 47c3 16bd 39de 16bd

layer2.0.bn1.weight f4 [16]
1.7100765 -2.813573 0.0020787087 -0.09505047 1.785546 1.0684558 1.1471441 0.004249577
1.5554307 0.0016922798 1.6854466 5.470506e-05 -3.529621e-05 4.2557847e-05 -1.3707646 1.7114669
00000000: c9e3 da3f 9411 34c0 f23a 083b d2a9 c2bd
00000010: c58c e43f 29c3 883f 9ed5 923f 0940 8b3b
00000020: 5a18 c73f 7dcf dd3a b7bc d73f 1c73 6538
00000030: 040b 14b8 2480 3238 3775 afbf 5911 db3f

layer2.0.bn1.bias f4 [16]
-1.2875172 -0.59114265 -0.10701704 -0.5016204 1.1796888 0.025032155 -1.3296474 -0.07209374
-0.2340048 -0.023363862 1.0631773 -0.0004273852 -0.0004165326 -0.00027936278 -1.8835168 1.8307223
00000000: 5dcd a4bf 2055 17bf c02b dbbd 326a 00bf
00000010: 0b00 973f 3c10 cd3c e331 aabf e2a5 93bd
00000020: f49e 6fbe 9265 bfbc 3216 883f ac12 e0b9
00000030: 0f62 dab9 7077 92b9 1417 f1bf 1c55 ea3f

layer2.0.bn1.running_mean f4 [16]
4.73298 11.68037 0.14232284 -7.4711304 0.15612805 -8.967007 -23.492643 -1.2832103
-11.974925 0.46332964 -5.6253705 0.0027250359 0.010098495 0.024667962 29.51794 10.150545
00000000: 9274 9740 cce2 3a41 14bd 113e 8013 efc0
00000010: 08e0 1f3e dc78 0fc1 eff0 bbc1 3c40 a4bf
00000020: 4b99 3fc1 8b39 ed3e 0903 b4c0 8496 323b
00000030: 2874 253c 7714 ca3c be24 ec41 a268 2241

layer2.0.bn1.running_var f4 [16]
41.41687 648.99316 0.06009631 15.486145 76.045334 119.31643 304.1439 0.5190695
135.66472 0.8416234 99.83327 0.00039843668 2.6311542e-05 0.00011686804 254.78706 251.71819
00000000: e0aa 2542 903f 2244 8c27 763d 40c7 7741
00000010: 3617 9842 03a2 ee42 6b12 9843 bde1 043f
00000020: 2baa 0743 a274 573f a2aa c742 44e5 d039
00000030: 9bb7 dc37 0d17 f538 7dc9 7e43 dbb7 7b43

layer2.0.conv2.weight f4 [16, 16, 3, 3]
0.17765446 0.22566019 0.19524604 0.08589515 0.38073573 0.023642432 0.03455951 0.108477965
-0.030751148 -0.21170458 -0.22703305 -0.288077 -0.17255095 -0.1756884 -0.19612136 -0.03699955
-0.0024306462 0.06361539 0.0038514205 -0.0041234843 -0.003921164 0.0038239388 -0.005550593 -0.0018742862
0.009611946 0.0005669875 0.0042889337 -0.0055759563 -0.027472517 -0.017189786 -0.00839511 -0.012064938
-0.008115223 -0.0076166843 -0.010615998 -0.03646122 0.40800193 0.22865339 0.30443543 0.40595746
-0.047644064 0.28178588 0.27254102 0.19785829 0.15341239 0.06306667 0.11604377 -0.014903822
-0.089166015 0.0057023545 -0.10929428 0.03437099 0.01222748 -0.08042532 0.27349588 0.19209826
0.2685927 0.10111842 0.24449211 0.29235488 -0.0074836975 0.03888672 0.123298004 -0.0017177955
-0.008476323 -0.00094755087 -0.0076445905 -0.022560516 -0.008528004 -0.0022608456 -0.013188908 -0.004424594
0.08378946 0.11716722 0.19053033 0.22353943 0.23409824 0.4211835 0.2554921 0.5259379
0.36299354 -0.0063609863 0.0021285105 0.0005969554 0.001717582 0.010478808 0.0035772475 0.0007309781
0.00775906 0.0060895192 0.19808687 0.69820887 0.27733964 0.0060685924 0.6505788 0.0003297651
-0.19057114 0.3466282 0.13228194 -0.00041600407 -0.0009559042 -0.0008536267 0.00033197488 -0.00020797102
-0.0007026196 0.00051479944 0.0002247554 -0.00020418792 -8.863596e-05 -3.6314224e-05 -0.00016892512 4.7059046e-05
5.1832067e-05 -7.01549e-05 5.6178134e-05 0.00011311649 -2.4514895e-05 -0.00012320041 -4.6700123e-05 -4.9909122e-05
-4.457904e-05 5.0158537e-06 -1.938569e-05 -3.598559e-05 -4.0402432e-05 -2.7490894e-05 0.17838594 0.085627176
-0.059182875 0.21530072 -0.14359282 -0.20286463 0.19473018 0.26446557 0.0044463677 0.12562788
0.56263536 -0.024527801 0.074981935 -0.0333399 -0.16915882 -0.019861368 0.12505779 -0.08054802
-0.035037544 0.14970618 -0.113720216 0.10973479 0.31735703 0.30599606 -0.41659006 0.29703012
0.1729543 0.31122392 0.67185897 0.36748642 0.5496937 0.9422972 0.61763686 0.4679491
0.8214157 0.4960414 0.00446245 0.016482813 0.025477448 0.0066815466 0.020478621 0.029151676
-0.001246956 0.01378108 0.022270076 -0.013440165 -0.011370221 -0.013105471 0.013556735 0.0019621288
-0.03828295 -0.0215944 -0.0056042033 0.0063269497 0.35586143 0.1486258 0.2628259 0.20469423
0.492815 0.12418592 0.21315296 0.21678819 -0.010176236 0.020109234 0.19018841 0.32922715
-0.14603955 -0.017095564 0.22445932 0.25285667 -0.09239573 0.043717746 -0.26204523 -0.34766668
-0.15943873 0.04748041 -0.38410023 -0.17009196 -0.21079151 -0.025340497 -0.13542795 0.009228824
0.009665333 -0.0013709249 -0.00908756 0.0015794019 0.0027986497 -0.008150219 0.006578597 0.0062005366
0.05412729 -0.18435346 -0.011725645 0.12572312 0.36471173 0.1963915 0.11872376 0.14039174
0.14481582 -0.0023370835 -0.009858604 -0.015696526 0.01567163 0.017843029 0.007064812 0.018495312
0.037543785 0.03152028 -0.29893422 -0.23168348 -0.07002477 0.10411691 -0.25682488 -0.09627818
0.34775242 0.51456887 0.08749304 0.0004919517 -0.00020985352 -0.00078738906 0.00028942904 0.0004999181
-0.00040057322 0.00030499228 0.00086505944 0.00030946068 4.2268028e-05 6.4096275e-05 -0.00010854812 1.7123355e-05
00000000: 0deb 353e 7713 673e 94ee 473e cce9 af3d
00000010: cbef c23e c6ad c13c 468e 0d3d b229 de3d
00000020: d5e9 fbbc 16c9 58be 5a7b 68be d47e 93be
00000030: 32b1 30be a9e7 33be 0ad4 48be d78c 17bd
00000040: 7a4b 1fbb c948 823d 1d68 7c3b 4b1e 87bb
00000050: 1c7d 80bb 0c9b 7a3b c0e1 b5bb 9caa f5ba
00000060: 6c7b 1d3c e3a1 143a 2f8a 8c3b 83b6 b6bb
00000070: 0b0e e1bc 98d1 8cbc a58b 09bc 05ac 45bc
00000080: b6f5 04bc 6195 f9bb b9ee 2dbc 5c58 15bd
00000090: a1e5 d03e 1d24 6a3e f6de 9b3e a8d9 cf3e
000000a0: 6c26 43bd 3d46 903e 7f8a 8b3e 5d9b 4a3e
000000b0: 2318 1d3e 1929 813d 5ba8 ed3d 292f 74bc
000000c0: ac9c b6bd d1da ba3b aed5 dfbd 98c8 0c3d
000000d0: c555 483c 08b6 a4bd a707 8c3e 68b5 443e
000000e0: fb84 893e 2d17 cf3d 245c 7a3e 8aaf 953e
000000f0: ce39 f5bb ae47 1f3d aa83 fc3d a727 e1ba
00000100: 47e0 0abc 1065 78ba 797f fabb d5d0 b8bc
00000110: 0bb9 0bbc b22a 14bb 4a16 58bc 2ffc 90bb
00000120: cf99 ab3d 5ef5 ef3d 621a 433e 85e7 643e
00000130: 73b7 6f3e 5da5 d73e dccf 823e dea3 063f
00000140: 4ada b93e d26f d0bb 7b7e 0b3b 007d 1c3a
00000150: 7d20 e13a 4eaf 2b3c 4170 6a3b 1c9f 3f3a
00000160: b63f fe3b 978a c73b 49d7 4a3e d1bd 323f
00000170: 76ff 8d3e 0bdb c63b 558c 263f 53e4 ac39
00000180: 1525 43be 4079 b13e eb74 073e 1f1b dab9
00000190: a595 7aba ebc5 5fba ea0c ae39 cc12 5ab9
000001a0: 0130 38ba 9bf3 063a 51ac 6b39 471b 56b9
000001b0: 12e2 b9b8 1a50 18b8 7e21 31b9 4461 4538
000001c0: 4266 5938 2020 93b8 d0a0 6b38 f438 ed38
000001d0: 56a5 cdb7 5c2f 01b9 e0df 43b8 8355 51b8
000001e0: 61fa 3ab8 db4d a836 749e a2b7 3cef 16b8
000001f0: c875 29b8 3f9c e6b7 ceaa 363e 4d5d af3d
00000200: be69 72bd cb77 5c3e ff09 13be bfbb 4fbe
00000210: 5967 473e 0868 873e d6b2 913b 98a4 003e
00000220: df08 103f 87ee c8bc 2190 993d 6b8f 08bd
00000230: f837 2dbe 4fb4 a2bc 260f 003e 5cf6 a4bd
00000240: 8783 0fbd 944c 193e 25e6 e8bd a2bc e03d
00000250: 9f7c a23e 84ab 9c3e 4b4b d5be 5514 983e
00000260: ef1a 313e be58 9f3e f3fe 2b3f 2e27 bc3e
00000270: bab8 0c3f 643a 713f 731d 1e3f 0697 ef3e
00000280: 4d48 523f 23f9 fd3e be39 923b f706 873c
00000290: 15b6 d03c e0f0 da3b c8c2 a73c 7fcf ee3c
000002a0: e670 a3ba 0aca 613c bc6f b63c 2334 5cbc
000002b0: 2a4a 3abc 54b8 56bc 111d 5e3c 0f97 003b
000002c0: 95ce 1cbd bde6 b0bc 77a3 b7bb 4d52 cf3b
000002d0: 7833 b63e 5d31 183e 1e91 863e 5d9b 513e
000002e0: 3f52 fc3e 3055 fe3d c544 5a3e b9fd 5d3e
000002f0: 3aba 26bc 1fbc a43c c0c0 423e 7690 a83e
00000300: 648b 15be ff0b 8cbc aad8 653e 6e76 813e
00000310: f939 bdbd 6111 333d cb2a 86be 5e01 b2be
00000320: e843 23be d27a 423d c9a8 c4be 962c 2ebe
00000330: bbd9 57be e096 cfbc a0ad 0abe 7e34 173c
00000340: 585b 1e3c 9bb0 b3ba fde3 14bc ef03 cf3a
00000350: 8d69 373b 7f88 05bc 4591 d73b df2d cb3b
00000360: 94b4 5d3d 27c7 3cbe eb1c 40bc 90bd 003e
00000370: 7fbb ba3e da1a 493e 7125 f33d dac2 0f3e
00000380: 994a 143e c129 19bb fb85 21bc 0096 80bc
00000390: ca61 803c 8b2b 923c f07f e73b 7b83 973c
000003a0: 83c7 193d 691b 013d e80d 99be 6f3e 6dbe
000003b0: 2669 8fbd 3f3b d53d 8d7e 83be 7f2d c5bd
000003c0: 9b0c b23e c9ba 033f 8d2f b33d 52f6 003a
000003d0: 200c 5cb9 c968 4eba 82be 9739 f00c 033a
000003e0: 0704 d2b9 5fe7 9f39 28c5 623a 1c3f a239
000003f0: f348 3138 6d6b 8638 54a4 e3b8 20a4 8f37

layer2.0.bn2.weight f4 [16]
-0.1466626 1.54154 2.6303098 3.1842904 -0.22253719 -0.66711134 2.9117618 0.006024266
2.3845087e-06 0.58391947 2.212542 0.15387817 1.0158933 3.5168831 -2.0426557 2.3514338
00000000: b82e 16be 2f51 c53f ff56 2840 6acb 4b40
00000010: cae0 63be cfc7 2abf 4e5a 3a40 3567 c53b
00000020: 8c05 2036 bf7b 153f 4a9a 0d40 3d92 1d3e
00000030: cb08 823f 9d14 6140 dfba 02c0 e47d 1640

layer2.0.bn2.bias f4 [16]
1.3386238 0.5849774 -1.2080779 -0.42457226 -0.47952694 1.4806011 -0.5718961 -0.33697125
-0.0006499502 -0.19898704 -0.23320551 1.0043025 -0.63591146 -0.46739417 -0.45055157 -0.5579915
00000000: 0658 ab3f 14c1 153f 4ca2 9abf 8961 d9be
00000010: 8e84 f5be 5684 bd3f c867 12bf 7f87 acbe
00000020: 6b61 2aba 42c3 4bbe 6dcd 6ebe fc8c 803f
00000030: 18cb 22bf 4a4e efbe b2ae e6be 88d8 0ebf

layer2.0.bn2.running_mean f4 [16]
6.9483666 11.687542 -0.93678784 -1.3551424 -1.1777108 -7.079649 -9.638382 -7.4689474
-0.0059556076 -0.09519151 -9.308579 -5.2780924 -2.748878 2.045968 -7.04701 -0.75218236
00000000: 0559 de40 2c00 3b41 54d1 6fbf 4e75 adbf
00000010: 3abf 96bf 7c8c e2c0 d036 1ac1 9e01 efc0
00000020: 4227 c3bb c4f3 c2bd f1ef 14c1 22e6 a8c0
00000030: 9eed 2fc0 24f1 0240 1b81 e1c0 068f 40bf

layer2.0.bn2.running_var f4 [16]
24.047867 49.98545 42.767815 44.63566 4.2194233 6.244376 45.822414 26.660435
8.722692e-06 19.751022 30.71678 57.545883 11.680469 51.054806 27.47606 42.583633
00000000: 0862 c041 1af1 4742 3e12 2b42 ea8a 3242
00000010: 8405 8740 eed1 c740 274a 3742 9248 d541
00000020: ad57 1237 1802 9e41 f7bb f541 fc2e 6642
00000030: 33e3 3a41 1f38 4c42 f9ce db41 a455 2a42

layer2.0.shortcut.0.weight f4 [16, 8, 1, 1]
0.32176197 -3.5145195 0.15122333 0.16861703 0.08303418 -0.23775032 -0.01466845 0.26080263
-0.012606093 1.4709249 0.7187808 0.17765376 0.70683676 1.0471196 -0.18393357 -0.1545188
0.60648954 -0.69393677 -0.23294792 0.13305523 -0.083748244 -1.162788 -0.057660993 -0.3614
0.49976966 -0.039517302 0.14538583 -0.7641301 -0.2031379 -1.0984304 -0.09430632 -1.3998039
0.32585403 0.1553465 -0.4733364 -0.5406649 2.476383 -0.22197373 0.09451087 0.23728274
0.56428546 2.8448572 0.40959102 0.54671985 -0.39853036 0.7097262 0.087385274 0.3050553
-1.0239316 -0.31495377 -0.17034832 0.1203599 -0.19733305 -0.8461426 -0.013488174 -0.26405206
1.0422403 -0.017953953 -0.9268438 0.6047469 0.21043025 1.1556643 -0.14359498 0.4276603
-3.68962e-05 0.00030764227 6.5247936e-05 0.00018322999 3.9638227e-05 0.0005387607 5.5068143e-05 2.467724e-05
-1.1510812 -0.88070923 -0.6548781 -0.04063916 -2.9313126 0.024950964 -0.10710226 0.058357485
-0.17609604 -0.0017100038 -0.09254143 0.31918365 -0.3029821 -0.05871846 -0.010963294 0.37749124
0.54341614 0.52604955 0.29007092 0.28756142 -0.07014986 0.51941127 -0.09918521 -0.54735357
0.53581643 0.17626299 -0.03312588 0.40873298 0.21830127 0.59755933 -0.03003068 0.53185
-0.9052427 -0.10504512 -0.217211 -0.20426 -0.46824875 -0.5610191 0.07491393 -1.3888211
0.078099795 0.09743772 0.25478387 -0.4554596 0.076791085 0.6108495 0.043927148 0.5386782
0.5691278 -0.89383245 0.37096983 -0.44489214 0.25268924 -0.21607046 -0.024860637 -0.94858843
00000000: fcbd a43e e3ed 60c0 4ada 1a3e f1a9 2c3e
00000010: d30d aa3d d274 73be f053 70bc ec87 853e
00000020: c989 4ebc 4447 bc3f 0502 383f deea 353e
00000030: 41f3 343f 0408 863f 1559 3cbe 2d3a 1ebe
00000040: e642 1b3f d7a5 31bf e689 6ebe a13f 083e
00000050: 3384 abbd 3dd6 94bf ef2d 6cbd 6c09 b9be
00000060: cfe1 ff3e e5dc 21bd 06e0 143e 089e 43bf
00000070: 6203 50be 5e99 8cbf ac23 c1bd c62c b3bf
00000080: 57d6 a63e 2713 1f3e 2659 f2be 0469 0abf
00000090: 0f7d 1e40 154d 63be ea8e c13d 3ffa 723e
000000a0: 0375 103f 2412 3640 eab5 d13e d5f5 0b3f
000000b0: 2c0c ccbe 9eb0 353f 0df7 b23d 3530 9c3e
000000c0: 3110 83bf 9f41 a1be ca6f 2ebe 407f f63d
000000d0: ad11 4abe cd9c 58bf 81fd 5cbc d531 87be
000000e0: 2168 853f 2b14 93bc a345 6dbf b1d0 1a3f
000000f0: 077b 573e cfec 933f 900a 13be 4af6 da3e
00000100: fec0 1ab8 0c4b a139 b8d5 8838 6d21 4039
00000110: 3941 2638 9e3b 0d3a f8f8 6638 f801 cf37
00000120: a156 93bf 2976 61bf 17a6 27bf 3f75 26bd
00000130: a09a 3bc0 f765 cc3c 6e58 dbbd 4208 6f3d
00000140: 8552 34be 3522 e0ba 5c86 bdbd 0a6c a33e
00000150: 7820 9bbe c582 70bd 639f 33bc 8846 c13e
00000160: 521d 0b3f 2fab 063f 2d84 943e 403b 933e
00000170: bbaa 8fbd 23f8 043f 9e21 cbbd 5d1f 0cbf
00000180: 442b 093f 497e 343e 01af 07bd 7345 d13e
00000190: 5e8a 5f3e a6f9 183f e702 f6bc 5227 083f
000001a0: fcbd 67bf e521 d7bd 8f6c 5ebe 8929 51be
000001b0: 4dbe efbe f39e 0fbf 796c 993d e4c4 b1bf
000001c0: c9f2 9f3d 6d8d c73d 0873 823e 0032 e9be
000001d0: a544 9d3d a260 1c3f f4ec 333d d1e6 093f
000001e0: 5cb2 113f 34d2 64bf c2ef bd3e e7c8 e3be
000001f0: 7c60 813e 9341 5dbe 89a8 cbbc b1d6 72bf

layer2.0.shortcut.1.weight f4 [16]
1.4980463 1.0532078 -0.36483392 0.74343485 1.6668295 1.3497589 0.5119638 0.8663788
7.68913e-05 1.5587348 -0.4176671 -0.04941947 -0.1394794 0.96902716 0.3682868 -1.2150971
00000000: fbbf bf3f 83cf 863f 83cb babe bf51 3e3f
00000010: ab5a d53f e6c4 ac3f 0f10 033f 00cb 5d3f
00000020: b440 a138 9f84 c73f 76d8 d5be 126c 4abd
00000030: b0d3 0ebe 2a12 783f 1690 bc3e 4d88 9bbf

layer2.0.shortcut.1.bias f4 [16]
1.3386238 0.5849774 -1.2080779 -0.42457226 -0.47952694 1.4806011 -0.5718961 -0.33697125
-0.0006499502 -0.19898704 -0.23320551 1.0043025 -0.63591146 -0.46739417 -0.45055157 -0.5579915
00000000: 0658 ab3f 14c1 153f 4ca2 9abf 8961 d9be
00000010: 8e84 f5be 5684 bd3f c867 12bf 7f87 acbe
00000020: 6b61 2aba 42c3 4bbe 6dcd 6ebe fc8c 803f
00000030: 18cb 22bf 4a4e efbe b2ae e6be 88d8 0ebf

layer2.0.shortcut.1.running_mean f4 [16]
-13.290245 11.601663 -7.338372 -8.1525545 6.809432 15.528363 -7.5787106 7.2580175
0.0033917965 -13.270598 -0.099740066 3.4302027 6.125599 -9.7984085 4.644533 -5.5018544
00000000: d8a4 54c1 69a0 3941 f2d3 eac0 dd70 02c1
00000010: dee6 d940 2d74 7841 cc84 f2c0 ae41 e840
00000020: e748 5e3b 5f54 54c1 8544 ccbd 7188 5b40
00000030: e804 c440 48c6 1cc1 04a0 9440 310f b0c0

layer2.0.shortcut.1.running_var f4 [16]
16.029274 12.650549 22.798946 67.30375 17.743773 12.7192 7.5404787 22.411795
2.971195e-06 13.5951 1.5989697 2.8834026 10.45551 30.559895 8.230098 20.35268
00000000: f43b 8041 a668 4a41 3e64 b641 859b 8642
00000010: 3ff3 8d41 d881 4b41 9a4b f140 5b4b b341
00000020: be64 4736 8885 5941 0aab cc3f ab89 3840
00000030: c549 2741 aa7a f441 7bae 0341 4ad2 a241

layer3.0.conv1.weight f4 [32, 16, 3, 3]
-0.18096901 -0.30296636 -0.055184048 0.056110144 -0.15126991 -0.012741475 0.22321628 0.067212924
0.15995747 -0.028712928 0.0387457 -0.22743265 -0.24408467 0.14983396 -0.23435454 -0.24932218
-0.066169485 0.14249417 0.040192854 -0.11572535 -0.63493687 -0.25152558 -0.19163872 -0.43195152
-0.5516561 -0.021084242 -0.077382684 0.81055623 0.8546824 -0.2556252 0.6884849 1.7264388
1.2349796 -0.2703842 0.97345203 0.9053855 -0.02455023 0.09679486 -0.05097232 0.009913816
-0.011199376 0.05862045 0.055585157 0.09635512 0.005153398 -0.24214236 -0.21365127 -0.12950987
-0.025885943 -0.45961547 -0.29348913 0.12860687 -0.20122762 -0.39000618 0.0584497 -0.20976533
0.03323285 -0.26640618 -0.17982744 -0.17247774 -0.19757949 -0.3142838 -0.050760023 0.010604149
0.051008444 -0.09911564 0.09422114 0.2369572 -0.13408393 0.15588641 0.32477707 0.32018515
2.3125518e-05 -3.921287e-05 -2.6646636e-05 3.4702807e-05 -9.2916496e-05 -7.353582e-05 -4.3309587e-06 -5.2041596e-05
1.6853066e-06 -0.13421997 -0.26785678 -0.33164385 -0.10607841 -0.14472102 -0.40012524 -0.046774052
-0.015320014 -0.14668718 -0.105412416 -0.34188452 0.16217771 -0.0022418406 -0.41883856 -0.08251425
0.20370336 -0.19142094 -0.151695 0.09263956 -0.26290816 -0.40265423 0.38725266 0.14506124
-0.16140023 0.19356331 0.023970688 -0.32707304 -0.1643004 0.15088442 -0.25503555 -0.35151374
0.34386444 0.5620268 -0.43143496 -0.07042015 0.31144047 -0.43098694 -0.25068793 -0.07292421
-0.54808915 -0.7696386 -0.52193594 -0.26951072 -0.5888379 -0.0902715 -0.34512526 -0.17836048
0.02060501 -0.5204705 -0.42093155 -0.31441408 -0.117735445 -0.36281556 -0.3651326 -0.09152608
-0.3011481 -0.31229448 -0.02002599 -0.25586352 -0.09486666 0.02129496 -0.09877734 -0.03869251
-0.11474735 -0.3090961 -0.2427441 -0.08636453 -0.2099262 -0.113709204 0.15324636 0.07809401
0.088516735 0.017687995 -0.08451559 0.06005065 -0.17518923 -0.36113665 -0.20143679 -0.120264634
-0.47027385 -0.20939152 -0.42832273 -0.37244555 -0.050292935 -0.6551953 -0.7661879 -0.21180658
-0.31441307 -0.5261981 -0.12516883 0.37926245 0.09610713 0.008900703 -0.19967304 -0.22315183
-0.014271103 -0.29750624 -0.27683276 -0.13498667 0.25822932 0.09942307 0.12175766 -0.040547818
-0.09752285 -0.20625629 -0.16898106 -0.26026258 -0.26256558 0.025070654 0.0066585066 -0.081734635
0.08108832 -0.15638532 -0.048865505 0.05073807 -0.15078008 -0.11104094 -0.20793554 -0.5666028
-0.16848916 -0.5022293 -0.8713558 -0.6805515 -0.1488906 -0.5929355 -0.27609897 0.24172264
0.009864179 0.2685282 -0.19687551 -0.40044782 -0.01195397 0.0031233474 -0.44855663 -0.05277645
4.5767512e-05 1.0923664e-05 -1.5819764e-05 3.3271501e-06 -6.4191125e-05 -2.372253e-05 4.7088183e-06 -7.268948e-05
-5.0554903e-05 -0.14246525 -0.24062786 -0.23471402 -0.18338823 -0.18703683 -0.037416104 0.076355726
-0.056341577 0.15965334 0.0934832 0.25945914 0.1027114 0.11447873 0.11187759 0.010551483
0.07796703 0.16457309 -0.11510589 -0.11313363 -0.24653499 -0.33527222 -0.012634879 0.05767909
-0.058862697 -0.06573022 0.14272538 -0.031143976 0.069070935 0.08304048 0.022578299 0.20898631
00000000: f14f 39be 681e 9bbe ab08 62bd c0d3 653d
00000010: 80e6 1abe 9fc1 50bc cf92 643e eea6 893d
00000020: e4cb 233e 6037 ebbc d0b3 1e3d 1be4 68be
00000030: 55f1 79be 136e 193e a3fa 6fbe 504e 7fbe
00000040: de83 87bd fee9 113e 43a1 243d 6a01 edbd
00000050: 398b 22bf f6c7 80be f13c 44be c028 ddbe
00000060: 5639 0dbf dcb8 acbc d07a 9ebd 9d80 4f3f
00000070: 77cc 5a3f 4ee1 82be 8c40 303f f2fb dc3f
00000080: d013 9e3f cc6f 8abe 2734 793f 58c7 673f
00000090: 901d c9bc 623c c63d 5ac8 50bd 8f6d 223c
000000a0: 967d 37bc ff1b 703d 43ad 633d d555 c53d
000000b0: d6dd a83b 2bf4 77be 66c7 5abe 3c9e 04be
000000c0: c20e d4bc b852 ebbe 3544 96be 85b1 033e
000000d0: 9d0e 4ebe e4ae c7be f468 6f3d b9cc 56be
000000e0: 2b1f 083d 6466 88be af24 38be 019e 30be
000000f0: 4752 4abe cee9 a0be bee9 4fbd 06bd 2d3c
00000100: 3bee 503d 24fd cabd 03f7 c03d e9a4 723e
00000110: 4c4d 09be b0a0 1f3e 2e49 a63e 4fef a33e
00000120: acfd c137 8078 24b8 3787 dfb7 db8d 1138
00000130: 2adc c2b8 3e37 9ab8 a752 91b6 3d47 5ab8
00000140: b232 e235 f670 09be 8624 89be 39cd a9be
00000150: a33f d9bd bf31 14be 37dd ccbe 2696 3fbd
00000160: cc00 7bbc 2a35 16be 77e2 d7bd 7d0b afbe
00000170: ea11 263e d8eb 12bb 0272 d6be 3bfd a8bd
00000180: 9d97 503e da03 44be ef55 1bbe cfb9 bd3d
00000190: e69b 86be b228 cebe fb45 c63e ef8a 143e
000001a0: 1a46 25be 7635 463e 2d5e c43c 1e76 a7be
000001b0: 5d3e 28be 7281 1a3e 0594 82be 9cf9 b3be
000001c0: 000f b03e fde0 0f3f 0be5 dcbe 7138 90bd
000001d0: 2075 9f3e 52aa dcbe 2b5a 80be 4a59 95bd
000001e0: 924f 0cbf 0907 45bf 989d 05bf 4ffd 89be
000001f0: 15be 16bf 44e0 b8bd 42b4 b0be 21a4 36be
00000200: d7cb a83c 8e3d 05bf 5784 d7be e2fa a0be
00000210: 481f f1bd f6c2 b9be a9f2 babe 0772 bbbd
00000220: 1530 9abe 10e5 9fbe 8c0d a4bc 8b00 83be
00000230: 7449 c2bd c572 ae3c c64b cabd 0a7c 1ebd
00000240: a900 ebbd d841 9ebe e991 78be e3df b0bd
00000250: e5f6 56be 5fe0 e8bd 9dec 1c3e c1ef 9f3d
00000260: 4348 b53d 6ae6 903c 8216 adbd acf7 753d
00000270: ce64 33be e7e6 b8be 7245 4ebe 4e4d f6bd
00000280: bcc7 f0be bb6a 56be 1e4d dbbe 2fb1 bebe
00000290: f7ff 4dbd e1ba 27bf e424 44bf d3e3 58be
000002a0: c0fa a0be ebb4 06bf 422c 00be b02e c23e
000002b0: d1d3 c43d 41d4 113c 1777 4cbe ea81 64be
000002c0: 58d1 69bc bd52 98be 06bd 8dbe f239 0abe
000002d0: a236 843e 539e cb3d 145c f93d 7815 26bd
000002e0: 0fba c7bd d934 53be 5f09 2dbe 2341 85be
000002f0: ff6e 86be f960 cd3c 9a2f da3b 7d64 a7bd
00000300: a211 a63d 7923 20be 3227 48bd b9d2 4f3d
00000310: 1866 1abe 6f69 e3bd 0eed 54be e20c 11bf
00000320: 6c88 2cbe 1992 00bf 2c11 5fbf a038 2ebf
00000330: c776 18be 9fca 17bf d85c 8dbe 2486 773e
00000340: 5e9d 213c 877c 893e bc99 49be 7f07 cdbe
00000350: 96da 43bc 13b1 4c3b 37a9 e5be 1e2c 58bd
00000360: 7ef6 3f38 c844 3737 afb4 84b7 0148 5f36
00000370: 599e 86b8 bfff c6b7 7100 9e36 de70 98b8
00000380: ea0a 54b8 69e2 11be 2667 76be df58 70be
00000390: 20ca 3bbe 9586 3fbe a141 19bd 6460 9c3d
000003a0: 6dc6 66bd 2a7c 233e 1f74 bf3d d4d7 843e
000003b0: 5b5a d23d d373 ea3d 1420 e53d 21e0 2c3c
000003c0: 2ead 9f3d d985 283e a3bc ebbd 9bb2 e7bd
000003d0: ab73 7cbe cda8 abbe 8602 4fbc e940 6c3d
000003e0: 031a 71bd 919d 86bd 9a26 123e a721 ffbc
000003f0: 1075 8d3d 2111 aa3d 20f6 b83c 8200 563e

layer3.0.bn1.weight f4 [32]
1.791759 1.3765751 0.86007935 1.3626996 1.2563635 1.1100507 1.6509491 1.39167
1.6692936 1.311879 0.97220606 1.3170303 0.8931247 1.6307515 1.5802509 1.5659397
1.3376536 2.151612 1.4466416 0.9256028 1.5951854 1.6765165 1.6389382 1.1806564
-0.5369033 -0.007766907 1.2425615 -0.40917984 0.4243424 0.89651304 0.9685935 1.0689104
00000000: 5c58 e53f 9d33 b03f 292e 5c3f f16c ae3f
00000010: 85d0 a03f 2416 8e3f 4d52 d33f 3e22 b23f
00000020: 6aab d53f a7eb a73f 7fe2 783f 7394 a83f
00000030: d2a3 643f 77bc d03f a945 ca3f b670 c83f
00000040: 3c38 ab3f 03b4 0940 8d2b b93f 4ef4 6c3f
00000050: 092f cc3f 1898 d63f bac8 d13f c01f 973f
00000060: 7f72 09bf 8a81 febb 410c 9f3f 0580 d1be
00000070: 6843 d93e e181 653f bef5 773f 0ed2 883f

layer3.0.bn1.bias f4 [32]
-0.4355937 -0.23071992 1.2728513 -0.91738534 -0.29456145 -0.42330664 -0.73156214 1.2598706
-0.38157243 0.01909552 -0.33156404 -0.06511664 -0.056562617 -0.3713211 0.39612302 -0.7855627
-0.0020777492 -0.25850248 -0.6335094 -0.7381127 0.09716754 -0.84152794 -0.5243534 1.0733181
-0.7964288 -0.04714868 -0.40214124 -0.31997654 0.3491183 0.5625568 -0.5256089 0.5649855
00000000: 2306 dfbe d841 6cbe cbec a23f c4d9 6abf
00000010: c2d0 96be a6bb d8be a847 3bbf 7143 a13f
00000020: 765d c3be 356e 9c3c c3c2 a9be df5b 85bd
00000030: 34ae 67bd cd1d bebe a3d0 ca3e a31a 49bf
00000040: d92a 08bb 705a 84be ac2d 22bf f4f4 3cbf
00000050: c6ff c63d 606e 57bf 063c 06bf 7d62 893f
00000060: c2e2 4bbf f91e 41bd 75e5 cdbe f7d3 a3be
00000070: a2bf b23e b903 103f 4e8e 06bf e4a2 103f

layer3.0.bn1.running_mean f4 [32]
-9.615769 -10.282486 4.555392 -7.594586 -3.6737692 -1.7782257 -0.482098 -5.2539954
2.4859734 -1.3904228 7.8296995 -5.3029904 1.248276 -1.0343486 15.600392 -2.2271087
-6.9991536 -13.621703 1.8787352 -1.2570925 -2.7923915 -4.4072504 -10.628648 5.7728386
-4.4769626 0.3122896 -0.068409696 1.4771546 -2.0476186 -6.1570663 1.2013699 -17.525234
00000000: 31da 19c1 1085 24c1 c5c5 9140 d906 f3c0
00000010: 091f 6bc0 e69c e3bf 8dd5 f6be bb20 a8c0
00000020: 301a 1f40 60f9 b1bf e68c fa40 19b2 a9c0
00000030: 82c7 9f3f 8965 84bf 359b 7941 f388 0ec0
00000040: 11f9 dfc0 7ff2 59c1 657a f03f 68e8 a0bf
00000050: 8bb6 32c0 3208 8dc0 f10e 2ac1 18bb b840
00000060: 4743 8fc0 6ce4 9f3e 621a 8cbd 6713 bd3f
00000070: 2f0c 03c0 b006 c5c0 7dc6 993f ae33 8cc1

layer3.0.bn1.running_var f4 [32]
63.396664 47.91516 23.543093 36.259056 36.07698 28.41098 32.279312 78.50085
36.104477 16.480797 21.962755 12.207411 42.38164 43.982006 82.42179 25.427494
70.341896 105.10641 20.628359 17.571074 38.07734 25.213816 85.88804 82.03609
17.3269 0.06502652 13.511336 4.1406527 37.937336 56.83629 30.602148 63.615986
00000000: 2f96 7d42 20a9 3f42 4158 bc41 4609 1142
00000010: d44e 1042 b049 e341 041e 0142 6f00 9d42
00000020: fc6a 1042 acd8 8341 b9b3 af41 8e51 4341
00000030: cd86 2942 93ed 2f42 f5d7 a442 826b cb41
00000040: 0daf 8c42 7b36 d242 e106 a541 8f91 8c41
00000050: 324f 1842 e5b5 c941 adc6 ab42 7a12 a442
00000060: 7e9d 8a41 a02c 853d 6f2e 5841 3a80 8440
00000070: d5bf 1742 5c58 6342 33d1 f441 c576 7e42
