meta_results/meta_seed-1_metalr-0.001_T-2_200-epochs_cifar100-ResNet10_smodel_best.pth.tar (torch, 909317 bytes, 128 tensors)

conv1.weight f4 [8, 3, 3, 3]
000000 66 65 56 3e 55 15 26 3e fd 6d 0f 3d 8e ab 0f 3e
       0.20937118 0.16219075 0.035017002 0.14030287
000010 4a 9c 8c be 8b eb ee 3d 5e df 93 3e 07 cf 05 be
       -0.2746299 0.1166602 0.28881353 -0.13067256
000020 f5 94 92 3e ba 31 1e be 77 11 e9 3c 70 38 d1 3d
       0.2862927 -0.15448657 0.02845071 0.10215843
000030 67 c9 47 bd 96 c7 01 bf 82 fa 90 3d 7f c1 3d 3e
       -0.048776057 -0.5069517 0.070790306 0.18530844
000040 35 54 69 be 49 97 f0 3d 2d 8c 82 bd 3d 67 f7 bc
       -0.22786029 0.11747605 -0.06374393 -0.030200595
000050 14 6f 52 be df 0d a5 bd c5 10 9d be f7 c6 85 be
       -0.20550185 -0.08059286 -0.30676857 -0.2612836
000060 e9 4e 0f bd 4b 9a 7c be cd d3 cf be 09 cc a7 bd
       -0.034987364 -0.24668233 -0.4059128 -0.081932135
000070 dc 40 02 be ef 67 89 bc fb e3 6e be e3 16 91 3f
       -0.12720054 -0.016773192 -0.23329155 1.133511
000080 09 ec 26 3f 94 49 d1 bd 5f a1 df 3e 58 24 d1 3e
       0.6520391 -0.10219112 0.43677804 0.4084804
000090 1e 6f 8f 3e 85 b1 91 be aa 3f 40 3d 88 ee 17 be
       0.28014463 -0.2845575 0.046935715 -0.14837086
0000a0 e5 54 8c 3d d4 b1 46 bf 7d 30 8d be 69 e2 13 bf
       0.0685213 -0.77615094 -0.27576056 -0.5776735
0000b0 7f 5b b6 be 83 c2 c2 bd be 01 c6 be 4b cd 91 3e
       -0.3561668 -0.095097564 -0.38673204 0.2847694
0000c0 be 2a 7a 3e 27 d0 be 3d aa 88 eb be 4e 11 51 3e
       0.24430367 0.09317046 -0.46002704 0.20416757
0000d0 36 73 89 3b 62 58 34 3d 83 cc a2 bc 90 00 66 3c
       0.0041946424 0.0440296 -0.01987291 0.01403822
0000e0 21 b6 05 3c cc 51 c7 bc 64 47 71 bf c3 c8 6a bf
       0.008161099 -0.024330996 -0.9424956 -0.9171259
0000f0 3e fa 06 bd e3 dc 9b bd 36 75 df bd cc 27 0b 3b
       -0.032953493 -0.0761049 -0.10911028 0.0021233438
000100 56 e7 6c 3d ab 51 38 3d c7 9f df 3d 6d 2b 32 bf
       0.057837807 0.04499976 0.10919147 -0.6959751
000110 3f 86 30 bf 6b a5 6b bd 76 62 7c 3d be bf cd 3d
       -0.68954843 -0.0575308 0.061617337 0.100463375
000120 a3 fa 89 bb e4 a0 b6 3c d2 d0 0b 3d 8a de b2 3d
       -0.0042107864 0.022293516 0.034134693 0.08733852
000130 7f ff 2b bf 70 f8 2e bf 3f 2c 2a 3d eb 7e 39 3d
       -0.6718673 -0.68347836 0.041546103 0.045287054
000140 53 66 0e 3d 8c 02 3b be a1 c2 cf be a0 c6 89 bc
       0.034765553 -0.1826269 -0.40578178 -0.016818345
000150 8d c7 82 bd 08 6f 9b be 05 30 ae be c9 4f 14 be
       -0.063857175 -0.30358148 -0.3402101 -0.1448356
000160 fa 6b 6a be d0 8e 84 be 8d a1 a6 3e a4 9d a7 3d
       -0.22892752 -0.25890207 0.32545128 0.081843644
000170 13 cc 22 3e ce ab a6 3e d3 65 a6 3e bc 16 a0 bd
       0.1589816 0.32552952 0.3249956 -0.07816836
000180 2a 89 02 be ef c3 61 3e 4d 40 e4 bd 34 a2 28 be
       -0.12747636 0.22047399 -0.11145077 -0.16468126
000190 6e ae 18 be d8 20 51 3d 8c 00 36 3e ca f2 1f 3f
       -0.1491029 0.051056713 0.17773646 0.6247984
0001a0 3e ab 91 3e c1 d3 37 bd b1 72 1f 3f f5 a7 91 3e
       0.2845096 -0.04487968 0.6228438 0.28448454
0001b0 65 54 33 bd 64 aa 09 3e f6 e0 67 be 85 80 aa be
       -0.043781657 0.13443905 -0.2264441 -0.33301178
0001c0 a9 b8 56 be 5d 56 2d 3e e1 d4 63 be 7b d4 6a bd
       -0.2096888 0.16927476 -0.22249176 -0.057331543
0001d0 84 69 7c 3d 35 64 1d 3e 95 e0 13 3f fd 2a 01 3e
       0.061624065 0.15370257 0.5776456 0.12614055
0001e0 7d 27 d3 3e 55 d7 17 3f 72 e2 56 3f 6d ae 14 3e
       0.41241065 0.59312946 0.8393928 0.14519663
0001f0 96 fa 09 3f 5e 6e 02 3e c0 f0 59 bd 31 89 78 be
       0.5389799 0.12737414 -0.053208113 -0.24271084
000200 0e dd 0b bf 54 6d d6 bd f1 97 53 bf 01 b3 17 bf
       -0.5463418 -0.104700714 -0.8265372 -0.59257513
000210 f8 5e 0c be a3 30 4e be cd 56 ce be 40 c2 f4 bc
       -0.13708103 -0.20135741 -0.403006 -0.029877782
000220 8b bb 90 bd 19 6a 3d be ec bd 1d bd cd 5f bc bb
       -0.07067021 -0.18497504 -0.0385112 -0.005748725
000230 d8 65 dc 3e 3d 15 5b bd d3 92 0f 3e 88 1c 3d 3f
       0.4304645 -0.05348705 0.14020853 0.7387166
000240 1c 8f bb 3a 83 99 8b 3b 04 06 92 3c 34 f8 8d 3a
       0.0014309618 0.0042602434 0.017825134 0.0010831417
000250 0c d5 e5 be d8 2e a1 bd 14 75 7a bd a8 3c d6 bd
       -0.44889104 -0.07870263 -0.06114681 -0.10460788
000260 64 ac 1f 3f 28 16 9d bb 19 06 9b 3d 86 c3 f7 3d
       0.6237242 -0.004793901 0.075695224 0.1209784
000270 58 ce 0e 3e 3b 87 89 bd b8 a2 fb bd c0 f6 45 3e
       0.13945901 -0.06715246 -0.122868955 0.19332409
000280 10 28 0f be d6 de 39 3e b8 da d3 bd 25 fa c1 3c
       -0.13980126 0.18151411 -0.10344452 0.023678849
000290 6b a3 10 3d d5 7d 17 bf 14 89 26 3f 0f 41 0f 3d
       0.035312098 -0.5917638 0.65052915 0.034974154
0002a0 3d 5d d8 bd 06 66 b8 bc 83 be f1 3d 1a e8 3d be
       -0.10564659 -0.022509586 0.11803915 -0.18545571
0002b0 49 9e 1d 3e 96 69 00 3b 44 c3 bb bf 91 6d b9 3f
       0.15392412 0.0019594184 -1.4668965 1.4486562
0002c0 f1 71 5a 3e a3 8d e0 bd 0b d8 11 3e 0f c4 9f bd
       0.21332528 -0.10964515 0.1424257 -0.07801067
0002d0 1d 63 c1 bc 91 24 bf 3d a4 40 14 be 9b 84 7b bf
       -0.023606831 0.09333146 -0.14477783 -0.98249215
0002e0 18 09 5b 3f eb 55 25 3c 9f 90 1a 3d cf f2 1f 3e
       0.8556075 0.010091285 0.037735578 0.15619968
0002f0 cb 51 0e be 77 37 0c 3e 74 53 9a 3f f9 23 fd 3d
       -0.13898389 0.13693033 1.2056718 0.12360377
000300 2b 07 2e be 55 07 68 bf 36 1d 38 be 3b 75 61 bd
       -0.16994922 -0.9063619 -0.17979893 -0.05504344
000310 be 81 76 bc 4a fb 6e 3c c4 0b 36 3e 31 2a bb 3f
       -0.015045581 0.014586279 0.17777926 1.4622251
000320 30 65 6b 3e 22 fe 14 be 06 10 c8 bf 50 0e 66 be
       0.22987819 -0.14550069 -1.562989 -0.22466397
000330 44 93 24 bd 69 3d 52 bc 5f 97 0f bd ea 6a 2b 3d
       -0.040179506 -0.012832024 -0.035056468 0.041850008
000340 23 4a 16 3f a8 27 00 3e 8b 6d 9b bd a7 d4 49 bf
       0.58706874 0.12515128 -0.07589253 -0.78840107
000350 3b 48 68 bd 56 3d 33 3d 6c 14 38 3d 6f b9 5f 3d
       -0.05670951 0.043759666 0.04494135 0.054620203

bn1.weight f4 [8]
000000 80 84 0c 3f 5f 80 5c 3e c6 4d cb 3f 89 e2 75 3e
       0.5488968 0.21533345 1.588311 0.24012198
000010 99 d8 57 3e e4 41 8b 3e cf 3b bd 3e 3a 50 d8 3e
       0.21078719 0.27198708 0.36959693 0.42248708

bn1.bias f4 [8]
000000 9d f8 dc be 0d a8 54 3e 94 52 ec bf 5d 72 88 3e
       -0.43158427 0.20767231 -1.8462701 0.26649752
000010 ea 08 d6 3e cf f0 b4 3e b2 dd 83 3e 2e 9a 47 3e
       0.41803676 0.35339972 0.25755078 0.19492409

bn1.running_mean f4 [8]
000000 ae d9 8c 3e 84 99 86 bd 75 09 c8 3f 7a b4 b4 bd
       0.27509826 -0.065722495 1.5627886 -0.08823486
000010 24 a7 58 be 9f 6f e6 be 60 e4 2a bd 3c 4b ba 3c
       -0.21157509 -0.45007035 -0.0417217 0.022740953

bn1.running_var f4 [8]
000000 f4 5d 15 40 8f f3 79 3f c8 d0 a8 41 06 c4 0c 40
       2.3338594 0.97637266 21.101944 2.1994643
000010 3d 91 bc 3f 89 6f 06 40 d2 31 42 40 5d a7 80 40
       1.4731823 2.1005576 3.0342908 4.02043

layer1.0.conv1.weight f4 [8, 8, 3, 3]
000000 db e5 94 bd 9a c6 e0 3d 65 67 64 bd 02 b8 bf 3d
       -0.07270404 0.1097538 -0.055762667 0.093612686
000010 4f dd 2e 3e be 68 04 3e 53 30 09 bd c3 2a 82 be
       0.1707661 0.12930581 -0.03349335 -0.2542325
000020 f3 03 42 3e 8e 2f 01 bd 70 6d bf 3d 4a 24 fb bc
       0.18946819 -0.031539492 0.093470454 -0.030656952
000030 51 a9 1a 3e 4e ca 5e bd 96 ce bf 3c 51 07 08 be
       0.15103652 -0.05439215 0.023413938 -0.13284041
000040 36 a7 76 3e fb 7a 10 be ee 8c 38 3e a5 58 90 3e
       0.24087223 -0.14109413 0.1802251 0.2819263
000050 6d 52 05 3e 15 9f 50 3e b1 71 b7 3e f6 4f 44 3c
       0.13019724 0.20373185 0.35828927 0.011981955
000060 1c f6 0b bf 23 e4 05 bf 4a b9 66 bc f6 b8 11 3e
       -0.5467241 -0.52301234 -0.014082262 0.14230713
000070 0f 20 43 be a6 ab 45 3d 4e bd e5 bd 23 e7 d2 bd
       -0.19055198 0.0482594 -0.11217748 -0.10297992
000080 21 19 6d be 97 cc 6b bb 8b f9 97 3e c5 c4 90 3d
       -0.23154117 -0.00359801 0.29682574 0.07068781
000090 42 e6 0f 3e 31 ad dc bb d7 17 5f bd ea 60 2c be
       0.1405268 -0.006734513 -0.054466095 -0.16833845
0000a0 b0 e5 cf bc 56 32 9c 3c 21 ac c8 3d 4c c1 c3 3d
       -0.025378078 0.01906697 0.09798456 0.09558353
0000b0 39 9b 6b bd 84 0c 71 be 98 12 f0 bd 4c d0 26 be
       -0.05752108 -0.2353993 -0.117222965 -0.16290396
0000c0 27 e6 5a 3e 99 38 73 3e 24 ba 46 3e 05 6c c6 bc
       0.21376859 0.23752059 0.19406945 -0.02422143
0000d0 88 3a 09 be 8d 6e fc bc 88 95 70 3d d8 e5 03 3e
       -0.13401234 -0.030814433 0.058736354 0.12880647
0000e0 a1 ee dc 3c a8 e8 7a bc 8d a5 a8 be 67 a4 0b 3e
       0.026969256 -0.015314259 -0.32938805 0.13636933
0000f0 6a 4c a2 bb 64 6e 65 3e 67 e0 5c bd e5 63 9e 3d
       -0.004952957 0.22405392 -0.053924944 0.07733897
000100 81 35 d5 bd b3 cf 44 3d f1 b5 91 3d c1 31 14 bd
       -0.10410596 0.04804964 0.07114781 -0.03618026
000110 7a 71 40 3d 9c 5c 14 be 3e 8e e1 bf e8 34 22 be
       0.04698322 -0.14488453 -1.7621534 -0.15840495
000120 2a c3 9f 3d fb a7 f4 3d 49 49 02 3e 73 cc fd 3d
       0.078008965 0.11946102 0.12723269 0.12392511
000130 fe 53 f0 3b da 9b 2e 3d 10 71 3c bd 13 5a 07 3d
       0.0073342314 0.0426291 -0.046006262 0.033044886
000140 d8 8b 64 3c 17 a0 4f 3d 44 5d 66 bd 35 f2 87 3c
       0.013949357 0.050689783 -0.05624129 0.016594985
000150 71 eb 4f 3d 5f 80 07 be 57 09 4f be 68 3f 89 bd
       0.050761644 -0.13232563 -0.20218407 -0.06701547
000160 d8 63 fc 3c 8e fa 40 3e 58 0c 64 3e ea 85 5e 3f
       0.030809328 0.18845579 0.22270334 0.86923087
000170 0f f1 8f 3d 35 76 09 3e b0 d7 5d 3f 9b ed 2c 3e
       0.070284 0.13423999 0.8665724 0.16887514
000180 09 59 2f be 17 75 d2 3e 69 03 3f be c0 c0 d9 3c
       -0.17123808 0.41104957 -0.18653645 0.026581168
000190 e8 40 30 3d 24 75 17 3c cd c9 26 bd 55 9e 4f 3d
       0.04303065 0.009244237 -0.040719796 0.050688107
0001a0 72 53 00 3d c4 cd 07 be 16 4f 5d bd 24 12 35 3c
       0.03132958 -0.13262087 -0.0540305 0.011051688
0001b0 fa 09 81 3c 38 ce fe ba 1b 65 0e bc a1 f0 28 bd
       0.015751828 -0.001944012 -0.008691098 -0.041245107
0001c0 22 cf 06 3d 0b 58 64 3c f3 80 c5 bb 0d 2e 78 3d
       0.03291238 0.013937007 -0.006027335 0.060590792
0001d0 48 f6 a1 bd cb 56 41 be b8 55 a8 be ba dc bd 3e
       -0.079083025 -0.18880765 -0.32877898 0.37082464
0001e0 2e 45 aa 3d d1 df 25 3e ff d8 ac 3c 36 90 9f 3d
       0.08313976 0.1619866 0.021099566 0.07791178
0001f0 06 51 84 3c 25 17 b8 bd 4d 8d d5 3d 69 0d 39 bd
       0.016151916 -0.089887895 0.104273416 -0.045178805
000200 3d 56 86 3a 57 5f c4 3a 53 0e 52 3c 2c de 13 bd
       0.001024909 0.0014982027 0.012820798 -0.03610055
000210 eb 54 02 bd e1 70 1e 3c 71 7b a5 bd f3 6c bd 38
       -0.031819265 0.009670467 -0.08080185 9.032516e-05
000220 00 e6 8e 3c 2b 5b e6 bc 39 32 4b be 36 16 34 3e
       0.017443657 -0.028119644 -0.19843377 0.17586598
000230 e1 b1 b1 bc 2d 94 67 bb 82 bc a1 3d 03 8d 9b 3c
       -0.021691265 -0.0035336122 0.07897283 0.018988138
000240 4d 64 89 bd 35 d1 2e bc 0c 66 0c be 1c 11 21 be
       -0.06708584 -0.010669996 -0.13710803 -0.15729183
000250 7b 0b 68 3d 6a 85 92 3d e1 57 02 bc 62 a7 78 bc
       0.056651574 0.07154353 -0.007955522 -0.015176626
000260 cc f4 c0 3d 7d 00 98 3e 06 9e 94 3d f3 81 ad bd
       0.09421691 0.29687873 0.07256703 -0.084720515
000270 8f 9f 2d 3e 7e a8 8a 3e 2f 83 a8 bd 72 8a d0 be
       0.16955398 0.27081674 -0.08228146 -0.40730625
000280 2f ac 80 be a3 6d 7b be 9c 75 ee bd c1 bd 29 be
       -0.25131366 -0.24553542 -0.11643526 -0.16576292
000290 c1 1b d6 3d ed d7 4b 3c a0 9d 22 be 41 ef 8c 3d
       0.104545124 0.012441617 -0.15880442 0.068815716
0002a0 8c ed 0b 3e 77 10 07 be 74 ca d2 bd d2 4c 92 3c
       0.13664836 -0.13189875 -0.10292521 0.017858896
0002b0 a7 07 0f be a6 5a fa bd 84 34 16 3e 85 61 81 bd
       -0.13967763 -0.12224321 0.1466847 -0.063174285
0002c0 9e 36 25 be e6 cc 5f 3d 21 d0 af bd 51 65 9b be
       -0.16134116 0.054638766 -0.08584619 -0.30350736
0002d0 aa 18 02 bf 11 58 39 bf 24 5e 68 be 4c da 1d be
       -0.50818884 -0.72400004 -0.22692162 -0.15415305
0002e0 c2 17 f1 be b2 f0 95 3d ee 9b fc 3d 2c 51 81 3e
       -0.47088438 0.073212996 0.12334429 0.25257242
0002f0 22 82 fb 3e f6 32 97 be 73 33 b3 3d bb bb fd bd
       0.4912272 -0.29531068 0.087500475 -0.12389322
000300 dc a2 95 3d 1a f9 60 3e 14 84 f4 3c d5 d0 6f 3b
       0.073064536 0.21970025 0.029848136 0.003659298
000310 b2 39 9c bd b1 9d 46 3d e5 d7 01 bd f7 61 2d be
       -0.07628192 0.04849023 -0.031700034 -0.16931902
000320 21 86 90 3c a8 16 da 3c 69 c7 b9 3d 6f 1a 95 3e
       0.017642083 0.026622131 0.090712376 0.2912173
000330 6e 19 ad bc 9b c4 0c 3d 7b 50 6b bd 20 fa 2b bd
       -0.02113029 0.034367185 -0.0574498 -0.041986585
000340 95 44 0e 3e 8b df da bd d5 e2 7e bc d4 ab 0f be
       0.1389335 -0.10687169 -0.015557011 -0.14030391
000350 83 1b 0f 3e 25 1e 05 be 73 b5 4b 3c cd d9 2f 3d
       0.13975339 -0.1299978 0.012433398 0.04293232
000360 aa 53 ee 3d 93 9a 01 be a5 f5 15 bb 0d f1 21 bd
       0.116370514 -0.12656622 -0.0022882011 -0.039536525
000370 7b 26 84 be be 3c 9d 3e ca ba 0a be 40 60 93 bd
       -0.25810608 0.30710405 -0.13547817 -0.071960926
000380 04 6c af 3e 6e 5f 9e 3d a1 b4 20 bd 25 a1 48 3c
       0.34262097 0.077330455 -0.03923476 0.012245451
000390 b1 a3 85 3c 86 eb 4b be 8d e7 bc 3d 98 e3 2e bd
       0.016313406 -0.19914064 0.09223852 -0.04269752
0003a0 c9 7f 13 3c 1b 66 bc be 52 72 6e be de 7a c3 be
       0.009002634 -0.3679665 -0.23285797 -0.38179678
0003b0 58 87 21 3e e4 1e 55 be a5 ed a5 be 27 f6 e5 3e
       0.15774286 -0.20812565 -0.3240787 0.44914362
0003c0 76 1f 00 3e f1 ac 6a 3e 0c ec 41 3f e2 54 ca bd
       0.12512001 0.22917534 0.75750804 -0.09879471
0003d0 60 b7 a0 3c 0b ee ca bc 1e 41 0e bd b3 26 89 3d
       0.01961869 -0.02477171 -0.03473007 0.066968344
0003e0 4d 76 54 be c3 c4 4a 3d 0d 11 c3 3d c2 f3 b2 bd
       -0.20748253 0.049504053 0.095247366 -0.08737899
0003f0 d8 3b 2f bd d5 01 ed 3c 9d 20 87 bc d0 2c a0 bc
       -0.04278168 0.028931538 -0.016495043 -0.019552618

layer1.0.bn1.weight f4 [8]
000000 dd 13 3e 3f 77 8f 6d 3f 13 ce a7 3e bc 54 05 3f
       0.7424906 0.92797035 0.3277441 0.5208242
000010 70 93 8e 3e f8 0e 0a 3f bf b8 9c 3e 1a 37 0d 3f
       0.2784686 0.5392909 0.306097 0.55162203

layer1.0.bn1.bias f4 [8]
000000 65 c0 6f 3e a4 35 94 bf e8 f9 9d 3e 69 fd cb be
       0.23413236 -1.157887 0.30854726 -0.39841774
000010 bf 0c ce 3e f8 6a 05 3e 42 b2 03 3f da 2f 73 3e
       0.402441 0.13029087 0.51443875 0.23748723

layer1.0.bn1.running_mean f4 [8]
000000 8d 5b c7 be ea a8 1c 3e e7 f5 33 bf f6 41 42 be
       -0.38937035 0.1529881 -0.7029709 -0.18970475
000010 42 b2 89 3e 3a de 2e be e6 fb 6e be 4c 9c bd be
       0.26893812 -0.1707696 -0.23338279 -0.37033308

layer1.0.bn1.running_var f4 [8]
000000 43 9c f2 3e 55 f5 b4 3d 79 a3 d1 3d 19 2e 42 3d
       0.47384843 0.08835856 0.10236258 0.047407243
000010 9b 2e 9f 3d da 87 98 3e 37 1c 8a 3d 21 4c 4d 3e
       0.07772561 0.29791147 0.06743663 0.20048572

layer1.0.conv2.weight f4 [8, 8, 3, 3]
000000 5e b4 28 3d 56 68 d9 bd 68 d2 b0 3d 56 de 48 be
       0.041187637 -0.106156036 0.08633882 -0.19616064
000010 ea 2c 9a bf 32 41 8b 3e f1 41 6c bc a3 1d 06 3e
       -1.2044957 0.27198178 -0.0144200185 0.13097243
000020 48 a8 9e 3e e0 c6 70 bd 8d db 49 bd 05 25 7b bd
       0.30987763 -0.058783412 -0.049281646 -0.0613146
000030 89 29 8a bd ee 05 e7 bd 75 2c 9e 3d 43 a9 e0 be
       -0.067462035 -0.11280428 0.07723323 -0.43879136
000040 33 dd e1 be 51 a7 e1 3d cb 82 98 3c dc e5 72 3b
       -0.44114074 0.11018241 0.018617054 0.0037063276
000050 9a 1d d1 bd 68 80 80 3d e1 2f 80 3e 4f 4e 21 3b
       -0.10210724 0.062744915 0.2503653 0.0024613326
000060 5a 09 02 3d de 9a 2c 3d 74 1b a7 be 48 79 f7 bc
       0.0317472 0.04213988 -0.32638133 -0.030209199
000070 7d 8b ed 3d c8 4e ca bb 1b 24 24 bf 04 50 bc 3d
       0.11598871 -0.0061739422 -0.6411759 0.09194949
000080 b3 76 6c 3d 93 5f 97 3e 6c fd 92 3e 07 ca 01 bd
       0.057730388 0.29565105 0.2870897 -0.03168681
000090 7e cc a5 3d 66 12 2f 3d 22 03 8d bd 64 8e 78 3d
       0.080956444 0.042742155 -0.06885363 0.06068267
0000a0 4c 83 4d 3d d5 f2 da bd 67 c8 f2 bb d7 d6 a8 3d
       0.050174043 -0.10690848 -0.0074091437 0.082441024
0000b0 0a 48 16 bc 8b 5f 18 3c b4 5a 4c 3e ba 8a 97 3b
       -0.009172449 0.009300123 0.19956475 0.004624692
0000c0 ff 2d 87 3e 5a 84 53 3e 92 70 11 3e c3 90 d5 bd
       0.2640228 0.20655957 0.14203098 -0.10428002
0000d0 3c 9f 10 bf 7a 99 23 be da b7 16 bd 4b ef 52 bd
       -0.5649297 -0.15976515 -0.03679643 -0.05149774
0000e0 aa 87 ee bd ec 57 15 be 17 8e 1d 3c 63 da 94 3d
       -0.116469696 -0.14584321 0.009616396 0.072682165
0000f0 fd b0 b9 3d 51 72 b7 bd 9a cf 99 3d 02 0d 90 bc
       0.09066961 -0.08957351 0.075103 -0.017584328
000100 92 06 bb 3b e3 ad 75 bc 2f 11 50 3c d5 5f 14 3e
       0.0057075704 -0.014995071 0.012699409 0.14489682
000110 5e 39 a4 bd 3e 60 b2 3e b6 f8 0e bf ae 59 b9 bd
       -0.080187544 0.34839052 -0.5584825 -0.09050308
000120 13 0f 7f bd 2d b2 a5 be 3e 82 e2 3d 5d db a1 3d
       -0.062270235 -0.323625 0.11059998 0.07903168
000130 53 af 9e 3d 2c ff b0 3c 2e 70 2d 3d c6 c3 7b bd
       0.07748284 0.02160605 0.04234331 -0.061466
000140 10 d1 26 be 4a 0a 11 3e a0 08 82 3d 68 f0 08 3c
       -0.16290689 0.14164081 0.06349301 0.008358099
000150 a3 6c 2a 3d 18 83 31 3c 4f 2e a4 bd f7 8d 34 be
       0.04160751 0.010834478 -0.08016645 -0.1763228
000160 5d e1 8d be c8 c3 a8 be 10 f6 c4 bc 10 05 b6 bd
       -0.27711 -0.3296187 -0.024043113 -0.08887684
000170 36 e1 9b be 20 3c 80 be ca 08 a8 3d 22 03 5e 3e
       -0.3044526 -0.25045872 0.082048014 0.21680883
000180 00 ab 0d bf 13 c2 80 3e 63 f2 32 3f e3 dd f9 bd
       -0.5533905 0.25148067 0.699011 -0.12200525
000190 2b d6 f1 3d 09 45 6b bd 7c e3 a0 bd 90 37 d3 3c
       0.118084274 -0.057438884 -0.07855889 0.02578333
0001a0 b7 bb d8 3d d2 b6 5e be 71 69 56 bd 49 ab bb bd
       0.10582679 -0.21749428 -0.05234665 -0.091635294
0001b0 31 9f 99 3d 5d 2a 1b 3e 07 56 19 bd 68 39 e7 3e
       0.075010665 0.15152879 -0.037435558 0.45160985
0001c0 30 60 80 3e 19 58 ef be 29 f7 20 3e 6a a6 95 bc
       0.25073385 -0.467469 0.15719284 -0.018267829
0001d0 7d 28 9f be e5 e8 ad bd a3 e8 1d 3e 47 e3 77 3d
       -0.31085578 -0.08491687 0.15420775 0.060519483
0001e0 74 62 9b bd 19 1b 4d 3d b6 0b 33 3e e2 e2 8e bd
       -0.07587138 0.05007467 0.17484936 -0.06976868
0001f0 0a 4d 70 3e 0b 8e f7 3c a1 5a f9 bd 17 58 78 be
       0.23466888 0.030219099 -0.12175489 -0.24252354
000200 da e7 79 be dc 90 35 3e 64 29 d5 bd 66 b0 1b be
       -0.2440485 0.1773104 -0.10408285 -0.1520401
000210 7a 90 77 3e 3d a0 2d 3f f2 f2 fc 3d 3f 90 c3 bd
       0.24176207 0.6782263 0.12351026 -0.09548997
000220 34 13 57 3b c9 54 17 3d af a1 f6 3d 95 2f 80 bc
       0.0032817842 0.03694609 0.120425574 -0.015647689
000230 ed 6e 00 3e a5 f5 0e 3d 68 6b ce bc 1c bb 7b be
       0.12542315 0.034902234 -0.0251977 -0.24583095
000240 3e e0 23 3c 96 e0 4b 3d ef 16 de bc 80 24 95 bd
       0.010002194 0.04977473 -0.027110545 -0.072823524
000250 86 4b 52 bd 68 64 87 3d eb a8 0c be 4c fc da 3c
       -0.051341556 0.06610948 -0.13736312 0.026731633
000260 68 09 8c 3e 95 b7 c7 3d 29 22 ff bd 4f 8b 12 3d
       0.27350926 0.09751812 -0.124576874 0.035777386
000270 73 98 e9 3d 89 11 8b 3d 99 19 58 3e ba 4e 22 3e
       0.114060305 0.06790454 0.21103515 0.15850344
000280 eb 02 3a 3e 78 7a a3 3e 51 82 0e 3e 31 62 d3 38
       0.18165176 0.31929374 0.139169 0.000100795536
000290 c5 8d 98 bd 44 de 01 bd 61 dc 9e 3d a1 93 0b 3e
       -0.074489154 -0.03170611 0.07756878 0.13630535
0002a0 75 1c 1d be 56 8d 1e 3d e5 20 85 3e 53 87 89 be
       -0.15342887 0.038709007 0.2600166 -0.26861057
0002b0 6a ec 01 be f5 66 15 be c9 92 59 be b1 3d 5e be
       -0.12687841 -0.14590056 -0.212474 -0.21703221
0002c0 c0 2c 88 bd 26 48 3a bd f4 c3 9f 3d aa 6b 91 3e
       -0.066491604 -0.045478962 0.07801047 0.28402454
0002d0 2c 0b 8b 3d e9 b8 82 3c a3 ea c8 bd 25 ed f1 3d
       0.0678924 0.015957313 -0.098103784 0.1181281
0002e0 0f 12 f5 bd 45 74 be bd b9 9b 03 bd 1f 23 fc bd
       -0.11966335 -0.092995204 -0.03213093 -0.12311386
0002f0 42 d0 c8 bc 9a 9a 13 3e 50 2b af 3d b1 31 be bd
       -0.024513368 0.14414445 0.08553183 -0.09286822
000300 f0 1f aa bd 4a 2d b3 3d 5c f5 a9 bd cb 50 1c be
       -0.08306873 0.087488726 -0.08298752 -0.15265195
000310 a5 f1 38 be 39 62 aa be 04 c6 66 3e 52 00 55 be
       -0.1806093 -0.33278063 0.22536474 -0.20800903
000320 62 3a 4e 3c 56 c2 80 3d d6 aa d3 3d 6e 57 1b be
       0.012587162 0.06287067 0.10335319 -0.1517007
000330 d6 1c 47 be 22 98 e0 3d a2 45 d1 3d 28 40 c4 3d
       -0.19444594 0.10966517 0.102183595 0.09582549
000340 39 78 0d be 44 9f ec 3c f4 ad 45 bc dc 3b 53 bd
       -0.13815393 0.028884538 -0.012065399 -0.05157076
000350 11 61 2c bb ef b7 c1 3d 98 68 d7 bd 3e 0d 73 3d
       -0.0026302973 0.09458911 -0.105179965 0.0593388
000360 4f 95 a7 bd 0c 78 64 bd db 92 35 3e 84 a0 5e 3d
       -0.08182775 -0.055778548 0.17731802 0.0543523
000370 b2 d9 db 3c fa a3 85 3d 54 9e d0 3d 94 20 a6 be
       0.026837204 0.06525417 0.10186449 -0.3244673
000380 e6 50 3a be c0 83 15 3d b7 83 05 be 15 ba e7 bd
       -0.18194923 0.0365026 -0.13038526 -0.11314789
000390 a0 b2 6d 3d 06 f7 11 be 9b 19 45 be 2f 2b 93 bd
       0.05803168 -0.14254388 -0.19248049 -0.07185971
0003a0 f5 47 89 be bf 4e 8b be fe 76 76 be 37 62 ee bd
       -0.2681271 -0.27208516 -0.2406883 -0.11639827
0003b0 6a 83 25 3e 4a ca a2 bd 44 ae 26 bd a2 2d 44 3e
       0.16163412 -0.0794874 -0.040693536 0.19158033
0003c0 7b aa f8 3d 88 7e 8a 3d 6d 46 97 3d 29 d1 26 3e
       0.121418916 0.06762415 0.073864795 0.16290726
0003d0 44 c1 4e 3e 69 9c 8c bd 1f c8 ff bb ae 38 98 3d
       0.20190912 -0.0686577 -0.0078058387 0.07432686
0003e0 5c e8 47 bd 59 e6 34 bd 79 36 45 be de db 0d be
       -0.04880558 -0.04416499 -0.19259061 -0.13853404
0003f0 84 f7 3d be 09 fa 8d be 7b 11 c0 bd 79 cd 89 be
       -0.18551451 -0.27729824 -0.09378334 -0.26914576

layer1.0.bn2.weight f4 [8]
000000 bc b4 a6 3f 28 ff 20 3f 3b ab 4f 3f 3b 0c 0b 3f
       1.3023906 0.6288934 0.8112065 0.5431554
000010 d5 65 ef 3e 42 f6 ee 3e 90 3e 91 3f 5e 50 7c 3f
       0.4675738 0.46672255 1.1347218 0.9856013

layer1.0.bn2.bias f4 [8]
000000 e5 8b 02 3f 17 92 0f 3e 53 aa 1c be 33 9b 9a 3e
       0.5099471 0.14020573 -0.15299349 0.30196533
000010 bd 2d 28 3d 26 08 c7 3e 64 53 ed bc ba 2c 4c 3e
       0.041059244 0.38873404 -0.028970428 0.19938937

layer1.0.bn2.running_mean f4 [8]
000000 5b b4 01 bf 8d 0f 56 3e 27 3e 07 3d 0c 9f f2 3d
       -0.50665826 0.2090437 0.033018257 0.11846742
000010 38 bc 01 bf fe 33 ca 3e d1 24 f3 be bf 9e c6 3e
       -0.50677824 0.39492792 -0.47489026 0.3879299

layer1.0.bn2.running_var f4 [8]
000000 77 a8 c3 3e 53 41 54 3e 66 1a 27 3e 27 7d a9 3e
       0.38214466 0.20728044 0.16318664 0.33103296
000010 d4 e5 1e 3e 57 77 a6 3e 96 ae ae 3e f0 0c a5 3e
       0.1551736 0.32512924 0.34117573 0.32236433

layer2.0.conv1.weight f4 [16, 8, 3, 3]
000000 84 88 e0 3a 6b fd 2f 3d 44 e2 4b bd b3 1a 7d bd
       0.0017130529 0.042966288 -0.04977633 -0.06179304
000010 13 ec 8f 3d cb 2c 93 3d 22 c4 8b bc 9b 69 bb 3c
       0.070274495 0.07186278 -0.017061297 0.022877505
000020 8c aa 40 3d 99 47 84 3d 9b 21 1d 3b 80 91 36 be
       0.047037646 0.06458969 0.002397633 -0.17828941
000030 69 06 59 bd 65 bb 77 be e3 54 c3 bd f9 89 80 be
       -0.05298463 -0.24192579 -0.09537675 -0.25105265
000040 0e da b4 be 4f 88 91 3d 50 b1 cd 3c c4 18 40 3d
       -0.35322613 0.07106077 0.025108963 0.04689862
000050 02 5e b6 3d 0e 4c fd 3d 95 d7 46 bd 79 7d 59 3d
       0.08904649 0.12368022 -0.04854544 0.053098176
000060 94 81 24 bc 8f ee 41 be 17 81 0f be 4e 5c 33 be
       -0.010040659 -0.18938659 -0.14014088 -0.1751568
000070 ef 55 58 bb 8f 6a 11 bd 50 16 a2 bd 5a f1 cf 3e
       -0.0033010205 -0.035502013 -0.07914412 0.40613824
000080 96 95 7f 3e 9f ff 04 3e 99 3c eb 3e 7f c4 d6 3c
       0.24959406 0.12988137 0.4594467 0.026216744
000090 4d b7 1a 3e 4e c6 f6 3d fa 5d e2 3d c2 91 ff 3b
       0.15108986 0.12049542 0.11053081 0.007799358
0000a0 3f 3e 27 be 48 3d 0d be 34 7c 74 bb a0 0c 41 be
       -0.16332339 -0.13792908 -0.0037305476 -0.18852472
0000b0 d4 12 e1 bd fc 3d cf 3c 6a 6e 4a bb 63 c0 4b be
       -0.10989919 0.025298111 -0.0030888566 -0.19897608
0000c0 7e b8 2c be 02 ba fc bd 5e fd 75 be e0 c3 90 be
       -0.16867253 -0.12340166 -0.24022433 -0.2827444
0000d0 db 76 39 be f2 89 83 bd 0c 71 85 3d 63 99 9a 3c
       -0.18111746 -0.06422795 0.065157026 0.018871969
0000e0 fc ca a3 bb 50 4f 9d 3d b3 52 8e 3d 99 a9 cd 3d
       -0.004998563 0.07681143 0.069493674 0.10042114
0000f0 f4 0b 8b bd 26 3e 5a 3d 57 be 52 3e 15 e0 f0 3d
       -0.06789389 0.053281926 0.20580421 0.1176149
000100 34 e9 ff 3d 40 c6 52 3d 20 13 85 3e f3 03 8b 3e
       0.12495652 0.051458597 0.25991154 0.2715145
000110 cb 43 66 3e b2 eb 00 3e e2 ec 2c 3e 8d cc c9 3d
       0.22486798 0.1258991 0.16887239 0.09853468
000120 51 13 8a 3d c6 72 84 3e 20 7c 82 3e 62 e8 e7 3d
       0.067419656 0.25868815 0.25485325 0.113236204
000130 d3 5e 65 3e 71 0c 60 3d 71 df 9c 3d 02 ca 9e 3d
       0.22399454 0.054699365 0.076598056 0.07753374
000140 59 23 b4 bd d4 f1 d2 3d ab 96 02 3e 43 ba 0e 3e
       -0.087958045 0.10300031 0.12752788 0.1393824
000150 81 c4 ec bd 08 61 5b 3a c0 f9 64 3d 0d e9 89 be
       -0.11560918 0.0008368646 0.055902243 -0.26935616
000160 d3 f7 31 be 8e 62 b1 bd 1e cd 0c 3d 4d 61 3e 3d
       -0.17379694 -0.08661376 0.034375302 0.046479512
000170 b8 49 34 3d f6 22 bc 3d 15 0b a9 3d 64 58 e9 3d
       0.044015616 0.09186356 0.08254067 0.11393812
000180 04 98 2e 3d fb fe 24 3d b7 f9 10 3c d7 d4 43 3c
       0.042625442 0.04028223 0.008848599 0.0119526
000190 8e 02 15 bb 5c 72 c3 3c 27 aa 24 be dc 5c a0 be
       -0.0022737118 0.023858242 -0.16080533 -0.31320846
0001a0 f6 36 77 be a2 3f 68 be 6b 19 df be 64 90 c8 be
       -0.2414206 -0.22680524 -0.4357408 -0.3917266
0001b0 22 1b 55 3e f3 bd a2 3d b0 e2 21 3d 8a 33 06 be
       0.20811132 0.07946386 0.039522827 -0.13105598
0001c0 06 e5 df bd 1e 4e bc bc dc d8 38 be 21 c1 66 be
       -0.10932355 -0.022986468 -0.18051475 -0.2253461
0001d0 85 21 f5 bd f3 23 48 be 96 53 b4 be 41 0d b4 be
       -0.11969284 -0.19544964 -0.3522002 -0.35166362
0001e0 0b 1c 69 be 8c cf 65 be b9 c7 6b be b6 16 10 bd
       -0.22764604 -0.22442454 -0.23025407 -0.03517791
0001f0 cf 68 0b 3b 90 54 a1 bd e6 f6 66 bd b0 67 a8 bd
       0.0021272188 -0.07877457 -0.056387804 -0.08222902
000200 d1 12 e6 bd 0a 9d 2a be b5 60 7c bd f9 9a b4 3c
       -0.11234058 -0.16661468 -0.061615665 0.022046553
000210 6c 2c aa bd 3a 7b 00 bd a8 b3 04 3e 2c b2 1a be
       -0.08309254 -0.031367518 0.12959158 -0.1510703
000220 5d d1 3a 3c 2b f1 db 3d 3d 2b 2d 3e 02 1c b5 3e
       0.011402455 0.107393585 0.16911025 0.3537293
000230 f3 57 50 3e bd 1c 84 3e e0 83 87 3e b4 20 f8 3d
       0.2034605 0.25803176 0.264678 0.121156126
000240 3e d7 68 bd 60 8c 43 3c d4 23 bf bb c6 1c 64 be
       -0.056845896 0.0119353235 -0.0058331285 -0.22276601
000250 31 cd 67 3e cb fa 9d bc 83 fe 4c be 78 6e 86 3e
       0.22636868 -0.019284626 -0.20018964 0.26256156
000260 5d 3d a0 bb f6 52 b4 bc ba 3a 03 be 26 10 a0 3d
       -0.0048901276 -0.022012215 -0.12815371 0.0781558
000270 cc f6 cc 3d a9 cc bd bd a8 7b b0 3b c3 fe da 3d
       0.1000801 -0.092675515 0.0053858347 0.10693123
000280 d2 c2 08 be 30 b2 9a ba ab 0b 58 be ee 4c 0f 3e
       -0.13355568 -0.0011802372 -0.21098201 0.1399419
000290 9a 3e ed 3c a2 83 8e be d6 b2 f8 3d 29 8f eb 3c
       0.028960515 -0.27834803 0.12143485 0.028754788
0002a0 0c 09 19 be 3e 26 32 3e 9b 24 ea bc 30 7b 49 3c
       -0.14944857 0.173974 -0.028581908 0.012297437
0002b0 47 05 2f be a7 84 0c 3c 82 ea a2 3d b4 15 11 be
       -0.17091857 0.008576549 0.07954885 -0.14168435
0002c0 60 4f 12 3c ad 3f f5 3d 14 45 63 be 28 00 b7 3d
       0.008930057 0.11975036 -0.2219432 0.08935577
0002d0 00 ce 0f 3d 00 f2 9c bd 26 9f 9e 3c 2d e4 49 3d
       0.035108566 -0.07663345 0.019362997 0.04928987
0002e0 fa 80 08 be 0c 05 dd bc dd 87 11 3e 7d c8 0b be
       -0.1333045 -0.026979946 0.14211984 -0.13650699
0002f0 ac b9 a6 3d c3 51 9d bd 3d 52 d0 3d 34 62 17 3c
       0.08140883 -0.076816104 0.10171936 0.009239722
000300 95 f5 ce bd ee a4 9a 3c 0b 97 08 3d 71 4c a9 be
       -0.10105435 0.018877473 0.03334717 -0.33066133
000310 8e cc 9c 3d 47 56 53 3e d6 c6 00 be ae 58 44 3e
       0.07656203 0.20638381 -0.1257585 0.19174454
000320 b9 95 37 3d 2f c3 bf be ac d6 b4 3e f3 d2 74 bc
       0.04482052 -0.374536 0.35320032 -0.014942872
000330 c0 2c d1 be e5 6b af 3e 3c 7a 4d bd d5 f0 52 3e
       -0.40854454 0.34262004 -0.0501654 0.20599683
000340 a2 3b 08 be 50 94 04 3c 6b 96 e1 3e 8d d3 c2 be
       -0.13303998 0.008092001 0.44060072 -0.38052025
000350 ca ea 94 bd 90 ba bf 3e 12 77 d7 be 48 d0 4d 3c
       -0.07271345 0.37447023 -0.4208303 0.012561865
000360 8e 49 24 be 69 7f 16 3e 0b 9d 1d 3d 0f 82 08 3c
       -0.16043684 0.1469704 0.038479846 0.00833179
000370 57 4c ce 3e b0 a0 03 bf c6 54 86 3e 03 24 3f bf
       0.40292618 -0.51417065 0.26236552 -0.74664325
000380 f4 af f5 3e f5 27 5b 3d a2 33 4d bd 49 57 c9 3c
       0.47985804 0.053504903 -0.05009807 0.024577754
000390 8e 75 e7 bc fc 3e cb bd f9 34 0d 3e 17 30 8d bd
       -0.028254297 -0.09924123 0.13789739 -0.06893938
0003a0 de 32 2b 3e 90 66 36 be e0 ee 05 3d 38 ac 30 bd
       0.16718623 -0.17812562 0.032698512 -0.04313299
0003b0 ab fe 65 bd 01 00 72 bc d9 58 f0 bd 34 24 0b be
       -0.056151073 -0.014770509 -0.11735696 -0.13588029
0003c0 fe 27 b7 bc f3 20 e7 3c eb 2e 51 bd 5b f5 54 bd
       -0.022357937 0.028213954 -0.051070135 -0.0519918
0003d0 ed 20 fd bb 64 93 e6 3b b3 4d 38 3d 9e d4 33 bd
       -0.0077248723 0.0070366133 0.044995975 -0.04390394
0003e0 14 dd 28 3d 46 a6 8c 3c 77 9c b0 3d 7d d9 11 be
       0.04122646 0.01716913 0.08623593 -0.14243121
0003f0 1a 50 97 bb 24 14 77 bd ef a3 2f 3c df 4f 62 3c
       -0.004617703 -0.060321942 0.010720237 0.013812988

layer2.0.bn1.weight f4 [16]
000000 62 0a f5 3e 5a 15 18 3f 5f 5d 22 3f a4 60 1c 3f
       0.47859484 0.5940758 0.63423723 0.6108496
000010 9d 16 ae 3e 16 63 25 3f 98 43 27 3f 9b 0e 38 3f
       0.34001628 0.6460432 0.65337515 0.71897286
000020 bf 22 30 3f ee a1 f3 3e d7 2b 28 3f 60 0d 21 3f
       0.6880302 0.4758448 0.65691894 0.62911034
000030 e7 ba 32 3f 0a 06 fa 3e da 16 e0 3e e1 a2 24 3f
       0.6981644 0.48832732 0.43767434 0.64311033

layer2.0.bn1.bias f4 [16]
000000 f3 26 50 3e 2c 2a 4a 3e 38 df f4 bc 07 3c 91 bd
       0.20327358 0.1974265 -0.029891595 -0.070915274
000010 42 d8 3f 3f 4d fa a9 bd 5d ee 85 bd 09 0f c9 bd
       0.7493936 -0.08299694 -0.06539605 -0.09817321
000020 1c 26 03 be c8 72 e2 3d ea 9b c2 bd b0 c0 d4 bd
       -0.12807506 0.11057049 -0.095023945 -0.10388315
000030 06 34 42 bd 34 45 7e 3e a2 4f 1d 3f ea c9 66 bd
       -0.047412895 0.24831086 0.61449635 -0.056344904

layer2.0.bn1.running_mean f4 [16]
000000 eb ea d4 3e 92 20 94 bf 62 b2 91 be e0 4f d7 be
       0.41585478 -1.157244 -0.28456408 -0.42053127
000010 33 0b ad be 02 05 01 bf ed 9d e7 be 47 5e 52 bf
       -0.33797607 -0.50398266 -0.45237675 -0.82175106
000020 78 d4 99 bf e4 19 a6 3f a6 87 dd be 65 a5 e2 be
       -1.2017965 1.2976651 -0.43267554 -0.4426681
000030 5e 7e 27 bf 3d de 47 bf f1 05 ec bf 19 85 b1 be
       -0.65427196 -0.78073484 -1.8439313 -0.34671858

layer2.0.bn1.running_var f4 [16]
000000 80 89 72 3f 06 90 3d 40 07 1d e9 3f 30 88 99 3f
       0.9474106 2.9619155 1.8211983 1.1994686
000010 7c 3b 55 3f b8 61 0c 40 99 45 ff 3f d3 77 d3 3f
       0.8329389 2.1934643 1.9943115 1.6520942
000020 7a 78 ba 3f ac 46 bd 3f 73 9c d7 3f da aa d4 3f
       1.4568017 1.4787192 1.684462 1.661464
000030 fc 95 d1 3f 5a 46 6d 3f a0 05 97 3f 47 02 b6 3f
       1.6373897 0.9268547 1.1798592 1.4219445

layer2.0.conv2.weight f4 [16, 16, 3, 3]
000000 f1 5c 72 3d 41 72 f5 bd af 08 e1 bd 66 f7 45 bc
       0.059170667 -0.11984683 -0.109879844 -0.01208291
000010 b4 98 18 3e 05 bd 0d 3d 7f 47 f0 bd c3 da ef bd
       0.14902002 0.03460409 -0.11732387 -0.11711647
000020 91 e2 17 bd 00 ec 0c be cb 7e a1 be 5f 7b d6 be
       -0.037081305 -0.13761902 -0.31542048 -0.41891
000030 19 c1 b5 3e 82 fd 1b 3e d0 82 37 bd 66 31 a8 3e
       0.35498884 0.15233424 -0.044802487 0.32850188
000040 bd 01 f0 3e ac 25 8d 3e 79 70 18 3d fc e7 32 3c
       0.46876326 0.27567804 0.037216637 0.010919567
000050 a4 b2 3d 3d 8a f8 57 bd 50 94 c2 3d 0d 7d 3a ba
       0.046312943 -0.05272726 0.095009446 -0.0007113971
000060 2f 86 94 bd 69 7d 21 3e 19 09 34 3e 82 c2 aa bd
       -0.07252156 0.15770496 0.17581595 -0.08337881
000070 bb bd 05 3d 31 45 c5 bd af 7c 70 bd a9 2d ea bb
       0.032651644 -0.09632338 -0.058712658 -0.0071465564
000080 f2 a0 1d be 38 18 eb bd 57 e0 6e bd d0 48 47 bd
       -0.15393427 -0.11479229 -0.058319416 -0.048653424
000090 69 21 f2 3d 41 17 96 3c a1 1f c6 3d 54 84 67 be
       0.11822779 0.018321635 0.096740015 -0.22609073
0000a0 76 28 ca bd 04 0a a0 bc ef 89 1e bd 15 15 d2 bd
       -0.098709986 -0.019536026 -0.038705762 -0.10257927
0000b0 96 5f 07 3e 2c e7 14 3d 33 42 a3 bd 1d c3 23 be
       0.13220057 0.036353275 -0.07971611 -0.15992399
0000c0 97 70 dc 3d b1 59 69 3e ea 93 67 3d b8 d8 08 3b
       0.10763662 0.22788121 0.056537546 0.0020881128
0000d0 0f 0f 18 3e 97 ca a6 bc f5 0c 24 bd b1 d2 11 3d
       0.14849494 -0.020360274 -0.04005142 0.03560132
0000e0 84 2f 27 3d 5a ff f7 bb 8a 54 49 3e 8a 52 32 bc
       0.0408168 -0.007568282 0.19661155 -0.010883937
0000f0 34 c1 aa 3c da 6a 87 3e 71 ba 22 3b 9c 8c 9e bd
       0.02084408 0.2644871 0.0024830366 -0.07741663
000100 90 8c e1 bd 98 41 34 3a 60 e3 cb bb 45 83 6b 3d
       -0.11013138 0.00068762293 -0.0062221736 0.057498235
000110 6c 8d e4 bd 93 71 09 3d 92 99 a7 3d ac 0e 8a 3d
       -0.111597866 0.03355558 0.08183588 0.0674108
000120 f5 dc 2b bd 64 80 9c 3d 1c e6 00 3d 6b 77 c0 bd
       -0.041958768 0.07641676 0.03146945 -0.09397777
000130 6a 9f 50 3c ea d0 9e bd 77 17 04 be 02 29 9d bd
       0.01273332 -0.07754691 -0.12899576 -0.07673837
000140 f9 99 c6 bd 85 52 3b 3e 5f f1 71 3e 05 07 ea bc
       -0.09697337 0.18293197 0.23627232 -0.0285678
000150 92 fa 1f bd db b8 ad 3b f0 70 67 3d 7a 97 25 be
       -0.03905732 0.0053015775 0.05650419 -0.16171065
000160 fb 8f 49 be 09 ac 1e be 9f 4e d7 bd e2 68 8b bd
       -0.1968383 -0.15495314 -0.10513043 -0.06807114
000170 aa 4c f0 bd 6c 82 7d 3c 34 fc fc 3d 6c cb ca bc
       -0.117333725 0.0154729895 0.123527914 -0.024755202
000180 92 75 21 bc 12 df 72 3c 42 04 85 3c 95 cb c0 bc
       -0.009854691 0.014823692 0.016237382 -0.023534575
000190 b4 b7 af 3d 1c 74 8a bc 53 95 f6 3c 6b d6 79 3e
       0.085799605 -0.016901068 0.0301005 0.243982
0001a0 7d fc ea 3d dd bf 7f bd 6c 0b 27 3d 53 95 18 bd
       0.114739396 -0.062438834 0.040782377 -0.03725178
0001b0 5b 15 b3 bd 1e c2 e0 bc ea db 1a be 23 95 a4 bd
       -0.087443076 -0.027436312 -0.15122953 -0.08036258
0001c0 7a ed 8d 3d cc 05 b9 bd 50 7d e3 3c 7e 8b 72 bc
       0.06930061 -0.09034309 0.027769715 -0.014803765
0001d0 18 6f 81 bc d1 40 9f 3d 74 2e 2c be 70 47 7b bd
       -0.015800044 0.077760346 -0.16814595 -0.061347425
0001e0 94 9f 21 3d 6c 44 c4 bd 79 13 67 be 4b 42 25 3d
       0.039458826 -0.09583363 -0.22566022 0.040346425
0001f0 9d 32 57 3e 61 5d d3 3c cd 25 31 bd 5f 17 fd bd
       0.21015401 0.025801362 -0.04324894 -0.12357973
000200 73 d6 43 38 d0 24 95 3d 4d a4 64 bd c0 e3 21 3d
       4.6691344e-05 0.07282412 -0.055820752 0.03952384
000210 cd da ae 3c f7 4d 55 3d cc 60 3e bc 45 79 79 bc
       0.021344567 0.052076306 -0.011619758 -0.015226667
000220 ee a4 15 bc 07 b6 00 be a4 4b 15 bd 27 22 19 bc
       -0.009133561 -0.12569438 -0.03644909 -0.009346521
000230 12 fe f7 bd 51 a6 c5 bd e3 f9 59 bd b1 e4 c4 bd
       -0.12109007 -0.09650863 -0.053216826 -0.09613932
000240 c9 dd a5 bc ae c3 43 3c 0e 20 e0 3c 5f e5 04 be
       -0.020247357 0.011948509 0.027359035 -0.12978123
000250 06 91 76 bd c4 60 ae 3d 3a 0f db 3d 4a 90 9d bc
       -0.0601969 0.0851455 0.106962636 -0.019233841
000260 7b 9f 2e be 4f f2 10 3d ee 91 08 3e f7 4c 1d bd
       -0.17053024 0.035387333 0.13336918 -0.038403478
000270 ec 9d 67 bb 9f 26 05 bc 32 42 e3 bd 07 fa 11 3d
       -0.0035341932 -0.008126884 -0.1109661 0.035638835
000280 b2 9f 4c be fa 6c 40 3d 79 1f 99 bb 9c 6a 70 bd
       -0.19982794 0.04697893 -0.0046729413 -0.05869542
000290 53 e8 13 be d5 76 93 bd e7 ac 7a bd 91 25 0c 3e
       -0.14444093 -0.072004 -0.06120005 0.13686205
0002a0 ad c8 54 3c 98 0c d3 bd 40 97 17 be ff 59 34 3c
       0.012987298 -0.103051364 -0.14803791 0.011007785
0002b0 fe 7e 0d bd 6c 85 29 bd c4 21 b2 3d 83 39 f9 3c
       -0.034544937 -0.041387007 0.086978465 0.030422932
0002c0 65 27 27 be a4 be 07 3d 83 08 79 bd 5a 8e 05 3d
       -0.16323622 0.033140793 -0.060799133 0.03260646
0002d0 ba 69 1e bc 15 1f a1 bc 05 48 d4 be 43 77 94 3e
       -0.009668762 -0.019668141 -0.41461197 0.2899724
0002e0 72 3b 5b 3e 4b 25 3d bd 9f 34 06 be cc a6 f5 bc
       0.21409395 -0.046178143 -0.13106011 -0.029986762
0002f0 c2 9b c2 3e 46 27 54 bd 75 94 2d 3e 5b af 30 bd
       0.3800946 -0.051795267 0.16951163 -0.043135982
000300 3f 89 b9 bd 3d 66 45 bc 77 bb bf 3c d7 92 33 bd
       -0.09059381 -0.012048301 0.02340482 -0.04384121
000310 d4 96 56 bd 77 49 4c be 43 bb 08 3d 71 75 fa 3d
       -0.052389935 -0.199499 0.03338171 0.122294314
000320 85 bc 19 be 6f 26 18 be ce b3 ee bd 50 44 70 be
       -0.1501332 -0.14858411 -0.11655389 -0.23463559
000330 43 32 02 39 b2 f8 9f be 66 19 74 3d d0 b7 16 3d
       0.0001241649 -0.31244427 0.059594534 0.03679639
000340 0a b0 80 3e fb 21 7d 3d 7d 03 52 be 83 13 37 3e
       0.25134307 0.061799984 -0.20509143 0.17878537
000350 94 83 0d 3f 71 ba 52 be c1 82 14 be 82 84 b1 3e
       0.552789 -0.20578934 -0.14503004 0.34671408
000360 42 23 30 bc 78 fa 88 ba 07 15 93 bb 36 5f 80 3a
       -0.010750594 -0.0010450622 -0.0044885906 0.0009794
000370 96 29 10 3e a3 07 b0 bc 2f 6b d5 3c c9 47 12 3e
       0.14078364 -0.021488016 0.026052086 0.14285196
000380 c6 6d 32 be 8f bb 66 3c 26 b0 8e bc 4d cd 90 bb
       -0.17424688 0.014082803 -0.017417978 -0.004419005
000390 b1 d6 1b bb 51 1a 7b 3c 1f ba 29 bc 9c 3b 59 be
       -0.002377909 0.015326099 -0.010359316 -0.21214145
0003a0 bc b1 ef bc 52 a9 12 3e 75 28 c1 3c 7c 3c 9c 3d
       -0.029259555 0.14322403 0.023578862 0.07628724
0003b0 b6 07 0e bd e1 32 f2 3d 5e d0 f9 bc db 00 66 be
       -0.034675322 0.11826111 -0.030494865 -0.22461264
0003c0 7d 4a 17 3e 94 72 0d 3d 99 63 03 3e 44 61 80 bd
       0.14774509 0.0345331 0.12830962 -0.06268552
0003d0 3b a1 db 3c f6 9c f1 bc 4d e4 2e 3d 9c 4f 43 bd
       0.02681028 -0.02949379 0.042698193 -0.047683343
0003e0 b1 e1 a7 be f8 6d 13 3c fe cf 61 bd 1a 4f ba bd
       -0.32789376 0.008998387 -0.055129997 -0.09097119
0003f0 67 8b 07 be 27 5d 6c 3e df b7 af bc d1 0c 32 be
       -0.13236772 0.2308241 -0.021449981 -0.17387702

layer2.0.bn2.weight f4 [16]
000000 94 b5 23 3f 8b 3d 3a 3f e4 2b 22 3f ad b7 02 3f
       0.6394894 0.7275016 0.6334822 0.51061517
000010 58 52 0f 3f 0d 83 00 3f 0f 17 f4 3e 20 08 36 3f
       0.5598502 0.5019997 0.47673842 0.7110615
000020 c3 f4 05 3f 83 98 3c 3f 07 39 28 3f 6d b7 d4 3e
       0.523266 0.73670214 0.65712017 0.41546193
000030 7c d9 15 3f 36 f9 22 3f 89 48 cb 3e ac 33 b7 3f
       0.5853498 0.63661516 0.39703777 1.4312644

layer2.0.bn2.bias f4 [16]
000000 2b 33 40 bb be b5 4c bd ce e4 03 3e c8 54 0a 3f
       -0.0029327373 -0.04997801 0.12880251 0.54035616
000010 5e 6f 4a 3e c7 14 bc 3e fb 6e d7 3e 70 b8 d0 3d
       0.19769046 0.36734602 0.4207686 0.10191429
000020 cc 2b ca bd fc a4 0a bd 72 24 51 3e 53 10 bf bc
       -0.09871635 -0.033848748 0.20424059 -0.023323214
000030 85 0b aa 3c 53 5d 8c 3d 84 2a 98 bd 84 85 56 be
       0.020757446 0.06853738 -0.07429984 -0.2094937

layer2.0.bn2.running_mean f4 [16]
000000 ff e8 f3 bd 25 dd 0d 3e 76 30 d2 be ac f8 bc be
       -0.11909675 0.13853891 -0.41052598 -0.36908472
000010 50 f2 7b bd a0 55 8b 3f 6f 80 ba be ae 85 30 bf
       -0.061510384 1.0885506 -0.36426112 -0.6895398
000020 18 e8 ec be e9 91 fb bc 2f 8e c3 3f 38 7f 24 bf
       -0.46270823 -0.030709224 1.5277766 -0.6425662
000030 e1 c8 6b be bf 46 f2 be 65 56 72 3f 0a 91 9f bf
       -0.23025848 -0.473196 0.9466308 -1.2466137

layer2.0.bn2.running_var f4 [16]
000000 2c d0 d1 3e 2c 19 db 3e aa 74 0a 3f 6f 24 11 3f
       0.40979135 0.42792642 0.54084265 0.5669622
000010 06 52 2c 3f 26 c9 18 3f d8 c2 36 3f 7c fe c2 3e
       0.6731266 0.5968193 0.7139106 0.3808478
000020 c6 91 52 3e d9 91 1f 3f 7e 71 46 3f ef 7b 33 3e
       0.2056342 0.6233192 0.77516925 0.17527746
000030 35 f7 c5 3e cc ce b1 3e f7 57 3d 3e c2 90 4c 3f
       0.38665166 0.34728086 0.18490587 0.7990838

layer2.0.shortcut.0.weight f4 [16, 8, 1, 1]
000000 c7 af 21 3e e9 9c a9 3d 57 51 01 be 5f b5 b7 3e
       0.1578971 0.08281881 -0.12628685 0.35880563
000010 e0 9d 86 3d 67 a2 32 bd 99 f2 35 3d ea ee 06 be
       0.06573081 -0.04361191 0.044420812 -0.13177076
000020 fc 04 d2 bd 93 dc 9d bd f6 95 e4 bc 39 de 0f bd
       -0.10254857 -0.07708087 -0.027903538 -0.035124037
000030 e3 a4 a1 bc 2f 35 75 bd 14 d3 34 be 0b db d6 3d
       -0.019731944 -0.059865173 -0.17658645 0.10490998
000040 18 0f d6 b9 9e 23 12 be 24 9e 19 3e 27 c0 c9 3e
       -0.00040828506 -0.142714 0.15001732 0.39404413
000050 36 dc 4a 3e 64 51 f3 3e 79 17 1d 3d d6 f5 79 bd
       0.19810566 0.47523034 0.038352463 -0.061025463
000060 91 53 1d 3e 03 7a 98 3d 56 dd e9 3d bd 1d 1c 3e
       0.1536391 0.07445147 0.114191696 0.15245719
000070 70 b9 b2 3d d7 20 5e 3c 8b c7 b3 bc 5f cc 6a be
       0.08726776 0.013557634 -0.021945735 -0.22929524
000080 fa b7 08 bd c9 b8 a5 bb fa d9 91 bc 27 b2 bb bd
       -0.03337858 -0.0050574285 -0.017804135 -0.09164839
000090 6a 58 99 3e 4e 5d 3d 3e 4c 55 88 3d c4 be ab bd
       0.29950267 0.18492624 0.06656894 -0.08385995
0000a0 ac 82 12 3d d3 38 62 bd 96 50 d8 3c 66 90 24 bd
       0.03576915 -0.055229973 0.026405614 -0.04017677
0000b0 57 98 3b bd 20 68 d7 bc d3 6f 69 be 51 62 0e 3e
       -0.04579958 -0.026294768 -0.22796564 0.13904692
0000c0 4c ce aa 3c bc 62 a9 3d 8e 9a 2f be b1 ef 23 be
       0.020850323 0.08270785 -0.17148802 -0.16009404
0000d0 f4 ac dc 3c 22 c5 be be 1b 1c ed bd 46 2d 12 3e
       0.02693794 -0.37259775 -0.11577626 0.14275083
0000e0 50 df 18 3e 24 5d aa 3b 0e 21 0f be dd 95 ae 3d
       0.14928937 0.0051990915 -0.13977453 0.08524678
0000f0 86 41 40 bd 21 94 92 3d 4f 70 3d be fa cc 84 3e
       -0.046937488 0.071571596 -0.18499874 0.25937635
000100 68 0f 09 3d de 5f b3 3e 50 de 63 3d be b5 de be
       0.03346196 0.35034078 0.055631936 -0.43498033
000110 3f 2a 7b 3e 1c 0c c3 3d da 51 e2 ba c9 7b 48 bd
       0.24527834 0.09523794 -0.0017266825 -0.048946176
000120 12 6c a5 3d da bb 10 3d d3 9d 06 3c 58 bf ef bd
       0.080772534 0.0353354 0.008216339 -0.11706418
000130 95 f3 4a bd f9 ae f8 be a6 2d 99 bd 68 56 9a 3d
       -0.049548704 -0.48570994 -0.0747941 0.07536012
000140 c8 73 30 3e 53 96 c1 3c df aa 57 3e 63 6e 8f be
       0.17231667 0.02363125 0.21061276 -0.28013906
000150 70 76 c1 bc 10 0b 5f be 4c 03 46 bd 12 2e 43 bd
       -0.023616046 -0.21781564 -0.048342988 -0.047651358
000160 22 d4 0b 3d 95 55 be 3e 03 5b 92 bc db 95 74 3e
       0.034137852 0.3717467 -0.017865663 0.2388529
000170 d4 7b 29 bf bc b6 b4 3d 9e 95 7a 3c 47 24 67 3b
       -0.6620457 0.08823916 0.015294461 0.0035269426
000180 e1 7c 93 bd 29 b9 89 bd 3a a4 b2 bd 22 3e 35 3e
       -0.07201553 -0.067247696 -0.0872273 0.17699483
000190 13 2a 14 be ca e2 17 bf 43 68 c9 bb c0 53 62 3d
       -0.14469175 -0.5933043 -0.006146462 0.05525565
0001a0 86 6c 95 3e 57 c6 3a 3e 12 25 d0 bd 02 1e 05 3e
       0.2918436 0.18239723 -0.101633206 0.12999728
0001b0 b6 58 2a bd 48 b7 13 3e a3 ca 0e 3d 8c 76 fe bd
       -0.041588508 0.14425385 0.03486122 -0.12424955
0001c0 4c a6 75 3c 2c cb 99 be 6b 8e 0d be 6a cd 1b 3c
       0.014993262 -0.3003782 -0.1382386 0.009509424
0001d0 a1 95 5a 3f 4c 25 69 be 49 af ae ba 33 bd d7 ba
       0.85384566 -0.22768134 -0.0013327386 -0.0016459584
0001e0 4d 26 1f be a9 dd e4 3c 4d b0 3b be 28 f2 c4 3d
       -0.15541954 0.027937727 -0.18328972 0.096165
0001f0 6b 87 df bd 44 67 99 3e 25 8d 1f 3e d1 f6 67 3d
       -0.10914501 0.29961598 0.15581186 0.056631867

layer2.0.shortcut.1.weight f4 [16]
000000 4d da a5 3e c6 0f c4 3d 8c 02 d7 3e 98 64 98 3d
       0.32393113 0.09573321 0.4199413 0.07441062
000010 ba be bb 3d 91 e1 6d 3d 42 0b a3 3d e6 98 66 3e
       0.091672376 0.058076445 0.07961132 0.22519264
000020 9f ef bd 3e 2e bc 86 3e 16 70 22 3e 98 40 0a 3f
       0.3709688 0.26315445 0.1586307 0.5400481
000030 72 1c c3 3e db 98 92 3e 94 a8 0e 3f b1 67 87 3e
       0.3810764 0.28632244 0.5572598 0.26446298

layer2.0.shortcut.1.bias f4 [16]
000000 2b 33 40 bb be b5 4c bd ce e4 03 3e c8 54 0a 3f
       -0.0029327373 -0.04997801 0.12880251 0.54035616
000010 5e 6f 4a 3e c7 14 bc 3e fb 6e d7 3e 70 b8 d0 3d
       0.19769046 0.36734602 0.4207686 0.10191429
000020 cc 2b ca bd fc a4 0a bd 72 24 51 3e 53 10 bf bc
       -0.09871635 -0.033848748 0.20424059 -0.023323214
000030 85 0b aa 3c 53 5d 8c 3d 84 2a 98 bd 84 85 56 be
       0.020757446 0.06853738 -0.07429984 -0.2094937

layer2.0.shortcut.1.running_mean f4 [16]
000000 66 c3 aa 3e 3c 74 85 be 64 ee 33 3f 43 22 4f 3e
       0.33352202 -0.26065242 0.7028563 0.20227914
000010 4e f3 29 3e 3c dd e0 bd d2 9d bd be 6c 84 78 3e
       0.1659672 -0.10979697 -0.3703447 0.24269265
000020 06 6b 90 3d 56 cb cd be 9b 7e 60 be 4f 0d 34 3e
       0.07051663 -0.40194196 -0.21923296 0.17583202
000030 b8 15 02 bf c3 ee e6 3e 6a 00 76 3c 56 60 5f 3e
       -0.5081439 0.45104036 0.015014747 0.21814093

layer2.0.shortcut.1.running_var f4 [16]
000000 58 ba e1 3d 61 28 4a 3d 1c 01 20 3e 99 e4 37 3d
       0.110218704 0.049354915 0.15625423 0.044895742
000010 91 5d 3c 3d 3d 66 60 3d ae 0e a0 3d 0f a9 ef 3d
       0.04598767 0.054785002 0.078153 0.11702167
000020 9d 6c 06 3e 4b f7 f4 3d 87 e1 01 3e 93 fe 08 3e
       0.1312737 0.1196123 0.12683688 0.13378362
000030 7d ba ed 3d ba 0a 1e 3e e9 60 10 3e c7 b0 ef 3d
       0.116078354 0.1543378 0.14099468 0.117036395
