meta_results/meta_seed-2_metalr-1e-05_T-2_400_4-cycles_cifar100-ResNet10_scheckpoint.pth.tar (torch, 909673 bytes, 128 tensors)

conv1.weight f4 [8, 3, 3, 3]
00000000: fbeb 6b3e c37e 423d 602c c93e 826c a13d
00000010: c201 30be 656b 903e 1d0f 1c3e 9f12 dd3d
00000020: db1b a43e 0fba 813e ce7b f73d f41f 0b3f
00000030: 3dfb fc3d 1354 13be 832d c03e 7cd0 db3d
00000040: efb1 a43a f299 bf3e a984 733e 407d bf3d
00000050: 33e5 d73e daff 0b3e 972f c2bd f2e6 a23e
00000060: fb37 463e 4277 dd3c e16c ac3e a41c 66be
00000070: 13d1 90be 1500 33bd 858f a8be 023a 23bf
00000080: edbe 03bf c685 debe 66ef 4dbf d85d b8be
00000090: d32e 7c3d 7581 7b3e c12f 853e 7665 eb3e
000000a0: 2fb8 303f 9bc2 1c3e 92ed be3e 3cd1 e43e
000000b0: ff9b e33e ff0e 913d 7931 a33c 69bb c83a
000000c0: cb07 f53d 0d56 6a3e b02b 17be 3496 943c
000000d0: 74a2 24be 1ac3 3a3e 9c83 17be 05f9 c0bd
000000e0: 9a6b 1b3e b8b9 1abe e9a1 ba3e feba 803e
000000f0: 89c0 8abe 7b55 993d 4ed3 503e 04e0 a23d
00000100: b89f cf3d 0a36 543e ba2d 033f 6a42 773f
00000110: aac1 d23e 4815 083e 55f9 023f 2999 b33e
00000120: 1da2 2abd dc40 a0be e66c d9bd fa76 9fbe
00000130: 6b90 67bf 2bf7 6fbf 8d5a 52be 7178 4fbf
00000140: 24f9 03bf 8f52 c3bd 28d1 b13c 3ae2 283c
00000150: b676 583e 5c50 dd3f 37e1 013e aa02 05be
00000160: e0ec babf f56a 75be 0b5d c2bd 8097 12be
00000170: 5053 0bbd 8e65 713e c5f3 0040 862b a33d
00000180: 81cc 90be 7774 efbf a345 24bd 94ad 45bd
00000190: 64e1 b9bd f6c2 a9bc 3892 7a3e 73da b83f
000001a0: ec2a a6bd 5d7c b1bd b440 a7bf 3d90 3d3c
000001b0: 4ff1 a1bd fce5 b73b 1407 c2be 2690 0f3e
000001c0: 5a5a 5a3f 4d65 533f ab9f 9c3d 077a 3b3f
000001d0: 1100 113f 5de0 2d3d 05bd 1c3e 634b 78be
000001e0: 35a5 a6be dac5 6cbf 5ae0 9cbe a6bd 95be
000001f0: 7b70 30bf d3b3 d9be 995c eebd 1ad3 833e
00000200: 5058 703e 32fd 553e 33b2 86be 01e0 9fbd
00000210: 128c a53e 59fa 48bd b24c 1cbe 5ba1 d73c
00000220: ff20 a23d 0e93 a1bd e2a2 9abf b329 9c3f
00000230: e861 da3d 858f 2bbe 294f c93d 9bdf 463d
00000240: 2dee c0bd 18a3 2c3e 1857 57bc 095d 00c0
00000250: 0965 0040 edb4 89bc ea3d 44be 0dda 533e
00000260: 0430 17be 08fc c03c 8b83 18be c216 04be
00000270: 9b1b babf ecfb c13f 03c8 903d ce73 80bd
00000280: 8676 8d3e f72d 07be 4eb2 d3bd b48f 8d3d
00000290: 42cc 28bd 7c24 1d3d 009f 443f 44fc 2c3e
000002a0: 9916 42be 6420 103e 8eb3 06bb 9897 b8bd
000002b0: ec01 16bd 3ddf 69bd fe67 363d e8b0 723f
000002c0: 7dc9 073d 6d64 85be a127 d73d 17f6 93bd
000002d0: 68d7 e6bd a21f b73c 5066 4dbc f6b5 bfbb
000002e0: 5dfe 503f aead ed3d 82c9 54be 0d3b 473e
000002f0: 859f ff3d 4098 9cbe 8c48 b1be d53e 803d
00000300: 212b 95bd eed7 7bbe 0a48 383e e39d 90be
00000310: b64e a3be 9f07 2cbd 6f4c 21be 7108 5cbe
00000320: 2e93 7e3c 73c8 803c 2ca3 39be 1a56 bf3c
00000330: 4baf 4abe e099 71be ae17 5fbd c704 9abe
00000340: bf62 afbe df6f 1cbd bb08 24be 6af9 9abe
00000350: 8068 073d 08a1 9cbe 7c8a 9abe a53f 093d
0.23039238 0.04748417 0.39291668 0.07882024 -0.1718817 0.28206936 0.1524014 0.10794567
0.32052502 0.25337264 0.12084161 0.5434563 0.123526074 -0.1438754 0.37534723 0.107331246
0.0012565235 0.37422138 0.23781075 0.093500614 0.42167053 0.13671818 -0.09481733 0.31816822
0.19357292 0.027034406 0.33676818 -0.22471863 -0.2828451 -0.04370125 -0.32921997 -0.6376039
-0.51463205 -0.43461436 -0.8044342 -0.36009097 0.061568093 0.24561103 0.26012996 0.45975846
0.6903104 0.15308611 0.37290627 0.44690883 0.44454953 0.070829384 0.019921051 0.0015314642
0.11964377 0.22884388 -0.14762759 0.018138029 -0.16077596 0.18238488 -0.14796299 -0.09422497
0.15177765 -0.15109909 0.36451653 0.25142664 -0.27100018 0.07487007 0.20393106 0.07952884
0.10137886 0.2072374 0.5124165 0.96585715 0.4116338 0.13289368 0.511617 0.3507779
-0.04165851 -0.31299484 -0.10616474 -0.3114546 -0.9045474 -0.93736523 -0.20542355 -0.81043154
-0.51552033 -0.09537231 0.021706179 0.010307843 0.21139035 1.7290149 0.12683569 -0.12989298
-1.4603539 -0.23966582 -0.09490403 -0.14315605 -0.034015 0.23573896 2.0148785 0.07967286
-0.28281024 -1.8707417 -0.040105473 -0.04826124 -0.09076193 -0.020722847 0.2446984 1.4441665
-0.081136554 -0.086662985 -1.3066621 0.011570034 -0.07907354 0.005612133 -0.37896025 0.14019832
0.85294116 0.8257645 0.07647642 0.73233074 0.56640726 0.042450298 0.1530648 -0.24247508
-0.32547918 -0.924894 -0.30639917 -0.29246253 -0.6892163 -0.42520007 -0.11638755 0.25746995
0.23471189 0.20897368 -0.2630783 -0.07806397 0.32333428 -0.049066875 -0.15263632 0.026322057
0.0791645 -0.078893766 -1.2080958 1.2200226 0.106632054 -0.16753967 0.09829552 0.04855309
-0.094204284 0.1685909 -0.013143323 -2.0056784 2.0061667 -0.016809905 -0.19164243 0.20688649
-0.1476441 0.023557678 -0.1489393 -0.12899306 -1.4539675 1.5155005 0.07069399 -0.06272088
0.2762949 -0.13201128 -0.10336743 0.06912175 -0.04121042 0.038364872 0.76805115 0.16893107
-0.18953933 0.14074856 -0.00205538 -0.09013289 -0.036622927 -0.057097662 0.04453277 0.9480119
0.03315114 -0.2605318 0.105056055 -0.07224672 -0.11271554 0.02235395 -0.0125366 -0.005850549
0.8163813 0.116053924 -0.20779994 0.1945612 0.12481598 -0.30584908 -0.3462566 0.06261984
-0.07283617 -0.2459409 0.1799623 -0.28245458 -0.3189599 -0.041999456 -0.15751813 -0.21487595
0.01553802 0.015720582 -0.18128651 0.023356486 -0.19793431 -0.23593855 -0.054465942 -0.3008177
-0.34255025 -0.038192626 -0.16018955 -0.30268413 0.033058643 -0.30591607 -0.3018378 0.03350796

bn1.weight f4 [8]
00000000: 484d 8abe 74e5 863e f92c 653e 179c 1e3f
00000010: 464b 733e dddd 0f3f 4956 9d3e defd 0640
-0.27012086 0.26346934 0.22380437 0.61956924 0.23759183 0.5619791 0.30729893 2.1092448

bn1.bias f4 [8]
00000000: 3fc0 fabe 7fd7 e63d b000 0f3f c944 363e
00000010: 9c6c 9a3d 08e3 813e 1a1e d43e 5b70 2cc0
-0.48974797 0.11271571 0.55860424 0.17799677 0.07540247 0.25368524 0.41429216 -2.6943576

bn1.running_mean f4 [8]
00000000: 5d82 d0bf 769c 523e 80d3 93be 5959 80bd
00000010: 2be1 a8bd 6fb4 04bd 226c 52bf c98c ab3f
-1.6289784 0.20567498 -0.288723 -0.06267042 -0.082460724 -0.032398637 -0.8219625 1.3402339

bn1.running_var f4 [8]
00000000: 58d1 b641 169b 1340 d955 3340 a63d e740
00000010: 0b6e b73f 9819 cd40 799f f940 9320 8441
22.852219 2.3063407 2.8021147 7.2262754 1.4330457 6.409374 7.800717 16.515905

layer1.0.conv1.weight f4 [8, 8, 3, 3]
00000000: 4698 4f3d 5120 793c 9d24 8f3b c93a d93d
00000010: 98b0 de3c a436 d4bc 9524 683d 7cb5 57bd
00000020: 5b92 07bd a43a c0bc 0523 e2bc 2c23 4e3c
00000030: f714 76bd d07a a5bd 842c c4bd c0d9 cc3c
00000040: 9b1f 603d 849e 6c3d 4f6a 3c3d f86a d13b
00000050: a60f 8bbd 2e85 0dbe acc6 b3bd 8506 09be
00000060: 3a50 49bd dcaf 6d3d 38b9 dc3d 242f 2fbe
00000070: 9038 7c3e 3c79 e73d e719 41bd e6d3 99bd
00000080: bbc5 2dbe 7852 febb fec0 7f3c 153f 23bd
00000090: e203 f03c 93dc 9b3c 5862 293b 4f53 19bd
000000a0: 9516 a13c 4bd9 9f3c 2b07 11bd 4e7d b9bd
000000b0: a4eb acbb 8b60 13bc 26da c5bc 215e dc3d
000000c0: 2c39 70bc a11d a7be d1e0 773e 1f90 853d
000000d0: 4870 023c 80bf cd3d 6f02 163b 3d19 6fba
000000e0: 5ff2 85bc 2347 94bd 2b47 18be ef01 1abe
000000f0: 0570 f23d 13c6 ea3d a94d 8abd be5b 163d
00000100: d9cc 073e faf2 0bbe 1893 b93d d0af 1d3e
00000110: e911 d0bd cbef 983d 76df 153e e129 97bd
00000120: 1eeb 60bd 6794 103d 8922 6dbd 92c9 953d
00000130: 73c7 05bc 86b5 773d b5f8 823d cbce d73c
00000140: ffad 0a3e e7cb f4bd 17e5 d3bb f54d a43c
00000150: 3f16 05bf 2a9b d8bd 0f0b 003f b5b8 e5be
00000160: 4fb5 0b3e 899a 113f 2dbb 953c 000c d2be
00000170: 9035 15bf 31a6 523e 3af2 833e 66ad 4abe
00000180: e1d1 9bbd a129 3a3f e02c 783e 8941 afbd
00000190: 345b 1abc 2b5f 17bb 4053 323d 0047 6dbe
000001a0: ec29 ed3d f6ee f73c b4e4 87bc 0201 273d
000001b0: bbce 923e d99b 7d3e 7ad7 5ebe 91d1 f93e
000001c0: e7b3 d73d 3823 06bf 3268 f03e c18a 10be
000001d0: 5703 d6be 16ea 803d 381f b9bd ab04 6a3b
000001e0: 800c 12be 101f 4cbd cf2e f73d 977a 1f3d
000001f0: 917a ed3d a056 99be f568 1c3e 8735 5c3e
00000200: 861f cb3c c4bf 27be 4f29 60bd 02e8 bebc
00000210: e432 84be 483c 153c d3d4 bd3c 7d12 e0ba
00000220: a0d4 cabd 3d02 2f3e 7047 b73d 3ca8 12bd
00000230: 8994 823e 2aaa 5abd a3fe c1be ca98 4bbe
00000240: a58d 143d 0708 ad3d 190d be3d 3e8a 7dbd
00000250: 28ba 2abd 7f9c 813c 9fdc 903d d5f3 553e
00000260: c31a 2f3e c142 33be 6f06 753d ebae 543d
00000270: 1258 9ebc 9e36 37bd eb3f 833b db01 20bd
00000280: b6b9 8e3d 60c6 b23d 606e cc3c f0e2 f53d
00000290: 45ad 1cbe 2e74 68be 7701 553d 3097 d6bd
000002a0: 37bc 10be 602c 133e 0902 0c3e 1d62 9bbc
000002b0: 82ad 913e c2d9 cdbb b3e0 e7be 96e6 7cbe
000002c0: b382 1e3d 91ae a13d cabe b7bd 668a d63c
000002d0: 303b 7f3d 773f d4bc cebb b63c 25f6 7b3d
000002e0: c41a 35be 88db cabd 76ae d93c 1495 c7bc
000002f0: eb34 e03b ffe0 a83c e486 8abe 5c5d bfbd
00000300: 5f1c d8bd 2a43 003f 9689 bbbe f86a 2fbd
00000310: f257 4cbd 33ba b83c 0f31 78be d4c7 0f3e
00000320: 0f19 483e 9f66 48be f1f0 2b3e 3bf6 8d3e
00000330: 8ac3 0dbe c597 28be 247a f2bb f529 783e
00000340: 1584 ddbe 4e36 cebe e799 c63e 0b07 88be
00000350: 9f50 1fbe 9304 0e3f 3a50 843f b678 663f
00000360: c966 48bd 5058 98bd 4693 1a3d faec 12bd
00000370: efef 99bc 9d99 053d d6a9 643d 4e2e 7ebd
00000380: 1054 9cbd 3bee 28be aa1d b6bd 2f60 9bbd
00000390: 0e21 a2bd 5fe7 e7bc 3b24 a63d 261a 26bd
000003a0: 052c a13c e416 6a3d adb5 b43c 7e23 fb3d
000003b0: e23a 363c 403a 10be 9e13 42bd 1095 d9bc
000003c0: e49b 3b3c f2b3 c43d b020 953c 99e0 31bd
000003d0: 5716 9ebc c81e ba3b 00fa 7dbe 48be 82be
000003e0: 9ec9 5dbe 90b3 e73d d811 dcbe 9eee 823d
000003f0: b0dd d6bd 192c aebd 0e8d c1bd 3534 b7bd
0.05068233 0.015205459 0.0043683783 0.106069155 0.027183816 -0.02590496 0.056675512 -0.05266331
-0.03309856 -0.023465462 -0.02760459 0.012581628 -0.060078587 -0.08080065 -0.09578803 0.025006175
0.05471764 0.05776836 0.04599982 0.0063909255 -0.06790094 -0.13820335 -0.08778128 -0.13381393
-0.049148776 0.05802904 0.10777515 -0.17107826 0.24630952 0.113024205 -0.047143843 -0.075111195
-0.1696996 -0.007761296 0.015609978 -0.03985508 0.029298726 0.019026076 0.002584597 -0.037432965
0.019664088 0.019512793 -0.035407227 -0.09057103 -0.005277114 -0.008995186 -0.024151873 0.10760141
-0.014662068 -0.32639793 0.24206854 0.065216295 0.00796134 0.10046291 0.0022889634 -0.0009120887
-0.016350923 -0.07240131 -0.14870898 -0.150398 0.11837772 0.11463561 -0.06753094 0.036708586
0.13261737 -0.13666907 0.09061259 0.15399098 -0.10159666 0.07467612 0.14636025 -0.07381035
-0.054911725 0.035297778 -0.057894263 0.07313837 -0.008165228 0.06047585 0.06395093 0.026343724
0.13542937 -0.11952954 -0.0064665186 0.020056704 -0.5198707 -0.1057647 0.50016874 -0.44867483
0.13643382 0.56876427 0.018277729 -0.4102478 -0.58284855 0.2057121 0.25770742 -0.19792709
-0.076083906 0.7271977 0.24235868 -0.08557422 -0.009421159 -0.0023097496 0.043536425 -0.23171616
0.115802616 0.030265313 -0.016588546 0.040772445 0.28673348 0.24766482 -0.21761885 0.487927
0.105323605 -0.5239749 0.46954495 -0.1411543 -0.41799423 0.06294648 -0.09039158 0.0035708349
-0.14262581 -0.04983431 0.12069475 0.03893527 0.11595643 -0.29948902 0.15274413 0.21504794
0.024795305 -0.16381747 -0.054726895 -0.02330399 -0.25820076 0.00910861 0.023172772 -0.0017095354
-0.09903836 0.17090698 0.089491725 -0.035804972 0.25503948 -0.053384937 -0.37889585 -0.19882503
0.036267895 0.08448797 0.09279842 -0.061899416 -0.04168144 0.015821693 0.0707333 0.20893796
0.17100053 -0.17505933 0.05982059 0.051924627 -0.019329105 -0.04472982 0.0040054224 -0.03906427
0.06969015 0.08729243 0.024954975 0.120061755 -0.15300472 -0.22700569 0.05200335 -0.104780555
-0.14134298 0.14372396 0.13672651 -0.018967682 0.28452688 -0.0062820623 -0.4528862 -0.24697337
0.038698863 0.07894624 -0.08971937 0.02618904 0.062312305 -0.025909169 0.02230635 0.06151404
-0.17685992 -0.099051535 0.026572447 -0.024363078 0.006842246 0.020615099 -0.27056038 -0.09343979
-0.10552286 0.50102484 -0.36628407 -0.042826623 -0.04988856 0.022549724 -0.24237464 0.14041072
0.19540809 -0.19570397 0.1679113 0.2772692 -0.13844123 -0.16464145 -0.007399814 0.24234755
-0.43264833 -0.40275806 0.38789293 -0.26567873 -0.15558098 0.5547573 1.0336983 0.9002794
-0.04892615 -0.07438719 0.037738107 -0.03587053 -0.018791167 0.0326172 0.05582603 -0.06205588
-0.07633221 -0.16497128 -0.08892377 -0.07586705 -0.07916461 -0.028308569 0.08112379 -0.04055228
0.01967431 0.057150736 0.022059286 0.12262629 0.011122437 -0.1408472 -0.04738199 -0.026560336
0.011450741 0.09604634 0.018204063 -0.043427084 -0.019297762 0.005679939 -0.24802399 -0.25535798
-0.21658942 0.11313546 -0.42982364 0.06393169 -0.10491502 -0.08504505 -0.09450732 -0.089455046

layer1.0.bn1.weight f4 [8]
00000000: 58df fabe 3a05 a03e fa90 473f feb1 753f
00000010: f64a d63e 53e6 7c3f 2fcf be3e c8dd 7f3f
-0.48998523 0.31253988 0.7795559 0.9597472 0.41854066 0.98788947 0.37267444 0.99947786

layer1.0.bn1.bias f4 [8]
00000000: e78d 89be 3fa2 013f 71d4 12bf ac36 12bf
00000010: b1b7 0c3e 05d2 143e 57d4 9d3e 0e09 e43d
-0.26866075 0.5063819 -0.5735541 -0.5711467 0.13741948 0.14533241 0.30826065 0.111345395

layer1.0.bn1.running_mean f4 [8]
00000000: 599e 7bbe 9afa 9abb 9f44 4dbe aff3 42bf
00000010: 0a4f 90bf 5dfa 32bf 71c8 fe3c 53ad f1be
-0.24572124 -0.004729581 -0.20045708 -0.7615308 -1.1274121 -0.69913274 0.031101437 -0.47202548

layer1.0.bn1.running_var f4 [8]
00000000: e3b4 c43d 48fd ad3d 6441 563e 8a82 f43e
00000010: b939 163e d451 993f add5 ab3d 8359 793f
0.09604814 0.08495575 0.20923382 0.47755843 0.14670457 1.1978097 0.08390365 0.9740221

layer1.0.conv2.weight f4 [8, 8, 3, 3]
00000000: 2580 d13d f06b fcbc 5cb7 debc 6598 d3b9
00000010: f326 323c 23d4 d5bd 5c1b 1bbc ed1c 093e
00000020: 9397 e3bd 9cbb b4bd d0c1 c13e 6cbd 25be
00000030: f2fe bb3d 1ff6 c4be d838 0f3e 1117 7f3c
00000040: c97a 3c3d 948d f5bb 4c99 88bd 2511 35be
00000050: d2d4 60be 218f 8d3b 3f7f 8d3b f8bc 9ebe
00000060: 4e23 bd3c bfa3 463d 1443 dfbd ec82 a83e
00000070: 20b3 38bd 7ec8 3cbe cb83 28be 4559 27be
00000080: 6cab 0f3e c219 373a b9b2 32bd 45ca 713d
00000090: e5b1 a23d 7ed4 4bbe 49de a63d 2c31 82be
000000a0: f102 883d ce0a 933d 442a 0d3e 5223 60bd
000000b0: 1c59 a43d 5a4b 0c3d 0e63 3fbf db34 5c3e
000000c0: e313 bfbd 6a27 793f 2dda c0be 1a69 a73d
000000d0: 2de6 44be b9a2 073e 062b 8abd 913a bbbe
000000e0: fa18 ea3e 451f de3d 36e9 4f3e 7bc9 cebe
000000f0: e779 8bbd 80d4 183e 72d6 2dbd 3326 4ebd
00000100: d2e9 703f 6e12 73bf 6716 15bc cbca 24bf
00000110: 5301 143f 4790 7ebd 546d 49be e732 473e
00000120: c2e9 a4ba 78e7 f43c 500a 02bd 2791 b8bd
00000130: 1291 08be c7c0 98bd 3732 afbc 494c b2bc
00000140: 928a a2bd 8f20 19be 59b7 abbe ee8b df3d
00000150: 9fe2 5b3e c7a5 c63c f815 4cbe ee69 3c3e
00000160: bd75 ab3d 4d4b aebe ef4a 11bd 0156 273e
00000170: ddce 4c3d dd6a 3b3c 27ab 9e3c 86bd 9abd
00000180: d8d5 9f3d d88f 413e 9e2f 693e cc03 633e
00000190: 1a9b 683a c82c a9be 1d17 3cbd d16d e1bd
000001a0: 9536 4cbe ae4c 87be 051f 2fbe f773 dfbd
000001b0: 9706 48bc 67d5 293e f2e8 7a3e b617 693c
000001c0: e089 f53d fc77 123e fe1c 22be a064 e2bd
000001d0: 2f97 96bd 5ffa bfbd c21a 01be 023a 833d
000001e0: a43d fe3e fbe0 ff3d ace0 133e 1c31 853e
000001f0: 0aea 433e 0bb7 0b3e 6002 c9bd f322 b93e
00000200: 1e58 a73e adde cb3d ca77 47be 6ebf a7bc
00000210: 8692 e13d f2f3 00bf f979 08bf 9240 abbd
00000220: 3425 85bd 89f8 3fbe 642b e8bc 4e41 123e
00000230: b766 aabd edb4 94ba ed42 1ebe e6cc 56be
00000240: 5c9d 553c fb4c 27be 4594 f7bd eea4 04be
00000250: 7fe3 57be 57a2 02be cab3 2e3c 8659 45bd
00000260: 2e2e 2bbd f2ca 193e 030f 3e3e 5bac e63c
00000270: c79f d83d 0ee9 983e f51e 5e3d 10f7 73be
00000280: cc06 68be 1516 b9bd eef5 31bd 9fe2 1c3e
00000290: b554 423e 01ee ea3c f2f7 fe3d ea36 4f3e
000002a0: c6bb cb3c f707 ca3d 5283 083e b8c3 f8bd
000002b0: e30d 233e ad10 ad3d 08b7 66bc 23be a13e
000002c0: 7f0b 273e 798d 5abd 8abc 7f3e 1085 4e3e
000002d0: 169e d2bd a8f5 113e a78e c23e 9660 e0be
000002e0: d49f 72be 45ea 363e 466a 0fbf 06be edbe
000002f0: e693 d33c 10a3 23be 9d8b 32bc 2547 c1bc
00000300: db50 a23c f8bb 1abe 9ebb 2bbb bf8f 543e
00000310: 6d2c d63d fef2 533d 1742 983d 09fd 1b3d
00000320: eb65 77bd 9af0 9bbe a706 9fbd be05 753d
00000330: 5002 f4bd 6a84 9dbd 3be9 b13d a9f7 14bd
00000340: 2a87 0abe 7e2e 0d3e c6bf 383e 57ec 0ebe
00000350: c20f e4bc 6866 dc3d b45d 173e 34b8 1dbd
00000360: 2fd7 d33c f318 d6bd ae71 543d 970d 60be
00000370: ebb2 66be c885 9dbc c158 c83d 6754 1f3e
00000380: 4b83 eb3d ea89 1b3d ee44 95bd 72a0 923d
00000390: e320 f7bc bfca 163d b294 913c 42de 42be
000003a0: 1d03 233e 41fc 403d 26d0 d03d 027c 253e
000003b0: e36a 4d3e d27a e93d ad15 923e 25b6 cd3e
000003c0: c48f 77bd 6754 c6be 5e67 3cbf 63e3 1c3e
000003d0: 4b38 25be d6fa 683e 6dab b5be 30e5 66bf
000003e0: 7102 a0be 9ab4 993e d33d b53d 17ce 90bd
000003f0: 439e d8bd 14dd 63bd 61b6 e4bd a750 513d
0.1022952 -0.030813187 -0.027187042 -0.000403586 0.010873544 -0.104408525 -0.009466972 0.1338994
-0.11112895 -0.08824846 0.3784318 -0.1618554 0.09179486 -0.38469025 0.13986528 0.015569464
0.046015535 -0.007493684 -0.06669864 -0.17682321 -0.21956185 0.004320041 0.0043181474 -0.31003547
0.023088124 0.048496004 -0.10901466 0.32912385 -0.045092702 -0.18435857 -0.16456525 -0.16342647
0.14030236 0.0006984734 -0.043627474 0.05903079 0.07944087 -0.19905278 0.08147866 -0.2542814
0.06641186 0.07179795 0.13785654 -0.054721184 0.08024809 0.03425155 -0.7476052 0.21504538
-0.09329965 0.97325766 -0.37666455 0.081743434 -0.1922843 0.13245668 -0.06746487 -0.3656812
0.4572218 0.10845808 0.20303807 -0.40388092 -0.068103604 0.14924812 -0.04244084 -0.0503294
0.9410678 -0.94949996 -0.009099579 -0.6437194 0.5781452 -0.062149312 -0.19670612 0.19453011
-0.0012581872 0.02989553 -0.031748116 -0.090120606 -0.1333659 -0.07458644 -0.021386249 -0.021764891
-0.079365864 -0.14953826 -0.3353832 0.10915361 0.21473168 0.02424897 -0.19930255 0.18399784
0.08372066 -0.34041825 -0.035471853 0.16341402 0.050001968 0.011439052 0.019368721 -0.0755568
0.07804459 0.18902528 0.22772071 0.22169417 0.00088732096 -0.33041978 -0.04592048 -0.11007274
-0.19942696 -0.2642569 -0.17101677 -0.109107904 -0.012208602 0.16585313 0.24502924 0.0142268445
0.11989188 0.14303583 -0.15831372 -0.11054349 -0.07353055 -0.09373926 -0.12607864 0.064075485
0.49656403 0.124940835 0.14441174 0.2601403 0.19132248 0.13644044 -0.09814906 0.36159477
0.32684416 0.099545814 -0.1947929 -0.020477023 0.11014275 -0.5037223 -0.53311116 -0.08361925
-0.065012366 -0.18747152 -0.028341003 0.14282724 -0.083203726 -0.0011345424 -0.15455218 -0.209766
0.013038006 -0.1633796 -0.12088827 -0.1295354 -0.21082877 -0.1275724 0.010662982 -0.04818108
-0.041792087 0.15018824 0.18560414 0.028158357 0.1057735 0.29865307 0.05422874 -0.23824716
-0.22658843 -0.09037415 -0.043447427 0.15320824 0.18977626 0.028677942 0.124496356 0.20235792
0.02486981 0.098648004 0.13331345 -0.121467054 0.15923266 0.08450446 -0.014081724 0.31590375
0.16312979 -0.053357575 0.24974266 0.20167947 -0.10284059 0.14253867 0.3799946 -0.4382369
-0.23693782 0.17862804 -0.56021535 -0.4643404 0.02582736 -0.15980172 -0.010897544 -0.023593495
0.019813946 -0.15110767 -0.0026204358 0.2075796 0.10457692 0.051745407 0.07434481 0.03808311
-0.06039993 -0.30457002 -0.07764941 0.05981993 -0.119145036 -0.076912716 0.08687063 -0.036369
-0.13528123 0.13787267 0.18041906 -0.13957344 -0.027839545 0.1076172 0.14781839 -0.038505748
0.025859443 -0.104539774 0.051866226 -0.21880184 -0.2252919 -0.019228831 0.097825535 0.1555954
0.114996515 0.037973322 -0.07288538 0.07159509 -0.030167049 0.036814447 0.017771099 -0.19030097
0.15919156 0.047115568 0.10195951 0.16160586 0.20060305 0.11400379 0.28532162 0.40178028
-0.06043984 -0.3873627 -0.73595226 0.15321116 -0.16134755 0.22751936 -0.3548235 -0.9019346
-0.31251863 0.300206 0.08849683 -0.070705585 -0.10577061 -0.05563076 -0.111675985 0.051102307

layer1.0.bn2.weight f4 [8]
00000000: 785b 693f 11e8 d13e 0b94 f33e 8335 f73e
00000010: 355d ed3e d44d 5a3f 4e8f e93e 7b3a 1e3f
0.91155195 0.40997365 0.47573885 0.48283014 0.46360174 0.85275006 0.45617145 0.61807984

layer1.0.bn2.bias f4 [8]
00000000: 71e1 04be 9f0e 823f 7d92 b6bd e7a4 b33f
00000010: d053 293f fd09 cabe bf7c 623f 5f14 2d3f
-0.12976624 1.0160712 -0.08914659 1.4034699 0.6614351 -0.39460745 0.884716 0.6760921

layer1.0.bn2.running_mean f4 [8]
00000000: 86b5 13be 9ecf 80be eba9 883d 9bea 32bf
00000010: 7c1f 6dbe 08c1 51bf 74c7 fc3d 9495 aa3c
-0.14424714 -0.251584 0.06673034 -0.6988923 -0.23156542 -0.8193517 0.1234273 0.020823278

layer1.0.bn2.running_var f4 [8]
00000000: 2495 d43e 61a9 763e 6202 763e 15be 8d3e
00000010: ab42 6d3e da12 e33e c2cc d03e 12c1 f23e
0.41520035 0.2408805 0.24024346 0.27684084 0.23169963 0.4435032 0.40781218 0.47412926

layer2.0.conv1.weight f4 [16, 8, 3, 3]
00000000: e703 1cbc e266 d1bc 7394 213b 5f57 733d
00000010: 5d7a 8a3d 5eb5 4a3d 0d70 503d 7ec0 c23d
00000020: 0d6e 683d b305 403e 9097 a83d fce7 4dbe
00000030: 174c 87be 7ec6 5ebe 440b a0be 7297 18bf
00000040: fb91 e2be c100 84be 88ae 4dbe d518 6a3d
00000050: 56e5 353e 362c 4a3c 0e73 6e3d 446f 2a3b
00000060: 07b2 453e 1fbe dbbc 210e 98be 937e 99bd
00000070: 3e13 8d3d 60e5 a93c 97c4 11bb 0c87 ae3d
00000080: 3798 c53d 684c 093c 9cfc 4c3d dd2b 313b
00000090: 09c7 963d ff26 b0bc 476c 153d 754d 523e
000000a0: f14e f0bd 08df 27bd 1e60 383e 6f71 05be
000000b0: 123a 2e3d 894e 763d 5ada f93c dd53 2ebd
000000c0: c68f 603c 6316 163d 45bf ae3d 994d c7bd
000000d0: 5209 a6bd dcfc c93d c62f 803c ddb2 8bbc
000000e0: 5315 6fbd 658e c3bd a070 d7bd e09d febd
000000f0: 6a77 acbc cf63 4bbd ee46 5d3c 2dfa 2abe
00000100: da5b ea3d f855 923e 887e 993e 7639 9c3e
00000110: 60c1 7f3e 0adb 063f da1d b53e f396 923d
00000120: 7dff 903c 5ee8 9cbc d839 f3bc b4c7 c73c
00000130: dd1e 81bc 87c7 95bd da0d c73c 2abf 4d3d
00000140: f65d 4d3a 7e4e 2dbd 2a84 d2be 8c92 a53c
00000150: de03 af3e 6e7e 00be ce65 86be bade 4e3e
00000160: 4852 6c3e 9631 75be 64a8 24bd 2fde e33e
00000170: 3462 f9bd a36b 8bbe b6ca 4f3e 465c 9b3e
00000180: ab18 a6be 4949 72be 2edf 173e e23b 0c3e
00000190: 4418 ce3d 3196 3bbc a75e cb3d b111 153e
000001a0: c076 f3bd fe8b d5bc 7e30 a23d fa5f acbc
000001b0: 2936 f83c 72c0 9ebd 660e 44be 9936 0a3e
000001c0: beba 27bd 8a3a 07be dd5e 1b3d e8aa 093e
000001d0: f0f6 403e 1271 14bd a980 60bd 6880 5fbd
000001e0: 272e 443c c8e8 f53d b469 8c3d c1ee 91bd
000001f0: 6381 853d 6735 1c3e 025c c1bd 72bd 3bbd
00000200: f726 abbd e6f0 3a3e 10cb 273e 87ea 203e
00000210: b562 753d e02d cfbd cd27 01be 0d45 85bd
00000220: b1d2 cf3e 3066 123d 6bca 0fbf a71e 5a3e
00000230: 05f3 a63e ca06 93be 9481 a8be 106f 6d3e
00000240: a7cc 1d3d 8ad0 5d3d 4924 33bd 021d f63b
00000250: 6718 ce3d a0ea b8bb 6c66 763d 3464 d73d
00000260: 9d7a 023d 5aae bc3d f12f 213c eeaa d73d
00000270: 8d60 a3bd f87d 38be bffb 6bbd 5a6a 583c
00000280: e546 db3d 29fe acbc b437 3cbd 9dfb 953d
00000290: 1d92 493d ac99 87bd b19f 8ebd dd07 0dbe
000002a0: 689f ca3d 7111 67bd 2d4e f43d 56d1 163d
000002b0: b1cb cdbd 890c a6bd 9fae e13e 4e7c 573f
000002c0: 91a9 233f c2b8 b4be 529e 44bf 2fb6 32bf
000002d0: a823 33bd 97b3 d3bc 88dd 5abd 2a19 a8bc
000002e0: 8dfd a63c 0056 a83c eaaa 81bc 0231 44bc
000002f0: 5655 dd3c 43b2 38bd 19c0 2dbc ff81 21bd
00000300: ef3e 83bc 4d67 c4bc 71cc 0bbc 4b88 b8ba
00000310: 8ce0 80bb 285f e73c c7a6 69bd 44bb 85bd
00000320: a587 1a3d 4b9b 743b b391 43bc 72bd 31bd
00000330: 1e00 9fbb b8ab 613b 5773 d33c c9f5 713d
00000340: fe69 e73c 5dce 933d 8bd4 26be e1a7 9cbe
00000350: e382 c4bd 4443 45bc e86c 873e 275c 9c3d
00000360: b693 0a3b 3ff5 db3c f74a a9bc ea5a b23c
00000370: 76ad ce3c 5ef1 c1b7 a695 9ebc f24c 72bd
00000380: 7ca6 5bbd 475c 083d 4b35 94be ad4c ddbd
00000390: c302 a23d e91b 24be c2c7 933d 5cb4 183e
000003a0: 9961 433e 0ba7 813d 5a0d bb3e 926d 843e
000003b0: d942 7c3e 4e3a df3b 748d b03c 7f93 79bc
000003c0: f66f d5be cc27 a6be 24b6 c9be cdb7 613d
000003d0: 30a2 0a3e 223a d6bb fa95 88bd aeb9 193c
000003e0: f83d 123e cf4b 83bd 5ab7 27bd b4b8 593d
000003f0: d1e6 11be 1c43 e6be 68a1 d0be 4b80 a93d
-0.009522415 -0.025561754 0.0024655133 0.059409495 0.0676162 0.04948937 0.05088811 0.09509371
0.056745578 0.18752174 0.08232033 -0.20108026 -0.2642524 -0.21755406 -0.31258595 -0.5960609
-0.44252 -0.25781825 -0.2008611 0.057152588 0.17763266 0.012339642 0.058215193 0.002600626
0.19306193 -0.026824055 -0.2969828 -0.07494845 0.06888436 0.020739257 -0.002224242 0.08521852
0.09648173 0.008380033 0.050045595 0.0027034201 0.07362182 -0.02150297 0.036480214 0.2053736
-0.11733807 -0.040984184 0.18005416 -0.13031553 0.04253585 0.06013349 0.030499626 -0.042560447
0.013706153 0.036642443 0.085325755 -0.097315975 -0.081072465 0.09862682 0.01564778 -0.017053062
-0.058369946 -0.09548644 -0.105195284 -0.12432456 -0.021053035 -0.04965573 0.0135056805 -0.16696997
0.114433005 0.28581214 0.29979348 0.3051259 0.2497611 0.5267798 0.35374337 0.071576975
0.017699951 -0.01915377 -0.029690668 0.024387218 -0.015761787 -0.073134474 0.024298597 0.050231136
0.00078341307 -0.042311184 -0.41116458 0.02021148 0.34182638 -0.12548229 -0.26249546 0.20202151
0.23078263 -0.23944697 -0.040199652 0.4450545 -0.12176934 -0.27230558 0.20292172 0.30343837
-0.32440695 -0.23660769 0.1483123 0.13694718 0.10063222 -0.011449383 0.09930163 0.1455753
-0.11887884 -0.02606773 0.079194054 -0.021041859 0.030299263 -0.0775155 -0.19146118 0.1349739
-0.040949576 -0.13205925 0.037932266 0.13444102 0.18844199 -0.036240645 -0.0548102 -0.054565817
0.011973894 0.1200729 0.06856099 -0.07125617 0.06518819 0.15254746 -0.09441377 -0.045834966
-0.08357041 0.18255958 0.16386056 0.15714465 0.059908587 -0.10116172 -0.12612839 -0.06507311
0.40590432 0.035741985 -0.5616824 0.21300755 0.32607284 -0.28716117 -0.3291136 0.23186898
0.03852525 0.054153956 -0.043735776 0.007510782 0.10063248 -0.005643204 0.06015627 0.10517159
0.031855214 0.092129424 0.00983809 0.10530649 -0.079774 -0.18016803 -0.05761313 0.01320895
0.107068814 -0.021117287 -0.04595156 0.07323382 0.04921161 -0.066211075 -0.069640525 -0.13772531
0.098936856 -0.056413118 0.11928973 0.036820732 -0.10048617 -0.0810786 0.44078538 0.8417405
0.6393061 -0.3529721 -0.7680408 -0.6980924 -0.043735176 -0.025842471 -0.053433925 -0.020519812
0.020384574 0.02054882 -0.015828568 -0.011974575 0.02701823 -0.04509188 -0.010604882 -0.039430615
-0.01602122 -0.023975039 -0.008532629 -0.0014078704 -0.003933018 0.028243616 -0.057043817 -0.06529859
0.037727017 0.0037324007 -0.011936593 -0.04339356 -0.004852309 0.0034434628 0.025811834 0.05907229
0.028248783 0.07217095 -0.16292016 -0.3059683 -0.09595277 -0.012039963 0.26450276 0.07634764
0.0021145171 0.02685034 -0.020665629 0.021771867 0.025229197 -2.3119788e-05 -0.019358467 -0.059155412
-0.05362557 0.033291128 -0.2894691 -0.1080564 0.07910683 -0.16026272 0.07215835 0.14912552
0.190802 0.06330689 0.36533624 0.25864846 0.24634875 0.0068123704 0.021551825 -0.01523292
-0.41686982 -0.32452238 -0.39396775 0.055106927 0.13538432 -0.0065376917 -0.06669231 0.009382648
0.14281452 -0.06410944 -0.040946342 0.053154662 -0.14248206 -0.44973075 -0.40748143 0.08276423

layer2.0.bn1.weight f4 [16]
00000000: 3643 073f 5b7e 013f 682b 403f 4b7c d63e
00000010: 0313 243f 832f 153f e7d4 2e3f 3f77 233f
00000020: 009c 1f3f 1919 3a3f 99ec 183f 2578 2a3f
00000030: 9fcb f93e e543 c23e 9f42 393f a87f 823f
0.5283693 0.5058343 0.7506623 0.41891703 0.6409151 0.5827562 0.68293613 0.6385383
0.6234741 0.72694546 0.5973602 0.66589576 0.48788163 0.37942424 0.7236728 1.0195208

layer2.0.bn1.bias f4 [16]
00000000: 29df b93d 83cf fcbc 99c0 34bd d565 1a3f
00000010: e532 75bd f46e ce3d 5ede 77bd 3bd2 233d
00000020: c165 003d 3c56 90bd 62d0 123d bd9c 11bc
00000030: 0be5 943e 4ed9 943f 9109 883c 5b47 8fbf
0.090757675 -0.030860668 -0.044128988 0.60311633 -0.05986299 0.100797564 -0.0605148 0.039995413
0.03134704 -0.07047698 0.03584326 -0.008887467 0.29080996 1.1628816 0.016606124 -1.1193651

layer2.0.bn1.running_mean f4 [16]
00000000: 776c 3dbf 2708 1e3f c64b dabe 6f92 013f
00000010: fe89 94bd 37f4 ebbf 180c dcbf f71b ccbf
00000020: d8e1 bd3f 6fd1 a5be 9dce 12be 41de f1be
00000030: fe9c c13c 6202 f63f 81b2 90be 6781 933f
-0.7399363 0.6173119 -0.42635936 0.50614065 -0.072528824 -1.8433903 -1.7191191 -1.5946034
1.4834547 -0.32386348 -0.14336629 -0.4723988 0.02363443 1.9219477 -0.28261188 1.1523865

layer2.0.bn1.running_var f4 [16]
00000000: bdeb 833f 81d8 b43e 49d5 e13f c9c6 c83e
00000010: f178 9d3f c12e 863f d655 aa3f a144 a93f
00000020: e741 713f 0c03 a03f a0b7 893f 7c38 bb3f
00000030: 8c08 743f ad52 cd3f 6e03 c83f 2781 f03e
1.0306317 0.3532143 1.7643214 0.3921416 1.2302533 1.0483018 1.3307445 1.3224069
0.94241184 1.250093 1.0759163 1.4626613 0.9532554 1.6040856 1.5626047 0.46973535

layer2.0.conv2.weight f4 [16, 16, 3, 3]
00000000: 2e97 863e f549 e13e 82a2 d33e 4ba4 553e
00000010: 6a18 183f 29ed 0a3f 4c3b dd3e 3870 8f3e
00000020: 4afd b23e 5cec 513d f5fe bc3d a791 af3d
00000030: fa18 a13d 85cf a83d 592f 033e e658 4e3e
00000040: 749d a73d 4be1 d43d 88fd 9dbc 2e75 653c
00000050: 4eb0 92bd 0b11 6e3d 7770 133e 426e a23d
00000060: 0ee4 ce3c 87ee f2bc 9cc2 16bd 9f28 26bc
00000070: be6c fabd 251d b7bd 4611 d83c 856d 9bbd
00000080: cb81 b2bd f2d5 da3c f833 c73d 7205 043d
00000090: e81e b1bd eb95 133d 5a6c 913c 694e 00bd
000000a0: aab8 5dbd 6326 753c 982b f0bc cf51 66bd
000000b0: ee9d b7bd f804 093d 7d69 2ebc cdb9 90bc
000000c0: c066 29bc 3e76 e3bd 664d b53b d54f cfbc
000000d0: e556 66bd 7ef3 b3bc 68bf 073c c3e3 803d
000000e0: d8d5 8f3d 749d 27bc 715e 2ebb 048c 553c
000000f0: d230 1b3c da08 b9bc d77a 7fbc c1a7 b6ba
00000100: 2e0c 3d3d 4881 1f3d c283 15bb ae17 ab3c
00000110: abe8 643d bd58 5d3c 4d7f b4bc a0de 8abd
00000120: fc28 45bd 37a3 0e3d d132 87bd 5e65 21bd
00000130: 08d8 e53d c43a 6f3c 7ee0 8a3b e0a5 1bbd
00000140: 5564 b1bd 2f73 203d a513 6e3d e861 743c
00000150: 9a6e c53c 2e2d 2c3d 4272 f03c 21c3 6abd
00000160: 5c13 80bc d4ec cb3c 1ccc 85bc da5b 433b
00000170: 80a7 02bd c6da f6bd 9227 cdbd 03c7 d4bc
00000180: d0de a8bd d1a9 a4bd adf1 55bd 04c5 d53b
00000190: 94ac f33c 0ea7 60bd 20bb 52bb e890 4d3c
000001a0: 7d92 ad3d 4325 a53d 6e7f 993c a9d3 df3c
000001b0: 5c81 d6bc a09e 63bd 69d3 25bd a1f6 01bd
000001c0: 1fa2 13be 379f 1abd f383 78bd e2b8 cdbd
000001d0: 7c46 93bd dd66 f9bd 0b18 003d 11a6 81bd
000001e0: 391e 9abd 0ef0 7a3d 8d66 523d 8a04 293c
000001f0: fb18 86bc 5b19 773d c33f ef3c bad9 4cbc
00000200: 59d5 c53b 277c acbb df1d a73d c371 8d3d
00000210: d268 acbb 106f 9abc 806a 40bc 0717 4fbd
00000220: 41c8 19be b859 d03c 5139 16be b866 cabe
00000230: 465a 40bd bbde b33b 5d16 51be e4d3 2a3e
00000240: f242 be3d fc6a 2fbe 69ec 5d3d ff4b 993d
00000250: 061f 16bd bcd6 73bd 087e 823d 8612 3dbd
00000260: 57b9 41bc 219a 1abc b562 283d ea2b 2d3d
00000270: 334c 953d 66e5 5f3e 7dba 693d d661 313e
00000280: 09cf b03d 8c72 963d ce4d ad3d 4f3b f93b
00000290: 0732 e03c c5b9 6d3b 50ea 25be 5ab9 0abd
000002a0: 3e32 a03d 718d 12be 3a95 54bb 1597 06bd
000002b0: 32f9 4abd 8cd2 c53b 3e65 2dbd 2d16 90bc
000002c0: 5cd4 de3d 5c43 5bbd da2c 39bd 467b 6f3d
000002d0: 37b7 57be 910b 92bd 83dc 9b3c 4b21 17be
000002e0: a23f 4bbe 7b81 68be 9612 efbd ef22 7cbe
000002f0: aac3 7bbe a33a 8f3d ef1c 44bd d518 20bd
00000300: dab9 9fbd 1d05 dbbc 2083 43bc a8c9 f73d
00000310: cbdb 353e 5b70 d13d 9b1f a8bc e9a5 ca3d
00000320: e864 2eba 8940 bd3c 708c 953d 2b6e 11be
00000330: 6436 b8bc f180 86ba 9305 cebd 8537 f13c
00000340: f3c7 31bd fc95 703e bb79 0fbc 0c29 51be
00000350: 1750 13bd 605d 453e 3a50 e53d 833b 153e
00000360: a7ec a03d 8b2d 693d 4642 933d 6b1f a13c
00000370: f4e6 10be 46c7 aa3c 1755 083e 316d 5ebe
00000380: 0c57 f93d 974d aa3d aa6b ac3d 1852 b63c
00000390: 8f29 c83b d21a af3a edf5 bfbc 2adf e53b
000003a0: 6bf0 133e 4d8c f63d 3d9e 5cbd d361 35be
000003b0: f242 66bb 50fa 8dbe 1122 e1be 5654 10be
000003c0: d1e0 93be 106e bbbe 4f14 63be fae6 143e
000003d0: 35b0 59bc b80d ccbd fbb2 413d 7697 49bd
000003e0: 5049 f43c 6ab9 eebc 2767 5bbe bfa0 1bbe
000003f0: 97ab b03c 2e89 8dbd f3dc 1ebd 9383 7fbd
0.26287216 0.44001737 0.4133492 0.20863454 0.5941225 0.5426813 0.43209302 0.28015304
0.3495887 0.0512508 0.09228317 0.08572703 0.07866092 0.08242706 0.1281103 0.201511
0.08184329 0.10394534 -0.019285932 0.014004989 -0.07162534 0.058121722 0.1439837 0.07931186
0.02525523 -0.029654754 -0.036806688 -0.010141521 -0.12227772 -0.08941106 0.026375424 -0.075892486
-0.08716162 0.026713345 0.09726709 0.032231756 -0.08648473 0.036031645 0.017751861 -0.031324778
-0.054131187 0.014962765 -0.029317662 -0.056230363 -0.089656696 0.033452004 -0.010645268 -0.017666722
-0.010339439 -0.11106537 0.0055329083 -0.025306622 -0.056235213 -0.021966692 0.008285381 0.06293442
0.07023209 -0.010230411 -0.0026606584 0.013033871 0.009472089 -0.022587229 -0.015593252 -0.0013935493
0.046154194 0.03894165 -0.002281413 0.020885315 0.055885952 0.013509926 -0.022033358 -0.067807436
-0.04813479 0.034823623 -0.06601489 -0.039403312 0.11222845 0.014601413 0.0042381873 -0.037999988
-0.08661715 0.039172348 0.058124203 0.014915921 0.02410059 0.042035274 0.029351357 -0.057314996
-0.015634231 0.024893202 -0.016332678 0.0029809386 -0.03189802 -0.120534465 -0.10017313 -0.025973802
-0.08245623 -0.080402024 -0.052232433 0.0065237302 0.029745378 -0.054846816 -0.0032154992 0.012546755
0.08475206 0.08063748 0.018737521 0.027322607 -0.02618473 -0.0555712 -0.04048482 -0.031729344
-0.14417313 -0.037749495 -0.06067271 -0.10045029 -0.07191178 -0.12177823 0.03127293 -0.06330503
-0.07525296 0.06126409 0.05136733 0.010316024 -0.016369333 0.060326915 0.029205209 -0.012503082
0.006037396 -0.0052638236 0.08159994 0.06906464 -0.005261519 -0.018851787 -0.011744142 -0.05055907
-0.15017797 0.025433406 -0.14670302 -0.39531493 -0.04696109 0.005489198 -0.20418687 0.16682392
0.092901126 -0.17130655 0.054180536 0.07485198 -0.03665068 -0.05953096 0.06371695 -0.046160243
-0.011823974 -0.009436161 0.04110976 0.042278208 0.072899245 0.21864852 0.057062615 0.17322478
0.08633239 0.07346067 0.08462106 0.007605947 0.027367605 0.0036274057 -0.16202664 -0.03386817
0.07822083 -0.14311768 -0.0032437579 -0.032858927 -0.049554057 0.006037062 -0.04233288 -0.0175887
0.10880348 -0.053531036 -0.04520879 0.058467172 -0.21065985 -0.07131112 0.019026047 -0.14758794
-0.19848493 -0.22705643 -0.11673467 -0.24622701 -0.24586359 0.06993606 -0.047879156 -0.03908618
-0.0779912 -0.026735837 -0.011933118 0.1209901 0.17759626 0.10226508 -0.020522883 0.09894926
-0.00066526094 0.023102062 0.07302177 -0.14202182 -0.022486873 -0.0010261816 -0.10059657 0.02944542
-0.043403577 0.23494714 -0.00875705 -0.20425814 -0.03596505 0.19273901 0.111969426 0.14573483
0.07857638 0.0569282 0.07190375 0.019668302 -0.14150602 0.020846974 0.13313709 -0.2172134
0.12174806 0.0831558 0.08418973 0.022255942 0.00610847 0.0013359434 -0.023432696 0.0070151286
0.14447181 0.12038479 -0.053861845 -0.17713098 -0.0035135117 -0.27730036 -0.43971303 -0.14094672
-0.2888246 -0.3660741 -0.22175716 0.14541236 -0.01328664 -0.09963554 0.04728983 -0.04921671
0.029820114 -0.029141147 -0.21426068 -0.15198039 0.021566195 -0.069109306 -0.038784932 -0.06238134

layer2.0.bn2.weight f4 [16]
00000000: 421b 0b3f 87b5 903f 4abd fb3e e672 523f
00000010: 2e37 963f ac76 bb3e 8a44 2d3f f6a5 ef3e
00000020: d0b2 073f e2cf fc3e dc4f 943f eb86 153f
00000030: 307a 123f 7387 0a3f de44 1c3f 8bad dd3e
0.5433847 1.1305398 0.49167854 0.8220657 1.173559 0.36613977 0.6768271 0.46806306
0.5300722 0.49377352 1.1586871 0.58408993 0.57217693 0.5411293 0.61042583 0.43296465

layer2.0.bn2.bias f4 [16]
00000000: f4e7 673e aade 963b e623 e9bd e890 a5bd
00000010: 853e 6bbe 92b4 323d 9dc5 50bc 322c 31be
00000020: ac47 58bc 04f8 193f 925e ffbd bdc3 d63e
00000030: 620e cd3e ceae 013f 8a91 c03e 4659 493e
0.22647077 0.0046041803 -0.113838 -0.08084279 -0.22973068 0.043629237 -0.012742427 -0.17302015
-0.013200682 0.60144067 -0.1246921 0.4194621 0.40050036 0.50657356 0.37611037 0.19662961

layer2.0.bn2.running_mean f4 [16]
00000000: 2c44 b33e 2b47 2cbf d15e 41be faae 8cbb
00000010: 5d3b 45bf cf9c 00bf daf2 323f ecdc 75be
00000020: 37fc 3c3f c72a 10c0 8ec6 72bf e0e3 863f
00000030: 7282 b03f 9a83 3040 77b6 393e 6a28 683e
0.3501295 -0.67296094 -0.18883826 -0.00429332 -0.77043706 -0.5023927 0.6990181 -0.24010056
0.7382235 -2.252611 -0.9483422 1.0538292 1.3789809 2.7580323 0.18136011 0.22671667

layer2.0.bn2.running_var f4 [16]
00000000: b7b5 883f a8dd 833f c045 8d3e 78b7 ed3e
00000010: 5b63 0c3f 0e6d 513e 87c3 3b3f 42a4 363e
00000020: a779 9b3e 4962 143f bfdf 4c3f ea29 643f
00000030: aa0a 6a3f 80f3 873f f4bf 603f f549 9c3e
1.0680455 1.0302019 0.27592278 0.46429038 0.54839104 0.20451757 0.73345226 0.17836097
0.3036625 0.5796247 0.8002891 0.89126456 0.9142252 1.0621185 0.877929 0.30525175

layer2.0.shortcut.0.weight f4 [16, 8, 1, 1]
00000000: 4c48 933c 4b2d a8be bee8 ee3e 5fb8 2cbe
00000010: 64b0 043c 1975 91bd 3733 0ebd b3ca b03d
00000020: ea08 95bd b857 b13d b199 683d f439 6fbe
00000030: 8098 0c3e 0820 25be b4bb 863d 71ae 45bd
00000040: 337c bbbb acac 233e 120a 1c3f 2a3f 2e3e
00000050: 4cf8 37bf 8085 1c3d 2141 25be 966b 673d
00000060: 600b 33bd a8c5 72bd cdcd 463e af04 92bd
00000070: 0bb6 19be 5ef2 37be f3a1 a53e 26e8 d63d
00000080: 78d5 b7be a292 ba3d 1abc fc3d ed58 a6be
00000090: f225 6f3d d28d 65bb 3d2d 44bd 2a90 433e
000000a0: 2ca3 1c3c fe09 293f e784 2bbe 67fb 10bd
000000b0: cafa 65be 6966 813c 0cb8 363e 23b4 08bf
000000c0: 251d 28be 5af8 51be 26e0 2b3e 2986 03bf
000000d0: 7db1 86bd 325c 873e cc06 bd3d 0261 2ebd
000000e0: 4f58 bbbc 56d1 d7be be40 f6be cc77 2fbd
000000f0: 89a7 e83e 711f ab3c ef07 6ab8 855e 123e
00000100: 5323 d5bd 0699 2cbd 1e72 01bd 59e7 9f3d
00000110: 6948 373c a67d 133e 9603 b43e c5ba c83e
00000120: b62e 19be 7be8 613e c310 7abe 052b a03e
00000130: debf b3bd cc01 07bc ce23 3c3d 6565 4b3e
00000140: 63c3 2a3b 6085 ff3c b921 04be 60c0 5fbe
00000150: 7946 54bd 0118 c6bd 99d6 bfbe f092 0bbe
00000160: 7e76 eb3d 3b46 abbc 38d6 4e3e 76d0 bd3e
00000170: 0120 ac3d 8872 bf3d 97f8 2b3d 809f 9ebd
00000180: f8b8 07bd 6ba2 f6bd dc00 a83c 925b 9cbd
00000190: fe4f 89bd 81b1 8fbe 1094 4e3d 8b6c 44bd
000001a0: 40dd bbbc 9262 5b3e aba0 4f3d 6866 74bd
000001b0: 63c2 bb3d 0ac0 3abe efc9 e33e 1106 ab3d
000001c0: 295e 1f3b a0f6 3b3d d6a9 f63d 86ff 353e
000001d0: 9890 823d 4f03 023d 1ce6 183d cc75 f0bd
000001e0: 0fbb f33b 5eb2 fe3d 0bff 10bd 107e 083f
000001f0: 2010 163e 535a aebd 06d6 313e 425a c13e
0.01797881 -0.32847056 0.46661943 -0.16867207 0.008098695 -0.07102413 -0.03471681 0.08632412
-0.07277091 0.08659309 0.056787197 -0.23361951 0.13730049 -0.161255 0.0657877 -0.048262063
-0.005721593 0.15983838 0.60952866 0.17016283 -0.71863246 0.038213253 -0.16138126 0.056499086
-0.04371202 -0.05927053 0.19414444 -0.071297996 -0.1501085 -0.1796355 0.3235012 0.104934976
-0.3590505 0.09109999 0.12340565 -0.3248972 0.058385797 -0.0035027158 -0.047894705 0.19097963
0.009560388 0.6603087 -0.16749917 -0.035396006 -0.2245895 0.015795903 0.17843646 -0.53399867
-0.16417368 -0.20504895 0.16784725 -0.5137659 -0.06576822 0.26437527 0.09229812 -0.042572983
-0.022869257 -0.42151898 -0.4809627 -0.042838857 0.4544032 0.020889016 -5.5797336e-05 0.14293869
-0.10407128 -0.042138122 -0.03160297 0.07807798 0.0111866975 0.144034 0.35158986 0.39204994
-0.14959225 0.2206134 -0.24420457 0.3128282 -0.0877683 -0.0082401745 0.045932584 0.19862898
0.00260564 0.031191528 -0.12903489 -0.21850729 -0.05182502 -0.09672547 -0.37468413 -0.13630271
0.1149721 -0.020907512 0.20198905 0.37073106 0.08404542 0.09348017 0.04198512 -0.07745266
-0.033135384 -0.120426975 0.020508222 -0.07634653 -0.067047104 -0.28065112 0.050434172 -0.047955077
-0.022932649 0.2142432 0.050690334 -0.059667975 0.09167936 -0.1823732 0.4449 0.083507665
0.0024317598 0.045889497 0.120441124 0.17773256 0.06375235 0.031741437 0.037328824 -0.11741218
0.0074380706 0.124363646 -0.035399478 0.53317356 0.14654589 -0.08513322 0.173668 0.37764174

layer2.0.shortcut.1.weight f4 [16]
00000000: 8a78 503e 073e 953d 79e7 333f 4cb9 2e3e
00000010: a390 cf3e 4309 243f c47e d63e 3218 153f
00000020: 80ec af3e 6408 413e 7d7f ae3e 8ba3 083e
00000030: 1194 823d 9db4 063e 8ca5 423d 2ec3 103f
0.20358482 0.072872214 0.70275074 0.17062873 0.40540037 0.6407663 0.4189359 0.58240044
0.34360123 0.18850857 0.3408164 0.13343637 0.06375898 0.13154836 0.04752116 0.5654782

layer2.0.shortcut.1.bias f4 [16]
00000000: f4e7 673e aade 963b e623 e9bd e890 a5bd
00000010: 853e 6bbe 92b4 323d 9dc5 50bc 322c 31be
00000020: ac47 58bc 04f8 193f 925e ffbd bdc3 d63e
00000030: 620e cd3e ceae 013f 8a91 c03e 4659 493e
0.22647077 0.0046041803 -0.113838 -0.08084279 -0.22973068 0.043629237 -0.012742427 -0.17302015
-0.013200682 0.60144067 -0.1246921 0.4194621 0.40050036 0.50657356 0.37611037 0.19662961

layer2.0.shortcut.1.running_mean f4 [16]
00000000: 4b34 c9be b6c9 2abe 75f2 6b3d adfb 703e
00000010: b08c 9fbe 2e12 783e fac2 6bbf dced acbe
00000020: e610 613f 4a3d 413f 35a9 8abf 6924 553f
00000030: b221 c7be 52e6 573f 1fc8 e03e 5207 d33f
-0.3929771 -0.16678509 0.057604272 0.23533507 -0.31162024 0.24225685 -0.92094386 -0.33775222
0.8791641 0.75484145 -1.0832888 0.8325868 -0.38892895 0.84335816 0.4390268 1.6486609

layer2.0.shortcut.1.running_var f4 [16]
00000000: 8e37 e73d b3ce 383d b1a6 103e 5035 2b3d
00000010: 5e0c dd3d bc91 3d3e 05a3 1a3e 8106 bf3d
00000020: 4254 0a3e deae dd3d 04f8 ce3d 9381 9c3d
00000030: 661c c53c 0b20 7c3d 2301 a23c 923b 503e
0.11289893 0.045119 0.14126088 0.04179889 0.107933745 0.18512625 0.1510125 0.093274124
0.13508704 0.10824369 0.10105899 0.07641902 0.024061393 0.061553996 0.019775933 0.20335224

layer3.0.conv1.weight f4 [32, 16, 3, 3]
00000000: e1e0 fd3c 94ee 16be 950c 33bd 86c2 cb3d
00000010: 0b72 bf3c 3f96 0dbe e5bd 013b a82d 5b3e
00000020: 11fa 0ebd bc57 653c 03f7 36be 3373 543c
00000030: 1b92 a63c dc25 c5be 21a8 bbbe d60f 293e
00000040: 757f 753d dc04 95bd d801 27bc 49e1 6ebd
00000050: 979d 8a3d f2cb d4bb 8572 9ebd a99d 59bd
00000060: 2c38 0c3d 3ed5 78bc f6cb f1bd 0af0 393d
00000070: bdf8 28bb cdd6 0fbb 84f2 8f3d 0201 693d
00000080: 3a1f 1b3d 96a6 793c ac32 cd3d b20b 0c3d
00000090: 45e0 46bd 84aa 573d ac2a 203d 6c48 68bc
000000a0: aa02 913d 92fd 193e 7cd3 f43b 1c7c 823b
000000b0: 58c1 d93d ab6c 76bd 18ba a1bd 03de c6bc
000000c0: 668a 8bbd f10f c3bd c579 8dbd 8f7f 8eba
000000d0: 258f 3cbd dec2 9abd 0961 05be 7aed 70be
000000e0: c1d1 eabd 766e 2abe 66c5 e6be 385b cabe
000000f0: 403e e4bc 4a19 96be 04ec b8be 4156 dbbc
00000100: 5643 973b 8201 253d 3f88 d5bc 0f2b f13c
00000110: dcd5 f738 bd0d 08bd a077 11bc 2a51 eb3b
00000120: e8d0 853c 3d14 3dbb 5e95 86bd 6677 183c
00000130: 7144 c33c 3337 443c f29d 8abc e7ff 46bc
00000140: 2344 a73d 2460 fbbc a894 2f3b 326b fbbd
00000150: bbe6 a5bc 85bd 10bb 4f93 493e dbe6 d3bd
00000160: aaed b43d 8b7d b93e 4829 813d 71da cb3c
00000170: f863 ae3c f05a d43d e111 1c3d bdbd 713b
00000180: db69 683d 14ac 133d c88f f03c e2a6 ba3b
00000190: 7fe7 01bc a71c 97be c511 adbc 1bfc d03e
000001a0: 2213 f43e bca0 9abe d89b 1c3e 57f4 e83e
000001b0: 2fa7 06bc 916f 4e3d acac ef3d 1a1d 9dbd
000001c0: bbf8 09bd 10cb c73c 927c 3f3b 4a4b 16be
000001d0: ea72 8fbe b280 85bd 0a2c d5bc 575f 85bd
000001e0: 6973 d93d 8f67 273e 3b32 64be e72f 0b3e
000001f0: c9af a63e 5250 dcbd 1be4 a9bd a7d8 eb3d
00000200: 04f1 113e 592f 94bd f374 283e 6896 9f3d
00000210: c638 e6bb f42b 3d3e 0cfb 0e3d 4db7 f3bd
00000220: 78b7 bdbd 3f1b af3d acfb 0cbe 88e7 bbbe
00000230: 0a5b 3ebe 6d08 9c3d 8412 33be 1b18 75be
00000240: 1759 cebd e978 87be 8b91 0c3d 6274 77be
00000250: ade6 c0be b692 7bbd c054 d8bd 613b 06bc
00000260: 5980 333e 3406 fd3b 2cad 87bd 0299 2fbd
00000270: 7e54 acb8 894f e9bd 01d0 d3bb 5b1f b73c
00000280: 0322 d7bc c121 263d 86bd 553e 4396 653e
00000290: 5807 d83c 38c5 873e 488d a63e 0ff1 3b3d
000002a0: 0680 c33d 7376 713e 439f b9bc b4c7 bb3d
000002b0: 6b93 fc3d d8b9 b33d e43d c13d 1e8b 043e
000002c0: f0a2 323d 46f2 01bd 8b62 d9bc 7842 90bd
000002d0: 68f1 ef3d d02b d23d c2ac febb 8ca5 cd3d
000002e0: a5da 063e f5d3 7d3d 0726 59bc fa55 b53d
000002f0: b0d6 bf3d 1227 f7bd 33a9 2fbe dd88 01be
00000300: 1845 31be b994 8bbe 6f95 89be e992 e6bd
00000310: e68a 4bbe 63ad 24be a915 5fbd 62aa 183d
00000320: fde9 813d 8500 e83b 7f7d 643d 74b5 7e3d
00000330: a64d 9e3d f320 c83d ca40 2a3d 957d 5fbb
00000340: 1505 bd3c 0a2b 703d 0fe2 78bd 73ca edbc
00000350: 97fb 003e 55df 3dbd 0b82 83bc c0fe 413d
00000360: 23ce 063d ac3d 923d 1795 04bd 4134 7e3d
00000370: ccb2 9a3d 1fb3 90bd 7831 c33c b2ac 2f3d
00000380: b438 a33b 65ae 2d3e b35f 9ab9 969b 26be
00000390: 33eb 713c 1bbd ccbc 962d 82bd 7cc4 52be
000003a0: 20bf c0bd 6ae4 003d 235c b2bb 8335 333d
000003b0: 12bf ec3b 7709 5c3d 7546 d43d 11f9 d23d
000003c0: b184 11bc d3b6 c13d 09c5 563d f8cd 1bbd
000003d0: 4151 543d 12a7 b0bd bfec 42bd 5293 143d
000003e0: 0d3a 483d 1cb0 a23c 8efe 6a3e 413c 243e
000003f0: e58c 633a 436a 823d 1269 e8bb 2575 bd39
0.03099102 -0.14739448 -0.04371317 0.09949212 0.02336981 -0.13826846 0.0019797024 0.21404135
-0.03490645 0.013997968 -0.17867665 0.012966919 0.02033334 -0.38505447 -0.3665171 0.16509947
0.059936006 -0.072763175 -0.010193311 -0.058320317 0.06768339 -0.0064940387 -0.077366866 -0.053128872
0.034233257 -0.01518756 -0.118064806 0.045394935 -0.0025783025 -0.00219481 0.07028678 0.056885727
0.037871577 0.015237471 0.100194305 0.03419084 -0.048553724 0.05265285 0.039103195 -0.014177423
0.07080586 0.15038136 0.0074715 0.00398208 0.106325805 -0.060162228 -0.07896823 -0.024275785
-0.06813507 -0.09524525 -0.06907991 -0.0010871756 -0.04603495 -0.07556699 -0.13025297 -0.2352809
-0.11465789 -0.166437 -0.45072478 -0.3952272 -0.027861714 -0.2931617 -0.36117566 -0.026774528
0.0046161814 0.04028464 -0.026065944 0.029439477 0.00011817712 -0.033216227 -0.0088786185 0.0071813064
0.016334966 -0.0028851174 -0.06571458 0.009305811 0.023836346 0.011976051 -0.016921017 -0.012145973
0.08167293 -0.030685492 0.0026791487 -0.12276305 -0.020251622 -0.0022085619 0.196851 -0.103467666
0.08834393 0.36228594 0.06306702 0.024884434 0.021287903 0.103689075 0.03810299 0.0036886774
0.056741577 0.03605278 0.029365435 0.0056961635 -0.007928728 -0.29514048 -0.021126637 0.4081734
0.47670847 -0.30200756 0.15293825 0.45498917 -0.008218571 0.050399367 0.117028564 -0.07671566
-0.033684473 0.02438882 0.0029218537 -0.14677158 -0.2801736 -0.06518687 -0.026021976 -0.06512325
0.10617716 0.16348098 -0.22284786 0.13592492 0.32555988 -0.107575074 -0.08295461 0.115159325
0.14252096 -0.07235593 0.16450863 0.077923596 -0.007025811 0.18473798 0.034907386 -0.11900196
-0.092635095 0.08550119 -0.1376788 -0.36700082 -0.18589416 0.076187946 -0.17487532 -0.23934977
-0.10075586 -0.26459435 0.034318488 -0.2416549 -0.37675992 -0.06141921 -0.1056304 -0.008192868
0.1752943 0.0077216867 -0.06624827 -0.04287053 -8.217337e-05 -0.11392123 -0.006464005 0.022353819
-0.026261335 0.040559534 0.20873079 0.22420602 0.02637069 0.26517653 0.32529664 0.04588419
0.09545903 0.23580341 -0.02265895 0.0916895 0.12332805 0.08775681 0.09435633 0.12943694
0.04361242 -0.03172519 -0.026536247 -0.07043928 0.117159665 0.10262263 -0.007772059 0.10041341
0.13169344 0.061969716 -0.013253695 0.08854289 0.0936712 -0.12067999 -0.17154388 -0.12649865
-0.17311513 -0.27261904 -0.2687182 -0.1125849 -0.19877204 -0.16081767 -0.054464016 0.037271865
0.06343458 0.00708014 0.055783745 0.062184766 0.07729654 0.097719096 0.041565694 -0.0034101952
0.023073712 0.058634795 -0.06076246 -0.0290272 0.12595974 -0.046355564 -0.01605322 0.04736209
0.03291143 0.07140669 -0.032368746 0.062061552 0.07553634 -0.07065415 0.0238273 0.042889304
0.004981125 0.16961057 -0.0002944447 -0.16270289 0.0147655485 -0.024992516 -0.06356351 -0.20582765
-0.09411454 0.031467833 -0.0054431125 0.043752205 0.007224926 0.053719964 0.10365001 0.10301412
-0.008881734 0.09458699 0.052434 -0.038038224 0.051835302 -0.08625616 -0.04758906 0.036273308
0.048883487 0.019859366 0.22948667 0.1603861 0.0008680358 0.06367924 -0.0070926035 0.0003613617

layer3.0.bn1.weight f4 [32]
00000000: 01fc 0e3f 2ae7 d13e 6340 f53e e55d bc3e
00000010: fcf7 dc3e 8ba0 1f3f 6ae9 013f d56e 083f
00000020: cc11 113f 6513 193f 050b cc3e 0dba 113f
00000030: cc34 ef3e 6377 053f 0977 023f 4de1 b23e
00000040: 8ff4 163f 7368 093f 22c6 f33e a261 853f
00000050: 04d1 273f 2ae2 b33e 8017 1f3f d15c ef3e
00000060: 07ac e33e 6ee5 c73e 7f98 103f 19fd 263f
00000070: 6a09 133f dd7c cd3e 96df eb3e ffcc 203f
0.5585328 0.40996677 0.47900686 0.36790386 0.43157947 0.62354344 0.50746787 0.53294116
0.5666778 0.5979522 0.39852157 0.56924516 0.46719968 0.52135295 0.50962883 0.34937516
0.58966917 0.53675 0.476121 1.042042 0.6555331 0.35133487 0.62145233 0.467505
0.44467184 0.39042228 0.5648269 0.65229946 0.5743624 0.40134326 0.4606902 0.628128

layer3.0.bn1.bias f4 [32]
00000000: 8c65 9ebd 4535 623e 9b94 453e 29ed 9d3e
00000010: 46b8 433c 6cc3 86be 9317 a13d c330 3abe
00000020: 573b 44be ed02 0fbe 7226 753e 8010 41be
00000030: f6b1 883d de8c df3b 0e78 a93d 7873 813e
00000040: 144a e4bd 3f46 dbbd 2535 bcbd b2a9 5fbe
00000050: 4740 d63d fab3 853e c1bd 0ebe e323 353b
00000060: da30 043e fe75 a83e 398c 2bbe 2c0b b6be
00000070: dac9 3cbd 14f4 383e 2243 3d3e b515 4fbe
-0.07734212 0.22090633 0.1929497 0.30845 0.01194579 -0.2632097 0.078658246 -0.18182664
-0.19163261 -0.1396596 0.23940447 -0.1885395 0.06674568 0.0068222126 0.08274852 0.25283408
-0.11146942 -0.10706758 -0.09189824 -0.21842077 0.10461479 0.26113874 -0.13939573 0.0027639798
0.1290926 0.3290252 -0.1675271 -0.35555398 -0.04609094 0.18061858 0.1848264 -0.20223124

layer3.0.bn1.running_mean f4 [32]
00000000: 4cc1 a63e a197 8abf de92 d9bf 3426 813f
00000010: 6aa8 573f 73e1 34bf f598 03c0 7918 90bf
00000020: 1051 72bf b21b 23c0 0a97 b8bf 2313 64bf
00000030: 1cc3 b13f c828 f1be c4cb e6bf 887e 383f
00000040: 3dc4 03c0 f936 433d 4636 ccbe 96fa 58bd
00000050: 2fdb 9c3f 8ed8 8d3e 6d32 0fc0 4c6b 803f
00000060: 7db5 53c0 3f9d 183e a276 63be c22c 98bf
00000070: f77a 8ebf 4675 38bf 6742 e23e 1de4 1b40
0.3256935 -1.0827523 -1.6997945 1.0089784 0.84241354 -0.7065651 -2.0562108 -1.1257468
-0.9465494 -2.5485654 -1.4421093 -0.890917 1.3887668 -0.47101426 -1.8030934 0.7206807
-2.0588524 0.047659848 -0.39885157 -0.052973352 1.225439 0.2770428 -2.2374527 1.0032744
-3.3079522 0.14903735 -0.22213224 -1.1888659 -1.1131276 -0.72053945 0.44191286 2.435798

layer3.0.bn1.running_var f4 [32]
00000000: a442 213f 4cfa 563f c3b6 953f 9c5f 853f
00000010: b2bd 8e3f 471a 383f 350f ca3f a273 1a3f
00000020: a227 133f 1254 8b3f 0469 813f 6907 103f
00000030: 06f0 4a3f 7994 6b3f 89e4 ea3f 6bc8 353f
00000040: 60f6 4c3f c509 2d3f 156c ef3e b6a3 d03f
00000050: 2660 c93f 0cd3 493f ea65 913f fb80 0f3f
00000060: 6d2b 8c3f 285a ac3f f54c f23e f0aa 003f
00000070: 54b7 633f 0232 3d3f 7464 ac3f eb73 a03f
0.6299231 0.8397567 1.16964 1.0419803 1.115164 0.71915096 1.5785891 0.6033269
0.5748235 1.0885031 1.0110173 0.56261307 0.79272497 0.92023426 1.8350993 0.7100894
0.8006344 0.6759303 0.46762148 1.6299961 1.5732467 0.78837657 1.1359227 0.56056184
1.0950752 1.3465014 0.4732434 0.5026083 0.8895161 0.7390443 1.3468156 1.2535375
