meta_results/meta_half_seed-1_metalr-1e-05_T-2_400-epochs_cifar100-ResNet10_scheckpoint.pth.tar (torch, 910111 bytes, 128 tensors)

conv1.weight f4 [8, 3, 3, 3]
000000 01 c2 19 3e b3 b7 9d 3e 2b c5 24 3e 89 f7 65 3d
       0.15015413 0.30804214 0.16090839 0.05614427
000010 21 1d b1 be ac 9f 83 3e 8a b3 a6 3e c1 f9 16 bd
       -0.34592536 0.25707757 0.32558852 -0.036859278
000020 ea 1d 56 3e c0 7c 66 be 07 49 98 3d dd a7 01 be
       0.20909849 -0.22508526 0.07435804 -0.12661691
000030 13 9f b4 bd bf 49 24 bf 63 a1 67 3d 64 a9 6c 3e
       -0.088194035 -0.6417503 0.056550395 0.23111492
000040 a0 54 65 be cf 41 28 3e 86 35 39 bd 77 e7 cd 3d
       -0.22395563 0.16431354 -0.04521706 0.10053914
000050 0a b9 2d be 6b 59 1b bd 58 6a dc be ab 22 a1 be
       -0.16965118 -0.037927072 -0.43049884 -0.31471762
000060 8a 30 9f bd 0e 6b a7 be ea 37 cb be 39 b3 8c bd
       -0.0777293 -0.32698864 -0.39691097 -0.068701215
000070 7b b8 28 bf ee f9 58 be bc b0 58 3e ee 25 a2 3f
       -0.65906495 -0.2118909 0.21161169 1.2667825
000080 ad 47 96 3e 70 b0 99 3d d3 f3 3c 3f aa 33 f1 3e
       0.2935156 0.07504356 0.73809546 0.4710973
000090 e6 4c 80 3e 5c 04 45 be 70 53 cf 3d d8 a7 86 be
       0.2505867 -0.19239944 0.10123336 -0.2629993
0000a0 ca f2 08 3e f3 67 2d bf 1e 50 94 be f3 59 2a bf
       0.13373867 -0.6773674 -0.28967375 -0.665435
0000b0 ad 67 06 bf 1d c4 d7 39 ba 77 4a bc 70 13 bd 3e
       -0.52501947 0.0004115411 -0.012357647 0.36928892
0000c0 4a 1d 8b bd 7c 95 f1 bd d7 cd 35 be 70 85 32 3e
       -0.06792696 -0.1179609 -0.17754303 0.17433715
0000d0 c3 dd c1 be 47 f1 04 3e b8 54 07 bd ce f4 cf bc
       -0.37864503 0.12982665 -0.03303978 -0.025385287
0000e0 15 3f 4b 3c 4b 6c d9 3c d6 40 85 bf 4a e1 9e bf
       0.012405177 0.026540896 -1.0410411 -1.2412503
0000f0 58 9f 5e bd 3d 2d 17 bd 51 8a 8b bd 6d 96 a6 bd
       -0.05435118 -0.036908377 -0.06813491 -0.0813416
000100 54 22 ff 3d 34 2a f2 3d 33 4f 56 3e 47 93 06 bf
       0.124577194 0.11824456 0.2092865 -0.5256848
000110 fd 92 4d bf dd 5b c1 bd ff 75 d2 3d 66 33 85 3d
       -0.8030241 -0.0944135 0.10276412 0.06503944
000120 ee 34 01 bd 15 4f c0 3c 03 fd c0 3d e3 2d e0 3d
       -0.03154462 0.02347521 0.09423258 0.10946252
000130 15 17 02 bf 5a d2 36 bf b4 80 17 3d 6f ff 3c 3d
       -0.5081647 -0.7141472 0.036987975 0.046142038
000140 3c f8 e8 ba cf 8a 99 bd 0f 8b dc be 13 25 0c be
       -0.0017774175 -0.07497179 -0.43074843 -0.13686018
000150 9e 0f d5 bd 08 cf 31 be fe 70 de be 8a 4d e7 bd
       -0.10403369 -0.17364132 -0.4344558 -0.11294086
000160 1c 09 96 be d2 ca 4f bd 55 0a 56 3e 24 9c dc 3c
       -0.29303825 -0.050730534 0.20902379 0.026929922
000170 67 2c 7d 3e 7b 96 ac 3e 0b 2d 62 3f 6d 0a 12 be
       0.2472397 0.33708557 0.8834998 -0.1426179
000180 dc 02 2d be 66 57 b5 3d 14 ee e2 bd 98 f9 57 be
       -0.16895622 0.088545606 -0.11080566 -0.21091306
000190 bc 21 b3 be c8 d5 14 3e 32 07 85 3d 36 9b 4d 3f
       -0.34986675 0.14534676 0.06495513 0.8031496
0001a0 b8 62 39 3e bb 18 ac bc 24 be f0 3e a4 0d 8e 3e
       0.18104064 -0.021007886 0.47020066 0.27744782
0001b0 dc 76 29 bd dc 18 5e bc 1d 70 8f be 6f c5 46 be
       -0.04137312 -0.013555732 -0.28015223 -0.19411252
0001c0 dc 63 46 be e8 bc 99 bd f2 c2 27 be 04 58 30 3e
       -0.19374031 -0.07506734 -0.1638296 0.17221075
0001d0 a3 d8 60 3e fa 99 22 3e ef f7 af 3e f5 92 1b 3d
       0.2195764 0.1587905 0.34368846 0.037981946
0001e0 9b 3d 0e 3f 15 0b 1d 3f 2e 25 43 3f 3f 7b 3a 3e
       0.5556275 0.61345035 0.76228607 0.18211077
0001f0 67 c2 30 3f b4 2f c7 3e c2 78 6f be a2 27 57 3d
       0.69046634 0.38903582 -0.23385909 0.05252803
000200 c4 3a 61 bd 11 cc 85 be 09 b3 62 bf d2 93 d6 be
       -0.054987684 -0.26132253 -0.88554436 -0.41909653
000210 dd 3c 31 be 08 0f 1f bf 20 ec 21 bf 81 7d 51 bc
       -0.17308374 -0.6213231 -0.63250923 -0.01278627
000220 f8 e8 f5 bd fa 86 62 be fe 8f 4b bd 8a 23 39 3e
       -0.12007326 -0.22121802 -0.04969787 0.18079963
000230 85 e0 12 3f a8 f7 02 be 49 31 8b 3e ec f5 51 3f
       0.5737384 -0.12789786 0.2718604 0.8201587
000240 b5 ef 3e bd b6 db 6b bd 5f 61 30 3e 8f bb a9 bc
       -0.04661532 -0.05758258 0.17224644 -0.020719318
000250 3d 74 87 be d7 f6 eb bd f7 ec dc bd 50 af ae bd
       -0.2645587 -0.1152169 -0.10787385 -0.08529532
000260 63 38 e5 3e e9 37 eb bd fd 74 a2 3d ac 5f 88 3d
       0.44769582 -0.114852734 0.0793247 0.06658873
000270 07 bd 99 3d 2c c6 88 3d ee 5c 45 be fc a7 1b 3e
       0.07506757 0.06678423 -0.19273731 0.152008
000280 39 99 73 bd 53 db 7e 3d 47 6e aa bd 06 88 fa ba
       -0.059472296 0.062220883 -0.08321815 -0.0019114024
000290 41 71 07 3e 25 9a 65 bf b2 1e 56 3f 3d e6 d8 3c
       0.13226797 -0.8968833 0.8364059 0.026476974
0002a0 1a 2c ca bc ed 1f aa 3b 48 0f 0f 3e 19 a0 8b bc
       -0.024679232 0.005191794 0.13970673 -0.017044114
0002b0 4d ca 33 3e 45 2e ca bd 3c 41 cc bf 7f 16 c5 3f
       0.1755764 -0.098721065 -1.5957408 1.539749
0002c0 0d a8 01 3e d5 8f 0a 3c 4f 21 c6 bc 80 08 bf bd
       0.12661763 0.008457144 -0.024185805 -0.09327793
0002d0 d7 f2 90 bd 50 be b2 3d 9e 07 d5 bd de 96 7a bf
       -0.07077568 0.087277055 -0.104018435 -0.97886455
0002e0 35 ee 7e 3f 82 eb 5a bd 15 3d cd bc 2a 75 b6 3d
       0.99582225 -0.053447254 -0.02505354 0.08909066
0002f0 2b c2 b7 bd 1e f2 b9 3e b0 75 ad 3f d5 4e 7e 3e
       -0.089725815 0.36317533 1.355154 0.2483476
000300 96 53 8a be 94 93 8d bf 2b 37 e2 be 17 a6 09 bd
       -0.27016896 -1.1060662 -0.44182715 -0.03360566
000310 cc e1 98 bd 60 8b f9 3d d6 e7 be 3e 98 7e ca 3f
       -0.07464942 0.12184787 0.37286252 1.5819883
000320 72 50 9a 3e de 2c b2 be 0d 0e c4 bf ce 54 0a bf
       0.301395 -0.34799856 -1.5316788 -0.5403565
000330 c5 6f c2 3c 9a eb 74 bd cc 9a 2f 3d 8d 03 c8 3c
       0.023734936 -0.059795 0.042872235 0.024415756
000340 da 19 48 3f 01 2c 2d 3e 68 f0 44 be 9c b8 7a bf
       0.78164446 0.16911317 -0.19232333 -0.9793794
000350 9a cb 46 be 15 50 50 3d 25 98 0f 3d d9 d6 76 3e
       -0.19413605 0.050857622 0.035057206 0.24105395

bn1.weight f4 [8]
000000 27 dd 1c 3f 24 22 57 3e a9 77 d2 3f af fa 7e 3e
       0.6127495 0.21009117 1.6442767 0.24900316
000010 73 d2 4f 3e 6f 39 8e 3e 5c 6c ca 3e 5c 0d c1 3e
       0.20295124 0.27778193 0.39535797 0.37705505

bn1.bias f4 [8]
000000 cb fe f8 be f5 ea 56 3e fe 8f f4 bf 30 e0 7d 3e
       -0.48631892 0.20988066 -1.9106443 0.24792552
000010 99 53 f7 3e 37 ae bc 3e 44 7b d3 3e da b9 82 3e
       0.48305967 0.36851665 0.41304982 0.25532418

bn1.running_mean f4 [8]
000000 1c ef 9e 3e 22 ce 27 bd 52 df c6 3f f3 32 16 be
       0.310418 -0.040968068 1.5536902 -0.14667873
000010 0b bf a3 be 08 3e 05 bf 99 95 18 bd d4 70 2b 3d
       -0.31981692 -0.5204778 -0.037252042 0.04185565

bn1.running_var f4 [8]
000000 04 6d 42 40 b6 e1 8c 3f 4b 9c ac 41 f4 79 15 40
       3.0379038 1.1006382 21.576315 2.3355684
000010 55 d8 dd 3f 35 4d 28 40 6c 45 55 40 52 9c cb 40
       1.7331644 2.6297123 3.3323622 6.362832

layer1.0.conv1.weight f4 [8, 8, 3, 3]
000000 0a fb 5e bd 18 8f 23 3d c4 f5 f4 bd 46 1c 04 3e
       -0.05443863 0.039931387 -0.119609386 0.1290141
000010 2c bf f3 3e 31 81 60 3e 1f 1b a3 bd ef 09 a7 be
       0.4760679 0.21924283 -0.07964157 -0.32624766
000020 fd 22 0e 3d 16 ac 6f 3d 23 5a 39 3e 28 eb 11 3d
       0.034701336 0.058513723 0.1810079 0.035624653
000030 70 54 9f 3d 00 40 a9 bd 42 d0 8e bd db db ad bd
       0.07779777 -0.0826416 -0.06973316 -0.084892
000040 50 d7 15 3e e8 0b 01 be f6 a7 b4 3e 6b 2c 30 3e
       0.14632916 -0.12602198 0.35284394 0.17204444
000050 b4 04 ed 3d 74 f7 e1 3e 8f 0b ba 3e f4 84 c3 3d
       0.11573163 0.44134104 0.36336944 0.09546843
000060 3d 7a 2e bf a3 ff 3c bf 21 3e a4 bb ee 4c 29 3e
       -0.6815527 -0.7382757 -0.005012289 0.16533253
000070 53 dd 03 be 48 42 2b 3e 1f 16 93 be e9 f2 02 bf
       -0.12877397 0.16724503 -0.28727815 -0.511519
000080 63 2d bc be ff af 1c 3d 48 7c 23 3f 07 9e 3c 3e
       -0.36753377 0.03825378 0.63861513 0.18419658
000090 31 3d 47 3e a3 06 94 3d 69 e3 c4 3d 31 8e 1c be
       0.19456936 0.07227828 0.096136875 -0.15288617
0000a0 2f ad c8 bd 19 7a 5d be b9 cb 64 3d 35 e2 70 3d
       -0.09798657 -0.21628608 0.055858348 0.058809478
0000b0 15 13 f5 ba 30 f8 0c bf 93 27 1f be 1d bf 9c be
       -0.0018697703 -0.55066204 -0.1554244 -0.30614558
0000c0 d1 a3 97 3e f5 2c 64 3e 75 da 38 3e 5e 65 2e 3e
       0.2961717 0.22282775 0.18052085 0.17030856
0000d0 5a ad 0d 3d 43 57 e4 3b 52 06 ce 3d 5d 54 0a 3e
       0.03458915 0.00696841 0.10059799 0.13508745
0000e0 81 68 bc 3c 39 fd 9c bd 49 ff bd be c1 8c 90 3e
       0.02299905 -0.07665486 -0.3710883 0.28232387
0000f0 df 03 5a 3c 4b fc 39 3e 9e d4 70 be 5e 5e b5 3c
       0.013306587 0.18162648 -0.23518607 0.022139724
000100 82 25 20 be 9b b1 7e 3d c4 c2 35 bd 19 0a c0 3d
       -0.15639308 0.062181097 -0.044375196 0.09376926
000110 a1 8a 5e 3d 58 e9 2c be d1 06 de bf 97 d3 87 be
       0.054331426 -0.16885889 -1.734583 -0.26528618
000120 39 0a 1c 3e 68 a4 c8 bb ad 09 02 bc fc 39 2b 3d
       0.15238275 -0.0061231144 -0.007936877 0.041803345
000130 81 04 c8 3d 0d 0f 22 3e a8 3d fe bd b5 f6 3a 3e
       0.09766484 0.15826054 -0.12414104 0.18258174
000140 84 46 8e bd 2f ad 62 3d 4e 75 43 bd 9e 42 9d bd
       -0.069470435 0.055340942 -0.047719292 -0.07678722
000150 72 45 17 3e f1 85 8d bd 95 32 6a be 77 91 01 be
       0.14772585 -0.06910313 -0.22870858 -0.12653147
000160 85 4e 5d 3d 31 85 33 3e 7d 8a 0b 3e 8f f3 35 3f
       0.05402996 0.17531277 0.13627048 0.71074766
000170 6f 68 0d 3e ff 34 a2 bd a8 ae 81 3f 43 1d 14 3e
       0.1380937 -0.079202645 1.0131426 0.14464287
000180 9f 82 8e bd 22 e8 f4 3e e4 51 5d bd b6 7d 5c 3b
       -0.06958508 0.47833353 -0.054033175 0.0033644265
000190 3f f5 1e bd 9a 33 2b 3e 1f 84 08 bd 83 20 b1 3a
       -0.038808104 0.16718903 -0.033329125 0.0013513718
0001a0 4f 01 bc bd 46 ef f4 bd 6f 2c 51 bc 8a 19 39 3e
       -0.09179937 -0.119597 -0.012766941 0.18076149
0001b0 e9 b3 35 3c 46 2b ce 3c aa e0 d2 bc d6 15 d4 bc
       0.011090257 0.025167119 -0.025741894 -0.025889318
0001c0 31 62 88 3d 51 ba 94 3c 11 71 4f 3c 8e 3f 14 3c
       0.066593535 0.018155249 0.0126612345 0.009048356
0001d0 ee 42 6f bd 26 af c8 bd 9a 97 11 be 57 21 72 3e
       -0.05841344 -0.09799032 -0.14217988 0.2364553
0001e0 dd c4 f3 bc 83 0b 93 3d 2d 88 33 3e b7 85 96 3d
       -0.029756958 0.0717993 0.17532416 0.07349723
0001f0 77 bd 44 3d 9d d2 2d be 3c d0 42 3c d8 ca 83 bd
       0.04803225 -0.16974874 0.011890467 -0.06435174
000200 aa 68 bf bd 8d c0 85 3d 7c ef 8f 3d 42 1e 75 3d
       -0.09346135 0.06530867 0.070281 0.05984331
000210 44 98 22 bc 2d 86 19 bd 61 94 cb bd a8 ce 31 3d
       -0.009923998 -0.037481476 -0.099404104 0.043409973
000220 a3 d1 1b 3c a7 c9 05 be 74 f8 fb bd e4 f2 64 3e
       0.0095104305 -0.13065206 -0.12303248 0.2235828
000230 f3 ef 13 be 82 79 ca bc dd 16 94 3d 37 46 75 bd
       -0.14447002 -0.024716143 0.07230923 -0.059881415
000240 cc af 18 3c 46 3b 03 3c a2 39 ee bd ac 9c b8 bd
       0.009319257 0.008009737 -0.11632086 -0.09014258
000250 7a 8b ea bd 18 97 21 be c1 4a 60 bd a8 22 0c 3d
       -0.11452384 -0.15780294 -0.05475879 0.03421274
000260 cd cf ac 3d e1 12 e4 3e ab ba 86 bd cb 17 92 be
       0.08438072 0.44545653 -0.06578573 -0.28533778
000270 ff 4b e3 3c 77 6c 4a 3d c1 99 28 be 84 d2 ee bd
       0.027746199 0.049419846 -0.16464902 -0.116612464
000280 e0 8e 45 bd 75 b3 b2 ba 58 14 01 bd d5 a2 9d bd
       -0.04823196 -0.0013633805 -0.031513542 -0.07697073
000290 30 4d ee 3d 7b 6b d6 3d 7b 28 0f be 14 7e 21 3e
       0.11635816 0.10469719 -0.13980286 0.15770751
0002a0 e8 3b be 3d 60 e6 4a be f3 5b 32 3d 34 f1 b0 3d
       0.0928877 -0.19814444 0.04354472 0.08639756
0002b0 47 69 ab bd ac 82 b3 bd 75 ad 80 bd f3 ca ad bd
       -0.083696894 -0.08765158 -0.06283084 -0.08485975
0002c0 bd 27 8c 3d f5 1e c9 bc d3 be 87 bd 0d 80 b4 bd
       0.06843517 -0.024550894 -0.06628194 -0.08813486
0002d0 db ce 46 bf 18 69 11 bf 4e c4 11 3d 6e 6a cb be
       -0.77659386 -0.56800985 0.0355876 -0.39729637
0002e0 10 00 85 be a3 9e 1f 3e b3 ae a1 3d 2d 09 d3 3e
       -0.2597661 0.15587859 0.07894649 0.41217938
0002f0 ef 15 a3 3e eb 40 8a be 69 57 a5 bd a9 09 27 be
       0.31852672 -0.27002653 -0.08073313 -0.16312279
000300 81 5e 1e 3e 7e 38 a7 3e b4 be 0e 3e cf bb 9e 3c
       0.15465738 0.32660288 0.13939935 0.019376663
000310 70 40 bd bc 5a a8 0c bc ff e2 2e 3d f5 f6 1c be
       -0.023102015 -0.00858506 0.04269695 -0.15328582
000320 2b 47 3d 3e a7 4e b7 bc 5c 9f 8d 3d 3d dc 45 3d
       0.1848418 -0.022376372 0.06915161 0.04830574
000330 70 dd 9c bc 21 40 4a bd 3c b2 1a be 0f 54 56 3d
       -0.019148558 -0.049377564 -0.15107054 0.05232626
000340 cb 5a 8d ba 5b aa 10 be 55 90 c1 bd cd f6 30 3e
       -0.0010784505 -0.14127485 -0.09451357 0.17281647
000350 a4 42 07 be 1e 0b 5a be 7f d3 72 3e 33 8c 06 3d
       -0.13209015 -0.21293303 0.23713492 0.03284855
000360 b3 87 a9 3d 46 c3 6e bd 87 53 5b bd eb ed ea bd
       0.08277836 -0.058291696 -0.053546455 -0.114711605
000370 d4 8e 48 be e5 f0 e8 3e b3 2d ad bd 46 18 e3 3d
       -0.19585735 0.45496288 -0.08455982 0.11088614
000380 d7 8f 90 3e 1d 55 85 3d 80 a9 84 bc 29 21 9a bd
       0.2823474 0.06510375 -0.016194105 -0.07525856
000390 58 62 bb bd b1 b2 cf bd 75 30 12 bc 38 c3 38 bc
       -0.09149617 -0.101415046 -0.008922686 -0.0112770125
0003a0 2a e1 08 3e 6c 5f a8 be d9 59 9a be 9a da 91 be
       0.13367143 -0.328853 -0.30146673 -0.28487092
0003b0 36 e1 63 3e d0 a2 93 be f2 48 95 be ff e7 11 3f
       0.2225388 -0.28835154 -0.29157215 0.5699462
0003c0 ec c7 f1 3c 34 71 90 3e 60 5e 26 3f 82 27 cb bd
       0.029514275 0.28211367 0.64987755 -0.09919645
0003d0 ff 72 bd 3d 74 21 8e 3d 2a b3 b0 bc e7 b9 b7 3d
       0.092504494 0.069399744 -0.021569807 0.08971005
0003e0 0b 05 13 3b d9 00 2d bc 79 e4 c3 3d b6 7f d1 be
       0.0022433426 -0.010559284 0.09565062 -0.40917748
0003f0 da 84 dc bd ef 8d d0 3d c4 84 2a bd d9 c0 72 3d
       -0.10767527 0.10183322 -0.04163052 0.059265945

layer1.0.bn1.weight f4 [8]
000000 07 64 3a 3f bb 22 86 3f 97 32 be 3e 3d eb 14 3f
       0.7280888 1.0479349 0.37147972 0.58171445
000010 68 39 9a 3e d3 e6 f3 3e 4c 2e 96 3e 5c 6e 19 3f
       0.30121922 0.47637042 0.29332197 0.5993402

layer1.0.bn1.bias f4 [8]
000000 0d fa 27 3e 42 10 a6 bf 7e b5 46 3e c9 6d b6 be
       0.1640398 -1.2973711 0.19405171 -0.35630634
000010 06 88 e1 3e d1 5b 1f 3e 47 6c 16 3f 37 0b 6e 3e
       0.4404909 0.15562369 0.5875897 0.23246466

layer1.0.bn1.running_mean f4 [8]
000000 9f 8c 14 bf 97 f3 2a 3e 4e 9f 1b bf 03 0d 27 be
       -0.5802707 0.16694485 -0.60789955 -0.16313557
000010 d4 43 7c 3d 2a 98 2a 3e af ed b8 be d8 96 04 bf
       0.061588123 0.16659608 -0.36118838 -0.5179267

layer1.0.bn1.running_var f4 [8]
000000 7b 0a 21 3f 5a 24 b7 3d 76 f0 cc 3d 43 a5 6a 3d
       0.62906617 0.089424804 0.10006802 0.057286512
000010 00 cd 9e 3d c4 10 8e 3e 3a fc 98 3d 81 53 b5 3e
       0.077539444 0.27747166 0.074699834 0.3541527

layer1.0.conv2.weight f4 [8, 8, 3, 3]
000000 6f fa e2 3d 92 16 0d be f2 36 39 bd b1 77 80 be
       0.11082923 -0.13778141 -0.045218416 -0.25091317
000010 af c0 b3 bf 59 bd a7 be 56 f1 aa 3d 4d c9 35 3d
       -1.4043177 -0.32761648 0.083468124 0.04438143
000020 8c b5 d4 3d fa 0d 8e 3c b4 7e d0 3c 3e be 99 3d
       0.1038619 0.017340649 0.025451042 0.07506989
000030 22 e0 0c be e8 ad c0 bc bb 9a b4 3d 4c b9 ea be
       -0.13757375 -0.023520425 0.08818575 -0.45844495
000040 9a ff 0f bf 65 f8 14 3e fb bb f7 bb 6f 2b fa bd
       -0.5624939 0.1454788 -0.007560251 -0.122153156
000050 e4 51 e4 3c f0 fb d8 3c eb f9 7a 3e b4 4e 28 be
       0.02787108 0.02648732 0.24509399 -0.16436273
000060 bb 3a 8a 3d 01 43 33 3e 8f b3 c9 bd ae b3 91 bd
       0.06749483 0.17506029 -0.09848701 -0.07114349
000070 6c 9e 36 3e 19 88 cb 3d c3 55 0f bf b8 d9 46 be
       0.1783387 0.09938068 -0.55990237 -0.1941899
000080 31 69 ca 3d 38 2e 41 3e bc 6a dc 3d b6 91 73 3d
       0.09883345 0.18865287 0.107625455 0.059465133
000090 89 77 a4 3d 68 47 af 3d 9c 62 ec bd c8 43 99 3d
       0.08030612 0.085585415 -0.11542246 0.07483631
0000a0 9e 90 ce 3b df 38 9c bd 62 91 f5 3d 42 7f ee 3c
       0.006303861 -0.07628035 0.1199062 0.029113416
0000b0 22 ad df bd 9f b2 e1 3c 99 5a 2f 3e 6b a9 54 bd
       -0.10921694 0.027550993 0.17124404 -0.051919382
0000c0 75 ae 60 3c 7f ae a0 3e fb 27 7e 3e 37 4a 99 3d
       0.013713469 0.3138313 0.24819939 0.074848585
0000d0 6c aa 00 bf b3 64 3e 3e f1 1e e6 bb f6 31 42 bd
       -0.50260043 0.18593101 -0.0070227315 -0.047410928
0000e0 1e d8 00 be aa 72 14 be 93 dd 35 bd 13 11 8c 3d
       -0.12582442 -0.14496866 -0.044400763 0.06839194
0000f0 c0 a6 2d bc b5 60 25 3e d7 b7 cf 3d 0e 5a df bc
       -0.010598838 0.16150172 0.101424865 -0.027264621
000100 17 7b b6 3d 00 e1 86 3d bc 7a 11 3e 9c 91 51 3e
       0.08910196 0.06585884 0.14206976 0.20465702
000110 71 d6 99 bd ee 83 bc 3e 44 3d cb be c2 6f 68 be
       -0.075116046 0.36819404 -0.3969518 -0.22698882
000120 f8 46 16 bc af 55 65 be 19 9f 85 3d fc c7 03 bd
       -0.009172194 -0.22395967 0.06524486 -0.03217314
000130 cb fd 41 3c 93 0c 42 3e 9c b1 51 bc e5 51 70 bd
       0.011840294 0.18950109 -0.012798693 -0.05867185
000140 b7 34 23 be 7e 5f b9 3d 36 2b 42 bd b1 ca 7e b9
       -0.15938078 0.09051417 -0.04740449 -0.00024298836
000150 9f 5e 54 3d f5 2b 81 bb 60 bd 63 bd 44 35 94 be
       0.05184805 -0.0039420077 -0.055600524 -0.28946888
000160 c7 6d ae be 5f ac 9e be 98 19 bd bd 44 55 5a bd
       -0.34068128 -0.30990884 -0.09233397 -0.053303972
000170 3a 5b ab be 7f 83 14 be 5c 78 ec 3d f9 fb 70 3e
       -0.33468038 -0.14503287 0.11546394 0.2353362
000180 11 69 18 bf df 4f 44 3e 7d b4 00 3f ae 66 82 bd
       -0.5953532 0.19171093 0.50275403 -0.06367241
000190 fb 00 e4 3c cf 6b c7 bc bb 13 67 bd 83 d7 25 3d
       0.027832499 -0.0243434 -0.0564153 0.04048873
0001a0 d5 ab e4 3d 4c c0 e6 bd c1 8b 21 bc ca 8b 7e 3c
       0.11165587 -0.112671465 -0.00985998 0.015536258
0001b0 2f 95 9e 3e ed 38 a9 3e 61 e7 c0 be 44 9d fc 3e
       0.30973193 0.33051243 -0.37676528 0.49338734
0001c0 d5 e9 8d 3e dc b2 f5 be ff ab dc bd dd 67 ca bd
       0.27717462 -0.4798802 -0.10774993 -0.098830916
0001d0 09 f1 71 be b6 6f 5e 3c c2 5a d8 3d 61 34 5c bd
       -0.23627104 0.013576439 0.10564186 -0.05376089
0001e0 d4 50 3e 3d f7 de 3c 3e a8 ff 48 3e a7 a2 ad 3d
       0.046463802 0.1844443 0.19628775 0.08478289
0001f0 4d 13 f7 bc 44 aa 3a be 1d 87 4c be 5b d6 3a be
       -0.03016057 -0.18229014 -0.19973417 -0.18245833
000200 52 13 9b be 6b f4 e2 3d f6 12 f9 3d e9 32 42 be
       -0.30288178 0.11081775 0.1216182 -0.18964733
000210 fa 94 d5 3e 9e cf 26 3f ac fe d4 3d f5 b4 24 bd
       0.41715223 0.6516055 0.10400137 -0.040211637
000220 8f c3 51 bd 45 89 c3 bc a7 3d 0b be c2 4c 92 3d
       -0.05121189 -0.023869166 -0.13597737 0.07143547
000230 2c b4 77 bd 43 c4 c9 bd 95 fe 7f 3e 30 d8 2e 3d
       -0.06047456 -0.09851887 0.24999459 0.04268664
000240 fa 11 19 bc 6f a5 72 3d db 14 d1 3d da de 6f be
       -0.009342665 0.0592398 0.10209056 -0.23424855
000250 4d ff 77 bc d4 57 0c be 29 7c b9 bd 90 26 88 3d
       -0.015136552 -0.13705379 -0.09056885 0.0664798
000260 52 f0 c7 3d 67 f1 bb 3d 51 05 1c be 2a 41 9f 3d
       0.09762634 0.09176903 -0.15236403 0.07776101
000270 c7 6b 05 3e d4 0a 55 3e a1 54 68 3e 30 f5 18 3e
       0.13029395 0.20804912 0.22688533 0.14937282
000280 32 84 f8 3d f2 09 61 3e 2f 50 92 3d a2 2c 87 be
       0.12134589 0.2197645 0.071442 -0.2640124
000290 59 c3 b6 bc 31 50 9d bd 54 c0 b7 3d 50 be 12 3e
       -0.022309946 -0.07681311 0.089722306 0.14330411
0002a0 ed 22 b5 bc 68 ab b4 bc d6 8e 01 3e 33 f2 ca be
       -0.02211138 -0.02205439 0.12652144 -0.39637908
0002b0 18 3c ac 3d 6b ff 34 bd 4b 40 03 3e 95 99 9c be
       0.084098995 -0.044188898 0.12817495 -0.30585924
0002c0 fa ae 3a 3d 8b 9d 12 be a0 d8 2c bb 22 fe 81 3d
       0.045577027 -0.1431791 -0.0026374236 0.063473
0002d0 06 87 4e be 7c b5 4a 3e 44 87 a2 3c 7d b9 5a 3e
       -0.20168695 0.19795793 0.01983989 0.2135982
0002e0 13 bf 91 bd 6a 69 e9 3d 78 6c 85 bd 33 d7 0c be
       -0.07116523 0.11397059 -0.065148294 -0.13753967
0002f0 e7 f9 df bc 11 d4 4f bd ce f2 e7 bd 8f 41 21 bc
       -0.027340842 -0.05073935 -0.11325608 -0.009842291
000300 aa fb 7e be 6f 4f 66 3e 33 c4 9e be c1 69 71 3e
       -0.2490069 0.22491239 -0.31009063 0.23575498
000310 03 9f df bc 00 34 f5 bd f8 b9 90 3e a9 2f a0 bd
       -0.027297502 -0.11972809 0.28266883 -0.078215905
000320 0f fc e8 3c ca ad 89 bd b7 9a 0b 3e f1 13 2a bd
       0.028440503 -0.06722601 0.13633238 -0.041522924
000330 81 4a 81 bd 91 8a 27 bd 9d bf 16 be 75 2f 17 3e
       -0.063130386 -0.04090363 -0.14721532 0.14764197
000340 29 23 5a be 11 72 02 3e 8f ee 72 be d5 d1 1e 3e
       -0.21302475 0.12738825 -0.23723815 0.15509732
000350 0a 97 70 be ee db a1 3d f8 d8 b8 be bd 70 e3 3d
       -0.23495117 0.079032764 -0.36103034 0.111054875
000360 44 b0 0c be a2 5f d4 bd 7f b0 2a 3e ba 2d 1d 3b
       -0.13739115 -0.10369803 0.1666889 0.0023983554
000370 1f 40 b8 bd 8e cf 21 3e bb 27 15 bd 79 04 af be
       -0.08996605 0.15801832 -0.036414843 -0.341831
000380 9f 82 51 be 13 6b 69 3d 1b 6d 2c bd 4a 00 8d bd
       -0.20459984 0.05698688 -0.04209624 -0.06884821
000390 8f 89 53 bc a0 cf 9e bd 8e 5a 8c be 64 54 9e be
       -0.0129112145 -0.07754445 -0.27412838 -0.3092376
0003a0 ca 4a 52 be 3a 18 b4 be be 51 15 be 85 9f 48 be
       -0.20536342 -0.35174733 -0.14581963 -0.19592102
0003b0 a4 7f f3 3d 72 11 c6 3d 6b 85 62 3e 0f 66 a0 3e
       0.1188958 0.09671296 0.22121207 0.31327865
0003c0 66 07 80 be 31 39 83 3d 99 cf 50 3e 21 27 aa 3b
       -0.25005645 0.06407393 0.20391692 0.005192653
0003d0 5c 17 fb 3d 18 cc 04 be 3b 59 61 be 2f 07 8c 3e
       0.12260315 -0.1296848 -0.22006695 0.2734923
0003e0 3d d6 2e 3c b7 72 b5 3d 16 0c 85 bd af c3 0a be
       0.010671196 0.08859771 -0.06496446 -0.1355121
0003f0 fc 97 51 be 9a b9 5c bd f5 6e 7a 3d 25 d3 92 be
       -0.20468134 -0.05388794 0.061140973 -0.28676715

layer1.0.bn2.weight f4 [8]
000000 3a 54 b1 3f 5f a6 26 3f 97 52 60 3f fd 62 33 3f
       1.3853829 0.6509761 0.8762602 0.7007292
000010 95 ac 17 3f 5c ea 27 3f b7 b4 a1 3f 5a 53 a9 3f
       0.59247714 0.6559198 1.2633275 1.3228562

layer1.0.bn2.bias f4 [8]
000000 30 f3 72 3e 88 cc 9f 3d cd 50 93 bd 89 e9 a0 3e
       0.23725581 0.07802683 -0.07193146 0.31428173
000010 34 36 51 3d 47 17 be 3e a1 e7 c8 be fa aa 55 bd
       0.051077083 0.37127134 -0.3923922 -0.05216501

layer1.0.bn2.running_mean f4 [8]
000000 00 72 fa be 0f 6c 65 3e 5f b7 17 be 33 79 cf bd
       -0.489151 0.22404502 -0.14816044 -0.10130539
000010 e7 e6 82 be e1 23 96 3e ec d6 0b bf 95 97 7e bc
       -0.2556679 0.29324248 -0.5462482 -0.01553907

layer1.0.bn2.running_var f4 [8]
000000 af 0d 23 3f 34 b2 a7 3e 87 e3 3a 3e bb 71 e6 3e
       0.63692755 0.32753146 0.18250857 0.45008644
000010 2f a7 6d 3e f6 9a d7 3e da be 05 3f 37 64 06 3f
       0.23208307 0.42110413 0.5224434 0.52496666

layer2.0.conv1.weight f4 [16, 8, 3, 3]
000000 fa 00 6d 3d db a0 91 bd 5b 4b 7c bd 83 7e ac bd
       0.05786226 -0.07110759 -0.061595302 -0.08422568
000010 2f cd e8 bd 31 82 7d 3c d3 54 8a bd ff b3 40 3b
       -0.11367261 0.015472935 -0.0675446 0.002940416
000020 12 c8 02 3e 54 c1 a4 3e 31 9a a8 3e 11 9b 26 be
       0.12771633 0.32178748 0.3293014 -0.1627009
000030 63 6e c5 3e bb f2 d7 bd 16 d7 ea be 41 3c e9 bd
       0.3856078 -0.10544344 -0.45867223 -0.11388446
000040 91 84 c2 be 5c 01 cf 3d c4 49 d8 3b 45 4c 99 3d
       -0.37991765 0.10107681 0.0066005904 0.074852504
000050 22 5e ae bb ee 2b 42 3e d4 e3 43 bc 51 a3 2d bd
       -0.00532128 0.1896207 -0.011956174 -0.04239208
000060 3f 0b a5 3d 20 3f 01 be bf 7b 7b bd d5 6d 60 be
       0.08058786 -0.12621737 -0.06139731 -0.21916898
000070 b9 41 51 be f5 2c 40 3e c6 1b 21 be 0d 02 9f 3e
       -0.20435227 0.1876715 -0.15733251 0.31056252
000080 fc c7 93 3e 97 ec 78 3e 6e 7a dc 3e dd 19 58 be
       0.28863513 0.24309002 0.43062156 -0.21103616
000090 bf 63 df bc ca a2 01 3e 0b db 49 3d 58 49 0d 3e
       -0.027269242 0.12659755 0.04928116 0.1379751
0000a0 0a 0d bc bd 10 86 b6 bd b2 f0 d4 3c 50 0b 16 be
       -0.091821745 -0.08912289 0.025993679 -0.14652753
0000b0 a3 18 be 3d 41 ad 4d 3e a7 0b 98 bd ad 24 35 be
       0.09282043 0.20085622 -0.074240975 -0.17689772
0000c0 92 42 44 be d1 b5 e2 be 8b 34 c5 bd db fd af be
       -0.1916602 -0.4427934 -0.096291624 -0.34373364
0000d0 09 59 8d bd ca 4c 49 3e b4 2e 28 bd 9b 52 44 3d
       -0.06901748 0.19658199 -0.041060165 0.04793034
0000e0 ca b8 e7 3c d5 be c8 bc f0 96 1b 3d 3c 47 c6 3d
       0.028286356 -0.024505058 0.037985742 0.09681556
0000f0 6a e7 40 3e 46 a1 ac 3d 57 e7 4c bc 40 8f c3 bd
       0.18838277 0.08429198 -0.012506328 -0.09548807
000100 4b 5b 01 3d 62 01 05 3e 4b e9 88 3d da e3 38 3e
       0.031581204 0.12988809 0.06685122 0.18055668
000110 7d 63 08 3e 4b 31 49 3e 89 f2 04 3e 59 9a cb bc
       0.13319202 0.1964771 0.12983145 -0.024853872
000120 5b 6d 23 3e e2 fa ab 3e a2 e0 87 3e 5b a8 46 3e
       0.15959685 0.33589846 0.2653857 0.1940016
000130 3d fe 81 3e 83 c0 12 3e 34 c0 bc 3d 25 44 d2 3c
       0.2538928 0.1433125 0.09216347 0.02566726
000140 e9 5f 39 be 79 60 89 bd 4a dc 2a bd 0e 4d b3 3d
       -0.18102993 -0.06707854 -0.04171399 0.087549314
000150 87 d0 4d bd 5b 3f 4c bd 4b 13 7e 3c d7 7d 04 be
       -0.050247695 -0.049865108 0.0155075295 -0.12938629
000160 b3 38 26 bd 6e 85 c1 bd de 76 e9 3d 0d fe 4d 3e
       -0.040581416 -0.09449278 0.11399625 0.20116444
000170 ee 5e 21 3e 92 f6 28 3e 1c fe 1c 3e 20 d7 9c 3d
       0.15758869 0.16500309 0.1533131 0.07658219
000180 b1 9c 7e 3c 02 ac 03 3c 1d 1d 7c bc 39 d2 eb bd
       0.015540288 0.008036615 -0.0153878005 -0.11514706
000190 c5 b6 e9 3d c2 51 7c 3d a2 80 7e bd 92 0f a5 be
       0.11411814 0.061601408 -0.062134393 -0.32238442
0001a0 f0 1f 98 be 2a 26 33 be 87 0b ac be e9 41 cd be
       -0.29711866 -0.17495027 -0.33602545 -0.40089348
0001b0 c2 44 25 3c c2 a6 f1 3b 5c ac 0e bb b5 f2 9d bd
       0.010087194 0.0073746154 -0.0021770215 -0.07712308
0001c0 ae 1a 22 be f5 c1 a9 bd 95 61 4b bd 04 53 0d be
       -0.1583049 -0.082889475 -0.04965361 -0.13801199
0001d0 2a 6b 57 be d0 4c 6e be ea f5 c6 be e0 77 9a be
       -0.21036974 -0.23271489 -0.38859493 -0.30169582
0001e0 48 e4 8f be 5b a4 23 be 60 cd 24 bd 6d cd 2e be
       -0.28103852 -0.15980665 -0.040234923 -0.17070551
0001f0 c7 21 c7 bc 16 fb 07 be d1 b7 0e be 91 e8 0b be
       -0.024308098 -0.13279375 -0.13937308 -0.13662936
000200 18 d9 12 be f6 e7 68 be 76 36 2c be f6 31 1a 3c
       -0.14340627 -0.22744736 -0.1681765 0.009411326
000210 4e d7 74 bd 40 34 01 3e f9 11 6c 3e 10 bf 1a 3d
       -0.059775643 0.12617588 0.23053731 0.037779868
000220 e2 2f 53 3d 2e 5f db 3d 34 00 fe 3d bd 92 89 3e
       0.051559336 0.107115135 0.124023825 0.26869765
000230 8b 5b ff 3d e5 7a 48 3e 47 76 7f 3e 68 2e df 3b
       0.12468632 0.1957813 0.24947463 0.006810952
000240 19 3f 08 be e3 07 c1 3d 02 12 44 bd 24 96 d9 bd
       -0.1330532 0.094253324 -0.047868736 -0.1062434
000250 95 55 86 3e 0d a2 fb bc e6 d5 16 bd 41 fa 5e 3e
       0.2623717 -0.03071692 -0.036825083 0.21775152
000260 f6 c2 87 bd aa 0d 91 bb 03 0f ff bc f1 e9 f7 3c
       -0.06628983 -0.0044266777 -0.031135088 0.03026292
000270 be e6 e0 3d 76 32 03 be a6 16 72 3c a0 c9 8c 3d
       0.109815106 -0.12812218 0.014775908 0.068743944
000280 0a ae 80 bd 93 d1 77 bd 2f 91 ea bd 5d 79 b1 3d
       -0.06283195 -0.0605026 -0.11453473 0.08665726
000290 bf d0 e2 bc 20 39 4f be 1c 18 b5 3c a7 c9 89 3d
       -0.027687429 -0.20236635 0.022106223 0.06727915
0002a0 19 45 8b bd 71 3f df 3d df 4c b9 3c 7e 5f 41 bd
       -0.06800289 0.10900772 0.022619663 -0.04721021
0002b0 4b a4 88 bd db c7 4b 3d b5 70 61 bd 12 05 0c be
       -0.066719614 0.049751144 -0.055039126 -0.13673809
0002c0 77 77 80 3d ff d6 04 3b f1 59 fd bd 75 7d e5 3d
       0.06272786 0.002026975 -0.123706706 0.1120557
0002d0 9a ed 6f 3d f9 53 ec bd a4 88 93 3d 7e 83 e5 3b
       0.058576204 -0.11539454 0.072037965 0.0070042005
0002e0 24 64 04 be be 85 86 3d 15 a3 b4 3d 36 fa f6 bd
       -0.12928826 0.06568478 0.08820168 -0.12059443
0002f0 4a 60 55 3d b2 cf 40 be 01 37 2a 3d 9b ad 4c 39
       0.05209378 -0.1882923 0.041556362 0.00019519629
000300 94 cf 05 be 32 e9 43 3e 50 d1 23 3d 6b bd 0f be
       -0.13067466 0.19131926 0.039994538 -0.14037101
000310 28 33 57 bd 8f 2a 33 3e 70 dd 4e be c9 8b a2 3e
       -0.05253902 0.17496704 -0.20201659 0.31747273
000320 63 31 5e bc 25 a1 0b bf 5d 0a 08 3f f8 b5 63 bd
       -0.013561579 -0.5454276 0.53140813 -0.05559346
000330 06 63 cc be de c6 b3 3e 64 28 35 3d e7 9f b9 3e
       -0.399193 0.3511266 0.044227973 0.36254808
000340 7b fd 80 be bb f1 2f bd ce 4f 03 3f 3f ff 01 bf
       -0.2519339 -0.04295514 0.5129365 -0.507801
000350 f3 6d 4e 3c 7d 3a a2 3e 44 6d b3 be 9f 21 cc bc
       0.012599456 0.31685248 -0.350443 -0.024918376
000360 3e d2 b6 3d b4 1b 54 be 9c 98 31 3e 4b 24 1a bd
       0.08926819 -0.20713693 0.17343372 -0.037632268
000370 7e 4e 0e 3f 1c 7e 0c bf 0b 60 7c 3d 92 38 34 be
       0.5558852 -0.5487993 0.06161503 -0.17599705
000380 66 3f 2a 3e c1 be 28 3d 72 ed 4c 3c d6 ea 54 bd
       0.16625747 0.041197542 0.012507783 -0.05198177
000390 0a 64 bf 3c ff 0e 68 bd a8 15 23 bd e2 7d 37 bd
       0.023363132 -0.056654926 -0.039815575 -0.044797786
0003a0 27 a7 93 bc 52 3f 82 3d be c7 9f 3c af a6 fd bd
       -0.01802404 0.06359734 0.019504424 -0.12385308
0003b0 65 f0 8a 3d e6 fc 99 bd 78 b3 a9 be 4e 1e e6 3d
       0.06784133 -0.0751894 -0.33144736 0.11236249
0003c0 2c 78 81 3d f1 32 ef bd 77 a6 11 3a 06 00 0f 3b
       0.06321749 -0.11679638 0.0005556116 0.0021820082
0003d0 4d d2 1e 3d 39 d9 58 bd ea b1 24 3d 8a f3 22 3c
       0.038774777 -0.052941535 0.040208735 0.00994576
0003e0 e5 ed be bd 30 3e 09 3d 9f 4d d4 bd 24 57 79 3d
       -0.093227185 0.033506572 -0.103663675 0.06087412
0003f0 c2 72 84 3c a1 c6 3a 3d 7f 24 01 be c7 c5 38 3d
       0.016168002 0.045599584 -0.12611578 0.04511049

layer2.0.bn1.weight f4 [16]
000000 c0 f9 08 3f ff da 27 3f 31 a8 2d 3f 4f 2b 33 3f
       0.5350609 0.65568537 0.67834765 0.6998796
000010 f2 37 ab 3e af 32 25 3f 44 30 2b 3f 6a a7 40 3f
       0.3344112 0.6453046 0.6687052 0.75255454
000020 ed cd 55 3f f5 35 f9 3e 11 b0 48 3f 8a d9 1e 3f
       0.8351734 0.48673978 0.78393656 0.6205069
000030 a4 4b 46 3f ca 48 e7 3e 44 97 03 3f 87 6b 13 3f
       0.7745917 0.4517272 0.5140269 0.5758595

layer2.0.bn1.bias f4 [16]
000000 2c cf 56 bb 44 6d 65 3e 4e 4b e4 bc a7 c3 9f bd
       -0.0032777293 0.22404963 -0.02786794 -0.078009896
000010 c9 49 6e 3f 04 19 49 bd 7a 76 5a bd 70 f9 f8 bd
       0.9308134 -0.049096122 -0.053335644 -0.121569514
000020 de 42 76 be 8a ec 5b 3e 55 e2 55 be 3a 4d 32 bd
       -0.24048945 0.21476951 -0.2088712 -0.04353068
000030 05 01 d8 bd 9e fc 79 3e ab 91 18 3f 5b 60 41 bd
       -0.105470695 0.24412772 0.5959727 -0.047211032

layer2.0.bn1.running_mean f4 [16]
000000 a9 1c 46 3e dc 58 b5 bf 58 12 eb bd 61 8c 78 be
       0.1934687 -1.4167743 -0.11478108 -0.242723
000010 c5 de 0f bf 0b c8 1d be 80 91 79 be ed 98 81 bf
       -0.56199294 -0.15408342 -0.2437191 -1.0124794
000020 22 a3 aa bf 30 76 03 40 1c 0c 67 bf 01 68 e2 bd
       -1.3331034 2.0540886 -0.9025285 -0.110549934
000030 3e c2 5c bf 59 bb 07 3e 39 20 91 bf dc 6f 6c be
       -0.8623389 0.13255061 -1.1337959 -0.23089546

layer2.0.bn1.running_var f4 [16]
000000 f3 70 12 3f d4 e5 76 40 4a d8 0a 40 c6 90 aa 3f
       0.57203597 3.8577776 2.1694512 1.3325431
000010 b2 bd 27 3f 1a 18 f7 3f 04 c6 00 40 93 43 d0 3f
       0.6552383 1.930423 2.012086 1.6270622
000020 5b f8 c7 3f d9 0f 04 40 5f fe c8 3f d4 cd d8 3f
       1.5622667 2.0634673 1.5702628 1.6937814
000030 88 07 dc 3f 42 3e af 3f 8c 1a db 3f fa d1 6a 3f
       1.7189798 1.3690875 1.7117476 0.9172665

layer2.0.conv2.weight f4 [16, 16, 3, 3]
000000 eb 52 63 bd 3a a4 d3 bd 0e 51 89 bd 50 14 d2 bc
       -0.055499 -0.10334058 -0.06704913 -0.025644451
000010 c7 13 dc bc 0a 28 83 bd 53 d3 02 bc 23 49 85 bd
       -0.0268649 -0.06404121 -0.007984954 -0.0650809
000020 d3 88 64 bd 51 de 28 be 0b 8e 9e be 73 88 cb be
       -0.05579455 -0.16491057 -0.30967745 -0.3975254
000030 b2 8c 08 3e 43 62 fc 3d 0c ea 71 bd 29 69 ae 3e
       0.13334921 0.123234294 -0.059061095 0.34064606
000040 84 c4 11 3f ec 1b 8e 3e be dc 90 bc ff 8b 82 bc
       0.56940484 0.27755678 -0.017683383 -0.015935896
000050 7f 94 27 bb 33 41 9e b8 78 4a d9 bd dc 78 2a bd
       -0.0025570688 -7.5461714e-05 -0.10609907 -0.041619167
000060 6b d2 41 bc 60 3b ee 3d a1 51 40 3e 3c 64 bd bd
       -0.011829953 0.11632419 0.18781139 -0.09247634
000070 cc 26 d3 3c 34 b5 b6 bd 0b 03 39 be 3b 95 c9 bd
       0.025775336 -0.089212805 -0.18067567 -0.098429166
000080 90 39 40 bd 14 8b bd bb fe df 85 bc b7 8c 12 3c
       -0.046929896 -0.0057844017 -0.01634216 0.008944682
000090 aa 0d 9b 3d d8 a5 ec bb 8a 4f fc 3d 08 ca 00 be
       0.075709656 -0.0072219186 0.12319858 -0.12577069
0000a0 f9 8c fc bd db 3b a4 bc d4 10 55 be 91 11 2c be
       -0.12331576 -0.020048073 -0.208072 -0.16803576
0000b0 e0 78 b5 3d 1e 67 f7 bd ce 9d 3e bd dc 3d 09 be
       0.08860946 -0.12080215 -0.046537213 -0.13402504
0000c0 90 05 1a 3e 39 e1 97 bd 95 7e eb 3d b9 9d 8b bc
       0.15041184 -0.07416005 0.11498753 -0.017042981
0000d0 da 4d 4c bc a8 d6 a5 bd 52 bc 7e bd 80 19 65 bc
       -0.012469733 -0.08097583 -0.062191315 -0.01398313
0000e0 68 2c 82 3d c3 d8 f3 bc b9 3a 17 3e db 22 ac 3b
       0.06356126 -0.029766446 0.14768495 0.0052531785
0000f0 4c b3 cb bb 8c 84 03 3e 14 af 43 3c 59 cf c1 bd
       -0.006216442 0.12843531 0.011943597 -0.094633766
000100 9f 17 f6 bc 43 19 ee 3c cf 84 b8 3d 0c f6 01 3e
       -0.03004056 0.02906478 0.09009706 0.12691516
000110 22 cf 9d bc d1 26 7e 3d d6 dd 15 3e 01 ea 05 3e
       -0.019263808 0.062048737 0.14635405 0.13077547
000120 b6 d0 86 bc 96 43 7e 3d 78 54 5e bd 2b 34 0a bc
       -0.016456943 0.062076174 -0.054279774 -0.008435289
000130 1d 57 d8 3d 8d ef 6b be e9 2f 3e bd 09 a9 6f bc
       0.105634905 -0.230406 -0.04643241 -0.014627703
000140 55 0d 04 bd 5e c5 39 3e 0c 20 90 3e 56 79 79 3e
       -0.032239277 0.18141696 0.2814945 0.24362692
000150 98 ef 0c be c4 92 60 bd 69 d0 84 bb ba ef 3f be
       -0.13763273 -0.054827467 -0.0040531647 -0.18743792
000160 ac cb 0a bf 52 ba d4 be 8c 66 3b 3d 26 78 55 bd
       -0.5421703 -0.415484 0.045752093 -0.052116536
000170 b1 d7 b6 bc 47 c8 9d 3d f3 69 78 3e ac 77 0a 3c
       -0.022319647 0.077042155 0.24259166 0.008451384
000180 6a b1 41 3c 33 7f 67 3d 67 2c 6b 3d cb e3 b3 bd
       0.011822084 0.05651779 0.057415392 -0.087836824
000190 54 75 f6 3d 6a 4a 66 3d 22 af df bd fc c8 cf 3e
       0.12034097 0.05622331 -0.10922076 0.40583026
0001a0 0e 2a 2a bc 0e 00 76 3a 3b f9 33 3d e3 a9 83 3c
       -0.010386003 0.00093841634 0.043938857 0.01607222
0001b0 e2 ed 6f bd f4 c0 a4 bd 75 15 8a bc ae e7 c8 bd
       -0.058576472 -0.080446154 -0.016855935 -0.098098144
0001c0 d9 14 e8 3c c9 4e 99 bd 60 d8 9f 3d dd 3e f6 3c
       0.028330253 -0.0748573 0.07804942 0.030059272
0001d0 65 6c d7 3b f2 d0 01 3e 79 43 37 bd de e5 b6 3c
       0.006574201 0.12677363 -0.04474208 0.022326406
0001e0 31 e4 87 bc 05 e0 64 be dc 56 30 be e9 ed b1 bd
       -0.016588302 -0.22351082 -0.17220634 -0.08687956
0001f0 22 34 0c 3e d1 e3 ef 3c 6c 5e cd 3c be 74 d4 bd
       0.13691762 0.029283436 0.025069438 -0.10373829
000200 7b 1a c2 bc 5a bb 86 bd b5 fc 00 be d7 26 df bd
       -0.023694267 -0.06578703 -0.125964 -0.1089608
000210 11 ca b9 bd 4a 76 b5 bb 74 ac 5e 3b 58 39 ba bc
       -0.09071744 -0.005537783 0.0033977302 -0.022732422
000220 4d b2 1a bd 63 76 e6 bd 17 9d d7 bd 3e d9 e7 3c
       -0.037767697 -0.11253049 -0.105280094 0.028301831
000230 fb a8 0d be 26 f9 88 bb 9b b6 67 bd 9c f2 8d bd
       -0.13833992 -0.0041800914 -0.05657063 -0.0693104
000240 6b 25 f9 bc 70 ef 61 bd f0 d9 76 bc 4c 49 3c 3d
       -0.03041335 -0.055159986 -0.015066609 0.04596834
000250 a6 bd 03 be 1e 98 56 be 26 7b c7 3d 87 a6 a1 bd
       -0.12865314 -0.20956466 0.097402856 -0.07893091
000260 57 b9 83 bd d9 14 ef 3d 42 4e b4 bc 49 31 a5 bd
       -0.06431835 0.11673898 -0.022009972 -0.08066041
000270 0f 92 97 3d 21 fe 1c bd c5 05 8e bd 3c be f1 bd
       0.07400905 -0.038328294 -0.06934694 -0.118038625
000280 58 a6 e1 3b e5 5e 6c 3c 13 e0 b4 bd 29 1c 70 3e
       0.006886285 0.0144269215 -0.08831801 0.23448242
000290 2b 63 0f be 2f 14 11 be 9b f0 29 be a5 5a 46 3e
       -0.14002673 -0.14167856 -0.1659569 0.19370516
0002a0 4e 22 0a 3e 7d b8 32 be d8 09 b1 3d 47 a4 04 bd
       0.13489649 -0.17453189 0.08644456 -0.03238323
0002b0 ea 13 06 3e c7 3a 2c be f3 54 7a be 22 b6 7e 3d
       0.13093534 -0.16819297 -0.24446468 0.062185414
0002c0 df ed 54 3e 8d 61 8c bd 99 ec 4f be 4a b4 d3 3d
       0.20793866 -0.06854544 -0.20305099 0.10337122
0002d0 bb c7 97 bd bd bc bc be a7 fc 93 bc ee 2e 8e 3e
       -0.074111424 -0.36862746 -0.01806481 0.2777018
0002e0 00 94 c6 bd 98 40 29 bb e7 59 90 3c 7b 06 85 3e
       -0.096961975 -0.0025825854 0.017620994 0.25981507
0002f0 c7 50 08 be 1d f8 9d 3d 1b 8e 40 3e dd 4c e2 bd
       -0.13312064 0.077133395 0.18804209 -0.11049817
000300 36 68 92 bd 33 07 29 be 6d 97 78 3e ae 20 d7 3c
       -0.07148783 -0.16506653 0.24276514 0.0262607
000310 36 3a 0a be d1 42 e0 bd 4f 70 84 3d bb 3f 09 3e
       -0.13498768 -0.10950244 0.06466734 0.13403217
000320 7b 24 e7 bd ba 3f 56 be 26 8a fd 3d a8 35 4a be
       -0.11286255 -0.20922747 0.12379865 -0.1974703
000330 a3 32 22 bc 12 d3 33 be 53 97 61 3e 5c 20 68 3d
       -0.009899768 -0.17560986 0.22030382 0.056671485
000340 6c e8 90 3e 67 29 c9 3c 6e 36 90 be 6b e7 cf 3e
       0.28302324 0.024555875 -0.28166527 0.40606245
000350 d4 d3 23 3f a2 52 24 be 73 c4 8f be f0 db 1b 3e
       0.639951 -0.16047147 -0.28079566 0.15220618
000360 64 08 62 3c c1 f8 eb 3b 0f fb 88 bd 3f 9c c8 bc
       0.013795946 0.0072012846 -0.066885106 -0.024488566
000370 a8 77 21 be f5 c8 80 be 8a be a4 3d 64 68 84 3c
       -0.15768301 -0.25153318 0.08044155 0.016163059
000380 2b 27 4c 3a ae 61 9b bd 55 06 00 bd 34 89 a6 3d
       0.0007787819 -0.0758699 -0.03125604 0.08131638
000390 1a 17 34 be 78 46 f5 3d 98 87 1b bd 26 42 1d bd
       -0.17586938 0.119763315 -0.03797111 -0.038393162
0003a0 4c 79 8e bc 4f 6c 88 bd ee f1 f1 bc e4 f7 a3 bd
       -0.017391823 -0.06661283 -0.029534306 -0.08006266
0003b0 7a 34 c0 bd c7 fc 6f 3d b4 52 a7 bd 6e f2 25 be
       -0.09385009 0.058590677 -0.08170071 -0.16205761
0003c0 2d 77 94 3d 26 4f 2e 3c cf cd b6 3d e5 66 97 ba
       0.072492935 0.010638988 0.089259736 -0.0011551051
0003d0 60 ec 3e 3d 43 17 9c bd be a9 0d 3d f3 ea 8a bd
       0.046612144 -0.07621624 0.034585707 -0.06783094
0003e0 66 ea 22 3d d6 b1 a7 3c 09 a4 5c bd a2 04 f1 bd
       0.03977432 0.020470541 -0.053867374 -0.11768462
0003f0 12 df 1b be ef 7a ca 3e 94 ad ae bb 30 fa 8d be
       -0.15221813 0.39546916 -0.0053307507 -0.2772994

layer2.0.bn2.weight f4 [16]
000000 9a 5f 24 3f 00 41 4b 3f ca 1b 1d 3f 58 29 14 3f
       0.64208376 0.7939606 0.6137053 0.57875586
000010 c1 0f 05 3f 04 f6 13 3f 92 89 ef 3e 75 3e 47 3f
       0.51977164 0.57797265 0.46784645 0.77829677
000020 c9 a1 0c 3f f4 5d 49 3f 4e f2 2d 3f cd c3 08 3f
       0.54934365 0.78658986 0.6794785 0.5342377
000030 1a a5 2c 3f 8b 33 1b 3f a2 a1 ef 3e 6f a5 b2 3f
       0.67439425 0.60625523 0.46803004 1.3956736

layer2.0.bn2.bias f4 [16]
000000 13 07 2b ba 4d 2f 0a be 4d 31 90 3e fc e0 18 3f
       -0.00065241865 -0.13494606 0.28162614 0.597183
000010 4f 0d 39 3e b2 50 00 3f a3 b0 15 3f 92 f5 49 3d
       0.18071483 0.5012313 0.5847265 0.04930646
000020 bf bb 31 bd 19 11 c4 bc db 17 94 3e c2 37 df bd
       -0.04339194 -0.023933934 0.2892445 -0.10899307
000030 29 d5 8e 3d 1f 96 22 3e 77 5d db bd 7c e3 7c be
       0.06974251 0.15877579 -0.107111864 -0.24696153

layer2.0.bn2.running_mean f4 [16]
000000 8f 4c 42 bf 07 31 5d be 8f dd 89 be 00 86 51 3e
       -0.7589807 -0.21600734 -0.26926848 0.20461273
000010 1f 2d 34 bf 9c d0 5e 3f d4 3a 68 bf 10 b8 96 be
       -0.7038135 0.8703706 -0.90714765 -0.29437304
000020 c2 96 bd be cc 0a c3 be 5f 7d e9 3f aa 2d 57 bf
       -0.37029082 -0.38094175 1.8241385 -0.8405405
000030 ac a0 78 3e 32 53 6c bf e0 d7 69 3f 52 44 83 bf
       0.24280041 -0.92314446 0.91345024 -1.0255225

layer2.0.bn2.running_var f4 [16]
000000 f5 a3 0a 3f 93 e0 b1 3e d7 d3 2f 3f c9 00 6d 3f
       0.5415643 0.3474165 0.68682617 0.92579323
000010 09 58 51 3f d8 5f 4c 3f 57 6d 44 3f 8e 07 ff 3e
       0.81774956 0.79833746 0.7672934 0.4981045
000020 44 a6 76 3e 6d 62 37 3f c6 28 9a 3f 0e c1 74 3e
       0.24086863 0.7163456 1.2043693 0.2390177
000030 07 ab 4b 3f 18 70 08 3f 31 f4 94 3e f3 ff 57 3f
       0.7955784 0.5329604 0.29092553 0.8437492

layer2.0.shortcut.0.weight f4 [16, 8, 1, 1]
000000 de 6d eb 3e 41 29 c1 3d ae f6 56 3d 4c d4 9b 3e
       0.4598226 0.09431697 0.052481346 0.30435407
000010 c0 73 35 3e 24 86 41 be 71 d6 6d bd 28 51 11 be
       0.17719936 -0.18898827 -0.058065835 -0.14191115
000020 c3 84 1d be d9 b7 a6 bd 83 f2 08 3c 01 3d 23 bd
       -0.15382676 -0.08140535 0.008358601 -0.0398531
000030 12 50 2c 3d 19 9e 0d bd f1 83 5f be 94 67 04 3d
       0.04206855 -0.0345746 -0.21827675 0.032325342
000040 17 b5 8e bd 43 f5 b3 3a 9d 19 00 3e 7b b8 a5 3e
       -0.06968134 0.001372971 0.1250977 0.3236731
000050 2d 3e af 3e 52 a6 8e 3e 7a 50 19 3e c8 7e fb 3c
       0.34227124 0.27861267 0.14972106 0.030700102
000060 36 4f 03 3e ba 3e 18 3e 6d 07 73 3e bc 07 c3 3e
       0.12823185 0.14867678 0.23733301 0.38091838
000070 8a e4 53 3e 5e 65 80 bd b9 c3 41 bd a9 55 8c be
       0.2069265 -0.06269334 -0.047305796 -0.27409104
000080 49 ea 8a 3d ea 33 03 3e 9a 07 cc 3b e8 4f b9 be
       0.067829676 0.12812772 0.006226492 -0.36193776
000090 2b f9 43 3e c4 2d ed 3d 79 1d 69 bd a3 6e b5 bd
       0.19138019 0.11580995 -0.056912873 -0.08858993
0000a0 02 f0 f8 bd f5 e0 ba bc 68 73 f8 3c ce a4 d2 ba
       -0.12155153 -0.022812346 0.030328467 -0.0016070844
0000b0 90 4b 9f bc 73 3d ee 3d f9 eb b9 bd 2e 87 12 3e
       -0.01944521 0.11632814 -0.09078211 0.1430938
0000c0 f4 e1 eb 3d e9 29 57 3e d3 e4 ad bd 0e d2 1e bc
       0.115177065 0.21012081 -0.084909104 -0.009693636
0000d0 71 1b de 3b bb 9d b5 be 0e d6 90 bd bc 0b 14 3e
       0.0067781736 -0.354719 -0.07072078 0.14457601
0000e0 46 11 a3 3e 32 f3 03 bd 40 32 ec bd 8d 45 08 3d
       0.31849116 -0.03221435 -0.11533022 0.033269454
0000f0 27 a7 cb 3d 16 26 94 3e 74 f8 3d be 3e 11 8f 3b
       0.09943991 0.28935307 -0.18551809 0.004366069
000100 4f b2 ae 3d 95 1f a3 3e 00 bf a9 3b 00 a3 9f be
       0.085301034 0.31860033 0.0051802397 -0.31179047
000110 6e 47 69 3e da 93 47 3d 82 f6 a6 3c 95 89 8f bd
       0.22781155 0.048724987 0.020381216 -0.070086636
000120 1b e3 c9 3d 95 b3 9c 3d 23 9a 71 bd b2 a0 6a bd
       0.0985777 0.0765144 -0.058984887 -0.057282157
000130 6a a4 40 3d a3 2e ab be bf 59 f7 bd 30 3e 16 3e
       0.047031797 -0.33434018 -0.120776646 0.1467216
000140 c4 66 1c 3e 3f ae 29 3d 2c a4 4a 3e f6 50 eb bd
       0.15273577 0.04142594 0.19789189 -0.114900514
000150 50 ae 81 bd ca f2 42 be 6a b8 8f bd dd 45 0b be
       -0.063320756 -0.19037929 -0.07017596 -0.1360087
000160 67 29 5d 3d ff 1f fe 3e a0 58 b3 bd bb 7b 05 3e
       0.053994562 0.49633786 -0.08757138 0.1303548
000170 3c d4 27 bf e8 5e 71 3d 30 a5 67 bc ef f3 4b 3a
       -0.6555822 0.0589284 -0.014138505 0.00077801844
000180 f6 55 19 bd 1c 26 32 be af 43 34 bd cd 76 85 3e
       -0.037435494 -0.1739735 -0.04400986 0.260672
000190 17 8b 86 be 5a 17 b6 be 46 4a 58 bd c9 11 c9 ba
       -0.26277992 -0.3556469 -0.052805208 -0.0015340383
0001a0 7d a4 b2 3e e1 d5 08 3e 46 c4 a1 bc c6 ff e6 3d
       0.3489112 0.13362838 -0.01974691 0.11279254
0001b0 e4 a3 1d 3d 8c 26 84 be ec e3 d1 bc 32 14 0d be
       0.038486376 -0.2581066 -0.025621377 -0.13777235
0001c0 93 7d 5c 3d ae b4 be be c3 a2 18 3d b4 69 6b be
       0.053830694 -0.37247223 0.037264597 -0.22989541
0001d0 49 aa 60 3f 54 82 27 be e6 20 00 bd 43 81 31 bd
       0.87759835 -0.1635831 -0.031281374 -0.043336164
0001e0 0e 39 98 bd 7a 13 af bc c8 8b c0 be 1b 37 e8 bc
       -0.07432757 -0.021371592 -0.37606645 -0.028346589
0001f0 cf dc d5 bd be 86 34 3e 19 de 05 3d ba de 54 3e
       -0.104425065 0.17629525 0.032682512 0.20788088

layer2.0.shortcut.1.weight f4 [16]
000000 9c 3f e9 3e 8d 2b 11 3e 59 14 8a 3e e7 a2 17 3e
       0.45556343 0.1417677 0.2696865 0.14808236
000010 8d 54 e4 3d 33 2a 24 3d a8 89 b3 3d 5d ac 8f 3e
       0.11148939 0.040079307 0.0876649 0.2806119
000020 43 cf 89 3e 0d a8 26 3e a3 99 de 3d c5 98 0f 3f
       0.2691594 0.16275044 0.10869148 0.5609248
000030 5b bc 7f 3e d8 19 5c 3e 6c a5 1b 3f 25 03 7d 3e
       0.24974196 0.21494234 0.6079929 0.24708231

layer2.0.shortcut.1.bias f4 [16]
000000 13 07 2b ba 4d 2f 0a be 4d 31 90 3e fc e0 18 3f
       -0.00065241865 -0.13494606 0.28162614 0.597183
000010 4f 0d 39 3e b2 50 00 3f a3 b0 15 3f 92 f5 49 3d
       0.18071483 0.5012313 0.5847265 0.04930646
000020 bf bb 31 bd 19 11 c4 bc db 17 94 3e c2 37 df bd
       -0.04339194 -0.023933934 0.2892445 -0.10899307
000030 29 d5 8e 3d 1f 96 22 3e 77 5d db bd 7c e3 7c be
       0.06974251 0.15877579 -0.107111864 -0.24696153

layer2.0.shortcut.1.running_mean f4 [16]
000000 d6 54 dd 3e b3 19 91 be 32 f4 45 3f 80 07 c6 3e
       0.43228787 -0.2833992 0.7732574 0.38677597
000010 e3 e6 7f bd 31 e9 45 3d 8b 7f d6 bd 29 44 d0 3e
       -0.06247605 0.04831809 -0.10473546 0.40677002
000020 14 2e bf 3d 5d 8c 47 be 59 29 64 be 97 28 37 3d
       0.093349606 -0.19487138 -0.22281398 0.044716444
000030 f1 51 cb be 87 a9 aa 3d 16 06 08 bd 9a 64 2d 3d
       -0.39710954 0.08333116 -0.03320893 0.04233227

layer2.0.shortcut.1.running_var f4 [16]
000000 8a 66 52 3e b4 ea 5b 3d aa 0d 2d 3e de 06 ec 3d
       0.20546928 0.053690627 0.16899744 0.11524747
000010 37 bd 8d 3d 86 c3 06 3d 94 e9 89 3d 79 39 09 3e
       0.069208555 0.03290131 0.067340046 0.1340083
000020 a7 af cd 3d 1d f7 89 3d d2 fd e4 3d bc 14 0a 3e
       0.10043269 0.06736586 0.11181225 0.13484472
000030 b4 b7 e8 3d 06 97 f1 3d c3 2e 46 3e fc a3 10 3e
       0.113631636 0.117963836 0.19353776 0.14125055
