meta_results/meta_half_seed-1_metalr-0.0001_T-2_400_4-cycles_cifar100-ResNet10_smodel_best.pth.tar (torch, 910549 bytes, 128 tensors)

conv1.weight f4 [8, 3, 3, 3]
000000 e4 95 2d 3e 05 6d 92 3e ba 0e 15 3e f0 23 c1 3d
       0.1695171 0.285988 0.14556399 0.09430683
000010 f8 75 e4 be 21 c0 5d 3e a1 55 9e 3e 76 8a c6 bc
       -0.44621253 0.21655323 0.30924705 -0.024235945
000020 5e 0a 64 3e 46 6e 67 be f8 ed 8d 3d f2 cf d7 bd
       0.2226958 -0.2260066 0.069301546 -0.10537709
000030 dc 4e 31 bd 12 20 2b bf a3 b6 5d 3d fc a1 2e 3e
       -0.043288097 -0.6684581 0.054129254 0.1705398
000040 7b cc 4b be 9f ef 33 3e ae 95 97 bd 7b 8d b4 3d
       -0.19902222 0.17571877 -0.07401596 0.08816048
000050 6a e2 39 be c1 1f 1a bd 10 cc da be 06 3c 94 be
       -0.18152776 -0.03762794 -0.42733812 -0.28952044
000060 60 ff bf bd ab 0b 9f be ca 7e c9 be 6d bb ba bd
       -0.09374881 -0.3106359 -0.39354545 -0.0911778
000070 85 ec 18 bf ce 46 28 be 41 2b 70 3e a4 06 a4 3f
       -0.597359 -0.1643326 0.23454 1.2814527
000080 38 0d 9c 3e a3 23 ad 3d 67 27 49 3f 60 00 00 3f
       0.30478835 0.08454063 0.7857575 0.5000057
000090 a2 2c 63 3e ed 62 30 be 23 dd d8 3d 9a 90 72 be
       0.22184995 -0.17225237 0.105890535 -0.23687974
0000a0 6f b5 08 3e 3e ba 40 bf 6b 9c a4 be 8c 28 29 bf
       0.13350461 -0.75284183 -0.32150587 -0.66077495
0000b0 78 7c fe be 26 2a 3f bc 55 f0 29 bd 20 81 d3 3e
       -0.49704337 -0.011667764 -0.041488964 0.41309452
0000c0 fa 33 7d bd 23 00 eb bd 4a e7 7a be 4f 1f 11 3e
       -0.061817147 -0.114746355 -0.24502292 0.141721
0000d0 de f4 d5 be b5 4b f0 3d fa 1a dd bc 77 28 1d bd
       -0.4178838 0.1173319 -0.026990402 -0.03836867
0000e0 17 2c f5 bc a3 b6 bc bc 5a fd 8b bf b1 6d a3 bf
       -0.02992825 -0.023036307 -1.0936692 -1.276785
0000f0 ce c7 ed bc bf db bf bc ab c1 24 bd a3 81 4b bd
       -0.029025938 -0.023420213 -0.04022376 -0.049684178
000100 1a cb 15 3e 94 32 0b 3e 15 34 3d 3e e7 62 14 bf
       0.14628258 0.13593513 0.18476899 -0.57963413
000110 bf 73 56 bf a0 81 d3 bd 87 cf c8 3d 1f 2f c5 3c
       -0.83770365 -0.103274584 0.09805208 0.02407032
000120 21 8c 5a bc 45 34 5a 3d 5c dc e4 3d c1 a2 02 3e
       -0.013339073 0.053272504 0.11174843 0.12757398
000130 ff 62 03 bf aa 82 33 bf db 90 8d 3c b2 21 5a 3d
       -0.5132293 -0.7012125 0.017280987 0.05325479
000140 26 35 4d 3c 87 de ce bd 74 95 ba be 01 0c c6 bd
       0.012524879 -0.101010375 -0.3644215 -0.09670258
000150 30 35 d2 bd e7 6b 41 bd 11 ed da be 66 4d 1d be
       -0.10264051 -0.047222044 -0.42758992 -0.15361556
000160 45 46 8f be 45 c2 2e bc e7 d1 3e 3e 16 8f 87 3d
       -0.279833 -0.010666435 0.18634759 0.06619088
000170 d4 71 87 3e 7c 75 a1 3e 06 0c 77 3f 44 87 4a be
       0.2645403 0.31534946 0.9650272 -0.19778162
000180 4a 46 5a be 1a a7 bf 3d 10 f0 e4 bd 8d 25 5c be
       -0.21315876 0.09358044 -0.11178601 -0.214987
000190 7b 4a b1 be 12 ed 10 3e 9a d2 6f 3d f6 b1 41 3f
       -0.34627137 0.14152935 0.058550455 0.7566217
0001a0 13 7e b2 3d d4 84 23 bc d1 23 d9 3e fb d8 7b 3e
       0.08715453 -0.009980399 0.42410138 0.2459449
0001b0 e0 82 90 bc d2 7e b4 3c b8 e8 93 be a1 e4 42 be
       -0.017640531 0.022033129 -0.28888488 -0.19032528
0001c0 9d 9b 7a be 36 dd 2c bd 55 97 13 be 21 bb 34 3e
       -0.24473424 -0.04220315 -0.14413197 0.17649509
0001d0 a9 13 4b 3e 82 fb 0f 3e b8 11 ac 3e 44 5d 24 3d
       0.19831719 0.14060786 0.33607268 0.040128008
0001e0 0a 83 0c 3f 48 98 0c 3f e2 99 56 3f 01 b0 54 3e
       0.5488745 0.5491986 0.83828557 0.20770265
0001f0 f2 fb 35 3f 90 5e bf 3e 71 5a 69 be c7 a8 d9 3d
       0.71087563 0.37376833 -0.22788407 0.10627895
000200 a0 5f c8 bd ea c3 7f be c1 20 6a bf c5 2a e5 be
       -0.09783864 -0.24977079 -0.9145623 -0.44759193
000210 48 3c 4c be b8 ea 1e bf c7 83 2a bf 2b 4a 7f bb
       -0.1994487 -0.620769 -0.66607326 -0.003895412
000220 76 b1 ca bd f2 e2 73 be c0 ba 4d bd 77 31 2a 3e
       -0.09897129 -0.23817042 -0.050226927 0.16620432
000230 11 72 0d 3f e8 58 ea bd 73 aa ba 3e 95 f7 54 3f
       0.55252177 -0.11442739 0.36458167 0.8319028
000240 4e 06 75 bd c4 6b 06 bd f7 2c 1f 3e 2c 5d 35 bd
       -0.059820466 -0.032817617 0.15544496 -0.04427831
000250 e0 b6 aa be 80 c4 15 be d7 b7 b6 bd 8f 78 18 bd
       -0.33342648 -0.1462574 -0.089217834 -0.03722435
000260 0a 5c d4 3e b8 05 f0 bd 94 c4 b4 3d a0 76 60 3d
       0.4147647 -0.11719841 0.08826557 0.05480063
000270 07 9a bf 3d 19 4d 01 3d 94 b8 2d be 98 d2 2b 3e
       0.0935555 0.031567667 -0.16964942 0.16779554
000280 84 6e 54 bd 33 14 30 3d a9 7e 4b bd 30 c1 1b 3b
       -0.05186321 0.042988013 -0.04968134 0.0023766272
000290 e8 4e c4 3d 5b 10 63 bf 85 38 5b 3f af d1 d3 3c
       0.09585363 -0.8869683 0.85633117 0.02585682
0002a0 60 59 42 bd 24 21 a7 3c 7c 16 f5 3d 0e e9 4b bc
       -0.047448516 0.020401545 0.11967179 -0.012445701
0002b0 e2 c8 21 3e 2f ba af bd 5d 53 ca bf cb ea c2 3f
       0.15799287 -0.085804336 -1.580669 1.5227903
0002c0 56 95 d6 3d d1 af 56 3c 2c 8f 99 bc 1d 27 d3 bd
       0.10477702 0.013103441 -0.018745027 -0.10310195
0002d0 98 35 b1 bd af 4a b6 3d 86 cd b1 bd c6 94 7b bf
       -0.086528 0.089009635 -0.086817786 -0.98273885
0002e0 27 51 7c 3f 65 1a 36 bd 2f ca 8a 3c e4 51 b1 3d
       0.9856133 -0.044458766 0.016942112 0.086581975
0002f0 2a c4 cd bd 85 17 b8 3e 77 7f b0 3f ef c5 88 3e
       -0.10047181 0.35955444 1.3788899 0.2671351
000300 35 ad 73 be ff 04 8b bf 05 9a e4 be b7 6b 65 bd
       -0.23796542 -1.08609 -0.44648758 -0.056010928
000310 02 1f 9b bd 78 71 e2 3d 37 04 be 3e 07 f1 cb 3f
       -0.07574274 0.11056799 0.3711259 1.5932931
000320 ae b6 95 3e 10 b6 ae be 3d af be bf ef 23 0c bf
       0.29240936 -0.34123278 -1.4897228 -0.5474233
000330 f6 ca c9 bb c7 08 75 bd 92 4d 88 3c 3e a5 8b 3c
       -0.006158228 -0.059822824 0.01663855 0.017046567
000340 1b 24 43 3f aa 0e 22 3e cf f7 53 be 48 23 79 bf
       0.7622697 0.15825906 -0.207 -0.9731946
000350 97 50 54 be 95 d5 55 3d 9c c5 60 3d 33 e8 7a 3e
       -0.20733868 0.05220564 0.054875955 0.2450264

bn1.weight f4 [8]
000000 7d a5 2c 3f ab 77 5b 3e 18 ee d1 3f 8e 11 83 3e
       0.67440015 0.21432368 1.6400785 0.2559933
000010 ab 8f 5a 3e 3b 5d 89 3e 7b 9e ca 3e bf ac bd 3e
       0.21343867 0.26828942 0.39574036 0.37045857

bn1.bias f4 [8]
000000 7b 13 0f bf 8a fd 5b 3e 6f 4b f3 bf 4e 1b 8c 3e
       -0.558891 0.21483436 -1.9007396 0.27364582
000010 2c 43 00 3f 84 81 b6 3e 6a 6a bb 3e 58 e8 83 3e
       0.50102496 0.35645688 0.36604625 0.25763202

bn1.running_mean f4 [8]
000000 06 f9 be 3e 0d 32 79 bd 7c 73 d3 3f 06 5b 47 be
       0.37299365 -0.060838748 1.6519618 -0.19468316
000010 17 85 a2 be b4 aa 09 bf 6c 88 35 bd 4a 6e 3b 3d
       -0.31742164 -0.537761 -0.044319555 0.045759477

bn1.running_var f4 [8]
000000 d3 a5 56 40 3e 03 a3 3f 14 e8 b6 41 1a 81 0b 40
       3.353871 1.2735364 22.86332 2.1797547
000010 92 3e e1 3f 80 a9 29 40 34 10 4e 40 41 0e cc 40
       1.759722 2.6509705 3.219739 6.37674

layer1.0.conv1.weight f4 [8, 8, 3, 3]
000000 1e 2f 30 bd 13 82 22 3d b1 2b b7 bd 93 54 0c 3e
       -0.043013684 0.03967483 -0.0894388 0.13704138
000010 bb 22 04 3f 20 72 2e 3e bd a8 ee bd 0f 60 ac be
       0.51615494 0.17035723 -0.11653278 -0.33667037
000020 9b 61 ad 3d 9e a2 4f 3d a4 73 33 3e 0a 6b 26 3d
       0.084658824 0.050692193 0.17524582 0.040629424
000030 9e f9 b4 3d 50 ce ee bd b2 b0 a9 bd 42 25 9a bd
       0.08836673 -0.11660445 -0.08285655 -0.075266376
000040 d6 f6 15 3e 16 d1 f5 bd 7d aa ae 3e c2 31 23 3e
       0.14644942 -0.120027706 0.34114447 0.1593695
000050 0d 34 d0 3d d0 c6 f4 3e bf ac 9d 3e b6 bf aa 3d
       0.10166178 0.47807932 0.30795857 0.08337347
000060 89 16 2d bf f1 83 49 bf 06 43 d0 3c 44 1d f1 3d
       -0.6761251 -0.7871695 0.025422584 0.1177316
000070 e6 70 ef bd 52 33 33 3e 54 1c 84 be f2 20 16 bf
       -0.116914555 0.17500046 -0.25802863 -0.5864402
000080 80 ad d5 be ce ee 9b 3d 09 d1 27 3f 5f b3 20 3e
       -0.41733932 0.07613908 0.6555334 0.15693425
000090 78 5e 4f 3e d6 3b 59 3d 5f ce a4 3d 89 e1 1c be
       0.2025088 0.05303558 0.08047175 -0.1532041
0000a0 78 84 5a bd fc c3 52 be 7a 09 15 3d ca 10 00 3d
       -0.05334899 -0.20582575 0.03638599 0.03126601
0000b0 f1 79 de bb bc 5a 0a bf 2e b8 3d be c0 19 a0 be
       -0.006789439 -0.540447 -0.1852729 -0.31269646
0000c0 49 7b 99 3e ff f9 82 3e 99 72 44 3e c3 f2 51 3e
       0.29976872 0.25581357 0.1918434 0.20502762
0000d0 3a 26 27 3c 0e 43 a6 bc cb 62 b1 3d 52 c3 ff 3d
       0.010201985 -0.020295646 0.086614214 0.12488426
0000e0 a9 5f 08 bb 0f c2 87 bd 99 71 b6 be a3 d4 8d 3e
       -0.002080897 -0.066288106 -0.35633543 0.2770129
0000f0 9f 7c 9f 3c a6 cc 34 3e 44 ed 48 be 39 d1 c4 3a
       0.019468604 0.17656192 -0.1962176 0.0015015966
000100 ea f8 16 be f7 ca 85 3d 7f 11 97 bd 1d 16 b3 3d
       -0.1474339 0.06532853 -0.07376384 0.08744452
000110 4a 74 8c 3d a6 6c 30 be e1 cd dc bf 1c 25 8a be
       0.06858118 -0.17228946 -1.7250329 -0.26981437
000120 86 bb 91 3d e8 d3 75 3d 35 4d 6f bc a4 b8 9f 3d
       0.071158454 0.060016543 -0.01460581 0.07798889
000130 37 cb 08 3e 21 45 2f 3e 4c f1 e7 bd b7 d6 36 3e
       0.1335877 0.17116214 -0.113253206 0.17855345
000140 62 96 3b bd 34 2a 98 3d 1a b3 40 bd 19 60 46 bd
       -0.045797713 0.074299246 -0.047045805 -0.04843149
000150 b3 9c 2d 3e 18 44 3c bd 4c 1a 94 be 98 db 01 be
       0.16954307 -0.045963377 -0.28926313 -0.12681425
000160 3d cc 2b 3d 33 b4 f6 3d e0 be 96 bd 87 d2 07 3f
       0.041942824 0.12046089 -0.07360625 0.53055614
000170 ec 54 13 bc b3 fb d1 3d 96 c0 89 3f fc 8a 7e 3e
       -0.008992415 0.10253086 1.0761898 0.24857706
000180 74 72 1e bd 33 58 18 3f 3c 3e a6 bc 37 91 20 bd
       -0.03868337 0.5950958 -0.020293348 -0.039200988
000190 cf 87 d3 bd 82 fe 40 3e f8 4e 70 3d fd e4 a1 bc
       -0.10328638 0.18847087 0.05866906 -0.01976251
0001a0 03 ac 9f bd b4 55 ab bd 12 01 19 bd be 6e 2c 3e
       -0.077964805 -0.08365956 -0.037354536 0.1683912
0001b0 7b 7a 13 3d c8 1b 25 3d ea 29 21 bd 49 02 26 bd
       0.03600548 0.040309697 -0.039346613 -0.040529523
0001c0 f7 64 11 bc 20 33 4d 3d 0f b9 1c 3d 0e 00 1e 3d
       -0.00887417 0.050097585 0.038262423 0.03857427
0001d0 c3 41 b2 bd f3 53 30 bd 7b 6d a6 bd a0 86 3f 3e
       -0.08703949 -0.04304881 -0.081263505 0.18703699
0001e0 39 2e ae bd 44 0d bb ba bc d3 5b 3e 94 29 84 3d
       -0.0850491 -0.0014270921 0.21467489 0.06453243
0001f0 ce a1 25 3d 38 db 10 be 3b 1c a9 3b 37 09 09 be
       0.040437512 -0.14146125 0.005160836 -0.13382421
000200 d7 d1 f1 bd c4 52 b5 3d d6 cf 25 3e 9a cf 04 3e
       -0.11807602 0.08853677 0.16192564 0.12969819
000210 d3 58 34 bc ca 0d 08 bc ea 3b 10 be 84 0c 14 3d
       -0.0110075055 -0.008304069 -0.14085355 0.03614475
000220 16 af 01 bd ed ee 9e bd a3 4e 26 be e2 2f 5b 3e
       -0.031661116 -0.07760415 -0.16240935 0.21404985
000230 8d d9 03 be b3 fa 9c bd 67 5b 6a 3d 66 f1 d8 bd
       -0.12875958 -0.076650046 0.057216074 -0.10592918
000240 28 76 62 bb fd de 8d bc 87 b6 1a be 45 52 61 bd
       -0.003455529 -0.017318243 -0.15108691 -0.0550101
000250 2c ae c8 bd d2 07 16 be 33 ed 8e bd aa 68 7f 3c
       -0.09798846 -0.1465142 -0.06978836 0.015588919
000260 6b c6 8c 3d 24 72 ca 3e 7a cf 86 bd 67 cb ad be
       0.06873783 0.39540207 -0.06582542 -0.33944246
000270 d4 96 4e 3d 83 64 52 3d f0 c2 14 be 5a 0d 02 be
       0.05043681 0.051365387 -0.14527488 -0.12700406
000280 dd ed aa bd b6 b2 64 bd e1 55 2b bc ab e5 48 bd
       -0.0834615 -0.055834495 -0.010457487 -0.049047153
000290 e8 13 a1 3d 40 af 0e 3e 75 6d dc bd e9 a0 1f 3e
       0.07865125 0.1393404 -0.10763065 0.15588726
0002a0 fe 2b 80 3d 3e 40 43 be 80 b6 3c 3d 2e dc fd 3c
       0.06258391 -0.19067475 0.046072483 0.030988779
0002b0 d8 8c af bd bb 71 b0 bd 77 39 a1 bd cb 6a 00 be
       -0.08571786 -0.08615442 -0.07872289 -0.12540738
0002c0 23 5d 9d 3d 3e 92 03 3c 23 5d fb bd e6 f4 1e be
       0.0768378 0.008030472 -0.12273624 -0.15523109
0002d0 1e 7d 40 bf 55 bd 20 bf 64 72 33 3d 88 d3 ce be
       -0.75190914 -0.627889 0.043810263 -0.4039576
0002e0 36 bc 99 be 51 95 38 3e 5d 75 80 3d e4 2b ce 3e
       -0.30026406 0.1802571 0.06272385 0.4026786
0002f0 63 64 be 3e 83 08 3b be 3b 39 a8 bd 4a 53 23 be
       0.37185964 -0.18264966 -0.08214041 -0.15949741
000300 2a 06 79 3e b7 99 94 3e 49 32 d8 3d 3d 7d bc bc
       0.24318758 0.29023525 0.10556466 -0.023008937
000310 42 18 2d bd a5 51 eb 3c 0d 72 e1 3c d4 b2 35 be
       -0.042259462 0.028725455 0.027520204 -0.17743999
000320 2d 32 50 3e af 7e e7 3a 99 e4 5f 3d f8 2b 7b 3d
       0.2033164 0.0017661656 0.054661367 0.06132123
000330 8a f5 e4 bc e4 9b 14 bc a1 83 10 be 2b 3f ac 3d
       -0.027949113 -0.00907037 -0.14112712 0.08410486
000340 8d 40 02 bd 2f 73 02 be d3 c8 82 bd c9 bc 22 3e
       -0.03179984 -0.12739252 -0.063859604 0.15892328
000350 f1 05 18 be f3 dc 40 be 7a b4 6a 3e f5 80 4b 3c
       -0.14846016 -0.18834285 0.22920409 0.0124208825
000360 0e 8e 5b 3d e0 cc 90 bd 1f ae 22 bd 0f 38 e9 bd
       0.05360227 -0.07070327 -0.039716836 -0.113876455
000370 e5 8f 42 be 10 74 ca 3e 73 d2 69 bd bd 16 f0 3d
       -0.19000204 0.39541674 -0.057085466 0.11723087
000380 31 ba 9c 3e 38 8d 82 3d f1 73 07 3c 9c 79 48 bd
       0.30610803 0.063745916 0.008267389 -0.0489441
000390 8a f9 94 bd 33 62 24 be ce 94 23 3c 1e 0f dc bb
       -0.07274158 -0.16053085 0.009984208 -0.0067156693
0003a0 55 a9 d6 3d 37 9a 90 be 65 6a bb be ec 36 86 be
       0.10481516 -0.28242657 -0.3660461 -0.26213777
0003b0 48 f7 7e 3e ea 18 6e be 9c 2a 18 be a6 53 1e 3f
       0.24899018 -0.23251691 -0.14860004 0.6184639
0003c0 62 6d 75 bd 5f dd 0d 3e d3 5d f9 3e eb cf e4 bd
       -0.05991877 0.13853978 0.48704395 -0.1117247
0003d0 45 78 d9 3d df 23 63 3d 9a 2d 66 3c 7c e2 da 3d
       0.10618643 0.05545413 0.014048958 0.1068773
0003e0 56 10 65 3d 53 fa 79 bd a6 3e c2 3d 3b 40 d8 be
       0.055923782 -0.061029743 0.094846055 -0.42236504
0003f0 6b 73 cc bd 90 a3 a9 3d bb 09 63 bd ac b9 25 3d
       -0.09982952 0.0828315 -0.0554292 0.040460274

layer1.0.bn1.weight f4 [8]
000000 af ac 38 3f 0c 2e 8b 3f 32 98 b8 3e 44 c4 06 3f
       0.72138494 1.0873427 0.36053616 0.5264323
000010 04 27 9a 3e 07 ee f1 3e 73 09 94 3e 8a 0d 13 3f
       0.30107892 0.47251913 0.2891346 0.57442534

layer1.0.bn1.bias f4 [8]
000000 14 89 30 3e 8c 36 ab bf 18 bb 53 3e 64 8b 91 be
       0.17239791 -1.3376021 0.2067684 -0.2842666
000010 22 0f e3 3e 26 6c 18 3e da 88 1b 3f 85 a9 6c 3e
       0.44347483 0.14885005 0.60755694 0.23111542

layer1.0.bn1.running_mean f4 [8]
000000 b4 36 21 bf 5d 38 14 3e d8 a0 2e bf 91 b5 10 be
       -0.62974095 0.14474626 -0.6821418 -0.14131762
000010 d5 8c d9 3d 0f 90 56 3e e0 89 98 be 2c 8e de be
       0.10622565 0.20953391 -0.2979269 -0.43467844

layer1.0.bn1.running_var f4 [8]
000000 2d bc 26 3f 6b f1 bc 3d 02 65 e0 3d 64 76 68 3d
       0.65130883 0.09225734 0.10956766 0.05675353
000010 dd d8 a0 3d 9b b1 95 3e 03 cf 9f 3d e7 f6 b2 3e
       0.078538634 0.29237065 0.07803156 0.34953997

layer1.0.conv2.weight f4 [8, 8, 3, 3]
000000 98 99 c6 3d 4d 05 d8 bd 32 33 21 bd 23 c6 85 be
       0.096972644 -0.10547886 -0.039355464 -0.2612773
000010 44 6f b6 bf ca 5a a3 be b5 77 ad 3d 1f 16 30 3d
       -1.4252706 -0.31905204 0.08470098 0.042989846
000020 95 5b 9f 3d 5c f5 47 bd 2e 54 1f 3d 05 21 ee 3d
       0.0778114 -0.048817977 0.03889864 0.11627392
000030 2b fc 3a be 43 1a 89 3d 1f c6 de 3d 84 a7 b7 be
       -0.18260257 0.06694462 0.10877632 -0.35869992
000040 85 9d 23 bf 02 d1 28 3d 5c 49 ca bc 1c b5 ec bd
       -0.6391223 0.04121495 -0.024693184 -0.11557981
000050 7b 49 d2 3c 3e 9e 49 3d ea 7f 70 3e 0f a0 0e be
       0.025669804 0.049223177 0.23486295 -0.13928245
000060 11 0d 3d 3d dc 87 37 3e 56 0b 9a bd 60 75 ed bd
       0.04615504 0.1792292 -0.075216934 -0.11594653
000070 a6 08 f4 3d c4 4b d1 3d a2 5e 0a bf 70 3d f8 bd
       0.11915712 0.10219529 -0.5405065 -0.12121093
000080 65 6f c2 3d 5f d7 51 3e d1 35 05 3e 30 4d 93 3d
       0.09493903 0.20492314 0.1300881 0.07192457
000090 5e df b7 3d 9c 21 da 3d b1 d4 cd bd d2 a9 b4 3d
       0.08978151 0.10650942 -0.10050333 0.08821453
0000a0 45 a0 87 bc a1 02 a6 bd 6a 14 e9 3d 8d 54 79 3d
       -0.016555915 -0.0810597 0.11380847 0.06087165
0000b0 7b d6 f2 bd bc fa f8 3c 6a ca 3c 3e 5c 2b 17 bd
       -0.11857315 0.030392997 0.1843659 -0.036906585
0000c0 e5 23 d4 3b 07 0b b0 3e 63 78 7e 3e a1 74 97 3d
       0.0064740055 0.34383413 0.24850611 0.07395292
0000d0 4c 9f 07 bf 39 08 47 3e a7 ca cd bb bd 03 12 bd
       -0.5297744 0.1943673 -0.0062802616 -0.035648096
0000e0 fa c9 e3 bd 6a c8 fd bd 52 e7 56 bd aa 82 0b 3d
       -0.11122508 -0.123917416 -0.052466698 0.034060158
0000f0 a1 e0 a9 39 8e 82 33 3e 47 ea ba 3d 03 94 07 bc
       0.00032401553 0.17530271 0.09126716 -0.008275035
000100 eb 24 b6 3d e1 fd 5b 3d 13 ad 13 3e 6e 4d 3d 3e
       0.0889376 0.053708915 0.14421491 0.18486568
000110 db 72 82 bd b7 33 d1 3e 8a a8 d6 be 16 79 76 be
       -0.06369563 0.40859768 -0.4192546 -0.24069628
000120 24 c8 25 bd d5 80 59 be 18 f2 76 3d b0 60 44 bc
       -0.040474072 -0.21240552 0.060289472 -0.011985943
000130 86 3a 54 3d 9f 73 42 3e 2d 1b aa bc 3c df a1 bd
       0.051813625 0.18989418 -0.020764912 -0.07903907
000140 e7 3a 04 be 06 d1 0a 3e 44 80 b9 bc f4 be 43 3c
       -0.12913094 0.13556299 -0.02264417 0.011947382
000150 49 ff 94 bb 04 91 c5 bd f5 9c 2e be 86 e6 81 be
       -0.004547034 -0.096468 -0.17052062 -0.25371188
000160 0d c0 68 be 60 5f 82 be 12 82 91 bd e6 70 6c bd
       -0.22729512 -0.2546339 -0.07104887 -0.057724856
000170 c2 f4 a6 be 44 e5 32 be 49 85 c2 3d 61 7c 62 3e
       -0.3260861 -0.1747027 0.094980784 0.2211776
000180 2a f3 18 bf 3c 59 44 3e 8d a0 08 3f 6d eb 4e bd
       -0.5974604 0.19174665 0.5336998 -0.05051749
000190 62 d9 54 3d 8d a9 ec 3b a4 e9 d2 3c dd 67 87 3d
       0.051965125 0.0072223605 0.025746174 0.06611607
0001a0 cc ce 1a 3e d1 07 3e bd 1a 80 86 bc 23 a8 df ba
       0.15117949 -0.046394173 -0.016418505 -0.0017063658
0001b0 95 60 8f 3e e8 44 91 3e d1 a0 c1 be aa 37 ff 3e
       0.28003374 0.28372884 -0.37818006 0.49847156
0001c0 53 71 92 3e d6 5e e1 be 7f ae f4 bd 62 42 01 be
       0.28602085 -0.44017667 -0.11947345 -0.1262298
0001d0 13 84 86 be 5a d6 f8 bc 63 b6 a1 3d 38 79 8f bd
       -0.2627264 -0.030375648 0.07896116 -0.070055425
0001e0 8e 85 c0 3d b7 2e 2a 3e fd e1 78 3e 77 dc 05 3d
       0.094004735 0.16619383 0.24304958 0.032680955
0001f0 b8 2b af bd 30 0f 32 be f2 e3 54 be 45 ed 20 be
       -0.085532606 -0.17388606 -0.20790079 -0.15715511
000200 5d a4 8f be de 8d 11 3e 35 65 1e 3e 7e 21 4f be
       -0.28055087 0.14214274 0.15468295 -0.2022762
000210 e0 3c f0 3e 6a 60 25 3f 8d fe dd bb 00 10 81 bd
       0.46921444 0.6460024 -0.0067747296 -0.0630188
000220 80 de 12 bd 40 06 de bc 40 43 ff bd 59 6f 90 3d
       -0.035856724 -0.02710259 -0.12463999 0.07052488
000230 d5 4a d8 bd 9f 5b a7 bd a5 4f 89 3e 7f b5 11 3d
       -0.10561148 -0.08171772 0.26818576 0.03557348
000240 b4 19 c4 ba 4a 26 09 3d 65 71 a6 3d ef 0d 32 be
       -0.0014961273 0.03348378 0.08127097 -0.17388128
000250 3b 4d 62 bd c0 fc 30 be 69 9c b9 bd ff de f2 3d
       -0.055249434 -0.17283916 -0.09063036 0.118589394
000260 6c f0 b4 3d 32 50 1f 3e 22 49 0b bd f7 86 c0 3d
       0.08834919 0.15557936 -0.03400529 0.094007425
000270 53 16 a8 3c 9a 50 50 3e b8 9e 2f 3e cd ec 2c 3e
       0.020518458 0.20343247 0.1715039 0.16887207
000280 bc 85 ab 3d ea 78 69 3e 60 5f 38 3d dd d3 83 be
       0.08375117 0.22800031 0.04501283 -0.25747576
000290 86 4c f1 bc e2 c9 a1 bb af d7 cf 3d 85 ca 29 3e
       -0.029455435 -0.0049373964 0.1014856 0.16581161
0002a0 10 0d 5d bc 99 e2 9c bd 16 93 d4 3d 0d 7f a0 be
       -0.013491884 -0.076604076 0.10379617 -0.31346932
0002b0 de b7 15 3c af 11 3d be a0 b6 96 3d f8 57 94 be
       0.009138076 -0.18463777 0.07359052 -0.28973365
0002c0 03 d8 f5 3c d6 3a 2a be c2 82 00 bd d3 ac 5c 3d
       0.030010229 -0.16624007 -0.0313747 0.053875756
0002d0 30 e4 80 be 8b 1d 93 3e 98 fc 9e 3c 0f e9 2b 3e
       -0.25174093 0.28733477 0.019407555 0.16788124
0002e0 9e d9 c2 bd d3 cb 1a 3e b2 2c 7b bd 66 65 47 be
       -0.095141634 0.15116815 -0.06132192 -0.19472274
0002f0 c9 7f 14 3d ad 84 ef bc 00 1d bf bd 74 e6 7a 3d
       0.036254678 -0.02923807 -0.09331703 0.061254933
000300 bb 7c 87 be 82 07 0b 3e c4 79 ad be e4 ae 87 3e
       -0.2646235 0.13577083 -0.33881962 0.26500618
000310 0f ab b8 bc ec 87 8c bd 4c be a4 3e c9 b7 a3 bd
       -0.022542505 -0.068618625 0.32176435 -0.079940386
000320 87 c2 e9 3d 21 d7 11 be db 89 00 3e 19 df e9 bd
       0.11414056 -0.14242221 0.12552588 -0.114195056
000330 65 e2 a5 bd a4 5e df bd 3d 3a 06 be 8b eb bf 3d
       -0.08099822 -0.10906723 -0.13108154 0.09371098
000340 cd 7a 32 be f8 cf 3a 3e 33 8a 83 be e7 5a 10 3e
       -0.17429657 0.18243396 -0.25691375 0.14097176
000350 d8 3d 63 be 14 72 ae 3c d3 85 b1 be 8c 9d 1b 3e
       -0.2219156 0.021294631 -0.34672412 0.15196818
000360 25 51 40 be 27 b6 bb bd 13 77 7d 3e 46 a5 23 bc
       -0.18780954 -0.09165602 0.24752454 -0.009988135
000370 99 37 53 bd 99 d5 54 3e d2 5f d0 bc d7 63 b0 be
       -0.051566694 0.20784606 -0.025436316 -0.34451172
000380 e4 10 73 be 3d 4b 26 3d 9b 87 8d bd b2 ae 1e be
       -0.23736912 0.040599097 -0.0691063 -0.15496328
000390 8c 21 47 bd 25 f5 c9 bd ae 62 9d be 60 bf 93 be
       -0.048615977 -0.09861211 -0.3073935 -0.28856945
0003a0 51 3e fd bd 0f 09 9c be c2 4d 1b be c3 52 15 be
       -0.123654015 -0.3047566 -0.15166381 -0.14582352
0003b0 d3 b4 07 3e 05 e2 a8 3d 44 d4 5d 3e 33 ac 94 3e
       0.13252573 0.08246235 0.21663004 0.29037628
0003c0 59 a4 70 be 2d 7c c0 3d e6 26 42 3e de ad 4a 3d
       -0.23500194 0.09398685 0.18960151 0.04948222
0003d0 93 f0 18 3e dc 92 02 be 37 1b 16 be 11 f6 aa 3e
       0.14935522 -0.12751335 -0.14658819 0.3339086
0003e0 74 82 60 3c 81 82 aa 3d b3 f3 6d bd 72 d2 02 be
       0.013702977 0.08325673 -0.058093738 -0.12775591
0003f0 14 f2 56 be 9a 2f 8a bc b1 f2 f9 3c 68 9f 8e be
       -0.20990783 -0.016868401 0.030511232 -0.27855992

layer1.0.bn2.weight f4 [8]
000000 12 65 b4 3f 20 40 22 3f a4 2c 5f 3f b3 a0 31 3f
       1.4093344 0.63379097 0.8717749 0.6938583
000010 74 50 14 3f 1f e5 26 3f 56 0d a5 3f 72 4a b4 3f
       0.5793526 0.6519336 1.2894695 1.4085219

layer1.0.bn2.bias f4 [8]
000000 19 5e 7d 3e 1e cb 95 3d d6 5a b4 bd 5d c9 92 3e
       0.24742927 0.07314132 -0.08806388 0.28669253
000010 d5 6f 79 3d 35 83 cc 3e fa 14 c6 be 32 ad b4 bd
       0.060897667 0.39943853 -0.3868788 -0.08822097

layer1.0.bn2.running_mean f4 [8]
000000 f8 86 e8 be b1 30 55 3e 43 e3 46 be 94 b6 43 bd
       -0.45415473 0.20819356 -0.19422631 -0.047781542
000010 39 13 95 be 38 37 94 3e bd 41 03 bf 3c 89 a9 bc
       -0.29116228 0.2894838 -0.51272184 -0.020695321

layer1.0.bn2.running_var f4 [8]
000000 19 f1 29 3f b6 29 99 3e fa a6 40 3e 1a bc e3 3e
       0.6638351 0.29914635 0.18813697 0.44479448
000010 3e 65 77 3e 2a eb c3 3e e8 f7 f9 3e 95 85 f7 3e
       0.24159715 0.38265353 0.4882195 0.48344103

layer2.0.conv1.weight f4 [16, 8, 3, 3]
000000 aa 74 4a 3d 47 2e 8d bd e9 a6 d8 bc ab 50 96 bd
       0.049427666 -0.06893592 -0.026446776 -0.07339605
000010 fa fc ca bd db 91 b1 3c 2f 2e 89 bd a8 15 20 3b
       -0.09911533 0.021675995 -0.06698262 0.002442697
000020 13 68 e3 3d 7b ae a7 3e 35 55 9c 3e 65 5a 29 be
       0.11103835 0.32750306 0.30533758 -0.16538389
000030 8e db b8 3e cd a3 9a bd 3c d2 d2 be 7e ab c9 bd
       0.36105007 -0.07550774 -0.4117602 -0.09847163
000040 95 ca b6 be 11 7c e4 3d 71 bf 09 3d 74 bb 89 3d
       -0.35701433 0.11156476 0.03362984 0.06725207
000050 4b 98 65 3b 10 4c 3d 3e 12 04 1f bc 24 93 49 bd
       0.00350334 0.18486047 -0.00970556 -0.04921259
000060 58 8b ac 3d 45 b3 0b be 9e 3b 72 bd 1c ed 4e be
       0.08425015 -0.13642605 -0.059138887 -0.20207638
000070 84 ac 41 be 56 ba 4c 3e 40 f7 12 be 20 0f b4 3e
       -0.18913466 0.19992957 -0.14352131 0.3516779
000080 ed 71 aa 3e 35 dc 89 3e 13 0f d8 3e e8 ca 52 be
       0.33290043 0.26925817 0.42199 -0.20585215
000090 5e c9 41 bc 18 8a ef 3d 58 3d 60 3d 90 12 fc 3d
       -0.011827795 0.11696261 0.054746002 0.12308228
0000a0 90 a0 a2 bd 12 28 96 bd e4 1e 85 3c e9 93 23 be
       -0.07940781 -0.073318616 0.016250081 -0.15974392
0000b0 9f f8 cf 3d 9e 80 62 3e d8 de 4f bd ae 3e 5d be
       0.101548426 0.22119376 -0.05074963 -0.21605942
0000c0 52 6f 4d be f3 f3 f3 be 99 8d 1d be df 72 b9 be
       -0.20061997 -0.47647056 -0.15386046 -0.36220452
0000d0 1e 44 cb bd ca 11 4e 3e 54 92 51 bd da 7e ca 3c
       -0.09925102 0.20123973 -0.05116494 0.02471869
0000e0 9b c8 82 3c ff 8b 03 bd 65 dd 6f 3d 09 11 e1 3d
       0.015964797 -0.032115933 0.058560748 0.10989577
0000f0 42 02 3c 3e 82 8c ef 3d 0b a2 93 3b 33 56 b3 bd
       0.18360236 0.116967216 0.004505401 -0.087566756
000100 44 ac b6 3c ab 25 cd 3d 8a 31 c8 3d ed 05 36 3e
       0.02229894 0.1001695 0.09775074 0.17775698
000110 d9 17 05 3e 21 6f 4d 3e 33 fa da 3d 6e d3 0b bc
       0.12997378 0.20061924 0.10692253 -0.0085342955
000120 83 83 3d 3e 7c ce 9b 3e 23 17 64 3e 6c 38 79 3e
       0.18507199 0.30430973 0.22274451 0.2433793
000130 46 22 85 3e bc 9a 04 3e 6c ba 9e 3d 90 8c ac 39
       0.2600271 0.12949651 0.07750401 0.00032911124
000140 7d 6d 3a be 06 a7 2b bd f3 42 23 bd 7c 9e c8 3d
       -0.18205829 -0.041907333 -0.03985877 0.097958535
000150 74 a3 82 bc 7b 23 5d bd a9 f2 20 3d 2b 63 e2 bd
       -0.015947081 -0.053988915 0.03929392 -0.11054071
000160 d0 11 56 bd 2b 79 e0 bd 51 7f 08 3e d8 b0 67 3e
       -0.05226308 -0.10960611 0.13329817 0.22626054
000170 75 24 01 3e c1 d8 1c 3e 86 52 03 3e b6 08 80 3d
       0.12611564 0.1531706 0.12824449 0.062516615
000180 4d f6 c5 3c 59 0e 3c bc 1f 53 09 bd 98 4b fe bd
       0.024165297 -0.01147803 -0.033526536 -0.12416762
000190 5e b0 a8 3d d7 f0 f4 3c 1e 2c 02 bd f8 64 b1 be
       0.08236764 0.029899998 -0.031780355 -0.34647346
0001a0 bd c6 aa be ee 89 40 be d0 c2 b5 be 9c 0d c4 be
       -0.3335475 -0.18802616 -0.35500193 -0.38291633
0001b0 0b 17 ef 3b 25 0d a1 bc ef 26 0d bc e4 84 b0 bd
       0.007296448 -0.019659588 -0.0086152395 -0.08619097
0001c0 e0 27 28 be 39 98 b3 bd 21 5f 40 bd 88 f1 08 be
       -0.16421461 -0.087692685 -0.046965722 -0.13373387
0001d0 33 0c 5a be e1 c1 77 be 72 60 c8 be 3b a4 95 be
       -0.21293716 -0.24195053 -0.39136082 -0.2922686
0001e0 15 0a 90 be 59 1a 1c be f4 61 03 bd 03 70 53 be
       -0.28132692 -0.15244426 -0.032075837 -0.20648198
0001f0 93 ed d2 bc 81 61 2a be a9 a1 cc bd 2a 69 b9 bd
       -0.02574805 -0.16638757 -0.09991772 -0.090532616
000200 a4 e6 f6 bd 37 64 61 be 82 d0 16 be ad 5b 48 3d
       -0.1205571 -0.22010885 -0.14727977 0.048915554
000210 ad 82 75 bd 38 1b e8 3d ec 92 52 3e 5b 61 d3 3c
       -0.059939075 0.113333166 0.20563859 0.025803259
000220 4f 00 a3 3d 75 f3 f2 3d 50 3e 9b 3d d9 a9 82 3e
       0.07959043 0.11862842 0.075802445 0.25520208
000230 d1 fe 0b 3e 1b d0 1f 3e 3b 66 5e 3e 1c 9b dc bc
       0.13671423 0.1560673 0.21718685 -0.02692943
000240 a2 2e 12 be 45 3c d4 3d 1f be 58 bd a6 69 02 be
       -0.14275602 0.10363058 -0.05291569 -0.12735614
000250 18 a8 80 3e 35 4c 18 bd 9e d3 23 bd 86 08 74 3e
       0.25128245 -0.03718205 -0.039996736 0.23831376
000260 29 81 8e bd 5c 67 de 3b 95 6a 41 bc 8e ba 07 3d
       -0.06958229 0.0067872237 -0.011805196 0.033136897
000270 69 b6 e4 3d 83 8a 06 be 72 97 84 3c 60 98 89 3d
       0.111676045 -0.13138776 0.016185496 0.06718516
000280 bb f4 92 bd 0a 5e 84 bd 26 5c 02 be a2 0c 72 3d
       -0.07175585 -0.06463249 -0.12730464 0.05909408
000290 e8 92 bb 3b 95 76 57 be 67 c1 b8 bc 3e b5 ee 3d
       0.0057242997 -0.21041329 -0.022553159 0.11655663
0002a0 e8 9d b2 bd 39 d9 d0 3d b3 8a f0 3c 01 70 25 3c
       -0.087215245 0.10197682 0.029363012 0.010097505
0002b0 4e 80 8d bd 77 2e b4 3c fb fe 46 bd d2 8b 13 be
       -0.06909238 0.021994812 -0.048583012 -0.14408806
0002c0 0d 90 91 3d b0 f3 56 ba 56 b5 06 be 4c 79 f6 3d
       0.07107554 -0.00081997644 -0.13155112 0.12034854
0002d0 48 6e 9e 3d fc a0 f7 bd 2c 0e 91 3d 69 0c 2a 3c
       0.07735878 -0.12091252 0.07082781 0.010378935
0002e0 52 a4 00 be 76 7b 6e 3d 97 bd ae 3d 25 c2 ee bd
       -0.12562683 0.05822321 0.08532255 -0.11658124
0002f0 16 c4 89 3d 69 ae 40 be 10 d2 0a 3d 2e 28 6a 3c
       0.067268535 -0.18816532 0.033891737 0.014291806
000300 f4 d4 27 be 84 b0 47 3e bd 0a 12 3d 55 89 2e be
       -0.16389829 0.19500929 0.035654772 -0.17044576
000310 e0 bc aa bc ab e3 33 3e d6 13 45 be c9 35 91 3e
       -0.020842016 0.17567317 -0.19245848 0.28361347
000320 ef b5 ec bb c7 06 08 bf 4e f3 05 3f 85 8d 68 bd
       -0.0072238366 -0.5313534 0.5232438 -0.05677559
000330 48 96 bf be 9c ce b0 3e ac f3 32 3d fb 9a be 3e
       -0.37419343 0.3453263 0.043689415 0.37227616
000340 7d 7a 82 be 41 38 5c bd 6a 1e 03 3f 72 08 01 bf
       -0.25484076 -0.053764585 0.51218283 -0.5040351
000350 0a 7d 4e 3c 8f 89 ab 3e 0b fe af be 10 5d f0 bc
       0.012603054 0.33503386 -0.34373507 -0.02934125
000360 ec a8 b9 3d 4b e9 3c be 33 8b 17 3e f8 1d 27 bd
       0.090654224 -0.18448369 0.14799194 -0.040800065
000370 c5 48 0a 3f 9a c8 0f bf 19 86 eb 3c 15 0b 27 be
       0.5401729 -0.5616547 0.028750466 -0.16312821
000380 22 de 41 3e 61 fe be 3c 71 32 ab 3c 11 23 35 bd
       0.18932393 0.023314657 0.020898076 -0.044222895
000390 41 91 30 3c dc b2 3a bd b9 61 d6 bc b5 23 10 bd
       0.010776819 -0.04558073 -0.026169645 -0.035190303
0003a0 67 74 8a bc e5 e4 67 3d bb 52 c5 3c 10 d9 1c be
       -0.016901208 0.056614775 0.0240873 -0.15317178
0003b0 d2 8d 8d 3d 76 4a 80 bd 12 2e a5 be cd 11 e9 3d
       0.06911816 -0.06264202 -0.3226171 0.11380348
0003c0 b5 67 5a 3d 10 e1 fa bd b0 e5 8f 3b 3b 15 46 3c
       0.05332156 -0.122499585 0.0043913946 0.012090023
0003d0 7b 71 06 3d 84 ff 65 bd 70 7f cb 3c 3e 3a be 3c
       0.032823067 -0.05615188 0.02484104 0.023221131
0003e0 4c a5 bf bd fc 6d 18 3d 4f 7d e6 bd 9a e2 92 3d
       -0.093577 0.037214264 -0.112543695 0.07172127
0003f0 63 1a 4f 3c 4d 46 1f 3d 8a 60 ec bd 71 3d 65 3d
       0.012640568 0.038885403 -0.11541851 0.0559668

layer2.0.bn1.weight f4 [16]
000000 bd d6 09 3f ed c3 20 3f 5d 44 2a 3f 7b 06 33 3f
       0.5384329 0.6279896 0.66510564 0.69931763
000010 f6 21 b3 3e 7f 99 26 3f 9e 31 2c 3f ea d6 3d 3f
       0.34986848 0.65077966 0.6726321 0.7415606
000020 ae 30 56 3f dc b8 e2 3e 8c 5c 4b 3f f9 c7 21 3f
       0.8366803 0.44281662 0.7943809 0.6319576
000030 4b c7 45 3f 63 b9 e2 3e 09 3a 05 3f 5d 94 12 3f
       0.7725722 0.44282064 0.5204168 0.57257634

layer2.0.bn1.bias f4 [16]
000000 d7 ca a7 3c 7a 1f 5c 3e 16 ea 16 bd 81 35 9e bd
       0.020482464 0.21496382 -0.036844335 -0.07725049
000010 2f a6 71 3f 87 27 49 bd 99 36 64 bd 88 74 d0 bd
       0.943942 -0.04910996 -0.05571613 -0.101784766
000020 c2 1a 7a be ec e8 99 3e e9 7d 61 be 3b 6a 3e bd
       -0.2442427 0.30060518 -0.22020687 -0.046488028
000030 5d ab df bd 2b a0 77 3e ba e9 13 3f b0 d5 32 bd
       -0.10921357 0.24182193 0.57778513 -0.04366082

layer2.0.bn1.running_mean f4 [16]
000000 ca 5e 85 3e ec e4 cf bf 1f 6e c8 bd 6f 68 88 be
       0.2604888 -1.6241736 -0.09786629 -0.26642177
000010 c9 e8 8c be 84 de 28 be dd 0f 73 be 8e 77 63 bf
       -0.2752135 -0.16491133 -0.2373652 -0.888543
000020 1a 93 a8 bf ad e8 f8 3f 1e f2 50 bf 7e 90 c6 bd
       -1.3169892 1.9446007 -0.8161944 -0.096955284
000030 42 dd 4b bf 92 2e 3d 3b eb e8 af bf d4 bf 78 be
       -0.7963449 0.002886687 -1.3742956 -0.24291927

layer2.0.bn1.running_var f4 [16]
000000 88 5a 19 3f d6 e4 70 40 de 3e 0d 40 8a aa b0 3f
       0.59903765 3.763967 2.206962 1.3802044
000010 3d ab 3e 3f e1 bd 01 40 01 61 05 40 0c c4 da 3f
       0.7448004 2.0272143 2.0840456 1.7091079
000020 84 99 c7 3f 04 b9 e9 3f 14 a4 d0 3f 7d 94 ed 3f
       1.5593724 1.8259587 1.6300073 1.856094
000030 a9 5d eb 3f fb 7d a2 3f b6 38 e0 3f 2d 1f 70 3f
       1.8387958 1.2694696 1.7517307 0.9379757

layer2.0.conv2.weight f4 [16, 16, 3, 3]
000000 50 b3 89 bd f3 4b d3 bd 78 2f 89 bd ff e5 0c bd
       -0.06723654 -0.103172205 -0.06698507 -0.03439903
000010 ac 21 ca bc dc e4 61 bd b7 42 81 3a ea 4d 8a bd
       -0.02467426 -0.055149898 0.0009861802 -0.06753142
000020 15 32 25 bd b1 f6 34 be 35 a6 94 be 97 16 bb be
       -0.040330965 -0.1767223 -0.29033056 -0.36540672
000030 df 68 bb 3d 1c fb 0d 3e 7d 33 66 bd 61 d0 a0 3e
       0.09150862 0.13865322 -0.056201447 0.3140898
000040 08 2f 11 3f 85 6c 9d 3e 7e ad 5a bc cb e5 13 bd
       0.5671239 0.30746856 -0.013347028 -0.03610782
000050 50 3c b3 bc 59 25 c3 3b df b5 d3 bd 35 50 38 bd
       -0.021879345 0.00595538 -0.103374235 -0.044998366
000060 4a 78 22 3c c9 2a c2 3d 32 47 5a 3e b2 64 bf bd
       0.009916374 0.09480817 0.21316221 -0.09345378
000070 ed 97 90 3c be 3b b6 bd 35 2b 44 be b2 6c ab bd
       0.017650569 -0.08898114 -0.19157107 -0.08370341
000080 f3 75 75 bd b7 1e 6b 3c cd 8f 56 bd 91 e6 f5 3c
       -0.05992694 0.014350585 -0.052383233 0.03001717
000090 a1 29 9b 3d b0 21 1c 3c 73 a9 03 3e d1 cb 01 be
       0.075762995 0.009529516 0.12857608 -0.12675406
0000a0 26 bb 36 be ff 10 49 bd 7b 83 39 be 24 e2 05 be
       -0.17844829 -0.049088474 -0.18116562 -0.13074547
0000b0 2f 6d ee 3d 30 d4 f9 bd 94 bc 96 bd f9 64 ec bd
       0.11641919 -0.12198675 -0.07360187 -0.115426965
0000c0 78 ca 19 3e e1 f8 99 bd 8d 96 bb 3d 22 0a 97 3b
       0.15018642 -0.07518173 0.09159575 0.004609362
0000d0 70 fe 21 bd ac 46 99 bd 15 b1 6d bd 28 db ac bc
       -0.03954929 -0.07484183 -0.058030207 -0.021100596
0000e0 d3 7b 72 3d 48 5b 78 bc 68 0c 23 3e c0 23 d2 bc
       0.05920012 -0.015158482 0.15922701 -0.025651813
0000f0 a9 4d 8d 3c a9 dd 03 3e 67 e2 d3 3c 75 2e bf bd
       0.017248945 0.12877525 0.025864793 -0.09335033
000100 80 8f 1b bd 34 47 20 3d 9f c1 ab 3d a8 c9 14 3e
       -0.03797865 0.039130405 0.0838654 0.14530051
000110 1e f0 1d bc 67 e4 71 3d 81 9b 0d 3e a2 4e fe 3d
       -0.009639768 0.059055712 0.13828851 0.12417342
000120 d6 ac a6 bb 1b 01 57 3d e3 9e 40 bd c3 ff 44 3c
       -0.0050865216 0.05249129 -0.047026526 0.012023869
000130 f7 24 ee 3d 05 ef 6e be bf 82 89 bc cd a4 2f bd
       0.11628144 -0.23333366 -0.016785977 -0.042881776
000140 a0 db 90 bc e2 08 44 3e ea 98 83 3e 12 be 64 3e
       -0.01768285 0.19144014 0.25702602 0.22338131
000150 ac 94 08 be 57 8b 75 bd 00 79 00 bd 97 b5 4b be
       -0.13337964 -0.059947338 -0.031365395 -0.1989349
000160 68 d0 0e bf e3 c1 d9 be 97 c8 1e 3d 84 55 7d bd
       -0.5578675 -0.42530736 0.038765516 -0.061849132
000170 97 eb 24 3c 57 ce 91 3d 05 69 71 3e 02 26 1f 3c
       0.010065935 0.07119434 0.23575218 0.009713652
000180 60 cf 91 3c 60 ab 86 3c 50 b6 96 3d e8 2a b8 bd
       0.01779908 0.01643914 0.07358992 -0.08992559
000190 23 36 0f 3e 1f c7 2b 3d 70 88 95 bd aa 2a e0 3e
       0.13985495 0.041937944 -0.07301414 0.4378255
0001a0 1c 5e ad bc 75 14 a8 3b d9 c8 02 3d 62 80 b0 ba
       -0.021163039 0.005129392 0.031929825 -0.0013465995
0001b0 5e 56 81 bd 2c 76 b0 bd 37 80 97 bc b7 54 c7 bd
       -0.06315301 -0.086162895 -0.018493755 -0.09732955
0001c0 c8 91 27 3d ca 9c 51 bd bc ad 9b 3d c8 81 5c 3c
       0.040910512 -0.051174916 0.076014966 0.013458677
0001d0 1e a1 33 bc 2f 41 e7 3d 20 43 3e bd b3 d6 ab 3c
       -0.010963706 0.1129173 -0.046450734 0.0209764
0001e0 ef 12 a1 bc 45 7b 74 be 43 51 34 be a6 02 5e bd
       -0.019662349 -0.23875149 -0.17609124 -0.054201744
0001f0 a5 d3 d7 3d 05 5c 28 3d b5 26 a8 3c ec 97 ff bd
       0.10538415 0.04110338 0.02052627 -0.12480149
000200 8a 44 c4 bc 12 ed a6 bd 87 7d 14 be 5f 21 ef bd
       -0.023958463 -0.08150686 -0.1450101 -0.11676287
000210 b5 69 8c bd c3 8d ff bc 3e de b8 bb ff 24 99 bc
       -0.068560995 -0.031195527 -0.0056417277 -0.018694399
000220 f2 78 4f bd b7 ee d0 bd e9 7c b2 bd 99 78 c4 3c
       -0.05065245 -0.10201781 -0.08715231 0.023983287
000230 13 7c 0c be 3a b8 95 ba a1 17 6d bd f5 ad 96 bd
       -0.13719206 -0.0011422702 -0.057883862 -0.073573984
000240 9a ce 42 bc 4c e2 81 bd f4 e3 62 bd 3e e5 fb 3c
       -0.011890078 -0.06341991 -0.055393174 0.03074896
000250 d9 e3 1a be b0 18 4f be 66 32 c4 3d 3c 8d ae bd
       -0.1512598 -0.20224261 0.09579925 -0.08523032
000260 83 b3 7b bd e6 21 f4 3d 20 6a 5e 3c d4 ac b8 bd
       -0.061450493 0.11920528 0.013575107 -0.09017339
000270 ad 3a f8 3c b1 6e 87 bc 10 89 88 bd 18 e6 12 be
       0.030301416 -0.016532274 -0.066667676 -0.14345586
000280 6e f0 7e bb 69 84 cc 3c d2 21 a1 bd bf 28 7b 3e
       -0.0038900631 0.024965482 -0.07867779 0.24527262
000290 e4 43 0a be e5 69 03 be 33 fa 36 be a2 2d 25 3e
       -0.1350246 -0.12833364 -0.17868881 0.16130689
0002a0 90 7e 01 3e 8c a5 40 be 3f 13 d4 3d 9c 1a 90 bc
       0.12645936 -0.18813151 0.103552334 -0.017590813
0002b0 ea bc fd 3d 1d c6 37 be 0b 50 83 be 51 48 94 3d
       0.12389548 -0.17946668 -0.25647005 0.07240356
0002c0 5f 52 60 3e 3b 98 86 bd 57 e4 42 be 68 15 e3 3d
       0.21906422 -0.065720044 -0.19032417 0.11088067
0002d0 6a 9c b5 bd 67 3c d0 be d5 1f ce 3c 8a 88 86 3e
       -0.08867724 -0.40671083 0.025161663 0.26276046
0002e0 fb 1d 03 be 5b f8 cd 3c cc 61 56 3d e1 4d 8a 3e
       -0.12804405 0.02514284 0.05233936 0.27012542
0002f0 d8 00 27 be 4c 8b c1 3d 44 90 3d 3e e9 ca e9 bd
       -0.16308916 0.09450397 0.18512064 -0.11415655
000300 79 2b 03 bd 07 ca 1c be e9 f3 60 3e a3 07 92 3c
       -0.03202388 -0.15311442 0.21968044 0.017825907
000310 1c 0d 19 be d0 b5 cd bd 53 2c 9b 3d 5b 1b 00 3e
       -0.14946407 -0.100444436 0.075768135 0.12510435
000320 43 18 0a be 5e 68 5d be 7a 84 02 3e 64 94 47 be
       -0.13485818 -0.21621844 0.12745848 -0.194902
000330 35 d8 c6 bc de b5 13 be 1b fb 58 3e 49 16 63 3d
       -0.024273017 -0.14424846 0.21189539 0.055441175
000340 8f 62 84 3e 59 e1 84 3b 38 95 93 be a8 ac d6 3e
       0.25856444 0.004055184 -0.28824782 0.419286
000350 59 ef 21 3f 84 60 25 be 6f 97 8e be a0 9c 22 3e
       0.6325584 -0.16150099 -0.2784991 0.1588006
000360 19 68 09 3c 60 a3 da ba a6 b5 ad bd f9 65 ff bc
       0.008386635 -0.001668077 -0.08481912 -0.031176554
000370 7c b4 37 be f8 92 86 be 8a 6d 88 3d 1c 55 a6 3b
       -0.17939943 -0.26284003 0.06661518 0.005076064
000380 85 1c c8 3c 4c 68 a1 bd 78 bc a8 bd 27 6a c3 3d
       0.024427662 -0.07881221 -0.082390726 0.09541731
000390 8e ae ff bd f4 af 11 3e f5 ce 9a bd b3 29 32 bd
       -0.124844655 0.14227277 -0.07559005 -0.0434968
0003a0 d7 f0 83 3a 6f 10 8a bd 75 38 82 bc f8 7b bf bd
       0.0010066283 -0.06741416 -0.015896061 -0.09349817
0003b0 fc 72 04 be c9 58 1b 3d f0 8e c2 bd 71 56 24 be
       -0.12934488 0.03792647 -0.094999194 -0.160486
0003c0 5a 92 7e 3d 64 73 30 3c 6a 99 c4 3d 51 3a 2d 3d
       0.06215129 0.010769699 0.09599574 0.042291943
0003d0 25 b1 2c 3d 0b a6 c1 bd 43 fb b4 3c 85 ee 84 bd
       0.042161126 -0.09455498 0.022092467 -0.064908065
0003e0 86 a8 1a 3d 14 7b be 3c 19 44 35 bd b9 b6 f0 bd
       0.037758373 0.023252048 -0.044254396 -0.117536016
0003f0 9e ea f1 bd 73 a9 cd 3e 4d c1 da bc 00 d5 92 be
       -0.11812328 0.40168342 -0.026703501 -0.2867813

layer2.0.bn2.weight f4 [16]
000000 3c 9f 26 3f ef c4 52 3f 0c 7c 1f 3f 0e 1b 14 3f
       0.6508672 0.82331747 0.62298656 0.5785378
000010 3c 06 02 3f 89 ef 13 3f 1a 2e eb 3e 40 1a 4b 3f
       0.5079076 0.57787377 0.4593361 0.7933693
000020 95 1e 0d 3f ba 13 45 3f 06 fb 2d 3f f2 0c 0c 3f
       0.5512479 0.76983225 0.67961156 0.5470725
000030 35 a5 28 3f 65 29 1f 3f f7 31 eb 3e 3b 31 b1 3f
       0.65877086 0.6217254 0.45936558 1.3843149

layer2.0.bn2.bias f4 [16]
000000 9a 12 05 3b c5 59 10 be a1 e9 8b 3e fc ba 18 3f
       0.0020305277 -0.14096744 0.27326682 0.59660316
000010 cd f2 47 3e 73 6a 01 3f 96 54 1c 3f 6e 65 20 3d
       0.19526215 0.50553054 0.6106657 0.03915923
000020 af 27 44 bd 55 44 f6 bc 65 37 9d 3e d5 d8 ec bd
       -0.047889408 -0.03006188 0.30706325 -0.11564795
000030 b2 78 61 3d 4d 4f 21 3e aa b3 03 be c1 0b 64 be
       0.055046745 0.15752907 -0.12861505 -0.22270109

layer2.0.bn2.running_mean f4 [16]
000000 26 2b 5b bf dd 11 85 be e5 e1 21 be 77 fc 04 3e
       -0.85612714 -0.2599019 -0.15808828 0.12986933
000010 c6 46 23 bf 7b 27 62 3f 67 13 84 bf 2b f0 8b be
       -0.63779867 0.8834149 -1.0318421 -0.2733167
000020 cb ec ab be 01 53 a8 be 52 83 eb 3f 6a c0 5c bf
       -0.33579096 -0.32875827 1.8399451 -0.862311
000030 cf ab a9 3d 57 57 7e bf 46 05 4e 3f 41 a4 80 bf
       0.08284723 -0.9935202 0.80476797 -1.0050126

layer2.0.bn2.running_var f4 [16]
000000 30 ba 18 3f 0b ce b0 3e 9a 1a 2a 3f 7a 07 6b 3f
       0.596591 0.34532198 0.6644684 0.91808283
000010 8b e9 50 3f 26 b9 4e 3f ff 1e 49 3f 6d 3a fe 3e
       0.8160636 0.80751264 0.7856292 0.4965395
000020 a4 c1 78 3e 4b 44 38 3f 38 0a 98 3f 1d 08 84 3e
       0.24292618 0.71979207 1.1878119 0.2578744
000030 0d 61 3d 3f e6 56 06 3f 80 45 8e 3e 52 30 58 3f
       0.7397621 0.52476346 0.277874 0.8444873

layer2.0.shortcut.0.weight f4 [16, 8, 1, 1]
000000 01 fb ef 3e 74 ce ae 3d bb 3e 71 3d 09 51 a0 3e
       0.46871188 0.085354716 0.058897715 0.31311825
000010 09 cb 3b 3e 6c 6f 2a be 2d 43 84 bd 1a 4c 1a be
       0.1833917 -0.16644067 -0.06458125 -0.15068093
000020 10 2c 2a be a4 84 6b bd fb bf 42 3d 5a 3b 0a bc
       -0.16618371 -0.057499543 0.047546368 -0.008437002
000030 a9 96 83 3d e5 91 1c bd 58 5b 59 be 94 7f 24 3d
       0.064252205 -0.038225073 -0.21226251 0.04016073
000040 a8 d3 ae bc ee 56 2f 3d 80 c7 10 3e 91 7e c3 3e
       -0.02134116 0.042807512 0.14138603 0.381825
000050 ab c7 b3 3e 54 42 81 3e f8 70 e2 3d de 7b e8 bb
       0.35113272 0.25245917 0.11056703 -0.0070948442
000060 48 9c fb 3d 4c 37 0c 3e 8a dc 78 3e f6 a6 bf 3e
       0.12285668 0.13692969 0.24302879 0.3743207
000070 79 29 44 3e 66 14 0a bd ba 95 6f bd 8a 43 8e be
       0.19156446 -0.03371086 -0.0584924 -0.27785903
000080 87 91 81 3d e3 ea 12 3e d6 ad 01 3d ee 1c b6 be
       0.06326585 0.14347415 0.031659923 -0.35568947
000090 57 fe 7f 3e 3d c8 d6 3d 6a 8e 6a bd 55 85 a0 bd
       0.24999367 0.10487411 -0.057264723 -0.07837931
0000a0 a7 dd a5 bd 79 ff d0 bc cc 3b 81 3d 20 97 13 bc
       -0.080989175 -0.025512444 0.063102335 -0.009008199
0000b0 ab 5a 08 bd e2 3a 0c 3e b3 7d 09 be 01 ac 11 3e
       -0.033289593 0.13694337 -0.13426857 0.1422577
0000c0 3e 62 10 3e c4 12 82 3e 48 80 85 bd dc 63 a4 bd
       0.14099976 0.25404942 -0.06518608 -0.08026859
0000d0 ce af bd bc 22 2c b0 be 18 5a a3 bd aa d9 fd 3d
       -0.02315512 -0.3440867 -0.079761684 0.12395032
0000e0 62 93 94 3e 6f b9 9a bd c9 e9 12 be f4 19 ca bc
       0.29018694 -0.075549 -0.14346994 -0.024670579
0000f0 e9 e8 27 3d 12 09 9b 3e ae 83 36 be 54 7d 13 3d
       0.040993605 0.30280358 -0.1782367 0.036008194
000100 da 45 ca 3d df f2 a4 3e 24 0c 10 3d 02 ce a2 be
       0.098766044 0.32216546 0.03516783 -0.31797796
000110 f6 05 5c 3e d6 21 91 3d c7 30 d9 3b cc 09 a8 bd
       0.21486649 0.07086532 0.006628129 -0.082049936
000120 70 03 b0 3d 11 09 c3 3d 22 02 6a bd 8f fd 5a bd
       0.08594406 0.09523214 -0.05713094 -0.05346447
000130 4b 7e 72 3d a7 57 ab be d9 ea 1c be 98 a8 3b 3e
       0.059202474 -0.3346531 -0.15323962 0.18326032
000140 6f 00 20 3e 73 f2 e2 3d 5e 6c 42 3e 73 b3 28 be
       0.15625165 0.110814 0.18986651 -0.16474704
000150 fa fc 74 bd f9 86 2f be e7 0b 83 bd fd 95 11 be
       -0.05981157 -0.17141332 -0.063987546 -0.14217372
000160 55 26 32 3d b4 f8 ef 3e b7 7d fa bd 03 e4 c5 3d
       0.043493588 0.46869433 -0.122310095 0.096626304
000170 f4 67 2e bf 2c 72 89 3d c6 57 2f bc ec 44 2e 3c
       -0.6812737 0.0671123 -0.010702079 0.010636549
000180 ca bc d2 bc 03 68 83 be a5 2d d4 bc a4 99 62 3e
       -0.025724787 -0.25665292 -0.025900671 0.22128922
000190 1d 97 4c be 12 59 b0 be c2 20 88 bd c9 64 96 bc
       -0.1997952 -0.34442955 -0.06646873 -0.018358605
0001a0 3a 5e ac 3e 56 92 f1 3d ee a7 8f bc f8 81 10 3e
       0.3366564 0.117954895 -0.01753613 0.14112079
0001b0 f7 86 2d 3d 5f ec 67 be d6 3f bb bc a9 ca dc bd
       0.04236504 -0.22648762 -0.022857588 -0.10780842
0001c0 cd 65 15 3d 52 9c bd be 4c a8 ac 3c cb 6c 50 be
       0.036474038 -0.37033325 0.021076344 -0.20354001
0001d0 de 00 64 3f c1 d2 24 be e2 38 da bc da 64 ab bc
       0.89063823 -0.16096021 -0.026638452 -0.020922113
0001e0 96 a7 83 bd a6 6a 49 3c 76 d5 c0 be 3a 31 f8 bc
       -0.06428449 0.012293493 -0.37662858 -0.03029691
0001f0 fa 86 16 be a4 0e 96 3d b8 cd 20 3d ff f2 49 3e
       -0.14699927 0.07327011 0.03925869 0.19721602

layer2.0.shortcut.1.weight f4 [16]
000000 ff c5 f1 3e de 8b 04 3e d1 36 95 3e 86 9b 07 3e
       0.47221372 0.1294398 0.29143384 0.13242921
000010 fd 23 04 3e 17 0a 2d 3d c9 35 cb 3d 42 41 83 3e
       0.12904353 0.04224595 0.09922368 0.25635725
000020 b6 3d 90 3e c5 20 3f 3e 65 8a de 3d 96 18 14 3f
       0.28172082 0.18664844 0.108662404 0.57850015
000030 b0 0e 8c 3e 3a d4 49 3e 28 7f 22 3f 05 21 77 3e
       0.27354956 0.19709864 0.63475275 0.2413369

layer2.0.shortcut.1.bias f4 [16]
000000 9a 12 05 3b c5 59 10 be a1 e9 8b 3e fc ba 18 3f
       0.0020305277 -0.14096744 0.27326682 0.59660316
000010 cd f2 47 3e 73 6a 01 3f 96 54 1c 3f 6e 65 20 3d
       0.19526215 0.50553054 0.6106657 0.03915923
000020 af 27 44 bd 55 44 f6 bc 65 37 9d 3e d5 d8 ec bd
       -0.047889408 -0.03006188 0.30706325 -0.11564795
000030 b2 78 61 3d 4d 4f 21 3e aa b3 03 be c1 0b 64 be
       0.055046745 0.15752907 -0.12861505 -0.22270109

layer2.0.shortcut.1.running_mean f4 [16]
000000 8d 80 eb 3e 2d 7c 64 be c3 05 50 3f 31 16 c5 3e
       0.45996514 -0.22312994 0.8125879 0.38493493
000010 42 58 46 bc 2f e5 8b 3d 73 61 12 be 4e 08 a7 3e
       -0.012106003 0.06830823 -0.14294986 0.32623523
000020 88 4b dd 3d 5f 2f 38 be b2 c0 58 be fb 2c d5 bc
       0.10805422 -0.1798682 -0.21167257 -0.026022425
000030 8c 5e db be 9c ca 11 3e ec b0 68 3c 7b 85 59 bd
       -0.4284557 0.14237446 0.014202338 -0.053105813

layer2.0.shortcut.1.running_var f4 [16]
000000 49 f0 5f 3e ce 8d 66 3d e2 ec 33 3e 9a 6e e5 3d
       0.21869005 0.05628758 0.17570832 0.11202736
000010 b3 9a a1 3d d9 bb 0e 3d d4 f9 a3 3d 50 4d ee 3d
       0.07890835 0.034847114 0.08006635 0.1163584
000020 cb a1 d6 3d eb ca a1 3d 76 5a e9 3d 63 e3 0a 3e
       0.10480078 0.07900032 0.11394207 0.13563304
000030 79 bc 00 3e 1f 48 e0 3d 7d 84 42 3e 6b ce de 3d
       0.12571897 0.10951256 0.18995853 0.10879215
